data_10frm/model/0_0_9_10.pt (torch_old, 18399 bytes, 52 tensors)

rnn.weight_ih f4 [7, 22]
00000000: dd79 fd3e c152 833e eeca c23d 87cc cf3e
00000010: 6660 59bc 50b0 c43e 5c58 da3e 3507 043f
00000020: 9f40 d23e dc52 91be c073 9abe 6b1e d0be
00000030: 339b 78be a09a 2fbf c749 febe 9996 20be
00000040: f599 7fbd fe66 b3be 6871 6a3e dcb4 e5bc
00000050: d3e1 9dbe daa0 c4be 7cbc 2a3d 7899 19bd
00000060: 430c a43e 34ac ad3e 8466 553d 8954 263f
00000070: bd57 e8bd 0a0b 463d 32fd 88be cb00 b83b
00000080: a3c0 29be 2550 4fbf 3482 3abf 84ca 2bbf
00000090: 3b8f aebd 5d02 ebbe 5e72 04be d523 2abf
000000a0: 3582 efbd 5e16 07bf f7cc a8be ce48 d5be
000000b0: e738 79bf dac0 5dbf a398 11be 0cb8 6fbd
000000c0: 451f 82be 69ec 193c b640 48bf 1978 c2be
000000d0: ee27 483d f5fa cabe e6dc 583f 4f12 b43d
000000e0: 283d ccbe 1055 12bf d596 543d fbb3 673c
000000f0: 0430 8ebe 16c2 e23e 7039 6b3e dbe4 5a3e
00000100: 594b 34bf f95e 98be aac3 45bf b523 653f
00000110: 0775 75be cf1b 39bf 093d 103f b37c b43b
00000120: 98a0 d0be 3180 7d3e 1a73 b0bd b1bf da3e
00000130: 03ab 4abd 1618 983e dfcc b5be 945a b0be
00000140: 76fe e5be d278 b9be 613f 62bc b286 3b3d
00000150: 47b1 b63e c560 40be e723 65bf 558a 0abe
00000160: 766c 343d 2faa 163f 020e 8f3e 5c3f 3fbe
00000170: d606 43be 1e57 813e f62a aa3d f9af 05be
00000180: ebb9 fa3d 968a 97be 6b2e e4be 209f d8be
00000190: af91 0f3f ae66 7fbe 9cb9 99be 0ce4 2d3d
000001a0: 07d4 bdbe f71d 18bf 921d 743e 5034 d0bd
000001b0: 6cdb b33d ec52 d0bd f4be 0c3f 5594 ef3d
000001c0: 76b4 813e 829a 0e3e 34e5 8cbe cc48 2f3e
000001d0: 6205 703f 434d 88be 0b21 bbbe 211e b8be
000001e0: 1805 0cbf 4f8f 24bc 2914 993e 3384 a43e
000001f0: 9d2c 2f3e 8d0f 8dbd f526 76be 7b43 85be
00000200: d742 243e 64c1 db3e e4b1 7d3e 55a0 b93d
00000210: c27b 7c3f 522c cc3e 8f84 923e c2f5 9d3f
00000220: b843 6cbe 622e f63d b703 293f 8e70 1cbf
00000230: 8eeb 1dbe 8100 ffbd 9f81 17bf 56ca 8a3e
00000240: 61f8 4f3e ecf0 8fbe e8f7 503e 3c8a ec3d
00000250: b52c 403e f8a0 3f3a 866d 8abe 4a0b a93e
00000260: 8613 88bd e3b4 923e
0.49507037 0.25649074 0.09511362 0.4058573 -0.013267612 0.38415766 0.42645538 0.515735
0.41064927 -0.2838353 -0.30166435 -0.40648207 -0.24277954 -0.68595314 -0.49665663 -0.15682448
-0.062402684 -0.35039514 0.22894824 -0.028040342 -0.30836353 -0.3840397 0.04168366 -0.037499875
0.32040605 0.33920443 0.05209972 0.6497274 -0.1134486 0.04835037 -0.26755673 0.005615329
-0.16577391 -0.80981666 -0.72854924 -0.6710589 -0.08523413 -0.4590024 -0.12934253 -0.66460925
-0.11694757 -0.52768505 -0.32968876 -0.41657108 -0.9735245 -0.86622393 -0.14218383 -0.05852513
-0.25414482 0.0093947435 -0.7822374 -0.37982252 0.048866205 -0.3964459 0.84712064 0.087925546
-0.3989041 -0.57161045 0.051901657 0.014142032 -0.27771008 0.442887 0.2297113 0.21376364
-0.7042747 -0.29759958 -0.77251685 0.8950761 -0.23970424 -0.7230806 0.5634313 0.0055080294
-0.40747523 0.24755932 -0.08615704 0.42724374 -0.049479496 0.29705876 -0.35507867 -0.34444106
-0.449207 -0.3622499 -0.013809056 0.045782752 0.35682127 -0.18786915 -0.8950791 -0.13529332
0.04404875 0.5885343 0.27940375 -0.18676513 -0.19045576 0.25261778 0.083089754 -0.1305541
0.12242492 -0.2959792 -0.44566664 -0.42308903 0.5608167 -0.24941513 -0.3002442 0.04245381
-0.37075827 -0.5942072 0.23839405 -0.10166228 0.08782086 -0.10172066 0.5497887 0.11698214
0.25332993 0.13926128 -0.27518618 0.17117614 0.93758214 -0.26621446 -0.36548647 -0.35960487
-0.5469527 -0.010043933 0.29898193 0.3213211 0.17106862 -0.06887732 -0.24038298 -0.26028046
0.16041122 0.42920983 0.24774891 0.09063784 0.9862634 0.39877564 0.2861676 1.2340624
-0.23072708 0.120205656 0.66021293 -0.61109245 -0.15421888 -0.12451268 -0.5918216 0.27107495
0.20309593 -0.28113496 0.20407069 0.115498036 0.18767054 0.0007310058 -0.27036685 0.33016425
-0.06644349 0.2865363

rnn.weight_hh f4 [7, 7]
00000000: ba95 b63d f66f cbbe 5238 2dbf d087 f9be
00000010: 659a c5bd 1ed8 3bbf a8a8 3abf d4a5 3bbe
00000020: a024 13be 68a1 16be ea6e 19bf 0f1a 65be
00000030: 4435 1dbf 4d98 efbe b281 bcbe 1231 c5bd
00000040: ea38 fa3e 0a4c 94be f7d9 9fbe a7cb 26bf
00000050: 9f1b 14bd 21be 8a3d 5ea2 8e3e 5615 ccbe
00000060: f2eb de3e c647 9d3d 49ea 7abf 93b8 2dbf
00000070: 4547 14bf b422 68be 4ef6 35bf 9b91 56be
00000080: e0b7 453e e134 5ebf 049e 06bf 4de0 11be
00000090: 8ce6 a33e 5f74 2fbf c747 37bf 74c1 86be
000000a0: a5c3 843f 30d5 70bf df90 56bd 1f25 573e
000000b0: 2ec3 92bd aa9b 19bf 2c9b 81bd 12bb 4bbf
000000c0: 2f84 6a3f
0.08915277 -0.39733857 -0.6766406 -0.4873643 -0.09648589 -0.73376644 -0.729136 -0.18324977
-0.1436944 -0.14710009 -0.59934866 -0.22373222 -0.614094 -0.46795884 -0.368177 -0.096285
0.48871547 -0.28964263 -0.3122098 -0.651545 -0.036159154 0.067745455 0.2785825 -0.39860028
0.43539387 0.07679705 -0.9801374 -0.6785976 -0.5792125 -0.22669488 -0.71078956 -0.20953982
0.19308424 -0.86799437 -0.5258486 -0.1424572 0.3201183 -0.68536943 -0.715939 -0.26319468
1.0372206 -0.940753 -0.052384254 0.21010254 -0.07166134 -0.6000315 -0.06328425 -0.7958232
0.91607946

rnn.bias_ih f4 [7]
00000000: 3c2b 9ebe a8e2 5bbe 842b 06bd fd68 cabd
00000010: c85a 38be 2d4a 1f3e 75fa 143e
-0.3089236 -0.21473181 -0.032756343 -0.09883306 -0.1800338 0.1555564 0.14548667

rnn.bias_hh f4 [7]
00000000: b408 d1bd 1b63 a7be 8b8e c4be 86ce 523e
00000010: be40 253e 67a6 ce3e fc9b 7c3e
-0.10206738 -0.326928 -0.38390002 0.20586595 0.16137978 0.4036133 0.24668878

exp_avg f4 [7, 22]
00000000: e363 9bb8 a7ba b1b9 f92d 57ba 1bd9 b9b8
00000010: e09a 86b9 214d 4fba c389 e5b9 1b2d 98b9
00000020: 7f5c a4ba c2d4 0739 9cdd 9439 2474 103a
00000030: 1cff a339 93e3 003a 364e 8b39 9de2 9a37
00000040: ac32 9038 5c40 5539 2ff1 8637 7f24 8d38
00000050: a164 8539 faa6 2839 8bd2 7837 3d7f 0eb8
00000060: dc8b 2fba 722d e5b8 c134 ce36 aafe 2eba
00000070: 96e1 13b9 88b6 1737 fc98 8138 c4ff 3938
00000080: db00 1c39 7d7c 0839 ad7b 9438 65fc dc38
00000090: b2aa d738 42d1 4338 f9f0 4b38 e528 0f39
000000a0: e511 1939 595b 5738 accd 0c39 87d0 d438
000000b0: 4d6b de3b d69a ca3b c64c c33b 2436 993b
000000c0: 20f6 3339 1e98 cd3b 6132 753c f4c0 8939
000000d0: 9994 f2b9 7571 0aba cdde d9bb 6e95 8139
000000e0: f74f e839 21f6 493a c9be 71ba 8855 1db9
000000f0: ff73 4db9 64f1 edbb fda0 2bbb 14eb 2136
00000100: 2988 003b 762a 983a f6a3 aa39 9612 38bb
00000110: c282 66bc b180 a2b6 bed7 483a 020c 80bc
00000120: 0da2 a438 103d a13a 8571 6f3b 70b6 67b9
00000130: 4453 a43b 75d3 c43a 57cc 9a3a f673 4a3b
00000140: 64b6 c13a bc91 873a b499 833a a457 ac3b
00000150: 8a16 f9ba 339b 7a3a 4bdf 973b e519 9a3b
00000160: e5a8 16b8 3b07 96b9 f762 7dba 2b21 bd39
00000170: 9d2c a8b8 2c1e 8cba d5f1 9eb9 7227 a4b8
00000180: b2e9 ae39 0449 b939 7f68 23b9 1e36 8f38
00000190: 709d 5eba d32e 203a afa5 3c3a 0a16 5b38
000001a0: 94cd 9438 8e15 ff39 05c2 30b9 a50b 32b9
000001b0: c6ea a339 83d3 023a c82f 3939 789c 4d3a
000001c0: ca83 2438 0c3f 0fbb d8b6 d739 7ac9 7036
000001d0: 15a3 4cbb 8fee 6d3a bddd 203b 61f4 dfb9
000001e0: bcd5 bc3a d940 8c3b 00b0 e93a 0fd8 f5bb
000001f0: 4dcb b4ba 6519 dfb7 1354 a0b8 903c fe3a
00000200: 69bf 973b 6a6f 3839 1c99 25bc 040e 873b
00000210: 342c d4bb 8be4 5bbb 51a4 853c 2528 22ba
00000220: 9f84 81ba bbb3 8c3c ef28 febb 8a6d ffba
00000230: 00f9 b1bb 99ea 73ba 41cf c537 6e3c 08bc
00000240: cce5 9abb 68d7 b73a 8647 4b3a 95fc dbba
00000250: df8c d1ba 33e8 98ba be41 18bb 03b7 f6ba
00000260: 84ac cc3a e68b 25bc
-7.409581e-05 -0.00033899138 -0.00082084496 -8.8619265e-05 -0.00025673863 -0.00079079164 -0.00043780924 -0.00029025305
-0.0012539773 0.00012953862 0.00028393872 0.00055104704 0.00031279854 0.00049167237 0.00026570418 1.8463756e-05
6.8758935e-05 0.00020337239 1.6086355e-05 6.730202e-05 0.0002544271 0.00016083932 1.4830973e-05 -3.3973938e-05
-0.0006696561 -0.00010928036 6.14542e-06 -0.0006675521 -0.0001410305 9.0428e-06 6.179695e-05 4.4345637e-05
0.00014877638 0.00013016346 7.080226e-05 0.000105374296 0.000102837934 4.668651e-05 4.8623395e-05 0.00013652777
0.00014597883 5.134507e-05 0.00013428059 0.00010147789 0.0067876936 0.0061830087 0.00596008 0.0046756435
0.00017162459 0.0062742373 0.014965625 0.00026274438 -0.0004626855 -0.00052811886 -0.0066488744 0.0002471613
0.00044310067 0.00077042176 -0.00092218496 -0.0001500455 -0.00019593535 -0.007261442 -0.0026188486 2.4127703e-06
0.0019612408 0.0011609334 0.00032547087 -0.002808725 -0.014069261 -4.842958e-06 0.00076615426 -0.015630726
7.850314e-05 0.0012301523 0.0036536169 -0.0002209784 0.005014809 0.0015016632 0.0011810166 0.0030891872
0.0014779088 0.0010343115 0.0010040314 0.005259471 -0.001900391 0.00095598696 0.004634773 0.004702794
-3.5920082e-05 -0.00028615617 -0.0009665931 0.000360736 -8.019174e-05 -0.0010690144 -0.00030316287 -7.827477e-05
0.00033361983 0.0003534035 -0.00015583819 6.8288515e-05 -0.0008492088 0.0006110493 0.00071963196 5.2234194e-05
7.095482e-05 0.0004865345 -0.00016856946 -0.00016979741 0.00031264703 0.0004990624 0.00017660775 0.0007843445
3.9223385e-05 -0.0021857647 0.00041144225 3.5880062e-06 -0.0031225134 0.00090763805 0.0024546229 -0.0004271595
0.001440696 0.0042801914 0.0017828941 -0.007502563 -0.0013793499 -2.6595497e-05 -7.6450546e-05 0.0019396711
0.004630972 0.00017589112 -0.010107305 0.004121544 -0.006474996 -0.003355297 0.016313704 -0.00061857916
-0.0009881443 0.017175546 -0.0077563445 -0.0019487601 -0.0054312944 -0.0009304672 2.358074e-05 -0.008315189
-0.004727101 0.0014025988 0.0007754493 -0.0016783649 -0.0015987417 -0.001166588 -0.0023232545 -0.0018822852
0.0015615379 -0.010104155

exp_avg_sq f4 [7, 22]
00000000: f81e ed35 fb6d a635 7cda 3538 2345 8b35
00000010: d444 4535 c34d 3b38 11e1 6436 6f2f 9235
00000020: 89d0 3e37 d51a 1f35 b7b0 5835 d6d7 4735
00000030: 0a0c ef34 04b0 c534 352e f134 4978 9934
00000040: e718 0335 f5a1 6c35 31c0 8436 6044 0f35
00000050: 4c09 9035 c092 b435 8619 a135 b7f9 cf34
00000060: 3906 1d38 18fc 4736 8d2c 4833 e00e 1838
00000070: 9845 2c37 c22e 8633 c7d6 2035 7f67 6835
00000080: cc4c 4e36 4e71 5435 f030 3235 8854 d434
00000090: 7c98 8135 d154 7c34 64ae 6635 1e23 ba35
000000a0: a93c 2236 c573 2a35 8c2f 5b34 b5c4 8235
000000b0: e86c e438 ecad 2738 22a3 6e3b 93b0 ab39
000000c0: 7fb2 5936 98ad 643b c5d1 9a3a 59e4 8236
000000d0: 9d65 0938 6bd6 9638 6b2e b739 5af2 2a39
000000e0: f299 2d38 c44b 4438 0756 3038 e112 8837
000000f0: 9c1f bc37 4430 9039 e398 cf39 f266 f437
00000100: c607 1638 b224 4b38 e4dd aa38 478e 8e37
00000110: 6b35 4d3b 9a65 8339 95d9 9736 c2fa 423b
00000120: 357c 4a3a 07ea c036 e068 1438 4106 af38
00000130: 0de5 1f39 7e76 3c39 3288 5a38 c756 8238
00000140: 6ab1 5738 e294 8137 7302 af37 fcb5 3b39
00000150: 2895 9a39 a5b8 fd37 83f3 7638 d6ca 8738
00000160: 830f cc36 16d1 0d36 4a1b 0c3a bb04 0238
00000170: 2e78 a434 fdbf 053a e041 4038 57d7 4035
00000180: ebbb 4b37 6c59 1837 3cc1 4837 07e9 7337
00000190: 8481 2638 e087 0737 792e c936 52d2 4236
000001a0: 9735 8d36 76dc 9f37 76be 4038 9fa2 de36
000001b0: ef2b 2037 b035 5837 729b 0d39 6c0f a236
000001c0: fbc1 743b d7fe 2338 6d55 0136 1b4c 7b3b
000001d0: 49be 3539 b1c1 6036 297e 1038 5dbe c537
000001e0: 74b8 1638 fa0b 2e39 bf32 8238 f48f a139
000001f0: 9f13 0339 73c9 a637 fd0d 9f37 cc43 6e38
00000200: 0b13 2239 84e7 e937 d6bd ab39 7969 3139
00000210: 0a52 4f39 8abe 8237 1355 653b a3ea 7b38
00000220: 28c8 9536 f542 6f3b 3fc4 b439 a522 1737
00000230: 740d 6b38 e429 f437 865b 5838 00d7 7a39
00000240: a9a1 ac38 091f 1139 b82d c738 c0d8 ae37
00000250: 7c35 af37 eea2 9038 182b 3b39 5f5f 0738
00000260: 30dd 4039 a342 4d39
1.7666889e-06 1.2399972e-06 4.3357242e-05 1.0376428e-06 7.3488377e-07 4.4656696e-05 3.4105653e-06 1.0891653e-06
1.1373436e-05 5.927116e-07 8.0723424e-07 7.444736e-07 4.452598e-07 3.6822178e-07 4.4923368e-07 2.858599e-07
4.883754e-07 8.815253e-07 3.9562806e-06 5.337115e-07 1.0731542e-06 1.3453755e-06 1.2002863e-06 3.8738446e-07
3.7437512e-05 2.9800049e-06 4.6606647e-08 3.6253477e-05 1.02682025e-05 6.2483664e-08 5.9917187e-07 8.657734e-07
3.0741094e-06 7.9141034e-07 6.638138e-07 3.9549582e-07 9.655628e-07 2.3500185e-07 8.593545e-07 1.38683e-06
2.417519e-06 6.34984e-07 2.0413262e-07 9.743004e-07 0.000108921726 3.997788e-05 0.0036413153 0.0003274722
3.2439418e-06 0.003489351 0.0011811784 3.900885e-06 3.275798e-05 7.192496e-05 0.00034939064 0.00016302746
4.1389787e-05 4.6800604e-05 4.204179e-05 1.6221255e-05 2.2426066e-05 0.0002750178 0.00039596026 2.9135004e-05
3.5770026e-05 4.8433147e-05 8.147562e-05 1.6993972e-05 0.0031312357 0.00025061966 4.5254806e-06 0.0029751514
0.0007724197 5.7492903e-06 3.5383622e-05 8.345815e-05 0.0001524875 0.00017973219 5.2102092e-05 6.2150466e-05
5.1425224e-05 1.5447327e-05 2.0862766e-05 0.00017901504 0.000294843 3.0245932e-05 5.887776e-05 6.475083e-05
6.0814796e-06 2.1132341e-06 0.00053446426 3.099882e-05 3.0634823e-07 0.0005102156 4.5837718e-05 7.1838934e-07
1.2143496e-05 9.080726e-06 1.196592e-05 1.4538185e-05 3.9698105e-05 8.078263e-06 5.995677e-06 2.9030675e-06
4.208366e-06 1.9056937e-05 4.5953748e-05 6.635047e-06 9.546972e-06 1.2887103e-05 0.00013504716 4.8297716e-06
0.0037347067 3.9099566e-05 1.9272222e-06 0.0038344923 0.00017332392 3.3491344e-06 3.444977e-05 2.3572875e-05
3.5934572e-05 0.00016598395 6.208335e-05 0.00030815566 0.00012500443 1.988255e-05 1.896079e-05 5.6806763e-05
0.00015456618 2.7883572e-05 0.000327571 0.00016919327 0.0001977162 1.5585934e-05 0.0034993335 6.0061586e-05
4.4638473e-06 0.0036508415 0.0003447849 9.008368e-06 5.6040895e-05 2.9106573e-05 5.158365e-05 0.00023921952
8.231711e-05 0.00013839839 9.497575e-05 2.0843348e-05 2.0886531e-05 6.896803e-05 0.00017849763 3.227533e-05
0.00018392946 0.00019575148

exp_avg f4 [7, 7]
00000000: 2d6b bbba ca6a c738 c1d8 9339 dbc8 c439
00000010: c93b 8d39 88b1 1f3a 0542 153a 0dab 1438
00000020: 70b8 e337 2e02 5239 1432 e638 688b 5a38
00000030: 04af 1039 7fbe db38 b235 1aba 2e0a 36ba
00000040: 6dd4 68bc 14d4 8a3b d338 dd39 d7dc 093b
00000050: 626c d43a a1ce 793a 905f 8f39 7180 5f3c
00000060: 9324 75bc eb16 df3a ec16 b93b 4633 0a3c
00000070: 8505 8c39 1aca 2d39 e757 6c3a 79ce db3a
00000080: d601 b2bb 307d c83a 3c0a 003b cd87 d0b9
00000090: bcc3 81ba dc19 b53a 25b3 bc3b c28e d33a
000000a0: 585b acbc 1983 6a3c 850b 0fba d4f8 73ba
000000b0: ed12 9d38 5bb3 b0b8 f150 c7ba 3f0f 1c3c
000000c0: 0552 c2bc
-0.0014298909 9.5089505e-05 0.0002819952 0.00037533682 0.0002693816 0.0006091823 0.00056937366 3.5445253e-05
2.7146394e-05 0.00020027973 0.000109765824 5.2105082e-05 0.00013798109 0.000104782164 -0.0005882635 -0.0006944266
-0.0142108025 0.0042367075 0.00042194742 0.0021036172 0.0016206617 0.00095293863 0.00027346285 0.013641463
-0.014962333 0.001702038 0.0056484845 0.008435076 0.00026706993 0.00016573854 0.0009015784 0.0016769908
-0.0054323478 0.0015296098 0.001953735 -0.0003977403 -0.0009900252 0.0013816911 0.0057586604 0.0016140568
-0.02103965 0.014313483 -0.00054567336 -0.00093067926 7.4898686e-05 -8.4257415e-05 -0.0015206618 0.009525119
-0.02372075

exp_avg_sq f4 [7, 7]
00000000: b648 4537 fafe 6b34 7a1e 5835 e61c 0436
00000010: 7cd7 ff34 b5fe 0035 6f48 5435 d18b 7934
00000020: b169 da34 030f b236 d12a 2536 8567 3d35
00000030: 139e c234 47e5 8835 1886 0e37 265b 3f37
00000040: 3b31 1d3a 31f7 fb39 e955 c437 35ca 2538
00000050: d4e5 2638 1100 1f37 7567 1537 4bd8 8039
00000060: d7a9 233a b023 af37 c084 b438 d0d7 0539
00000070: bd62 b935 dc94 e135 787b 3037 0e4d 2838
00000080: bd47 e138 6796 b836 7094 3f37 78ff 7337
00000090: d9be 2837 317f 0338 e486 bd38 e222 a337
000000a0: 180f 5b3a 4a82 8d39 1435 5837 fd1f 1637
000000b0: f104 6338 92e5 dd38 6728 0438 b1f1 9339
000000c0: 95c6 143a
1.1759044e-05 2.197884e-07 8.051062e-07 1.9686354e-06 4.7654237e-07 4.8054363e-07 7.908156e-07 2.3240797e-07
4.0682565e-07 5.306561e-06 2.4611838e-06 7.055863e-07 3.625033e-07 1.0199518e-06 8.495081e-06 1.1405709e-05
0.00059964106 0.00048058623 2.3405026e-05 3.9527386e-05 3.979153e-05 9.477154e-06 8.90518e-06 0.00024575213
0.00062432647 2.0878244e-05 8.6077955e-05 0.00012764265 1.3812311e-06 1.680713e-06 1.0519165e-05 4.0126084e-05
0.00010742198 5.5011365e-06 1.1419048e-05 1.454341e-05 1.00580155e-05 3.135129e-05 9.0373476e-05 1.9447358e-05
0.0008356436 0.0002699069 1.28869615e-05 8.948145e-06 5.412562e-05 0.00010580862 3.150888e-05 0.000282181
0.0005675343

exp_avg f4 [7]
00000000: 2d09 513a 229a 343a ab99 e8bb 99a0 803c
00000010: 5cca 8e3a 1dcb 2b3a 31df 8cbc
0.00079740846 0.00068894227 -0.007098397 0.015701579 0.0010894048 0.00065533986 -0.01719627

exp_avg_sq f4 [7]
00000000: 0a7a 4338 5385 2538 972e 7b3b b466 543b
00000010: 8a04 0f3a 2371 7f3b 9229 753b
4.660528e-05 3.9463233e-05 0.003832733 0.0032409849 0.00054556935 0.0038977347 0.003740881

exp_avg f4 [7]
00000000: 0494 513a d44e 343a 21b7 e8bb fda6 803c
00000010: ea3c 8f3a 7771 2c3a 11dd 8cbc
0.00079947733 0.00068782014 -0.007101909 0.015704626 0.0010928188 0.0006578187 -0.017195256

exp_avg_sq f4 [7]
00000000: 257b 4338 1b83 2538 8a2e 7b3b c266 543b
00000010: d404 0f3a 0e71 7f3b 9029 753b
4.660631e-05 3.9461167e-05 0.00383273 0.0032409881 0.00054557365 0.0038977298 0.0037408806

exp_avg f4 [7, 22]
00000000: 2ebe 9a37 c277 de38 6b59 4aba 190a a6b8
00000010: 9101 ce38 b9a4 4bba 6831 c2b8 b644 f638
00000020: dbe4 74b8 b849 b238 c95a 2b39 2320 6739
00000030: 85a3 0739 9a09 fe38 2e92 ed38 f8b7 6438
00000040: 85c1 0639 b4ec 4d38 bee4 2c39 21c7 4f38
00000050: 45b1 6e39 59ae da38 3189 9cbb f84c 2a3a
00000060: 490f 11bc 8254 78bb 2734 0c3b 9779 f8bb
00000070: e26a 57bc 3b61 a638 8bd5 383a 28d4 2dbb
00000080: 344b 123b 2e45 503b 117e b03a f7ec ee3a
00000090: 9311 993a d117 263a 242e 9fbb 0387 223a
000000a0: 2b85 6b3b a868 2d3a 3abd a03b 1c59 133b
000000b0: 35e2 bb37 66a8 3638 510d 6db9 2091 86b7
000000c0: ceb3 0e38 61f4 71b9 acfd 4935 e94a 5238
000000d0: c695 a837 ebbd e437 89b6 0a38 be9e 4f38
000000e0: 9859 0538 21fa eb37 82cc eb37 e281 4a37
000000f0: 1899 3f38 35d0 6237 3d4e 3038 ef33 7337
00000100: 8e8f 6638 b499 0d38 99c7 103a bd79 383c
00000110: 2832 7fbd 9070 d7bb 76ba 223c f2aa 7fbd
00000120: 8cb8 5ebb a37c 303c 1187 903b ad77 5c3b
00000130: 21e6 0f3c 99b5 893c 2734 363c e626 373c
00000140: 727d 023c 6e0a a13b 4c56 093c 6cd9 9f3b
00000150: 3eda 243c 18b7 a43b a5eb b13c 08a6 0d3c
00000160: d2da 0938 92ec 4839 71ba 5cba bd60 6bb8
00000170: 7915 1939 21fa 62ba d519 98b8 efc0 5039
00000180: 11b0 1f39 8ad5 3439 c59d 9db8 ea53 9839
00000190: 0520 63b9 050f ab39 14c1 6f39 1de2 8038
000001a0: 0824 1d39 b412 8138 6269 0939 c441 6738
000001b0: 8276 ba39 c3a4 7d38 71a3 853b faee ccbb
000001c0: 8971 353d 268f 083c 623c d9bb dbbc 313d
000001d0: f90b 3d3c 8480 ccbb dbc9 fcba 8dc4 38bb
000001e0: 6506 4bbb fa67 47bc 3c16 e8bb 4467 41bc
000001f0: 2f23 b4bb 59c2 5fbb fccd daba bb5a 5fbb
00000200: 37bd 05bc 484f 66bb 724f b2bc 6c44 21bb
00000210: 3542 1bba eb2b cfbb e606 053d 01f3 a33a
00000220: 9b6b b6bb 8dec 043d 9a2a 8c3b cbe8 a4bb
00000230: b41c 48bb 5489 343a 2180 04bc a335 f7bb
00000240: 4c42 92bb cfad 61bb 784f ddbb 0541 2cbb
00000250: dc36 49bb d63a 29bb f56a d2bb 8913 2ebb
00000260: 9f4d a1bb a804 2abc
1.844679e-05 0.000106080915 -0.0007719013 -7.917378e-05 9.823137e-05 -0.0007768381 -9.2598435e-05 0.000117429925
-5.838727e-05 8.5014326e-05 0.00016341651 0.00022041849 0.00012935519 0.00012113452 0.00011328269 5.453077e-05
0.00012851327 4.9096256e-05 0.00016488411 4.95381e-05 0.00022763487 0.00010427525 -0.0047770967 0.00064964546
-0.008853742 -0.0037892167 0.002139339 -0.007582854 -0.013148041 7.9336074e-05 0.00070508634 -0.002652416
0.0022322657 0.0031779516 0.0013465305 0.001822858 0.0011678211 0.00063359464 -0.0048577953 0.0006199928
0.0035937529 0.0006615021 0.00490537 0.0022483533 2.2397473e-05 4.3549015e-05 -0.00022607042 -1.6041624e-05
3.4022894e-05 -0.00023074589 7.5247476e-07 5.0137667e-05 2.0096904e-05 2.7268155e-05 3.3071763e-05 4.9500486e-05
3.179311e-05 2.8130658e-05 2.8109414e-05 1.2070379e-05 4.568053e-05 1.3519127e-05 4.2034535e-05 1.449602e-05
5.496997e-05 3.3760167e-05 0.00055229064 0.011259493 -0.062303692 -0.006574698 0.009932151 -0.062418886
-0.003398451 0.010771903 0.0044106324 0.0033640668 0.008782894 0.016810225 0.0111208325 0.011178708
0.007964479 0.0049145734 0.008382391 0.0048782136 0.010061799 0.0050267093 0.02171881 0.008645542
3.2867138e-05 0.00019161616 -0.0008420116 -5.611846e-05 0.00014599216 -0.0008658488 -7.2527364e-05 0.00019908299
0.00015229011 0.00017245687 -7.51573e-05 0.0002905422 -0.00021660335 0.00032626852 0.00022864743 6.1456325e-05
0.0001498611 6.154683e-05 0.00013104596 5.513594e-05 0.0003556498 6.0473347e-05 0.0040783216 -0.006254074
0.04429773 0.0083349105 -0.0066295126 0.043392997 0.011538499 -0.006240906 -0.0019286232 -0.0028193325
-0.0030979153 -0.012170786 -0.0070827287 -0.011804406 -0.0054973583 -0.003414294 -0.0016693468 -0.003408118
-0.008162788 -0.003514247 -0.021766398 -0.0024607433 -0.00059226464 -0.006322374 0.032477282 0.0012508334
-0.005567027 0.032452155 0.0042775394 -0.005032634 -0.0030534687 0.00068869186 -0.008087189 -0.007544236
-0.0044634696 -0.0034435873 -0.006753858 -0.0026283872 -0.0030702865 -0.0025822422 -0.0064214417 -0.0026561937
-0.0049225832 -0.010377087

exp_avg_sq f4 [7, 22]
00000000: 6672 5435 dcc6 8a36 d18e 2638 88ed c935
00000010: cd7b 6036 f6d4 2638 3c64 ac36 f85f 8a36
00000020: 1799 4d36 4cac 3535 8346 9535 c6d4 c235
00000030: 7ede 4635 6ee6 b034 4390 1135 cb62 de34
00000040: 5a10 6f36 279b 9834 ded0 4d36 1e4a a034
00000050: 23fb 2c35 c706 cf34 69ef 9839 0c7a 3a39
00000060: d550 2f3b 2461 8638 bedd af38 01e5 433b
00000070: a0b7 8c3a 7cb4 5739 8a38 3138 172f 0e39
00000080: 218a e238 b1f9 c838 7fff 1c38 2863 1d38
00000090: eee2 9d38 55bb a237 8413 ca39 be9d 9837
000000a0: bc6f 1439 2f98 a037 e845 9938 0dc6 fe37
000000b0: 68a9 0d35 8ac2 b934 9050 9036 c66e 3a34
000000c0: 000c f433 33a7 a336 a3cf 1e36 7ca1 db34
000000d0: 3f4b d933 aee7 8d34 a3cb 1a34 3908 df33
000000e0: 82c8 b933 e769 3033 0392 dd33 3a24 4b33
000000f0: 6766 cf34 69c4 4433 c6ae 9d34 f41a 1033
00000100: 0e8c 6233 fd96 ba33 4525 aa38 dd83 ab39
00000110: f424 df3b 4ef3 8f39 08d2 9939 6c71 d93b
00000120: c06e 8b3a bac7 b539 041b 1b39 75b1 9c38
00000130: c520 7539 2726 023a 7e3c 0739 5b04 fe38
00000140: 5270 c838 275a 2c38 d975 8039 bc47 1438
00000150: caf7 183a 0bc0 2538 561f 0e3a 9174 5738
00000160: 39b5 0935 5630 1036 43af 3b38 be69 dc35
00000170: 4e75 e435 946b 3838 c7cf 5936 7586 0f36
00000180: 8ac4 3035 5ed3 2a35 c25d df35 726c bf35
00000190: 02b2 7536 3e3f 0935 8a7f 0c35 f3a2 a934
000001a0: cd3e 5a36 f3d4 8334 b1ee 6936 b190 9434
000001b0: 301f d535 92d4 ce34 cbea 2638 1c27 4239
000001c0: 2129 a43b 0021 2439 6789 2c39 11b9 a03b
000001d0: c0ff fb39 5bac 4939 defa 9238 ea4c 1238
000001e0: aca6 2639 e9c9 b939 c358 d438 02bb 3139
000001f0: 769a 8c38 b078 de37 5656 3a39 e3c8 cf37
00000200: 857f c939 6db7 ea37 0134 e839 6e11 1038
00000210: 8c31 9137 05a4 d737 ac6b 1a3a d82b 8236
00000220: a6ab 9037 23f4 1f3a 3e16 5138 73f7 cd37
00000230: 5252 de36 fe22 1037 ff9f 2438 ba9a c637
00000240: 7cfc 1f37 aad3 d236 840b 6938 896b 8436
00000250: 17bd 2838 a65d 7e36 78a6 d037 ae74 8536
00000260: 4d8d b837 7109 a137
7.9142626e-07 4.1358708e-06 3.9710492e-05 1.5044798e-06 3.3450663e-06 3.977582e-05 5.1376683e-06 4.1238927e-06
3.063649e-06 6.767848e-07 1.1121887e-06 1.4516052e-06 7.4084517e-07 3.2950214e-07 5.422664e-07 4.1422604e-07
3.5623293e-06 2.8425094e-07 3.0668957e-06 2.985625e-07 6.4440445e-07 3.8561686e-07 0.00029170074 0.00017783808
0.002675106 6.407712e-05 8.385953e-05 0.0029891136 0.0010735877 0.00020571233 4.2252745e-05 0.00013559718
0.00010802248 9.583252e-05 3.7431248e-05 3.7524063e-05 7.528612e-05 1.9399138e-05 0.00038542983 1.8193266e-05
0.00014156004 1.9144352e-05 7.3086296e-05 3.0371384e-05 5.277311e-07 3.460048e-07 4.300913e-06 1.7362899e-07
1.1364318e-07 4.877243e-06 2.3664695e-06 4.0909424e-07 1.0118537e-07 2.6431866e-07 1.441645e-07 1.03857424e-07
8.651206e-08 4.107451e-08 1.0317674e-07 4.729757e-08 3.8631262e-07 4.581344e-08 2.9370693e-07 3.3552126e-08
5.2747104e-08 8.6887646e-08 8.113174e-05 0.00032713907 0.006809825 0.00027456362 0.0002933892 0.0066358354
0.0010637864 0.00034671818 0.00014792016 7.4717136e-05 0.00023377228 0.00049647916 0.00012897138 0.00012112475
9.5576645e-05 4.1091957e-05 0.00024501866 3.5352758e-05 0.00058352633 3.951792e-05 0.00054215395 5.1368555e-05
5.130019e-07 2.1485807e-06 4.47475e-05 1.6422052e-06 1.7021464e-06 4.396921e-05 3.2456462e-06 2.1386925e-06
6.585111e-07 6.3637515e-07 1.6642082e-06 1.4262171e-06 3.661146e-06 5.1128507e-07 5.233966e-07 3.1597264e-07
3.2521086e-06 2.4555592e-07 3.4858642e-06 2.7672425e-07 1.5878813e-06 3.8525155e-07 3.9796152e-05 0.00018515851
0.0050097858 0.00015652552 0.00016454385 0.004904874 0.00048065 0.00019233061 7.00855e-05 3.4880744e-05
0.00015893084 0.00035436384 0.00010125481 0.00016949701 6.704491e-05 2.6520662e-05 0.00017770505 2.4769868e-05
0.00038432717 2.7980388e-05 0.00044289234 3.4348508e-05 1.7308419e-05 2.5706375e-05 0.0005890678 3.879406e-06
1.7246068e-05 0.0006101748 4.9850198e-05 2.4553132e-05 6.625699e-06 8.591216e-06 3.9249655e-05 2.367549e-05
9.535925e-06 6.2831286e-06 5.5562254e-05 3.9464253e-06 4.0230425e-05 3.790346e-06 2.487305e-05 3.977292e-06
2.2000308e-05 1.9197092e-05

exp_avg f4 [7, 7]
00000000: 68d3 0ab9 70c2 1839 cd4c 0738 2fa2 4c39
00000010: 9532 7a38 9084 9039 4717 5339 df7a e039
00000020: 0d70 0ebc 4ff8 f237 26ad 293b a2d5 943a
00000030: daa9 ad3b 7f51 e53b 3e3a 3437 9966 5738
00000040: bac6 0337 c7fc 0538 a587 2f37 9389 7338
00000050: 45c2 6038 ce44 513b f71b b03b 93ab 293b
00000060: 3b87 42bb 7e56 a73b 89af 133d 4d02 6a3c
00000070: 0877 cb38 7dcb 9e39 241d a338 c3ba b639
00000080: 1d22 84ba 7c4e 5b3a 069b 6339 f93d 54bb
00000090: 6936 7bba a0bd 62bb 82a0 c1b8 ec35 27bb
000000a0: 9f27 23bd 97da bb3b 1baa 2dba 0522 343b
000000b0: c1eb 49ba 5c41 83ba 5905 abba 1cd1 513b
000000c0: 58de 0ebd
-0.0001323946 0.00014568283 3.2258034e-05 0.00019515374 5.9651753e-05 0.00027564587 0.000201312 0.00042816155
-0.008693707 2.8964276e-05 0.0025890558 0.0011355171 0.005299789 0.0069982405 1.0742397e-05 5.1355546e-05
7.854478e-06 3.194509e-05 1.0462395e-05 5.806384e-05 5.358669e-05 0.003193188 0.0053744274 0.002588962
-0.0029682654 0.005106746 0.036056075 0.014282775 9.7019656e-05 0.0003028772 7.7778735e-05 0.00034852893
-0.0010080967 0.0008365882 0.00021706158 -0.0032385571 -0.0009582998 -0.0034597889 -9.232854e-05 -0.0025514318
-0.039832707 0.005732845 -0.0006624774 0.0027486098 -0.00077026716 -0.0010013985 -0.0013047858 0.0032015508
-0.034880012

exp_avg_sq f4 [7, 7]
00000000: 4c90 4136 5d65 1136 cdfa 0834 4e8b cc36
00000010: 00e0 4834 e6c8 0935 e2bf 7d34 ec63 7537
00000020: e772 423a 4c93 1137 4d55 4239 a55f 5a37
00000030: 47a7 a238 292a 2b38 bc79 0a33 d537 8f35
00000040: 472a a632 f063 c434 a342 b232 fd0e 4633
00000050: e55e 5733 041f d337 1371 8139 719d 8637
00000060: 5bd2 a93a 89bc 0a38 d849 2b3a 5a11 5738
00000070: 4853 4d34 8f4e 2a36 590c c833 ef0f 3b36
00000080: 992a cc36 55f7 9d35 f324 8434 962f 7e37
00000090: a844 0d39 02de 4f37 334c 153a 5cb5 da37
000000a0: 34a1 6f3a f72b 0438 0eee 9135 fa7a 2738
000000b0: a214 6c35 5fa8 4337 6fb2 2136 a526 1c37
000000c0: 2e54 4f39
2.8843233e-06 2.1665685e-06 1.2757228e-07 6.095891e-06 1.8707942e-07 5.132882e-07 2.3632268e-07 1.4626403e-05
0.00074176345 8.676969e-06 0.00018533059 1.30160815e-05 7.75592e-05 4.080884e-05 3.2241346e-08 1.067058e-06
1.9344169e-08 3.658056e-07 2.075223e-08 4.61141e-08 5.0144894e-08 2.5167603e-05 0.00024689044 1.604736e-05
0.0012956368 3.307735e-05 0.0006534136 5.1276154e-05 1.912241e-07 2.5377701e-06 9.315472e-08 2.7874446e-06
6.084633e-06 1.1769395e-06 2.46138e-07 1.5150659e-05 0.00013472384 1.2389852e-05 0.00056952535 2.6072077e-05
0.00091411476 3.1512198e-05 1.0872625e-06 3.9930434e-05 8.7946876e-07 1.1662108e-05 2.4094732e-06 9.307322e-06
0.00019772418

exp_avg f4 [7]
00000000: a856 4e3a a2d7 ff3b c21f 7c39 5657 823d
00000010: f511 693a 38d2 35bd 53c0 05bd
0.0007871189 0.007807688 0.00024044423 0.06364314 0.00088909204 -0.044389933 -0.032654118

exp_avg_sq f4 [7]
00000000: f02a 3c38 33c7 4e3b f948 ae36 15b0 ed3b
00000010: ae7e 4838 7414 ac3b f444 263a
4.486268e-05 0.0031551837 5.1940992e-06 0.0072536566 4.7801695e-05 0.0052514616 0.0006342672

exp_avg f4 [7]
00000000: 385d 4e3a c0bf ff3b 3405 7b39 7855 823d
00000010: 0985 683a 4ad4 35bd ebbd 05bd
0.0007872167 0.007804841 0.00023939164 0.06363958 0.00088699214 -0.044391908 -0.032651823

exp_avg_sq f4 [7]
00000000: 0a2b 3c38 29c7 4e3b 6143 ae36 f7af ed3b
00000010: d17d 4838 7b14 ac3b cd44 263a
4.4862776e-05 0.0031551814 5.193448e-06 0.0072536427 4.780089e-05 0.005251465 0.00063426496

exp_avg f4 [7, 22]
00000000: 0b8e 47ba 4c16 80b9 cbe1 aaba f08d cfb9
00000010: 5dee 54b9 17ab 97ba 322d e0ba 2d53 4bb9
00000020: a211 50ba e15b 0639 173f 9d39 e022 303a
00000030: a56c 5039 5f62 e739 7b47 7539 c0e2 f937
00000040: 805f 9638 4958 6938 862c 7938 a240 183a
00000050: 1c14 4439 1571 5c39 a8cf 53ba 451b 473a
00000060: 6b18 cabb 49d0 06bb ea64 113a 148b c4bb
00000070: 5dce 57bb ad6d 863a f245 3a3a c780 f4b9
00000080: a8d6 ab3a 1d37 113b db3d 1c3a 8f13 a23a
00000090: 7132 553a b298 f439 6ed1 3d39 0dc1 293a
000000a0: 5285 f339 b2d6 3e3b e056 513a 94ac 7c3a
000000b0: e4ac baba bd1c df39 79a3 d9bb c7eb 3abb
000000c0: c486 583a 0120 cbbb 1dd6 bdbb dab5 243a
000000d0: ebce 633a 8ade 2c3a 4574 a639 e365 093b
000000e0: 5b8e 1a3a a1ca a43a eccd 593a 241a fa39
000000f0: 7217 103a 4f58 21b6 9b26 f439 0f67 533b
00000100: 8e8f 6a3a 525f 833a 3cc5 c1b8 9dc3 1b38
00000110: eaee 2aba 3e49 59b9 5cc8 7138 fea7 23ba
00000120: 78f9 cbb9 18ec 8338 61e3 8038 7a4d 3038
00000130: fb55 bc38 691c 3e39 afed 4b38 a5ef 0239
00000140: 0fe8 ca38 9959 2238 02a8 3c38 5355 5f38
00000150: 47ae 2738 8ce2 8c39 bcdd a338 a7b2 cf38
00000160: 4e88 d93a 69ae 8aba abef 5f3c 157d 653b
00000170: 8963 dcb9 3f52 553c dcfa 143c 6bdd c7b9
00000180: e86b f9ba 7c88 71ba 20ac 033a 7924 02bc
00000190: 837e 0ebb 7819 91b9 44fa 01ba ba99 8dba
000001a0: ae35 94ba 9f9c 34ba 3d57 8dba 3b66 02bc
000001b0: 3e30 4fba 4999 00ba bbf6 9fba 3848 b039
000001c0: 7f93 523b bf46 8e3b 4987 e0b9 38e6 a83a
000001d0: 5ec3 fb3b d0a1 f4b9 6624 953a ddba 5d3a
000001e0: 8aeb 933b 9b3a 763b e96d 0c3b 7e7d 5dbc
000001f0: 02e9 bcba b15e 82b7 fac1 d638 eabc 0e39
00000200: 717e 8536 ef20 373a 2b54 82bb 10e9 ff39
00000210: b841 863b 7486 a93b 3628 61bc 0892 68bb
00000220: 187f 5b3b cff6 43bc db23 1bbc 0748 763b
00000230: c378 353b dddf 4cba ab74 b6bb fde2 253c
00000240: 1f93 163b 680f a13b 7eb7 1bba 94ca b03a
00000250: 67e4 b53a 85a2 d13a e62e a83a cf3e 073c
00000260: 6475 193b cfe6 47bb
-0.00076124136 -0.00024430675 -0.0013037262 -0.00039587868 -0.00020306693 -0.0011571374 -0.0017103313 -0.00019390574
-0.0007937198 0.00012813463 0.0002999238 0.0006719064 0.00019876899 0.00044133046 0.0002339165 2.9788702e-05
7.1703456e-05 5.563375e-05 5.9407692e-05 0.0005807971 0.00018699508 0.00021022961 -0.00080799544 0.0007595311
-0.0061674616 -0.0020570925 0.00055463484 -0.0059980247 -0.0032929399 0.0010256075 0.00071057596 -0.00046635253
0.0013110237 0.0022158094 0.0005960145 0.0012365448 0.00081328215 0.00046653074 0.00018102463 0.0006475605
0.00046447903 0.0029119668 0.00079856627 0.0009638753 -0.0014242199 0.00042555286 -0.006641802 -0.0028521882
0.0008259828 -0.0061988835 -0.0057933466 0.00062832015 0.0008690196 0.000659444 0.00031748615 0.002096527
0.00058958464 0.0012572595 0.0008308578 0.00047703192 0.00054966577 -2.4042272e-06 0.0004656807 0.0032257473
0.0008947783 0.0010022915 -9.239695e-05 3.713706e-05 -0.00065205863 -0.00020722018 5.7645477e-05 -0.00062429893
-0.00038905046 6.290543e-05 6.145868e-05 4.2033826e-05 8.980554e-05 0.00018130396 4.862033e-05 0.0001248704
9.675335e-05 3.8707254e-05 4.4979162e-05 5.3246808e-05 3.997821e-05 0.0002687167 7.813747e-05 9.903806e-05
0.0016596408 -0.0010580543 0.013667981 0.0035017182 -0.0004203583 0.013020097 0.009093013 -0.00038121207
-0.0019029351 -0.0009213758 0.0005022902 -0.007943266 -0.0021742887 -0.0002767553 -0.0004958252 -0.001080326
-0.0011307502 -0.00068897934 -0.0010783445 -0.007958944 -0.0007903612 -0.0004905654 -0.0012204269 0.00033623143
0.0032131372 0.0043419297 -0.00042825405 0.0012885993 0.0076832017 -0.00046659866 0.0011378645 0.0008458326
0.0045141624 0.0037571553 0.0021427816 -0.013518689 -0.0014412703 -1.5541302e-05 0.00010240446 0.00013612551
3.9784286e-06 0.00069858035 -0.0039773188 0.00048811035 0.0040971898 0.0051734988 -0.013742497 -0.0035487432
0.0033492502 -0.011960699 -0.009468998 0.0037579553 0.0027690388 -0.00078153407 -0.005568107 0.010124919
0.0022975875 0.0049151666 -0.0005940123 0.0013488107 0.0013877273 0.0015993869 0.001283136 0.008254721
0.0023415918 -0.0030502563

exp_avg_sq f4 [7, 22]
00000000: 2350 6d37 1641 7837 b3d1 0f39 2bad 8937
00000010: f683 8e37 a26d 0e39 7f85 ee37 65e0 9f37
00000020: f3ba 8a37 0291 6136 ac44 7936 8c36 bd36
00000030: c776 f035 fa8d 0036 31c0 db35 324c 1636
00000040: 2ab0 da36 0f98 9736 5189 2536 0980 e336
00000050: 1093 4f36 bc7c 5736 68c0 073a 970c 0137
00000060: 2695 063b b999 4c39 34cb 2f36 76f6 1b3b
00000070: 0921 b03a 9915 3137 39e4 9637 8404 7339
00000080: 5370 c738 1d8b b438 0765 9437 0277 c137
00000090: 0c2a 0338 13fc a337 ba0a e038 4074 9a39
000000a0: 3ef0 a737 8a52 2538 023a db37 aee7 db37
000000b0: 877a f239 bf59 8a37 5bd6 af3a 3f63 3839
000000c0: 427f 8336 4843 d63a b388 cd3a 2bc2 bf37
000000d0: 9c89 6e37 8083 1438 c363 4139 3f80 a038
000000e0: 5d02 9037 ccf2 be37 647e 9337 60e0 7837
000000f0: 8116 9b38 ddd5 3a39 ada1 5637 2041 1938
00000100: 15f1 cb37 7c5e a237 0f19 ab36 50f4 cb34
00000110: 59b9 2d38 7a18 d236 8221 0e35 c281 2838
00000120: ae36 d737 8ef9 3835 c30f 1235 aeb8 ae35
00000130: 9880 f635 118e b935 d49f 3135 40f4 6635
00000140: 0bdd f035 8fa2 4c35 6cfb ce35 ccff 0d35
00000150: 886e cb35 1cf6 3035 b982 8d35 22a8 b635
00000160: 875a f838 7bf9 2e38 437e 1d3b 49d9 9439
00000170: 4501 6538 7ac4 113b 6f5a a13a 84d7 8d38
00000180: e051 ff37 5ac7 9837 59cb c338 cd01 7139
00000190: 5515 0938 aeca 6838 73fb 3838 ca20 a337
000001a0: beaf ef37 b757 7138 fbaf 7e37 835a 7339
000001b0: fd63 5d38 7897 d238 bc7b 4d39 f139 0338
000001c0: 74dc 443b b644 2e3a 7591 7938 3ca0 243b
000001d0: 85c6 1a3b f3f6 9f38 53f5 ab37 dd3d a237
000001e0: 5bbd 5038 86eb 3c39 6474 c737 07ae a339
000001f0: ab32 a038 03ce b437 3ec9 df37 0c6d df37
00000200: f051 b237 80a5 e339 9e40 9738 6260 ea38
00000210: fef5 b539 9bba ac37 ef76 9d3b 676a 293a
00000220: 8f3a 2c38 c249 933b a825 163b 8d74 5138
00000230: b03a 0738 137a 5338 df5f 8939 f23c 8f39
00000240: e2b8 2038 2256 d438 366e 7639 3560 f837
00000250: c820 3b38 486c 2e38 0c2d 1938 d5f2 273a
00000260: 69b7 b038 e7e7 8339
1.4144959e-05 1.4797106e-05 0.00013715662 1.641231e-05 1.6989168e-05 0.00013583017 2.8433975e-05 1.9058769e-05
1.6537937e-05 3.3612018e-06 3.7143864e-06 5.638989e-06 1.7915962e-06 1.9156128e-06 1.6372707e-06 2.2396093e-06
6.5174145e-06 4.5178526e-06 2.4666845e-06 6.7800324e-06 3.0931005e-06 3.2110102e-06 0.0005178512 7.6919305e-06
0.0020535677 0.00019512222 2.6195312e-06 0.0023798025 0.001343758 1.0555051e-05 1.7987668e-05 0.00023175968
9.5099815e-05 8.608981e-05 1.769002e-05 2.306281e-05 3.1271993e-05 1.9548495e-05 0.0001068315 0.00029459782
2.0019823e-05 3.9415936e-05 2.6133846e-05 2.6214719e-05 0.00046249127 1.6492673e-05 0.0013415323 0.0001758458
3.918919e-06 0.0016346956 0.0015680998 2.285939e-05 1.4217945e-05 3.540842e-05 0.00018443078 7.653282e-05
1.7167238e-05 2.2762826e-05 1.758262e-05 1.4834193e-05 7.3951676e-05 0.00017818013 1.2793037e-05 3.6538695e-05
2.4311748e-05 1.9355903e-05 5.0991143e-06 3.7989457e-07 4.1419033e-05 6.261337e-06 5.294788e-07 4.0175168e-05
2.565546e-05 6.890849e-07 5.4412175e-07 1.3017759e-06 1.8365854e-06 1.3824921e-06 6.617022e-07 8.603711e-07
1.7945725e-06 7.6232476e-07 1.5421369e-06 5.2898827e-07 1.5156847e-06 6.5923246e-07 1.0543364e-06 1.360899e-06
0.000118424236 4.171718e-05 0.0024031557 0.0002839065 5.4599037e-05 0.0022242353 0.0012310277 6.763547e-05
3.0436495e-05 1.8212642e-05 9.336201e-05 0.00022984222 3.2683212e-05 5.550187e-05 4.41032e-05 1.9446383e-05
2.8572857e-05 5.754057e-05 1.5180553e-05 0.00023208004 5.2783627e-05 0.000100417936 0.00019596418 3.1286796e-05
0.0030038627 0.0006647812 5.9501694e-05 0.0025119921 0.0023616862 7.627709e-05 2.0499027e-05 1.9340712e-05
4.9767415e-05 0.00018016816 2.3776847e-05 0.00031219443 7.638832e-05 2.1553604e-05 2.6677382e-05 2.663445e-05
2.1257409e-05 0.0004342012 7.212277e-05 0.00011175942 0.0003470629 2.0590893e-05 0.0048054378 0.00064626936
4.1062533e-05 0.0044948766 0.0022910628 4.993803e-05 3.2241165e-05 5.042001e-05 0.00026202106 0.00027320493
3.831916e-05 0.00010124991 0.00023501445 2.9608704e-05 4.4614804e-05 4.1585678e-05 3.6519996e-05 0.0006406729
8.426497e-05 0.00025159048

exp_avg f4 [7, 7]
00000000: 0bcb 7bba 713f fc38 03bf 1d39 6e06 ae38
00000010: 50d5 973a 95fa d139 2e6e 7a39 dc1a b839
00000020: 02b4 73ba ff2c a43a e19a aa39 6928 6f3b
00000030: 67e0 573a 6b28 7a3a 6ec2 003a 40c7 3f3a
00000040: 7c51 34ba 9604 8a39 1c6c 743b 88b7 983a
00000050: 2f60 703a 3bda f337 2020 0c38 5860 2838
00000060: 034a c537 0ea2 9639 ade1 d938 79ae 0a39
00000070: 0117 91b9 3100 aaba d038 73ba 4650 b2ba
00000080: ee9a 88bc 59d9 6e3b a422 713b 943d 143a
00000090: 8138 0e3a 58cb 1b3a 59fd dd39 c07b 6b3c
000000a0: bf8d c0bc a9f7 913b 2686 5f3a c4d7 733a
000000b0: 89e9 8a3a a013 453a b4bd 903c b2a5 8f3b
000000c0: e4b5 4cbc
-0.0009605146 0.00012028113 0.00015043844 8.298164e-05 0.0011583958 0.00040050285 0.00023882903 0.00035115227
-0.00092965376 0.0012525617 0.0003254032 0.0036492592 0.00082350377 0.0009542766 0.0004911785 0.00073157623
-0.0006878597 0.00026324828 0.0037295884 0.0011651376 0.0009169606 2.9069479e-05 3.340852e-05 4.014405e-05
2.3518694e-05 0.0002873097 0.00010389402 0.00013225702 -0.00027673694 -0.0012970028 -0.000927818 -0.0013604246
-0.016675439 0.0036445467 0.003679433 0.0005654928 0.000542529 0.00059430813 0.00042341163 0.014372766
-0.02350509 0.004454572 0.00085267646 0.0009301866 0.0010598163 0.0007517878 0.017668582 0.004383766
-0.012494538

exp_avg_sq f4 [7, 7]
00000000: 92cd a437 4053 d736 2723 6136 7580 bb35
00000010: 9ce2 ad36 2e9a 5936 1a3f 1a36 9005 3637
00000020: c9cd f739 99ca 7839 51c0 1837 c972 fb37
00000030: 71de 6337 4d78 a537 2062 1e37 95b5 9b38
00000040: e59e ea39 1c1f c836 43ab 2138 a74e 7137
00000050: 89f2 4937 122e 1235 df14 1436 e837 7335
00000060: c3d0 3c35 727a 7035 663b 0736 4364 a636
00000070: fbbf 9d37 f66b 9b37 20a6 9938 6f50 e936
00000080: 9e31 0b3a 0cd4 3638 90d4 f738 bf9a 2137
00000090: 579e 8937 0364 9537 01cc 1c37 cfd1 a839
000000a0: 440a 183a aebd bc38 0751 7c37 970b cb37
000000b0: 95c2 d037 8115 9637 fc12 1c3a 7a83 8138
000000c0: 79c0 593a
1.964605e-05 6.417191e-06 3.3548074e-06 1.3969972e-06 5.1821826e-06 3.2425264e-06 2.2984518e-06 1.08493405e-05
0.00047264833 0.00023726597 9.104683e-06 2.9974983e-05 1.35820455e-05 1.9725552e-05 9.44038e-06 7.424798e-05
0.00044750344 5.964086e-06 3.854489e-05 1.4383032e-05 1.2037003e-05 5.445628e-07 2.2065867e-06 9.060591e-07
7.0339246e-07 8.958515e-07 2.0151142e-06 4.9588575e-06 1.8805256e-05 1.8527713e-05 7.326552e-05 6.953305e-06
0.0005309823 4.3589665e-05 0.00011817471 9.632377e-06 1.6405405e-05 1.7808756e-05 9.345823e-06 0.00032199777
0.00057998695 8.999869e-05 1.5039236e-05 2.4204883e-05 2.4886142e-05 1.7891407e-05 0.00059537566 6.175689e-05
0.0008306574

exp_avg f4 [7]
00000000: d319 9d3a 01a0 d23b c991 d83b c83e 2f3a
00000010: 3c97 58bc 70e5 26bb 08c3 573c
0.0011985846 0.0064277654 0.006609176 0.00066850754 -0.013219651 -0.0025466345 0.013169058

exp_avg_sq f4 [7]
00000000: 66cd 3239 ed46 293b 3e06 ef3a 25a3 4538
00000010: ad90 283b e4eb 543b 2544 aa3b
0.0001705192 0.0025829629 0.0018236113 4.71204e-05 0.0025721 0.0032489235 0.0051961117

exp_avg f4 [7]
00000000: bc96 9d3a f5cb d23b d38b d83b c243 303a
00000010: 22a0 58bc 5c29 27bb 01ab 573c
0.0012023072 0.006433005 0.006608465 0.0006723964 -0.013221772 -0.002550683 0.013163329

exp_avg_sq f4 [7]
00000000: ccce 3239 1147 293b 4506 ef3a 03ac 4538
00000010: d190 283b d7eb 543b 2e44 aa3b
0.0001705244 0.0025829712 0.0018236121 4.712866e-05 0.0025721083 0.0032489204 0.005196116

exp_avg f4 [7, 22]
00000000: 1c39 80bc 84fb abbb 93da fc3c 96ee f5ba
00000010: 2028 e8bb 0ebf 093d 9b0c c6bc 9c2b cebb
00000020: ed20 37bb ba27 18bb b7c0 1e3a b827 44bc
00000030: 793e e3bb 79dc 21bb 7f12 d0bb dee6 afbc
00000040: 3088 62bb 86e7 c5ba b89a ebba 3ee9 5ebb
00000050: f6fa 1f39 09fb 45ba 286f c939 37fc 0438
00000060: 8300 ccba 49f0 7239 f1da 4d37 5a05 cfba
00000070: 593a 3c3a 747b 9b37 d0e8 3339 4961 c037
00000080: 6b1d 5339 91ae ea39 faf7 7f39 4118 b539
00000090: 563b 6539 6950 b139 257b f638 5715 a239
000000a0: 7e1e 9f39 3c97 f638 cc49 8239 408e 6039
000000b0: e273 34bb 078f 0c3b 4a14 973b 9733 e1bb
000000c0: 7644 f1b9 132d 863b 94dd bebb 8437 b13a
000000d0: e625 803a e413 88ba a449 cfbb 9ffe dd3a
000000e0: 5ea8 80ba 2068 483b 3255 83ba 174a 893b
000000f0: 2233 c2b9 edd1 53bc d96c 0a3b 6152 c4b9
00000100: 1e33 213b 9659 a83a 419d cbb9 883c 6e3a
00000110: c591 adbc 5f40 2abb 43b9 6b3b 5103 b1bc
00000120: 027f aabb cd1c 853a d56f fd38 a2c2 4d3a
00000130: 0e80 2b3b 34d9 7d3b ce8c 9e3b 2092 4a3b
00000140: bb2c 8e3b 3059 e53b db9e d53a a4dc 123c
00000150: 343f 98bb 8313 d43a 2282 2a3b 1532 233b
00000160: c174 4739 d9a5 f5b4 4b9d 50ba de82 1239
00000170: 1b9f 1ab7 f745 54ba d43c c439 e60c 97b6
00000180: 6491 8a38 3a08 5e38 2bf8 e138 ea0e 6139
00000190: 8d70 0239 0319 3239 d41b d438 afcf 0d39
000001a0: 01d8 8038 46eb 3339 7b63 2e39 6bb6 7038
000001b0: 2bc7 0339 202b e838 d634 a53b 137f 423a
000001c0: 34ee 073b 00f4 0d3b 4b41 d13a 14a3 0f3b
000001d0: 69e5 f13b 0bb1 c33a 5e91 c739 0d8a 41b9
000001e0: 2a8f 1939 0955 bdb9 77f6 0d39 ac7e 2fbb
000001f0: 9d8c 0c3a b416 c03a cfee 8e38 415a 1c3a
00000200: 10b0 d239 195d 8c38 4aa4 56bb 0f8a b1ba
00000210: 0320 b7b9 55f3 10ba d76b f3bb 9f7e 2e3b
00000220: 7f17 6aba d99b 05bc ff32 603b 0a7f 88ba
00000230: 2353 283a b0f9 b839 e7ad a33a ed3d fe3a
00000240: 25a6 e939 aee6 6b3b 09f4 7838 4237 dd3a
00000250: 37e6 113a 71d4 073b 2c66 943a 6670 103a
00000260: 1a39 153b 9d4f 5137
-0.015652232 -0.005248489 0.030865943 -0.0018763121 -0.0070848614 0.03362947 -0.024175933 -0.0062918197
-0.002794321 -0.0023217038 0.00060559384 -0.01197236 -0.0069349376 -0.0024698062 -0.006349861 -0.02147239
-0.0034566037 -0.0015098907 -0.0017975187 -0.0034013535 0.00015256912 -0.0007552361 0.00038420525 3.1706146e-05
-0.0015564117 0.00023168432 1.2269928e-05 -0.0015794442 0.00071803253 1.8534927e-05 0.000171575 2.2933486e-05
0.00020133487 0.0004476202 0.00024411074 0.0003454108 0.00021861246 0.0003381998 0.000117531315 0.00030914947
0.00030349562 0.00011758364 0.00024850515 0.00021415297 -0.0027534892 0.0021447556 0.004610573 -0.006872605
-0.0004601811 0.0040947287 -0.005824754 0.0013520573 0.000977692 -0.0010381904 -0.0063259173 0.0016936845
-0.0009815802 0.0030579641 -0.0010019897 0.0041897404 -0.0003704066 -0.012928468 0.0021122007 -0.0003744541
0.0024597119 0.0012844082 -0.0003883634 0.00090879994 -0.021187672 -0.002597831 0.003596858 -0.021608027
-0.005203129 0.0010155678 0.000120848104 0.0007849132 0.0026168856 0.00387342 0.0048385626 0.0030909851
0.0043388284 0.0069991574 0.0016297953 0.008963738 -0.0046462063 0.0016180131 0.0026017507 0.0024901677
0.00019021613 -4.5755476e-07 -0.0007958009 0.00013972397 -9.21616e-06 -0.0008097584 0.00037429354 -4.5016523e-06
6.607434e-05 5.2936586e-05 0.00010775061 0.00021463228 0.00012439695 0.0001698472 0.00010114131 0.00013524176
6.1437495e-05 0.00017158416 0.00016630992 5.739035e-05 0.0001256733 0.00011070655 0.005041699 0.0007419448
0.0020741345 0.0021660328 0.0015964893 0.002191727 0.007382084 0.0014930082 0.00038064545 -0.00018457342
0.0001464455 -0.00036112245 0.00013538623 -0.0026778383 0.0005361529 0.0014655204 6.815569e-05 0.00059643766
0.00040185498 6.693061e-05 -0.0032751733 -0.0013545173 -0.0003492833 -0.00055294234 -0.007428627 0.0026625765
-0.0008929893 -0.008154833 0.0034210084 -0.0010413837 0.000642108 0.00035281247 0.001248774 0.0019397117
0.0004456501 0.003599565 5.9355083e-05 0.001687743 0.0005565616 0.002072599 0.0011321953 0.0005509913
0.002276963 1.2475907e-05

exp_avg_sq f4 [7, 22]
00000000: e112 093a 1eda 8e38 99de aa3b 41a4 5339
00000010: 4924 d538 1639 b43b 8354 d03a c7da b238
00000020: 3fe1 0239 d83d 1c38 ebfe dc38 c0b1 e039
00000030: bc31 1339 18d8 1739 0986 0339 95e7 d039
00000040: 3040 2238 254d af39 cd0a de38 db3a 1a38
00000050: 7ee1 0339 94fb 9e38 5fb0 4837 39e5 fe34
00000060: 3821 8638 1718 8536 5b7c 7734 4c75 9738
00000070: ed36 0238 13b2 1635 0294 a235 254c f436
00000080: 8a96 b735 db82 0c36 2db4 7735 1814 8d35
00000090: eaaf a035 8ccd ea35 20ac 3535 8437 e536
000000a0: a791 8435 574a e235 3a32 7a35 6eb4 9335
000000b0: fbb1 423a ee2c 7f37 1ad1 b73b a184 333a
000000c0: 18c6 e937 923b b93b 8e91 513b 55c8 8d37
000000d0: 33e9 5638 bf41 8838 96ee bb39 c9f9 ba39
000000e0: 7000 d938 465c 0739 810c fa38 7c6f 2e39
000000f0: df1f 2438 8c57 203a b53f 8839 b6d8 4e38
00000100: d65a af38 6eb5 9738 ba65 603a 5a2f bb36
00000110: 9382 403b f9e1 2a3a 0e66 fa37 d488 4c3b
00000120: 379e 7f3b c8cb e936 74a4 0138 9925 ec37
00000130: 3428 3639 a3d6 9339 2292 8238 c586 a438
00000140: 2822 4638 2bdf a438 43fd bc37 50ae ac39
00000150: 7ed5 9439 16f6 ba37 ef10 e037 b37b dc37
00000160: ccfa b336 da82 1034 9b1e 3a38 ae66 ae36
00000170: 9e3d 4334 6a58 3a38 d0a9 c137 1537 1634
00000180: 5ae1 1535 52fc 8835 d7f8 0a36 46c2 0536
00000190: 1412 8e35 e6fe 2f35 d160 9135 c7ec 8a35
000001a0: 32c3 0535 5d4c 6636 52ed 0435 0a90 cc35
000001b0: b2bf 0b35 f3b9 7c35 4116 6a38 35f3 7737
000001c0: d772 d73a 805e 8038 3b4c 6137 88dc d53a
000001d0: 55ea 7639 a43b 4937 b738 0938 d8d0 4837
000001e0: b1df a837 0c26 8f38 76d7 fe37 c067 ca38
000001f0: 3878 5538 7a11 6a38 868a 1837 6dea c638
00000200: 29c2 4037 243c 0e37 fe56 e338 b2c9 5838
00000210: 8467 eb37 c953 2e37 b434 fb3a ff1e 0839
00000220: 16bd a836 8d74 ed3a f89e b039 391b 9936
00000230: 5b64 3237 83a5 6537 efb3 9b37 ed57 7138
00000240: 2aa1 9438 2162 8e38 3a1a eb38 f194 3b38
00000250: c106 2a37 7d26 af38 33c7 5437 7251 4737
00000260: 6ddb 0639 ed63 b838
0.00052289484 6.811715e-05 0.005214524 0.00020183717 0.0001016339 0.0054999692 0.0015894327 8.528452e-05
0.00012481677 3.7250895e-05 0.000105379 0.00042857043 0.0001403754 0.00014480983 0.00012543066 0.00039845394
3.868359e-05 0.00033436078 0.00010587797 3.6771275e-05 0.00012577136 7.580887e-05 1.1961994e-05 4.7477968e-07
6.3958054e-05 3.9665133e-06 2.3048908e-07 7.222089e-05 3.104557e-05 5.6138487e-07 1.2113017e-06 7.280631e-06
1.3678375e-06 2.0937794e-06 9.227686e-07 1.0511167e-06 1.1972127e-06 1.7494181e-06 6.767823e-07 6.8311947e-06
9.877157e-07 1.6859948e-06 9.3205347e-07 1.1004865e-06 0.0007427034 1.5209645e-05 0.0056096436 0.00068480714
2.7868009e-05 0.0056528533 0.0031977626 1.6901797e-05 5.123876e-05 6.4972315e-05 0.0003584518 0.0003566279
0.00010347448 0.00012908978 0.00011923258 0.00016635464 3.913033e-05 0.0006116561 0.00025987407 4.9316055e-05
8.36157e-05 7.234035e-05 0.00085600803 5.5785467e-06 0.0029374703 0.0006518658 2.9849845e-05 0.0031209486
0.0039004216 6.9676644e-06 3.0909156e-05 2.81509e-05 0.0001737185 0.00028197942 6.2261024e-05 7.845232e-05
4.723869e-05 7.861698e-05 2.252928e-05 0.0003293627 0.00028387824 2.228752e-05 2.6710766e-05 2.6283646e-05
5.3638123e-06 1.3458649e-07 4.437436e-05 5.1975576e-06 1.8183206e-07 4.4428198e-05 2.3086468e-05 1.3989877e-07
5.5834755e-07 1.0206224e-06 2.0708446e-06 1.9931626e-06 1.0585086e-06 6.5563506e-07 1.0831519e-06 1.0350713e-06
4.983041e-07 3.431712e-06 4.951918e-07 1.5241105e-06 5.206049e-07 9.414791e-07 5.5810673e-05 1.4778973e-05
0.0016437423 6.1211176e-05 1.3428794e-05 0.0016316334 0.00023547684 1.199442e-05 3.2716165e-05 1.1969554e-05
2.0131325e-05 6.825858e-05 3.0379491e-05 9.6514355e-05 5.089512e-05 5.5806224e-05 9.0921585e-06 9.485041e-05
1.1489298e-05 8.477862e-06 0.00010840407 5.1686256e-05 2.8062386e-05 1.0390716e-05 0.0019165487 0.00012981518
5.0288027e-06 0.00181164 0.00033687777 4.5629245e-06 1.0632993e-05 1.3688e-05 1.8561228e-05 5.7540765e-05
7.087209e-05 6.7893656e-05 0.00011210558 4.4722987e-05 1.0134362e-05 8.351819e-05 1.2682564e-05 1.1880287e-05
0.00012860978 8.792416e-05

exp_avg f4 [7, 7]
00000000: 7f67 19bd 4929 3fbb 2139 c33b c81d 8a3a
00000010: 4a42 46bb 27f0 363b 7534 b03a 9d8e e639
00000020: 8d5d 89b7 30d6 b139 1251 bc39 9531 a738
00000030: 1734 8a39 3bbd 5439 3e78 393c b9d7 54ba
00000040: 265f f4bc 23dd 423c 053d 5bba c1a6 6b3b
00000050: 356a 883a f4dc 183c 270d 823a cb36 9b3c
00000060: c224 69bc 7c9c 553a 8cba 083b cea9 de3a
00000070: 874e 0739 d268 1e38 cc49 4c39 bbad 5539
00000080: 9e08 ef37 022d f738 8a8a f438 570d 193b
00000090: 899f 20b9 5299 9c3a d209 e838 b80e 4bb9
000000a0: 1ef6 d5bb 59c6 9c3a 3003 2e3b 5ea5 6b39
000000b0: 5cd2 2c3b 5e0d 363a fe6d 5339 6c55 fe3b
000000c0: 6f8d c1bb
-0.037452217 -0.0029168895 0.005957738 0.001053744 -0.0030251914 0.0027914138 0.0013443368 0.00043975274
-1.6375236e-05 0.00033919653 0.00035918556 7.972416e-05 0.0002636022 0.0002028839 0.011320172 -0.00081193034
-0.029830527 0.011893543 -0.00083632796 0.0035957547 0.0010407629 0.009330023 0.0009922133 0.018947026
-0.014229955 0.0008148623 0.0020863144 0.0016987862 0.00012903857 3.7767757e-05 0.00019482448 0.00020377983
2.8495033e-05 0.00011786261 0.000116606316 0.0023353898 -0.0001531822 0.0011947548 0.00011064451 -0.00019365072
-0.0065295836 0.0011960968 0.0026552193 0.0002247295 0.00263705 0.0006944741 0.00020163503 0.007761648
-0.005906753

exp_avg_sq f4 [7, 7]
00000000: aea8 9c3a b120 b437 8ad4 b839 e6ec a538
00000010: 7365 9137 1113 0839 e03e 8538 827d 0536
00000020: 2a62 0037 f842 9836 5e5e 7f35 e37f 8135
00000030: 3bdd ae35 7884 aa35 d501 8039 e809 1038
00000040: 5b96 9e3a 210e e839 c9e9 c937 f6cf d738
00000050: dd77 7638 7938 ab38 315d 6737 44ee ca39
00000060: 69f2 4c3a 75ca 3e37 0f5a 8737 038f 7037
00000070: fce4 7e35 ebee 0535 14c1 0037 4ca2 9735
00000080: 01f1 3835 eae3 e734 befd a635 2046 bb38
00000090: 634e 9436 769e 7538 e612 d436 6c77 8436
000000a0: 8382 9839 4910 aa38 253b 1038 22f1 a036
000000b0: bc87 8c38 9d69 cf36 6bdd bd36 894f ff38
000000c0: a93a c439
0.0011952126 2.1472895e-05 0.0003525357 7.911939e-05 1.7332588e-05 0.00012977073 6.3536456e-05 1.98916e-06
7.65225e-06 4.537749e-06 9.5132225e-07 9.648469e-07 1.3028397e-06 1.270454e-06 0.00024415427 3.43415e-05
0.0012099253 0.00044261015 2.4069932e-05 0.00010290735 5.8762602e-05 8.164434e-05 1.3790371e-05 0.00038705964
0.00078181044 1.1372021e-05 1.613519e-05 1.4338412e-05 9.495559e-07 4.989403e-07 7.674349e-06 1.1297611e-06
6.889605e-07 4.3192932e-07 1.2441812e-06 8.929917e-05 4.419869e-06 5.856013e-05 6.3202924e-06 3.947809e-06
0.00029088938 8.109265e-05 3.4387358e-05 4.796443e-06 6.701003e-05 6.1813757e-06 5.6584154e-06 0.00012174162
0.00037427738

exp_avg f4 [7]
00000000: 0e08 04bd bd6e db3a 5f4b 6dbb e405 a13c
00000010: 6b56 5f3a 2fd6 04bb c6c8 073c
-0.032234244 0.0016741377 -0.0036208255 0.01965613 0.0008519652 -0.0020269265 0.008287614
