data_10frm/model/0_0_2_11.pt (torch_old, 18399 bytes, 52 tensors)

rnn.weight_ih f4 [7, 22]
00000000: acba 043f 0f72 913e 289c a73d c637 cb3e
00000010: de3f 1a3d ba75 bd3e 8f26 e13e 8f3f 113f
00000020: f190 f13e 0f61 a9be 13e2 9abe 19e2 dcbe
00000030: 8908 8dbe e1ba 37bf 0ebb 04bf 27b1 02be
00000040: c945 48bd 1ebb a3be 1e85 783e 81f2 45bc
00000050: 64fa b4be cabd b7be 9762 b43c 6c46 acbd
00000060: 3658 a93e 91bd ab3e f904 893d 6604 293f
00000070: 815d 09be e134 893d 4a2d 8fbe 7539 85bc
00000080: 0492 21be 1a9d 52bf 76c1 3cbf 15e3 30bf
00000090: c67a b7bd 5cfe eebe a287 05be 70be 25bf
000000a0: 9c49 04be 43e2 0bbf d3f1 cebe 0b16 d8be
000000b0: b7ea 7cbf 5c41 45bf 01a5 07be 4dde b2bc
000000c0: d06b b3be c4d8 933c 7ac9 41bf acb4 e9be
000000d0: a514 873d 234c e5be 627d 593f 0458 013e
000000e0: 1d59 ecbe dd64 03bf 7db4 c0bc 089e 8d3b
000000f0: 6f2e 94be 9a58 e03e ee91 6d3e 4d6a 413e
00000100: f840 38bf db82 8fbe 2cc9 63bf e1f3 443f
00000110: c22a 7bbe 8bf8 42bf 35df 103f 0d64 5c3a
00000120: 9cb0 e9be 384d 803e 1c2b 0abe 985e ea3e
00000130: aac7 3abd 9162 973e be4d b4be 0943 a7be
00000140: fcdd ebbe ff8f b4be 9484 a6bb 6168 843d
00000150: 27a2 d03e ceb6 2fbe 8fee 76bf 028e 05be
00000160: c638 b33d cfe9 143f 6210 753e 5af7 69be
00000170: 3b63 0dbe 2356 593e 4d22 d23d 6bf4 8bbd
00000180: c468 263e 6cee b4be dc65 b6be 2b60 cbbe
00000190: 5ea4 213f a680 8cbe 2de5 88be 794e 9d3d
000001a0: d5c8 b1be 16c5 14bf 9813 903e 1d50 a8bc
000001b0: bad6 f63d c598 8fbd 7b1e 2a3f 44fb b5be
000001c0: 4c5d 7e3e ab64 833e 116e 0ebf d154 263e
000001d0: e62c 893f 3bdd 0ebf f211 dabe 6af6 9bbe
000001e0: 8d58 e8be d4f8 6dbd 35b5 913e da23 a03e
000001f0: 3a3a 923e 7739 75bd 2cea 6abe 88a5 8cbe
00000200: 4334 ac3d f35a d23e 6478 a13e 3129 d03d
00000210: 9eaf 7e3f 8bba c23e f010 953e 11fb a43f
00000220: 0011 4dbe 6ded fd3d 7723 2a3f 8aef 0dbf
00000230: 337b 10be 5d59 0ebe 09b1 1ebf c30a 953e
00000240: 5ff0 493e b103 a1be 9602 3d3e 9324 c73d
00000250: e0c9 323e d247 853c b667 96be 2ad5 9d3e
00000260: 7ae5 a7bd 59af 9d3e
0.5184734 0.28407332 0.08184081 0.3969099 0.037658565 0.3700388 0.4397473 0.5673761
0.47180894 -0.33081862 -0.30250606 -0.4314125 -0.27545574 -0.7176953 -0.5184792 -0.12762891
-0.048894677 -0.31978697 0.2426953 -0.012081743 -0.35347283 -0.35886985 0.022019668 -0.084118694
0.33075112 0.33543065 0.066904016 0.66022336 -0.13414575 0.06699539 -0.2796424 -0.01626275
-0.15778357 -0.8227097 -0.737327 -0.690965 -0.08958964 -0.46678436 -0.13040021 -0.6474371
-0.12918705 -0.54642123 -0.40418872 -0.42204317 -0.98795646 -0.77052855 -0.13246538 -0.021834517
-0.35043192 0.018047698 -0.75698054 -0.45645654 0.065957345 -0.4478465 0.84956944 0.12631232
-0.46161738 -0.5132578 -0.023523564 0.0043218173 -0.28941676 0.43817598 0.23200199 0.18888207
-0.71974134 -0.28029522 -0.8897884 0.7693463 -0.2452803 -0.76160496 0.56590587 0.0008407243
-0.45642555 0.25058913 -0.13493007 0.45775294 -0.04560057 0.29567388 -0.35215563 -0.3266833
-0.46067798 -0.3526611 -0.0050817225 0.06465221 0.40748712 -0.17159578 -0.9645776 -0.13042453
0.08751063 0.58169264 0.23932031 -0.22848263 -0.13807385 0.21224265 0.102604486 -0.068337284
0.16250902 -0.3533815 -0.35624588 -0.39721808 0.6314143 -0.274419 -0.26737347 0.07680983
-0.34723535 -0.5811323 0.2813995 -0.020546013 0.120526746 -0.0701156 0.6645276 -0.35543263
0.24840277 0.2566274 -0.556367 0.16243292 1.0716827 -0.5580632 -0.42591816 -0.30461437
-0.4538006 -0.05809863 0.28458562 0.31277353 0.28560048 -0.059869256 -0.22940892 -0.2747004
0.08408406 0.41085014 0.31537163 0.10164107 0.9948672 0.38032946 0.29114485 1.2889119
-0.20026016 0.12398801 0.66460365 -0.5544363 -0.14109497 -0.13901277 -0.61988884 0.29109773
0.197206 -0.3144813 0.18458018 0.09723773 0.17459822 0.016269598 -0.29376 0.30826694
-0.08198066 0.30797842

rnn.weight_hh f4 [7, 7]
00000000: 566e 223e 22f4 cdbe 90f3 27bf d89f 03bf
00000010: f00b 1dbe 7a69 51bf b58e 3abf 2928 44be
00000020: 1246 14be 0922 00be 7ead 1cbf 3277 7ebe
00000030: ba7c 2bbf 1e24 efbe 8015 cabe 3d04 02be
00000040: c9ef f53e cba7 8ebe 1813 b7be 1481 37bf
00000050: 23bc 62bc 4ecb d33c 6d0d 953e 37c0 a2be
00000060: 94df f73e dc0d af3c 73a3 8bbf 57c1 30bf
00000070: 05a0 14bf dcdc 63be 2aad 3bbf de33 8dbe
00000080: 895a b43e af36 6dbf 8ab5 10bf 1d73 cbbd
00000090: f0a8 c93e 96bb 22bf eb6a 51bf 3993 b7be
000000a0: e36b 8d3f 8c4b 74bf 27ec cfbd 5ea7 443e
000000b0: 1b92 24bd 684d 24bf f968 05be aa7c 51bf
000000c0: 68ec 793f
0.15862402 -0.4022532 -0.6560602 -0.5141578 -0.15336585 -0.8180157 -0.72874004 -0.19155945
-0.14479855 -0.12512983 -0.6120223 -0.24850157 -0.6698719 -0.46707243 -0.39469528 -0.1269693
0.48034504 -0.2786239 -0.35756755 -0.7168133 -0.013838801 0.02585378 0.29111806 -0.31787273
0.48412764 0.021368913 -1.0909256 -0.69045013 -0.5805667 -0.2225222 -0.733111 -0.27578634
0.35225323 -0.92661566 -0.56527007 -0.099340655 0.39386702 -0.63567483 -0.8180377 -0.3585451
1.104855 -0.95427775 -0.10152464 0.1920447 -0.0401784 -0.6418061 -0.13028325 -0.8183085
0.9762635

rnn.bias_ih f4 [7]
00000000: 29be 96be ca2a 66be 4c65 2ebd 7d43 bdbd
00000010: bd4e 10be ba1b 273e c57a 123e
-0.29441956 -0.2247726 -0.042577073 -0.09241388 -0.14092536 0.1631917 0.14304645

rnn.bias_hh f4 [7]
00000000: 4c6e b3bd 0a83 acbe 8195 c9be 285f 593e
00000010: 8c4d 4d3e 3f8f d23e cf1b 7a3e
-0.08761272 -0.33693725 -0.39371875 0.21227705 0.20049113 0.41124913 0.2442467

exp_avg f4 [7, 22]
00000000: 13e0 e6b8 f1f9 d3b9 61bc 32ba 9d04 8bb8
00000010: 3c28 aab9 fe0f 29ba d58b e6b9 3b82 c4b9
00000020: 483d d6ba 9ab5 4b39 683a 9b39 ac3e 1b3a
00000030: c9b2 b739 c912 083a b15d a139 910b 01b8
00000040: 9c45 6f38 31bc 1e39 628a ddb7 ca00 4038
00000050: f1e6 a939 6187 ef38 c55f b937 3ce6 78b7
00000060: 5935 0cba 8dff a1b8 2869 4136 dcd3 0bba
00000070: 73dc a0b8 0d94 9236 3179 6438 5934 4338
00000080: 5192 c338 23ff e238 5a97 7338 865c b538
00000090: f151 a138 17ca 1a38 f7c3 2238 22a1 b138
000000a0: 9483 f538 c1a6 3938 f41a 0039 4200 a938
000000b0: c324 df3b 03b4 8e3b 4305 7f3b 50ac 703b
000000c0: 4a1a dd39 a6fc 883b 3bda 513c 800e 033a
000000d0: 476d efb9 93db b0b8 0c88 afbb 9e61 81b9
000000e0: acdd 6c3a 54a9 143a a5b3 26b9 e77f df37
000000f0: 53f8 8fb7 c84d b3bb 70d7 3fbb 59ac 8b39
00000100: 0de8 0b3b 2370 973a f685 a93a 4aaa 53ba
00000110: 34a2 ccbb 46ae c33a 51a4 343a 2872 f6bb
00000120: 8b38 fa3a acd1 8e3a 5433 563b bee8 d7ba
00000130: b27a d73a 3693 df3a 8ba9 4b3a 04dd ec3a
00000140: 6aad 25b9 963b e339 dc45 d339 5665 273b
00000150: 7d2b 51bb 4522 a939 fb08 673b 302b 5b3b
00000160: 4bb7 c2b9 f1ae b9b9 1fd8 b53a 411c 8b3a
00000170: 69a6 84b9 3f15 a03a 8bd4 98b8 ca4f 74b9
00000180: c1b1 f039 0ade c239 cf73 93ba fd22 11ba
00000190: fb88 c8ba 0908 2e3a 557c e939 e132 15b9
000001a0: f5bc dab8 da69 5d39 c841 53ba 7eb4 77ba
000001b0: d94b 2739 8443 bd39 7d56 023a fd2f e73a
000001c0: 079b 91bb 3d67 24bb 1f7e 2d3a 2479 91bb
000001d0: b82b 05bb ffe8 b03a 6c55 493b 6645 32b9
000001e0: 13d7 9c3a e6bd b43b bfcf 1b3b 3d2f b0bb
000001f0: e720 d4ba 9456 ca39 0cfe 9539 5a91 e73a
00000200: 1f99 b73b 3644 743a f472 16bc 54d2 aa3b
00000210: 2cbe c5bb 7d78 6dbb ec7f 803c b5ec 0fba
00000220: 13af a0ba af18 873c c810 dabb 3cf1 18bb
00000230: e00e b7bb b2cb 7cb9 e1d8 313a eeb9 15bc
00000240: 6477 9abb 8343 6c3a 418b c93a b2c8 d1ba
00000250: 7268 c6ba f66c c0ba 6136 16bb ac84 faba
00000260: 9bce 193b 17b2 25bc
-0.00011008992 -0.00040431277 -0.0006818232 -6.628896e-05 -0.00032454904 -0.00064492214 -0.00043973202 -0.00037481062
-0.0016345168 0.0001942724 0.0002960742 0.00059221196 0.00035037685 0.00051907875 0.00030778119 -3.076677e-05
5.704687e-05 0.00015138161 -2.6409693e-05 4.5777102e-05 0.00032406257 0.000114216244 2.2098315e-05 -1.48355575e-05
-0.00053485256 -7.724678e-05 2.882045e-06 -0.00053339987 -7.6704564e-05 4.3683744e-06 5.4472304e-05 4.6540375e-05
9.325578e-05 0.00010824043 5.8076672e-05 8.6479864e-05 7.692341e-05 3.6904672e-05 3.8806316e-05 8.470031e-05
0.00011707019 4.426274e-05 0.00012217072 8.058596e-05 0.0068098023 0.004354955 0.0038913048 0.00367238
0.00042171992 0.0041805087 0.012808378 0.0004999414 -0.0004566705 -8.433233e-05 -0.005356794 -0.00024677528
0.0009035717 0.0005670984 -0.00015897916 2.664323e-05 -1.7162563e-05 -0.0054719187 -0.0029272698 0.00026640555
0.002134803 0.0011553805 0.00129336 -0.0008074386 -0.006244922 0.0014929257 0.000689094 -0.0075209327
0.0019090337 0.0010896227 0.0032684403 -0.0016472561 0.0016439764 0.0017057422 0.00077690993 0.0018071239
-0.00015800228 0.0004334121 0.00040297105 0.0025542579 -0.003191679 0.00032259725 0.0035253156 0.003344249
-0.00037139127 -0.0003541629 0.0013873613 0.0010613279 -0.00025300987 0.0012213363 -7.287514e-05 -0.00023299377
0.00045908804 0.00037167995 -0.0011249724 -0.00055365247 -0.0015299612 0.00066387706 0.00044533858 -0.00014228701
-0.00010430246 0.00021115635 -0.00080588134 -0.00094491977 0.00015954617 0.00036099192 0.0004971994 0.0017638203
-0.0044435295 -0.002508595 0.000661822 -0.00443949 -0.0020320248 0.0013497173 0.0030721081 -0.00017001256
0.0011965953 0.0055158017 0.002377495 -0.005376725 -0.0016184122 0.00038592948 0.00028608774 0.001766722
0.0056029703 0.00093180255 -0.00918268 0.0052130613 -0.006034633 -0.0036235147 0.015685998 -0.0005490289
-0.0012259207 0.016491262 -0.0066548325 -0.0023337146 -0.00558649 -0.00024108475 0.00067843316 -0.009138567
-0.0047139395 0.00090127456 0.0015376584 -0.0016005246 -0.0015137328 -0.001468091 -0.0022920596 -0.0019113026
0.0023469094 -0.010113261

exp_avg_sq f4 [7, 22]
00000000: f8f3 fe35 f7de b735 fca5 4438 2a45 8b35
00000010: 61c6 5c35 cbcd 4a38 4a01 6136 3256 a335
00000020: 2150 7a37 89bd 2635 cb90 3c35 8712 4235
00000030: 23fa f234 60ff c034 f457 e434 d9a4 c134
00000040: ad5f 0735 814f 5835 f29c 8936 1118 2c35
00000050: a6fb a235 62a1 c235 7475 9c35 7e1d 9b34
00000060: f0dc 0e38 826b 3336 8e71 4333 9363 0a38
00000070: ee58 1c37 3393 8433 34d0 1e35 a387 6935
00000080: 0804 2636 4808 5335 5992 2f35 66fd cf34
00000090: 4d43 5435 2d8d 6934 d2f8 5335 6a19 9f35
000000a0: 14c2 1236 4494 1f35 f97e 5634 649b 7035
000000b0: 2364 1639 43b7 3738 28e1 963b 3986 d839
000000c0: c4ad 6a36 fad4 903b 439b c33a 411a 8c36
000000d0: 3939 3538 33ca c638 6871 dd39 f991 6239
000000e0: 6f72 5b38 0a19 7438 308e 4438 4143 ac37
000000f0: 0be9 de37 b15f 9e39 d134 0f3a fa63 2a38
00000100: 59ec 4b38 e97b 6b38 d7b9 9a38 8521 6f37
00000110: 2acb 483b fcee 7839 894a 8e36 b4f9 3e3b
00000120: eabe 373a b170 b636 7a91 1838 1981 bb38
00000130: f96d 0239 9018 3839 d3be 6b38 d8e0 8c38
00000140: 283a 4038 d51e 8137 a807 ad37 1469 1139
00000150: f4ab 9c39 2f7f 1138 fa26 9438 60a4 7a38
00000160: 32b5 1c37 e4ab 4c36 c0e1 583a b2de 4338
00000170: 88a3 0c35 223e 4f3a f8a8 8838 2dc0 9b35
00000180: d226 ae37 77e5 6337 8012 7137 b630 d237
00000190: 9db2 9038 ee2a 5e37 4264 0337 62d2 9136
000001a0: 6777 b736 f4aa bd37 0f08 9838 b0c8 5837
000001b0: 39ca a537 2aae 9b37 ef87 0239 1f34 d636
000001c0: 3b97 6e3b a1c4 2638 1a3e fd35 c85d 743b
000001d0: a46f 1a39 9691 7536 b7c1 1538 cfc7 0338
000001e0: 52fb 1038 cdfb 3139 d09d 8838 dbc3 9139
000001f0: de7a db38 34b4 9f37 7033 9937 d465 4f38
00000200: d839 2439 8bf0 0338 375b b739 4ae3 1339
00000210: d6c3 6c39 5485 8f37 c422 813b b17c 8438
00000220: 1b49 af36 9bf0 863b 9497 c739 ec59 3137
00000230: 66d9 8838 96f0 2c38 a0dc 4238 6bce 8d39
00000240: c2d4 c738 0e6f 1e39 852d e238 e1c2 c237
00000250: bf47 c237 1fe8 7f38 a655 3a39 4278 2738
00000260: 3938 8939 0cf6 5e39
1.8995479e-06 1.3699454e-06 4.6884626e-05 1.0376436e-06 8.2245066e-07 4.8352213e-05 3.3528363e-06 1.2169533e-06
1.4919818e-05 6.211563e-07 7.024616e-07 7.229759e-07 4.525801e-07 3.5948597e-07 4.2532304e-07 3.6068994e-07
5.0430646e-07 8.0581964e-07 4.101189e-06 6.4110014e-07 1.214318e-06 1.4501095e-06 1.1657089e-06 2.8892458e-07
3.4061202e-05 2.6735656e-06 4.5505253e-08 3.29945e-05 9.31903e-06 6.1735044e-08 5.916256e-07 8.699664e-07
2.4738274e-06 7.8615676e-07 6.5405544e-07 3.8741126e-07 7.907409e-07 2.1751175e-07 7.8965707e-07 1.185382e-06
2.1868664e-06 5.944787e-07 1.9976495e-07 8.963309e-07 0.00014342419 4.3801276e-05 0.0046044774 0.00041298734
3.4969862e-06 0.00441992 0.0014923591 4.1753815e-06 4.3207056e-05 9.479038e-05 0.000422369 0.00021607419
5.2320243e-05 5.8197453e-05 4.6862464e-05 2.0535315e-05 2.6572981e-05 0.00030207404 0.00054628873 4.062427e-05
4.8619087e-05 5.6143766e-05 7.3779076e-05 1.42533145e-05 0.0030638673 0.00023740152 4.240607e-06 0.0029140534
0.00070093444 5.4371417e-06 3.637511e-05 8.940901e-05 0.00012438734 0.00017556758 5.6206085e-05 6.7176006e-05
4.583053e-05 1.5392356e-05 2.0626772e-05 0.00013867422 0.00029882754 3.4689143e-05 7.06445e-05 5.975773e-05
9.340512e-06 3.0498422e-06 0.00082733855 4.6699024e-05 5.2392033e-07 0.0007905682 6.516458e-05 1.160433e-06
2.0760493e-05 1.3583681e-05 1.4369027e-05 2.5056634e-05 6.8997244e-05 1.32422265e-05 7.831552e-06 4.3458285e-06
5.4677253e-06 2.2610162e-05 7.249426e-05 1.29213295e-05 1.97637e-05 1.8558541e-05 0.00012448405 6.3837647e-06
0.0036406058 3.976061e-05 1.8868043e-06 0.0037287343 0.00014728174 3.6592587e-06 3.570478e-05 3.141892e-05
3.4566336e-05 0.00016973839 6.51438e-05 0.0002780248 0.000104656196 1.903819e-05 1.8262974e-05 4.944748e-05
0.00015661807 3.1456857e-05 0.0003497244 0.00014103684 0.00022579668 1.7109014e-05 0.003940912 6.317476e-05
5.223917e-06 0.004118038 0.00038069172 1.0570959e-05 6.525479e-05 4.123206e-05 4.6458677e-05 0.0002704741
9.528689e-05 0.00015109425 0.000107849984 2.321735e-05 2.3160012e-05 6.1012917e-05 0.00017770249 3.99279e-05
0.00026172565 0.0002126323

exp_avg f4 [7, 7]
00000000: 35dd f1ba 5162 db38 bba2 7b39 2f6a e839
00000010: f7f5 bd39 d693 3a3a 9ee6 1c3a cf75 fa37
00000020: f699 b737 ffe8 f738 db07 c138 4ece 5b38
00000030: f090 0839 f861 ad38 8079 9db9 5ef7 d2b9
00000040: 7255 37bc b736 0e3b f6df 7b3a 1cfc 1a3b
00000050: b2ad cb3a 0f7d 263a 8289 d0b8 ba1d f83b
00000060: 649b 6bbc 98ba d33a 012c a93b fa99 e13b
00000070: bbf8 8339 7250 3039 b568 683a 7d3b 103b
00000080: a90b 1fbc 3e68 143b 4872 2d3b d52c 49b9
00000090: 4ad4 52ba 41d7 5d3a aa90 de3b bfbd 403b
000000a0: eb83 9cbc 58b9 6d3c c654 b6b9 6708 53ba
000000b0: ac4c c4b9 7627 ac38 e771 89ba 162a 1a3c
000000c0: d055 c0bc
-0.0018452766 0.000104610466 0.00023997847 0.000443296 0.00036232147 0.0007117366 0.00059852924 2.9857181e-05
2.1886994e-05 0.00011821277 9.20442e-05 5.2405805e-05 0.00013023964 8.267531e-05 -0.00030035898 -0.00040238624
-0.011189805 0.0021700093 0.0009608263 0.0023648804 0.0015539436 0.00063510326 -9.943826e-05 0.007571903
-0.01438031 0.0016153632 0.0051627164 0.0068848105 0.00025171586 0.00016814636 0.00088657 0.0022008114
-0.00970737 0.002264514 0.0026465822 -0.00019185555 -0.0008042498 0.0008462556 0.0067921476 0.0029409972
-0.019105872 0.014509521 -0.00034776906 -0.0008050263 -0.00037441158 8.208949e-05 -0.0010486216 0.009409448
-0.023478419

exp_avg_sq f4 [7, 7]
00000000: 358b 8237 269a 6334 0f42 3935 0536 ff35
00000010: 5cc1 0b35 84fe 0e35 848a 4035 9f4d 7034
00000020: 3754 ca34 56e8 9636 5872 1836 523b 3f35
00000030: 33c4 da34 b72f 8235 6494 2f37 452d 6037
00000040: df9e 403a 40b4 1c3a c004 0538 6bf0 3838
00000050: d967 1d38 60f1 2b37 6051 1437 cf8a 4c39
00000060: 3b6e 203a 94a9 e237 e0ba d838 f22a e738
00000070: a974 0736 133d 0536 3ffe 4937 0c26 7738
00000080: ece8 4d39 24ef 4b37 d847 8637 2362 7137
00000090: 921c 2737 e078 0038 b248 e338 852b d137
000000a0: 7b0c 573a 73cc 7739 ae20 6b37 4410 2537
000000b0: ff7e 3838 a64c db38 c29f 2438 bf1c c039
000000c0: 55be 1f3a
1.5562031e-05 2.1197101e-07 6.9014e-07 1.9014702e-06 5.206291e-07 5.326949e-07 7.172714e-07 2.237998e-07
3.7686706e-07 4.497396e-06 2.2716322e-06 7.1239367e-07 4.0748418e-07 9.699642e-07 1.0465363e-05 1.3361981e-05
0.00073478924 0.0005977787 3.1714095e-05 4.4092925e-05 3.7528433e-05 1.0248594e-05 8.840434e-06 0.00019506666
0.0006119941 2.7020265e-05 0.00010334491 0.000110229375 2.0184473e-06 1.9854094e-06 1.203973e-05 5.8924823e-05
0.00019637094 1.2155422e-05 1.60075e-05 1.4387569e-05 9.960628e-06 3.063015e-05 0.00010837744 2.4935007e-05
0.0008203459 0.00023631919 1.40147e-05 9.8385535e-06 4.3987293e-05 0.00010457011 3.9249433e-05 0.0003664251
0.00060937303

exp_avg f4 [7]
00000000: d792 283a dc0a 103a 6640 9ebb 3288 f23b
00000010: 3755 a5ba 0ce5 a33b 65a0 87bc
0.0006430572 0.0005494782 -0.0048294542 0.0074014897 -0.0012613897 0.0050016697 -0.016555974

exp_avg_sq f4 [7]
00000000: 7065 5338 a37d 1638 370b 9f3b b26e 4f3b
00000010: e64a 5d3a 026e 783b bb1d 8a3b
5.040079e-05 3.5879795e-05 0.004853632 0.0031651673 0.00084416417 0.0037907367 0.00421497

exp_avg f4 [7]
00000000: 9b1d 293a 94bf 0f3a dd5d 9ebb cba1 f23b
00000010: ace2 a4ba d7f9 a33b 469e 87bc
0.000645125 0.00054835645 -0.0048329667 0.007404541 -0.001257976 0.0050041485 -0.016554963

exp_avg_sq f4 [7]
00000000: 7a66 5338 797b 1638 300b 9f3b ba6e 4f3b
00000010: 154b 5d3a f06d 783b ba1d 8a3b
5.040176e-05 3.587778e-05 0.0048536286 0.0031651692 0.0008441669 0.0037907325 0.0042149695

exp_avg f4 [7, 22]
00000000: 2efe 7237 1d8c ce38 9328 40ba d94f 98b8
00000010: e46e bd38 0376 41ba 664f b7b8 b08f e138
00000020: 6e67 70b8 d80d d438 911e f238 aaf6 5939
00000030: 008f 0a39 cf4c fc38 bead ec38 8e23 5838
00000040: 4147 f238 23d3 4138 1adf 1839 9739 4338
00000050: 8fd7 5e39 a52f f938 b879 95bb 0252 293a
00000060: 0f65 0cbc 20c2 65bb 3d5b 023b a7c3 f1bb
00000070: 7a00 47bc c963 2438 1a08 493a 8447 27bb
00000080: f45b 3b3a b108 463b af32 b23a 47a8 073b
00000090: 8294 0e3b ae2d 2c3a 2e23 a1bb 2766 293a
000000a0: 3456 453b 704e 343a f01f 923b 7cb8 453b
000000b0: 9283 aa37 dd0f 2838 3dad 5db9 04ce 74b7
000000c0: d9dd 0138 df4e 62b9 afee 6c34 8670 4138
000000d0: ec15 a037 7a00 fd37 7b7f c937 64b3 3638
000000e0: d815 0338 d0e0 dd37 af7c e437 99de 3637
000000f0: ec10 2938 ed56 4f37 6332 1938 a0fe 5e37
00000100: bd38 4d38 512c 1f38 be13 8839 cb54 3c3c
00000110: 24d8 82bd cef2 dbbb 9095 243c e60b 83bd
00000120: b6fc 7fbb 4b2d 323c ee5b 9e3b 28f9 a03b
00000130: 1a80 e43b 7294 883c 93b7 403c a8cb 393c
00000140: 8230 0e3c 0858 a63b f01c 023c 7544 a53b
00000150: 6111 193c a645 aa3b 6ed2 b53c def2 293c
00000160: 6610 e337 1810 3739 88cb 44ba 68a5 1ab8
00000170: 4d90 0339 4276 4bba 4244 78b8 09c1 3a39
00000180: d3ef 1939 4847 6439 79c9 0cb9 cb66 8a39
00000190: 33de 92b9 4cef aa39 7e20 7e39 b9a1 6638
000001a0: 5d9c 0f39 f6a4 6738 5366 e238 8535 3938
000001b0: 4870 b139 1496 3038 438e 5e3b 602c d1bb
000001c0: a745 363d e5d3 f93b 52b1 d6bb 8535 333d
000001d0: 5d70 1e3c 2c5a cfbb 4774 d9ba ffae 6bbb
000001e0: a862 b4bb b024 3cbc 91ab dbbb 2e5f 29bc
000001f0: 9d0a b0bb f85b 68bb 8218 11bb 8923 68bb
00000200: e75b f5bb 3e5c 6ebb 1cc8 babc bae4 baba
00000210: da43 f038 7e4f c6bb 2d28 023d 35fc a53a
00000220: b856 a7bb 75d7 013d a85b 963b 328b 91bb
00000230: 1734 62bb cb6e a0ba d22c 48bb 350e c5bb
00000240: 63ff a7bb b317 91bb 6974 0abc d20b 30bb
00000250: 32f9 00bb 4685 2dbb f943 b0bb b60c 33bb
00000260: a15f 56bb 700e 56bc
1.4483505e-05 9.8489436e-05 -0.0007330265 -7.2627976e-05 9.032877e-05 -0.0007379951 -8.740909e-05 0.000107556
-5.7316785e-05 0.00010111526 0.00011545153 0.00020786622 0.00013213977 0.00012030603 0.00011285719 5.1531526e-05
0.00011552731 4.6211422e-05 0.00014578961 4.6545258e-05 0.00021251872 0.0001188212 -0.004561629 0.00064590585
-0.008569016 -0.0035058334 0.0019890808 -0.00737806 -0.01214611 3.919358e-05 0.0007668749 -0.0025524804
0.0007147186 0.0030217583 0.0013595427 0.0020699666 0.0021755998 0.0006568086 -0.004917524 0.000646206
0.0030111196 0.0006878143 0.0044593737 0.0030169776 2.0326846e-05 4.0069095e-05 -0.00021140739 -1.45915e-05
3.096261e-05 -0.00021582421 2.2066045e-07 4.611958e-05 1.9083694e-05 3.0160172e-05 2.402043e-05 4.3559252e-05
3.1253177e-05 2.644994e-05 2.7237778e-05 1.0899873e-05 4.03085e-05 1.23584e-05 3.652497e-05 1.3291516e-05
4.892865e-05 3.7949827e-05 0.0002595465 0.011494826 -0.06388882 -0.006712294 0.010045424 -0.06398754
-0.003906054 0.0108750565 0.004832736 0.0049125142 0.0069732787 0.016672347 0.0117625175 0.011340059
0.008678557 0.005076412 0.00794147 0.005043561 0.009342522 0.005196291 0.022195067 0.010372845
2.7068145e-05 0.00017458235 -0.0007507135 -3.6870508e-05 0.0001254689 -0.0007761457 -5.9191378e-05 0.00017810253
0.00014680559 0.00021770329 -0.00013426495 0.00026397998 -0.0002801284 0.00032603217 0.00024235432 5.498689e-05
0.00013695793 5.5228324e-05 0.00010795579 4.415728e-05 0.00033843727 4.210144e-05 0.0033959306 -0.0063834637
0.04450002 0.0076241367 -0.0065519 0.043752212 0.009670344 -0.006327888 -0.001659044 -0.003596246
-0.005504925 -0.011483356 -0.006703802 -0.010337634 -0.005372359 -0.0035455208 -0.0022139852 -0.0035421571
-0.0074877623 -0.0036370899 -0.022800498 -0.001425884 0.0001145673 -0.0060519567 0.031776596 0.0012663665
-0.005106773 0.031699616 0.004588563 -0.004441642 -0.0034515911 -0.001224005 -0.0030544293 -0.0060136565
-0.00512688 -0.004427874 -0.008450606 -0.0026862514 -0.0019679782 -0.0026477142 -0.0053791967 -0.0027320809
-0.0032710808 -0.013064966

exp_avg_sq f4 [7, 22]
00000000: 8d7e 4e35 ed79 8736 5a96 2238 ae06 c535
00000010: 6811 5b36 55d9 2238 a199 a736 1dfb 8636
00000020: e00c 4c36 76c1 3e35 fc4e 7535 260a c335
00000030: c841 5a35 116c b034 22b0 0235 f2d9 da34
00000040: 9aa2 6736 c589 9534 921f 4736 3c3c 9d34
00000050: 021f 3035 54d9 c934 c2b4 9939 1340 3b39
00000060: 2a53 313b daab 8338 d06b b038 df1d 463b
00000070: fe70 8c3a 7334 5839 7ca3 3638 dd7a 2939
00000080: 9ff6 b738 0928 c438 ed64 3538 4f84 1e38
00000090: 75c3 9938 8ffd a337 d975 cc39 4d2c 9a37
000000a0: cd75 0f39 bf0f a237 2ab5 a438 9496 0938
000000b0: 4473 0935 1fad b434 b7b8 8c36 18ee 3534
000000c0: f7c6 ef33 ce6e 9f36 ee0a 1a36 8568 d534
000000d0: d397 d533 ab52 8f34 8f3e 0334 e503 db33
000000e0: 299f c533 9c4c 2a33 82e1 d833 5f21 4733
000000f0: fc58 c934 349b 3f33 274a 9934 786c 0d33
00000100: bcb4 5f33 1360 b533 8e4d a538 321b ba39
00000110: 65a7 f43b 107f 9c39 64c6 a739 3818 ee3b
00000120: 5692 933a 0e57 c439 bedc 2d39 614b cd38
00000130: 337c 4a39 f4ac 133a 0472 2939 e3a0 0a39
00000140: 4476 c938 5804 3938 85c6 7d39 4b01 2138
00000150: 3049 233a cb07 3338 d5ad 293a c256 7938
00000160: def8 0635 dea3 1036 ae1d 3c38 2ffa dc35
00000170: d8e0 e435 d3cc 3838 fe35 5636 39ab 0f36
00000180: 2d29 3a35 8c34 3835 dcdb c335 b2ee bf35
00000190: 8512 8836 58a1 0a35 ce5d 0035 033f a934
000001a0: d8d7 5336 3c34 8434 46a0 6336 cff3 9534
000001b0: 74b3 e735 1b53 e334 2cdc 3d38 7da9 4b39
000001c0: b172 a93b f540 2539 9847 3239 e241 a63b
000001d0: 586f 033a e9a5 5239 85dd a138 e54b 5938
000001e0: 84a3 0e39 5db6 c139 22dd eb38 19ee 2c39
000001f0: 54a9 8e38 476f e537 0adc 4139 21f9 d637
00000200: 582d c939 c234 f137 6523 fb39 476d 1e38
00000210: 48eb b537 8994 1138 c4fd 573a 0069 bf36
00000220: 36ed c437 d1d4 5e3a d9c2 8338 77e4 0838
00000230: b3e6 2937 3495 9837 62ff 7a37 d103 0538
00000240: d4ae 8437 0ba9 6537 e0b3 9e38 644b bb36
00000250: 7e08 5438 cec0 b536 818a ee37 46fd be36
00000260: 3acc 0a38 8754 1638
7.6925136e-07 4.0375076e-06 3.8763836e-05 1.4679588e-06 3.2643675e-06 3.8826216e-05 4.9948726e-06 4.0227446e-06
3.0405863e-06 7.106204e-07 9.138455e-07 1.4531586e-06 8.130705e-07 3.2861183e-07 4.868508e-07 4.076424e-07
3.451633e-06 2.7853653e-07 2.9671687e-06 2.9287355e-07 6.561023e-07 3.7597295e-07 0.0002931711 0.00017857579
0.0027057626 6.2785766e-05 8.4124156e-05 0.0030230207 0.0010714827 0.00020618904 4.3544438e-05 0.00016162866
8.772057e-05 9.3534654e-05 4.3247757e-05 3.7793357e-05 7.332015e-05 1.9549187e-05 0.00038997715 1.837886e-05
0.00013681427 1.9319237e-05 7.853874e-05 3.2803582e-05 5.120421e-07 3.3653575e-07 4.1938288e-06 1.6943557e-07
1.1165496e-07 4.7514686e-06 2.295415e-06 3.975039e-07 9.946202e-08 2.6695974e-07 1.2223084e-07 1.01986906e-07
9.2024784e-08 3.9650885e-08 1.00993034e-07 4.636365e-08 3.7503912e-07 4.461181e-08 2.8552424e-07 3.2927773e-08
5.208561e-08 8.445945e-08 7.882259e-05 0.00035496947 0.007466244 0.00029849308 0.00032000535 0.0072660707
0.0011258821 0.00037448894 0.00016580799 9.789202e-05 0.00019310489 0.0005633377 0.0001615957 0.0001322064
9.6064556e-05 4.4111483e-05 0.00024201914 3.8386595e-05 0.00062288623 4.2684183e-05 0.00064727414 5.9447026e-05
5.028104e-07 2.1553055e-06 4.4850334e-05 1.646409e-06 1.7052762e-06 4.4059776e-05 3.1919913e-06 2.1408325e-06
6.935032e-07 6.862181e-07 1.459262e-06 1.4300078e-06 4.055272e-06 5.164379e-07 4.782022e-07 3.152455e-07
3.1567088e-06 2.4624921e-07 3.3918927e-06 2.7930807e-07 1.7263069e-06 4.2342512e-07 4.5266162e-05 0.00019422728
0.005171143 0.00015759825 0.00017002074 0.005073772 0.0005013845 0.00020088967 7.7183395e-05 5.1807514e-05
0.0001360309 0.000369477 0.000112468624 0.00016491897 6.8026275e-05 2.7350745e-05 0.00018487885 2.5626798e-05
0.0003837149 2.8754006e-05 0.00047900822 3.7771908e-05 2.1686443e-05 3.4709028e-05 0.0008239413 5.704467e-06
2.347548e-05 0.000850034 6.28286e-05 3.26377e-05 1.0126899e-05 1.818929e-05 1.4960622e-05 3.1713225e-05
1.5817037e-05 1.3688822e-05 7.5675314e-05 5.581811e-06 5.0552648e-05 5.4166658e-06 2.8436307e-05 5.691926e-06
3.3091965e-05 3.584151e-05

exp_avg f4 [7, 7]
00000000: c7b2 0cb9 d3c8 0939 595c fb37 5a9f 3939
00000010: fce5 7738 8581 8539 6034 6439 b929 d839
00000020: c252 0bbc a7b9 c537 f166 073b ab08 a43a
00000030: 6263 9c3b d45f f63b 71db 2337 c1de 3c38
00000040: 7b96 ee36 8301 e737 db2a 2637 b7f5 5338
00000050: 4fc0 7238 245b 573b 09cc a13b 6043 303b
00000060: 53e8 54bb 3fbd b23b 24e8 133d bc9c 823c
00000070: b756 cf38 af3f 9d39 2f3e ac38 540d be39
00000080: 029c 9cba 9277 5f3a 8da8 8f39 bfd6 62bb
00000090: 461f cfba 9fd2 71bb c071 9e39 b16c 34bb
000000a0: 029d 2bbd 1100 0a3c c731 92ba 5b9a 523b
000000b0: b39f a6ba a7c3 58ba 6218 dcba 9e41 b23b
000000c0: 4d82 11bd
-0.0001341804 0.00013140151 2.9964534e-05 0.00017702338 5.910358e-05 0.00025464236 0.00021763286 0.00041229816
-0.008503618 2.3570681e-05 0.0020660723 0.001251479 0.0047725895 0.007518748 9.76665e-06 4.503015e-05
7.110471e-06 2.753805e-05 9.904349e-06 5.053516e-05 5.7876397e-05 0.003286072 0.004937653 0.0026895627
-0.003248711 0.005454689 0.03611006 0.015943877 9.886681e-05 0.00029992822 8.213182e-05 0.00036249554
-0.001194835 0.0008524592 0.00027400666 -0.0034612862 -0.0015802167 -0.0036899222 0.0003022086 -0.0027530605
-0.04189778 0.008422867 -0.0011153751 0.003213546 -0.0012712389 -0.00082689006 -0.0016791935 0.005439951
-0.035524655

exp_avg_sq f4 [7, 7]
00000000: dfad 3f36 a6cc 0c36 3d92 0534 e2e6 c636
00000010: 5b08 4534 0238 0b35 4c93 6f34 ab7c 7b37
00000020: d0ce 443a 50b7 1237 dd3d 3739 7bb4 5f37
00000030: cd44 ae38 5242 5438 5099 0733 07cc 8a35
00000040: f00b a232 8e3b c134 0a75 af32 afbf 4533
00000050: 5848 4f33 3e33 e437 8947 7a39 ae42 9337
00000060: bbb9 b63a f8db 1d38 cab8 453a b335 7638
00000070: f8d3 4d34 a9bb 2536 efa5 c133 d45f 3636
00000080: a98e e836 b129 9d35 ad78 7034 d693 8637
00000090: ae59 1d39 cb16 5937 f688 1e3a 81da f637
000000a0: 9056 753a d91c 2a38 4ffa fa35 a188 5238
000000b0: e755 ce35 5909 8637 bc1d 9636 4f31 9237
000000c0: 5880 8539
2.8562424e-06 2.0980747e-06 1.2439791e-07 5.927738e-06 1.8350094e-07 5.186304e-07 2.2312196e-07 1.4989792e-05
0.0007507624 8.744959e-06 0.00017475286 1.3333857e-05 8.309782e-05 5.0606504e-05 3.1571574e-08 1.0341181e-06
1.886471e-08 3.5992383e-07 2.0425905e-08 4.6041972e-08 4.826174e-08 2.720358e-05 0.00023868507 1.7554816e-05
0.001394085 3.763658e-05 0.00075424893 5.870098e-05 1.9169227e-07 2.4696149e-06 9.017446e-08 2.7175893e-06
6.9307466e-06 1.1709545e-06 2.2395643e-07 1.6042886e-05 0.00015006095 1.2939515e-05 0.00060476304 2.9427234e-05
0.0009358907 4.0558025e-05 1.8699301e-06 5.0195147e-05 1.5373197e-06 1.5978398e-05 4.47381e-06 1.7427517e-05
0.0002546336

exp_avg f4 [7]
00000000: d58f 433a e6df f73b 2fb8 6b39 387f 853d
00000010: 0707 503a 64df 36bd bd09 02bd
0.00074600923 0.0075645326 0.0002247996 0.06518406 0.00079356175 -0.044646636 -0.03174757

exp_avg_sq f4 [7]
00000000: 4caa 3738 72ef 503b 50d5 a936 8010 023c
00000010: 4de9 4838 cadc b13b 079f 673a
4.37892e-05 0.0031881002 5.0614253e-06 0.007938504 4.7900994e-05 0.0054279314 0.00088356476

exp_avg f4 [7]
00000000: 6496 433a 04c8 f73b cc9d 6a39 5a7d 853d
00000010: 257a 4f3a 75e1 36bd 5607 02bd
0.00074610696 0.0075616855 0.00022374763 0.065180495 0.00079146243 -0.044648606 -0.031745277

exp_avg_sq f4 [7]
00000000: 5faa 3738 5cef 503b d5cf a936 7410 023c
00000010: 8de8 4838 d0dc b13b d59e 673a
4.378927e-05 0.003188095 5.0607873e-06 0.007938493 4.7900296e-05 0.005427934 0.00088356185

exp_avg f4 [7, 22]
00000000: 2894 61ba 1416 b5b9 3f5d 8fba f0f6 afb9
00000010: aa1b 9db9 4e10 77ba 2ae6 e5ba 6879 9cb9
00000020: 5598 86ba 4850 1439 79c0 8b39 e557 2e3a
00000030: 510a 5639 d477 eb39 846d 7839 e053 10b7
00000040: fb65 4538 d46b b137 6671 1638 d02b 053a
00000050: 56e6 2639 d1f2 4539 58ad 54ba 90cc 383a
00000060: 2137 c4bb d75b 02bb fa68 083a b3a7 bfbb
00000070: 3d2d 4abb 7d0a 843a 8a04 363a 7aba eeb9
00000080: e11b 9a3a 810d 0f3b 2263 1f3a 8e54 9e3a
00000090: c229 5f3a 3cf8 f039 b60b 0d39 d3ec 313a
000000a0: 4381 ef39 1578 373b e62f 4a3a 4fbc 803a
000000b0: 42da a2ba 51ab ae39 08d1 b7bb a913 22bb
000000c0: 4c67 3b3a 0b7b abbb dc92 a4bb b848 073a
000000d0: f424 4b3a 0861 313a 72e5 0f39 ccdd de3a
000000e0: 6ff5 073a 88c1 8b3a cd82 3d3a 47da d639
000000f0: 016e 013a e01d 5ab8 0c99 d039 5d4d 333b
00000100: acdd 483a d39a 5b3a 7bec c0b8 afc9 de37
00000110: 2b8a 19ba 7a25 47b9 c75f 5138 f648 13ba
00000120: ba49 b9b9 00b1 6338 8871 6438 36b6 4f38
00000130: 55f5 8e38 6063 2039 88f6 4038 9741 f238
00000140: 3c39 bf38 6417 0f38 0d77 2738 5bbb 4238
00000150: 2bd8 1438 9e6c 7739 cb21 9338 aff6 c438
00000160: d3b4 003a 1a84 beba f0fe 4a3c 75a1 173b
00000170: 1703 78b9 5b5f 413c 96e4 e73b 1d3b 3eb9
00000180: 7d47 f8ba 5ff9 f837 556a 3fba 94f3 09bc
00000190: f38c 08bb 0136 b43a ec99 2638 662d 87ba
000001a0: 6994 8dba 4792 3aba 6512 88ba 6a54 02bc
000001b0: 3bb4 dab8 fcdd 7239 65f5 f7ba 43b7 65b8
000001c0: c6cf 3c3b 97bb 7d3b 20d5 ecb9 57f9 743a
000001d0: 34b4 e43b 9d06 feb9 a583 9d3a 85e5 c03a
000001e0: fcde 703b b3e2 683b 7024 1a3b 6376 57bc
000001f0: 2eaf 9aba 68b5 a237 c371 1a39 276e 1d39
00000200: 01cd 2138 4178 8c3a 68cf 8cbb 42f6 4f3a
00000210: d5b7 ab3b fea1 c83b a884 81bc 427c 4ebb
00000220: 915d 5f3b dce4 62bc 7866 11bc 6220 773b
00000230: db62 2f3b bcb0 3ebb d529 e1ba 01fa 3e3c
00000240: d11a 093b beff 6c3b bc23 28ba b8cb c33a
00000250: 515f c63a 432d e93a c7f3 ba3a aaa9 1b3c
00000260: 377b 213b 032d 5fbb
-0.0008605146 -0.0003453946 -0.0010937824 -0.00033562584 -0.00029965985 -0.0009424732 -0.0017539908 -0.00029845093
-0.0010268787 0.00014144287 0.0002665555 0.00066506705 0.00020412474 0.00044911972 0.00023691921 -8.6025975e-06
4.7063437e-05 2.1150256e-05 3.5868397e-05 0.0005080076 0.000159168 0.0001887784 -0.00081129884 0.0007049525
-0.005988017 -0.0019891167 0.0005203631 -0.0058488487 -0.0030849718 0.0010073927 0.00069434254 -0.00045533833
0.0011757576 0.0021828117 0.00060801406 0.0012079643 0.00085129973 0.00045961316 0.0001345117 0.0006787304
0.0004568194 0.0027995158 0.0007712826 0.0009821745 -0.0012424665 0.00033315507 -0.0056096353 -0.0024730957
0.00071488763 -0.0052331737 -0.00502239 0.0005160677 0.0007749342 0.0006766473 0.00013723018 0.0017003356
0.0005186414 0.0010662535 0.00072292687 0.0004097989 0.00049373513 -5.2003074e-05 0.0003978688 0.0027359345
0.0007662426 0.00083772576 -9.199321e-05 2.6558379e-05 -0.00058570754 -0.0001899208 4.9918683e-05 -0.0005618477
-0.0003534088 5.428586e-05 5.446517e-05 4.9522343e-05 6.816784e-05 0.00015295809 4.6005967e-05 0.00011551676
9.1182505e-05 3.411564e-05 3.9926777e-05 4.6427693e-05 3.548727e-05 0.00023596219 7.015801e-05 9.391957e-05
0.00049097574 -0.0014535219 0.012389883 0.0023137007 -0.00023652274 0.01180252 0.00707681 -0.00018141833
-0.0018942204 2.9680026e-05 -0.00073019165 -0.00841989 -0.0020835965 0.0013749005 3.9720835e-05 -0.0010313212
-0.0010801676 -0.0007117134 -0.0010381459 -0.007954696 -0.000104286206 0.00023161614 -0.0018917738 -5.476853e-05
0.0028810366 0.0038716549 -0.00045172218 0.0009345016 0.0069794897 -0.00048451583 0.0012017383 0.001471684
0.0036754003 0.0035535514 0.0023520254 -0.013150784 -0.0011801475 1.9396379e-05 0.00014728964 0.00015013722
3.8576316e-05 0.0010716991 -0.0042971857 0.00079331186 0.0052404203 0.0061228266 -0.015810326 -0.003150717
0.003408287 -0.01384851 -0.008874528 0.003770851 0.0026761803 -0.002909704 -0.0017178605 0.011656285
0.0020920525 0.0036163176 -0.0006414016 0.0014938032 0.0015134608 0.0017789978 0.0014263325 0.0095009
0.0024640092 -0.0034053929

exp_avg_sq f4 [7, 22]
00000000: dd37 7137 5e64 7b37 5b43 1039 7774 8a37
00000010: d70f 9037 be15 0f39 beac ec37 aad3 a137
00000020: caab 9c37 6550 6836 81fe 5736 d6d4 bb36
00000030: 87c0 f235 a7b4 0336 dabb d235 0757 1636
00000040: a20a d736 c006 9836 1341 2436 8458 f536
00000050: 63c4 4f36 9673 5436 da0d 163a 0d12 0c37
00000060: 7ad0 133b 77ee 6039 df95 2d36 f584 2b3b
00000070: 6e59 c23a 60c9 3d37 f1ed a137 71b9 9439
00000080: c775 c138 407f bc38 295e ab37 400c e337
00000090: 5bd9 0538 e621 ad37 c5f1 fa38 3422 b239
000000a0: 83e9 af37 7c30 2d38 af30 e437 017f e937
000000b0: fddf f039 30f2 8837 263f af3a 591d 3739
000000c0: 6162 8236 f86a d53a a395 cb3a fe58 bd37
000000d0: 2e53 6e37 3b21 3338 1822 2939 06a3 a638
000000e0: a4b4 9b37 6381 ca37 2f74 8f37 ddfa 7437
000000f0: f7e2 9b38 6ec3 3c39 ea6d 5337 99d8 1838
00000100: fb75 c937 f818 9e37 c45e b636 4b42 d934
00000110: f472 2e38 ab27 da36 3f2e 0935 65a5 2938
00000120: e0dd da37 09fe 3235 4671 1135 694b c235
00000130: f2f0 b735 37e4 b735 a9f5 3e35 685a 7a35
00000140: 8d1e f235 bb89 4d35 229d cf35 ca38 0d35
00000150: fd08 cf35 3843 3135 5a51 8e35 e7e2 bc35
00000160: 6184 0639 a63d 3438 75c9 223b 9323 9b39
00000170: 3c1c 6838 77ed 163b 8e2c a63a c486 8f38
00000180: e3aa 0e38 4fb6 c937 861a 9638 3b3b 7b39
00000190: 3b87 1438 c813 8538 3b64 4a38 66a7 a537
000001a0: 01a6 f337 d531 7738 3abf 8237 89af 8339
000001b0: b5a4 6238 34c3 d738 b03f 5b39 78c6 0a38
000001c0: 0f87 4e3b 5db1 373a 24c7 8238 55b9 2c3b
000001d0: 6dd8 223b 6eb4 a738 f45e b637 7b7c cf37
000001e0: 944b 2638 7709 4239 75da dc37 f71d b739
000001f0: 656d 9f38 363a b937 f7da e337 0e4d e337
00000200: 74c2 b637 531c f139 0bbd a238 bf44 f838
00000210: 1cad e039 32ca e337 4735 a13b 5272 3a3a
00000220: 7e93 1f38 4095 973b 4988 213b c5a6 4338
00000230: 2d1b 1638 6eb0 c538 1bab 0c39 c71d 8939
00000240: 1c10 3838 a6ff 0e39 eacc 7e39 8f34 fc37
00000250: 8509 3e38 3401 2a38 40cd 1c38 2dcc 2d3a
00000260: 5d37 b138 704b 9139
1.4377726e-05 1.4984134e-05 0.00013758002 1.6505115e-05 1.7173514e-05 0.00013645642 2.8213832e-05 1.929126e-05
1.8676645e-05 3.461749e-06 3.2185637e-06 5.5978117e-06 1.8086438e-06 1.9625675e-06 1.5700891e-06 2.2402398e-06
6.408737e-06 4.530739e-06 2.4475783e-06 7.3118736e-06 3.0959716e-06 3.1657742e-06 0.000572411 8.348853e-06
0.0022554682 0.0002145114 2.5866245e-06 0.0026171778 0.0014827678 1.1312164e-05 1.9303496e-05 0.00028366924
9.224895e-05 8.988241e-05 2.0428635e-05 2.7066213e-05 3.19121e-05 2.0638992e-05 0.00011965962 0.0003397629
2.0970363e-05 4.129157e-05 2.7202388e-05 2.7834905e-05 0.00045943251 1.632524e-05 0.001337026 0.00017463173
3.8857547e-06 0.001628249 0.0015532266 2.2571996e-05 1.4205272e-05 4.2707874e-05 0.00016129797 7.945862e-05
1.8561557e-05 2.4140527e-05 1.710103e-05 1.4601942e-05 7.4332514e-05 0.0001800188 1.2602171e-05 3.6441346e-05
2.4016006e-05 1.8846695e-05 5.435055e-06 4.0467634e-07 4.159189e-05 6.5015242e-06 5.1103774e-07 4.0446776e-05
2.6090944e-05 6.6679837e-07 5.4181544e-07 1.4476074e-06 1.3704687e-06 1.3700982e-06 7.1138e-07 9.3263816e-07
1.8039296e-06 7.6568875e-07 1.5468434e-06 5.260923e-07 1.5425318e-06 6.6035454e-07 1.0603501e-06 1.4073129e-06
0.00012828551 4.297276e-05 0.0024839316 0.0002959041 5.5339406e-05 0.0023029724 0.0012678073 6.8438734e-05
3.401459e-05 2.4045961e-05 7.157498e-05 0.0002395929 3.5411893e-05 6.345619e-05 4.82539e-05 1.9747484e-05
2.9045159e-05 5.89358e-05 1.5586254e-05 0.0002511705 5.4035994e-05 0.00010288358 0.00020909193 3.3086602e-05
0.0031513607 0.0007007325 6.235976e-05 0.0026355584 0.0024848238 7.996788e-05 2.1740307e-05 2.4734289e-05
3.964787e-05 0.00018504808 2.632777e-05 0.00034926806 7.602087e-05 2.2080825e-05 2.7162472e-05 2.709639e-05
2.178664e-05 0.00045988205 7.759974e-05 0.000118383665 0.00042853586 2.7154663e-05 0.004919681 0.0007112372
3.8045917e-05 0.0046259463 0.0024647883 4.664694e-05 3.5788096e-05 9.4265546e-05 0.00013415182 0.00026152862
4.388402e-05 0.00013637412 0.00024299664 3.0065215e-05 4.5308396e-05 4.053228e-05 3.7384452e-05 0.0006629851
8.45033e-05 0.0002771276

exp_avg f4 [7, 7]
00000000: b2b6 9eba 8651 fa38 9424 1a39 5c18 ac38
00000010: 6265 963a ee50 d939 a2e0 8139 0056 b839
00000020: 54c7 69ba 959f a53a 9390 a539 0aa7 5f3b
00000030: 655a 4f3a 4f3f 873a b4a0 e039 b25b 383a
00000040: c4bc 31ba 8786 6739 d368 503b da75 863a
00000050: d4fd 383a 6043 d837 4af7 f837 309a 1138
00000060: 52b3 aa37 ed33 8039 3e30 c638 6ed1 0b39
00000070: 576e 97b9 9349 b7ba d8b2 8dba be5a bdba
00000080: a746 8ebc 631d a93b 872a 9b3b 0c46 143a
00000090: 1842 0c3a 91eb 103a 9f8a d639 bc56 643c
000000a0: 8736 bdbc 88e0 a43b 07fe 773a 73b6 853a
000000b0: e797 963a dc74 5d3a 68b8 8b3c 548d 973b
000000c0: da48 32bc
-0.0012108891 0.00011936114 0.00014700211 8.2061364e-05 0.0011474306 0.00041449763 0.00024772162 0.0003515929
-0.0008917947 0.001263606 0.0003157897 0.0034126663 0.0007909893 0.001031855 0.00042844343 0.00070327066
-0.00067801424 0.00022079992 0.0031800761 0.0010258511 0.00070568663 2.578058e-05 2.9679057e-05 3.4714292e-05
2.0349082e-05 0.0002445275 9.4503615e-05 0.00013334092 -0.00028883174 -0.0013983719 -0.0010810746 -0.0014446599
-0.017367674 0.005160974 0.0047352943 0.000565619 0.0005350425 0.0005528266 0.00040920542 0.013936695
-0.02309729 0.005031649 0.0009460155 0.0010201469 0.0011489362 0.00084478944 0.017055705 0.004625002
-0.010881627

exp_avg_sq f4 [7, 7]
00000000: f25b b737 fb7c d236 fa35 5f36 35c8 b735
00000010: cb65 ac36 8edd 5636 1692 1a36 7836 4137
00000020: 0be1 053a e7f0 8f39 5923 2237 dd8f 0138
00000030: ff67 6e37 4bb6 b237 6c3d 1d37 6a52 a838
00000040: 3b97 e739 a741 c536 80ea 2138 7482 6e37
00000050: bad6 4137 10b5 1035 c512 1136 c5fe 6d35
00000060: 76d0 3f35 93a7 6735 859d 0536 c9c6 b236
00000070: a01e b037 7346 9d37 178c 9f38 0e45 f036
00000080: 1e2a 0f3a 1524 5238 93b7 0839 6642 2337
00000090: 3a93 8937 070f 9637 ed61 1e37 3551 ae39
000000a0: e706 253a 21d1 cf38 ffa0 8237 f08c d537
000000b0: 389b ca37 0f3a 9d37 6cb1 253a 1c74 8c38
000000c0: f1fa 5a3a
2.1858115e-05 6.2730373e-06 3.3261008e-06 1.369283e-06 5.1378497e-06 3.2017447e-06 2.3032821e-06 1.1516378e-05
0.00051070814 0.00027454572 9.6641825e-06 3.088998e-05 1.4210119e-05 2.130414e-05 9.37223e-06 8.026215e-05
0.0004417243 5.8787004e-06 3.8603786e-05 1.4216279e-05 1.1553691e-05 5.390766e-07 2.161761e-06 8.866012e-07
7.1456395e-07 8.629806e-07 1.9910233e-06 5.327955e-06 2.0995096e-05 1.8748664e-05 7.6078046e-05 7.1605964e-06
0.0005461293 5.0101506e-05 0.00013038357 9.731017e-06 1.640023e-05 1.7888391e-05 9.440334e-06 0.0003324837
0.0006295279 9.9094825e-05 1.5572177e-05 2.5457208e-05 2.4152556e-05 1.8742894e-05 0.00063206884 6.697347e-05
0.0008353433

exp_avg f4 [7]
00000000: d373 7a3a b8aa cd3b d70c b73b 48e6 1d3a
00000010: 0285 3fbc 4ffb 06bb 8b18 723c
0.00095540023 0.006276455 0.0055862474 0.0006023389 -0.011689426 -0.002059657 0.014776359

exp_avg_sq f4 [7]
00000000: b0c3 3339 bc24 3a3b aeff ed3a 2c9d 4738
00000010: f18b 2e3b 3398 5f3b 6170 b03b
0.0001714367 0.0028403243 0.0018157864 4.7591675e-05 0.0026633705 0.0034117817 0.0053844904

exp_avg f4 [7]
00000000: 9b6d 7b3a acd6 cd3b e206 b73b 36eb 1e3a
00000010: ea8d 3fbc 3c3f 07bb 8100 723c
0.00095912226 0.0062816944 0.0055855373 0.0006062271 -0.01169155 -0.0020637056 0.014770628

exp_avg_sq f4 [7]
00000000: f1c4 3339 da24 3a3b bbff ed3a 14a6 4738
00000010: 1b8c 2e3b 2898 5f3b 6d70 b03b
0.00017144137 0.0028403313 0.0018157879 4.759997e-05 0.0026633802 0.0034117792 0.005384496

exp_avg f4 [7, 22]
00000000: 41d7 7dbc a401 95bb a295 de3c 5918 67bb
00000010: 9938 bfbb 9d06 f33c 1d6e d1bc 3c1c a9bb
00000020: 4475 31bb 49a2 5bba 7dcf fc37 5422 31bc
00000030: e2da d0bb f35c d8ba 7ae7 cdbb b337 aabc
00000040: 82db 44bb 68e7 89ba 6c43 89ba 26d1 41bb
00000050: 3b7e da39 d816 62b9 1310 a739 ff41 f937
00000060: 2afa b9ba d0ec 2f39 67c4 8f37 c116 bdba
00000070: 3674 183a 706c b637 7123 1f39 4a5a 2438
00000080: 2d89 1a39 6622 d939 7664 6d39 be82 ab39
00000090: 37f3 4839 935f a439 00e2 e038 7983 8c39
000000a0: 4d71 9139 b696 e138 d427 6c39 d682 4d39
000000b0: 7e51 d3ba b441 9b3a 675b 093c c8d3 feba
000000c0: 4719 22bb 8660 0d3c 746e 07ba fed4 31ba
000000d0: 9ba6 4a3a 3cd7 92bb a4cd 9dbb 380d 963a
000000e0: da7a a8ba 3952 153b 59c7 81ba a4f0 1e3b
000000f0: e57c 67ba c8be 4ebc 6d7b 0f3b 1cd9 66ba
00000100: ea78 103b 5498 3a39 ff48 b1ba cbde 913a
00000110: b23a 4ebc 9d0a 9ebb 1fd2 523b 951b 5ebc
00000120: 0644 e1bb 5dc1 ab3a fbb5 0eb9 f141 2d3a
00000130: 939b 1dba d9b0 2c3b 69d2 783b 42e5 3a3b
00000140: f9a8 133b e7f9 c23b b2e2 793a 84f4 c03b
00000150: 4a4b bcbb 274b 783a 72ad e93a 6bca db3a
00000160: 8bab 1439 e321 e0b4 bf69 3bba 889b be38
00000170: 2033 74b6 7101 3fba 9a61 8d39 fff8 07b5
00000180: eb64 6b38 9d13 8a38 0f85 a238 5f3a 4439
00000190: b0a2 e538 8480 2839 58f2 b538 71bb fb38
000001a0: 56d8 6738 9d61 1c39 e942 1539 785f 5738
000001b0: dce8 ef38 74b0 d638 6319 a03b a568 173a
000001c0: 9cb9 d5ba 14a2 093b 36f2 e53a 3a89 c2ba
000001d0: 5e6a e03b 5c1e c33a c8a4 9539 2533 5b3a
000001e0: 88f5 683a 314f 0839 fd51 e639 a364 14bb
000001f0: 4d90 a43a 77ce 033b 3d47 c539 c82e e83a
00000200: d928 2c3a 0da2 c339 9f25 47bb af45 19ba
00000210: 0abc 71ba 8517 3bba 8a95 2fbc 8ed9 163b
00000220: 9970 67ba 9cae 3bbc 8177 1b3b e99b 98ba
00000230: eced 2f3a 7c9c a03a 7112 d63a 121d 273b
00000240: 908a fa39 fab8 933b 295f d939 1b51 093b
00000250: acec 4c3a d9d3 563b 96bf a13a a648 4b3a
00000260: ad96 4b3b 8fcb 5d39
-0.015493215 -0.0045473147 0.02717096 -0.0035262315 -0.0058356044 0.02966624 -0.025565201 -0.0051608365
-0.0027077952 -0.00083783694 3.013736e-05 -0.010811407 -0.006373749 -0.0016507193 -0.0062836977 -0.020778513
-0.0030038063 -0.0010521235 -0.0010472364 -0.0029574125 0.0004167425 -0.0002156155 0.00031864698 2.9713845e-05
-0.0014188935 0.0001677752 1.7138385e-05 -0.0014426337 0.00058156566 2.1746586e-05 0.00015176625 3.9184735e-05
0.00014737686 0.00041415094 0.00022639506 0.00032713072 0.00019164091 0.00031351726 0.00010723248 0.00026800836
0.0002774097 0.00010756908 0.00022521551 0.00019599064 -0.0016122309 0.0011845143 0.008383608 -0.0019441778
-0.0024734305 0.00862897 -0.00051663 -0.00067837525 0.00077305146 -0.0044812243 -0.004815774 0.0011448031
-0.0012853995 0.0022784604 -0.0009901329 0.002425232 -0.00088305614 -0.012618728 0.0021893636 -0.00088061555
0.0022044727 0.00017795089 -0.0013525783 0.001112902 -0.012587236 -0.0048230425 0.00321687 -0.013556381
-0.006874564 0.0013103891 -0.00013609968 0.00066092523 -0.0006012257 0.0026350527 0.003796721 0.0028517996
0.0022531135 0.005950201 0.00095323764 0.0058885235 -0.00574628 0.0009471648 0.001782818 0.0016768699
0.00014178285 -4.1747907e-07 -0.0007149241 9.088876e-05 -3.6388592e-06 -0.00072862866 0.00026966335 -5.0653756e-07
5.6122353e-05 6.584006e-05 7.749546e-05 0.00018713762 0.00010949874 0.00016069604 8.6758926e-05 0.00012003526
5.527617e-05 0.00014913683 0.00014234673 5.1348907e-05 0.000114397815 0.00010237182 0.004885839 0.0005775786
-0.0016305926 0.0021001147 0.0017543498 -0.0014841922 0.0068486175 0.0014886367 0.00028542266 0.0008361808
0.00088866847 0.00012999472 0.00043930105 -0.0022642992 0.0012555212 0.0020112076 0.00037627845 0.0017714137
0.0006567366 0.00037314036 -0.0030387414 -0.00058468705 -0.00092214404 -0.00071369886 -0.010716805 0.0023017856
-0.0008828729 -0.011455204 0.0023722353 -0.0011643145 0.00067111733 0.0012253667 0.00163324 0.0025499505
0.00047786953 0.004508135 0.00041460365 0.0020952884 0.0007817249 0.003278008 0.0012340422 0.0007754661
0.0031065152 0.00021152034

exp_avg_sq f4 [7, 22]
00000000: 1cb7 183a 1759 9b38 9ebf bc3b 5809 5d39
00000010: 9f52 ec38 3b8c c73b e9ac e83a c9c3 c338
00000020: d798 0739 8228 7438 0d6f c438 f9f8 f439
00000030: 00b3 2739 da52 2b39 0085 0939 80b3 f439
00000040: 8f63 3238 4ecc bb39 7f7e 1039 a0b8 2938
00000050: d649 f438 9ce0 a038 81a7 4437 ae62 f634
00000060: 5327 8538 5b05 7536 6f81 7834 c88b 9638
00000070: 1021 fd37 daad 1235 b058 9e35 59c7 fd36
00000080: 9bfb 9935 56e9 0c36 a1b8 7e35 f75b 8f35
00000090: 542d 9935 df38 f235 19a1 3335 82f6 dc36
000000a0: 6a49 9235 3692 de35 f905 6d35 0385 9035
000000b0: d7e3 2f3a 3760 8737 76a1 e33b d0e4 133a
000000c0: 7fbc 2338 2cbb e53b 96c5 3b3b b7d9 9e37
000000d0: d930 7838 a5fb 0239 6422 aa39 ec35 da39
000000e0: 2eca 0239 8716 5439 46cf 0839 ba1f 7239
000000f0: cbdd 4038 7ce1 1f3a 27f0 9639 09c8 6738
00000100: ecd3 0e39 ffdb ea38 52d4 513a 5266 9e36
00000110: 824e 383b d3df 193a 7574 f637 cab7 443b
00000120: cfed 6d3b 4840 c036 b94b f937 41ce 1138
00000130: b9d9 1a39 e0cd 9239 ec98 8a38 0efe a638
00000140: 81b8 1038 3e2d be38 5ed7 b737 5274 8139
00000150: 5fea a539 6013 b537 a3ce e137 4983 da37
00000160: 2142 9b36 e2df ea33 bff5 3d38 9262 8636
00000170: d6aa 4b34 378a 3f38 d030 a537 31e9 ef33
00000180: 8450 1135 8cab a235 4c39 e735 60f0 0d36
00000190: a686 8e35 dbab 4635 1818 8635 310d 8435
000001a0: 87af 0635 ab37 6b36 ceed 0835 5300 ca35
000001b0: 0f01 0f35 88eb 8035 3cda 7b38 d7ca 7637
000001c0: 7849 043b 169c 8e38 46d5 4237 7742 033b
000001d0: 60fc 8c39 3c66 2b37 07ef 0138 e84c b637
000001e0: 6aec a037 aea9 a638 067e 2638 df96 0839
000001f0: 7301 6d38 c224 7238 1cf8 3037 a477 0339
00000200: 3e49 6f37 e663 2737 d381 0639 9fa7 8338
00000210: 63c3 d937 491c 2f37 9064 0a3b 476c 0d39
00000220: 94a9 9336 b0fe 023b 9f85 b639 2e5b 8236
00000230: 4f8d 2e37 2e4b c737 bf90 8037 0dbd 7538
00000240: 42ee a938 c2c1 a338 cc36 f238 7d1d 3738
00000250: 0bcf 3737 bde7 dc38 9bc9 6c37 e8a2 5537
00000260: 60cb 0439 161d cb38
0.0005825625 7.40757e-05 0.0057601472 0.00021079683 0.00011268746 0.006089715 0.0017751727 9.3347924e-05
0.0001293154 5.821186e-05 9.366693e-05 0.00046724806 0.00015993044 0.00016338695 0.00013114884 0.00046673045
4.253123e-05 0.00035819638 0.00013780034 4.0464685e-05 0.0001164858 7.671231e-05 1.172151e-05 4.589287e-07
6.349259e-05 3.6510962e-06 2.3143888e-07 7.178594e-05 3.0175346e-05 5.4642226e-07 1.1797729e-06 7.5631947e-06
1.1472615e-06 2.0997445e-06 9.4891044e-07 1.0681096e-06 1.141258e-06 1.8046957e-06 6.6917124e-07 6.585208e-06
1.0899214e-06 1.6582842e-06 8.829807e-07 1.0767548e-06 0.0006709671 1.6138058e-05 0.006946738 0.00056417007
3.903778e-05 0.007010838 0.0028651706 1.893645e-05 5.91733e-05 0.00012491511 0.0003245055 0.00041620375
0.00012473084 0.00020226288 0.00013047186 0.00023090738 4.5982928e-05 0.00060989684 0.00028789157 5.526099e-05
0.00013621122 0.00011198967 0.00080043555 4.7206786e-06 0.0028122966 0.0005869839 2.9379715e-05 0.0030016773
0.0036305075 5.729529e-06 2.9718374e-05 3.4762783e-05 0.00014767692 0.0002800068 6.608837e-05 7.962818e-05
3.4504108e-05 9.068333e-05 2.1915588e-05 0.00024691463 0.00031645873 2.1585904e-05 2.6918313e-05 2.604876e-05
4.6270584e-06 1.0937198e-07 4.528998e-05 4.0049863e-06 1.8967998e-07 4.566667e-05 1.9692263e-05 1.1171722e-07
5.4133875e-07 1.2119867e-06 1.7227517e-06 2.1150554e-06 1.0619012e-06 7.401083e-07 9.99079e-07 9.838606e-07
5.0174316e-07 3.5050132e-06 5.101e-07 1.5050267e-06 5.327319e-07 9.605292e-07 6.004631e-05 1.470997e-05
0.0020185392 6.800161e-05 1.1612958e-05 0.002002863 0.00026890915 1.0216198e-05 3.097861e-05 2.1731903e-05
1.9183575e-05 7.947102e-05 3.9694853e-05 0.00013026175 5.6506553e-05 5.773153e-05 1.0548185e-05 0.00012537703
1.4262563e-05 9.977235e-06 0.00012827599 6.2777886e-05 2.59594e-05 1.04373985e-05 0.0021117069 0.00013487144
4.400683e-06 0.0019988231 0.000348133 3.8849166e-06 1.0404109e-05 2.3757657e-05 1.5326192e-05 5.858862e-05
8.102927e-05 7.808536e-05 0.00011549666 4.3658063e-05 1.0955856e-05 0.00010533582 1.4113636e-05 1.2733719e-05
0.00012664264 9.685212e-05

exp_avg f4 [7, 7]
00000000: 3c7d 11bd 0257 41bb 321e fa3b 794a 9f3a
00000010: e7af 3bbb 2b05 0b3b 6545 e13a 4551 d239
00000020: 4fb9 c7b7 2f36 a239 1209 aa39 591e 9b38
00000030: 91a2 7a39 9d0d 4739 1ae9 343c c509 08ba
00000040: fa06 03bd 60bd 0d3c 3912 41ba 81bd bb3b
00000050: 8a46 e339 3008 063c 4c95 0a3a 4e18 493c
00000060: 64e0 49bc ca62 b239 de71 af3a c8b0 8f3a
00000070: bd5f e338 7fe7 0b38 b14b 3b39 19a3 3339
00000080: 9319 ce37 c024 e138 ef97 e938 5429 0a3b
00000090: f71f 3237 e85d 833b 2880 8039 2926 0cb8
000000a0: e92d debb 29e1 023b 3201 203b b72c ad39
000000b0: 9bb3 ac3b 5462 3c3a 81e3 9439 a5ac 0c3c
000000c0: ef31 cabb
-0.035519823 -0.0029501324 0.007632994 0.0012152932 -0.0028638782 0.0021212797 0.0017186819 0.00040114872
-2.380894e-05 0.00030939418 0.00032431685 7.396629e-05 0.00023902419 0.0001898319 0.011041904 -0.0005189444
-0.031989075 0.008651108 -0.0007365081 0.0057293777 0.0004334937 0.008180663 0.0005286529 0.012273861
-0.012321565 0.0003402441 0.0013385375 0.0010962719 0.00010842036 3.335578e-05 0.00017861907 0.00017131529
2.4569023e-05 0.00010735681 0.000111386056 0.0021081762 1.0617069e-05 0.004008997 0.00024509546 -3.341414e-05
-0.0067803753 0.0019970632 0.0024414775 0.00033030447 0.005270434 0.0007186283 0.00028398263 0.008586084
-0.0061705033

exp_avg_sq f4 [7, 7]
00000000: 6e69 aa3a e115 dc37 9ef9 c439 b654 f138
00000010: 4db0 a537 e3d6 f938 fcf5 8338 b614 0436
00000020: 9115 0137 9c78 9536 5a97 8f35 dcd6 7e35
00000030: fa5b 9f35 9fa7 a235 9ca6 9739 2632 1938
00000040: c12d b63a d8d3 d139 c093 df37 92de 2139
00000050: fbd1 e338 f0f5 e038 d4d1 7137 1118 ab39
00000060: ffaf 443a ce02 3a37 adc5 8737 4cde 7337
00000070: 87c8 6d35 8783 0335 15ac 0537 e50d 9835
00000080: abbd 3435 86f2 e134 6a82 aa35 999a a538
00000090: 79df ad36 0a90 cd38 c4e6 0537 e2ec 9e36
000000a0: f1e3 b239 76a5 d338 2316 0138 ac05 ac36
000000b0: 0420 c938 d26e e636 6616 ca36 f977 0439
000000c0: 13ad d639
0.0013001391 2.6236232e-05 0.00037570013 0.00011507554 1.975163e-05 0.00011913271 6.292385e-05 1.9681588e-06
7.6940205e-06 4.454587e-06 1.0698379e-06 9.4935035e-07 1.1873192e-06 1.2118725e-06 0.00028925098 3.6524747e-05
0.0013899134 0.00040021422 2.6652473e-05 0.0001543707 0.000108633154 0.00010726962 1.4413574e-05 0.00032633592
0.0007503032 1.1087117e-05 1.6185304e-05 1.4535686e-05 8.8581186e-07 4.89927e-07 7.967484e-06 1.1328926e-06
6.733123e-07 4.2085975e-07 1.2703943e-06 7.896609e-05 5.1818174e-06 9.801991e-05 7.981147e-06 4.7363437e-06
0.00034120635 0.000100920835 3.0776613e-05 5.1266597e-06 9.59039e-05 6.8674353e-06 6.0226766e-06 0.00012633194
0.0004094621

exp_avg f4 [7]
00000000: 198b eabc be59 c73a e1d7 f1bb 2ca6 3b3c
00000010: 6019 473a bdd3 cd3a 0c1c 3c3c
-0.02863078 0.001520924 -0.007380471 0.011453193 0.0007595029 0.0015703362 0.011481296
