data_10frm/model/0_0_5_9.pt (torch_old, 18399 bytes, 52 tensors)

rnn.weight_ih f4 [7, 22]
0	0x3ee2219c	0.44166267
1	0x3e25ffae	0.16210815
2	0x3e039aa1	0.12851955
3	0x3edc54d1	0.4303346
4	0xbdb53f0a	-0.08849914
5	0x3ed60864	0.41803277
6	0x3ebc62ad	0.36794034
7	0x3ee2888f	0.4424481
8	0x3e9d1a34	0.30684054
9	0xbe91bedb	-0.28465924
10	0xbe8c207e	-0.2736854
11	0xbec39e5e	-0.38206762
12	0xbe611088	-0.21978962
13	0xbf230b57	-0.6368918
14	0xbeeae11a	-0.45874864
15	0xbe5778b6	-0.21042141
16	0xbdacbc10	-0.084343076
17	0xbea5f1b7	-0.32410976
18	0x3e35cb80	0.1775341
19	0xbd7ed313	-0.062213015
20	0xbeb86d7c	-0.3602103
21	0xbed7c87f	-0.42145154
22	0x3cffa24d	0.03120532
23	0xbdb59441	-0.08866168
24	0x3e9d6359	0.3073986
25	0x3ea77e72	0.32713658
26	0x3d90858b	0.07056721
27	0x3f22e8fd	0.6363676
28	0xbe0719e7	-0.13193475
29	0x3d89bb2b	0.067251526
30	0xbe852775	-0.26006666
31	0x3ba1987f	0.004931509
32	0xbe14c0ec	-0.14526719
33	0xbf4c18b2	-0.7972518
34	0xbf3892ad	-0.7209881
35	0xbf28c01c	-0.65918136
36	0xbd870ee2	-0.065946355
37	0xbee5a256	-0.44850415
38	0xbdf80ebb	-0.121121846
39	0xbf1e8dab	-0.6193492
40	0xbdfceb0d	-0.1234952
41	0xbf05f8f6	-0.5233301
42	0xbe9ce30e	-0.3064198
43	0xbece8745	-0.40337577
44	0xbf625c27	-0.88421863
45	0xbf1985a5	-0.5996955
46	0xbe08af4a	-0.13348117
47	0x3c5e0321	0.013550551
48	0xbe97ab80	-0.29623032
49	0x3c8d6148	0.017258301
50	0xbf2e2232	-0.6802093
51	0xbece234f	-0.40261313
52	0x3da35dfb	0.0797691
53	0xbec25f00	-0.37963104
54	0x3f3c25df	0.73495287
55	0x3e0adbc2	0.13560393
56	0xbec3e5da	-0.382613
57	0xbf00da2c	-0.50332904
58	0x3af6f10b	0.0018840147
59	0x3c880831	0.016605468
60	0xbe8f4560	-0.27982616
61	0x3eba86f6	0.36431092
62	0x3e5b383d	0.21408172
63	0x3e5e7abf	0.21726511
64	0xbf1af9af	-0.60537237
65	0xbe7dc203	-0.24781041
66	0xbf5cb304	-0.86210656
67	0x3ed40887	0.41412756
68	0xbe8b4dad	-0.272077
69	0xbf438480	-0.76374054
70	0x3f084785	0.5323413
71	0xbd086899	-0.033302877
72	0xbef910b7	-0.48645565
73	0x3e6fee4c	0.23430747
74	0xbd7601c7	-0.06006029
75	0x3eb39497	0.35074303
76	0x3e7a3ecc	0.24438018
77	0x3e80e1f3	0.25172386
78	0xbebd4de9	-0.36973503
79	0xbe9e2ca1	-0.30893424
80	0xbed45adf	-0.4147558
81	0xbea450f3	-0.3209301
82	0x3c8d4814	0.017246284
83	0x3df8e20d	0.12152491
84	0x3ec9aaf0	0.39388227
85	0xbe26af22	-0.16277745
86	0xbf5c3cbe	-0.86030185
87	0xbdae178f	-0.08500587
88	0x3d97748d	0.07395277
89	0x3effcbe7	0.49960253
90	0x3e981459	0.29703024
91	0xbe1a00da	-0.15039387
92	0xbe1c8ff4	-0.15289289
93	0x3e895b45	0.26827446
94	0x3dc00a5f	0.09376978
95	0xbe0f963a	-0.1402215
96	0x3dbc31ac	0.09189162
97	0xbe8fd766	-0.28094023
98	0xbee35604	-0.44401562
99	0xbedab6b2	-0.4271751
100	0x3efe3d66	0.49656218
101	0xbe851450	-0.2599206
102	0xbe8496d2	-0.25896317
103	0x3c9dbf1a	0.019256163
104	0xbec66053	-0.38745365
105	0xbf15e0e8	-0.58546305
106	0x3e57e412	0.21083096
107	0xbe143666	-0.14473876
108	0x3d87b573	0.066264056
109	0xbdd7bb2f	-0.10533749
110	0x3f17b795	0.592645
111	0xbd31f6c7	-0.043448236
112	0x3e7d3328	0.24726546
113	0x3e36985f	0.17831562
114	0xbea2b094	-0.31775343
115	0x3e26d51d	0.16292234
116	0x3f7c57fe	0.98571765
117	0xbe97662a	-0.29570132
118	0xbea90ef4	-0.3301922
119	0xbeb1c380	-0.34719467
120	0xbf023f2c	-0.5087764
121	0x3c252b49	0.010081121
122	0x3e9c454f	0.30521628
123	0x3e8b5f3d	0.272211
124	0x3e62db54	0.2215398
125	0xbd94ca3d	-0.072651364
126	0xbe7adc71	-0.24498154
127	0xbe5ea954	-0.21744281
128	0x3e418907	0.18899928
129	0x3ed8190a	0.42206603
130	0x3e581102	0.21100238
131	0x3e117751	0.14205672
132	0x3f722cbd	0.94599515
133	0x3ea3cda8	0.3199284
134	0x3e900973	0.2813221
135	0x3f96ac94	1.1771417
136	0xbe40915d	-0.18805452
137	0x3dee0b65	0.11623267
138	0x3f180868	0.59387827
139	0xbf162b84	-0.5866015
140	0xbe23ae14	-0.15984374
141	0xbdf8efe0	-0.121551275
142	0xbf106ffd	-0.5642088
143	0x3e786606	0.24257669
144	0x3e452bf3	0.19255047
145	0xbe7afbc5	-0.24510105
146	0x3e58bc4a	0.21165577
147	0x3de87d90	0.11352074
148	0x3e406e6a	0.1879212
149	0x3d51509a	0.05110226
150	0xbe8977fd	-0.26849356
151	0x3ea70c61	0.32626632
152	0xbd14556d	-0.03621428
153	0x3e79ef49	0.24407686

rnn.weight_hh f4 [7, 7]
0	0xbc86ef5f	-0.016471563
1	0xbec7e199	-0.39039305
2	0xbf1b2a90	-0.6061182
3	0xbf005789	-0.5013357
4	0xbd972152	-0.07379402
5	0xbf308904	-0.6895907
6	0xbf2f5d1e	-0.6850146
7	0xbe32ed20	-0.17473269
8	0xbe0e7c0f	-0.13914512
9	0xbdd6021b	-0.1044962
10	0xbf1cd223	-0.61258143
11	0xbe66b8e6	-0.2253147
12	0xbf197a09	-0.59951836
13	0xbee84b2a	-0.45369846
14	0xbecf1411	-0.40444997
15	0xbe18bd9d	-0.14916082
16	0x3ec66360	0.38747692
17	0xbe790a05	-0.24320228
18	0xbe8c2086	-0.27368563
19	0xbf17ab13	-0.59245414
20	0x3caed764	0.02134294
21	0x3e06e84e	0.13174555
22	0x3e90d54d	0.28287736
23	0xbdf36f70	-0.118864894
24	0x3eb23c5a	0.3481167
25	0x3e0ba1ff	0.13636015
26	0xbf7deaed	-0.99186593
27	0xbf22ecee	-0.63642776
28	0xbf0aa0de	-0.54151714
29	0xbe617e5f	-0.22020863
30	0xbf251fa5	-0.6450141
31	0xbe4d7516	-0.20064196
32	0x3ddb6d11	0.10714162
33	0xbf518305	-0.81840545
34	0xbeef387c	-0.46722782
35	0xbdf5df15	-0.1200544
36	0x3e963667	0.2933838
37	0xbf194d11	-0.5988322
38	0xbf2f38b1	-0.6844588
39	0xbe7df4ae	-0.24800369
40	0x3f7ac162	0.9795133
41	0xbf54c5f2	-0.8311454
42	0xbd2ae3f9	-0.041721318
43	0x3e50fb16	0.20408282
44	0x3bb6aa62	0.0055745104
45	0xbf1b5e55	-0.60690814
46	0xbd9ebc4c	-0.077507585
47	0xbf309c3e	-0.68988407
48	0x3f5a7f14	0.85350156

rnn.bias_ih f4 [7]
0	0xbeaf4fc0	-0.34240532
1	0xbe4e1dda	-0.20128575
2	0xbd30041e	-0.042972676
3	0xbd8053e2	-0.062659994
4	0xbe486e4b	-0.19573323
5	0x3e28e2ce	0.16492769
6	0x3e19bd6c	0.15013665

rnn.bias_hh f4 [7]
0	0xbe0ac299	-0.13550796
1	0xbea0835a	-0.31350213
2	0xbec9cb76	-0.3941304
3	0x3e77da06	0.24204263
4	0x3e15335a	0.1457037
5	0x3ed37388	0.4129908
6	0x3e80afd2	0.2513414

exp_avg f4 [7, 22]
0	0xb7af08d3	-2.0865735e-05
1	0xb95e4353	-0.0002119665
2	0xba637d2d	-0.00086780154
3	0xb8dc7ed9	-0.00010514045
4	0xb92bba5d	-0.00016377257
5	0xba5d8e70	-0.0008451706
6	0xb99d5108	-0.00030005747
7	0xb9404ba8	-0.00018338731
8	0xba3772bd	-0.00069979933
9	0x38eb7c5b	0.00011228836
10	0x39713b5f	0.00023005668
11	0x39d1525e	0.00039924955
12	0x396f2ea6	0.00022810194
13	0x39bf5f65	0.00036501433
14	0x39588c61	0.0002065166
15	0x385336ec	5.035747e-05
16	0x3889e95a	6.576134e-05
17	0x391fe111	0.00015247265
18	0x38f76d35	0.00011798219
19	0x3890774c	6.888676e-05
20	0x39802aab	0.00024445853
21	0x391ac9a7	0.00014761706
22	0x37d18a8f	2.4979263e-05
23	0xb79ce8ae	-1.8705e-05
24	0xba35f6ee	-0.00069413974
25	0xb8dc2581	-0.00010497403
26	0x367cd413	3.767437e-06
27	0xba353436	-0.0006912382
28	0xb8ef6664	-0.0001141548
29	0x36d1e0ad	6.254841e-06
30	0x388a5a5e	6.597185e-05
31	0x385d03c1	5.2694002e-05
32	0x390b0f27	0.00013261718
33	0x391945ad	0.00014617173
34	0x38a00c93	7.631737e-05
35	0x38fa9ac0	0.000119497534
36	0x38c5647f	9.412411e-05
37	0x384359c1	4.6575213e-05
38	0x384d101a	4.8890804e-05
39	0x38e0e951	0.00010724611
40	0x393b0449	0.00017835306
41	0x3857a272	5.1411283e-05
42	0x391ee56f	0.00015153525
43	0x38daf10f	0.00010439951
44	0x3bfe7745	0.007765683
45	0x3b91e9f6	0.004452939
46	0xb9cb3d62	-0.0003876491
47	0x3b40246a	0.002931858
48	0x39cf92f4	0.00039591605
49	0x3904446f	0.00012613994
50	0x3c4da6e1	0.012551994
51	0x39fe9cea	0.00048563565
52	0xb9962e92	-0.00028644927
53	0x383ffd5d	4.577391e-05
54	0xbb8c448b	-0.004280632
55	0x38610271	5.3646454e-05
56	0x3ac94bb9	0.001535765
57	0x3aaaf177	0.0013041933
58	0x3a76ac5c	0.0009409839
59	0x39b00aae	0.00033577293
60	0x399ae45d	0.00029543313
61	0xbb87dafe	-0.004145979
62	0xbb19449a	-0.0023386837
63	0x39ff4314	0.00048687367
64	0x3b3f81a2	0.0029221554
65	0x3ae65f51	0.0017576014
66	0x3b8ff224	0.004392879
67	0x3a9d020f	0.0011978763
68	0xbba4426c	-0.005012801
69	0x3b881654	0.0041530523
70	0x3a43b472	0.0007465548
71	0xbbd5b1c0	-0.0065214336
72	0x3c266566	0.010156011
73	0x3aa0027d	0.0012207773
74	0x3b4530bc	0.0030088862
75	0xba2c7696	-0.000657895
76	0xbb007dcf	-0.0019606238
77	0x3aca48bd	0.0015433055
78	0x3a776742	0.0009437689
79	0x3b679176	0.0035334504
80	0xb9f4f7a7	-0.00046723822
81	0x3a04e703	0.0005069824
82	0x39fd0ae0	0.00048264023
83	0xb98ad555	-0.00026480356
84	0xbbac2abb	-0.0052541173
85	0x39ec299f	0.00045044438
86	0x3bb65614	0.0055644605
87	0x3b91e3e4	0.0044522155
88	0xb5973ddb	-1.1268379e-06
89	0xb967ab13	-0.00022093607
90	0xbad4a89f	-0.0016224569
91	0x3904f37e	0.00012679209
92	0xb8c33898	-9.308866e-05
93	0xbadc52dd	-0.0016809363
94	0xb9d5236a	-0.0004065291
95	0xb8c29848	-9.2790055e-05
96	0x399232f0	0.0002788524
97	0x39bba853	0.0003579283
98	0x383a9f89	4.4494434e-05
99	0x399981ff	0.0002927929
100	0xba11dc2b	-0.00055641186
101	0x3a327d2d	0.0006808814
102	0x3a210112	0.0006141822
103	0x38f8a196	0.00011855659
104	0x39063dce	0.0001280226
105	0x39dbeef4	0.0004194897
106	0x3803658b	3.1327403e-05
107	0x3783ed28	1.5726851e-05
108	0x3a019aa7	0.00049440045
109	0x3a04cf94	0.0005066332
110	0xba49c471	-0.00076968136
111	0x3a6ef19a	0.0009114981
112	0xb9a8b0ee	-0.0003217528
113	0xbb3d57c6	-0.0028891428
114	0x39e7a9ff	0.0004418641
115	0xb91acbdc	-0.00014762528
116	0xbb97b2cd	-0.004629469
117	0x3a76cd5c	0.0009414756
118	0x3b0e48da	0.0021710903
119	0xb9d80240	-0.00041200407
120	0x3adb7d1e	0.0016745662
121	0x3b835c00	0.00400877
122	0x3ae6dc2a	0.0017613221
123	0xbbe7a5ef	-0.0070693414
124	0xbaa91e24	-0.0012902659
125	0xb886f1a6	-6.4346284e-05
126	0xb8bd150c	-9.0161426e-05
127	0x3adbdbb7	0.0016773854
128	0x3bbe5154	0.005808035
129	0x38ef0420	0.000113971764
130	0xbc15c66d	-0.009141547
131	0x3b270875	0.0025487219
132	0xbbd62a3e	-0.0065357974
133	0xbb5e360f	-0.0033906733
134	0x3c6d687c	0.014490243
135	0xba8f59d7	-0.0010936809
136	0xba8d7df1	-0.001079498
137	0x3c7cc765	0.015428399
138	0xbc043eeb	-0.008071641
139	0xbb086bc1	-0.002081618
140	0xbbaf5a93	-0.0053513735
141	0xba3d12b7	-0.00072125666
142	0x39e617db	0.00043886792
143	0xbc00c00b	-0.007858287
144	0xbb98ca64	-0.0046627987
145	0x3ad94401	0.0016576053
146	0x3a8b15b6	0.0010611329
147	0xbab9e4f8	-0.0014182618
148	0xbab3275f	-0.001366835
149	0xba980b94	-0.001160013
150	0xbaed3f76	-0.0018100578
151	0xbad00af3	-0.0015872404
152	0x3a4b8302	0.0007763357
153	0xbc112725	-0.00885943

exp_avg_sq f4 [7, 22]
0	0x35c2dbb0	1.4518064e-06
1	0x35822cbf	9.698778e-07
2	0x38189736	3.638045e-05
3	0x35826b6f	9.717022e-07
4	0x351a8067	5.755632e-07
5	0x381c7660	3.7303544e-05
6	0x3650e2d7	3.1126453e-06
7	0x35650f54	8.5331453e-07
8	0x36de08d7	6.6171447e-06
9	0x352509d9	6.148162e-07
10	0x355553c9	7.9470607e-07
11	0x35416997	7.2051756e-07
12	0x34f079a6	4.4791994e-07
13	0x34bb9a98	3.4943946e-07
14	0x34e65e4f	4.2909457e-07
15	0x3463879f	2.1190361e-07
16	0x34f6472c	4.5872855e-07
17	0x354af084	7.560086e-07
18	0x36771675	3.681894e-06
19	0x35028ee3	4.86367e-07
20	0x3536701f	6.796344e-07
21	0x358994ee	1.025064e-06
22	0x35a44ff5	1.2242223e-06
23	0x34a60f8f	3.093123e-07
24	0x381a5880	3.6798883e-05
25	0x36431e91	2.9075056e-06
26	0x334f1d0f	4.8222372e-08
27	0x38153c78	3.5580684e-05
28	0x37276099	9.976467e-06
29	0x338b79ac	6.494824e-08
30	0x35279ada	6.2437687e-07
31	0x3570d6f0	8.971974e-07
32	0x363b9d1e	2.7956626e-06
33	0x35632608	8.461943e-07
34	0x353805c9	6.855376e-07
35	0x34d844a0	4.0283066e-07
36	0x3565a336	8.554665e-07
37	0x347ab6e4	2.33496e-07
38	0x3562d123	8.4495895e-07
39	0x35acc188	1.2871324e-06
40	0x3622884d	2.4219219e-06
41	0x352aaed7	6.358436e-07
42	0x345ab095	2.0367072e-07
43	0x35804d9b	9.559329e-07
44	0x390fb5b8	0.00013705238
45	0x3833e3ed	4.2889198e-05
46	0x3b8b4918	0.004250657
47	0x39c5c587	0.00037721937
48	0x364542bb	2.939413e-06
49	0x3b860d87	0.004090968
50	0x3ab4e2bf	0.0013800486
51	0x366a4ac1	3.491223e-06
52	0x381ee0b5	3.787941e-05
53	0x38966589	7.17147e-05
54	0x39ebc057	0.00044965997
55	0x3946cfc4	0.0001896015
56	0x3837551b	4.370986e-05
57	0x38578ecc	5.1392984e-05
58	0x38448ff9	4.6864126e-05
59	0x379c93f3	1.8665543e-05
60	0x37d37f89	2.5212548e-05
61	0x397fe600	0.00024404377
62	0x3a148151	0.00056650216
63	0x3810e915	3.454935e-05
64	0x3825ccc1	3.9529757e-05
65	0x386806e2	5.531952e-05
66	0x3871cdc9	5.765053e-05
67	0x37125005	8.720909e-06
68	0x3b16fa09	0.0023037216
69	0x39279ba4	0.00015984342
70	0x364882d8	2.9878483e-06
71	0x3b10bb2d	0.0022084222
72	0x39efb120	0.000457176
73	0x3685fe86	3.9933393e-06
74	0x37d9843a	2.5929989e-05
75	0x386ca7b2	5.6422963e-05
76	0x38bf6e33	9.128116e-05
77	0x38ff0e08	0.00012161961
78	0x382a9a26	4.067472e-05
79	0x3877b959	5.9062007e-05
80	0x3849f82c	4.8153262e-05
81	0x3743b087	1.1664007e-05
82	0x37926576	1.7451803e-05
83	0x38a64794	7.928829e-05
84	0x396ff822	0.00022885253
85	0x37d4c741	2.5365154e-05
86	0x386e1629	5.676426e-05
87	0x3870ecbd	5.744094e-05
88	0x36c95f86	6.001387e-06
89	0x3605ab34	1.9918198e-06
90	0x3a09ccbd	0.00052566436
91	0x38058409	3.183264e-05
92	0x34b6fdf4	3.4084917e-07
93	0x3a032511	0.0005002777
94	0x3850c530	4.977471e-05
95	0x35449667	7.3234554e-07
96	0x3742bf8b	1.1607898e-05
97	0x372cefba	1.0307815e-05
98	0x3749571a	1.20008135e-05
99	0x37762249	1.4670725e-05
100	0x3815058e	3.552954e-05
101	0x36fdaa95	7.559846e-06
102	0x36bbfb1b	5.602267e-06
103	0x363c7031	2.8079487e-06
104	0x368c4cbb	4.1812577e-06
105	0x3786fa0e	1.6090486e-05
106	0x385cdabf	5.265581e-05
107	0x36db716f	6.539914e-06
108	0x3707a30e	8.084591e-06
109	0x374c5419	1.2178928e-05
110	0x38e575c0	0.000109415036
111	0x3680fde3	3.8442536e-06
112	0x3b51f12a	0.0032034614
113	0x38114e99	3.4643894e-05
114	0x35bd9ad0	1.4126654e-06
115	0x3b570257	0.003280779
116	0x390fb3f1	0.00013704576
117	0x362a0667	2.53357e-06
118	0x37f248ca	2.8882543e-05
119	0x37b5bcbc	2.1664768e-05
120	0x3804744b	3.157956e-05
121	0x39164050	0.00014329073
122	0x385cf427	5.2679472e-05
123	0x398f99c5	0.00027389653
124	0x38c03e0f	9.166833e-05
125	0x3786af11	1.6055566e-05
126	0x378178ec	1.5434307e-05
127	0x382d7997	4.1359654e-05
128	0x393d5d58	0.00018059218
129	0x37c388c6	2.3309502e-05
130	0x39873de5	0.00025795322
131	0x390831ac	0.00012988475
132	0x39479f4a	0.00019037459
133	0x376beb48	1.4061872e-05
134	0x3b5546fd	0.0032543533
135	0x3876c1f0	5.883159e-05
136	0x36933bf7	4.387922e-06
137	0x3b5ea934	0.0033975365
138	0x39b3aba6	0.0003426943
139	0x371101ab	8.643062e-06
140	0x38537e34	5.0423856e-05
141	0x380035fe	3.0567862e-05
142	0x384299f9	4.6396603e-05
143	0x3962e7df	0.00021639418
144	0x38a174dc	7.698845e-05
145	0x3905b7c5	0.00012752328
146	0x38be90b3	9.086858e-05
147	0x379bfbe9	1.8594745e-05
148	0x379ea40f	1.8911463e-05
149	0x38673940	5.512801e-05
150	0x39519f19	0.00019991062
151	0x37fb876c	2.9984592e-05
152	0x392d5aa1	0.00016532328
153	0x39326a3e	0.00017014981

exp_avg f4 [7, 7]
0	0xba55bbe8	-0.00081533054
1	0x388cfe6a	6.7231085e-05
2	0x393e87a3	0.0001817034
3	0x39be4809	0.00036293294
4	0x3945c9a7	0.00018862505
5	0x39fa2fa6	0.00047719217
6	0x39c16983	0.0003689044
7	0x381667a9	3.5859328e-05
8	0x37eeacfb	2.8452361e-05
9	0x391ae390	0.00014771358
10	0x39211f9e	0.00015365935
11	0x3862c685	5.4067485e-05
12	0x392c483d	0.00016430109
13	0x38dfad79	0.000106657804
14	0xb86291ca	-5.4018376e-05
15	0xb9128bae	-0.0001397568
16	0xbc37dc44	-0.011221949
17	0x3b90c1c1	0.0044176285
18	0x3a628563	0.0008641092
19	0x3b532d28	0.003222296
20	0x3b1133d9	0.0022156148
21	0x3a334d92	0.0006839867
22	0x389e76b9	7.556141e-05
23	0x3b1089f9	0.0022054894
24	0xbc783fdc	-0.015151944
25	0x3ac7da11	0.0015247484
26	0x3c0042ae	0.007828398
27	0x3c0fba03	0.008772376
28	0x395be2d8	0.00020969973
29	0x392038f0	0.0001528
30	0x3a255201	0.000630647
31	0x3ae78428	0.0017663287
32	0xbb87079e	-0.004120781
33	0x3ac2055e	0.0014802625
34	0x3aceb36e	0.0015770027
35	0xba2a8822	-0.0006505271
36	0xba8027ed	-0.0009777524
37	0x3a915559	0.0011088058
38	0x3c0116c8	0.007878967
39	0x3aa84931	0.0012839196
40	0xbca35f08	-0.019942775
41	0x3c46d31b	0.012135292
42	0xb9ae8485	-0.000332866
43	0xba3f4af5	-0.0007297241
44	0xb8a22560	-7.7317236e-05
45	0x3a40a6eb	0.00073490915
46	0xba8e45e6	-0.0010854572
47	0x3c0e5018	0.008686088
48	0xbcb963ca	-0.022630591

exp_avg_sq f4 [7, 7]
0	0x36e0632f	6.6872667e-06
1	0x346eca7b	2.2239139e-07
2	0x353f7e76	7.133707e-07
3	0x361368a9	2.1965627e-06
4	0x3504b276	4.9433527e-07
5	0x34e11bae	4.1929655e-07
6	0x35429824	7.2492026e-07
7	0x347f8cd0	2.3799953e-07
8	0x34d8c9c4	4.037994e-07
9	0x369fd5e8	4.763471e-06
10	0x36354b3c	2.7014894e-06
11	0x35464730	7.386434e-07
12	0x34cb57d4	3.78756e-07
13	0x358a4859	1.0302857e-06
14	0x37186e30	9.085561e-06
15	0x374e0c65	1.2281443e-05
16	0x3a312bb7	0.0006758528
17	0x3a1989d8	0.0005857027
18	0x37c4f577	2.3479324e-05
19	0x380c630a	3.347084e-05
20	0x381a82a2	3.6838122e-05
21	0x36e76c98	6.8969784e-06
22	0x36f6a6f5	7.3508077e-06
23	0x38a00c60	7.6316996e-05
24	0x39fde097	0.00048423253
25	0x37828ad8	1.5561862e-05
26	0x38c94b3c	9.5984404e-05
27	0x38fa95cc	0.00011948831
28	0x35b84246	1.3728356e-06
29	0x35e7cc0f	1.727023e-06
30	0x371363a7	8.785085e-06
31	0x3856dc6d	5.1226863e-05
32	0x38bde1a3	9.0542504e-05
33	0x36a30ec8	4.8594993e-06
34	0x37340113	1.0729086e-05
35	0x373e77e6	1.13527985e-05
36	0x37069e03	8.023812e-06
37	0x37c19ea6	2.308127e-05
38	0x38e77ce2	0.000110381996
39	0x37837665	1.5671549e-05
40	0x3a3d1e51	0.00072142953
41	0x39476c90	0.00019018562
42	0x372a0d8c	1.0135944e-05
43	0x370572a9	7.954114e-06
44	0x3829de46	4.0499748e-05
45	0x3902b9f6	0.00012467042
46	0x37de18f2	2.6476078e-05
47	0x3987cbe8	0.00025901129
48	0x3a054be7	0.00050848577

exp_avg f4 [7]
0	0x3a60b766	0.00085722504
1	0x3a3a88ee	0.0007115741
2	0xba335eac	-0.00068424153
3	0x3bc2d6bb	0.005946008
4	0x3ae1a292	0.0017214587
5	0x3a5e99dd	0.00084915553
6	0xbc7cceec	-0.015430193

exp_avg_sq f4 [7]
0	0x38239327	3.8999275e-05
1	0x38226156	3.871446e-05
2	0x3b930929	0.004487176
3	0x3b1be0fc	0.0023785224
4	0x3a0c9570	0.0005362844
5	0x3b5a8c91	0.0033347944
6	0x3b645a4d	0.0034843863

exp_avg f4 [7]
0	0x3a614243	0.00085929426
1	0x3a3a3d9d	0.0007104518
2	0xba344a3f	-0.00068775186
3	0x3bc2f048	0.005949054
4	0x3ae21522	0.001724873
5	0x3a5f40aa	0.00085164106
6	0xbc7ccaab	-0.015429179

exp_avg_sq f4 [7]
0	0x3823947f	3.9000526e-05
1	0x38225f1f	3.87124e-05
2	0x3b930923	0.004487173
3	0x3b1be103	0.002378524
4	0x3a0c95c9	0.0005362896
5	0x3b5a8c7d	0.0033347898
6	0x3b645a4d	0.0034843863

exp_avg f4 [7, 22]
0	0x3788563a	1.6252616e-05
1	0x38d75da5	0.000102694416
2	0xba483d1e	-0.00076385017
3	0xb8b0ecb6	-8.436425e-05
4	0x38c731b4	9.4983174e-05
5	0xba497b47	-0.0007685911
6	0xb8be0421	-9.060675e-05
7	0x38f53a3e	0.00011693359
8	0xb87d5ef1	-6.040832e-05
9	0x38cff573	9.916248e-05
10	0x39117224	0.00013870798
11	0x396ef30c	0.00022787991
12	0x3909f0c1	0.00013155026
13	0x3901b8bd	0.00012371219
14	0x38e0fd3c	0.00010728321
15	0x3861b4d7	5.38126e-05
16	0x390cade4	0.0001341622
17	0x384ae588	4.837432e-05
18	0x39321f11	0.00016986976
19	0x384c41ef	4.8698796e-05
20	0x3985a493	0.00025490354
21	0x38826a35	6.218666e-05
22	0xbbb23cd7	-0.0054393816
23	0x3931e199	0.00016964077
24	0xbbd5a344	-0.006519707
25	0xbb863cb7	-0.0040965932
26	0x3ae796ef	0.0017668883
27	0xbba8fb33	-0.0051568984
28	0xbc6345bd	-0.013871607
29	0xb9aa39e4	-0.0003246806
30	0x3a411b1b	0.0007366405
31	0xbb32383f	-0.002719417
32	0x39ae1876	0.0003320609
33	0x3b574da7	0.003285268
34	0x3aa6cddb	0.0012726145
35	0x3b047e32	0.002021682
36	0x39ecaf8e	0.00045144226
37	0x39d28256	0.0004015143
38	0xbbb78ead	-0.005601725
39	0x39cd357d	0.000391405
40	0x3b641cd2	0.0034807217
41	0x39df16a9	0.00042550758
42	0x3bbaed8b	0.005704587
43	0x3a18f05d	0.0005834157
44	0x37ce59b4	2.4598885e-05
45	0x383b85d3	4.4708908e-05
46	0xb970940d	-0.00022943337
47	0xb789d1f3	-1.6429438e-05
48	0x3810fa8b	3.456561e-05
49	0xb975ffd4	-0.00023460324
50	0x36c7ec1d	5.9581494e-06
51	0x385a7f12	5.2093594e-05
52	0x37acea3a	2.0613068e-05
53	0x380968c6	3.2760923e-05
54	0x37f4b8c7	2.917311e-05
55	0x3855f2fe	5.100946e-05
56	0x3809d8d4	3.2865282e-05
57	0x37f6db42	2.9427585e-05
58	0x37e2e5b0	2.7048256e-05
59	0x374fce62	1.2386214e-05
60	0x3855ea36	5.1001283e-05
61	0x37683398	1.384029e-05
62	0x3839af51	4.4270713e-05
63	0x3778a83c	1.4821122e-05
64	0x3883a8f0	6.278034e-05
65	0x37bc08e4	2.2415486e-05
66	0x39f70538	0.000471154
67	0x3c278045	0.010223453
68	0xbd6be8a0	-0.057594895
69	0xbbcbe399	-0.0062222
70	0x3c1241ab	0.008926789
71	0xbd6c73d8	-0.057727665
72	0xbb0cee01	-0.0021504166
73	0x3c2114d7	0.009831629
74	0x3b62f812	0.0034632725
75	0x3b72cce1	0.0037048387
76	0x3bef526c	0.0073035266
77	0x3c803547	0.015650405
78	0x3c234fb3	0.009967732
79	0x3c3a9b67	0.01138959
80	0x3bf0ee21	0.007352606
81	0x3b934edc	0.0044954848
82	0x3c06e7af	0.008233949
83	0x3b924656	0.004463951
84	0x3c2681b5	0.0101627605
85	0x3b967a4d	0.004592216
86	0x3cb1110e	0.021614578
87	0x3bac8a89	0.005265538
88	0x3831710e	4.230538e-05
89	0x3955398e	0.00020334704
90	0xba6f19ca	-0.00091209693
91	0xb894f569	-7.102901e-05
92	0x392618f0	0.00015840284
93	0xba75146f	-0.0009349053
94	0xb85ac8e5	-5.2162348e-05
95	0x395f01ba	0.0002126758
96	0x39158e14	0.00014262676
97	0x393b4642	0.00017859883
98	0xb7d6f8ba	-2.562661e-05
99	0x398fc351	0.00027420608
100	0xb90875f4	-0.00013013912
101	0x399d8714	0.00030046015
102	0x395ded7e	0.00021164675
103	0x388d98b0	6.751844e-05
104	0x39336c7f	0.00017111188
105	0x388d6ecc	6.7440415e-05
106	0x3925427d	0.00015760395
107	0x3889cd9d	6.5709675e-05
108	0x39b7668e	0.0003498089
109	0x388f86da	6.8438894e-05
110	0x3b8c1a85	0.0042756223
111	0xbbce1ccc	-0.006290054
112	0x3d351362	0.044207938
113	0x3c0774eb	0.0082676215
114	0xbbd9e754	-0.006649891
115	0x3d310e15	0.04322632
116	0x3c48f2f6	0.012264958
117	0xbbc81108	-0.006105546
118	0xbac70894	-0.0015185052
119	0xbb1d00a5	-0.0023956683
120	0xbb908747	-0.0044106576
121	0xbc469b63	-0.012122008
122	0xbbdd0cce	-0.006745911
123	0xbc3893af	-0.011265679
124	0xbbbc6c5b	-0.0057502217
125	0xbb555fce	-0.0032558325
126	0xbaace95c	-0.0013192105
127	0xbb548130	-0.0032425635
128	0xbc1548de	-0.009111611
129	0xbb5b3a1f	-0.003345139
130	0xbca89242	-0.020577554
131	0xbb5babb5	-0.0033519093
132	0xb879c863	-5.955285e-05
133	0xbb28ba7f	-0.0025745926
134	0x3c569d2d	0.013098997
135	0x3a2f941c	0.000669779
136	0xbb14ff56	-0.00227352
137	0x3c56211c	0.013069417
138	0x3af2d0a1	0.0018525311
139	0xbb0a20ab	-0.00210766
140	0xbaa30def	-0.0012440066
141	0x3917a85f	0.00014463205
142	0xbaf219a1	-0.0018470773
143	0xbb62f47e	-0.0034630592
144	0xbae85ae6	-0.0017727285
145	0xbb07ccc4	-0.0020721415
146	0xbb41173c	-0.0029463312
147	0xba90deb3	-0.0011052698
148	0xbabdd446	-0.0014482818
149	0xba8e52e1	-0.001085844
150	0xbb47fd77	-0.0030516067
151	0xba919a7c	-0.0011108662
152	0xbb5b7ddb	-0.0033491764
153	0xbb069d4a	-0.002054053

exp_avg_sq f4 [7, 22]
0	0x35582e31	8.053349e-07
1	0x368d4c16	4.210985e-06
2	0x3829be56	4.0470004e-05
3	0x35ce59ed	1.5374368e-06
4	0x36649b2a	3.4064965e-06
5	0x3829fe45	4.0529547e-05
6	0x36afd25e	5.2398964e-06
7	0x368ce0df	4.1985036e-06
8	0x3650aee4	3.1096215e-06
9	0x353d85da	7.0602766e-07
10	0x3586f2b0	1.0054409e-06
11	0x35cf9408	1.5465785e-06
12	0x355ac9c5	8.150494e-07
13	0x34b4421f	3.3575722e-07
14	0x350b2f56	5.185042e-07
15	0x34e3c6bd	4.2426646e-07
16	0x36739ab3	3.6299868e-06
17	0x349b7f0b	2.8963436e-07
18	0x365062a4	3.1051832e-06
19	0x34a3771b	3.0447777e-07
20	0x35353216	6.750064e-07
21	0x34d02e73	3.8776815e-07
22	0x3996979c	0.00028723187
23	0x393622ea	0.00017369879
24	0x3b2982c2	0.0025865291
25	0x38860ab0	6.3916086e-05
26	0x38a9fcd0	8.105638e-05
27	0x3b3dbae1	0.00289505
28	0x3a8b0cd4	0.0010608681
29	0x39534c3b	0.00020150926
30	0x38349a8f	4.3059288e-05
31	0x3912885c	0.00013974443
32	0x38c4541d	9.3616756e-05
33	0x38cb0390	9.680458e-05
34	0x3827b9b3	3.998885e-05
35	0x38128cd7	3.494028e-05
36	0x3884923c	6.321489e-05
37	0x379cc8e6	1.86902e-05
38	0x39c0f7ef	0.0003680582
39	0x3792db82	1.7506773e-05
40	0x39122751	0.00013938292
41	0x379a5489	1.8397595e-05
42	0x389f6a8b	7.601556e-05
43	0x37e099af	2.6774445e-05
44	0x351186c5	5.4212825e-07
45	0x34bed070	3.5541916e-07
46	0x36943ed4	4.418058e-06
47	0x343f943e	1.7842191e-07
48	0x33fbbb8d	1.17222136e-07
49	0x36a8174c	5.0095023e-06
50	0x3622f520	2.4282563e-06
51	0x34e18dcf	4.2012695e-07
52	0x33e79442	1.0783744e-07
53	0x349c43a2	2.9106474e-07
54	0x34076526	1.2609652e-07
55	0x33e826a3	1.081037e-07
56	0x33d37bd5	9.847978e-08
57	0x332c469c	4.011109e-08
58	0x33d9e4b5	1.01464515e-07
59	0x33516e6a	4.8762026e-08
60	0x34d3bcac	3.943909e-07
61	0x334b243e	4.7297583e-08
62	0x34a1b2da	3.0118719e-07
63	0x33153332	3.4738328e-08
64	0x336b3fff	5.4773405e-08
65	0x33bfa9ea	8.925038e-08
66	0x38a95740	8.0747996e-05
67	0x399ca75b	0.00029879328
68	0x3bca85ca	0.0061804997
69	0x3984b470	0.00025311438
70	0x398bb3c5	0.00026646085
71	0x3bc581b4	0.0060274247
72	0x3a831381	0.001000032
73	0x39a6c62c	0.00031809637
74	0x3912f411	0.00014014567
75	0x389eae28	7.566466e-05
76	0x39420609	0.0001850353
77	0x39f21b7b	0.00046178311
78	0x3900472f	0.00012233549
79	0x38e224cc	0.00010783374
80	0x38a9775b	8.08078e-05
81	0x381bba87	3.7128597e-05
82	0x397b90cf	0.00023991171
83	0x38038077	3.1352476e-05
84	0x3a06e5ab	0.00051459175
85	0x3813b886	3.5219382e-05
86	0x3a076d11	0.00051660935
87	0x382563da	3.943206e-05
88	0x350bd775	5.2095066e-07
89	0x360ad509	2.0687605e-06
90	0x38344603	4.2980548e-05
91	0x35d1d0cd	1.5632482e-06
92	0x35dbf557	1.6388175e-06
93	0x38315303	4.22774e-05
94	0x3658a545	3.2282708e-06
95	0x360ab45e	2.066859e-06
96	0x35310e80	6.595874e-07
97	0x35351d95	6.74708e-07
98	0x35c44045	1.4621843e-06
99	0x35c1ddb4	1.4444145e-06
100	0x365b1604	3.2646358e-06
101	0x3508b2a8	5.0923927e-07
102	0x3500b1f2	4.794266e-07
103	0x34a3b5a4	3.0493277e-07
104	0x365b10b4	3.2643266e-06
105	0x347a0b31	2.3287136e-07
106	0x366031d8	3.3407614e-06
107	0x348b82c2	2.5985906e-07
108	0x35cbbda2	1.5179869e-06
109	0x34b3dd5d	3.350241e-07
110	0x38352fd8	4.319832e-05
111	0x3923cbdb	0.00015620833
112	0x3b89275e	0.004185601
113	0x3903cbab	0.00012569006
114	0x390d7b9b	0.00013492854
115	0x3b86e4f8	0.0041166507
116	0x39d7ce2e	0.0004116161
117	0x3929ec02	0.00016205016
118	0x3873faae	5.816918e-05
119	0x3813de95	3.5254827e-05
120	0x3903dfe2	0.00012576536
121	0x399e7c8c	0.00030228903
122	0x38b37e24	8.558881e-05
123	0x39118fdc	0.0001388187
124	0x38658bdd	5.4728112e-05
125	0x37b5e717	2.1684491e-05
126	0x393a9007	0.00017791997
127	0x37a7fe5b	2.0026395e-05
128	0x39a38e0f	0.00031195625
129	0x37bf99a2	2.2840515e-05
130	0x39beb93c	0.00036377634
131	0x37ce1d6d	2.4570816e-05
132	0x370a5387	8.244889e-06
133	0x3707332f	8.058544e-06
134	0x392bc60e	0.00016381612
135	0x35dd119f	1.6470912e-06
136	0x36964481	4.4783233e-06
137	0x39362494	0.00017370499
138	0x37eb7dda	2.8072787e-05
139	0x370abc1f	8.269241e-06
140	0x3608529e	2.0313669e-06
141	0x36b35e38	5.345584e-06
142	0x36a7c2d4	4.999669e-06
143	0x36cf508e	6.1784585e-06
144	0x36358e4e	2.7053934e-06
145	0x35f6c3a7	1.8385371e-06
146	0x377118d9	1.4370505e-05
147	0x35994740	1.1420125e-06
148	0x377fcac2	1.5246393e-05
149	0x358fb743	1.0707666e-06
150	0x371b5a5e	9.25976e-06
151	0x35936363	1.0981279e-06
152	0x36ca906c	6.036882e-06
153	0x36022c07	1.9397137e-06

exp_avg f4 [7, 7]
0	0xb9096d25	-0.00013105998
1	0x392f1c4d	0.00016699843
2	0x381475d0	3.539567e-05
3	0x395baaea	0.00020949138
4	0x388308ad	6.248183e-05
5	0x39aa069d	0.00032429854
6	0x38d8ef87	0.00010344298
7	0x39f69473	0.0004703138
8	0xbc12ce1b	-0.008960272
9	0x37a54906	1.9703537e-05
10	0x3b3f937c	0.0029232195
11	0x3a89b343	0.0010505695
12	0x3be4353a	0.006964353
13	0x3b3e0557	0.0028994882
14	0x3746b131	1.1842975e-05
15	0x38805d23	6.120864e-05
16	0x37136401	8.785167e-06
17	0x3812f62d	3.503838e-05
18	0x3740104a	1.1447884e-05
19	0x389230a8	6.9708854e-05
20	0x38023728	3.1045784e-05
21	0x3b4cfad8	0.0031277444
22	0x3bbf11a2	0.0058309594
23	0x3b254e1c	0.0025223559
24	0xbb228d4d	-0.002480346
25	0x3ba58c6a	0.005052139
26	0x3d18233d	0.03714298
27	0x3bfa5534	0.0076395515
28	0x38bc2704	8.971806e-05
29	0x39a19cac	0.00030825043
30	0x389a7129	7.36437e-05
31	0x39a87b73	0.00032135434
32	0xba4b0cd2	-0.0007745746
33	0x3a51ee08	0.00080081867
34	0x3904497b	0.00012615875
35	0xbb38548f	-0.0028126573
36	0x3848d0aa	4.787805e-05
37	0xbb4cef55	-0.0031270583
38	0xba9f343a	-0.0012146302
39	0xbb10fa16	-0.002212172
40	0xbd157764	-0.036490813
41	0x3ad20d0e	0.0016025619
42	0xb83bd891	-4.4785967e-05
43	0x3ab819e3	0.0014045801
44	0xb89ac6f3	-7.3803494e-05
45	0xb982882e	-0.00024896994
46	0xba09e7c5	-0.00052606716
47	0x3a61a23d	0.0008607244
48	0xbc6edbd3	-0.014578777

exp_avg_sq f4 [7, 7]
0	0x36420369	2.8910238e-06
1	0x3614139b	2.206513e-06
2	0x340c1304	1.3045434e-07
3	0x36ceb86c	6.160748e-06
4	0x344e60fd	1.9220529e-07
5	0x3511c4d6	5.4303143e-07
6	0x34793e80	2.321267e-07
7	0x3766e88b	1.3763211e-05
8	0x3a3ee584	0.00072821253
9	0x370ae91e	8.279718e-06
10	0x393b98b8	0.00017890602
11	0x37539977	1.2612311e-05
12	0x38ad2e7f	8.2579434e-05
13	0x37cb4651	2.423223e-05
14	0x330f0b84	3.3305255e-08
15	0x35929926	1.092242e-06
16	0x32abde63	2.000815e-08
17	0x34c85f1f	3.7322113e-07
18	0x32b92b6f	2.1556586e-08
19	0x3350ddf7	4.863065e-08
20	0x335a60e7	5.0845212e-08
21	0x37bd6717	2.257856e-05
22	0x39807426	0.000245006
23	0x376b5cc4	1.402869e-05
24	0x3a98eaf9	0.0011666707
25	0x37f9e9a9	2.979192e-05
26	0x3a1dac2a	0.0006014729
27	0x3801e4ac	3.0968964e-05
28	0x3456a08f	1.9988714e-07
29	0x362c22ed	2.5650327e-06
30	0x33c6268b	9.2271044e-08
31	0x36376435	2.7327453e-06
32	0x36ad2336	5.159901e-06
33	0x359cb77f	1.167631e-06
34	0x3462b7a1	2.1114694e-07
35	0x37550c11	1.2698599e-05
36	0x39189e0d	0.00014554728
37	0x37256f74	9.860716e-06
38	0x39e1c80b	0.00043064388
39	0x37bd6e8a	2.258203e-05
40	0x3a490999	0.00076689717
41	0x379aa93e	1.843704e-05
42	0x34c88925	3.735269e-07
43	0x37be18d5	2.2661328e-05
44	0x3498e6f4	2.8480247e-07
45	0x3698397f	4.5366464e-06
46	0x3531a98e	6.618437e-07
47	0x361473e4	2.2121176e-06
48	0x3825130f	3.9356815e-05

exp_avg f4 [7]
0	0x3a4c7d1e	0.00078006263
1	0x3bb0855b	0.005386991
2	0x398052e9	0.00024475835
3	0x3d710543	0.05884291
4	0x3a7c3088	0.0009620269
5	0xbd3509a3	-0.044198643
6	0xbc582e17	-0.013194582

exp_avg_sq f4 [7]
0	0x383fbe9a	4.571546e-05
1	0x3b485f7e	0.0030574496
2	0x36b30747	5.335463e-06
3	0x3bd80753	0.00659267
4	0x3840b904	4.5948676e-05
5	0x3b9022b3	0.0043986677
6	0x393d8250	0.0001807299

exp_avg f4 [7]
0	0x3a4c83af	0.0007801605
1	0x3bb06d78	0.0053841434
2	0x397f8b1b	0.00024370516
3	0x3d710186	0.058839343
4	0x3a7ba396	0.00095992663
5	0xbd350bb5	-0.044200618
6	0xbc58247c	-0.013192292

exp_avg_sq f4 [7]
0	0x383fbeb4	4.5715555e-05
1	0x3b485f69	0.0030574447
2	0x36b301a0	5.334805e-06
3	0x3bd8073e	0.00659266
4	0x3840b809	4.5947763e-05
5	0x3b9022bf	0.0043986733
6	0x393d8265	0.0001807302

exp_avg f4 [7, 22]
0	0xba3b6493	-0.00071484706
1	0xb933b613	-0.00017138598
2	0xbac9dcf8	-0.0015400937
3	0xb9f683f3	-0.00047019086
4	0xb9016abf	-0.00012342165
5	0xbab73c06	-0.001397968
6	0xbae30ad2	-0.001732195
7	0xb8def2ec	-0.00010631033
8	0xba1ff412	-0.0006101738
9	0x39165f39	0.00014340588
10	0x3999dd3e	0.00029347272
11	0x3a3f5449	0.0007298631
12	0x39610959	0.00021461154
13	0x39ef15f9	0.00045602003
14	0x396aa3c9	0.00022376994
15	0x3888ebda	6.528916e-05
16	0x38d3506d	0.000100762445
17	0x38c5bdc2	9.429037e-05
18	0x38b3aec8	8.567941e-05
19	0x3a2fd1ae	0.0006706965
20	0x394cc457	0.00019528098
21	0x39847f9d	0.0002527208
22	0xba6e036f	-0.0009079491
23	0x3a48bd2c	0.00076575833
24	0xbbd9967e	-0.0066402545
25	0xbb10f974	-0.0022121342
26	0x3a1a991e	0.000589745
27	0xbbd38d00	-0.0064560175
28	0xbb6abac9	-0.00358169
29	0x3a8b9314	0.0010648691
30	0x3a471a4a	0.0007595165
31	0xb9e5500e	-0.0004373793
32	0x3aa891d1	0.001286084
33	0x3b214d2c	0.0024612648
34	0x3a2c186d	0.0006564919
35	0x3ab59b4c	0.0013855486
36	0x3a513059	0.00079799216
37	0x3a0361df	0.00050118373
38	0x398260e4	0.0002486772
39	0x3a358c6e	0.00069255277
40	0x3a02dc6b	0.0004991951
41	0x3b4c3035	0.0031156663
42	0x3a52db8f	0.0008043581
43	0x3a8b98ab	0.0010650357
44	0xbae8dd58	-0.0017766161
45	0x3a04412a	0.00050451106
46	0xbbfd4450	-0.0077290908
47	0xbb5e2390	-0.0033895709
48	0x3a79b20d	0.0009525128
49	0xbbebf391	-0.0072006662
50	0xbbe2b3de	-0.0069184145
51	0x3a435e3c	0.00074527017
52	0x3a7f05c9	0.000972834
53	0x3a3b539c	0.00071459427
54	0x39b3dd82	0.00034306577
55	0x3b261d41	0.0025347027
56	0x3a39087e	0.00070584554
57	0x3ac7806d	0.0015220769
58	0x3a6d1478	0.00090438826
59	0x3a1126df	0.0005537103
60	0x3a1d3e10	0.0005998323
61	0xb5f5031d	-1.8254829e-06
62	0x3a0e4b73	0.0005428113
63	0x3b7bfc23	0.0038449846
64	0x3a7c58e7	0.00096262846
65	0x3a9bb023	0.0011878054
66	0xb8ef34bb	-0.0001140623
67	0x382e4352	4.154753e-05
68	0xba48945d	-0.00076515024
69	0xb9808b76	-0.0002451797
70	0x388d97bb	6.751666e-05
71	0xba40578b	-0.00073372637
72	0xb9f0f27b	-0.0004595703
73	0x389b20cc	7.397085e-05
74	0x38974494	7.213015e-05
75	0x38688712	5.5438904e-05
76	0x38caba48	9.666808e-05
77	0x39699b54	0.00022278476
78	0x387c1f90	6.0110877e-05
79	0x391cfb87	0.0001497102
80	0x38de9644	0.00010613774
81	0x38458686	4.7093745e-05
82	0x38645727	5.4440603e-05
83	0x3887b560	6.471085e-05
84	0x384a365e	4.8211186e-05
85	0x39a80f9d	0.0003205509
86	0x38b2553b	8.503577e-05
87	0x38fdf5d5	0.0001210977
88	0x3b005356	0.0019580922
89	0xbac2802d	-0.0014839225
90	0x3c87bcbd	0.01656949
91	0x3b956b7b	0.004559932
92	0xba67feaa	-0.00088498986
93	0x3c80829a	0.015687276
94	0x3c38303c	0.011241969
95	0xba5e223d	-0.000847373
96	0xbb002bf0	-0.0019557439
97	0xba4ef859	-0.0007895283
98	0xba4e1958	-0.0007862053
99	0xbc0a63b6	-0.0084466245
100	0xbb10e9f8	-0.0022112112
101	0xba8bdc54	-0.0010670521
102	0xba544cff	-0.00080986315
103	0xbaa606c4	-0.0012666811
104	0xbaaa32fb	-0.0012985164
105	0xba555d3a	-0.0008139197
106	0xbaa44e2f	-0.0012535508
107	0xbc12c0b2	-0.008957075
108	0xbab14001	-0.0013523103
109	0xba942044	-0.001130112
110	0xba905535	-0.0011011722
111	0x37a49ee4	1.9624313e-05
112	0x3b73a122	0.00371749
113	0x3b897ea1	0.0041960035
114	0xba19e0dc	-0.00058699935
115	0x3af65be4	0.0018795696
116	0x3bf8fe7b	0.007598696
117	0xba26f20d	-0.0006368466
118	0x3a8be097	0.0010671791
119	0x3a8c0aab	0.0010684332
120	0x3b6d58e0	0.0036216304
121	0x3b5b99ba	0.0033508376
122	0x3b06773f	0.0020517854
123	0xbc53e09d	-0.01293197
124	0xbaae6623	-0.0013305586
125	0xb8e97585	-0.000111321955
126	0x3632781d	2.6593982e-06
127	0x380f598e	3.417726e-05
128	0xb8bebb85	-9.094834e-05
129	0xb86ad30e	-5.5986508e-05
130	0xbb47905a	-0.003045103
131	0x3929b12e	0.000161831
132	0x3bb28488	0.005447928
133	0x3bd12c1d	0.0063834325
134	0xbc78af5f	-0.0151785305
135	0xbb4af56d	-0.003096904
136	0x3b7d150a	0.0038617277
137	0xbc5832d5	-0.013195713
138	0xbc15ec55	-0.009150584
139	0x3b8c8fb6	0.0042895926
140	0x3b2e3b1d	0.0026585527
141	0xbaac04e6	-0.0013124018
142	0xbb52d9a9	-0.0032173193
143	0x3c26e140	0.01018554
144	0x3b19889c	0.0023427373
145	0x3b869753	0.0041073947
146	0xba0b3fbe	-0.00053119275
147	0x3abfc96e	0.0014632174
148	0x3ac2eb9a	0.001487124
149	0x3aecab9c	0.0018056515
150	0x3ab632f8	0.0013900688
151	0x3c12991f	0.00894764
152	0x3b09d924	0.0021033967
153	0xbb422a64	-0.0029627318

exp_avg_sq f4 [7, 22]
0	0x376de2e2	1.4179126e-05
1	0x377668d8	1.4687153e-05
2	0x391014b6	0.00013740626
3	0x378aa296	1.6526592e-05
4	0x378d85bb	1.6870783e-05
5	0x390e8c2d	0.00013594395
6	0x37f4095d	2.9091427e-05
7	0x379e90bd	1.8902467e-05
8	0x377bf625	1.5018076e-05
9	0x3667efbe	3.456123e-06
10	0x366f2858	3.5637258e-06
11	0x36c507f0	5.8719816e-06
12	0x35f8f942	1.8549983e-06
13	0x36063c5c	2.000269e-06
14	0x35dc7b07	1.6427083e-06
15	0x36173789	2.253308e-06
16	0x36df7bf0	6.660346e-06
17	0x36979ce0	4.5184133e-06
18	0x36283fda	2.5071117e-06
19	0x36d575b3	6.3615967e-06
20	0x36523dbe	3.1328377e-06
21	0x3659da8b	3.2462729e-06
22	0x39fc87c1	0.0004816633
23	0x36f6792a	7.3454767e-06
24	0x3afb4e8f	0.0019173193
25	0x393fb080	0.00018280931
26	0x36317671	2.6443997e-06
27	0x3b1173ed	0.0022194341
28	0x3aa3e9f5	0.0012505638
29	0x37283497	1.0025825e-05
30	0x378a3e75	1.6479966e-05
31	0x39683e3b	0.00022148427
32	0x38abba02	8.188562e-05
33	0x38ae8e59	8.323481e-05
34	0x3793f361	1.7637098e-05
35	0x37b42048	2.1472704e-05
36	0x37f24f99	2.8885714e-05
37	0x379de1a0	1.8820923e-05
38	0x38d176c0	9.9880155e-05
39	0x3988bb9e	0.00026079727
40	0x37a2f5f2	1.9426432e-05
41	0x3821341d	3.8433926e-05
42	0x37d61a94	2.5523164e-05
43	0x37d3116a	2.516127e-05
44	0x39f34453	0.00046399477
45	0x378b178e	1.658106e-05
46	0x3aafdba7	0.0013416902
47	0x393946f6	0.0001766941
48	0x3682daea	3.899787e-06
49	0x3ad66050	0.0016355608
50	0x3ace97f4	0.0015761838
51	0x37c09e4f	2.2961902e-05
52	0x3770b85b	1.4348038e-05
53	0x380d3fe4	3.3676522e-05
54	0x39384912	0.00017574828
55	0x38a64fa0	7.930328e-05
56	0x379bc222	1.856784e-05
57	0x37c93f66	2.399059e-05
58	0x378dcd38	1.6904072e-05
59	0x377acb87	1.4948549e-05
60	0x389c9436	7.466266e-05
61	0x39369a3b	0.00017414328
62	0x3757f1e6	1.287132e-05
63	0x381b055f	3.6959882e-05
64	0x37cff476	2.4790159e-05
65	0x37a24b1d	1.9346882e-05
66	0x36b9ae63	5.533731e-06
67	0x34da97f1	4.0716216e-07
68	0x3834d407	4.311281e-05
69	0x36dff12a	6.673993e-06
70	0x35101c7d	5.3685636e-07
71	0x382fad27	4.1884512e-05
72	0x37e26c5e	2.6991762e-05
73	0x353bfca5	7.0030575e-07
74	0x351786ed	5.6448226e-07
75	0x35baa22e	1.390528e-06
76	0x35dc56d0	1.6416543e-06
77	0x35c887ce	1.4940686e-06
78	0x35417ba8	7.2078046e-07
79	0x357ad5eb	9.344355e-07
80	0x35f5cbdc	1.8313253e-06
81	0x35558121	7.953659e-07
82	0x35d74dd1	1.6041396e-06
83	0x35126e2e	5.454957e-07
84	0x35d606a2	1.5946173e-06
85	0x3536fe97	6.817076e-07
86	0x3593f030	1.1022257e-06
87	0x35c14580	1.4399848e-06
88	0x38fffdd3	0.00012206626
89	0x382df0ea	4.1470783e-05
90	0x3b1bb541	0.0023759159
91	0x3994fc00	0.00028416514
92	0x3862302e	5.392747e-05
93	0x3b102f85	0.002200098
94	0x3aa26fe8	0.001239297
95	0x388cbd96	6.711033e-05
96	0x37ed383e	2.8278791e-05
97	0x37a14484	1.92246e-05
98	0x38a6183d	7.9200116e-05
99	0x3977b0f9	0.00023621683
100	0x380df5b1	3.3845838e-05
101	0x386acce2	5.598076e-05
102	0x382dcb18	4.143556e-05
103	0x37a355fc	1.9471154e-05
104	0x37f1f8b4	2.884525e-05
105	0x38766b2f	5.8750793e-05
106	0x377e1bc8	1.5146048e-05
107	0x3967a435	0.00022091049
108	0x385e4831	5.2996158e-05
109	0x38d1c714	0.00010002978
110	0x39327810	0.0001702013
111	0x37db626a	2.6152662e-05
112	0x3b25a4c1	0.0025275203
113	0x3a12dc69	0.00056023017
114	0x384f243d	4.9386395e-05
115	0x3b0ad3b9	0.0021183325
116	0x3b0274d9	0.0019906072
117	0x3884f5d8	6.3400425e-05
118	0x379276c0	1.7459854e-05
119	0x379a76ef	1.8413613e-05
120	0x3827c09c	3.9995284e-05
121	0x3924822a	0.00015688749
122	0x37b44b7b	2.149282e-05
123	0x39863536	0.00025598117
124	0x3877993f	5.903211e-05
125	0x37a4789d	1.9606488e-05
126	0x37cfcd41	2.4771902e-05
127	0x37cdf25b	2.455076e-05
128	0x37a34a16	1.9465613e-05
129	0x39b3600e	0.00034213107
130	0x3866a6b4	5.4991528e-05
131	0x38d63c73	0.00010215575
132	0x39c0fa64	0.0003680765
133	0x37ba763b	2.2227983e-05
134	0x3b9058d9	0.0044051227
135	0x3a24499d	0.0006267073
136	0x381613bc	3.5781166e-05
137	0x3b878081	0.004135192
138	0x3b0f6e71	0.0021885897
139	0x3837d39f	4.3827687e-05
140	0x37fce599	3.0147656e-05
141	0x3866cd6d	5.502759e-05
142	0x392fa855	0.00016752009
143	0x398f4377	0.0002732535
144	0x381f8272	3.803004e-05
145	0x38df1719	0.00010637771
146	0x395be093	0.00020969128
147	0x37eb23b4	2.8030809e-05
148	0x383446c6	4.2981257e-05
149	0x3821d95d	3.8587827e-05
150	0x38156b3c	3.5624238e-05
151	0x3a157114	0.0005700749
152	0x38a477c6	7.842439e-05
153	0x397bac01	0.00024001302

exp_avg f4 [7, 7]
0	0xba481466	-0.0007632434
1	0x3906f525	0.0001287056
2	0x392bbb48	0.00016377599
3	0x38bc5419	8.980203e-05
4	0x3a9f437e	0.0012150852
5	0x39c179a6	0.00036902464
6	0x39878344	0.00025847007
7	0x39c44fa2	0.00037443364
8	0xba7126e5	-0.0009199216
9	0x3aaae2d3	0.001303757
10	0x39b69bbf	0.00034829785
11	0x3b805383	0.0039162054
12	0x3a592365	0.0008283167
13	0x3a8c1006	0.0010685928
14	0x3a10f822	0.0005530139
15	0x3a3d240a	0.0007215148
16	0xba4572b7	-0.00075320475
17	0x39a6c574	0.000318091
18	0x3b958a12	0.0045635784
19	0x3aa5ca0c	0.0012648716
20	0x3a85a0ac	0.0010194979
21	0x3811a9e3	3.4728913e-05
22	0x38281891	4.00772e-05
23	0x384beabf	4.8617596e-05
24	0x37f2302a	2.8871076e-05
25	0x39b51fc6	0.00034546683
26	0x38e6351b	0.00010977146
27	0x39280d5c	0.00016026705
28	0xb9d0a5ea	-0.00039796467
29	0xbaa7069e	-0.0012743061
30	0xba56c29d	-0.0008192452
31	0xbab38e73	-0.0013699069
32	0xbc8bd7c0	-0.017070651
33	0x3b1797e6	0.002313131
34	0x3b2744ba	0.0025523142
35	0x3a137295	0.0005624679
36	0x3a14bc1b	0.0005673782
37	0x3a2add98	0.00065180054
38	0x39e9e126	0.00044608972
39	0x3c575c5b	0.013144578
40	0xbcba2587	-0.022722973
41	0x3b8b8db7	0.004258837
42	0x3a78d3bd	0.00094920007
43	0x3a825560	0.0009943657
44	0x3aa0fb90	0.0012282003
45	0x3a5c389c	0.00084007694
46	0x3c991e32	0.018691156
47	0x3b85042f	0.0040593366
48	0xbc4d75a3	-0.012540254

exp_avg_sq f4 [7, 7]
0	0x37971d18	1.801415e-05
1	0x36dc4aba	6.5652102e-06
2	0x36632e47	3.3852573e-06
3	0x35c0978c	1.4349221e-06
4	0x36ad06fb	5.1566144e-06
5	0x36603f35	3.3415392e-06
6	0x36201518	2.3854136e-06
7	0x372fb6de	1.047339e-05
8	0x39ea2fb3	0.00044667497
9	0x395c5cd3	0.00021015415
10	0x37131610	8.76702e-06
11	0x37f4eb60	2.9196672e-05
12	0x375f21bc	1.329969e-05
13	0x37a43db9	1.9579065e-05
14	0x371d7e79	9.387376e-06
15	0x3893ddfd	7.050855e-05
16	0x39eab187	0.00044764226
17	0x36c98197	6.005353e-06
18	0x3823c1f1	3.904285e-05
19	0x37766984	1.468731e-05
20	0x37478f20	1.1894648e-05
21	0x3517dbe3	5.657186e-07
22	0x3618842f	2.2726706e-06
23	0x3578833e	9.257818e-07
24	0x3546832b	7.395162e-07
25	0x35744884	9.100261e-07
26	0x360c01dc	2.0862708e-06
27	0x36b273eb	5.318308e-06
28	0x378e2866	1.6946531e-05
29	0x379bdf83	1.858152e-05
30	0x389fa4b8	7.612392e-05
31	0x36e86ca5	6.9267867e-06
32	0x3a0935b9	0.00052341406
33	0x382c43c7	4.1071118e-05
34	0x38e788ba	0.00011040406
35	0x3715bcc5	8.925043e-06
36	0x3784d4dc	1.5834747e-05
37	0x3790f5c2	1.7280578e-05
38	0x3711acc8	8.682902e-06
39	0x3986d91c	0.0002572023
40	0x39f91bed	0.00047513787
41	0x38adc2ac	8.285543e-05
42	0x376ecfb5	1.4234266e-05
43	0x37c3922e	2.3313882e-05
44	0x37c07cfa	2.294638e-05
45	0x37922474	1.7421531e-05
46	0x3a0ce6fa	0.00053749944
47	0x386bae2a	5.619057e-05
48	0x3a4bd2a5	0.0007775224

exp_avg f4 [7]
0	0x3ac08405	0.0014687782
1	0x3be2c581	0.006920517
2	0x3bfbd964	0.007685827
3	0x3a4e1cca	0.0007862566
4	0xbc83add3	-0.016074097
5	0xbb4a5046	-0.00308706
6	0x3c694777	0.01423823

exp_avg_sq f4 [7]
0	0x3932e6aa	0.00017061332
1	0x3b1deec3	0.0024098612
2	0x3aef3c69	0.0018252257
3	0x384e8407	4.9237187e-05
4	0x3b26efc8	0.002547251
5	0x3b3375fa	0.0027383552
6	0x3b9d8059	0.00480656

exp_avg f4 [7]
0	0x3ac100f0	0.0014725011
1	0x3be2f175	0.0069257566
2	0x3bfbd36e	0.0076851165
3	0x3a4f21d2	0.0007901463
4	0xbc83b247	-0.01607622
5	0xbb4a9422	-0.0030911048
6	0x3c692f6c	0.014232498

exp_avg_sq f4 [7]
0	0x3932e816	0.00017061862
1	0x3b1deeef	0.0024098714
2	0x3aef3c74	0.0018252269
3	0x384e8d1d	4.924565e-05
4	0x3b26efef	0.0025472601
5	0x3b3375e7	0.0027383508
6	0x3b9d8061	0.0048065637

exp_avg f4 [7, 22]
0	0xbc861b55	-0.016370455
1	0xbbbedea5	-0.005824881
2	0x3cfa8599	0.030581282
3	0xbaeed4a2	-0.0018221329
4	0xbbf6db62	-0.0075334767
5	0x3d08faac	0.033442184
6	0xbccd7a28	-0.025082663
7	0xbbe3c69d	-0.006951167
8	0xbb317e14	-0.0027083205
9	0xbb0e5cdf	-0.0021722836
10	0x3932f0e0	0.00017065136
11	0xbc40247c	-0.011727449
12	0xbbe5a01c	-0.007007612
13	0xbb26b222	-0.0025435765
14	0xbbc41a3c	-0.0059845727
15	0xbca8654e	-0.020556118
16	0xbb61280d	-0.0034356148
17	0xbaffdfe3	-0.001952168
18	0xbb1310cc	-0.0022440432
19	0xbb5cbfaf	-0.0033683588
20	0x3986b4bd	0.00025693132
21	0xba315a6f	-0.000676549
22	0x39dffbad	0.00042721388
23	0x3807ff81	3.2424465e-05
24	0xbae5592c	-0.0017497889
25	0x398598ff	0.00025481728
26	0x3772208d	1.4431903e-05
27	0xbae8db49	-0.0017765547
28	0x3a50f994	0.00079717604
29	0x378e317c	1.6950762e-05
30	0x394dd979	0.00019631338
31	0x3822b891	3.87957e-05
32	0x394e429f	0.00019670509
33	0x3a099f87	0.00052499067
34	0x3991fe3b	0.00027845972
35	0x39d4ab14	0.00040563254
36	0x39676d06	0.00022070491
37	0x39c5f589	0.00037757706
38	0x390a465c	0.00013186916
39	0x39b5483f	0.00034576838
40	0x39b7117f	0.00034917516
41	0x3909d560	0.00013144827
42	0x399403a5	0.00028231475
43	0x397bdb52	0.00024018929
44	0xba864c3a	-0.0010246106
45	0x3b49788c	0.0030742018
46	0x3b072eef	0.002062734
47	0xbbc3903f	-0.005968123
48	0xba26c8ea	-0.0006362336
49	0x3aa6a0c5	0.0012712708
50	0xbb276da1	-0.0025547522
51	0x3b099c9f	0.0020997894
52	0x3ab0fdfa	0.0013503425
53	0xba90f10c	-0.0011058166
54	0xbb90b38e	-0.004415936
55	0x3a56331b	0.00081710675
56	0xb9c2b379	-0.0003713628
57	0x3b6474a8	0.0034859572
58	0xb99e4077	-0.00030184138
59	0x3b8b6cb4	0.004254902
60	0xb8aabb2a	-8.141094e-05
61	0xbc331404	-0.010930065
62	0x3af866c4	0.0018951525
63	0xb8c89a87	-9.565526e-05
64	0x3b3f43d3	0.0029184713
65	0x3ac3017f	0.0014877765
66	0xbac89246	-0.0015302382
67	0x3a5d3ce2	0.0008439553
68	0xbcb5625a	-0.022141624
69	0xbb789e6c	-0.0037936224
70	0x3b869b5d	0.004107876
71	0xbcb861c6	-0.02250756
72	0xbc01238f	-0.007882013
73	0x3a803537	0.0009781484
74	0xb82857e7	-4.0136187e-05
75	0x3a498de8	0.0007688687
76	0x3adfd905	0.0017078227
77	0x3ba3b6c1	0.004996151
78	0x3ba375dd	0.0049884156
79	0x3b726bab	0.0036990445
80	0x3b86a165	0.004108595
81	0x3bf39a15	0.0074341395
82	0x3ad606b0	0.0016328897
83	0x3c076a50	0.008265093
84	0xbb8cdf6c	-0.004299095
85	0x3ad464d0	0.0016204361
86	0x3b3b34fb	0.0028565514
87	0x3b31aeec	0.0027112318
88	0x39671d54	0.00022040802
89	0xb6485d2b	-2.9856553e-06
90	0xba747aca	-0.00093261583
91	0x392b4bb5	0.00016336034
92	0xb7278efd	-9.987268e-06
93	0xba78acd7	-0.00094862044
94	0x39e335b2	0.0004333682
95	0xb70caf90	-8.385527e-06
96	0x38a28988	7.750379e-05
97	0x388a7bdf	6.6034256e-05
98	0x38ef3362	0.00011405979
99	0x398a9d34	0.00026438537
100	0x391be930	0.00014868821
101	0x3956833e	0.00020457522
102	0x38e40081	0.00010871981
103	0x3928bc2a	0.00016091825
104	0x38963d26	7.163947e-05
105	0x3954d56e	0.00020297404
106	0x394fac32	0.00019805206
107	0x388d3f47	6.73519e-05
108	0x3919aced	0.00014655637
109	0x39065c29	0.00012813568
110	0x3bbaf3b1	0.00570532
111	0x3a543362	0.0008094815
112	0x3ab0e272	0.001349522
113	0x3b2551bc	0.002522572
114	0x3af78e52	0.0018887019
115	0x3ac182b3	0.0014763683
116	0x3c0a12f7	0.008427373
117	0x3adf9953	0.0017059244
118	0x3a17af56	0.000578632
119	0xb7e40ad3	-2.7184758e-05
120	0x39967b90	0.0002870229
121	0xb92e8c22	-0.00016646137
122	0x39218557	0.0001540383
123	0xbb2ee8eb	-0.0026689123
124	0x3a135699	0.0005620509
125	0x3adf8d40	0.0017055646
126	0x39227081	0.00015491435
127	0x3a4d5b23	0.000783371
128	0x3a1f028a	0.0006065747
129	0x391f20a6	0.00015175584
130	0xbb5770a4	-0.0032873536
131	0xbab7b283	-0.0014014993
132	0x39a440fd	0.00031328938
133	0xba16b9b6	-0.0005749719
134	0xbbf4ded0	-0.0074728504
135	0x3b5289ef	0.0032125672
136	0xba398282	-0.0007076637
137	0xbc06765a	-0.008206928
138	0x3b9a7848	0.0047140457
139	0xba7735bc	-0.00094303093
140	0x3a381e3b	0.00070235477
141	0x39e8820f	0.0004434739
142	0x3aae762a	0.0013310362
143	0x3b106add	0.0022036352
144	0x3a0653fe	0.000512421
145	0x3b470cfd	0.0030372732
146	0x38ef68f3	0.000114159564
147	0x3aeee3ab	0.0018225809
148	0x3a1b8f19	0.0005934104
149	0x3b1bde46	0.0023783608
150	0x3aacdb8c	0.0013187989
151	0x3a19958c	0.0005858771
152	0x3ae2647e	0.0017272381
153	0xb8a8998f	-8.039467e-05

exp_avg_sq f4 [7, 22]
0	0x39f9130b	0.0004750717
1	0x388a58e4	6.59691e-05
2	0x3b9d548e	0.0048013395
3	0x39421495	0.00018508949
4	0x38ce0faf	9.825767e-05
5	0x3ba5a797	0.0050553787
6	0x3abbf783	0.0014340732
7	0x38adb9e0	8.283905e-05
8	0x39024466	0.00012423247
9	0x38180660	3.624556e-05
10	0x38b61fd3	8.684364e-05
11	0x39d34db9	0.00040302964
12	0x39073796	0.0001289531
13	0x390d731e	0.00013489692
14	0x38ddf89c	0.00010584408
15	0x39b3c5e6	0.00034288986
16	0x3814e078	3.5495003e-05
17	0x39a8ac63	0.00032171895
18	0x38d162db	9.98431e-05
19	0x380cf677	3.360814e-05
20	0x38f0267d	0.00011451261
21	0x388e3ab2	6.7820205e-05
22	0x374bb9f6	1.214304e-05
23	0x350314e5	4.883171e-07
24	0x3888f0f0	6.5298635e-05
25	0x3685a46c	3.98285e-06
26	0x347b5ed4	2.3410695e-07
27	0x389a9152	7.37036e-05
28	0x3803ccd8	3.142361e-05
29	0x351a9052	5.7579484e-07
30	0x35a68571	1.24068e-06
31	0x36f612b5	7.333549e-06
32	0x35ae8f5b	1.3005732e-06
33	0x36141782	2.2067402e-06
34	0x3586198e	9.991215e-07
35	0x358e9a16	1.0624669e-06
36	0x35a02a38	1.1933216e-06
37	0x35efa013	1.7853475e-06
38	0x353981e1	6.910687e-07
39	0x36e8ea4b	6.941414e-06
40	0x3586cabf	1.0042785e-06
41	0x35e81984	1.7292773e-06
42	0x357dadd6	9.450281e-07
43	0x35965e70	1.1203356e-06
44	0x3a1f9b05	0.00060884684
45	0x379255de	1.7444541e-05
46	0x3ba628c8	0.0050707795
47	0x3a14fa0c	0.0005683012
48	0x37d537e6	2.5417608e-05
49	0x3ba6a02f	0.0050850133
50	0x3b2bdb6a	0.002622331
51	0x379c2384	1.8613187e-05
52	0x38482181	4.771492e-05
53	0x3882aaa3	6.2306666e-05
54	0x398c9f16	0.0002682141
55	0x39b80919	0.00035101993
56	0x38c69de6	9.4707866e-05
57	0x3907c8ad	0.00012949361
58	0x38c67cfb	9.464655e-05
59	0x391da49d	0.0001503401
60	0x38122108	3.4839875e-05
61	0x3a0b0567	0.0005303234
62	0x3960c80c	0.00021436828
63	0x383e681b	4.5396486e-05
64	0x38ac207d	8.2076505e-05
65	0x38919efb	6.943751e-05
66	0x3a49018e	0.0007667773
67	0x36c90536	5.9908734e-06
68	0x3b2a4883	0.0025983162
69	0x3a18bd08	0.00058265077
70	0x37e00d14	2.670897e-05
71	0x3b352659	0.0027641265
72	0x3b653f1e	0.0034980248
73	0x36f478cd	7.2858297e-06
74	0x37f267af	2.889693e-05
75	0x37d976db	2.5923762e-05
76	0x3909902d	0.00013119048
77	0x398ae1d8	0.00026489678
78	0x38721222	5.7714184e-05
79	0x389d298a	7.494081e-05
80	0x381d58e6	3.751451e-05
81	0x389adaac	7.384023e-05
82	0x37a935cd	2.0171423e-05
83	0x39942ceb	0.00028262226
84	0x3980e681	0.000245858
85	0x37a77421	1.9962028e-05
86	0x37cccffb	2.4415544e-05
87	0x37c7981f	2.3793486e-05
88	0x36b2cadf	5.3284307e-06
89	0x342f3bcb	1.6319898e-07
90	0x384453ba	4.6808018e-05
91	0x36ae472b	5.193889e-06
92	0x3446e24a	1.852251e-07
93	0x38440a5a	4.6739682e-05
94	0x37c08b96	2.2953183e-05
95	0x34324b52	1.6604943e-07
96	0x351af87f	5.773108e-07
97	0x3591a2d6	1.0850733e-06
98	0x36074560	2.015695e-06
99	0x3614074e	2.205797e-06
100	0x35981167	1.1329947e-06
101	0x353e4260	7.0877104e-07
102	0x35900f19	1.073323e-06
103	0x358f411d	1.0673281e-06
104	0x350b2adb	5.18439e-07
105	0x36751b94	3.6523898e-06
106	0x350a8f4e	5.161754e-07
107	0x35d5367f	1.5885597e-06
108	0x3511ad1a	5.4268605e-07
109	0x3585dcc7	9.973527e-07
110	0x38633332	5.4168697e-05
111	0x37675f9a	1.3790932e-05
112	0x3ace660e	0.0015746967
113	0x386ebcb1	5.6919354e-05
114	0x37509958	1.2433469e-05
115	0x3acd20d7	0.0015650046
116	0x396b1503	0.00022419174
117	0x373b591e	1.1166818e-05
118	0x3804b4eb	3.1639745e-05
119	0x374efd0e	1.2337476e-05
120	0x37910016	1.7285387e-05
121	0x3893e3f3	7.051965e-05
122	0x37f3ab22	2.9047547e-05
123	0x38c106e5	9.204241e-05
124	0x3838dd89	4.407534e-05
125	0x3857128f	5.127728e-05
126	0x371495b1	8.85634e-06
127	0x38cf895c	9.896114e-05
128	0x373f01c1	1.13848955e-05
129	0x370a95b6	8.260298e-06
130	0x38ce6472	9.841555e-05
131	0x383ae58e	4.4559645e-05
132	0x37cf54e2	2.471585e-05
133	0x371cd064	9.346844e-06
134	0x3ae6b4f6	0.0017601538
135	0x38fb5c5a	0.000119858145
136	0x36917b8b	4.335719e-06
137	0x3ad9d9d8	0.0016620709
138	0x39a1c0eb	0.00030852048
139	0x368696d2	4.011069e-06
140	0x3723fa89	9.773889e-06
141	0x376d6fda	1.4152343e-05
142	0x3783e932	1.5725007e-05
143	0x3863d605	5.432034e-05
144	0x388e68eb	6.79063e-05
145	0x3878d18c	5.9322963e-05
146	0x38d0536f	9.9337536e-05
147	0x3828ec34	4.0274303e-05
148	0x3720e230	9.589407e-06
149	0x38b2bfe2	8.5234424e-05
150	0x374bdc50	1.2151038e-05
151	0x373fd1d2	1.143334e-05
152	0x38e76d13	0.00011035255
153	0x389b46d6	7.40417e-05
