data_10frm/model/0_0_7_11.pt (torch_old, 18399 bytes, 52 tensors)

rnn.weight_ih f4 [7, 22]
0	0x3e705f2f	0.2347381
1	0xbddf3f06	-0.10900693
2	0xbc9685c8	-0.018374339
3	0x3e82a216	0.25514287
4	0xbe9f190e	-0.31073803
5	0x3e8eec5d	0.27914706
6	0x3cc62b33	0.02419052
7	0x3e702078	0.23449886
8	0x3d87087e	0.06593417
9	0xbdd43ec5	-0.10363535
10	0x3c72d0a8	0.014820255
11	0xbd6f26c1	-0.058386568
12	0x3d7df1fd	0.061998356
13	0xbe6c9f12	-0.23107556
14	0xbde8898b	-0.11354359
15	0xbdb65372	-0.08902635
16	0x3c49938d	0.012303245
17	0xbda56ada	-0.08077021
18	0x3e928479	0.28616694
19	0x3d73efd3	0.059554886
20	0xbe417987	-0.18894015
21	0xbe90280e	-0.2815556
22	0xbd3ecbfd	-0.046581257
23	0xbe05c45c	-0.13063186
24	0x3d306001	0.043060306
25	0x3e15f207	0.14643107
26	0x3e2618ea	0.16220441
27	0x3ebd769f	0.37004563
28	0xbe8d196e	-0.27558464
29	0x3e2703e2	0.16310075
30	0xbd4699f1	-0.048486654
31	0x3e50ed3c	0.20402998
32	0x3dd2e2d0	0.10297167
33	0xbf0102ab	-0.50394696
34	0xbf025f0e	-0.5092629
35	0xbeae0922	-0.33991343
36	0x3e3a7731	0.1820953
37	0xbe61cc98	-0.22050703
38	0x3d01caf1	0.03168768
39	0xbeb205e6	-0.34770125
40	0x3e48e40e	0.19618246
41	0xbea4baf0	-0.32173872
42	0x3ddf8489	0.10913951
43	0xbe268dda	-0.1626505
44	0xbe9c4480	-0.3052101
45	0x3da6ea53	0.081501625
46	0xbe58e074	-0.21179372
47	0x3d8d6d57	0.069056205
48	0xbde8b616	-0.11362855
49	0xbd586e1f	-0.052839395
50	0xbedde62c	-0.4333967
51	0xbe48d056	-0.19610724
52	0x3e57db09	0.21079649
53	0xbdd06c30	-0.10176885
54	0x3edee4e3	0.43534002
55	0x3e973b42	0.29537398
56	0xbce639d0	-0.028103739
57	0xbe8a4e96	-0.2701308
58	0x3e6d0b02	0.2314873
59	0x3df732b7	0.1207022
60	0xbe61d4dc	-0.22053856
61	0x3e890b6d	0.2676653
62	0x3e76a61d	0.24086805
63	0x3eaf61bc	0.34254253
64	0xbe657577	-0.2240809
65	0xbd4d0229	-0.05005089
66	0xbdf17a3d	-0.11790893
67	0x3e087f26	0.13329753
68	0xbea391d4	-0.31947196
69	0xbeb1fc81	-0.34762958
70	0x3e8cf8f2	0.2753368
71	0xbdef590f	-0.116869085
72	0x3db92a3f	0.09041261
73	0x3da583d8	0.08081788
74	0x3e15994e	0.14609262
75	0x3e0f0481	0.13966562
76	0x3e313a88	0.17307484
77	0x3e687149	0.22699465
78	0xbea34b6b	-0.31893477
79	0x3e372deb	0.1788861
80	0xbe850418	-0.25979686
81	0xbe857cbd	-0.2607173
82	0x3d4a629d	0.04941045
83	0xbca2d6b1	-0.019877763
84	0x3e7e734a	0.24848667
85	0xbe2fa44d	-0.1715252
86	0xbea53a56	-0.3227107
87	0x3e945ca2	0.28976923
88	0xbcf32188	-0.029679075
89	0x3e8bb34b	0.27285227
90	0x3e128426	0.14308223
91	0xbe884cb6	-0.26621026
92	0x3d20a24b	0.039217275
93	0x3de70847	0.11280876
94	0xbe428faf	-0.19000123
95	0xbe30802e	-0.17236397
96	0x3df2ed99	0.118617244
97	0x3cdadd3e	0.026716825
98	0xbe4ec150	-0.2019093
99	0xbe1e710e	-0.15472814
100	0x3eb8d452	0.36099488
101	0xbdb1d670	-0.08683479
102	0x3e1fa71e	0.15591094
103	0x3e1b16f7	0.15145479
104	0xbe893188	-0.26795602
105	0xbeb5d6a9	-0.35515335
106	0x3eb0f726	0.3456356
107	0xbc24491c	-0.010027196
108	0x3e790290	0.24317384
109	0x3d5d6084	0.054047123
110	0x3e433036	0.1906136
111	0x3e814785	0.25249878
112	0x3eac4f6d	0.33654347
113	0xbe486b46	-0.19572172
114	0xbc06259e	-0.00818768
115	0x3e84ab37	0.25911877
116	0x3ec182aa	0.37795
117	0x3e28643a	0.16444483
118	0xbe8c0fda	-0.27355844
119	0xbe8a6912	-0.27033287
120	0xbe6ed727	-0.23324262
121	0x3d6a428c	0.05719237
122	0x3ebbadea	0.36656123
123	0xbe350267	-0.17676698
124	0x3e622c15	0.22087128
125	0xbe3d500d	-0.18487568
126	0xbeaf1bb7	-0.34200832
127	0xbd8a2a6a	-0.06746371
128	0x3e7a4f5f	0.2444434
129	0x3eb9f615	0.36320558
130	0xbe46db47	-0.19419585
131	0x3dc87ce1	0.09789444
132	0x3ed83bef	0.42233226
133	0x3e7a2968	0.24429858
134	0x3e6b4962	0.22977212
135	0x3ecf533e	0.40493196
136	0x3e2496ff	0.16073225
137	0x3db3fa62	0.08787991
138	0xbe07d61a	-0.13265267
139	0xbec1b4bf	-0.3783321
140	0xbe330f39	-0.17486276
141	0xbd4e1af4	-0.050318673
142	0xbe8c2070	-0.27368498
143	0x3e25f00b	0.1620485
144	0x3e04e18c	0.12976664
145	0xbda6b627	-0.081402116
146	0x3e311857	0.17294441
147	0x3e0b97c9	0.1363212
148	0x3e681423	0.22663932
149	0x3e806d69	0.25083473
150	0xbdf8304d	-0.12118588
151	0x3ebc577e	0.367855
152	0xbcb5bef8	-0.022185788
153	0x3c2cdb26	0.010550296

rnn.weight_hh f4 [7, 7]
0	0xbea521e5	-0.32252422
1	0xbe8e6a77	-0.278156
2	0xbea4dce3	-0.32199773
3	0xbe6ac204	-0.22925574
4	0x3e3aeff4	0.18255597
5	0xbe588e76	-0.21148095
6	0xbeb78f2f	-0.35851428
7	0x3c601c55	0.01367863
8	0xbb330c84	-0.0027320692
9	0x3ddb509f	0.10708737
10	0xbeb15f15	-0.34642854
11	0xbd5c5f4b	-0.053801816
12	0xbe873bc0	-0.26412773
13	0xbe656904	-0.22403342
14	0xbe9fe9fa	-0.31233197
15	0xbe135c51	-0.14390685
16	0xbd283cab	-0.041073482
17	0x3e032561	0.12807228
18	0x3d00ce6b	0.031446856
19	0x3c886eea	0.01665445
20	0x3eb71ab8	0.35762572
21	0x3ebd973f	0.37029454
22	0x3e8f15be	0.27946275
23	0x3c6a6351	0.014305905
24	0xbe3306f6	-0.17483124
25	0x3ea86877	0.328922
26	0xbe26b006	-0.16278085
27	0xbdaca20d	-0.08429346
28	0xbeaee2ca	-0.341574
29	0xbdc78aa0	-0.097432375
30	0xbea14ca2	-0.3150378
31	0x3e8ad334	0.2711426
32	0xbe8dad82	-0.27671438
33	0xbeafe158	-0.3435161
34	0xbd9e52fb	-0.07730671
35	0xbe4723bf	-0.1944723
36	0x3e0bd88d	0.13656826
37	0xbe3a36ee	-0.18185017
38	0xbe52931d	-0.20563932
39	0xbc7eb75c	-0.015546646
40	0x3eb6268a	0.35576278
41	0xbea327fd	-0.31866446
42	0x3e260df6	0.16216263
43	0x3e70ac08	0.23503125
44	0x3ea85e07	0.32884237
45	0xbe976731	-0.29570916
46	0x3d8a4bd4	0.06752744
47	0xbe9ae436	-0.30252236
48	0x3ec75f52	0.3893991

rnn.bias_ih f4 [7]
0	0xbe4d09db	-0.20023291
1	0x3d81d61e	0.06339668
2	0x3cc2f713	0.023799455
3	0x3a77001f	0.000942232
4	0xbd100e44	-0.035169855
5	0x3dae7fdd	0.08520482
6	0x3e3ec53c	0.18629926

rnn.bias_hh f4 [7]
0	0x3be4c0c7	0.0069809887
1	0xbd488f7a	-0.048964955
2	0xbea7a4e4	-0.3274299
3	0x3e9c8889	0.30572918
4	0x3e9ce1bd	0.30640975
5	0x3eaaaf34	0.33336794
6	0x3e933680	0.28752518

exp_avg f4 [7, 22]
0	0x37c550ba	2.3521821e-05
1	0xba511f99	-0.00079774257
2	0xbc07b0f5	-0.008281936
3	0xbab8f604	-0.0014111404
4	0xb9d02e64	-0.00039707415
5	0xbc066bc5	-0.008204405
6	0xbb0daf20	-0.0021619275
7	0xb9e05869	-0.0004279048
8	0x36fe9dc5	7.5881567e-06
9	0x3a55b562	0.00081523333
10	0x3ad12d31	0.0015958903
11	0x3afdfb91	0.0019377341
12	0x3aa03378	0.001222237
13	0x3acbd0dd	0.0015549917
14	0x3aa6d49e	0.001272816
15	0x3a21d45e	0.0006173308
16	0x3a21b466	0.0006168544
17	0x3ad54dd7	0.0016273808
18	0x3b08e9d2	0.002089132
19	0x3a973ef9	0.0011539153
20	0x3a6b76d6	0.00089822465
21	0x3ab81526	0.0014044389
22	0xb98b69f3	-0.00026591084
23	0xba476573	-0.00076063647
24	0xbc56dfcf	-0.013114884
25	0xbb2cc7c4	-0.0026364187
26	0x38bb4934	8.93049e-05
27	0xbc5640e9	-0.013076999
28	0xbb77a987	-0.0037790255
29	0x3911dd0a	0.00013910621
30	0x3acdf6fa	0.0015713864
31	0x3aa959cb	0.0012920437
32	0x3b48c3a2	0.0030634184
33	0x3b1918fd	0.0023360841
34	0x3acbb4f9	0.0015541605
35	0x3ae896c5	0.0017745128
36	0x3af5a797	0.0018741962
37	0x3a7833b4	0.00094681536
38	0x3a8c2205	0.0010691291
39	0x3b2620a2	0.002534904
40	0x3b6707db	0.0035252485
41	0x3aecf595	0.001807856
42	0x3aafaebc	0.0013403515
43	0x3b130754	0.0022434788
44	0x3c25fe00	0.010131359
45	0x3bcf1576	0.006319697
46	0xb958bdb4	-0.00020670035
47	0x3bb3f441	0.005491764
48	0x39a986a1	0.00032334498
49	0xb910296d	-0.00013748342
50	0x3c9d5ecb	0.01921024
51	0x3a045855	0.0005048563
52	0xba233ab7	-0.0006226706
53	0xb7ae1ccf	-2.0755831e-05
54	0xbba415f7	-0.005007501
55	0x3abca343	0.0014391918
56	0x3a2ee62a	0.00066718704
57	0x3b2aed97	0.0026081556
58	0x38d2dacd	0.00010054335
59	0x398c7906	0.0002679305
60	0xba119162	-0.0005552975
61	0xbadd95ee	-0.0016905644
62	0xb98102ff	-0.0002460703
63	0x38a81daa	8.0163896e-05
64	0x3a9872ee	0.0011630931
65	0x3914d14b	0.00014192348
66	0x3b91ba0e	0.0044472283
67	0xb9a9755f	-0.0003232164
68	0xbb843a98	-0.004035305
69	0x3b8b0e35	0.004243637
70	0xb8c176cf	-9.225087e-05
71	0xbbb308e6	-0.0054637073
72	0x3c2583cc	0.010102224
73	0x3958c4bc	0.00020672655
74	0x3ac8b264	0.0015311954
75	0xb9f49883	-0.00046652937
76	0xba684236	-0.0008859964
77	0x3a5535a2	0.0008133297
78	0x39f6591b	0.00046987165
79	0x3b30177c	0.0026869467
80	0x3a596375	0.00082927133
81	0x39e5cb91	0.00043829952
82	0x39ca5d95	0.00038598166
83	0xb858faa2	-5.1731833e-05
84	0x3abe6289	0.0014525215
85	0xb9abbdba	-0.0003275702
86	0x3a9f67f4	0.0012161718
87	0x3af3c076	0.0018596787
88	0xbabde991	-0.0014489164
89	0xbab9b748	-0.0014169002
90	0xbc28adfb	-0.010295386
91	0xbae0d7fb	-0.0017154211
92	0xb9706a1a	-0.0002292771
93	0xbc294f3b	-0.010333831
94	0xbbb0ceaa	-0.00539573
95	0xb93f8584	-0.00018264918
96	0x3ab8281b	0.0014050038
97	0x3a97e509	0.0011588644
98	0x3ae93c6f	0.00177945
99	0x3b19b31c	0.0023452705
100	0x39e35f36	0.00043367752
101	0x3ad476a1	0.001620967
102	0x3b071d0d	0.002061668
103	0x3a2f8020	0.00066948123
104	0x3a74c27d	0.00093368423
105	0x3b1e92d7	0.002419641
106	0x3b19d07c	0.0023470214
107	0x3ae1f07d	0.0017237809
108	0x3a77b0cc	0.0009448647
109	0x3ae773af	0.0017658378
110	0xbb9e6f08	-0.0048350133
111	0xb9d8d098	-0.00041354145
112	0x3ca95fa3	0.020675486
113	0xba99903a	-0.0011715956
114	0x39744632	0.00023295803
115	0x3cacfcdb	0.021116665
116	0xbbdb0621	-0.00668408
117	0x398892e5	0.00026049386
118	0xba34fd00	-0.0006904155
119	0xbab55061	-0.0013833159
120	0xba4a5de5	-0.000771968
121	0xbb66ff89	-0.0035247526
122	0xba2ea52b	-0.0006662185
123	0xbc26b3a9	-0.01017467
124	0xbb63e107	-0.0034771578
125	0xbad56383	-0.0016280267
126	0xbab60d10	-0.0013889391
127	0xbb25a607	-0.0025275962
128	0xbbbf5837	-0.0058393735
129	0xbb137cb1	-0.0022504742
130	0xbb801d78	-0.003909763
131	0xbb4deb6b	-0.0031420838
132	0xbc30101f	-0.010746031
133	0xbb5b064d	-0.0033420504
134	0x3c7443dd	0.014908758
135	0xbbad43c5	-0.00528762
136	0xb8d036da	-9.92843e-05
137	0x3c85b567	0.016321851
138	0xbc919613	-0.017771756
139	0xba5f5e11	-0.0008520792
140	0xbb55164f	-0.0032514518
141	0xba98fe3f	-0.0011672451
142	0x3a5e4dc3	0.00084802153
143	0xbbac6eec	-0.0052622464
144	0xbb617ca9	-0.0034406579
145	0xbafbaa2c	-0.0019200495
146	0xbad7b931	-0.001645839
147	0xbabd4b7f	-0.0014442055
148	0xba86a92d	-0.0010273807
149	0xbad0a1c1	-0.0015917347
150	0xbb640782	-0.0034794514
151	0xbaec2360	-0.0018015914
152	0xbb0fe5b5	-0.0021956984
153	0xbb8c9135	-0.004289771

exp_avg_sq f4 [7, 22]
0	0x374d1585	1.2223963e-05
1	0x3709935d	8.200147e-06
2	0x39a0169a	0.00030534418
3	0x37006f01	7.65524e-06
4	0x36a066db	4.7803455e-06
5	0x39a48263	0.00031377663
6	0x37cbf157	2.4311868e-05
7	0x36ee23a3	7.0971014e-06
8	0x38152a4e	3.5563768e-05
9	0x36820d05	3.8758176e-06
10	0x36bbc1e1	5.5956048e-06
11	0x36db99fb	6.5446343e-06
12	0x36adef3d	5.183653e-06
13	0x36807c13	3.8291414e-06
14	0x369a54f3	4.599447e-06
15	0x360539f7	1.9852284e-06
16	0x36981e7f	4.533503e-06
17	0x36d41a5c	6.321161e-06
18	0x37be34a7	2.2674283e-05
19	0x36d9ddac	6.49291e-06
20	0x366996e6	3.480754e-06
21	0x3719bfd8	9.164178e-06
22	0x37262966	9.90401e-06
23	0x363edc54	2.8440454e-06
24	0x39a617b1	0.0003167964
25	0x37bbe9f9	2.240109e-05
26	0x34b6e0de	3.4063754e-07
27	0x39a1eac7	0.00030883236
28	0x389f36df	7.591931e-05
29	0x34ffae75	4.7624386e-07
30	0x36c9f6ec	6.0190123e-06
31	0x36a0f882	4.7973017e-06
32	0x37b3e3fb	2.1444625e-05
33	0x3705a3d3	7.965561e-06
34	0x36d26588	6.2703075e-06
35	0x36a854cf	5.016663e-06
36	0x3709a882	8.20507e-06
37	0x36062e86	1.9994636e-06
38	0x36cc7831	6.093666e-06
39	0x3724d0dc	9.823791e-06
40	0x3794e212	1.7748247e-05
41	0x36efd72a	7.1478034e-06
42	0x36228fc1	2.4223557e-06
43	0x37126068	8.7247245e-06
44	0x38f97d00	0.00011896528
45	0x38289892	4.0196413e-05
46	0x3b4e1029	0.0031442738
47	0x398a61cc	0.00026394275
48	0x35f5840d	1.8292354e-06
49	0x3b49121e	0.0030680965
50	0x3a893bed	0.001047013
51	0x361dd50c	2.3518833e-06
52	0x38576097	5.134995e-05
53	0x38211381	3.8403556e-05
54	0x39930aec	0.00028046162
55	0x38a1b1a2	7.710165e-05
56	0x385ac3fa	5.2157768e-05
57	0x382e1188	4.150116e-05
58	0x385bdf45	5.2421605e-05
59	0x3790dbf9	1.726857e-05
60	0x386ac569	5.59738e-05
61	0x38f3dbfb	0.000116281175
62	0x39461bcf	0.00018893111
63	0x38915e51	6.9317066e-05
64	0x37af4296	2.0892632e-05
65	0x38b5916a	8.657838e-05
66	0x388fc554	6.8555266e-05
67	0x3727933a	9.9882545e-06
68	0x3b2fad76	0.0026806272
69	0x39812d39	0.0002463849
70	0x36a1014e	4.798326e-06
71	0x3b246a4c	0.0025087772
72	0x3a3e1272	0.00072506734
73	0x36c2f329	5.809958e-06
74	0x3830089b	4.1969684e-05
75	0x38c7f3e3	9.534487e-05
76	0x388a0c3c	6.5826316e-05
77	0x38db25de	0.00010449787
78	0x3864b305	5.452616e-05
79	0x38038e61	3.1365435e-05
80	0x3896404c	7.1645336e-05
81	0x3781faaa	1.5494723e-05
82	0x381835e8	3.6289828e-05
83	0x38c177fb	9.225305e-05
84	0x39140da6	0.00014119464
85	0x38a83b1c	8.021874e-05
86	0x37b2dd93	2.1322432e-05
87	0x388c58e7	6.6922796e-05
88	0x37c5270c	2.3502413e-05
89	0x36fad8c7	7.475817e-06
90	0x3af5e968	0.0018761577
91	0x38d98d41	0.00010373677
92	0x3591cf60	1.0863696e-06
93	0x3aebb01d	0.0017981563
94	0x391f61a6	0.00015199799
95	0x3628ee9b	2.5172837e-06
96	0x3845b35d	4.7135505e-05
97	0x37e180e0	2.6882102e-05
98	0x381b8138	3.7075224e-05
99	0x3835fb4c	4.33878e-05
100	0x38db1869	0.000104472805
101	0x37f04c38	2.8645722e-05
102	0x37e697f9	2.7488904e-05
103	0x375c9807	1.31484185e-05
104	0x37b2ccef	2.1314683e-05
105	0x38585569	5.1577957e-05
106	0x38f822c5	0.00011832038
107	0x382dfca9	4.1481722e-05
108	0x379bbb7a	1.856474e-05
109	0x3852f0cf	5.0292172e-05
110	0x386f548e	5.7060788e-05
111	0x35d3e183	1.5786358e-06
112	0x3afb4083	0.0019169006
113	0x3794eec3	1.7754157e-05
114	0x350af927	5.177157e-07
115	0x3b004c96	0.0019576899
116	0x387ab8c6	5.977673e-05
117	0x35780890	9.239966e-07
118	0x37b2a044	2.1293883e-05
119	0x3784d50b	1.5834832e-05
120	0x37c0ed2a	2.2998622e-05
121	0x386e0112	5.674462e-05
122	0x37d39e33	2.5226827e-05
123	0x392f1c8c	0.00016699935
124	0x3851ce06	5.0021357e-05
125	0x375cf66e	1.3170398e-05
126	0x3799bdc8	1.8327395e-05
127	0x383bcc63	4.4774624e-05
128	0x3908c618	0.00013043766
129	0x3812aa3e	3.4967663e-05
130	0x3805df05	3.1917374e-05
131	0x385c2c56	5.249338e-05
132	0x398784c7	0.00025848133
133	0x3792990a	1.747582e-05
134	0x3b53928d	0.0032283396
135	0x38b7f9b8	8.772634e-05
136	0x36f8e90d	7.4181066e-06
137	0x3b5fb11e	0.003413267
138	0x3a1b462a	0.0005923236
139	0x374a1a1b	1.2046216e-05
140	0x38827fdb	6.222698e-05
141	0x381a29e0	3.675546e-05
142	0x385881b1	5.1619198e-05
143	0x39170728	0.00014403148
144	0x38a908e0	8.060201e-05
145	0x3882dfd1	6.240572e-05
146	0x3926278d	0.00015845727
147	0x37ca7e99	2.4139228e-05
148	0x380b0c60	3.3151708e-05
149	0x38ab60b8	8.171931e-05
150	0x39526543	0.00020064884
151	0x3887a8ae	6.468721e-05
152	0x3832413c	4.249926e-05
153	0x390846fd	0.00012996416

exp_avg f4 [7, 7]
0	0xba2dcfbe	-0.0006630382
1	0x39c5a8b0	0.0003770045
2	0x3aea8440	0.0017892197
3	0x3b0a7dbf	0.002113208
4	0x3abe993e	0.0014541519
5	0x3ad799c1	0.001644902
6	0x3adc1b16	0.001679274
7	0x3a32f337	0.0006826403
8	0x3a25c997	0.000632429
9	0x3b88e73f	0.0041779573
10	0x3b3a4fae	0.002842884
11	0x3acb70df	0.0015521309
12	0x3ad9c9cc	0.0016615926
13	0x3afb56a1	0.0019175598
14	0x39a786f3	0.00031953267
15	0xba1c7ca9	-0.00059695035
16	0xbc4d504a	-0.012531349
17	0x3b586b41	0.0033022913
18	0x3b08b01d	0.0020856925
19	0x3b8fdda0	0.0043904334
20	0x3b0f5689	0.0021871647
21	0x3a0ad9e4	0.00052967505
22	0x3996811b	0.0002870642
23	0x3b190d18	0.0023353752
24	0xbc236a82	-0.009974124
25	0x392512ce	0.00015742632
26	0x3ba66a6f	0.005078606
27	0x3bd72fa8	0.0065669604
28	0x39c488c1	0.00037485923
29	0x3a0256f6	0.00049720646
30	0x3b63b5fa	0.0034745918
31	0x3bab5e03	0.005229713
32	0xbba4df86	-0.005031529
33	0x3b0f6054	0.0021877484
34	0x3b84fbc5	0.0040583336
35	0xba4eb8e7	-0.0007885829
36	0xba2fd06a	-0.00067067763
37	0x391de4a7	0.00015057866
38	0xba59d2a1	-0.0008309279
39	0xb8985b05	-7.2648785e-05
40	0xbca3c8c9	-0.019993203
41	0x3ac6afcf	0.0015158596
42	0xba1fb493	-0.00060922763
43	0xba031b5a	-0.0005001329
44	0x3ac18b13	0.0014766179
45	0xb95c8a3a	-0.00021032328
46	0xba28c6fd	-0.0006438343
47	0x3aa0eda4	0.0012277854
48	0xbc87c4c5	-0.01657332

exp_avg_sq f4 [7, 7]
0	0x38019a7d	3.0899875e-05
1	0x361c9c92	2.3336947e-06
2	0x36c7ed34	5.9582762e-06
3	0x3781b8c0	1.546403e-05
4	0x36d0fcb2	6.2283007e-06
5	0x3683e672	3.9309316e-06
6	0x36f74bb7	7.369988e-06
7	0x360116c6	1.9235754e-06
8	0x363bbd29	2.7975277e-06
9	0x381d82b5	3.7553447e-05
10	0x37a0d4db	1.9172605e-05
11	0x3701640c	7.712293e-06
12	0x36be65af	5.674279e-06
13	0x371e523e	9.436682e-06
14	0x3709c67b	8.212049e-06
15	0x37e7e663	2.7644628e-05
16	0x3a102ef5	0.0005500161
17	0x391d46d4	0.00014999072
18	0x384f5820	4.943472e-05
19	0x37d5c3b1	2.5482705e-05
20	0x3864cf50	5.455251e-05
21	0x36d7db1d	6.4330075e-06
22	0x37663d98	1.3723409e-05
23	0x3871c1b2	5.763927e-05
24	0x3a1e560e	0.0006040045
25	0x38123fb9	3.486846e-05
26	0x37da9dfd	2.6061194e-05
27	0x38d7abd0	0.000102840015
28	0x3704d3fd	7.9171705e-06
29	0x3726a926	9.933754e-06
30	0x381a68a6	3.6813923e-05
31	0x38ce76dc	9.844985e-05
32	0x3984dc16	0.0002534098
33	0x3763d8f2	1.3580766e-05
34	0x38450b5b	4.6979036e-05
35	0x36c5e079	5.8971896e-06
36	0x36cce601	6.1064497e-06
37	0x3799acf3	1.8319557e-05
38	0x38627f9e	5.400145e-05
39	0x3786a768	1.6052e-05
40	0x39e87350	0.00044336403
41	0x3828e53d	4.0267816e-05
42	0x377562df	1.4626158e-05
43	0x37794e38	1.4859768e-05
44	0x388eac76	6.803211e-05
45	0x3906f427	0.0001287019
46	0x384e23a4	4.914742e-05
47	0x383766ad	4.3726224e-05
48	0x3a08e45d	0.0005222017

exp_avg f4 [7]
0	0x3c09c1d6	0.0084080305
1	0x3c5cc7dd	0.0134753855
2	0xba5d1479	-0.00084335316
3	0x3ba30771	0.0049752523
4	0x3c30fc20	0.010802299
5	0xbca972a0	-0.02068454
6	0xbc81bb72	-0.015836451

exp_avg_sq f4 [7]
0	0x39abb2c6	0.00032748858
1	0x39aeac9e	0.00033316476
2	0x3b5b3f58	0.0033454504
3	0x3b357119	0.002768582
4	0x3afb44ae	0.0019170248
5	0x3b023855	0.0019870002
6	0x3b677da3	0.0035322688

exp_avg f4 [7]
0	0x3c09ca87	0.008410103
1	0x3c5cc327	0.013474262
2	0xba5e0036	-0.00084686594
3	0x3ba32100	0.004978299
4	0x3c310a73	0.010805714
5	0xbca96d6d	-0.020682061
6	0xbc81b952	-0.015835438

exp_avg_sq f4 [7]
0	0x39abb3ab	0.00032749525
1	0x39aeaaee	0.0003331522
2	0x3b5b3f79	0.003345458
3	0x3b3570ce	0.0027685645
4	0x3afb4509	0.0019170354
5	0x3b02382c	0.0019869907
6	0x3b677d9a	0.0035322667

exp_avg f4 [7, 22]
0	0xb894f150	-7.102138e-05
1	0x3adb4232	0.0016728102
2	0xbc2e464c	-0.010636877
3	0xbacc7fa7	-0.0015602008
4	0x3ad060fc	0.0015898044
5	0xbc2c821a	-0.0105290655
6	0xbb12f8bb	-0.0022426087
7	0x3aef85b8	0.0018274104
8	0x3a3d5d49	0.00072236784
9	0x3a7ed7d2	0.0009721491
10	0x3afb8207	0.0019188531
11	0x3b32b8a7	0.0027270706
12	0x3aeb3b72	0.0017946793
13	0x3aaaf557	0.0013043088
14	0x3aba7996	0.0014226909
15	0x3a68e6e5	0.00088845036
16	0x3b2fb7a2	0.0026812335
17	0x3a39e843	0.00070917996
18	0x3b37bb9a	0.0028035403
19	0x3a5fef6f	0.0008542453
20	0x3b01dd73	0.0019815832
21	0x3a783652	0.00094685436
22	0xbc7684fa	-0.0150463525
23	0xba49f82c	-0.0007704522
24	0xbc055a5a	-0.008139217
25	0xbc459d99	-0.0120615
26	0x3b558e3e	0.0032586004
27	0xbb906657	-0.004406731
28	0xbd1825bd	-0.037145365
29	0xbab81435	-0.0014044108
30	0x3ae92d0a	0.0017789912
31	0xbbf37ed7	-0.007430892
32	0x3ad1959a	0.0015990019
33	0x3bbaadde	0.005696996
34	0x3af751dc	0.0018869
35	0x3b2023f2	0.0024435488
36	0xba3c8657	-0.0007191649
37	0x3a2295ce	0.0006202132
38	0xba8bc15f	-0.0010662487
39	0x382c5825	4.1090087e-05
40	0x3b37a297	0.0028020495
41	0x39bc01f4	0.0003585961
42	0x3b57e4e0	0.0032942817
43	0xba4f27f3	-0.0007902376
44	0x39d1e5d8	0.00040034833
45	0x3a5ecf07	0.00084994774
46	0xbb80aaec	-0.0039266255
47	0xb9a62c67	-0.0003169507
48	0x3a38f77d	0.00070559216
49	0xbb828374	-0.0039829556
50	0x3901647c	0.00012339832
51	0x3a6a5427	0.0008938931
52	0x3a04a510	0.00050599966
53	0x3a1275d8	0.0005587018
54	0x3a296357	0.0006461641
55	0x3a4e2649	0.00078639813
56	0x3a1a5cbd	0.0005888453
57	0x39fa27f5	0.00047713486
58	0x3a100cd4	0.00054950756
59	0x39aa16e1	0.00032441973
60	0x3a8d04a7	0.0010758833
61	0x398f5ad6	0.00027342763
62	0x3a87d64c	0.0010363548
63	0x39ab3be0	0.00032660272
64	0x3a303290	0.00067214016
65	0x39d2a712	0.00040178798
66	0x3c032646	0.008004731
67	0x3bd0a11a	0.006366861
68	0xbcf91b93	-0.030408656
69	0x3b522535	0.0032065634
70	0x3b6db08c	0.003626856
71	0xbd04c40b	-0.032413524
72	0x3c92f0f4	0.017937161
73	0x3bc85829	0.006114025
74	0x3aefc254	0.0018292167
75	0x3bb51f08	0.005527381
76	0x3b86322f	0.004095338
77	0x3bafa4a7	0.0053602043
78	0x3ba33936	0.0049811853
79	0x3bb382e4	0.00547825
80	0x3ba776fd	0.00511062
81	0x3b1361c2	0.0022488688
82	0x3c2150ee	0.009845955
83	0x3b110728	0.002212951
84	0x3bef5e2e	0.0073049283
85	0x3b249e07	0.0025118606
86	0x3b9c54a3	0.0047708317
87	0x3b643788	0.0034823138
88	0x3a0dd1d5	0.00054099906
89	0x3aae464d	0.0013296098
90	0xbbadf578	-0.005308803
91	0xb9b6912f	-0.00034821915
92	0x3a80ddfb	0.000983178
93	0xbbb2d152	-0.005457082
94	0x3942a199	0.00018561482
95	0x3ab6ad21	0.0013937094
96	0x3a5ddf3a	0.00084637443
97	0x3a6d18ca	0.00090445264
98	0x39c41f8e	0.00037407543
99	0x3ab8fb1b	0.0014112921
100	0x39944c3f	0.00028285568
101	0x3a824b8d	0.0009940729
102	0x3a5be63d	0.0008388495
103	0x39ecde7c	0.00045179192
104	0x3ab530b0	0.0013823714
105	0x39d190a6	0.00039971358
106	0x3ab2d2bf	0.001364313
107	0x39fcb82d	0.00048202407
108	0x3a8674e2	0.0010258222
109	0x3a0d61ee	0.0005393316
110	0x3be3ad06	0.0069481162
111	0xbc31b95f	-0.010847419
112	0x3d8d4215	0.0689737
113	0x3c669b93	0.014075178
114	0xbc3ebce0	-0.011641711
115	0x3d898ffe	0.067169175
116	0x3cbfaa83	0.023396736
117	0xbc307f70	-0.010772571
118	0xbbce2eca	-0.006292199
119	0xbb23843e	-0.0024950649
120	0xbc1e25d2	-0.009652572
121	0xbc963dc2	-0.018339995
122	0xbc33305a	-0.010936821
123	0xbc5b229f	-0.0133749535
124	0xbc0430d4	-0.008068282
125	0xbbadc001	-0.0053024297
126	0xbc8903a0	-0.016725361
127	0xbb90697a	-0.004407105
128	0xbc90f653	-0.017695582
129	0xbbb56a90	-0.005536385
130	0xbc631562	-0.0138600785
131	0xbbb88921	-0.0056315814
132	0x3a91b9b6	0.0011117968
133	0xbaa72106	-0.0012750931
134	0x3c053999	0.008131408
135	0x3a024b1b	0.0004970298
136	0xbab50bcb	-0.0013812719
137	0x3c00befa	0.007858032
138	0x3b6fcfc3	0.0036592341
139	0xba191f8a	-0.00058411865
140	0xba349b75	-0.000688962
141	0x3ac914a7	0.0015341238
142	0xbb0b970f	-0.0021299755
143	0xbb12b9b8	-0.002238853
144	0xba9c958d	-0.0011946425
145	0xba9d4154	-0.0011997619
146	0xbaee802b	-0.0018196156
147	0xba2ac27a	-0.00065139646
148	0xbae6e86c	-0.0017616875
149	0xb9e12f59	-0.0004295062
150	0xbb1e3e42	-0.0024145995
151	0xb9fe8998	-0.0004854917
152	0xbacb38c5	-0.001550459
153	0xb9ebeeb3	-0.00045000538

exp_avg_sq f4 [7, 22]
0	0x3700ae74	7.670013e-06
1	0x3853f193	5.0531304e-05
2	0x39f2977e	0.00046270707
3	0x377bfbad	1.5019364e-05
4	0x382cc7b3	4.119398e-05
5	0x39f38e72	0.00046454702
6	0x3834694c	4.301341e-05
7	0x38513d20	4.988641e-05
8	0x38315571	4.2279662e-05
9	0x36a0dc41	4.7940125e-06
10	0x371e0fcd	9.421213e-06
11	0x3787d1fd	1.6191038e-05
12	0x37257768	9.862568e-06
13	0x36a39357	4.874931e-06
14	0x36e762b4	6.895827e-06
15	0x36b174e3	5.2886185e-06
16	0x37fa1558	2.9812261e-05
17	0x3664fecb	3.4122957e-06
18	0x3815c0eb	3.5704037e-05
19	0x3681e408	3.871046e-06
20	0x3721082e	9.598252e-06
21	0x36b3d172	5.3589984e-06
22	0x3a49c942	0.0007697531
23	0x39ded413	0.00042501147
24	0x3bbc6212	0.0057489956
25	0x3926c901	0.00015905873
26	0x3930c09b	0.00016856419
27	0x3bd83e55	0.0065992274
28	0x3b3b674d	0.0028595508
29	0x3a04131f	0.00050382497
30	0x39086cc6	0.00013010492
31	0x39bc36de	0.00035899034
32	0x39264c81	0.00015859494
33	0x3911d0db	0.00013906082
34	0x38ff5362	0.00012174879
35	0x3880552b	6.1193794e-05
36	0x39204573	0.00015284661
37	0x3854cafd	5.0733786e-05
38	0x3a01b871	0.00049484434
39	0x38432ced	4.6533463e-05
40	0x39db990a	0.00041884958
41	0x384a8440	4.828372e-05
42	0x38da7af3	0.00010417951
43	0x38d5447d	0.000101693884
44	0x367d5f63	3.775546e-06
45	0x364c25f0	3.0420451e-06
46	0x3842cba2	4.6442852e-05
47	0x35dda389	1.6513378e-06
48	0x35e372cf	1.6946232e-06
49	0x3850f29f	4.9817023e-05
50	0x378b7502	1.6624577e-05
51	0x366a13e3	3.4880293e-06
52	0x35a62773	1.2379445e-06
53	0x361228db	2.1779476e-06
54	0x35a3430d	1.2163961e-06
55	0x35b6f283	1.3630637e-06
56	0x3592b028	1.0929116e-06
57	0x35137ebc	5.494619e-07
58	0x359d4d29	1.1719868e-06
59	0x35094324	5.113418e-07
60	0x365bd8dc	3.2759772e-06
61	0x34e68cb1	4.2943205e-07
62	0x365f1116	3.3239535e-06
63	0x34d04fa3	3.8800962e-07
64	0x35579335	8.0307956e-07
65	0x353c2412	7.0087947e-07
66	0x39177947	0.00014445662
67	0x39ad836d	0.0003309505
68	0x3bcc281a	0.0062303664
69	0x399ee978	0.00030310056
70	0x39965df4	0.0002868023
71	0x3bc8064a	0.0061042653
72	0x3ab4d9b6	0.0013797793
73	0x39c026f7	0.00036650125
74	0x395bbaa7	0.00020955001
75	0x38db4c08	0.00010456896
76	0x392a2293	0.00016225343
77	0x39955450	0.00028482312
78	0x390f9094	0.00013691402
79	0x388c8f5d	6.702424e-05
80	0x38f513e5	0.00011686216
81	0x388f7319	6.84021e-05
82	0x39c9d6ae	0.00038497656
83	0x3826dad2	3.9781276e-05
84	0x39ee6b06	0.00045474636
85	0x384e13e8	4.9132766e-05
86	0x391b9cb6	0.00014840331
87	0x388146f8	6.164418e-05
88	0x36874b29	4.0320633e-06
89	0x3797fbdd	1.8117886e-05
90	0x39c94a3b	0.00038393014
91	0x3754f3e3	1.2692969e-05
92	0x3777e82a	1.4776402e-05
93	0x39c61d45	0.0003778731
94	0x37c7f053	2.3834558e-05
95	0x3797cacd	1.809504e-05
96	0x3707896f	8.078626e-06
97	0x36a84b38	5.015547e-06
98	0x3731ab5a	1.0589918e-05
99	0x37272267	9.961986e-06
100	0x37c56543	2.3531384e-05
101	0x36a3cd66	4.88169e-06
102	0x36ce386a	6.145846e-06
103	0x36783809	3.6987497e-06
104	0x37dd4241	2.6376105e-05
105	0x361ecc85	2.366288e-06
106	0x37e42de1	2.7201082e-05
107	0x363a5dfa	2.7770861e-06
108	0x3704c797	7.914284e-06
109	0x3687e321	4.049755e-06
110	0x38168d30	3.5894278e-05
111	0x392157c3	0.0001538685
112	0x3b942e0f	0.004522092
113	0x390c366e	0.00013371717
114	0x390d3a91	0.00013468626
115	0x3b915ce0	0.0044361204
116	0x39caa94e	0.00038654584
117	0x3926ecca	0.00015919204
118	0x388db643	6.757353e-05
119	0x380beef6	3.3362732e-05
120	0x3909bf0e	0.00013136512
121	0x39725998	0.00023112295
122	0x3902d545	0.00012477215
123	0x391ce823	0.00014963797
124	0x3891e71a	6.957185e-05
125	0x381b0da1	3.6967573e-05
126	0x399d3d5f	0.000299911
127	0x37d04e13	2.4831888e-05
128	0x39a116ce	0.00030725304
129	0x380849ca	3.2493648e-05
130	0x3901c1da	0.00012374614
131	0x3821ac50	3.854587e-05
132	0x3828df0a	4.0262043e-05
133	0x38318f1d	4.2333373e-05
134	0x3a6394b9	0.0008681524
135	0x3714d5d4	8.871273e-06
136	0x37d2277c	2.5052337e-05
137	0x3a6ff300	0.0009153336
138	0x390cd004	0.00013428932
139	0x3833ee20	4.2898697e-05
140	0x37714c36	1.4382464e-05
141	0x37d4da80	2.5374116e-05
142	0x37e3c146	2.7150509e-05
143	0x37d8b5b6	2.5833822e-05
144	0x379a6ab0	1.840791e-05
145	0x371bc6ef	9.285038e-06
146	0x383c560c	4.490283e-05
147	0x36fbcfce	7.5045746e-06
148	0x38884f2d	6.499733e-05
149	0x36c1d646	5.776793e-06
150	0x3884400f	6.306182e-05
151	0x36d156f3	6.2388076e-06
152	0x37935cb7	1.756694e-05
153	0x372cee48	1.0307478e-05

exp_avg f4 [7, 7]
0	0xb9b2f442	-0.00034132792
1	0x3b1003f2	0.0021975008
2	0x39deec76	0.00042519317
3	0x3b508317	0.0031816417
4	0x3a57b8ec	0.00082291546
5	0x3b5ab2fc	0.0033370843
6	0x3aa2cd3d	0.0012420785
7	0x3a47450f	0.0007601538
8	0xbc78ed04	-0.015193228
9	0xb881a263	-6.181446e-05
10	0x3bd55883	0.0065107956
11	0x3abb83d5	0.0014306257
12	0x3c26fc01	0.010191918
13	0x3ad342ff	0.0016117989
14	0x39784099	0.00023675188
15	0x3a9e568d	0.0012080238
16	0x39333479	0.00017090318
17	0x3a65cf2a	0.00087665266
18	0x398cd6f1	0.00026863025
19	0x3a6feb46	0.0009152185
20	0x39e83105	0.0004428701
21	0x3af68672	0.0018808378
22	0x3c5b2971	0.01337658
23	0x3ab44ebd	0.0013756376
24	0xbb8a22e2	-0.004215584
25	0x3b1f6cf2	0.002432641
26	0x3c49415a	0.012283647
27	0x3bac5305	0.00525892
28	0x39b9db8a	0.0003544952
29	0x3ae1bbca	0.0017222103
30	0x39523985	0.00020048588
31	0x3ab7f1bb	0.0014033833
32	0xbaa3d065	-0.001249802
33	0x3b348d88	0.002755018
34	0x39f13c98	0.00046012248
35	0xbb42a060	-0.0029697642
36	0xbbffb6ef	-0.00780379
37	0xbb2f4acf	-0.002674747
38	0xbc0fe313	-0.008782166
39	0xbb8baa1c	-0.004262222
40	0xbd26b296	-0.040697657
41	0xbb00987e	-0.0019622142
42	0xb9dfaa14	-0.00042660593
43	0x3b27c2d0	0.0025598295
44	0xb9bce663	-0.00036029806
45	0xbaa44235	-0.0012531938
46	0xb9904a78	-0.00027521304
47	0x3a5fbe5e	0.0008535142
48	0xbc10ca7a	-0.008837337

exp_avg_sq f4 [7, 7]
0	0x381d890c	3.755935e-05
1	0x378e8b56	1.6992602e-05
2	0x35d52b9f	1.5882432e-06
3	0x386cd4db	5.646502e-05
4	0x3623e830	2.4424044e-06
5	0x3737f404	1.0964464e-05
6	0x3672e926	3.619652e-06
7	0x37ecc5f6	2.8225575e-05
8	0x3ac95a0d	0.001536192
9	0x37a51e53	1.9683654e-05
10	0x39d4c3fb	0.00040581808
11	0x37def089	2.657647e-05
12	0x38a283c7	7.7493074e-05
13	0x3874aad1	5.833322e-05
14	0x34fc4fb2	4.6996644e-07
15	0x370fd96d	8.574088e-06
16	0x3442d06d	1.8143483e-07
17	0x368f959c	4.279149e-06
18	0x3488dd73	2.54931e-07
19	0x35a0f26c	1.1991483e-06
20	0x35294402	6.305637e-07
21	0x38192ac0	3.6517857e-05
22	0x39ced738	0.00039451732
23	0x3789d9e3	1.6433134e-05
24	0x3aae93c8	0.0013319189
25	0x380ba41f	3.3293032e-05
26	0x3908fbbf	0.00013063753
27	0x3825a70c	3.949464e-05
28	0x364474ef	2.927434e-06
29	0x37b1773c	2.1155567e-05
30	0x359887df	1.1364426e-06
31	0x37bcc494	2.2502885e-05
32	0x37e47c27	2.7237531e-05
33	0x3712d596	8.7520075e-06
34	0x363d9e7d	2.8255447e-06
35	0x3781b494	1.5462087e-05
36	0x3926d7f9	0.0001591145
37	0x37235ee6	9.737652e-06
38	0x396ddf13	0.00022685183
39	0x37c6abba	2.3683406e-05
40	0x3a5879d4	0.00082579
41	0x37abb503	2.0469079e-05
42	0x3682a9d8	3.8940743e-06
43	0x38e1ebcf	0.00010772759
44	0x3622a91c	2.4238316e-06
45	0x381d41b6	3.7492915e-05
46	0x369f425e	4.7462954e-06
47	0x373c0a37	1.1208052e-05
48	0x38b71fac	8.732019e-05

exp_avg f4 [7]
0	0x3c31f3e0	0.010861367
1	0x3bac3e11	0.0052564223
2	0x3b8706ba	0.004120675
3	0x3d04a845	0.032387037
4	0x3bb93343	0.005651863
5	0xbd8d9f15	-0.06915108
6	0xbbfd807e	-0.0077362647

exp_avg_sq f4 [7]
0	0x3a092fde	0.0005233268
1	0x3be4358c	0.006964391
2	0x386058c7	5.3488442e-05
3	0x3bdd031b	0.006744755
4	0x39d6bdfb	0.00040958807
5	0x3b9acb30	0.004723929
6	0x3a7a1ba3	0.00095408614

exp_avg f4 [7]
0	0x3c31f449	0.010861465
1	0x3bac262e	0.005253575
2	0x3b86fdde	0.004119619
3	0x3d04a487	0.032383468
4	0x3bb921a0	0.0056497604
5	0xbd8da01f	-0.06915306
6	0xbbfd6d44	-0.0077339727

exp_avg_sq f4 [7]
0	0x3a092feb	0.00052332756
1	0x3be435a7	0.0069644037
2	0x38605399	5.3483618e-05
3	0x3bdd032a	0.006744762
4	0x39d6bd9b	0.00040958528
5	0x3b9acb51	0.0047239442
6	0x3a7a1bdc	0.00095408945

exp_avg f4 [7, 22]
0	0xbbd89a3c	-0.006610183
1	0x39f28340	0.00046255626
2	0xbcd0301f	-0.02541357
3	0xbc0f6f8e	-0.008754624
4	0x3ab094a7	0.0013472036
5	0xbcc2cfc4	-0.023780711
6	0xbcb00581	-0.021487
7	0x3adad7a9	0.0016696352
8	0x3a4dbf48	0.00078486325
9	0x3b0da0d8	0.0021610763
10	0x3b871f5f	0.004123613
11	0x3bed9024	0.007249849
12	0x3b5c6f18	0.0033635553
13	0x3b94da5d	0.0045426325
14	0x3b5c1f37	0.0033587941
15	0x3b4325c5	0.002977715
16	0x3b2d2541	0.002641991
17	0x3b1119b4	0.0022140564
18	0x3b284c02	0.002568007
19	0x3bc04f22	0.0058688084
20	0x3b88471f	0.004158869
21	0x3ba949b6	0.0051662577
22	0xbbbb6ae8	-0.0057195313
23	0x3b447465	0.0029976603
24	0xbd066130	-0.03280753
25	0xbc445d26	-0.011985099
26	0x3b7d21dd	0.003862492
27	0xbcffbffe	-0.031219479
28	0xbcb91b6a	-0.02259608
29	0x3b94cc0f	0.0045409272
30	0x3b814ee2	0.003946171
31	0x3b0b6e80	0.002127558
32	0x3bad9288	0.005297009
33	0x3c133618	0.008985065
34	0x3b889500	0.004168153
35	0x3ba0b630	0.004904531
36	0x3b8d4b95	0.0043119886
37	0x3b815e96	0.003948043
38	0x3b736740	0.00371404
39	0x3b47b185	0.00304708
40	0x3b593e88	0.0033148844
41	0x3c0094ac	0.007847946
42	0x3bb35bbd	0.0054735825
43	0x3bd20b51	0.0064100404
44	0xbbcd9959	-0.006274384
45	0x3a505564	0.00079472945
46	0xbc30607f	-0.010765194
47	0xbc08dc27	-0.00835327
48	0x3b0bc368	0.0021326188
49	0xbc16322a	-0.0091672335
50	0xbc9725e5	-0.018450687
51	0x3abaf27f	0.0014262943
52	0x3aa96a76	0.0012925405
53	0x3a822d58	0.0009931726
54	0x39682609	0.00022139413
55	0x3b47adc7	0.003046857
56	0x3aa026ff	0.0012218653
57	0x3afdaa48	0.0019353116
58	0x3ab7bb78	0.0014017662
59	0x3aa68aeb	0.0012706196
60	0x3a29a33c	0.0006471162
61	0x3953ae9b	0.00020187574
62	0x3a8e3402	0.001084924
63	0x3b3b6eac	0.00285999
64	0x3ac9bfc9	0.001539224
65	0x3b23f34f	0.002501685
66	0xbb789f43	-0.0037936724
67	0x3acaca09	0.0015471588
68	0xbcbd3269	-0.023095326
69	0xbc030a5b	-0.007998074
70	0x3b2172a0	0.0024634972
71	0xbcb46b52	-0.02202383
72	0xbc779b07	-0.015112645
73	0x3b319b34	0.0027100565
74	0x3b245469	0.0025074726
75	0x3b0630ad	0.002047579
76	0x3b766c0e	0.0037601027
77	0x3bbaf146	0.0057050316
78	0x3b2c0a53	0.002625127
79	0x3b79cbf4	0.003811595
80	0x3b5ce468	0.0033705477
81	0x3b3557a4	0.0027670646
82	0x3b2ddc2f	0.0026528945
83	0x3b10beeb	0.0022086452
84	0x3b1bccb0	0.0023773126
85	0x3bb207e2	0.0054330686
86	0x3b77f968	0.0037837867
87	0x3b963a16	0.004584561
88	0x3c6834d0	0.014172748
89	0xbc3f0490	-0.011658803
90	0x3dc31ecf	0.09527361
91	0x3d02df38	0.03195116
92	0xbc4df442	-0.012570443
93	0x3db881c2	0.09009124
94	0x3d8b7bb8	0.06810707
95	0xbc5f514e	-0.013630224
96	0xbc35bc4f	-0.01109226
97	0xbbe31bd0	-0.0069308057
98	0xbc53585d	-0.012899485
99	0xbcf453da	-0.02982514
100	0xbc701ffe	-0.014656065
101	0xbc3bd2a7	-0.011463798
102	0xbc22adf3	-0.009929168
103	0xbc40a714	-0.0117585845
104	0xbc32e7cf	-0.010919525
105	0xbc1165ed	-0.008874399
106	0xbc139490	-0.009007588
107	0xbcb9e81c	-0.022693686
108	0xbc847d8f	-0.016173152
109	0xbc8e58ed	-0.017376387
110	0xb9773c88	-0.00023578305
111	0x390f9209	0.00013691945
112	0xbb0fbefe	-0.0021933909
113	0x3b7ab918	0.0038257297
114	0xb9f152f3	-0.00046028904
115	0xbb89c222	-0.0042040506
116	0x3c074d56	0.008258184
117	0xb9dba7cc	-0.00041895953
118	0x3aa64bda	0.00126874
119	0x399e2bfa	0.00030168873
120	0x3b57d34c	0.003293234
121	0x3b104527	0.0022013874
122	0x3b1df044	0.0024099508
123	0xbbd2283d	-0.006413488
124	0x390b15d4	0.00013264205
125	0xb8f26fb1	-0.000115602634
126	0x3a5a274a	0.00083218946
127	0x3a0b65d7	0.00053176045
128	0x38e4c2c5	0.00010908166
129	0x3a43448b	0.00074488734
130	0x3a9ec37c	0.0012112702
131	0xb901c7d5	-0.00012376842
132	0x3bce9438	0.00630429
133	0x3bd9935f	0.0066398825
134	0xbc069a6c	-0.008215528
135	0xbace1df1	-0.0015725476
136	0x3b8e6abc	0.00434622
137	0xbbd55fd8	-0.0065116696
138	0xbbad4112	-0.005287298
139	0x3b9f24b9	0.0048566726
140	0x3b0d40da	0.0021553547
141	0xb9c73951	-0.00037998942
142	0xbb4966c4	-0.003073142
143	0x3bad9832	0.005297684
144	0x3b0b043a	0.0021212236
145	0x3b483132	0.00305469
146	0xbac4d413	-0.0015016816
147	0x3ae6147d	0.0017553713
148	0x3a9efc4b	0.0012129633
149	0x3aa4d3e1	0.0012575352
150	0x398aabda	0.0002644945
151	0x3adfb46f	0.0017067323
152	0x3aa85f0c	0.0012845709
153	0x394b3dc5	0.000193826

exp_avg_sq f4 [7, 22]
0	0x38ec82c9	0.000112777176
1	0x390c86d5	0.0001340167
2	0x3aa01e02	0.0012215974
3	0x39169318	0.00014359911
4	0x39214c53	0.0001538259
5	0x3a9d0357	0.0011979145
6	0x396ccd16	0.00022583114
7	0x39342201	0.00017178805
8	0x3909a1df	0.0001312564
9	0x37a7b355	1.999146e-05
10	0x37c807fe	2.384558e-05
11	0x383c1fcc	4.4852306e-05
12	0x37b37806	2.1394353e-05
13	0x37982aaf	1.8139688e-05
14	0x3796bc7c	1.7969163e-05
15	0x3800c404	3.0700132e-05
16	0x38202fc8	3.8191472e-05
17	0x3787934e	1.6161848e-05
18	0x37f16aa9	2.8779106e-05
19	0x383b65bc	4.467902e-05
20	0x3815125c	3.5541467e-05
21	0x380772cb	3.2293417e-05
22	0x39ee43ec	0.00045445503
23	0x373fb546	1.1426693e-05
24	0x3b0b0bba	0.0021216706
25	0x39522be9	0.00020043518
26	0x37323efd	1.0624292e-05
27	0x3b1bcf0c	0.0023774533
28	0x3a9acf75	0.0011811095
29	0x378a6c0c	1.6501195e-05
30	0x3806d4e7	3.214637e-05
31	0x3956f0b8	0.00020498305
32	0x384a9321	4.8297577e-05
33	0x389296a7	6.989884e-05
34	0x381df9b6	3.766428e-05
35	0x37b4c967	2.1551457e-05
36	0x383398f4	4.2819374e-05
37	0x38331060	4.2692176e-05
38	0x38b484f0	8.6078304e-05
39	0x385bbf0f	5.2391606e-05
40	0x384dc322	4.905754e-05
41	0x3857a304	5.1411815e-05
42	0x388f4988	6.8324676e-05
43	0x38240393	3.9103976e-05
44	0x3a45cfcd	0.00075459183
45	0x37cf2ba2	2.4696641e-05
46	0x3b02e117	0.001997059
47	0x398f3199	0.0002731204
48	0x36394b82	2.76111e-06
49	0x3b23247c	0.0024893573
50	0x3b27b734	0.0025591375
51	0x380f80bc	3.421375e-05
52	0x3809427e	3.272527e-05
53	0x3809c91f	3.2850654e-05
54	0x3968af64	0.00022190582
55	0x38aedba3	8.337877e-05
56	0x38415134	4.6090412e-05
57	0x37f9e0a1	2.9787714e-05
58	0x381c24d7	3.7227608e-05
59	0x3822e84d	3.8840157e-05
60	0x38cb96fb	9.7079166e-05
61	0x389995ee	7.323535e-05
62	0x380e2374	3.3888457e-05
63	0x3867141c	5.509342e-05
64	0x38bd2166	9.018443e-05
65	0x38096cdf	3.276474e-05
66	0x3821f47b	3.861308e-05
67	0x36a49acd	4.905602e-06
68	0x39cd962d	0.00039212537
69	0x3878ef99	5.935095e-05
70	0x36e29ca7	6.7535616e-06
71	0x39c20890	0.00037008943
72	0x3978372f	0.0002367168
73	0x370e6414	8.487161e-06
74	0x36d1e5ba	6.255429e-06
75	0x3705b890	7.97039e-06
76	0x3753be31	1.2620862e-05
77	0x3786211b	1.598946e-05
78	0x36f28488	7.2275907e-06
79	0x372864f3	1.0037084e-05
80	0x377908c1	1.4843595e-05
81	0x37009b93	7.665617e-06
82	0x3707bae1	8.090138e-06
83	0x3669bf66	3.4831114e-06
84	0x3754d8a0	1.2686622e-05
85	0x37444ffd	1.1701134e-05
86	0x3730e78b	1.0544328e-05
87	0x375fd9de	1.3342562e-05
88	0x396d8c6d	0.00022654394
89	0x390e99fe	0.00013599542
90	0x3bc96d1a	0.006147039
91	0x3a4c5d88	0.00077959197
92	0x3941585a	0.00018438828
93	0x3bb5897d	0.0055400715
94	0x3b5cf7dc	0.0033717072
95	0x396de93d	0.0002268897
96	0x38c0b0c3	9.188198e-05
97	0x3854898f	5.067285e-05
98	0x39232f7f	0.00015562585
99	0x39e12e99	0.00042950062
100	0x392c137d	0.00016410458
101	0x38c2b7b7	9.2848604e-05
102	0x38ec5321	0.00011268841
103	0x38fe41fb	0.00012123954
104	0x38d29b61	0.00010042522
105	0x38424025	4.6312944e-05
106	0x3910fc47	0.00013826891
107	0x396d4231	0.0002262674
108	0x3930b384	0.00016851543
109	0x3958373a	0.00020619939
110	0x397bc455	0.00024010365
111	0x37f8363f	2.9589164e-05
112	0x3b56a9ca	0.003275501
113	0x3a33cc1e	0.0006858724
114	0x386a7394	5.5897588e-05
115	0x3b38099c	0.00280819
116	0x3b23aee3	0.0024976067
117	0x3897bf6b	7.2358955e-05
118	0x38232680	3.8898084e-05
119	0x382eeced	4.1705487e-05
120	0x38924927	6.975448e-05
121	0x39167104	0.00014347216
122	0x384df94c	4.9107985e-05
123	0x392e026c	0.00016594835
124	0x38a79705	7.99131e-05
125	0x38903a58	6.8773224e-05
126	0x38601ea1	5.3434287e-05
127	0x37e0af82	2.6784608e-05
128	0x38bf5819	9.123999e-05
129	0x38ee1e0b	0.0001135432
130	0x389f3704	7.591958e-05
131	0x3902b0fc	0.00012463698
132	0x39a64a0c	0.00031717157
133	0x37832a57	1.5636133e-05
134	0x3b766559	0.003759703
135	0x3a081eca	0.0005192576
136	0x37e6695a	2.7467195e-05
137	0x3b68ed38	0.0035541784
138	0x3aed1833	0.0018088877
139	0x3809d184	3.2858472e-05
140	0x38303f63	4.2020703e-05
141	0x3846780d	4.7318685e-05
142	0x392e6649	0.00016632037
143	0x390cf298	0.00013441814
144	0x387f8aa1	6.0925846e-05
145	0x3847dd55	4.765143e-05
146	0x395b17c1	0.00020894317
147	0x3871b056	5.7623103e-05
148	0x386ecad4	5.693252e-05
149	0x37cbde5a	2.4303026e-05
150	0x38f98241	0.00011897507
151	0x3911e12b	0.00013912159
152	0x38ce9b7b	9.851806e-05
153	0x3920b594	0.00015326432

exp_avg f4 [7, 7]
0	0xb9379513	-0.00017507774
1	0x3af68446	0.0018807731
2	0x3adafb52	0.0016706979
3	0x3adb4f22	0.0016731957
4	0x3c2ebdca	0.010665366
5	0x3bb1cbdd	0.0054259137
6	0x3b91f180	0.004453838
7	0x3b3c8be2	0.00287699
8	0x3ab9bbfe	0.0014170406
9	0x3b1dc76d	0.0024075166
10	0x3b0f9e96	0.0021914593
11	0x3c5c599a	0.013449097
12	0x3baf7671	0.0053546955
13	0x3bc67f38	0.006057646
14	0x3a91f36d	0.0011135169
15	0x3a3b7a99	0.00071517524
16	0xbb2192e9	-0.0024654216
17	0x3a377567	0.00069983903
18	0x3ba9aa8f	0.005177803
19	0x3b1ed803	0.002423764
20	0x3b203b53	0.0024449422
21	0x3afb5e45	0.0019177875
22	0x3ae8ecbd	0.0017770749
23	0x3aca1511	0.0015417655
24	0x3ac8ae58	0.0015310748
25	0x3bea119a	0.0071432116
26	0x3b949342	0.004534156
27	0x3bb07e43	0.0053861453
28	0xbbedbf55	-0.0072554746
29	0xbbeeb257	-0.0072844434
30	0xbbb1a52e	-0.0054213023
31	0xbbc1e11e	-0.0059167286
32	0xbd61c8a4	-0.055122986
33	0xbc1198fa	-0.00888657
34	0xbbe23df4	-0.006904358
35	0xb9241cb0	-0.00015650946
36	0x39fb3be7	0.0004791908
37	0x3a19a3b6	0.00058608816
38	0xb98f70be	-0.00027359085
39	0x3c4f23de	0.012642829
40	0xbc594cea	-0.013262967
41	0x3b5137ac	0.0031924052
42	0x3b00b4d6	0.0019639037
43	0x3aa35c8a	0.0012463492
44	0x3ab66ebd	0.0013918501
45	0x3959e672	0.0002078058
46	0x3c4a5bee	0.012351019
47	0x3b85d4ed	0.0040842206
48	0xbc5e6ad4	-0.0135752745

exp_avg_sq f4 [7, 7]
0	0x3928a673	0.00016083736
1	0x380a5d02	3.2988384e-05
2	0x3752367e	1.2529663e-05
3	0x3783352c	1.5641177e-05
4	0x38531486	5.0325434e-05
5	0x38087806	3.2536707e-05
6	0x37b965b2	2.2101074e-05
7	0x37d8837f	2.581044e-05
8	0x39e82d56	0.00044284266
9	0x3820c295	3.832819e-05
10	0x37b85e02	2.1978285e-05
11	0x3881695a	6.1708226e-05
12	0x381850ad	3.631476e-05
13	0x380dc986	3.3804703e-05
14	0x37b04b1b	2.1015809e-05
15	0x388c8b17	6.701628e-05
16	0x39dd72bf	0.00042237897
17	0x378cd0cf	1.6786535e-05
18	0x380bc72d	3.332568e-05
19	0x38588d50	5.163002e-05
20	0x379bfc9c	1.859507e-05
21	0x36bc0b76	5.604171e-06
22	0x374a1973	1.2046064e-05
23	0x36c8d047	5.984711e-06
24	0x36ce00ab	6.139356e-06
25	0x37aa92db	2.0333964e-05
26	0x37b0bac9	2.1067814e-05
27	0x381998d5	3.662038e-05
28	0x3887dcaf	6.478407e-05
29	0x385ed321	5.3125554e-05
30	0x3817c413	3.6183814e-05
31	0x38873f20	6.4490596e-05
32	0x3a958321	0.0011406877
33	0x38ce2e1c	9.831434e-05
34	0x392609d3	0.00015834653
35	0x381d8c18	3.756219e-05
36	0x3852c2e6	5.0249415e-05
37	0x38101dcd	3.436003e-05
38	0x38467823	4.7318765e-05
39	0x390e3450	0.00013561663
40	0x39d1e109	0.0004003125
41	0x38d10b82	9.96804e-05
42	0x38064095	3.2008236e-05
43	0x3804a6ef	3.162672e-05
44	0x3793d1db	1.7621487e-05
45	0x38744ca4	5.824551e-05
46	0x3907bd1c	0.00012945052
47	0x38776606	5.8984406e-05
48	0x3a3ee6e2	0.0007282329

exp_avg f4 [7]
0	0x3cd19d68	0.025587752
1	0x3d0a37a2	0.03374446
2	0x3c257fcd	0.010101271
3	0x3cc34282	0.023835424
4	0xbdc6419f	-0.09680485
5	0x3b51cd7d	0.003201335
6	0x3bfb8b1d	0.0076764957

exp_avg_sq f4 [7]
0	0x3ac582c1	0.0015068875
1	0x3b29ecd3	0.0025928512
2	0x3b363183	0.0027800507
3	0x39e58b86	0.00043782237
4	0x3bd60dda	0.006532413
5	0x3b6986d8	0.0035633352
6	0x3b86c4e1	0.0041128253

exp_avg f4 [7]
0	0x3cd1a538	0.025591478
1	0x3d0a3d21	0.033749703
2	0x3c257cd3	0.010100561
3	0x3cc34aac	0.023839317
4	0xbdc642bd	-0.09680698
5	0x3b518981	0.0031972828
6	0x3bfb5b09	0.0076707643

exp_avg_sq f4 [7]
0	0x3ac5836c	0.0015069074
1	0x3b29ed54	0.0025928812
2	0x3b36319d	0.0027800568
3	0x39e592b6	0.00043787592
4	0x3bd60e34	0.006532455
5	0x3b69869f	0.003563322
6	0x3b86c505	0.004112842

exp_avg f4 [7, 22]
0	0xbc0dc2c9	-0.008652397
1	0xbbcd9a2c	-0.0062744822
2	0x3cd0dc2d	0.025495613
3	0x3b9f54c3	0.0048623993
4	0xbbf30944	-0.007416876
5	0x3ce1d00c	0.027565025
6	0xbc0aa442	-0.008462014
7	0xbbe80ea8	-0.0070818253
8	0xbb990979	-0.0046703187
9	0xbae73629	-0.0017640042
10	0x3a1606bf	0.0005723051
11	0xbc0217ea	-0.007940272
12	0xbb9de583	-0.0048186197
13	0xbb44b632	-0.0030015823
14	0xbb91b79f	-0.004446938
15	0xbba24fce	-0.004953361
16	0xbb1177b1	-0.0022196586
17	0xbbd3655a	-0.006451291
18	0xbb61b1a7	-0.0034438164
19	0xbb0ad5e3	-0.0021184615
20	0xbb863728	-0.0040959306
21	0xbb36fc83	-0.0027921505
22	0x3ae97439	0.0017811126
23	0x390681f9	0.00012827654
24	0xbc11178b	-0.008855711
25	0x3a810332	0.0009842871
26	0x382ae979	4.0748597e-05
27	0xbc13477b	-0.00898921
28	0x3b518501	0.0031970146
29	0x36c79bc4	5.9487957e-06
30	0x3a814330	0.0009861942
31	0x3a301647	0.0006717187
32	0x3a8bd7f6	0.001066922
33	0x3b122686	0.0022300794
34	0x3ab2c9d6	0.0013640474
35	0x3af19ae8	0.0018433006
36	0x3aa4be7d	0.0012568977
37	0x3ae1960e	0.0017210857
38	0x3a3cb75b	0.0007198953
39	0x3b228df0	0.002480384
40	0x3aa1c880	0.0012343079
41	0x3a6dcb3f	0.00090711185
42	0x3a9746b2	0.0011541455
43	0x3a9cc3ef	0.0011960248
44	0xbc1e8bac	-0.009676855
45	0x3b47a076	0.0030460632
46	0x3c6b5bd1	0.014365152
47	0xbc5771b3	-0.013149667
48	0x3aa24930	0.0012381431
49	0x3c6a60d5	0.014305313
50	0xbcb461eb	-0.022019347
51	0x3b24be49	0.0025137833
52	0xb896fbda	-7.1994684e-05
53	0xbad54723	-0.0016271811
54	0xbbceb3dc	-0.006308062
55	0xbb1c877a	-0.0023884461
56	0xbb3a50f9	-0.002842961
57	0x3a10fea3	0.0005531108
58	0xbb3b4ec8	-0.0028580893
59	0xbb93208d	-0.0044899643
60	0xba45c7d7	-0.0007544732
61	0xbba6c8bc	-0.0050898474
62	0xbabb8368	-0.001430613
63	0xba9fd7c6	-0.0012195043
64	0xba0f7f99	-0.00054740306
65	0xbb047887	-0.0020213441
66	0xbc2a24be	-0.010384737
67	0x3ade867d	0.0016977336
68	0xbb17265e	-0.002306364
69	0xbc3e1262	-0.0116010625
70	0x3b632ffa	0.0034666047
71	0xbaf78776	-0.0018884975
72	0xbcd2bcc4	-0.025724776
73	0x3ade1e26	0.0016946241
74	0xba3df21a	-0.0007245854
75	0xb9bf967f	-0.00036542487
76	0xba3607ea	-0.00069439283
77	0xba91aa34	-0.0011113347
78	0xb9083ad7	-0.0001299189
79	0x3a37d4bf	0.00070125976
80	0x3a9bfe5e	0.0011901369
81	0xba7b53eb	-0.0009587395
82	0xb98d53a8	-0.00026955944
83	0x3a1e0ed6	0.00060294324
84	0xb9b1eb3d	-0.00033935337
85	0xba712ad5	-0.0009199803
86	0x39bddf5e	0.0003621531
87	0x39c8255c	0.00038174808
88	0x3bb61a0d	0.0055573047
89	0x38ae6f78	8.317729e-05
90	0xbc9aa712	-0.018878493
91	0x3b8083fe	0.0039219847
92	0x377814aa	1.4786763e-05
93	0xbc9e574d	-0.019328738
94	0x3c2d48cc	0.010576438
95	0xb82324a6	-3.889636e-05
96	0x3af626fc	0.0018779929
97	0x3af41d2c	0.0018624417
98	0x3b2dd44c	0.0026524244
99	0x3ba0c92e	0.004906795
100	0x3b576815	0.0032868434
101	0x3b4cd446	0.0031254455
102	0x3b2aca7b	0.002606063
103	0x3b807107	0.003919724
104	0x3ac6efe8	0.0015177699
105	0x3bb2442f	0.005440257
106	0x3b28f92b	0.0025783281
107	0x3b03e7d6	0.0020127199
108	0x3b1650ef	0.0022936424
109	0x3b26f654	0.0025476413
110	0x3c625bbf	0.013815819
111	0x39af2c0f	0.00033411427
112	0x3bf7a85f	0.007557913
113	0x3c1bde9c	0.009513523
114	0x3b0eefaf	0.0021810343
115	0x3befe16f	0.007320575
116	0x3ccf1629	0.025279121
117	0x3b0a6ed2	0.0021123183
118	0xb904e31b	-0.00012673104
119	0xba0df8b4	-0.0005415783
120	0x39d78879	0.00041109676
121	0xba6b0fce	-0.00089668937
122	0x3a38590f	0.0007032314
123	0xbbc4d65e	-0.006007
124	0xb99c6ad6	-0.00029834238
125	0x39d7842f	0.0004110648
126	0xba1c1a71	-0.0005954868
127	0xbb03488b	-0.0020032253
128	0xbaa0cb28	-0.0012267577
129	0xb9e08b5d	-0.00042828443
130	0xbad4069c	-0.0016176286
131	0xbaaac796	-0.0013029452
132	0x3c1cf105	0.009578948
133	0xba039e19	-0.0005020812
134	0xbc37d393	-0.011219877
135	0x3c22daaf	0.009939834
136	0x3917f81e	0.00014492913
137	0xbc4af97c	-0.012388583
138	0x3cb7c557	0.022432966
139	0xb8fb4cca	-0.00011982916
140	0x3aabda76	0.0013111371
141	0x3a905110	0.0011010487
142	0x3b41a2ca	0.0029546493
143	0x3b75b561	0.0037492143
144	0x3b17a908	0.0023141522
145	0x3911e75e	0.00013914469
146	0x3accf3ea	0.0015636657
147	0x3b763232	0.003756654
148	0x3a688b00	0.000887081
149	0x3b75039f	0.0037386192
150	0x3abdf737	0.0014493231
151	0x3a8eccef	0.0010894815
152	0x3a867aee	0.0010260025
153	0x3a9b56fe	0.0011851487

exp_avg_sq f4 [7, 22]
0	0x39cd3fd9	0.00039148217
1	0x3892a74d	6.992985e-05
2	0x3b848d09	0.004045133
3	0x39213eca	0.00015377547
4	0x38de0a95	0.00010587756
5	0x3b8b2ee2	0.004247532
6	0x3a929428	0.001118307
7	0x38bc2c5a	8.9728e-05
8	0x3977ea11	0.00023642952
9	0x382e88cb	4.161223e-05
10	0x387f2773	6.0833478e-05
11	0x39652d09	0.00021855919
12	0x38d3a138	0.000100912934
13	0x3879870a	5.949199e-05
14	0x38cc65b8	9.7464246e-05
15	0x390f50ed	0.0001366769
16	0x37ffaa32	3.0477622e-05
17	0x3985f21e	0.00025548128
18	0x38907c86	6.8896494e-05
19	0x38b79d59	8.755428e-05
20	0x389d0c50	7.488637e-05
21	0x38926d93	6.982232e-05
22	0x37ed7071	2.8304961e-05
23	0x359bc0f8	1.1604561e-06
24	0x39214b21	0.00015382144
25	0x371654bf	8.960428e-06
26	0x351d5965	5.8617144e-07
27	0x39364455	0.00017382328
28	0x38990d8b	7.298131e-05
29	0x35b70fc1	1.3639147e-06
30	0x366a1b5a	3.4884638e-06
31	0x374aa735	1.2079069e-05
32	0x361afc97	2.3094815e-06
33	0x36a94420	5.0445233e-06
34	0x364960d3	3.0007693e-06
35	0x36501b18	3.1010186e-06
36	0x365a025e	3.248591e-06
37	0x36b2f437	5.3332437e-06
38	0x35996f12	1.1431714e-06
39	0x371d05b0	9.359253e-06
40	0x363a5746	2.776696e-06
41	0x36c4ff6b	5.8709898e-06
42	0x3616ac3b	2.2451993e-06
43	0x3642e446	2.9041125e-06
44	0x39db6313	0.0004184475
45	0x3754d771	1.2686346e-05
46	0x3b901ac5	0.0043977224
47	0x39ff90d5	0.00048745298
48	0x376f1465	1.4250259e-05
49	0x3b8d687a	0.004315433
50	0x3aee89a7	0.0018198983
51	0x375e5699	1.3252394e-05
52	0x3855655b	5.0877552e-05
53	0x386bab90	5.6188146e-05
54	0x398ab2f4	0.00026454742
55	0x392c0747	0.00016405909
56	0x38c5c5a7	9.4305076e-05
57	0x3889e596	6.575433e-05
58	0x38f577e4	0.00011704842
59	0x3937daec	0.00017533795
60	0x37d6df49	2.5614763e-05
61	0x3991871b	0.00027757217
62	0x38826a9b	6.21874e-05
63	0x38f119c5	0.000114965755
64	0x385e0e38	5.2942167e-05
65	0x38c17b55	9.2259295e-05
66	0x3a01851a	0.0004940793
67	0x36acd1fa	5.150444e-06
68	0x3ac20b05	0.001480431
69	0x39c36dfa	0.00037275237
70	0x379ab57a	1.8442737e-05
71	0x3ad0740e	0.0015903728
72	0x3b147863	0.0022654764
73	0x36d99538	6.4844753e-06
74	0x3829135a	4.0310762e-05
75	0x37c976ea	2.401644e-05
76	0x384934fc	4.797148e-05
77	0x38c0cbd3	9.193239e-05
78	0x382efbad	4.1719224e-05
79	0x380cebfe	3.3598386e-05
80	0x380a94f9	3.3040506e-05
81	0x38a86bcd	8.030944e-05
82	0x37521c44	1.25235565e-05
83	0x38c2d016	9.2894e-05
84	0x37ec3e12	2.8162296e-05
85	0x38660e07	5.4849337e-05
86	0x37c490a2	2.343237e-05
87	0x37fd8040	3.0219671e-05
88	0x383e1560	4.5319437e-05
89	0x35d4d225	1.5856391e-06
90	0x39c92a80	0.00038369372
91	0x382854e2	4.0133375e-05
92	0x36055e5d	1.987347e-06
93	0x39cb337b	0.00038757533
94	0x39478f07	0.00019031401
95	0x35e5384a	1.7078212e-06
96	0x36d351c8	6.2978106e-06
97	0x36c8de87	5.98637e-06
98	0x376a152e	1.3952418e-05
99	0x37990a84	1.8243918e-05
100	0x3734895b	1.0760817e-05
101	0x36ee434a	7.100786e-06
102	0x372a49c9	1.0149969e-05
103	0x376421ec	1.3597757e-05
104	0x362a7177	2.539802e-06
105	0x37bc056f	2.2413877e-05
106	0x36c2eec9	5.809449e-06
107	0x374f9c85	1.2374604e-05
108	0x36ad3eb7	5.1631027e-06
109	0x37063ba9	8.000913e-06
110	0x389c51a4	7.4538664e-05
111	0x371687e3	8.972335e-06
112	0x3ad332cf	0.0016113165
113	0x388827bb	6.492386e-05
114	0x36bc6beb	5.6154e-06
115	0x3ad3b33d	0.001615144
116	0x39a3ced9	0.00031243896
117	0x36b59376	5.411387e-06
118	0x37ccf9ec	2.4435074e-05
119	0x378a2f5a	1.6472932e-05
120	0x37ab4d35	2.042074e-05
121	0x3877660b	5.8984424e-05
122	0x37d744e1	2.5662071e-05
123	0x38bede04	9.10126e-05
124	0x38365ba5	4.3477532e-05
125	0x3804403c	3.1531075e-05
126	0x375053f1	1.241731e-05
127	0x38e877d9	0.000110849454
128	0x3809919b	3.279895e-05
129	0x38059645	3.184962e-05
130	0x37e6d218	2.751597e-05
131	0x37edb58b	2.833714e-05
132	0x3841a021	4.6163917e-05
133	0x36f6c61f	7.3544356e-06
134	0x3ae5b56a	0.0017525379
135	0x390acf78	0.00013237994
136	0x3645ac43	2.9455557e-06
137	0x3ada4286	0.0016651906
138	0x39cdb88f	0.00039238154
139	0x3630aaa3	2.6325367e-06
140	0x378c2962	1.6708571e-05
141	0x378a773f	1.650641e-05
142	0x37dd7da4	2.6403759e-05
143	0x3852694c	5.0165967e-05
144	0x389cc420	7.475191e-05
145	0x381c4fa2	3.7267462e-05
146	0x38baf347	8.914485e-05
147	0x380d9ded	3.37641e-05
148	0x3751e77e	1.2511269e-05
149	0x38dc66f8	0.00010509597
150	0x38037562	3.1342155e-05
151	0x3834681f	4.3012315e-05
152	0x37e6a770	2.7496106e-05
153	0x3819b9fd	3.6651258e-05
