data_10frm/model/0_0_7_12.pt (torch_old, 18399 bytes, 52 tensors)

rnn.weight_ih f4 [7, 22]
000000 2e 0c 20 3f 0b 7c db 3e 7c a5 4a 3c e8 e0 b4 3e
       0.62518585 0.42868075 0.012368556 0.3532784
000010 f7 bb 29 3e 3a ff 98 3e 86 af 13 3f a6 34 31 3f
       0.16575609 0.29882222 0.576897 0.6922096
000020 21 c0 1d 3f 67 16 a2 be d9 a8 ba be 65 1a ed be
       0.6162129 -0.31657717 -0.36456946 -0.463092
000030 da 61 a5 be 93 e1 48 bf 14 b7 14 bf ca 6c a8 3a
       -0.32301217 -0.784692 -0.58091855 0.0012849804
000040 82 a7 b2 3b 3b 49 a1 be 2d fe 96 3e c2 9f 4e 3d
       0.0054520974 -0.31501183 0.29490796 0.050445326
000050 54 cd 71 be 31 4e 91 be db f5 0a 3d f5 db 40 bd
       -0.23613483 -0.28379968 0.033925872 -0.047084767
000060 d6 4b af 3e 42 52 b4 3e fc 2f 47 3d f1 f2 2b 3f
       0.34237546 0.35219008 0.048629746 0.67167574
000070 38 4f de bd 08 55 37 3d 59 ed 92 be 14 cb 00 bc
       -0.108549535 0.044758826 -0.28696707 -0.007860918
000080 35 fb 38 be 85 c2 55 bf 91 37 3f bf 49 6d 33 bf
       -0.18064578 -0.8349994 -0.7469416 -0.7008863
000090 f5 9c d8 bd 90 4c f4 be af aa 0d be 17 4f 2c bf
       -0.10576812 -0.47714663 -0.13834642 -0.6730818
0000a0 b5 e3 17 be 2c 74 0a bf 10 3c c5 be d8 ee de be
       -0.14832957 -0.54083514 -0.38522387 -0.43541598
0000b0 3c 4d 82 bf 82 a1 82 bf 02 a6 fc bd 71 ee 0d bd
       -1.017982 -1.0205538 -0.12336351 -0.034651224
0000c0 db 8e ad be 31 e8 c6 3c cf 1b 48 bf a5 f5 ea be
       -0.33898053 0.02428064 -0.7816743 -0.45890537
0000d0 55 22 f0 3a 03 3c f1 be 5a c1 66 3f bc 3a 91 3d
       0.0018320779 -0.47116098 0.9013878 0.07091281
0000e0 5f 13 fa be 13 76 10 bf 25 75 aa bc 23 e2 8c bc
       -0.48842904 -0.56430167 -0.020807812 -0.017197674
0000f0 07 82 9b be 93 20 f3 3e 06 a2 53 3e d2 d3 33 3e
       -0.3037264 0.4748579 0.20667276 0.17561272
000100 cf c9 41 bf d2 78 aa be d9 a0 5f bf 5c 9d 57 3f
       -0.7569856 -0.33295304 -0.8735481 0.84224486
000110 33 b5 70 be b5 3a 4a bf bb 86 07 3f b3 7d 80 3c
       -0.23506622 -0.7899583 0.5293996 0.015684938
000120 7a 29 02 bf 5e 2f 36 3e 8f f8 3a be 34 30 ee 3e
       -0.5084454 0.17791507 -0.1825888 0.4652115
000130 84 0f 19 bc 01 db 99 3e c5 1d bf be c6 34 cc be
       -0.009342078 0.300499 -0.373274 -0.39884013
000140 d9 9f d3 be 4b 38 be be 2e ae 86 bc 20 7b 13 3d
       -0.41332892 -0.37152323 -0.016440477 0.036006093
000150 c3 54 e1 3e 43 00 47 be fa f2 7e bf 84 69 56 be
       0.4400998 -0.19433694 -0.995895 -0.20938689
000160 1f 96 19 3d dc b3 21 3f b3 76 84 3e 1f bb 59 be
       0.037496682 0.6316507 0.2587181 -0.21262787
000170 8c a7 6a be a4 b0 6d 3e 59 9d d3 3d ae 9b ce bd
       -0.22915477 0.23211914 0.10332746 -0.10088287
000180 d1 20 30 3e 85 44 b1 be 14 33 eb be 8c 6b dc be
       0.17200018 -0.3462259 -0.45937407 -0.43050802
000190 48 f2 29 3f 64 76 85 be b4 01 c2 be d7 17 8f 3d
       0.66385317 -0.26066887 -0.37891924 0.06986969
0001a0 53 86 b3 be 6e 6b 1a bf 64 7b 81 3e db e2 db bc
       -0.3506342 -0.60320175 0.25289452 -0.026841572
0001b0 fa 59 dc 3d 8a 69 c6 bd bd 42 0b 3f 80 2d 02 bd
       0.10759349 -0.09688099 0.5439871 -0.031781673
0001c0 f7 3b 85 3e 5b 3e 25 3e 49 c9 a0 be a8 28 36 3e
       0.26022312 0.16137068 -0.31403568 0.17788947
0001d0 53 cd 6f 3f ff 5c b8 be 25 96 d5 be 1b b2 bc be
       0.93672675 -0.3600845 -0.41716114 -0.36854634
0001e0 d1 45 17 bf 20 3f 6c bd c4 23 87 3e d1 fd cf 3e
       -0.59090906 -0.05767739 0.26394475 0.40623334
0001f0 3d 68 eb 3d bc 83 98 bd a5 b2 73 be f2 18 99 be
       0.11494491 -0.07447001 -0.23798616 -0.29901844
000200 97 f6 ad 3d 1a b7 d5 3e 23 cf ac 3e 0e 3e af 3c
       0.08494299 0.41741258 0.33751783 0.021391895
000210 56 f8 83 3f eb 8a dc 3e 60 6b 96 3e 2b 19 a9 3f
       1.0310161 0.43074736 0.29378796 1.3210806
000220 3b 9b 7e be 9d 1c 00 3e 40 33 3d 3f a3 1d 17 bf
       -0.24863903 0.12510915 0.73906326 -0.590296
000230 b3 b6 1e be 4b d7 0b be 3e 4d 22 bf ac 76 9d 3e
       -0.15499382 -0.13656346 -0.6339911 0.30754602
000240 74 5f 5f 3e b3 5b ae be 26 28 4b 3e ce 49 d9 3d
       0.21813756 -0.34054336 0.19839534 0.1060978
000250 96 40 3d 3e 35 1f c2 bb c0 5f 9a be 1e c5 a4 3e
       0.18481669 -0.0059241303 -0.30151176 0.32181638
000260 b2 d2 fd bd a0 44 b7 3e
       -0.123937026 0.35794544

rnn.weight_hh f4 [7, 7]
000000 13 ed 9c 3e 84 a1 d6 be b0 ff 38 bf 54 7d 11 bf
       0.30649623 -0.41920102 -0.7226515 -0.5683186
000010 55 10 3b be ee e0 5c bf 65 23 51 bf 73 a5 4e be
       -0.18267949 -0.86280715 -0.8169463 -0.20180301
000020 ed 5f 1b be 37 7a 1b be b4 fd 20 bf 67 92 75 be
       -0.15173312 -0.1518334 -0.6288712 -0.2398163
000030 69 0d 28 bf 3e a9 f8 be ff 24 c5 be 53 ad d9 bd
       -0.6564546 -0.48566622 -0.38504788 -0.10628762
000040 ad b5 14 3f d0 c1 c7 be 1a 60 b7 be 3c 96 38 bf
       0.58089715 -0.39015055 -0.35815507 -0.7210424
000050 40 bc 92 bd f1 67 b6 ba bb b4 a0 3e 15 9b f5 be
       -0.07164812 -0.0013916475 0.31387886 -0.4796988
000060 d6 6c 12 3f fd 31 c6 bc a5 c5 8b bf 5c e3 42 bf
       0.5719732 -0.024193758 -1.0919691 -0.7612817
000070 04 59 28 bf 7e 18 7f be 2d 3f 41 bf 5a 52 a1 be
       -0.6576083 -0.24911687 -0.75487024 -0.31508142
000080 1c f8 bb 3e 2b c8 79 bf 4d d4 1b bf b9 c0 2f be
       0.3671273 -0.9757106 -0.6087082 -0.17163362
000090 59 61 c0 3e a4 42 34 bf a6 c8 56 bf 8e ef 9f be
       0.3757427 -0.70414186 -0.83899915 -0.31237453
0000a0 95 f9 94 3f 21 29 8c bf 51 a5 0c be 83 b5 51 3e
       1.1638666 -1.0950052 -0.13734938 0.20479397
0000b0 f3 b7 a8 bd 37 2f 29 bf 43 5e 05 be 07 56 63 bf
       -0.082382105 -0.6608767 -0.13024239 -0.8880314
0000c0 ea 4a 84 3f
       1.0335362

rnn.bias_ih f4 [7]
000000 a2 9f 65 be 25 56 72 be eb e2 45 bd 54 52 da bd
       -0.22424176 -0.23665674 -0.04831211 -0.10660234
000010 1b 69 24 be cd be 15 3e fd 6b 0f 3e
       -0.1605572 0.14623566 0.14006038

rnn.bias_hh f4 [7]
000000 e7 0a 8f bc e8 95 b2 be e4 83 cc be 16 d5 4a 3e
       -0.017461253 -0.34879994 -0.39944375 0.19807848
000010 74 28 39 3e 55 df c9 3e 65 0c 77 3e
       0.18081838 0.394282 0.24125822

exp_avg f4 [7, 22]
000000 be fc 10 b9 4e 35 3f ba e8 f0 bb ba 07 51 ec b8
       -0.00013827064 -0.0007294015 -0.0014338763 -0.000112684495
000010 a7 ea 1a ba e8 e0 b3 ba c5 4b 58 ba dc f0 2f ba
       -0.00059096 -0.0013723643 -0.00082510366 -0.0006711611
000020 dc d1 48 bb 9c c4 92 39 27 26 17 3a 35 26 a0 3a
       -0.0030642664 0.00027993775 0.0005765878 0.0012218418
000030 31 a3 3c 3a f6 fe 89 3a 41 22 13 3a 80 da 9c b9
       0.0007195948 0.0010528255 0.0005612709 -0.00029917434
000040 88 70 12 39 34 ef ae 39 ac 80 dd 38 82 07 11 39
       0.00013965566 0.00033366086 0.00010562068 0.00013831074
000050 7a 3f 13 3a 22 00 c9 39 d8 bb 9d 37 d2 98 ad b7
       0.0005617064 0.00038337806 1.880333e-05 -2.069437e-05
000060 44 6f 0a ba 7c ce ac b8 75 a8 a7 36 5e d4 09 ba
       -0.0005280862 -8.24006e-05 4.996599e-06 -0.00052577804
000070 03 23 c9 b8 74 ff f9 36 62 dc 5e 38 b5 26 0e 38
       -9.590948e-05 7.450517e-06 5.3134172e-05 3.3891487e-05
000080 57 c9 e5 38 1d aa d3 38 72 71 6c 38 96 76 a9 38
       0.000109570734 0.0001009295 5.637244e-05 8.080636e-05
000090 62 d0 ac 38 40 40 23 38 22 6f 23 38 3c 62 c8 38
       8.2404134e-05 3.8922066e-05 3.896573e-05 9.555041e-05
0000a0 9b 68 f3 38 97 6a 2f 38 fa b2 d9 38 d5 5b ad 38
       0.00011606627 4.182252e-05 0.00010380703 8.266388e-05
0000b0 5d b2 ca 3b 27 24 b0 3b 2a 1f 8d 3b da 7a 7d 3b
       0.0061858133 0.0053754034 0.0043066936 0.0038677962
0000c0 e4 4c 7e 39 c4 b5 99 3b 30 27 53 3c e9 9f a6 39
       0.00024251972 0.0046908576 0.012887761 0.0003178113
0000d0 ab d3 cc b9 2c 1a b0 b9 f9 c0 af bb d6 74 97 38
       -0.00039067617 -0.00033588836 -0.0053635803 7.2220035e-05
0000e0 2c 4d ff 39 b9 ab 10 3a 61 6a e3 b9 3a 99 df 37
       0.00048694888 0.0005518753 -0.00043376072 2.6655023e-05
0000f0 62 5f 7b b8 15 dd d3 bb ea 60 e5 ba 65 46 3f 39
       -5.9931896e-05 -0.006465564 -0.0017500196 0.00018241403
000100 58 4b cd 3a c8 88 8e 3a cc f7 3c b9 6c d5 08 bb
       0.0015662713 0.0010874504 -0.00018021389 -0.0020879162
000110 ae 02 d0 bb 18 30 7b 3a 04 67 3f 3a ca b0 00 bc
       -0.0063479757 0.00095820567 0.00073014223 -0.00785465
000120 1c 3e 7c 3a 31 1c 98 3a 94 14 55 3b c0 9b 5c ba
       0.0009622292 0.0011605081 0.0032513486 -0.00084155425
000130 8d 95 3b 3b df 6f 21 3a 55 5b 89 39 81 17 df 3a
       0.0028623075 0.00061583327 0.00026198724 0.0017020555
000140 20 d5 f8 b7 53 5b 06 3a a2 75 cf 39 08 c5 92 3b
       -2.9663148e-05 0.00051253027 0.0003956976 0.0044790544
000150 42 36 91 bb d6 03 ad 39 d9 74 41 3b 7c 78 6a 3b
       -0.004431517 0.0003299999 0.002951911 0.003577738
000160 66 94 57 b9 b8 be a8 b9 b4 75 17 3a 7c 0d 40 3a
       -0.0002055928 -0.00032185554 0.0005777732 0.0007326228
000170 7b 59 00 b9 7d 29 ec 39 b6 12 35 b9 0b b1 fc b8
       -0.00012240365 0.0004504434 -0.00017268475 -0.00012049273
000180 d3 75 f0 39 66 0c cb 39 36 2c 05 ba cb 7a 1a ba
       0.00045864153 0.00038728415 -0.00050801353 -0.00058929314
000190 83 eb c0 ba 40 4f e0 39 8d d2 58 3a 74 23 d9 b8
       -0.0014718625 0.00042783655 0.00082711206 -0.0001035397
0001a0 69 93 6e b8 06 39 a4 39 fd 6b db b9 1c df 3f ba
       -5.688091e-05 0.00031323003 -0.00041851393 -0.00073193177
0001b0 14 c2 ba 38 6c bc e8 39 9d 1f 18 3a 30 59 7f 3a
       8.905321e-05 0.00044390874 0.00058030506 0.0009740768
0001c0 c5 94 c0 3a ab 3d cd ba 4a 6c c9 39 92 d4 b1 3a
       0.0014692774 -0.0015658637 0.0003841839 0.0013567379
0001d0 fa ea db ba af 2e 6d 3a b1 f7 29 3b 4c 37 06 ba
       -0.0016778402 0.0009047789 0.002593499 -0.0005119934
0001e0 34 3b 89 3a 48 95 74 3b 56 4e cf 3a 6f 59 fd bb
       0.0010469914 0.0037320424 0.0015816193 -0.0077316086
0001f0 4c a4 c1 ba cd 08 87 37 00 51 3c b9 69 cb a2 3a
       -0.0014773696 1.6097352e-05 -0.00017959252 0.001242024
000200 bb 13 8f 3b f6 f8 37 39 92 b4 40 bc ad 68 b0 3b
       0.0043663657 0.00017544985 -0.011761801 0.005383572
000210 11 b9 ca bb be ba 5a bb 71 f4 9a 3c 8e 85 fa 38
       -0.0061866124 -0.0033375467 0.018915387 0.000119458055
000220 a8 9d 8a ba dd 4e a1 3c 31 40 d6 bb 1a 4d 06 bb
       -0.001057555 0.019690925 -0.006538414 -0.0020492733
000230 00 82 b4 bb 97 5f 83 ba 96 01 6e b8 b3 6e 17 bc
       -0.0055086613 -0.0010022995 -5.67451e-05 -0.009242701
000240 0d 0c a5 bb 4d fb fd 39 65 19 1d 3a cb 52 08 bb
       -0.005036837 0.00048443154 0.0005992859 -0.0020801302
000250 00 e2 fc ba c7 35 e8 ba a3 9b 1f bb 08 7c 12 bb
       -0.0019293427 -0.0017716222 -0.0024354241 -0.002235176
000260 1f 23 28 3b 43 6c 42 bc
       0.00256557 -0.011866632

exp_avg_sq f4 [7, 22]
000000 fc ab 71 36 e4 42 3c 36 c0 d0 b7 38 fa 50 d0 35
       3.6011907e-06 2.8053119e-06 8.765003e-05 1.5520775e-06
000010 da 25 e3 35 26 a1 be 38 0e 4a a5 36 9a 09 28 36
       1.6923834e-06 9.089922e-05 4.9260043e-06 2.503954e-06
000020 e8 44 31 38 44 70 22 35 0f 0a 5a 35 ac f4 7e 35
       4.2264262e-05 6.051307e-07 8.1225966e-07 9.497842e-07
000030 27 40 09 35 ed ca fd 34 d1 ac 0a 35 50 a0 d9 35
       5.112983e-07 4.727257e-07 5.1660487e-07 1.6214417e-06
000040 4b ac 41 35 d2 3c 97 35 e4 92 cf 36 b6 77 7e 35
       7.214882e-07 1.1268078e-06 6.186181e-06 9.4796576e-07
000050 03 91 35 36 47 8e 57 36 f5 da 97 35 1d 5a b0 34
       2.705551e-06 3.2120313e-06 1.1314102e-06 3.284812e-07
000060 fc e6 11 38 9f a9 39 36 e6 81 3d 33 12 30 0d 38
       3.4785815e-05 2.766588e-06 4.4123134e-08 3.366179e-05
000070 95 99 1e 37 74 b5 7e 33 5d d5 18 35 36 96 5b 35
       9.4532925e-06 5.9304014e-08 5.6934897e-07 8.1802443e-07
000080 d9 5d 38 36 a3 9e 4d 35 24 5b 29 35 3a b9 c7 34
       2.7472763e-06 7.65993e-07 6.3090033e-07 3.7201409e-07
000090 54 a8 69 35 a2 a1 6b 34 06 15 56 35 6d 28 a9 35
       8.7044214e-07 2.1944882e-07 7.9751806e-07 1.2603247e-06
0000a0 92 dd 17 36 de 7f 1f 35 26 7f 4e 34 ed 2e 73 35
       2.2629724e-06 5.9418187e-07 1.9231501e-07 9.059284e-07
0000b0 21 6f 10 39 6a 43 39 38 76 9c 97 3b 73 e4 dd 39
       0.00013774309 4.417022e-05 0.004626806 0.00042322613
0000c0 79 82 84 36 ef db 90 3b ac f7 c4 3a af 56 9d 36
       3.9490956e-06 0.0044207494 0.0015027425 4.689056e-06
0000d0 7e f8 2d 38 07 00 bc 38 6e de ee 39 93 79 5b 39
       4.147784e-05 8.964544e-05 0.0004556062 0.00020930757
0000e0 9d 04 52 38 a8 bf 68 38 77 39 5d 38 70 39 ae 37
       5.0072198e-05 5.5491604e-05 5.2744024e-05 2.0769163e-05
0000f0 fd d4 dd 37 38 83 a8 39 f5 32 17 3a f7 0a 13 38
       2.6444433e-05 0.00032141223 0.0005767786 3.5057743e-05
000100 14 34 30 38 9b dd 60 38 d8 71 a6 38 51 e6 87 37
       4.201017e-05 5.3612148e-05 7.936702e-05 1.6200504e-05
000110 2f e2 54 3b b6 e4 7e 39 1d 48 90 36 f7 ed 4a 3b
       0.0032483449 0.00024308529 4.2999295e-06 0.0030964592
000120 4b 5a 3e 3a 56 fc bb 36 14 4d 22 38 96 e5 9c 38
       0.00072613795 5.60241e-06 3.8695594e-05 7.4814234e-05
000130 50 93 32 39 2a d1 3c 39 66 5a 6a 38 76 b0 8f 38
       0.00017030281 0.00018006997 5.5874138e-05 6.85164e-05
000140 e2 57 6b 38 00 45 8e 37 89 14 b7 37 65 e3 24 39
       5.6110213e-05 1.695985e-05 2.1824862e-05 0.0001572497
000150 6e 44 af 39 75 0d 04 38 df 4e 88 38 7d 89 8d 38
       0.00033429585 3.1483785e-05 6.499676e-05 6.749013e-05
000160 89 d4 dc 36 56 a4 1d 36 c1 db 22 3a e9 d5 14 38
       6.5812533e-06 2.349048e-06 0.00062125555 3.548517e-05
000170 38 c7 b6 34 ee 6f 1b 3a 55 8b 4d 38 ef 30 5c 35
       3.4045092e-07 0.00059294596 4.900557e-05 8.2027594e-07
000180 02 8b 87 37 74 5c 1f 37 14 9c 4f 37 e1 90 8e 37
       1.6157985e-05 9.498664e-06 1.2374501e-05 1.6995184e-05
000190 c6 fd 64 38 0d 66 18 37 db 0b d2 36 37 10 6c 36
       5.459578e-05 9.083667e-06 6.259868e-06 3.5176179e-06
0001a0 cb de 9a 36 4a 19 9b 37 9d d0 67 38 eb 3b 16 37
       4.615494e-06 1.8489216e-05 5.5268978e-05 8.9546475e-06
0001b0 11 43 4e 37 ad b7 73 37 d0 d4 30 39 c2 52 cf 36
       1.2294172e-05 1.4526694e-05 0.00016863947 6.178715e-06
0001c0 a5 6a 92 3b c2 92 44 38 41 e1 28 36 73 8f 96 3b
       0.0044682794 4.686672e-05 2.5165066e-06 0.004594737
0001d0 50 a6 64 39 7c b5 93 36 6a 8f 3e 38 01 c9 e8 37
       0.0002180573 4.402069e-06 4.5433095e-05 2.7750155e-05
0001e0 b7 55 28 38 9e f0 4b 39 90 b1 a3 38 99 a3 bd 39
       4.013415e-05 0.00019449226 7.805519e-05 0.0003617078
0001f0 7c be 2d 39 3e 4b d1 37 2f b6 c4 37 7f d4 6f 38
       0.00016569527 2.4949779e-05 2.3449857e-05 5.7179943e-05
000200 05 f8 35 39 99 d4 0c 38 1c 44 e0 39 a4 2c 62 39
       0.000173539 3.3576598e-05 0.00042775355 0.0002156967
000210 33 7e 65 39 67 c6 97 37 e1 d9 87 3b d3 ce 86 38
       0.00021886155 1.8092991e-05 0.0041458462 6.428142e-05
000220 65 a4 a8 36 fa 6c 8d 3b 3c 52 b6 39 26 8a 30 37
       5.025928e-06 0.0043159695 0.00034775015 1.0522583e-05
000230 d2 77 9b 38 c9 e1 05 38 33 6f 5b 38 70 1e 97 39
       7.413294e-05 3.191995e-05 5.231723e-05 0.00028823642
000240 cd 71 d1 38 6f ea 34 39 fd 3c d9 38 6c 1b dd 37
       9.987094e-05 0.00017253471 0.00010358726 2.6358022e-05
000250 a5 eb d5 37 42 f0 90 38 1a 19 4e 39 7c e4 20 38
       2.550131e-05 6.9112066e-05 0.00019655042 3.8359765e-05
000260 5f ff 75 39 99 07 80 39
       0.00023460154 0.00024419723

exp_avg f4 [7, 7]
000000 83 31 68 bb 40 93 6e 39 79 ef fb 39 73 f4 59 3a
       -0.0035429902 0.00022752304 0.00048052872 0.0008314319
000010 a9 9b 29 3a ca a6 a6 3a 34 72 ba 3a 60 a5 08 38
       0.00064700335 0.0012714502 0.0014224709 3.2578944e-05
000020 d0 b9 b6 37 25 a1 0f 39 ac 62 bf 38 78 c6 3e 38
       2.1782616e-05 0.00013697574 9.125969e-05 4.548437e-05
000030 6d 02 dd 38 23 ac b6 38 48 c2 e3 b9 f2 ac 16 ba
       0.00010538553 8.710499e-05 -0.00043441565 -0.0005747817
000040 a8 07 55 bc 25 f4 aa 3b bc 25 0c 3a 4b a3 c5 3a
       -0.013002314 0.0052170926 0.0005346199 0.0015078572
000050 a3 5a ae 3a 09 98 24 3a dd 86 8c b9 81 06 4c 3c
       0.0013302158 0.00062787585 -0.00026803362 0.0124527225
000060 c3 6c 8a bc 16 13 af 3a b1 38 76 3b 0f 07 df 3b
       -0.016897565 0.0013357128 0.0037570412 0.0068062614
000070 e8 ed dd 39 0a 2c 57 39 bb 96 6c 3a fc 6d 12 3b
       0.0004232966 0.00020520404 0.0009025146 0.0022343388
000080 55 c1 09 bc a8 b8 e6 3a 25 d5 1c 3b 63 b3 96 b7
       -0.00840791 0.0017602639 0.0023930755 -1.7964927e-05
000090 e6 36 8e ba 60 4f 18 3a 2e 8c a6 3b 75 8f d3 3a
       -0.0010850101 0.00058101676 0.0050826287 0.0016140776
0000a0 b6 c5 b0 bc bf a9 6f 3c 9f e3 d5 b9 99 a5 93 ba
       -0.02157865 0.014627873 -0.00040796117 -0.0011264562
0000b0 41 70 14 ba ee 34 3a b9 4e 7e 9c ba 64 f2 14 3c
       -0.0005662479 -0.0001775806 -0.0011939497 0.009090994
0000c0 82 f0 cf bc
       -0.025383238

exp_avg_sq f4 [7, 7]
000000 2a 57 40 38 5e 31 6b 34 50 6b 48 35 1d a7 0c 36
       4.5857545e-05 2.190404e-07 7.4661966e-07 2.0958898e-06
000010 b7 d9 0b 35 89 5d 33 35 fc 7f 88 35 e8 51 6c 34
       5.209835e-07 6.681881e-07 1.0170038e-06 2.200901e-07
000020 22 de cb 34 a2 0f 9e 36 ab fc 1f 36 4a 5e 35 35
       3.797332e-07 4.710587e-06 2.3839918e-06 6.7564963e-07
000030 f8 d9 b7 34 55 96 81 35 06 25 36 37 79 e8 62 37
       3.4245e-07 9.655001e-07 1.08566655e-05 1.35247765e-05
000040 c7 1e 3c 3a 4f 9a 35 3a 8d cf dd 37 84 0a 25 38
       0.0007176217 0.0006927596 2.6441901e-05 3.934886e-05
000050 4f c4 28 38 97 fb 4b 37 72 94 1f 37 dc 2e 7c 39
       4.0237148e-05 1.2158321e-05 9.511701e-06 0.00024050049
000060 df b9 2c 3a 1d a3 de 37 02 5a c5 38 8b e2 0c 39
       0.0006588976 2.6540418e-05 9.410457e-05 0.00013435834
000070 2f d1 d0 35 9a 52 e0 35 11 68 21 37 4a c3 3c 38
       1.5558088e-06 1.6713341e-06 9.620578e-06 4.500457e-05
000080 1e a7 24 39 77 b1 d3 36 26 b0 4a 37 75 d2 a8 37
       0.00015702515 6.3089497e-06 1.2081151e-05 2.0125162e-05
000090 f3 2b 59 37 9c 07 07 38 d0 3d e1 38 9b 98 ce 37
       1.2944441e-05 3.2193595e-05 0.000107403495 2.4628176e-05
0000a0 aa 60 80 3a 41 8e c0 39 5e 4d a2 37 d0 90 36 37
       0.0009794433 0.0003672708 1.9347932e-05 1.0881762e-05
0000b0 b1 9e 51 38 91 dd f3 38 28 ef 14 38 e4 29 bc 39
       4.9977276e-05 0.00011628413 3.550868e-05 0.00035889365
0000c0 94 53 34 3a
       0.0006878909

exp_avg f4 [7]
000000 e8 31 b3 3a 50 64 0e 3a 4c 34 b1 bb 7e 3d 00 3c
       0.001367149 0.0005431818 -0.0054078456 0.007827161
000010 e8 e3 f0 b9 a3 0b 47 ba 01 d9 a1 bc
       -0.0004594617 -0.00075929816 -0.019756796

exp_avg_sq f4 [7]
000000 78 29 c6 38 37 b3 19 38 d2 60 9f 3b 78 d4 5b 3b
       9.4491e-05 3.664495e-05 0.004863837 0.003354339
000010 7c 11 26 3a 1a 0e 99 3b 8f ae 90 3b
       0.0006335003 0.0046708705 0.0044153403

exp_avg f4 [7]
000000 54 77 b3 3a 0b 19 0e 3a be 51 b1 bb 47 4a 00 3c
       0.0013692179 0.0005420602 -0.0054113558 0.007830209
000010 a5 19 ef b9 89 65 46 ba e2 d6 a1 bc
       -0.0004560474 -0.00075682305 -0.019755784

exp_avg_sq f4 [7]
000000 b1 29 c6 38 f2 b0 19 38 cb 60 9f 3b 86 d4 5b 3b
       9.449141e-05 3.6642836e-05 0.0048638335 0.0033543422
000010 b9 11 26 3a 15 0e 99 3b 91 ae 90 3b
       0.00063350383 0.004670868 0.004415341

exp_avg f4 [7, 22]
000000 14 c6 86 37 fd e8 e0 38 be 16 46 ba 3b 9d 97 b8
       1.6066282e-05 0.0001072455 -0.00075564894 -7.2295275e-05
000010 2f 16 cf 38 35 60 47 ba 12 89 c2 b8 75 e5 ef 38
       9.874661e-05 -0.00076055835 -9.276172e-05 0.00011439148
000020 96 d1 5e b8 5d c1 a4 38 81 a4 27 39 d1 64 60 39
       -5.3124117e-05 7.856146e-05 0.00015987644 0.00021399862
000030 7b 93 06 39 ff 58 ec 38 de 10 f0 38 7b a0 60 38
       0.00012834177 0.00011269934 0.000114472336 5.355522e-05
000040 35 a4 e8 38 a7 5d 4a 38 6a 00 16 39 f6 55 4d 38
       0.00011093208 4.8247774e-05 0.00014305269 4.8955866e-05
000050 7e 39 4b 39 28 a3 28 39 3f 43 95 bb 56 0a d3 39
       0.00019381006 0.00016082509 -0.0045551355 0.00040252757
000060 ab 64 f5 bb bb 93 52 bb 12 0b f4 3a 53 9b cd bb
       -0.007488807 -0.0032131511 0.0018619022 -0.0062746196
000070 f0 af 4a bc 69 57 76 b9 e2 1a b2 39 d5 16 4b bb
       -0.012371048 -0.00023492951 0.00033970835 -0.003098895
000080 8e 5a 08 3b 14 0d 3b 3b 05 fc 94 3a 7f 9e c2 3a
       0.0020805928 0.002854173 0.0011366612 0.0014848261
000090 2c 25 d3 3a 09 30 12 3a 7b 05 b4 bb 6b 86 0f 3a
       0.00161091 0.0005576616 -0.0054938174 0.0005475047
0000a0 64 9b 28 3b 73 4e 1c 3a 36 a7 5b 3b f2 3e 8c 3b
       0.0025727386 0.00059626176 0.0033516414 0.0042799646
0000b0 52 9e 9c 37 73 25 26 38 91 62 5b b9 c9 72 76 b7
       1.8670373e-05 3.961236e-05 -0.00020922186 -1.4689468e-05
0000c0 9e 0d 02 38 d3 a1 5f b9 89 c7 84 b6 48 17 3e 38
       3.1007097e-05 -0.00021327221 -3.9571355e-06 4.5321212e-05
0000d0 e6 fb 9c 37 20 aa c5 37 50 06 01 38 8e c4 3b 38
       1.8713949e-05 2.356345e-05 3.0761876e-05 4.476733e-05
0000e0 5f 9f f9 37 c9 05 ce 37 ed 6d dd 37 47 98 35 37
       2.9757326e-05 2.4559808e-05 2.6396441e-05 1.08238955e-05
0000f0 6c 11 18 38 71 54 4e 37 4e 3a 11 38 51 40 5f 37
       3.625585e-05 1.2298217e-05 3.4624994e-05 1.3306811e-05
000100 7c 1f 38 38 b0 28 40 38 a9 4a 13 b7 e5 98 50 3c
       4.389834e-05 4.581426e-05 -8.779266e-06 0.012731765
000110 66 a5 8c bd f8 25 f6 bb 64 4a 38 3c 1c b5 8c bd
       -0.06867485 -0.0075118504 0.011248205 -0.06870481
000120 de 76 b5 bb 9b 74 45 3c 7c a2 b3 3b 80 14 78 3b
       -0.0055378517 0.012051727 0.005482016 0.0037854016
000130 52 be 20 3c c4 10 99 3c 20 ce 4f 3c db f9 30 3c
       0.009811001 0.018684752 0.012683421 0.010801758
000140 d7 0f 11 3c ee 2a b4 3b 77 28 00 3c d9 10 b3 3b
       0.008853874 0.0054982817 0.007822148 0.005464655
000150 f0 ec 14 3c 7e d1 b9 3b 6f 93 bd 3c a3 b9 5b 3c
       0.009089693 0.0056707254 0.02314159 0.013410958
000160 78 35 3f 37 d1 3f 4b 39 fc 03 54 ba 51 4b 07 b8
       1.1396936e-05 0.00019383362 -0.0008087752 -3.2256652e-05
000170 8d b6 0b 39 25 a6 5b ba c3 4a ed b8 83 45 4b 39
       0.00013324078 -0.00083789445 -0.00011314966 0.00019385484
000180 4f 1d 4c 39 0f 2d 61 39 fd 33 2c b9 b0 d5 a8 39
       0.00019465874 0.00021474458 -0.00016422565 0.00032202667
000190 07 13 e7 b9 92 2c d6 39 af cf a1 39 14 57 6c 38
       -0.0004407393 0.00040850468 0.0003086305 5.6347882e-05
0001a0 bf 32 0a 39 27 12 6e 38 4e 68 ed 38 73 4a e8 37
       0.0001317961 5.6760528e-05 0.00011320469 2.7691223e-05
0001b0 42 8b dd 39 ac 07 0e 38 f3 68 66 3b 62 5a dc bb
       0.0004225616 3.3862583e-05 0.003515777 -0.0067246417
0001c0 73 56 3a 3d 5e 28 0a 3c 9c e6 e4 bb e7 0c 37 3d
       0.0454926 0.008432476 -0.0069854986 0.04469004
0001d0 92 e0 28 3c b6 0a df bb 89 8a 18 bb 76 36 62 bb
       0.010307448 -0.0068066968 -0.0023275933 -0.0034517325
0001e0 bc ea 8a bb cf 6f 46 bc 93 20 f2 bb 51 b1 2e bc
       -0.0042394083 -0.012111618 -0.007389137 -0.010662393
0001f0 3f 52 b7 bb 85 d2 73 bb 33 96 1f bb a0 b9 73 bb
       -0.0055945213 -0.0037204337 -0.0024351 -0.0037189499
000200 90 11 e8 bb d6 3a 7b bb a9 21 ce bc 9a b6 3d 39
       -0.0070821717 -0.003833463 -0.025162535 0.00018092469
000210 c9 f2 a0 b9 66 91 f5 bb c8 14 1e 3d fd 65 59 3a
       -0.00030698467 -0.0074941395 0.038594037 0.00082930905
000220 7f 2b d0 bb 1e 23 1e 3d d1 e6 a7 3b 7b 7e b6 bb
       -0.0063528414 0.03860771 0.005123951 -0.005569277
000230 d2 da 82 bb 46 82 83 b9 8f 95 fb bb bb 5a 0a bc
       -0.0039933706 -0.00025083328 -0.007677741 -0.008444483
000240 62 19 c6 bb 26 82 91 bb 07 cd fe bb 27 66 5a bb
       -0.0060455063 -0.0044405637 -0.007775906 -0.0033325048
000250 71 06 03 bb 68 a3 57 bb e6 e2 c7 bb fd 3b 60 bb
       -0.0019992853 -0.0032903794 -0.0061000464 -0.0034215443
000260 c0 01 09 bb 6d ac 96 bc
       -0.0020905584 -0.018392766

exp_avg_sq f4 [7, 22]
000000 d8 d4 4a 35 c1 3b 84 36 b0 36 1e 38 ef 7e be 35
       7.556059e-07 3.940863e-06 3.7721067e-05 1.4193046e-06
000010 c3 a3 55 36 cf 8e 1e 38 9e a7 a2 36 9f c5 83 36
       3.1834795e-06 3.7803136e-05 4.8474894e-06 3.9271104e-06
000020 15 79 49 36 dc a3 2c 35 98 2b 87 35 b2 6b bd 35
       3.0021813e-06 6.431344e-07 1.0070971e-06 1.4112941e-06
000030 e6 25 3a 35 20 f6 ad 34 e6 57 08 35 43 a6 d2 34
       6.934555e-07 3.240284e-07 5.0791857e-07 3.923652e-07
000040 de 4c 62 36 d0 67 91 34 57 84 42 36 30 ff 98 34
       3.3721367e-06 2.7083888e-07 2.8985285e-06 2.849788e-07
000050 01 1e 28 35 92 96 c7 34 73 14 9b 39 d8 7d 3e 39
       6.262854e-07 3.7176193e-07 0.0002957914 0.00018166692
000060 53 bf 36 3b 40 9d 82 38 fb b5 b4 38 7b cd 4b 3b
       0.0027885034 6.228173e-05 8.616965e-05 0.0031097818
000070 41 15 8d 3a dd 47 5b 39 e0 5c 38 38 6f 31 15 39
       0.001076378 0.00020912239 4.3955515e-05 0.00014228163
000080 6f 8f e3 38 a5 1d ce 38 44 17 2a 38 9f 86 1b 38
       0.0001085092 9.828367e-05 4.0552826e-05 3.7080255e-05
000090 d7 e1 bd 38 50 08 a9 37 49 8f d3 39 15 63 9f 37
       9.054288e-05 2.015024e-05 0.00040351812 1.9000416e-05
0000a0 a5 39 0f 39 7b 95 a7 37 ce 90 9e 38 8b 9f 31 38
       0.00013659017 1.9977559e-05 7.560999e-05 4.2348674e-05
0000b0 f2 66 07 35 4a 02 b1 34 e1 50 89 36 04 24 31 34
       5.0441224e-07 3.2970485e-07 4.0923337e-06 1.6497512e-07
0000c0 d9 a6 e7 33 54 d3 9b 36 01 7b 17 36 c3 60 d1 34
       1.0787125e-07 4.643962e-06 2.257235e-06 3.8999687e-07
0000d0 96 a4 cd 33 04 c9 88 34 9c 20 12 34 7e 4d d5 33
       9.5759944e-08 2.5478232e-07 1.3609173e-07 9.932681e-08
0000e0 9c b1 b8 33 8b c6 28 33 4a 1f ca 33 65 1d 41 33
       8.6004746e-08 3.9296122e-08 9.4120495e-08 4.496305e-08
0000f0 fa 69 c5 34 82 df 3b 33 27 c4 95 34 f2 75 09 33
       3.6771218e-07 4.374261e-08 2.7896132e-07 3.200507e-08
000100 35 cb 58 33 23 d2 b1 33 cc 36 a6 38 13 61 cc 39
       5.0476235e-08 8.2804284e-08 7.9257035e-05 0.00038982238
000110 2b 97 06 3c 7e d8 aa 39 9d 60 b9 39 c5 db 02 3c
       0.008214752 0.00032586226 0.00035357932 0.007986967
000120 ba 0a 9e 3a 57 13 d7 39 4a b1 45 39 fe a6 ac 38
       0.001205764 0.00041022405 0.0001885343 8.232704e-05
000130 52 1d 87 39 28 b8 26 3a f5 2b 29 39 03 5b 15 39
       0.00025771052 0.0006359839 0.00016133471 0.00014243652
000140 f0 52 eb 38 fc c4 4c 38 95 bb 80 39 50 30 35 38
       0.000112211215 4.8820846e-05 0.00024553822 4.3198757e-05
000150 cc 6f 36 3a c3 11 49 38 71 f0 32 3a 9f b3 aa 38
       0.0006959408 4.7938676e-05 0.00068259897 8.139689e-05
000160 d4 81 07 35 6e d5 20 36 25 fc 50 38 a7 cc f7 35
       5.0480344e-07 2.396609e-06 4.9825892e-05 1.8462496e-06
000170 74 ed fe 35 79 fb 4c 38 88 ca 5c 36 41 e6 1e 36
       1.8993583e-06 4.8871592e-05 3.2900443e-06 2.367786e-06
000180 e3 ce 4b 35 19 1f 2f 35 00 b0 e8 35 43 8c d8 35
       7.5924453e-07 6.5237833e-07 1.733657e-06 1.6134076e-06
000190 62 ee a9 36 25 4d 13 35 a2 07 0a 35 b5 8c bb 34
       5.064344e-06 5.487403e-07 5.1420113e-07 3.4933842e-07
0001a0 09 7b 59 36 1b de 96 34 8b d7 73 36 b9 64 b1 34
       3.2407136e-06 2.810128e-07 3.6335284e-06 3.3042105e-07
0001b0 1f b9 04 36 81 b6 23 35 b5 ee 31 38 13 e7 66 39
       1.9777287e-06 6.098781e-07 4.24224e-05 0.00022020591
0001c0 1e 3d c1 3b 8d 9b 45 39 89 be 4e 39 0b df bc 3b
       0.0058971783 0.00018845331 0.00019716671 0.0057638935
0001d0 25 e6 14 3a a3 a0 6f 39 d1 cc be 38 e1 16 2f 38
       0.0005680046 0.00022852658 9.098056e-05 4.174456e-05
0001e0 79 06 32 39 92 74 e2 39 ef f8 ff 38 e9 c4 46 39
       0.00016977814 0.0004319293 0.00012205715 0.00018956106
0001f0 d9 a2 a9 38 8c 8b 05 38 0c c2 3d 39 ae 4b fc 37
       8.088881e-05 3.1839634e-05 0.00018096733 3.0075982e-05
000200 99 2b e8 39 8e 1e 0d 38 bc a0 11 3a 2e e3 55 38
       0.0004428297 3.3645476e-05 0.00055552623 5.0994735e-05
000210 d6 f6 12 38 ec 74 84 38 0c f6 c2 3a 31 bd 28 37
       3.5038996e-05 6.316029e-05 0.0014874353 1.005763e-05
000220 7d 6c 3a 38 13 6a c8 3a 7c da cf 38 cf 8a 77 38
       4.4446893e-05 0.0015290402 9.911225e-05 5.9018665e-05
000230 9d 93 9a 37 65 eb 9b 37 84 e2 85 38 c7 f3 84 38
       1.8426968e-05 1.8587054e-05 6.384126e-05 6.3396576e-05
000240 c0 6c ea 37 20 00 b8 37 2f fb e6 38 1a f4 2a 37
       2.7945614e-05 2.1934567e-05 0.00011014041 1.0189624e-05
000250 53 6e a8 38 82 8b 26 37 44 21 53 38 76 b3 30 37
       8.031414e-05 9.926853e-06 5.03373e-05 1.05322015e-05
000260 64 8c 59 38 1a 4c b1 38
       5.186758e-05 8.454193e-05

exp_avg f4 [7, 7]
000000 a1 8a 09 b9 ba d0 f8 38 6d 0b f7 37 6b f1 30 39
       -0.00013116981 0.0001186444 2.9450015e-05 0.00016874603
000010 98 92 77 38 ac 8d 6a 39 be a5 97 39 6f d9 84 39
       5.9025915e-05 0.00022368756 0.00028924452 0.00025339003
000020 a3 35 15 bc 18 95 65 b8 f7 2a d8 3a 32 78 74 3a
       -0.009107026 -5.473671e-05 0.0016492297 0.0009325772
000030 c3 44 59 3b 7a 11 1a 3c 84 c4 1e 37 ac 11 26 38
       0.0033152557 0.009403581 9.463289e-06 3.9593942e-05
000040 f3 70 e9 36 9a 0b db 37 76 e8 1f 37 45 f1 3b 38
       6.95709e-06 2.6112237e-05 9.531263e-06 4.4808974e-05
000050 20 61 8e 38 ce 65 68 3b 5c b8 9c 3b 40 43 40 3b
       6.7891786e-05 0.003546107 0.0047827195 0.002933696
000060 02 09 79 bb eb 62 b7 3b 4f 39 15 3d c7 d9 a8 3c
       -0.0037999754 0.0055965087 0.036431607 0.020611657
000070 bd 33 02 39 16 a2 b6 39 43 ca e4 38 0e fd f1 39
       0.0001241704 0.0003483451 0.000109095614 0.00046155642
000080 24 fb e2 ba d5 f7 8a 3a ba 66 f3 39 46 bf 73 bb
       -0.0017317277 0.0010602424 0.0004642511 -0.0037192865
000090 2f 1e 09 bb dc 5d 7c bb 91 65 5c 3a d6 86 46 bb
       -0.0020922532 -0.0038508093 0.00084074686 -0.003029277
0000a0 2c 39 35 bd 7e 0c 29 3c ad db 06 bb 98 68 27 3b
       -0.044243976 0.01031792 -0.0020577714 0.002554452
0000b0 09 ca 18 bb a3 a0 dc ba 98 05 d9 ba 39 64 db 3b
       -0.0023313782 -0.0016832541 -0.0016557453 0.006695297
0000c0 03 88 24 bd
       -0.040168773

exp_avg_sq f4 [7, 7]
000000 c7 62 3e 36 53 59 0a 36 5b 05 02 34 53 f4 bd 36
       2.8369702e-06 2.0615596e-06 1.2109142e-07 5.661082e-06
000010 39 cd 40 34 08 61 05 35 1f 5f 76 34 de f1 7f 37
       1.7956053e-07 4.968756e-07 2.294514e-07 1.52554985e-05
000020 bf 4d 45 3a 17 e0 18 37 6d 5d 37 39 c1 a6 6c 37
       0.00075265387 9.112081e-06 0.00017487044 1.4105522e-05
000030 43 05 a4 38 86 97 b0 38 94 de 03 33 d5 81 89 35
       7.8211095e-05 8.4205574e-05 3.0703248e-08 1.0245082e-06
000040 7d 0d 9e 32 37 be b7 34 92 04 ab 32 91 f1 3e 33
       1.8399755e-08 3.4224806e-07 1.9909098e-08 4.4457526e-08
000050 ba e6 4c 33 04 0d ff 37 e3 04 7b 39 68 fa a7 37
       4.7707296e-08 3.040443e-05 0.00023939046 2.0024556e-05
000060 10 5b c8 3a b6 7b 2d 38 b7 16 56 3a ac 91 c4 38
       0.0015285928 4.136163e-05 0.0008166837 9.373142e-05
000070 84 4a 5f 34 ca 37 25 36 62 8d c7 33 82 f3 37 36
       2.0795602e-07 2.461939e-06 9.292377e-08 2.7410865e-06
000080 ed f8 18 37 fd 96 b0 35 85 49 96 34 36 f0 9b 37
       9.117864e-06 1.3156965e-06 2.799317e-07 1.8589297e-05
000090 c1 50 11 39 0c 85 82 37 83 75 3b 3a e2 60 0f 38
       0.00013858361 1.5559162e-05 0.00071509945 3.4184086e-05
0000a0 e9 cf 8b 3a 8b b8 6a 38 79 22 96 36 e9 a1 9f 38
       0.001066682 5.5961817e-05 4.4743615e-06 7.611869e-05
0000b0 97 fc 7f 36 b3 8d 1b 38 33 8c 09 37 b7 29 06 38
       3.8144988e-06 3.7086847e-05 8.198479e-06 3.198694e-05
0000c0 0b 1b d9 39
       0.00041409614

exp_avg f4 [7]
000000 86 9b 49 3a 46 48 d2 3b c8 eb 68 39 53 98 8f 3d
       0.00076907163 0.006417307 0.0002221308 0.070114754
000010 c9 13 60 3a 6e 73 3b bd 67 37 1e bd
       0.000854787 -0.04576438 -0.038627055

exp_avg_sq f4 [7]
000000 e7 cd 32 38 87 c4 56 3b d3 ec a5 36 08 f7 0e 3c
       4.263027e-05 0.0032770948 4.944953e-06 0.008725889
000010 0d f7 5e 38 4e 82 ca 3b 38 90 d0 3a
       5.315901e-05 0.0061800843 0.0015912121

exp_avg f4 [7]
000000 16 a2 49 3a 65 30 d2 3b 90 d1 67 39 74 96 8f 3d
       0.0007691694 0.0064144605 0.00022107945 0.070111185
000010 ea 86 5f 3a 80 75 3b bd ff 34 1e bd
       0.00085268787 -0.045766354 -0.03862476

exp_avg_sq f4 [7]
000000 03 ce 32 38 74 c4 56 3b 41 e7 a5 36 fa f6 0e 3c
       4.263037e-05 0.0032770904 4.9443047e-06 0.008725876
000010 5a f6 5e 38 57 82 ca 3b 19 90 d0 3a
       5.3158357e-05 0.0061800885 0.0015912085

exp_avg f4 [7, 22]
000000 b5 c6 91 ba ba 56 0c ba c6 92 6a ba d2 90 92 b9
       -0.0011121841 -0.00053534994 -0.00089482625 -0.0002795519
000010 3a 5c 01 ba 9b d4 39 ba 34 c3 07 bb b5 3b 04 ba
       -0.00049347023 -0.00070888706 -0.0020715715 -0.00050442974
000020 52 c4 c9 ba 86 2e 11 39 8b 1d a6 39 5f 10 40 3a
       -0.0015393591 0.00013845609 0.00031683999 0.0007326658
000030 82 ab 61 39 e9 9a 06 3a 44 d3 91 39 c2 e0 cb b8
       0.00021521564 0.0005134778 0.0002781396 -9.721659e-05
000040 31 ab 67 36 cc fd 29 b8 e9 a8 8a b6 9f 00 03 3a
       3.452133e-06 -4.0529107e-05 -4.132384e-06 0.0004997346
000050 16 b8 1d 39 1c 7d 27 39 bd ea 48 ba 95 bf 3c 3a
       0.00015041264 0.00015972968 -0.0007664373 0.0007200179
000060 af b2 ba bb cf 78 fc ba 81 c5 05 3a 3d 19 b6 bb
       -0.0056975703 -0.0019262078 0.0005102978 -0.005557208
000070 2d fe 44 bb 6b 4f 81 3a 5e 9e 2b 3a c1 c1 05 ba
       -0.0030058727 0.0009865587 0.0006546731 -0.0005102419
000080 36 a1 a4 3a 73 ca 05 3b 95 f9 0e 3a f7 41 94 3a
       0.0012560252 0.0020414859 0.0005454061 0.0011311163
000090 ac 3a 5a 3a 74 ac e6 39 78 c8 8e 38 15 04 28 3a
       0.0008324783 0.00043997506 6.808428e-05 0.00064092997
0000a0 e6 0f e4 39 43 a9 30 3b 1e 0a 4a 3a 3d a1 70 3a
       0.00043499394 0.0026956357 0.0007707196 0.00091793
0000b0 97 31 7a ba 6e 3f 97 39 87 2a a3 bb 51 05 09 bb
       -0.00095441326 0.00028848223 -0.004979435 -0.002090771
0000c0 4b 86 28 3a b6 ef 98 bb 0e a2 89 bb dd e8 e8 39
       0.00064287026 -0.0046672476 -0.0042002266 0.00044423985
0000d0 ef da 3e 3a bb 5f 31 3a ff 2a fe 38 9e dd c0 3a
       0.00072805485 0.0006766279 0.000121196725 0.0014714485
0000e0 59 5e e2 39 5a 61 6f 3a f0 ca 27 3a 0f 19 c4 39
       0.00043176374 0.0009131633 0.00064007845 0.00037402703
0000f0 01 f8 04 3a 74 9a a1 b7 84 cb b9 39 e5 36 17 3b
       0.0005072356 -1.9264618e-05 0.0003543758 0.0023073491
000100 80 43 3a 3a e5 3a 42 3a 7a ea 9c b8 17 03 d5 37
       0.0007105395 0.00074092887 -7.482334e-05 2.5393017e-05
000110 56 22 06 ba 63 79 2b b9 9e 9a 36 38 63 6f 00 ba
       -0.0005116811 -0.00016353051 4.353618e-05 -0.00048994104
000120 aa 3c a0 b9 54 7a 45 38 b2 64 48 38 2a f6 0d 38
       -0.00030562776 4.7082387e-05 4.7777496e-05 3.3846278e-05
000130 e8 c8 8b 38 ba b7 0d 39 bf 71 19 38 54 2e d1 38
       6.665458e-05 0.00013515251 3.6583977e-05 9.974526e-05
000140 be 16 a8 38 c5 d3 f2 37 ee 05 0f 38 b6 9d 24 38
       8.0151e-05 2.8947261e-05 3.409938e-05 3.9247527e-05
000150 87 5b fd 37 ae 49 54 39 8d b5 87 38 66 cd a3 38
       3.0202571e-05 0.00020245343 6.471118e-05 7.810704e-05
000160 a3 3b 21 3a ff b1 82 ba 75 67 2c 3c 6d 2f e3 3a
       0.0006150549 -0.000997126 0.010522713 0.001733286
000170 02 18 1f 39 58 f1 25 3c 4b de bf 3b 45 97 5d 39
       0.00015172365 0.010128342 0.005855357 0.00021132555
000180 d1 ed 00 bb a4 da 51 ba 19 e3 66 3a a2 87 00 bc
       -0.0019673 -0.0008005297 0.0008807644 -0.007844837
000190 58 ac 0f bb 27 b7 04 3b 67 08 d9 36 2a 74 6d ba
       -0.0021922793 0.002025077 6.468082e-06 -0.00090581423
0001a0 f7 f3 82 ba 1a 6e 24 ba 7e c3 75 ba 55 eb f8 bb
       -0.000999092 -0.000627251 -0.0009375139 -0.007596413
0001b0 a6 07 1b 3a ff 19 17 3a 93 72 f6 ba 3e ab 93 39
       0.00059139205 0.00057640666 -0.0018802456 0.0002816561
0001c0 26 f7 21 3b db ee 80 3b 33 b4 9f b9 8a 9e 06 3a
       0.0024713962 0.003934724 -0.00030461102 0.00051353185
0001d0 13 54 e2 3b 20 3b aa b9 e7 81 87 3a 6d 18 55 3a
       0.006906995 -0.00032468978 0.0010338397 0.0008128945
0001e0 e6 a8 8d 3b 80 ad 8a 3b 39 c5 0f 3b 77 24 57 bc
       0.004323113 0.0042321086 0.0021937622 -0.0131312525
0001f0 5a 59 94 ba ad 35 80 38 dd fa 45 39 93 30 4f 39
       -0.0011318133 6.1135135e-05 0.00018880838 0.00019759154
000200 ad 3c aa 38 84 1b c8 3a 4d 7f 9e bb 9f 08 92 3a
       8.1175334e-05 0.0015266989 -0.004836953 0.0011141485
000210 cb c3 8a 3b f1 6b a6 3b 41 10 63 bc 45 7d 61 bb
       0.004234766 0.0050787856 -0.013858856 -0.0034406942
000220 b1 ed 48 3b e3 7e 45 bc a6 b0 0f bc 59 77 60 3b
       0.0030659253 -0.012054178 -0.008770144 0.0034250824
000230 99 0c 3a 3b 85 0c 4e ba 43 db 9c bb 69 a7 21 3c
       0.0028388856 -0.0007860142 -0.00478688 0.009866574
000240 7a dc 01 3b e8 07 94 3b 84 09 03 ba d6 40 b5 3a
       0.0019815252 0.004517544 -0.00049986714 0.0013828527
000250 90 92 ba 3a 81 6f ce 3a 6e 6f ab 3a 07 20 0b 3c
       0.0014234353 0.0015749783 0.0013079473 0.008491523
000260 35 50 28 3b 83 fb 6c bb
       0.0025682573 -0.0036160655

exp_avg_sq f4 [7, 22]
000000 fc 25 7c 37 c2 43 86 37 f1 5b 16 39 85 ff 8e 37
       1.5029214e-05 1.6005597e-05 0.00014339366 1.7046705e-05
000010 73 a1 99 37 fe 78 15 39 de e3 e8 37 52 f8 ac 37
       1.8314202e-05 0.0001425482 2.7762664e-05 2.0619631e-05
000020 41 7b cb 37 de 51 59 36 d8 f3 69 36 25 26 bd 36
       2.425688e-05 3.2383173e-06 3.4861641e-06 5.6370795e-06
000030 ec 6a e8 35 a0 a2 02 36 68 9f d0 35 0e c5 1f 36
       1.7316465e-06 1.946617e-06 1.5543601e-06 2.3807547e-06
000040 2b b2 d5 36 76 5b 9d 36 8b 75 26 36 7e 01 0d 37
       6.368636e-06 4.689612e-06 2.4804347e-06 8.404602e-06
000050 40 a8 56 36 23 79 56 36 91 5e 1d 3a 88 d3 0f 37
       3.198642e-06 3.1958996e-06 0.0006003166 8.572715e-06
000060 5f ac 1a 3b 4a 92 6a 39 4b b7 2a 36 da 9d 33 3b
       0.0023601276 0.00022370476 2.5438665e-06 0.002740732
000070 ca c0 cb 3a 67 07 44 37 7d 97 ae 37 73 8e 8b 39
       0.0015545127 1.1684234e-05 2.0812959e-05 0.0002661828
000080 ec bb e1 38 28 65 ce 38 65 a1 a9 37 18 c7 e5 37
       0.00010763839 9.841687e-05 2.0221525e-05 2.7391638e-05
000090 ef 18 19 38 84 b4 b1 37 77 91 03 39 82 75 c0 39
       3.6501264e-05 2.1184103e-05 0.00012547323 0.00036708644
0000a0 12 82 b3 37 18 2a 2f 38 fe 8b e7 37 d6 e5 ee 37
       2.1399032e-05 4.1762454e-05 2.7602535e-05 2.8478837e-05
0000b0 7e b0 ef 39 c5 b2 87 37 a5 18 af 3a b6 d2 35 39
       0.0004571713 1.61765e-05 0.0013358785 0.00017340001
0000c0 65 7c 82 36 33 20 d5 3a f2 f6 c9 3a 93 cf bb 37
       3.8887833e-06 0.0016260206 0.0015408678 2.2388796e-05
0000d0 82 a1 66 37 e0 9e 34 38 d6 56 37 39 da da a4 38
       1.3746672e-05 4.3063308e-05 0.00017484589 7.860894e-05
0000e0 8e ec 91 37 9b 92 bd 37 58 46 90 37 6b 31 73 37
       1.7395501e-05 2.2598824e-05 1.7198894e-05 1.4495435e-05
0000f0 1a 1a 9b 38 e3 6e 40 39 fa d5 51 37 12 d9 15 38
       7.395838e-05 0.00018351855 1.2507191e-05 3.572653e-05
000100 46 b7 c5 37 6c c1 9d 37 a5 aa a5 36 a0 90 c5 34
       2.3569573e-05 1.8805928e-05 4.937249e-06 3.6799338e-07
000110 7f a7 25 38 42 a9 c9 36 af 51 05 35 9a dd 20 38
       3.949506e-05 6.009971e-06 4.9665226e-07 3.8353355e-05
000120 dc fc cd 37 4d c3 2d 35 da 69 0a 35 39 a6 a8 35
       2.4555651e-05 6.473172e-07 5.156304e-07 1.2565353e-06
000130 03 4a d6 35 42 86 b6 35 84 38 2e 35 b3 38 62 35
       1.5965783e-06 1.3599131e-06 6.490229e-07 8.427407e-07
000140 6f 4f e3 35 31 43 43 35 24 61 c5 35 ea 51 07 35
       1.6935936e-06 7.274094e-07 1.4705915e-06 5.041062e-07
000150 25 f8 c2 35 96 12 29 35 c6 2c 87 35 3e 0b af 35
       1.4526346e-06 6.298445e-07 1.0071315e-06 1.3041788e-06
000160 94 63 01 39 de 99 36 38 25 f0 24 3b 1a ee 9a 39
       0.00012339494 4.353548e-05 0.0025167551 0.00029550568
000170 9e 49 6d 38 cb ce 18 3b 35 27 a5 3a 39 e7 91 38
       5.6573765e-05 0.0023316618 0.0012600186 6.9572074e-05
000180 e3 c3 1b 38 8c 01 a1 37 1c 4f bc 38 75 c3 7c 39
       3.7137313e-05 1.9193416e-05 8.979274e-05 0.00024105406
000190 9a 07 09 38 1b 35 87 38 da c3 52 38 82 7f a6 37
       3.2670425e-05 6.447193e-05 5.0250303e-05 1.9848118e-05
0001a0 40 d7 f0 37 78 39 71 38 70 43 83 37 f4 66 89 39
       2.8710463e-05 5.75124e-05 1.564782e-05 0.00026207382
0001b0 87 7f 66 38 f7 13 d8 38 5c 0a 7a 39 95 50 26 38
       5.4955042e-05 0.00010303401 0.00023845717 3.9652532e-05
0001c0 57 f6 72 3b ff 25 57 3a c4 fe 9c 38 99 ea 4a 3b
       0.00370731 0.0008207261 7.4861135e-05 0.0030962585
0001d0 f3 12 3f 3b 1e 0d c9 38 8a 03 db 37 9a 40 bb 37
       0.0029155582 9.58687e-05 2.6108482e-05 2.232222e-05
0001e0 41 0e 5d 38 3e b9 68 39 dc 6c f4 37 a8 99 d3 39
       5.270378e-05 0.00022194252 2.9137758e-05 0.0004035954
0001f0 5c f8 c8 38 37 4e cd 37 05 fd f6 37 14 4d f7 37
       9.583004e-05 2.4474326e-05 2.9443307e-05 2.9480587e-05
000200 de b0 c8 37 1a a5 14 3a b2 e7 d2 38 08 bd 05 39
       2.3924218e-05 0.0005670354 0.00010056737 0.00012754288
000210 18 a0 d1 39 0e fe bc 37 fa ed ad 3b dc df 3c 3a
       0.00039982866 2.252965e-05 0.00530791 0.00072049885
000220 45 cc 2b 38 fb 21 a3 3b 88 e7 26 3b 98 81 51 38
       4.0959818e-05 0.004978416 0.0025467593 4.9950177e-05
000230 e0 0a 1d 38 11 bb 77 38 37 38 7c 39 06 65 a0 39
       3.7441845e-05 5.906361e-05 0.00024053534 0.00030592846
000240 cf 8f 32 38 92 df 01 39 3c 4d 8c 39 35 50 03 38
       4.257244e-05 0.00012385685 0.00026760425 3.1307532e-05
000250 d6 37 42 38 9d 9d 34 38 dd 1a 1f 38 1d 2c 40 3a
       4.6305206e-05 4.3062133e-05 3.7933572e-05 0.0007330792
000260 38 3e c0 38 7b b9 96 39
       9.1668626e-05 0.00028748423

exp_avg f4 [7, 7]
000000 8e 33 eb ba aa 4a 05 39 cf 8e 20 39 77 7d b9 38
       -0.0017944442 0.00012711683 0.0001531199 8.844857e-05
000010 70 90 ab 3a e7 c8 07 3a cc e3 8a 39 b3 12 a9 39
       0.001308931 0.0005179778 0.00026491133 0.00032248124
000020 07 52 73 ba a7 af a0 3a 4c 88 9e 39 1b 49 58 3b
       -0.00092819374 0.001225938 0.00030237657 0.0033002559
000030 65 67 50 3a cf ef 76 3a 71 77 e9 39 ad ce 56 3a
       0.00079499773 0.00094198895 0.00044530214 0.0008194249
000040 2d 43 2c ba 5b 63 40 39 ff da 29 3b d8 9c 71 3a
       -0.0006571289 0.0001834756 0.0025917885 0.0009216792
000050 4c e1 2e 3a d3 13 be 37 43 43 da 37 f8 bf f6 37
       0.0006671145 2.2658996e-05 2.6018946e-05 2.9414878e-05
000060 1a eb 8e 37 22 62 5c 39 1e 9b bc 38 99 bd e5 38
       1.7037197e-05 0.00021017392 8.9934314e-05 0.00010954886
000070 65 ca 0b b9 2b 4d c2 ba 0e 97 9e ba c5 62 c5 ba
       -0.00013331471 -0.0014824023 -0.0012099461 -0.0015059343
000080 b9 31 93 bc 8c 42 df 3b 00 3b b7 3b ca 31 f2 39
       -0.017968046 0.006813353 0.00559175 0.00046194933
000090 fa 48 d4 39 8a 8f d4 39 84 15 97 39 b9 d2 66 3c
       0.00040490163 0.00040542736 0.00028816995 0.014088326
0000a0 09 cb b6 bc fb 11 a4 3b 7e 76 5d 3a da 41 76 3a
       -0.022313612 0.0050070263 0.00084481377 0.0009393968
0000b0 54 5e 80 3a e4 ab 40 3a 63 43 86 3c 60 15 9c 3b
       0.0009793737 0.00073498324 0.016389554 0.0047632903
0000c0 99 f1 3c bc
       -0.011532211

exp_avg_sq f4 [7, 7]
000000 94 e9 ec 37 64 ea cd 36 3d 2f 5f 36 79 9c b3 35
       2.824216e-05 6.1367627e-06 3.3257086e-06 1.3382079e-06
000010 dd 67 af 36 09 4e 53 36 d3 cd 13 36 59 6a 47 37
       5.2274977e-06 3.1486873e-06 2.2024512e-06 1.1886085e-05
000020 a7 60 0a 3a 6f 05 9c 39 c4 45 27 37 fb a4 02 38
       0.00052786845 0.00029758687 9.970219e-06 3.1148065e-05
000030 6a ce 72 37 b0 ec af 37 91 6f 1e 37 07 c8 b7 38
       1.4472384e-05 2.0971842e-05 9.44351e-06 8.763378e-05
000040 95 3f e6 39 6e 4b c3 36 7f 6f 1c 38 32 0d 6a 37
       0.0004391639 5.820234e-06 3.7297137e-05 1.3950559e-05
000050 9e 23 42 37 d4 74 0b 35 31 8f 0c 36 98 47 66 35
       1.1571594e-05 5.195154e-07 2.0944974e-06 8.578586e-07
000060 cc ce 34 35 63 73 63 35 1a fa 00 36 27 9a a0 36
       6.7356154e-07 8.4732e-07 1.9219065e-06 4.7863173e-06
000070 77 26 cc 37 ac f3 9c 37 0e 72 98 38 3d 6f f1 36
       2.4336607e-05 1.8710118e-05 7.269169e-05 7.1953095e-06
000080 9e e6 0f 3a ac b3 70 38 1a 72 0f 39 31 69 38 37
       0.0005489382 5.738779e-05 0.00013680049 1.0991746e-05
000090 74 96 91 37 83 6c 9e 37 76 27 2f 37 cd 33 dc 39
       1.7355407e-05 1.8885597e-05 1.0440001e-05 0.00042000265
0000a0 77 98 3c 3a a3 02 e0 38 3a eb 88 37 d2 4c da 37
       0.000719435 0.000106816435 1.6322e-05 2.6023397e-05
0000b0 24 84 d9 37 3c 29 a0 37 53 43 33 3a 15 1c 9c 38
       2.5929949e-05 1.9092688e-05 0.000683834 7.44389e-05
0000c0 71 77 68 3a
       0.0008867896

exp_avg f4 [7]
000000 02 dc 30 3a db 5b c3 3b 49 f2 a2 3b 6e 85 09 3a
       0.0006746651 0.0059618778 0.0049727303 0.0005246018
000010 99 2c 22 bc 9f 58 d8 ba ec 3d 57 3c
       -0.009898328 -0.0016505903 0.013137322

exp_avg_sq f4 [7]
000000 8f 03 3c 39 86 de 42 3b 4e 8d ed 3a 5a c8 3c 38
       0.00017930403 0.0029734685 0.0018123777 4.5009285e-05
000010 65 84 30 3b 05 54 83 3b 86 9d bc 3b
       0.0026934382 0.0040078186 0.005756083

exp_avg f4 [7]
000000 c3 d5 31 3a ce 87 c3 3b 53 ec a2 3b 4b 8a 0a 3a
       0.0006783867 0.005967117 0.0049720197 0.00052848895
000010 83 35 22 bc 5f e0 d8 ba e4 25 57 3c
       -0.0099004535 -0.001654636 0.013131592

exp_avg_sq f4 [7]
000000 b5 04 3c 39 a2 de 42 3b 58 8d ed 3a ee d0 3c 38
       0.0001793083 0.002973475 0.0018123789 4.5017274e-05
000010 85 84 30 3b fe 53 83 3b 90 9d bc 3b
       0.0026934457 0.0040078154 0.0057560876

exp_avg f4 [7, 22]
000000 48 21 6c bc c2 ab 96 bb 65 54 f6 3c 20 fb 1a bb
       -0.014412232 -0.004598112 0.03006954 -0.0023648217
000010 c6 c6 c4 bb 15 82 05 3d 20 84 bb bc 4a 88 b0 bb
       -0.006005141 0.03259476 -0.02289015 -0.0053873407
000020 22 99 3a bb 9c da 11 bb 07 c6 a6 b9 29 28 2e bc
       -0.0028472622 -0.0022255545 -0.0003180953 -0.010629692
000030 9b 77 c9 bb e5 8b 14 bb 0a 3c e5 bb 35 d1 b3 bc
       -0.0061482913 -0.0022666391 -0.0069956826 -0.021950344
000040 81 ac 57 bb c9 43 4e ba dd 49 9d ba a6 fd 54 bb
       -0.0032909217 -0.0007868377 -0.0012000162 -0.003249982
000050 e9 49 59 b8 5e 1b 6d ba fb 85 a1 39 00 5c aa 37
       -5.1805666e-05 -0.00090449105 0.00030808136 2.030842e-05
000060 57 41 a6 ba 61 23 47 39 4e e9 1c 37 f2 68 a8 ba
       -0.0012684268 0.00018991299 9.352645e-06 -0.0012848659
000070 f5 f2 17 3a ff ba 32 37 0a ae 0f 39 ca fe 46 36
       0.0005796396 1.0653165e-05 0.00013702377 2.9652606e-06
000080 b0 60 2c 39 a6 0a c0 39 2d e0 51 39 bc 76 91 39
       0.00016439217 0.00036629027 0.00020015305 0.0002774502
000090 5f b3 46 39 12 e9 90 39 b5 85 c7 38 ef a7 85 39
       0.00018949572 0.0002763947 9.513964e-05 0.00025492857
0000a0 21 0f 7d 39 ac d8 c8 38 16 22 52 39 af b7 33 39
       0.00024133596 9.5771014e-05 0.00020039859 0.00017139198
0000b0 6b 83 6c bb 47 8e 05 3b 07 54 c7 3b 5c c2 d0 bb
       -0.0036089073 0.0020378993 0.006083015 -0.0063708257
0000c0 d3 6f 4b ba d5 bf c3 3b 18 9d e6 bb 16 ac a2 3a
       -0.00077604986 0.005973796 -0.00703777 0.0012410905
0000d0 11 fc fb 39 f8 e9 91 ba f6 5b 9c bb 79 ad 2d 3a
       0.00048062255 -0.001113235 -0.004771705 0.0006625276
0000e0 ef a0 01 bb fd a2 f2 3a 31 f5 3b ba fd 90 85 3b
       -0.0019779762 0.0018511709 -0.000717002 0.004076122
0000f0 5f f3 18 ba e5 33 6a bc 8e 66 35 3b 13 b6 18 ba
       -0.0005834605 -0.014294599 0.0027679536 -0.0005825471
000100 4b 0b 0a 3b 8a d3 6f 3a 2f 8e d9 39 34 4e 02 3a
       0.002106386 0.0009148648 0.000414954 0.00049707596
000110 3c de 92 bc cd 72 c6 ba d7 df 44 3b d2 ed 96 bc
       -0.017928235 -0.0015140414 0.0030040646 -0.018423948
000120 70 b7 37 bb 4d 07 1b 3a 99 0d 90 39 52 ed 2d 3a
       -0.0028032921 0.00059138687 0.0002747595 0.000663479
000130 82 f2 f2 3a 0f cd 51 3b a3 63 91 3b 6c 2d 38 3b
       0.0018535408 0.0032013094 0.0044369265 0.0028103245
000140 ef 3f 71 3b fa 0f c3 3b db 95 b8 3a bc b0 18 3c
       0.003681179 0.0059528323 0.0014082746 0.0093194805
000150 ea bc aa bb d3 89 b7 3a 23 c7 07 3b 6c 2a 01 3b
       -0.0052105086 0.0014002867 0.002071806 0.0019709123
000160 52 29 12 39 4a 4d 48 b6 9e 38 20 ba 60 e1 d8 38
       0.00013939038 -2.984731e-06 -0.0006111952 0.00010341662
000170 0c 7e df b6 d4 d8 22 ba 3c 85 90 39 c2 08 97 b6
       -6.6605917e-06 -0.00062121195 0.00027565088 -4.50117e-06
000180 35 04 52 38 85 29 2b 38 e8 85 a9 38 ff c5 27 39
       5.007182e-05 4.0808245e-05 8.08349e-05 0.0001600012
000190 59 5b c5 38 1d d6 07 39 c1 5f a7 38 c5 4b d1 38
       9.410707e-05 0.00012954367 7.981016e-05 9.98001e-05
0001a0 a7 f4 45 38 86 f4 0a 39 10 5a 00 39 f2 43 36 38
       4.719631e-05 0.00013251798 0.00012240582 4.345546e-05
0001b0 7f 6e cb 38 4c 98 b0 38 20 ce 86 3b a8 c3 0a 3a
       9.700376e-05 8.4207015e-05 0.0041139275 0.0005293437
0001c0 2b e4 e8 3a f5 24 e3 3a 16 c3 a2 3a c2 a9 fa 3a
       0.0017768195 0.001732974 0.0012417759 0.0019124078
0001d0 3c e0 bf 3b 39 0c 94 3a f3 75 22 39 fc 95 2e b9
       0.0058555882 0.0011295147 0.00015493463 -0.00016649807
0001e0 fc 50 b0 38 2a 4c bb b9 a2 e8 51 39 3a 63 1b bb
       8.4074185e-05 -0.00035724166 0.00020018456 -0.0023710267
0001f0 ed c3 2f 3a 1b cb a3 3a 7b a5 27 38 44 55 1e 3a
       0.00067049154 0.0012496443 3.997002e-05 0.0006039927
000200 b8 0b 89 39 7d ab 27 38 6a 2b 4c bb 85 3d 64 ba
       0.00026139407 3.9975614e-05 -0.0031153806 -0.0008706677
000210 18 7c c0 ba df 14 31 ba 88 ac 05 bc 79 23 ff 3a
       -0.001468542 -0.0006755124 -0.00815881 0.0019465528
000220 cb 01 9b ba ad 33 11 bc ea f0 bb 3a 29 c8 af ba
       -0.0011826096 -0.008862418 0.0014338766 -0.0013411093
000230 f8 5c 1d 3a 05 15 be 39 e5 4f 8b 3a 5a 63 fe 3a
       0.0006002928 0.00036255285 0.0010628669 0.0019408271
000240 4d 8d dd 39 30 74 98 3b b9 d4 97 b8 e1 de b8 3a
       0.00042257682 0.0046525225 -7.239864e-05 0.0014104509
000250 81 41 13 3a c0 f7 ff 3a aa 37 77 3a 79 77 12 3a
       0.0005617366 0.0019528791 0.0009430597 0.0005587261
000260 47 64 5f 3b e0 0e 0e 39
       0.003408687 0.00013547717
