data_10frm/model/0_0_9_11.pt (torch_old, 18399 bytes, 52 tensors)

rnn.weight_ih f4 [7, 22]
000000 ad 89 71 3e 44 c9 dc bd fd 3e 99 bc 35 9e 82 3e
       0.23587675 -0.10780576 -0.018706793 0.25511327
000010 14 4c 9f be 46 c4 8e 3e 31 59 d0 3c ec bb 6f 3e
       -0.3111273 0.2788412 0.025433155 0.2341153
000020 cd 6d 87 3d 1e ec d2 bd b7 74 6e 3c a2 a5 6d bd
       0.0661274 -0.10298942 0.014554194 -0.058019288
000030 b3 9f 80 3d d5 47 6d be b7 ff e6 bd 5c 66 b5 bd
       0.0628046 -0.23171933 -0.112792425 -0.08857414
000040 5c eb 49 3c 25 e8 a5 bd dc d0 92 3e f7 84 76 3d
       0.01232418 -0.08100919 0.28674972 0.0601854
000050 ed b8 40 be d6 17 90 be 69 4e 32 bd 1e 3a 00 be
       -0.18820544 -0.28143185 -0.04353181 -0.1252217
000060 4a e0 31 3d aa b3 16 3e 85 c1 22 3e 75 a7 bd 3e
       0.04342679 0.14716974 0.15894134 0.37041822
000070 50 ec 8b be ac cb 23 3e 7b 2c 47 bd 7b 4d 51 3e
       -0.2732873 0.15995663 -0.048626404 0.20439713
000080 42 7b d0 3d 6d 00 01 bf 0f 64 02 bf b5 12 ae be
       0.101797596 -0.50391275 -0.5093393 -0.33998647
000090 43 55 39 3e 6a 0d 62 be 40 8c ff 3c 9a ef b2 be
       0.18098931 -0.2207543 0.031194806 -0.34948426
0000a0 79 29 49 3e 45 b4 a4 be ae 99 df 3d 7a 08 27 be
       0.19644727 -0.32168785 0.10917984 -0.16311827
0000b0 c9 ed 9d be 99 af 9f 3d 80 e8 5e be 65 6e 82 3d
       -0.30845478 0.077971645 -0.21768379 0.06368712
0000c0 85 d2 db bd fb 75 70 bd c2 79 e0 be de 0e 43 be
       -0.10733513 -0.058706265 -0.43842894 -0.1904864
0000d0 63 8f 5c 3e 24 95 c5 bd c6 d5 e1 3e fb d7 98 3e
       0.21539073 -0.09647587 0.4410841 0.2985228
0000e0 19 47 b5 bc 41 56 88 be 89 9c 76 3e 24 5b 01 3e
       -0.022128629 -0.26628307 0.24083151 0.12632424
0000f0 e3 14 5d be 5c 53 8c 3e ec b8 7c 3e 07 66 b2 3e
       -0.21589999 0.27407348 0.24679917 0.34843466
000100 9d 62 5f be 76 ab 35 bd 26 8b ee bd 44 85 10 3e
       -0.21814962 -0.04435297 -0.11647634 0.14113337
000110 d0 9a a1 be 3c 96 b0 be b6 e1 8c 3e 18 39 e7 bd
       -0.31563425 -0.3448962 0.27515954 -0.11290187
000120 7f 9d be 3d 35 0a a5 3d 9b e7 11 3e 9d 75 0d 3e
       0.09307384 0.080585875 0.14248507 0.13814397
000130 4f 7a 29 3e 59 7d 66 3e 3d 20 a5 be 82 ae 31 3e
       0.16550563 0.22508754 -0.32251158 0.17351726
000140 ea 1d 87 be b1 76 87 be d4 0c 3d 3d 2d d9 c1 bc
       -0.2639001 -0.26457742 0.046154812 -0.023663128
000150 51 d2 79 3e 9a 28 33 be 6f 3c a7 be d8 4d 92 3e
       0.24396636 -0.17495957 -0.32663295 0.28575015
000160 ed c8 ee bc 34 1e 8d 3e c4 df 12 3e ab 38 88 be
       -0.029148543 0.27562106 0.14343172 -0.26605734
000170 93 31 14 3d 74 dc e7 3d 02 b7 41 be 5a 1f 32 be
       0.03618009 0.11321345 -0.18917468 -0.17394772
000180 3d 64 f1 3d 18 4c d3 3c 48 0f 4f be 5f c2 1e be
       0.11786697 0.02579312 -0.20220673 -0.15503834
000190 32 cc b8 3e 48 dd b0 bd b0 45 1f 3e af bb 1a 3e
       0.3609329 -0.08635956 0.15553927 0.15110658
0001a0 85 77 89 be d1 0e b6 be 00 cd b0 3e 24 09 25 bc
       -0.26849 -0.3555818 0.34531403 -0.01007298
0001b0 8f b9 78 3e 5c f3 5a 3d 4a ae 42 3e 34 94 85 3e
       0.24289535 0.05345474 0.19011799 0.26089633
0001c0 ad a3 ac 3e 08 48 48 be f3 c0 d0 bb 7b 04 85 3e
       0.33718625 -0.19558728 -0.0063706576 0.2597998
0001d0 42 ac c1 3e c0 94 2a 3e ab 7f 8c be b0 ef 8a be
       0.37826735 0.16658306 -0.27441153 -0.27135992
0001e0 2c 18 71 be 1b 17 68 3d 66 ae bb 3e 9a 98 35 be
       -0.23544377 0.05666266 0.36656493 -0.17733994
0001f0 0c ae 62 3e 5b 15 3e be a7 7e af be 57 da 8a bd
       0.22136706 -0.18562834 -0.34276316 -0.06779926
000200 85 76 79 3e db c4 b9 3e 5c 8e 47 be 1b 20 c7 3d
       0.24361618 0.36283 -0.194879 0.097229205
000210 35 97 d8 3e 29 18 7d 3e a3 6e 6b 3e 77 8a cf 3e
       0.42302862 0.24716248 0.22991423 0.40535328
000220 1a 7f 23 3e 31 4f b4 3d e9 cb 06 be 3d 41 c2 be
       0.15966454 0.08804167 -0.13163723 -0.37940398
000230 83 a7 32 be 09 96 4d bd 7a ab 8c be 8b 22 26 3e
       -0.17446713 -0.050191913 -0.27474576 0.16224115
000240 d3 d2 04 3e 88 53 a4 bd 75 34 30 3e 49 a7 0b 3e
       0.12971048 -0.08023745 0.17207511 0.13638033
000250 d6 a2 67 3e 72 2a 80 3e af 38 f8 bd 13 5d bc 3e
       0.2262071 0.25032383 -0.121201865 0.3678976
000260 18 20 b6 bc 56 fb 29 3c
       -0.0222321 0.010374865

rnn.weight_hh f4 [7, 7]
000000 37 11 a5 be 5f 7b 8e be 46 ed a5 be 61 cf 68 be
       -0.32239696 -0.278285 -0.32407588 -0.22735359
000010 1f a2 3b 3e 24 1d 57 be fa ab b7 be 50 d8 64 3c
       0.18323563 -0.2100721 -0.35873395 0.013967589
000020 4a 20 36 bb ab 00 d5 3d 0d 30 b1 be c7 c6 57 bd
       -0.0027790242 0.10400518 -0.34606972 -0.052679803
000030 2b c9 86 be 96 d8 65 be 4d 4a 9d be da 8b 0e be
       -0.26325354 -0.22445902 -0.3072075 -0.13920537
000040 40 89 16 bd 68 36 0a 3e b0 cf 12 3d 4d 68 a9 3c
       -0.036751986 0.13497317 0.035842597 0.020679617
000050 3f 62 b9 3e b2 80 bb 3e 98 55 8d 3e 98 41 0d 3c
       0.36207768 0.36621624 0.27604365 0.008621596
000060 db a1 35 be a0 65 a6 3e 50 4f 27 be 91 8f b1 bd
       -0.17737524 0.3249941 -0.16338849 -0.08669961
000070 54 19 af be f5 4d c9 bd df d0 a2 be 11 e8 8b 3e
       -0.3419901 -0.09829322 -0.3179998 0.2732549
000080 db f6 8d be 75 70 af be bb 44 a0 bd 5a 63 47 be
       -0.27727398 -0.34265485 -0.07825609 -0.19471493
000090 e1 e3 0a 3e 33 77 3c be 61 b1 51 be 9f 4a 87 bc
       0.13563491 -0.18404846 -0.20477821 -0.016515074
0000a0 3e b2 b5 3e 7c 3c a3 be e5 a1 25 3e 05 36 70 3e
       0.3548755 -0.31882083 0.16175039 0.23458107
0000b0 b0 c4 a6 3e 17 c8 96 be 24 2a 90 3d 32 4c 9c be
       0.32571936 -0.2944953 0.07039288 -0.30526882
0000c0 0d 5f c7 3e
       0.38939705

rnn.bias_ih f4 [7]
000000 96 bc 4c be d9 0f 81 3d 29 a4 f2 3c 59 d4 3f bb
       -0.19993815 0.06301851 0.029619293 -0.0029270856
000010 61 ac 11 bd 4c 21 ad 3d 73 97 3e 3e
       -0.035564784 0.084536165 0.18612461

rnn.bias_hh f4 [7]
000000 8f 68 ee 3b fe 1b 4a bd 1f aa a4 be 63 8d 9a 3e
       0.007275648 -0.0493431 -0.32161042 0.30185995
000010 fb ad 9c 3e 96 57 aa 3e 95 1f 93 3e
       0.30601487 0.33269948 0.28735033

exp_avg f4 [7, 22]
000000 64 56 f0 b7 43 d6 5c ba 61 c8 06 bc 80 de b9 ba
       -2.8650458e-05 -0.00084242615 -0.008226485 -0.001418069
000010 e1 a9 ca b9 94 9a 05 bc c3 3d 15 bb 60 89 d9 b9
       -0.00038655012 -0.00815453 -0.0022772409 -0.00041491818
000020 65 04 d2 36 ba 4c 51 3a 63 87 d3 3a af 8d fc 3a
       6.2589993e-06 0.00079841504 0.0016138371 0.0019268299
000030 b8 3a 9f 3a 97 aa c9 3a ad 33 a5 3a ac 26 20 3a
       0.0012148237 0.0015385923 0.0012603902 0.0006109278
000040 da 8f 21 3a dd 04 dc 3a bb c9 05 3b 2f 43 94 3a
       0.0006163098 0.0016786117 0.002041443 0.0011311526
000050 24 2d 66 3a a6 f3 b7 3a 9d 19 c7 b9 ca ee 6b ba
       0.000878053 0.0014034405 -0.0003797532 -0.0009000121
000060 af a2 5c bc cc f2 34 bb e5 9d ec 38 af 0e 5c bc
       -0.013466521 -0.0027610539 0.00011282767 -0.013431235
000070 a0 45 88 bb 7d f1 2c 39 77 47 cf 3a 7e 72 a9 3a
       -0.0041586906 0.0001649316 0.0015814145 0.0012927798
000080 7e 55 59 3b 1d 02 18 3b 07 d4 cd 3a 56 46 e8 3a
       0.003316253 0.002319462 0.0015703448 0.0017721157
000090 0b 36 02 3b 56 5e 7d 3a 18 ae 91 3a f7 b0 31 3b
       0.0019868638 0.0009665241 0.0011114506 0.0027113536
0000a0 dd 9d 69 3b e1 98 ef 3a bd d3 b0 3a 34 65 17 3b
       0.0035647072 0.0018279814 0.0013490837 0.0023101093
0000b0 08 cb 2c 3c bd b4 e7 3b 5f 73 74 3b fc 30 d8 3b
       0.010546453 0.007071106 0.0037300212 0.0065976363
0000c0 7b df 63 39 69 4a 74 3b 22 be af 3c 85 a4 d5 39
       0.0002173166 0.0037275797 0.021452967 0.00040749102
0000d0 53 a7 73 ba 6d b7 d4 b9 e6 c4 d2 bb 91 af 96 3a
       -0.00092946476 -0.00040572454 -0.0064321635 0.0011496415
0000e0 af 05 71 39 5b 13 19 3b 9a 2e 50 ba 5e e3 80 36
       0.00022985668 0.0023357484 -0.00079415145 3.8411663e-06
0000f0 59 25 6b ba c2 46 2b bb cf 5c a3 ba e4 7c f5 b9
       -0.0008970104 -0.0026134704 -0.0012463572 -0.00046823092
000100 e0 cc 5b 3a 17 8f f4 b9 36 ff 8b 3b 9c 81 31 ba
       0.0008384716 -0.00046645917 0.004272367 -0.00067713275
000110 03 5d eb bb 53 a6 63 3b 93 c6 9a b8 af 51 0c bc
       -0.0071827187 0.0034736588 -7.3802796e-05 -0.008564397
000120 08 a3 11 3c 9c 4b 75 39 a8 95 f1 3a a6 37 72 b9
       0.008888967 0.00023393187 0.0018431442 -0.00023099649
000130 77 e3 2f 39 ab 3e 99 3a e7 4d 63 3a bd 9c 43 3b
       0.00016774038 0.001169165 0.0008670971 0.0029848062
000140 13 0b b5 3a bd 6c 2c 3a bc 88 27 3a d5 dc 27 3a
       0.0013812504 0.00065774826 0.00063909194 0.0006403451
000150 f7 00 14 3b b4 28 1a 39 b6 49 c2 3a 5d 2e 1a 3b
       0.0022583583 0.00014701748 0.0014822993 0.002352617
000160 63 cb c5 ba a7 71 cb ba 36 89 2c bc be 80 e7 ba
       -0.0015090521 -0.0015521542 -0.0105307605 -0.001766227
000170 4b b6 3f b9 90 9b 2d bc f9 34 b8 bb 01 c2 12 b9
       -0.00018283089 -0.010596171 -0.005621549 -0.00013995917
000180 c0 4f bd 3a 3b 70 9c 3a a8 39 f2 3a 19 e7 1b 3b
       0.0014443323 0.0011935303 0.0018480318 0.0023788868
000190 62 2a fc 39 0c 13 d3 3a 3b e8 0a 3b 49 f1 33 3a
       0.00048096763 0.0016103699 0.002119555 0.00068642624
0001a0 85 6d 7c 3a d5 27 26 3b d4 d9 1b 3b 35 b9 e1 3a
       0.0009629357 0.0025353332 0.0023780959 0.0017221334
0001b0 81 26 7b 3a 0c 23 f0 3a d3 13 9c bb a4 c8 12 ba
       0.00095806277 0.0018320992 -0.0047631054 -0.0005599356
0001c0 3e 36 a5 3c 8d f3 9a ba fa d2 5a 39 28 97 a8 3c
       0.020167466 -0.0011821851 0.00020868695 0.02057989
0001d0 79 1c db bb 6c ec 64 39 17 a6 28 ba 2f 9e aa ba
       -0.006686744 0.00021831848 -0.0006433441 -0.0013017113
0001e0 dd 20 24 ba 8d d4 62 bb 0e 47 2b ba 78 de 24 bc
       -0.00062610005 -0.0034611553 -0.00065337203 -0.010062806
0001f0 90 27 5f bb 40 70 cf ba 63 31 af ba ec 4f 27 bb
       -0.003405068 -0.00158263 -0.0013366159 -0.0025529815
000200 9a 0a b8 bb b6 a3 0f bb c9 c1 79 bb 8e 87 48 bb
       -0.005616498 -0.0021917648 -0.003810989 -0.0030598375
000210 55 03 33 bc f7 fd 67 bb 00 6c 6e 3c d3 7f b1 bb
       -0.010926087 -0.0035399178 0.014552116 -0.005416849
000220 6c bf 4e b8 3a 9b 82 3c 7a 25 96 bc ed 3a 4f ba
       -4.9292503e-05 0.015943158 -0.018328417 -0.0007905204
000230 74 63 53 bb 4d f9 97 ba 71 05 86 3a b2 8a ac bb
       -0.0032255324 -0.0011594683 0.001022501 -0.005265557
000240 d2 2e 62 bb b9 4f f3 ba e5 f2 c4 ba fa ed ba ba
       -0.003451277 -0.0018563188 -0.0015026001 -0.0014261596
000250 54 0c 80 ba ad 01 c8 ba 38 94 5b bb 30 15 e7 ba
       -0.0009769299 -0.0015259288 -0.0033505093 -0.0017630216
000260 2e b9 0d bb b2 65 8a bb
       -0.0021625268 -0.004223549

exp_avg_sq f4 [7, 22]
000000 bf 55 4d 37 5d 46 0a 37 a0 b1 9f 39 62 47 00 37
       1.22389165e-05 8.241824e-06 0.00030459184 7.646015e-06
000010 dd 66 a0 36 36 2a a4 39 16 80 ce 37 f6 1f ee 36
       4.7803464e-06 0.00031311967 2.4616758e-05 7.0966735e-06
000020 e4 0a 15 38 d7 fb 80 36 4f cb be 36 21 56 da 36
       3.553451e-05 3.8440153e-06 5.6861095e-06 6.506933e-06
000030 23 27 ac 36 30 29 7c 36 c6 f7 9a 36 cc a4 04 36
       5.1305556e-06 3.75749e-06 4.6184023e-06 1.9765457e-06
000040 42 13 98 36 c2 56 db 36 c0 88 bb 37 3c 4e d7 36
       4.532195e-06 6.5368085e-06 2.2355816e-05 6.416607e-06
000050 96 7d 67 36 d8 cc 19 37 a9 ed 27 37 8a 8d 56 36
       3.4494783e-06 9.167205e-06 1.000931e-05 3.1970872e-06
000060 17 1a a9 39 ce 6f c0 37 44 e1 b6 34 6c f8 a4 39
       0.0003225363 2.2940247e-05 3.4064044e-07 0.00031465606
000070 da 37 a5 38 59 88 fe 34 39 f4 c9 36 4e fa a0 36
       7.878216e-05 4.7410393e-07 6.018698e-06 4.797511e-06
000080 4b 5b bf 37 4a b9 03 37 de 1c d2 36 0f 87 a8 36
       2.2811486e-05 7.851349e-06 6.2618483e-06 5.022513e-06
000090 96 5e 0f 37 f0 b0 07 36 a4 a2 d1 36 a5 d5 2d 37
       8.545487e-06 2.0219559e-06 6.2476192e-06 1.03613465e-05
0000a0 d1 9f 95 37 87 1e f1 36 e0 eb 22 36 19 ac 15 37
       1.7836604e-05 7.1859135e-06 2.4277178e-06 8.921162e-06
0000b0 2d d6 f7 38 0b 9c 3b 38 c4 14 4e 3b 16 12 8b 39
       0.00011817771 4.47296e-05 0.0031445483 0.0002652562
0000c0 ee 5e 00 36 27 31 49 3b f7 18 8b 3a 5d c4 24 36
       1.9128743e-06 0.0030699463 0.0010612299 2.4552203e-06
0000d0 15 50 55 38 52 ad 1f 38 f1 e4 95 39 47 96 9a 38
       5.085774e-05 3.806997e-05 0.0002859007 7.3712836e-05
0000e0 e2 ac 5c 38 f7 95 2d 38 b9 14 62 38 46 c2 90 37
       5.2613097e-05 4.138608e-05 5.39019e-05 1.7256603e-05
0000f0 96 ed 6d 38 12 bc fc 38 03 fe 41 39 48 76 8f 38
       5.6726472e-05 0.00012051327 0.00018500541 6.840803e-05
000100 03 4a ad 37 8e 58 b6 38 bf a5 92 38 15 0a 2b 37
       2.0657671e-05 8.694931e-05 6.992695e-05 1.0194742e-05
000110 b3 0b 2d 3b d3 df 80 39 97 92 a4 36 8f ea 21 3b
       0.0026404678 0.00024580825 4.904646e-06 0.0024706458
000120 4f 0e 40 3a 30 29 c7 36 f1 35 2f 38 91 e0 cc 38
       0.0007326351 5.935457e-06 4.177349e-05 9.769307e-05
000130 29 35 79 38 e9 69 dd 38 7e 50 5e 38 71 fa 00 38
       5.9415735e-05 0.000105578285 5.300389e-05 3.075082e-05
000140 fd 9d 91 38 0b f0 7e 37 95 0b 15 38 f3 c6 c5 38
       6.9435664e-05 1.5195469e-05 3.5535155e-05 9.430749e-05
000150 49 76 0f 39 fe 5c a4 38 97 70 af 37 ee 4b 8b 38
       0.00013681607 7.8374505e-05 2.0914054e-05 6.6421795e-05
000160 d4 fb c4 37 0a 44 00 37 25 f5 f4 3a 55 63 d8 38
       2.3482287e-05 7.645236e-06 0.0018688781 0.00010318185
000170 90 5f 8e 35 32 d8 ea 3a d5 8c 1f 39 92 18 27 36
       1.0607637e-06 0.0017917214 0.00015215886 2.489924e-06
000180 f9 5e 41 38 23 36 df 37 76 71 1e 38 fb a1 34 38
       4.6103236e-05 2.6608881e-05 3.7775804e-05 4.30662e-05
000190 04 20 d8 38 f6 98 f2 37 85 c5 e7 37 ed 32 5b 37
       0.00010305646 2.8919876e-05 2.7629323e-05 1.3065274e-05
0001a0 73 54 b2 37 7d 86 60 38 2a 19 f3 38 5f 47 2b 38
       2.1258578e-05 5.3531014e-05 0.0001159183 4.0836047e-05
0001b0 64 a2 99 37 af aa 52 38 61 f0 6c 38 34 9b ce 35
       1.831464e-05 5.0226863e-05 5.6490655e-05 1.5393366e-06
0001c0 ce 73 f9 3a ed 50 93 37 7a 88 05 35 08 bf fe 3a
       0.0019031705 1.756145e-05 4.974496e-07 0.0019435594
0001d0 8e d0 77 38 1e ca 6b 35 f2 09 af 37 b3 24 84 37
       5.908362e-05 8.783844e-07 2.0866257e-05 1.5752716e-05
0001e0 46 3c c1 37 83 e5 6a 38 18 1a cf 37 74 44 2b 39
       2.303546e-05 5.6003697e-05 2.4688474e-05 0.00016333332
0001f0 de 1b 58 38 15 20 5b 37 e4 14 99 37 89 3d 43 38
       5.1524366e-05 1.3060887e-05 1.824875e-05 4.6548932e-05
000200 12 ef 04 39 ce 52 10 38 e6 ea 03 38 ac 18 5b 38
       0.00012677562 3.4409393e-05 3.14516e-05 5.2236646e-05
000210 65 83 87 39 4a 94 95 37 6f ea 52 3b 51 ba b8 38
       0.00025847103 1.7831237e-05 0.003218319 8.808508e-05
000220 09 1f f9 36 bb 0d 5f 3b e1 62 1c 3a 98 da 49 37
       7.4243912e-06 0.0034035284 0.0005965662 1.2031429e-05
000230 b2 f9 82 38 2e d6 18 38 38 dd 5e 38 89 86 16 39
       6.2453924e-05 3.6439094e-05 5.313495e-05 0.00014355233
000240 89 54 a7 38 5d 9f 82 38 33 2e 24 39 1d d5 c9 37
       7.9789264e-05 6.228567e-05 0.0001565747 2.4060306e-05
000250 a3 df 0a 38 d3 97 b1 38 15 a8 4e 39 d4 e2 85 38
       3.3110042e-05 8.468297e-05 0.00019708306 6.384184e-05
000260 77 87 2f 38 d7 5a 08 39
       4.1849413e-05 0.00013003811

exp_avg f4 [7, 7]
000000 b9 b6 2f ba 16 88 c6 39 ca 69 fc 3a bf 9e 02 3b
       -0.0006702948 0.00037866895 0.0019257602 0.0019931046
000010 12 30 bb 3a 08 08 d1 3a 8a 75 de 3a 22 2f 33 3a
       0.0014281294 0.0015947828 0.0016972285 0.00068353314
000020 9e 32 29 3a 5f c6 98 3b 73 2d 35 3b ab c5 c7 3a
       0.0006454381 0.0046623196 0.0027645498 0.0015241405
000030 15 86 d4 3a a9 2d fe 3a 0a 7f 1e 39 7a 20 5f ba
       0.0016214276 0.001939227 0.0001511538 -0.0008511614
000040 7c ae 66 bc 6f 66 0a 3b 66 41 e3 3a 18 ad 89 3b
       -0.014079686 0.0021118184 0.0017338216 0.0042015426
000050 b0 44 f6 3a a3 e5 2d 3a cf 9b eb 39 af 3c 4f 3b
       0.0018788781 0.0006633645 0.0004493878 0.0031621864
000060 96 b0 0d bc b6 e4 fe 39 14 ee a6 3b 0d a6 e4 3b
       -0.008648058 0.00048617058 0.005094299 0.0069778026
000070 f6 a7 ca 39 fd 35 0b 3a 2a c3 7b 3b 6a ff 9f 3b
       0.00038653583 0.0005310474 0.0038415887 0.0048827427
000080 4c 03 9f bb 0c af 09 3b b6 b1 88 3b 25 a4 53 ba
       -0.004852688 0.0021008877 0.0041715754 -0.00080734707
000090 cc da 26 ba db 0e 9a 39 cc e4 6b ba 49 b2 b2 b6
       -0.0006365001 0.00029384237 -0.0008998632 -5.3255685e-06
0000a0 bb c6 a0 bc 44 16 c8 3a 18 17 12 ba fd e5 f7 b9
       -0.019626012 0.0015265425 -0.0005572899 -0.00047282866
0000b0 2e 6a fd 3a 70 32 ba b9 00 45 6e ba 63 70 ba 3a
       0.0019334012 -0.00035514263 -0.00090892613 0.0014224168
0000c0 12 1c 87 bc
       -0.016492877

exp_avg_sq f4 [7, 7]
000000 0e ae 01 38 19 c1 1c 36 92 51 d4 36 93 48 7b 37
       3.0918098e-05 2.335821e-06 6.3275884e-06 1.4977663e-05
000010 35 34 cd 36 ff fe 81 36 80 15 f8 36 c3 f3 00 36
       6.115554e-06 3.874185e-06 7.393479e-06 1.9215374e-06
000020 2a 4b 40 36 c4 d4 29 38 f2 59 9b 37 fc 74 fe 36
       2.865398e-06 4.0490893e-05 1.8519324e-05 7.5834087e-06
000030 8b 4a bc 36 07 a3 1f 37 de 67 0a 37 e5 dc eb 37
       5.6115146e-06 9.515096e-06 8.249624e-06 2.8117045e-05
000040 f3 8c 14 3a 03 f1 13 39 87 7b 4c 38 ef f5 d8 37
       0.0005666755 0.00014108796 4.8752434e-05 2.5863728e-05
000050 ae d6 67 38 39 38 d5 36 70 25 62 37 9d 06 80 38
       5.5274628e-05 6.35444e-06 1.3479366e-05 6.1047474e-05
000060 c5 c7 18 3a c8 43 0f 38 60 dd d9 37 4d 2c da 38
       0.0005828108 3.4156983e-05 2.5971502e-05 0.00010403302
000070 c6 fd 03 37 b6 b9 26 37 0d d7 22 38 82 ba c7 38
       7.867295e-06 9.93761e-06 3.882409e-05 9.523799e-05
000080 8e 6d 83 39 53 f7 5f 37 52 23 45 38 1c f2 c4 36
       0.00025067892 1.334942e-05 4.7001355e-05 5.8694404e-06
000090 8d 02 cc 36 14 a4 a0 37 42 2d 5a 38 23 16 84 37
       6.0799707e-06 1.9149891e-05 5.20174e-05 1.5745934e-05
0000a0 7c 9a e6 39 a0 e2 26 38 03 5c 72 37 60 55 79 37
       0.00043984118 3.9788545e-05 1.4445747e-05 1.48614345e-05
0000b0 03 3d 98 38 a0 a5 02 39 5a f9 52 38 74 9c 2e 38
       7.259289e-05 0.00012459466 5.030013e-05 4.163054e-05
0000c0 c5 1e 09 3a
       0.000523072

exp_avg f4 [7]
000000 3b fb 08 3c 3c e6 62 3c e5 0e 9f bb b5 03 06 3c
       0.008360679 0.013848837 -0.0048540705 0.008179595
000010 e7 6b 35 3c b3 10 a5 bc fe e3 7c bc
       0.011073089 -0.020149564 -0.015435217

exp_avg_sq f4 [7]
000000 1f 58 ab 39 29 03 b2 39 0a 72 5b 3b cc ed 32 3b
       0.00032681317 0.0003395316 0.003348472 0.0027302383
000010 14 5a fa 3a 4d 48 01 3b 5f de 66 3b
       0.0019100332 0.0019726933 0.0035227758

exp_avg f4 [7]
000000 ec 03 09 3c 85 e1 62 3c 5c 2c 9f bb 7f 10 06 3c
       0.008362751 0.013847713 -0.004857583 0.008182644
000010 3b 7a 35 3c 7d 0b a5 bc c2 df 7c bc
       0.011076505 -0.02014708 -0.015434207

exp_avg_sq f4 [7]
000000 03 59 ab 39 6c 01 b2 39 40 72 5b 3b 94 ed 32 3b
       0.0003268198 0.00033951865 0.0033484846 0.0027302252
000010 6a 5a fa 3a 26 48 01 3b 57 de 66 3b
       0.0019100432 0.0019726842 0.003522774

exp_avg f4 [7, 22]
000000 ca b6 85 b8 c0 14 da 3a 4d 82 2d bc 3c 47 cb ba
       -6.375981e-05 0.0016638264 -0.010590148 -0.00155089
000010 97 a1 cf 3a bd bf 2b bc b8 ef 12 bb 40 9a ee 3a
       0.0015841004 -0.010482726 -0.0022420716 0.0018203929
000020 6b 68 38 3a ec e5 79 3a 23 89 00 3b 5f 03 31 3b
       0.00070346025 0.0009532857 0.001961299 0.0027010066
000030 db 6b ea 3a a0 5d a9 3a ce 83 b9 3a 4c a9 68 3a
       0.0017884927 0.0012921579 0.0014153661 0.0008875325
000040 a2 1c 2f 3b 6e 48 39 3a 0f 5d 37 3b 1e 09 5f 3a
       0.0026719947 0.0007067983 0.0027979051 0.00085081335
000050 f4 d7 ff 3a 7e 50 79 3a e5 fe 74 bc 40 0b 4d ba
       0.0019519315 0.00095105905 -0.01495335 -0.0007821806
000060 91 d5 03 bc 80 84 44 bc 7c 1c 55 3b 9d cf 8d bb
       -0.008046524 -0.011994481 0.0032518199 -0.004327728
000070 f7 9e 17 bd d1 72 b8 ba 59 f6 e5 3a 74 67 ed bb
       -0.037016835 -0.0014072304 0.0017544731 -0.0072449986
000080 bc d0 e7 3a ba a1 b5 3b 61 6c 09 3b 97 99 09 3b
       0.0017686109 0.005542961 0.002096914 0.0020996088
000090 22 9e 5d ba 5d 8e 23 3a 4f 61 8c ba b2 2b 32 38
       -0.00084540446 0.00062391703 -0.0010710153 4.24792e-05
0000a0 06 20 38 3b 0a 9b ba 39 f7 ac 53 3b 0c 73 55 ba
       0.002809526 0.00035592198 0.003229914 -0.00081424485
0000b0 1a 9a d2 39 f1 ea 5d 3a e7 3d 80 bb d2 27 a5 b9
       0.00040169136 0.000846549 -0.0039136293 -0.0003150092
0000c0 c2 68 38 3a 90 14 82 bb 5f fa ff 38 a0 7d 69 3a
       0.0007034653 -0.0039697364 0.00012205983 0.0008906964
0000d0 68 8c 03 3a 12 02 0f 3a 04 1c 2c 3a 9e d5 4c 3a
       0.00050181756 0.00054553256 0.0006565454 0.0007813814
0000e0 eb 02 18 3a 44 0d fc 39 3f fc 10 3a 58 bb a9 39
       0.00057987747 0.0004807507 0.00055307517 0.00032373774
0000f0 c5 bc 8c 3a 2f d9 8e 39 7e 9d 87 3a 19 90 aa 39
       0.001073741 0.00027246165 0.0010346619 0.00032532288
000100 20 ab 2d 3a 4f 09 d4 39 c7 46 04 3c 49 c3 ce 3b
       0.0006624926 0.00040442726 0.008073515 0.006309901
000110 f1 ca f6 bc c3 0d 57 3b 28 37 6b 3b e1 a3 03 bd
       -0.030126067 0.00328146 0.003589103 -0.03213871
000120 d8 97 93 3c 1c c7 c6 3b 19 7f fb 3a c3 f5 af 3b
       0.01801674 0.006066216 0.0019187658 0.0053698733
000130 c6 9b 82 3b 51 0c af 3b c3 ce 9d 3b ee 2b b6 3b
       0.003985855 0.0053420444 0.0048159077 0.005559436
000140 4d 4d a7 3b 53 be 11 3b d5 55 20 3c fc c4 0f 3b
       0.0051056505 0.0022238686 0.009786089 0.002193748
000150 b2 c4 ec 3b 5d 11 23 3b 8f 3b 99 3b 5a 53 65 3b
       0.0072255963 0.0024882175 0.0046762894 0.0034992308
000160 c8 81 0f 3a 7d 09 ac 3a 95 fc aa bb 69 9e ae b9
       0.0005474356 0.0013125386 -0.0052180984 -0.0003330589
000170 c5 e6 7d 3a 45 e0 af bb 04 c7 52 39 2c 9d b4 3a
       0.00096855714 -0.005367311 0.000201013 0.0013779751
000180 86 57 59 3a 49 2e 68 3a fd a9 ba 39 d2 7d b7 3a
       0.0008290935 0.00088569947 0.00035603336 0.0013999289
000190 4b 7a 88 39 46 7a 82 3a 44 63 5a 3a 57 63 e9 39
       0.00026031057 0.0009954653 0.0008330832 0.00044515237
0001a0 f7 a1 b2 3a bd 83 ce 39 ed 9c af 3a 46 14 f9 39
       0.0013628592 0.00039389535 0.0013398208 0.00047508086
0001b0 a7 0b 83 3a bf 9d 0c 3a 4e 9f e1 3b f5 69 2c bc
       0.000999798 0.0005364082 0.0068854457 -0.010523309
0001c0 57 99 89 3d 91 bd 61 3c ba c2 39 bc 6c f6 85 3d
       0.067187004 0.013778106 -0.01133793 0.06541142
0001d0 02 37 bd 3c 89 8a 2b bc e2 9c ca bb 8c 9e 1a bb
       0.023097519 -0.010470041 -0.0061832527 -0.0023593036
0001e0 b2 55 16 bc 6b 4d 93 bc 9d 94 30 bc 4f 48 57 bc
       -0.009175705 -0.017981252 -0.01077762 -0.013139798
0001f0 84 8a fd bb a3 9e a9 bb 85 66 85 bc b3 ff 8c bb
       -0.0077374596 -0.0051763817 -0.016284237 -0.0043029427
000200 75 29 8d bc f4 35 b1 bb e6 d7 5b bc ef 41 b5 bb
       -0.017231682 -0.005408043 -0.013418173 -0.0055315415
000210 53 6d 83 3a 31 05 bc ba c3 da 14 3c 7a 17 13 3a
       0.0010027088 -0.0014344809 0.00908536 0.0005611103
000220 0b 31 cd ba 35 4f 10 3c 82 6e 74 3b 7e f2 41 ba
       -0.0015654875 0.008807947 0.0037297313 -0.00073985
000230 0f 2e 4f ba 11 70 c8 3a d3 3d 31 bb d6 0d 19 bb
       -0.00079032866 0.0015292187 -0.0027044907 -0.0023354194
000240 82 5a af ba e1 ca 93 ba b9 b2 fd ba dd 55 3e ba
       -0.0013378414 -0.0011275673 -0.0019355632 -0.00072607194
000250 4c 17 05 bb c7 cb ff b9 8b f1 30 bb b2 50 10 ba
       -0.0020308075 -0.00048789216 -0.002699944 -0.00055051886
000260 0c cc dc ba 47 51 0a ba
       -0.0016845479 -0.00052763935

exp_avg_sq f4 [7, 22]
000000 73 db 00 37 c3 69 54 38 f2 51 f3 39 af 96 7d 37
       7.680489e-06 5.0643237e-05 0.00046409626 1.5115059e-05
000010 d2 46 2d 38 b9 3c f4 39 18 c7 35 38 cc c5 51 38
       4.131237e-05 0.0004658455 4.3339183e-05 5.0013696e-05
000020 02 f6 30 38 1c 9d a0 36 be d8 25 37 47 be 85 37
       4.2190783e-05 4.7866615e-06 9.885231e-06 1.594344e-05
000030 96 41 27 37 88 df 9e 36 c3 29 eb 36 e4 8a b2 36
       9.969246e-06 4.7347894e-06 7.0084075e-06 5.3209824e-06
000040 a1 d7 fa 37 03 aa 65 36 2c 79 16 38 58 1a 82 36
       2.9902732e-05 3.422262e-06 3.5875637e-05 3.8773687e-06
000050 1a b3 1f 37 e2 99 b5 36 78 33 49 3a 47 4e de 39
       9.518839e-06 5.4121347e-06 0.0007675211 0.0004240146
000060 f3 f9 bb 3b a0 91 26 39 4c 6b 30 39 05 c0 d7 3b
       0.0057365834 0.00015885243 0.00016824639 0.00658417
000070 5a f4 3a 3b 56 c5 03 3a 18 e1 06 39 0f 02 b7 39
       0.0028526993 0.0005026659 0.0001286309 0.00034906014
000080 7d 20 28 39 30 ee 10 39 42 a6 ef 38 f6 bb 87 38
       0.00016033831 0.00013821642 0.00011427376 6.472312e-05
000090 bf d6 26 39 72 42 54 38 f9 a2 01 3a 0c 34 42 38
       0.00015910993 5.060662e-05 0.0004945244 4.6301677e-05
0000a0 5a 27 db 39 0d af 49 38 9f f7 d6 38 d1 7f d7 38
       0.00041800254 4.8085163e-05 0.00010250438 0.000102758066
0000b0 02 f6 7a 36 ae 35 4b 36 c2 58 42 38 e4 53 dd 35
       3.7396098e-06 3.0280603e-06 4.6335867e-05 1.6490199e-06
0000c0 b1 25 e3 35 61 50 50 38 fa 98 8a 37 be f3 68 36
       1.6923788e-06 4.9665923e-05 1.6522117e-05 3.471257e-06
0000d0 83 b1 a4 35 92 6a 0d 36 24 4e a7 35 3c 61 b5 35
       1.2270615e-06 2.107267e-06 1.2465212e-06 1.351385e-06
0000e0 f7 e2 8d 35 aa 21 16 35 db cf a1 35 d1 3f 09 35
       1.0571374e-06 5.592834e-07 1.2055929e-06 5.112934e-07
0000f0 c4 5d 5b 36 db 42 e5 34 27 ad 5e 36 eb 63 cf 34
       3.2688122e-06 4.2703218e-07 3.3181366e-06 3.8629454e-07
000100 d2 84 55 35 6f 4a 3c 35 8e 99 17 39 0a 16 ad 39
       7.954196e-07 7.014377e-07 0.00014457686 0.00033013552
000110 c3 87 cb 3b 28 8e 9e 39 f9 f3 95 39 24 6d c7 3b
       0.0062112524 0.00030242023 0.00028601268 0.0060860086
000120 b1 9d b4 3a ab b3 bf 39 66 f1 53 39 83 03 d9 38
       0.0013779906 0.00036564222 0.00020212456 0.000103480204
000130 10 a4 34 39 9b ff 8f 39 0d 0e 0f 39 3d 1a 8a 38
       0.00017227256 0.00027465526 0.00013642777 6.58524e-05
000140 ce 2f fa 38 98 84 8f 38 14 a9 c9 39 57 74 26 38
       0.00011929833 6.843469e-05 0.0003846368 3.9685834e-05
000150 e8 66 ee 39 31 25 4d 38 22 78 18 39 02 48 82 38
       0.0004547157 4.8910446e-05 0.00014540603 6.2122956e-05
000160 0c d9 86 36 34 94 96 37 15 c3 c7 39 98 77 53 37
       4.018779e-06 1.7950406e-05 0.00038101585 1.2604425e-05
000170 5b 8b 75 37 08 9e c4 39 fc 8a c7 37 02 6e 96 37
       1.4635584e-05 0.00037501776 2.3787368e-05 1.793262e-05
000180 61 09 04 37 54 b0 a4 36 14 30 36 37 1f be 22 37
       7.869997e-06 4.908108e-06 1.0859239e-05 9.7002185e-06
000190 31 7f c2 37 91 15 a1 36 9c 56 d2 36 d1 d7 76 36
       2.318583e-05 4.8006846e-06 6.2685704e-06 3.6782478e-06
0001a0 9f ac db 37 cb a7 1d 36 7a f2 e2 37 67 b2 38 36
       2.6187217e-05 2.3492491e-06 2.7054211e-05 2.752198e-06
0001b0 b7 eb 01 37 cf 46 88 36 1d 1e 13 38 6f d3 1e 39
       7.743881e-06 4.061359e-06 3.5075576e-05 0.0001514682
0001c0 06 15 92 3b ee 5b 0a 39 78 48 0b 39 a7 48 8f 3b
       0.0044580726 0.00013194952 0.0001328307 0.0043726745
0001d0 54 ea c7 39 1d 67 24 39 16 31 8a 38 21 32 05 38
       0.00038130826 0.00015678671 6.589496e-05 3.1756357e-05
0001e0 14 4b 0d 39 2e 88 6d 39 57 40 00 39 4a c6 1b 39
       0.00013474777 0.00022652812 0.00012231 0.0001485582
0001f0 2d 00 8f 38 90 54 19 38 c4 22 9b 39 ad c5 cd 37
       6.818804e-05 3.6556798e-05 0.00029589806 2.4529954e-05
000200 5b 05 9f 39 cb 53 06 38 9b 89 fc 38 a0 15 21 38
       0.00030330833 3.2026128e-05 0.000120419274 3.840553e-05
000210 dd a6 2f 38 02 82 3a 38 fc 7b 70 3a 57 5f 1a 37
       4.1878655e-05 4.4466935e-05 0.00091737485 9.201313e-06
000220 f9 40 e0 37 14 4d 7d 3a e8 80 10 39 d2 14 3d 38
       2.6733136e-05 0.00096626696 0.00013780931 4.5080502e-05
000230 2f d4 79 37 b6 13 d8 37 a0 a0 0c 38 40 76 dd 37
       1.4890959e-05 2.5758385e-05 3.3528195e-05 2.6400317e-05
000240 3c ec 9b 37 cb c7 1f 37 82 a2 47 38 05 9f 04 37
       1.8587445e-05 9.523656e-06 4.7596644e-05 7.904838e-06
000250 63 72 90 38 5c 24 cb 36 12 60 8c 38 f9 a1 db 36
       6.887761e-05 6.0541042e-06 6.693615e-05 6.5455647e-06
000260 70 8a 99 37 34 6f 37 37
       1.8303486e-05 1.09335415e-05

exp_avg f4 [7, 7]
000000 7e f4 b5 b9 30 20 0f 3b 5e 59 dd 39 e7 31 52 3b
       -0.0003470517 0.0021839254 0.00042218989 0.00320732
000010 38 26 52 3a 17 86 57 3b de 54 a5 3a cb 88 41 3a
       0.00080165593 0.003288632 0.0012613793 0.00073827495
000020 ac 84 78 bc f3 87 80 b8 be 45 d7 3b 42 03 ba 3a
       -0.01516835 -6.128838e-05 0.006569593 0.0014191645
000030 2e 73 24 3c e9 f5 d5 3a e1 04 78 39 6a 80 9d 3a
       0.010037227 0.0016323897 0.0002365294 0.001201642
000040 33 da 32 39 b9 ea 66 3a 01 7e 8a 39 47 47 6c 3a
       0.00017056688 0.000880878 0.0002641529 0.00090133067
000050 1a 07 ec 39 1a fe f5 3a 0c da 5a 3c 8d bc b2 3a
       0.0004501872 0.0018767745 0.0133576505 0.0013636515
000060 0c a4 8b bb 33 03 1b 3b ec 71 46 3c 68 79 ad 3b
       -0.0042614993 0.002365303 0.012112122 0.005294014
000070 c5 a3 bb 39 4e 88 e0 3a 3f 5c 4d 39 de 61 b6 3a
       0.00035789437 0.0017130466 0.00019584688 0.0013914665
000080 27 fa a4 ba 49 09 32 3b 8b 4c e5 39 77 83 3c bb
       -0.0012586758 0.002716618 0.00043735313 -0.0028764883
000090 d7 9e f6 bb a0 15 2a bb af 6b 0b bc 4a 2e 84 bb
       -0.0075262594 -0.002595283 -0.0085095605 -0.0040338384
0000a0 90 2b 24 bd 53 1a e2 ba 21 cc fc b9 3b ed 22 3b
       -0.040080607 -0.0017250277 -0.00048217273 0.0024860639
0000b0 27 6d d4 b9 db 3f b8 ba 3b dc c0 b9 3a a5 3c 3a
       -0.00040517116 -0.0014057116 -0.00036785178 0.00071962515
0000c0 5f 86 17 bc
       -0.009248345

exp_avg_sq f4 [7, 7]
000000 d3 4a 1d 38 3b 99 8e 37 2c 7f d5 35 73 9c 71 38
       3.7501402e-05 1.6999073e-05 1.5906749e-06 5.7604582e-05
000010 d0 cd 21 36 f8 36 37 37 df d0 76 36 a8 32 ed 37
       2.4110668e-06 1.0920448e-05 3.6778436e-06 2.827619e-05
000020 cc 14 c9 3a e0 56 a4 37 ba e1 d5 39 e9 7b d9 37
       0.0015341281 1.9590778e-05 0.00040794705 2.5926116e-05
000030 ea a7 9f 38 66 8a 78 38 f7 fe fb 34 49 2a 0e 37
       7.612987e-05 5.92567e-05 4.6937905e-07 8.473705e-06
000040 f9 5a 42 34 74 93 91 36 5e 1e 86 34 d1 e4 9f 35
       1.8100754e-07 4.3385025e-06 2.498154e-07 1.1913017e-06
000050 58 3d 2c 35 c2 5c 18 38 93 92 cf 39 b7 cf 89 37
       6.416426e-07 3.632601e-05 0.00039591323 1.6428397e-05
000060 62 a8 ae 3a 8e af 08 38 be e4 05 39 1e 4e 29 38
       0.0013325328 3.2588425e-05 0.00012769082 4.0365492e-05
000070 16 41 3b 36 4d 5d b1 37 0f 34 98 35 16 89 bd 37
       2.7903056e-06 2.114349e-05 1.1340034e-06 2.2594391e-05
000080 dc 49 e1 37 34 bd 0f 37 15 4c 46 36 6e 02 7f 37
       2.6856484e-05 8.5675165e-06 2.9548585e-06 1.519975e-05
000090 6c 93 23 39 9d ef 20 37 9e a3 6b 39 8f 2e b4 37
       0.0001559981 9.5925325e-06 0.00022472299 2.1479353e-05
0000a0 00 cd 57 3a 9b 48 ae 37 94 b1 89 36 2c 7e eb 38
       0.00082321465 2.0776226e-05 4.103591e-06 0.000112291746
0000b0 0c 10 2b 36 2b 98 25 38 5e 21 a5 36 cb 11 48 37
       2.5490326e-06 3.9480783e-05 4.9212676e-06 1.1925072e-05
0000c0 b8 1b c2 38
       9.255804e-05

exp_avg f4 [7]
000000 81 2e 31 3c d7 83 a9 3b 33 93 86 3b bf 7d 03 3d
       0.01081431 0.0051731872 0.004106903 0.032102343
000010 89 2c b6 3b 6c ec 89 bd 26 8d 0e bc
       0.005559508 -0.06734547 -0.008700645

exp_avg_sq f4 [7]
000000 24 96 09 3a 42 b2 e3 3b 37 b1 5f 38 6c 5c dc 3b
       0.0005248508 0.00694874 5.3332387e-05 0.0067248847
000010 b3 1b d5 39 c9 95 98 3b fb 04 84 3a
       0.00040647163 0.0046565277 0.0010072285

exp_avg f4 [7]
000000 ea 2e 31 3c ed 6b a9 3b 55 8a 86 3b 03 7a 03 3d
       0.010814408 0.0051703365 0.004105846 0.03209878
000010 e6 1a b6 3b 76 ed 89 bd 89 83 0e bc
       0.0055574058 -0.06734745 -0.008698353

exp_avg_sq f4 [7]
000000 2f 96 09 3a 57 b2 e3 3b 13 ac 5f 38 78 5c dc 3b
       0.00052485144 0.00694875 5.33276e-05 0.0067248903
000010 57 1b d5 39 f1 95 98 3b 12 05 84 3a
       0.00040646896 0.0046565463 0.0010072312

exp_avg f4 [7, 22]
000000 65 64 d6 bb 7b 76 06 3a 1f b3 cf bc 02 b0 0e bc
       -0.0065427297 0.00051293493 -0.025353966 -0.008708956
000010 df 47 b2 3a 22 48 c2 bc 8e 3d af bc c9 83 dc 3a
       0.0013601742 -0.023716036 -0.021391656 0.0016823943
000020 c5 d3 4c 3a 81 6c 0b 3b 24 2f 8a 3b ed d8 ea 3b
       0.00078135385 0.002127439 0.0042170454 0.007166973
000030 53 79 5b 3b 56 e8 92 3b 86 bb 5d 3b c8 70 42 3b
       0.0033489063 0.004483263 0.0033833697 0.0029669274
000040 c3 a2 2c 3b c0 bb 10 3b 02 ab 27 3b 23 dd bf 3b
       0.002634213 0.0022084564 0.0025584106 0.005855219
000050 22 a6 87 3b 24 fa a8 3b c3 6b b8 bb 86 90 49 3b
       0.0041396776 0.005156772 -0.0056280806 0.0030756309
000060 13 24 06 bd 37 81 43 bc 65 7b 7e 3b 0d 2a ff bc
       -0.032749247 -0.011932663 0.0038830873 -0.031147981
000070 f5 4c b8 bc d7 7b 95 3b 47 35 81 3b 4f 11 08 3b
       -0.022497633 0.004561882 0.0039431187 0.002076227
000080 ed c4 b1 3b 57 c9 11 3c a7 2f 88 3b 6d e0 9d 3b
       0.0054250867 0.008898101 0.004156071 0.0048180134
000090 ca 28 8e 3b d6 f9 80 3b ff bc 72 3b 12 4e 47 3b
       0.0043383585 0.0039360328 0.003703892 0.0030411524
0000a0 19 61 58 3b a3 5a 00 3c 47 9a b2 3b ee cd d1 3b
       0.003301686 0.0078341095 0.00545052 0.0064027226
0000b0 d3 64 cc bb 2c 2a 5a 3a a6 82 30 bc d7 9c 08 bc
       -0.006237605 0.0008322324 -0.0107733365 -0.008338175
0000c0 77 9f 0c 3b e0 3a 16 bc 5d de 96 bc 88 e0 bc 3a
       0.0021457353 -0.00916931 -0.018416578 0.0014410177
0000d0 1e 8b a7 3a 0e ea 7f 3a 41 eb 91 39 74 10 47 3b
       0.0012782549 0.0009762355 0.00027831833 0.0030374797
0000e0 2d 02 a2 3a 1e ad f7 3a 81 89 b9 3a b3 46 a6 3a
       0.0012360268 0.0018896197 0.0014155359 0.0012685865
0000f0 f9 6b 29 3a 2c 17 55 39 81 c5 8d 3a 32 9c 3b 3b
       0.00064629276 0.00020321895 0.0010816307 0.0028627035
000100 b9 66 c9 3a c7 2a 24 3b 38 d9 71 bb f0 af d4 3a
       0.0015365697 0.0025049911 -0.0036903154 0.001622675
000110 22 51 bc bc 17 e9 01 bc 4f 98 22 3b ea 73 b3 bc
       -0.022987906 -0.007929108 0.0024810021 -0.021905858
000120 13 95 75 bc 79 cb 32 3b a5 d8 23 3b c3 7a 02 3b
       -0.014989155 0.0027281924 0.0025000956 0.0019909597
000130 d1 19 7e 3b f2 60 b8 3b 22 7b 2a 3b 17 14 74 3b
       0.0038772712 0.005626791 0.0026013334 0.003724342
000140 b2 0f 5d 3b 16 56 34 3b 7f db 2c 3b 6d 20 10 3b
       0.003373128 0.0027517132 0.0026375947 0.0021991984
000150 c1 89 1a 3b fb 3e b1 3b 54 21 76 3b 82 80 95 3b
       0.0023580643 0.005409119 0.0037556486 0.0045624385
000160 82 9d 6a 3c bf ed 3b bc 5f ec c2 3d b0 01 03 3d
       0.014319779 -0.011470257 0.095177405 0.03198403
000170 a9 b8 4c bc f6 63 b8 3d a5 9d 8b 3d 8b 09 5e bc
       -0.012495198 0.09003441 0.06817178 -0.01355208
000180 4b 8b 35 bc 12 53 e3 bb b5 4d 51 bc 39 84 f3 bc
       -0.011080573 -0.006937393 -0.012774874 -0.029726135
000190 3b 3a 71 bc 0e 4a 3c bc 51 24 24 bc 07 6c 40 bc
       -0.014723356 -0.011492265 -0.010018424 -0.011744506
0001a0 0e f6 32 bc 63 35 11 bc e2 d2 13 bc 20 8d b9 bc
       -0.010922922 -0.008862826 -0.009022446 -0.022650301
0001b0 55 2f 84 bc 04 b6 8e bc b5 51 09 b9 a3 08 90 39
       -0.01613585 -0.017420776 -0.00013095776 0.00027472255
0001c0 07 11 14 bb 54 91 7b 3b 99 af d5 b9 ca d2 8a bb
       -0.0022593157 0.0038386183 -0.00040757356 -0.004236554
0001d0 43 db 07 3c 53 88 bf b9 30 8f aa 3a 06 5c 5a 39
       0.008292022 -0.00036531928 0.0013012644 0.00020824381
0001e0 fe 69 6b 3b bc 76 09 3b 7e 5d 1b 3b 83 7c d3 bb
       0.003592133 0.0020975312 0.0023706849 -0.006454052
0001f0 e9 9f d6 38 24 7a e9 b8 49 05 59 3a 41 69 0b 3a
       0.00010234101 -0.00011133056 0.00082786806 0.0005318113
000200 6b 6f d0 38 b1 05 4b 3a 28 42 9f 3a 55 6e 01 b9
       9.938966e-05 0.00077446835 0.0012150453 -0.000123435
000210 ec 4c c0 3b 56 91 c6 3b b4 94 01 bc 24 b9 d9 ba
       0.005868545 0.006059806 -0.007908989 -0.0016610962
000220 25 d5 86 3b d3 3c cf bb 99 0d b4 bb a2 3d 97 3b
       0.0041147643 -0.0063243895 -0.005494785 0.0046155015
000230 89 32 0a 3b 48 04 41 b9 c9 c7 82 bb b7 18 b4 3b
       0.002108725 -0.00018407509 -0.0039911014 0.0054961103
000240 83 73 12 3b bf 6c 5c 3b 91 12 c5 ba e8 ac e3 3a
       0.0022346682 0.0033634154 -0.001503544 0.0017370256
000250 4b 8a 9f 3a 24 d9 a1 3a ca 62 9b 39 d2 9e d0 3a
       0.0012171952 0.0012348038 0.00029637507 0.0015916473
000260 3b 6e a4 3a 4a 7c 4b 39
       0.0012545058 0.0001940589

exp_avg_sq f4 [7, 22]
000000 ee b4 eb 38 0b 24 0c 39 79 a8 9f 3a 56 00 16 39
       0.00011239374 0.00013364867 0.0012180946 0.0001430524
000010 af de 20 39 47 93 9c 3a e2 b5 6b 39 a8 ad 33 39
       0.00015341745 0.0011945748 0.00022479103 0.00017135462
000020 4a 1e 09 39 c6 21 a7 37 57 fc cc 37 36 3f 39 38
       0.00013076622 1.9923678e-05 2.44362e-05 4.4166307e-05
000030 d6 1e b3 37 28 2a 93 37 fd 49 9a 37 3d 2e 00 38
       2.1352822e-05 1.7543396e-05 1.8392684e-05 3.056064e-05
000040 12 ac 1f 38 e0 3a 87 37 b2 72 f0 37 82 c9 3a 38
       3.8068807e-05 1.612067e-05 2.8663639e-05 4.4533524e-05
000050 25 35 14 38 8e e3 07 38 82 0c ee 39 a1 9f 3e 37
       3.5335444e-05 3.2398435e-05 0.00045404217 1.1362049e-05
000060 e1 08 0b 3b 70 e0 51 39 a6 6c 32 37 f8 c8 1b 3b
       0.002121501 0.00020015403 1.06349235e-05 0.002377091
000070 5e b2 9a 3a ba 81 8a 37 f9 dd 07 38 b8 ad 56 39
       0.0011802425 1.651129e-05 3.2393236e-05 0.00020473346
000080 bb 01 53 38 4b a8 90 38 5f ac 1a 38 4c 1c b3 37
       5.030793e-05 6.897802e-05 3.6876994e-05 2.135164e-05
000090 51 df 32 38 8a 14 33 38 47 82 b4 38 e4 ca 5b 38
       4.2646487e-05 4.2696054e-05 8.607335e-05 5.2402625e-05
0000a0 db ad 4d 38 d4 9b 57 38 4e 04 8f 38 4d 11 24 38
       4.9037724e-05 5.140512e-05 6.819573e-05 3.911676e-05
0000b0 e0 89 45 3a 14 e8 ce 37 fc b5 02 3b ca 03 8f 39
       0.00075354986 2.4665183e-05 0.0019944897 0.00027277909
0000c0 4d 75 39 36 65 ed 22 3b dc 7c 27 3b 60 5d 0f 38
       2.7635426e-06 0.0024860736 0.00255566 3.418082e-05
0000d0 67 39 0d 38 87 bd 09 38 ef 59 6c 39 9c ac a7 38
       3.367048e-05 3.2839856e-05 0.00022540217 7.9953315e-05
0000e0 d6 ea 3a 38 43 a7 fa 37 5b 2e 1e 38 36 a3 22 38
       4.4564564e-05 2.988021e-05 3.7713307e-05 3.8775812e-05
0000f0 56 5b cb 38 18 58 99 38 20 34 0e 38 17 c4 66 38
       9.696807e-05 7.312017e-05 3.3903983e-05 5.5018896e-05
000100 ed 4a bc 38 03 c7 09 38 7f 31 1f 38 85 7f a2 36
       8.9784946e-05 3.284869e-05 3.795465e-05 4.8428215e-06
000110 0d 72 cd 39 96 4e 77 38 ff 28 e4 36 f4 b5 c1 39
       0.0003918562 5.8962578e-05 6.799702e-06 0.00036947394
000120 e0 ef 76 39 66 44 0f 37 61 e3 d1 36 f4 9e 03 37
       0.00023549749 8.5393895e-06 6.2551558e-06 7.845218e-06
000130 d6 7a 68 37 1e c9 82 37 6c 7d ed 36 be 08 24 37
       1.3856878e-05 1.559086e-05 7.0777514e-06 9.777197e-06
000140 5c 1c 7b 37 8e 43 00 37 41 6c 07 37 26 85 69 36
       1.4967369e-05 7.645123e-06 8.071832e-06 3.4797208e-06
000150 44 3c 54 37 86 32 44 37 27 3b 30 37 f1 75 5f 37
       1.2650216e-05 1.1694274e-05 1.050419e-05 1.3319296e-05
000160 e9 5e 6c 39 8e 74 0e 39 7a 82 c9 3b 6e 48 4c 3a
       0.0002254207 0.00013585595 0.006149587 0.0007792775
000170 58 73 41 39 9f 96 b5 3b eb e1 5c 3b dc 06 6e 39
       0.00018448883 0.005541637 0.0033703994 0.00022700004
000180 ad 8c c0 38 90 bc 51 38 7b a3 29 39 99 fd dd 39
       9.181476e-05 5.0005096e-05 0.00016177997 0.0004234135
000190 e0 b4 2c 39 38 16 c0 38 ca 50 f0 38 17 e7 fd 38
       0.0001647058 9.159412e-05 0.0001145914 0.00012107024
0001a0 d7 99 d2 38 48 2d 42 38 9d f6 10 39 4a 4d 6d 39
       0.00010042235 4.6295376e-05 0.00013824781 0.00022630874
0001b0 d0 4b 30 39 89 26 59 39 0a f6 79 39 37 a7 f6 37
       0.0001681291 0.00020709088 0.00023838147 2.940335e-05
0001c0 86 0f 56 3b 72 01 33 3a 3e 00 6a 38 c0 83 37 3b
       0.0032663061 0.00068285235 5.5790173e-05 0.0028002113
0001d0 dd fc 22 3b 4f 66 97 38 a2 a9 21 38 1d eb 2d 38
       0.0024869957 7.2192975e-05 3.8543374e-05 4.146538e-05
0001e0 f5 1d 98 38 f9 fd 13 39 33 0d 4b 38 d9 ac 2a 39
       7.253505e-05 0.00014113625 4.8411264e-05 0.00016276854
0001f0 be fe ab 38 34 82 8f 38 4f 61 5f 38 4b 0c e0 37
       8.201365e-05 6.8430236e-05 5.325797e-05 2.6708605e-05
000200 ef ca be 38 3f 6f ed 38 02 2c 9e 38 dc b8 02 39
       9.097705e-05 0.00011321762 7.542224e-05 0.00012466632
000210 c6 78 9f 39 1b 0f 72 37 25 01 79 3b bd 7e 07 3a
       0.00030416826 1.4427841e-05 0.0037995067 0.0005168727
000220 16 43 f6 37 d3 ae 6a 3b 44 b7 eb 3a 9b b4 12 38
       2.9356725e-05 0.003580977 0.0017983695 3.4977314e-05
000230 d9 a6 32 38 86 e3 3c 38 8e 77 4e 39 be 36 07 39
       4.2593896e-05 4.503459e-05 0.00019690229 0.00012894996
000240 1f 5c 77 38 36 bc 3a 38 bc 75 5c 39 c9 1a 73 38
       5.8975183e-05 4.452114e-05 0.00021024694 5.796066e-05
000250 e5 5d 6f 38 f7 90 cd 37 b8 3a f9 38 e6 14 14 39
       5.7069487e-05 2.4505409e-05 0.000118841825 0.00014122165
000260 59 c0 cf 38 4e d3 21 39
       9.906357e-05 0.00015432874

exp_avg f4 [7, 7]
000000 ab 49 38 b9 37 2a f6 3a ff 78 da 3a d2 77 da 3a
       -0.00017575051 0.0018780892 0.001666814 0.0016667789
000010 e8 05 2f 3c fe 0a b0 3b e3 16 91 3b e9 c2 3b 3b
       0.0106825605 0.005372404 0.004427777 0.002865011
000020 3f eb b8 3a d3 6c 1d 3b ef f5 0e 3b 39 37 5d 3c
       0.0014108195 0.0024021163 0.0021814068 0.013501936
000030 b2 ca ad 3b cf bc c4 3b 11 08 91 3a 7d 0b 3b 3a
       0.005303704 0.006003953 0.0011065026 0.0007135196
000040 ce 32 21 bb 15 0c 36 3a df 2f aa 3b 96 db 1d 3b
       -0.0024596932 0.00069445494 0.005193695 0.0024087182
000050 9f a0 20 3b 52 43 fa 3a cc 03 e8 3a cd f3 c9 3a
       0.00245098 0.0019093549 0.0017701327 0.0015407741
000060 79 7d c7 3a ec ad ea 3b f4 86 93 3b 5e 63 ad 3b
       0.0015219889 0.0071618464 0.0045021717 0.0052913865
000070 b3 91 ed bb 7d df ee bb 70 65 b1 bb 96 4e c2 bb
       -0.0072500347 -0.0072898255 -0.0054137036 -0.0059297783
000080 23 9e 62 bd 77 0a 0e bc 4e 13 e1 bb fa 3f 1e b9
       -0.055326592 -0.008669487 -0.0068687564 -0.00015091887
000090 df 5e f5 39 d6 cd 17 3a a3 4a 94 b9 8c fe 50 3c
       0.00046800726 0.0005790865 -0.00028284368 0.012756001
0000a0 c5 4b 5a bc 6e c9 50 3b 38 06 00 3b 06 c2 a3 3a
       -0.013323729 0.0031858343 0.0019534957 0.0012493737
0000b0 c3 ab b3 3a ce 08 74 39 dd a8 4a 3c aa 1f 83 3b
       0.0013707805 0.00023272933 0.012369362 0.0040015774
0000c0 f3 c2 5f bc
       -0.013657319

exp_avg_sq f4 [7, 7]
000000 64 b7 27 39 28 53 0a 38 c5 7c 51 37 40 cf 82 37
       0.0001599468 3.297921e-05 1.2486421e-05 1.5593716e-05
000010 51 72 53 38 f9 32 07 38 7c b1 b9 37 25 48 d8 37
       5.0412786e-05 3.223398e-05 2.2136366e-05 2.5782801e-05
000020 28 4a e8 39 b8 8c 20 38 b5 49 b8 37 75 68 82 38
       0.0004430574 3.8278027e-05 2.1968832e-05 6.21834e-05
000030 1a a7 17 38 1d b2 0c 38 46 0a b0 37 c4 9d 8c 38
       3.615683e-05 3.3544482e-05 2.0985619e-05 6.705106e-05
000040 68 a3 dc 39 ca 33 8d 37 e3 f5 0b 38 35 98 57 38
       0.00042083417 1.6832626e-05 3.3369182e-05 5.140175e-05
000050 f1 f8 9c 37 8b f3 ba 36 31 1c 4a 37 bc a9 c9 36
       1.8712572e-05 5.571584e-06 1.2046702e-05 6.0100265e-06
000060 4a 18 cd 36 8f eb ab 37 b7 81 af 37 a1 bf 18 38
       6.1123037e-06 2.0494479e-05 2.0922029e-05 3.6418092e-05
000070 20 56 87 38 c6 c9 5e 38 01 80 17 38 a8 0e 87 38
       6.453344e-05 5.311684e-05 3.612042e-05 6.4400316e-05
000080 ab b7 96 3a 45 85 c9 38 54 d9 26 39 59 a7 1c 38
       0.0011498829 9.60925e-05 0.00015911955 3.7349153e-05
000090 e4 4c 52 38 29 70 0f 38 1e 4a 46 38 a1 5b 0e 39
       5.013951e-05 3.4198314e-05 4.7275906e-05 0.0001357631
0000a0 03 6b d0 39 54 12 d2 38 cd d3 06 38 47 aa 04 38
       0.00039752582 0.00010016994 3.2145344e-05 3.1629836e-05
0000b0 44 6b 95 37 ae 24 73 38 1f b5 09 39 50 c9 77 38
       1.7812134e-05 5.7969875e-05 0.00013132811 5.9076876e-05
0000c0 84 5f 40 3a
       0.00073384517

exp_avg f4 [7]
000000 ef fd d0 3c f9 dd 09 3d c3 79 25 3c 62 2a c2 3c
       0.02551171 0.033658955 0.010099831 0.02370185
000010 b3 2a c6 bd c7 5f 53 3b 8e a1 f6 3b
       -0.09676113 0.0032253133 0.007526583

exp_avg_sq f4 [7]
000000 b4 f1 c4 3a cb e1 29 3b 8e f4 35 3b 5f 07 e5 39
       0.0015025646 0.0025921937 0.0027764174 0.00043683776
000010 a5 18 d6 3b c3 ca 68 3b 2c 9b 87 3b
       0.0065336996 0.0035521246 0.004138371

exp_avg f4 [7]
000000 bf 05 d1 3c 78 e3 09 3d c9 76 25 3c 8c 32 c2 3c
       0.025515435 0.033664197 0.010099121 0.023705743
000010 d2 2b c6 bd da 1b 53 3b 73 71 f6 3b
       -0.09676327 0.0032212646 0.0075208484

exp_avg_sq f4 [7]
000000 65 f2 c4 3a 43 e2 29 3b a7 f4 35 3b 7e 0e e5 39
       0.0015025852 0.0025922216 0.0027764232 0.0004368908
000010 fb 18 d6 3b 8c ca 68 3b 4b 9b 87 3b
       0.0065337396 0.0035521118 0.0041383854

exp_avg f4 [7, 22]
000000 b7 e5 09 bc 74 b0 c7 bb 2d c0 d0 3c 0f 67 a2 3b
       -0.008416585 -0.006094033 0.025482262 0.004956133
000010 b5 af f2 bb cc 53 e1 3c 95 48 03 bc c2 2f e2 bb
       -0.0074062 0.027505778 -0.00801291 -0.006902666
000020 f1 2a 99 bb f7 ad ea ba 14 35 41 3a e9 99 04 bc
       -0.0046743085 -0.0017904629 0.0007370275 -0.008093336
000030 67 5c a3 bb 93 b0 3d bb 75 02 8d bb 4f 9b 9f bb
       -0.0049853805 -0.0028944358 -0.0043032714 -0.004870809
000040 60 03 11 bb e1 65 d4 bb 06 81 60 bb 37 86 0a bb
       -0.0022127256 -0.0064818715 -0.0034256591 -0.0021137127
000050 0a 10 86 bb 58 60 38 bb 66 5a ec 3a b6 95 1a 39
       -0.0040912675 -0.0028133597 0.0018032312 0.00014742356
000060 32 c9 10 bc 4f 2a 82 3a 9e fb 2a 38 f2 0a 13 bc
       -0.008837031 0.0009930822 4.0765495e-05 -0.008974778
000070 03 59 54 3b 7b 36 cd 37 1e ac 81 3a a7 b7 2e 3a
       0.0032401688 2.4463274e-05 0.0009893214 0.00066649396
000080 54 d5 8e 3a c9 b8 10 3b 3d 5d b2 3a 4c 78 ef 3a
       0.0010897317 0.0022082797 0.001360811 0.0018270104
000090 a3 9f a5 3a 10 a0 e1 3a ba 77 3c 3a ec 30 22 3b
       0.0012636076 0.001721384 0.00071894715 0.0024748398
0000a0 77 9f a1 3a d5 53 6d 3a 4a f8 96 3a 7f 74 9c 3a
       0.001233085 0.00090533245 0.0011518088 0.0011936574
0000b0 0b 44 29 bc 4d 36 2d 3b 73 a2 72 3c 2c 79 5d bc
       -0.010331164 0.002643007 0.014809239 -0.013517659
0000c0 8e 42 9f 3a 0b 39 73 3c 39 c9 be bc b4 4d 0a 3b
       0.0012150572 0.014845143 -0.02328931 0.0021103444
0000d0 af 2c bd b8 da c7 d0 ba 33 11 e4 bb fc 1a 0d bb
       -9.020545e-05 -0.0015928701 -0.006960058 -0.0021530977
0000e0 d7 96 31 bb a6 69 26 3a 47 e6 54 bb 57 db 9b bb
       -0.0027097964 0.00063481403 -0.0032485889 -0.004756372
0000f0 d8 ff 50 ba 95 74 aa bb ef 51 c3 ba e2 b2 a3 ba
       -0.0007972694 -0.005201886 -0.0014901737 -0.0012489224
000100 f6 17 1b ba 76 e4 05 bb 9a 58 28 bc 5d a8 ec 3a
       -0.0005916351 -0.0020430363 -0.0102750305 0.0018055547
000110 47 16 0f bb db 63 3d bc 39 f5 62 3b 25 80 ea ba
       -0.0021833347 -0.011559452 0.0034631027 -0.0017890973
000120 2e ea d0 bc 5a a3 eb 3a ff de 3f ba 73 17 c8 b9
       -0.02550229 0.001797776 -0.0007319301 -0.00038164444
000130 33 53 23 ba cb 64 96 ba d7 55 1e b9 3d 88 1b 3a
       -0.0006230354 -0.001147413 -0.00015100032 0.0005933082
000140 79 74 9e 3a 59 c6 76 ba dd fb 8f b9 1a 84 12 3a
       0.0012089155 -0.00094137114 -0.00027462738 0.00055891427
000150 85 52 ba b9 33 85 74 ba 22 ad b5 39 6e 6c bc 39
       -0.00035538166 -0.00093277096 0.00034652004 0.0003593894
000160 f0 5e b7 3b 62 37 17 39 6d aa 99 bc 03 5c 80 3b
       0.005596034 0.00014421114 -0.018758023 0.0039172187
000170 ba 35 81 37 27 76 9d bc 71 6b 2e 3c 96 d9 b1 37
       1.5403017e-05 -0.019221378 0.010645733 2.1201366e-05
000180 df 82 f5 3a 85 6c f1 3a 30 9f 30 3b 7c 69 9e 3b
       0.0018731019 0.0018419182 0.0026950352 0.004834352
000190 1e 60 55 3b 46 8d 4a 3b 1d 75 2b 3b 9f 15 80 3b
       0.003255851 0.003090696 0.0026162334 0.0039088274
0001a0 84 f5 c5 3a 58 15 b1 3b 4c 27 28 3b 6b 0f 03 3b
       0.0015103077 0.0054041557 0.0025658188 0.0019998203
0001b0 40 6b 15 3b 9a d4 25 3b 3f bc 63 3c 24 54 d3 39
       0.0022799522 0.0025303722 0.013899862 0.00040307746
0001c0 b3 96 fa 3b e9 87 1c 3c 86 ce 0e 3b 37 49 f2 3b
       0.0076473593 0.009553888 0.0021790578 0.007393982
0001d0 f3 76 d0 3c 68 e4 0e 3b 70 25 18 b9 2c b1 12 ba
       0.025447344 0.0021803621 -0.00014509796 -0.00055958587
0001e0 6a 83 e7 39 c5 3a 75 ba 9c a0 32 3a 11 88 c4 bb
       0.00044157665 -0.00093547656 0.0006814094 -0.0059976657
0001f0 6f a6 a3 b9 bf 42 db 39 65 3d 1d ba f3 40 04 bb
       -0.00031213785 0.00041820665 -0.0005998223 -0.0020180314
000200 fc e3 a2 ba 4f 8f e5 b9 b9 d0 d5 ba 47 5e ad ba
       -0.0012427564 -0.00043785057 -0.0016312815 -0.0013226949
000210 62 79 1e 3c c9 a6 d0 b9 29 3a 34 bc f3 14 23 3c
       0.009672495 -0.00039797116 -0.011000195 0.009953725
000220 8d 27 19 39 33 d1 47 bc 90 45 b9 3c 26 24 83 b7
       0.00014605951 -0.012195873 0.022616178 -1.563325e-05
000230 8b 21 ad 3a 88 88 8a 3a 01 b3 46 3b 06 55 6d 3b
       0.0013208849 0.0010569254 0.0030319097 0.0036214008
000240 e5 fa 14 3b d0 fd 09 38 11 a2 d1 3a bd e1 75 3b
       0.0022732553 3.2899727e-05 0.0015993734 0.0037518584
000250 50 30 65 3a 97 7b 71 3b 03 41 ba 3a 12 10 8b 3a
       0.0008742856 0.0036847347 0.0014210049 0.0010609648
000260 21 a5 83 3a fb 40 95 3a
       0.0010043719 0.0011387164
