data_10frm/model/0_0_1_0.pt (torch_old, 18375 bytes, 52 tensors)

rnn.weight_ih f4 [7, 22]
000000 aa 67 8e 3e e9 b8 13 be 6f ee 34 bc b7 29 70 3e
       0.27813464 -0.14426006 -0.011043175 0.23453413
000010 8a 38 bf be fe 6e 93 3e 89 8a ad 3c 90 87 2c 3e
       -0.37347823 0.28795618 0.021184223 0.16848588
000020 cc d1 81 3c c1 60 cc bd c1 26 30 3d 52 94 4f bd
       0.01584711 -0.09979392 0.04300571 -0.05067856
000030 3d 63 81 3d 5b 9c 62 be a4 55 e9 bd 84 ca d1 bd
       0.06317756 -0.22129957 -0.11393288 -0.10243705
000040 e4 4c cd bb de 29 8f bd c8 27 8d 3e 32 dd 65 3d
       -0.0062652696 -0.069904074 0.27569413 0.05611915
000050 79 70 4e be f8 1e 97 be 59 a7 c9 bc 1e a6 21 be
       -0.20160092 -0.29515815 -0.02461593 -0.15786025
000060 39 77 90 3c f9 5a da 3d 09 f2 34 3e 3d e3 b0 3e
       0.017634975 0.10661883 0.17670454 0.3454837
000070 7d 88 9c be f3 12 36 3e da dc 09 bd c2 87 67 3e
       -0.30572882 0.17780666 -0.033657886 0.22610381
000080 2d 0d 08 3e aa 49 f5 be dd 2d fb be 0e 4d a3 be
       0.13286276 -0.47907764 -0.49058428 -0.31894726
000090 b5 c2 45 3e 5c 2a 4f be 7d 8f 0a 3d 2b 58 a1 be
       0.19312556 -0.20231003 0.033828247 -0.3151258
0000a0 57 1e 66 3e 1d f8 96 be 6c 8c 0e 3e 44 fe 08 be
       0.22472511 -0.2948617 0.13920754 -0.13378245
0000b0 a9 14 90 be 78 85 c8 3d da 6a 4f be 0c 54 ce 3d
       -0.28140762 0.09791082 -0.20255604 0.100746244
0000c0 d3 9f c1 bd 07 f8 31 bd 4d 74 c8 be 9c d0 2e be
       -0.09454312 -0.043449428 -0.3915123 -0.17071766
0000d0 8a 96 4e 3e a2 84 e7 bd 02 7d d1 3e b0 e1 94 3e
       0.20174614 -0.113045946 0.40915686 0.29078436
0000e0 75 1d f6 bc e4 f7 82 be 35 6d 64 3e 44 b8 f1 3d
       -0.030043343 -0.2557975 0.22307284 0.11802724
0000f0 dd 41 70 be f1 3c 78 3e 17 10 6a 3e 68 22 ac 3e
       -0.23462625 0.24241997 0.228577 0.3362
000100 05 71 5e be 27 15 69 bd 47 4b a5 bd 25 39 02 3e
       -0.21722801 -0.056904938 -0.08070999 0.12717111
000110 c1 d8 9a be a6 c7 96 be d8 80 82 3e 39 c4 d0 bd
       -0.30243495 -0.29449195 0.25488925 -0.101936765
000120 2f c4 16 3e 9f bc 8b 3d fc 52 10 3e 83 a1 e1 3d
       0.14723276 0.06823086 0.14094156 0.11017134
000130 8a a1 15 3e 68 34 58 3e 61 98 a9 be 20 87 40 3e
       0.14612404 0.21113741 -0.33124068 0.18801546
000140 f4 c5 8b be 30 d6 8a be 54 78 36 3d 15 6b 3c bd
       -0.27299464 -0.27116537 0.044548348 -0.04600056
000150 90 06 67 3e 22 23 4a be 07 b0 a7 be 19 04 93 3e
       0.22561097 -0.19739965 -0.32751486 0.28714064
000160 85 8f 07 bd 7a e7 85 3e a8 cf 24 3e 9b db 84 be
       -0.033095855 0.26153165 0.1609484 -0.25948796
000170 03 a5 02 3d 6e 60 05 3e 70 a6 5e be 64 25 38 be
       0.03189565 0.13025066 -0.21743178 -0.17983013
000180 2d a0 bf 3d 2a ef 89 3c e1 57 4f be f3 e4 2b be
       0.09356723 0.016837675 -0.20248367 -0.16786556
000190 b0 10 a4 3e 64 01 d6 bd b5 08 25 3e 19 75 03 3e
       0.32043982 -0.10449484 0.16116603 0.12837638
0001a0 0e 84 93 be 50 42 ba be 6f d2 a7 3e 7c 12 e7 bc
       -0.28811687 -0.36378717 0.32777736 -0.028207056
0001b0 74 61 62 3e 0a 9c 1a 3d 88 b1 38 3e aa 9d 54 3e
       0.22107488 0.037746467 0.18036473 0.20763269
0001c0 da 58 cd 3e 48 22 43 be da 73 e2 bc 8a 0e a6 3e
       0.4010685 -0.19056046 -0.027643133 0.32432967
0001d0 80 4c b8 3e 76 a8 08 3e 2e 8c a7 be 00 03 a4 be
       0.35995865 0.13345513 -0.32724136 -0.3203354
0001e0 72 e9 8b be cb ca 34 bc 1e b8 a3 3e 41 39 88 be
       -0.27326542 -0.011034678 0.31976408 -0.2660618
0001f0 21 07 24 3e 70 18 80 be 5d 65 cd be dc 9a fd bd
       0.16018344 -0.25018644 -0.40116397 -0.12383053
000200 aa cf 35 3e 86 b9 9b 3e 9d 70 8b be 7e 39 0c 3d
       0.17754999 0.3041498 -0.27234355 0.034234516
000210 71 bc e2 3e 11 33 38 3e 04 94 82 3e a6 92 c4 3e
       0.44284394 0.1798823 0.25503552 0.38393134
000220 6a 8f f1 3d 8c 26 ec 3d 12 62 06 be c6 5e e0 be
       0.11794932 0.1153079 -0.13123348 -0.43822306
000230 20 0e 59 be 3e e5 7d bd 30 9c 84 be 93 d3 fe 3d
       -0.21196795 -0.0619862 -0.25900412 0.12442698
000240 a6 35 c4 3d e0 1e df bd 99 bd 0d 3e 28 89 d7 3d
       0.09580545 -0.10894561 0.13841857 0.10524207
000250 ae b7 50 3e d8 1f 70 3e fd d9 13 be 80 25 b2 3e
       0.20382568 0.23449647 -0.14438625 0.34794235
000260 84 0b 6c bd ee fc d9 bc
       -0.05762817 -0.026609864

rnn.weight_hh f4 [7, 7]
000000 96 5f c2 be 4d ea 97 be d1 8a 92 be a4 a2 5d be
       -0.3796355 -0.29670945 -0.28621534 -0.21644074
000010 86 37 43 3e 62 57 4d be 0e 69 bb be 44 90 7c 3c
       0.1906415 -0.20052865 -0.36603588 0.015415255
000020 5a 0d 08 bb b7 43 0a 3e de f0 a0 be 67 27 17 bd
       -0.0020759911 0.13502394 -0.31433767 -0.03690281
000030 48 be 86 be 4e 22 61 be e2 87 a0 be c7 6d 25 be
       -0.26317048 -0.21985742 -0.3135367 -0.16155158
000040 84 22 a1 bd 2d 26 0a 3e 4b e6 2c 3d f4 36 59 3d
       -0.078679115 0.13491125 0.042211812 0.053030923
000050 54 28 bd 3e 8c ec bb 3e b0 ab 8e 3e 62 7f 8f 3c
       0.3694483 0.36703908 0.27865362 0.017516796
000060 7d 7a 68 be 59 3e 9e 3e 3b d9 fe bd ef aa 42 bd
       -0.22702976 0.30906942 -0.12443777 -0.047526296
000070 10 e1 b9 be d4 5b ef bd 3e 53 99 be f3 38 8f 3e
       -0.36304522 -0.11687437 -0.2994632 0.27973136
000080 c4 18 ac be 5b 41 b0 be 01 7d 95 bd 71 93 82 be
       -0.33612645 -0.34424862 -0.07299233 -0.25503114
000090 8c 03 a3 3d 6a 86 54 be dd 67 76 be 09 a6 5d bd
       0.07959661 -0.207544 -0.24063058 -0.05411342
0000a0 7b 18 84 3e 79 b4 b4 be 0d da 0e 3e fb 79 5a 3e
       0.25799927 -0.3529394 0.13950367 0.21335594
0000b0 e5 f2 ae 3e 66 c2 95 be 93 ac 63 3d 13 c2 9e be
       0.3416969 -0.29249877 0.0555845 -0.31007442
0000c0 ff bd a7 3e
       0.32762143

rnn.bias_ih f4 [7]
000000 7b 84 55 be 2d f9 b4 3d 69 6e 5e 3c d3 fa 73 bc
       -0.20851319 0.08836589 0.0135761285 -0.014891344
000010 cd 5c 56 bd a1 82 ab 3c f6 ea 23 3e
       -0.052334595 0.020936312 0.16007599

rnn.bias_hh f4 [7]
000000 17 06 ac ba c7 8f c4 bc fc df ac be b3 6b 94 3e
       -0.0013124374 -0.02399434 -0.33764637 0.28988418
000010 b1 17 94 3e e0 c3 89 3e 57 c9 85 3e
       0.28924325 0.26907253 0.26130173

exp_avg f4 [7, 22]
000000 b7 b4 29 39 ca 76 22 ba d2 23 ff bb cb 3c a1 ba
       0.00016184417 -0.00061975105 -0.0077862525 -0.0012301443
000010 3b f7 b4 b9 33 cf fd bb 50 b8 dd ba f4 d6 c9 b9
       -0.00034516476 -0.0077456473 -0.0016915891 -0.0003849786
000020 c6 7a 92 39 94 31 83 3a 54 04 a8 3a f7 6e e2 3a
       0.00027938763 0.0010009282 0.0012818673 0.0017275502
000030 18 70 97 3a cf 08 9c 3a 64 ef a8 3a 49 4f 34 3a
       0.0011553792 0.0011904481 0.0012888727 0.00068782695
000040 e5 ad 57 3a dc 53 bc 3a 4f 42 02 3b 50 4a 86 3a
       0.00082275114 0.0014368254 0.0019875949 0.0010245536
000050 a4 1b 2c 3a bd 7f ab 3a d5 86 02 38 4a 6f 4c ba
       0.0006565398 0.0013084334 3.1119987e-05 -0.0007798566
000060 b1 0f a8 bc 1e a1 73 bb 26 f7 fd 38 93 2b a8 bc
       -0.020515295 -0.003717489 0.00012110015 -0.02052859
000070 5a 59 98 bb 2e d0 36 39 5e 16 2b 3b 4e 02 48 3b
       -0.0046493234 0.00017434426 0.0026105861 0.0030518952
000080 3c 15 79 3b 90 bd 62 3b f1 d8 2e 3b 8a 79 19 3b
       0.0038007041 0.0034597851 0.00266796 0.002341839
000090 ec d3 4f 3b 53 ac de 3a b0 41 2c 3b 01 33 6f 3b
       0.0031712009 0.0016988612 0.002628427 0.0036498907
0000a0 b6 60 b3 3b b8 d6 2f 3b c8 fb d5 3a 7b d6 5a 3b
       0.0054741753 0.0026830863 0.0016325647 0.0033392
0000b0 b9 c9 23 3c 40 c2 9c 3b bd 54 b8 3a b7 4a a9 3b
       0.009996825 0.0047838986 0.001406334 0.0051663774
0000c0 17 cb e7 39 62 36 b5 3a 3f 00 92 3c 43 00 0d 3a
       0.00044211067 0.0013825411 0.017822383 0.0005378762
0000d0 cb 8b 7f ba ef 63 29 b9 d7 a5 88 bb 6f 5b 7d 3a
       -0.0009748309 -0.00016154324 -0.0041701603 0.0009664809
0000e0 8f 1e 94 38 b2 84 c1 3a 81 0a 06 3a f2 70 34 39
       7.062882e-05 0.0014764278 0.00051132595 0.00017208213
0000f0 23 f1 9a ba ba 1f 80 ba 9d bf 86 b9 98 2d b9 b9
       -0.0011821132 -0.000977508 -0.00025701235 -0.0003531992
000100 88 e7 ef 39 6b 84 17 b9 a9 08 9c 3b 88 55 42 ba
       0.00045758137 -0.00014449812 0.0047617746 -0.0007413258
000110 c8 6d 57 bc a3 a4 0d 3b b6 0a 9a b9 e8 7e 6a bc
       -0.0131487325 0.0021613024 -0.0002938115 -0.014312483
000120 f3 78 10 3c 68 25 b4 b8 da c8 0c 3b 40 a4 84 3a
       0.008817899 -8.590036e-05 0.0021482022 0.0010119751
000130 d6 a8 22 3b 2c 66 ab 3a 97 a2 a0 3a 94 49 34 3b
       0.0024819872 0.0013076714 0.0012255487 0.0027509676
000140 66 e2 4a 3b 52 96 98 3a ad 9b 6d 3a cb eb 05 3b
       0.0030957698 0.0011641479 0.000906403 0.0020434733
000150 f3 b0 9a 3b f9 91 9c 3a 29 41 ba 3a 84 3e 28 3b
       0.004720801 0.0011945359 0.0014210093 0.0025672028
000160 f5 d7 1b bb 7a 47 49 ba 8c aa cb 3b f0 42 8d 3a
       -0.0023779843 -0.00076781923 0.006215399 0.0010777395
000170 41 a4 e5 b9 c0 bf c7 3b bc 4f 57 bb ba bf a6 b9
       -0.00043800662 0.0060958564 -0.0032853922 -0.00031804835
000180 c6 cf bd b9 93 6a 8f ba 6d 6d cd ba 46 08 08 b9
       -0.00036203692 -0.0010941796 -0.001567287 -0.00012973053
000190 4f b1 92 ba 9e 81 97 b9 84 c2 c2 ba ab 03 26 ba
       -0.0011191758 -0.00028897537 -0.0014858996 -0.0006332944
0001a0 b9 e2 0a ba 64 fe 36 ba 7c f7 10 bb bc a5 fb b9
       -0.00052980665 -0.0006980656 -0.0022120168 -0.00047997932
0001b0 d3 b3 03 ba a8 17 82 ba e4 de 79 bb 09 3a 28 3a
       -0.00050240493 -0.0009925263 -0.0038127238 0.00064173393
0001c0 5e b1 ab 3c c3 09 12 3a c1 5e fe 39 d3 46 ae 3c
       0.020958599 0.00055709126 0.00048517252 0.021274006
0001d0 3d 12 6e bb 20 05 2a 3a 4d cb 85 ba b0 04 1b bb
       -0.0036326789 0.0006485749 -0.0010207683 -0.0023653917
0001e0 d3 59 0e bb 6e 5a 4e bb 88 86 9d ba dd 90 d4 bb
       -0.002172102 -0.0031487006 -0.0012018243 -0.0064869956
0001f0 ff 27 9d bb 81 37 f4 ba 07 99 fe ba 5f c1 5c bb
       -0.0047960277 -0.0018632264 -0.0019424268 -0.0033684594
000200 15 50 c8 bb 4e 1f 20 bb b7 3a 1a bb ad 94 4b bb
       -0.006113062 -0.0024432722 -0.0023533532 -0.003106396
000210 3d 49 2d bc 5d ad 33 bb bd 1e d7 3c 13 d5 3e bb
       -0.010576543 -0.0027416565 0.026259774 -0.0029118701
000220 a3 cb 3e b9 5a 85 e1 3c a5 f3 6a bc c5 ee 85 ba
       -0.00018195673 0.027529407 -0.014340316 -0.0010218254
000230 69 14 8f bb 84 4d 3b bb 6d 04 d7 ba 33 0e ef bb
       -0.0043664468 -0.0028580138 -0.0016404517 -0.007295394
000240 eb 67 96 bb 1d d5 61 bb f4 86 52 bb 68 17 1d bb
       -0.0045900247 -0.00344593 -0.0032123895 -0.002397025
000250 da c7 07 bb 0f 78 8f bb c1 f1 f1 bb 3c 4f 59 bb
       -0.0020718486 -0.004378326 -0.0073835556 -0.00331588
000260 16 ca 27 bb 77 70 ad bb
       -0.002560263 -0.005292948

exp_avg_sq f4 [7, 22]
000000 48 d4 4a 35 f2 bf f9 34 5a f2 9f 37 02 cd 22 35
       7.5559774e-07 4.6519523e-07 1.906713e-05 6.064803e-07
000010 58 48 91 34 09 17 a3 37 2a 4f 04 36 67 bc d7 34
       2.7060992e-07 1.944184e-05 1.9715612e-06 4.0183951e-07
000020 0c 8e cb 35 25 72 03 35 89 3f f3 34 ae 68 d9 34
       1.516602e-06 4.8967405e-07 4.5308505e-07 4.0495564e-07
000030 fd 0c bc 34 56 c0 3e 34 d5 53 a0 34 47 86 05 34
       3.502718e-07 1.77651e-07 2.9863318e-07 1.243544e-07
000040 d8 9c f0 34 50 5e f3 34 e3 27 d2 35 4e 33 ab 34
       4.4817602e-07 4.5330899e-07 1.5657828e-06 3.188856e-07
000050 22 e0 06 34 77 9f fa 34 a6 42 ad 35 1b fd b6 34
       1.2561262e-07 4.6682155e-07 1.2908902e-06 3.40843e-07
000060 03 05 12 38 05 7a 34 36 2a e8 55 33 db 06 0e 38
       3.481378e-05 2.6893115e-06 4.980408e-08 3.3861823e-05
000070 f0 07 1f 37 02 3a 95 33 12 58 3c 35 ba 2e 7a 35
       9.478987e-06 6.948905e-08 7.0163617e-07 9.3200254e-07
000080 cd 57 d2 35 15 55 67 35 b5 1e 52 35 d0 f8 d4 34
       1.5671773e-06 8.6178017e-07 7.827578e-07 3.9669112e-07
000090 40 af 78 35 a1 7b 81 34 53 80 81 35 a0 36 8f 35
       9.264222e-07 2.4118074e-07 9.648596e-07 1.0670228e-06
0000a0 6b 65 07 36 12 ca 26 35 1d b1 45 34 95 7e 80 35
       2.01756e-06 6.213387e-07 1.8411488e-07 9.573583e-07
0000b0 7d 1b 58 37 ea ef 91 36 0c ac a3 39 b1 cc db 37
       1.2881003e-05 4.3492664e-06 0.00031217968 2.6202151e-05
0000c0 40 8e 1e 34 60 8d a0 39 5b 42 e1 38 d3 74 4d 34
       1.4766647e-07 0.0003062291 0.00010741196 1.9134613e-07
0000d0 f2 86 a3 36 57 58 b9 36 79 2c d3 37 ca bd fb 36
       4.8734883e-06 5.5237138e-06 2.517387e-05 7.5024773e-06
0000e0 67 14 b6 36 4f c3 58 36 24 71 b5 36 49 b3 08 36
       5.426398e-06 3.2300193e-06 5.4073917e-06 2.0369937e-06
0000f0 16 13 18 37 ba 03 27 37 7b 31 9e 37 cb 6d bf 36
       9.06435e-06 9.954843e-06 1.8858109e-05 5.705025e-06
000100 d2 31 c4 35 40 b3 10 37 88 30 fe 36 b6 f4 a6 35
       1.4617638e-06 8.624804e-06 7.5754397e-06 1.2439184e-06
000110 61 43 9f 39 a9 3f fa 37 b4 53 1d 35 80 13 94 39
       0.00030377044 2.9831966e-05 5.860886e-07 0.00028243288
000120 fd 3a b9 38 5d bc 3d 35 9b e8 9b 36 5d 7c 7c 37
       8.832475e-05 7.068209e-07 4.646439e-06 1.5049326e-05
000130 d4 64 ab 36 5b 4d 3d 37 52 42 eb 36 ff 82 2d 36
       5.107935e-06 1.1283289e-05 7.0112665e-06 2.5855259e-06
000140 40 73 de 36 ba e3 0b 36 86 fb 1b 37 53 86 22 37
       6.6295324e-06 2.0845168e-06 9.297282e-06 9.687227e-06
000150 33 29 57 37 5c 58 e3 36 e6 04 cf 35 49 8f 05 37
       1.2824591e-05 6.7754136e-06 1.5424127e-06 7.960779e-06
000160 51 cb df 35 e8 c6 f8 34 87 df 06 39 65 f7 db 36
       1.6673968e-06 4.6338323e-07 0.00012862506 6.555509e-06
000170 c8 b2 a5 33 73 d3 01 39 85 b9 0f 37 72 62 28 34
       7.7159314e-08 0.0001238117 8.566659e-06 1.5682033e-07
000180 95 9c 37 36 e8 80 52 36 17 37 2e 36 53 a4 2a 36
       2.7360268e-06 3.1367472e-06 2.5960087e-06 2.5427623e-06
000190 76 bf d4 36 3f 7b b9 35 22 63 20 36 f2 b4 8e 35
       6.3403813e-06 1.3819443e-06 2.389956e-06 1.0632486e-06
0001a0 71 03 4c 36 85 4f 67 36 b3 62 06 37 c1 f2 fb 35
       3.0400372e-06 3.4467969e-06 8.010003e-06 1.8771608e-06
0001b0 48 73 49 35 ea d8 64 36 de 2e 09 36 4f ec 58 34
       7.504609e-07 3.4100908e-06 2.044187e-06 2.0202536e-07
0001c0 13 1c 95 38 c5 90 03 35 c1 b5 6d 33 da b0 98 38
       7.110103e-05 4.901197e-07 5.5346167e-08 7.280866e-05
0001d0 8f 98 e3 35 c3 f7 f8 33 ea ef 04 35 92 0a 8e 35
       1.6957218e-06 1.15934675e-07 4.9522953e-07 1.0582901e-06
0001e0 ba 72 7e 35 7a 00 09 36 25 74 47 35 5b 57 be 36
       9.478932e-07 2.0414868e-06 7.430229e-07 5.6726108e-06
0001f0 8a d4 47 36 09 a9 14 35 f8 80 81 35 94 38 01 36
       2.9777025e-06 5.5380275e-07 9.648784e-07 1.925543e-06
000200 a4 44 bb 36 02 a7 8a 35 a0 d0 3b 35 87 e4 e2 35
       5.581025e-06 1.0330407e-06 6.996652e-07 1.6904822e-06
000210 00 11 f6 37 97 12 f3 35 1e 99 b1 39 45 a7 08 37
       2.9333401e-05 1.8110321e-06 0.00033874152 8.145177e-06
000220 8c 79 5b 35 62 63 bd 39 dd 48 85 38 2d d3 b2 35
       8.176073e-07 0.00036122935 6.355506e-05 1.3323494e-06
000230 43 2d b9 36 39 22 ca 36 94 bf a1 36 f8 67 7e 37
       5.518699e-06 6.024053e-06 4.8204765e-06 1.5163787e-05
000240 2c f5 05 37 19 6d a8 36 e0 01 9d 37 bd dd 35 36
       7.984501e-06 5.019491e-06 1.8716732e-05 2.710017e-06
000250 9f 84 97 36 0a 05 23 37 ab c3 d6 37 e8 5b b8 36
       4.51559e-06 9.71673e-06 2.5601903e-05 5.4943266e-06
000260 15 2c 3a 36 8d 90 44 37
       2.774182e-06 1.1716166e-05

exp_avg f4 [7, 7]
000000 2d 0a 94 b9 02 d6 f0 39 30 58 c8 3a 79 b1 da 3a
       -0.0002823634 0.00045935815 0.0015285071 0.0016684971
000010 94 10 cf 3a 9d 3d ba 3a 51 a7 c9 3a fc ac b7 3a
       0.0015797787 0.0014209036 0.0015384947 0.0014013345
000020 ae 2a e1 3a 23 0d aa 3b a3 22 8d 3b 2c ed 38 3b
       0.0017178857 0.0051895543 0.0043071075 0.0028217537
000030 e0 a4 23 3b 09 bd 4f 3b 3f fa 96 39 ce 2c 83 ba
       0.00249701 0.0031698367 0.00028796677 -0.001000786
000040 da bf 26 bc 6d b2 cb 3a 50 9c 01 3b b4 84 64 3b
       -0.010177577 0.0015540846 0.0019777007 0.0034869136
000050 21 99 cf 3a e8 4e 8a 3a bf 6e 2b 3a e3 5f 3e 3b
       0.0015838483 0.001055208 0.0006539635 0.0029048852
000060 7e 04 66 bb f4 4f d0 3a a6 64 a2 3b 20 f2 d0 3b
       -0.0035097892 0.0015892969 0.004955846 0.00637652
000070 c3 06 4d ba f2 43 14 ba 02 eb c6 39 3a 24 81 37
       -0.0007821137 -0.00056558766 0.00037940597 1.5394868e-05
000080 82 7a d2 bb c9 18 96 39 78 fb 86 3a d1 21 5a ba
       -0.0064232955 0.00028628696 0.0010298332 -0.0008321079
000090 e8 c3 5c ba ae 30 96 ba d2 14 16 bb 2b d0 6d ba
       -0.0008421526 -0.00114586 -0.0022900593 -0.0009071852
0000a0 c0 60 75 bc 78 92 4f b9 0d be ab ba 0e 23 89 ba
       -0.01497668 -0.00019795622 -0.0013102904 -0.0010462718
0000b0 91 7a aa ba 9c be 6e bb f5 3d 08 bb 1c 55 e2 b9
       -0.0013006498 -0.003642953 -0.0020788882 -0.0004316949
0000c0 1a 1a 90 bc
       -0.017590571

exp_avg_sq f4 [7, 7]
000000 07 56 bc 35 5f e6 80 34 8d 50 07 35 8a 21 9e 35
       1.4032129e-06 2.4009475e-07 5.0408636e-07 1.1781678e-06
000010 06 88 dc 34 d6 71 3f 34 c1 18 e3 34 05 21 93 34
       4.1077163e-07 1.7829674e-07 4.2300056e-07 2.7404909e-07
000020 ea e2 fe 34 34 34 6e 36 33 c4 13 36 06 c8 66 35
       4.7476289e-07 3.549515e-06 2.201891e-06 8.597275e-07
000030 22 de 01 35 c1 4b 99 35 f5 7e 80 35 b7 aa 91 36
       4.837949e-07 1.1421436e-06 9.573693e-07 4.3412106e-06
000040 8f ed 5f 38 90 78 5b 37 30 70 85 36 ea e2 ea 35
       5.3388587e-05 1.3081488e-05 3.976769e-06 1.7500399e-06
000050 3f e6 aa 36 69 cc 80 35 4c 7b 82 36 8e c3 d6 36
       5.093199e-06 9.596234e-07 3.8886556e-06 6.4004626e-06
000060 32 5d 68 38 ba 90 69 36 5d 58 0e 36 88 cb 2a 37
       5.5399905e-05 3.4803948e-06 2.1211083e-06 1.0180178e-05
000070 a8 fd 3b 35 02 e4 c1 35 16 b6 1b 36 18 f1 c3 36
       7.0032047e-07 1.444598e-06 2.3202788e-06 5.83952e-06
000080 ce 3c 7f 37 46 92 14 35 21 78 36 36 08 01 47 34
       1.5213342e-05 5.534715e-07 2.7190038e-06 1.8533694e-07
000090 9b 5a 90 34 3b 54 1d 35 7f 19 e5 35 5b bc e9 34
       2.6888014e-07 5.860963e-07 1.706925e-06 4.353668e-07
0000a0 e1 7b a1 37 b7 c9 83 35 a4 d2 bd 35 d0 b5 00 36
       1.9250381e-05 9.818967e-07 1.4142902e-06 1.9179315e-06
0000b0 06 61 d1 36 49 48 5c 37 1e 91 93 36 c4 88 36 36
       6.2399804e-06 1.3129852e-05 4.3978353e-06 2.7199721e-06
0000c0 b7 c0 7b 38
       6.0022543e-05

exp_avg f4 [7]
000000 04 d8 01 3c 47 ee ac 3c 2c f7 15 bb 0b b5 65 3c
       0.007925037 0.021109713 -0.0022882922 0.014020215
000010 84 34 c6 bb 2e 8b ad bc 21 7f e0 bc
       -0.006048741 -0.02118453 -0.02740437

exp_avg_sq f4 [7]
000000 04 16 ab 37 4e 46 1a 38 6a 0a af 39 a6 94 a4 39
       2.039504e-05 3.6781938e-05 0.0003338636 0.0003139127
000010 44 d7 09 39 65 73 9a 38 ba 6a c3 39
       0.00013145531 7.364786e-05 0.00037272816

exp_avg f4 [7]
000000 34 e0 01 3c 11 ec ac 3c b1 2e 16 bb 17 c1 65 3c
       0.007926989 0.021108659 -0.0022916014 0.014023087
000010 88 19 c6 bb 47 86 ad bc 22 7d e0 bc
       -0.006045524 -0.021182192 -0.027403418

exp_avg_sq f4 [7]
000000 67 17 ab 37 e1 44 1a 38 89 0a af 39 7e 94 a4 39
       2.0395686e-05 3.678061e-05 0.0003338645 0.00031391153
000010 1c d7 09 39 bd 72 9a 38 a3 6a c3 39
       0.00013145473 7.364664e-05 0.0003727275

exp_avg f4 [7, 22]
000000 67 d2 af 38 c3 fa bc 3a fe 7d 16 bc 0f 8d ae ba
       8.383841e-05 0.0014417995 -0.009185312 -0.0013317185
000010 8a 2e af 3a 80 17 15 bc da 96 fe ba 12 e8 d4 3a
       0.001336531 -0.009099841 -0.0019423619 0.0016243479
000020 f8 18 43 3a 16 2c 99 3a 8b af c7 3a 55 70 0d 3b
       0.00074423803 0.0011686112 0.0015234811 0.0021581848
000030 f1 a8 cf 3a 55 54 79 3a 64 f8 a8 3a 80 6a 77 3a
       0.0015843195 0.00095111626 0.0012891409 0.0009438172
000040 f8 c5 2e 3b 55 f5 3b 3a 58 f7 25 3b b9 27 48 3a
       0.0026668292 0.0007170041 0.002532443 0.00076353137
000050 1c 64 7f 3a ef e7 57 3a c2 34 70 bc d2 a3 2d bb
       0.00097423955 0.000823616 -0.014661016 -0.002649535
000060 84 52 07 3b a1 11 29 bc 2a 14 b6 3a 12 ca b8 3b
       0.0020648548 -0.010319144 0.0013891507 0.005639323
000070 81 3a 0d bd 72 b8 59 bb 9f d9 4d 3a ba 4b 05 bc
       -0.03447962 -0.003322151 0.00078525575 -0.00813573
000080 50 4a ec 38 7b 22 41 3b 08 7c 55 39 4f 74 43 3a
       0.00011267199 0.0029470015 0.00020359468 0.0007455991
000090 e3 ce ec ba bb ed 2a 38 b6 71 e1 ba 4a f4 22 ba
       -0.0018067028 4.0752562e-05 -0.0017200026 -0.00062162115
0000a0 36 bd 40 ba 5d ba d1 b9 02 b6 b4 b7 a0 15 dd ba
       -0.00073524134 -0.00040002438 -2.1542426e-05 -0.0016867407
0000b0 29 7f 4b 3a 25 d6 a8 3a 7e 8d b4 bb a7 e7 b9 b9
       0.0007762784 0.0012881203 -0.0055100312 -0.00035458544
0000c0 27 5f 84 3a 28 8d b8 bb ca c7 0c 3a 14 03 b3 3a
       0.0010099158 -0.0056320615 0.0005370347 0.0013657534
0000d0 fa 0d 46 3a 61 06 8f 3a 42 02 60 3a 1a 71 6f 3a
       0.0007555183 0.0010911935 0.00085452583 0.000913398
0000e0 2a 25 59 3a 5f dc 12 3a 94 52 5a 3a 2a 60 0c 3a
       0.0008283431 0.0005602296 0.0008328345 0.0005354906
0000f0 ae cc dd 3a ca ec f5 39 59 7e c6 3a b0 ad f8 39
       0.0016921961 0.00046906463 0.0015143856 0.00047431653
000100 8f ef 12 3a a2 36 1a 3a 11 90 0b 3c d7 4b 68 3b
       0.0005605155 0.0005882775 0.008518235 0.0035445595
000110 55 0a 7d bc 71 2b be 3b 72 f5 66 3a 17 c9 90 bc
       -0.015444358 0.0058035185 0.0008810378 -0.017674012
000120 ee 06 b2 3c cd 7d 50 3b ee 3a e0 b7 bf fa a6 3b
       0.02173182 0.0031813264 -2.6730322e-05 0.005095809
000130 41 bc dc 3a 25 34 9b 3a fd 50 1a 3b 0a 02 49 3b
       0.0016840772 0.0011841102 0.0023546808 0.0030671381
000140 25 28 74 3b 8d 23 2a 3a db ab bd 3b cc 4d 91 3a
       0.0037255373 0.0006490283 0.005788309 0.0011085807
000150 da e7 a7 3b 55 54 a0 3a c9 fb a2 3a e1 bd fe 3a
       0.0051240744 0.0012232164 0.0012434657 0.001943525
000160 0b 41 13 3a 01 ff 26 3a e2 b7 ee ba 50 9c 0e 39
       0.0005617297 0.0006370396 -0.001821276 0.00013600406
000170 bf 62 bf 39 8e a1 01 bb c9 58 4c 3a c7 58 33 3a
       0.0003650393 -0.0019780132 0.00077952124 0.0006841537
000180 e0 06 c9 39 45 5a 18 3a 3e 0f f6 b7 99 e1 06 3a
       0.0003834283 0.0005811791 -2.9332583e-05 0.0005145311
000190 8f df 5c b8 40 e5 ad 39 9e 16 ac 39 2f 4b 3a 39
       -5.2660293e-05 0.00033167936 0.00032823248 0.0001776635
0001a0 24 40 15 3a f3 ab 38 39 b0 49 00 3a 73 cf 4f 39
       0.00056934566 0.00017611663 0.0004893793 0.00019818339
0001b0 e5 fa 66 39 31 5d 66 39 31 ea 2e 3b 04 d0 9b bb
       0.00022027975 0.00021969226 0.0026689882 -0.004755022
0001c0 ee 8f f3 3c 4a 38 c0 3b 55 c5 a6 bb dc b9 ed 3c
       0.029731717 0.005866085 -0.005089442 0.029019289
0001d0 d3 cb 20 3c ce c7 9c bb 3d bb 24 bb 62 0f b6 ba
       0.0098142205 -0.0047845608 -0.0025136017 -0.0013890082
0001e0 83 a0 67 bb d3 72 0d bc 29 3f a7 bb a6 e7 ba bb
       -0.0035343475 -0.008633333 -0.005103965 -0.005703884
0001f0 23 67 46 bb 8b 3c 20 bb 98 f3 13 bc 1c 7f 05 bb
       -0.0030273877 -0.002445015 -0.009030245 -0.0020369953
000200 64 b9 0b bc 63 73 1d bb c6 7c 51 bb 83 74 14 bb
       -0.008528087 -0.0024025075 -0.003196524 -0.0022652454
000210 94 ad a5 3a 20 ae 9e ba 6c ae 08 3c 4f e2 91 3a
       0.0012640231 -0.0012106337 0.008342367 0.0011130067
000220 30 b3 b3 ba 8c 44 03 3c 18 78 73 3b 5c 4a 30 ba
       -0.0013710018 0.008011948 0.003715044 -0.00067249476
000230 f5 fd 2c ba df 8f 1c 3a 46 62 b7 ba 86 6b f2 ba
       -0.0006599122 0.0005972366 -0.001399108 -0.0018495179
000240 cf b0 90 ba 01 78 bc ba 23 10 0c bb eb ea 2e ba
       -0.0011039021 -0.0014379026 -0.0021371923 -0.0006672579
000250 cd 14 21 bb 57 81 fe b9 d8 a6 2c bb b8 60 19 ba
       -0.0024579049 -0.0004854302 -0.0026344564 -0.0005850899
000260 38 fc 48 ba ad f6 d0 b9
       -0.0007666978 -0.0003985664

exp_avg_sq f4 [7, 22]
000000 9f f9 36 35 14 03 75 36 ae 1d 15 38 9e c6 ba 35
       6.816353e-07 3.6509637e-06 3.555201e-05 1.3915885e-06
000010 d2 07 47 36 dd f2 14 38 23 72 9e 36 78 a3 74 36
       2.9657863e-06 3.5512134e-05 4.722054e-06 3.6453985e-06
000020 0d ad 19 36 42 35 3b 35 da d0 57 35 71 9c ab 35
       2.2899505e-06 6.974043e-07 8.039766e-07 1.2786023e-06
000030 d5 b0 59 35 53 0d 96 34 b2 1d 07 35 f4 80 e7 34
       8.1096124e-07 2.7949372e-07 5.033463e-07 4.312093e-07
000040 09 f1 59 36 09 32 98 34 47 47 2b 36 24 74 96 34
       3.247582e-06 2.8348612e-07 2.5522475e-06 2.802418e-07
000050 9d 4a d3 34 7d 8a c7 34 8c 70 9f 38 39 0a 2d 38
       3.93561e-07 3.7167402e-07 7.602674e-05 4.1255935e-05
000060 a8 07 10 3a 8b 3f 80 37 7e e0 86 37 f5 20 26 3a
       0.0005494305 1.5288379e-05 1.6078582e-05 0.00063373084
000070 59 96 93 39 bc 61 4e 38 f4 14 42 37 5c f7 35 38
       0.00028150043 4.920525e-05 1.156818e-05 4.3384134e-05
000080 b8 38 5e 37 6b fd 3f 37 81 1e 3f 37 2a 1e a1 36
       1.3245437e-05 1.1443491e-05 1.1391589e-05 4.8016855e-06
000090 54 85 7f 37 ac 4c b2 36 8a c2 5f 38 5a 85 ad 36
       1.5230227e-05 5.313739e-06 5.334852e-05 5.171326e-06
0000a0 57 33 2e 38 2a e5 93 36 da e3 c1 36 f5 3c 29 37
       4.1532647e-05 4.4076196e-06 5.7783736e-06 1.0087378e-05
0000b0 d9 2d 2a 35 8d 71 df 34 1a 52 ac 36 14 0f 5f 34
       6.339665e-07 4.1619606e-07 5.1355573e-06 2.0773979e-07
0000c0 ed f7 11 34 98 9a c3 36 ea b3 3e 36 83 ea 03 35
       1.3594372e-07 5.82945e-06 2.841693e-06 4.914256e-07
0000d0 ff 5f 0b 34 83 57 af 34 40 92 0f 34 44 9d 00 34
       1.2980307e-07 3.2659963e-07 1.3371118e-07 1.1978142e-07
0000e0 8f 32 fa 33 b7 f7 4d 33 f7 dd 0d 34 30 6b 7b 33
       1.1650729e-07 4.7955577e-08 1.3212399e-07 5.8537978e-08
0000f0 67 5c ed 34 f5 13 74 33 9e c5 ba 34 ce df 2f 33
       4.4211922e-07 5.6828828e-08 3.4788985e-07 4.0948912e-08
000100 18 af 7e 33 6f 38 e8 33 2d a3 81 37 1c 8c 1b 38
       5.929823e-08 1.0813607e-07 1.5453983e-05 3.7085367e-05
000110 ac 0e 37 3a 6b 0e 12 38 17 ac 0a 38 1d b4 32 3a
       0.0006983082 3.482254e-05 3.3062035e-05 0.0006817
000120 e8 45 21 39 c5 a4 2c 38 2c 87 b2 37 ce d8 8d 37
       0.00015380199 4.116145e-05 2.1282198e-05 1.6909467e-05
000130 d2 15 93 37 f3 54 fb 37 47 56 89 37 ed 1a bc 36
       1.7533926e-05 2.996109e-05 1.6371849e-05 5.605971e-06
000140 9c 31 4d 37 93 06 19 37 05 3d 75 38 66 a3 b4 36
       1.2230503e-05 9.121041e-06 5.846938e-05 5.38344e-06
000150 76 7a 43 38 72 ce b3 36 06 70 09 37 61 75 e2 36
       4.6605674e-05 5.358649e-06 8.191919e-06 6.7489896e-06
000160 12 91 8d 34 5c e1 5b 35 82 43 8e 37 92 e2 18 35
       2.636885e-07 8.19118e-07 1.6959155e-05 5.6954116e-07
000170 05 6c 2e 35 df d9 8c 37 de 25 bd 35 a4 da 5f 35
       6.497724e-07 1.6790755e-05 1.4092618e-06 8.339214e-07
000180 42 15 a9 34 76 c8 ce 34 ca e1 0a 35 c4 4b cf 34
       3.149417e-07 3.8516345e-07 5.173757e-07 3.861188e-07
000190 6c 3c 77 35 db 2d 2c 34 45 ab 97 34 ea c7 3b 34
       9.2102596e-07 1.603543e-07 2.8250557e-07 1.748846e-07
0001a0 a7 a4 d1 35 4b 7a fe 33 dc b0 a5 35 13 4b ef 33
       1.5619634e-06 1.1850042e-07 1.2344931e-06 1.1142961e-07
0001b0 8a 8f 32 34 47 36 39 34 fa 6a 7f 35 74 92 80 36
       1.6629761e-07 1.7249214e-07 9.5150574e-07 3.8317467e-06
0001c0 8e 62 eb 38 42 40 62 36 d7 54 5e 36 00 08 e7 38
       0.000112240305 3.3714027e-06 3.3129961e-06 0.000110164285
0001d0 ac ff 29 37 b2 a7 85 36 b8 ab b3 35 33 1b a2 35
       1.0132713e-05 3.983231e-06 1.3386516e-06 1.2077857e-06
0001e0 2d b3 53 36 33 4f df 36 d8 d4 65 36 9b 07 7b 36
       3.1545744e-06 6.655138e-06 3.424755e-06 3.7406342e-06
0001f0 62 b3 c4 35 81 98 7c 35 fe 37 30 37 6c 43 36 35
       1.4655345e-06 9.409924e-07 1.0503454e-05 6.7898395e-07
000200 b5 f8 0e 37 ba 26 4c 35 bc 63 a5 35 44 a5 65 35
       8.521766e-06 7.6052277e-07 1.2322485e-06 8.554964e-07
000210 d8 58 73 36 63 52 51 36 ae 10 72 38 41 39 47 35
       3.6261536e-06 3.1191382e-06 5.771283e-05 7.421659e-07
000220 a4 5f cb 35 40 3b 82 38 a4 9d 58 37 81 56 5c 36
       1.5152514e-06 6.209919e-05 1.2911307e-05 3.2832907e-06
000230 32 00 5f 35 1d b4 3f 36 f4 54 b7 35 19 be b1 35
       8.307426e-07 2.8566058e-06 1.3659287e-06 1.3242853e-06
000240 21 50 92 35 e4 0e 1e 35 83 9d 3f 36 e1 e8 05 35
       1.0901168e-06 5.8881255e-07 2.8552902e-06 4.9885244e-07
000250 0c 62 b9 36 23 92 f4 34 5f 79 94 36 fe c7 db 34
       5.524844e-06 4.555487e-07 4.424873e-06 4.0937442e-07
000260 d2 80 16 35 9d 6f 4d 35
       5.606681e-07 7.653087e-07

exp_avg f4 [7, 7]
000000 e0 1d 6f b9 7d 24 0d 3b f9 e3 d6 39 6a 32 65 3b
       -0.00022803945 0.0021536641 0.00040987114 0.0034972676
000010 4f 9a 49 3a f3 9e de 3a 8c f7 92 3a 78 b9 05 3a
       0.0007690535 0.0016984626 0.0011212691 0.00051011844
000020 98 97 7a bc d4 95 da b9 e8 06 87 3b f1 e5 6c 3a
       -0.015294932 -0.0004169183 0.0041206963 0.00090369495
000030 2c cc 82 3b a2 72 87 3a 12 9e e4 39 0b 65 02 3b
       0.0039916243 0.0010333846 0.0004360532 0.0019896652
000040 d9 c0 a1 39 ee d3 b8 3a 90 f0 d3 39 6b 0b 32 3a
       0.00030851996 0.0014101246 0.0004042429 0.00067918625
000050 0b d6 20 3a a1 fe 61 3a 63 33 2f 3c eb cf 44 3a
       0.00061354105 0.00086210115 0.010693404 0.0007507789
000060 d6 95 ce bb 78 13 bc 3a eb 2e ae 3b 39 4e 8e 3b
       -0.006304483 0.0014349064 0.0053156517 0.004342821
000070 aa 0c 31 39 71 b4 7d 3a 0f 88 95 38 4c e2 2b 3a
       0.00016884753 0.0009678072 7.1302165e-05 0.0006556853
000080 45 25 74 ba d1 84 6b 3a 1e 79 67 39 ae 48 8a ba
       -0.0009313415 0.000898433 0.00022074996 -0.0010550225
000090 53 89 6c bb 89 e7 75 ba 98 e8 59 bb 56 f8 ed ba
       -0.0036092594 -0.000938051 -0.003325021 -0.0018155675
0000a0 6b 46 97 bc 4b 8e 34 ba 2a 12 f1 b9 a6 03 c4 3a
       -0.018466195 -0.00068876584 -0.00045980635 0.0014954701
0000b0 fa 13 d7 b9 96 a8 ee ba f7 04 16 ba bf 0f 82 b9
       -0.0004102288 -0.0018208202 -0.0005722786 -0.00024807264
0000c0 12 d3 c3 bb
       -0.0059760893

exp_avg_sq f4 [7, 7]
000000 73 76 08 36 72 35 02 36 0a 8c 0e 34 25 58 b9 36
       2.0334526e-06 1.9402619e-06 1.3275726e-07 5.523691e-06
000010 e9 a5 49 34 9c 75 aa 34 0c 71 79 34 fb bc 41 36
       1.8779942e-07 3.175054e-07 2.3231058e-07 2.8869242e-06
000020 c6 de 22 39 1a 2a 12 36 6b 70 22 38 a3 0f 20 36
       0.00015532513 2.1780202e-06 3.8728507e-05 2.385096e-06
000030 dd 00 73 36 eb 01 c3 36 d2 37 2d 33 14 6c a5 35
       3.6210324e-06 5.811676e-06 4.033047e-08 1.2324913e-06
000040 45 3b d1 32 be 56 e5 34 95 01 df 32 20 7c 50 33
       2.4357755e-08 4.2717687e-07 2.5961336e-08 4.8541665e-08
000050 e7 67 87 33 6e da 99 36 f3 5b 52 38 cb 10 16 36
       6.305327e-08 4.585184e-06 5.0153536e-05 2.2361517e-06
000060 50 bc 1b 39 d7 50 7a 36 bb d3 d2 36 07 9f 8f 36
       0.00014852104 3.7299958e-06 6.2831364e-06 4.2802453e-06
000070 d2 0f 11 34 e3 2c af 35 03 bf 77 33 95 fb 8f 35
       1.3509933e-07 1.305158e-06 5.7682893e-08 1.072755e-06
000080 cf c9 92 35 5d 0f 34 34 74 18 02 34 bb 3d ab 34
       1.0936582e-06 1.6769395e-07 1.211609e-07 3.1896147e-07
000090 05 19 8e 36 7f e9 6f 34 97 34 a8 36 05 1a 0c 35
       4.2348424e-06 2.2343555e-07 5.0129124e-06 5.219193e-07
0000a0 3e 46 c0 37 44 dd e3 34 d6 39 7e 34 4c bb 24 37
       2.2920893e-05 4.2443037e-07 2.3676634e-07 9.81877e-06
0000b0 b9 7f 41 34 c4 32 26 36 19 2d b5 34 c5 4e ae 34
       1.8020991e-07 2.4765477e-06 3.374669e-07 3.2467338e-07
0000c0 19 6a 98 36
       4.5423044e-06

exp_avg f4 [7]
000000 ec 4a 1a 3c fe b2 a8 bb 51 6c bf 3b 96 fe 8b 3c
       0.009417277 -0.0051482907 0.0058417697 0.01708917
000010 82 dd 06 3b 85 e0 f4 bc 08 de 02 bc
       0.0020578806 -0.029892216 -0.007987507

exp_avg_sq f4 [7]
000000 72 26 28 38 57 4a 2f 3a 57 49 d0 36 53 02 46 3a
       4.0090126e-05 0.0006686798 6.207421e-06 0.0007553447
000010 5c af 98 37 64 0b f6 38 62 a6 87 38
       1.820147e-05 0.00011732316 6.468293e-05

exp_avg f4 [7]
000000 4e 4b 1a 3c 82 c9 a8 bb f8 63 bf 3b 8c f7 8b 3c
       0.009417368 -0.0051509747 0.0058407746 0.017085813
000010 48 bc 06 3b 6c e4 f4 bc fa d4 02 bc
       0.0020559002 -0.029894076 -0.007985348

exp_avg_sq f4 [7]
000000 7f 26 28 38 74 4a 2f 3a 42 45 d0 36 72 02 46 3a
       4.0090174e-05 0.00066868146 6.2069457e-06 0.0007553465
000010 03 af 98 37 e8 0b f6 38 93 a6 87 38
       1.8201308e-05 0.00011732412 6.4683285e-05

exp_avg f4 [7, 22]
000000 8d 6d 98 bb 6e d9 c9 b9 6f 8c 81 bc a4 8a b7 bb
       -0.0046517313 -0.00038499705 -0.015814034 -0.005601244
000010 e3 59 cc 39 d9 3a 72 bc 08 3e 65 bc a5 cf 10 3a
       0.00038976883 -0.014784538 -0.01399184 0.00055241055
000020 42 dc 08 3a 90 3f ef 3a 0e 28 1b 3b 88 19 7a 3b
       0.0005220809 0.0018253196 0.0023674998 0.003816219
000030 38 dc 0a 3b f7 09 36 3b d0 77 1f 3b 19 21 1f 3b
       0.002118839 0.0027776936 0.0024332888 0.0024281202
000040 33 d3 1a 3b 8d e7 b7 3a 96 9f 34 3b 0b 6d c0 3a
       0.002362442 0.00140308 0.002756094 0.0014680935
000050 39 8d 1a 3b b0 d3 4a 3b c8 70 d6 bb 9e d1 22 3b
       0.002358271 0.003094893 -0.0065442063 0.002484418
000060 00 f6 09 bd da 82 52 bc a8 6f 82 3b c1 7d 03 bd
       -0.03368187 -0.01284858 0.0039805956 -0.03210235
000070 21 8a c0 bc 41 6c 96 3b 4e e9 73 3b 9f e1 7e 3b
       -0.023503365 0.0045905416 0.0037217918 0.0038891805
000080 32 0d af 3b 17 93 f3 3b 56 3e 97 3b 05 9a 92 3b
       0.005342149 0.007433306 0.0046155853 0.004473927
000090 59 f8 af 3b 94 e7 9e 3b b9 17 d4 3b 72 41 5f 3b
       0.0053701815 0.0048493836 0.0064725545 0.0034066108
0000a0 56 a6 c1 3b 48 1f 54 3b 67 3d a3 3b 79 b7 c4 3b
       0.0059097214 0.0032367278 0.004981685 0.006003317
0000b0 c8 2c 46 bb d1 ee b7 39 c6 5f b3 bb 17 68 88 bb
       -0.0030239094 0.00035082412 -0.0054740636 -0.004162799
0000c0 c9 5f 8f 3a 24 5a 9a bb b8 fd 11 bc b5 dd 47 3a
       0.001093858 -0.0047104526 -0.008910589 0.00076242845
0000d0 fa 19 10 3a 32 3c 38 3a ec 63 c3 39 fa 8d ab 3a
       0.0005497035 0.0007028013 0.00037267746 0.0013088577
0000e0 55 2f 29 3a a6 ce 69 3a e0 1f 46 3a 1c 4d 5b 3a
       0.00064538914 0.00089190376 0.00075578503 0.0008365677
0000f0 6f a3 4d 3a 6f d5 f8 39 a2 6c 70 3a b1 29 ef 39
       0.0007844483 0.00047461267 0.0009171461 0.00045616695
000100 96 f9 1e 3a f7 02 96 3a 70 65 a1 bb 18 7f e5 3a
       0.0006064413 0.0011444975 -0.0049254224 0.001750919
000110 b2 4b f3 bc cb 7f 29 bc 4d f4 5a 3b 13 1b e9 bc
       -0.02969918 -0.01034541 0.0033409775 -0.028455293
000120 4b 93 99 bc 04 37 71 3b 0b 48 4b 3b 64 ec 81 3b
       -0.018746993 0.0036806474 0.0031018283 0.0039649475
000130 4a ae 97 3b 3d 70 c2 3b 9e ff 81 3b b6 d6 8f 3b
       0.004628931 0.00593379 0.0039672395 0.004389609
000140 f9 1e a2 3b 3b 76 8d 3b ce 20 b5 3b 4c 97 41 3b
       0.00494754 0.0043170727 0.0055275923 0.0029539643
000150 f7 69 b3 3b 84 79 40 3b 1e f0 90 3b e7 10 ad 3b
       0.0054752785 0.0029369304 0.0044231554 0.005281556
000160 98 12 85 3b de d1 5d bb 70 b2 f0 3c 9a 68 1e 3c
       0.0040610544 -0.0033847014 0.02938196 0.009668494
000170 42 fc 69 bb fa c8 e3 3c f5 6e a6 3c 2d 79 7e bb
       -0.0035703336 0.027805794 0.02031658 -0.003882955
000180 0a b8 5f bb 29 91 45 bb a1 eb 91 bb b3 50 05 bc
       -0.0034136795 -0.0030146337 -0.004453138 -0.008136916
000190 ff 2f 97 bb 7e 9d 44 bb 33 5c 4d bb 70 1f 92 bb
       -0.004613876 -0.00300011 -0.0031335473 -0.004459314
0001a0 11 4d b7 bb 49 6f 45 bb 0e be 94 bb 3d 31 2a bb
       -0.005593904 -0.0030126146 -0.004539258 -0.002596929
0001b0 81 95 96 bb df 05 a3 bb 34 4c ee 3a 78 d4 ff ba
       -0.004595459 -0.004975065 0.0018180669 -0.0019518277
0001c0 01 8f 74 3c c4 b9 04 3c ca 24 26 bb f2 cc 4e 3c
       0.014926673 0.008100931 -0.0025351518 0.012622105
0001d0 ad 00 8b 3c 66 32 33 bb cc 6e 80 ba fa f7 ce ba
       0.016968096 -0.0027343272 -0.0009798645 -0.0015790456
0001e0 ad 43 9f ba 6a ba 49 bb 4e 9f 3f ba c1 97 b0 bb
       -0.0012150906 -0.0030781277 -0.000730981 -0.005389184
0001f0 2d 6d cb ba 17 52 27 bb da b1 02 bb b0 27 bc ba
       -0.0015520208 -0.0025531107 -0.0019942434 -0.001435509
000200 1d 9b 10 bb e7 76 d6 ba 4e fc bd ba eb 36 55 bb
       -0.002206511 -0.001636234 -0.0014494748 -0.0032533954
000210 a6 80 32 3c ec 3a 8b 3b 65 70 90 3c f2 2b 04 3c
       0.01089493 0.0042489674 0.017631719 0.008067118
000220 f6 e7 19 3a b2 f1 93 3c da d8 57 3c 83 24 31 3a
       0.00058710517 0.018059585 0.01317426 0.0006757455
000230 a2 9d 77 ba b3 c8 7b bb 63 7b 69 bb 3c 48 61 ba
       -0.00094457914 -0.0038419187 -0.0035626523 -0.00085938326
000240 20 2c 1b bb 31 eb 93 ba 91 5b d9 bb fd 21 fa ba
       -0.0023677424 -0.0011285302 -0.00663323 -0.0019083616
000250 98 d4 4e bb d4 87 b9 ba ee 43 9c bb 84 94 f4 ba
       -0.0031559821 -0.001415486 -0.00476884 -0.0018659984
000260 cc d5 31 bb 2f f1 65 bb
       -0.002713549 -0.0035086384

exp_avg_sq f4 [7, 22]
000000 72 2b cd 36 1b 1a ee 36 61 f4 8a 38 c0 3a 03 37
       6.114534e-06 7.095992e-06 6.625872e-05 7.821887e-06
000010 0d 76 09 37 d2 fd 87 38 96 d3 43 37 bd dc 17 37
       8.193322e-06 6.484579e-05 1.1672169e-05 9.051696e-06
000020 e3 ef 9a 36 6d 84 09 36 92 d4 c8 35 58 81 10 36
       4.617484e-06 2.0491673e-06 1.4963027e-06 2.153296e-06
000030 fd b8 ae 35 76 5e 61 35 e9 4e 8b 35 c8 ef b6 35
       1.3017849e-06 8.395649e-07 1.0379273e-06 1.3629842e-06
000040 ff af 9e 36 13 4d 93 35 d7 74 16 36 ca a0 53 35
       4.7292556e-06 1.0974785e-06 2.2419752e-06 7.8837604e-07
000050 26 79 c6 35 4b 29 a4 35 0f ef 24 38 65 c9 b9 35
       1.4787408e-06 1.223097e-06 3.9323288e-05 1.3842188e-06
000060 27 3d 49 39 98 c0 9f 37 a0 d0 ba 35 8c aa 5e 39
       0.00019191635 1.904396e-05 1.3918798e-06 0.00021235103
000070 f9 91 d9 38 bb 11 00 36 16 77 46 36 5d cd 96 37
       0.00010374556 1.9083807e-06 2.9573616e-06 1.7977023e-05
000080 c9 31 80 36 19 35 a3 36 c6 5e 89 36 e5 0f 02 36
       3.820493e-06 4.86396e-06 4.0939512e-06 1.9380761e-06
000090 ae 84 a6 36 42 0a 8d 36 f0 f0 fd 36 27 f9 29 36
       4.9626315e-06 4.2033216e-06 7.5680364e-06 2.5327988e-06
0000a0 f3 13 19 37 4d 0d 34 36 a3 c1 d1 36 f1 78 5b 36
       9.124155e-06 2.6829832e-06 6.2512277e-06 3.270394e-06
0000b0 88 d4 d9 37 bd c2 78 35 ae 3f 92 38 f3 59 1d 37
       2.5967383e-05 9.267058e-07 6.973684e-05 9.378872e-06
0000c0 3b eb 5d 34 7a c8 b5 38 14 94 b8 38 c4 4b ab 35
       2.0667805e-07 8.668094e-05 8.8013854e-05 1.2762544e-06
0000d0 de c5 ba 35 f8 66 f1 35 18 fa b6 36 39 6f 0b 36
       1.3915667e-06 1.7985867e-06 5.4531374e-06 2.0777354e-06
0000e0 9a f0 06 36 24 48 77 35 18 5b ea 35 3e 3b b3 35
       2.0107605e-06 9.211965e-07 1.746087e-06 1.3353781e-06
0000f0 0a f2 a6 36 54 01 97 35 c0 be 32 36 a4 9e 91 35
       4.9753626e-06 1.1250763e-06 2.6635098e-06 1.0849512e-06
000100 40 96 4d 36 53 30 82 35 fa d9 bf 36 66 23 05 35
       3.0634837e-06 9.699819e-07 5.7176194e-06 4.959787e-07
000110 a0 30 35 38 e6 ac dc 36 f3 3a 25 35 8b 32 31 38
       4.319905e-05 6.576639e-06 6.155307e-07 4.224716e-05
000120 05 01 e1 37 19 10 54 35 3b a3 29 35 a8 b5 cf 35
       2.6822565e-05 7.899958e-07 6.319494e-07 1.5475571e-06
000130 74 16 ad 35 ea 31 af 35 43 db 63 35 9b e0 70 35
       1.2896039e-06 1.3053043e-06 8.488316e-07 8.973381e-07
000140 2d 48 e2 35 00 a8 6a 35 d7 8a e0 35 0f 50 f1 34
       1.6859318e-06 8.7416265e-07 1.6729708e-06 4.4947998e-07
000150 51 5e 02 36 3d 81 05 35 95 6f 91 35 3c ca 9d 35
       1.942641e-06 4.973443e-07 1.0835817e-06 1.175627e-06
000160 42 c7 44 36 0d be a9 35 a8 84 9d 38 b4 ff 17 37
       2.932226e-06 1.2646793e-06 7.5110525e-05 9.059837e-06
000170 0f 57 e8 35 1e 96 8f 38 5c b6 1f 38 27 f4 0f 36
       1.7310684e-06 6.846733e-05 3.807839e-05 2.1450776e-06
000180 95 c9 85 35 e4 73 9b 35 c3 52 05 36 38 f0 95 36
       9.96794e-07 1.1582129e-06 1.9866718e-06 4.468511e-06
000190 cd e1 f6 35 69 bf 65 35 ab 41 dc 35 65 20 e1 35
       1.8394145e-06 8.5587686e-07 1.6410389e-06 1.6773234e-06
0001a0 6c 83 36 36 4a dc 4e 35 7c 6f 14 36 14 bf 32 35
       2.719661e-06 7.7061543e-07 2.211861e-06 6.658822e-07
0001b0 91 1d f4 35 bc f2 12 36 68 e2 5c 37 57 d9 c0 35
       1.8188022e-06 2.1896985e-06 1.3165736e-05 1.4368369e-06
0001c0 65 00 44 39 1a c5 1d 38 f6 5d 43 36 63 01 29 39
       0.00018692164 3.7615282e-05 2.9111957e-06 0.00016117613
0001d0 46 6a 10 39 f6 95 7a 36 2e 47 fd 35 51 d1 88 36
       0.000137725 3.7340192e-06 1.8870685e-06 4.0774835e-06
0001e0 7a 3a 87 36 23 72 f0 36 fc 90 3b 36 bb e8 f3 36
       4.030121e-06 7.1658446e-06 2.7949563e-06 7.2690577e-06
0001f0 38 38 9a 36 66 b4 92 36 73 11 c4 36 71 d9 ea 35
       4.5961024e-06 4.37214e-06 5.8432865e-06 1.7497642e-06
000200 36 a2 02 37 bb 4b 0c 36 8f 7f 69 36 12 75 c8 36
       7.7863715e-06 2.0905707e-06 3.4793954e-06 5.9740933e-06
000210 c1 fc 11 38 53 51 8c 35 0a 8b ab 39 c5 18 4f 38
       3.480609e-05 1.0454481e-06 0.00032719254 4.9375714e-05
000220 93 13 b6 35 74 c5 a3 39 f3 98 29 39 93 ec d7 35
       1.3565754e-06 0.00031236897 0.00016174074 1.60876e-06
000230 ac da 2b 36 25 a3 08 37 8d 43 14 37 2d 42 01 37
       2.560827e-06 8.144217e-06 8.837215e-06 7.704407e-06
000240 11 f6 ca 36 76 c0 6e 36 ec 29 c9 37 20 4b b7 36
       6.048715e-06 3.557679e-06 2.3980589e-05 5.4625707e-06
000250 5a 49 38 37 8f 81 32 36 76 d8 8e 37 74 f0 6a 36
       1.0984333e-05 2.659948e-06 1.7028517e-05 3.500868e-06
000260 8d 95 ef 36 85 ad 2d 37
       7.140165e-06 1.0352004e-05

exp_avg f4 [7, 7]
000000 b2 fb df 39 7e 00 df 3a c1 2e 88 3a ae fc f2 3a
       0.00042721402 0.0017013696 0.001038991 0.0018538439
000010 9e 03 83 3b 93 ff 7c 3b c6 fc 43 3b 2f bc 6f 3b
       0.003998234 0.0038604483 0.0029905303 0.0036580672
000020 74 04 70 3b b8 9e 2c 3b f9 34 88 3b 3e 64 fc 3b
       0.0036623748 0.002633972 0.0041567055 0.0077023795
000030 01 fd b8 3b 6d 82 f2 3b da 70 3e 3a 9f a7 33 3a
       0.005645395 0.007400802 0.0007264741 0.00068532856
000040 83 d6 21 ba 76 30 2a 3a 3d ed ab 3a a0 2c 9c 3a
       -0.00061736273 0.00064922066 0.0013116967 0.0011915155
000050 8c 73 a7 3a 5b a7 52 3b 3f 6d 7e 3b 0d db 11 3b
       0.0012775525 0.0032143209 0.003882244 0.0022255809
000060 5e 32 75 3b e5 5a a0 3b 93 9f bd 3b f8 ac eb 3b
       0.0037414054 0.004893648 0.005786845 0.0071922503
000070 b1 7b 4d bb d5 81 89 bb 59 42 05 bb b5 0d 5a bb
       -0.0031354243 -0.0041963854 -0.0020333736 -0.003327233
000080 6e e7 45 bc 5f b3 56 bb 70 75 e0 ba e2 d3 04 bb
       -0.012079103 -0.0032760722 -0.0017124843 -0.0020267894
000090 c7 7e df ba 16 c7 83 ba cf 08 0e bb c2 fc 17 3b
       -0.0017051332 -0.0010053839 -0.002167273 0.0023191427
0000a0 2a 09 24 bc dd 97 b4 38 21 16 04 ba 71 f5 b6 ba
       -0.0100119505 8.6113556e-05 -0.0005038698 -0.0013958645
0000b0 58 6f e1 b9 24 49 40 bb 07 d1 fb 3a f3 a4 82 39
       -0.00042998302 -0.002934047 0.0019212075 0.0002491843
0000c0 4d 19 85 bc
       -0.016247416

exp_avg_sq f4 [7, 7]
000000 4e 51 c8 36 fd ec 85 36 b2 f1 48 35 d3 54 bb 35
       5.9699296e-06 3.991298e-06 7.485752e-07 1.3957273e-06
000010 de e4 8c 35 1a 7b ed 35 68 19 88 35 4f 9b 34 36
       1.0497422e-06 1.7693703e-06 1.0140184e-06 2.6912492e-06
000020 fb 6b 17 38 07 59 0f 36 a2 ff 89 36 55 1f 53 36
       3.610177e-05 2.1360481e-06 4.1126777e-06 3.1459688e-06
000030 f4 d6 77 36 03 c1 ae 36 8c 95 63 35 d2 81 5f 36
       3.6930987e-06 5.2080736e-06 8.478171e-07 3.3305155e-06
000040 51 08 1f 37 02 fa bc 35 23 a2 4c 35 53 ad 0c 36
       9.479075e-06 1.4079853e-06 7.623186e-07 2.0962514e-06
000050 02 eb 32 35 16 24 2f 35 19 31 15 36 c1 f9 76 35
       6.665215e-07 6.524509e-07 2.2231309e-06 9.200558e-07
000060 98 74 75 35 95 b4 5c 35 cb 82 ff 35 6b 76 98 36
       9.143928e-07 8.221917e-07 1.9037046e-06 4.5437387e-06
000070 dc 08 78 35 b6 65 e8 35 b5 48 37 35 83 97 95 35
       9.240009e-07 1.7314949e-06 6.8278615e-07 1.1145461e-06
000080 b7 3c 02 37 11 f7 96 35 0c b1 17 36 5c af 28 36
       7.76274e-06 1.1247777e-06 2.2603808e-06 2.5136023e-06
000090 8e c8 ad 36 6d 51 04 36 1c 2a 93 36 54 52 21 36
       5.1791494e-06 1.9716929e-06 4.3858436e-06 2.403879e-06
0000a0 1c 93 9e 37 06 9b b6 36 42 ab 1d 36 a4 ec a6 36
       1.890357e-05 5.44207e-06 2.3494508e-06 4.974734e-06
0000b0 cc dc aa 35 e4 ee 00 37 fd d9 13 36 c9 d9 7e 36
       1.2730247e-06 7.685016e-06 2.2031593e-06 3.7975717e-06
0000c0 16 b3 99 38
       7.328966e-05

exp_avg f4 [7]
000000 82 f5 81 3c 78 bb 0e 3d c2 f7 aa 3b ce 70 fd 3c
       0.015864138 0.034846753 0.0052175233 0.030937579
000010 c6 d5 f3 bc 04 d5 6d bc 4d 60 9e bc
       -0.029765021 -0.014516119 -0.01933303

exp_avg_sq f4 [7]
000000 be c8 aa 38 a6 7a 74 39 a8 f7 ca 38 d4 ed 4f 38
       8.143623e-05 0.00023315343 9.67824e-05 4.957414e-05
000010 6d c5 a6 38 91 2e 54 39 fe 93 be 39
       7.95227e-05 0.00020235243 0.00036349887

exp_avg f4 [7]
000000 dd fc 81 3c a5 c0 0e 3d 25 f2 aa 3b 7f 78 fd 3c
       0.015867645 0.03485169 0.005216854 0.030941246
000010 f6 d9 f3 bc 07 e5 6d bc 9e 6b 9e bc
       -0.029767018 -0.014519936 -0.019338425

exp_avg_sq f4 [7]
000000 85 c9 aa 38 9a 7b 74 39 d4 f7 ca 38 b8 f3 4f 38
       8.1437676e-05 0.00023315698 9.678272e-05 4.9579627e-05
000010 0a c6 a6 38 97 2e 54 39 9e 94 be 39
       7.9523845e-05 0.00020235252 0.00036350352

exp_avg f4 [7, 22]
000000 1b 5e 04 bc 2e 05 41 bb 87 f0 d0 3c 31 f4 58 ba
       -0.008079077 -0.002945255 0.025505317 -0.00082761334
000010 84 d1 71 bb 4c 8c da 3c 4e 3c 40 bc 80 b8 58 bb
       -0.0036898563 0.026678227 -0.011733128 -0.0033068955
000020 7a 59 5e bb 66 be 4d bb df 0b 1f bb 11 7b da bb
       -0.0033927844 -0.0031394004 -0.002426855 -0.0066675027
000030 9e d8 7d bb 27 cc 25 bb ae 38 92 bb 7b b2 58 bb
       -0.003873385 -0.0025298686 -0.004462323 -0.0033065367
000040 1d bc 4b bb 20 64 df bb 49 e7 39 bb fb 81 68 bb
       -0.0031087466 -0.0068173558 -0.0028366616 -0.0035477865
000050 18 c1 59 bb 06 28 69 bb 43 b4 2b 3b 5a ce af 39
       -0.0033226665 -0.0035576834 0.0026199974 0.00033532345
000060 15 df 43 bc 4c a2 85 3a c5 ef d4 38 09 10 49 bc
       -0.011955042 0.0010195463 0.00010153608 -0.0122718895
000070 d4 84 93 3b 12 b7 21 39 dc 64 b0 3a 85 5a b9 3a
       0.0045019183 0.00015422356 0.0013457793 0.0014141357
000080 e5 2b b2 3a 77 72 41 3b 76 0b ec 3a 9f f8 17 3b
       0.0013593404 0.002951769 0.0018008787 0.0023188961
000090 95 6e d8 3a 16 a2 d0 3a a0 85 c1 3a b2 c9 55 3b
       0.0016512448 0.0015917446 0.0014764555 0.003262144
0000a0 f7 83 ad 3a 3d 67 05 3b 78 d7 b5 3a 40 8b e6 3a
       0.0013238181 0.0020355724 0.0013873419 0.0017589107
0000b0 55 35 02 bc 19 91 73 3a 84 f0 68 bb c8 9e e9 bb
       -0.007947286 0.00092913356 -0.003554375 -0.007129524
0000c0 86 f9 09 3a 7d cc 15 bb 72 ed 8e bc 10 84 e0 39
       0.0005263317 -0.002285748 -0.017447207 0.00042823004
0000d0 03 d8 3b 3a 0f 59 dc 39 01 10 a7 b9 ef 29 4c 38
       0.0007165672 0.00042028024 -0.00031864646 4.8676444e-05
0000e0 95 8e c6 ba 84 fb ba 3a 29 92 a0 3a 75 9c 45 ba
       -0.0015148694 0.0014265631 0.001225059 -0.00075382675
0000f0 4b 5c 22 3a 53 51 79 3a d5 fc 0b 3a 7c 23 d3 38
       0.00061935623 0.00095107144 0.0005340104 0.000100678735
000100 b0 18 18 3a 87 0e 1b b8 3a 74 4e bb cb 64 2e 3a
       0.00058020186 -3.696841e-05 -0.0031502382 0.00066525926
000110 1c d6 9a ba f0 ec 84 bb fc 2a 82 3a 6b a5 9f ba
       -0.0011813077 -0.0040565655 0.0009931023 -0.0012180036
000120 fa 04 04 bc bc 25 1e 3a cb 10 a4 b8 a7 02 1c b9
       -0.008057827 0.00060328445 -7.823257e-05 -0.00014878307
000130 e4 04 c6 b9 dd 1e ce b8 e0 ce f9 37 b9 81 36 3a
       -0.00037769147 -9.828594e-05 2.9779447e-05 0.0006962079
000140 64 5a a7 39 ef 7e d4 b8 38 e7 40 b6 79 d7 e5 39
       0.00031920068 -0.00010132591 -2.8744817e-06 0.00043838823
000150 78 46 4f 39 8f 08 d9 b9 b3 f6 c9 38 e2 76 ff 38
       0.0001976731 -0.00041395842 9.630378e-05 0.00012181491
000160 5b 54 e9 3b 80 37 00 3a df bd a6 bc 34 22 86 3b
       0.0071206517 0.00048910826 -0.02035421 0.004093433
000170 85 34 25 38 cd 1d ae bc 2b 8a 5b 3c 45 15 9d 39
       3.9387978e-05 -0.021254444 0.013399641 0.0002996122
000180 30 68 16 3b cf 6c 34 3b 73 1c 28 3b b3 c5 af 3b
       0.0022950284 0.0027530675 0.0025651723 0.0053641438
000190 4d 01 6f 3b fe 25 54 3b 46 4e 26 3b dc 48 45 3b
       0.0036469281 0.0032371278 0.0025376244 0.0030103242
0001a0 a9 ff 1e 3b 60 62 b2 3b ac 0a 10 3b 34 e6 7d 3b
       0.0024261272 0.005443856 0.0021979017 0.0038741948
0001b0 88 6f 19 3b af 0f 4b 3b e4 b8 f0 3b f5 7c ce 39
       0.0023412425 0.003098469 0.0073462594 0.00039384482
0001c0 45 87 21 3c 78 09 98 3b 3f 00 ba 3a 0b aa 1e 3c
       0.009858911 0.0046398006 0.0014190747 0.009684096
0001d0 c0 01 59 3c 56 32 c5 3a 18 6b 28 ba e7 70 97 ba
       0.013245046 0.0015044909 -0.00064246496 -0.0011554033
0001e0 75 ff 50 ba 03 55 da ba 80 9c 1b b9 b7 ab 88 bb
       -0.00079726364 -0.0016657416 -0.00014840253 -0.0041708606
0001f0 1a e2 87 ba bc 31 40 ba e8 65 93 ba 1f 32 4c bb
       -0.0010367066 -0.000733163 -0.001124558 -0.0031157804
000200 86 61 a5 ba b3 75 8b ba 22 9d 84 ba 8c 17 ac ba
       -0.0012617565 -0.0010639935 -0.001011763 -0.0013129576
000210 e6 4d de 3b 2b 34 56 b9 35 2c 93 b9 c0 9a dd 3b
       0.0067841886 -0.00020428064 -0.00028070962 0.0067628324
000220 51 40 a9 37 47 c4 bf ba 28 1b 87 3c 07 fd f9 38
       2.017632e-05 -0.0014630639 0.016492441 0.00011920375
000230 dc b6 9c 39 6e 5d c1 38 64 8f d9 39 47 ab a0 3a
       0.0002989088 9.22036e-05 0.000414963 0.0012258076
000240 03 36 96 3a e4 83 9a ba 25 09 9a b9 dd ed 57 3a
       0.0011460189 -0.0011788574 -0.00029379982 0.00082370435
000250 d8 51 ad 38 5c 0e 82 39 da f4 81 b8 05 19 5f 39
       8.2645274e-05 0.0002480623 -6.1968065e-05 0.00021276258
000260 5a fc 2a 39 6f 93 77 39
       0.00016306472 0.00023610679
