data_10frm/model/0_1_19_3.pt (torch_old, 18375 bytes, 52 tensors)

rnn.weight_ih f4 [7, 22]
000000 aa ce 89 be 62 a7 1b be 0e 11 b8 3e 27 e7 87 be
       -0.26915485 -0.1520057 0.35950512 -0.26543543
000010 9d b9 a9 3e 4e f8 8a be 4f f6 76 be bc 6e 2f 3e
       0.33149424 -0.27142566 -0.24117397 0.17132086
000020 a2 c4 8d be f6 87 e8 bd ab 7e 74 3e c5 6c 88 3e
       -0.2768908 -0.113540575 0.23876445 0.26645485
000030 fe c6 a6 3e c8 1c d0 bd ed db a6 be 8c 24 b1 3e
       0.32573694 -0.101617396 -0.32589665 0.34598196
000040 8b 39 da bd b3 90 37 be 11 1c 8a 3d aa dc 93 be
       -0.10655507 -0.17926292 0.067436345 -0.2887929
000050 75 12 62 3e 89 a5 5b 3e 26 a0 87 be 3c 56 98 be
       0.22077353 0.21449865 -0.2648937 -0.29753292
000060 d9 28 25 bd e9 02 5b 3e 47 77 af bc cb 7f 4e be
       -0.04032216 0.21387829 -0.02141918 -0.20165937
000070 44 4b 53 3d b1 75 ae be 4f 9b 88 be e1 61 67 be
       0.05158545 -0.34074166 -0.2668099 -0.22595932
000080 69 6e a2 3e f2 04 a8 3e 82 16 00 be ca c3 d7 3c
       0.3172486 0.32816273 -0.12508586 0.026338477
000090 7a 17 38 3e f1 37 41 3d 84 1a 37 be 8d 65 6a 3e
       0.17977706 0.04717249 -0.17881209 0.22890301
0000a0 6e 13 77 3e cc e1 59 bc 6b 27 2d bd 17 83 b8 3e
       0.24128506 -0.013298463 -0.04227392 0.36037514
0000b0 da 93 98 3e 69 3b 8c be f5 37 de 3e 41 ae e6 3d
       0.29800302 -0.27389076 0.43402067 0.11263705
0000c0 a4 40 a0 be 49 5c 8a 3e 22 82 96 be 3d e3 94 3e
       -0.31299317 0.27023533 -0.29396158 0.2907962
0000d0 00 3e 9b be af f2 67 3d 6d 7d 55 3d 2b 58 db 3c
       -0.3032074 0.056627925 0.05212157 0.02677544
0000e0 7a 0e 7e 3e 29 f4 61 be 08 00 63 be b7 b8 c7 be
       0.2481021 -0.22065796 -0.2216798 -0.39008114
0000f0 b7 ea a3 bd 9f b4 73 be 14 43 49 bd c3 1d 10 be
       -0.08003753 -0.2379937 -0.049136236 -0.14073853
000100 3b ae 75 3d ee 0b 89 3e 5f a7 81 3d e4 b7 f3 bd
       0.059980612 0.26766914 0.06330752 -0.11900309
000110 7f 51 43 be 01 c3 ba be ee 2c a9 3e 9e c3 99 bd
       -0.19074057 -0.364769 0.3304209 -0.07508014
000120 0b d5 f1 3c 27 a3 8b 3c 6d 6c 6d be 74 17 52 3e
       0.029520532 0.01704557 -0.23185892 0.20516759
000130 79 5c 5e 3e ed d1 ff 3c ae 13 58 be 83 e0 25 be
       0.21714963 0.03122803 -0.21101257 -0.16198926
000140 d4 02 ca 3b 57 1b 53 be d6 7b 55 be 8e f1 59 bd
       0.006164888 -0.20615898 -0.20848021 -0.05320888
000150 16 df d5 bd e7 1b c9 3d 19 2d bd bd c7 9d 54 bd
       -0.10442941 0.09819775 -0.09237117 -0.05190828
000160 a8 0c 2e be 86 00 b6 be 8d d8 ab 3e 76 e8 77 3d
       -0.16997015 -0.35547274 0.33563653 0.060524426
000170 1b 12 aa 3e 2a c0 5d bd 00 ab e4 bd 60 d5 bb be
       0.33216938 -0.05413834 -0.11165428 -0.3668623
000180 fa d2 1f be 8f 5f 6e 3e 7f bf bf be e2 04 15 be
       -0.15607825 0.2327864 -0.37450787 -0.14552644
000190 2b 35 70 3e e4 57 59 3e bc 34 05 3e ee 6e a5 bd
       0.23457782 0.21224934 0.13008398 -0.08077799
0001a0 c8 2f 0d bd ff e9 a2 bd 69 53 15 be 62 78 19 3e
       -0.034469396 -0.079547875 -0.145826 0.14987329
0001b0 56 26 0b be 9c 62 61 be ec 34 25 3d 75 dd 8d be
       -0.13588843 -0.22010273 0.040333673 -0.2770802
0001c0 df 97 ab bd 4f d7 30 3e d3 32 11 3e 6a 7a a3 3e
       -0.083785765 0.17269634 0.14179544 0.31929332
0001d0 ad 71 93 be 67 94 f8 ba c8 98 ed bd b1 72 64 be
       -0.28797665 -0.0018965126 -0.11601406 -0.22309376
0001e0 5b 50 57 be d8 b2 d0 3d 19 f4 32 3d 1a d5 3e be
       -0.21026747 0.10190362 0.04368982 -0.1863598
0001f0 ed 2a 89 be fb 9a 9f be 75 4c bf 3e 1e 42 81 bd
       -0.26790562 -0.31172928 0.3736302 -0.06311439
000200 57 8c af bd c8 cf 0b be 75 32 3c be 17 76 b1 be
       -0.085716896 -0.13653481 -0.18378623 -0.34660408
000210 04 ee 6c be 73 2a 65 3e 23 d8 a9 3d 73 11 07 be
       -0.23137671 0.22379474 0.08293178 -0.1319025
000220 4e 3c 13 be 70 e9 77 3e e8 22 85 3e 9a ec b4 3e
       -0.14378473 0.24210143 0.26003194 0.35336763
000230 cb ff d4 3d b4 ac 22 3e fa b0 d1 bc b4 7b 5f be
       0.10400351 0.15886194 -0.025597084 -0.21824533
000240 9a d3 bd be 5d b3 6a 3e 81 da 41 bd f6 52 1e 3e
       -0.37075502 0.22919984 -0.047327522 0.15461335
000250 78 6d 92 3c bd 92 b5 be d8 a9 3d be a9 95 d4 3d
       0.017874464 -0.35463515 -0.18521821 0.10380108
000260 a6 5e 9b bd 42 37 be be
       -0.07586412 -0.37151533

rnn.weight_hh f4 [7, 7]
000000 4d d8 0b 3e 67 14 5d bc bc c1 10 be d6 da f5 3d
       0.13656731 -0.013493634 -0.14136404 0.1200463
000010 41 12 49 3d 3c 6a 35 be 83 76 9c 3e db 9e 3b 3e
       0.049089674 -0.17716306 0.30559167 0.18322317
000020 d7 ef 99 3d 3e 19 7c bd 54 8b a9 be 5d 06 93 3e
       0.07516449 -0.06154751 -0.3311411 0.28715792
000030 b4 6b e4 bd ea 53 72 be 81 a9 40 3e fa 8e af 3d
       -0.11153355 -0.23664823 0.1881466 0.085721925
000040 7b ef 0c 3d c1 e6 04 be 6e 88 3b be a8 f6 6e 3b
       0.034408074 -0.1297865 -0.18313763 0.0036462937
000050 7e fd 6b 3e 93 7c 69 3d fc cd 48 be c3 4f c1 3e
       0.23045918 0.05700357 -0.19609827 0.37756166
000060 f0 7a f5 3c 20 f4 98 3e 0c 26 ac 3d e5 83 a4 3e
       0.029965848 0.29873753 0.08405694 0.32131878
000070 27 68 54 3e 01 05 54 be d3 08 85 3e 57 a7 5d bc
       0.20742856 -0.20705034 0.25983295 -0.013528666
000080 92 5b 93 be 82 47 c8 bd 4a bb af be 42 d7 4f be
       -0.287808 -0.09779264 -0.34322578 -0.20296958
000090 83 8e 8d be b3 2c 83 3e 23 e0 c3 bd 0c 92 8c bd
       -0.2764779 0.2562004 -0.09564235 -0.06863794
0000a0 a7 ca 50 3e b9 2e 07 3e 0d e7 80 be 90 9c f3 3d
       0.20389806 0.13201417 -0.25176278 0.11895096
0000b0 29 54 26 3e df 74 9c be 94 35 a3 3e 88 98 75 be
       0.16243042 -0.30557916 0.31876814 -0.23983967
0000c0 fa 06 fc bd
       -0.12306018

rnn.bias_ih f4 [7]
000000 56 4c ac be 05 ac b5 3e a7 51 0c 3c aa 23 a5 3e
       -0.3365199 0.35482803 0.008564389 0.32253772
000010 af ca 92 3c 72 b1 54 3e 04 97 f9 bd
       0.017918913 0.20770815 -0.12187007

rnn.bias_hh f4 [7]
000000 c6 48 a7 be 99 77 8f 3d b8 e1 c6 bd ec c7 0a bd
       -0.3267271 0.07005233 -0.09711021 -0.033882067
000010 80 ff 44 be 39 65 25 3c 45 da db 3d
       -0.1923809 0.010094934 0.10734991

exp_avg f4 [7, 22]
000000 b7 cf a0 b7 fd 0a a4 ba 9c 92 3e bc ed a0 13 bb
       -1.9170211e-05 -0.0012515482 -0.011631634 -0.002252634
000010 e1 e4 1d ba bc 92 3c bc b7 9e 5b bb 4a 15 28 ba
       -0.00060231803 -0.011509594 -0.003351135 -0.0006411864
000020 33 ad d4 39 cf 57 94 3a 7c 8b 3b 3b e3 e5 0c 3b
       0.00040564834 0.0011317673 0.0028617075 0.0021499328
000030 66 31 f2 3a 3e e9 aa 3a 79 08 0b 3b 38 aa 85 3a
       0.0018477857 0.0013039482 0.0021214767 0.0010197824
000040 90 56 c2 3a 19 fb 07 3b 78 60 26 3b d0 63 e5 3a
       0.0014826823 0.002074903 0.002538709 0.001750106
000050 05 ee 89 3a df 8e f9 3a c9 56 8e 39 74 ed d8 ba
       0.0010523206 0.0019039771 0.0002714901 -0.0016550259
000060 7e 0e 03 bd f8 85 ce bb 8f a1 b5 38 64 a2 02 bd
       -0.031996243 -0.0063025914 8.660845e-05 -0.03189315
000070 27 ad 01 bc df 9d 77 39 b9 2a 88 3b c1 36 63 3b
       -0.007914818 0.00023614567 0.0041554836 0.0034670087
000080 f7 c7 ee 3b 69 fe a0 3b b6 01 91 3b cd 61 54 3b
       0.0072870213 0.0049131406 0.004425253 0.0032406927
000090 cc de ad 3b 82 ab 2f 3b fb c5 8e 3b 49 0c b0 3b
       0.0053061005 0.0026805107 0.004357097 0.0053725583
0000a0 07 90 f2 3b e0 79 9d 3b 95 60 3c 3b a5 cf ad 3b
       0.0074024233 0.0048057884 0.002874409 0.005304294
0000b0 02 5f 29 3c 26 34 ef 3b 14 6d 32 3c aa 1a f4 3b
       0.010337593 0.0072999178 0.010890264 0.0074494677
0000c0 fb b6 2d b9 19 ef 32 3c 9c a9 bb 3c 09 85 6f b7
       -0.00016566731 0.010921263 0.022908024 -1.4276485e-05
0000d0 e8 ca f9 ba 0a 47 93 ba 91 7a bd bb ed 97 15 ba
       -0.0019057663 -0.0011236381 -0.0057824333 -0.00057065376
0000e0 1f 09 3e ba 4b d1 e7 b9 eb 5a d8 ba 7f 09 0b ba
       -0.0007249284 -0.0004421569 -0.0016506588 -0.0005303844
0000f0 4c 0f 46 bb df 25 25 bb 69 bb 15 bb e3 77 df ba
       -0.003022152 -0.0025199575 -0.00228473 -0.0017049279
000100 a0 84 c7 b8 a2 1a 06 bb 35 56 80 3b 99 65 30 ba
       -9.513763e-05 -0.0020462652 0.0039165267 -0.00067290064
000110 b0 9d 28 3b 6f 1e 98 3b d0 b6 a5 b9 57 61 9a 3a
       0.0025728755 0.0046423 -0.00031607458 0.0011778277
000120 98 8e 24 3c 8c 90 9d b8 35 1e 4c 3a f6 a1 86 ba
       0.010043763 -7.513267e-05 0.00077864836 -0.0010271657
000130 6f 9a f9 b9 57 b0 99 ba 0d 39 51 b8 cd e9 74 b8
       -0.00047608043 -0.0011725527 -4.9882616e-05 -5.8391877e-05
000140 4a e8 80 39 61 09 47 b8 a3 13 7f b9 67 7f 63 ba
       0.0002458713 -4.7454032e-05 -0.0002432601 -0.0008678347
000150 0f c9 ad 38 80 71 ac ba f7 31 60 39 d0 95 d8 39
       8.286733e-05 -0.0013156384 0.00021380918 0.0004131035
000160 08 51 0c bb 5c 92 e4 ba f2 d7 78 3b fd 7b d3 39
       -0.0021410603 -0.0017438638 0.003797051 0.00040337435
000170 62 25 8d b9 34 e4 6e 3b c6 df 88 bb 80 b4 cf b9
       -0.00026921468 0.0036451938 -0.0041770665 -0.000396166
000180 0d 67 ca b8 6b 9c 87 b9 7f a9 85 ba ce b9 4c b9
       -9.651305e-05 -0.00025865747 -0.0010197608 -0.00019524174
000190 11 34 a9 ba fe 5f db b9 cb 09 0e b9 58 da 07 ba
       -0.0012909194 -0.00041842455 -0.00013545823 -0.0005182377
0001a0 40 f5 53 b9 f2 02 36 b9 48 28 b5 ba 2a 8c 24 b9
       -0.00020213891 -0.0001735797 -0.0013821209 -0.00015692474
0001b0 ca 3e f6 b9 3b 85 06 ba f5 5e 7d bb 47 97 65 3a
       -0.00046967558 -0.0005131547 -0.0038661335 0.0008758199
0001c0 ce 7d 4f 3c cb 71 1d b8 be da 9c 3a a9 ba 54 3c
       0.0126642715 -3.7537695e-05 0.0011967046 0.012983956
0001d0 e8 34 82 bb fd a5 b0 3a 1c 7e 02 ba 8a 57 41 ba
       -0.003973592 0.0013477203 -0.0004977898 -0.000737541
0001e0 28 00 c5 bb a9 fb b3 39 5a 75 8f ba 8e 54 6a ba
       -0.0060119815 0.00034329042 -0.0010945008 -0.0008938991
0001f0 2d 2e 7c bb 3a 2a a9 ba 55 9a ca ba b5 ec 02 bb
       -0.0038479671 -0.0012906261 -0.0015457371 -0.0019977514
000200 7c 73 42 bb e9 d5 ba ba 59 63 f6 ba 68 f0 d5 ba
       -0.0029670885 -0.0014254424 -0.0018797918 -0.0016322257
000210 2a 3f 19 bc 6e f6 37 bb b0 87 4b 3c 77 a6 9f bb
       -0.009353438 -0.0028070468 0.012422487 -0.004872139
000220 83 11 34 38 2e 7f 60 3c 1e 86 81 bc 83 c8 15 ba
       4.2931653e-05 0.013702197 -0.015811022 -0.00057137775
000230 7d ad 23 bb 3f 78 85 ba 91 0f 00 3b f9 8f a1 bb
       -0.0024975233 -0.0010182931 0.0019540528 -0.004930493
000240 b7 b8 34 bb 92 e6 23 bb 25 68 cc ba ed 86 ab ba
       -0.002757592 -0.0025009257 -0.0015595002 -0.0013086476
000250 71 de 3c ba d7 ee d1 ba 66 dc 50 bb d5 84 d2 ba
       -0.0007204777 -0.0016016614 -0.003186965 -0.0016061316
000260 68 10 e2 ba 8e 96 4e bb
       -0.0017247321 -0.0031522843

exp_avg_sq f4 [7, 22]
000000 38 f5 c0 36 0f 4f 82 36 93 22 17 39 19 a4 73 36
       5.750593e-06 3.8835055e-06 0.00014413362 3.630534e-06
000010 05 76 17 36 59 4b 1b 39 4a 1e 3f 37 bd b4 60 36
       2.256945e-06 0.00014810021 1.1391539e-05 3.3483805e-06
000020 40 04 7d 37 b1 13 07 36 43 3f 44 36 db 42 47 36
       1.5080965e-05 2.012803e-06 2.92431e-06 2.9692226e-06
000030 73 cf 31 36 b7 aa c2 35 8e e3 21 36 99 fd 88 35
       2.6495807e-06 1.4503811e-06 2.4123324e-06 1.0206596e-06
000040 71 14 69 36 20 81 32 36 40 5e 1c 37 0c 11 4e 36
       3.4731604e-06 2.6599228e-06 9.320269e-06 3.0706315e-06
000050 4c 11 b8 35 be ca 86 36 f4 a1 c4 36 d1 98 de 35
       1.3714102e-06 4.0171135e-06 5.860109e-06 1.6584764e-06
000060 7e 09 4a 39 c9 b5 53 37 1d 78 7f 34 bc 97 45 39
       0.00019267757 1.2618905e-05 2.3792423e-07 0.0001884391
000070 ff 9b 2b 38 e2 01 b3 34 b9 fb 85 36 81 f2 4b 36
       4.091486e-05 3.3342718e-07 3.9930133e-06 3.0390513e-06
000080 d3 21 27 37 3f 7c 9d 36 aa 6a 94 36 c9 38 2b 36
       9.961851e-06 4.6934288e-06 4.423161e-06 2.551404e-06
000090 05 0b c0 36 24 69 b8 35 e4 03 ab 36 e3 d3 a7 36
       5.7233287e-06 1.3739668e-06 5.09665e-06 5.0016547e-06
0000a0 2d 4c 1e 37 8f e2 94 36 9a a4 bb 35 95 95 ac 36
       9.43527e-06 4.4371186e-06 1.3980491e-06 5.143413e-06
0000b0 da 58 31 38 f2 6c 88 37 63 6e 90 3a a0 37 c4 38
       4.2282838e-05 1.6263195e-05 0.0011019226 9.356369e-05
0000c0 23 b0 29 35 dd 2c 8d 3a b0 5d c6 39 69 f5 54 35
       6.321372e-07 0.0010770817 0.00037835306 7.9333273e-07
0000d0 26 e3 9e 37 d3 34 58 37 64 af d1 38 26 a0 b5 37
       1.8940842e-05 1.2886902e-05 9.998566e-05 2.1651456e-05
0000e0 97 47 a7 37 bc 89 47 37 1b a3 b4 37 a1 f5 ea 36
       1.9941288e-05 1.1893393e-05 2.1533624e-05 7.0023384e-06
0000f0 80 f0 18 38 24 fc 02 38 65 01 5a 38 e4 fa cf 37
       3.6463607e-05 3.122924e-05 5.197655e-05 2.4793153e-05
000100 a5 4a cb 36 00 48 f9 37 eb 4d ca 37 28 20 76 36
       6.058561e-06 2.971664e-05 2.411656e-05 3.6675574e-06
000110 b1 13 83 3a b6 70 c9 38 22 e7 f9 35 e3 d6 73 3a
       0.0010000375 9.605421e-05 1.8619214e-06 0.0009301735
000120 cd 87 92 39 94 35 15 36 b1 e7 93 37 df ad 1b 38
       0.0002794847 2.2233917e-06 1.7631655e-05 3.711681e-05
000130 f3 55 b0 37 2b 8e 20 38 fc 5b ad 37 80 0a 0e 37
       2.1020858e-05 3.8279377e-05 2.066604e-05 8.466304e-06
000140 5a e4 e4 37 bb 8d db 36 27 b8 cb 37 da 02 f2 37
       2.7286053e-05 6.543208e-06 2.4285238e-05 2.8849976e-05
000150 c9 c7 2e 38 6a 87 00 38 8d f5 db 36 9d 48 c6 37
       4.1670897e-05 3.0643692e-05 6.5552945e-06 2.3637253e-05
000160 38 da f8 36 b9 02 25 36 53 3c 2b 3a a7 83 0f 38
       7.41638e-06 2.45885e-06 0.00065321213 3.4216468e-05
000170 9a 17 b1 34 9a 5c 24 3a cb 88 34 38 d2 15 60 35
       3.2985992e-07 0.0006269902 4.3042743e-05 8.3478255e-07
000180 c3 2f 85 37 19 cc 21 37 05 d1 58 37 62 54 68 37
       1.5877076e-05 9.643868e-06 1.2923269e-05 1.38479245e-05
000190 6b f3 19 38 c2 9f 0d 37 0f 6d 33 37 33 02 b7 36
       3.6704743e-05 8.441451e-06 1.0694624e-05 5.454081e-06
0001a0 a9 57 69 37 ea 10 76 37 33 67 10 38 69 2d 6d 37
       1.3908292e-05 1.4666681e-05 3.4428387e-05 1.4136874e-05
0001b0 d8 e8 b2 36 96 ee 8a 37 ae 7f 7a 37 b4 0f ec 34
       5.33192e-06 1.6561982e-05 1.4930889e-05 4.396985e-07
0001c0 16 c4 e9 39 96 d8 b1 36 d2 18 c8 34 45 ec ee 39
       0.0004458732 5.300225e-06 3.7270962e-07 0.00045570932
0001d0 91 4f 5e 37 74 cb d1 34 77 ce c8 36 e2 e0 84 36
       1.3250757e-05 3.9077315e-07 5.9845e-06 3.9600864e-06
0001e0 84 81 b0 37 69 e5 de 36 7d c8 04 37 25 8a ab 37
       2.1041145e-05 6.6428224e-06 7.914493e-06 2.0449117e-05
0001f0 84 bd 87 37 e1 e6 7e 36 aa 36 16 37 9d ee 28 37
       1.6181504e-05 3.7983339e-06 8.953424e-06 1.0069137e-05
000200 b5 ce ce 37 20 86 0d 37 d0 83 b5 36 f3 19 36 37
       2.465337e-05 8.435483e-06 5.4095653e-06 1.0854087e-05
000210 14 15 c8 38 ae 84 cd 36 40 ca 94 3a b4 6d f0 37
       9.540669e-05 6.124922e-06 0.0011351779 2.8661314e-05
000220 48 2e 39 36 e7 24 9e 3a eb 22 5d 39 71 2a 95 36
       2.7594087e-06 0.0012065441 0.0002108921 4.445487e-06
000230 74 33 bf 37 d0 e7 55 37 97 b2 83 37 2b 50 50 38
       2.2792934e-05 1.2749762e-05 1.569958e-05 4.9665727e-05
000240 3a 8c fa 37 54 ab 99 37 c3 bb 82 38 73 52 25 37
       2.986762e-05 1.8318802e-05 6.2338564e-05 9.853963e-06
000250 aa 60 a6 37 64 23 d8 37 22 c9 84 38 ab 87 c3 37
       1.9833755e-05 2.5765687e-05 6.3317144e-05 2.3308987e-05
000260 68 78 4e 37 d6 a9 2e 38
       1.2306591e-05 4.1643005e-05

exp_avg f4 [7, 7]
000000 d8 b5 06 ba 6b 6c 6f 3a 35 c9 21 3b 82 08 26 3b
       -0.0005138791 0.0009133282 0.002468658 0.002533466
000010 6d 88 1a 3b aa 8b fd 3a ee b0 0a 3b 80 cf 08 3b
       0.0023579851 0.0019343991 0.0021162587 0.0020875633
000020 1b 3a 40 3b 1f 4e f7 3b fc de d5 3b 3f 58 9d 3b
       0.0029331509 0.0075471546 0.006526826 0.0048017795
000030 7a 55 84 3b e5 42 9f 3b 19 8a 2e b9 26 43 1b bb
       0.00403851 0.0048602694 -0.00016645378 -0.0023691147
000040 71 f4 74 bc 19 c5 8e 3a 32 a8 b8 3a cb b4 37 3b
       -0.0149508575 0.001089248 0.0014088212 0.0028031345
000050 c1 0f b6 b7 00 9b b0 39 a0 1d 94 38 7b e5 d2 3a
       -2.1703427e-05 0.0003368482 7.062708e-05 0.0016090119
000060 4d 56 36 bc 88 69 f0 b8 12 2f 43 3b 7a 3c 93 3b
       -0.011128974 -0.000114637485 0.0029782695 0.0044932934
000070 1d b5 11 ba b3 2b 92 b9 b1 73 ca 3a 9d be d5 3a
       -0.0005558299 -0.00027879848 0.0015445856 0.0016307418
000080 45 d7 05 bc 2c de fb 39 03 91 fb 3a a1 bf f8 b9
       -0.008169 0.00048039982 0.0019192997 -0.0004744502
000090 36 10 25 ba 7e e6 1d b6 2e 1a ca 38 e0 f5 9f 39
       -0.0006296666 -2.3528987e-06 9.636987e-05 0.00030510034
0000a0 4e 14 5c bc 71 1c b7 3a eb 98 0a ba 4e 5a 14 b9
       -0.013432575 0.0013970268 -0.0005287069 -0.00014148021
0000b0 a6 83 99 3a b2 cb 15 b9 c0 03 0e ba d2 12 93 36
       0.0011712208 -0.0001428563 -0.0005417429 4.3831324e-06
0000c0 68 03 57 bc
       -0.013123371

exp_avg_sq f4 [7, 7]
000000 bb c5 5d 37 28 7e f6 35 cd da 33 36 43 18 de 36
       1.3218664e-05 1.8365145e-06 2.6800437e-06 6.61894e-06
000010 9a 40 4e 36 99 51 d5 35 72 1c 61 36 23 e2 bd 35
       3.0733995e-06 1.5893485e-06 3.354417e-06 1.4147412e-06
000020 5c 0b 28 36 22 61 71 37 b3 88 3a 37 eb 7f c0 36
       2.5040563e-06 1.4387335e-05 1.1118292e-05 5.7369375e-06
000030 5c 0a 83 36 8a b9 df 36 96 4b 5c 36 47 72 95 37
       3.90531e-06 6.6675175e-06 3.2826551e-06 1.7815399e-05
000040 4d 5c 44 39 66 a9 23 38 9a 15 8e 37 91 e8 db 36
       0.00018726401 3.9019993e-05 1.6937778e-05 6.553783e-06
000050 12 ac 92 37 e9 9f 3b 36 c2 af 1e 37 92 f8 92 37
       1.7484683e-05 2.7958251e-06 9.458456e-06 1.7520306e-05
000060 c8 82 5d 39 18 eb 66 37 ca 07 d1 36 f0 7d 09 38
       0.00021124922 1.3763805e-05 6.229592e-06 3.2780634e-05
000070 5e fe 60 36 a1 3d dd 36 07 d5 27 37 85 b1 d6 37
       3.3526662e-06 6.593488e-06 1.0003575e-05 2.5593452e-05
000080 6d 2a c0 38 ff 8f 5c 36 37 dd 7c 37 d9 69 dd 35
       9.163176e-05 3.2866371e-06 1.5071876e-05 1.6496589e-06
000090 42 a1 4a 36 4b 0f 89 36 3f 6c 2e 37 47 c3 86 36
       3.019421e-06 4.0846985e-06 1.0396411e-05 4.0162445e-06
0000a0 ea 01 ce 38 ff 1b 16 37 b3 fa c8 36 38 66 16 37
       9.823202e-05 8.947215e-06 5.9896497e-06 8.964496e-06
0000b0 d4 43 9d 37 81 f9 19 38 cc 6c 9b 37 eb a0 34 37
       1.8747443e-05 3.671041e-05 1.8528102e-05 1.0766303e-05
0000c0 ba fe 42 39
       0.00018596175

exp_avg f4 [7]
000000 a1 ad 41 3c fe 57 06 3d 81 03 48 bc cb e0 e6 ba
       0.0118211815 0.03279876 -0.012207867 -0.0017614601
000010 8d 10 60 bb 71 a9 50 bc 24 06 5a bc
       -0.0034189553 -0.0127357105 -0.013307128

exp_avg_sq f4 [7]
000000 6d 17 22 39 f9 20 54 39 7c 0a 9a 3a 59 2e 87 3a
       0.0001545825 0.00020230179 0.0011752392 0.0010313495
000010 60 b5 2e 3a c6 68 f3 39 8e 60 a3 3a
       0.00066646 0.00046426634 0.0012464689

exp_avg f4 [7]
000000 51 b6 41 3c d1 56 06 3d 3d 12 48 bc 7e 7a e6 ba
       0.011823253 0.03279764 -0.01221138 -0.0017584113
000010 47 d7 5f bb 07 9f 50 bc e5 01 5a bc
       -0.0034155415 -0.012733228 -0.013306116

exp_avg_sq f4 [7]
000000 32 18 22 39 30 1f 54 39 b5 0a 9a 3a 19 2e 87 3a
       0.00015458537 0.00020229514 0.0011752459 0.0010313421
000010 4a b5 2e 3a 73 68 f3 39 82 60 a3 3a
       0.00066645874 0.00046426393 0.0012464675

exp_avg f4 [7, 22]
000000 4a cb a8 38 eb 4b 25 3b d2 b7 80 bc 19 37 10 bb
       8.04873e-05 0.0025222253 -0.015712652 -0.0022005497
000010 33 c5 1a 3b af 09 7f bc 59 82 53 bb 0a b1 33 3b
       0.0023616075 -0.015566274 -0.0032273738 0.0027418756
000020 92 aa 90 3a 9a 06 d0 3a b5 bf 5d 3b cd a0 62 3b
       0.0011037162 0.0015871108 0.003383619 0.0034580708
000030 a7 34 3e 3b 21 35 ab 3a 87 45 18 3b 89 1b df 3a
       0.0029023082 0.0013062098 0.00232348 0.0017021756
000040 f3 82 81 3b e9 81 a8 3a 39 df 86 3b 3d 01 b0 3a
       0.003952378 0.0012856099 0.0041159657 0.0013428103
000050 c9 93 0d 3b ce a3 c5 3a c7 65 79 bc c0 c5 26 bb
       0.002160298 0.0015078725 -0.0152220195 -0.0025447458
000060 2b c2 eb 3a 51 05 31 bc 3a 53 dd 3a 31 e3 b5 3b
       0.0017986944 -0.01080449 0.0016885765 0.005550765
000070 d7 b1 14 bd 78 c1 5b bb b7 50 7f 3a a0 cf 0d bc
       -0.036302414 -0.0033532064 0.00097395055 -0.008655459
000080 cc 8e db 3a 6c 61 29 3b db 92 55 3a a1 f6 31 ba
       0.0016750931 0.0025845421 0.00081471883 -0.0006788765
000090 91 1f e5 ba eb c2 cc 39 68 38 f0 ba aa 18 2d ba
       -0.0017480721 0.00039055137 -0.0018327357 -0.00066031015
0000a0 fd ab 62 ba 64 a6 de b9 9d 46 00 3a 8c 6d 0b bb
       -0.0008646844 -0.0004246711 0.00048933347 -0.0021275012
0000b0 40 78 ab 3a 31 45 1e 3b 36 17 30 bc a2 aa 3c ba
       0.0013082102 0.0024150128 -0.010747721 -0.0007197057
0000c0 10 ac 01 3b af 19 33 bc cf 5b 34 3a cc 69 23 3b
       0.0019786395 -0.010931416 0.00068801356 0.0024934886
0000d0 ff 15 ba 3a 72 68 d4 3a a8 22 09 3b ef d4 e6 3a
       0.0014197229 0.0016205444 0.0020925198 0.0017611067
0000e0 6f eb e3 3a 02 7e 84 3a 52 a8 d7 3a f1 6f 90 3a
       0.001738889 0.0010108354 0.0016453362 0.0011019689
0000f0 fe d6 38 3b 78 17 71 3a 43 02 3e 3b 1e e7 78 3a
       0.0028204317 0.00091969175 0.0028993047 0.00094948884
000100 6d 81 b5 3a 9a c1 9e 3a 27 e5 09 3c 79 03 93 3b
       0.0013847776 0.0012112141 0.008416451 0.004486498
000110 1c ed 9c bc 48 94 a7 3b 5d 82 ec 3a 26 53 ae bc
       -0.019156031 0.005114112 0.0018044222 -0.021279883
000120 cb 3f a5 3c 4d c6 83 3b de b4 a3 3a 9b bd 8b 3b
       0.02017202 0.004021442 0.0012489816 0.004264546
000130 c3 59 56 3b 3a 8e 0e 3b c4 e8 6e 3b d8 be 16 3b
       0.003270731 0.0021752254 0.0036454657 0.0023001935
000140 8a c6 80 3b d3 7e ac 3a 86 f1 c2 3b 82 f1 e2 3a
       0.0039299177 0.0013160355 0.005949202 0.0017314407
000150 f6 4f aa 3b 5d 0c d7 3a 75 bd 12 3b f7 a3 34 3b
       0.0051975204 0.0016406883 0.0022390757 0.002756355
000160 22 17 45 3a 7a ef 82 3a de 94 2a bb 00 c5 1f 39
       0.00075184007 0.0009989582 -0.0026028673 0.0001523681
000170 aa e7 16 3a d5 66 39 bb bb c6 7c 3a bf bf 89 3a
       0.00057565665 -0.0028290052 0.000964265 0.0010509415
000180 8d 22 20 3a 69 1d 55 3a 14 58 8d 38 d7 2a 54 3a
       0.0006108664 0.00081296876 6.73981e-05 0.0008093542
000190 93 79 9a b8 09 24 57 39 b2 87 09 3a de 70 93 39
       -7.365937e-05 0.00020517422 0.00052463554 0.00028122118
0001a0 eb 35 27 3a 13 8b 92 39 4f 32 39 3a cb 29 98 39
       0.0006378579 0.00027950908 0.00070646865 0.00029022837
0001b0 cc 26 d4 39 53 7f b7 39 16 a3 b9 3b 5d 4b a1 bb
       0.00040464697 0.00034999344 0.0056651933 -0.004922314
0001c0 6b 00 f1 3c 3e 56 05 3c 07 c3 b4 bb e4 6d e7 3c
       0.029419145 0.0081382375 -0.005516413 0.028250642
0001d0 56 03 81 3c 8e 0a a3 bb 68 69 54 bb f0 00 5b ba
       0.015748661 -0.0049756235 -0.003241146 -0.0008354327
0001e0 e8 94 5d bb 79 1e 1e bc 3a 7f d8 bb 33 8a 19 bb
       -0.003381068 -0.00965082 -0.0066069635 -0.002342832
0001f0 38 54 59 bb f0 9a 40 bb 00 e8 ef bb bf d1 15 bb
       -0.003316177 -0.0029389225 -0.0073213577 -0.0022860614
000200 f6 d0 eb bb e6 91 28 bb 7c a6 98 bb aa 46 1d bb
       -0.007196541 -0.0025721728 -0.0046585184 -0.0023998418
000210 ef 37 f1 ba b7 65 bc bb c2 61 fb 3c 58 cf b2 3a
       -0.001840351 -0.00574943 0.030686263 0.0013642116
000220 94 64 a9 bb 69 67 fb 3c e5 05 dd 3a c5 0d 9a bb
       -0.0051694605 0.030688958 0.0016862719 -0.0047013485
000230 8a f3 54 bb d2 cb e6 36 33 69 21 bc 31 27 8e bb
       -0.0032493793 6.878262e-06 -0.009851742 -0.004338168
000240 89 fc 9e bb fe 80 4c bb 3d d6 b4 bb 80 27 4f bb
       -0.004851882 -0.0031204815 -0.0055187033 -0.0031609237
000250 e4 06 00 bc 8f c4 1e bb cf ba 0a bc 43 ea 1d bb
       -0.007814143 -0.0024226045 -0.00846739 -0.002409593
000260 19 0a 82 bb 62 03 30 bb
       -0.003968489 -0.0026857485

exp_avg_sq f4 [7, 22]
000000 22 c6 93 36 04 b4 fb 37 97 3a 8f 39 cd c2 15 37
       4.404007e-06 3.0005358e-05 0.00027318738 8.926448e-06
000010 f5 94 cd 37 91 b2 8f 39 76 48 d3 37 b5 53 f8 37
       2.4507268e-05 0.00027408128 2.5186902e-05 2.9602883e-05
000020 28 c4 c2 37 a3 d9 70 36 b3 6f cc 36 22 52 12 37
       2.3217945e-05 3.5889468e-06 6.0926773e-06 8.721401e-06
000030 77 36 d3 36 9f 46 1a 36 83 49 91 36 5d 34 79 36
       6.2946306e-06 2.2988895e-06 4.3298946e-06 3.713437e-06
000040 bc f4 8d 37 fe a5 28 36 23 28 ab 37 a0 65 1f 36
       1.6922473e-05 2.513057e-06 2.0403479e-05 2.3752e-06
000050 37 a7 93 36 a0 a9 61 36 d2 df 9f 39 b8 b0 2c 39
       4.4004078e-06 3.3626347e-06 0.00030493602 0.00016469031
000060 b1 48 0f 3b 7b 8f 76 38 58 19 83 38 bf af 25 3b
       0.0021863396 5.8784597e-05 6.2512874e-05 0.0025281755
000070 b8 18 93 3a 1c 15 4d 39 87 b8 35 38 11 2e 24 39
       0.0011222577 0.00019558187 4.3325617e-05 0.0001565742
000080 00 47 6e 38 fa 7e 3c 38 50 fa 47 38 90 9b b6 37
       5.6809746e-05 4.494095e-05 4.767842e-05 2.176853e-05
000090 39 d4 83 38 01 d0 b9 37 d1 dd 29 39 c7 99 c7 37
       6.286096e-05 2.2150578e-05 0.00016199729 2.3794257e-05
0000a0 ec f8 2d 39 7c de a1 37 e9 1f 01 38 f1 1a 38 38
       0.00016591296 1.9296298e-05 3.0785715e-05 4.389411e-05
0000b0 00 14 59 36 78 6f 35 36 b7 86 2c 38 9f 56 c1 35
       3.2347161e-06 2.7035985e-06 4.113346e-05 1.4404831e-06
0000c0 b3 77 cd 35 db a0 38 38 61 a9 6f 37 97 5c 4e 36
       1.5308527e-06 4.4018827e-05 1.4284947e-05 3.0750286e-06
0000d0 aa 31 87 35 6c 3f 07 36 6f 78 a6 35 12 4f 94 35
       1.0072738e-06 2.0153484e-06 1.2403015e-06 1.1049872e-06
0000e0 69 c4 86 35 1e f1 d9 34 4e 91 8e 35 df 34 05 35
       1.0040941e-06 4.0594836e-07 1.0622114e-06 4.96233e-07
0000f0 65 1e 38 36 3c 2a e6 34 a4 d9 45 36 ae b3 ba 34
       2.7435829e-06 4.2871568e-07 2.948197e-06 3.4775934e-07
000100 3d 86 26 35 d2 54 2b 35 55 11 3c 38 f1 51 fc 38
       6.203516e-07 6.3825894e-07 4.4838835e-05 0.00012031559
000110 68 da 14 3b e1 75 ef 38 b8 25 e1 38 f6 e5 10 3b
       0.0022713188 0.00011418365 0.00010735862 0.0022109724
000120 f0 a4 00 3a 87 90 0b 39 f7 9a 88 38 18 7c 3a 38
       0.000490739 0.00013309914 6.51385e-05 4.4461427e-05
000130 ad 24 85 38 dc 17 c2 38 23 c3 6a 38 03 44 92 37
       6.3487656e-05 9.255085e-05 5.5971683e-05 1.7436227e-05
000140 67 e9 44 38 f3 3a 0b 38 a5 a3 0c 39 14 6a a4 37
       4.6947414e-05 3.3195083e-05 0.00013412403 1.959972e-05
000150 e0 9f 23 39 9f 34 9f 37 22 b4 1f 38 fc 56 c5 37
       0.0001560445 1.897878e-05 3.8076316e-05 2.3524735e-05
000160 55 c3 dd 35 dc 53 03 37 3e 29 2d 39 5a 5b b4 36
       1.6522632e-06 7.8277335e-06 0.0001651393 5.3750528e-06
000170 4a 0b d7 36 f6 6b 2a 39 c3 f6 21 37 5a ee 02 37
       6.4088135e-06 0.00016252682 9.6538015e-06 7.804099e-06
000180 74 ab 5f 36 e2 77 31 36 25 80 91 36 37 bd 77 36
       3.3329388e-06 2.6444836e-06 4.3362547e-06 3.6916006e-06
000190 e7 1b 2a 37 8e 2c e3 35 e6 28 48 36 7f 14 05 36
       1.0139286e-05 1.6925785e-06 2.9826128e-06 1.9830475e-06
0001a0 c7 98 36 37 a6 74 b3 35 89 b1 3d 37 bf 75 a8 35
       1.0883617e-05 1.3370488e-06 1.13066135e-05 1.2551244e-06
0001b0 10 a4 26 36 f9 b8 fb 35 4a 71 09 37 65 49 1b 38
       2.4831425e-06 1.8754791e-06 8.1922135e-06 3.7023234e-05
0001c0 d9 18 87 3a 9f 60 0b 38 3e 65 08 38 2f 38 84 3a
       0.0010307088 3.3230168e-05 3.2519216e-05 0.0010087545
0001d0 a8 27 cb 38 5d 26 21 38 1c bc 86 37 91 0d 15 37
       9.687181e-05 3.842112e-05 1.606164e-05 8.884251e-06
0001e0 80 db 00 38 0a 4a 68 38 cf 55 1b 38 e1 8c a0 37
       3.0722003e-05 5.5382065e-05 3.7034795e-05 1.9139088e-05
0001f0 eb 29 87 37 e3 01 42 37 3a ea 8b 38 fb 80 08 37
       1.6112774e-05 1.156374e-05 6.6716646e-05 8.136262e-06
000200 3a 3a 8c 38 a3 f3 05 37 82 9e a2 37 2d 0a 1d 37
       6.686566e-05 7.984144e-06 1.9385716e-05 9.3602985e-06
000210 1b ed 98 37 4d 34 bd 37 26 f4 01 3a 8a 77 6f 36
       1.8230223e-05 2.255491e-05 0.00049573404 3.5683356e-06
000220 0b c5 6e 37 34 d9 07 3a b4 88 5a 38 05 69 b8 37
       1.4231783e-05 0.0005182207 5.2102565e-05 2.1983413e-05
000230 4b 9f f0 36 42 5a 44 37 c8 85 d2 37 0c 85 35 37
       7.1711015e-06 1.1703525e-05 2.5096248e-05 1.0819418e-05
000240 c4 ef 41 37 fd 52 ad 36 74 21 b3 37 16 c3 b0 36
       1.1559521e-05 5.165463e-06 2.135404e-05 5.2679197e-06
000250 a0 5a 0c 38 5d 0a 90 36 56 b0 17 38 4c 5e 76 36
       3.3463002e-05 4.292741e-06 3.616543e-05 3.6711745e-06
000260 04 5d fc 36 e0 87 c7 36
       7.5210137e-06 5.94648e-06

exp_avg f4 [7, 7]
000000 a9 2a ac b9 2c 4f 47 3b 28 e8 3f 3a b6 24 a4 3b
       -0.0003283818 0.003041218 0.0007320666 0.005009259
000010 91 92 a6 3a 8f 18 6c 3b 1a 8b 33 3b 3d e7 6b 3a
       0.0012708475 0.003602538 0.0027396143 0.0008998996
000020 b5 66 86 bc ef ae d2 b9 83 ff 89 3b 70 5c 78 3a
       -0.016406396 -0.00040184657 0.0042113676 0.00094742235
000030 8a 7e 8a 3b 14 9a c2 3a 84 35 59 3a f8 1a 4c 3b
       0.0042265104 0.0014846944 0.00082858675 0.0031144004
000040 bd 38 19 3a 05 fc 22 3b 39 81 4a 3a 65 f7 d5 3a
       0.00058449415 0.0024869454 0.0007724944 0.001632434
000050 dd d2 f5 3a 49 c3 c0 3a 15 fe 26 3c 05 92 a0 3a
       0.0018754859 0.0014706637 0.010192414 0.0012250548
000060 88 f7 b6 bb e0 fd e7 3a 1d b5 ba 3b aa 08 c7 3b
       -0.0055837072 0.0017699562 0.00569786 0.006074031
000070 87 58 9b 39 74 3b ad 3a 4d 66 0a 39 fc 71 8c 3a
       0.00029629862 0.0013216571 0.00013198816 0.0010715122
000080 86 7b c7 ba fc 8d ba 3a 10 d1 6e 39 24 21 ab ba
       -0.0015219308 0.0014232988 0.0002277533 -0.0013056141
000090 70 31 22 bb 86 12 96 ba 5d 1c 1d bb 6e 8f 03 bb
       -0.0024748705 -0.0011449612 -0.0023973205 -0.0020074504
0000a0 7e 32 ae bc 6a fb a0 3a 91 f9 15 bb e7 8f c0 ba
       -0.02126431 0.0012281958 -0.002288435 -0.0014691324
0000b0 c8 03 ed ba 62 b4 c0 bb 8e b8 d6 ba 63 5d ef ba
       -0.0018082792 -0.0058808783 -0.0016381906 -0.0018262084
0000c0 7b 2f 83 bc
       -0.016013851

exp_avg_sq f4 [7, 7]
000000 11 5c b8 37 6d fc 1e 37 08 d6 9d 35 1d 2a 0f 38
       2.1977381e-05 9.476306e-06 1.1759703e-06 3.4133078e-05
000010 de 7d ca 35 75 56 ac 36 59 5c 2a 36 ad 48 4c 37
       1.5086805e-06 5.1360644e-06 2.5385727e-06 1.2176269e-05
000020 19 67 15 3a 87 15 2c 37 2e 1c 18 39 e5 d6 27 37
       0.00056992617 1.0257011e-05 0.00014506347 1.000401e-05
000030 10 5b 9f 37 65 c7 d5 37 50 47 fd 34 f0 df ec 36
       1.8996681e-05 2.5484429e-05 4.717681e-07 7.059418e-06
000040 1e 12 43 34 ea 1a 83 36 52 c9 73 34 c0 00 64 35
       1.8167381e-07 3.9072374e-06 2.2704378e-07 8.493771e-07
000050 85 87 5a 35 f4 b1 90 37 b8 dc ff 38 64 da 09 37
       8.1408535e-07 1.7249004e-05 0.000122004596 8.216684e-06
000060 a4 55 01 3a 41 62 50 37 73 e8 fa 37 da 96 87 37
       0.0004933721 1.2420643e-05 2.9910565e-05 1.61635e-05
000070 c8 1a d6 35 05 74 13 37 df 62 35 35 67 6d 1f 37
       1.5952037e-06 8.788896e-06 6.757163e-07 9.502611e-06
000080 9a bc 35 37 b1 d7 27 36 55 f9 bc 35 19 85 99 36
       1.0832353e-05 2.5010488e-06 1.4079657e-06 4.57525e-06
000090 f8 31 06 38 42 59 4c 36 e8 1c 47 38 a1 34 c1 36
       3.1994627e-05 3.0450324e-06 4.747222e-05 5.757975e-06
0000a0 57 41 44 39 d1 f1 ad 36 59 cb 3f 36 4f 8a 3a 38
       0.00018716358 5.183953e-06 2.8579582e-06 4.4474666e-05
0000b0 eb d8 02 36 04 86 b2 37 a0 f2 2e 36 6a ce 95 36
       1.9497772e-06 2.128166e-05 2.6069247e-06 4.464576e-06
0000c0 09 fb 5b 38
       5.2447464e-05

exp_avg f4 [7]
000000 16 92 83 3c a6 ea a4 bb 9c 03 39 3c 1f b8 aa 3c
       0.01606087 -0.005032855 0.011292364 0.020839749
000010 dd b1 41 3b 38 8c f0 bc 3c 52 fd bc
       0.0029555478 -0.029363737 -0.030923001

exp_avg_sq f4 [7]
000000 20 06 a2 39 a8 8f 2e 3b 6e 46 46 38 c4 a3 20 3b
       0.0003090361 0.0026635919 4.727247e-05 0.0024511674
000010 46 b8 38 39 29 55 8d 3a 68 24 0d 3a
       0.00017616255 0.0010782826 0.0005384148

exp_avg f4 [7]
000000 4a 92 83 3c 89 02 a5 bb 2c ff 38 3c a4 b0 aa 3c
       0.016060967 -0.0050357026 0.0112913065 0.020836182
000010 99 8e 41 3b 5e 90 f0 bc 6c 4d fd bc
       0.0029534458 -0.029365715 -0.030920707

exp_avg_sq f4 [7]
000000 29 06 a2 39 c8 8f 2e 3b 20 43 46 38 dd a3 20 3b
       0.00030903638 0.0026635993 4.7269394e-05 0.0024511733
000010 1d b8 38 39 47 55 8d 3a 47 24 0d 3a
       0.00017616195 0.0010782861 0.0005384129

exp_avg f4 [7, 22]
000000 0e 9d b9 bb f8 0f 8b ba 4c 89 69 bc 16 68 99 bb
       -0.0056644743 -0.0010609617 -0.0142539255 -0.0046815975
000010 b0 23 0d ba ff b6 5a bc 2d 6e 62 bc ae 57 d2 b9
       -0.0005384041 -0.013349294 -0.013820213 -0.00040119648
000020 fe 89 6b b9 ea 41 bc 3a bb b3 38 3b 07 77 6d 3b
       -0.00022462753 0.0014362906 0.00281833 0.0036234276
000030 6f d6 1c 3b 9d 1b e7 3a 01 79 17 3b 13 26 01 3b
       0.0023931523 0.0017632131 0.0023112895 0.0019706532
000040 18 2d ca 3a 28 37 6e 3a ac 86 4b 3b 2d 3d 02 3b
       0.0015424816 0.00090871984 0.0031055612 0.001987289
000050 ec 57 01 3b 2d 3e 2d 3b d5 84 af bb b9 a5 29 3b
       0.0019736243 0.0026434765 -0.005356411 0.0025886132
000060 e2 d6 da bc e1 46 26 bc 8c ff 5c 3b 47 bc d0 bc
       -0.026713792 -0.010148735 0.0033721654 -0.025480403
000070 e9 94 99 bc 19 a1 81 3b c2 f0 65 3b a7 b0 09 3b
       -0.018747764 0.003955972 0.003508613 0.0021009834
000080 f3 7f a2 3b 69 c3 c4 3b c3 a3 83 3b 15 0d 44 3b
       0.0049591004 0.00600474 0.0040173247 0.0029915024
000090 52 06 84 3b 54 4d 81 3b 7f 20 6e 3b 8d 80 ff 3a
       0.0040290738 0.003945986 0.0036335287 0.0019493267
0000a0 d1 04 b5 3b ae f1 82 3b 8e 3b 78 3b dc ed 9c 3b
       0.005524256 0.0039960956 0.0037877294 0.0047890972
0000b0 ba 04 5c bb 2f 8d 2b 38 e3 38 b2 ba ff 6c 64 bb
       -0.0033572153 4.0901064e-05 -0.0013597276 -0.0034855006
0000c0 db b5 42 3a c9 e6 25 ba 9d 73 05 bc 7a 0c 65 39
       0.0007427611 -0.000632864 -0.00814524 0.0002184379
0000d0 81 80 5e 39 d8 3d 45 39 c6 f1 ab b9 7a 30 a8 39
       0.00021219441 0.00018810423 -0.00032795797 0.00032079575
0000e0 67 93 08 39 0d 92 c9 38 70 8f 50 39 5b 89 5b 39
       0.00013024882 9.611631e-05 0.0001988986 0.00020936636
0000f0 9f 75 36 b9 21 b1 56 b9 00 dd e7 39 57 c0 6b 39
       -0.0001740069 -0.00020474616 0.0004422441 0.00022482999
000100 05 b9 09 b9 78 f9 e8 39 58 67 9b bb e7 58 1c 3b
       -0.00013134263 0.00044436357 -0.004742544 0.00238567
000110 a3 f4 f7 bc 57 7a 23 bc c6 6e 68 3b 18 a3 ee bc
       -0.030268019 -0.009977899 0.0035466417 -0.029130504
000120 12 b5 93 bc 1e 41 7f 3b 0f 73 77 3b eb ef 51 3b
       -0.018030677 0.0038948725 0.003775779 0.0032033871
000130 c4 a2 c8 3b f7 97 c7 3b 2e 90 91 3b 47 5c 55 3b
       0.006122919 0.0060911137 0.0044422364 0.0032556222
000140 0c 03 98 3b de aa 91 3b 0c 61 8a 3b 5c 92 19 3b
       0.004639035 0.004445418 0.0042229947 0.0023433184
000150 4d 5c cc 3b 02 96 94 3b d3 64 8e 3b af 5d b0 3b
       0.006236589 0.004534484 0.0043455153 0.0053822617
000160 87 0d 44 3c 15 21 25 bc e0 f4 a5 3d 8d af e4 3c
       0.011966116 -0.010078688 0.08103347 0.02791574
000170 be e1 36 bc 25 6d 9c 3d 84 92 72 3d ba 25 48 bc
       -0.01116222 0.07638005 0.05922176 -0.012216026
000180 00 d9 24 bc d8 4c e9 bb e3 5b 27 bc 0b 14 b0 bc
       -0.010061502 -0.007119756 -0.010214779 -0.021493932
000190 70 33 65 bc 52 2f 1b bc a3 9d 27 bc b6 2e 4e bc
       -0.013989314 -0.009471731 -0.010230455 -0.012584379
0001a0 d0 9f 36 bc e9 f4 c6 bb fb cc 82 bc 75 68 3c bc
       -0.011146501 -0.006071676 -0.015966883 -0.011499514
0001b0 ea 00 3d bc 25 d4 61 bc a1 e2 0f bb 63 77 0b 3b
       -0.011535862 -0.013783489 -0.002195515 0.0021280877
0001c0 ef 20 cd bc c2 90 c9 bb 04 27 39 3b 5f 0e ca bc
       -0.025040118 -0.0061512897 0.0028252015 -0.024665056
0001d0 6f c8 3a bc df 4f 4b 3b fa 66 49 3b cf 0e 1f 3b
       -0.011400326 0.0031022949 0.0030731545 0.0024270301
0001e0 13 f6 a7 3b 40 aa bf 3b 75 47 7c 3b b0 aa 06 3b
       0.00512577 0.005849153 0.003849474 0.0020548515
0001f0 44 18 69 3b 8b 0a 6c 3b 53 e2 6e 3b a8 59 05 3b
       0.0035567442 0.0036017026 0.0036450818 0.0020347629
000200 38 b2 a1 3b c9 f0 72 3b e2 61 79 3b 4f bc 89 3b
       0.0049345754 0.0037069789 0.0038052727 0.0042033563
000210 dd a2 2a 3c f1 dc 4b 3b 31 53 be 3c 46 c6 14 3c
       0.010414806 0.0031107033 0.023233028 0.009080475
000220 c9 8a 54 39 f9 2d bd 3c 88 1c 82 3c 34 fe a9 39
       0.00020269597 0.02309321 0.015882745 0.00032423588
000230 cd c8 a2 ba cd 96 3a bb 65 72 18 bc bc 7c 05 bb
       -0.0012419462 -0.0028471232 -0.0093046175 -0.0020368537
000240 cd 57 f7 ba 26 17 c9 ba 1f ee b1 bb b7 2d 2d bb
       -0.0018870771 -0.0015341982 -0.0054299976 -0.0026424953
000250 3b b1 2d bb 1d c1 bd ba 86 28 b8 bb 43 33 80 bb
       -0.0026503343 -0.0014477108 -0.005620065 -0.003912361
000260 d9 ef 4f bb 9b 6c 9e bb
       -0.0031728654 -0.004834724

exp_avg_sq f4 [7, 22]
000000 43 da 2d 38 2a 5b 5b 38 dd e6 e5 39 3f c2 4e 38
       4.1449686e-05 5.2298572e-05 0.0004385029 4.9295133e-05
000010 06 8c 7a 38 27 75 e3 39 a1 19 68 38 4c 37 8b 38
       5.973505e-05 0.000433841 5.533698e-05 6.638336e-05
000020 c5 1b 4f 38 80 ee 0f 37 52 08 0d 37 64 1d 4e 37
       4.937851e-05 8.578994e-06 8.406192e-06 1.22854e-05
000030 42 0a 15 37 63 38 98 36 a9 bf e9 36 3a 45 4e 37
       8.88348e-06 4.5365173e-06 6.9662533e-06 1.2294675e-05
000040 c3 a9 8a 37 77 f6 8b 36 e9 22 9f 37 b3 49 19 37
       1.6529933e-05 4.171215e-06 1.8970533e-05 9.13667e-06
000050 c1 83 37 37 45 37 2b 37 bd c5 21 39 e1 ae 8c 36
       1.0938326e-05 1.0205263e-05 0.0001542782 4.1926837e-06
000060 48 ba 3b 3a c5 00 8c 38 ae 22 87 36 b1 dd 52 3a
       0.0007161242 6.6758636e-05 4.0273508e-06 0.0008043899
000070 1b d7 cb 39 be 45 c6 36 f3 75 3e 37 8f 96 97 38
       0.00038879443 5.908979e-06 1.1352345e-05 7.228285e-05
000080 00 26 74 37 64 ac 9c 37 60 68 84 37 99 fc c9 36
       1.4552381e-05 1.8676925e-05 1.578423e-05 6.019673e-06
000090 00 0b 86 37 53 eb 86 37 22 69 ee 37 94 ef 38 37
       1.5979167e-05 1.6083626e-05 2.8420767e-05 1.1023036e-05
0000a0 f5 55 fd 37 f3 74 43 37 2d 15 c1 37 5c cf 43 37
       3.0199977e-05 1.1650135e-05 2.3017254e-05 1.1671185e-05
0000b0 f9 b5 21 39 35 46 a6 36 40 a8 d3 39 2a a4 66 38
       0.00015421947 4.9553587e-06 0.00040370412 5.4989163e-05
0000c0 97 43 fe 34 7c 65 04 3a 17 b4 08 3a 54 be e5 36
       4.7360365e-07 0.0005050523 0.0005214824 6.846889e-06
0000d0 3c 9d fd 36 14 47 06 37 5a a4 1d 38 74 eb 61 37
       7.558292e-06 8.003572e-06 3.758478e-05 1.3465866e-05
0000e0 c7 c5 3d 37 94 78 ba 36 43 4e 1a 37 78 90 12 37
       1.13113265e-05 5.557269e-06 9.197337e-06 8.735915e-06
0000f0 3e a8 ab 37 e0 83 08 37 4f 0a 6b 37 87 53 00 37
       2.0463132e-05 8.136936e-06 1.4009492e-05 7.648842e-06
000100 de 6a a5 37 b9 8e d1 36 d5 de a3 37 ed 5e 3a 36
       1.9719297e-05 6.2453005e-06 1.9534878e-05 2.7771414e-06
000110 bd b0 1d 39 90 bd ae 37 3c 6f 64 36 7c 0d 1c 39
       0.00015038527 2.0830688e-05 3.4039394e-06 0.00014882343
000120 e9 07 be 38 05 b1 8e 36 05 78 53 36 d4 02 99 36
       9.0613794e-05 4.2525376e-06 3.151131e-06 4.5600846e-06
000130 ec fa d4 36 68 41 a6 36 ba d4 6b 36 3f 0b 0d 36
       6.3473035e-06 4.9548e-06 3.5141552e-06 2.1017183e-06
000140 ec 38 9c 36 87 42 62 36 bf 01 88 36 e6 76 b1 35
       4.655789e-06 3.3715348e-06 4.053319e-06 1.3222132e-06
000150 76 b1 f8 36 f3 d6 3d 36 ad de 82 36 3d a1 84 36
       7.411635e-06 2.8288312e-06 3.900225e-06 3.952677e-06
000160 37 55 5f 38 d5 24 0f 38 c2 ad c8 3a b1 96 4b 39
       5.3246706e-05 3.412816e-05 0.0015310573 0.00019415726
000170 19 e2 42 38 a6 66 b4 3a d1 4b 5c 3a 9b e1 6f 38
       4.6463774e-05 0.0013763502 0.00084036315 5.7192152e-05
000180 cf c0 cd 37 8d 95 79 37 78 cc 1b 38 9f 83 b8 38
       2.4527688e-05 1.4876377e-05 3.7145306e-05 8.79832e-05
000190 64 85 4a 38 40 c3 9f 37 9d b4 06 38 6f e5 1b 38
       4.8284783e-05 1.9045197e-05 3.21163e-05 3.7168556e-05
0001a0 fe f1 fa 37 5c 16 09 37 9a 3d 9a 38 bd 67 e3 37
       2.9915009e-05 8.171042e-06 7.3547664e-05 2.7108816e-05
0001b0 f2 1e 08 38 8b 8d 32 38 fa 0e 7c 38 07 9a 87 36
       3.2453747e-05 4.257033e-05 6.009543e-05 4.0412447e-06
0001c0 9d bc f7 39 28 47 04 39 d3 c2 f2 36 25 74 d4 39
       0.0004725204 0.00012615009 7.2348425e-06 0.00040522325
0001d0 4a 61 e5 39 b2 8b 2a 37 40 88 ed 36 5e ae 25 37
       0.0004375077 1.0165315e-05 7.079012e-06 9.875364e-06
0001e0 b5 49 5b 37 14 4e 61 37 93 f6 2b 37 51 0e 92 37
       1.30705785e-05 1.3429224e-05 1.0249804e-05 1.7411223e-05
0001f0 e9 99 77 37 4d 7d 4c 37 56 6c 28 37 5c d9 4e 36
       1.4758182e-05 1.2188521e-05 1.0038804e-05 3.0822912e-06
000200 19 f1 e7 37 b4 1e 0e 37 0e e9 1c 37 e2 8c 7d 37
       2.7649616e-05 8.471008e-06 9.352587e-06 1.5112777e-05
000210 f0 21 c7 38 7d cb 4e 36 59 6f 9b 3a dd 04 26 39
       9.495381e-05 3.0814838e-06 0.0011858746 0.00015832805
000220 97 1d ff 36 e1 fc 92 3a 5b b4 0d 3a 2a 67 14 37
       7.603037e-06 0.001121428 0.0005405598 8.845507e-06
000230 5b 83 66 37 90 24 7f 37 79 c4 86 38 ba cf 00 38
       1.3739652e-05 1.5207697e-05 6.426214e-05 3.071104e-05
000240 9a 76 ae 37 70 80 38 37 7f a2 97 38 b4 c9 b5 37
       2.0797645e-05 1.0997159e-05 7.230508e-05 2.1670807e-05
000250 a5 86 ad 37 60 4a bd 36 ae ed 93 38 66 14 c9 37
       2.0685906e-05 5.6412973e-06 7.0537775e-05 2.3970566e-05
000260 84 db cd 37 0e 3b 21 38
       2.4540124e-05 3.844039e-05

exp_avg f4 [7, 7]
000000 2d ac 6d ba 55 0d a1 3a 0a 1c 49 3a dc fe 09 3b
       -0.0009066489 0.0012287298 0.00076717196 0.002105645
000010 48 2f c5 3b 72 a7 da 3a d6 08 55 3b 0c 09 46 3b
       0.0060175993 0.0016681983 0.0032506487 0.0030217795
000020 5f e4 ca 3a 6e 0a d2 3a 3c 3d 7b 3b 56 b7 11 3c
       0.0015479437 0.0016024837 0.003833606 0.008893808
000030 47 cc 3b 3b 51 0a c0 3b 87 c8 9f 39 4e 4d 8d 38
       0.0028655694 0.005860605 0.00030476248 6.737803e-05
000040 72 85 cd ba e0 dd 9c 39 a9 a8 7e 3a 83 d4 bb b8
       -0.0015680029 0.00029919948 0.00097144634 -8.956438e-05
000050 23 a9 59 3a db 8a 64 3b c4 09 4b 3b c6 d7 f4 3a
       0.00083030964 0.0034872803 0.0030981163 0.0018680028
000060 26 9b 90 3b 78 e4 fa 3b 7f c3 64 3b 43 62 f6 3b
       0.0044130264 0.00765663 0.0034906564 0.007519038
000070 9f 85 09 bc 2a 68 00 bc ec de 7f bb 0c 4f 36 bc
       -0.008393674 -0.007837335 -0.0039042784 -0.011127245
000080 f6 ce 19 bd 0a b1 06 bc ed 93 b5 bb 1c 64 27 3b
       -0.03755089 -0.00822092 -0.005541316 0.0025541848
000090 41 a3 26 3b 9f 1d dc 3a 4c d6 4a 3b 4e 08 15 3c
       0.0025426897 0.0016793496 0.0030950485 0.009096218
0000a0 80 c4 8a 3a c5 1c c2 3b 0d 98 6c ba 63 4a a9 ba
       0.0010587126 0.0059238398 -0.0009025343 -0.0012915846
0000b0 5a 8d 1d ba a3 56 6e bb 43 b7 1d 3b 4f ca da ba
       -0.0006010138 -0.0036367557 0.0024065531 -0.0016692373
0000c0 d5 4a 98 bc
       -0.01859037

exp_avg_sq f4 [7, 7]
000000 82 77 84 38 7e a9 66 37 83 c4 52 36 43 47 30 37
       6.3165106e-05 1.3748531e-05 3.1406823e-06 1.0507009e-05
000010 36 c4 28 37 84 9a fe 36 ea e5 f9 36 7b 14 28 37
       1.0059264e-05 7.587778e-06 7.447544e-06 1.0018349e-05
000020 b2 10 1e 39 d4 d4 05 37 37 27 63 37 49 38 6c 37
       0.00015074274 7.976971e-06 1.3539385e-05 1.4079801e-05
000030 e0 2c 3b 37 52 e5 42 37 68 76 a7 36 b4 98 74 37
       1.1156517e-05 1.1616694e-05 4.990772e-06 1.4579087e-05
000040 96 f8 84 38 9e 2c f2 36 8b b6 a3 36 51 0e 4e 37
       6.340553e-05 7.217356e-06 4.8790293e-06 1.228189e-05
000050 ae 2b 7e 36 1c 11 55 36 2f 9c 02 37 1f c0 78 36
       3.7874374e-06 3.1749432e-06 7.784968e-06 3.706671e-06
000060 7b b2 7a 36 21 f7 d6 36 c2 ef 83 36 b1 5c 32 37
       3.7356792e-06 6.4064666e-06 3.9320157e-06 1.0631208e-05
000070 30 ad a4 37 77 f7 86 37 9b 1f bf 36 4e e8 13 38
       1.963097e-05 1.608928e-05 5.695923e-06 3.526388e-05
000080 48 9e 71 39 9f 85 8e 37 a5 b2 10 38 68 68 ee 36
       0.00023042515 1.6989941e-05 3.449865e-05 7.105107e-06
000090 f5 fd 64 37 7d fd d2 36 99 c3 6f 37 3c fb 72 37
       1.3648988e-05 6.2879976e-06 1.4291051e-05 1.4482819e-05
0000a0 c0 97 41 38 37 ed 88 37 77 94 44 37 b0 d2 36 37
       4.6156114e-05 1.6322925e-05 1.17170775e-05 1.08971e-05
0000b0 b5 91 84 36 c4 26 0c 38 d0 1f 9b 37 58 71 4f 37
       3.950869e-06 3.3414704e-05 1.8492254e-05 1.2364551e-05
0000c0 14 fc 76 39
       0.00023554295

exp_avg f4 [7]
000000 0a 5f 67 3c 86 35 e2 3c 52 0c 54 3a c0 26 01 3d
       0.01412178 0.027613413 0.0008088994 0.031531096
000010 3c 23 a9 bd 75 86 d4 3c 7d e5 c6 bc
       -0.082586735 0.02594302 -0.02427935

exp_avg_sq f4 [7]
000000 b6 72 0f 3a 1b c9 65 3a 85 c0 13 3a ec 3a 36 39
       0.00054721104 0.0008765624 0.00056362926 0.00017378823
000010 57 df d4 3a 3b e4 0d 3a 04 2b a9 3a
       0.0016240877 0.0005412732 0.0012906496

exp_avg f4 [7]
000000 aa 6e 67 3c 84 40 e2 3c a7 dc 53 3a d6 2a 01 3d
       0.014125505 0.027618654 0.0008081891 0.031534992
000010 59 24 a9 bd f7 7d d4 3c 81 f1 c6 bc
       -0.08258886 0.025938971 -0.02428508

exp_avg_sq f4 [7]
000000 f7 72 0f 3a 95 c9 65 3a a8 c0 13 3a 53 40 36 39
       0.0005472148 0.0008765695 0.0005636313 0.00017380835
000010 d3 df d4 3a 71 e3 0d 3a 7f 2b a9 3a
       0.0016241021 0.00054126146 0.001290664

exp_avg f4 [7, 22]
000000 15 a8 44 bb 21 ba ad bb 83 a9 47 3c ae 08 05 3c
       -0.0030007411 -0.0053017293 0.012186411 0.008119745
000010 7d ce ba bb d7 aa 65 3c a8 8a 7a 3a c5 29 be bb
       -0.005700885 0.014017782 0.00095574046 -0.005803319
000020 b8 4a 6c bb f2 40 8e ba 4f b0 53 3b c8 05 b4 bb
       -0.0036055278 -0.0010853095 0.0032301133 -0.0054938532
000030 4f 04 19 bb 42 b1 d0 ba d5 1b c0 ba f6 8b 83 ba
       -0.0023348515 -0.0015921968 -0.0014656732 -0.0010036218
000040 b9 5a bb ba 7c da 2f bb b1 e9 f6 ba 2b e4 ec ba
       -0.0014294005 -0.0026833108 -0.0018837956 -0.001807337
000050 77 ea 18 bb e4 e1 9e ba 76 18 4c 3b 2b 4c 63 38
       -0.0023333111 -0.0012121764 0.003114251 5.4191954e-05
000060 82 36 24 bc 1b d7 1e 3b 1d 7f ba 38 5e a9 25 bc
       -0.010022761 0.00242371 8.892848e-05 -0.010111181
000070 f8 ca c3 3b b0 a1 57 37 6f e5 ac 3a e5 f5 81 3a
       0.0059751235 1.2852644e-05 0.0013190935 0.0009915201
000080 82 49 c8 3a 57 1b 0d 3b 38 3c db 3a ae f0 a1 3a
       0.0015280696 0.0021531188 0.0016726321 0.0012355053
000090 ab f4 eb 3a 35 15 e9 3a 8b a2 5f 3a 54 f1 1a 3b
       0.0018001994 0.001778281 0.00085309957 0.0023642378
0000a0 9f c8 9f 3a 17 f5 fd 3a 33 5d 95 3a d9 c1 b7 3a
       0.0012190527 0.0019375411 0.0011395573 0.0014019563
0000b0 ba 5b e8 bc fa 83 8a 3b 6b 50 af 3d 17 fe 04 bd
       -0.028364051 0.0042271586 0.085602604 -0.03246888
0000c0 ab 92 10 3b 97 86 ae 3d f5 f9 71 bd 52 c0 88 3b
       0.0022060077 0.08521765 -0.05907627 0.004173317
0000d0 d3 38 ed bb 2c aa 0c bc eb 40 ab bc 71 c2 63 bc
       -0.00723944 -0.008585494 -0.020904979 -0.013901339
0000e0 5a 92 5b bc 5d 5b 16 bc 85 2b 8d bc 6c 3a 8c bc
       -0.013401592 -0.009177056 -0.017232666 -0.017117701
0000f0 03 9e d1 bb 07 e9 a9 bc f4 96 1a bc 9c 11 80 bc
       -0.0063970103 -0.020740999 -0.009435404 -0.015633397
000100 75 0c 0a bc cb 1b 50 bc d2 a0 82 bb 55 1a 76 3a
       -0.008425822 -0.012701939 -0.0039864564 0.0009388079
000110 c7 f1 02 bc 04 cd 8b bb a8 ef 1f 3b f4 fa f4 bb
       -0.0079922145 -0.004266383 0.002440432 -0.007476205
000120 92 99 38 bc ff 68 8b 3a fa b9 64 39 af 0e c4 39
       -0.011267083 0.001063615 0.00021813056 0.00037394973
000130 1e 2b b1 3a 6e f7 2b 39 28 44 6f 3a 89 7c 10 3a
       0.0013516878 0.00016400006 0.00091272825 0.0005511721
000140 3b 14 19 3b c3 6a 2f 3a f1 e7 cc 39 f4 d3 17 3b
       0.0023358006 0.0006691629 0.00039082722 0.0023167105
000150 04 07 60 3a b6 42 9b 38 83 f2 27 3a e5 53 7a 3a
       0.0008545967 7.403402e-05 0.00064066815 0.00095492444
000160 ed 47 7b 3c db fd 74 b9 e6 72 35 bd 4a 9a 55 3c
       0.015336973 -0.00023364222 -0.04429903 0.013037274
000170 37 88 69 37 52 02 38 bd 9f 88 f5 3c ed c1 91 b9
       1.3919597e-05 -0.044924088 0.029972373 -0.0002780104
000180 2d 2c a3 3b 62 10 a1 3b 08 0f 00 3c 90 d3 15 3c
       0.0049796314 0.004915283 0.007816084 0.009144679
000190 44 05 f5 3b d0 4b aa 3b 3a 7b 02 3c ef d0 07 3c
       0.0074774344 0.005197026 0.00796395 0.00828956
0001a0 f4 b8 6e 3b fb 68 2c 3c 7f dd aa 3b 4c 2a 0d 3c
       0.0036426159 0.010523076 0.0052143927 0.008616041
0001b0 b1 c7 9e 3b 43 40 d0 3b b8 3f 0a 3c 0a 72 bc b9
       0.0048455824 0.006355317 0.008438043 -0.0003594312
0001c0 a2 a7 89 bc 72 d2 e6 3b a2 0a 73 37 af 99 8c bc
       -0.016803566 0.00704413 1.4486404e-05 -0.017163126
0001d0 cf d0 87 3c e5 27 c7 b8 f0 fd 01 3b 03 2e e6 3a
       0.01657906 -9.4964904e-05 0.0019835196 0.001756132
0001e0 69 e8 4c 3b 80 e7 73 3b 93 84 4a 3b 1d 3a cf 3a
       0.0031266457 0.0037216842 0.0030901774 0.0015810166
0001f0 c7 ab 46 3b 7b 40 63 3b 7e aa af 3a 7e c9 7d 3b
       0.003031479 0.0034675885 0.0013402251 0.0038724835
000200 ad 1f f3 3a 2b 52 5b 3b 67 e1 f7 3a 55 81 24 3b
       0.0018548869 0.0033465724 0.001891178 0.0025101502
000210 56 00 46 3c cb a7 ec b9 af b8 ec bc a6 14 3a 3c
       0.012085041 -0.00045138443 -0.028896658 0.011357462
000220 74 3c 3d 39 bb 16 f2 bc c8 50 cd 3c 53 74 1c b9
       0.00018046965 -0.029551854 0.025062934 -0.00014920653
000230 18 f1 41 3b 5b 58 33 3b 02 62 cd 3b 0b 1e c8 3b
       0.0029593166 0.0027365896 0.006267787 0.006107097
000240 45 09 94 3b ea a7 5e 3b f8 31 ab 3b 9e de c4 3b
       0.0045177066 0.0033974596 0.0052244626 0.0060079833
000250 66 79 15 3b ad a1 e2 3b 04 a8 52 3b 9c e7 b0 3b
       0.0022807955 0.006916246 0.0032143602 0.0053987037
000260 39 48 4d 3b 2d 8f 8b 3b
       0.0031323566 0.0042590112
