data_10frm/model/0_1_10_17.pt (torch_old, 18399 bytes, 52 tensors)

rnn.weight_ih f4 [7, 22]
00000000: cee8 84be c8aa 36be 6b71 dc3e 697a 4fbe
00000010: 41a3 9c3e c456 4ebe f09e 34be e381 0f3e
00000020: e82d 90be 376b 40be 47e4 0e3e 9071 2a3e
00000030: b429 793e ea01 3dbe 650b d1be edfd 923e
00000040: 9862 34be 00e6 70be d150 c138 461d b4be
00000050: 93eb 063e 4ee2 1f3e 5b10 15be c4f1 8abe
00000060: 1f41 26bd e2f5 d43e d47a 94bd 5221 5abe
00000070: 21fc 513e 81ff 9dbe 9e98 93be 61a7 12be
00000080: 7d41 a53e 5493 8c3e ef2d 0fbe 82e4 1e3c
00000090: db86 503e a293 3c3d e2e7 16be 4377 7b3e
000000a0: 6f07 703e dc9c a3bb daeb 99bd 5aa9 ca3e
000000b0: 86f9 773e b2f2 c2be f3d6 0c3f bec4 1d3e
000000c0: 32cf d6be 1224 c53e 12ac 9fbe c192 3d3e
000000d0: 6fdc cfbe e0d7 f1bc 85d2 8ebd e128 c7bd
000000e0: 24c4 0c3e 6e14 afbe 0544 a7be a649 f9be
000000f0: d691 4ebe 985e a7be 2fc5 28be 67c9 7fbe
00000100: 029b a5bd b942 283e a523 cebd 4b1e ffbd
00000110: a802 44be 6d6f f1be 9231 ba3e 0646 8cbd
00000120: 8ffc 01be d9f4 493c af3b 4ebe 40cb 123e
00000130: 010a 603e 6316 743d f5fe 58be a1db 4bbe
00000140: 685c 88bc 469e 49be 8d65 6fbe 9c61 74bd
00000150: b9f4 c3bd 57d6 c93d b347 9cbd 5c06 9abd
00000160: fc80 7abe e140 c7be 35dc b73e 9d16 2b3d
00000170: 20df 9f3e a3ca e5bc f3d2 16be c6ee cfbe
00000180: 670f 4abe c96c 2f3e ccd1 c5be ca24 49be
00000190: 63ac 843e 36c1 2e3e c011 b83d 3041 d2bd
000001a0: 071a 75bd fb7d d8bd 0bd1 2cbe b074 f83d
000001b0: 5d20 2bbe 683f 7dbe ef4d 05be 6c70 82be
000001c0: 888e 12be 134a a13d 3837 3f3e 738a 863e
000001d0: 278d d1be 68dd 633c ec1d d9bd a22a 7abe
000001e0: b66e 20be 20a9 2f3e 0976 c13d 6591 b5bd
000001f0: 7444 64be e9d9 88be 2552 da3e 98d1 8dbc
00000200: 8583 f8bc 7984 aabd b14a d9bd bd33 9cbe
00000210: 0b27 96be f329 3b3e bce8 c93d d32d 02be
00000220: f24a 1dbe 7e95 853e 45ad 483e bce2 983e
00000230: 2a8e 723d b4f3 793d 811f 09bd a9c0 57be
00000240: b955 c6be ec42 573e 5bdf c0bc 9d02 0b3e
00000250: 12b1 dbbb a8eb c1be 1a95 49be 699a 9d3d
00000260: 8e21 b1bd 29b5 d1be
-0.25958866 -0.17838585 0.4305528 -0.2026154 0.30593303 -0.20150286 -0.17638755 0.14014392
-0.28160024 -0.18790899 0.13954268 0.16644883 0.24332315 -0.18457761 -0.40829006 0.28709355
-0.17615736 -0.23525238 9.2180104e-05 -0.35178584 0.13175802 0.15613672 -0.1455702 -0.27137578
-0.040589448 0.41593844 -0.0724999 -0.21301773 0.20506336 -0.30858997 -0.28827375 -0.14321662
0.32276526 0.27456152 -0.13982366 0.009698035 0.20363943 0.04603923 -0.14736894 0.24557213
0.23440336 -0.0049930643 -0.07515688 0.3958233 0.2421628 -0.38075787 0.55015486 0.15407082
-0.41954952 0.38504082 -0.31185967 0.18513013 -0.40597865 -0.029521883 -0.06973747 -0.09724594
0.13746697 -0.34195274 -0.32669082 -0.48689002 -0.2017282 -0.32689357 -0.1648147 -0.24979173
-0.08086206 0.16431703 -0.100653924 -0.1245695 -0.19141638 -0.47155324 0.36365944 -0.068492934
-0.12694 0.012326443 -0.20139955 0.14335346 0.21878816 0.059591662 -0.21191008 -0.19908
-0.016645625 -0.19689283 -0.23378582 -0.0596634 -0.095681615 0.09855335 -0.07630863 -0.07520744
-0.24463266 -0.38916686 0.35910192 0.041769613 0.31224918 -0.028050726 -0.14728908 -0.40611857
-0.19732438 0.17131342 -0.38636625 -0.1964294 0.2591277 0.17065892 0.089877605 -0.1026634
-0.059839275 -0.10570904 -0.16876619 0.121316314 -0.16711564 -0.24731219 -0.1301801 -0.25476396
-0.14312184 0.07875457 0.18673408 0.26277503 -0.40928003 0.013907768 -0.1060141 -0.24430326
-0.15667233 0.1715436 0.094463415 -0.088656224 -0.22291738 -0.26728752 0.42640796 -0.017311856
-0.03033615 -0.083260484 -0.106099494 -0.30508223 -0.29326662 0.18277721 0.09858844 -0.12712793
-0.1536062 0.26090616 0.19597347 0.29860485 0.05921761 0.06102343 -0.03347731 -0.21069588
-0.38737276 0.21021622 -0.023544004 0.13575216 -0.006704458 -0.37875104 -0.19685784 0.07695467
-0.08648978 -0.40958527

rnn.weight_hh f4 [7, 7]
00000000: 3f09 2b3e dba2 c3bd 77cb 40be fe97 023d
00000010: cfac 07bd f1c3 98be 00d8 633e ab35 213e
00000020: e4f2 283e 1850 2ebd 5d9a cebe 8aad 7b3e
00000030: be55 6fbe 266a 70be b64b dc3d 0fbe d1bb
00000040: 1495 57bd c847 69be b1ac 96be 0390 00be
00000050: 38e0 003e 2923 2e3d e3bb 92be 0058 be3e
00000060: 3a32 e13d 67e5 913e d1fd 943c e9ef 7c3e
00000070: d4bb 333e 94f5 86be 5bd2 773e a695 8bbd
00000080: 85a8 60be 13d7 3ebe e53a babe 575c 3ebe
00000090: 72eb 8ebe 6931 973e 63dd f5bd 3b75 1dbd
000000a0: 53d7 ae3e cf1b ee3d c966 8dbe 48fc d93c
000000b0: fea2 193e a904 afbe 995d 8e3e 2c3a 9ebe
000000c0: 1b9e b8bc
0.16702746 -0.095525466 -0.18827616 0.031883232 -0.033123787 -0.2983699 0.22250366 0.15743129
0.16498905 -0.042556852 -0.40352145 0.24577919 -0.23372552 -0.23477992 0.10756628 -0.0064008306
-0.052632406 -0.22781289 -0.29428628 -0.12554936 0.12585533 0.042514 -0.2865897 0.37176514
0.10995908 0.28495333 0.018187435 0.24700893 0.1755212 -0.26359236 0.24201338 -0.068156525
-0.21939285 -0.18636732 -0.36373058 -0.18589912 -0.27914006 0.29529884 -0.12005117 -0.038441878
0.34148654 0.11626398 -0.2761748 0.026609555 0.15003583 -0.34183243 0.27805784 -0.30903757
-0.022536328

rnn.bias_ih f4 [7]
00000000: 340e cfbe 0648 ba3e 58c4 d9bd 5383 a33e
00000010: 750d 02bc 59a1 863e d0e6 11be
-0.40440524 0.36383075 -0.10633153 0.3193613 -0.007937779 0.26294973 -0.14248204

rnn.bias_hh f4 [7]
00000000: be0a cabe 3feb a13d 2712 59be 5ac1 17bd
00000010: 5474 5fbe 35d2 853d 0d9c b13d
-0.3946132 0.07906198 -0.21198331 -0.03704963 -0.2182172 0.065342344 0.086723424

exp_avg f4 [7, 22]
00000000: 5817 d7b7 1a70 37ba 1f87 d0bb a107 8cba
00000010: a0be b0b9 89ad cebb 68f9 e7ba e645 bfb9
00000020: 6cbe 70b9 da37 1c3a 9b45 a93a 911f d53a
00000030: c76f 723a 51a3 a73a 640e 7f3a 57ab e639
00000040: 27e2 db39 d956 b33a 6373 d63a 57b9 4d3a
00000050: f1a5 453a 4fd9 8a3a bebc 83b9 3757 15ba
00000060: ddda 02bc 0fc6 d6ba 4529 8538 c38a 02bc
00000070: ebba 24bb e06b c138 7df8 613a 8b84 383a
00000080: b7ab 073b 06a8 bf3a 50b8 633a 599f 8b3a
00000090: 63f2 993a cdae 0d3a bb8a 133a 1093 e13a
000000a0: 5925 123b 3143 7d3a efad 633a 48f5 ac3a
000000b0: ad64 2d3c 0bad e23b 6bea 88b9 5ef7 c23b
000000c0: f988 6639 ab9c 88b9 80d2 a83c e9d8 dd39
000000d0: 377f 12ba c221 0db9 2d65 c1bb 6cf0 f93a
000000e0: 6a0e 6f3a 0ace 553b 8a87 83b9 048a 8739
000000f0: 875a 90b9 3161 28bb 9cc9 19ba ddd7 7639
00000100: a55a ce3a 9609 1c3a a41b 933b 4fe3 53ba
00000110: 4654 3abc 7398 3c3b ebd8 8ab8 860e 51bc
00000120: 3438 073c 2b42 8839 cb00 113b a3d3 8b38
00000130: 832e 4e3a 5192 103b 7c68 a33a 5915 833b
00000140: 6b33 003b 1387 6e3a 567a 5d3a 2097 ad3a
00000150: 1a6d 4f3b f161 363a 57d4 163b 409b 533b
00000160: 1e14 beba 4b85 c7ba 85d7 33bc f3e1 f9ba
00000170: 7ae9 35b9 4282 34bc 67d0 b9bb 9425 13b9
00000180: f8e8 b13a 4a99 a33a 23ec 033b d61f 283b
00000190: 3094 ea39 4451 df3a 8165 0e3b 180c 3b3a
000001a0: 5c87 603a e799 373b 06a8 2e3b d802 ce3a
000001b0: 1c7e 8d3a 7e80 ee3a bfc2 acbb 608d 31ba
000001c0: 1e42 b43c 2347 b0ba 4117 6a39 a2f0 b73c
000001d0: 3d98 f5bb b651 7339 4b93 11ba 38a9 b2ba
000001e0: 0d26 06ba fae0 81bb f791 4bba 215a 38bc
000001f0: 143c 68bb f1f5 d3ba 0c2f b2ba 0308 21bb
00000200: 8d0b c5bb f09e 11bb 943f a0bb d611 5fbb
00000210: dd12 33bc c994 75bb 0824 4e3c 5a27 bbbb
00000220: 0e8c d1b8 ee01 653c 1d14 9abc 0941 60ba
00000230: ed5d 48bb 0a4e 6dba 6405 c63a 092d a9bb
00000240: 30a4 58bb 66bc caba 11cd 79ba 3581 a2ba
00000250: 875f 6eba 82aa 44ba 55cd 28bb e16e c3ba
00000260: ed3f 0abb 3c09 8ebb
-2.5640868e-05 -0.00069976004 -0.006363764 -0.0010683426 -0.00033711363 -0.006307308 -0.001769823 -0.00036482437
-0.00022959121 0.000595925 0.0012914421 0.0016260018 0.00092482235 0.0012789761 0.00097296224 0.00043996677
0.00041939432 0.0013682499 0.0016361292 0.0007847747 0.0007539681 0.0010593327 -0.0002512689 -0.0005696895
-0.007986751 -0.001638593 6.349621e-05 -0.007967654 -0.0025135826 9.2230504e-05 0.00086200965 0.00070387934
0.0020701715 0.0014622218 0.00086868275 0.0010652348 0.001174521 0.00054047705 0.00056282774 0.0017209966
0.0022300093 0.00096611964 0.0008685281 0.0013195658 0.010583085 0.006917601 -0.00026114596 0.0059498986
0.00021985536 -0.00026056668 0.020608187 0.00042314015 -0.00055884145 -0.00013459384 -0.0059019537 0.0019068844
0.00091192743 0.003262403 -0.00025087252 0.00025852036 -0.00027533268 -0.0025692696 -0.0005866529 0.00023540804
0.0015743567 0.0005952356 0.004489379 -0.0008082883 -0.011372631 0.002877739 -6.620757e-05 -0.01275981
0.008253146 0.0002598924 0.0022125717 6.667457e-05 0.0007865207 0.0022059868 0.0012467052 0.0040003476
0.0019561897 0.0009099107 0.00084487104 0.0013243891 0.0031650723 0.00069573434 0.0023014748 0.003228858
-0.0014501845 -0.001522222 -0.010976677 -0.001906453 -0.00017348482 -0.011017384 -0.0056705954 -0.00014033011
0.0013573458 0.0012481597 0.0020129762 0.0025653741 0.00044742366 0.0017037769 0.0021727982 0.0007135286
0.0008565092 0.0028015317 0.0026650443 0.00157174 0.001079503 0.0018196253 -0.005272239 -0.00067730807
0.022004183 -0.0013448935 0.00022324642 0.02245361 -0.007494955 0.00023204726 -0.00055532594 -0.0013630753
-0.00051173643 -0.003963587 -0.0007765586 -0.011251957 -0.00354362 -0.0016171319 -0.0013594343 -0.0024571426
-0.00601334 -0.0022219978 -0.0048903916 -0.003403773 -0.01092979 -0.0037472716 0.012581833 -0.005711478
-9.991984e-05 0.013977511 -0.018808419 -0.0008554613 -0.0030573562 -0.0009052461 0.0015107808 -0.0051628393
-0.0033056848 -0.0015467524 -0.00095291535 -0.0012398126 -0.0009093214 -0.0007502214 -0.0025757153 -0.0014910364
-0.0021095232 -0.004334597

exp_avg_sq f4 [7, 22]
00000000: fc79 6e37 acec 2037 074f b839 088c 1137
00000010: 9b0f bb36 b59a bd39 b57e ec37 a7d5 0a37
00000020: 40dd 3838 b09f 8b36 c4b3 de36 809a ff36
00000030: f237 bd36 53d3 9236 2100 a936 664d 1236
00000040: 60d7 9036 4c36 0437 c3bb e537 2b4d ef36
00000050: 9a28 9336 fb9d 3437 ccff 2137 27e9 5236
00000060: a7b0 a139 783f ba37 d458 aa34 a9ba 9d39
00000070: e29d a138 0b1f eb34 1641 bb36 5b49 9536
00000080: 5075 ca37 f3e8 fa36 b1e4 be36 fa70 9b36
00000090: d10c 0937 e106 fb35 0667 b936 6ce8 3137
000000a0: 1ed2 9437 1644 e036 96d5 1e36 4756 0e37
000000b0: 6db8 2a39 b3f5 7e38 7ca4 903b 6104 c239
000000c0: 9468 3d36 9414 8d3b de3f c03a 036a 7336
000000d0: 6d03 8f38 7cf1 6138 6c96 d539 1f0c f738
000000e0: 0315 9138 7bb6 7838 8076 9838 3c24 bb37
000000f0: 3879 7338 1c21 4e39 90fe 9839 9c06 ba38
00000100: 12a1 0738 c687 f638 4da3 d238 9d26 6d37
00000110: 2896 673b 197a a839 f7d0 dc36 e9ad 593b
00000120: 7996 7f3a 28ab 0637 6b89 5338 c6a1 0139
00000130: b425 bc38 8ade 1839 4bf4 9138 544b 3f38
00000140: 77ef c638 405a 9e37 d7d2 1738 7b78 1139
00000150: 52ce 5639 0ab2 cb38 1d5e 0538 6ccd bc38
00000160: 23d2 0d38 1b26 3837 1948 2b3b 216c 1b39
00000170: 17eb cf35 df0e 243b 1ee4 7239 29fa 6b36
00000180: 0a9d 8338 1d54 1b38 c22c 6f38 b25f 8a38
00000190: b5f7 1439 2f57 2f38 6b4a 1638 2df1 8937
000001a0: 35e6 bb37 e62e ae38 a125 3939 8f3f 6438
000001b0: 3c06 ed37 05ea 9138 4c58 c538 6cfb 2f36
000001c0: 9dd4 4c3b ec79 fa37 0b8e 6735 b534 513b
000001d0: 2d7a d838 e564 c935 4e47 0138 22d1 cc37
000001e0: 3210 2838 37fb cd38 de1d 2c38 c102 8f39
000001f0: 1315 ae38 ce41 a137 e27c ba37 7784 a638
00000200: 5398 6439 e6c5 5a38 cf15 8338 7bda b938
00000210: 64f9 ba39 68a3 d637 5d64 963b 78ac 0739
00000220: aecd 2937 7b91 9e3b 3000 5c3a f590 8a37
00000230: e95f b138 21eb 5338 d0ba b438 df4d 6339
00000240: 988d e638 9e29 c938 223e 5739 7f49 0338
00000250: bfd4 1b38 de00 0639 35ee 9939 6db2 b238
00000260: ab3d 8e38 043c 4939
1.4214307e-05 9.591848e-06 0.00035154095 8.675277e-06 5.574851e-06 0.00036164155 2.8192395e-05 8.275186e-06
4.4075074e-05 4.161113e-06 6.637043e-06 7.6175784e-06 5.639152e-06 4.3757404e-06 5.0366075e-06 2.1800747e-06
4.3166074e-06 7.880455e-06 2.738636e-05 7.1317386e-06 4.385668e-06 1.0765619e-05 9.655905e-06 3.142815e-06
0.0003083993 2.2202483e-05 3.1729599e-07 0.00030084446 7.706486e-05 4.3794748e-07 5.5806113e-06 4.4490857e-06
2.4134904e-05 7.4776995e-06 5.6890644e-06 4.632512e-06 8.16882e-06 1.8702959e-06 5.525423e-06 1.0604137e-05
1.7740818e-05 6.6836465e-06 2.3668158e-06 8.483948e-06 0.00016281167 6.0787144e-05 0.0044141393 0.00037005826
2.8224067e-06 0.0043054316 0.0014667471 3.6271529e-06 6.8194095e-05 5.386908e-05 0.000407386 0.000117801355
6.9180525e-05 5.9297756e-05 7.269997e-05 2.230901e-05 5.804861e-05 0.00019658025 0.00029181363 8.870402e-05
3.2336517e-05 0.00011755484 0.000100439975 1.4135291e-05 0.0035337303 0.00032134427 6.5808376e-06 0.003321523
0.00097499 8.026873e-06 5.04343e-05 0.00012362664 8.971561e-05 0.00014578752 6.959642e-05 4.5608103e-05
9.4859795e-05 1.8877094e-05 3.6197565e-05 0.0001387316 0.0002048549 9.712957e-05 3.179732e-05 9.0028014e-05
3.3812725e-05 1.0976127e-05 0.0026135503 0.00014822233 1.5491122e-06 0.0025033278 0.00023163899 3.5163341e-06
6.2758176e-05 3.7033216e-05 5.7023724e-05 6.5981774e-05 0.00014206658 4.1804447e-05 3.5832094e-05 1.6443979e-05
2.2399336e-05 8.305702e-05 0.00017656993 5.441863e-05 2.8255505e-05 6.957728e-05 9.4101386e-05 2.622338e-06
0.0031254657 2.9859097e-05 8.6260906e-07 0.0031922285 0.000103224396 1.5005031e-06 3.0822404e-05 2.441608e-05
4.0069404e-05 9.821954e-05 4.103581e-05 0.00027277137 8.300892e-05 1.9223338e-05 2.2231081e-05 7.94017e-05
0.0002180052 5.2159558e-05 6.250629e-05 8.8621826e-05 0.00035662495 2.558688e-05 0.004589601 0.00012938853
1.01210735e-05 0.00483912 0.0008392362 1.6518383e-05 8.457882e-05 5.05253e-05 8.6178654e-05 0.00021677416
0.000109936285 9.592179e-05 0.00020527144 3.1301282e-05 3.7153015e-05 0.00012779559 0.00029359912 8.520936e-05
6.782574e-05 0.00019191211

exp_avg f4 [7, 7]
00000000: 7797 3dba b761 8639 332c ca3a fb53 d43a
00000010: 9e9f 873a f1b5 b53a c2a5 ae3a d787 c139
00000020: fdba a339 b5c8 413b e6ee d83a 171c 503a
00000030: d509 873a f601 8f3a 24f9 8b39 ef52 e1b9
00000040: 9cae 5dbc 8bad 363b 855c 0e3b a76f a93b
00000050: 5dd5 363b 8d7e 4c3a c7de 043a 8eda 7f3b
00000060: 9e94 fdbb b94e 4b3a 9eb9 d23b 2e19 003c
00000070: 9e73 e039 85ed e839 fa63 803b c87f ad3b
00000080: cd97 9dbb a20b 133b 2f38 823b b138 66ba
00000090: c37d 3dba 4a94 153a bbd1 70ba e55c b7b8
000000a0: 7451 b1bc c8ae e03a 3087 fab9 707c f9b9
000000b0: c9f3 373b 7c60 1439 5eaf 4aba 756b 083b
000000c0: 3df1 88bc
-0.0007232348 0.00025631275 0.0015424549 0.0016199345 0.0010347252 0.0013863427 0.0013324546 0.00036913037
0.000312291 0.0029569094 0.001655069 0.0007938756 0.0010302613 0.0010910619 0.0002669777 -0.00042977135
-0.0135304 0.0027874436 0.0021722626 0.0051707807 0.002789817 0.000780084 0.0005068597 0.003904018
-0.007738664 0.0007755566 0.0064308187 0.007818503 0.0004281075 0.00044427454 0.003918168 0.0052947737
-0.004809356 0.0022437354 0.0039739828 -0.00087822514 -0.0007228518 0.0005705996 -0.0009186526 -8.743423e-05
-0.021645285 0.0017141933 -0.00047784438 -0.00047585694 0.0028068891 0.00014150323 -0.000773182 0.0020816003
-0.016716594

exp_avg_sq f4 [7, 7]
00000000: a606 2338 396c 1236 0364 f836 73cc 9237
00000010: 33bd de36 3c33 9f36 e00f 0e37 5754 e935
00000020: c8c6 2736 8108 3638 8ee7 9337 85be e536
00000030: 53dd b036 cbf0 1237 abd2 3537 a4f3 f137
00000040: ca48 533a 8998 6f39 256e 8c38 fe54 3b38
00000050: 6b86 a638 3e25 0537 f530 6437 c86c c738
00000060: 04f8 4d3a d08a 3138 316d 3d38 ade6 2239
00000070: 2485 2437 6c52 2e37 1947 7f38 4f5a 2139
00000080: fd31 b539 e56e ad37 d3cc 8938 83cd 1537
00000090: 54f6 fb36 d77d 0f38 07e0 c038 ab0b ca37
000000a0: 016a 3e3a d409 9438 a228 a037 8ff7 8a37
000000b0: 8a20 fa38 7f12 4939 ae9c 9038 8922 9638
000000c0: cc12 3e3a
3.886842e-05 2.181869e-06 7.402619e-06 1.749976e-05 6.6381413e-06 4.7445337e-06 8.467556e-06 1.7384399e-06
2.5000645e-06 4.34001e-05 1.7631592e-05 6.846911e-06 5.2709743e-06 8.758342e-06 1.0837491e-05 2.8842893e-05
0.00080598576 0.0002284964 6.696236e-05 4.466343e-05 7.940534e-05 7.936089e-06 1.3601258e-05 9.5093215e-05
0.00078570866 4.2329368e-05 4.5162804e-05 0.00015535457 9.806161e-06 1.03903985e-05 6.0862953e-05 0.00015387799
0.00034560254 2.0674846e-05 6.5708206e-05 8.9289415e-06 7.5090593e-06 3.4211054e-05 9.197002e-05 2.408571e-05
0.00072637206 7.0590206e-05 1.9092407e-05 1.656616e-05 0.0001192699 0.00019175744 6.895639e-05 7.15899e-05
0.0007250726

exp_avg f4 [7]
00000000: b7cd d33b 55a8 063c e185 4aba 7e58 4c3c
00000010: 8385 3c3c 2aea b3bc 00d2 5bbc
0.006463732 0.008218844 -0.0007725638 0.01247227 0.011506441 -0.021962244 -0.013416767

exp_avg_sq f4 [7]
00000000: fbd7 c539 6054 aa39 61d2 993b 9df8 6f3b
00000010: 2025 2f3b be68 543b 323e a43b
0.00037735686 0.0003248779 0.0046942686 0.003661669 0.002672501 0.0032411064 0.005012297

exp_avg f4 [7]
00000000: 19df d33b 9ea3 063c ce71 4bba 4765 4c3c
00000010: d893 3c3c f6e4 b3bc c4cd 5bbc
0.0064658043 0.00821772 -0.00077607937 0.012475318 0.011509858 -0.021959763 -0.013415758

exp_avg_sq f4 [7]
00000000: 13d9 c539 8d52 aa39 7ed2 993b 5ef8 6f3b
00000010: 6325 2f3b 8968 543b 313e a43b
0.000377365 0.00032486432 0.004694282 0.0036616544 0.0026725165 0.003241094 0.0050122966

exp_avg f4 [7, 22]
00000000: 4c4f c4b7 a423 a23a dea7 00bc e97a 93ba
00000010: c68e 993a 070b ffbb 22e9 ceba 626c b13a
00000020: 4b89 d339 19a8 373a 8a6f c23a b3c2 0b3b
00000030: ad8e ab3a 4056 833a df19 823a cc03 1d3a
00000040: b4b8 fb3a bde8 033a d8c2 063b e222 1e3a
00000050: d945 d93a 3c15 343a 3028 69bc ccc4 093a
00000060: fe3e 6abc e837 4abc f0de 8c3b 4a7a 2fbc
00000070: 4535 15bd ed1e 2ab8 06c3 183b 49f8 d2bb
00000080: a89b 1c3b c744 ee3b c8c5 473b b9b7 553b
00000090: 1268 07b9 35f7 5c3a b680 54ba 9eef d939
000000a0: ca5b ab3b 389b 4a3a 4dcf af3b ebb9 a1b8
000000b0: 70f3 8139 bdcb 0a3a d3d5 21bb e9d0 52b9
000000c0: 03b2 e639 c626 24bb 2d23 8e38 08bd 123a
000000d0: 6e65 9939 755f af39 8c16 dc39 c449 0c3a
000000e0: f756 bc39 69bd a339 fb20 ac39 7fdd 4439
000000f0: 034d 313a 3aaa 2c39 b404 263a b520 4e39
00000100: 982e f939 37e0 8039 7f3d 053c 588d f03b
00000110: 7428 11bd ae4c 253b 1ee7 943b 5449 19bd
00000120: 8c41 8d3c a64d ea3b 33c6 103b a4e0 b53b
00000130: 5d0c a53b 539c e83b 1552 b13b ba38 d93b
00000140: e8ca b83b dd7b 2a3b 5649 3e3c a513 233b
00000150: c69f 013c 8a3f 3a3b 18d7 cd3b 001a 7b3b
00000160: 8319 ef39 26cb a03a 56b2 a6bb 8f93 c7b9
00000170: 3917 753a e5aa aabb ba03 3538 5603 a93a
00000180: 8b90 433a 558c 543a 3ca7 cc39 dc67 b63a
00000190: a085 9139 b210 823a 7958 4d3a 8ef5 d439
000001a0: fe98 ab3a a47b c039 22e4 a53a bf3d e639
000001b0: 9a8f 903a 1cdd 013a 8719 fc3b 283d 23bc
000001c0: 2586 863d 50cb 653c ca50 34bc e690 823d
000001d0: b307 c83c 3e5d 21bc 59a7 b0bb 6efe d5ba
000001e0: 5b04 10bc 3901 99bc 0639 28bc 6756 60bc
000001f0: 1fa8 eabb ceaa 97bb 67f5 6dbc 0296 83bb
00000200: 5274 8abc 7664 a4bb 6c77 7bbc 449d a9bb
00000210: 0fce 6a3a 5907 adba a95c 043c 0d3e c639
00000220: a7a2 bcba 1348 003c 2227 5c3b f06c 2bba
00000230: df45 18ba f834 d33a 338c 2fbb bceb 0ebb
00000240: 4ffb 92ba 5116 80ba 5f9f eaba 510f 12ba
00000250: 05be d6ba c22b cfb9 d883 22bb 75fc e9b9
00000260: 3373 e0ba da73 01ba
-2.3401946e-05 0.0012370241 -0.007852523 -0.001125184 0.0011715523 -0.007783297 -0.0015786032 0.0013536329
0.00040347347 0.00070059445 0.0014834267 0.0021325767 0.0013088785 0.0010020211 0.0009925923 0.00059896405
0.0019204826 0.0005031934 0.0020562913 0.00060324196 0.0016576602 0.0006869619 -0.014230773 0.000525546
-0.014297245 -0.012342431 0.004299037 -0.010710308 -0.036427755 -4.055996e-05 0.0023309602 -0.0064382893
0.002389649 0.0072713825 0.0030482877 0.0032610728 -0.00012913372 0.00084291707 -0.00081063376 0.00041567994
0.005229448 0.0007728818 0.0053652884 -7.711708e-05 0.00024786172 0.00052946416 -0.00246941 -0.00020104986
0.00044001648 -0.0025047525 6.77764e-05 0.0005597626 0.00029258005 0.00033449722 0.0004197847 0.0005351568
0.00035922948 0.00031230904 0.0003283097 0.0001877453 0.000676349 0.00016466613 0.0006333098 0.00019657875
0.00047527696 0.00024581116 0.008132338 0.0073410682 -0.03543897 0.0025222707 0.004544153 -0.037423447
0.01724317 0.0071503697 0.0022090792 0.005550461 0.005036874 0.0070987134 0.0054113963 0.006629077
0.0056394227 0.002601377 0.011614164 0.0024883535 0.007911628 0.002841922 0.0062817447 0.0038315058
0.0004560464 0.0012267574 -0.0050871773 -0.00038066178 0.0009349469 -0.0052083605 4.3157233e-05 0.0012894671
0.0007460198 0.00081080693 0.0003903451 0.001391645 0.00027756114 0.0009923188 0.0007833313 0.00040618744
0.001309186 0.00036713213 0.001265649 0.00043915023 0.0011029125 0.00049539073 0.007693473 -0.009963311
0.06568555 0.014025524 -0.01100559 0.063752934 0.024417734 -0.009848891 -0.005391043 -0.0016326436
-0.008790101 -0.01867734 -0.010267502 -0.013692475 -0.007161155 -0.004628516 -0.0145238405 -0.004015685
-0.016901169 -0.0050168587 -0.015348297 -0.005176218 0.0008957097 -0.0013201042 0.0080787325 0.00037811734
-0.0014391736 0.007829684 0.003359266 -0.0006539365 -0.00058087514 0.0016113808 -0.0026786446 -0.002180799
-0.0011213812 -0.0009772276 -0.001790028 -0.00055717403 -0.0016383535 -0.0003951472 -0.0024797823 -0.00044629318
-0.0017124176 -0.00049382227

exp_avg_sq f4 [7, 22]
00000000: a13b 0737 7858 5a38 61ea f939 bceb 8137
00000010: 42e3 3138 c300 fb39 e427 3c38 ccae 5738
00000020: 215c 3a38 0f83 a136 099f 2c37 167c 8d37
00000030: c105 2b37 0933 a736 c686 e236 15cb ab36
00000040: 8a9e 0138 3fc6 5d36 389a 1b38 37af 8236
00000050: 1558 3637 8ea3 b736 21f9 813a 6552 123a
00000060: 410f fb3b ec9f 6139 9e3a 7039 4147 0f3c
00000070: 5d08 733b 0516 2d3a 5059 2d39 6746 eb39
00000080: 3ec1 6f39 caa9 5b39 bbf1 1b39 2284 ba38
00000090: 2082 4e39 a54e 8338 877d 3a3a 7960 6838
000000a0: 4cbb 0b3a 3a5d 8138 a060 2639 e1b0 0639
000000b0: ef6d 6436 f8cd 3736 c70c 3038 59f7 c835
000000c0: def3 cc35 50c4 3c38 c71f 7c37 55f6 5236
000000d0: a557 9235 a51e 0436 e2aa 9635 4e92 a635
000000e0: 8bb9 8135 29c7 0935 47c7 8d35 9244 f334
000000f0: 37b2 4936 3080 ca34 741d 4936 8a84 ba34
00000100: 9b82 4935 cd93 2935 cb40 6339 5d94 f039
00000110: e928 0d3c 736e d639 a6e2 cc39 beda 0a3c
00000120: 6d9d fc3a 2f1c 053a 5ee8 8b39 3183 1a39
00000130: 951f 8439 691a d739 8aa9 4339 e8ae cc38
00000140: cd7b 1e39 dc95 aa38 9d17 0d3a a30b 4e38
00000150: e285 283a e622 8738 3dbc 8039 75fd af38
00000160: 9835 a736 ae70 b737 5dfd f239 d368 8237
00000170: 2b17 9537 5920 ef39 23b8 f937 ce41 b737
00000180: f74d 1b37 7058 bf36 d2c2 6737 29e7 5937
00000190: da86 f437 2c42 cb36 bf06 e536 aa34 8736
000001a0: 0deb 0538 40c2 2e36 1dce 0a38 73ee 5836
000001b0: f94b 3a37 8ad7 a036 01b9 8538 c7cc 7d39
000001c0: 3c1d e63b d8cc 5a39 546c 5c39 ba09 e23b
000001d0: 6f19 263a dad0 8339 728c d338 90db 4f38
000001e0: 4a09 6839 a32e c339 17af 3e39 4f41 7c39
000001f0: aff7 d138 1f50 5138 bee7 ef39 c5f2 0f38
00000200: bf5d fc39 7f53 4738 fe1d 7539 725b 7638
00000210: fc5f 7138 3d37 7f38 833a a23a a29c 4f37
00000220: 293e 1838 2d19 ab3a 7ff0 4639 f06e 8138
00000230: 3626 9e37 b6d2 1138 12a1 5338 1b75 1d38
00000240: d8b4 c937 114f 5d37 8458 8538 4eb0 2137
00000250: 577e cc38 fce9 f536 445c b938 4ce3 0d37
00000260: 969d f037 d543 7037
8.0605105e-06 5.2057643e-05 0.00047667607 1.548777e-05 4.241174e-05 0.00047875018 4.4859844e-05 5.1422787e-05
4.4431657e-05 4.813431e-06 1.0289027e-05 1.6866292e-05 1.0193734e-05 4.982929e-06 6.7510146e-06 5.119839e-06
3.0903648e-05 3.304696e-06 3.7098507e-05 3.8946996e-06 1.08685535e-05 5.4728653e-06 0.0009916165 0.0005581736
0.0076617305 0.00021517248 0.0002291002 0.008745016 0.0037083842 0.00066027074 0.00016531837 0.00044875147
0.00022864804 0.00020948719 0.00014872004 8.893783e-05 0.00019694166 6.2612155e-05 0.0007114042 5.5402958e-05
0.00053303386 6.168564e-05 0.00015866989 0.00012845128 3.4038637e-06 2.7389015e-06 4.197357e-05 1.4973149e-06
1.5270159e-06 4.5005523e-05 1.5027769e-05 3.1435823e-06 1.0903356e-06 1.968737e-06 1.1225604e-06 1.2410544e-06
9.665249e-07 5.1326293e-07 1.0563316e-06 4.531217e-07 3.0055069e-06 3.77187e-07 2.9968478e-06 3.4741635e-07
7.506839e-07 6.3172484e-07 0.00021672544 0.00045886906 0.008615711 0.00040899552 0.00039078778 0.008475004
0.0019272991 0.0005077747 0.00026685273 0.00014735457 0.00025200532 0.00041027673 0.00018659807 9.760057e-05
0.00015114174 8.134145e-05 0.0005382242 4.9125065e-05 0.00064286415 6.443802e-05 0.0002455431 8.39186e-05
4.983227e-06 2.186777e-05 0.00046346607 1.554602e-05 1.7772973e-05 0.00045609733 2.9768858e-05 2.1845943e-05
9.2568725e-06 5.702539e-06 1.3814033e-05 1.2988029e-05 2.9149862e-05 6.057575e-06 6.825517e-06 4.0294444e-06
3.192858e-05 2.6041089e-06 3.3093722e-05 3.2325304e-06 1.1104153e-05 4.7934636e-06 6.376394e-05 0.00024204246
0.007022528 0.0002086641 0.0002102119 0.006898132 0.00063361874 0.00025141874 0.00010087424 4.955713e-05
0.00022128705 0.00037228045 0.00018185038 0.00024056922 0.00010012031 4.99041e-05 0.00045758294 3.4319954e-05
0.00048135032 4.752306e-05 0.00023376194 5.8736136e-05 5.754827e-05 6.0848182e-05 0.0012377057 1.237463e-05
3.6297515e-05 0.0013053768 0.00018972343 6.171863e-05 1.8852861e-05 3.4766934e-05 5.045633e-05 3.754078e-05
2.404528e-05 1.3191036e-05 6.3584215e-05 9.637397e-06 9.751011e-05 7.3288084e-06 8.838673e-05 8.457177e-06
2.8683611e-05 1.4320908e-05

exp_avg f4 [7, 7]
00000000: 6937 b1b9 44c2 d63a c841 a039 d34b 173b
00000010: 5949 1d3a ade3 2a3b 7f18 6d3a 3a06 563a
00000020: 78ae 68bc fbcb 0239 cb22 033c 53bb f43a
00000030: 70a8 523c e51d 143b 25b0 0d39 b3b6 463a
00000040: 9f6a d538 198f 0b3a 6978 2a39 afed 233a
00000050: a642 8f39 ed88 083b f927 6f3c 7d6a c73a
00000060: 7a2f 67bb 4c36 2f3b 1de0 6d3c 3463 bb3b
00000070: 2dff a339 1ce9 d43a a02a 4839 9d8a ab3a
00000080: 668f 95ba 99a7 2e3b 2ef8 de39 d9ea 2dbb
00000090: 4b5b c6bb 1e30 27bb ce9e 09bc e3df 84bb
000000a0: 2254 25bd 036b c8ba 675f a6b9 6057 2f3b
000000b0: afd3 9bb9 0911 8cba 45e2 89b9 ffcf 7f3a
000000c0: 0669 1abc
-0.00033801355 0.00163848 0.0003056659 0.0023085966 0.00060000044 0.0026075647 0.0009044483 0.000816438
-0.014201753 0.00012473755 0.008003901 0.001867155 0.012857541 0.0022600826 0.00013512427 0.0007580325
0.00010176491 0.00053237524 0.0001625732 0.0006253374 0.00027324742 0.0020833567 0.014596933 0.0015214231
-0.00352761 0.0026735244 0.014518765 0.005718613 0.00031279903 0.0016243788 0.00019089365 0.0013087575
-0.0011410534 0.002665019 0.00042528048 -0.0026537685 -0.0060533634 -0.0025510858 -0.008399678 -0.0040550097
-0.04036344 -0.0015290681 -0.00031733068 0.002675496 -0.0002972162 -0.0010686229 -0.0002629926 0.0009758472
-0.009424454

exp_avg_sq f4 [7, 7]
00000000: 44aa 2538 6285 9437 8c72 cc35 365a 7438
00000010: 4a4e 2436 7ad4 4837 faa1 7736 46cd 1338
00000020: ff9a 063b d842 c437 f7b9 123a c48f 1038
00000030: 975b 0739 6250 a138 be99 db34 a7b0 0237
00000040: 4fe3 2a34 0976 8336 4922 7434 8c43 9435
00000050: aff5 1c35 cc7e 3838 754e 1b3a ab40 ab37
00000060: 3f80 eb3a 4349 3e38 865a 6939 f514 6b38
00000070: 7482 5136 0852 d737 b804 a335 9003 e837
00000080: ba4d 1138 eb35 4737 169d 6136 ce22 b537
00000090: 2f55 8b39 2f10 6937 0b11 c839 d32f 1738
000000a0: ac1e a53a 5784 0d38 cbde a136 ce48 2439
000000b0: 034b 4836 f2b1 5738 abb2 d036 c5fa 9937
000000c0: b22e 0b39
3.9497638e-05 1.7705086e-05 1.5232522e-06 5.825815e-05 2.4483475e-06 1.19704e-05 3.690015e-06 3.5238707e-05
0.0020539162 2.3396147e-05 0.0005597169 3.4466168e-05 0.00012908723 7.692051e-05 4.090379e-07 7.789734e-06
1.5915178e-07 3.9178453e-06 2.2736744e-07 1.1046518e-06 5.8472045e-07 4.3987107e-05 0.0005924472 2.0414902e-05
0.0017967297 4.536776e-05 0.00022254334 5.6047884e-05 3.121936e-06 2.5668196e-05 1.214582e-06 2.7658214e-05
3.4643082e-05 1.1873878e-05 3.3619049e-06 2.1593089e-05 0.00026575613 1.389165e-05 0.0003815967 3.6045745e-05
0.0012597642 3.374027e-05 4.8241104e-06 0.0001566738 2.9845985e-06 5.142572e-05 6.2196827e-06 1.8355795e-05
0.00013273468

exp_avg f4 [7]
00000000: 6979 033c d644 403c d2de 293b c2ed 193d
00000010: f2b5 b03b 705b 86bd aad4 fcbb
0.008024552 0.011735162 0.0025920165 0.03758026 0.0053927833 -0.06560409 -0.007715781

exp_avg_sq f4 [7]
00000000: cb5e 0d3a a761 173c d3b1 4a38 d217 193c
00000010: 1ca2 013a b6c3 f03b 115d b23a
0.00053928484 0.009239591 4.8326165e-05 0.009344058 0.00049451157 0.0073475493 0.0013608058

exp_avg f4 [7]
00000000: d279 033c e238 403c 18cd 293b 06ea 193d
00000010: 4fa4 b03b 795c 86bd 71c1 fcbb
0.00802465 0.011732312 0.00259096 0.037576698 0.005390681 -0.065606065 -0.0077134897

exp_avg_sq f4 [7]
00000000: d25e 0d3a b261 173c 68ac 4a38 d417 193c
00000010: d4a1 013a eec3 f03b 395d b23a
0.00053928525 0.009239601 4.832112e-05 0.00934406 0.0004945074 0.0073475754 0.0013608105

exp_avg f4 [7, 22]
00000000: b877 b0bb 1dee 233a 756a afbc d68d ecbb
00000010: 7c04 a73a ef2e a4bc fa57 92bc c5fb cd3a
00000020: eeb2 ca39 e04e db3a 1605 6e3b 94ef da3b
00000030: 2139 2e3b 662f 7e3b dfa1 2d3b 4e6e 083b
00000040: 3083 033b a6b3 053b 02ec dd3a 8888 cb3b
00000050: 284b 5a3b 11dd 893b 2f09 95bb 152d 2d3b
00000060: 60fe e5bc a685 22bc a1fb 4f3b 9043 dbbc
00000070: a8db 98bc 8412 7a3b 261a 523b ae07 bf3a
00000080: 1400 9a3b e07a 093c 0712 553b 790b 8e3b
00000090: b8a0 643b 7af6 393b 9892 363b f29e 3d3b
000000a0: 29d1 143b 8141 093c ed54 903b efd6 ac3b
000000b0: ae15 f6bb 705a cb3a cd0e 99bc cfb7 36bc
000000c0: be58 493b 9469 88bc e427 c5bc c62a 1d3b
000000d0: 56ca 083b ce01 c43a 703d a13a 0d67 bb3b
000000e0: 0ba3 083b 7e51 533b 4469 163b 96ed f03a
000000f0: 7ad5 ab3a 44c5 3a3a a526 be3a 4ace c73b
00000100: d293 383b 30c5 7f3b 2e10 03bb 700f 763a
00000110: 2986 55bc 71bb 8fbb ede2 b33a 71bf 4bbc
00000120: 527e 08bc a55f c63a 0825 b03a d78d 883a
00000130: dadb 0e3b 096f 663b 297b af3a 82a8 0d3b
00000140: e848 ef3a 02bb ab3a a111 ae3a 1ccf b43a
00000150: 2c70 8a3a 798d 793b 958b 033b ccb8 233b
00000160: 6670 4e3c 32ac 19bc ab26 a53d 86a2 df3c
00000170: 8be6 26bc 8c25 9c3d 3a20 703d e3dd 32bc
00000180: e740 10bc 2f57 b4bb 1eb9 2cbc 215c e1bc
00000190: cc75 3cbc 66d8 25bc 1ae5 fbbb 08de 07bc
000001a0: 8cd0 03bc eed8 02bc 16c8 ccbb d260 c7bc
000001b0: 64e1 50bc 77ab 65bc 0429 80ba 4a17 6a3a
000001c0: 6715 eebb a560 033b ddf6 9639 d7f2 11bc
000001d0: 7f87 8d3b 6af3 d239 82dd e73a 2f85 1f3a
000001e0: 63b6 973b 3835 7d3b 5fb9 423b 5a21 cabb
000001f0: 4c2a 1e3a 7415 fd39 2485 9b3a 6ad5 993a
00000200: 7f7d 083a 4144 203b 4350 d53a 083f 5b3a
00000210: cb48 913b 2e4e dc3b 67cf 76bc 78aa 8bbb
00000220: f08d a33b f4a9 56bc 29ae 34bc 1ad2 b73b
00000230: adbe 313b 502a 9139 4c8f 64bb e4dc 093c
00000240: a1c2 503b 7ca2 9a3b cdc9 6cba 951a 0f3b
00000250: b2e5 e93a 8736 0e3b 31ad 853a 5019 923b
00000260: 3a82 163b 72ce 833a
-0.0053853653 0.0006253438 -0.021413067 -0.0072190566 0.0012742425 -0.020041911 -0.017864216 0.0015715292
0.00038661755 0.0016731881 0.003631895 0.006681392 0.0026584344 0.0038785576 0.0026494188 0.00208177
0.0020067208 0.0020401268 0.0016931298 0.006211344 0.0033308957 0.0042072614 -0.004548214 0.0026424576
-0.028075397 -0.00991956 0.0031735676 -0.026765615 -0.018659428 0.0038158009 0.0032059043 0.0014574432
0.0046997163 0.008391112 0.0032511966 0.0043348637 0.0034885835 0.0028375671 0.0027858373 0.002893385
0.0022707677 0.008377434 0.004404655 0.0052746455 -0.0075099086 0.0015514623 -0.018683815 -0.011152222
0.003072306 -0.016651906 -0.024066873 0.0023981794 0.0020872555 0.0014954151 0.0012301635 0.0057190717
0.0020849134 0.0032244618 0.0022950927 0.0018381353 0.0013109886 0.0007124732 0.0014507367 0.0060975896
0.002816428 0.0039027445 -0.0019998658 0.00093864556 -0.013032475 -0.0043863584 0.0013724245 -0.01243578
-0.008330898 0.0015134705 0.001343877 0.0010418248 0.0021798522 0.0035161397 0.0013388145 0.002161533
0.0018255981 0.0013101997 0.00132804 0.0013794634 0.0010561994 0.003807871 0.002007221 0.0024981974
0.01260004 -0.0093794335 0.08064016 0.027299177 -0.010186802 0.07624349 0.058624484 -0.01091716
-0.008804536 -0.005503557 -0.010542182 -0.02750975 -0.011502694 -0.010122394 -0.007687223 -0.0082926825
-0.008045327 -0.00798629 -0.006249438 -0.02433816 -0.01274905 -0.014017931 -0.0009777849 0.0008929862
-0.007265735 0.0020046618 0.00028794157 -0.008907995 0.004319131 0.0004023568 0.0017689916 0.00060852146
0.0046298965 0.0038636457 0.002971254 -0.0061685266 0.00060335244 0.00048271904 0.001186524 0.0011736576
0.00052066887 0.0024454745 0.001627453 0.00083635794 0.0044337264 0.006723187 -0.015064097 -0.004262265
0.0049912855 -0.013102043 -0.011027851 0.005609763 0.0027121708 0.0002768808 -0.003487545 0.008414481
0.003185429 0.0047190767 -0.0009032756 0.0021835912 0.0017844944 0.0021699981 0.001019871 0.004458584
0.0022965805 0.0010056032

exp_avg_sq f4 [7, 22]
00000000: 6902 1639 2161 2d39 d706 c93a 645c 3e39
00000010: 0927 4739 e31e c53a ac28 a439 433c 5f39
00000020: 4fe6 2d39 681a c437 085b 0838 bb95 8438
00000030: a9fd ce37 8e75 c437 2d44 b337 0cec 1138
00000040: f434 3338 9e7d d237 84e0 eb37 3889 a238
00000050: 3950 3438 dd6a 2a38 a676 293a 12f6 7337
00000060: 2cab 423b ee68 9239 64c5 5337 09e7 5a3b
00000070: 2c36 dd3a abd3 b137 b017 3238 6fea 9739
00000080: 9b42 a638 a49a e438 4b42 3e38 665f 0138
00000090: 53a6 6138 307c 5e38 31b4 f938 1110 db38
000000a0: c8e5 5438 bb7c bf38 24e3 b338 a9b2 6138
000000b0: 80c9 ae3a 1699 3a38 ba1c 6a3b be38 003a
000000c0: c3b2 c236 fa5d 913b 40b5 943b 339d 8138
000000d0: 2b2f 6238 ccd3 5c38 4fd8 ec39 8ea3 2d39
000000e0: 936f 8e38 2a38 7238 81df 7138 52a4 7f38
000000f0: ee4e 2639 b5b5 4c39 1f1d 3b38 e3e2 0039
00000100: 60c6 0b39 2846 6f38 2c24 1738 e29b 9836
00000110: 82ba c939 1665 7138 700a d936 20bc bd39
00000120: 2ede 7039 47ab 0837 c8f7 c536 996e f236
00000130: 82e6 6737 b9f4 8737 a27e de36 62dc 2337
00000140: a04b 8037 5008 ee36 c755 fd36 b338 7536
00000150: 71c9 3b37 1b62 6337 eb08 2c37 b5ef 6137
00000160: b3dc b639 1088 4739 1e3e 123c c745 923a
00000170: d17a 8639 c378 043c 40f5 9e3b f0b2 a539
00000180: 71af 0539 7cfa 8e38 e057 8439 f2bc 313a
00000190: 533e 5d39 2a31 1a39 cac6 2239 eb62 1c39
000001a0: 104d 0939 bb00 b138 a98c 1739 bc9f f739
000001b0: f778 7b39 dc92 9f39 8d72 b939 847b 4338
000001c0: 7899 a13b a47c 863a 25d5 b538 887a 8a3b
000001d0: 69ce 753b 804d eb38 493c 6238 c12f 6438
000001e0: e491 ef38 99a1 8039 2915 8b38 56b4 8939
000001f0: 1062 f438 b9e4 b438 3a63 9338 9dc5 4b38
00000200: edfd c538 71a5 8639 fc9c f238 0da2 4e39
00000210: 6c5c e939 e59b de37 ca12 c13b bfb1 4f3a
00000220: db66 5c38 134e b53b 25c9 373b 5a8e 8438
00000230: af08 8038 b405 8438 ca3e a939 db04 7839
00000240: 26d8 ac38 f326 9f38 769a 9d39 d6f4 9e38
00000250: 82b6 a138 cfad 3f38 2df5 0039 f332 aa39
00000260: 7a74 2039 46d6 8539
0.00014306013 0.00016534749 0.0015337121 0.0001815423 0.0001899266 0.0015039112 0.0003131082 0.00021289386
0.00016584362 2.3377317e-05 3.2509706e-05 6.32214e-05 2.4675233e-05 2.3419761e-05 2.137021e-05 3.479053e-05
4.2726242e-05 2.5092446e-05 2.8118731e-05 7.750321e-05 4.2990057e-05 4.0630683e-05 0.00064645184 1.4541221e-05
0.0029704077 0.0002792547 1.2622539e-05 0.0033401868 0.0016877106 2.119861e-05 4.2460568e-05 0.0002897563
7.927903e-05 0.00010900691 4.536127e-05 3.0844843e-05 5.379908e-05 5.3044583e-05 0.000119068085 0.000104457264
5.075874e-05 9.1308226e-05 8.5776934e-05 5.381057e-05 0.0013335198 4.4488428e-05 0.0035722689 0.0004891268
5.802461e-06 0.0044362517 0.0045382082 6.18048e-05 5.3926527e-05 5.264934e-05 0.0004517459 0.00016559495
6.79187e-05 5.7749603e-05 5.766703e-05 6.0949773e-05 0.00015860397 0.00019522647 4.4611395e-05 0.00012291553
0.00013329973 5.704738e-05 3.6034893e-05 4.5481e-06 0.00038476667 5.755302e-05 6.468319e-06 0.00036189053
0.00022970952 8.14611e-06 5.899903e-06 7.2250373e-06 1.3822342e-05 1.6207212e-05 6.6308576e-06 9.766869e-06
1.5294005e-05 7.0939204e-06 7.5499734e-06 3.6540848e-06 1.119297e-05 1.3553096e-05 1.0254075e-05 1.3466856e-05
0.0003487818 0.00019028806 0.008925943 0.0011159711 0.00025649977 0.008085432 0.0048510134 0.0003160457
0.00012749225 6.817744e-05 0.00025242474 0.0006780169 0.0002109942 0.000147049 0.00015523579 0.00014914169
0.00013094046 8.440154e-05 0.00014452882 0.00047230523 0.00023982288 0.00030436262 0.00035371297 4.6606656e-05
0.004931625 0.0010260534 8.670454e-05 0.0042260326 0.0037507063 0.00011220109 5.3938744e-05 5.440391e-05
0.00011423582 0.00024534462 6.631978e-05 0.00026265037 0.00011653092 8.625672e-05 7.0279886e-05 4.8583013e-05
9.4409894e-05 0.00025681735 0.000115687 0.0001970606 0.00044510083 2.6537056e-05 0.0058921324 0.00079229096
5.254788e-05 0.005532989 0.0028043475 6.3207655e-05 6.105133e-05 6.295313e-05 0.00032280973 0.00023652932
8.24186e-05 7.588966e-05 0.00030060456 7.579631e-05 7.711073e-05 4.569982e-05 0.00012298366 0.00032462887
0.0001530218 0.00025527383

exp_avg f4 [7, 7]
00000000: e7c7 14ba 00f8 bb3a 9647 ce3a 1b0a 8e3a
00000010: 0290 2a3c 494e 883b afcc 633b 4bd2 053b
00000020: d20c 463a acb7 1d3b aabb bf3a d7e9 573c
00000030: d665 893b 9a6d 9d3b 9d30 c53a 0a93 973a
00000040: 5cd5 27bb 9de3 6d3a bb33 223c 67a4 713b
00000050: 5ddc 673b 365d 693a 7747 673a ab9e 7c3a
00000060: c297 2e3a 0c24 9f3b dc39 173b 8c7d 3a3b
00000070: 6a53 a2bb bc5f afbb 21b2 99bb 0bc2 88bb
00000080: 3240 52bd 8549 c2bb 47a9 abbb f0b1 9739
00000090: 8abc 373a e658 843a 428b cc38 1ab9 7d3c
000000a0: 5ad0 59bc e11a 833b e4e5 053b 78a8 c73a
000000b0: 4e00 063b 896b 343a 11fb 8d3c 80b3 9b3b
000000c0: 55b2 5cbc
-0.000567554 0.0014340878 0.0015737887 0.0010836752 0.010410311 0.004159723 0.0034759452 0.0020419534
0.0007555011 0.0024065776 0.0014628072 0.01317831 0.004193048 0.0048043253 0.0015044395 0.0011564207
-0.002560935 0.00090747495 0.009900029 0.0036871673 0.003537915 0.0008902134 0.00088226 0.00096366805
0.0006660187 0.004856592 0.0023075258 0.002845618 -0.0049537914 -0.0053519886 -0.004690424 -0.0041735223
-0.051330753 -0.0059291744 -0.0052386853 0.00028933538 0.00070089905 0.0010097295 9.753417e-05 0.015486026
-0.013294304 0.004001007 0.0020431215 0.0015232703 0.002044696 0.0006882479 0.017331632 0.0047516227
-0.013470252

exp_avg_sq f4 [7, 7]
00000000: f5e7 4f39 be9b 1e38 4419 ab37 3fe3 7c37
00000010: 5a22 b438 49c3 2338 e827 e037 2783 0238
00000020: 90ab 233a e91f a538 11bb bd37 82f3 d638
00000030: 183b 3c38 b7c6 3238 f24e 0538 232a e338
00000040: c658 753a c2ae b137 fbd5 9e38 0e95 9738
00000050: 3df9 0138 34c3 a836 c12c 3837 62ff c736
00000060: e4d6 b336 ab17 c037 c722 ac37 dc86 1e38
00000070: 6332 ac38 f530 9538 1eab b038 58d2 8b38
00000080: df15 f03a a2a5 1839 d8e5 7e39 619f 4038
00000090: e4f6 8238 d5f8 7b38 7340 4a38 f914 9a39
000000a0: 1c63 203a 3850 2439 ea2f 2e38 b881 3438
000000b0: 7ca3 0b38 add6 7b38 434a a739 511d c638
000000c0: 108a 903a
0.00019827469 3.781518e-05 2.0396554e-05 1.507328e-05 8.589467e-05 3.9044102e-05 2.6721464e-05 3.111656e-05
0.00062435213 7.873757e-05 2.2617665e-05 0.00010249672 4.487773e-05 4.2623575e-05 3.1783195e-05 0.00010832052
0.00093592366 2.1181422e-05 7.573884e-05 7.228005e-05 3.0988118e-05 5.029515e-06 1.0977675e-05 5.9603926e-06
5.3596323e-06 2.2899205e-05 2.0520192e-05 3.7795733e-05 8.2109844e-05 7.1139926e-05 8.424207e-05 6.667216e-05
0.0018317065 0.00014557553 0.00024308951 4.59248e-05 6.24487e-05 6.0074806e-05 4.8220576e-05 0.00029388795
0.0006118284 0.00015670143 4.1529456e-05 4.3036154e-05 3.329244e-05 6.0042996e-05 0.00031908051 9.446836e-05
0.0011027474

exp_avg f4 [7]
00000000: ada8 b03c 7d35 ec3c c877 943c 9ed9 5b3c
00000010: dc48 a7bd 56bf 073c 1d73 743c
0.021564806 0.028834099 0.018123522 0.013418583 -0.08168194 0.008285364 0.014920023

exp_avg_sq f4 [7]
00000000: bab6 f73a 2570 6e3b e86d a23b a71c e039
00000010: d79d 1b3c 009b af3b fc91 d13b
0.0018899061 0.0036382761 0.0049569495 0.00042745957 0.009498081 0.0053590536 0.0063955765

exp_avg f4 [7]
00000000: 7db0 b03c 7c40 ec3c 4b76 943c f2e9 5b3c
00000010: fa49 a7bd 5fae 073c 125b 743c
0.021568531 0.028839342 0.018122813 0.013422476 -0.08168407 0.008281319 0.014914291

exp_avg_sq f4 [7]
00000000: cbb7 f73a ca70 6e3b f96d a23b a424 e039
00000010: 0c9e 1b3c cf9a af3b 0f92 d13b
0.0018899379 0.0036383145 0.0049569574 0.0004275191 0.0094981305 0.005359031 0.0063955854

exp_avg f4 [7, 22]
00000000: 39e9 ebbb 19ca d0bb 38e0 af3c 1fd2 d03b
00000010: 257f 00bc 42fe bf3c 13b5 a8bb fbb4 eebb
00000020: 6b87 88bb a3bd a7ba 1d5c e53a 35ee f5bb
00000030: ce1e 92bb 05c4 12bb 5474 6fbb 68b7 9abb
00000040: 895b e5ba 096a abbb f46f 36bb 11ad c5ba
00000050: 7925 66bb 9988 06bb 12a4 bf3a 0ee6 e038
00000060: 52b4 e3bb 9b14 5d3a 1a3e 7f37 8354 e7bb
00000070: 100d 2f3b 8288 2c37 27be 3d3a 4163 f239
00000080: 29e3 643a 4431 f33a 7765 8b3a cfc0 c33a
00000090: d062 763a f409 b73a 9816 0a3a 4e6f 053b
000000a0: a8ab 893a d133 163a 9f89 753a 3055 683a
000000b0: c79e f5bb 18f5 2b3b ce60 dc3b 1527 39bc
000000c0: 8675 943a a370 d63b af03 91bc 22ac 063b
000000d0: 5614 563a b978 66ba 1a9f c0bb ba46 3db9
000000e0: cb3b 9eba e373 093b 1bd3 05bb f827 37bb
000000f0: e843 5db9 4c9e 63bb 3268 1cba e9af abb9
00000100: c0bb 363a 1528 17ba 8587 54bc db5e 0b3b
00000110: 3b47 0cba 60ef 68bc 2a4d 893b c5a9 98b7
00000120: 301c 02bd d756 0c3b 114b 8eba dd7c 32ba
00000130: c8d6 86ba 4c88 11bb ff12 04ba 38c7 a539
00000140: 87c5 b83a 26ae 8fba 2a0f 14ba 8b51 c2b9
00000150: 46f8 caba d172 81ba a4fb ec39 2b6b a539
00000160: 259b 493b 91be 8138 34fb 2dbc f1a1 0f3b
00000170: 062e ddb7 960a 32bc cb03 c13b 735c 9ab7
00000180: ec80 793a db91 7c3a 72e8 ca3a 39ca 3e3b
00000190: f077 ee3a ceb8 f13a cd10 b73a c454 123b
000001a0: 5afe 533a 1b1f 543b edb0 d23a ed66 6d3a
000001b0: 4212 ab3a c85a ae3a 9865 693c cf42 d939
000001c0: 0654 263c e9a4 203c b038 193b b77c 233c
000001d0: 74c7 d43c 52aa 183b 286e 3db9 d7d7 40ba
000001e0: f20e b139 49d7 dcba a424 a839 c810 e3bb
000001f0: 524e 17ba 2776 39b8 a5e6 20ba 13d8 18bb
00000200: f64b a9ba d221 03ba 2883 30bb c4d3 01bb
00000210: 845b 0b3c 5808 ebb9 46b6 0fbc 620c 173c
00000220: 68f6 5c38 30b6 21bc f3dd a73c 5055 d4b8
00000230: 5d32 883a d47a 523a cde3 343b 8285 523b
00000240: 4983 e73a e293 38b9 f61e 8f3a 458d 523b
00000250: 45be 393a 1fa8 613b bbf0 bd3a 758f 3e3a
00000260: cb4d fa39 ccb0 fa39
-0.007199433 -0.006371748 0.02146922 0.0063727046 -0.007842814 0.02343667 -0.005148539 -0.007284758
-0.0041665337 -0.0012797605 0.0017498765 -0.007505203 -0.0044592386 -0.0022394669 -0.0036537843 -0.0047215708
-0.0017498593 -0.0052311462 -0.0027837725 -0.0015081485 -0.003511755 -0.0020528196 0.001462104 0.000107240034
-0.006948986 0.00084335514 1.5213644e-05 -0.007059635 0.0026710667 1.0283782e-05 0.0007238113 0.00046231787
0.0008731359 0.0018554111 0.0010635097 0.0014934781 0.00093988795 0.0013964758 0.0005267649 0.0020360532
0.0010503428 0.0005729767 0.00093665154 0.00088627916 -0.0074957344 0.0026238617 0.006725407 -0.011300822
0.0011326529 0.006544189 -0.017701952 0.0020549376 0.00081664824 -0.0008791793 -0.0058783414 -0.00018050792
-0.0012072263 0.0020973615 -0.0020420018 -0.0027947407 -0.000211015 -0.0034731803 -0.0005966454 -0.00032746725
0.0006970726 -0.00057661656 -0.0129717635 0.0021266255 -0.00053511903 -0.014217228 0.004190107 -1.8198867e-05
-0.031765163 0.0021414065 -0.0010856112 -0.0006808767 -0.0010287398 -0.0022206483 -0.0005038231 0.00031619682
0.0014096954 -0.0010961934 -0.00056480116 -0.00037063318 -0.0015485368 -0.0009876137 0.00045200915 0.000315511
0.003076264 6.186695e-05 -0.0106189735 0.0021916593 -2.6366684e-05 -0.010866782 0.0058903447 -1.840128e-05
0.0009517807 0.0009634771 0.0015480651 0.0029112233 0.0018193703 0.0018441917 0.0013966799 0.0022328356
0.00080869126 0.0032367173 0.0016074457 0.00090561697 0.0013051706 0.0013302201 0.014245413 0.00041439242
0.010151869 0.009804943 0.0023379736 0.009978465 0.025974013 0.0023294878 -0.00018065481 -0.00073563814
0.00033771206 -0.0016848828 0.00032070756 -0.0069294907 -0.00057718635 -4.4217475e-05 -0.00061378843 -0.002332215
-0.0012916315 -0.0005002293 -0.0026933644 -0.001981006 0.008505706 -0.0004482891 -0.008771485 0.009219261
5.268157e-05 -0.009870097 0.020491576 -0.000101248384 0.0010390986 0.0008029167 0.00276016 0.0032123034
0.0017663027 -0.00017602698 0.0010919261 0.003212766 0.00070855423 0.0034432483 0.0014491299 0.00072693016
0.00047741676 0.0004781544

exp_avg_sq f4 [7, 22]
00000000: 9f07 223a e9da e738 124f d03b b445 8a39
00000010: 1238 3039 5d1a da3b 0438 ec3a 15df 1439
00000020: 9fbd ba39 79ad 7b38 7879 ec38 cfe6 bc39
00000030: 7d7e 2939 51c2 cb38 48fb 1639 7707 8139
00000040: 600c 3a38 f566 f039 9af6 f138 d7aa c838
00000050: 1ec9 f938 c117 d338 c7ae 0738 ac06 b335
00000060: 5fb0 3739 2986 2e37 4266 3e35 a17b 4f39
00000070: 7c1a b038 832f d335 8908 8536 4128 6f37
00000080: 687e 3e36 a1e6 c536 984c 5c36 680b 6e36
00000090: 441a 7336 d15f de36 95f3 a935 a7f9 4937
000000a0: abe7 6236 ac04 b636 ea9b 2d36 9c5c 5336
000000b0: f3ed 1a3a a471 8237 7911 c03b 169b 2d3a
000000c0: 03fd b737 5260 bd3b 22c3 273b 34cb 8c37
000000d0: 6cc5 8f38 803a 9138 b213 c739 5bcb 6d39
000000e0: 1d2e fc38 6a55 bf38 75a9 2839 a837 8539
000000f0: 02e6 0b38 3f80 e139 ced7 c238 b0d3 ee38
00000100: 4ca8 9738 d478 ea38 f86e 743a d6af 1637
00000110: 8ebd 323b fa64 383a ba1e 0e38 d671 403b
00000120: b030 8c3b d5ad 4037 0a0c 8938 f47d 2738
00000130: e2d3 ce38 bdf9 4839 1ad0 a138 4697 8d38
00000140: 3882 5f38 3a7a 2639 c764 ba37 6269 6539
00000150: ed8f 8c38 7cb3 8738 d438 2b38 6ad6 4838
00000160: 07cd 3938 5280 bb35 5538 c039 70ea 2438
00000170: 1698 0036 6e52 c239 b6e6 4339 2492 cb35
00000180: 87e3 c536 9521 ba36 63fa 6b37 2c1c 9437
00000190: 7929 2d37 41aa e636 e8d2 2337 70d2 6237
000001a0: 8b27 2136 4592 be37 a97d c136 a453 3537
000001b0: 3b55 a736 abc2 f936 3cde f638 42a2 7737
000001c0: 45a1 2b3b a948 db38 b5aa 1c37 ebe8 2b3b
000001d0: 48f4 013a f88c 1537 2149 1b38 5702 c837
000001e0: 457b 1638 1fe8 cf38 7d20 2d38 9441 2239
000001f0: 5c6a 9438 0d6d 7138 ee62 9537 2aa3 4939
00000200: f6d2 6038 ef8b 1338 ca57 6238 6547 4438
00000210: fab0 8438 6203 3237 0660 253b bcea 4739
00000220: 5886 9136 caf1 1c3b b52a 123a 0a6d 7736
00000230: 447b b537 1995 b637 b1c6 2438 fb0d 9a38
00000240: 10af e938 fa24 6938 7cdb 0739 7502 5e38
00000250: 5372 8a37 5616 2d39 e782 3f38 e447 3b38
00000260: 7a29 3f38 93f8 6438
0.0006180945 0.000110557135 0.006357082 0.00026373344 0.00016805556 0.006655975 0.0018022065 0.00014197484
0.00035617963 6.0004622e-05 0.00011275982 0.0003603012 0.00016164217 9.7159886e-05 0.00014398724 0.0002461036
4.435738e-05 0.00045853076 0.000115377086 9.5685646e-05 0.00011910706 0.000100656885 3.2349282e-05 1.3338481e-06
0.00017517943 1.0402445e-05 7.092932e-07 0.00019787114 8.397267e-05 1.5734553e-06 3.9647025e-06 1.4254882e-05
2.8385784e-06 5.8979062e-06 3.2827138e-06 3.5471403e-06 3.622511e-06 6.62727e-06 1.2662373e-06 1.203866e-05
3.3811473e-06 5.4245666e-06 2.5869763e-06 3.1495356e-06 0.0005910091 1.5550126e-05 0.005861458 0.0006622536
2.1933118e-05 0.0057793045 0.0025598486 1.6783924e-05 6.855544e-05 6.925035e-05 0.00037970912 0.00022677837
0.00012024886 9.123499e-05 0.00016084856 0.00025409204 3.3354394e-05 0.00043010895 9.2908376e-05 0.00011388154
7.231589e-05 0.000111804955 0.0009324397 8.981637e-06 0.0027273628 0.00070340896 3.3884055e-05 0.0029364727
0.004278265 1.1484565e-05 6.5349115e-05 3.9933206e-05 9.862312e-05 0.00019166521 7.71584e-05 6.751581e-05
5.328862e-05 0.00015876527 2.2219856e-05 0.000218784 6.7025285e-05 6.470733e-05 4.0822502e-05 4.7883404e-05
4.4298384e-05 1.3969932e-06 0.00036663064 3.9318984e-05 1.9162012e-06 0.00037063978 0.00018682596 1.5167211e-06
5.897545e-06 5.5471414e-06 1.4065389e-05 1.7656093e-05 1.032126e-05 6.8743543e-06 9.7646625e-06 1.3519646e-05
2.4013887e-06 2.2717877e-05 5.766477e-06 1.0807915e-05 4.98691e-06 7.4434406e-06 0.000117715885 1.4760126e-05
0.0026188653 0.00010456268 9.33807e-06 0.002623136 0.000495736 8.913914e-06 3.7022986e-05 2.3842947e-05
3.587759e-05 9.913765e-05 4.127667e-05 0.00015473954 7.077001e-05 5.756044e-05 1.7808252e-05 0.00019229637
5.3602234e-05 3.5177854e-05 5.396436e-05 4.6796533e-05 6.327215e-05 1.0610414e-05 0.0025234236 0.00019065564
4.3369764e-06 0.0023947828 0.0005575822 3.6869337e-06 2.1634281e-05 2.176552e-05 3.9285693e-05 7.345896e-05
0.00011142914 5.5585966e-05 0.00012956368 5.2931213e-05 1.6504118e-05 0.00016506886 4.565986e-05 4.4651228e-05
4.5576577e-05 5.459094e-05

exp_avg f4 [7, 7]
00000000: c965 d0bc 1b14 adba 1641 af3b bddd 083b
00000010: 8c82 6bba 5f69 a9ba 488b 34b8 3d29 da3a
00000020: 4b10 4c39 38ed e63a 7cc5 a63a 1132 ba39
00000030: 706a a03a e543 7a3a f205 463b 26f3 9fb9
00000040: 0cbf 8ebc 3197 8d3b 7155 09ba dcd7 523b
00000050: 7fa5 da39 d27e 9f3b f66b e4b8 eec0 a73b
00000060: 60c9 8abc 5db8 19ba 7969 0e3b b027 db3a
00000070: 0e24 0c3b 0462 193a f87c 673b f4db 093b
00000080: 4373 113a dc95 9c3a 5599 ac3a 83df 493b
00000090: fb45 e7b9 465c 853a 4f63 ac39 18c2 d0b9
000000a0: 597c 4bbc 4e58 24ba ff97 aa3b 5faf 023a
000000b0: 54cf e83b 84df d63a f82d c639 c971 d83a
000000c0: 4a79 c4bb
-0.02543916 -0.0013204844 0.005348335 0.002088412 -0.00089839916 -0.001292508 -4.304506e-05 0.001664437
0.00019461026 0.0017618304 0.001272365 0.00035513987 0.0012238752 0.000954686 0.0030215946 -0.00030508003
-0.017425083 0.004321002 -0.0005238867 0.003217212 0.00041703504 0.004867413 -0.000108919965 0.0051194346
-0.016941726 -0.0005863959 0.0021730347 0.0016720202 0.0021383795 0.0005851092 0.003532229 0.0021035643
0.00055484864 0.0011946517 0.0013168255 0.003080339 -0.00044111893 0.0010174594 0.00032880387 -0.00039817463
-0.0124197835 -0.0006269262 0.0052061076 0.0004985239 0.0071047936 0.0016393517 0.00037799752 0.0016513403
-0.005995904

exp_avg_sq f4 [7, 7]
00000000: 409d a53a 7674 bd37 2293 cf39 f8cc c038
00000010: 3873 2738 bc9e 7d38 c0cc 5838 30ea ef36
00000020: 2ef1 6f37 d897 0537 dc9c 6036 d52c 5836
00000030: 419e 8636 2d56 8236 a34b 5e39 3a92 c637
00000040: 35ef a93a cb74 bd38 9179 4f38 dfbc 8c38
00000050: f4eb a538 0ac1 e138 7cc7 3337 6e39 1739
00000060: b263 1f3a 55e2 0938 de3e ea37 2719 0438
00000070: 5e0f 8b37 c788 3136 541a 5738 51dd 3437
00000080: 0252 a536 be41 9636 916a 3737 38c3 5d38
00000090: 2289 1237 edfc eb38 fd41 0f38 06cf 8337
000000a0: 1714 e139 42db ea37 e699 5038 b3cc f936
000000b0: ee41 2639 f647 c037 54a0 ab37 6eca c837
000000c0: 2faa d739
0.0012635365 2.2584787e-05 0.0003959174 9.193452e-05 3.992321e-05 6.0467733e-05 5.16891e-05 7.150018e-06
1.4301664e-05 7.962772e-06 3.3469905e-06 3.2212604e-06 4.0119344e-06 3.884334e-06 0.00021199747 2.3671531e-05
0.0012964966 9.033977e-05 4.9465863e-05 6.7109e-05 7.911763e-05 0.000107647924 1.07156775e-05 0.00014421876
0.00060802244 3.2874133e-05 2.7924249e-05 3.1494677e-05 1.6577247e-05 2.645467e-06 5.1284514e-05 1.0780365e-05
4.92693e-06 4.4780018e-06 1.0932462e-05 5.2872318e-05 8.734207e-06 0.00011252784 3.4155313e-05 1.571282e-05
0.00042930312 2.7997074e-05 4.9734394e-05 7.4446084e-06 0.00015855554 2.2921693e-05 2.0459447e-05 2.3936122e-05
0.00041134792

exp_avg f4 [7]
00000000: f193 b0bc bf35 f33b 39b5 eebb b866 79bb
00000010: 795e 3b3c 9ce3 1abc 79ec 2b3c
-0.021554919 0.0074221785 -0.007284787 -0.003805561 0.011436098 -0.00945368 0.010493391

exp_avg_sq f4 [7]
00000000: 0378 e83b f9d8 5b39 602d d53b 3d18 723b
00000010: c453 d939 5be1 343b 0784 2a3b
0.0070943846 0.00020966296 0.0065056533 0.0036940717 0.00041451876 0.0027600143 0.0026018636
