data_10frm/model/0_1_15_0.pt (torch_old, 18375 bytes, 52 tensors)

rnn.weight_ih f4 [7, 22]
00000000: 574f 8fbe 721b 42be f0e4 ce3e fa33 7abe
00000010: 6bc8 983e 2d42 68be a072 6abe 8813 073e
00000020: 7bac 9ebe 42c3 1fbe 4ffb 423e 7671 633e
00000030: c5fa 8e3e 1924 1abe 1835 bfbe 67a7 993e
00000040: 7963 18be 31ba 65be f7a3 b63c 1e5b aabe
00000050: b19f 343e 7a0e 2d3e 426a 56be c535 89be
00000060: 39a6 80bd 9012 963e 9dac 17bd d73e 69be
00000070: 70d5 ed3d a85f 9ebe a668 80be 3b0c 40be
00000080: a751 af3e 0e77 ad3e b17f d0bd 563e 673d
00000090: b68b 503e fb00 8b3d de65 21be b8f9 833e
000000a0: abc5 873e c063 303c 8457 8fbc 593c ca3e
000000b0: 8056 813e 2cf9 adbe 7888 023f 1683 c63d
000000c0: 9bf8 d2be 533b af3e 386b a9be f726 683e
000000d0: bcd4 c4be 1e46 31bc 2a22 59bc 7719 64bd
000000e0: 6061 303e c14b 98be 4603 98be 3dd5 edbe
000000f0: f63f 22be 53ed 9bbe c393 01be 925c 5cbe
00000100: 6a28 3ebc 2a3e 583e 9253 32bc 94d4 f0bd
00000110: f05a 49be a07e e1be 3d9b af3e a707 a2bd
00000120: b743 60bd 5db1 8f3c 7bdb 66be d98f 4c3e
00000130: ae25 643e 4065 363d 37a2 54be 3bd1 27be
00000140: 47c4 1b3c 0ee1 49be e6bf 50be 4e84 47bd
00000150: bfab cebd a813 d53d 7c52 aebd b51c 59bd
00000160: e2d4 61be df07 cabe b1f4 be3e 9ed2 c23c
00000170: 561c 983e 86a5 83bc 8c2a 1dbe f201 d1be
00000180: 1669 4ebe 0631 433e 1f24 d3be e6e5 42be
00000190: 424a 573e ea6b 2e3e 356f b73d 7241 f2bd
000001a0: 4ad2 92bd a47b f1bd 347c 3bbe 8b60 df3d
000001b0: 82ed 32be 4256 84be da32 5c3a e3c5 afbe
000001c0: 0165 c9bc 7202 273e 53c3 993d 8cac c13e
000001d0: 738f a1be f2bf 90bd 4c2b 41be 2798 91be
000001e0: 42d8 86be 1782 103d a10c b1bc 0579 6cbe
000001f0: 27ab aabe b71b c0be ead5 a13e 45dd fbbd
00000200: 43cc 13be 6cab 49be a7fc 7bbe f558 d0be
00000210: 48db 87be 52e0 2a3e 71b7 0d3e 26d6 05be
00000220: fb41 58be c1b3 973e d117 733e d20d 993e
00000230: 4cb4 2b3d 5aee e53d c0d5 b0bd a80e 8bbe
00000240: 1ceb dbbe ad51 2d3e 8a38 b2bd c145 bf3d
00000250: 2ce9 11bd c9e8 d0be 3c77 75be 3124 463d
00000260: d4f4 08be 3f87 d8be
-0.2799022 -0.18955782 0.4040904 -0.2443389 0.29840407 -0.22681494 -0.22895288 0.13191044
-0.30990967 -0.15601829 0.19041179 0.2221125 0.27925697 -0.15052833 -0.37345195 0.3001053
-0.14881696 -0.22434308 0.022294981 -0.33272642 0.17639042 0.16900054 -0.20938972 -0.26798835
-0.062817045 0.29311037 -0.03702985 -0.22777878 0.116129756 -0.30932355 -0.2507984 -0.18754666
0.34241983 0.33879894 -0.10180605 0.056455933 0.20365795 0.067872964 -0.15761515 0.25776458
0.26517996 0.01076597 -0.017497785 0.39499167 0.25261307 -0.33979166 0.50989485 0.096929714
-0.41205296 0.34224948 -0.33089614 0.22671114 -0.38443553 -0.01081994 -0.013252774 -0.055688348
0.17224646 -0.29745296 -0.29689997 -0.4645175 -0.15844712 -0.30454502 -0.12654023 -0.21519688
-0.011606315 0.21117464 -0.0108841825 -0.11759296 -0.19663596 -0.4404192 0.34298125 -0.07911616
-0.054752078 0.017540628 -0.22544663 0.19976749 0.22279999 0.044530153 -0.20765005 -0.16388409
0.009507245 -0.19714758 -0.20385703 -0.04871016 -0.10091352 0.1040414 -0.085118264 -0.053005893
-0.22053865 -0.3945913 0.3729606 0.02378207 0.2970912 -0.016070139 -0.15348262 -0.40821797
-0.20157275 0.1906167 -0.41238496 -0.19033012 0.21024421 0.17033353 0.08956758 -0.11828889
-0.07169016 -0.11791161 -0.18309098 0.10907086 -0.17473415 -0.2584706 0.00083999115 -0.34330663
-0.024584295 0.16309527 0.07507958 0.37826955 -0.31554756 -0.07067861 -0.18864173 -0.28436396
-0.26336867 0.035280313 -0.021612467 -0.2309304 -0.33333704 -0.37521145 0.31608516 -0.12298063
-0.14433388 -0.19694299 -0.24608098 -0.4069287 -0.26534486 0.16687134 0.13839509 -0.13069972
-0.2111892 0.2962933 0.23739554 0.29893357 0.04191999 0.112271026 -0.086345196 -0.2715962
-0.42952812 0.16925688 -0.0870219 0.093394764 -0.03562276 -0.408026 -0.23971266 0.04837436
-0.13374645 -0.42290685

rnn.weight_hh f4 [7, 7]
00000000: 3ee2 df3d 3cde 5cbd 3f1e 3cbe 3031 913d
00000010: 415f b2bb 59e1 67be 6e0e 873e 1742 483e
00000020: c008 f33d 218c 00bd f8e7 aabe 6c5c 973e
00000030: 8e0c bcbd 510f 50be 6244 c43d 6d97 d23c
00000040: c968 11bd 175d 5bbe 6e23 8abe bb02 a7bd
00000050: feba 233e c7f4 713d a84e 57be 6873 c33e
00000060: 70d1 3e3d 08c2 983e 2216 af3d d37b a13e
00000070: 44af 263e 9514 7fbe d66a 643e 9241 82bd
00000080: 2cca 9abe ceb0 0dbe 2728 b9be 4ce2 8cbe
00000090: f325 acbe cb16 463e b83e 2bbe dc8e 0fbe
000000a0: 6815 243e 920c 8e3d 2776 a3be d832 9a3d
000000b0: dd0e df3d f8ce bcbe 9f54 813e 6087 9abe
000000c0: f429 20be
0.10931824 -0.053922877 -0.18370913 0.0708946 -0.005443484 -0.22644557 0.26378196 0.19556461
0.11866903 -0.031383637 -0.33380103 0.295627 -0.09182082 -0.20318343 0.095833555 0.025706971
-0.03550032 -0.2142223 -0.26980156 -0.08154818 0.159893 0.05907133 -0.21026099 0.38173985
0.046586454 0.29835534 0.085491434 0.31539783 0.16277796 -0.24910195 0.2230638 -0.06360163
-0.3023237 -0.13836977 -0.36163446 -0.275164 -0.33622703 0.19344632 -0.16723144 -0.1401934
0.16023791 0.06935991 -0.3192608 0.07529229 0.10891507 -0.36876655 0.25259873 -0.30181408
-0.15641004

rnn.bias_ih f4 [7]
00000000: 4bff c2be 1994 c23e cef0 83bd b47d a73e
00000010: 602a a5bc e596 173e daf0 34be
-0.38085398 0.38003615 -0.06442414 0.3271309 -0.020161808 0.14803655 -0.17670003

rnn.bias_hh f4 [7]
00000000: c5fb bdbe 3019 c33d a02c 2ebe dfe8 efbc
00000010: 06fa 6bbe 0609 4bbd c117 573d
-0.37106147 0.095262885 -0.1700921 -0.029285846 -0.23044595 -0.049569152 0.052512888

exp_avg f4 [7, 22]
00000000: 482f 12ba 9c3a 8eba fea8 fbbb 30d4 f0ba
00000010: 4620 efb9 8d5b f6bb 5864 5bbb d1f0 0aba
00000020: bf3a be38 d45a 733a ecd3 073b 0566 b23a
00000030: ce8b 8f3a 0dfe 4e3a 0e3b be3a 3197 2c3a
00000040: d60a 683a 881b c93a 1fb8 f73a 5fb2 883a
00000050: 2c9c 163a 8ec2 9d3a 305f 8fba 90e7 f7ba
00000060: bff5 c8bc c482 b5bb a195 a138 73a1 c7bc
00000070: d29c 0cbc d9ec 0339 1521 3b3b 3faa 5a3b
00000080: c67c ce3b 2d1c 603b e598 433b ed24 123b
00000090: f60e 863b f77d 013b 508f 573b de27 963b
000000a0: 6a54 d43b 1324 533b 3a35 ee3a f09d 7c3b
000000b0: 73ff 2b3c a510 003c 9358 8a3c ff9a 0a3c
000000c0: cb77 64b9 121d 8c3c b6a9 c63c b449 36b9
000000d0: 146a 35bb 8410 10bb e488 f6bb ed5e acba
000000e0: c59f bcba 89f5 86ba deb0 14bb 1325 86ba
000000f0: 66b4 54bb 1e76 7bbb 8268 96bb 3351 14bb
00000100: 4730 44ba 12fe 39bb 6758 e53a c4fa e4ba
00000110: 7d4e 913c 66b2 d83b 872c 18ba 4e8f 853c
00000120: 5306 2e3c f8ac 17ba fa0d 88ba 2896 37bb
00000130: ed38 f4ba 3be3 b2bb 79fa 24bb 8243 0fbb
00000140: c1b7 9fba c87d b8ba 1f02 03bb 21b9 64bb
00000150: 9fd0 68bb 9f07 53bb 522b 9cba bdfd 11bb
00000160: 1091 40bb a353 eeba 9ce5 c23a c740 81ba
00000170: 1741 39b9 cfe0 d23a 8f7e d0bb c686 c2b9
00000180: c53c 90b9 4635 fdb8 22ba 96b9 2599 9139
00000190: d17f 53ba 5f8c dbb8 c84e 7a38 a087 8fb9
000001a0: 302a d838 4fb5 3039 eab0 7aba f0ec 8d39
000001b0: 9074 4db9 265e c4b9 ae9e 43bb 7284 ae39
000001c0: 4eac 2e3c be17 3539 992b 303a d7e1 323c
000001d0: 63a6 3ebb 7bf5 333a 1939 22ba 731a 45ba
000001e0: 8aa0 94bb 3f19 93b9 c723 7bba 4475 4cba
000001f0: 17e0 3bbb 0e69 86ba da07 88ba b5b5 00bb
00000200: 3a6a 45bb f53f 8eba e152 9cba 1207 c1ba
00000210: 1c97 81bb 3bda 53ba abe1 a0bc cd60 03bc
00000220: bd8f 473a ba11 9abc 856e 6bbc 1b0d 703a
00000230: f4b1 273b 0d16 2b3b 9a91 b03b f83a 583b
00000240: 999c 213b cc0e fc3a 4cd0 9f3a d47d c33a
00000250: 7cae 183b f0ad 7b3b 468c a73b 4f79 363b
00000260: f5a7 ae3a e943 293b
-0.00055765035 -0.0010851207 -0.0076800575 -0.0018373784 -0.00045609678 -0.007518238 -0.0033476558 -0.00053001667
9.070848e-05 0.0009283249 0.002072568 0.0013610726 0.0010951699 0.0007896133 0.0014513449 0.00065838086
0.00088517123 0.0015343288 0.0018899477 0.0010429135 0.00057453173 0.0012036131 -0.0010938402 -0.0018913615
-0.024531243 -0.00553927 7.704949e-05 -0.024368977 -0.008582311 0.00012581366 0.0028553654 0.0033365635
0.0063014952 0.0034196482 0.002984577 0.0022299842 0.004091139 0.0019758919 0.0032891817 0.0045823893
0.0064797895 0.0032217547 0.0018173822 0.0038546287 0.010497916 0.007816468 0.016887939 0.0084598055
-0.00021788401 0.017103706 0.024250846 -0.00017384329 -0.0027681636 -0.00219825 -0.007523643 -0.0013150849
-0.0014390877 -0.0010296564 -0.002268843 -0.0010234438 -0.0032456159 -0.0038369964 -0.004590095 -0.0022631406
-0.00074840005 -0.0028380197 0.001749766 -0.0017469754 0.017737621 0.0066130636 -0.0005804975 0.016303685
0.010621625 -0.0005785967 -0.0010380142 -0.0028013084 -0.0018632688 -0.005459217 -0.0025173707 -0.0021860306
-0.00121855 -0.0014075572 -0.0019990278 -0.0034900384 -0.0035524738 -0.0032200587 -0.0011914766 -0.0022276484
-0.002938334 -0.0018182885 0.0014869454 -0.0009861224 -0.00017667223 0.0016088727 -0.006362743 -0.00037102978
-0.00027511097 -0.00012073903 -0.0002874891 0.00027770657 -0.00080680574 -0.0001046888 5.9678016e-05 -0.00027376134
0.00010307541 0.0001685221 -0.00095631054 0.00027070148 -0.00019593746 -0.0003745418 -0.002984922 0.00033286546
0.010661198 0.0001727035 0.0006720364 0.010918102 -0.0029090873 0.00068648875 -0.0006188318 -0.0007518895
-0.0045357393 -0.00028056835 -0.00095802214 -0.00077994564 -0.0028667504 -0.0010254697 -0.0010378317 -0.0019639556
-0.003012313 -0.0010852801 -0.0011926555 -0.0014726839 -0.003954781 -0.000808153 -0.019638857 -0.008018685
0.0007612666 -0.01880728 -0.014369612 0.00091572263 0.0025588246 0.0026105673 0.005388451 0.0032994132
0.002465999 0.0019230484 0.0012192815 0.0014914819 0.002329736 0.0038403235 0.0051131574 0.0027843302
0.0013325202 0.002582783

exp_avg_sq f4 [7, 22]
00000000: 5584 4435 d63f fe34 556a a237 b562 3035
00000010: b8e9 9134 4c16 a537 1d6e 0a36 d509 d834
00000020: 48c6 cb35 56ab 0435 b36c 1735 eedc cf34
00000030: 8647 b734 a402 2834 b2eb 9f34 385a 0634
00000040: c001 f534 a28a fd34 f8d2 d435 3fb6 ae34
00000050: 4595 0534 75e8 f934 c7a2 aa35 99f8 ec34
00000060: dcf7 2138 28c0 4b36 da3b 5833 ad24 1d38
00000070: 42b6 2e37 b5d5 9133 fca3 3a35 5db5 8035
00000080: 564a 1d36 6977 5c35 6db9 4c35 3770 cd34
00000090: 1b0e 9135 e32d 8c34 ab15 8c35 06e0 a535
000000a0: a3f6 1836 145b 3835 5a34 5334 d828 8a35
000000b0: 0322 5837 03e3 b236 5d5d a539 4472 e337
000000c0: bf08 3434 6316 a239 b9b6 ec38 86c8 5c34
000000d0: d477 9d36 2523 b736 8700 f537 2176 d636
000000e0: 97b9 aa36 cd03 4636 c6d7 be36 590b 0936
000000f0: 1c6e 1c37 75cc 2b37 0049 9f37 8434 c036
00000100: 6569 c135 78f7 0f37 3ff8 e636 3496 9b35
00000110: 20dc a539 ce81 0338 e050 1c35 9d60 9939
00000120: de94 be38 8bac 3435 bc82 8336 5e35 7737
00000130: 47d4 f436 a90b 4f37 8741 d036 aae9 2036
00000140: de82 0437 00a6 0f36 6766 2037 ddfa 2d37
00000150: cb1b 6137 324b ef36 5616 d135 e9a6 0537
00000160: fd57 8e35 c2c4 ff34 0bd0 df38 b721 d536
00000170: 0a46 5233 9ff1 d438 dd1f 1c37 9388 0b34
00000180: bfa8 1436 1506 3736 fb17 3436 1684 ef35
00000190: 466f bc36 85e5 8235 cdd6 d735 4439 6f35
000001a0: 92b9 3e36 2974 4636 ea32 cc36 3629 d135
000001b0: 2a36 1b35 0747 3836 f03d bc35 df74 2733
000001c0: 78d1 3038 6723 0d35 a733 3233 b68c 3438
000001d0: 6b05 b035 755b 2a33 d29c dc34 05a2 0435
000001e0: 35b9 4b36 1959 0a35 c673 2835 832d db35
000001f0: 9e5f db35 8fcc b834 4d9e 4335 e8e6 ad35
00000200: 812d 4e36 52ad 1a35 30b0 bd34 59ab 7b35
00000210: 948b bf37 4f91 9735 76c1 3c39 12ee 0037
00000220: 7d8e 4835 748f 4d39 bbea 8238 cec7 8535
00000230: 70f5 ce35 e584 7436 9b19 7036 25e0 a336
00000240: cd03 8036 9ecd 0336 a792 9037 c253 ca35
00000250: 7455 5836 c100 aa36 de35 6237 1fa6 3936
00000260: 349d c335 4d4d e036
7.320826e-07 4.7357634e-07 1.936142e-05 6.5708747e-07 2.7178407e-07 1.9679916e-05 2.0627697e-06 4.024029e-07
1.5182386e-06 4.942316e-07 5.641006e-07 3.8717502e-07 3.4138446e-07 1.564718e-07 2.978755e-07 1.2512544e-07
4.563608e-07 4.722579e-07 1.5856631e-06 3.2542627e-07 1.2440894e-07 4.6549e-07 1.2713361e-06 4.4139304e-07
3.861623e-05 3.0361207e-06 5.0345854e-08 3.7465874e-05 1.0413643e-05 6.790962e-08 6.952903e-07 9.589527e-07
2.3438092e-06 8.213015e-07 7.626575e-07 3.8265873e-07 1.0807447e-06 2.611042e-07 1.0437119e-06 1.2358657e-06
2.2793326e-06 6.867788e-07 1.9669952e-07 1.0293688e-06 1.2882522e-05 5.331241e-06 0.00031540814 2.7113718e-05
1.6766988e-07 0.00030915727 0.00011287392 2.0562047e-07 4.6929144e-06 5.4579164e-06 2.9206522e-05 6.391449e-06
5.0880003e-06 2.9506512e-06 5.6875606e-06 2.0421196e-06 9.323961e-06 1.0239998e-05 1.898827e-05 5.7281595e-06
1.4410294e-06 8.5810825e-06 6.883434e-06 1.1592115e-06 0.00031635258 3.1353724e-05 5.823222e-07 0.00029254417
9.087635e-05 6.730631e-07 3.9193237e-06 1.4734773e-05 7.296479e-06 1.2340876e-05 6.2065114e-06 2.3977868e-06
7.898283e-06 2.1405285e-06 9.560586e-06 1.0370012e-05 1.3417516e-05 7.131509e-06 1.5578214e-06 7.96628e-06
1.0605432e-06 4.7640611e-07 0.0001067222 6.3518196e-06 4.8958135e-08 0.00010153953 9.305743e-06 1.2995069e-07
2.2151942e-06 2.7272665e-06 2.6836049e-06 1.784533e-06 5.6157905e-06 9.752554e-07 1.6081264e-06 8.911777e-07
2.8420222e-06 2.9571913e-06 6.085601e-06 1.5583707e-06 5.782082e-07 2.745948e-06 1.4025118e-06 3.898901e-08
4.2156753e-05 5.257811e-07 4.1490832e-08 4.304639e-05 1.3114599e-06 3.966439e-08 4.1092295e-07 4.94096e-07
3.0357162e-06 5.153866e-07 6.275335e-07 1.6330017e-06 1.63446e-06 3.4421507e-07 7.287352e-07 1.2956707e-06
3.0722879e-06 5.7621685e-07 3.5332187e-07 9.375413e-07 2.283397e-05 1.1292667e-06 0.00018001147 7.684825e-06
7.4713154e-07 0.00019603764 6.242605e-05 9.967423e-07 1.5419628e-06 3.6436188e-06 3.5777691e-06 4.8838724e-06
3.8151397e-06 1.9640206e-06 1.7234428e-05 1.507455e-06 3.2236248e-06 5.0664826e-06 1.3483192e-05 2.7663843e-06
1.4574384e-06 6.684719e-06

exp_avg f4 [7, 7]
00000000: 35c9 cab9 1059 0c3a bb9b 003b 9800 0f3b
00000010: b64e c03a 5e5e 8b3a 6519 7a3a c440 cc3a
00000020: f8e5 0b3b ba64 f83b 7668 b83b 766a 463b
00000030: f75f 173b 5359 433b 0ed1 0cba e249 25bb
00000040: a17c 8dbc 527f 523a a74d 393a 5999 013b
00000050: 418e dfba 36d9 0dba 21c6 80ba 7d2b b739
00000060: b35d 80bc 1c93 f7ba 6efd c83a 9e58 fa38
00000070: 6aa4 d4b9 f4eb bcb7 0d63 c73a f823 4b3b
00000080: 8ea1 b2bb 136f 36b6 cc96 13b7 e7a0 ccb9
00000090: fd36 b2b9 e354 8cb9 0628 80b9 db2e 36b9
000000a0: 744e 16bc ceb2 53b9 fa4c b93a 6b22 e03a
000000b0: f9af b73b fb4c d13b 0339 5a3b 10f7 153b
000000c0: 9568 a5ba
-0.00038678353 0.00053538475 0.0019624073 0.0021820422 0.0014671895 0.0010632982 0.0009540527 0.0015583267
0.002134679 0.007580367 0.005627687 0.0030275858 0.002309797 0.002980788 -0.0005371728 -0.002522104
-0.017271342 0.00080298365 0.0007068761 0.001977524 -0.0017055945 -0.000541109 -0.0009824672 0.0003493688
-0.01566968 -0.0018888447 0.0015334317 0.00011937435 -0.0004055829 -2.252122e-05 0.0015212015 0.003099678
-0.0054513877 -2.7184767e-06 -8.796993e-06 -0.00039029794 -0.00033991775 -0.00026766126 -0.00024443882 -0.00017374328
-0.009173978 -0.00020189138 0.0014137321 0.0017100101 0.0056056944 0.0063873506 0.0033298142 0.0022882856
-0.0012619669

exp_avg_sq f4 [7, 7]
00000000: 9f45 bf35 17ce 8334 3e4c 1235 6548 ac35
00000010: 7e3e cd34 f87d 1934 43b9 c534 a2fb 9634
00000020: e231 0835 d9aa 8f36 486e 2c36 da53 6135
00000030: 7d37 e134 dadc 9435 1b77 7f35 0e21 9736
00000040: 3033 6c38 c44b 6937 5b05 7736 9904 cb35
00000050: 3827 9d36 7e78 8135 25d5 8636 9d4f da36
00000060: fe06 8938 e54b 6a36 d88f ba35 2595 0537
00000070: 6aba 1535 2195 b535 bce5 0f36 b357 c836
00000080: aca6 5137 d9ee b834 88ba fb35 0d02 0634
00000090: d7cb 6634 2d0d ed34 82c7 9635 06cd 8334
000000a0: b83e 3637 d0e4 2835 51c6 5f35 a188 c835
000000b0: fc93 9236 e32a 0837 fa2e 0036 5216 8f35
000000c0: 5d46 1238
1.4250871e-06 2.4550602e-07 5.4500185e-07 1.2836068e-06 3.8229695e-07 1.4295063e-07 3.6828905e-07 2.8122764e-07
5.0736537e-07 4.2816214e-06 2.569419e-06 8.394105e-07 4.194989e-07 1.1091136e-06 9.5168224e-07 4.5039988e-06
5.6314457e-05 1.3905523e-05 3.6808985e-06 1.5126017e-06 4.6835303e-06 9.646317e-07 4.0183245e-06 6.5061745e-06
6.5339715e-05 3.4912894e-06 1.3899944e-06 7.962143e-06 5.5778094e-07 1.3528953e-06 2.1442384e-06 5.970674e-06
1.2496177e-05 3.4446455e-07 1.8755245e-06 1.2480469e-07 2.1494576e-07 4.4154277e-07 1.1233935e-06 2.4549826e-07
1.0862648e-05 6.2917843e-07 8.336256e-07 1.4940925e-06 4.3683667e-06 8.116217e-06 1.910083e-06 1.0660826e-06
3.4874643e-05

exp_avg f4 [7]
00000000: 933d ff3b 16a3 ce3c bcf4 97bc 40f7 8bbc
00000010: d5ff a4ba 50b1 30bc 3a7f 9f3c
0.0077893226 0.02522425 -0.018549316 -0.017085671 -0.0012588451 -0.010784462 0.019469846

exp_avg_sq f4 [7]
00000000: 3b85 ad37 5ce9 2a38 e6ff b039 7d9a aa39
00000010: 7615 e438 92ee 3738 28d7 5739
2.0685247e-05 4.074849e-05 0.00033759995 0.0003254003 0.000108758846 4.3852786e-05 0.0002058415

exp_avg f4 [7]
00000000: d54d ff3b e2a0 ce3c a1fb 97bc 47f1 8bbc
00000010: a794 a4ba 94a7 30bc 3781 9f3c
0.0077912607 0.0252232 -0.018552603 -0.017082823 -0.0012556509 -0.010782141 0.019470794

exp_avg_sq f4 [7]
00000000: 8c86 ad37 dee7 2a38 2d00 b139 069a aa39
00000010: 7615 e438 f5ed 3738 42d7 5739
2.068586e-05 4.07471e-05 0.00033760202 0.00032539683 0.000108758846 4.3852215e-05 0.00020584188

exp_avg f4 [7, 22]
00000000: d354 8a39 df46 ae3a 8586 0fbc f029 9bba
00000010: 47a9 9b3a ed88 0ebc da01 d0ba a838 c73a
00000020: a8f0 c539 cad2 9e3a b599 073b 1f36 f93a
00000030: bdcf bc3a 6052 493a f525 a13a 0cfc 713a
00000040: e100 273b 29cd 353a a5c8 1d3b 3979 3c3a
00000050: d08c 703a 6a58 4f3a fd4a 7dbc 35db 86bb
00000060: 7656 113c 81e4 25bc 86e6 9839 bbc2 4f3c
00000070: f14e 12bd 3e61 a0bb 34a2 c7b8 51e9 1bbc
00000080: 897c 5e3a 262c 943a 0a2f 3cba 43fa e6ba
00000090: a1fc 13bb 1a4a 08ba a77e 79bb 416e 97ba
000000a0: 6ddb 2fbb 0b40 84ba f51f 43ba 5766 20bb
000000b0: 5890 743a de39 b93a f929 c4bb 0005 aeb9
000000c0: 2ec0 8e3a 75fc c8bb 41e3 443a c2f5 c33a
000000d0: ae44 413a e5a3 9d3a b648 983a aa6d 733a
000000e0: 30fe 663a ffec 1b3a 2fc2 5d3a c3c4 193a
000000f0: a2cb f13a 11a2 063a aafe d73a 5f22 063a
00000100: ed50 1e3a 0c53 283a 2923 2a3c 850b 293b
00000110: 9e0b 19bc d8ce 023c cebc f0b9 7687 44bc
00000120: 2207 dd3c 7e75 0c3b cea6 ceb9 2de4 8b3b
00000130: 7108 d53a 1694 5db9 5450 ec3a 4c83 d63a
00000140: 9ffd 193b 48f5 9738 90f4 863b 4564 363a
00000150: f971 5c3b e3ac 3a3a 9997 1d3a c3ed c53a
00000160: 90bb 383a d824 e139 ed18 05ba d4a8 cd39
00000170: b6a6 fb38 cd5d 38ba e535 a63a 3938 f939
00000180: 4a31 4239 fcae 0d3a b225 e8b8 d6f6 6f39
00000190: 3ab7 a2b9 93cf a638 ba6f 0739 2994 8b38
000001a0: a8d0 3c39 b265 b938 7567 dd38 b1e3 c338
000001b0: 4809 af38 593d f838 392e 183b 8fe8 bfba
000001c0: 4011 3d3c bd0e 4a3b 6bbf c8ba ac78 353c
000001d0: 228e c43b 250b 9fba 28dc 6cb9 fded f036
000001e0: 6fbf dbba cf6a adbb 3ebc 34bb 60d7 53ba
000001f0: fe25 15ba 142a 72ba 570a 65bb 08dc 45ba
00000200: afe2 56bb 5456 65ba 6607 a8ba dcbb 3aba
00000210: f772 3839 fcf9 aeba 3933 163c 6185 243a
00000220: a89e cbba aa15 123c 6055 083b fefd 5aba
00000230: b6fd 17ba fa6f b33a 0318 90bb bff8 9eba
00000240: 621d 9dba d11a 56ba c61d 05bb d581 3eba
00000250: 9839 3dbb 6722 0bba ba3d 3ebb c783 1eba
00000260: 58d0 55ba 5737 d4b9
0.0002638461 0.0013296268 -0.008760099 -0.001183806 0.001187601 -0.008699638 -0.0015869692 0.001519938
0.0003775407 0.0012117263 0.0020690982 0.0019013322 0.0014405173 0.00076798163 0.0012294637 0.00092309783
0.0025482702 0.00069351733 0.0024075892 0.00071896944 0.0009176256 0.0007909598 -0.015459773 -0.004115487
0.008870712 -0.01012528 0.00029163453 0.012680705 -0.035719816 -0.0048944047 -9.519272e-05 -0.009516076
0.0008487185 0.0011304661 -0.000717864 -0.0017622191 -0.0022580998 -0.000519903 -0.0038069875 -0.0011553244
-0.0026833669 -0.0010089887 -0.00074434216 -0.0024475062 0.000932937 0.0014131626 -0.005986449 -0.00033191592
0.0010891014 -0.006133611 0.000751067 0.0014950561 0.00073726 0.0012026994 0.0011618349 0.00092860556
0.00088116806 0.0005948096 0.00084594166 0.00058658066 0.0018447528 0.0005135844 0.0016479094 0.0005116816
0.00060392806 0.00064210664 0.010384359 0.002579422 -0.009341149 0.007983886 -0.00045917038 -0.011995187
0.02698094 0.0021432335 -0.0003941566 0.004269144 0.0016253126 -0.00021131369 0.0018029311 0.0016366034
0.0023497117 7.245928e-05 0.0041185096 0.00069576903 0.003363727 0.0007121099 0.00060116645 0.0015100766
0.0007046992 0.00042942795 -0.00050772616 0.00039226434 0.00011999665 -0.00070330204 0.0012680857 0.0004753487
0.00018519643 0.0005404798 -0.000110696434 0.0002288477 -0.00031035562 7.9541605e-05 0.00012916225 6.6556335e-05
0.00018006808 8.84043e-05 0.000105573716 9.3407354e-05 8.346379e-05 0.000118369884 0.002322091 -0.0014641451
0.011539757 0.0030831539 -0.0015315836 0.011076134 0.005998389 -0.0012134059 -0.00022588728 7.180263e-06
-0.0016765426 -0.0052922736 -0.0027578021 -0.00080811046 -0.000568956 -0.00092378375 -0.003494879 -0.0007547741
-0.0032788923 -0.00087485206 -0.0012819588 -0.000712333 0.00017590435 -0.0013349648 0.009167486 0.00062759785
-0.0015534954 0.008916298 0.002080284 -0.0008353888 -0.0005797999 0.0013689988 -0.0043973937 -0.0012128575
-0.0011986906 -0.0008167448 -0.0020311936 -0.0007267271 -0.002887344 -0.00053075555 -0.002902849 -0.0006046858
-0.0008156351 -0.00040477022

exp_avg_sq f4 [7, 22]
00000000: b1f4 3b35 a839 7836 8829 1738 503d bd35
00000010: ff50 4936 c10d 1738 70c7 a136 64f4 7736
00000020: e79c 1236 485c 5435 6b87 9135 6dea a135
00000030: 8f03 4635 d199 8d34 9f67 0b35 7e9d ea34
00000040: ea61 5d36 fc77 9a34 c8dc 2e36 bd02 9734
00000050: 768f d234 2836 ca34 806b 9e38 529c 2b38
00000060: f48b 0e3a fbd5 7d37 9fe3 8537 c781 243a
00000070: 5064 9239 17b6 4c38 6dde 1637 ea5d 3438
00000080: af91 8f37 3ddb 3837 9e25 3737 1626 cd36
00000090: b39e 4f37 655a b136 6525 5e38 ee76 ac36
000000a0: 45f2 2c38 3138 9136 af3a be36 671b 2637
000000b0: 2778 3135 f3f8 e734 816a b236 3ec0 6634
000000c0: a493 1434 1ccf ca36 370e 4736 6112 0935
000000d0: dbfb d533 1df9 bb34 c631 5d34 b321 fd33
000000e0: 638b fe33 45fc 6533 326f ef33 b8e9 8233
000000f0: 97b9 f634 1bf1 7f33 3d57 c234 1c6a 3333
00000100: e0dc 8133 e4ff ee33 79cf 8137 fdac 1938
00000110: e8e8 333a c649 0f38 0e74 0838 2cc3 2f3a
00000120: dd34 1f39 cf58 2a38 59e6 8137 032a 9e37
00000130: b670 c737 65ba e437 1caa 7037 cc31 b036
00000140: c244 5137 9f85 1637 826b 7238 2ba7 b136
00000150: 06ed 4138 1278 ae36 20f6 0337 75ff dd36
00000160: bcb4 8a34 cb6f 5735 60cf 8b37 15ff 1535
00000170: a5b1 2a35 886d 8a37 2a14 b935 122f 5b35
00000180: f8c8 8e34 c0f2 d734 af3c 1b35 0cfa c234
00000190: 1965 7435 c1fd 2034 4bed 8934 76e0 3934
000001a0: 51df cd35 fda8 fa33 5c46 a335 0adf e933
000001b0: b019 2e34 0c06 3534 0f49 6b35 0b68 4f36
000001c0: b664 bc38 ae82 3236 9961 2136 6bca b938
000001d0: ca5d 0c37 2a1b 5036 2a12 5b35 e4f7 9035
000001e0: 49e5 6036 7f4e e636 624e 4536 75cd db35
000001f0: fe43 8035 9f02 5635 d7f2 0c37 9d17 1b35
00000200: 7d12 dd36 ed04 2235 37a6 8435 cd12 3b35
00000210: b0d3 7e36 9438 4d36 09d4 6f38 0027 3435
00000220: 2df9 c935 4089 8138 92fa 5737 6945 5b36
00000230: bcd4 2e35 eea5 3036 56ba 4836 2995 9735
00000240: 8e89 9535 10f0 1e35 cf9f 1136 513e 0535
00000250: 3a6b bc36 548c f234 7bca 9236 4a7e d434
00000260: 2604 1435 edde 4735
7.0019e-07 3.698844e-06 3.6039884e-05 1.4099442e-06 2.999848e-06 3.6014015e-05 4.8213915e-06 3.6948122e-06
2.1847025e-06 7.911044e-07 1.0842754e-06 1.2063662e-06 7.3765926e-07 2.6375213e-07 5.1932324e-07 4.3700487e-07
3.298856e-06 2.8772035e-07 2.6056532e-06 2.8127934e-07 3.921993e-07 3.7664836e-07 7.5540505e-05 4.091516e-05
0.0005437725 1.5129796e-05 1.596083e-05 0.0006275442 0.0002792203 4.8806975e-05 8.992484e-06 4.300281e-05
1.7114768e-05 1.10183e-05 1.0916408e-05 6.11391e-06 1.23751115e-05 5.2855344e-06 5.296375e-05 5.1398447e-06
4.1233627e-05 4.3278783e-06 5.669273e-06 9.900751e-06 6.6112483e-07 4.3208237e-07 5.317212e-06 2.1490357e-07
1.3837285e-07 6.04418e-06 2.9661585e-06 5.106322e-07 9.964398e-08 3.5012718e-07 2.0600336e-07 1.17873604e-07
1.1853151e-07 5.3547655e-08 1.1149531e-07 6.09611e-08 4.5956105e-07 5.95911e-08 3.619879e-07 4.177319e-08
6.0472075e-08 1.1129285e-07 1.547461e-05 3.663915e-05 0.0006863014 3.4162564e-05 3.253301e-05 0.0006704803
0.00015183115 4.0613868e-05 1.5485262e-05 1.8854631e-05 2.3775134e-05 2.7266515e-05 1.4344721e-05 5.251006e-06
1.247338e-05 8.971808e-06 5.779742e-05 5.294472e-06 4.623553e-05 5.199582e-06 7.865514e-06 6.6160524e-06
2.5836005e-07 8.025642e-07 1.6666658e-05 5.587802e-07 6.358844e-07 1.6501886e-05 1.3789443e-06 8.1652354e-07
2.6595785e-07 4.0223495e-07 5.7830306e-07 3.631725e-07 9.10442e-07 1.4993476e-07 2.5690892e-07 1.7311126e-07
1.5338684e-06 1.1672271e-07 1.2164924e-06 1.08904786e-07 1.6214358e-07 1.6859138e-07 8.7650636e-07 3.0905965e-06
8.9832974e-05 2.6600133e-06 2.4047679e-06 8.859191e-05 8.366487e-06 3.1010227e-06 8.161029e-07 1.0800982e-06
3.3512063e-06 6.8636723e-06 2.9400912e-06 1.6376567e-06 9.556531e-07 7.9725027e-07 8.401191e-06 5.777636e-07
6.5884656e-06 6.035687e-07 9.883141e-07 6.969029e-07 3.7972168e-06 3.0580313e-06 5.7179514e-05 6.711198e-07
1.5048187e-06 6.176764e-05 1.2873339e-05 3.2673945e-06 6.512962e-07 2.6322627e-06 2.9910784e-06 1.1293788e-06
1.1141399e-06 5.9208924e-07 2.1699705e-06 4.9637043e-07 5.6153194e-06 4.5178115e-07 4.374711e-06 3.9579965e-07
5.5140333e-07 7.4457677e-07

exp_avg f4 [7, 7]
00000000: 5028 b8b9 d50b 0b3b 6a1f c939 1aa8 6e3b
00000010: dc48 483a 45ff a63a 58e0 983a a7ec 9339
00000020: 4edb 93bc dd1a 3fba d198 633b 4fd1 0f3a
00000030: 4443 ce3a 9aff 093a 0266 f939 9388 0f3b
00000040: 497d ae39 2f52 cb3a e322 e439 fa08 203a
00000050: 24c7 473a 6158 113a 18ca 2c3c 04af 093a
00000060: d326 09bc a592 883a eb64 313b 45dc 853b
00000070: 9cd4 f338 a5b4 5a3a 6b88 b437 4729 f739
00000080: 68f1 93ba 2476 c639 9fb0 3538 1262 61b9
00000090: fb31 d8b9 c9b8 7eb9 cf56 7ab9 2d0b 4aba
000000a0: 5a51 22bc cd79 f739 bcce 08ba c742 c93a
000000b0: cee3 f2b9 d803 faba 3f2b f1b9 c396 b6b9
000000c0: cfab dbbb
-0.0003512525 0.002121677 0.00038361113 0.0036416114 0.00076402514 0.0012740871 0.0011663539 0.00028214345
-0.018048909 -0.0007290075 0.0034728537 0.00054862065 0.00157366 0.0005264223 0.00047568983 0.0021901473
0.0003328121 0.0015512164 0.00043513541 0.0006104853 0.0007620922 0.00055444805 0.01054623 0.00052522146
-0.008371073 0.001041968 0.0027068208 0.004085096 0.000116267445 0.0008342958 2.1521197e-05 0.00047142265
-0.0011287155 0.00037853525 4.3318254e-05 -0.00021494206 -0.0004123597 -0.00024292165 -0.00023874197 -0.0007707354
-0.009907091 0.0004720226 -0.0005218794 0.0015354984 -0.00046327565 -0.0019074632 -0.00045999323 -0.0003482607
-0.006703831

exp_avg_sq f4 [7, 7]
00000000: 752d 0d36 622b 0536 9043 0e34 d10d c236
00000010: 3303 4d34 5362 9d34 2d1c 7a34 813f 4236
00000020: b052 2139 1721 1336 4018 2538 8709 1b36
00000030: 12f5 4d36 69cb c036 bf0e 3133 b8d3 b135
00000040: 29dd d232 7c53 f434 21ac e032 b1b3 4933
00000050: 4ecd 8b33 bc3c 9c36 c149 5338 a61d 1536
00000060: c2ad 1b39 6a4d 7336 abf5 aa36 2623 8736
00000070: 282e 0e34 8b9b ac35 31b0 7633 9bb2 9135
00000080: a719 9135 e2e3 1334 cf12 fb33 201f 9634
00000090: 4653 7336 f10b 5034 e8a5 9536 0fa6 0035
000000a0: c65f 8e37 1ef4 bb34 8192 8134 bcaf 2737
000000b0: 90b7 4334 99b4 2636 6c77 9334 835f 9e34
000000c0: febb 9936
2.1037097e-06 1.9843797e-06 1.324936e-07 5.783259e-06 1.9093277e-07 2.931507e-07 2.3293315e-07 2.8945217e-06
0.0001538496 2.1923968e-06 3.936165e-05 2.3102345e-06 3.069003e-06 5.745726e-06 4.1224435e-08 1.3249146e-06
2.454779e-08 4.5509285e-07 2.6155307e-08 4.6962388e-08 6.5100366e-08 4.6562327e-06 5.037501e-05 2.2219988e-06
0.00014846682 3.6254883e-06 5.0949943e-06 4.0274053e-06 1.3241572e-07 1.2860268e-06 5.7436583e-08 1.0855323e-06
1.0810808e-06 1.3773345e-07 1.16915196e-07 2.7962324e-07 3.6258293e-06 1.9375854e-07 4.45986e-06 4.7925363e-07
1.6972317e-05 3.5009083e-07 2.4134718e-07 9.994892e-06 1.822757e-07 2.484105e-06 2.7467775e-07 2.9499287e-07
4.5816405e-06

exp_avg f4 [7]
00000000: f262 133c 68ac 4abc d254 d03b a094 353c
00000010: 4bc5 423a 5f4a 39bc 443e 11bc
0.008995758 -0.012370206 0.0063577676 0.011082798 0.00074299116 -0.011309235 -0.008864943

exp_avg_sq f4 [7]
00000000: 3a7d 2a38 be96 2d3a ffd9 d736 72bb 423a
00000010: 1f09 9637 a842 c538 eac4 8638
4.0647785e-05 0.00066218886 6.4328774e-06 0.0007428444 1.788564e-05 9.406108e-05 6.426296e-05

exp_avg f4 [7]
00000000: 5263 133c 96b7 4abc 874c d03b a586 353c
00000010: 4741 423a 2252 39bc 4535 11bc
0.008995848 -0.012372872 0.006356779 0.011079465 0.000741024 -0.011311086 -0.008862798

exp_avg_sq f4 [7]
00000000: 487d 2a38 e296 2d3a e4d5 d736 9abb 423a
00000010: e908 9637 cb42 c538 20c5 8638
4.0647836e-05 0.00066219096 6.4323995e-06 0.00074284675 1.7885543e-05 9.406133e-05 6.426335e-05

exp_avg f4 [7, 22]
00000000: 56a5 73bb abac 86ba eb9d e6bb 03dd 1abb
00000010: 51b3 30ba 8a28 d6bb 4f82 03bc a095 19ba
00000020: aaf7 14ba fadc 453a 3647 df3a 3c4d f53a
00000030: d17e a63a 7587 613a e617 873a cbf1 923a
00000040: b840 473a 1b72 fa39 9c89 b03a 2c2c 1e3a
00000050: 8f31 993a 7eb0 be3a 2de1 a4bb 98dc 193b
00000060: 86ab c0bc 4d1b 17bc 14b0 533b 1f32 b8bc
00000070: 35a1 86bc 679f 793b 43ba 1e3b 363b 213b
00000080: 61fd b23b fc68 a43b 798c 673b 5651 1a3b
00000090: 3914 563b 6cfa 5c3b 3189 983b 97b7 1a3b
000000a0: 7f75 8a3b 3e47 143b 00a3 6a3b ee80 853b
000000b0: 05e7 3bbb cf36 6739 1136 2abb 1785 59bb
000000c0: 4ed4 603a 58a9 00bb 1cd4 f0bb f9d9 ef39
000000d0: 55b2 7939 139e aa39 face 8f39 a10f 2b3a
000000e0: fd79 ac39 4031 4739 65e4 8239 632c d339
000000f0: da33 8539 ead7 2f39 43d0 ea39 08c4 3239
00000100: 39ed 5439 6ad1 1e3a ee94 60bb 3036 cf3a
00000110: 6702 adbc 39fd e3bb a700 273b 0324 a7bc
00000120: 046e 46bc 9e04 393b 2d92 0d3b 1c21 303b
00000130: 2907 a73b 7573 843b 6514 463b c40f 0a3b
00000140: 0ece 493b e77f 463b b152 833b e9ec 073b
00000150: 3924 843b 44eb 0b3b d798 573b a48a 6c3b
00000160: 50ec 2c3b a7cf 56bb 36d7 913c 3f78 dc3b
00000170: 2ee3 5cbb 6d13 873c f0aa 763c 85d1 72bb
00000180: 38d5 c9ba 125e 00bb 4496 11bb 45e4 adbb
00000190: 0b7f 70bb 78fa 01bb 2e44 beba 0351 44bb
000001a0: 326e 5bbb 00e3 ebba e89c 30bb e79f bfba
000001b0: ad7c 39bb 7c17 45bb 2693 8fba a382 9d3a
000001c0: 4e46 76bc e098 4fbb f7b0 e83a 896e 76bc
000001d0: 556a b5bb 219f ff3a 90ca b13a 3628 df3a
000001e0: bc22 873b c5fd 593b c957 183b d6d4 6b3a
000001f0: 4e95 013b 6d8b 0a3b c7e9 403b e1c0 d23a
00000200: 25aa 1b3b b51d be3a 8713 2d3b 3ab7 283b
00000210: 8bc0 463c e5f5 003b 91ce 133d e685 593c
00000220: 340a acba ae21 113d ed04 c13c aebd adba
00000230: add4 28bb 30cf 93bb 2e1d 46bc 15c1 a2bb
00000240: 42bc 67bb 1983 31bb c2d1 eabb 2ef4 92bb
00000250: 1192 ccbb 4827 57bb 4701 f2bb 4787 7dbb
00000260: a3ec b3bb 2bd1 debb
-0.0037177405 -0.0010274848 -0.0070378683 -0.0023630268 -0.00067405874 -0.0065355944 -0.008026673 -0.00058587827
-0.0005682657 0.00075478817 0.0017034772 0.0018715034 0.0012702589 0.00086032535 0.0010306805 0.0011210976
0.00076008914 0.0004776873 0.0013468745 0.0006033804 0.0011687743 0.0014548448 -0.005031726 0.0023477431
-0.023519289 -0.009222818 0.0032300996 -0.022484837 -0.016434291 0.0038089396 0.0024219907 0.0024601943
0.005462334 0.005017398 0.003533153 0.0023547015 0.0032665862 0.00337186 0.0046550264 0.0023607963
0.0042254324 0.0022625471 0.0035802722 0.0040742075 -0.0028671634 0.00022050295 -0.0025972167 -0.00331909
0.0008576558 -0.0019632187 -0.007349504 0.00045748035 0.00023812924 0.000325427 0.00027429295 0.0006525461
0.00032897285 0.00018996466 0.000249657 0.00040278127 0.0002540637 0.00016769735 0.00044787125 0.0001704843
0.00020306268 0.0006058427 -0.0034268457 0.0015808996 -0.02111931 -0.0069576767 0.0025482567 -0.020402914
-0.012111191 0.0028231512 0.002160202 0.0026875203 0.005097289 0.004042084 0.0030224558 0.0021066526
0.0030792984 0.0030288638 0.0040076603 0.0020740575 0.0040326384 0.0021349946 0.0032897496 0.0036093378
0.002638597 -0.003277758 0.017802816 0.0067282016 -0.0033704746 0.016488755 0.015055403 -0.0037051153
-0.0015398627 -0.001958732 -0.002221481 -0.005306753 -0.0036696817 -0.001983313 -0.0014516169 -0.0029955513
-0.003348243 -0.0017996728 -0.0026948992 -0.0014619798 -0.0028303072 -0.0030073812 -0.0010953888 0.0012017082
-0.01503141 -0.0031676814 0.0017752935 -0.015041002 -0.0055363574 0.001950238 0.0013564397 0.0017025534
0.0041240137 0.003326283 0.0023245683 0.00089962536 0.001977283 0.0021140233 0.0029436217 0.0016079211
0.0023752537 0.0014504703 0.0026409344 0.0025743977 0.012130867 0.0019677815 0.03608567 0.013276553
-0.0013125599 0.03543251 0.02356192 -0.0013255381 -0.002576153 -0.0045107827 -0.012091918 -0.004966865
-0.0035360013 -0.0027086197 -0.0071661184 -0.004484675 -0.0062429984 -0.003282981 -0.007385406 -0.0038685368
-0.005490856 -0.006799837

exp_avg_sq f4 [7, 22]
00000000: 8cca c836 f1d0 ed36 e082 8038 6d97 ed36
00000010: e1c8 0837 eed9 7d38 7b42 1337 3bfe 1637
00000020: 491e 9c36 6d40 0636 20ca da35 f957 fa35
00000030: 2f6c a835 55f5 1435 85f4 5b35 965d a735
00000040: c839 9a36 28b1 8c35 e108 0d36 bae5 4635
00000050: 25a5 ba35 fea8 8a35 ec15 2238 f332 af35
00000060: fba3 3f39 77ab 9337 7ab5 b135 6deb 5539
00000070: 6b31 cf38 ac3b f535 b811 3b36 400f 9637
00000080: 65b5 9336 3ff9 9536 92d9 8b36 3c26 ce35
00000090: 6216 8e36 4fae 8636 37d9 f336 701f 2436
000000a0: 7350 1337 8e7d 2e36 a869 cc36 9953 4436
000000b0: 0133 da37 91a3 7735 3145 9138 abe9 1b37
000000c0: f494 5434 2017 b538 713e b838 f132 aa35
000000d0: 0052 b635 d339 ed35 a28e c236 9823 0236
000000e0: 1491 0536 cd66 7335 fdbd e135 eff8 b135
000000f0: 6965 a636 42b0 9635 25b4 3136 958a 9135
00000100: 502a 4d36 d8fe 7e35 092b a536 9bf9 db34
00000110: e3f9 1038 d12a ab36 814d 0d35 e512 1038
00000120: 173a b637 5377 3735 f171 1135 0579 a835
00000130: 9ba9 0036 dc3f 8435 65b5 3e35 761b f834
00000140: 79b9 9435 2d8e 3835 b2ca ba35 d0fa c334
00000150: 3c3f da35 80c3 e134 8561 7635 2460 6135
00000160: b7b6 2436 6bb0 a335 9a06 5038 0ae8 e236
00000170: 9615 dd35 f3e1 3b38 ae8f fa37 be99 0936
00000180: 3edc ec34 6c3e 5635 8363 f535 f7cd 4836
00000190: 1311 d635 01ee 0c35 cbfa 7635 d0df a135
000001a0: 525c f035 7f9b 0535 a51c d035 ffd0 e734
000001b0: 1c42 a835 5308 bd35 0ab5 4437 e6c9 2435
000001c0: 215e b438 8180 c037 a635 9d35 296c 9c38
000001d0: bdab a738 dbd9 e135 38ca 8d35 4280 2b36
000001e0: 6d51 5836 563d 1936 3c7c e935 0752 3336
000001f0: f522 1836 c8ad 0436 e8af 4736 f8fd 3d35
00000200: 5760 b236 8936 8e35 757e db35 da96 1136
00000210: f786 db37 f766 a134 a1bb a939 81df 3438
00000220: 1c03 d735 76b7 a039 8d0e 1839 0cac f935
00000230: ce63 1b36 5b38 ad36 6fa4 c537 2edc 0a37
00000240: 30c3 a536 550b 2236 b079 9937 2db2 b336
00000250: 29eb 3037 2360 3336 48e1 8337 4548 7236
00000260: 071a f336 7cb0 2437
5.984044e-06 7.0874744e-06 6.127893e-05 7.0807787e-06 8.153002e-06 6.0522863e-05 8.7773615e-06 8.999889e-06
4.652688e-06 2.0005057e-06 1.6301092e-06 1.8652055e-06 1.2548461e-06 5.54913e-07 8.193968e-07 1.2469707e-06
4.5962843e-06 1.0482372e-06 2.1015805e-06 7.4095044e-07 1.3906143e-06 1.0330984e-06 3.8644226e-05 1.3053344e-06
0.00018276267 1.760361e-05 1.3240344e-06 0.00020400966 9.879734e-05 1.8271289e-06 2.7875485e-06 1.7888495e-05
4.4020585e-06 4.469562e-06 4.1678513e-06 1.5359324e-06 4.2345355e-06 4.0138034e-06 7.2672515e-06 2.4456203e-06
8.780614e-06 2.6001103e-06 6.091974e-06 2.9254936e-06 2.6011376e-05 9.225269e-07 6.927027e-05 9.293125e-06
1.9798227e-07 8.63506e-05 8.785434e-05 1.2680813e-06 1.3583922e-06 1.7674705e-06 5.798255e-06 1.9392228e-06
1.990299e-06 9.067415e-07 1.68191e-06 1.3259977e-06 4.958991e-06 1.1227169e-06 2.6479913e-06 1.0843675e-06
3.057201e-06 9.499322e-07 4.922393e-06 4.097354e-07 3.4565e-05 5.1011816e-06 5.2639376e-07 3.4349872e-05
2.172314e-05 6.834645e-07 5.4182516e-07 1.2552197e-06 1.917221e-06 9.853352e-07 7.104448e-07 4.621358e-07
1.1080839e-06 6.8752234e-07 1.3917072e-06 3.650407e-07 1.6260669e-06 4.205176e-07 9.178405e-07 8.3958935e-07
2.4544258e-06 1.2195791e-06 4.9597213e-05 6.7623378e-06 1.6472065e-06 4.4794706e-05 2.9869228e-05 2.050408e-06
4.4118673e-07 7.981205e-07 1.8282884e-06 2.992221e-06 1.5949212e-06 5.2500405e-07 9.2007093e-07 1.2060573e-06
1.7908262e-06 4.977264e-07 1.5505544e-06 4.3179168e-07 1.2536216e-06 1.408402e-06 1.1724662e-05 6.138856e-07
8.600602e-05 2.2948023e-05 1.1713025e-06 7.458806e-05 7.995169e-05 1.6827211e-06 1.0564172e-06 2.5555642e-06
3.2233904e-06 2.2834479e-06 1.739601e-06 2.6720825e-06 2.2670113e-06 1.9770687e-06 2.9755702e-06 7.077756e-07
5.316029e-06 1.0595696e-06 1.6353575e-06 2.169449e-06 2.6169682e-05 3.0063504e-07 0.00032373986 4.31235e-05
1.6019653e-06 0.00030654267 0.0001450127 1.8602018e-06 2.3154894e-06 5.1623624e-06 2.35608e-05 8.276706e-06
4.940106e-06 2.4146477e-06 1.8295686e-05 5.355358e-06 1.054517e-05 2.6729037e-06 1.5721322e-05 3.6102876e-06
7.2449943e-06 9.816253e-06

exp_avg f4 [7, 7]
00000000: 5b26 23ba f6ad 163a e91e d739 486c 593a
00000010: a1d8 2b3b 4c4e 873a fab1 083b 5221 333b
00000020: 3275 183b 4e69 023b 797c 453b e565 a93b
00000030: 06ef 383b cf2f d43b 9386 e239 e6d5 9c39
00000040: ec90 76ba b04e 9d39 c87e 6a3a 4a01 1e39
00000050: dedb 923a 7211 1e3b b1b7 3c3b e5a7 dc3a
00000060: 07ea 343b 1d6f 613b 2bf1 2d3b 8bad d03b
00000070: cb3b 0ebb 3c40 2bbb 290f 9eba 2e29 08bb
00000080: d1ae 01bc e022 14bb 6d21 f538 62ba c83a
00000090: 962e 033b b7e8 b03a 411b b13a c3b7 7d3b
000000a0: b226 fc39 ce56 a83b 509b 1abb 94c4 67bb
000000b0: 1331 ecba 7f8f 9cbb 329c b7b9 1512 54bb
000000c0: a21b b0bc
-0.0006223672 0.0005747968 0.00041031025 0.0008294028 0.002622165 0.0010323017 0.0020858035 0.0027333093
0.0023263213 0.0019899192 0.0030134006 0.0051696175 0.002821864 0.006475426 0.00043206345 0.00029914005
-0.00094057503 0.00030004 0.00089452835 0.00015068534 0.0011204442 0.0024119285 0.0028796012 0.0016834704
0.0027605311 0.0034398504 0.0026541452 0.006368344 -0.002170312 -0.0026130816 -0.0012058961 -0.0020776498
-0.007915215 -0.0022603795 0.000116887364 0.0015314335 0.002001678 0.0013497089 0.0013512151 0.0038714267
0.00048094016 0.005137301 -0.0023591109 -0.0035364972 -0.0018019996 -0.0047778483 -0.00035020855 -0.003235941
-0.021497551

exp_avg_sq f4 [7, 7]
00000000: 84ba c936 22a3 8336 a255 4335 b06f af35
00000010: 8e65 7235 9331 9435 8ec4 7835 9c51 3036
00000020: 5025 1738 90ef 0c36 cb2f 8436 17c2 2236
00000030: a003 4c36 91ec 9b36 5c67 6335 96a7 5e36
00000040: 243d 2037 4de3 ba35 c499 4835 6cf0 0536
00000050: 0072 3535 77eb 1a35 6410 0d36 6226 6c35
00000060: 840a 4f35 7f1d 2435 4e24 8635 8616 7436
00000070: 8d51 3635 4aad a235 39a0 1135 1f24 4a35
00000080: 4e60 a336 207f 3f35 1437 0836 60a4 9935
00000090: 6580 7036 3119 b935 3c39 4136 38ee b435
000000a0: 285a f636 5805 7636 e622 1a36 395e 9b36
000000b0: 95e4 ad35 8386 e636 4954 0f36 5dac 5c36
000000c0: e5ba 9838
6.01198e-06 3.9230954e-06 7.2767773e-07 1.3071021e-06 9.0299807e-07 1.1041287e-06 9.2673224e-07 2.6273547e-06
3.6035955e-05 2.100107e-06 3.9394704e-06 2.4252856e-06 3.040048e-06 4.6469e-06 8.47145e-07 3.3178126e-06
9.550979e-06 1.3924233e-06 7.4729564e-07 1.9958488e-06 6.7593646e-07 5.7712117e-07 2.1020178e-06 8.7972705e-07
7.712881e-07 6.1137683e-07 9.994344e-07 3.6371944e-06 6.7918955e-07 1.2120374e-06 5.4249864e-07 7.5303427e-07
4.86899e-06 7.1338036e-07 2.029764e-06 1.1447228e-06 3.5837522e-06 1.3790906e-06 2.8792556e-06 1.3480376e-06
7.341867e-06 3.6659967e-06 2.2968102e-06 4.630329e-06 1.295603e-06 6.8701934e-06 2.135772e-06 3.2882883e-06
7.2827366e-05

exp_avg f4 [7]
00000000: c7f2 e23b afd7 c83c 356c 133b 7bda b53c
00000010: 9b86 94bc c5c4 803c 7bcf 19bd
0.006925914 0.024516908 0.0022494916 0.022198906 -0.018130591 0.015718827 -0.037551384

exp_avg_sq f4 [7]
00000000: c213 a038 402b 6a39 7214 ca38 e949 2838
00000010: 0c32 6038 84fd cf38 149b b839
7.633075e-05 0.00022332091 9.635919e-05 4.0123155e-05 5.345237e-05 9.91775e-05 0.00035210757

exp_avg f4 [7]
00000000: 0210 e33b f7e1 c83c 0a61 133b 1ee2 b53c
00000010: c58a 94bc d3bc 803c 1bd5 19bd
0.0069293985 0.024521811 0.002248826 0.022202548 -0.018132577 0.015715038 -0.03755675

exp_avg_sq f4 [7]
00000000: 2614 a038 d42b 6a39 a414 ca38 c74e 2838
00000010: a332 6038 5bfc cf38 df9b b839
7.6331475e-05 0.00022332306 9.635955e-05 4.012769e-05 5.345292e-05 9.917534e-05 0.00035211348

exp_avg f4 [7, 22]
00000000: 66b4 293c bc53 eaba 126f d8bc 642c 423c
00000010: 8d02 ecba 696a dabc 74bc bc3c 6e73 00bb
00000020: 66ba 193a 3bcf 313b 030e f33b 4fbf 9c3b
00000030: 13e3 843b 6f5e 483b 1cfd c33b 9e64 983b
00000040: 12cc 2a3b 89bd f43b 7721 2f3b 37e3 873b
00000050: abda 303b c865 8e3b 9348 923b 77d7 27b9
00000060: 8022 64bc 8fb0 853b dfbb 10b9 e466 64bc
00000070: a50f 123c e4e3 70b9 5498 db3a 78b1 f13a
00000080: de55 233b 3fc6 3e3b fb15 0b3b 1639 cf3a
00000090: 9108 183b 2189 013b 0681 d53a 1af8 7e3b
000000a0: fd19 c13a 7a05 1f3b dec7 c53a 045f 053b
000000b0: 10aa 13bd bba6 6b3b 6622 dc3d dd0f 1cbd
000000c0: 70ad b53a a1af dc3d c812 98bd b438 613b
000000d0: 0532 08bc c899 4ebc 1d2f d3bc 5861 9cbc
000000e0: 869b 7fbc 82f3 35bc 33d0 aebc 2d54 8cbc
000000f0: f773 32bc c38c fbbc 8b21 35bc 7b16 83bc
00000100: af25 38bc 0ccc 89bc 9393 04bb 7bf9 e738
00000110: 483d 8dbb a61a cdba d61c 6a3a edda 81bb
00000120: 7257 b3bb 9304 0f39 378c 6d39 b296 9f39
00000130: 698f a73a b537 dcb9 da5a a739 9658 7139
00000140: 1bc2 b63a 4ceb e139 b81b 3a39 89e7 c43a
00000150: 3cef ec39 a102 f8b8 acaa 9c39 e505 193a
00000160: fd44 4d3c 081e 10ba b9d5 0fbd e311 3f3c
00000170: ea27 f8b9 d725 11bd 3762 cf3c 4eea 20ba
00000180: c944 713b 904a 9b3b 5a11 d93b 4880 f73b
00000190: 5757 b73b d7e1 803b f2ad bc3b 0b7f ac3b
000001a0: f117 803b 8cd3 1e3c b0d8 713b 11d8 cc3b
000001b0: bbba 783b cbcb ac3b 2f7b b33b 7ff3 04ba
000001c0: 8991 31bc 8030 ad3b 755d 65b9 21b2 32bc
000001d0: 4c6d 363c 09e0 acb9 3f42 993a bdbf b23a
000001e0: 72dd 253b 6a0d 0d3b 0f59 e43a eed7 5e3a
000001f0: 8c7b 013b 4cb8 f03a 8f69 923a e06a 453b
00000200: e299 8b3a 431a e53a 23a1 a03a 2f59 e83a
00000210: 521f 303c d106 85ba 4297 d5bc a994 3e3c
00000220: cfd5 ccb9 ad9f d7bc f5ae bd3c 21df 49ba
00000230: f558 0f3b 04ce 393b d142 df3b a5a0 a23b
00000240: ffaf 6c3b b2c2 3a3b 8225 a03b ec69 913b
00000250: 65d5 2e3b 791f f63b bc26 2a3b dbe0 803b
00000260: 0806 373b 21e3 893b
0.010357952 -0.0017877738 -0.02642015 0.011851404 -0.0018006131 -0.026662068 0.02303908 -0.0019600051
0.00058642623 0.0027131576 0.007417442 0.004783548 0.0040553897 0.0030573865 0.0059811007 0.0046506664
0.0026061577 0.0074688834 0.0026722827 0.004146959 0.0026985805 0.0043456294 0.004464218 -0.00016006628
-0.013924241 0.0040798853 -0.00013802898 -0.013940547 0.008914863 -0.0002297308 0.0016753771 0.0018439731
0.0024923007 0.0029109863 0.0021222818 0.001580986 0.0023198465 0.0019765573 0.0016289062 0.0038905204
0.0014732477 0.002426474 0.0015089472 0.0020350823 -0.036050856 0.0035957533 0.107487485 -0.038101066
0.0013860893 0.10775686 -0.07425457 0.0034366073 -0.008312707 -0.0126099065 -0.025779301 -0.019089386
-0.0156010445 -0.01110542 -0.021339511 -0.017129982 -0.010891906 -0.030706769 -0.011055361 -0.01600193
-0.011239453 -0.01682093 -0.0020229563 0.00011061408 -0.004310284 -0.0015648201 0.00089306885 -0.0039628656
-0.005473071 0.00013639247 0.00022654315 0.0003043912 0.0012783828 -0.00042003175 0.00031920412 0.00023016552
0.0013943346 0.00043090654 0.00017748668 0.0015022616 0.0004519167 -0.00011826051 0.000298818 0.0005837365
0.012528655 -0.0005497639 -0.03511593 0.011661979 -0.00047331984 -0.035436478 0.025315387 -0.000613843
0.003681468 0.004739113 0.006624383 0.007553134 0.0055951285 0.003933172 0.0057580406 0.005264168
0.003909104 0.009693991 0.0036902837 0.006251343 0.0037953097 0.0052733175 0.005477331 -0.0005071684
-0.010837921 0.0052853227 -0.00021873957 -0.010906727 0.011134457 -0.00032973316 0.0011692717 0.0013637465
0.0025308994 0.0021522888 0.0017421561 0.0008500804 0.0019757478 0.0018365472 0.0011170375 0.0030123517
0.0010650719 0.001747914 0.0012255054 0.0017726774 0.010749655 -0.0010149126 -0.026073102 0.011632123
-0.00039069212 -0.026321257 0.023154715 -0.00077007903 0.002187309 0.0028351555 0.006813385 0.004962998
0.0036115644 0.0028497395 0.004887284 0.0044376757 0.0026677486 0.007511076 0.002596303 0.003933055
0.002792718 0.004207984

exp_avg_sq f4 [7, 22]
00000000: fb07 dc36 5f54 cb35 01a0 a038 666e ca36
00000010: 67d1 1736 fb2b a038 14e8 b837 34d5 0336
00000020: a1d9 b136 6d1d aa35 a79d 6c36 65c8 0536
00000030: 256b af35 f200 3735 91b9 0e36 9ea4 c735
00000040: 9d76 9635 64a7 b836 effa 5a35 903c 2b36
00000050: ff4d 8435 99cd c335 ca41 7c36 5a7b 2434
00000060: 52d2 b637 44aa df35 544a bf33 8dc9 c837
00000070: 162c 3737 3c6c 3a34 5742 0935 92e4 b535
00000080: e0a2 dd34 1a00 3e35 33d6 fc34 a6c9 a134
00000090: 762d 1135 b298 0935 aca8 7034 efeb 9835
000000a0: 1794 a434 d9ad b235 352a 9534 a492 e734
000000b0: 702f 9a38 4e3c ac35 a048 443a d1cb bb38
000000c0: 1122 a335 0ff9 3f3a 1feb a639 6b1e b435
000000d0: 13fd dd36 4a44 4137 fea2 4b38 5e44 b337
000000e0: 1d64 6d37 71c3 0737 30e2 e437 82e0 9f37
000000f0: 90a9 fa36 86bd 5a38 efdd 0537 c8be c837
00000100: ab11 0837 b613 9137 dfe0 bf36 9f6f 9833
00000110: 6c76 d437 9066 ac36 a7fb 5434 995c d837
00000120: 4812 de37 b6cf aa33 d3a3 fe34 bf95 2335
00000130: 437f 8135 57f3 a935 0df4 1f35 5fa8 bb34
00000140: 08fb 3835 1ada 2335 5873 c734 56a2 de35
00000150: fb08 9734 fcda a835 6611 ab34 9bd9 1435
00000160: 4198 e036 6e07 2534 53ac 5a38 8462 e036
00000170: 6334 4734 7a46 5a38 14b7 f637 43c1 2c34
00000180: 3cf5 3735 699f 8935 ced7 1836 e48a 1436
00000190: bfa3 b135 2580 3035 8571 cb35 53de a135
000001a0: a47c 2235 9025 6d36 cd90 1d35 13fc 0636
000001b0: f825 1f35 5e37 9935 4579 0136 db95 9034
000001c0: 9465 3538 85ab 1636 f388 9833 f4cd 3338
000001d0: 30a5 1937 0616 9633 aa9d 3635 475e 5435
000001e0: e2a7 7435 d039 ab35 5e26 3835 a02e ca35
000001f0: 10d0 9635 632f 0935 b0a3 3535 bd6e 5636
00000200: 1a2e 2635 4646 da35 d7a5 d634 194d 2335
00000210: 46f0 9a36 86f8 cd34 3054 f238 fb52 2c37
00000220: 1d4f c033 9f6f e638 fc62 0338 d3f2 ec33
00000230: 8794 7d35 4f08 f935 7d9b 5b36 2cb1 4636
00000240: 5b75 8a36 e3e3 c335 c880 b936 cb72 db35
00000250: e365 cc35 9863 0037 20ac c535 0469 9a36
00000260: 4a70 9635 1839 0536
6.55744e-06 1.5149234e-06 7.6591976e-05 6.032921e-06 2.2622642e-06 7.6375865e-05 2.2042579e-05 1.9644622e-06
5.3003464e-06 1.2674551e-06 3.5258506e-06 1.993519e-06 1.3069699e-06 6.817419e-07 2.1267663e-06 1.4874565e-06
1.1210392e-06 5.503114e-06 8.1576485e-07 2.5516238e-06 9.857466e-07 1.4588469e-06 3.758922e-06 1.5318565e-07
2.1794029e-05 1.6664349e-06 8.907651e-08 2.3935712e-05 1.0917915e-05 1.7361975e-07 5.1133014e-07 1.3552074e-06
4.1282965e-07 7.0780663e-07 4.7094508e-07 3.0135305e-07 5.4082864e-07 5.125868e-07 2.2413104e-07 1.1393548e-06
3.065513e-07 1.331263e-06 2.7784122e-07 4.3133798e-07 7.352128e-05 1.283255e-06 0.00074876286 8.9548186e-05
1.2154361e-06 0.00073231844 0.00031837166 1.3419898e-06 6.615775e-06 1.1519596e-05 4.855077e-05 2.1370299e-05
1.414961e-05 8.092132e-06 2.7285045e-05 1.9058822e-05 7.4703203e-06 5.2151758e-05 7.979091e-06 2.3930697e-05
8.110345e-06 1.7294526e-05 5.718422e-06 7.098355e-08 2.5327514e-05 5.1379393e-06 1.9835589e-07 2.5792326e-05
2.6472975e-05 7.954024e-08 4.7430385e-07 6.094014e-07 9.648287e-07 1.2662302e-06 5.9587256e-07 3.495397e-07
6.891064e-07 6.103961e-07 3.7150562e-07 1.6587535e-06 2.8132476e-07 1.2580708e-06 3.186389e-07 5.5450954e-07
6.693445e-06 1.5369525e-07 5.213574e-05 6.687189e-06 1.8552377e-07 5.2040887e-05 2.9410738e-05 1.6089056e-07
6.8529675e-07 1.025369e-06 2.277538e-06 2.2134564e-06 1.3235184e-06 6.5751584e-07 1.5157717e-06 1.206014e-06
6.053108e-07 3.5337616e-06 5.869777e-07 2.0114283e-06 5.928737e-07 1.1415502e-06 1.9293086e-06 2.6931124e-07
4.3248365e-05 2.245158e-06 7.1029625e-08 4.2868734e-05 9.157971e-06 6.988925e-08 6.8029715e-07 7.9113346e-07
9.1141385e-07 1.2757318e-06 6.8601173e-07 1.5063742e-06 1.1236425e-06 5.1105434e-07 6.766595e-07 3.1952943e-06
6.1906906e-07 1.6262718e-06 3.998127e-07 6.0834424e-07 4.617529e-06 3.836505e-07 0.000115551404 1.0271319e-05
8.955087e-08 0.00010988046 3.132502e-05 1.1033776e-07 9.446598e-07 1.8554364e-06 3.272405e-06 2.9607427e-06
4.1263825e-06 1.4594956e-06 5.5284218e-06 1.6350181e-06 1.5228837e-06 7.652583e-06 1.4727739e-06 4.601783e-06
1.1208551e-06 1.9851777e-06

exp_avg f4 [7, 7]
00000000: 7ddf 583a c19d d93a 3a32 8c3c e596 243b
00000010: 8641 1f3b e2dc c63a cefc 253b 5e12 fa3a
00000020: 847a 843a 9bf7 a33b e640 0e3b 0477 de3a
00000030: 0dd3 ae3a 959e f03a 666c 42bc b804 f3bb
00000040: 81d4 77bd fb8c b7bb 56cf 24bc 4650 e2bb
00000050: 7526 3cbc 100e 5f3a a2fc 0839 58bf 993b
00000060: 110b 54bb 9795 b5b9 1df7 d539 ce25 583a
00000070: ebfe 8a3b 7d4b 3d3b 23cf 6b3c 2315 ac3b
00000080: 3564 893b e185 363b 4318 873b 304e df3a
00000090: 5347 4a3a e296 b83b a4ba b53a 48d8 983a
000000a0: 604d 93b9 8eec b63a c48d 463b ac28 da3a
000000b0: 3183 833c e1b2 143b 96ed 133b eb50 e33a
000000c0: bf9e 933a
0.00082730484 0.00166028 0.017113794 0.0025114354 0.002430053 0.0015172029 0.0025327685 0.001907896
0.0010107313 0.005003882 0.0021706163 0.0016972725 0.0013338045 0.0018357808 -0.0118666645 -0.007416334
-0.060505394 -0.005601523 -0.010059198 -0.006906542 -0.011483778 0.00085088704 0.00013064084 0.0046919994
-0.003235523 -0.00034634463 0.0004081064 0.00082453794 0.0042418144 0.0028884106 0.014392647 0.005251543
0.004192854 0.0027850794 0.0041227653 0.0017036851 0.00077163166 0.005633221 0.0013864827 0.0011661137
-0.00028095674 0.0013955997 0.0030296901 0.0016644201 0.016053768 0.0022689628 0.0022572032 0.0017342841
0.001126252

exp_avg_sq f4 [7, 7]
00000000: e33e f136 73f3 0f35 4664 7d37 9806 1535
00000010: 372d 8335 107c d834 22c6 1235 eff9 1a35
00000020: 6de9 9835 d530 ac35 4d26 e134 16fc 5a35
00000030: 3171 c634 ecab 1c35 9c8c 3537 cb6f 7f36
00000040: 6b4b 4b39 bd7c 8e36 5501 2737 23db 8e36
00000050: 2107 1937 18c5 f834 2f12 7734 26e3 2136
00000060: 080f 1c36 6c24 4235 b456 9f34 6069 1435
00000070: 8eda 7235 4e9b d934 9af9 1637 44f3 ca35
00000080: 70d1 7435 f96a e634 3440 a535 3a89 e934
00000090: 7d0e bd34 13bd 4136 5501 dc34 b4d6 4635
000000a0: 2f08 ab36 ae62 c534 aabf 5535 d569 4135
000000b0: 4091 7237 a9f1 5735 0b3c 1336 2af5 1335
000000c0: b33c 4a37
7.1896807e-06 5.3625917e-07 1.5103322e-05 5.551642e-07 9.77342e-07 4.0323403e-07 5.467756e-07 5.773317e-07
1.1392818e-06 1.2829211e-06 4.1937383e-07 8.157816e-07 3.6962732e-07 5.836471e-07 1.0821179e-05 3.8063033e-06
0.00019387684 4.246451e-06 9.954286e-06 4.2574407e-06 9.1211705e-06 4.6337004e-07 2.3010283e-07 2.4123087e-06
2.325456e-06 7.232363e-07 2.9679143e-07 5.528764e-07 9.0470064e-07 4.05324e-07 8.998812e-06 1.5120972e-06
9.1201855e-07 4.291867e-07 1.2312144e-06 4.3499477e-07 3.5214535e-07 2.8869297e-06 4.0979162e-07 7.407318e-07
5.09715e-06 3.6765908e-07 7.962759e-07 7.205211e-07 1.4458143e-05 8.0445403e-07 2.1939657e-06 5.511853e-07
1.2054271e-05

exp_avg f4 [7]
00000000: 6345 ea3c fdf3 743c 6328 e9bd bcfe 593b
00000010: 5d27 1b3d ef0c 413c 4f8f e63c
0.02859754 0.014950749 -0.11384656 0.0033263406 0.037879337 0.011782869 0.028144507
