data_10frm/model/0_2_8_0.pt (torch_old, 18375 bytes, 52 tensors)

rnn.weight_ih f4 [7, 22]
000000 f2 1a ef 3d 5d 27 91 be 03 d2 7d 3e 5a d1 d1 bc
       0.11675061 -0.28350344 0.24787144 -0.025612522
000010 c5 e3 69 3e 66 ae a9 3e 1d 5f a2 be 9a e9 c0 3e
       0.22840793 0.33140868 -0.3171319 0.37678224
000020 79 bb d5 be cf 67 2a 3e 45 9c 4f bd 6a a7 da 3d
       -0.41744593 0.16641162 -0.05068614 0.10676463
000030 c9 9e 8b be 4a b4 15 3e a3 d3 88 be e4 a7 cc be
       -0.2726958 0.14619556 -0.26723966 -0.3997184
000040 b0 f4 8c 3d db c0 1a 3e 61 39 9c 3e 81 a9 d2 bd
       0.06882608 0.15112631 0.30512527 -0.102862366
000050 ca 09 98 3e dc a0 2c 3e ec 85 0f be ee 05 d5 be
       0.29694968 0.16858238 -0.14015931 -0.41606086
000060 44 9e 52 3e 47 1e 02 be 14 6e 0d 3e 3d 70 aa be
       0.20568186 -0.12706862 0.13811523 -0.33288756
000070 01 7e ac 3e bd c2 ca bc 11 dc 30 bd e1 84 55 3e
       0.33689883 -0.024751062 -0.04317862 0.2085147
000080 5b 4a 93 be 9e 0d b0 bd 41 04 0f 3c f3 14 63 be
       -0.28767666 -0.08596347 0.008729042 -0.2217596
000090 dc 5e c7 bd 63 24 1d be fd 39 b8 3e 09 8f a9 3e
       -0.0973489 -0.15345912 0.35981742 0.3311694
0000a0 26 24 ac 3e 58 db a3 3e 77 23 b3 be 27 23 fb 3d
       0.3362133 0.32003284 -0.34987995 0.12262564
0000b0 58 72 3f 3e dd 0e 59 be 2d 31 fa 3d 9f d1 13 be
       0.18695962 -0.21197076 0.12216411 -0.14435433
0000c0 7d 16 7a 3c 52 1c bc 3d c8 a6 c2 3e fd 7e 0a be
       0.015264151 0.09185089 0.3801787 -0.13525005
0000d0 43 f4 88 be a2 6e b9 3e 54 cd 4d 3e b7 5e 5c 3e
       -0.26748857 0.3621722 0.20097858 0.21520506
0000e0 ac ef 2e 3e 6f b7 cd bd db 5e 85 3e f7 f8 99 be
       0.17083615 -0.10044753 0.2604893 -0.30072758
0000f0 9e 25 b5 3d a3 38 51 3e 5b 51 93 3e ff cb 1e be
       0.088450655 0.20431761 0.28773007 -0.15507506
000100 ab 06 60 be 27 8b 2c 3e 74 a2 b4 be fa 15 d1 be
       -0.21877544 0.16849957 -0.35280192 -0.4083708
000110 aa 1e 3d be a4 c6 39 be ce 55 63 be c4 25 92 bd
       -0.18468729 -0.18142182 -0.222007 -0.071361095
000120 38 fe 3a be 3a 26 e3 be 99 15 a0 3d 1b 97 4e be
       -0.1826104 -0.44365102 0.078166194 -0.2017483
000130 cf 4f c8 be 76 11 83 bd 3b 87 e1 be 31 f7 e4 3d
       -0.3912339 -0.06399815 -0.44048485 0.111799605
000140 3b 61 8f 3d 50 8f 06 bf bc 0f e8 be de 12 cd be
       0.07000967 -0.5256243 -0.45324504 -0.40053457
000150 24 03 b5 be 3c 14 d3 bd 2c ce 05 bf 78 e1 e1 be
       -0.3535396 -0.10306594 -0.5226772 -0.44117332
000160 0d e3 9b 3d 31 d4 11 be 0c 04 77 bd ab cb c2 be
       0.07611666 -0.14241101 -0.060306594 -0.3804601
000170 0a 0e a2 3d ef 29 ee 3d 7d b0 71 be f4 b5 86 be
       0.07912834 0.11629092 -0.23602481 -0.26310694
000180 41 59 7c bc b8 09 05 3d 09 5b a8 3d 33 cb b3 3c
       -0.015402139 0.03247997 0.082204886 0.021947479
000190 e2 4a 10 be b1 a7 c3 be d2 c0 14 3e 4e ad b6 bd
       -0.14091066 -0.38213876 0.1452668 -0.08919774
0001a0 c5 16 b0 be c3 9e 73 3e 41 79 ef 3d 2a 95 c7 be
       -0.34392372 0.23791032 0.11693049 -0.3898099
0001b0 ff 47 8c be 16 45 5f be 81 69 a3 be 61 70 28 3e
       -0.2739868 -0.21803698 -0.3191643 0.16449119
0001c0 02 78 59 be bf ba 84 3e c9 df 50 be a7 83 92 3e
       -0.21237186 0.25923726 -0.20397867 0.28616068
0001d0 0a 13 ae bd b6 8b 2c be 31 e5 3d 3e ce be ac be
       -0.08499725 -0.1685017 0.18544461 -0.33739322
0001e0 b5 33 8b be b4 af 94 bc ac 8c 71 3e 79 82 4b be
       -0.27187887 -0.018150188 0.23588818 -0.1987399
0001f0 e4 2d 94 be 8e 53 96 be 20 5f 6f be 04 d4 4b be
       -0.28941262 -0.29360622 -0.23376131 -0.19905096
000200 47 cf 0a be 69 7c 8b be 13 54 31 3d b7 4c 4a bd
       -0.13555633 -0.27243355 0.04329307 -0.049389567
000210 b3 d2 b7 be 8c 7f a4 be 0b 43 e5 3d 56 d3 ca bd
       -0.35902938 -0.3212856 0.11194428 -0.099035904
000220 d6 ae 36 3e c2 5a d1 bc 4d 7b d0 be 2d 46 a2 be
       0.17840132 -0.025555972 -0.4071907 -0.31694165
000230 ee b0 20 be 53 d6 da bd a0 6d fb 3a 5d 52 f6 bd
       -0.15692493 -0.1068541 0.0019182451 -0.12027428
000240 5e bc d1 3d 31 26 2d be 2b f2 80 3e bf f2 51 3d
       0.10241006 -0.169091 0.2518476 0.05125689
000250 80 48 1d be 81 15 9a 3e a5 79 8c 3d 49 f2 93 be
       -0.15359688 0.3009453 0.06859139 -0.28895786
000260 22 ed 79 be af 3f 52 3e
       -0.24406865 0.20532106

rnn.weight_hh f4 [7, 7]
000000 ee 43 05 3e 18 51 80 3e 34 ae c6 bd 2e bb 49 3e
       0.13014194 0.2506187 -0.09701195 0.1970031
000010 f2 4b c7 3d 88 c2 0a 3d 1f 84 35 be 54 95 ba 3e
       0.09731282 0.033876926 -0.17726181 0.36442053
000020 3a 38 ec 3d 26 a9 fc bd 5c c1 8c 3a 09 c8 b6 3e
       0.11534162 -0.1233695 0.0010738778 0.3569949
000030 66 6a 80 3e 76 e5 5b bd 8b 1b c8 3e b4 78 36 3e
       0.25081176 -0.053685628 0.39083514 0.17819482
000040 9b 84 1b be a1 b9 9f be b1 07 7d 3e b3 9a c7 3e
       -0.15187304 -0.3119631 0.24709965 0.38985214
000050 e7 4f 4b be 84 a6 4e ba 0f 84 b7 bd b7 86 4d be
       -0.19854699 -0.0007883089 -0.08960735 -0.20070921
000060 20 c6 81 be e8 c0 82 bd c4 3d 80 bd f0 c4 e8 3d
       -0.2534647 -0.0638445 -0.06261781 0.11365688
000070 89 6c 42 3d 4d e6 dc 3d 7b 67 83 3e fe 6b cf 3c
       0.04746679 0.10786114 0.25664887 0.02532005
000080 8d 27 ce bc 5e fc 67 be bf cc 2b 3e e0 d4 29 bb
       -0.025165344 -0.22654864 0.16777323 -0.0025914237
000090 96 0e 3f 3e 67 58 8f 3e 18 1a 01 be 78 da 3c 3e
       0.18657908 0.27997133 -0.1260761 0.18442714
0000a0 9f e5 d8 bd a0 cc 86 3e 3d f5 77 3e 63 54 29 be
       -0.10590672 0.2632799 0.24214645 -0.16536097
0000b0 93 6f 37 bd e9 c7 44 be eb a3 54 be 0a 24 01 be
       -0.04478414 -0.19216885 -0.20765655 -0.12611404
0000c0 15 49 a6 bc
       -0.02029852

rnn.bias_ih f4 [7]
000000 e2 9c 48 be ae 19 b3 be da 79 48 be a6 3c 3f be
       -0.19591096 -0.3498053 -0.19577733 -0.1867548
000010 90 2b 58 be 20 51 63 3e 91 66 8c 3e
       -0.21110368 0.22198915 0.27422002

rnn.bias_hh f4 [7]
000000 6f da 34 3e bb 71 32 3e 1b 9b 88 be 60 7a 4f 3e
       0.17661451 0.17426197 -0.26680836 0.20261526
000010 87 d4 d8 be fa 61 3b be 2c 17 99 be
       -0.42349645 -0.18299094 -0.2990049

exp_avg f4 [7, 22]
000000 6d 96 b5 b8 3a 03 43 ba 1f 98 09 bc 42 7c d0 ba
       -8.6587715e-05 -0.00074391405 -0.008398085 -0.0015906172
000010 e5 37 a9 b9 6e fd 07 bc 34 95 22 bb 31 54 b3 b9
       -0.00032275837 -0.008300168 -0.002480817 -0.00034204268
000020 95 08 ad 39 5c 7b 85 3a 0d e2 d7 3a 7b 1b eb 3a
       0.00033003525 0.0010183859 0.0016470567 0.0017937267
000030 19 07 9f 3a 4d 30 a3 3a c0 92 a8 3a 66 18 3c 3a
       0.0012132853 0.0012450308 0.0012861118 0.00071752665
000040 5d ba 6c 3a ba 7e d2 3a 32 7a 0d 3b a9 71 92 3a
       0.0009030456 0.0016059496 0.0021587727 0.0011172789
000050 12 27 2c 3a 6a 26 b4 3a c0 ac fd b9 b5 b2 aa ba
       0.0006567101 0.0013744358 -0.0004838463 -0.001302323
000060 9a 1b bb bc 31 f8 99 bb af b3 34 39 45 59 ba bc
       -0.02284031 -0.004698776 0.00017233075 -0.022747645
000070 fc c6 dc bb 92 af 89 39 06 49 36 3b 3c 34 4f 3b
       -0.006737588 0.00026261486 0.0027814521 0.0031616827
000080 6a e4 a3 3b bf 2d 71 3b f3 79 3b 3b be a3 24 3b
       0.0050015943 0.0036800948 0.0028606623 0.0025122012
000090 94 bf 63 3b 25 fc f1 3a 01 1b 42 3b 75 2a 89 3b
       0.003475164 0.0018461986 0.0029618146 0.0041859695
0000a0 37 c0 c7 3b 0d 8a 44 3b 13 1a e2 3a 14 f1 6f 3b
       0.006095912 0.0029989511 0.0017250202 0.00366122
0000b0 e0 df 23 3c c5 73 e0 3b 42 b8 0d 3c 4d 6b e4 3b
       0.010002106 0.0068497383 0.0086498875 0.006970799
0000c0 91 07 82 39 d6 be 0e 3c 34 e6 ad 3c 94 96 d5 39
       0.0002480117 0.008712491 0.021227933 0.00040738715
0000d0 0e ff c8 ba aa e2 92 ba 6e ed d1 bb db 4f 8f 39
       -0.0015334801 -0.0011206467 -0.0064064777 0.00027334582
0000e0 e0 93 1e ba 03 c0 8d 3a cb 87 d0 ba fb 26 da b9
       -0.0006049257 0.001081467 -0.001590961 -0.00041609243
0000f0 c5 05 15 bb a6 88 14 bb ad 78 0e bb 19 60 a1 ba
       -0.0022739035 -0.0022664457 -0.002173941 -0.0012311965
000100 01 8c 17 b9 1a 50 b7 ba 95 e2 85 3b 9c b2 cf b9
       -0.00014452638 -0.0013985664 0.0040858486 -0.0003961519
000110 5f 89 29 3a 14 4e 9e 3b a5 ac b4 b8 72 2b 51 ba
       0.0006467308 0.004831085 -8.6152264e-05 -0.0007979191
000120 c9 7e 2c 3c 83 be 54 39 9f 65 8c 3a 51 0e 4e ba
       0.010528275 0.00020288867 0.0010711438 -0.00078604097
000130 f0 47 99 ba 77 b6 94 b9 fa 81 8b b8 18 48 ac 3a
       -0.0011694413 -0.00028364707 -6.6522465e-05 0.0013144044
000140 fb 33 f9 38 ae c2 fa 37 5e 64 f9 b9 b6 e6 06 ba
       0.00011882927 2.9892977e-05 -0.0004756776 -0.0005146073
000150 6e c1 90 3a 79 bc 62 ba c7 52 92 39 58 b9 26 3a
       0.0011043975 -0.00086493004 0.00027908964 0.0006360016
000160 62 50 cf ba 15 0f 9b ba be 54 a3 bb be a5 89 ba
       -0.0015816803 -0.0011830056 -0.0049844673 -0.0010501666
000170 1c 89 5e b9 4e 41 a3 bb 7e fd 8f bb 13 ed 4e b9
       -0.00021222647 -0.00498215 -0.0043942323 -0.00019734008
000180 d1 89 24 3a 79 25 24 3a ae a4 6d 3a 20 85 a5 3a
       0.000627664 0.00062616874 0.00090653717 0.0012628175
000190 66 51 49 38 72 75 35 3a 3c 70 94 3a c9 f0 95 39
       4.7997943e-05 0.0006922103 0.0011324952 0.00028598894
0001a0 82 6f 30 3a 3a c6 a5 3a 14 70 7a 3a ef 5b 83 3a
       0.0006730483 0.0012647577 0.0009553444 0.0010021905
0001b0 4e 0a c0 39 f3 f2 43 3a ad 40 21 bb 28 5d 5a b9
       0.0003662877 0.0007474862 -0.00246052 -0.00020824804
0001c0 eb dd 41 3c 2a ab a5 b9 ad c8 ca 38 8c 5a 45 3c
       0.0118326945 -0.0003159878 9.6694894e-05 0.012045514
0001d0 8a 5d 48 bb e5 31 b9 38 c7 c2 d5 b9 17 60 62 ba
       -0.0030573332 8.830781e-05 -0.00040771646 -0.00086355343
0001e0 7d 8a 28 ba ed 7c 0a bb 75 c5 be b9 44 2d b3 bb
       -0.0006429328 -0.002113159 -0.0003638674 -0.0054680426
0001f0 07 e7 04 bb 9a 43 87 ba d5 54 7c ba 99 f2 f4 ba
       -0.0020279305 -0.001031983 -0.0009625678 -0.0018688022
000200 7b 46 77 bb 65 1b a1 ba 7e 4e b0 ba 46 87 db ba
       -0.0037731219 -0.0012291489 -0.0013451127 -0.0016748689
000210 f3 8c 37 bc 32 68 4e bb d6 43 c4 3c 0e 13 83 bb
       -0.0112030385 -0.003149521 0.023958128 -0.004000074
000220 28 4b 02 b9 74 ea cf 3c 24 3d 88 bc 3a 06 6d ba
       -0.00012425764 0.02538035 -0.016630717 -0.00090417603
000230 34 4b 83 bb 4b 6b 31 bb 4f ce 4d ba 68 64 e3 bb
       -0.0040067676 -0.0027072008 -0.0007850872 -0.0069394596
000240 e5 c7 8b bb fe 0a 57 bb 59 cd 4b bb 91 3b 13 bb
       -0.0042657726 -0.0032812948 -0.0031097739 -0.0022465924
000250 c6 7c e7 ba fd 57 81 bb bb c8 e1 bb 12 66 3a bb
       -0.0017661087 -0.0039472566 -0.006890384 -0.0028442186
000260 15 4c 1d bb 4f 92 a3 bb
       -0.0024001647 -0.0049918066

exp_avg_sq f4 [7, 22]
000000 1c c7 47 35 0a 34 fd 34 92 77 a3 37 30 c7 2d 35
       7.442302e-07 4.7162786e-07 1.9486793e-05 6.473738e-07
000010 49 37 91 34 51 4a a6 37 9f 41 08 36 99 6d d7 34
       2.704858e-07 1.9823348e-05 2.0303776e-06 4.0126613e-07
000020 31 57 ce 35 62 51 03 35 c7 ff 0a 35 43 96 da 34
       1.5373572e-06 4.891973e-07 5.178121e-07 4.0714994e-07
000030 91 1d bb 34 4b 92 40 34 34 f0 9d 34 92 61 07 34
       3.4852977e-07 1.7934615e-07 2.94183e-07 1.260835e-07
000040 3e f1 f3 34 df 3a fe 34 13 b9 d6 35 b0 79 af 34
       4.5437804e-07 4.735402e-07 1.5998106e-06 3.268483e-07
000050 02 1b 07 34 ef 18 fe 34 7b 34 ab 35 7c 9b df 34
       1.258268e-07 4.7329328e-07 1.2755767e-06 4.1650117e-07
000060 8e dc 1f 38 e5 71 47 36 62 9b 56 33 7c 2c 1b 38
       3.811396e-05 2.9719606e-06 4.9967078e-08 3.699631e-05
000070 52 34 2a 37 75 58 93 33 1c 21 3d 35 2d 58 7f 35
       1.0144971e-05 6.861311e-08 7.0456167e-07 9.5123215e-07
000080 bb ca 0b 36 91 d3 6c 35 10 c8 4e 35 f4 da dd 34
       2.0830619e-06 8.822472e-07 7.703211e-07 4.1323767e-07
000090 28 09 8d 35 bf aa 8a 34 15 ef 89 35 ca 9d a1 35
       1.0507983e-06 2.5828737e-07 1.0276877e-06 1.2041357e-06
0000a0 ee 06 17 36 f6 64 36 35 b0 0f 52 34 65 d9 89 35
       2.2504787e-06 6.79472e-07 1.9563481e-07 1.0270566e-06
0000b0 1c c7 57 37 76 1b a6 36 47 a4 a2 39 fd 7b de 37
       1.2861357e-05 4.9503824e-06 0.00031021444 2.6522199e-05
0000c0 16 b4 2a 34 3b 7d 9f 39 7d 2a e7 38 b7 a2 59 34
       1.5897999e-07 0.00030420147 0.000110228524 2.0268895e-07
0000d0 47 c4 9b 36 aa a7 b2 36 7d b6 e1 37 0b a6 ee 36
       4.6422097e-06 5.324332e-06 2.6907068e-05 7.1122827e-06
0000e0 53 93 a8 36 21 48 58 36 6a d5 b4 36 56 d7 06 36
       5.023941e-06 3.2228493e-06 5.3892627e-06 2.0092898e-06
0000f0 f2 97 19 37 59 85 27 37 16 f4 9c 37 ba fe bc 36
       9.154888e-06 9.985023e-06 1.871031e-05 5.6324907e-06
000100 07 ff be 35 78 2b 0f 37 23 43 fa 36 f7 67 a4 35
       1.4230326e-06 8.533585e-06 7.4583963e-06 1.224921e-06
000110 b4 09 a6 39 e2 1e 01 38 67 0b 1d 35 7e 2c 9a 39
       0.00031669217 3.078476e-05 5.850365e-07 0.00029406318
000120 e1 05 bb 38 d5 ae 3b 35 34 cd 92 36 85 1c 7b 37
       8.91795e-05 6.991734e-07 4.375028e-06 1.4967406e-05
000130 2f 6e f3 36 af 6d 3e 37 2d 28 d2 36 7c 7b 39 36
       7.2547914e-06 1.135042e-05 6.263165e-06 2.7639026e-06
000140 4f 07 fe 36 8d b7 0f 36 1e 81 1f 37 68 e9 2c 37
       7.5706407e-06 2.14155e-06 9.507201e-06 1.0306343e-05
000150 4d b4 66 37 41 2d ec 36 72 3e d3 35 42 3a 08 37
       1.3751048e-05 7.0386163e-06 1.5738899e-06 8.119796e-06
000160 df 0b bb 35 a9 88 05 35 8a 37 f7 38 e9 3c dc 36
       1.3936041e-06 4.974523e-07 0.00011788223 6.563602e-06
000170 2d e3 81 33 a3 9e ec 38 df 6d 18 37 27 a8 20 34
       6.0483536e-08 0.00011282905 9.085487e-06 1.4962335e-07
000180 67 ef 2d 36 83 06 3b 36 e1 50 31 36 c1 60 1b 36
       2.591836e-06 2.7868962e-06 2.6422133e-06 2.3153118e-06
000190 c8 bf cd 36 4a df ab 35 d6 51 da 35 41 54 83 35
       6.1318024e-06 1.2805478e-06 1.6266083e-06 9.784782e-07
0001a0 54 8c 44 36 04 91 59 36 b0 47 ed 36 95 25 e7 35
       2.9287958e-06 3.241993e-06 7.071496e-06 1.7221779e-06
0001b0 57 1c 31 35 64 a6 4e 36 24 ea c8 35 21 4e 2a 33
       6.597888e-07 3.0793244e-06 1.4969305e-06 3.9652267e-08
0001c0 ff 7b 5d 38 01 9b e4 34 f3 39 56 32 8e 1d 62 38
       5.2805986e-05 4.258109e-07 1.2469616e-08 5.3910124e-05
0001d0 f0 eb c6 35 a2 94 c7 32 f8 be e6 34 ae 62 1e 35
       1.4820816e-06 2.323424e-08 4.2979786e-07 5.9003185e-07
0001e0 2a b2 26 35 5c e6 dd 35 23 cd 16 35 8e 61 a6 36
       6.209908e-07 1.6532827e-06 5.617787e-07 4.9585424e-06
0001f0 85 b0 b6 35 a3 65 d6 34 37 61 4d 35 58 26 c4 35
       1.3611431e-06 3.9934557e-07 7.650992e-07 1.4614297e-06
000200 4f b9 91 36 5d 47 42 35 72 16 f9 34 a7 ca a4 35
       4.3429095e-06 7.237448e-07 4.6396195e-07 1.2277932e-06
000210 2f e3 f4 37 30 f0 fa 35 16 3d b3 39 d6 94 0e 37
       2.9192857e-05 1.8696355e-06 0.00034187053 8.498513e-06
000220 01 16 5b 35 5b d6 be 39 b1 63 86 38 9f 17 b2 35
       8.161588e-07 0.0003639933 6.408187e-05 1.3268908e-06
000230 fe bd b3 36 bd ee c9 36 58 3a b5 36 05 10 7c 37
       5.3567337e-06 6.0180596e-06 5.4010125e-06 1.50241e-05
000240 56 1e 03 37 94 89 a8 36 07 d8 a0 37 6a 05 36 36
       7.815272e-06 5.0228064e-06 1.9174082e-05 2.7123265e-06
000250 16 3b 99 36 23 7a 28 37 50 0f db 37 a2 8a b5 36
       4.566634e-06 1.00420175e-05 2.6113965e-05 5.4103593e-06
000260 7b fc 35 36 27 37 45 37
       2.7118065e-06 1.1754956e-05

exp_avg f4 [7, 7]
000000 4a 7f 89 b9 1d 1c 0e 3a b7 50 f4 3a 0e 9c 0e 3b
       -0.00026225514 0.00054210593 0.0018639778 0.0021760496
000010 6b 11 c0 3a 0b cb 91 3a 65 f7 d4 3a 0d d3 c1 3a
       0.0014653628 0.0011123134 0.0016248046 0.001478763
000020 94 a1 ff 3a 04 34 d7 3b 50 78 ad 3b 87 f6 32 3b
       0.001950311 0.00656748 0.0052938834 0.0027307586
000030 31 b1 06 3b b0 9e 5e 3b 9b 12 14 b9 91 7e ed ba
       0.0020552392 0.0033969097 -0.00014121311 -0.0018119385
000040 e0 9e 61 bc b5 5a e7 3a 62 8b 7a 3a fa 49 12 3b
       -0.013770789 0.0017650934 0.0009557513 0.0022321925
000050 eb 3e 62 3a d4 29 a8 39 f9 b5 2e b9 ac ef e9 3a
       0.00086305913 0.0003207462 -0.00016661723 0.0017847917
000060 55 b4 27 bc c9 40 df b8 08 76 4f 3b d9 44 b2 3b
       -0.010235866 -0.00010645536 0.0031656045 0.005440336
000070 f4 21 b5 37 c3 d7 bb 39 89 57 04 3b 52 3c 6d 3b
       2.1592692e-05 0.00035828174 0.0020193777 0.0036199284
000080 58 96 80 bb 2c bf 5c 3a e9 bf 19 3b 62 ec d5 b9
       -0.0039241724 0.0008420821 0.0023460335 -0.00040802645
000090 f5 74 a6 b9 00 c7 61 b9 35 da 3a ba 80 37 8a b8
       -0.00031749127 -0.00021531805 -0.00071278523 -6.5906905e-05
0000a0 9f 91 2e bc c3 4d ff 39 57 8f 92 ba 46 99 4e ba
       -0.010654836 0.00048695327 -0.0011181635 -0.0007881116
0000b0 6e f5 b8 b9 da e1 23 bb 7f 1f d6 ba 7c 76 4a ba
       -0.00035278074 -0.0025006444 -0.0016336291 -0.0007723344
0000c0 d2 d1 92 bc
       -0.017922316

exp_avg_sq f4 [7, 7]
000000 fa c5 bd 35 19 04 83 34 ec 7d 10 35 28 fc a9 35
       1.4139216e-06 2.4403633e-07 5.382742e-07 1.2664868e-06
000010 32 f9 d5 34 4b e6 18 34 c4 08 e6 34 d4 18 96 34
       3.9855655e-07 1.4239883e-07 4.2847216e-07 2.7957742e-07
000020 45 8b 06 35 38 b3 88 36 c1 98 2b 36 b0 44 60 35
       5.0121554e-07 4.0739797e-06 2.55699e-06 8.3546456e-07
000030 8a fc d4 34 3f bf 9d 35 80 5d 7c 35 78 de 93 36
       3.9671824e-07 1.1753071e-06 9.4013376e-07 4.40684e-06
000040 ae ee 66 38 10 b2 60 37 57 ca 78 36 c6 b5 be 35
       5.505856e-05 1.3392899e-05 3.7072657e-06 1.4209006e-06
000050 43 f4 ab 36 51 4c 82 35 d0 a4 85 36 1e 86 da 36
       5.124633e-06 9.707966e-07 3.9828956e-06 6.5125196e-06
000060 58 3b 82 38 57 7b 64 36 a1 2c df 35 50 41 2e 37
       6.209937e-05 3.404644e-06 1.6627783e-06 1.0386415e-05
000070 7d b7 22 35 3f c3 b8 35 7e da 17 36 19 e4 c6 36
       6.0616713e-07 1.3765892e-06 2.2627933e-06 5.927414e-06
000080 52 a8 67 37 b7 e9 f4 34 df 18 2c 36 89 ec 1b 34
       1.3807863e-05 4.5618592e-07 2.5644474e-06 1.4521551e-07
000090 aa 8f 70 34 ca 70 fd 34 bb 87 ba 35 2d 11 97 34
       2.2404006e-07 4.7206987e-07 1.3897583e-06 2.813844e-07
0000a0 71 7d 6b 37 27 45 67 35 03 11 b8 35 6f 52 03 36
       1.4036298e-05 8.6154836e-07 1.3714019e-06 1.9568504e-06
0000b0 bf 69 e0 36 6d f3 67 37 c6 90 82 36 d7 2c 1f 36
       6.6880307e-06 1.382535e-05 3.8911558e-06 2.3718947e-06
0000c0 54 fa 81 38
       6.1978266e-05

exp_avg f4 [7]
000000 32 d3 0b 3c 3a 56 c0 3c 9b 56 22 bc 33 50 4e 39
       0.00853424 0.023478616 -0.009908344 0.00019675567
000010 b7 7d ad 3b a5 a3 42 bc c4 8b cd bc
       0.0052945274 -0.011879836 -0.02509106

exp_avg_sq f4 [7]
000000 24 a7 ae 37 97 af 28 38 3d 18 ae 39 45 27 ab 39
       2.0820247e-05 4.0217852e-05 0.00033205925 0.0003264492
000010 71 4a fc 38 1e 14 65 38 02 0f c5 39
       0.00012030162 5.461659e-05 0.0003758595

exp_avg f4 [7]
000000 61 db 0b 3c 02 54 c0 3c 7f 64 22 bc 60 52 51 39
       0.008536191 0.023477558 -0.009911655 0.0001996248
000010 b2 98 ad 3b d6 99 42 bc c4 89 cd bc
       0.0052977437 -0.011877498 -0.025090106

exp_avg_sq f4 [7]
000000 99 a8 ae 37 12 ae 28 38 75 18 ae 39 f6 26 ab 39
       2.0820926e-05 4.0216437e-05 0.00033206088 0.0003264469
000010 b2 4a fc 38 75 13 65 38 ed 0e c5 39
       0.000120302095 5.4615975e-05 0.0003758589

exp_avg f4 [7, 22]
000000 6a ee a4 38 67 b3 bf 3a 5b 57 18 bc bc f5 b0 ba
       7.8645375e-05 0.001462561 -0.009298171 -0.0013500969
000010 5d d9 b1 3a 36 e9 16 bc 3a 1f 01 bb 57 b0 d7 3a
       0.0013568808 -0.009210875 -0.001970245 0.0016455752
000020 00 f9 37 3a b0 24 96 3a c2 4c e6 3a 5e 62 0d 3b
       0.0007018 0.0011455026 0.0017570483 0.0021573524
000030 d7 f8 c4 3a 2b 08 78 3a 7c 6e ad 3a 27 da 78 3a
       0.0015027773 0.00094616663 0.001323178 0.00094929565
000040 72 d5 31 3b 58 27 3d 3a b6 d0 28 3b cb bd 48 3a
       0.002713528 0.00072156405 0.0025759167 0.0007657676
000050 1a b9 80 3a ed 12 59 3a 90 a5 6f bc a3 5e 2b bb
       0.000982079 0.0008280713 -0.0146268755 -0.0026148937
000060 73 34 fc 3a a7 16 29 bc 92 af bb 3a 08 0c b4 3b
       0.0019241705 -0.010320342 0.0014319292 0.0054945983
000070 d4 50 0d bd 6e 5e 56 bb 0a 8e 49 3a 9a 20 00 bc
       -0.03450091 -0.0032710093 0.0007688707 -0.007820273
000080 6d 8f fd 39 2a 14 3c 3b b1 97 75 39 7f 59 18 3a
       0.0004836278 0.0028698542 0.0002342153 0.0005811676
000090 d3 1e 0a bb 8b e3 4c 38 d1 0c db ba 6e 9a 21 ba
       -0.0021075502 4.8849306e-05 -0.0016712194 -0.00061646744
0000a0 d2 4c 2d ba 40 25 d1 b9 bc 02 85 b6 47 a5 dc ba
       -0.00066108734 -0.0003989134 -3.964027e-06 -0.0016833924
0000b0 36 10 4b 3a 21 73 a9 3a 15 4b b5 bb e6 ff bb b9
       0.0007746251 0.0012927988 -0.005532632 -0.0003585808
0000c0 bc 04 85 3a b2 44 b9 bb 3d c0 09 3a c2 b4 b3 3a
       0.0010148506 -0.005653941 0.0005254781 0.0013710486
0000d0 2e 62 44 3a d9 44 8b 3a 34 0c 77 3a d5 91 71 3a
       0.00074914366 0.0010625377 0.00094241207 0.0009215151
0000e0 93 fd 50 3a 91 b4 12 3a 73 a7 58 3a ce b7 0c 3a
       0.0007972356 0.00055963645 0.0008264698 0.0005367965
0000f0 61 60 df 3a df 24 f6 39 94 ac c7 3a 6c 2d f8 39
       0.0017042273 0.00046948247 0.0015233927 0.00047336088
000100 26 43 13 3a 67 2d 1a 3a 96 66 0a 3c 72 42 63 3b
       0.0005617611 0.0005881399 0.00844731 0.0034677056
000110 42 4b 77 bc 3c 8c bd 3b 5f b5 5e 3a 6e c7 8d bc
       -0.015093626 0.0057845395 0.00084956543 -0.01730701
000120 95 5e b0 3c 41 51 4d 3b 31 4c ac 38 ee 85 97 3b
       0.021529475 0.0031328949 8.215791e-05 0.00462412
000130 9e 93 ef 3a 4e 3d c6 3a 9b b7 1d 3b 20 f0 3e 3b
       0.0018278246 0.0015124471 0.0024065736 0.0029134825
000140 d8 4d 5c 3b f7 e3 24 3a 02 a5 bb 3b 31 75 8c 3a
       0.0033615734 0.0006290073 0.0057264576 0.0010716078
000150 b5 c1 a3 3b 92 08 9b 3a f0 98 a1 3a 48 e0 f6 3a
       0.004997457 0.0011828116 0.0012328904 0.0018835152
000160 79 99 10 3a 74 e7 27 3a cf ef f2 ba 0f 94 00 39
       0.0005516033 0.00064050336 -0.0018534603 0.00012262187
000170 b1 99 c3 39 5b 86 03 bb 9c 4d 45 3a 30 7a 34 3a
       0.00037307807 -0.0020069096 0.00075265183 0.00068846624
000180 14 72 c6 39 f1 6c 10 3a 44 95 09 38 0a 81 04 3a
       0.00037850498 0.00055093976 3.280236e-05 0.0005054629
000190 82 d2 9b b8 50 34 b3 39 48 ea b8 39 11 cb 3a 39
       -7.430186e-05 0.00034180516 0.00035269768 0.0001781399
0001a0 ea 39 19 3a d0 04 39 39 e3 63 03 3a 4d 10 50 39
       0.00058451167 0.00017644768 0.00050121377 0.00019842498
0001b0 ff 41 6a 39 04 0b 66 39 15 f6 31 3b a1 6f b1 bb
       0.00022340564 0.00021938613 0.0027154733 -0.0054149185
0001c0 8a df 07 3d c5 2d d1 3b 2d cf b9 bb f0 d3 04 3d
       0.033172168 0.00638363 -0.005670449 0.03242868
0001d0 1d ab 26 3c d6 73 b1 bb 27 91 33 bb 5d 0d e8 ba
       0.0101726325 -0.00541542 -0.002739975 -0.0017704178
0001e0 cb b2 93 bb cf 75 18 bc af 51 b0 bb 30 c5 c6 bb
       -0.0045073978 -0.0093054315 -0.005380831 -0.006065987
0001f0 6c ce 6e bb 54 64 33 bb 15 42 25 bc a6 5b 15 bb
       -0.0036438955 -0.0027373033 -0.010086556 -0.0022790222
000200 06 88 1c bc 35 f2 2e bb bf fa 68 bb cc eb 25 bb
       -0.009553915 -0.002669466 -0.0035549847 -0.0025317548
000210 2d 38 b4 3a c5 42 22 ba 66 f3 b1 3b 26 84 4f 3a
       0.0013749652 -0.0006189759 0.0054306267 0.0007916115
000220 aa 74 70 ba b3 cd a6 3b 5d 7b 7b 3b 1c 59 18 b9
       -0.0009172658 0.005090439 0.003837309 -0.00014529045
000230 6b d0 eb b9 5d 72 a4 3a 37 7f cc ba fa e2 cf ba
       -0.00044977976 0.001254629 -0.0015601878 -0.0015860491
000240 b5 6c 48 ba ba a0 5f ba 0d 28 8a ba ae 09 d9 b9
       -0.0007645593 -0.0008530725 -0.00105405 -0.00041396677
000250 95 c1 d5 ba dc 3f 85 b9 9d e1 ea ba a2 4f aa b9
       -0.0016308302 -0.00025415316 -0.0017920021 -0.00032484258
000260 6e 86 00 ba c2 15 eb b8
       -0.0004902844 -0.00011209726

exp_avg_sq f4 [7, 22]
000000 d3 f8 37 35 eb 36 75 36 f9 0a 15 38 cb c8 b9 35
       6.85349e-07 3.6539811e-06 3.5534587e-05 1.3842013e-06
000010 21 08 47 36 59 ef 14 38 8a f3 9d 36 7d d3 74 36
       2.9658042e-06 3.550886e-05 4.7073163e-06 3.6481936e-06
000020 eb ff 1a 36 fb 89 3d 35 b6 c5 75 35 49 dd a4 35
       2.3096752e-06 7.0608775e-07 9.155732e-07 1.2283355e-06
000030 b9 6e 41 35 36 0e 99 34 4b 8f 08 35 c3 e8 e4 34
       7.2059225e-07 2.850881e-07 5.0872467e-07 4.2637666e-07
000040 92 9c 5a 36 60 ce 97 34 bd 0e 2c 36 6b 5f 95 34
       3.2575667e-06 2.82761e-07 2.5638576e-06 2.7822838e-07
000050 32 9d d1 34 86 f5 c7 34 27 67 9e 38 92 2d 2c 38
       3.9043658e-07 3.724528e-07 7.553241e-05 4.1050436e-05
000060 b6 47 0f 3a ef 07 80 37 49 5c 86 37 ef 38 25 3a
       0.0005465703 1.5262483e-05 1.6017018e-05 0.0006302734
000070 69 c1 92 39 96 5f 4d 38 2d 64 3b 37 d4 73 2d 38
       0.00027991392 4.896483e-05 1.1169393e-05 4.1354288e-05
000080 fa 38 7b 37 07 a9 41 37 e5 fe 2d 37 36 dd a8 36
       1.4974032e-05 1.1543051e-05 1.0370951e-05 5.0325425e-06
000090 b4 66 7c 37 94 38 b1 36 39 6b 5f 38 95 88 ac 36
       1.5044283e-05 5.2815976e-06 5.3267202e-05 5.1418997e-06
0000a0 64 71 2d 38 d6 15 92 36 1f 50 c0 36 1a e8 27 37
       4.1352017e-05 4.353681e-06 5.731373e-06 1.0008016e-05
0000b0 f9 62 2b 35 d4 b3 e0 34 59 1f ad 36 23 bd 5f 34
       6.384649e-07 4.1854094e-07 5.159451e-06 2.0837301e-07
0000c0 1d be 11 34 b3 9e c4 36 fc 24 40 36 8c b7 04 35
       1.357334e-07 5.85973e-06 2.8631757e-06 4.944093e-07
0000d0 ab f5 06 34 ec c9 b2 34 89 a9 26 34 6e 1c 02 34
       1.2569096e-07 3.3302e-07 1.5521631e-07 1.2117536e-07
0000e0 69 39 e6 33 1f 3e 5c 33 99 05 ff 33 e3 db 7b 33
       1.07206525e-07 5.127924e-08 1.1875381e-07 5.8640477e-08
0000f0 9b d2 ee 34 15 e4 75 33 8e 25 bc 34 6b 42 2f 33
       4.448419e-07 5.7250947e-08 3.5045053e-07 4.080577e-08
000100 5c a1 7e 33 9d 0f ea 33 c1 c9 81 37 f5 15 1b 38
       5.928574e-08 1.0899314e-07 1.5471947e-05 3.697533e-05
000110 ba 60 36 3a db 3f 11 38 2e 24 0a 38 0d 15 32 3a
       0.00069571624 3.4630164e-05 3.293546e-05 0.0006793298
000120 e6 b5 20 39 34 13 2c 38 50 89 a9 37 56 69 8d 37
       0.00015326552 4.102588e-05 2.0210311e-05 1.685756e-05
000130 11 ba a9 37 74 38 f1 37 e5 97 6c 37 b1 4a c1 36
       2.0233014e-05 2.8755727e-05 1.4102062e-05 5.7605434e-06
000140 56 ee 57 37 3e 0f 17 37 96 95 75 38 e1 73 b3 36
       1.28704905e-05 9.00385e-06 5.8551865e-05 5.348106e-06
000150 be c4 43 38 05 bd b1 36 5f ca 07 37 d7 c9 e1 36
       4.6674853e-05 5.297016e-06 8.093745e-06 6.72902e-06
000160 3d 41 8a 34 6e e3 57 35 e5 0b 8c 37 39 3e 16 35
       2.575197e-07 8.0424695e-07 1.669484e-05 5.59699e-07
000170 a0 48 2b 35 98 a4 8a 37 e2 34 b9 35 0e af 5b 35
       6.380815e-07 1.6527527e-05 1.3798965e-06 8.1838596e-07
000180 6e cd a3 34 0a 50 cb 34 fa 8d 10 35 9b 0b cf 34
       3.0510586e-07 3.7869933e-07 5.3850783e-07 3.85652e-07
000190 f2 71 6c 35 6c 58 2a 34 be 5e 8f 34 6c cb 38 34
       8.8082663e-07 1.5864651e-07 2.670476e-07 1.721034e-07
0001a0 f3 73 ce 35 65 3b fa 33 2f 6a a3 35 94 90 ea 33
       1.5381942e-06 1.1652336e-07 1.217535e-06 1.0922773e-07
0001b0 19 75 2f 34 63 cb 35 34 1a 91 7f 35 4f c1 82 36
       1.6340745e-07 1.693093e-07 9.5206053e-07 3.896806e-06
0001c0 f2 da ef 38 f9 cf 65 36 b6 56 62 36 52 62 eb 38
       0.0001143719 3.4244715e-06 3.3727097e-06 0.00011223987
0001d0 e1 bb 2a 37 bf cf 87 36 b5 02 ac 35 99 d6 9d 35
       1.0176534e-05 4.0474984e-06 1.2815786e-06 1.1759868e-06
0001e0 2a 34 73 36 3e e9 e3 36 f9 71 5e 36 a2 a6 83 36
       3.6240185e-06 6.79228e-06 3.3146919e-06 3.923503e-06
0001f0 37 8c c5 35 a6 39 80 35 f1 c2 33 37 9f c1 38 35
       1.4718452e-06 9.553521e-07 1.071462e-05 6.88271e-07
000200 bc 48 12 37 b7 ae 4e 35 35 f6 a8 35 4c f1 67 35
       8.719213e-06 7.6995224e-07 1.2588631e-06 8.640534e-07
000210 12 f6 71 36 93 ec 3a 36 b1 b5 51 38 76 02 39 35
       3.605503e-06 2.7853864e-06 4.9998696e-05 6.892145e-07
000220 59 fe af 35 c3 b2 63 38 5a 66 58 37 50 30 4a 36
       1.3112541e-06 5.4287502e-05 1.2898434e-05 3.0128467e-06
000230 86 14 4b 35 78 77 2a 36 1c 35 d9 35 f3 cf a9 35
       7.565326e-07 2.5401514e-06 1.6183217e-06 1.2652002e-06
000240 bd 15 77 35 e6 a0 f1 34 c2 27 13 36 c9 02 ec 34
       9.2046304e-07 4.5006817e-07 2.192785e-06 4.3960452e-07
000250 9a 93 a3 36 0d 0e dc 34 6d 2a 7c 36 87 2f bd 34
       4.8749616e-06 4.0988417e-07 3.7575621e-06 3.5238574e-07
000260 37 af 03 35 4d 43 3b 35
       4.9056274e-07 6.9760864e-07

exp_avg f4 [7, 7]
000000 48 96 73 b9 a0 89 0f 3b ae ca d8 39 08 5b 65 3b
       -0.0002323027 0.00219021 0.0004134974 0.0034996886
000010 b2 27 48 3a 6c f4 e6 3a 65 5f 95 3a 30 ee 03 3a
       0.00076353096 0.0017620451 0.0011396228 0.0005032746
000020 3a 19 79 bc b8 88 d9 b9 eb eb 87 3b 1a 70 5f 3a
       -0.015203768 -0.0004149133 0.0041479967 0.00085234793
000030 05 63 8a 3b 83 55 6b 3a 4c 97 e5 39 bc f6 02 3b
       0.00422323 0.0008977281 0.0004379101 0.001998349
000040 a5 07 a2 39 1e a2 b9 3a 04 47 d1 39 91 0a 36 3a
       0.00030904743 0.0014162695 0.00039916497 0.00069443235
000050 f4 a9 1f 3a 41 53 65 3a 3e 1a 30 3c ed 42 41 3a
       0.00060906936 0.00087480625 0.010748444 0.00073723384
000060 41 94 ce bb 8f 32 b2 3a 55 18 b5 3b 42 cd 78 3b
       -0.0063042943 0.001359539 0.0055265822 0.003796414
000070 28 6f 34 39 f4 0a 7e 3a 12 ba 98 38 0a 4a 2d 3a
       0.00017207547 0.0009690963 7.282583e-05 0.0006610459
000080 5e a2 6f ba ea 3b 72 3a b2 ce 4e 39 a8 86 a0 ba
       -0.0009141321 0.0009240495 0.00019722691 -0.0012247162
000090 e3 f6 8a bb ea 83 8d ba f9 2b 86 bb 03 b8 06 bb
       -0.004240857 -0.001079676 -0.0040945974 -0.0020556457
0000a0 ca cd a1 bc a1 7b 7b ba 41 2c ad b9 55 a9 04 3b
       -0.019751448 -0.0009593312 -0.00033030103 0.0020242531
0000b0 cb ca 98 b9 f9 b0 9f ba 64 2d 63 b9 13 b2 04 b7
       -0.00029142792 -0.0012183479 -0.00021665316 -7.909274e-06
0000c0 98 fe a2 bb
       -0.0049741976

exp_avg_sq f4 [7, 7]
000000 4c 63 0a 36 79 35 03 36 7a 4c 0e 34 79 8d b6 36
       2.06214e-06 1.9551646e-06 1.3252603e-07 5.4404923e-06
000010 d2 79 47 34 51 86 ad 34 e8 61 7a 34 cb aa 42 36
       1.8577637e-07 3.232149e-07 2.3318682e-07 2.9007667e-06
000020 4f d6 21 39 5c 14 12 36 8a 38 23 38 ae f7 1a 36
       0.00015433993 2.1767546e-06 3.8914884e-05 2.3091957e-06
000030 eb 02 74 36 da df bd 36 a0 ce 2d 33 f7 da a7 35
       3.6360532e-06 5.6586987e-06 4.0467626e-08 1.2506197e-06
000040 3b 53 d1 32 f5 8e e5 34 11 e6 db 32 56 1d 52 33
       2.4368651e-08 4.275859e-07 2.5599578e-08 4.8921116e-08
000050 f8 3a 86 33 d2 9c 98 36 4b dd 54 38 11 41 15 36
       6.2505876e-08 4.5482093e-06 5.0750834e-05 2.2240604e-06
000060 fc a3 1a 39 7b 13 6f 36 cb 92 d8 36 53 05 87 36
       0.00014747673 3.5625114e-06 6.4543906e-06 4.0239333e-06
000070 92 0f 0d 34 ef 83 ac 35 f6 87 75 33 9e 23 8e 35
       1.3137313e-07 1.2853396e-06 5.7167163e-08 1.059019e-06
000080 a2 ae 8e 35 39 86 33 34 68 0e fe 33 97 74 ae 34
       1.0630649e-06 1.6719504e-07 1.1830417e-07 3.2494856e-07
000090 95 19 91 36 db d6 73 34 19 4d ad 36 9d e6 09 35
       4.324315e-06 2.2709303e-07 5.164777e-06 5.1372064e-07
0000a0 4f c7 c1 37 41 63 df 34 ba 0b 69 34 d0 85 21 37
       2.3100203e-05 4.1609204e-07 2.1704082e-07 9.6275035e-06
0000b0 d4 42 31 34 69 50 12 36 cb a9 84 34 b1 76 96 34
       1.6508722e-07 2.18025e-06 2.4710457e-07 2.8026037e-07
0000c0 35 a5 6d 36
       3.5411915e-06

exp_avg f4 [7]
000000 2f 2c 1c 3c ad 83 a3 bb 7c 2c c0 3b 12 13 89 3c
       0.009532019 -0.004990062 0.005864678 0.016732726
000010 57 e3 08 3b 15 cf 08 bd fc 2c a4 bb
       0.0020887458 -0.033400614 -0.0050102454

exp_avg_sq f4 [7]
000000 52 1a 28 38 28 5b 2e 3a 11 52 d1 36 c7 4c 45 3a
       4.0078834e-05 0.00066511566 6.238239e-06 0.00075263943
000010 8b 45 96 37 8e a7 fa 38 41 56 6d 38
       1.7913777e-05 0.000119521384 5.6585533e-05

exp_avg f4 [7]
000000 92 2c 1c 3c 30 9a a3 bb 22 24 c0 3b 08 0c 89 3c
       0.009532111 -0.004992746 0.0058636824 0.01672937
000010 1c c2 08 3b 08 d1 08 bd df 1a a4 bb
       0.0020867651 -0.033402473 -0.005008086

exp_avg_sq f4 [7]
000000 5e 1a 28 38 46 5b 2e 3a fd 4d d1 36 e7 4c 45 3a
       4.0078878e-05 0.0006651174 6.2377644e-06 0.0007526413
000010 31 45 96 37 2a a8 fa 38 d2 56 6d 38
       1.7913613e-05 0.00011952252 5.658606e-05

exp_avg f4 [7, 22]
000000 35 d2 92 bb dd e3 8b b9 e9 02 81 bc 2a 0b b4 bb
       -0.004480625 -0.00026681917 -0.015748458 -0.005494495
000010 be 09 d3 39 31 e1 70 bc 4d 9d 62 bc 65 f9 13 3a
       0.00040252315 -0.014702127 -0.013831449 0.00056447677
000020 15 b5 fa 39 a1 e5 dd 3a 5a 86 2f 3b bc 21 7e 3b
       0.00047818632 0.0016929397 0.002678296 0.0038777431
000030 e4 c1 03 3b 1b 95 32 3b e8 e2 15 3b f5 8f 1e 3b
       0.0020104581 0.0027249518 0.0022870842 0.0024194692
000040 34 48 19 3b a4 fc b6 3a 4c ac 32 3b 63 75 bf 3a
       0.0023388984 0.0013960791 0.0027263341 0.0014607128
000050 f5 fe 19 3b bf 17 49 3b e2 91 c6 bb 1d 5c 37 3b
       0.0023497913 0.003068432 -0.006059871 0.0027978488
000060 0e 43 09 bd 44 61 4d bc c9 63 83 3b 7c 9f 02 bd
       -0.033511214 -0.012535397 0.004009698 -0.031890377
000070 b0 c8 bc bc 20 46 97 3b 28 58 72 3b 9f cb 67 3b
       -0.023044914 0.004616514 0.0036978815 0.003536917
000080 b9 b0 ca 3b d6 03 f9 3b 34 5f 8f 3b 16 9a 8c 3b
       0.0061856178 0.007599334 0.004375363 0.0042908294
000090 2c 4b 9f 3b 0d 44 9e 3b 22 8c d2 3b 73 55 5e 3b
       0.004861256 0.0048298896 0.0064253965 0.0033925443
0000a0 18 58 be 3b 43 a7 52 3b 8e b0 a2 3b 32 28 c2 3b
       0.0058088414 0.0032143153 0.0049648946 0.005925202
0000b0 56 c3 41 bb 76 90 d9 39 72 da b6 bb 7a cd 87 bb
       -0.0029565892 0.00041497097 -0.00558024 -0.0041443678
0000c0 e7 58 91 3a 2c 70 9d bb fb cf 11 bc 42 e1 4b 3a
       0.0011089117 -0.0048046317 -0.008899684 0.00077774015
0000d0 fa ea 11 3a 06 78 2c 3a 21 49 17 3a 50 a8 b2 3a
       0.0005566325 0.0006579164 0.000577109 0.0013630483
0000e0 6f 8a 20 3a 68 46 61 3a 1e b3 33 3a 81 02 5f 3a
       0.0006124144 0.000859356 0.00068549986 0.0008507148
0000f0 1d 13 52 3a 5c 3c ff 39 e6 d7 71 3a f0 03 f4 39
       0.00080137124 0.0004868236 0.0009225592 0.0004654224
000100 7c a6 23 3a 8c 33 97 3a cc 16 8e bb 9e 65 07 3b
       0.00062427646 0.0011535748 -0.0043362137 0.0020659934
000110 25 0f ee bc ab 08 22 bc 46 e4 5a 3b 47 9c e3 bc
       -0.029059956 -0.009889762 0.0033400222 -0.02778448
000120 08 a7 93 bc 06 da 70 3b f8 e4 45 3b c0 62 65 3b
       -0.018023983 0.0036751046 0.003019629 0.0035001487
000130 38 e6 b3 3b a2 67 c7 3b 8d d6 6e 3b 65 84 88 3b
       0.0054900907 0.006085352 0.00364438 0.0041661733
000140 a4 27 8b 3b 41 f9 8a 3b a8 ad b0 3b 03 d3 3d 3b
       0.004246669 0.004241139 0.005391795 0.0028964884
000150 01 0b ad 3b e2 22 3c 3b fd 18 8e 3b 48 a9 a7 3b
       0.005280853 0.0028707315 0.004336475 0.0051166154
000160 45 98 8a 3b 1f f1 55 bb 7e 55 f1 3c 17 48 20 3c
       0.0042295777 -0.003264494 0.029459711 0.009782813
000170 0d 06 69 bb c9 8a e4 3c 4e d3 a7 3c 45 90 7d bb
       -0.0035556585 0.02789821 0.0204865 -0.0038690728
000180 72 b3 60 bb e7 25 4f bb fe 3c 83 bb d1 2b 05 bc
       -0.0034286645 -0.0031608285 -0.0040050736 -0.008128122
000190 69 fc 97 bb 04 c0 49 bb 9c 14 62 bb 01 75 92 bb
       -0.004638244 -0.0030784616 -0.0034497147 -0.0044695144
0001a0 38 1e b8 bb b3 e5 45 bb 05 6f 96 bb 77 b5 2a bb
       -0.0056188367 -0.0030196726 -0.0045908713 -0.0026048103
0001b0 f7 70 96 bb fe de a3 bb f4 f6 06 3b c3 ed de ba
       -0.004591103 -0.005000948 0.0020593973 -0.0017008114
0001c0 99 07 6e 3c 6d 73 05 3c 5c 7b 21 bb 2b 1e 49 3c
       0.014528179 0.008145195 -0.0024640178 0.012275259
0001d0 48 f3 8a 3c cd 73 2e bb 60 e5 77 ba b5 62 e5 ba
       0.016961709 -0.0026619316 -0.0009456482 -0.001750073
0001e0 0a 8b 05 ba 22 9d 3b bb 1d e6 58 ba cc 29 b3 bb
       -0.0005094266 -0.0028627594 -0.00082740356 -0.005467629
0001f0 f9 6d f1 ba 20 23 24 bb 06 5d fe ba 96 27 b7 ba
       -0.0018419615 -0.002504535 -0.0019406385 -0.001397359
000200 be ce 0f bb 4b bb d1 ba 18 5b b3 ba 6e f5 51 bb
       -0.0021943296 -0.0016001252 -0.0013683764 -0.0032037157
000210 a8 16 16 3c 54 a5 43 3b e7 cf 8f 3c 22 e0 e7 3b
       0.009160675 0.0029853182 0.01755519 0.0070762793
000220 aa 41 d6 39 37 c4 91 3c 45 52 41 3c 18 63 04 3a
       0.00040866184 0.017793758 0.0117994 0.00050501665
000230 ef d6 5e ba 4d 5f 23 bb 05 7c ef bb 31 a4 ca ba
       -0.00085006555 -0.002492863 -0.0073084855 -0.001546031
000240 4d 43 d4 ba 76 7b e9 b9 36 0b 94 bb e1 da f8 ba
       -0.0016194374 -0.0004453321 -0.004517938 -0.001898613
000250 a5 57 48 bb d9 63 b9 ba 2d 03 92 bb b0 60 f1 ba
       -0.0030569818 -0.0014144137 -0.004455945 -0.0018415656
000260 b3 1b 36 bb 6f 69 5a bb
       -0.0027787506 -0.0033327003

exp_avg_sq f4 [7, 22]
000000 9a 4a cb 36 09 eb ed 36 f6 d5 8a 38 11 84 02 37
       6.058556e-06 7.090512e-06 6.620206e-05 7.779353e-06
000010 6c 79 09 37 77 d8 87 38 d7 27 42 37 df e0 17 37
       8.194107e-06 6.477621e-05 1.1572577e-05 9.052658e-06
000020 18 d0 9d 36 ab 80 08 36 2a 8f d9 35 64 fb 10 36
       4.70319e-06 2.0340474e-06 1.6209426e-06 2.1604e-06
000030 ab b6 aa 35 52 03 60 35 71 bd 7f 35 1a 05 b7 35
       1.271915e-06 8.3451334e-07 9.5270576e-07 1.3636047e-06
000040 59 9c 9e 36 f0 11 93 35 9e fd 15 36 ac 76 53 35
       4.726968e-06 1.0957574e-06 2.2350355e-06 7.8776316e-07
000050 f3 be c6 35 78 1d a3 35 a2 f8 22 38 21 97 b4 35
       1.4807723e-06 1.2153023e-06 3.8855367e-05 1.3455029e-06
000060 8a bc 48 39 7a d6 9c 37 d0 d3 bb 35 57 0b 5e 39
       0.00019143723 1.8696523e-05 1.3994231e-06 0.00021175794
000070 12 ac d7 38 de 8e 00 36 0a a5 46 36 bd 0f 97 37
       0.000102840495 1.9156646e-06 2.9600365e-06 1.8007931e-05
000080 df 8e 91 36 79 b3 aa 36 4f 75 82 36 d4 22 00 36
       4.337969e-06 5.087288e-06 3.8879584e-06 1.909376e-06
000090 2e 61 9a 36 79 29 8d 36 06 34 fd 36 b8 ac 29 36
       4.600871e-06 4.2069555e-06 7.546044e-06 2.5283498e-06
0000a0 0c 2f 18 37 42 7c 33 36 43 40 d1 36 f9 41 58 36
       9.07086e-06 2.6745406e-06 6.2361664e-06 3.222491e-06
0000b0 52 bb d9 37 3c 1a 78 35 9c 5e 92 38 a8 38 1d 37
       2.5955644e-05 9.2425375e-07 6.979445e-05 9.3711205e-06
0000c0 6e a7 5d 34 9a e5 b5 38 23 93 b8 38 8b 3a ab 35
       2.064314e-07 8.673519e-05 8.80121e-05 1.2757531e-06
0000d0 1b d4 b6 35 5b e8 ec 35 0b 6d bc 36 e0 42 0b 36
       1.3621788e-06 1.7650995e-06 5.615531e-06 2.075154e-06
0000e0 60 7a 03 36 1d ac 80 35 ff 79 e6 35 f0 ca b3 35
       1.9591753e-06 9.586835e-07 1.7171841e-06 1.3395602e-06
0000f0 c8 b7 a6 36 3b 1a 97 35 42 f0 32 36 e8 d2 91 35
       4.9685805e-06 1.1258011e-06 2.6663915e-06 1.0864724e-06
000100 21 66 4d 36 ae 69 82 35 45 5e ad 36 57 be f5 34
       3.0606827e-06 9.716512e-07 5.166776e-06 4.5773297e-07
000110 a3 8a 2d 38 e0 01 cc 36 f9 4d 25 35 56 55 29 38
       4.137553e-05 6.079892e-06 6.1580755e-07 4.0372215e-05
000120 5f 6f d5 37 e3 f1 53 35 a4 28 25 35 1e 9b b5 35
       2.544344e-05 7.8955617e-07 6.152643e-07 1.3530696e-06
000130 8a ce fc 35 24 db b7 35 6d c2 44 35 8f 71 61 35
       1.8835574e-06 1.3698341e-06 7.3298617e-07 8.398428e-07
000140 f5 fb ad 35 55 e9 62 35 13 3f d7 35 46 f4 e8 34
       1.2962834e-06 8.4531104e-07 1.6037105e-06 4.33911e-07
000150 10 ff f5 35 a9 70 00 35 bc 5a 8c 35 13 8b 91 35
       1.8328155e-06 4.784766e-07 1.045722e-06 1.0843818e-06
000160 1c f9 40 36 32 e4 a8 35 ad 66 9e 38 0d f4 17 37
       2.875523e-06 1.2583389e-06 7.553152e-05 9.057124e-06
000170 59 a2 e8 35 c5 5a 90 38 fb dd 1f 38 95 1b 10 36
       1.7332596e-06 6.883362e-05 3.811529e-05 2.1473727e-06
000180 14 24 85 35 14 c6 95 35 5f 65 13 36 bb 38 99 36
       9.919772e-07 1.1159013e-06 2.1963713e-06 4.5663596e-06
000190 4b a8 ed 35 59 bb 63 35 36 5d d8 35 b3 77 e2 35
       1.7706856e-06 8.4836716e-07 1.6120382e-06 1.6873149e-06
0001a0 4d 17 37 36 11 05 50 35 14 1d 15 36 2a f6 33 35
       2.7282688e-06 7.749341e-07 2.2219656e-06 6.704091e-07
0001b0 4a 0f f5 35 2e 7b 13 36 3e 1a 59 37 81 0f bd 35
       1.8258372e-06 2.1976407e-06 1.2940318e-05 1.408611e-06
0001c0 21 ac 43 39 ca c2 1c 38 4c 0c 43 36 79 b4 28 39
       0.00018660772 3.737471e-05 2.9064422e-06 0.0001608896
0001d0 d5 a4 0f 39 b1 1f 7a 36 da c4 f8 35 f3 38 83 36
       0.00013698947 3.727135e-06 1.8534731e-06 3.910734e-06
0001e0 c1 5c a3 36 9e 40 f2 36 8a 35 32 36 af 1f f2 36
       4.8685765e-06 7.2196844e-06 2.655523e-06 7.2158505e-06
0001f0 36 af 8f 36 c7 d4 92 36 40 23 c3 36 76 89 ea 35
       4.2821293e-06 4.3759096e-06 5.8155565e-06 1.7474365e-06
000200 09 2c 02 37 55 34 0c 36 8c 24 69 36 96 75 c7 36
       7.758857e-06 2.0892087e-06 3.4740979e-06 5.944351e-06
000210 8f c8 eb 37 46 77 e1 34 6c 18 ab 39 ac 50 3c 38
       2.8107575e-05 4.19963e-07 0.00032633857 4.4897824e-05
000220 cd 0a c9 35 55 30 a2 39 1f 1f 1e 39 8e 69 eb 35
       1.497881e-06 0.00030935058 0.00015079648 1.7539585e-06
000230 40 70 24 36 d9 e4 bb 36 a4 a1 a9 37 88 af 17 37
       2.4503242e-06 5.5996757e-06 2.022164e-05 9.04117e-06
000240 f9 be a0 36 67 c5 39 36 55 21 a2 37 12 11 b7 36
       4.7906037e-06 2.7682051e-06 1.9327426e-05 5.4558122e-06
000250 ae a4 34 37 7b 82 32 36 c7 f1 88 37 54 07 69 36
       1.07671785e-05 2.6600017e-06 1.632505e-05 3.472397e-06
000260 56 47 f3 36 0d e0 26 37
       7.250269e-06 9.946537e-06

exp_avg f4 [7, 7]
000000 b8 92 dd 39 60 ad da 3a 34 b9 87 3a 09 8b ed 3a
       0.0004226172 0.001668375 0.0010354877 0.0018123101
000010 2f b4 81 3b b3 f9 7c 3b f2 c0 44 3b 36 a3 70 3b
       0.003958247 0.003860098 0.003002223 0.0036718375
000020 76 e0 6d 3b 38 1f 2e 3b fa 4e 86 3b 75 6d fb 3b
       0.003629712 0.00265689 0.00409877 0.0076729604
000030 9f 27 ba 3b 48 47 ea 3b b4 54 42 3a a0 c0 35 3a
       0.0056809927 0.0071496107 0.00074131344 0.00069333054
000040 ab 4d 21 ba b4 0f 29 3a 68 f5 ae 3a 29 fe 9e 3a
       -0.0006153236 0.00064491783 0.0013348283 0.0012130189
000050 c7 06 aa 3a 78 da 50 3b f4 3c 79 3b cf cb 10 3b
       0.001297199 0.0031868499 0.0038030716 0.0022094136
000060 84 ee 6c 3b 15 ee 9f 3b 5d d4 bc 3b da 71 db 3b
       0.0036152909 0.0048806765 0.0057626204 0.006696922
000070 c0 ae 4d bb e9 e2 89 bb c8 21 05 bb 5b bf 5c bb
       -0.0031384677 -0.004207958 -0.0020314325 -0.0033683393
000080 94 48 46 bc be 53 57 bb 3f 45 e5 ba 3d 67 03 bb
       -0.012102265 -0.003285631 -0.001749195 -0.0020050548
000090 79 4b de ba cf 63 80 ba 63 9d 0f bb 5c e9 1e 3b
       -0.0016959748 -0.000979537 -0.0021913878 0.002424798
0000a0 a2 c9 23 bc 41 2b 84 39 33 46 0b ba c5 f5 a5 ba
       -0.0099968035 0.0002520923 -0.00053128897 -0.0012661746
0000b0 e3 1b f8 b9 c4 6b 2c bb b6 13 e8 3a 2f c5 79 39
       -0.00047323023 -0.002630935 0.001770607 0.00023819947
0000c0 e8 2b 82 bc
       -0.015890077

exp_avg_sq f4 [7, 7]
000000 66 b1 c7 36 8a 1e 86 36 f0 b1 49 35 e2 29 ba 35
       5.951314e-06 3.9970664e-06 7.513727e-07 1.3870269e-06
000010 b4 ad 8c 35 f1 47 ef 35 4c 5a 87 35 04 92 35 36
       1.0481367e-06 1.7827825e-06 1.0084564e-06 2.7056094e-06
000020 4c 4b 17 38 4f b8 0f 36 05 54 89 36 ca db 51 36
       3.607133e-05 2.1415942e-06 4.0926993e-06 3.127136e-06
000030 37 46 78 36 99 44 a1 36 b9 b8 63 35 4a 77 5e 36
       3.699575e-06 4.8061597e-06 8.4832897e-07 3.3150013e-06
000040 49 bb 1f 37 1d f1 bc 35 6e b2 4c 35 a7 27 0c 36
       9.520744e-06 1.4077265e-06 7.625557e-07 2.0884706e-06
000050 2a c5 34 35 37 41 2d 35 7e 8b 13 36 68 83 77 35
       6.7342137e-07 6.454242e-07 2.1985902e-06 9.220589e-07
000060 e0 49 69 35 01 a9 5c 35 47 fc ff 35 b5 14 80 36
       8.6906766e-07 8.220232e-07 1.9072403e-06 3.817108e-06
000070 55 68 78 35 fb bf e7 35 b4 d7 37 35 6a c2 95 35
       9.253902e-07 1.7266715e-06 6.84867e-07 1.1157947e-06
000080 27 e5 02 37 de 1c 97 35 d8 38 1a 36 ab 4f 29 36
       7.8019575e-06 1.1258778e-06 2.2980876e-06 2.5229335e-06
000090 ac fc ac 36 54 6a 04 36 d7 c4 92 36 3f 43 1d 36
       5.1554143e-06 1.9731424e-06 4.3740542e-06 2.3433965e-06
0000a0 19 80 9e 37 44 85 ba 36 25 aa 1f 36 9b b4 a0 36
       1.8894718e-05 5.558746e-06 2.3791883e-06 4.789397e-06
0000b0 21 22 af 35 61 6d f2 36 3e 3a 1b 36 ce 33 80 36
       1.3048449e-06 7.2248954e-06 2.3130701e-06 3.820728e-06
0000c0 29 53 95 38
       7.1203634e-05

exp_avg f4 [7]
000000 29 0c 81 3c 08 82 0d 3d a6 bf ad 3b fb 09 f7 3c
       0.015752869 0.034547836 0.0053023873 0.030156126
000010 31 d8 f4 bc 4f 99 68 bc 4f ce 99 bc
       -0.029888244 -0.014196708 -0.018775133

exp_avg_sq f4 [7]
000000 dc 8e aa 38 3b 88 73 39 f3 10 cb 38 20 13 46 38
       8.132841e-05 0.00023225036 9.682951e-05 4.722469e-05
000010 85 8c a7 38 a9 a4 53 39 1b f7 ba 39
       7.989354e-05 0.00020183869 0.00035660792

exp_avg f4 [7]
000000 85 13 81 3c 35 87 0d 3d 08 ba ad 3b ac 11 f7 3c
       0.015756378 0.03455277 0.0053017177 0.030159794
000010 61 dc f4 bc 4e a9 68 bc a4 d9 99 bc
       -0.029890241 -0.014200522 -0.018780537

exp_avg_sq f4 [7]
000000 9d 8f aa 38 2e 89 73 39 1f 11 cb 38 e9 18 46 38
       8.132982e-05 0.0002322539 9.682983e-05 4.7230078e-05
000010 22 8d a7 38 af a4 53 39 b7 f7 ba 39
       7.9894686e-05 0.00020183877 0.00035661247

exp_avg f4 [7, 22]
000000 a3 3c b4 bb 36 f9 5a bb 21 39 83 3c 88 e0 07 3b
       -0.0055003925 -0.0033412701 0.016018452 0.0020733196
000010 8d fb 75 bb 5c c7 8d 3c ab 4d d5 bb d9 f4 71 bb
       -0.003753397 0.017306976 -0.006509503 -0.0036919622
000020 1d 81 35 bb 8d 5d 0a bb fa 84 20 39 b9 da a0 bb
       -0.0027695366 -0.002111289 0.00015308327 -0.0049088863
000030 96 fa 34 bb 06 41 e3 ba 4e 44 23 bb e4 25 e0 ba
       -0.0027615181 -0.0017338104 -0.002491254 -0.0017101136
000040 6d 5e 0b bb 55 a8 95 bb 9a a0 f5 ba c3 ec 07 bb
       -0.0021266 -0.004567186 -0.001873988 -0.0020740486
000050 6b 5c 16 bb ec e8 01 bb 99 29 5c 3b c2 1d 19 39
       -0.002294327 -0.001982267 0.003359413 0.00014602303
000060 23 e1 71 bc df 07 05 3b 59 47 15 38 03 ca 75 bc
       -0.014763149 0.002029888 3.5590816e-05 -0.015001777
000070 35 18 c7 3b 4b 54 f8 b7 0b 0c d2 3a bc 0c ed 3a
       0.0060758837 -2.9603156e-05 0.0016025318 0.001808546
000080 94 1c 03 3b 1c 74 66 3b 42 e9 09 3b 78 51 26 3b
       0.0020006048 0.0035164421 0.0021043574 0.002537815
000090 d2 bb 0e 3b 6b 44 01 3b 35 d7 e5 3a 52 67 88 3b
       0.002177943 0.0019724618 0.001753545 0.0041627074
0000a0 b6 ac cf 3a 99 82 20 3b 4e 1d d9 3a bc c7 0d 3b
       0.0015844319 0.0024491905 0.001656452 0.0021633944
0000b0 d0 9f 89 bc bd 89 45 3b bc 08 09 3d 22 86 99 bc
       -0.016799837 0.0030141913 0.033455595 -0.018740717
0000c0 fa 0e a3 3a 5c b4 0a 3d 7b fa 12 bd b0 08 25 3b
       0.0012440376 0.03386341 -0.035883408 0.002518218
0000d0 ae c4 11 bb 0f 71 8a bb 8b 9f 1f bc c7 cf d8 bb
       -0.0022242474 -0.0042249034 -0.009742628 -0.006616566
0000e0 0c df b9 bb 20 b2 d8 ba bf c2 c9 bb 7b 97 ce bb
       -0.005672341 -0.0016532578 -0.0061572487 -0.006304679
0000f0 12 94 4c bb b0 79 17 bc ec 72 4d bb 94 63 b4 bb
       -0.0031216186 -0.009245321 -0.0031349016 -0.0055050347
000100 5b 9d 51 bb 72 bc bd bb be 9b 12 bb 9c 46 d8 39
       -0.003198466 -0.0057902867 -0.0022370662 0.0004125134
000110 4c d7 97 bb 78 e2 34 bb ab f3 67 3a 0b 91 95 bb
       -0.0046338197 -0.0027600806 0.000884826 -0.0045644096
000120 96 8e c6 bb 35 f5 b4 39 c3 9a 74 39 c8 11 a7 39
       -0.006059478 0.0003451497 0.00023327307 0.0003186597
000130 7d c8 fb 39 8d 68 0d 3a 23 30 f7 39 39 31 77 3a
       0.00048023826 0.00053943024 0.00047147376 0.0009429637
000140 00 1d 73 3a 2f af cf 39 64 22 af 39 e2 3a c2 3a
       0.00092740357 0.0003961264 0.00033404224 0.0014818574
000150 5b 5d 08 3a 93 48 d5 38 7c da e2 39 0f f2 27 3a
       0.00052018993 0.000101701495 0.00043268863 0.0006406614
000160 c2 30 16 3c b3 98 7c b7 8e 96 eb bc 39 9f df 3b
       0.009166898 -1.50559235e-05 -0.028758314 0.0068244007
000170 4b 93 c8 b8 14 2f f1 bc 24 81 90 3c fc 97 32 b9
       -9.5641786e-05 -0.029441394 0.017639704 -0.00017032021
000180 b3 06 45 3b 8b dd 7f 3b 37 a2 93 3b ce 05 e5 3b
       0.0030063807 0.0039041962 0.0045054215 0.0069892174
000190 c4 c6 95 3b 3a 6c 81 3b 22 2f 88 3b 0b 15 89 3b
       0.004570814 0.003949669 0.0041560093 0.0041834167
0001a0 3e 55 56 3b 3c 37 02 3c 54 8c 45 3b 02 4b a8 3b
       0.0032704617 0.007947739 0.0030143457 0.0051358948
0001b0 f3 08 50 3b f6 7d 8e 3b a8 63 03 3c d2 ac 39 39
       0.0031743615 0.004348512 0.008019365 0.00017707355
0001c0 7b 53 c5 3b ee 13 b9 3b 74 aa ac 3a 7c 70 c2 3b
       0.0060219145 0.0056481278 0.0013173358 0.0059338193
0001d0 bb b2 70 3c d0 4f a6 3a 85 a1 9b b9 3f 37 1d ba
       0.01469105 0.0012688581 -0.00029684245 -0.0005997307
0001e0 4e 88 a6 37 a6 92 7b ba 22 a6 94 39 af fc 78 bb
       1.9852214e-05 -0.00095967425 0.00028352538 -0.0037992408
0001f0 fe 52 a1 b9 a5 1e 34 b9 26 2d 3d ba a2 34 0f bb
       -0.00030770147 -0.00017177554 -0.00072165055 -0.002185144
000200 9e 97 5d ba 28 eb eb b9 56 2f 1e ba 50 ca 34 ba
       -0.00084530737 -0.00044997898 -0.0006034275 -0.0006896602
000210 ff 14 10 3c 02 aa 3d ba e6 b4 12 bc 1a 16 1b 3c
       0.008794068 -0.0007235111 -0.008954262 0.009465719
000220 66 9f 10 b9 81 4b 22 bc 64 1d a9 3c 8d 78 c7 b9
       -0.0001379229 -0.009905697 0.020643897 -0.00038046055
000230 a3 89 69 3a b8 61 92 3a 6c 51 39 3b de 0c 31 3b
       0.0008908754 0.0011168038 0.002827729 0.0027015726
000240 b0 cb 05 3b 3f 47 09 ba fb e8 d1 3a 6d 71 0c 3b
       0.0020415597 -0.0005236752 0.0016014868 0.0021429912
000250 6c 1c 77 3a 45 9f 2c 3b 94 0a 50 3a b3 62 c6 3a
       0.00094265374 0.002634005 0.00079361466 0.0015135616
000260 79 de 86 3a 66 ac d1 3a
       0.0010289691 0.0015996813
