data_10frm/model/0_2_5_7.pt (torch_old, 18375 bytes, 52 tensors)

rnn.weight_ih f4 [7, 22]
00000000: f2b8 803e a0f2 3abe db2e e13e 7270 223b
00000010: 02d5 a23e c6e8 043f 72cd cebd b355 e43e
00000020: acbb 8cbe 5b1f 5fbc 9c7a b3be 9e65 50be
00000030: fff1 f7be 9a08 3fbe 7385 04bf c3af 06bf
00000040: 5e64 2ebd 682c 13bd 8ed8 433e 3375 a5be
00000050: d978 f13d b065 d9bd 6d37 a0bc 61b5 8dbf
00000060: 8421 9b3e 6b70 1f3e e6b7 7cbe 18ab 7ebe
00000070: cf51 003f 8e51 4bbf eac6 46be 4452 da3e
00000080: b929 0dbf df25 afbe 7472 07be d790 06bf
00000090: a165 4dbe f2f0 74be 7e7e c43e dede a03e
000000a0: bdc7 813e 78d7 1a3d b9a3 f9be ec49 d5bd
000000b0: 6cb4 0d3f 5d7a 5bbd 4131 8d3d 0ffd ce3e
000000c0: 5ee3 29bf d476 b6b8 720c 593f d7c4 9ebc
000000d0: 472a 90be 4649 813e 787f f33e 0cd9 833e
000000e0: 54c6 793e c322 95bd b0b5 813e 4626 62be
000000f0: 9b5e 6a3e 8444 ff3e 42ad b93e c643 bfbe
00000100: 6db6 43be 217c 7d3d e47f 90be cd88 10bf
00000110: dbab df3d bdad 973c f04e e3be f9cc 5f3e
00000120: 23cb abbc 4658 2cbf c54b 22be af21 cabe
00000130: 6443 28bf e068 dbbe eed6 2cbf 8ef4 4dbe
00000140: d9a4 3dbe 0624 40bf 4678 2dbf e52e 43bf
00000150: bda3 04bf ae60 19bf 620f 4abf edf6 44bf
00000160: 0577 fabe 33bd 2b3e e578 95be 721f 51bf
00000170: 8bd9 c53e f673 b7bd 453a 49bf b3e2 a8bc
00000180: 0795 0b3e 5926 6c3d 5837 053e 77e7 d03e
00000190: 3604 383e 3166 30be d467 153e 4645 023e
000001a0: e1d1 7dbe 8f5b 273e 3fff 9a3e aefd 5cbd
000001b0: 83ee b1bc e51a 88b9 4ce7 0cbf 58ff b23d
000001c0: 512d 1dbe bb93 803d f8e5 4abe 04ed c53e
000001d0: b666 97be 023d 35be dfa1 903d 12e1 eebe
000001e0: befd 11bf 4efd 4fbe dc2a a33b a571 d03d
000001f0: 048d a6be b710 aabe 445c babe e3e9 e2be
00000200: 9d80 31be d28d 9dbe aebb 1bbc d21e 2dbd
00000210: 4526 3cbf 2a4d a8bf c5ca bb3d 06ba 62be
00000220: 576e 91be 2223 62bd af19 05bf ffa5 4fbf
00000230: dca3 83be 1e62 613c 7ad1 bc3d 2e91 89be
00000240: 83d1 0abc 5cc8 87be a3b6 fc3e 4949 b23c
00000250: 6eb0 3cbe 3879 0f3e f150 ad3d c6ed 8abe
00000260: 5076 61be f026 bd3e
0.25141102 -0.18256617 0.4398106 0.002478626 0.31803137 0.51917684 -0.10097779 0.44596633
-0.27486932 -0.013618316 -0.3505448 -0.20351264 -0.48426816 -0.18655625 -0.5176613 -0.5261194
-0.042576186 -0.03593102 0.19125578 -0.32315978 0.11790628 -0.106150985 -0.01955768 -1.1070977
0.30299008 0.15570228 -0.24679527 -0.24869955 0.5012483 -0.7942132 -0.19411817 0.4264089
-0.5514179 -0.3420858 -0.13227254 -0.5256476 -0.200583 -0.23920038 0.38377756 0.31420034
0.253477 0.037803143 -0.48757723 -0.1041449 0.55353427 -0.05358349 0.0689416 0.40427443
-0.6636256 -8.70057e-05 0.84784615 -0.01938097 -0.28157255 0.25251216 0.47558188 0.2575153
0.24392062 -0.07282021 0.2533393 -0.22084913 0.22887652 0.4985696 0.36264998 -0.37356395
-0.19112559 0.061885957 -0.28222573 -0.5645874 0.10921451 0.018515462 -0.44396162 0.21855535
-0.020970887 -0.67322195 -0.15849216 -0.39478824 -0.6572783 -0.4285345 -0.67515457 -0.20112821
-0.18519916 -0.7505497 -0.6776165 -0.7624343 -0.51812345 -0.59913146 -0.7892972 -0.7693928
-0.4891893 0.16771393 -0.29193798 -0.81688607 0.38642535 -0.08957665 -0.7860454 -0.020615911
0.13631068 0.05765376 0.13009393 0.40801594 0.17970356 -0.17226483 0.14590389 0.12721738
-0.24787094 0.1634352 0.30272862 -0.053952865 -0.021720177 -0.0002595998 -0.5504043 0.08740109
-0.15349318 0.06278177 -0.19814289 0.3865739 -0.2957055 -0.17699054 0.070621245 -0.4665609
-0.57027805 -0.20311472 0.0049794745 0.10177926 -0.3252946 -0.33215877 -0.36398518 -0.44319066
-0.17334218 -0.30772263 -0.009505196 -0.04226572 -0.73495895 -1.3148549 0.091695346 -0.22141275
-0.28404495 -0.055209287 -0.51992315 -0.81112665 -0.25710952 0.013756303 0.09219642 -0.26868576
-0.008472803 -0.2652005 0.4935809 0.02176346 -0.18426678 0.14011085 0.08462704 -0.27134532
-0.22017789 0.3694377

rnn.weight_hh f4 [7, 7]
00000000: c79f 973e 70aa c43d 7549 c8be d8ff c03d
00000010: 495f c1be 0a87 61be 9927 f1be c127 6c3e
00000020: 7677 b53e f170 c5be f6f3 d3bd 4f95 43be
00000030: afdb 3e3c f7b5 b6be 995a b73e 126c 023e
00000040: 6af6 6c3e 745c 61be 6c39 58be e558 953e
00000050: bde8 cbbe dd01 47be 060a 7bbe fbb5 e2be
00000060: 7203 d1be cf90 04bf bae2 96be 047e fabd
00000070: 341c bf3d 6348 e13d 9f5f ddbc 2e20 803e
00000080: 5d2c 113f 2128 01be d625 713d 4e2c b3bd
00000090: 5ac5 b73c a787 7abd f4b9 20be 5023 93be
000000a0: d699 a63e 86b7 ce3c 2fe4 183e c07e 8fbe
000000b0: 10de b6be 0cf5 28be 58d2 1abf 4e62 a3be
000000c0: 59b4 bf3e
0.29614088 0.09602821 -0.39118543 0.09423798 -0.3776801 -0.2202417 -0.47100523 0.2306204
0.35442704 -0.3856273 -0.10349266 -0.19099925 0.011649056 -0.35685703 0.35811308 0.12736538
0.23140875 -0.22007924 -0.21115655 0.29169384 -0.39826003 -0.19434305 -0.24515542 -0.44279465
-0.4082294 -0.5178346 -0.29469854 -0.12231067 0.09331551 0.11000135 -0.027023135 0.2502455
0.5670832 -0.12612964 0.058873974 -0.08748685 0.022432972 -0.061164524 -0.15695935 -0.2873788
0.32539243 0.025233995 0.14930795 -0.2802639 -0.35716295 -0.16499728 -0.6047721 -0.31910938
0.37442282

rnn.bias_ih f4 [7]
00000000: 8331 bebe 0e12 e4be 0845 debd 1c5a f4be
00000010: 9a20 f9bb 148e 1d3e 6481 973e
-0.3714715 -0.44545025 -0.108530104 -0.47724998 -0.0076027634 0.1538623 0.29590905

rnn.bias_hh f4 [7]
00000000: de99 653a 8cd3 a03d ccdb 37be 4f9a b4bd
00000010: 513c 61be d688 80be b7f1 8dbe
0.0008758585 0.07852849 -0.1795494 -0.088184945 -0.21995665 -0.25104398 -0.27723476

exp_avg f4 [7, 22]
00000000: f115 f037 4526 2fb9 8875 9aba c708 15b9
00000010: 065f 02b9 4e56 98ba 4eb9 89b9 7847 0eb9
00000020: f67e d6b9 6e45 f338 620d 7b39 f641 da39
00000030: 62fe 6839 877e bf39 ae96 6439 bba9 a938
00000040: c28f b438 20f0 4939 a4fa 5839 fc15 c938
00000050: c17d 9e39 6273 5939 0167 e237 a532 f7b7
00000060: 1900 77ba 6567 19b9 0912 8536 b34d 76ba
00000070: aaf0 2db9 4559 eb36 bb13 b738 c5eb 9538
00000080: bc7b 4239 2359 5839 99b0 d638 0af9 2a39
00000090: d4cf 0539 1c71 8338 93ed 8738 bae1 1f39
000000a0: 1359 8339 6d9a 9438 a69a 5139 cc97 1639
000000b0: ca7c 103c 9840 9d3b 097a cdba e41c 5f3b
000000c0: be33 d439 be58 91ba adf9 693c 4f36 073a
000000d0: c9b6 8db9 ccaa 0039 c227 9abb 4cc6 de39
000000e0: ce0b ec3a eef3 ff3a 92ee 953a c806 be39
000000f0: b98d a339 c5d2 82bb 1483 26bb 06d4 0e3a
00000100: d64b 6b3b 50c0 0f3b bda0 cd3b f808 a73a
00000110: 3656 45bc ce7a 953b 122b 2d3a b6dc 62bc
00000120: d6f3 4c3c 27f2 9f3a 3915 6b3b a267 2cb9
00000130: 66e0 d7ba 04d7 5f3b 0abd f83a 9384 ba3b
00000140: 0b9c de39 a0f5 7b3a 8fac 733a c1ea 24b8
00000150: 4f8d 47bb 1087 783a faaf f23b 24e7 c53b
00000160: f922 7538 9f32 77b9 74c8 37bb e56a 83b8
00000170: 9bc3 c7b8 8138 3bbb ccd3 18ba cc6b bab8
00000180: 6d58 b239 1d1e d939 8439 7a39 61b3 273a
00000190: f317 9ab9 9ca5 613a bf52 3d3a edb2 5e39
000001a0: 90c2 6539 0930 1d3a 10bd ba39 e676 3b39
000001b0: b721 363a e472 2d3a ac56 40bb f495 c839
000001c0: 412c cc3b 58c9 58bb d4d9 c339 c0a9 da3b
000001d0: f66c f4bb 5f35 3e3a a47c 853a 4be2 32ba
000001e0: 885a e43a c8bc e63a 981c 443a ed86 0cbc
000001f0: af89 f7ba bd72 0cba 4a2e 0cba d1ed be3a
00000200: 4795 883b 004d e0b9 bc35 1cbc 9463 f3b9
00000210: 357b e1bb 0d09 5bbb fff8 393c a91b 0abb
00000220: e923 7bba e9fe 4a3c 7fe1 1dbc 2dd9 fbba
00000230: 07a6 98bb aeae 11ba 58a4 493a f430 ddbb
00000240: 3355 8bbb 03f5 043b 4a64 933a e5f2 8eba
00000250: c908 89ba dbd6 18ba db9c acba fbd7 a3ba
00000260: eea0 4739 3c87 ebbb
2.8620447e-05 -0.00016703557 -0.0011784295 -0.00014213017 -0.00012433165 -0.00116224 -0.0002626874 -0.000135688
-0.00040911854 0.00011600075 0.00023942211 0.00041629345 0.00022220009 0.0003652463 0.00021799907 8.090163e-05
8.609846e-05 0.00019258307 0.00020692736 9.588522e-05 0.00030229802 0.00020737716 2.6989264e-05 -2.9468278e-05
-0.0009422317 -0.00014629735 3.9658084e-06 -0.00093957334 -0.0001658822 7.013938e-06 8.729795e-05 7.148789e-05
0.00018547376 0.00020632571 0.00010237209 0.00016305238 0.0001276129 6.267635e-05 6.481553e-05 0.00015247511
0.00025052633 7.085954e-05 0.00019989404 0.00014361663 0.0088188145 0.00479896 -0.0015676628 0.003404432
0.00040474342 -0.0011089069 0.014280719 0.0005157934 -0.000270298 0.00012270658 -0.0047044465 0.00042490882
0.0018008889 0.0019527653 0.0011438897 0.00036244676 0.00031195374 -0.003992411 -0.0025407718 0.0005448464
0.0035903356 0.0021934696 0.006275265 0.0012743762 -0.01204448 0.0045617586 0.0006605844 -0.013846567
0.012509307 0.0012202904 0.0035870804 -0.00016441804 -0.0016470074 0.003415526 0.0018977236 0.0056920736
0.000424594 0.0009611491 0.00092954276 -3.931928e-05 -0.0030449217 0.0009480575 0.007406232 0.006039517
5.8445123e-05 -0.00023574613 -0.0028043063 -6.2664774e-05 -9.525494e-05 -0.0028567614 -0.00058299 -8.88925e-05
0.00034016688 0.00041411901 0.00023863284 0.0006397274 -0.00029391013 0.00086077466 0.0007222108 0.00021238225
0.00021911622 0.00059962325 0.00035617547 0.00017878003 0.0006947773 0.00066165463 -0.0029348535 0.00038258696
0.0062308614 -0.0033078995 0.00037355593 0.006673068 -0.007459278 0.0007255878 0.001018424 -0.00068238814
0.0017422 0.0017603869 0.00074810674 -0.008577091 -0.0018885637 -0.00053576735 -0.0005347474 0.0014566724
0.004168186 -0.0004278198 -0.009534296 -0.00046422763 -0.0068811425 -0.0033422143 0.011350869 -0.0021073616
-0.0009580241 0.012389877 -0.009636282 -0.0019214504 -0.004658464 -0.00055573403 0.00076920306 -0.0067502204
-0.0042521 0.002028764 0.0011245098 -0.0010906128 -0.0010454889 -0.0005830356 -0.0013169305 -0.001250028
0.0001903807 -0.007187752

exp_avg_sq f4 [7, 22]
00000000: e86c b535 a1c3 6b35 18ee 0e38 ccca 8135
00000010: fb4a 0b35 c740 1238 6aad 4f36 8591 4e35
00000020: 7950 9e36 4173 2b35 2507 5d35 50d7 4035
00000030: 0c5b f534 5d07 b934 03be e934 9a66 4f34
00000040: 7521 f834 17d1 4c35 4a92 6b36 e4e2 0035
00000050: 86e2 0235 318a 7835 ba1d ad35 080e af34
00000060: 4ca2 2238 daab 4d36 2a43 5a33 213f 1d38
00000070: d368 3037 99fd 9233 cfb8 3035 3ce0 7d35
00000080: 4482 4536 1e27 6f35 f709 4235 ae35 e334
00000090: ebda 7135 e127 8434 6053 6f35 aaeb b535
000000a0: 0813 2b36 d10e 3435 e48a 6334 2d35 8735
000000b0: 991f ee38 8e63 1638 5a50 603b 3004 9d39
000000c0: 72c9 1836 ae79 583b fd77 913a d40c 3736
000000d0: cf5b 0238 3ba9 6b38 d513 bf39 adad 1939
000000e0: eae6 1538 cfe9 2e38 8fa2 2538 e3fd 7a37
000000f0: 73e4 b737 767d 4739 8728 e239 8e96 ff37
00000100: 11ac 0538 7a43 5538 a007 5e38 d764 f036
00000110: 6fd5 f93a 180f 0e39 be08 3136 e3bc ef3a
00000120: d64f d239 8166 6a36 3ced ae37 8614 5738
00000130: 22ce 9338 b8e1 cc38 8f59 0a38 573d 4d38
00000140: afac 3838 d847 1e37 6d25 8337 a586 8b38
00000150: d30a 3a39 9436 c137 5ba5 3838 538e 5538
00000160: 506a c536 039b 0036 2c3a 033a 1fe6 0038
00000170: 5134 b534 fca8 f939 85fa 4f38 fab8 3d35
00000180: 088b 2e37 205b 2f37 b9e4 4a37 3c64 6a37
00000190: e706 ff37 ba34 ed36 b711 bb36 ef8c 3336
000001a0: fa51 8b36 f70b 8737 e7d7 5038 5bc7 d336
000001b0: d213 de36 7cb5 4437 7088 a938 9f85 3536
000001c0: a888 1f3b 489c dc37 abfc 8735 c939 233b
000001d0: 70ae d638 1ac5 ed35 67c7 a437 4884 8d37
000001e0: dcb9 d937 1be4 e138 028f 1938 0725 6339
000001f0: 4b1b 8838 aa71 4237 bf0e 3b37 96cf 1038
00000200: 92aa 2c39 57dd 9637 773f 2839 5a57 c038
00000210: 8105 2d39 e9f7 4437 cdb4 2b3b 23fe 6138
00000220: d92c 8536 2a9f 333b b9ac a939 db21 f936
00000230: 10cb 1d38 3088 e737 f017 3538 e26e 3039
00000240: db33 7a38 3b87 c038 71ff aa38 8c80 7337
00000250: 2b18 7d37 aeda 5138 fe0a 4539 8fa3 d437
00000260: 3dcc d938 7ae2 0739
1.3517247e-06 8.7829e-07 3.407718e-05 9.670271e-07 5.1890646e-07 3.486944e-05 3.0946344e-06 7.695274e-07
4.718135e-06 6.387018e-07 8.233931e-07 7.1838895e-07 4.5701051e-07 3.4464293e-07 4.3537884e-07 1.9315704e-07
4.6217943e-07 7.630019e-07 3.510288e-06 4.8013885e-07 4.875841e-07 9.2588294e-07 1.2898156e-06 3.26065e-07
3.877496e-05 3.0647411e-06 5.0818166e-08 3.749051e-05 1.0514824e-05 6.844784e-08 6.583404e-07 9.457615e-07
2.9431112e-06 8.909136e-07 7.228513e-07 4.2321102e-07 9.0098064e-07 2.4615932e-07 8.9155765e-07 1.3554138e-06
2.5492063e-06 6.7076786e-07 2.119155e-07 1.007376e-06 0.0001135461 3.5855504e-05 0.003422758 0.00029948493
2.2767022e-06 0.003303151 0.0011098381 2.7276592e-06 3.107992e-05 5.6185974e-05 0.00036445135 0.00014655916
3.5739424e-05 4.1702584e-05 3.949046e-05 1.4960274e-05 2.192168e-05 0.00019024857 0.00043136274 3.0468476e-05
3.186992e-05 5.0846e-05 5.2936026e-05 7.1642967e-06 0.00190608 0.00013547798 2.6380144e-06 0.0018290546
0.00040113804 3.4928382e-06 2.0852887e-05 5.127911e-05 7.0479015e-05 9.7695214e-05 3.2985172e-05 4.8932936e-05
4.4029843e-05 9.434261e-06 1.5633845e-05 6.653116e-05 0.00017742375 2.3032808e-05 4.4023018e-05 5.0915707e-05
5.883434e-06 1.9163715e-06 0.00050059217 3.0731895e-05 3.3751942e-07 0.00047618884 4.958596e-05 7.0677163e-07
1.0403579e-05 1.04520295e-05 1.2093392e-05 1.39708245e-05 3.0401583e-05 7.0692886e-06 5.5750966e-06 2.6755113e-06
4.152066e-06 1.6098826e-05 4.979214e-05 6.311498e-06 6.618423e-06 1.17247655e-05 8.0839614e-05 2.704888e-06
0.0024342928 2.6298818e-05 1.013182e-06 0.0024906269 0.00010236807 1.771524e-06 1.9643177e-05 1.6870108e-05
2.5954963e-05 0.00010771324 3.661123e-05 0.00021662201 6.490069e-05 1.1589766e-05 1.1149502e-05 3.4525605e-05
0.0001646674 1.7984463e-05 0.00016045371 9.171544e-05 0.00016500616 1.17402315e-05 0.0026200295 5.3880864e-05
3.96893e-06 0.0027408102 0.0003236288 7.4247196e-06 3.7620834e-05 2.7600763e-05 4.3176056e-05 0.00016825975
5.965294e-05 9.180462e-05 8.153811e-05 1.4513858e-05 1.5085602e-05 5.0033144e-05 0.00018791479 2.5348532e-05
0.00010385409 0.00012958972

exp_avg f4 [7, 7]
00000000: e714 05ba 1298 8738 1f9c 5439 bed7 c039
00000010: 5d66 3a39 65e1 023a 9116 b939 deed 4138
00000020: 6bac 1c38 b015 6139 e060 5d39 6355 9238
00000030: aaaa 6c39 55cc 1439 fcbf 8937 b3d3 b5b8
00000040: 9eba 45bc c46d 893b 80ac 873a a372 913b
00000050: d727 403b 0519 7c3a b655 ea39 8823 1b3b
00000060: 0168 72bc 2876 e63a 986c 363c bb9f 393c
00000070: 60b0 5839 7715 2339 45ec 3c3a baeb fa3a
00000080: f383 5dbb 49f0 d53a 722c d93a 0085 78ba
00000090: 298d 94ba c615 ba3a ba12 053c 94ed 373a
000000a0: d128 b5bc f825 043c c5df 92b9 bd00 1cba
000000b0: 042d fb39 ac0a 943a b754 63ba 1490 113c
000000c0: 9460 acbc
-0.0005076662 6.465627e-05 0.00020276055 0.00036781834 0.00017776476 0.0004992693 0.00035302763 4.6236317e-05
3.7353875e-05 0.00021465751 0.00021112291 6.977727e-05 0.00022570291 0.000141905 1.6421072e-05 -8.6701846e-05
-0.012068419 0.0041939933 0.0010351092 0.0044387146 0.0029320621 0.00096167653 0.00044695818 0.0023672301
-0.014795304 0.0017582821 0.011134289 0.011329587 0.0002066507 0.00015552888 0.0007206838 0.0019143738
-0.0033800572 0.0016322221 0.0016569032 -0.0009480268 -0.0011333573 0.0014197163 0.008122141 0.0007016298
-0.02211419 0.008065693 -0.0002801401 -0.0005951038 0.0004790799 0.0011294684 -0.0008671986 0.008884449
-0.021042146

exp_avg_sq f4 [7, 7]
00000000: 48a7 9c36 f9b2 7934 b6a6 4735 9a8b 1736
00000010: a59e 0935 6778 cd34 480a 4335 dab2 8634
00000020: cfc4 e434 1f52 a836 e1d8 3e36 8f2c 5135
00000030: 97d8 d334 8d8c 9135 0909 f036 d11f 3137
00000040: da20 133a d3c3 e039 2484 af37 288f ee37
00000050: 1194 0f38 5e13 a136 7022 d636 dad7 6d38
00000060: 8301 d239 1438 4d37 d28a ab38 657a e238
00000070: 3fe8 b735 6d9a ee35 8a3c 1737 a6b4 5538
00000080: 6748 9d38 4352 8c36 cefb 2f37 6c47 fc36
00000090: c451 b336 4638 9b37 4c78 c238 669f 3737
000000a0: 6d8c 123a 6dbd f538 c5d7 0037 8f92 d436
000000b0: 7f2a 2238 f7e8 fa38 fde1 b737 9bb5 2c39
000000c0: 9a75 d639
4.6686364e-06 2.3255042e-07 7.4375873e-07 2.2582012e-06 5.1267335e-07 3.827183e-07 7.265812e-07 2.5089577e-07
4.2611507e-07 5.0163503e-06 2.8438446e-06 7.792341e-07 3.9459403e-07 1.0844248e-06 7.153609e-06 1.055743e-05
0.00056125 0.0004287051 2.0923158e-05 2.8438473e-05 3.4231754e-05 4.8004285e-06 6.381706e-06 5.670623e-05
0.00040055448 1.2232009e-05 8.179773e-05 0.000107993175 1.3702155e-06 1.7777326e-06 9.014397e-06 5.09514e-05
7.4998294e-05 4.1819017e-06 1.0489441e-05 7.5185e-06 5.3441345e-06 1.8503644e-05 9.273048e-05 1.0944763e-05
0.0005590383 0.00011717794 7.679632e-06 6.335154e-06 3.8663387e-05 0.00011964322 2.1920534e-05 0.00016470852
0.0004090488

exp_avg f4 [7]
00000000: 61e6 9a3a 224a 7d3a 69e8 f639 2d61 583c
00000010: 20fa 3f3b b383 c0bb b456 49bc
0.0011817926 0.0009662231 0.00047093935 0.013206762 0.0029293373 -0.005875075 -0.012288738

exp_avg_sq f4 [7]
00000000: fe11 1938 8319 2b38 c51c 6d3b f052 013b
00000010: 56eb 053a 1de3 253b 03aa 383b
3.64948e-05 4.0793337e-05 0.0036180478 0.0019733272 0.0005108615 0.0025312372 0.0028177507

exp_avg f4 [7]
00000000: d72b 9b3a cafe 7c3a 7310 f539 f46d 583c
00000010: 6a33 403b e06e c0bb 7352 49bc
0.0011838627 0.00096510036 0.00046742297 0.013209809 0.002932752 -0.0058725923 -0.012287724

exp_avg_sq f4 [7]
00000000: 7713 1938 3e17 2b38 b51c 6d3b f852 013b
00000010: b0eb 053a 06e3 253b 02aa 383b
3.649617e-05 4.0791223e-05 0.003618044 0.001973329 0.00051086675 0.0025312318 0.0028177504

exp_avg f4 [7, 22]
00000000: aba1 b237 1751 1f39 2b23 89ba 7e04 01b9
00000010: 54a1 1239 c39b 89ba 4e51 0ab9 dc86 3239
00000020: 9375 2db8 4baf 0339 772b 3d39 1d49 a639
00000030: 4a01 3839 3a63 2a39 3e54 1339 b824 9b38
00000040: 5edb 4139 5799 8e38 e677 8239 de4a 9138
00000050: 899f b239 886b a438 8576 f4bb 8f7a e538
00000060: 6e7e 05bc bc50 bdbb aaac 0f3b 6c98 cebb
00000070: a890 99bc 8a20 f5b9 9c9f 743a 9045 5cbb
00000080: 22da 9e39 17aa 893b 660c d63a 5bd0 303b
00000090: 6b51 6c39 db1c b739 9066 dcbb f385 ae39
000000a0: 2813 9c3b 7466 c639 8732 eb3b ad48 be39
000000b0: 0e37 0b38 3676 8238 7ef6 a2b9 d5ae c2b7
000000c0: aa5d 4d38 fd55 a6b9 7277 2937 902a 9438
000000d0: c516 ef37 b50c 3c38 0657 2b38 3c9f 9838
000000e0: e909 3a38 05d8 2c38 345b 1c38 656f 9937
000000f0: ed01 9638 698d a437 c310 8738 a567 af37
00000100: e285 b538 6c80 e337 29cd d23a 2b94 213c
00000110: 7df7 62bd 2a9f a5bb 3991 083c f391 64bd
00000120: 7c95 353a 7eab 1b3c 7088 483b 8c0c 7d3b
00000130: 1d87 db3b eed9 763c 5dea 153c 1b7d 403c
00000140: 382c eb3b 7d88 893b 0c64 1b3c 8d45 883b
00000150: e5a8 303c 5aab 8c3b 8c2c 9e3c c29e 943b
00000160: 534e 8e38 a34a 9139 7f55 a5ba 9760 e6b8
00000170: 8c53 6939 739e a8ba 8d15 77b8 6017 9839
00000180: 1939 3339 ef29 5a39 249f 0938 9b76 bf39
00000190: f252 07b8 7b4b af39 c7f1 7939 d23b c838
000001a0: bd22 8039 a7e1 c638 9a87 8439 1966 cb38
000001b0: 27c8 e139 ee04 cc38 14c6 bb3b 4cd0 cbbb
000001c0: 2654 383d d57f 193c f05e e4bb 29d3 323d
000001d0: 78d2 833c 9c14 c3bb ac64 deba 957a caba
000001e0: f781 8ebb 1c1a 5bbc e143 e3bb 0b4f 39bc
000001f0: 0a59 b4bb ee1c 4dbb d616 5fba 5f4b 4bbb
00000200: 2e3b 3abc 52d4 53bb 260b a2bc 8bc0 54bb
00000210: 96a2 4739 c16a 50ba 86fd 8c3b 35bc 6839
00000220: 6961 46ba 7f21 8b3b 1e9b 8a3a 927f 14ba
00000230: 7f4a beb9 abb6 ad39 200c 1fba 5955 99ba
00000240: b015 18ba 75cc 40ba 4ecb 94ba 1a77 afb9
00000250: f135 aab9 860b acb9 e0f9 9bba f61f afb9
00000260: 42fe a9ba 3232 efb9
2.1294536e-05 0.0001519363 -0.0010462751 -0.00012304072 0.00013983744 -0.0010498691 -0.00013190994 0.00017025642
-4.1355914e-05 0.00012558435 0.00018040636 0.0003171646 0.00017548088 0.00016249428 0.00014050395 7.397815e-05
0.00018487635 6.7996494e-05 0.00024884864 6.928084e-05 0.0003406967 7.840159e-05 -0.0074604177 0.00010942399
-0.008147819 -0.0057774466 0.0021922984 -0.006304791 -0.018745735 -0.00046754285 0.0009331645 -0.0033610798
0.0003029863 0.0042011845 0.0016330599 0.0026979658 0.00022537044 0.0003492598 -0.0067260936 0.00033287666
0.004763026 0.00037841836 0.007177654 0.00036293772 3.3191456e-05 6.2209016e-05 -0.000310827 -2.3208015e-05
4.896304e-05 -0.00031726054 1.01009955e-05 7.065118e-05 2.8501623e-05 4.4834527e-05 4.0850624e-05 7.2775845e-05
4.4355085e-05 4.120918e-05 3.7278238e-05 1.8290893e-05 7.152916e-05 1.9616173e-05 6.440424e-05 2.0909889e-05
8.65569e-05 2.712031e-05 0.0016082871 0.009861986 -0.055411804 -0.005054374 0.008335405 -0.05580325
0.0006926877 0.009501336 0.0030598901 0.0038612215 0.0066994564 0.015066607 0.009150115 0.0117485775
0.007176902 0.004197179 0.009484302 0.0041586817 0.010782455 0.0042928876 0.019308351 0.004535527
6.785677e-05 0.00027712164 -0.0012613981 -0.00010985246 0.00022251735 -0.0012864604 -5.890946e-05 0.00029009115
0.00017092041 0.00020805722 3.2811557e-05 0.00036518727 -3.2263757e-05 0.00033434838 0.0002383656 9.5478856e-05
0.00024439945 9.483407e-05 0.00025278033 9.6988115e-05 0.0004306447 9.728396e-05 0.0057304 -0.0062198993
0.045002125 0.009368856 -0.0069693252 0.04365841 0.01609157 -0.0059533846 -0.0016967258 -0.0015447909
-0.004348989 -0.013372924 -0.006935582 -0.011310349 -0.0055037783 -0.003129776 -0.0008510178 -0.0031020266
-0.011366649 -0.0032322598 -0.019780707 -0.0032463397 0.00019038687 -0.0007950478 0.0043026833 0.00022195357
-0.0007567616 0.0042459364 0.0010574793 -0.00056647614 -0.00036295128 0.0003313323 -0.00060671754 -0.0011698409
-0.00058015715 -0.0007354685 -0.0011352093 -0.0003346734 -0.00032465116 -0.00032814982 -0.001190003 -0.00033402414
-0.0012969451 -0.0004562303

exp_avg_sq f4 [7, 22]
00000000: 8a96 6135 c577 9336 a982 3138 3d99 d835
00000010: 3aae 6e36 85b9 3138 44a2 b836 9711 9336
00000020: 0cbc 5436 c528 4735 b1d5 8d35 2752 d935
00000030: b0d2 6535 e74f bc34 7d2d 1235 9b89 ee34
00000040: 04b6 7f36 8958 a234 1750 5a36 0ba4 aa34
00000050: a38b 3835 b78f d934 ee6e 9339 6a0e 3239
00000060: d785 243b f87b 8738 f7fe a538 962f 383b
00000070: a913 893a f80d 4f39 5529 2f38 5efd 0f39
00000080: d607 bf38 fbcc c638 98cc 2438 aba9 0a38
00000090: a7a6 7738 eef4 9737 1649 b439 f4b7 8d37
000000a0: f742 1539 8014 9537 8c2f 9738 c5cd db37
000000b0: ed74 1935 df39 c934 4c48 9c36 8308 4a34
000000c0: bfb3 0434 a435 b136 14db 2b36 1dd9 ed34
000000d0: 8444 f433 98bb a434 36b6 0e34 ef83 f433
000000e0: 8f04 df33 825c 3533 99bb e533 09ee 5c33
000000f0: 7efa de34 cc48 5633 628f aa34 d456 1d33
00000100: 07b5 7633 3b32 ca33 3cbf ab38 c034 7d39
00000110: 3fad 9f3b 5374 5539 144d 5d39 a559 9c3b
00000120: 9509 623a ddff 8739 9353 e938 3740 9138
00000130: 577c 1f39 e408 b439 09a0 c338 bf00 aa38
00000140: 6baf 8a38 0338 0038 c516 7739 4d7a cf37
00000150: a391 d439 7787 ec37 4be8 b439 7074 0338
00000160: e38b 0f35 234b 0836 05d9 3038 fadf cc35
00000170: 9f1e d835 3316 2e38 a0f0 5b36 b5a7 0836
00000180: 586a 2e35 84f4 3835 e4e9 c335 fcd4 bc35
00000190: 6b19 4336 e56b 0635 7585 0335 6868 a234
000001a0: f068 6136 f5df 7334 d428 5f36 1372 8734
000001b0: e62a ae35 5737 b034 a9d9 2b38 1518 0539
000001c0: d9ec 603b ba9a d538 80da e238 5cc1 5d3b
000001d0: e210 b639 70a3 0a39 0a80 3138 7fc6 fd37
000001e0: f7e6 e538 db92 7e39 c6eb 9138 41d6 f338
000001f0: ab2b 3c38 25ea 9237 9c34 3339 7b66 8537
00000200: dda8 8739 8f28 9b37 a026 8939 0529 a437
00000210: 0d28 fb36 85ab cf36 78c7 f338 0104 c635
00000220: 6c56 4f36 9732 0339 2521 df37 1464 dd36
00000230: 3faf c735 129c a936 46cb 6a36 fe59 8136
00000240: dbe3 fc35 f3f3 a635 2db4 f636 40ba 5935
00000250: b85d 4e37 2d87 4835 0359 ff36 13fd 4a35
00000260: 9194 5136 3db1 a035
8.4038095e-07 4.3948844e-06 4.2321775e-05 1.6137852e-06 3.5566177e-06 4.2372867e-05 5.5025175e-06 4.382989e-06
3.169992e-06 7.4192604e-07 1.0567511e-06 1.6191669e-06 8.561574e-07 3.5075865e-07 5.445543e-07 4.4431076e-07
3.8103908e-06 3.023927e-07 3.253115e-06 3.1784325e-07 6.874854e-07 4.0523966e-07 0.00028120674 0.00016980772
0.0025104189 6.4603926e-05 7.915304e-05 0.0028104535 0.001045813 0.00019746262 4.1761745e-05 0.0001373193
9.109049e-05 9.479556e-05 3.929119e-05 3.305978e-05 5.9044596e-05 1.8114657e-05 0.0003438673 1.689417e-05
0.00014234694 1.777173e-05 7.2090974e-05 2.6202653e-05 5.716709e-07 3.7481274e-07 4.6575788e-06 1.8815813e-07
1.2358849e-07 5.2812557e-06 2.5608506e-06 4.430266e-07 1.1374598e-07 3.0683873e-07 1.3291069e-07 1.1386134e-07
1.0385076e-07 4.2226482e-08 1.0697767e-07 5.1439233e-08 4.153298e-07 4.9891966e-08 3.1769292e-07 3.663338e-08
5.744098e-08 9.415495e-08 8.1895356e-05 0.00024147611 0.0048729475 0.00020356597 0.00021104916 0.0047714286
0.00086226437 0.0002593984 0.00011125873 6.9261e-05 0.00015209742 0.000343389 9.3281335e-05 8.106371e-05
6.613027e-05 3.0569743e-05 0.00023564238 2.4733274e-05 0.000405443 2.8196473e-05 0.00034505347 3.1341275e-05
5.3475213e-07 2.0309315e-06 4.2163785e-05 1.526437e-06 1.6102166e-06 4.1505507e-05 3.2773605e-06 2.0363198e-06
6.49748e-07 6.890116e-07 1.4596703e-06 1.4069078e-06 2.907206e-06 5.00759e-07 4.899551e-07 3.0250817e-07
3.3588694e-06 2.2712614e-07 3.3253355e-06 2.522871e-07 1.2976495e-06 3.282282e-07 4.097229e-05 0.0001269284
0.003432086 0.000101854515 0.000108172186 0.0033837175 0.00034726324 0.00013221591 4.2319334e-05 3.0252382e-05
0.000109625915 0.00024278036 6.958055e-05 0.00011627051 4.4863362e-05 1.7513588e-05 0.00017090369 1.5902557e-05
0.0002587502 1.8496326e-05 0.00026159454 1.9569425e-05 7.4850454e-06 6.1890482e-06 0.00011624297 1.4753315e-06
3.0895708e-06 0.0001251198 2.6599106e-05 6.597964e-06 1.4877659e-06 5.0547615e-06 3.4987038e-06 3.854976e-06
1.8841778e-06 1.2438962e-06 7.3523465e-06 8.110983e-07 1.2300377e-05 7.470251e-07 7.6099545e-06 7.5619135e-07
3.1229904e-06 1.1972512e-06

exp_avg f4 [7, 7]
00000000: e126 08b9 8483 6839 9ddd 4838 87b1 9839
00000010: 7848 aa38 d0a9 e739 fb51 e538 168b f339
00000020: 2cdc 39bc 80ac 2fb6 2cbc 8c3b 72f0 923a
00000030: a2d8 203c 51cb 143b 2cfb 8637 9f1c b738
00000040: 0b5f 5237 ca85 5a38 b3ad 8b37 1eb1 d138
00000050: 0e74 0338 9d04 423b 37a9 f33b 6c7c 1c3b
00000060: f578 00bb ea1b 993b 5440 0f3d 1860 ce3b
00000070: 9ff9 ce38 7191 c339 6138 a638 9a52 c039
00000080: 0480 1fba 87ec 663a f300 fe38 0ee1 1bbb
00000090: 165b e73a a5e1 34bb 14be 80bb 0af5 13bb
000000a0: a476 11bd 9970 be39 c8a2 5437 6650 913a
000000b0: 8f20 f9b6 064b d4b7 c942 26b9 c118 1e3a
000000c0: 02ea bdbb
-0.00012984454 0.00022174238 4.789011e-05 0.00029123967 8.11973e-05 0.00044186274 0.00010934841 0.000464522
-0.011343997 -2.617744e-06 0.004294893 0.0011210574 0.009817274 0.0022704194 1.6091006e-05 8.731451e-05
1.2539104e-05 5.209985e-05 1.6650976e-05 9.998887e-05 3.134092e-05 0.00296048 0.0074359435 0.0023877872
-0.0019603346 0.004672517 0.034973457 0.0062980764 9.869341e-05 0.0003730166 7.925998e-05 0.00036682637
-0.00060844445 0.0008809049 0.000121118406 -0.0023785266 0.0017651047 -0.0027600315 -0.003928909 -0.0022576475
-0.035513535 0.00036323516 1.2674085e-05 0.0011086583 -7.4245686e-06 -2.5307305e-05 -0.00015855873 0.00060309103
-0.005795718

exp_avg_sq f4 [7, 7]
00000000: 2dab 4436 8b39 1b36 c80d 1334 485b d936
00000010: afa9 5834 a1f6 1535 50aa 8234 7cac 5137
00000020: a48d 383a ef31 0337 31a2 4039 c54d 4637
00000030: a272 a438 216a a837 78e3 1633 7b79 9a35
00000040: ec4f b532 2d4e d334 b548 c332 932a 5a33
00000050: 3821 6633 f812 9837 f636 8239 9570 3537
00000060: 25cb 773a 3b99 be37 27a5 d139 24d1 c137
00000070: 9f77 5b34 b7fd 3136 ef3b ca33 b594 3b36
00000080: 4a48 9336 df7d 9235 4046 6334 3459 2537
00000090: 7532 1239 a541 ff36 14c2 a039 38db 8e37
000000a0: b89e 253a a510 5d37 f393 b434 2b67 b537
000000b0: e179 8834 1d23 8d36 77ef 0535 aa45 cb35
000000c0: d99d 8037
2.9305913e-06 2.3130294e-06 1.3695455e-07 6.4777305e-06 2.0178298e-07 5.586572e-07 2.4338306e-07 1.249753e-05
0.0007040149 7.8198345e-06 0.00018370968 1.1819827e-05 7.8414814e-05 2.007658e-05 3.5131478e-08 1.150925e-06
2.1107518e-08 3.9358693e-07 2.2734051e-08 5.07958e-08 5.358126e-08 1.8128645e-05 0.0002483648 1.0814653e-05
0.0009452573 2.2721119e-05 0.00039986635 2.3104782e-05 2.0439482e-07 2.6522737e-06 9.41726e-08 2.795173e-06
4.389357e-06 1.0914481e-06 2.1166579e-07 9.855536e-06 0.00013942442 7.6072342e-06 0.00030662178 1.70298e-05
0.00063179014 1.3176502e-05 3.363526e-07 2.1624923e-05 2.5420653e-07 4.206215e-06 4.989483e-07 1.5144954e-06
1.5332293e-05

exp_avg f4 [7]
00000000: 785d 8c3a 3586 d93b af20 ad39 4d8a 683d
00000010: d8dc ad3a c01b 37bd 394f 8bbb
0.0010709008 0.006638313 0.00033021483 0.05677252 0.0013264669 -0.0447042 -0.0042513874

exp_avg_sq f4 [7]
00000000: cc79 4838 d1b6 423b 56bd bc36 2223 ab3b
00000010: d12c 3d38 e6a2 6c3b 7eb0 0839
4.7797148e-05 0.0029711018 5.624878e-06 0.005222694 4.510285e-05 0.0036107837 0.00013035719

exp_avg f4 [7]
00000000: c160 8c3a 5b6e d93b 2e93 ac39 9086 683d
00000010: 5a96 ad3a d41d 37bd 013c 8bbb
0.0010709987 0.00663547 0.00032916054 0.056768954 0.0013243661 -0.04470618 -0.0042490964

exp_avg_sq f4 [7]
00000000: e479 4838 bfb6 423b 99b7 bc36 1023 ab3b
00000010: d22b 3d38 ffa2 6c3b e1b0 0839
4.7797235e-05 0.0029710976 5.62421e-06 0.0052226856 4.5101922e-05 0.0036107895 0.00013035863

exp_avg f4 [7, 22]
00000000: 07a9 48ba 6fe5 91b8 a876 13bb eb43 35ba
00000010: 0d19 dbb6 149b 08bb a3ab 0abb b4e6 e137
00000020: b7eb dbb9 c680 4039 e3dc c639 6b77 793a
00000030: c228 9339 d102 0f3a 8124 9339 f9cd 0a39
00000040: be68 3039 0afc 3739 37b5 1739 c3fe 7c3a
00000050: 1dde 8839 54ea c039 98c8 91ba e2d9 693a
00000060: 18e0 06bc 543e 31bb 1a38 463a a1cb 02bc
00000070: 6c6e 94bb 52fe a23a 1b1a 703a becf bbb9
00000080: c329 c23a e1af 483b 4929 553a cf9d da3a
00000090: becb 7b3a 5ea4 223a 84e6 e839 ac18 623a
000000a0: 9e30 213a 9c65 763b 5e4b 773a 9e4a ac3a
000000b0: 1544 35bb 2903 503a a4f1 39bc a72b a5bb
000000c0: aeec b63a 8ecf 2cbc bd06 2abc d205 963a
000000d0: 6501 ab3a 8355 663a 0587 263a 8209 7f3b
000000e0: 3c32 8b3a e2d2 113b e188 a83a f7c3 553a
000000f0: 7522 573a 9d43 be38 1042 513a 1c02 b93b
00000100: c267 ac3a c37b ea3a 2b9d 2fb9 bf60 8a38
00000110: a528 93ba 32fc bcb9 6cd9 d638 1225 8dba
00000120: 15ec 31ba 26d8 ec38 b9df db38 4659 aa38
00000130: 242f 1839 f002 b439 c0b0 c038 78b8 6039
00000140: 3753 1f39 08e4 9a38 a6e3 b138 1318 d638
00000150: 8256 9b38 033e f939 e084 fa38 5f32 3e39
00000160: 22ae 4e3b cd47 08bb a2d3 b43c 91e3 e23b
00000170: 09a6 deba 8a57 aa3c 6cf1 833c 68f0 d8ba
00000180: 3328 19bb f4ed 83ba d2f9 aeba 9dd0 28bc
00000190: eefb 2fbb 5a52 28bb 204d b2ba ca59 d8ba
000001a0: f892 dbba 696e 8dba ca9c d3ba a57e 37bc
000001b0: 2b79 11bb efcb 0dbb 4afb 93ba 0d02 8b39
000001c0: 6294 113a 41f3 363b 8bd2 51b9 8cb9 68ba
000001d0: 1d57 a23b 65f4 58b9 1f97 873a 62ad 823a
000001e0: f77f 5b3b daa0 643b 66d1 033b 544c 25bc
000001f0: 3c97 49ba ee1d cd37 6add 1a39 61e7 6a39
00000200: 1154 2238 9d2d 1c3a 9c52 a0ba af89 5e39
00000210: 15bc be3b 4932 e63b 1477 74bc f5c1 42bb
00000220: 999d 8d3b 38c3 52bc 3c9b 18bc bc9c 9d3b
00000230: 1e43 243b 4d17 9fba 8dee 4bbb 2ed5 273c
00000240: 75fc 283b 77be 803b b1da 7aba 4adf bc3a
00000250: 8e36 bf3a b169 f93a 42bb af3a bde4 0c3c
00000260: 9f32 ef3a 0cd1 29bb
-0.00076545816 -6.956874e-05 -0.0022501145 -0.00069147226 -6.529625e-06 -0.0020844387 -0.0021159432 2.692952e-05
-0.00041946556 0.00018358519 0.00037930076 0.0009516391 0.00028068392 0.0005455437 0.00028065222 0.00013237436
0.00016823687 0.00017546132 0.0001446799 0.00096509996 0.0002610543 0.00036795682 -0.0011122404 0.00089207117
-0.008232139 -0.0027045207 0.00075614604 -0.007983119 -0.004529765 0.0012435413 0.00091591635 -0.000358222
0.0014813471 0.003062241 0.0008131457 0.0016679111 0.000960525 0.0006204302 0.00044422236 0.0008624892
0.0006148907 0.0037597185 0.0009433533 0.0013144796 -0.0027658988 0.0007935041 -0.0113491155 -0.005040604
0.0013956034 -0.010547532 -0.010377583 0.0011445826 0.001304668 0.0008786546 0.0006352517 0.003891558
0.0010619829 0.002225094 0.0012858176 0.0008154506 0.00082067336 9.0725e-05 0.00079825614 0.0056460034
0.0013153481 0.0017889667 -0.0001674785 6.598373e-05 -0.0011227323 -0.00036046054 0.00010244813 -0.0010768494
-0.0006787193 0.00011293618 0.00010484405 8.12286e-05 0.00014513411 0.00034334464 9.188196e-05 0.00021431025
0.00015194422 7.3857664e-05 8.4824205e-05 0.00010208799 7.407089e-05 0.00047539183 0.00011945679 0.00018138577
0.0031536897 -0.002079475 0.02207357 0.0069241007 -0.0016986738 0.020793695 0.01610633 -0.0016551139
-0.0023369908 -0.0010065422 -0.0013349599 -0.0103036435 -0.0026853043 -0.002568385 -0.0013603307 -0.0016506251
-0.0016752174 -0.0010790351 -0.0016144749 -0.011199628 -0.0022197466 -0.0021636446 -0.00112901 0.00026513674
0.0005553422 0.0027915987 -0.00020010227 -0.00088777463 0.0049542324 -0.0002069041 0.001034472 0.0009969885
0.003349302 0.0034885914 0.0020113825 -0.010088999 -0.0007690077 2.4451841e-05 0.00014769068 0.00022402174
3.8702103e-05 0.00059577246 -0.0012231651 0.00021222861 0.005820761 0.0070250374 -0.014920969 -0.0029717658
0.0043217656 -0.012863927 -0.0093143545 0.004809944 0.002506442 -0.0012137681 -0.003111753 0.010243697
0.0025785242 0.003928955 -0.0009569331 0.0014409807 0.0014588402 0.0019028691 0.0013407248 0.008599457
0.0018249339 -0.0025911955

exp_avg_sq f4 [7, 22]
00000000: 381c 7037 8121 7837 fb81 1239 b744 8d37
00000010: 87ab 8e37 0fbb 1039 c456 fb37 4e95 9f37
00000020: 7eb7 6337 0c1b 7236 7015 7836 ee06 ca36
00000030: 0e10 0236 1a06 0a36 d83f e535 b2ab 1b36
00000040: 1da9 e936 2350 9836 e39a 2e36 74c2 bf36
00000050: 84c0 5836 5fd2 6136 7ae6 d139 c162 d936
00000060: a376 d33a 7ef6 2139 da2c 3636 150d f43a
00000070: 2cb0 883a 2de6 1437 6a79 6f37 80fe 3d39
00000080: e435 8f38 8475 9238 6882 8637 16e1 9237
00000090: 95bb d137 aa4f 9037 7dc6 b238 d7c8 4639
000000a0: 6df8 9737 757e 1038 45c1 c937 6a5f bf37
000000b0: 1bd4 f339 cea6 8b37 4a49 af3a bee9 3939
000000c0: 5d40 8136 cedf d53a 93b1 cf3a 838a c137
000000d0: d620 6f37 ef19 fd37 6d9d 3a39 4652 a438
000000e0: b1ee 9e37 1897 c637 4902 8f37 4412 7f37
000000f0: 8898 9f38 139b 2c39 5428 5b37 b8f7 1938
00000100: 1c04 d637 a8e6 a437 c3ce c336 da82 e634
00000110: 4ea6 3e38 a626 ec36 f6fb 1735 c237 3938
00000120: f1bb ee37 533d 4635 11cd 1f35 94df c435
00000130: ca4f e835 a517 d335 271e 4c35 5025 8435
00000140: 6b87 0136 bc4a 6135 1a2f e335 18cf 1935
00000150: 0ae0 e135 7d03 3f35 0512 9c35 4bc2 cb35
00000160: dcfd f738 0769 2b38 da1a 183b 15dd 9239
00000170: 715a 6038 8790 0c3b 124a a13a f310 8c38
00000180: c8d1 cf37 2b8b 9c37 7fa8 a438 f889 7239
00000190: 079b 0f38 8a89 5b38 4552 2338 cb94 a337
000001a0: 21bc f237 8f1c 6f38 f2b2 7b37 f7be 5039
000001b0: 9376 6038 7756 d238 6461 0f39 f481 ab37
000001c0: f585 023b 843d e539 fbb2 2038 adb7 db3a
000001d0: 0b55 cc3a c878 4e38 60f1 6837 fcbd 8d37
000001e0: 32c6 1938 083e 0439 f1c3 9737 54d7 3539
000001f0: a369 3c38 6171 9237 0f83 be37 c20e b937
00000200: 49bb 9237 b314 7339 b36c 2b38 860d ba38
00000210: a0db a239 765d a337 0583 713b f30c 0a3a
00000220: 4e4e 0238 d6b7 623b e88c f13a 64b4 1f38
00000230: 07a2 cb37 35cd 4038 1126 1839 3d70 7039
00000240: 6bcc 0b38 0de2 ac38 5bcb 3839 34ef d337
00000250: 0728 2838 b443 1338 6010 0c38 0bea e039
00000260: 4258 9338 5de2 5239
1.4311685e-05 1.4789753e-05 0.00013972067 1.6840508e-05 1.7007593e-05 0.00013802595 2.9961935e-05 1.9023802e-05
1.3572977e-05 3.6076553e-06 3.6967358e-06 6.020876e-06 1.9380855e-06 2.0567154e-06 1.708041e-06 2.319674e-06
6.9636285e-06 4.539282e-06 2.6018176e-06 5.714881e-06 3.2298567e-06 3.3650065e-06 0.00040035305 6.4786004e-06
0.0016133379 0.00015445982 2.714622e-06 0.0018619621 0.001042848 8.875079e-06 1.4273779e-05 0.00018119253
6.828809e-05 6.9837115e-05 1.603477e-05 1.750937e-05 2.5002091e-05 1.7203234e-05 8.524673e-05 0.0001895757
1.8116285e-05 3.4450048e-05 2.4051065e-05 2.2813405e-05 0.00046506603 1.6647766e-05 0.0013373282 0.0001773005
3.8519925e-06 0.0016317309 0.0015845768 2.3071892e-05 1.4253155e-05 3.0172027e-05 0.00017796988 7.835454e-05
1.8946217e-05 2.3673798e-05 1.7047993e-05 1.5203437e-05 7.610122e-05 0.00016460968 1.3062807e-05 3.670875e-05
2.5512702e-05 1.9657731e-05 5.835523e-06 4.2936045e-07 4.5454413e-05 7.0378474e-06 5.6618535e-07 4.4159366e-05
2.8459328e-05 7.3849986e-07 5.9530527e-07 1.4668208e-06 1.7308569e-06 1.5727607e-06 7.60398e-07 9.845626e-07
1.9301322e-06 8.3927785e-07 1.6926526e-06 5.72983e-07 1.682901e-06 7.115812e-07 1.162815e-06 1.5181225e-06
0.00011825163 4.086739e-05 0.0023209364 0.0002801201 5.3489992e-05 0.002144845 0.00123054 6.678877e-05
2.477401e-05 1.8661454e-05 7.851514e-05 0.00023130316 3.4238237e-05 5.2341762e-05 3.8938848e-05 1.9500401e-05
2.8936252e-05 5.7008638e-05 1.500243e-05 0.00019907566 5.3516193e-05 0.00010029686 0.00013673824 2.0445303e-05
0.001991627 0.00043724116 3.831366e-05 0.0016763114 0.001558931 4.9226714e-05 1.3884477e-05 1.6896978e-05
3.6662626e-05 0.0001261161 1.8091845e-05 0.00017341721 4.4921075e-05 1.7457352e-05 2.2710794e-05 2.206059e-05
1.7491768e-05 0.00023181997 4.087081e-05 8.87169e-05 0.0003106268 1.9474635e-05 0.0036851775 0.0005266212
3.1067342e-05 0.0034594438 0.0018428834 3.8076556e-05 2.4274936e-05 4.596748e-05 0.0001451003 0.00022929996
3.333056e-05 8.243704e-05 0.00017623363 2.5264548e-05 4.00916e-05 3.5110585e-05 3.339385e-05 0.00042898985
7.0259455e-05 0.00020111488

exp_avg f4 [7, 7]
00000000: b434 17ba 52fd 2f39 717e 5f39 4cb1 f638
00000010: 11f9 cb3a 8b8f d039 b587 b039 f72c f439
00000020: a25b 64ba 97e4 be3a 25f8 dd39 e3c6 9e3b
00000030: 8f56 783a 99a1 a83a 8f3b 413a b6b3 563a
00000040: 53c4 76ba 610e fe39 121e e53b c656 d93a
00000050: f6c2 c73a bf6b 5c38 674f 7e38 808b 9e38
00000060: 714f 3e38 42ac 0a3a eabe 1539 24b4 7239
00000070: 5914 3cba 57bd b6ba 0e3a 35ba 90e5 c7ba
00000080: d72e a3bc b5a3 733a 1bd3 e13a 570a 0d3a
00000090: 7351 163a 4392 3e3a 976c e339 d3e2 4a3c
000000a0: cc72 96bc e563 753b 12c5 843a 2b58 893a
000000b0: 226b b93a 5938 643a 72d4 a43c b937 693b
000000c0: 4d5c 66bc
-0.0005768046 0.0001678367 0.0002131404 0.00011763218 0.0015561898 0.000397798 0.00033670446 0.00046572808
-0.0008711164 0.0014563975 0.00042337287 0.0048454865 0.00094733475 0.0012865543 0.00073712406 0.0008190231
-0.000941341 0.00048457368 0.00699211 0.0016581647 0.0015240598 5.2552434e-05 6.063227e-05 7.560011e-05
4.5373516e-05 0.00052899506 0.00014280868 0.00023146026 -0.0007174663 -0.0013941926 -0.0006913253 -0.001525091
-0.019919796 0.00092941086 0.0017229052 0.0005380264 0.0005734183 0.00072697195 0.0004337772 0.012383181
-0.018365286 0.0037443575 0.0010129532 0.0010478547 0.0014146308 0.0008705906 0.020120833 0.0035586192
-0.014060092

exp_avg_sq f4 [7, 7]
00000000: 368c 8a37 9196 e636 9974 6436 d32d ca35
00000010: d1b4 ab36 78ee 6a36 66ec 2736 f244 2337
00000020: 976b c539 6102 2439 d28f 0837 6a36 e337
00000030: adc9 5437 efbc 9d37 d416 1c37 6c32 8838
00000040: 3d82 e939 f21a cc36 830a 2238 5bfb 7c37
00000050: c849 4b37 5940 2035 ace4 2036 5799 8235
00000060: c081 5135 fe10 7f35 cbad 1336 6e1d bc36
00000070: 0029 6e37 bbb9 9637 e573 9a38 389d e436
00000080: 7a3b 053a 19e0 1f38 a7df d738 5de6 0b37
00000090: cf83 8237 de2c 8c37 89ac 0937 10b8 4839
000000a0: db2c ac39 7cc6 9a38 4082 5237 689b b137
000000b0: 2b2a ad37 91e0 8537 4622 d739 7f97 4838
000000c0: 5d67 323a
1.6516173e-05 6.8720624e-06 3.4042516e-06 1.5063509e-06 5.117247e-06 3.5007524e-06 2.5022541e-06 9.73161e-06
0.0003765493 0.00015641145 8.1397175e-06 2.7085847e-05 1.2683141e-05 1.8803838e-05 9.30364e-06 6.494377e-05
0.00044538258 6.0828106e-06 3.86336e-05 1.5078894e-05 1.2116921e-05 5.9698283e-07 2.3974962e-06 9.730383e-07
7.804738e-07 9.501963e-07 2.2005868e-06 5.6062627e-06 1.41954515e-05 1.7967881e-05 7.364879e-05 6.813232e-06
0.000508241 3.811726e-05 0.000102936574 8.338681e-06 1.5558586e-05 1.6710193e-05 8.206008e-06 0.00019142055
0.00032839816 7.380263e-05 1.2547302e-05 2.1172411e-05 2.0642843e-05 1.5959407e-05 0.0004103353 4.7824808e-05
0.00068055635

exp_avg f4 [7]
00000000: 9f60 113b 1a23 0c3c 61a7 383c b257 973a
00000010: 20fd b0bc 19dd 1d38 2c0d 653c
0.0022182835 0.008553291 0.011270375 0.0011546521 -0.021605074 3.763763e-05 0.013980191

exp_avg_sq f4 [7]
00000000: 478f 3539 7b97 043b 35cd ee3a 43bd 5938
00000010: e204 233b 598f 0d3b efe1 833b
0.0001731488 0.002023189 0.0018219115 5.1913095e-05 0.0024874737 0.0021600334 0.004024736

exp_avg f4 [7]
00000000: 179f 113b 1439 0c3c 65a4 383c 41da 973a
00000010: 9501 b1bc e6e1 0c38 26f5 643c
0.002222007 0.00855853 0.011269663 0.001158543 -0.0216072 3.3588985e-05 0.013974464

exp_avg_sq f4 [7]
00000000: b790 3539 ac97 043b 3ccd ee3a 84c6 5938
00000010: 0d05 233b 3f8f 0d3b f5e1 833b
0.00017315416 0.0020232005 0.0018219124 5.1921714e-05 0.0024874837 0.0021600274 0.004024739

exp_avg f4 [7, 22]
00000000: cc4a 85bc 0a40 d6bb a4aa f13c 68a0 1bba
00000010: b65e 0abc f46b 043d 429b c1bc d0e7 00bc
00000020: 73e8 33bb 073a f6ba 004c 403a e325 42bc
00000030: 29fe eabb 6670 02bb 0d7f bebb 6e79 8bbc
00000040: 2cd1 50bb 0756 29bb d745 73bb b687 4abb
00000050: e600 67b9 71d4 6bba 7c1b 0f3a 0f65 3438
00000060: c14d 16bb 0614 aa39 4d88 6137 b299 18bb
00000070: b595 853a 5d6b 9c37 b9b0 8939 058c 8238
00000080: 0492 8339 33e9 353a de2b bd39 1d33 0d3a
00000090: c515 9439 f6f1 f639 99cc 3139 a0be f439
000000a0: 70c5 f939 808b 2f39 9baa ca39 619a a239
000000b0: 12cf b5ba ea83 663b 26b0 24ba 76ec e4bb
000000c0: b75a 9bb9 aaa8 cfba dc4d 7ebb a428 213b
000000d0: 8688 fa3a d649 6cba 4bee 97bb bea6 ae3a
000000e0: f73f 9839 5f83 923b 309f 24b9 04a8 743b
000000f0: 02cf 6d39 dc5c febb 29d2 8939 0de0 4839
00000100: 1085 753b 517b f93a 359c 2dbb 44ce ba3a
00000110: 52c4 d9bc 9256 babb bdd0 9d3b 07dd dcbc
00000120: 54e2 36bc 904a c93a 9c7b 66b9 9922 4a3a
00000130: 6ebf f43a 6979 d33b 9db7 b63b 6c40 9a3b
00000140: 06f9 a53b 8e05 053c bfde ea3a 34df e03b
00000150: 96a0 e7ba 2547 e83a 785e 813b e691 643b
00000160: f812 a339 39fb 0eb6 1d1b a8ba 77c8 7139
00000170: 2468 7eb7 731e abba e32e 203a 3d81 4fb7
00000180: b04f e038 d658 be38 45f9 2239 90ea c539
00000190: 4217 5839 aa6e 9239 9980 1b39 450f 6939
000001a0: 27df ca38 9af6 9539 0e0a 9739 5e1c c038
000001b0: 22af 5339 57de 3139 f431 e73b 1e64 843a
000001c0: 2057 bd3a 882f 593b 6727 173b 4e8f cb3a
000001d0: 5561 303c 9035 0a3b fe12 8a3a 33d7 43b8
000001e0: 7b91 d739 3909 80b9 73b0 1339 742c 44bb
000001f0: 9c71 d339 db23 cf3a 1f31 4039 0f20 463a
00000200: 2932 733a 14d2 3839 d890 58bb afbc d1ba
00000210: 6419 cd3a 6be8 0aba 7b68 c7bb c13f 893b
00000220: 9abb f3b9 79bc e0bb c3e9 eb3b 2712 39ba
00000230: 88f0 403a 8dca cf39 51fe b93a 2d93 0f3b
00000240: d68e de39 fd9a f53a bd6f ecb7 98ce df3a
00000250: ec26 0b3a abee 1c3b ba63 d93a 2cde 073a
00000260: eb82 293a 103f e8b9
-0.016271017 -0.006538396 0.029500313 -0.0005936683 -0.008445432 0.032329515 -0.023633603 -0.007867768
-0.0027451783 -0.0018785604 0.00073355436 -0.011849853 -0.0071714115 -0.001990342 -0.0058134855 -0.017025676
-0.0031862957 -0.002583863 -0.0037120485 -0.0030903644 -0.00022030211 -0.0008996195 0.00054591126 4.3009462e-05
-0.0022934529 0.00032439845 1.344278e-05 -0.002328497 0.0010191711 1.8646644e-05 0.00026262345 6.224964e-05
0.00025095057 0.00069393514 0.00036081573 0.00053863396 0.0002824498 0.0004710105 0.00016956254 0.00046681333
0.00047640083 0.00016741268 0.00038655553 0.0003101407 -0.0013870916 0.0035173842 -0.00062823517 -0.006986196
-0.00029631492 -0.0015843112 -0.0038803732 0.0024590874 0.0019114173 -0.0009013688 -0.004636561 0.001332484
0.00029039357 0.004471227 -0.00015699561 0.003733159 0.00022679198 -0.0077625345 0.00026287258 0.00019156952
0.0037463345 0.0019033944 -0.0026490812 0.0014252146 -0.02658287 -0.0056865895 0.0048161433 -0.026960863
-0.011162359 0.0015357304 -0.00021980557 0.0007710844 0.0018672773 0.006453682 0.0055760876 0.0047073867
0.0050650863 0.008119 0.0017919167 0.0068625454 -0.001767176 0.0017721398 0.003948029 0.0034877001
0.00031103916 -2.130588e-06 -0.0012825463 0.0002305823 -1.5163827e-05 -0.0013055339 0.0006110502 -1.2368252e-05
0.00010695995 9.076453e-05 0.00015542384 0.0003774953 0.0002060803 0.0002792974 0.00014829858 0.000222263
9.673676e-05 0.00028603227 0.00028808456 9.160557e-05 0.0002018777 0.00016962863 0.0070555154 0.0010100638
0.0014445521 0.0033139903 0.0023064257 0.0015530379 0.010765393 0.0021089055 0.0010534225 -4.6692043e-05
0.00041116387 -0.00024420934 0.00014084745 -0.0029933723 0.00040329702 0.0015803532 0.00018328846 0.00075578777
0.0009277189 0.00017625868 -0.0033045318 -0.0016001667 0.0015647826 -0.0005298915 -0.006085453 0.0041885083
-0.00046488346 -0.006858405 0.0071994974 -0.0007059895 0.00073600607 0.0003963303 0.0014190172 0.0021907792
0.0004244956 0.0018738207 -2.8185425e-05 0.001707512 0.0005308229 0.0023945968 0.0016585507 0.00051829475
0.00064663467 -0.00044297474

exp_avg_sq f4 [7, 22]
00000000: 17fa ba39 1299 6d38 0861 743b 6dff 1739
00000010: 6496 b138 c51f 803b 8725 8a3a d27f 9638
00000020: 0890 fb38 0a31 ec37 bb7b 9738 1ca6 a139
00000030: 3daf c838 8e09 c538 cdac a538 448c 6339
00000040: 0da9 e737 9fdb 9939 e195 9438 15b4 d937
00000050: ff5d be38 9fb1 5438 54c5 5137 854d 0635
00000060: 044f 8d38 bbc5 8936 042e 7d34 5573 9f38
00000070: 9bb4 0738 8e26 1e35 378a aa35 1b5d f736
00000080: 0333 b535 adb4 1936 0689 8b35 4aef 9235
00000090: 3690 a635 354b ee35 a34d 4035 2458 f336
000000a0: d83b 8235 475e f335 7543 8235 84e3 9b35
000000b0: af3c d939 94fc 6f37 2619 773b eac1 ce39
000000c0: 3890 9f37 1927 773b 3ef8 e63a 2404 8037
000000d0: 1291 2438 a7cf 4b38 6bc0 4c39 564f 8239
000000e0: e8f2 9138 2ee8 c738 97ac 9b38 a2c1 e838
000000f0: b556 dd37 dc97 d339 ac9e f638 ab76 1e38
00000100: 3d85 8b38 6c59 6938 3cb6 0e3a fcd8 8e36
00000110: f9a4 e23a f34b d839 e153 9737 5f7c f23a
00000120: 4802 233b 67c2 b036 1e7b b637 90f9 8b37
00000130: 9522 aa38 6740 3a39 2709 2838 62c4 5b38
00000140: ae9e d837 b064 5538 190e 6a37 b0e1 5539
00000150: 51e0 1339 1096 6937 972e 9237 a143 8b37
00000160: 1a4f bc36 8a58 3834 6fd4 4e38 ef91 b736
00000170: 38fa 5034 7a86 4e38 dbc3 ca37 2e84 3b34
00000180: 8817 2335 0c9c 9935 d881 0e36 60d3 1b36
00000190: bb29 a035 1cbb 4735 9ac2 9735 98b9 9635
000001a0: 10bf 1235 2828 8136 eb90 1035 0cfb e035
000001b0: ebd7 1835 15f6 8c35 0196 4938 541b 3637
000001c0: 9c92 ae3a bfcb 4838 38a8 1e37 0ad6 ad3a
000001d0: 60bd 4d39 e404 1037 d6b0 d837 9185 3537
000001e0: edfb 8337 3642 8438 d250 b937 fe59 a438
000001f0: 66a8 1138 b63c 1a38 4efb 0437 9129 d138
00000200: 7605 2a37 59db f636 55e8 9b38 47c8 0438
00000210: 4b86 a737 eed4 e736 170c b63a 1e0a cc38
00000220: c179 4336 81a8 ab3a d496 8339 4af8 3536
00000230: 74be fe36 adf7 3f37 ebad 6b37 17cf 3938
00000240: 71eb 6938 c414 2e38 7c60 a438 fa43 ef37
00000250: 8a04 0a37 8ac5 af38 86b7 2c37 89b4 2b37
00000260: 89fd 9e38 3073 4a38
0.00035663016 5.664776e-05 0.003728928 0.00014495636 8.46803e-05 0.003910037 0.0010539748 7.176366e-05
0.000119954406 2.8156228e-05 7.223288e-05 0.00030832074 9.569384e-05 9.395472e-05 7.9e-05 0.0002170066
2.7616066e-05 0.00029346065 7.085107e-05 2.5952273e-05 9.077414e-05 5.071016e-05 1.2503315e-05 5.0031696e-07
6.738122e-05 4.105937e-06 2.3579202e-07 7.603193e-05 3.235471e-05 5.891569e-07 1.2706213e-06 7.3720125e-06
1.3500397e-06 2.2903944e-06 1.0396186e-06 1.094749e-06 1.2409935e-06 1.775427e-06 7.163855e-07 7.2522253e-06
9.703172e-07 1.8132349e-06 9.705387e-07 1.1614616e-06 0.00041434678 1.4304318e-05 0.0037704199 0.0003943586
1.9021434e-05 0.0037712513 0.0017621589 1.5260717e-05 3.9235754e-05 4.8592363e-05 0.00019526637 0.00024854642
6.9593836e-05 9.532306e-05 7.423123e-05 0.00011098689 2.638563e-05 0.000403582 0.00011759749 3.7780654e-05
6.652854e-05 5.563481e-05 0.0005444025 4.25719e-06 0.0017291597 0.00041255317 1.8039662e-05 0.00185002
0.0024873186 5.26784e-06 2.1753422e-05 1.6686303e-05 8.112673e-05 0.00017762334 4.0062845e-05 5.2396565e-05
2.5823098e-05 5.087693e-05 1.3950769e-05 0.00020397338 0.00014102577 1.3922821e-05 1.7426251e-05 1.6601583e-05
5.6120452e-06 1.7168546e-07 4.931207e-05 5.470814e-06 1.9462539e-07 4.923947e-05 2.4171479e-05 1.7463819e-07
6.0756474e-07 1.1444804e-06 2.1235228e-06 2.3219836e-06 1.1933074e-06 7.4405557e-07 1.1307013e-06 1.1229886e-06
5.466727e-07 3.8491744e-06 5.3855064e-07 1.6762365e-06 5.6938615e-07 1.0502432e-06 4.8061836e-05 1.0854408e-05
0.001331884 4.787347e-05 9.4567e-06 0.0013262641 0.00019620871 8.5842075e-06 2.5831552e-05 1.0819539e-05
1.5733729e-05 6.306583e-05 2.2091353e-05 7.836892e-05 3.4727527e-05 3.6773003e-05 7.9263245e-06 9.973639e-05
1.0134061e-05 7.3569067e-06 7.434251e-05 3.1657775e-05 1.9970486e-05 6.9091247e-06 0.0013889101 9.7293625e-05
2.9128134e-06 0.0013096483 0.00025098643 2.7115625e-06 7.5919615e-06 1.1442154e-05 1.4047585e-05 4.4300305e-05
5.57708e-05 4.1504172e-05 7.838101e-05 2.8522674e-05 8.226498e-06 8.381445e-05 1.0294729e-05 1.0234428e-05
7.581252e-05 4.826783e-05

exp_avg f4 [7, 7]
00000000: 750f 1bbd 628a 40bb 6f64 c83b 4a9d 963a
00000010: f6fc 21bb 6bbd 6b3b 9097 dc3a ccdc 213a
00000020: 926f 0635 9699 ed39 1ff2 193a 093a dd38
00000030: 11dc d939 4043 9739 2f98 403c 8c99 61b9
00000040: 5ee0 e0bc e495 393c f2a5 06ba c212 c13b
00000050: f07f c53a 0515 5d3c 1bc7 963a 470c 993c
00000060: 6afb 80bc f269 413a b7ce 5f3b 8684 213b
00000070: 4856 6139 8315 8038 ea59 a539 a7da ba39
00000080: c870 4538 1dc6 4739 8db1 3239 4229 613b
00000090: 5c98 70b8 bcbc fd3a b1ba 0e3a 19b2 12b9
000000a0: f184 f5bb 5bef fd39 8054 4d3b cbc3 9339
000000b0: e969 753b 963f 973a 3fa1 6339 131c a63b
000000c0: 6a74 d8bb
-0.037856538 -0.0029379358 0.0061154882 0.0011490968 -0.0024717427 0.0035971056 0.0016829837 0.0006174564
5.0081246e-07 0.00045318593 0.00058725657 0.00010548911 0.00041553428 0.0002885107 0.011755033 -0.00021514873
-0.027450737 0.011327241 -0.0005136422 0.0058921287 0.0015068036 0.013493781 0.001150343 0.018682612
-0.015744884 0.0007378153 0.0034150311 0.002464564 0.00021489814 6.1075225e-05 0.00031538244 0.00035639593
4.7073496e-05 0.00019051922 0.00017041546 0.0034356867 -5.7362355e-05 0.0019358615 0.00054446893 -0.00013989992
-0.0074926545 0.00048434254 0.0031330884 0.00028183902 0.003744716 0.0011539336 0.00021708476 0.0050692647
-0.0066056745

exp_avg_sq f4 [7, 7]
00000000: 915c 573a 9884 7537 5b46 9a39 6c91 5138
00000010: c358 3b37 b0ca a238 044b 1338 2702 0836
00000020: 4dd7 fe36 e2c6 a336 bc35 8135 9698 8c35
00000030: 5d1a b735 ffe7 b235 1c86 2f39 c5b0 bf37
00000040: a4d9 543a 0c3d 5639 a3d4 9037 ec79 bd38
00000050: 7089 4938 1680 5a38 24e2 f136 cf71 4a39
00000060: 289e 073a 66c8 cf36 9f5c 2a37 4d58 0c37
00000070: c388 8735 066a 1135 1f02 1437 d83f a035
00000080: 6ba6 4a35 7743 f934 9b48 b435 bd23 7b38
00000090: 04d3 7e36 208d 8138 57cf bb36 c3f8 5f36
000000a0: f4a5 8139 9bc9 1438 4d38 b237 f1f1 7536
000000b0: 4568 9038 ef92 9f36 9c13 9c36 c28f 6d38
000000c0: 4805 8f39
0.00082153926 1.463401e-05 0.00029425588 4.9964918e-05 1.1166735e-05 7.7625155e-05 3.5117395e-05 2.0266832e-06
7.594854e-06 4.8809316e-06 9.626888e-07 1.0475221e-06 1.3642235e-06 1.3329553e-06 0.0001673926 2.2851289e-05
0.0008119589 0.00020431372 1.7265154e-05 9.034932e-05 4.8050133e-05 5.209454e-05 7.208686e-06 0.00019306618
0.00051734084 6.19241e-06 1.0154355e-05 8.365209e-06 1.0098087e-06 5.4170994e-07 8.821981e-06 1.193951e-06
7.5493034e-07 4.642895e-07 1.3432176e-06 5.9876347e-05 3.7971777e-06 6.177486e-05 5.597172e-06 3.3374388e-06
0.00024728442 3.547371e-05 2.124547e-05 3.6648673e-06 6.885877e-05 4.7556746e-06 4.651445e-06 5.6639088e-05
0.0002727902

exp_avg f4 [7]
00000000: 7d9a fbbc 42f1 213b 461a 173b ee54 c63c
00000010: bf79 b43a 28ae a7ba 09bb e53b
-0.030713314 0.0024710451 0.0023056432 0.02421042 0.0013769193 -0.0012792991 0.0070108217
