data_10frm/model/0_3_13_8.pt (torch_old, 18375 bytes, 52 tensors)

rnn.weight_ih f4 [7, 22]
00000000: 3347 0a3e 25db 7bbe 6dcf 45be c9eb a7be
00000010: c058 20be bce9 3cbe a9f6 ae3e 29df 223d
00000020: 85bf 143e 74a9 c1be 09b8 933e 1738 8bbd
00000030: c6d7 adbe f208 853e 1b55 d7bd d9ca ad3e
00000040: a7ed 7abe 4ae6 afbe 4df3 8bbe a871 283e
00000050: 5c2b cebc 3b6b b3be 35eb 9a3d dec8 82bc
00000060: a4c9 363e e916 41be 546f 87be cfa6 963e
00000070: 62f6 35be 7591 943e 3bc5 863e 2976 81be
00000080: d908 65be c437 e4bb e314 d0be 0120 4f3d
00000090: d348 56be 3b3a 4fbe af7d abbe 3741 063e
000000a0: 6f90 90be 08df a7be 7112 13be beb7 80be
000000b0: be54 9bbe 2009 203d e759 44be 808f b03e
000000c0: 0279 453e c1b4 93be 6378 18be c187 6dbe
000000d0: 08b6 7c3e e2cc c33c b561 8fbd 795b 8e3e
000000e0: 2773 d03e 97b3 a03e 1b6e 76be cc9e a7bc
000000f0: 5adb febc af2f c03e 5149 1dbe 7b87 35be
00000100: b309 413d 22bf 1abd ba8a 3a3e 8ea8 41bd
00000110: f8ce 54be e49f a63e 63b1 203e 258e c83d
00000120: 0459 96be 2384 c63d e924 773e 3ad5 cb3d
00000130: e962 1bbe 903a fb3c 5057 1fbe c12b af3e
00000140: 8a30 ac3e 9612 2abd e32c 87be d5cd 493e
00000150: 3cdb 333e f1dc 4e3e 4857 98be a417 ee3d
00000160: ed54 93be de79 bbbe c9cb ebbd 4d81 813d
00000170: 8ae9 133e f2d9 39be 0cea cd3d 9b2c 8c3e
00000180: ef59 143e 50f8 883d 6779 3abe e161 ca3d
00000190: e6c4 173e 3422 373d 1a1e d2be b8e2 8fbe
000001a0: 3182 163e b5fe fe3d c1fd b23d d67b 93be
000001b0: 289b 68be eff7 d9be 090d b6be b15a 9f3e
000001c0: 00bc 9fbe 8e67 56be f3d6 723d ca93 69be
000001d0: 5ce9 27bd 63d0 b9bd c545 103e 691d 96be
000001e0: 606f b93c 3b20 b1be 2f59 5b3e 84a0 cc3e
000001f0: 6cd1 0abe a981 043d a821 41be de2a 71be
00000200: 48db 39be 0aa2 3ebe 79ab 983d 8dba 3fbd
00000210: 195b eebd d867 84be b887 5fbe 5c2f debe
00000220: a668 8abe d442 ad3e d5f8 843c b149 bbbe
00000230: 3d4d cdbd 5b6a c93b 1811 063e f00b a33e
00000240: 7e1e ae3d 4ae5 843e 5d8f 0cbe 84d8 89bd
00000250: 3ed8 78be ea8a 853d 4e99 ac3e 23a8 603e
00000260: 7070 b73e 554c 43be
0.13503723 -0.24595316 -0.19317408 -0.32797077 -0.15658855 -0.18448538 0.34172562 0.039763603
0.14526184 -0.37824595 0.28851345 -0.06797808 -0.33953685 0.25983387 -0.105142795 0.33943823
-0.2450472 -0.34355384 -0.2733406 0.16449606 -0.02516716 -0.35042748 0.075643934 -0.015964922
0.17850357 -0.18856396 -0.26452124 0.2942414 -0.17769769 0.29017225 0.2632235 -0.25285462
-0.22366656 -0.0069646556 -0.40640935 0.05056763 -0.20926218 -0.20237057 -0.33494326 0.13110815
-0.28235194 -0.32787347 -0.14362504 -0.25140184 -0.3033809 0.039071202 -0.1917492 0.34484482
0.19284442 -0.28848842 -0.14889674 -0.23196317 0.24678814 0.023901407 -0.07001058 0.27804163
0.40712854 0.31387016 -0.2406544 -0.020461462 -0.031110454 0.3753638 -0.15359999 -0.17727463
0.04712839 -0.037779935 0.18216982 -0.047279887 -0.20782077 0.32543862 0.15692668 0.09792737
-0.2936479 0.09693172 0.24135174 0.09952779 -0.1517445 0.030667573 -0.15560651 0.3421307
0.33630782 -0.04152163 -0.26401433 0.19707425 0.175641 0.2020147 -0.2975409 0.11625603
-0.2877573 -0.36616415 -0.11513478 0.0632349 0.14444557 -0.18149546 0.100544065 0.2737778
0.14487432 0.06687987 -0.18210374 0.0988195 0.14821205 0.044710353 -0.4103859 -0.2810266
0.14698102 0.12450925 0.08739806 -0.28805417 -0.22715437 -0.4257197 -0.3555682 0.3112388
-0.3119812 -0.2093794 0.059287023 -0.22810283 -0.040994033 -0.0907295 0.14089115 -0.29319313
0.022636116 -0.34594902 0.2142074 0.39966214 -0.1355645 0.032350216 -0.18860495 -0.23551509
-0.18150055 -0.186165 0.07454581 -0.046808768 -0.11638469 -0.25860476 -0.21829116 -0.43395507
-0.27032965 0.33840048 0.016231934 -0.3657966 -0.10024498 0.0061467118 0.13092458 0.31845045
0.0850191 0.25956184 -0.13726564 -0.0673075 -0.2430124 0.065206364 0.33710712 0.21939139
0.3582797 -0.19072087

rnn.weight_hh f4 [7, 7]
00000000: fa1f 683b 049f a93d a4b7 7f3e 89e6 c0be
00000010: 468d 40be 3343 863d fd44 70be 1e33 ae3d
00000020: 7ddc 1339 d8d2 1ebe 6c21 0f3e 2baf 813e
00000030: 6c4d 9c3e 413b ea3d 316c b13c c223 a83e
00000040: 8509 c13e c698 40be 9ced 563e 75fa 403d
00000050: 1c09 06be 8027 07be 954f dbbd 0498 a7be
00000060: b97e 80bd a4c2 083e 3dfc 723e e8b9 51bc
00000070: f41b 00bf 52db 703d e861 74be 1623 3c3e
00000080: d3eb fcbe 9876 6cbe 05e2 2b3e 489b cc3d
00000090: abc6 3dbe d8b4 b8be 48f0 92bc 7180 0f3e
000000a0: cd47 87be 8b76 afbe 3924 afbd 347f d2bd
000000b0: 553c 2f3e f7a9 c8be 8611 97bd e3e7 a7be
000000c0: 1365 9cbc
0.003541945 0.08282283 0.24972397 -0.37675884 -0.18803892 0.06555786 -0.23463817 0.085058436
0.00014101151 -0.15510118 0.13977593 0.25328955 0.30527818 0.11437083 0.021658035 0.3283978
0.37702575 -0.18808278 0.20989078 0.047113854 -0.13089412 -0.13198662 -0.107085384 -0.32733166
-0.062741704 0.133555 0.23729034 -0.012800671 -0.50042653 0.05880291 -0.23865473 0.18372759
-0.4939867 -0.23092115 0.16785438 0.09990555 -0.18532817 -0.36075473 -0.01793684 0.1401384
-0.26421967 -0.3427013 -0.08551831 -0.10278168 0.17112859 -0.39192173 -0.07376389 -0.32794103
-0.019091165

rnn.bias_ih f4 [7]
00000000: c618 40be f35f a43d 975d 89be 61f5 9cbe
00000010: 28a8 babe aadc a9be edde 5c3e
-0.1875945 0.08026113 -0.26829216 -0.3065596 -0.36456418 -0.33176166 0.21569414

rnn.bias_hh f4 [7]
00000000: c8f9 46bd c19f 7ebe 181f a03e ab89 c2bd
00000010: 6fed 393d 3f75 f1bd 9e9f adbe
-0.048578054 -0.24865629 0.31273723 -0.09498914 0.04539245 -0.11789941 -0.3391084

exp_avg f4 [7, 22]
00000000: faf8 9d39 cb76 50ba 0a44 29bc daae daba
00000010: 086f d1b9 b529 28bc a3c3 0dbb 859d d7b9
00000020: e150 9e39 5d39 7a3a 64b9 163b f00a 093b
00000030: 68e6 bf3a 097c e43a 176c d53a b75b 523a
00000040: 432d 603a ba32 fa3a d49f 213b caac cb3a
00000050: 148c 9e3a d62a dd3a 7639 9fb6 dc7d 80ba
00000060: aa8c 95bc fc73 64bb 30b6 a838 1c35 95bc
00000070: b68f 97bb 2b9f 2539 3195 0a3b 95e1 e73a
00000080: 1921 963b 997d 3f3b e2a0 0e3b 7e79 193b
00000090: 325e 373b 6085 b23a 5a37 d93a ca3c 5b3b
000000a0: 266c 953b fb96 343b 4837 033b 101f 463b
000000b0: a9bc 2b3c a601 d13b 7d2c 37bb 2560 aa3b
000000c0: c5a2 d436 7263 36bb 8515 a13c e6a4 5d39
000000d0: b6ef d5b9 377e f338 ed6d 71bb 2039 eb3a
000000e0: 9773 843a e57a 2f3b 9376 9b39 7f34 073a
000000f0: d8b3 18ba 7969 80ba b0fd 1a3a b67c 9439
00000100: f250 d23a 64c9 c039 e9e5 9d3b b519 11ba
00000110: f943 25bc 8932 473b bbca 45b9 52f1 3abc
00000120: 96ca 153c 50e1 0139 75ea 053b 6f9b 9b38
00000130: 9eba b53a da35 9c3a 4b42 9b3a a1a8 4f3b
00000140: f98e 013b c34e 6f3a 0cf0 6f3a 5134 903a
00000150: c921 433b 4ea1 1e3a d627 003b 5f6c 273b
00000160: 5abe f7ba 1f01 e0ba ae80 a039 c8ba c139
00000170: 1a94 51b9 7790 c038 3980 88bb c186 a2b9
00000180: 550f c639 1e8b 1639 1814 9eba 56ae 413a
00000190: 2c9c 5aba 8600 243a 191a a339 d814 0eb9
000001a0: 61ae 5039 f69b e239 31fa 14ba 7460 9639
000001b0: 4440 1ab9 16b5 ba38 0dd8 e0bb e2ad c239
000001c0: 51d5 0b3d 9193 f139 6c74 7b3a 7ecb 0d3d
000001d0: c2ec d5bb 9a91 8a3a 5c33 f1ba f572 1bbb
000001e0: 8a9c c4bb bf78 9bbb adaf 1dbb 9db3 32bc
000001f0: 7c04 c6bb 9ace 36bb 4dde 2cbb 218c a1bb
00000200: 1f28 0ebc e169 90bb 94d5 bfbb e55b a4bb
00000210: 92c4 1dbc dd1e 5abb bdca 4d3c fd14 a3bb
00000220: 6a36 91b9 572e 633c 4a82 84bc 7f97 83ba
00000230: f381 49bb bd3c 8fba 9b29 d03a 40c0 a2bb
00000240: ed6a 4ebb ac82 ddba ab14 8bba fded a1ba
00000250: 6fbe 4fba 3ad4 b4ba b9e2 3ebb ae19 dbba
00000260: 718b f7ba 7b1c 69bb
0.00030130876 -0.0007952272 -0.010331163 -0.001668419 -0.0003994631 -0.01026385 -0.00216315 -0.00041125357
0.00030196368 0.0009545291 0.0022998685 0.002091106 0.001464081 0.0017431985 0.0016282824 0.0008024531
0.00085516664 0.0019088604 0.0024661915 0.0015539166 0.001209619 0.0016873728 -4.7452586e-06 -0.0009803134
-0.01825555 -0.003485917 8.044799e-05 -0.018213801 -0.004625286 0.00015794921 0.0021146054 0.001769113
0.0045815823 0.002921915 0.0021763374 0.0023418362 0.0027979729 0.0013620071 0.0016572282 0.003345298
0.0045600114 0.0027555812 0.0020021964 0.0030230917 0.010481992 0.0063783703 -0.00279501 0.0051994496
6.337041e-06 -0.002783027 0.019663582 0.00021137632 -0.00040805124 0.00011610652 -0.0036839203 0.0017946102
0.0010105249 0.0026776132 0.00029652248 0.0005157664 -0.00058251387 -0.0009797058 0.0005912436 0.00028321677
0.0016045852 0.00036771141 0.004818667 -0.00055351417 -0.010087007 0.0030395112 -0.00018862907 -0.011410074
0.0091425385 0.00012386334 0.0020433937 7.419928e-05 0.001386482 0.0011917904 0.0011845318 0.0031686204
0.0019769056 0.0009128863 0.0009152896 0.001100192 0.0029774776 0.0006051258 0.0019554994 0.0025546772
-0.0018901334 -0.0017090178 0.00030613452 0.00036950991 -0.00019986965 9.182182e-05 -0.004165676 -0.00030999447
0.00037776926 0.0001435694 -0.0012060432 0.0007388344 -0.00083393115 0.00062561815 0.00031109227 -0.0001354994
0.00019901387 0.0004322228 -0.00056830334 0.00028682093 -0.00014710525 8.902901e-05 -0.0068616928 0.00037132116
0.03413898 0.00046077048 0.00095922383 0.034617893 -0.006528468 0.0010571957 -0.0018402147 -0.0023719643
-0.006000106 -0.0047446187 -0.002406101 -0.010907081 -0.006043015 -0.002789414 -0.0026377619 -0.0049300347
-0.008676558 -0.004407153 -0.005854318 -0.0050158375 -0.009629386 -0.0033282556 0.012560544 -0.004976867
-0.00027697097 0.013866029 -0.016175408 -0.0010039656 -0.0030747622 -0.0010928136 0.001588154 -0.0049667656
-0.0031496838 -0.0016899905 -0.0010611018 -0.0012354251 -0.00079248 -0.0013796159 -0.0029126836 -0.0016716027
-0.0018886161 -0.0035569954

exp_avg_sq f4 [7, 22]
00000000: 914c 2637 e450 df36 9e15 8439 eb71 d236
00000010: f09d 8136 61a9 8739 8f97 a437 3a5c c036
00000020: e66b e737 7eb6 5536 a0e6 b336 558f ae36
00000030: c7fa 9236 8087 4c36 d0c8 8836 76af de35
00000040: 4a28 8e36 8f93 a936 9ed4 9137 2662 bf36
00000050: ae48 4736 0737 f136 d4ae 1937 0e0d 3d36
00000060: 1165 a139 47ae ad37 7ef7 ae34 b4ac 9d39
00000070: 8618 9138 13ee f034 cca6 be36 a7c1 9536
00000080: 2e8b af37 a0f8 f236 795a cc36 136d a036
00000090: 13f9 0d37 cdb4 0536 5b25 d336 af03 1837
000000a0: 3d3e 8837 e338 f436 54a0 2a36 4dce 0937
000000b0: a98e c238 0dd2 1338 f2ac 223b 38e1 5839
000000c0: 2441 c335 9ef3 1e3b f1ef 583a 61de f635
000000d0: 137e 2838 788a f237 5e2d 7439 bda5 6038
000000e0: af13 2c38 a723 0338 a016 3e38 bb66 6c37
000000f0: 171b 5c38 e72a b138 de98 0c39 c6f4 7838
00000100: b586 9137 447d 8b38 ea9e 6238 e78d 0637
00000110: 2f63 0c3b 2eb9 5139 0000 8436 ac20 033b
00000120: f254 1a3a 8fcd 9e36 0a28 0a38 b2df a238
00000130: 98a4 5d38 d25c ac38 c71e 3438 f17c c837
00000140: 5bfb 6a38 7fd6 5337 08cd 0b38 7708 9338
00000150: 5217 d638 3a1d 9038 7958 9537 c671 5738
00000160: 86d1 9d37 2146 c936 847b cf3a 413c ac38
00000170: 2ed3 5935 a373 c73a 1280 e938 8c09 0436
00000180: e8ac 1d38 3e4a b237 5f42 2538 8bb1 1038
00000190: d8d6 ad38 d22e be37 6ceb dc37 9000 4037
000001a0: d2ca af37 8559 2b38 be07 c138 7584 1b38
000001b0: 6234 8a37 b403 2b38 9a17 5238 256b 0e36
000001c0: 008c e53a 1350 9437 b0ed 8035 4ff9 e93a
000001d0: 554e 4738 3589 bf35 9696 9b37 a9b5 6b37
000001e0: 0570 4538 8e81 4038 e2e7 cb37 f7d5 0539
000001f0: d8f3 5038 0be1 5237 bbde a437 efc9 2b38
00000200: 2ec1 e038 0cd7 1338 c835 fa37 8899 3a38
00000210: 071d 5439 59f4 6237 c461 233b 6462 8938
00000220: 3a9e c336 470f 2d3b 402e ef39 5429 1e37
00000230: 7234 4738 8686 e937 f036 3338 73f3 dd38
00000240: 6db1 8338 23c5 3f38 4de6 0639 3c39 a137
00000250: 5022 f537 5dc9 7d38 7b24 1839 f0c3 6238
00000260: d550 1038 9bb2 c638
9.912198e-06 6.655335e-06 0.00025193108 6.2717495e-06 3.862886e-06 0.00025875404 1.9620898e-05 5.7327825e-06
2.758759e-05 3.1845698e-06 5.361464e-06 5.20229e-06 4.3803334e-06 3.047724e-06 4.0764935e-06 1.6591355e-06
4.23662e-06 5.0537706e-06 1.7384355e-05 5.7036696e-06 2.9695616e-06 7.1887657e-06 9.160216e-06 2.8170793e-06
0.00030783613 2.0704361e-05 3.25901e-07 0.00030074047 6.918707e-05 4.4876705e-07 5.681859e-06 4.46309e-06
2.0926436e-05 7.241106e-06 6.090206e-06 4.7810695e-06 8.462247e-06 1.9923784e-06 6.292639e-06 9.060764e-06
1.6241445e-05 7.278389e-06 2.5425297e-06 8.2138695e-06 9.2772134e-05 3.5243156e-05 0.0024822322 0.00020683266
1.4547591e-06 0.0024254094 0.00082755 1.8393149e-06 4.0171737e-05 2.8913128e-05 0.00023286554 5.3560118e-05
4.1026327e-05 3.1266038e-05 4.53206e-05 1.4090615e-05 5.2477317e-05 8.448009e-05 0.00013408388 5.935577e-05
1.7348075e-05 6.651369e-05 5.40306e-05 8.020062e-06 0.0021421423 0.00020000778 3.9339066e-06 0.0020008488
0.00058872916 4.732697e-06 3.2939053e-05 7.7664285e-05 5.2843796e-05 8.218888e-05 4.2944008e-05 2.3900038e-05
5.602404e-05 1.2626521e-05 3.3331133e-05 7.011083e-05 0.00010208659 6.871899e-05 1.7803382e-05 5.1365954e-05
1.8813425e-05 5.998431e-06 0.0015829657 8.212822e-05 8.1146106e-07 0.0015216958 0.00011134161 1.967509e-06
3.759275e-05 2.1253825e-05 3.940088e-05 3.4497625e-05 8.2893006e-05 2.2671567e-05 2.633567e-05 1.1444223e-05
2.0956071e-05 4.085295e-05 9.204399e-05 3.707824e-05 1.6475275e-05 4.0773026e-05 5.0089882e-05 2.1222015e-06
0.0017513037 1.7680262e-05 9.605919e-07 0.0017850789 4.751825e-05 1.4270541e-06 1.8547562e-05 1.4049388e-05
4.7072786e-05 4.5897024e-05 2.4307465e-05 0.00012763577 4.981816e-05 1.2569372e-05 1.965404e-05 4.0957642e-05
0.00010717135 3.524781e-05 2.9827366e-05 4.4488843e-05 0.00020228709 1.3527541e-05 0.00249301 6.550996e-05
5.829873e-06 0.002640681 0.0004562009 9.427156e-06 4.749414e-05 2.7838407e-05 4.272809e-05 0.00010583447
6.279615e-05 4.5721546e-05 0.0001286503 1.9219347e-05 2.9222254e-05 6.0507435e-05 0.0001450944 5.406508e-05
3.4407556e-05 9.4746436e-05

exp_avg f4 [7, 7]
00000000: 8625 dfb9 ef27 073a cd75 013b 6758 0f3b
00000010: da53 063b 1307 1a3b 325d ee3a f7fc 7e3a
00000020: cc34 833a 8bcd aa3b 3ed5 683b 73a7 2b3b
00000030: d2d5 383b de89 253b 9afa f739 d42f 2fba
00000040: 1e05 47bc 04d5 3e3b 9ee1 483b ad55 ca3b
00000050: 9536 023b 680b 5c3a 9d58 253a f1cb 493b
00000060: 9911 04bc aa90 933a 96b0 e13b 63e3 d53b
00000070: 4ddd 93b9 aaaf 4fb8 a81c 0d3b 8351 0f3b
00000080: f151 10bc 8ef0 0a3b a000 393b 971c bcba
00000090: 8705 b3ba c80b abba 2935 3dbb 1d16 7dba
000000a0: 9313 dabc 0a05 8b39 0fb1 08ba b345 a1b9
000000b0: c69d b13a 01a7 72b9 5ba1 21ba 311c 103b
000000c0: 0ff3 7abc
-0.00042561832 0.0005155792 0.0019754053 0.002187276 0.0020496757 0.0023502752 0.0018185733 0.0009727026
0.0010010242 0.005212491 0.0035527493 0.0026192337 0.0028203619 0.0025259177 0.00047298224 -0.0006682847
-0.012147216 0.0029118666 0.0030652056 0.006174764 0.001986896 0.00083940336 0.0006307455 0.0030791725
-0.008060836 0.0011258323 0.0068875058 0.0065273507 -0.00028202907 -4.9516246e-05 0.0021531973 0.0021868653
-0.008808599 0.002120051 0.0028229132 -0.0014351782 -0.0013658263 -0.0013049776 -0.0028870797 -0.0009654479
-0.026620662 0.000265159 -0.0005214372 -0.00030760243 0.0013551048 -0.00023141132 -0.00061657064 0.002198946
-0.015316739

exp_avg_sq f4 [7, 7]
00000000: 1126 c937 c5f4 1236 26a2 a336 d1bf 4537
00000010: da56 c036 b5d0 8236 3f08 c136 873b f935
00000020: 87f1 4336 ff04 0938 70e3 8d37 d0ce 0b37
00000030: 0864 eb36 5192 1237 fc7d de36 0f25 d937
00000040: 47be e039 5b7e d338 68e6 3338 8c1c ca37
00000050: 6c1b 2838 2420 b336 0424 5637 d83f 3938
00000060: 8d23 f139 1542 0138 1730 cc37 ad68 9c38
00000070: 6a04 ed36 c2b2 2737 cf1f f637 9836 9238
00000080: 163c 6839 65ed 4337 c42a 1b38 aada af36
00000090: f2ad dc36 d289 8d37 a0f2 3a38 d692 8537
000000a0: 5e6f d439 6bdf 0538 1510 4237 54cd 5b37
000000b0: 915a 4b38 0e38 b738 70f3 3b38 df23 1838
000000c0: 3a59 cd39
2.3978793e-05 2.189817e-06 4.876655e-06 1.1786776e-05 5.7321568e-06 3.8985986e-06 5.752808e-06 1.856927e-06
2.9197852e-06 3.2668e-05 1.6914419e-05 8.333198e-06 7.015191e-06 8.736345e-06 6.630782e-06 2.5885673e-05
0.00042866377 0.000100847996 4.289151e-05 2.409357e-05 4.007986e-05 5.3383574e-06 1.27637795e-05 4.4166896e-05
0.0004599359 3.081754e-05 2.4341089e-05 7.458157e-05 7.0636643e-06 9.995596e-06 2.9340297e-05 6.9719914e-05
0.00022147628 1.1678178e-05 3.699471e-05 5.2408623e-06 6.576761e-06 1.6872687e-05 4.4571818e-05 1.5923211e-05
0.00040518766 3.1917745e-05 1.15670455e-05 1.3101224e-05 4.8483318e-05 8.736561e-05 4.4810993e-05 3.627303e-05
0.00039167126

exp_avg f4 [7]
00000000: e1c4 2b3c 0d49 993c ea62 eb3a d29c 343c
00000010: f18a 2039 7488 0cbd 2343 5cbc
0.010483951 0.018711591 0.0017958556 0.011023717 0.00015310549 -0.03430982 -0.013443741

exp_avg_sq f4 [7]
00000000: b984 8d39 ae7c a939 962e 2d3b 07f5 103b
00000010: 2dcf d33a fc91 ed3a 7ef0 323b
0.00026992502 0.00032327086 0.0026425472 0.0022118704 0.0016159766 0.0018125172 0.002730399

exp_avg f4 [7]
00000000: 93cd 2b3c b246 993c 18ed ea3a 9ca9 343c
00000010: 851f 2439 da85 0cbd e03e 5cbc
0.010486024 0.018710468 0.0017923443 0.011026766 0.00015652001 -0.03430734 -0.013442725

exp_avg_sq f4 [7]
00000000: 8e85 8d39 147b a939 b22e 2d3b dcf4 103b
00000010: 27cf d33a 8991 ed3a 76f0 323b
0.00026993122 0.00032325892 0.0026425538 0.0022118604 0.0016159759 0.0018125038 0.002730397

exp_avg f4 [7, 22]
00000000: 8ae7 1d38 0cea 043b c51e 4ebc 7e20 e2ba
00000010: dca2 fa3a f956 4cbc b115 1fbb 8459 0e3b
00000020: 4e1d 713a f194 8a3a 39ef 293b 8097 403b
00000030: a8f9 0e3b aa5f c83a c6d0 d53a 7452 933a
00000040: d3f6 4f3b 64bc 643a e7bf 573b 143a 863a
00000050: e162 073b be95 aa3a b221 57bc edae 14b9
00000060: 7f5e 2dbc 899a 31bc 41ca 5f3b b4ab edbb
00000070: f14b 08bd 1d2f 56ba c26d 023b 0f86 d1bb
00000080: 0fc6 343b 43e2 ad3b afc0 0e3b fcdd 243b
00000090: 904e afb9 719f 873a 26f4 1f3a bd0d a839
000000a0: d3cb 4b3b eef3 283a a786 403b 15d5 25ba
000000b0: 109a 0e3a ef80 933a 7950 adbb 74cd cdb9
000000c0: 41d4 753a c8ae afbb 3838 2c39 c574 983a
000000d0: 8f58 2b3a 81e1 2f3a 5023 883a d79e 7b3a
000000e0: b7af 573a 4e05 293a 9565 403a b0ee f139
000000f0: b958 b93a 953f c739 8684 b63a 878a e739
00000100: f9cb 523a 10c6 243a ad1b fe3b 948d d63b
00000110: 4109 04bd b586 3d3b 3572 823b 8c97 0bbd
00000120: 7355 853c b9c8 c93b 218f 103b e68f a03b
00000130: 0365 b33b c7d4 ac3b 64cd ae3b 2e16 b63b
00000140: a1e0 ad3b f3a2 203b 4b79 1f3c cea7 1b3b
00000150: 30ed 023c 1553 2d3b 2591 963b 2a82 8b3b
00000160: 590f 0f3a ba1d ac3a 346c aebb cd4f acb9
00000170: 0475 803a 0114 b3bb 14b4 3339 8c81 b23a
00000180: 8851 563a d0b0 573a 0957 fa39 2017 b43a
00000190: 107e ca39 cf26 7c3a 6e56 543a 2638 f739
000001a0: 6863 b33a 1221 d739 e676 b23a a210 003a
000001b0: 5932 703a ec33 243a 1912 cd3b 325f 1ebc
000001c0: bb7d 783d b877 503c 9fbd 2abc fdf2 713d
000001d0: affe ac3c 5760 20bc 351b bbbb 7d34 22bb
000001e0: f180 febb eb2b 86bc 36de 20bc 3e69 42bc
000001f0: d343 e3bb fcd3 a1bb d93a 75bc 0113 84bb
00000200: 326f 7abc c5a0 a4bb d1e6 32bc a484 bdbb
00000210: e314 deba baaf babb d8d8 023d 0cb5 743a
00000220: 7b00 a5bb 88fb 023d 177b 0e3b 463b 94bb
00000230: 3aca 49bb 78c0 3439 c5f5 21bc b8a7 acbb
00000240: a358 a3bb faac 86bb 4c37 a2bb c288 38bb
00000250: c130 05bc 2318 0dbb ec15 0fbc 52c4 1bbb
00000260: 0ce2 9dbb 3a33 4abb
3.7647354e-05 0.0020281104 -0.012580578 -0.0017252115 0.0019122022 -0.012471908 -0.0024274404 0.0021720836
0.0009197787 0.0010572952 0.0025929941 0.0029387176 0.0021816287 0.0015287299 0.001631283 0.0011239783
0.0031732812 0.0008725582 0.003292078 0.0010240697 0.0020658302 0.0013014597 -0.013130592 -0.00014179545
-0.010581612 -0.010840067 0.0034147652 -0.0072531346 -0.03327555 -0.00081704726 0.0019901847 -0.006394155
0.0027583872 0.0053065135 0.002178233 0.0025156727 -0.00033437135 0.00103472 0.00061017496 0.00032053693
0.003109683 0.000644504 0.0029377134 -0.0006326002 0.0005439827 0.0011253635 -0.005289134 -0.00039253721
0.00093776366 -0.0053614117 0.00016424141 0.001163148 0.00065363286 0.0006709323 0.00103865 0.0009598559
0.00082277827 0.0006447629 0.00073393557 0.00046144938 0.0014140821 0.0003800361 0.0013924993 0.00044162964
0.00080412586 0.0006285617 0.007754764 0.006547639 -0.032235388 0.0028919403 0.0039808997 -0.034080073
0.016276097 0.006157961 0.0022057968 0.0048999665 0.005474688 0.0052743885 0.005334543 0.0055568432
0.005306319 0.0024511188 0.009733508 0.0023751142 0.00799112 0.0026447226 0.0045949393 0.00425746
0.0005457304 0.0013131418 -0.0053229574 -0.00032865853 0.0009800498 -0.005465031 0.00017137855 0.001361893
0.0008175601 0.0008227946 0.00047748562 0.0013739802 0.00038622366 0.000961882 0.0008100037 0.00047153345
0.0013686242 0.00041032635 0.0013615757 0.0004885291 0.0009162776 0.00062638405 0.006258261 -0.009666251
0.06066678 0.012723856 -0.010421186 0.059069622 0.021117536 -0.009788594 -0.0057100304 -0.0024750524
-0.007766836 -0.016378364 -0.009818604 -0.011865912 -0.0069355755 -0.0049386006 -0.014967644 -0.0040305858
-0.0152853 -0.005024048 -0.010919289 -0.0057836343 -0.0016943481 -0.005697218 0.03194508 0.00093348394
-0.0050354577 0.03197816 0.0021740848 -0.0045236675 -0.0030790702 0.00017237838 -0.009885256 -0.005269017
-0.0049849316 -0.004109976 -0.0049504396 -0.0028157686 -0.0081293 -0.002152928 -0.008733254 -0.002376814
-0.0048182067 -0.0030853287

exp_avg_sq f4 [7, 22]
00000000: 890b e536 931f 3e38 d1b8 da39 9301 6437
00000010: f639 1b38 3178 db39 69f9 2238 d8be 3b38
00000020: 7280 1938 d34e 9436 9163 2037 ee2f 6937
00000030: 2ffd 1b37 3c83 8e36 1e77 d136 d9c1 a736
00000040: bcd5 dc37 1627 5836 a540 0438 8efd 6a36
00000050: 5180 0237 c5d1 b836 29c4 203a 4750 b039
00000060: c794 943b d45e 0139 fce8 0939 33e8 aa3b
00000070: 2ab1 143b 2e07 d139 e997 c938 736d 9139
00000080: fa32 0e39 fb3c d238 d0fd d538 833e 4438
00000090: 800e 0439 48ff 2d38 5a2f c039 d04a 2438
000000a0: 7b8e ac39 9923 2038 a079 9838 39d1 c838
000000b0: 0e50 7836 03b6 4b36 f772 4538 4682 d835
000000c0: ceb6 e435 c065 5338 9df3 8737 a725 6836
000000d0: 6807 9f35 7870 0a36 8f9e c435 9d13 af35
000000e0: 3dd6 9b35 906e 1335 f318 a135 3432 0e35
000000f0: 829c 5936 f46c ee34 4032 6036 a661 d134
00000100: 4151 4e35 6aef 4a35 40c1 d938 346f 8739
00000110: 5b93 a03b 8ac5 7b39 e045 6e39 4ad7 9c3b
00000120: a4c5 8a3a 0cb4 9539 0220 2439 80a7 a338
00000130: 0091 1739 22f5 5a39 044f f338 de6e 5238
00000140: 9e29 be38 14cc 7638 04fa 9a39 51ea 0c38
00000150: 3636 b639 0849 2438 c7d5 d238 7488 6a38
00000160: 3576 5136 8775 7237 b98d a039 c320 2937
00000170: 95fd 4537 c0fc 9d39 9258 9b37 7cd6 7137
00000180: ab16 d836 de70 8636 0880 1437 8809 f736
00000190: ae71 9d37 bf03 7f36 9683 a736 ff40 5336
000001a0: 77b5 ac37 3b65 0736 6707 b237 e003 1636
000001b0: 3625 b836 ce0a 7d36 d5e8 b737 c1bb d838
000001c0: a287 493b 5bed bd38 5841 bf38 2d82 453b
000001d0: bcbf 8439 50be df38 cbea 3738 edb3 b137
000001e0: 2f77 c738 a976 2239 72d2 b638 adbf dc38
000001f0: af57 4238 5f5f e537 df2a 5439 5cbf 9937
00000200: 1372 5539 3208 bd37 dbc0 9538 949d 0238
00000210: 2081 4938 a358 7738 d950 af3a 9304 1b37
00000220: 98d7 1a38 e11f b73a 3565 0f39 6719 6f38
00000230: 5556 a237 0de8 d737 aff6 9b38 9892 0638
00000240: 75f2 0338 9f9c 8237 41e9 6738 bd9d 4b37
00000250: c9e1 c638 8f4d 1737 7a45 c938 6f30 1e37
00000260: 46c2 cb37 466c 9237
6.8260747e-06 4.5328936e-05 0.000417179 1.35902255e-05 3.700886e-05 0.00041860485 3.885609e-05 4.476201e-05
3.6597667e-05 4.41992e-06 9.559925e-06 1.3899042e-05 9.297669e-06 4.2472075e-06 6.2425524e-06 4.9995547e-06
2.6325572e-05 3.220926e-06 3.1531457e-05 3.5016305e-06 7.77848e-06 5.5080477e-06 0.0006132746 0.00033629147
0.004534337 0.00012337725 0.00013152132 0.0052156686 0.0022688606 0.00039868936 9.612722e-05 0.000277381
0.00013561166 0.00010024939 0.00010203908 4.678826e-05 0.00012593903 4.1484163e-05 0.00036656373 3.917032e-05
0.00032912553 3.8180126e-05 7.270579e-05 9.575714e-05 3.7001478e-06 3.0355302e-06 4.707553e-05 1.6131169e-06
1.7040527e-06 5.0401082e-05 1.6206695e-05 3.459261e-06 1.1848579e-06 2.0629068e-06 1.4649285e-06 1.3044224e-06
1.1610751e-06 5.4922657e-07 1.2002696e-06 5.297218e-07 3.242662e-06 4.4410228e-07 3.340785e-06 3.9000332e-07
7.685922e-07 7.559926e-07 0.00010383362 0.0002583206 0.0049003786 0.00024010814 0.00022723479 0.0047864066
0.0010587466 0.0002855364 0.00015652183 7.803645e-05 0.00014454499 0.00020881419 0.00011601861 5.0171155e-05
9.067658e-05 5.8841033e-05 0.00029559445 3.3596825e-05 0.00034754135 3.9168663e-05 0.000100533995 5.591703e-05
3.1212232e-06 1.4451688e-05 0.0003062317 1.0080813e-05 1.1801157e-05 0.00030133687 1.8518684e-05 1.4414658e-05
6.4399405e-06 4.0066507e-06 8.851297e-06 7.362283e-06 1.8768795e-05 3.8000142e-06 4.9923065e-06 3.1479283e-06
2.0588499e-05 2.0175491e-06 2.12227e-05 2.2353997e-06 5.4879592e-06 3.7706227e-06 2.192372e-05 0.000103346545
0.003075101 9.056433e-05 9.119761e-05 0.0030137405 0.00025319855 0.00010668917 4.3849268e-05 2.1183829e-05
9.511259e-05 0.00015493728 8.717635e-05 0.0001052612 4.6334866e-05 2.7343338e-05 0.00020233866 1.832813e-05
0.00020355759 2.2534372e-05 7.140796e-05 3.114117e-05 4.804239e-05 5.897194e-05 0.0013375535 9.239785e-06
3.691725e-05 0.0013971293 0.00013675245 5.70057e-05 1.9352106e-05 2.5738054e-05 7.436924e-05 3.2084616e-05
3.145864e-05 1.557014e-05 5.5291926e-05 1.2136469e-05 9.4834315e-05 9.018359e-06 9.597368e-05 9.428811e-06
2.4289951e-05 1.7454975e-05

exp_avg f4 [7, 7]
00000000: 529f 54b9 afcc 1e3b bc2f 053a 52fd 693b
00000010: 9ec5 7b3a 6b5e 643b 4d3e 0a3b 412a 8a3a
00000020: da87 50bc da80 2d39 d279 cf3b 54ea d03a
00000030: 581f 0f3c c09b 3b3b fcbf ad39 e879 c13a
00000040: df7b 7839 fb1b 963a cc67 bd39 ba9a 8b3a
00000050: a4c4 6f3a 5434 053b d368 473c adf6 c73a
00000060: fc8c 3fbb ae94 243b 4afa 323c 8b26 003c
00000070: 36ad c539 bfff d43a 3580 6139 600d b53a
00000080: dd5e 8cba e229 293b f242 0c3a c621 2fbb
00000090: 36b0 ecbb 0639 19bb 0f19 f3bb 5e76 82bb
000000a0: ca58 16bd 2631 1eba 8d42 f8ba 444f bbba
000000b0: ca51 c5ba 3b98 b7bb 3ea5 dbba 7b38 80ba
000000c0: 23d5 9bbc
-0.00020277247 0.0024230888 0.00050806603 0.003570397 0.00096043374 0.0034846317 0.0021094263 0.0010541157
-0.012727702 0.00016546567 0.006331661 0.0015938976 0.0087355 0.002862677 0.0003314017 0.0014761062
0.00023697269 0.0011452431 0.00036126224 0.001065097 0.0009146428 0.002032538 0.012170988 0.001525601
-0.002922832 0.0025113034 0.010923931 0.007821689 0.0003770382 0.0016250535 0.00021505433 0.001381319
-0.0010709424 0.0025812318 0.0005350552 -0.0026723011 -0.0072231544 -0.0023379936 -0.0074187587 -0.0039813956
-0.03670577 -0.00060345454 -0.0018940732 -0.0014290591 -0.0015054282 -0.005602864 -0.001675762 -0.0009782457
-0.01902253

exp_avg_sq f4 [7, 7]
00000000: 9f60 0938 8f21 7a37 9aa9 c935 7914 5938
00000010: c4be 1536 8705 1637 90f8 8e36 c738 c137
00000020: fa6d 9b3a b0e8 8b37 647c a239 2e58 ae37
00000030: 7302 5938 f3a8 6d38 c5c2 0035 c2db 0a37
00000040: 08dd 4834 be5c 8f36 6b5f 8934 428e 9235
00000050: ae28 8635 c90e 0138 cac0 9339 9ea2 6937
00000060: 5250 8a3a 3170 df37 e665 b338 bab0 2938
00000070: c19d 2736 0e1e 8a37 b903 8435 e76a 9537
00000080: 2cdf b037 b1f0 cb36 75f8 3436 959b 3937
00000090: a86f d138 2eb2 ea36 cfe6 1639 5055 8837
000000a0: 62e6 133a b429 9937 aacd d436 d0b9 f338
000000b0: d852 8436 7b09 6a38 7ce6 e236 30f7 7837
000000c0: 6891 2239
3.275333e-05 1.4908975e-05 1.5025028e-06 5.17559e-05 2.231377e-06 8.941984e-06 4.2608663e-06 2.3033832e-05
0.0011858337 1.6678445e-05 0.00030991726 2.0783478e-05 5.1739113e-05 5.666255e-05 4.796714e-07 8.276607e-06
1.8706862e-07 4.2725287e-06 2.5587664e-07 1.091925e-06 9.995617e-07 3.0769766e-05 0.00028181664 1.39257445e-05
0.0010552502 2.6635915e-05 8.554365e-05 4.045733e-05 2.4976764e-06 1.6464877e-05 9.83585e-07 1.7811964e-05
2.1084757e-05 6.0778916e-06 2.6966711e-06 1.1063084e-05 9.986694e-05 6.9944863e-06 0.00014391098 1.625219e-05
0.00056419347 1.825844e-05 6.342035e-06 0.00011621753 3.943551e-06 5.5798777e-05 6.7621568e-06 1.4839505e-05
0.00015503692

exp_avg f4 [7]
00000000: 0e84 523c 5a6d 033c de3f b53b d47f 0b3d
00000010: 351f b93b 089d 79bd 1a82 03bd
0.012848867 0.008021677 0.005531295 0.034057453 0.005649472 -0.060940772 -0.032106496

exp_avg_sq f4 [7]
00000000: 7237 f739 a239 b43b 08aa 6238 1776 ad3b
00000010: c13e ab39 c843 523b 83f5 bd3a
0.0004715282 0.0055000344 5.4040953e-05 0.0052936184 0.00032662417 0.0032083858 0.0014492724

exp_avg f4 [7]
00000000: 7684 523c 6b61 033c 0137 b53b 167c 0b3d
00000010: 910d b93b 1b9f 79bd b27f 03bd
0.012848964 0.008018832 0.0055302386 0.034053884 0.005647369 -0.06094275 -0.0321042

exp_avg_sq f4 [7]
00000000: 7e37 f739 b839 b43b 1ba5 6238 1a76 ad3b
00000010: 7c3e ab39 0444 523b 4df5 bd3a
0.00047152856 0.0055000447 5.4036365e-05 0.00529362 0.00032662216 0.0032083998 0.0014492661

exp_avg f4 [7, 22]
00000000: d9c2 ccbb 07d1 ce39 600e cabc 2d9c 0abc
00000010: ed34 a03a 900a bdbc 9e0d a9bc db84 c53a
00000020: 7d73 5d3a 3e42 0b3b ea47 8c3b 515e d53b
00000030: 7b0e 583b 8f78 8e3b 2261 5c3b 8bc3 4f3b
00000040: 407c 313b 0d5d 043b 64f7 493b 3f2c a03b
00000050: e17a 823b 1d92 a13b 078f b2bb 2de5 433b
00000060: ba32 03bd 2693 3fbc 04d1 793b e359 f9bc
00000070: 3388 b4bc f420 913b 676e 7a3b 7e43 0e3b
00000080: 3a3c b73b ba50 053c c474 893b 2872 973b
00000090: 5645 8e3b 61b7 893b 09c6 7d3b d546 363b
000000a0: 2fea 803b ae25 d83b 1811 ae3b f001 cb3b
000000b0: 101c 9dbb de14 103a 9535 f3bb 387a cdbb
000000c0: 50a4 cd3a 74d2 cabb 8229 64bc 0255 813a
000000d0: 00fb 623a 4dcd 353a 4805 7439 e698 fa3a
000000e0: 5947 5a3a 1166 ac3a 14a2 823a 619f 7d3a
000000f0: cfec e139 848a 0039 2a51 7b3a a355 db3a
00000100: a7d1 773a c368 e43a 8fab 93bb fa7e 0a3b
00000110: 0cfd ecbc bca9 23bc cd97 503b be91 e1bc
00000120: bc73 9abc 70aa 643b a3b1 4c3b b9ed 263b
00000130: aeca aa3b 4a7f d83b b634 613b 74ef 973b
00000140: 207b 8a3b 5378 783b 3105 673b 8d78 293b
00000150: 1a0e 6d3b 80dd c03b 2056 9a3b 5341 b93b
00000160: 6503 613c 941c 2ebc dfdb be3d 1b8a fd3c
00000170: 38f5 3fbc c6e4 b43d 8f67 853d d6b5 50bc
00000180: 318d 31bc 7a1c e9bb 345f 5ebc 5f2e dfbc
00000190: ac7e 71bc 2a19 34bc 7ce7 28bc af0b 4dbc
000001a0: d585 3cbc d17b 06bc 9c50 30bc b3ef 9abc
000001b0: 9ada 81bc 1ac0 8bbc d4e8 543a 12fe b3b9
000001c0: 0f65 683b 664c b73b 9bcc 9dba de44 b83a
000001d0: 6371 423c 06cf a4ba 84dd 203a 6ae6 a2b9
000001e0: b2f2 133b 8159 013a d182 be3a 683e ddbb
000001f0: 43a5 1aba 3523 6fba dcee 1939 da52 8ab8
00000200: 8172 21ba d2f9 0eba 071f b839 fbec 9cba
00000210: 470a af3b 0b3d 9c3b 930f a1bb dea4 5aba
00000220: 1489 4d3b 2f71 71bb 5aae 56bb fa9d 663b
00000230: 0de1 dc3a 1473 07b9 ac6f 7fbb 3127 853b
00000240: 4e62 dc3a f3e1 303b 9fce c9ba 73be b43a
00000250: fff0 723a 91b8 543a 96dc a0b6 3282 2e3a
00000260: d19f 4a3a cba1 5937
-0.0062488136 0.0003944712 -0.024665058 -0.008460087 0.0012222804 -0.023076326 -0.020636376 0.0015069501
0.000844769 0.00212492 0.0042810338 0.0065114875 0.0032967615 0.004347868 0.0033627232 0.0031702246
0.0027082115 0.0020197064 0.0030817622 0.004888087 0.0039819335 0.004930748 -0.005449179 0.0029891238
-0.0320308 -0.011692798 0.0038118968 -0.03043837 -0.022037601 0.004428977 0.0038212778 0.002170771
0.0055918964 0.0081369225 0.0041948278 0.004621763 0.0043417616 0.0042027687 0.0038722774 0.0027813215
0.003934167 0.0065962886 0.0053120963 0.0061952993 -0.004794605 0.00054962735 -0.007422159 -0.006270673
0.0015689228 -0.0061896387 -0.013925912 0.0009867253 0.0008658618 0.0006935194 0.00023271621 0.0019119054
0.00083266717 0.0013152977 0.0009966516 0.00096749334 0.0004309178 0.00012258632 0.00095869845 0.0016733896
0.0009453543 0.0017426241 -0.0045065354 0.0021132813 -0.028929256 -0.009989198 0.0031828762 -0.027535316
-0.018854015 0.0034891628 0.003123381 0.0025471284 0.0052121496 0.006606971 0.0034363694 0.0046366993
0.0042261034 0.0037913516 0.0035250897 0.0025859207 0.0036171735 0.00588578 0.004709974 0.005653539
0.0137337195 -0.010626931 0.09319281 0.030949643 -0.01171618 0.088326976 0.06513893 -0.012738666
-0.010836885 -0.0071139904 -0.013572503 -0.027243791 -0.014739674 -0.010992328 -0.010309096 -0.012514993
-0.011506517 -0.008208231 -0.010761406 -0.018913126 -0.015851308 -0.017059375 0.00081218523 -0.00034330838
0.0035460626 0.005593824 -0.0012039127 0.001405861 0.011867854 -0.0012573905 0.0006136524 -0.0003107072
0.0022575078 0.00049342966 0.0014534836 -0.006751824 -0.00058992597 -0.0009122373 0.00014680199 -6.595785e-05
-0.0006158725 -0.0005454096 0.00035118332 -0.0011972481 0.0053418013 0.004768019 -0.0049151867 -0.0008340607
0.0031362223 -0.0036841144 -0.003275773 0.0035189376 0.0016851738 -0.00012917473 -0.0038976474 0.00406351
0.0016813965 0.0026990145 -0.0015396661 0.0013789668 0.00092674786 0.0008114661 -4.794051e-06 0.0006656974
0.0007729503 1.2971878e-05

exp_avg_sq f4 [7, 22]
00000000: d6b5 b938 f4d2 e038 2499 7c3a 5076 eb38
00000010: eaf4 0039 65ea 773a 6f85 2d39 77c9 0f39
00000020: fd7a d738 0eb0 8837 1e93 a837 822a 0538
00000030: 8d44 9237 912d 6037 354f 7e37 0d5b d437
00000040: d1b9 0538 5fca 3d37 e5ed e237 1a05 f437
00000050: 9aae e837 1a26 d237 c577 b439 4766 1637
00000060: 04ab d33a 0690 1f39 f652 1037 e302 ed3a
00000070: 6e4c 693a 5cf4 5937 b807 cd37 b7b3 2539
00000080: 1492 2138 49f1 4638 2ca5 0338 4586 7f37
00000090: 3ef7 0a38 2f1f 0f38 15f4 8838 825b 0c38
000000a0: 5405 3c38 0d11 0f38 0789 6038 2fe0 f437
000000b0: 901e fe39 e429 8437 637e a73a d6fa 3639
000000c0: f8d1 e035 560c d13a 823a d73a bf01 b737
000000d0: 9d1d b537 a443 ba37 dd3c 1339 73a8 4538
000000e0: 0456 0238 ec4e 9a37 841e d837 efe8 db37
000000f0: 06b0 8538 5bd9 1d38 9791 e137 45b0 0138
00000100: fe55 8138 6b23 b037 5aba 1038 9dc0 9936
00000110: 88cd b739 d3da 5a38 5c3b d636 53e5 ad39
00000120: 8695 5c39 0d12 0637 1dee be36 6f8b f736
00000130: 8aa5 6137 a356 5c37 f1a4 de36 efb6 0e37
00000140: 065a 5237 b12e f036 f78f fc36 1c0f 4936
00000150: 95af 5137 0739 1a37 629b 1c37 84a3 3e37
00000160: b56d 2339 28a0 cb38 8300 8f3b b542 113a
00000170: 01aa 0a39 57ab 803b 05f0 1c3b ab9b 2a39
00000180: 0d2a 8638 7044 1a38 96c4 fe38 66c2 9239
00000190: b422 ff38 b624 8038 1399 ad38 4fd7 c338
000001a0: d53e 9e38 5180 f437 4f73 0139 dd27 0539
000001b0: 4efd f238 ee0b 1439 fbbf 3539 1b46 ad37
000001c0: 82b5 1a3b c1f4 013a 81a6 2638 8d90 043b
000001d0: 30f5 eb3a fb99 5738 205f ea37 5d90 0538
000001e0: 0541 6638 0de0 c138 7f2e 1b38 d9cb f338
000001f0: 999a 7738 5273 6138 bdf2 2a38 c266 9037
00000200: 7900 ad38 7d75 8738 4fd7 5a38 143f b238
00000210: c750 6539 dd2b 1c37 1b30 373b 4460 c439
00000220: 977d ad37 feb9 2c3b 2ee7 a93a b4aa cc37
00000230: 6ac1 0138 35a1 0938 54dd 2439 a17b ae38
00000240: e1fb 3c38 9010 fb37 44b6 2839 bc15 4038
00000250: 0883 3938 12c6 8737 f3c9 e338 4d34 af38
00000260: caaa 9338 281d de38
8.855357e-05 0.000107204454 0.0009635857 0.00011227711 0.00012298269 0.000945723 0.00016548274 0.00013712594
0.00010274907 1.6294445e-05 2.0095667e-05 3.174926e-05 1.7436478e-05 1.336205e-05 1.5158022e-05 2.5314768e-05
3.1882726e-05 1.1312396e-05 2.7052078e-05 2.9089442e-05 2.773786e-05 2.5051693e-05 0.0003442151 8.96451e-06
0.0016148989 0.00015217075 8.602385e-06 0.0018082525 0.00088996335 1.2991102e-05 2.4441499e-05 0.00015802575
3.8521437e-05 4.7431593e-05 3.1386662e-05 1.52304465e-05 3.3132026e-05 3.41229e-05 6.530449e-05 3.3463824e-05
4.4827655e-05 3.4109737e-05 5.353338e-05 2.919146e-05 0.00048469426 1.5755133e-05 0.0012778755 0.00017450316
1.675041e-06 0.0015949111 0.0016420635 2.1816113e-05 2.1590671e-05 2.2204425e-05 0.00014041686 4.712534e-05
3.1074524e-05 1.8394981e-05 2.5763416e-05 2.6215303e-05 6.374721e-05 3.7634145e-05 2.6889886e-05 3.092016e-05
6.1672166e-05 2.0997328e-05 3.450583e-05 4.5821785e-06 0.00035057613 5.2179046e-05 6.3846073e-06 0.0003316799
0.00021036537 7.991225e-06 5.6901613e-06 7.377406e-06 1.3449588e-05 1.31331935e-05 6.6353173e-06 8.506452e-06
1.2537936e-05 7.157993e-06 7.526945e-06 2.9960129e-06 1.2498252e-05 9.192393e-06 9.3345025e-06 1.1362954e-05
0.0001558576 9.709626e-05 0.0043640747 0.0005541251 0.00013224037 0.0039266753 0.0023946774 0.00016270454
6.3974505e-05 3.67802e-05 0.00012148281 0.00027992128 0.000121658115 6.1103536e-05 8.277795e-05 9.338429e-05
7.5457305e-05 2.9146819e-05 0.00012345354 0.00012698719 0.00011586641 0.00014118824 0.00017333023 2.0655852e-05
0.0023606722 0.00049574306 3.9732553e-05 0.002022776 0.0018002149 5.14034e-05 2.793927e-05 3.184412e-05
5.4896827e-05 9.24469e-05 3.6998183e-05 0.000116251125 5.903337e-05 5.375158e-05 4.0757226e-05 1.7213988e-05
8.249371e-05 6.4591855e-05 5.2175772e-05 8.4994506e-05 0.00021869234 9.308537e-06 0.0027952257 0.00037455757
2.068169e-05 0.0026355977 0.0012962574 2.4398185e-05 3.0936128e-05 3.281348e-05 0.0001572271 8.319994e-05
4.5057273e-05 2.9929244e-05 0.00016089628 4.579661e-05 4.422947e-05 1.6185488e-05 0.000108618195 8.354392e-05
7.041318e-05 0.00010591216

exp_avg f4 [7, 7]
00000000: 1bc9 1739 a2b7 fe3a 844f c63a ec02 063b
00000010: ac4b 193c 44e5 b23b 4d7e 8d3b f87d 493b
00000020: 1bb5 db3a 6e23 0d3b 6c1f 2d3b ffa9 453c
00000030: 0e44 b03b b173 c13b 0d00 5e3a f027 063a
00000040: 8147 f3ba c214 243a fbba 513b b093 e33a
00000050: 3261 e93a cd89 2f3b 404c 1d3b 7ee1 ef3a
00000060: 1ed5 1c3b 0edd 043c 7345 c23b 6f6d d33b
00000070: 0f67 01bc e3c0 fdbb 3e1e a7bb a3dc e8bb
00000080: c225 4dbd c1eb 17bc 21f2 f8bb 0628 3fba
00000090: 9ad9 b637 01ad 0039 6691 5aba 7258 1e3c
000000a0: 0314 56bc 3c04 033b 6b39 e53a 318e 8d3a
000000b0: ad3f 843a 365f c638 c754 163c d1b7 603b
000000c0: 693f 44bc
0.000144754 0.0019433389 0.0015129899 0.002044852 0.0093564205 0.0054594595 0.0043180347 0.003074525
0.0016762348 0.002153601 0.0026416434 0.012064456 0.0053792065 0.005903684 0.00084686355 0.00051176455
-0.0018560739 0.00062591967 0.0032002318 0.001736274 0.0017805456 0.0026785017 0.0024001747 0.0018301455
0.0023930739 0.008109344 0.005928689 0.0064522545 -0.007898106 -0.007743941 -0.0051000407 -0.00710638
-0.050084837 -0.009272517 -0.0075972234 -0.0007292036 2.179742e-05 0.0001227148 -0.0008337706 0.009664642
-0.013066295 0.0019991538 0.0017488425 0.0010799823 0.0010089778 9.45911e-05 0.009175486 0.003428925
-0.011978009

exp_avg_sq f4 [7, 7]
00000000: ca3a 0639 b35b e537 262d 1037 3340 7937
00000010: f9a1 0838 c49d d437 4fbb 9137 957f ae37
00000020: 2fd8 b039 11eb ca37 077d a837 6b5e 2d38
00000030: a6fd ef37 d695 d937 3a40 7337 196c 3b38
00000040: ba75 7a39 1f3d 6437 14f2 9f37 e1e8 1938
00000050: e2d2 4d37 3ad2 b436 34c8 4237 636f bb36
00000060: 7575 cc36 b204 8c37 c1e7 9937 95b9 fb37
00000070: 5bb9 4e38 c25c 2738 8c4e b137 9635 7338
00000080: 8cc6 443a 104d 8c38 ed38 e538 c976 f837
00000090: ef61 2638 2a4a bd37 c8d6 3438 766d a338
000000a0: 766b 9539 3fa8 8e38 7743 d437 35a1 cb37
000000b0: 45a4 4337 7af4 5c38 e1db 9938 43a2 2c38
000000c0: f8ef 0d3a
0.00012801136 2.7341628e-05 8.593581e-06 1.4856504e-05 3.2575776e-05 2.5345835e-05 1.737257e-05 2.0801826e-05
0.00033730405 2.4189738e-05 2.0085381e-05 4.1334348e-05 2.8609134e-05 2.5938189e-05 1.4498883e-05 4.4684948e-05
0.00023885714 1.360409e-05 1.9067003e-05 3.6694928e-05 1.2268052e-05 5.3888916e-06 1.16099145e-05 5.5860014e-06
6.0933476e-06 1.6691487e-05 1.834694e-05 3.000795e-05 4.9286853e-05 3.990229e-05 2.113662e-05 5.798562e-05
0.00075063924 6.690074e-05 0.00010930174 2.9619217e-05 3.9668692e-05 2.2565091e-05 4.3115375e-05 7.7928344e-05
0.0002849956 6.802426e-05 2.5303785e-05 2.4274554e-05 1.1661153e-05 5.2679774e-05 7.336564e-05 4.1159114e-05
0.0005414481

exp_avg f4 [7]
00000000: 92ee ca3c dbaf 063d 1a0f e03b 0f14 f43c
00000010: 9d2e c2bd 2c50 39bb 7495 953b
0.024771962 0.032882553 0.0068377377 0.029794721 -0.09481547 -0.0028276546 0.0045649353

exp_avg_sq f4 [7]
00000000: ebfd 9b3a 1841 013b 1167 e93a ee5d cd39
00000010: 32d2 973b fd47 283b 5027 473b
0.0011901235 0.0019722637 0.0017807205 0.0003917063 0.0046332115 0.0025677674 0.0030388422

exp_avg f4 [7]
00000000: 62f6 ca3c 5ab5 063d 2509 e03b 391c f43c
00000010: ba2f c2bd 1994 39bb 5f65 953b
0.024775688 0.032887794 0.0068370276 0.029798614 -0.09481759 -0.0028317033 0.0045592035

exp_avg_sq f4 [7]
00000000: 65fe 9b3a 7141 013b 3267 e93a fb63 cd39
00000010: 74d2 973b dc47 283b 9427 473b
0.0011901377 0.0019722844 0.0017807244 0.00039175138 0.0046332423 0.0025677597 0.003038858

exp_avg f4 [7, 22]
00000000: 1307 96bb ae68 bdbb c12e 653c 9237 023c
00000010: 0c2c dabb 2006 833c 4f94 b5ba 5e92 d3bb
00000020: 68a9 68bb 9433 88ba 390d 513b 84f3 cdbb
00000030: ef34 49bb d741 beba 62c8 f5ba f22a efba
00000040: f448 b6ba c515 70bb 54e8 fdba 0b4c a2ba
00000050: 8cdb 2fbb 3dd7 b0ba 9cf2 133b 4567 bf38
00000060: fbb5 28bc cbaf c43a 4749 5a37 33db 2abc
00000070: ddcf 873b 292e 0cb8 d607 913a 6c59 613a
00000080: 95fb bf3a e682 193b 3c49 d23a cd65 033b
00000090: f8e8 ca3a 0e2e f23a ad64 5f3a a69b 493b
000000a0: 8e5d ab3a 1f7b a03a 3621 a33a becf b33a
000000b0: d466 98bc 739e 3c3b 0c9b 273d 16a3 aebc
000000c0: e1fa af3a ebe4 273d 43e0 20bd 021a 213b
000000d0: 5d79 2fbb b2ff 81bb 5967 4cbc ae7b c3bb
000000e0: ba46 e9bb 7809 5cbb aebf 06bc 1351 1cbc
000000f0: 3a25 3fbb ff7d 56bc fe93 91bb 39c3 94bb
00000100: 750f 70bb 2492 b7bb d867 9dbb 1f0d 923a
00000110: 5108 2dbc e00d bebb aaa6 1e3b ccba 28bc
00000120: 03f3 5abc 491c 8c3a f233 ca39 95b4 133a
00000130: 1023 b73a 833d 303a ea94 b13a 4b54 e43a
00000140: 5b5f 213b e5ec 903a 9a29 0f3a c806 4f3b
00000150: f40f 853a 05f7 6639 2be6 953a 2c11 b53a
00000160: 3007 163c 993d 25b7 f8f3 efbc c0c2 ea3b
00000170: 41cf 5db8 dcaf f4bc 7a82 903c c449 21b9
00000180: f2ea 3c3b 0798 403b 3405 a03b e959 da3b
00000190: 1c49 a73b d466 933b f66a 923b 2b2b b93b
000001a0: b51e 1c3b 6352 123c cced 6b3b 6969 6b3b
000001b0: 4299 5b3b 20a3 803b ae9f 643c 49d0 6239
000001c0: c0a4 2a3b 43d8 273c 1f58 f73a 2386 1d3b
000001d0: 0dc0 d33c d5ec ec3a 9adc 0339 03d4 e3b8
000001e0: 6f8b b93a 97c0 86b9 a3e6 b53a bf61 9dbb
000001f0: 2baf 1b3a e797 983a 647b 9ab9 01cf 26ba
00000200: 4d45 36ba 8bee c036 c03a 44ba fee1 eab9
00000210: 9e91 3e3c c501 28ba d96d 8dbc 7974 453c
00000220: d62b 8bb7 8b34 96bc b374 d73c 8667 98b9
00000230: 809d de3a 1fda cb3a 2bc9 9c3b c9e6 833b
00000240: 8521 663b 0a70 643a 8795 463b 9166 983b
00000250: f8a0 b03a 0e62 bb3b 7a58 fc3a 01a6 ff3a
00000260: 3074 e33a 84c5 0c3b
-0.00457848 -0.005780301 0.013988198 0.007947819 -0.006658083 0.015994132 -0.0013853404 -0.0064566573
-0.0035501365 -0.0010391348 0.003189875 -0.006285133 -0.0030701717 -0.0014515471 -0.0018751735 -0.0018247052
-0.001390724 -0.003663407 -0.0019371607 -0.0012382282 -0.002683374 -0.001349188 0.0022575026 9.126825e-05
-0.010297294 0.0015006004 1.3010874e-05 -0.010428238 0.0041446523 -3.342159e-05 0.0011064957 0.0008596394
0.0014647121 0.0023423969 0.0016043554 0.0020049692 0.0015480807 0.001847686 0.0008521777 0.003076294
0.0013074146 0.0012243724 0.0012445811 0.0013718528 -0.01860372 0.0028780967 0.04091935 -0.021318
0.0013426208 0.040989798 -0.039276373 0.0024582152 -0.002677522 -0.003967249 -0.012475812 -0.0059656715
-0.007119027 -0.003357498 -0.008224411 -0.009540814 -0.0029166476 -0.013091563 -0.004442691 -0.004539874
-0.0036630307 -0.005602138 -0.004803639 0.0011142826 -0.010561065 -0.005799994 0.0024208226 -0.010298442
-0.013363603 0.0010689582 0.00038567145 0.0005634514 0.0013972241 0.0006723033 0.0013548408 0.0017420141
0.0024623487 0.0011056928 0.0005461216 0.0031589735 0.0010151849 0.00022026531 0.0011436393 0.0013814322
0.009156987 -9.849108e-06 -0.029291138 0.0071643293 -5.2883526e-05 -0.029869013 0.017640341 -0.00015381636
0.0028826562 0.002938749 0.0048834328 0.00666355 0.005105151 0.004498342 0.004468317 0.005650898
0.0023822014 0.008930775 0.0035999892 0.0035920984 0.0033508097 0.003925696 0.013954086 0.00021630632
0.002603814 0.010244432 0.0018870867 0.002403625 0.025848413 0.0018075953 0.00012575314 -0.00010863694
0.0014155934 -0.00025701962 0.0013877939 -0.004802912 0.0005938883 0.001164195 -0.00029465102 -0.00063632434
-0.00069530756 5.749816e-06 -0.0007485561 -0.00044800335 0.0116313975 -0.0006408955 -0.017264294 0.012051695
-1.6590504e-05 -0.018335601 0.026300764 -0.0002906883 0.0016984195 0.0015552676 0.0047847233 0.0040253145
0.0035115194 0.0008714205 0.0030301528 0.0046508987 0.0013475707 0.005718476 0.0019252442 0.0019504429
0.0017353352 0.0021480033

exp_avg_sq f4 [7, 22]
00000000: e532 9739 6d00 4638 b445 413b fef9 fe38
00000010: 7518 9638 49af 4a3b f201 5c3a 9a1d 7e38
00000020: f1c9 2b39 4b94 0038 6021 6838 b0c6 1939
00000030: 1a2f a238 d28d 2b38 a9e8 9b38 bc20 b538
00000040: d806 bc37 3fe6 4f39 0e02 3e38 4bb3 a238
00000050: b7ed 5338 698f 5538 d9a2 c037 828c 7335
00000060: 4c01 0439 d4e4 fc36 d619 e734 01c6 1439
00000070: fc84 7938 57f4 8e35 3cac 3736 c0a4 1e37
00000080: 588b 0b36 0673 8336 7f13 2a36 8aec 2036
00000090: 5f86 4036 db6f 8136 4b0e 7b35 2026 0537
000000a0: 95c5 0b36 dae7 b736 e7d4 e935 51f9 1d36
000000b0: 6e72 ed39 f704 0637 0162 923b c77b 073a
000000c0: 0bb3 2637 b92d 903b 0e3a fb3a 7a91 0d37
000000d0: 1b1a 4738 b4c2 5b38 51b2 9039 4c9f 0a39
000000e0: fa9b d338 ae1c 8b38 4561 1639 e223 2b39
000000f0: d310 e037 e4ee 9439 a692 6f38 7073 1139
00000100: bb21 5938 5bac c338 9866 9e39 b4e8 4d36
00000110: bc24 793a 1fef 7139 1e11 3a37 330f 853a
00000120: 8421 b53a 014f 8136 c3fe cd37 3043 8637
00000130: abc3 0b38 998d 5938 6d0b df37 c852 b237
00000140: b99a be37 3853 3638 4e96 0437 29d8 7f38
00000150: 86ac 7c37 f042 3738 a40d 7237 8ae5 a537
00000160: 681c 5838 31dd b335 7c27 e539 ab53 4938
00000170: d714 ea35 979b e639 c1b7 6039 b8b6 c235
00000180: 460f d736 124e d336 2e57 9937 b8c5 9337
00000190: 6a50 4b37 4766 fe36 b74d 5737 540e 7737
000001a0: 82e9 3f36 4d1f e637 dea9 ca36 785f 7737
000001b0: 1022 b936 8edf 1537 1b57 6438 fc76 ca36
000001c0: 6bb3 943a 0362 4a38 0e25 7736 9d06 953a
000001d0: d7b2 6e39 bccb 6e36 cfe2 9037 d4d7 4837
000001e0: 5629 8e37 4109 1f38 e034 9c37 6457 8038
000001f0: 7b8f 0238 2f8e a737 58f1 1837 3706 ab38
00000200: cf11 b637 9bfa e737 db54 8e37 72af 9e37
00000210: 472a 3238 ddad ad36 f667 b13a 901b e038
00000220: 776a 0336 7aea a83a 6254 a939 fc40 e635
00000230: d852 5537 8380 5a37 5098 d937 a721 1838
00000240: bc1c 6d38 d833 e137 de20 9138 30b2 d037
00000250: 1697 2537 7f77 b238 4ba4 bc37 b1be 2538
00000260: c909 9e37 5564 e037
0.00028838884 4.7207275e-05 0.002949101 0.000121582285 7.157113e-05 0.0030927232 0.0008392624 6.0585888e-05
0.0001638306 3.0655687e-05 5.5344193e-05 0.00014665234 7.733535e-05 4.0901657e-05 7.434312e-05 8.63685e-05
2.2414533e-05 0.00019826832 4.5301444e-05 7.758158e-05 5.052771e-05 5.091672e-05 2.2964015e-05 9.072902e-07
0.00012588984 7.5368243e-06 4.30459e-07 0.00014188142 5.9490078e-05 1.0650937e-06 2.7369379e-06 9.455893e-06
2.0793723e-06 3.9174947e-06 2.5343322e-06 2.3979542e-06 2.8688444e-06 3.8575213e-06 9.3525585e-07 7.936294e-06
2.0827622e-06 5.480816e-06 1.7421816e-06 2.3539944e-06 0.0004528942 7.988178e-06 0.0044672494 0.00051682856
9.936058e-06 0.004399982 0.0019167082 8.438126e-06 4.746961e-05 5.2395e-05 0.00027598676 0.00013220048
0.00010090317 6.6333785e-05 0.0001434135 0.00016321198 2.6710715e-05 0.00028406747 5.7118617e-05 0.00013871281
5.1768246e-05 9.330428e-05 0.00030212547 3.0682831e-06 0.000950407 0.0002307263 1.1090449e-05 0.0010151624
0.0013819193 3.853697e-06 2.4556537e-05 1.6005331e-05 3.3322412e-05 5.1868705e-05 2.6588992e-05 2.1257802e-05
2.2721813e-05 4.3469685e-05 7.902809e-06 6.0998053e-05 1.5060539e-05 4.369294e-05 1.44275e-05 1.977642e-05
5.152487e-05 1.3400914e-06 0.00043707702 4.8000056e-05 1.7440424e-06 0.00043984942 0.00021430758 1.4507305e-06
6.4092774e-06 6.2973786e-06 1.8279618e-05 1.7615836e-05 1.2118466e-05 7.5816965e-06 1.2833093e-05 1.4725683e-05
2.8597137e-06 2.7432712e-05 6.0398443e-06 1.4744575e-05 5.517395e-06 8.933142e-06 5.444056e-05 6.0339207e-06
0.0011344975 4.8251834e-05 3.6827437e-06 0.0011369769 0.00022764072 3.5583353e-06 1.7271754e-05 1.197118e-05
1.6946968e-05 3.7917172e-05 1.8621271e-05 6.1197934e-05 3.1128042e-05 1.997416e-05 9.116098e-06 8.155073e-05
2.1704383e-05 2.7654043e-05 1.6967233e-05 1.8916766e-05 4.247788e-05 5.176042e-06 0.0013535011 0.00010686286
1.9582492e-06 0.0012887262 0.00032297062 1.7155248e-06 1.2715078e-05 1.3023734e-05 2.5939342e-05 3.6270965e-05
5.6531964e-05 2.6846232e-05 6.920261e-05 2.4878507e-05 9.869944e-06 8.509959e-05 2.2487851e-05 3.951666e-05
1.8839624e-05 2.6749602e-05

exp_avg f4 [7, 7]
00000000: 0325 aabc 29b7 a3ba f062 1c3c 04b5 3d3a
00000010: 465b 3bba d279 bfba 879f 25b9 2a88 0f3b
00000020: b843 e939 8cc4 473b 23fa b63a 5d85 513a
00000030: 685b d13a 6db1 c03a 1c79 55bb 41a1 08bb
00000040: 342d 01bd eaf1 32b9 3dc5 4cbb ec34 c6b9
00000050: 1d2b 54bb fb19 8f3b d4d8 0d3a 26de ed3b
00000060: aa7b 01bc 5e51 7337 fa99 0a3b 0e7a 0e3b
00000070: 664d b53b 4b7e ec3a 2585 383c 6949 863b
00000080: 2752 193b db4a 3b3b 63b6 673b b5cf 693b
00000090: 8d42 1eb9 afb3 6f3b 4a21 be39 b1a5 cfb7
000000a0: 9c56 18bc 5526 7239 af80 c73b 5863 7b3a
000000b0: 24bb 433c d192 e23a b609 8a3a 1049 f13a
000000c0: 1e1a 88bb
-0.020769602 -0.0012490499 0.009545073 0.0007236751 -0.00071470847 -0.0014608449 -0.00015795055 0.0021901228
0.00044491678 0.0030482141 0.0013960045 0.000799259 0.0015972676 0.0014701315 -0.0032573408 -0.0020848068
-0.03153725 -0.00017065523 -0.0031245493 -0.00037804933 -0.003237433 0.004367111 0.0005411033 0.007259148
-0.007903019 1.45028735e-05 0.0021148906 0.002174023 0.0055329083 0.0018043009 0.011262213 0.0040981066
0.0023394914 0.0028578553 0.0035356514 0.0035676782 -0.00015092846 0.0036575606 0.00036264426 -2.4753479e-05
-0.009297993 0.00023093198 0.0060883383 0.00095896935 0.011946473 0.0017286186 0.0010531459 0.0018408615
-0.004153504

exp_avg_sq f4 [7, 7]
00000000: 4e2f 0a3a 5a54 4c37 86fc 5139 c65b f637
00000010: 7025 0838 0c8c cc37 f397 cc37 16d7 8e36
00000020: fcb6 1437 7ec4 c936 e30e fc35 3363 6036
00000030: 935a 3036 f259 4036 af7e f038 0c86 8d37
00000040: df98 863a f748 1a38 78e9 7b38 6abf 1338
00000050: 1710 6c38 0a4a 0b38 6a23 8e36 805a 6038
00000060: 0fa9 1d39 2c24 c737 a2f9 3237 d654 7137
00000070: 5dab 8b37 9ad5 3936 9253 9538 daa0 0f37
00000080: 9f6a e436 7cc8 9236 6cce 2e37 a7b8 9d37
00000090: 5b1c 9b36 3a46 6738 2e0b 6637 2104 5337
000000a0: 635d 2d39 5a78 3037 edcc c237 8cc4 9936
000000b0: 48c3 e138 539e 3f37 2a4b 9837 2f1f 2137
000000c0: 4405 4839
0.0005271331 1.2178987e-05 0.00020025866 2.936822e-05 3.2459793e-05 2.438391e-05 2.4389452e-05 4.256969e-06
8.864092e-06 6.0131415e-06 1.8779796e-06 3.3436343e-06 2.6278765e-06 2.8662585e-06 0.000114676885 1.687093e-05
0.0010268948 3.6784415e-05 6.0060498e-05 3.52258e-05 5.628177e-05 3.3209137e-05 4.2360525e-06 5.3490046e-05
0.00015035666 2.3739492e-05 1.0667749e-05 1.4384472e-05 1.6649888e-05 2.769148e-06 7.12044e-05 8.560915e-06
6.807342e-06 4.3744785e-06 1.04192695e-05 1.8801844e-05 4.622661e-06 5.5140095e-05 1.3711671e-05 1.2577541e-05
0.00016533355 1.0518439e-05 2.3222028e-05 4.5826364e-06 0.0001076521 1.142135e-05 1.8154813e-05 9.603608e-06
0.00019075448

exp_avg f4 [7]
00000000: 62b5 66bc 203a 333c fb66 33bd 465e 0c3c
00000010: 45c4 003d a620 d8ba 6a86 9f3c
-0.014081331 0.010939151 -0.04379938 0.008567398 0.031437177 -0.0016489222 0.019473273

exp_avg_sq f4 [7]
00000000: cc85 573b e5a1 1d39 784d a23b d4ac a53a
00000010: 7810 013a 331b 9d3a 3106 b83a
0.0032886146 0.00015032997 0.0049530827 0.0012640008 0.00049234135 0.0011986255 0.0014039931
