data_10frm/model/0_3_13_16.pt (torch_old, 18399 bytes, 52 tensors)

rnn.weight_ih f4 [7, 22]
000000 7c af 01 3e bc 1a 35 be 17 f5 43 be 15 4b d5 be
       0.12664598 -0.1768598 -0.19136463 -0.41658846
000010 77 be ab bd ec 8a 3c be d5 12 9d 3e 01 35 e2 3d
       -0.08385938 -0.1841237 0.3067843 0.11045266
000020 2f e2 34 3e 70 41 c7 be 64 f2 6b 3e 89 17 76 bd
       0.17664407 -0.38917112 0.23041683 -0.06008104
000030 a4 6c ad be 8e 82 80 3e 01 2c ee bd 2a df a9 3e
       -0.3387195 0.25099605 -0.11629487 0.33178073
000040 7f 0e 79 be b1 59 b3 be 59 8b 8c be 17 5c 24 3e
       -0.24321936 -0.35029367 -0.27450064 0.16050754
000050 08 15 64 bc bb e4 b6 be 93 9b 95 3d 91 9d 2d bc
       -0.01392103 -0.35721382 0.07305064 -0.010596649
000060 85 0c 5f 3e bd e6 49 be 05 97 86 be 30 9f a8 3e
       0.2178212 -0.19716926 -0.26287094 0.3293395
000070 54 9e 3b be 1c 46 9d 3e 68 04 66 3e 40 3e 77 be
       -0.18322116 0.30717552 0.22462618 -0.2414484
000080 05 72 8b be 3d f7 70 bd 0d bd e8 be ea 07 34 bc
       -0.27235427 -0.058829535 -0.45456734 -0.010988215
000090 d8 8c 82 be 76 fa 72 be 38 c9 bd be 67 55 b2 3d
       -0.2549808 -0.23728356 -0.3706758 0.087076955
0000a0 44 ce a3 be 24 54 b1 be 76 fc 40 be b6 39 94 be
       -0.31993306 -0.34634507 -0.18846306 -0.2895028
0000b0 63 c2 88 be 9c a1 4b bd 39 df 5c be 4e 17 cd 3e
       -0.26710805 -0.04971467 -0.21569528 0.40056843
0000c0 c1 98 0e 3e 8a 8d 9f be 54 4b d7 bd 29 a8 9c be
       0.13925458 -0.31162673 -0.105124146 -0.30597046
0000d0 9b 28 78 3e 41 7e 1e 3d 2e 5a c7 bc be fc 97 3e
       0.2423424 0.038694624 -0.024334993 0.29685014
0000e0 20 c9 db 3e 99 cf a4 3e 06 a1 5c be db 20 2d 3c
       0.42926884 0.32189634 -0.215458 0.010566915
0000f0 6d 9b 4c bc 66 d7 d0 3e 59 23 09 be 90 40 29 be
       -0.012488228 0.40789336 -0.1339239 -0.16528535
000100 47 3a 71 3d 1e d7 8a bc 27 1d 67 3e 71 95 01 be
       0.05889347 -0.016948279 0.22569714 -0.12654664
000110 6a 81 4d be e6 ec bf 3e 0b 76 a9 3d 00 8c d1 3d
       -0.20068899 0.37485427 0.08274468 0.10231781
000120 db 62 79 be 97 9f d9 3c 33 48 7a 3e f6 78 cf 3d
       -0.24354117 0.026565356 0.24441604 0.10130493
000130 4a cf 1a be 0c f8 46 3d 2b b2 1e be 4a f5 ad 3e
       -0.15118137 0.0485764 -0.15497653 0.33976203
000140 3d e7 a0 3e d7 5d 0d bd b3 7f 84 be a2 6d 46 3e
       0.3142642 -0.03451332 -0.25878677 0.19377759
000150 f9 af 38 3e a3 f9 57 3e 84 88 9c be 95 23 e0 3d
       0.18035878 0.21091323 -0.30572903 0.10944287
000160 93 fc b3 be 00 53 c0 be 8c ca 1d bd f2 e0 33 3c
       -0.35153636 -0.37563324 -0.038523242 0.010978924
000170 aa 4c 1b 3e fe b9 d5 bd 4d 0e 2b 3d 96 42 8c 3e
       0.15165964 -0.10435866 0.041761685 0.2739455
000180 f9 9c a1 3d 88 08 44 bb a8 23 80 be 27 c4 89 3c
       0.07891268 -0.0029912312 -0.25027204 0.016817166
000190 4e 45 94 3d f0 8b 18 bd 4b 59 f4 be 46 6e b7 be
       0.07239781 -0.03724283 -0.47724375 -0.3582632
0001a0 94 85 92 3d de ec df 3c c1 cb be 3b b1 74 aa be
       0.07154384 0.027334627 0.005822629 -0.33292153
0001b0 d6 57 9c be 85 d6 fc be f9 59 f5 be c7 37 ab 3e
       -0.30535764 -0.49382415 -0.47920206 0.33440992
0001c0 b0 cc a5 be e3 fe 9f be 29 f1 0a 3d 95 93 75 be
       -0.32382727 -0.3124915 0.033921394 -0.2398208
0001d0 8c b1 1e be e8 ad f4 bd f2 71 0d 3e 07 f5 92 be
       -0.15497416 -0.119472325 0.13812998 -0.28702566
0001e0 76 3b 07 3b 43 23 ac be fe c5 53 3e b2 9e e2 3e
       0.0020634807 -0.33620653 0.20680997 0.442617
0001f0 99 e8 01 be c8 92 c9 3c 8d d5 35 be cf bd 67 be
       -0.12686385 0.024606124 -0.17757244 -0.22631
000200 e1 81 2a be 43 4d 3a be 05 26 ca 3d 7d de 03 bd
       -0.16651107 -0.18193536 0.09870533 -0.032194603
000210 17 19 6a be 0c 89 68 be 01 5d 54 be 94 2c 06 bf
       -0.22861134 -0.22708529 -0.20738603 -0.5241177
000220 1a 08 8a be 2e fd b3 3e b2 7e b0 bd 7c 0c bb be
       -0.26959306 0.35154098 -0.08617915 -0.36532962
000230 d0 6a 01 be 82 f8 10 bc 19 d6 91 3d 01 68 96 3e
       -0.12638402 -0.008848311 0.07120914 0.29376224
000240 95 14 b2 3d a7 bc 85 3e 2e 1d 06 be 60 43 da bd
       0.08695332 0.26120493 -0.13097069 -0.10657382
000250 71 86 81 be 23 bf 36 3d 5a eb a7 3e e9 5f 5a 3e
       -0.25297883 0.044615876 0.32796746 0.2132565
000260 da 0e b7 3e 74 6b 45 be
       0.35753518 -0.19279271

rnn.weight_hh f4 [7, 7]
000000 a7 62 5b 3d b5 76 9f 3d be a1 40 3e 6c 96 d3 be
       0.05356088 0.077863134 0.188117 -0.413257
000010 53 e8 45 be 97 7e 8a 3d af e9 83 be 7e 88 0c 3d
       -0.19326906 0.06762426 -0.25764224 0.034309857
000020 a0 16 bc 3c 30 d9 56 be 6b f9 a8 3d 5f 5f 75 3e
       0.022960007 -0.20981288 0.08250698 0.23962162
000030 e9 4e 7f 3e 1a b6 87 3d 6f fd e7 3c 50 6c aa 3e
       0.24932446 0.0662653 0.028319089 0.3328576
000040 5f 49 dd 3e f4 a0 63 be 8f d7 65 3e 4c 57 e0 3c
       0.4322004 -0.22229367 0.2244551 0.027385376
000050 b9 75 02 be 83 26 2e be f1 8f f0 bd 36 ce bf be
       -0.1274022 -0.17006879 -0.11746205 -0.37462014
000060 72 7e c1 3b aa ab 10 3e 14 2c 49 3e 6c dd 49 bd
       0.005904966 0.14127985 0.1964572 -0.04928343
000070 c3 67 11 bf 9a 24 4d bc 75 8b 9e be c6 a4 d1 3d
       -0.5679895 -0.0125209335 -0.30965772 0.10236506
000080 42 38 09 bf 51 6b 9c be be b7 d8 3d 63 90 61 3d
       -0.5360147 -0.30550626 0.10581921 0.05506934
000090 21 70 37 be 74 5b c6 be f6 19 d0 bc 61 41 14 3e
       -0.17913868 -0.38741648 -0.025403004 0.14478065
0000a0 f1 44 52 be 75 e0 b4 be 8f 5f 16 be d9 ec f7 bd
       -0.20534112 -0.35327497 -0.1468489 -0.12105722
0000b0 1e d8 e3 3d ba 03 d3 be 1e 48 9e bd 8b 5c b3 be
       0.111252055 -0.4121378 -0.07728599 -0.35031542
0000c0 66 6a c0 3c
       0.023488235

rnn.bias_ih f4 [7]
000000 e5 3c 43 be 7e ea 31 3d 71 c1 7a be 32 43 9c be
       -0.19066198 0.04343652 -0.24487855 -0.30520016
000010 ef 1a e2 be c1 cb a4 be df 90 4e 3e
       -0.44161174 -0.32186702 0.20172451

rnn.bias_hh f4 [7]
000000 cf 8c 53 bd b3 26 92 be c2 1a ac 3e 00 c4 bf bd
       -0.051647957 -0.2854515 0.33614165 -0.09363556
000010 88 bb 01 bd ef 34 dd bd 9c c4 b4 be
       -0.031672984 -0.10801112 -0.3530625

exp_avg f4 [7, 22]
000000 ba 75 6e 39 5d 96 19 ba e5 33 e7 bb 59 58 8f ba
       0.00022741305 -0.00058588927 -0.007055747 -0.0010936364
000010 b1 9d a2 b9 b2 c4 e5 bb f5 b4 bb ba 2d 42 aa b9
       -0.00031016537 -0.0070119733 -0.0014320897 -0.00032474232
000020 44 72 92 b8 a6 16 20 3a 59 14 e3 3a 5b ce c9 3a
       -6.983106e-05 0.00061068905 0.001732479 0.0015396582
000030 38 60 7d 3a 6f 9a a8 3a 27 44 8e 3a 9a 7d ff 39
       0.0009665522 0.0012863408 0.0010854051 0.0004873097
000040 1d 59 f4 39 e0 69 b1 3a 87 b8 e2 3a fb 05 81 3a
       0.000466057 0.0013535582 0.0017297425 0.0009843701
000050 72 45 88 3a 87 17 8f 3a 35 c9 34 b8 e1 ce 06 ba
       0.0010396673 0.0010917046 -4.3102733e-05 -0.00051425217
000060 45 63 09 bc 51 1b d2 ba 02 c3 ed 37 fa 23 09 bc
       -0.008385484 -0.001602987 2.834341e-05 -0.008370394
000070 0f 3d 10 bb 48 61 76 38 79 d0 56 3a fb 25 3a 3a
       -0.002200905 5.874157e-05 0.0008194517 0.00071009964
000080 a6 73 1c 3b 47 c5 b8 3a 8b 31 6e 3a 67 f0 8f 3a
       0.0023872643 0.0014096879 0.0009086362 0.001098168
000090 cb cd a4 3a c1 77 13 3a 8b 20 19 3a 76 8e d8 3a
       0.0012573538 0.00056254497 0.0005841336 0.0016521949
0000a0 7f 8b 10 3b 26 cf 98 3a 6d f6 92 3a c6 80 aa 3a
       0.0022055802 0.0011658415 0.0011212357 0.0013008348
0000b0 f2 f8 31 3c b6 06 ce 3b e6 5f fa bb 52 68 96 3b
       0.010862576 0.006287421 -0.0076408265 0.0045900727
0000c0 d0 5a 58 b8 c1 0a fa bb fa e0 9d 3c 5d 52 26 39
       -5.158299e-05 -0.0076306765 0.019272316 0.00015861676
0000d0 6e 01 8d b7 7d 97 e3 39 40 b3 3f bb a4 b0 2e 3b
       -1.6809176e-05 0.00043409682 -0.0029251128 0.002665558
0000e0 8b 1d e8 3a ba 64 74 3b 52 f6 8a 3a 8d 0d 47 3a
       0.0017709 0.0037291483 0.0010601974 0.0007593267
0000f0 46 fb 6a 39 cb f6 94 ba 3c 9f a1 3a 1e fe 93 3a
       0.00022409586 -0.0011365054 0.0012330781 0.0011290943
000100 17 31 45 3b 47 3e c4 3a 49 70 af 3b 24 fd 56 ba
       0.0030089074 0.0014972173 0.0053539616 -0.0008201173
000110 fb 03 8e bc 18 43 0b 3b 28 18 73 b9 74 26 99 bc
       -0.017335882 0.0021249708 -0.00023183285 -0.018695094
000120 cb bc 09 3c 2d ea d8 38 c1 85 21 3b 22 9d fa 39
       0.008406828 0.00010343301 0.0024646374 0.0004780079
000130 6a 20 49 3b c9 e2 2f 3b de 0b f9 3a b8 03 9f 3b
       0.0030689486 0.0026838055 0.0019000729 0.004852738
000140 4b c2 43 3b 4b ad ad 3a c3 c1 a3 3a 19 e2 0e 3b
       0.0029870446 0.0013250498 0.0012493659 0.0021802245
000150 32 dc 91 3b 80 e0 ce 3a 3e d9 79 3b 67 41 7b 3b
       0.004451298 0.0015783459 0.0038123871 0.0038338543
000160 86 2f ed ba ae f5 f8 ba 73 96 52 bb 7c 3c 6e b9
       -0.0018095828 -0.0018994117 -0.0032133132 -0.00022719981
000170 bf 6f 6c b9 e1 a3 5f bb 5f e9 a0 bb ac 7c b1 b9
       -0.00022548343 -0.003412478 -0.0049106325 -0.0003385296
000180 5f 17 42 3a fa 07 fd 39 ad 09 01 ba d8 f1 ad 3a
       0.0007403995 0.00048261863 -0.0004922401 0.0013270928
000190 8c e5 0a ba ab d3 a6 3a 7b 2e 77 3a bf 84 50 39
       -0.00052984874 0.0012727877 0.00094292284 0.00019885878
0001a0 a8 64 d3 39 99 07 a3 3a fe 44 aa 39 a8 67 30 3a
       0.0004032005 0.0012438177 0.0003247633 0.0006729313
0001b0 15 c5 91 39 89 f3 22 3a e0 23 04 bc a0 aa 8c 39
       0.00027803393 0.0006216099 -0.008065194 0.00026830006
0001c0 86 c9 17 3d 7f 46 bb b7 8a 0b 96 3a c1 22 1a 3d
       0.037057422 -2.2324964e-05 0.0011447531 0.0376308
0001d0 61 d0 0a bc f2 4e a6 3a b3 1f d9 ba 71 42 26 bb
       -0.008472533 0.0012688322 -0.0016565233 -0.0025369192
0001e0 42 ff d8 bb f6 28 b0 bb 39 fc 2b bb e7 34 47 bc
       -0.006622226 -0.0053759767 -0.0026242866 -0.012158609
0001f0 41 6c cb bb ee 14 33 bb 75 5b 20 bb 11 d8 99 bb
       -0.006207973 -0.0027325707 -0.0024468575 -0.0046949466
000200 ec e6 13 bc 0f 19 93 bb af be 09 bc 69 5c b0 bb
       -0.009027224 -0.004489071 -0.008407279 -0.00538211
000210 7a 9f 19 bc b9 3d 6a bb e6 78 13 3c fb 0c b0 bb
       -0.009376401 -0.0035742356 0.009000992 -0.005372641
000220 f9 6e c2 b9 f8 a9 28 3c 26 5b 87 bc 50 ed 91 ba
       -0.00037085245 0.01029443 -0.016522955 -0.0011133347
000230 b1 3c 34 bb d8 78 2e ba 89 61 1a 3b db 3a 96 bb
       -0.0027501995 -0.00066555804 0.002355667 -0.004584653
000240 aa 14 3e bb f1 80 83 ba f1 15 90 b9 86 fc 6e ba
       -0.0029004016 -0.0010032934 -0.00027482168 -0.00091166084
000250 1f 83 2b ba 12 df 95 b9 7c 0b da ba d6 eb 9c ba
       -0.0006542671 -0.00028585695 -0.0016635503 -0.001197214
000260 d2 22 d9 ba e5 ba 61 bb
       -0.0016566163 -0.0034443673

exp_avg_sq f4 [7, 22]
000000 71 8d 51 37 6b 43 0d 37 6d fb a5 39 c3 1e 01 37
       1.2490303e-05 8.419952e-06 0.0003165858 7.696161e-06
000010 63 54 a4 36 1d 99 aa 39 68 28 cb 37 49 d6 f3 36
       4.897405e-06 0.00032539005 2.4218301e-05 7.2669104e-06
000020 49 7d 1c 38 41 02 76 36 b9 8c f6 36 28 66 dc 36
       3.730998e-05 3.6658168e-06 7.3477536e-06 6.5684035e-06
000030 6a 1c ab 36 55 67 84 36 52 5a 9f 36 ae 3f 01 36
       5.099505e-06 3.945936e-06 4.749084e-06 1.9259564e-06
000040 41 41 86 36 ee 7c de 36 d3 74 c3 37 3e d0 f2 36
       4.0011078e-06 6.6306593e-06 2.3300212e-05 7.2364046e-06
000050 d4 ca 99 36 ee c8 17 37 e8 99 19 37 b1 e7 43 36
       4.5833676e-06 9.047084e-06 9.155345e-06 2.9192126e-06
000060 24 14 9f 39 ef f9 ae 37 fe 1e a4 34 11 62 9b 39
       0.0003034185 2.08588e-05 3.056993e-07 0.0002963697
000070 3d f6 94 38 86 33 df 34 94 08 b0 36 fe ca 8c 36
       7.1030554e-05 4.1574475e-07 5.2462074e-06 4.1959565e-06
000080 30 67 cf 37 1b ad ea 36 57 e0 ba 36 2e ee 99 36
       2.4724373e-05 6.9938956e-06 5.5693486e-06 4.587483e-06
000090 9e fd 07 37 e8 9d f8 35 bf 24 b6 36 3d 06 24 37
       8.105677e-06 1.8523397e-06 5.4283005e-06 9.776614e-06
0000a0 c3 53 8d 37 8d 5e ee 36 a1 81 34 36 38 e6 05 37
       1.6847514e-05 7.10396e-06 2.6897544e-06 7.98102e-06
0000b0 3b 20 28 39 9f 49 7c 38 f3 95 90 3b cc 5b be 39
       0.00016033735 6.0150047e-05 0.0044124066 0.00036308018
0000c0 cf 32 35 36 c7 25 8d 3b ab 10 bc 3a e7 02 65 36
       2.7000676e-06 0.004307482 0.0014348229 3.4125349e-06
0000d0 ec 6b 84 38 9a 02 54 38 c8 14 ee 39 1c 5c e1 38
       6.3143525e-05 5.054716e-05 0.0004541038 0.00010745993
0000e0 a3 58 8b 38 ce 56 75 38 ec b8 97 38 dd 24 b7 37
       6.6445464e-05 5.8493395e-05 7.2346855e-05 2.1832466e-05
0000f0 46 31 6f 38 bb b9 3f 39 e6 fd 90 39 78 88 d8 38
       5.702793e-05 0.0001828437 0.0002765499 0.00010325102
000100 15 98 28 38 10 02 e6 38 ec 1c cb 38 e5 13 69 37
       4.019596e-05 0.00010967639 9.6851814e-05 1.3892514e-05
000110 c9 28 6a 3b 5e 01 a9 39 a1 0e da 36 04 f0 5b 3b
       0.0035729876 0.0003223521 6.4986093e-06 0.0033559809
000120 a3 66 7d 3a 86 2a 04 37 6f eb 4e 38 5c 8f 00 39
       0.0009666478 7.877714e-06 4.9333492e-05 0.00012260437
000130 2b 9c e2 38 8d 70 15 39 59 3a 8b 38 9a ed 46 38
       0.00010805608 0.00014251676 6.6389046e-05 4.7428162e-05
000140 6f 13 c1 38 40 fd 9a 37 0f 13 16 38 bf 53 09 39
       9.206577e-05 1.847616e-05 3.5780537e-05 0.00013096536
000150 49 e6 4d 39 d9 a8 e9 38 5c 42 25 38 1b ee af 38
       0.00019636111 0.00011141756 3.9400868e-05 8.389001e-05
000160 33 3b 19 38 f5 97 41 37 f1 84 3c 3b fd a4 21 39
       3.6533176e-05 1.1539077e-05 0.0028765763 0.0001541562
000170 d5 d3 d3 35 1e 20 35 3b dc 4f 72 39 8c 2a 75 36
       1.5782376e-06 0.0027637552 0.00023108668 3.653261e-06
000180 bf 51 81 38 ee 00 1c 38 3b ae b6 38 4b 60 91 38
       6.166426e-05 3.7194164e-05 8.710889e-05 6.932075e-05
000190 7f 3a 17 39 f0 c2 3a 38 9b 27 39 38 00 19 91 37
       0.00014422274 4.4527405e-05 4.4144323e-05 1.7296989e-05
0001a0 44 dd c8 37 e6 a6 af 38 e2 e4 41 39 8b 9d 8f 38
       2.3944893e-05 8.3757375e-05 0.0001849118 6.848116e-05
0001b0 81 7c 23 38 c3 e6 95 38 1e 65 f1 38 c8 86 ad 36
       3.897818e-05 7.1478564e-05 0.0001151061 5.1714924e-06
0001c0 7e 21 82 3b 77 e4 39 38 bd e7 18 36 86 91 84 3b
       0.0039712777 4.432021e-05 2.2784654e-06 0.004045668
0001d0 17 6b 02 39 61 79 62 36 aa d5 1d 38 ad eb 00 38
       0.0001243766 3.3747276e-06 3.7630707e-05 3.073707e-05
0001e0 cf 79 fc 38 c7 fc e7 38 26 c1 62 38 ee 61 96 39
       0.00012038985 0.00011062022 5.4062482e-05 0.00028683193
0001f0 af ea dc 38 d6 5b c7 37 30 67 ea 37 c5 a2 c8 38
       0.00010534131 2.3765413e-05 2.7943024e-05 9.567061e-05
000200 47 01 84 39 9e 7a a5 38 2f 37 ca 38 f5 2c d5 38
       0.00025177954 7.890652e-05 9.642389e-05 0.000101650054
000210 c3 49 b4 39 0e 41 c8 37 70 15 90 3b 4d e4 f8 38
       0.00034387232 2.3872151e-05 0.004397087 0.00011868086
000220 d2 4f 23 37 b9 20 98 3b 2e ce 4e 3a 00 fb 84 37
       9.734142e-06 0.0046425727 0.00078889995 1.5852507e-05
000230 84 16 9e 38 9a 9e 42 38 d5 ae cd 38 79 56 4c 39
       7.538221e-05 4.6400914e-05 9.807727e-05 0.0001948717
000240 54 a0 db 38 60 17 bb 38 d3 fa 57 39 c8 e8 f4 37
       0.00010472597 8.921209e-05 0.00020597437 2.9195464e-05
000250 e1 8d 14 38 f1 17 e9 38 92 72 8a 39 26 8f c5 38
       3.5418085e-05 0.00011114765 0.00026406773 9.4203555e-05
000260 86 1b ab 38 63 8c 33 39
       8.159042e-05 0.00017123068

exp_avg f4 [7, 7]
000000 42 e6 02 ba 14 1d 91 39 ea 0e b4 3a 50 ab c8 3a
       -0.00049934175 0.0002767822 0.0013737355 0.0015309844
000010 f4 79 af 3a 95 2a fb 3a 04 9e 9d 3a 10 da c6 39
       0.0013387785 0.0019162471 0.0012025242 0.00037927972
000020 0c ee ab 39 1b f9 2e 3b c6 a0 d1 3a 84 ed 8c 3a
       0.0003279302 0.0026698771 0.0015993349 0.0010751938
000030 b3 49 c4 3a 97 bc 88 3a 97 e1 12 3a 6f a9 d4 b8
       0.0014975577 0.0010432181 0.00056030735 -0.00010140507
000040 c0 33 46 bc 16 fe 66 3b 51 4c 75 3b 91 31 07 3c
       -0.012097299 0.0035246662 0.0037429521 0.008251564
000050 0b 6c 39 3b d0 19 86 3a 59 7b 3b 3a 6d b0 8a 3b
       0.0028293158 0.0010231081 0.0007151864 0.0042324574
000060 cb 94 e4 bb b2 48 dd 3a 8c 00 27 3c 6f c3 f7 3b
       -0.0069757453 0.0016882627 0.0101930015 0.0075611393
000070 4c bf b4 b6 89 de a3 38 e3 61 43 3b f3 46 4f 3b
       -5.386688e-06 7.813896e-05 0.0029812984 0.0031627982
000080 fd 11 12 bc e6 89 53 3b 60 b5 51 3b 3c 8e cb ba
       -0.008915422 0.0032278239 0.0031998977 -0.001553006
000090 40 a8 be ba cb 0e 4e ba 44 e9 3c bb 1e 54 73 ba
       -0.0014545992 -0.00078604807 -0.002882556 -0.0009282249
0000a0 55 e6 f6 bc 84 87 12 3a 52 ea ca b9 6d e3 98 b9
       -0.030139128 0.00055896514 -0.00038703025 -0.00029161145
0000b0 fc 57 24 3b c4 6e 06 3a e4 07 b0 b9 c8 9a 70 3b
       0.0025076857 0.00051281997 -0.00033575215 0.003671335
0000c0 2d db 7d bc
       -0.01549415

exp_avg_sq f4 [7, 7]
000000 df ae 0b 38 4f 78 07 36 81 48 d0 36 e5 af 79 37
       3.3303044e-05 2.0186596e-06 6.2073236e-06 1.488251e-05
000010 cc 79 ec 36 62 7f bd 36 f4 68 ea 36 7a 0c df 35
       7.047527e-06 5.6474682e-06 6.9859616e-06 1.6618426e-06
000020 94 d7 24 36 fa ee 23 38 31 bf 89 37 dd d3 00 37
       2.4563387e-06 3.9084793e-05 1.6420703e-05 7.678723e-06
000030 e6 bd e5 36 b3 48 06 37 bb 02 2e 37 23 b8 eb 37
       6.846839e-06 8.003949e-06 1.0371844e-05 2.8099928e-05
000040 b0 dd 4c 3a 9d 23 5d 39 16 05 a6 38 6d 41 7d 38
       0.00078150164 0.0002108947 7.916444e-05 6.0380833e-05
000050 d8 16 91 38 8f 0e 04 37 28 81 62 37 40 f4 bc 38
       6.918394e-05 7.871203e-06 1.3500721e-05 9.010034e-05
000060 25 08 4a 3a e9 78 52 38 41 34 89 38 10 f7 0e 39
       0.0007706902 5.0180508e-05 6.542402e-05 0.00013634213
000070 c6 f3 32 37 f0 d5 3d 37 ed a6 87 38 b2 b1 1b 39
       1.0666385e-05 1.1315089e-05 6.468394e-05 0.00014848149
000080 e1 0f d2 39 19 b4 f5 37 37 ef 8d 38 d1 a6 32 37
       0.00040066152 2.929014e-05 6.767961e-05 1.0648467e-05
000090 fb 01 24 37 b1 69 3e 38 26 21 f2 38 66 e2 1d 38
       9.775623e-06 4.5397963e-05 0.000115456336 3.7642567e-05
0000a0 20 60 6c 3a b1 bd a7 38 3e 7b 95 37 78 45 83 37
       0.0009017009 7.998513e-05 1.7819573e-05 1.5648766e-05
0000b0 43 3c d1 38 0e 20 2c 39 25 1d a8 38 c6 d3 bd 38
       9.977121e-05 0.0001641514 8.016293e-05 9.051668e-05
0000c0 7f ec 2d 3a
       0.0006634667

exp_avg f4 [7]
000000 49 72 ea 3b 84 f2 0c 3c 76 e7 db 3b ea 00 97 3c
       0.007154737 0.008602742 0.006710942 0.018433053
000010 1e 28 75 3b ab 4a 18 bd 9c e2 20 bc
       0.0037407945 -0.037180584 -0.009819653

exp_avg_sq f4 [7]
000000 3c e3 b1 39 8f 3f a7 39 fb a5 99 3b 01 49 72 3b
       0.00033929374 0.00031900077 0.004688976 0.0036969783
000010 ad a9 40 3b 91 bd 86 3b 11 64 9d 3b
       0.002939801 0.0041119535 0.0048031886

exp_avg f4 [7]
000000 ad 83 ea 3b cd ed 0c 3c 00 ca db 3b 50 07 97 3c
       0.0071568103 0.008601618 0.00670743 0.018436104
000010 65 61 75 3b 12 48 18 bd 60 de 20 bc
       0.0037442085 -0.037178107 -0.009818643

exp_avg_sq f4 [7]
000000 64 e4 b1 39 ab 3d a7 39 01 a6 99 3b dc 48 72 3b
       0.00033930235 0.00031898668 0.0046889787 0.0036969697
000010 c6 a9 40 3b 5f bd 86 3b 0d 64 9d 3b
       0.0029398068 0.0041119303 0.0048031867

exp_avg f4 [7, 22]
000000 32 ee 67 38 c0 c9 ae 3a 82 e8 06 bc 05 86 8f ba
       5.529653e-05 0.0013335273 -0.008234145 -0.0010949975
000010 9a b2 a3 3a 67 f6 05 bc 2d 59 c1 ba a0 a2 ba 3a
       0.001248914 -0.008176423 -0.0014751308 0.001423914
000020 b7 ec de 39 26 14 2b 3a 60 c3 f3 3a 7b 98 05 3b
       0.00042519506 0.00065261347 0.0018597655 0.0020385075
000030 0b f1 b5 3a 93 0d 8b 3a be a5 81 3a 52 e9 24 3a
       0.001388104 0.0010608904 0.0009891314 0.0006290871
000040 17 d8 01 3b 09 09 0a 3a 14 5d 0a 3b 98 3c 23 3a
       0.0019812637 0.00052656286 0.0021112608 0.0006226986
000050 6e d4 d3 3a aa e3 73 3a 60 b8 46 bc f4 ea d5 3a
       0.0016161331 0.0009303639 -0.012128919 0.0016320632
000060 47 27 9d bc 35 e5 38 bc b7 34 9e 3b f3 55 83 bc
       -0.019183768 -0.011285116 0.0048280614 -0.016032195
000070 5c fa 04 bd 92 29 84 3a ac ad 2b 3b 0c bb b3 bb
       -0.032465324 0.001008319 0.0026196046 -0.005484944
000080 87 ed 89 3b 06 41 f7 3b 03 b3 6a 3b 5a 45 83 3b
       0.0042092237 0.007545593 0.0035812266 0.00400607
000090 0e 2f 10 3a 97 93 aa 3a 41 56 a4 3a 7b 3a 5c 3a
       0.0005500176 0.0013013956 0.0012537913 0.0008401048
0000a0 9b a2 cc 3b c5 58 9f 3a 1c ec b9 3b 7f 73 03 3a
       0.00624497 0.0012157193 0.0056738984 0.00050144637
0000b0 f6 43 87 39 75 5d 11 3a 04 81 2d bb 5f 11 54 b9
       0.0002579984 0.0005545237 -0.0026474604 -0.00020224367
0000c0 1c e2 f2 39 98 c4 2f bb a2 b6 68 38 fb ce 16 3a
       0.00046326302 -0.002682006 5.54832e-05 0.00057528884
0000d0 89 17 94 39 ad 88 a2 39 d4 cb 13 3a e8 5d 0a 3a
       0.00028246295 0.0003100088 0.0005637978 0.00052782753
0000e0 7c 70 d1 39 40 92 b0 39 b4 8e b0 39 a4 6c 51 39
       0.00039947394 0.000336783 0.00033675658 0.00019972265
0000f0 fb c7 36 3a 22 53 36 39 80 f6 2d 3a 83 cb 56 39
       0.00069725484 0.00017387842 0.00066361576 0.00020484444
000100 f0 21 f9 39 a9 76 b2 39 5b 65 00 3c 6d 04 04 3c
       0.00047518266 0.00034039214 0.007836665 0.008057696
000110 95 11 25 bd c5 6f ef 3a 69 8b b0 3b 6f 6a 2c bd
       -0.04029997 0.0018267563 0.0053877127 -0.04209369
000120 30 b3 76 3c 62 d5 fb 3b 73 25 20 3b b0 01 a6 3b
       0.01505737 0.0076853493 0.0024436384 0.005066119
000130 26 69 00 3c a6 0c f7 3b 40 11 d1 3b b6 b9 e8 3b
       0.007837569 0.0075393496 0.00638023 0.0071022166
000140 02 d4 c2 3b d8 38 40 3b c5 d3 46 3c 3d 8d 33 3b
       0.0059456835 0.0029330757 0.012135451 0.0027397417
000150 5c 19 14 3c 99 ea 4b 3b 76 2b de 3b ef 8f b6 3b
       0.009039249 0.0031115173 0.0067800833 0.0055713574
000160 28 da d3 39 81 f8 9d 3a b2 9c aa bb ca 1a db b9
       0.00040407595 0.0012052209 -0.005206668 -0.00041790894
000170 e6 22 78 3a e3 db ad bb d7 3f b7 b8 05 f8 a3 3a
       0.00094656495 -0.0053057536 -8.738011e-05 0.0012509829
000180 63 0f 35 3a 16 59 3b 3a e1 8f 19 3a 0b 7f b2 3a
       0.0006906895 0.0007146759 0.00058579264 0.0013618184
000190 85 17 d6 39 dc 14 7f 3a 73 05 44 3a 59 b6 d6 39
       0.00040834784 0.00097305863 0.00074776186 0.0004095312
0001a0 6f 42 a9 3a 39 43 c0 39 ec 7f a6 3a ed 39 e5 39
       0.0012913476 0.00036671179 0.0012702919 0.00043721442
0001b0 70 74 8b 3a c3 e3 26 3a ab 3d f0 3b e7 06 1b bc
       0.001063956 0.00063663366 0.00733157 -0.009462095
0001c0 14 e3 7a 3d ab 5e 5d 3c c5 80 2b bc 4f 7b 73 3d
       0.061251715 0.01351134 -0.010467713 0.059443768
0001d0 b7 75 bd 3c 10 c7 1c bc 87 c8 9e bb 2e cc f3 ba
       0.02312742 -0.009568945 -0.004845682 -0.0018600279
0001e0 df 7d 08 bc a5 32 8e bc b3 ca 1c bc 77 40 55 bc
       -0.008330791 -0.017358134 -0.009569812 -0.013015858
0001f0 4b 1f d0 bb 4f a6 8d bb 4d 0f 5b bc 2a 5b 76 bb
       -0.0063513867 -0.004322804 -0.013370347 -0.003759096
000200 7e 9b 7b bc fb 6c 99 bb 10 51 60 bc 06 71 c9 bb
       -0.015356896 -0.004682181 -0.013691202 -0.0061475066
000210 12 b6 0d bb 0f ae d3 bb b8 47 14 3d 79 25 3e 3a
       -0.0021623415 -0.0064599584 0.03620121 0.00072535087
000220 5b 33 b9 bb 39 9a 14 3d 0c 56 02 3b 9c 19 a5 bb
       -0.005651874 0.03627989 0.0019887714 -0.0050384533
000230 b2 29 36 bb 1c 34 38 3a 04 ca 4e bc 11 1c cb bb
       -0.0027795848 0.0007026808 -0.0126214065 -0.006198414
000240 55 6f b4 bb d4 2f 98 bb 96 02 ae bb 72 fc 32 bb
       -0.005506436 -0.0046443734 -0.005310367 -0.0027311114
000250 21 1a 13 bc 93 39 12 bb a0 a4 1d bc bd ce 23 bb
       -0.008978398 -0.002231215 -0.009621769 -0.0024995052
000260 d3 ec cb bb a7 9d 85 bb
       -0.0062233 -0.0040776315

exp_avg_sq f4 [7, 22]
000000 3b 18 01 37 d0 eb 50 38 23 43 f0 39 ff 61 79 37
       7.694641e-06 4.9810682e-05 0.00045826388 1.4864373e-05
000010 7c 50 2a 38 7a 42 f1 39 68 56 34 38 0c 60 4e 38
       4.0606115e-05 0.0004601663 4.2995816e-05 4.9203678e-05
000020 d1 a2 2c 38 f7 c7 95 36 ed 4e 42 37 c8 ee 83 37
       4.115963e-05 4.463825e-06 1.1581677e-05 1.5727608e-05
000030 87 e0 25 37 a8 5e a1 36 81 62 d6 36 d8 c5 a5 36
       9.887043e-06 4.8091933e-06 6.3891644e-06 4.9404152e-06
000040 06 81 f3 37 38 7a 55 36 85 f7 11 38 2c ac 77 36
       2.9027939e-05 3.1810614e-06 3.4801214e-05 3.6906085e-06
000050 e0 d9 23 37 67 be d7 36 31 01 78 3a a0 46 0b 3a
       9.766285e-06 6.429665e-06 0.0009460627 0.0005312953
000060 5c 8c ef 3b 6c 00 54 39 b7 e3 63 39 69 c2 08 3c
       0.0073104333 0.00020218053 0.00021733237 0.008347132
000070 eb 1c 67 3b 4e a0 24 3a 5d c9 16 39 af 11 d8 39
       0.003526504 0.0006279991 0.00014380128 0.00041211906
000080 13 b6 8b 39 ab 49 41 39 ce 35 20 39 38 bd a6 38
       0.00026647802 0.00018433358 0.00015278833 7.9507416e-05
000090 e1 24 44 39 37 a3 77 38 32 89 29 3a e5 94 5b 38
       0.00018705755 5.9041395e-05 0.0006467282 5.2352338e-05
0000a0 4b 7c 00 3a 45 39 70 38 9d fd 10 39 98 47 2b 39
       0.00049013336 5.7273795e-05 0.00013827388 0.00016334502
0000b0 9c 09 5e 36 73 b7 34 36 6e 01 30 38 10 1c c1 35
       3.3086171e-06 2.6928872e-06 4.1963e-05 1.4387788e-06
0000c0 b1 29 ca 35 c5 7b 3c 38 e0 08 73 37 91 49 4e 36
       1.5062307e-06 4.4937962e-05 1.4485995e-05 3.0739213e-06
0000d0 65 b8 89 35 32 63 f6 35 dd 6b b8 35 cb d4 9e 35
       1.0260961e-06 1.8357298e-06 1.3740461e-06 1.1833848e-06
0000e0 ae f6 88 35 90 55 05 35 4f 42 8d 35 b9 b7 f3 34
       1.0204583e-06 4.967087e-07 1.0524617e-06 4.5395953e-07
0000f0 54 bc 45 36 73 c3 ca 34 90 6e 46 36 2f 9a b7 34
       2.946491e-06 3.776764e-07 2.9568655e-06 3.419859e-07
000100 53 fc 41 35 70 0a 39 35 7e f6 46 39 3c ff e5 39
       7.226528e-07 6.893306e-07 0.00018974577 0.00043868448
000110 cd 86 08 3c 1d 75 cf 39 74 0e c7 39 e5 dd 05 3c
       0.00833292 0.00039569373 0.00037967006 0.00817058
000120 46 b7 eb 3a 78 ab fd 39 2b 84 7f 39 b8 1f 04 39
       0.0017983697 0.00048383675 0.00024367931 0.00012600317
000130 c1 04 9b 39 bd 7a c7 39 9a c8 42 39 58 e7 c3 38
       0.00029567446 0.00038047685 0.00018576012 9.341416e-05
000140 68 b6 13 39 f0 28 a6 38 76 e7 02 3a 99 65 46 38
       0.00014086964 7.923122e-05 0.0004993597 4.73015e-05
000150 1f b0 1e 3a 18 79 80 38 32 c3 65 39 eb ae dd 38
       0.0006053466 6.126071e-05 0.00021911858 0.00010570682
000160 b8 0b 92 36 ca 97 a5 37 fb c2 db 39 2c 77 6b 37
       4.3525033e-06 1.9740215e-05 0.00041916207 1.4034838e-05
000170 9c e1 86 37 c0 2d d8 39 7b 2f dd 37 1a 40 a5 37
       1.6079102e-05 0.00041232817 2.6367363e-05 1.9699382e-05
000180 f6 8b 07 37 79 18 a9 36 84 53 6b 37 26 82 3a 37
       8.079214e-06 5.0394415e-06 1.40265365e-05 1.11167665e-05
000190 80 ef dc 37 2c 94 b7 36 06 3d c9 36 18 86 76 36
       2.633757e-05 5.4710745e-06 5.997371e-06 3.673491e-06
0001a0 35 97 eb 37 23 2c 1f 36 0a cb f3 37 ed 54 41 36
       2.8084594e-05 2.3718537e-06 2.9062405e-05 2.8808674e-06
0001b0 ac e4 19 37 0a b2 bb 36 46 7e 55 38 7c 29 62 39
       9.1727525e-06 5.5937608e-06 5.090076e-05 0.00021568494
0001c0 b3 d1 cf 3b 7d 22 45 39 2d 43 46 39 80 de cb 3b
       0.0063421368 0.00018800232 0.00018907776 0.0062215924
0001d0 6d 4a 0f 3a 41 26 6a 39 e6 e4 ad 38 f1 5f 2a 38
       0.00054661074 0.0002233023 8.2919185e-05 4.062051e-05
0001e0 34 86 73 39 45 fa a9 39 7d db 2d 39 d0 29 6a 39
       0.0002322428 0.00032420657 0.00016580331 0.00022331555
0001f0 2d 63 b5 38 cb 94 3d 38 8f 24 d2 39 9d 0d 02 38
       8.6492255e-05 4.5199686e-05 0.0004008156 3.1007094e-05
000200 65 85 dc 39 74 57 31 38 6f 78 4b 39 87 07 97 38
       0.00042061057 4.2281536e-05 0.00019404454 7.201643e-05
000210 c1 95 dd 38 f6 ab 06 39 29 08 3f 3b 60 58 ae 37
       0.00010565995 0.00012843296 0.002914915 2.078357e-05
000220 60 3e a8 38 e1 92 47 3b d5 a7 9e 39 a0 6a 02 39
       8.0224825e-05 0.0030452537 0.00030261153 0.00012437487
000230 24 0f 18 38 fd de 54 38 8c c3 4c 39 42 cd 9d 38
       3.6253725e-05 5.0752413e-05 0.00019527803 7.5245756e-05
000240 86 77 86 38 7f 3a 16 38 bc 30 f8 38 79 a6 b4 37
       6.411881e-05 3.5817266e-05 0.00011834639 2.1535192e-05
000250 fa 5a 63 39 20 ee 84 37 8c c6 50 39 32 81 9d 37
       0.00021682298 1.5846512e-05 0.0001991039 1.877602e-05
000260 4e d2 89 38 ab 77 36 38
       6.5718414e-05 4.350363e-05

exp_avg f4 [7, 7]
000000 06 1f 79 b9 1c ce cd 3a 36 0f a3 39 6d 2a 12 3b
       -0.00023758048 0.0015701684 0.00031101116 0.002230312
000010 57 51 1b 3a 8a b4 22 3b 8d 71 c0 3a 06 bc 8e 3a
       0.00059249013 0.0024826848 0.0014682278 0.0010889776
000020 46 4a 3b bc 7c 9c dc 39 0e 0e 07 3c bb cb 04 3b
       -0.011431282 0.0004207826 0.008243097 0.0020263034
000030 cf 52 4a 3c f2 b2 8d 3b ed 67 12 39 0c 50 3c 3a
       0.012348845 0.0043243105 0.0001396236 0.0007183559
000040 83 90 de 38 c6 a4 0c 3a ad c0 2f 39 74 fd 1e 3a
       0.00010612702 0.00053651293 0.00016761078 0.0006064989
000050 46 2c 00 3a 81 4c 12 3b 08 35 5d 3c 74 6d dc 3a
       0.000488941 0.0022323432 0.013501413 0.0016817288
000060 15 79 0e bb 29 59 3e 3b c8 13 69 3c d1 10 23 3c
       -0.002173965 0.0029044843 0.014225908 0.00995274
000070 2f 8e a3 39 f0 8a c2 3a 3a db 4d 39 8f 6a a7 3a
       0.00031195718 0.0014842432 0.00019631992 0.0012772846
000080 e0 6c 73 ba f1 81 28 3b 70 c6 13 3a 5f 4d 23 bb
       -0.0009285938 0.0025712217 0.00056371745 -0.0024917943
000090 be fc c7 bb b3 76 1a bb 7f 02 fa bb e3 47 7c bb
       -0.0061031273 -0.0023569285 -0.007629692 -0.0038494996
0000a0 dc e7 1f bd ce 9b 18 39 03 99 d5 ba 1d a1 7f ba
       -0.039039478 0.00014553891 -0.0016296211 -0.0009751486
0000b0 ec 3a bc ba 0e ae b2 bb d1 1f e4 ba 11 f3 a6 b9
       -0.0014360822 -0.005452878 -0.0017404502 -0.00031843086
0000c0 95 38 cb bc
       -0.024807254

exp_avg_sq f4 [7, 7]
000000 9c 7a 1b 38 ae de 8a 37 9b b7 c4 35 0e 4f 6c 38
       3.706907e-05 1.6554575e-05 1.4656574e-06 5.634041e-05
000010 64 66 1b 36 c9 97 35 37 79 13 a4 36 b3 4a 0b 38
       2.31564e-06 1.0823781e-05 4.889848e-06 3.320975e-05
000020 fa 7c fa 3a 8b da b9 37 f1 17 08 3a 9f 2d 07 38
       0.0019110732 2.2155486e-05 0.0005191556 3.2228996e-05
000030 bb 62 eb 38 de c4 d2 38 e2 72 d8 34 37 18 fc 36
       0.00011224063 0.0001005025 4.0316723e-07 7.513004e-06
000040 5b d9 29 34 78 88 7f 36 64 56 6f 34 e3 41 8a 35
       1.5818425e-07 3.8077396e-06 2.2290038e-07 1.0300977e-06
000050 b8 d0 74 35 46 f0 30 38 67 ce 05 3a d5 da a4 37
       9.120081e-07 4.2185442e-05 0.0005104304 1.9652225e-05
000060 89 e7 e6 3a c4 69 32 38 e4 73 4b 39 b4 b7 ac 38
       0.001761661 4.253701e-05 0.00019402761 8.2358165e-05
000070 ba 73 3e 36 6b f2 bb 37 da bb 94 35 c4 c5 ce 37
       2.8379568e-06 2.2405022e-05 1.1081531e-06 2.4649205e-05
000080 06 8f 02 38 ae ac 2a 37 b0 99 81 36 67 64 a0 37
       3.1127616e-05 1.0172995e-05 3.862391e-06 1.912024e-05
000090 00 64 64 39 77 86 4e 37 ff 72 ac 39 f5 c1 04 38
       0.00021781027 1.2309864e-05 0.00032892075 3.165189e-05
0000a0 07 08 97 3a 09 20 3c 38 f0 b2 32 37 e4 f0 85 39
       0.0011522778 4.4852528e-05 1.0651289e-05 0.00025547214
0000b0 cb 2f db 36 65 c3 f0 38 c0 79 5e 37 8a ee 28 38
       6.5322724e-06 0.00011480487 1.3260578e-05 4.0276478e-05
0000c0 5c 00 c9 39
       0.00038337975

exp_avg f4 [7]
000000 f7 df 09 3c 09 7f 8b 3c 09 5a 35 3b 0b 58 2d 3d
       0.008415214 0.017028349 0.0027672073 0.042320292
000010 c5 a9 b3 3b f5 2d 7b bd eb ec 14 bd
       0.0054828846 -0.061323125 -0.036358755

exp_avg_sq f4 [7]
000000 a3 d5 07 3a bd 6a 10 3c 4c 0d 4a 38 a5 aa 13 3c
       0.00051816757 0.008814511 4.8172937e-05 0.009012853
000010 88 63 ea 39 3a 1c d9 3b a4 0a 4f 3b
       0.00044706115 0.0066256793 0.0031592036

exp_avg f4 [7]
000000 60 e0 09 3c 0f 79 8b 3c 51 48 35 3b 4e 54 2d 3d
       0.008415312 0.017025499 0.0027661512 0.042316727
000010 21 98 b3 3b 09 30 7b bd 84 ea 14 bd
       0.0054807817 -0.061325107 -0.036356464

exp_avg_sq f4 [7]
000000 b0 d5 07 3a c5 6a 10 3c da 07 4a 38 9d aa 13 3c
       0.0005181683 0.008814518 4.8167865e-05 0.009012845
000010 00 63 ea 39 6a 1c d9 3b 76 0a 4f 3b
       0.0004470572 0.0066257017 0.0031591929

exp_avg f4 [7, 22]
000000 73 62 a7 bb e6 34 2c 3a a2 50 ad bc bf e5 e8 bb
       -0.0051081716 0.0006569162 -0.021156613 -0.007107466
000010 92 14 a9 3a c0 6c a2 bc 7b b0 8d bc 66 b4 cd 3a
       0.0012899807 -0.019827247 -0.017296067 0.0015694022
000020 ec 1e d3 39 0d aa d4 3a 0a 7a 82 3b 4e 4f cd 3b
       0.00040268095 0.0016224995 0.0039818333 0.0062655574
000030 3c fa 2b 3b 4a c1 7b 3b 5f 40 28 3b e9 c4 09 3b
       0.002624168 0.003841477 0.0025673134 0.0021021909
000040 70 16 04 3b 9c 91 04 3b a1 4b df 3a 1c bd c5 3b
       0.0020154975 0.0020228392 0.0017036089 0.0060345065
000050 d4 36 57 3b d7 23 88 3b b2 56 8e bb d0 7d 23 3b
       0.0032839077 0.004154663 -0.004343831 0.0024946816
000060 b5 5a df bc 23 aa 1c bc 62 f6 45 3b 01 f6 d4 bc
       -0.027264932 -0.009562048 0.003020667 -0.02599621
000070 9f 79 93 bc 51 35 6c 3b 06 4d 40 3b 52 95 ba 3a
       -0.01800233 0.0036042521 0.0029342785 0.0014235175
000080 5a 40 a6 3b 2d af ff 3b 7f 2c 50 3b 94 cd 89 3b
       0.0050735893 0.007802865 0.0031764803 0.004205415
000090 4f 6e 5b 3b c0 80 37 3b 36 13 34 3b ff 44 37 3b
       0.0033482497 0.0028000325 0.002747727 0.002796471
0000a0 6f ae 12 3b 45 f2 02 3c c6 0b 8c 3b e9 23 a8 3b
       0.0022381803 0.007992332 0.0042738644 0.005131234
0000b0 f0 4d e0 bb b4 ab b9 3a ae 5a 90 bc 1b 88 28 bc
       -0.0068452284 0.0014165551 -0.017621364 -0.010286356
0000c0 58 59 37 3b e8 0d 81 bc 22 3a b5 bc 34 92 0f 3b
       0.0027976837 -0.015753701 -0.022122446 0.0021907212
0000d0 16 9f f3 3a cf c9 b4 3a 1d 88 d2 3a ed ac a7 3b
       0.001858684 0.0013793054 0.0016062293 0.00511705
0000e0 71 1a 01 3b 8f 0a 48 3b 3b 40 0c 3b 6e 42 e7 3a
       0.0019699598 0.0030523872 0.002140059 0.0017643699
0000f0 10 f1 a7 3a 3c 4d 45 3a b9 d3 b6 3a 29 c2 b7 3b
       0.0012812931 0.00075264624 0.0013948596 0.0056078625
000100 81 fa 2c 3b f4 e7 70 3b 11 6b 02 bb 29 9e 73 3a
       0.002639443 0.0036759349 -0.0019900242 0.0009293282
000110 18 6d 56 bc 75 30 90 bb 6b 33 b2 3a b1 8e 4c bc
       -0.013087533 -0.004400308 0.0013595646 -0.012485192
000120 de e6 08 bc 10 14 c4 3a 60 b8 a5 3a 5f 1b 85 3a
       -0.008355824 0.0014959592 0.0012643449 0.0010155252
000130 d6 c3 20 3b 6f 9a 5c 3b 0d cb b1 3a 34 24 0f 3b
       0.002453079 0.0033661386 0.0013564542 0.0021841647
000140 9c 21 ed 3a 14 51 af 3a bd 74 b0 3a 92 0e b4 3a
       0.0018091681 0.0013375604 0.0013462525 0.0013737252
000150 99 42 8d 3a 60 ab 76 3b 01 08 04 3b ae cc 24 3b
       0.0010777294 0.0037638769 0.0020146372 0.0025146413
000160 9d 33 47 3c 83 c2 10 bc 98 08 a4 3d 69 6d da 3c
       0.012158302 -0.008835438 0.08009452 0.026663499
000170 e6 c3 1d bc 1e 6a 9b 3d e0 20 68 3d 20 13 29 bc
       -0.009629225 0.075885996 0.056671977 -0.010319501
000180 73 0d 07 bc 29 07 b1 bb 37 05 4d bc 02 5b d4 bc
       -0.008242953 -0.005402465 -0.01251345 -0.025922302
000190 10 fe 3b bc 4a 0d 22 bc 2a 32 fb bb c3 8d 08 bc
       -0.011474147 -0.009890864 -0.007665892 -0.00833458
0001a0 c3 5b 05 bc aa b0 02 bc a6 a0 ce bb 39 e5 c1 bc
       -0.0081395535 -0.00797669 -0.006305772 -0.023668872
0001b0 64 58 4f bc cb fe 65 bc ca 11 25 ba 23 32 09 3a
       -0.012655351 -0.014037798 -0.0006296901 0.0005233606
0001c0 58 59 9d bb 26 19 30 3b 25 67 2e b9 9d a3 d4 bb
       -0.0048019104 0.0026870458 -0.00016632357 -0.006489231
0001d0 57 56 bc 3b a5 19 df b8 60 71 bd 3a 73 11 d9 39
       0.005747597 -0.00010638245 0.0014453344 0.00041402466
0001e0 70 d1 86 3b ed e5 4a 3b 71 6d 30 3b 45 1b d2 bb
       0.0041143224 0.00309598 0.00269207 -0.006411942
0001f0 54 d7 aa 39 1c 29 66 39 2c 0e 77 3a d1 f3 67 3a
       0.0003258536 0.00021949824 0.0009424414 0.0008848282
000200 15 85 aa 39 00 c8 d9 3a c1 3c a5 3a 66 b8 c5 39
       0.0003252408 0.0016615391 0.0012606607 0.00037712156
000210 3e 4a 70 3b a2 e5 c9 3b 70 4b 88 bc 28 eb 9b bb
       0.0036665346 0.0061614076 -0.016637534 -0.0047582574
000220 5c fd 98 3b 0c a2 71 bc f4 f9 3d bc 77 62 ab 3b
       0.0046688747 -0.014748108 -0.011595238 0.005230244
000230 ff 35 2f 3b 82 e6 00 3a 18 30 15 bb d5 65 05 3c
       0.0026735065 0.0004917161 -0.0022764262 0.008141954
000240 c9 a6 55 3b f7 e5 9a 3b bd 73 00 ba 9a 2f 17 3b
       0.0032600632 0.004727121 -0.0004900059 0.0023069144
000250 30 bc ff 3a 85 40 14 3b 37 09 99 3a b3 7b 9c 3b
       0.001951104 0.0022621464 0.001167572 0.0047754883
000260 c1 ed 25 3b b5 1c c9 3a
       0.0025318714 0.0015343638

exp_avg_sq f4 [7, 22]
000000 1b 70 10 39 77 3f 27 39 96 eb c1 3a c2 a0 37 39
       0.00013774673 0.00015950004 0.0014794942 0.00017512127
000010 99 22 40 39 43 1d be 3a 30 a2 9d 39 64 4c 57 39
       0.00018323436 0.001450457 0.00030066213 0.00020532456
000020 99 0d 23 39 84 21 ba 37 e6 12 19 38 f6 f6 70 38
       0.00015549957 2.2188535e-05 3.6495643e-05 5.745046e-05
000030 ed 2a c7 37 af 1a bd 37 7f fe ad 37 64 6f 0e 38
       2.3742637e-05 2.2542981e-05 2.0741716e-05 3.395918e-05
000040 30 3f 2e 38 40 9d c6 37 1f 42 e8 37 15 74 99 38
       4.154368e-05 2.3676665e-05 2.7687345e-05 7.3172305e-05
000050 14 8b 2d 38 c4 d7 24 38 04 e4 1f 3a ea 09 69 37
       4.137594e-05 3.9301594e-05 0.00060993456 1.38901905e-05
000060 c4 18 38 3b 20 7d 8a 39 a7 86 4c 37 55 ea 4e 3b
       0.0028090933 0.00026414637 1.2190699e-05 0.0031572778
000070 f6 a8 d0 3a 30 eb a9 37 51 ad 1d 38 6d c9 8e 39
       0.0015919495 2.0255888e-05 3.759313e-05 0.00027234424
000080 9e 79 b2 38 c6 ee c7 38 89 27 3f 38 ab 7e ea 37
       8.5103544e-05 9.5335345e-05 4.557477e-05 2.7953958e-05
000090 84 72 56 38 a7 53 55 38 87 da eb 38 d5 86 c7 38
       5.1128227e-05 5.0861065e-05 0.00011246377 9.514174e-05
0000a0 d8 b2 4e 38 2e be b2 38 c8 9a ab 38 41 ec 56 38
       4.928079e-05 8.523125e-05 8.182746e-05 5.1241605e-05
0000b0 cb 10 a3 3a e2 d4 2d 38 12 1a 5a 3b c2 e6 ee 39
       0.0012440918 4.1444677e-05 0.00332797 0.00045566825
0000c0 dd c8 b2 36 df 7b 87 3b 51 b0 8a 3b cb 6b 71 38
       5.328197e-06 0.0041346396 0.0042324443 5.7559268e-05
0000d0 b3 da 40 38 1d 93 4a 38 c1 48 ee 39 f7 ca 16 39
       4.5980047e-05 4.8297563e-05 0.00045449103 0.00014380725
0000e0 26 ef 85 38 88 fa 5d 38 c4 cd 62 38 e5 31 72 38
       6.386479e-05 5.292383e-05 5.4074233e-05 5.7743764e-05
0000f0 f6 b4 1b 39 23 92 37 39 eb a8 32 38 1a 2b ee 38
       0.00014849365 0.0001750668 4.2595824e-05 0.00011356753
000100 b7 15 04 39 f2 82 60 38 d8 e0 14 38 01 87 96 36
       0.0001259659 5.3527714e-05 3.549535e-05 4.486065e-06
000110 42 8e c6 39 c1 83 6d 38 e9 05 d6 36 18 c7 ba 39
       0.00037871493 5.662791e-05 6.378385e-06 0.0003562502
000120 f4 ea 6c 39 31 b7 06 37 f0 c8 bb 36 5e 85 ec 36
       0.0002259424 8.029675e-06 5.5964265e-06 7.048874e-06
000130 e9 2d 78 37 5e 4f 80 37 17 74 de 36 5e bc 21 37
       1.4792641e-05 1.5295747e-05 6.62963e-06 9.6402055e-06
000140 cc 81 7b 37 36 c6 eb 36 aa 79 f9 36 f9 49 6f 36
       1.49909865e-05 7.0266206e-06 7.434942e-06 3.5656833e-06
000150 91 ec 39 37 b8 81 5e 37 b7 bc 28 37 6b ff 5d 37
       1.1081939e-05 1.3262434e-05 1.0057519e-05 1.3232096e-05
000160 9a a4 ac 39 0d 41 3e 39 60 11 0b 3c f6 33 8b 3a
       0.00032929034 0.00018144045 0.008488029 0.0010620344
000170 7e 53 80 39 8a d3 fb 3b 23 2d 97 3b f1 13 9e 39
       0.0002447627 0.0076851295 0.004613535 0.00030150966
000180 70 7e ec 38 52 5c 85 38 f8 ae 92 39 ff 99 1f 3a
       0.00011276908 6.35913e-05 0.00027977652 0.0006088316
000190 0f 29 57 39 27 02 0f 39 c4 91 17 39 2e 77 17 39
       0.00020519293 0.00013638345 0.00014454784 0.0001444488
0001a0 9a 8a 03 39 85 6a a4 38 d1 ae 13 39 f2 f6 e5 39
       0.00012544767 7.83997e-05 0.00014084137 0.00043862272
0001b0 d2 2c 6e 39 dd f6 97 39 00 49 ae 39 c2 68 36 38
       0.00022714146 0.00028984892 0.00033242255 4.3489745e-05
0001c0 f7 74 97 3b dc 80 7c 3a fa f0 a9 38 99 c4 81 3b
       0.0046220976 0.00096322387 8.103433e-05 0.003960204
0001d0 35 95 66 3b 27 ee db 38 a8 89 47 38 22 05 54 38
       0.003518415 0.00010487093 4.75735e-05 5.054952e-05
0001e0 63 93 01 39 18 2c 60 39 32 8e 85 38 a6 20 83 39
       0.00012357305 0.00021378731 6.36842e-05 0.00025010592
0001f0 3f 39 dd 38 55 b6 ad 38 40 c2 8b 38 10 3b 3b 38
       0.00010548764 8.283245e-05 6.6642184e-05 4.463928e-05
000200 03 4d c0 38 ad 8a 74 39 93 d4 e1 38 17 0e 41 39
       9.169618e-05 0.00023321314 0.00010768431 0.00018411163
000210 f3 4d dc 39 de 87 ce 37 bf d8 b5 3b a9 84 43 3a
       0.00042019747 2.4620382e-05 0.00554952 0.00074584276
000220 76 95 4d 38 68 d0 aa 3b e9 c5 2c 3b 15 03 77 38
       4.9015005e-05 0.0052128322 0.002636308 5.889226e-05
000230 b0 7a 60 38 8b 9a 73 38 e1 a7 b1 39 7d fb 56 39
       5.3520023e-05 5.8079644e-05 0.0003388515 0.00020502317
000240 46 38 a3 38 0c 3e 92 38 a5 24 96 39 51 da 98 38
       7.7829274e-05 6.97338e-05 0.00028637532 7.2885894e-05
000250 01 11 9a 38 bd 94 31 38 11 b4 fb 38 c0 f4 9b 39
       7.3464595e-05 4.2338612e-05 0.00012002153 0.00029746257
000260 08 4c 16 39 71 dd 7a 39
       0.00014333439 0.00023924351

exp_avg f4 [7, 7]
000000 97 cd c5 b9 20 a9 bb 3a 61 eb c8 3a 9f ea 8e 3a
       -0.00037727944 0.0014317371 0.0015328937 0.0010903663
000010 d6 cd 24 3c 1d eb 88 3b 29 e3 5e 3b 5b 02 03 3b
       0.010058841 0.0041784183 0.003400991 0.0019990418
000020 cc 81 5c 3a 42 2d 14 3b 8c 12 bc 3a 55 94 50 3c
       0.0008411675 0.0022609984 0.0014348789 0.012730678
000030 2c af 86 3b 2a c5 96 3b 33 d1 b9 3a ff 14 90 3a
       0.0041102376 0.0046011405 0.0014176726 0.0010992585
000040 90 f9 10 bb 3e 72 65 3a 1a 52 15 3c 51 4f 67 3b
       -0.0022121407 0.000875268 0.009113813 0.003529508
000050 be 0a 58 3b 77 58 6c 3a c9 cd 68 3a 51 1c 79 3a
       0.0032965387 0.0009015868 0.0008880762 0.00095028157
000060 5d 9c 31 3a b4 c3 9e 3b 32 52 1b 3b 7b d7 38 3b
       0.0006775314 0.004845107 0.0023700115 0.0028204608
000070 99 cc a4 bb 46 d8 b1 bb 09 94 9b bb 33 41 89 bb
       -0.0050292728 -0.005427393 -0.004747872 -0.0041886806
000080 c3 bc 4c bd 10 da c3 bb c1 84 bc bb da 39 c3 38
       -0.049984705 -0.005976923 -0.00575313 9.3091e-05
000090 07 f1 0d 3a 66 a3 49 3a 62 95 0a b8 3a 56 69 3c
       0.0005414639 0.000769189 -3.3040888e-05 0.014241749
0000a0 e2 79 58 bc 2c 8b 57 3b fa fd 09 3b 1a 8b d6 3a
       -0.013212653 0.003288935 0.0021055923 0.001636836
0000b0 0c f9 06 3b 37 be 51 3a 17 1a 88 3c 2b ca 9f 3b
       0.002059522 0.00080010615 0.016614003 0.004876395
0000c0 2c 8d 3d bc
       -0.0115693025

exp_avg_sq f4 [7, 7]
000000 d2 d2 48 39 16 fb 19 38 95 50 a0 37 3b 64 79 37
       0.00019152023 3.6711885e-05 1.911101e-05 1.4864893e-05
000010 18 41 aa 38 fd 25 1f 38 e3 c1 d8 37 70 b6 fa 37
       8.118356e-05 3.7943933e-05 2.5839492e-05 2.9887276e-05
000020 bc d2 1a 3a 40 48 95 38 2d 06 b8 37 b6 f7 c9 38
       0.00059060357 7.118331e-05 2.1937385e-05 9.630567e-05
000030 cb 68 34 38 83 d7 2a 38 04 90 fd 37 bc 12 d5 38
       4.301294e-05 4.073187e-05 3.0227013e-05 0.00010160121
000040 08 95 5f 3a 74 b6 aa 37 99 de 91 38 9d 61 90 38
       0.0008528982 2.035054e-05 6.955601e-05 6.884637e-05
000050 ed 54 f4 37 01 60 a7 36 8d 5a 35 37 aa 25 c4 36
       2.9126613e-05 4.988164e-06 1.0809524e-05 5.84564e-06
000060 9a d2 b1 36 00 6f bb 37 ce 90 a9 37 0a 6b 1c 38
       5.2995283e-06 2.2343826e-05 2.02138e-05 3.7292986e-05
000070 3d fa a5 38 05 bc 8e 38 22 e5 9f 38 b9 5d 88 38
       7.9144236e-05 6.806109e-05 7.62439e-05 6.5024426e-05
000080 c4 b3 e2 3a 6d 5e 10 39 85 37 72 39 f3 d4 38 38
       0.0017296006 0.00013768087 0.00023099601 4.4067343e-05
000090 e1 57 7b 38 4f 9e 67 38 77 31 44 38 da b8 8c 39
       5.9924907e-05 5.5222128e-05 4.677611e-05 0.00026840606
0000a0 36 1c 17 3a 4a 17 18 39 5c af 27 38 c1 66 2c 38
       0.00057643966 0.00014504525 3.997922e-05 4.1103693e-05
0000b0 bc b6 00 38 c5 ea 75 38 68 02 98 39 46 64 b9 38
       3.0687763e-05 5.8631198e-05 0.00028993492 8.840165e-05
0000c0 db 89 88 3a
       0.0010417061

exp_avg f4 [7]
000000 a0 93 ae 3c 6a 20 e5 3c 62 2c 8c 3c 27 85 5c 3c
       0.021310627 0.027969558 0.017111007 0.01345948
000010 18 23 a6 bd dd 3e ba 3b 7a 6b 87 3c
       -0.08112162 0.0056837634 0.016530741

exp_avg_sq f4 [7]
000000 1e ec ee 3a a5 68 61 3b 27 61 97 3b c2 9c dc 39
       0.0018228327 0.0034394648 0.0046197358 0.00042078464
000010 6b f3 13 3c 76 9b a4 3b 20 68 c5 3b
       0.009030203 0.005023415 0.0060243756

exp_avg f4 [7]
000000 70 9b ae 3c 66 2b e5 3c e5 2a 8c 3c 7b 95 5c 3c
       0.021314353 0.027974796 0.017110297 0.013463373
000010 36 24 a6 bd df 1c ba 3b 74 5f 87 3c
       -0.081123754 0.0056797112 0.016525008

exp_avg_sq f4 [7]
000000 19 ed ee 3a 4a 69 61 3b 3a 61 97 3b 72 a4 dc 39
       0.001822862 0.0034395033 0.0046197446 0.0004208419
000010 a2 f3 13 3c 44 9b a4 3b 34 68 c5 3b
       0.009030255 0.005023392 0.006024385

exp_avg f4 [7, 22]
000000 dd dd 28 bb 80 6c ca bb d0 d1 f4 3b 4a 49 28 3c
       -0.0025767006 -0.006177485 0.0074713007 0.01027138
000010 8c 73 e8 bb a9 2d 1a 3c 5b 97 45 3b a6 6d e3 bb
       -0.0070938524 0.0094103 0.003015003 -0.0069405613
000020 ff ff 50 bb 30 14 b7 b9 e1 ac ab 3b f9 b0 b1 bb
       -0.0031890867 -0.0003491952 0.0052391146 -0.005422708
000030 8a 63 0d bb 0d a9 06 ba 2d e8 2e ba d5 8a a0 ba
       -0.0021574222 -0.0005136885 -0.000667217 -0.0012248406
000040 07 a6 40 ba 8f 22 b4 ba 56 54 6f ba cb c0 f6 b9
       -0.0007348959 -0.001374321 -0.00091296935 -0.00047064418
000050 61 df f7 ba bf 4d ef b9 7f 1e d0 3a 3a 3d 3d 38
       -0.0018911177 -0.00045643558 0.0015878229 4.5118133e-05
000060 01 87 ea bb e5 57 91 3a 78 3a 38 b7 26 70 ed bb
       -0.007157207 0.0011088817 -1.0980868e-05 -0.007246035
000070 11 c9 41 3b 2b 5b 2d b8 c5 6e 2e 3a 6a 51 02 3a
       0.0029569308 -4.133132e-05 0.0006654079 0.0004971238
000080 7b 47 92 3a 16 17 e3 3a e5 7d 90 3a 51 6b c2 3a
       0.0011160219 0.0017325606 0.0011023848 0.0014833008
000090 d2 d1 83 3a 60 7f a5 3a f9 1f 0f 3a 3d f0 23 3b
       0.0010057038 0.0012626462 0.00054597814 0.002501502
0000a0 fe 78 74 3a 1f 1d 1e 3a a5 ce 68 3a c9 1d 62 3a
       0.00093258906 0.0006031561 0.000888089 0.0008625654
0000b0 42 0d 3d bc 3e f5 16 3b 8a 2d b2 3c ef b1 6c bc
       -0.011538805 0.002303436 0.02175023 -0.01444672
0000c0 1f 3a 81 3a 2d fe b0 3c 57 2b cc bc 7d fa f5 3a
       0.000985924 0.021605575 -0.02492301 0.0018766668
0000d0 a1 ac 11 ba 4a 5f 0c bb 54 58 0f bc 3a 0a 2b bb
       -0.0005557035 -0.0021419101 -0.008749086 -0.0026098625
0000e0 58 e0 72 bb b3 a3 49 ba 71 4a 97 bb f2 3a a4 bb
       -0.0037059989 -0.00076919346 -0.0046170284 -0.0050119096
0000f0 58 a4 c1 ba 90 16 13 bc 2f 10 20 bb d2 ae de ba
       -0.001477371 -0.008977547 -0.0024423709 -0.0016989356
000100 eb df a3 ba 54 b8 16 bb cf b2 d4 bb 6c 10 9a 3a
       -0.0012502646 -0.0022998052 -0.006491042 0.0011754162
000110 d2 90 1c bc 07 25 ea bb 5c cb 35 3b 4a 35 16 bc
       -0.009556012 -0.0071455273 0.002773962 -0.009167979
000120 14 7c 8c bc 13 6f 96 3a 37 ad 14 b9 4b 49 d3 39
       -0.017149009 0.0011477194 -0.00014178907 0.00040299664
000130 48 66 be 3a 01 b6 c5 b8 e8 62 93 3a e0 e8 d9 3a
       0.0014526332 -9.427593e-05 0.0011244686 0.0016625188
000140 8f 22 27 3b fe 6e 99 3a 1d 87 98 39 7b 10 2e 3b
       0.0025502776 0.0011706052 0.00029092366 0.0026560116
000150 8f 95 af 39 ad a8 80 38 19 2e 9e 3a 93 2f a1 3a
       0.0003349003 6.134934e-05 0.0012068182 0.0012297503
000160 56 b1 7a 3b 14 06 31 b8 cc 20 51 bc 6e 37 49 3b
       0.0038252673 -4.220575e-05 -0.012764167 0.0030703205
000170 d1 25 8b b8 aa d8 54 bc 8a b2 f2 3b 65 57 f3 b8
       -6.63508e-05 -0.01299111 0.0074065374 -0.000116034214
000180 06 a3 86 3a 88 29 94 3a f4 13 16 3b 00 88 4b 3b
       0.0010271973 0.0011303881 0.0022900077 0.0031056404
000190 b2 b7 0f 3b d2 02 0b 3b 79 00 ed 3a b8 3d 1a 3b
       0.002192956 0.0021211398 0.0018081806 0.0023535322
0001a0 f3 5d 80 3a 3a 77 97 3b d0 33 d8 3a 0f eb 90 3a
       0.0009793624 0.004622367 0.0016494934 0.0011056381
0001b0 4c a9 bd 3a e2 f3 c5 3a f1 2f 6a 3c 1b a3 3f 39
       0.001447001 0.001510259 0.014293657 0.00018275941
0001c0 c7 ac 01 3c 41 1b 2d 3c 86 1b 0c 3b c8 de 00 3c
       0.0079147285 0.01056558 0.002137871 0.007865615
0001d0 ce 81 d7 3c 0a fb 04 3b 61 c6 2f b9 f6 61 ff b9
       0.026307013 0.0020291233 -0.00016763202 -0.00048710377
0001e0 37 dd 89 3a a7 7a d2 ba b7 bc 2b 3a 15 a3 da bb
       0.0010518198 -0.0016058282 0.0006551253 -0.006672273
0001f0 f1 b9 6a b7 40 cd 1f 39 57 ae fe b9 d7 68 d3 ba
       -1.399078e-05 0.00015239883 -0.0004857655 -0.0016129267
000200 13 0d 88 ba 12 f0 c3 b9 25 d3 18 bb a7 13 cc ba
       -0.0010379873 -0.00037372165 -0.0023319211 -0.0015569822
000210 89 96 19 3c db 13 39 ba f6 07 48 bc 77 79 2b 3c
       0.009374269 -0.00070601486 -0.012208929 0.010465971
000220 21 1e 0b b9 ce ec 56 bc b1 b1 b4 3c b2 98 cc b9
       -0.00013267297 -0.013117982 0.022057386 -0.0003902368
000230 cc b2 8c 3a a9 21 88 3a 20 d1 86 3b 30 7d 4b 3b
       0.0010734438 0.0010386008 0.004114285 0.003104996
000240 6c 0f 21 3b e4 43 82 39 e3 1b ff 3a 19 dd 59 3b
       0.0024575843 0.00024846115 0.0019463267 0.0033243357
000250 21 b1 7f 3a b2 10 ae 3b 4f 9a d1 3a 29 b1 87 3a
       0.00097538723 0.005312049 0.0015991422 0.001035248
000260 e9 a9 55 3a e0 ab 71 3a
       0.0008150624 0.0009219032
