data_10frm/model/0_3_20_3.pt (torch_old, 18375 bytes, 52 tensors)

rnn.weight_ih f4 [7, 22]
00000000: 8c1e 0a3e aafb 93be adad 41be 687f 8dbe
00000010: 4dc3 4ebe 6feb 37be 8b4b b73e f2f1 8bbb
00000020: 4a70 ff3d ce9f c0be 9863 a33e 8cdc 9ebd
00000030: 0764 b0be 9d8f 853e 35b9 d2bd 5fe8 ae3e
00000040: 8a11 81be 70d4 b1be 801f 8fbe 480e 283e
00000050: ab14 15bd c448 b3be 3e25 993d d2f7 9cbc
00000060: 6d44 173e e2a8 40be 86f3 88be 948f 883e
00000070: d4f1 35be c686 8d3e a1f1 953e dc93 83be
00000080: 734a 41be 8411 013d 207c bebe 9e8f cd3d
00000090: 61be 32be 55fa 33be bed1 9bbe 04cd 283e
000000a0: cafe 80be cb43 9ebe b4da e2bd 593a 62be
000000b0: 730b aebe bb00 d13d 611e 2abe 73ad 983e
000000c0: e808 6d3e 37c8 86be 7f59 42be d320 38be
000000d0: 17db 703e 74a5 9e3b c7a6 dcbd 2018 833e
000000e0: c3c9 c23e fb2c 993e e4c5 88be 8ec0 57bd
000000f0: 0649 58bd d8cb b03e 0bf5 33be 6c35 48be
00000100: 54bc d53c c8eb 82bd 87f9 1f3e 5c3b 9d3b
00000110: 1db5 5ebe 68ad 963e dc11 4f3e 5d61 b83d
00000120: caff a5be 7a50 103e f800 7b3e 45fc ce3d
00000130: d86e 18be 802b d33c 761e 1abe 7a3c b33e
00000140: 944c b43e 56b8 36bd 0635 85be d569 573e
00000150: 650a 3c3e 929c 4b3e 32a3 94be 8214 fc3d
00000160: 673a 62be 0603 b4be f6d5 49be ff3c ed3d
00000170: 7480 0e3e d93b 87be c136 253e 92c5 8d3e
00000180: 84c2 623e 1262 163e b63e e8bd d756 3c3e
00000190: 7193 6a3e cf65 053e 2ee6 abbe 37e1 4abe
000001a0: 3bf7 6b3e afe8 5f3e f7ed 303e 62b9 64be
000001b0: 8229 12be d0c4 b1be d090 8abe 97da 993e
000001c0: 3eef 99be a391 0cbe 94d7 b23d f30c 5ebe
000001d0: 7070 1d3d a251 73bd e390 0d3e b50c 9abe
000001e0: eefa 0a3d cafe b6be 9ea5 5f3e ecc5 bb3e
000001f0: bc27 12be ab41 143d 87d4 4ebe ffa7 7ebe
00000200: 01d1 49be 0845 45be fb69 793d 3b37 69bd
00000210: 4b0d 0ebd ac61 8fbe 2cf2 66be e95f bdbe
00000220: fc36 8cbe 27bb a83e 85de b73d c662 bcbe
00000230: c54b a9bd e1f1 843c 2da2 2f3e 66a1 a93e
00000240: ce01 b13d b88a 823e f95b 0ebe a5de 1abd
00000250: 6ab9 73be af0b 9b3d 9d44 ae3e d7e1 653e
00000260: 7716 ba3e e5a6 3cbe
0.13488215 -0.28902942 -0.18913908 -0.27636266 -0.20191689 -0.17960905 0.35799822 -0.0042707855
0.12472589 -0.3762192 0.31911922 -0.0775691 -0.34451315 0.2608613 -0.10289232 0.3416166
-0.25208694 -0.3473239 -0.2795372 0.16411698 -0.036396664 -0.35016453 0.074778065 -0.019161139
0.14772196 -0.18814424 -0.26748294 0.2667204 -0.17768031 0.27641886 0.2928591 -0.25698745
-0.18876056 0.031510845 -0.37204075 0.100371584 -0.17455436 -0.17575963 -0.30433458 0.16484457
-0.2519439 -0.30911097 -0.110768706 -0.2209257 -0.3399311 0.102052175 -0.16613151 0.2981983
0.23147929 -0.26324627 -0.18979453 -0.17981271 0.23521076 0.004841501 -0.10773998 0.25604343
0.38044557 0.2991713 -0.2671348 -0.05267387 -0.052804016 0.3453052 -0.17573945 -0.19551629
0.026090778 -0.06392628 0.15622531 0.004798336 -0.21748777 0.29429173 0.20221657 0.090029456
-0.32421714 0.140932 0.24512088 0.1010671 -0.14886034 0.025777578 -0.15050682 0.35007077
0.35214674 -0.04460939 -0.26017016 0.21036465 0.1836334 0.19883946 -0.29030758 0.12308599
-0.22092591 -0.35158557 -0.19710526 0.115839 0.13916188 -0.26412848 0.16134168 0.27689797
0.22144514 0.14685848 -0.11340086 0.18392502 0.22907807 0.13027118 -0.3357405 -0.19812475
0.2304353 0.21866105 0.17278276 -0.22336343 -0.14273646 -0.3472047 -0.27063608 0.30049583
-0.3006534 -0.13727431 0.087325245 -0.21684627 0.038437307 -0.059404023 0.13824801 -0.3008782
0.03393071 -0.35741264 0.21840522 0.3667444 -0.1427297 0.03619544 -0.2019826 -0.24868773
-0.19708635 -0.19264615 0.060892086 -0.056937438 -0.034680646 -0.28004205 -0.22553319 -0.36987236
-0.273857 0.32955286 0.08977989 -0.36794108 -0.08266405 0.016228618 0.17151709 0.3313095
0.08642922 0.2549646 -0.13902272 -0.037809987 -0.23801199 0.07570588 0.34036723 0.22449432
0.36345264 -0.1842304

rnn.weight_hh f4 [7, 7]
00000000: d359 f1bc 1663 a23d 4489 913e 5b14 b8be
00000010: d22d 3fbe 6eea 713d d2ec 64be 79e3 fa3d
00000020: 0148 51bc 4b5c ebbd 150f 3a3e 8e7a 883e
00000030: 5651 b33e 5347 1e3e d4de 973b 9c45 a33e
00000040: 5a93 aa3e 5153 3bbe adb7 443e 30ce 543d
00000050: a937 15be 3332 ddbd 81db c5bd e146 94be
00000060: 8a13 ccbd af11 033e 44a2 873e 59a0 663c
00000070: 6140 dabe efeb 0c3e bd7b 2cbe 7f72 893e
00000080: 54ad dcbe 8606 1abe 26f8 733e 998c 053e
00000090: 5cdc 48be 081e b2be 2082 9abc 05c4 083e
000000a0: 8935 9cbe 2f57 acbe 9cf4 25bd ce8b babd
000000b0: 96c3 593e 4aef c2be e20a 92bd 9095 9ebe
000000c0: 76a8 41bd
-0.029461777 0.079290554 0.28425038 -0.3595303 -0.18669823 0.05906146 -0.22355965 0.12250418
-0.012773515 -0.11492213 0.18169816 0.26656002 0.35022992 0.15456896 0.0046347175 0.31889045
0.33315545 -0.18293501 0.19210692 0.05195445 -0.14572014 -0.1080059 -0.09661008 -0.28960326
-0.09964664 0.12799715 0.26490986 0.014076316 -0.42627242 0.13761877 -0.16844077 0.26845166
-0.4310099 -0.15041551 0.2382513 0.13041915 -0.1961531 -0.34788537 -0.018860877 0.13356026
-0.30509594 -0.33660266 -0.04051648 -0.09108697 0.21266016 -0.38073188 -0.07130982 -0.30973482
-0.047279797

rnn.bias_ih f4 [7]
00000000: ae6f 43be e231 df3d ae72 96be c3dd 9abe
00000010: 8e69 90be f6f7 aebe e099 663e
-0.19085571 0.10898186 -0.2938437 -0.30247316 -0.28205532 -0.34173554 0.22519636

rnn.bias_hh f4 [7]
00000000: 9b53 54bd 2b3b 61be a60a 933e ec28 babd
00000010: 9cfa 023e 1df0 02be 6dc3 a8be
-0.051837545 -0.21995227 0.28719062 -0.090898365 0.12790912 -0.12786908 -0.32961598

exp_avg f4 [7, 22]
00000000: ea31 9bb7 0105 a4ba 307d 3ebc 7593 13bb
00000010: 65cd 1dba 1c7e 3cbc d98e 5bbb 2c00 28ba
00000020: f33c d739 22c5 923a 6d09 3c3b fa09 0d3b
00000030: c78e f13a a4aa aa3a 1afc 0a3b da99 853a
00000040: 8a46 c23a 62fb 073b da4a 263b b938 e53a
00000050: 70e5 893a ee68 f93a 1d10 8839 be52 d9ba
00000060: b60f 03bd ebab cebb 26a5 b338 c0a1 02bd
00000070: fcec 01bc 750c 7639 2961 883b 189c 613b
00000080: 0c33 ef3b 0c4e a13b 9aa4 903b f512 543b
00000090: 863b ae3b 43a5 2f3b 42cc 8e3b 2920 b03b
000000a0: 7a93 f23b a968 9d3b a666 3c3b 6bbf ad3b
000000b0: 05cc 293c 9355 ef3b d9cf 323c 9f8a f43b
000000c0: 4f8d 2bb9 473b 333c bae5 bb3c b93a 38b7
000000d0: a73e f9ba 411c 8cba 6884 bebb 4d0b 1bba
000000e0: a487 3bba 7a87 f5b9 0b65 d9ba 43ba 0bba
000000f0: 8417 46bb ce85 25bb f14f 16bb ea73 dfba
00000100: aaaa cdb8 f8f2 05bb 5d82 803b 92e5 2fba
00000110: 2e38 263b 6cfb 973b 234f a5b9 df87 953a
00000120: ce90 243c 2256 9ab8 e382 483a 5348 85ba
00000130: 5e24 f9b9 519f 9aba 0450 e7b6 b8d1 54b8
00000140: cc43 7e39 db04 38b8 2fa4 7ab9 f581 62ba
00000150: f91b ba38 556a abba 3b90 6539 2f52 dc39
00000160: 20f9 0dbb b70b e5ba 0a3b 763b 2daf ca39
00000170: c2f7 8db9 34a3 6c3b b6f6 89bb d420 d1b9
00000180: 06dd b7b8 c9ad 8db9 6e9d 82ba 0d77 34b9
00000190: c1f3 a7ba 4c2d d8b9 9188 27b9 03ae 06ba
000001a0: c74b 51b9 2fc7 2db9 9984 b3ba 8341 20b9
000001b0: 7588 f4b9 bc73 06ba 841d 7ebb ad00 653a
000001c0: 61d6 4f3c 9f65 27b8 63c9 9c3a 841a 553c
000001d0: 1194 82bb 4f7a b03a 2e92 02ba 42d1 42ba
000001e0: ed20 c6bb e527 b839 c923 94ba 9996 60ba
000001f0: 1ba6 7bbb 8e5f a9ba 3632 cbba d14e 03bb
00000200: 2d8b 42bb 7821 bbba 2bc5 f6ba 8d80 d6ba
00000210: f833 19bc 3ffa 37bb e2c8 4b3c 1394 9fbb
00000220: cde4 3538 6dbc 603c 3582 81bc e3a3 15ba
00000230: 244d 24bb 0d53 85ba d34f 013b 881b a2bb
00000240: fbb1 35bb 51a3 24bb 5718 caba e3c5 abba
00000250: 2f96 3cba eb05 d2ba f031 51bb 00f9 d2ba
00000260: 2860 e2ba 26b8 4ebb
-1.8500683e-05 -0.0012513698 -0.011626527 -0.002251831 -0.0006019681 -0.011504676 -0.0033501892 -0.0006408717
0.00041053406 0.0011197666 0.0028692142 0.002152084 0.0018429392 0.0013020826 0.0021207393 0.0010192946
0.0014822048 0.00207492 0.0025374205 0.0017488218 0.0010520648 0.0019028464 0.00025951947 -0.0016580445
-0.031997405 -0.0063071153 8.5661464e-05 -0.031892538 -0.007930037 0.00023465029 0.004161973 0.0034425315
0.0072997864 0.004922634 0.0044141533 0.0032359932 0.0053171543 0.0026801385 0.0043578455 0.0053749275
0.0074028345 0.004803736 0.0028747707 0.00530236 0.010363583 0.0073039024 0.010913813 0.007462814
-0.00016360472 0.010939426 0.02293669 -1.0980927e-05 -0.0019015864 -0.0010689573 -0.005814124 -0.0005914465
-0.0007153696 -0.0004683098 -0.0016585899 -0.00053301844 -0.0030226419 -0.0025256756 -0.0022935832 -0.0017048095
-9.8069504e-05 -0.002043901 0.0039217905 -0.0006709929 0.0025363076 0.004638126 -0.00031530214 0.0011408291
0.01004429 -7.359336e-05 0.0007648898 -0.0010168649 -0.00047520077 -0.0011796748 -6.8936515e-06 -5.0740055e-05
0.00024248584 -4.387354e-05 -0.00023903021 -0.0008640581 8.8743815e-05 -0.0013077954 0.00021892872 0.00042022901
-0.0021663383 -0.0017474805 0.003757181 0.00038658959 -0.0002707821 0.0036108019 -0.0042103184 -0.00039888045
-8.767289e-05 -0.00027023096 -0.0009965131 -0.00017210488 -0.0012813733 -0.0004123248 -0.00015977236 -0.0005137624
-0.00019960022 -0.00016572767 -0.0013696133 -0.00015283194 -0.00046640975 -0.000512894 -0.0038774917 0.00087357574
0.012685389 -3.9910545e-05 0.0011961873 0.01300681 -0.003984936 0.0013464185 -0.0004980889 -0.00074316945
-0.0060464055 0.0003512494 -0.0011302169 -0.00085673627 -0.0038398567 -0.0012922154 -0.0015502635 -0.0020035992
-0.0029685006 -0.0014276942 -0.0018827071 -0.0016365215 -0.009350769 -0.0028072742 0.012438031 -0.0048699467
4.336685e-05 0.013716799 -0.015809158 -0.000570832 -0.0025070393 -0.0010171846 0.0019731417 -0.0049471296
-0.0027724493 -0.0025121758 -0.0015418631 -0.001310524 -0.000719401 -0.0016023492 -0.0031920634 -0.0016095936
-0.0017271088 -0.0031542866

exp_avg_sq f4 [7, 22]
00000000: d0d8 c036 fa38 8236 df14 1739 98b7 7336
00000010: af5b 1736 123c 1b39 0a21 3f37 fe8c 6036
00000020: 4b96 7c37 e543 0836 3207 4236 d701 4736
00000030: ea18 3336 11ec c235 340a 2236 b0ee 8835
00000040: 9bf4 6836 785d 3236 7b3d 1c37 5b1e 4e36
00000050: c81f b835 a7c9 8636 fa44 c436 2699 de35
00000060: 4e23 4a39 01ed 5337 488f 7f34 1eac 4539
00000070: bcba 2b38 4ee5 b234 d5a1 8636 1d46 4936
00000080: 649a 2737 e657 9e36 f78c 9436 7709 2b36
00000090: e340 bf36 ca80 b835 0c0f ab36 a903 a836
000000a0: 6262 1e37 b7ea 9436 b2c1 bb35 b18f ac36
000000b0: b065 3138 6169 8837 bb6b 903a ac34 c438
000000c0: 77cd 2935 7d2a 8d3a 915c c639 fd2b 5535
000000d0: c0cb 9e37 0935 5437 7607 d238 5f76 b637
000000e0: e6ed a637 ac52 4837 9e13 b537 34ed ea36
000000f0: 63e0 1838 360f 0338 54fa 5938 08e1 cf37
00000100: 8562 cb36 3f45 f937 ae64 ca37 3b33 7636
00000110: cc18 833a 3263 c938 1fea f935 7ee3 733a
00000120: cd7e 9239 543f 1536 50b4 9637 7eb4 1638
00000130: 5e96 b337 2ba6 2338 5bc0 a637 d3b3 0f37
00000140: 0227 e537 a784 db36 f1b4 cb37 569a f237
00000150: c227 2f38 f22d 0038 60bd db36 1f27 c637
00000160: c3f3 f736 051c 2536 9994 2b3a 6ece 0f38
00000170: fa3d b134 e2ae 243a 9ac4 3438 d239 6035
00000180: 841a 8737 6018 2337 9401 5437 5587 6637
00000190: d50f 1d38 bad3 1037 567e 3037 908f b736
000001a0: 0d74 6937 950d 7637 61b7 1038 d00d 6e37
000001b0: d782 b336 5f32 8b37 68c4 7a37 f5b0 eb34
000001c0: 0634 ea39 48ec b136 e32c c834 885e ef39
000001d0: d61b 5e37 efa3 d134 0f83 cc36 4797 8336
000001e0: 373d b137 af49 de36 44b8 0937 69ab a737
000001f0: 2d8a 8737 778b 7f36 7461 1637 3662 2937
00000200: bebe ce37 42e0 0d37 4a6a b636 6669 3637
00000210: 4821 c838 a285 cd36 14ec 943a 73b0 f037
00000220: 553a 3936 0547 9e3a cf46 5d39 172a 9536
00000230: 8f18 c037 d908 5537 bf17 8337 2868 5138
00000240: 2254 fa37 f41e 9b37 f1ee 8138 e079 2537
00000250: c760 a637 064b d837 f4fe 8438 fcad c337
00000260: 569e 4e37 62c9 2e38
5.747286e-06 3.880935e-06 0.00014408257 3.6316687e-06 2.255412e-06 0.0001480433 1.139218e-05 3.346067e-06
1.5055363e-05 2.03051e-06 2.891244e-06 2.9654382e-06 2.668758e-06 1.4522831e-06 2.414582e-06 1.0202257e-06
3.4713073e-06 2.6578473e-06 9.312639e-06 3.0714061e-06 1.3718318e-06 4.0169866e-06 5.849285e-06 1.6584861e-06
0.00019277373 1.2631762e-05 2.3800851e-07 0.00018851503 4.0943487e-05 3.3321925e-07 4.012351e-06 2.9992145e-06
9.989923e-06 4.7189997e-06 4.427154e-06 2.5486495e-06 5.6997974e-06 1.3746551e-06 5.097949e-06 5.0072163e-06
9.44044e-06 4.438068e-06 1.3988958e-06 5.1427273e-06 4.2294792e-05 1.6261534e-05 0.0011018434 9.355819e-05
6.3256397e-07 0.0010770109 0.0003783447 7.9412695e-07 1.8929946e-05 1.2648533e-05 0.0001001497 2.1751212e-05
1.9899522e-05 1.19401775e-05 2.1586016e-05 7.0013575e-06 3.64486e-05 3.1247e-05 5.1969968e-05 2.4781111e-05
6.0613406e-06 2.9715358e-05 2.412716e-05 3.6686677e-06 0.0010001897 9.6029034e-05 1.8620084e-06 0.00093036133
0.00027941764 2.2239592e-06 1.7965358e-05 3.5930883e-05 2.1408483e-05 3.9016984e-05 1.9878315e-05 8.565333e-06
2.7317092e-05 6.5421514e-06 2.4283743e-05 2.8920516e-05 4.176028e-05 3.0560368e-05 6.5487548e-06 2.3621657e-05
7.3895512e-06 2.4603225e-06 0.0006545275 3.428611e-05 3.3013913e-07 0.0006282163 4.3098444e-05 8.353064e-07
1.6105601e-05 9.721232e-06 1.2636552e-05 1.3740578e-05 3.744646e-05 8.632365e-06 1.0519832e-05 5.470538e-06
1.3914902e-05 1.4665905e-05 3.450306e-05 1.4189121e-05 5.3498475e-06 1.6593547e-05 1.4946891e-05 4.3900914e-07
0.00044670718 5.302518e-06 3.7285562e-07 0.00045656064 1.3238712e-05 3.904856e-07 6.094931e-06 3.9217152e-06
2.112855e-05 6.6246935e-06 8.208739e-06 1.998777e-05 1.6157597e-05 3.807914e-06 8.963387e-06 1.00960515e-05
2.4645935e-05 8.456469e-06 5.4363963e-06 1.0872585e-05 9.542942e-05 6.125033e-06 0.0011361861 2.8692395e-05
2.7601102e-06 0.0012075609 0.0002110258 4.445446e-06 2.289962e-05 1.2697849e-05 1.5627475e-05 4.9926486e-05
2.98415e-05 1.8491854e-05 6.195706e-05 9.863143e-06 1.9833808e-05 2.5784142e-05 6.341739e-05 2.332683e-05
1.2315422e-05 4.1672385e-05

exp_avg f4 [7, 7]
00000000: 3b6f 06ba 1b3c 6f3a a8dc 213b 9210 263b
00000010: 4732 1a3b 1a77 fd3a ff9d 0a3b 29b2 083b
00000020: 2937 403b 7c79 f73b 44e8 d53b f6c2 9d3b
00000030: 0694 843b 3971 9e3b 9df5 2db9 9848 1bbb
00000040: d4ec 74bc af17 8e3a 7241 b13a 2725 363b
00000050: c9b5 3638 cb6d b139 1c25 9638 b647 d33a
00000060: 683c 36bc a74a e1b8 348f 433b 3fa9 933b
00000070: 3e40 11ba 69eb 92b9 33c1 ca3a 48ed d73a
00000080: 2ff5 04bc 6fed 033a 6390 f33a 8323 fab9
00000090: 4f5b 25ba a5c7 b2b6 2e9b c738 a21d a539
000000a0: 7b24 5cbc e05f b43a 32d1 0aba f229 13b9
000000b0: 882f 9a3a 228c 17b9 8cbf 12ba 29df 61b6
000000c0: 60e3 56bc
-0.0005128269 0.0009126083 0.0024698172 0.0025339467 0.0023528503 0.0019337863 0.0021151302 0.0020858145
0.0029329753 0.007552324 0.0065279324 0.004814501 0.004045966 0.0048352745 -0.00016590064 -0.0023694392
-0.014949042 0.0010840798 0.0013523533 0.002779314 4.3561482e-05 0.00033841873 7.1594695e-05 0.0016119394
-0.0111228 -0.00010742741 0.0029839994 0.0045062597 -0.0005540884 -0.00028022684 0.0015468955 0.0016473914
-0.008115097 0.0005032634 0.0018582459 -0.00047710174 -0.00063078565 -5.328055e-06 9.517964e-05 0.0003149333
-0.013436432 0.0013761483 -0.0005295455 -0.00014034638 0.0011763433 -0.00014452686 -0.0005598001 -3.365751e-06
-0.013115734

exp_avg_sq f4 [7, 7]
00000000: 4648 5d37 476d f635 5ee1 3336 6348 de36
00000010: f213 4f36 a861 d635 0e16 6136 eab8 bd35
00000020: 52ea 2736 93bc 7137 4830 3b37 df1d c136
00000030: 3b4b 8336 b4d3 dd36 b134 5c36 4361 9537
00000040: ad54 4439 d6dd 2338 3be3 8d37 8470 dc36
00000050: 9f7b 9337 beaf 3b36 b8b9 1e37 566d 9337
00000060: 9e72 5d39 5fa9 6637 7e90 d136 36b6 0938
00000070: 5325 6136 7fd2 dc36 a983 2737 5d83 d737
00000080: 3040 c138 533e 5e36 336f 7a37 9d10 de35
00000090: 4664 4a36 2044 8936 7800 2e37 a081 8736
000000a0: 96d8 ce38 7255 1537 a009 c936 4641 1637
000000b0: 3e53 9d37 2a43 1a38 6b27 9c37 2f34 3537
000000c0: 4a05 4339
1.3189454e-05 1.8360232e-06 2.680426e-06 6.6245425e-06 3.0857013e-06 1.5972664e-06 3.354045e-06 1.4135414e-06
2.5021332e-06 1.4408625e-05 1.115731e-05 5.7553257e-06 3.912862e-06 6.6109587e-06 3.2813225e-06 1.7807475e-05
0.00018723561 3.906883e-05 1.6914322e-05 6.5696095e-06 1.7581331e-05 2.7967467e-06 9.460775e-06 1.7574679e-05
0.000211189 1.3748503e-05 6.2455065e-06 3.2833042e-05 3.3549338e-06 6.581016e-06 9.98463e-06 2.5691168e-05
9.214913e-05 3.3116855e-06 1.4927052e-05 1.6545124e-06 3.0158712e-06 4.090849e-06 1.0371317e-05 4.038404e-06
9.863188e-05 8.900986e-06 5.9913873e-06 8.955894e-06 1.8754621e-05 3.6779013e-05 1.8615005e-05 1.0800591e-05
0.0001859862

exp_avg f4 [7]
00000000: 0a99 413c 8057 063d 954f 48bc 7df4 e1ba
00000010: 6fc5 5dbb 4d09 51bc ac42 5abc
0.0118162725 0.03279829 -0.012226005 -0.0017239001 -0.0033839603 -0.012758565 -0.01332156

exp_avg_sq f4 [7]
00000000: 1908 2239 6d38 5439 ff07 9a3a e333 873a
00000010: 0c0d 2f3a 33dc f339 b183 a33a
0.0001545254 0.00020238916 0.0011751651 0.0010315146 0.00066776644 0.00046512633 0.001247516

exp_avg f4 [7]
00000000: bba1 413c 5256 063d 505e 48bc 438e e1ba
00000010: 248c 5dbb e4fe 50bc 6c3e 5abc
0.011818345 0.032797165 -0.012229517 -0.0017208535 -0.0033805454 -0.012756083 -0.013320547

exp_avg_sq f4 [7]
00000000: de08 2239 ab36 5439 3908 9a3a a633 873a
00000010: f90c 2f3a dfdb f339 a983 a33a
0.00015452827 0.00020238261 0.0011751718 0.0010315075 0.00066776533 0.00046512389 0.0012475151

exp_avg f4 [7, 22]
00000000: 9a16 1c39 cea1 213b 9ae3 7cbc b2de 08bb
00000010: 3303 163b 12b8 7abc 2d6e 47bb 3629 2f3b
00000020: baa6 8c3a 0038 ca3a 6a7d 5a3b 742e 603b
00000030: a77d 3d3b 9f95 a83a dc47 123b 6f1a dc3a
00000040: aed6 7e3b 118c a53a 3cc7 843b 5f41 ac3a
00000050: ff61 093b ed37 c33a 5256 77bc aff6 29bb
00000060: e34f 073b 0dbf 2dbc f709 d23a e0b6 bd3b
00000070: 4661 13bd e798 60bb 7f8f 293a a317 0abc
00000080: 4f37 e63a 4597 263b d0c4 4c3a 6391 30ba
00000090: 9833 fdba 82cc c139 950e f7ba 2ac8 31ba
000000a0: dec5 6bba 7f8c edb9 5b0f dc39 5baf 0ebb
000000b0: b9ee ad3a 8b42 1e3b 60f4 2fbc d4e5 34ba
000000c0: 5e41 013b c607 33bc fcff 3e3a 020d 233b
000000d0: c224 bd3a 1ea4 d03a e97d 083b c22a e73a
000000e0: db24 e53a 789a 843a b8cb d63a e48a 903a
000000f0: d3ea 383b adda 703a fdfa 3d3b 1888 783a
00000100: 7659 b33a 6fd3 9f3a b1a1 0c3c 627e 913b
00000110: d2ca 9abc e5cd af3b b40c e03a 597a acbc
00000120: 648a a83c 9b18 813b ca4a a83a 599e 883b
00000130: ba7e 583b 8c1a 023b a466 6b3b db7f 163b
00000140: d100 813b c166 a83a fc27 c13b f7ae df3a
00000150: 4096 a83b afbf d23a c602 0e3b 05aa 343b
00000160: 3a49 503a 04fa 773a 097b 19bb 59fa 7539
00000170: 3133 063a bbf0 28bb 4902 903a 58a8 813a
00000180: f653 1b3a 9676 4d3a b665 e737 919d 423a
00000190: 312c feb8 a01e 4639 2a31 f939 b0cd 8439
000001a0: 4d2a 173a dfce 8639 48fe 273a 3a0e 8b39
000001b0: 20d9 bd39 f694 ab39 4058 ab3b 15e5 73bb
000001c0: 166a c23c 77c1 e83b e13b 8cbb 2ca3 b93c
000001d0: 11b6 643c fa0e 73bb 1451 15bb ba0d 01ba
000001e0: c3eb 36bb a0e2 05bc 8085 b4bb a062 f5ba
000001f0: 01d9 1fbb a798 19bb 192a c2bb b5ce edba
00000200: 0f1e bdbb 7bd4 06bb 8df9 77bb 2761 f3ba
00000210: edf9 02bb 84eb d6bb 460a 0d3d 8b0d c13a
00000220: 2c5b c0bb 1f26 0d3d 1a5a fa3a 55f8 b2bb
00000230: 6140 74bb 5f8a aeb9 82a2 2bbc 2a35 a9bb
00000240: 8894 b7bb 73f1 64bb 1f52 c3bb 4725 69bb
00000250: e6de 0fbc 080d 33bb aa26 1bbc 3eb3 32bb
00000260: b8c7 90bb 3d94 49bb
0.00014885739 0.0024663093 -0.015435124 -0.002088469 0.002289009 -0.015302675 -0.003043066 0.0026727444
0.0010730841 0.0015428066 0.0033338913 0.0034207376 0.0028914006 0.0012861973 0.0022320664 0.0016792546
0.0038885283 0.0012630244 0.004052071 0.0013142041 0.0020962951 0.0014893987 -0.015096264 -0.0025934388
0.0020646981 -0.010604632 0.0016024698 0.0057896227 -0.03598144 -0.0034270824 0.0006468221 -0.008428487
0.0017564091 0.0025419754 0.000781131 -0.00067355315 -0.0019317744 0.000369642 -0.001884895 -0.0006781841
-0.0008994023 -0.0004530884 0.0004197311 -0.0021772 0.0013269997 0.002414855 -0.010739416 -0.0006900702
0.00197228 -0.010927146 0.00072860694 0.002487958 0.001443051 0.0015918051 0.0020827001 0.0017636644
0.0017482297 0.0010116836 0.0016387617 0.0011027721 0.0028216138 0.00091878587 0.0028988712 0.0009480729
0.0013683278 0.001219375 0.008583472 0.004440115 -0.01889554 0.0053651207 0.001709363 -0.021054434
0.020573802 0.003939701 0.0012839672 0.004169267 0.003303452 0.001985225 0.0035919333 0.0022964391
0.003936865 0.0012848006 0.005894659 0.0017065693 0.0051448643 0.0016078855 0.0021669134 0.002756716
0.0007945482 0.00094595575 -0.0023419282 0.00023458283 0.00051193224 -0.0025778252 0.0010987009 0.0009892089
0.0005925292 0.00078378 2.7584709e-05 0.0007423992 -0.00012119895 0.0001889416 0.0004752961 0.0002533025
0.0005766496 0.00025712603 0.00064084353 0.00026522746 0.0003621066 0.00032726646 0.005229026 -0.00372154
0.023732226 0.007103141 -0.004279599 0.022660814 0.013959424 -0.0037087784 -0.0022783922 -0.0004923005
-0.002791152 -0.008171707 -0.0055090785 -0.0018721409 -0.002439082 -0.0023436935 -0.0059254286 -0.0018143269
-0.0057714055 -0.0020573426 -0.0037837953 -0.0018568382 -0.0019985393 -0.0065588374 0.034433626 0.0014728768
-0.0058702435 0.034460183 0.0019100339 -0.0054617324 -0.0037269818 -0.0003329096 -0.010475757 -0.0051638084
-0.005602423 -0.0034933954 -0.0059607173 -0.0035575198 -0.0087811705 -0.0027321 -0.009469667 -0.0027267481
-0.0044183396 -0.0030758523

exp_avg_sq f4 [7, 22]
00000000: 69c1 9336 4778 fb37 fed1 8e39 ff28 1537
00000010: 2b4a cd37 784f 8f39 76af d237 c012 f837
00000020: c086 c237 b2d5 7236 accc c836 a817 1337
00000030: 11ed d436 af38 1a36 5d51 8e36 fef9 7836
00000040: f498 8d37 3740 2836 5fd4 aa37 1413 1f36
00000050: f4a1 9136 6b04 6336 c2a2 9f39 1a62 2c39
00000060: f31b 0f3b a685 7538 70f9 8238 757b 253b
00000070: 2bc4 923a 03ac 4c39 eeb3 3b38 a394 1e39
00000080: 81e5 6f38 ab37 3d38 4e72 4938 271f b637
00000090: 71d6 8438 eea3 b937 fcf4 2939 092a c737
000000a0: 6174 2d39 04a6 a137 c4be ff37 e528 3938
000000b0: 2d50 5936 4cb0 3536 7f75 2c38 75d5 c035
000000c0: f02b cd35 679d 3838 09d6 6f37 6c93 4e36
000000d0: b1f1 8835 168c 0236 d65b a835 57c2 9535
000000e0: 8ef6 8735 9a7a d934 1640 8e35 5d54 0535
000000f0: 4265 3836 f41a e634 e9aa 4536 3281 ba34
00000100: 5a59 2535 1317 2c35 9321 3c38 5822 fc38
00000110: c7b7 143b 8904 ef38 5ed4 e038 01c8 103b
00000120: 5d83 003a dd70 0b39 83da 8938 a537 3938
00000130: a915 8238 de37 c638 a7ec 6c38 f42a 9237
00000140: b5dc 4038 904f 0b38 cfb5 0c39 e65b a437
00000150: 106d 2339 de34 9f37 3dec 1d38 7cb7 c637
00000160: e15a dd35 379b 0337 4562 2d39 e7bb b436
00000170: e450 d736 25a3 2a39 0842 2137 d420 0337
00000180: e10f 6036 34d1 2e36 416e 9136 3728 7736
00000190: 0021 2c37 f2b2 e335 01ab 4736 f490 0536
000001a0: eaed 3637 cccd b335 c703 3e37 71e0 a835
000001b0: b4ef 2436 acd6 fd35 a5aa 0137 c9b6 0e38
000001c0: 5463 7c3a ab0d 0138 9c18 f637 b337 773a
000001d0: d587 bc38 e9b3 1238 e8a5 7337 b4ab 0d37
000001e0: ed14 f737 b259 5738 1951 1138 8444 9937
000001f0: 37c9 7237 5bb9 3437 784e 8338 cb1c ff36
00000200: 7977 8338 0bcc f836 ac8b 9537 aa45 1337
00000210: cd37 9b37 e549 ca37 38cf 0a3a 12ec 7636
00000220: dba4 8037 42db 103a 1fce 5e38 7d93 c337
00000230: 7cd3 0637 8a09 4437 df9a da37 2aac 4f37
00000240: 72f0 5437 0a80 b836 91d1 b937 f618 be36
00000250: 62b4 1538 56e4 9836 3294 2138 ac72 8336
00000260: 6040 0637 235b d436
4.4034573e-06 2.997754e-05 0.00027240807 8.890637e-06 2.4472442e-05 0.00027334294 2.5115656e-05 2.9572635e-05
2.318935e-05 3.6185197e-06 5.9842914e-06 8.767391e-06 6.3456905e-06 2.2980782e-06 4.2414017e-06 3.7100394e-06
1.6879734e-05 2.5071329e-06 2.0364472e-05 2.3703951e-06 4.3401906e-06 3.3828208e-06 0.00030448107 0.00016439744
0.0021836727 5.853702e-05 6.2453444e-05 0.0025250588 0.0011197379 0.00019519035 4.4751847e-05 0.00015123426
5.7195783e-05 4.5112956e-05 4.802859e-05 2.1710597e-05 6.334193e-05 2.2130054e-05 0.0001620836 2.3742223e-05
0.0001654192 1.9270003e-05 3.0487201e-05 4.4145523e-05 3.2382188e-06 2.707372e-06 4.1117422e-05 1.4367239e-06
1.5286478e-06 4.401561e-05 1.4295344e-05 3.0782203e-06 1.0203131e-06 1.945305e-06 1.2543703e-06 1.1157925e-06
1.0130041e-06 4.0508604e-07 1.0598476e-06 4.9669126e-07 2.7477076e-06 4.286045e-07 2.945477e-06 3.4739202e-07
6.1597314e-07 6.410857e-07 4.485396e-05 0.000120226934 0.0022692548 0.00011397253 0.00010720709 0.0022091868
0.0004902387 0.00013298118 6.57337e-05 4.415926e-05 6.2029176e-05 9.451782e-05 5.6487184e-05 1.7424558e-05
4.5981917e-05 3.321428e-05 0.0001341917 1.9593117e-05 0.0001558552 1.8978895e-05 3.765173e-05 2.368888e-05
1.6492232e-06 7.844347e-06 0.00016535174 5.3862927e-06 6.416916e-06 0.0001627324 9.611722e-06 7.815852e-06
3.3387844e-06 2.6049793e-06 4.334172e-06 3.6829276e-06 1.0259682e-05 1.6964898e-06 2.9752848e-06 1.9902918e-06
1.0903439e-05 1.3396434e-06 1.1325762e-05 1.2582296e-06 2.457743e-06 1.8912447e-06 7.72873e-06 3.402567e-05
0.0009627838 3.0768726e-05 2.9336945e-05 0.0009430602 8.989839e-05 3.4976667e-05 1.4522557e-05 8.444233e-06
2.9454439e-05 5.134353e-05 3.4646222e-05 1.8270926e-05 1.4471173e-05 1.07719925e-05 6.261183e-05 7.602944e-06
6.26882e-05 7.4147297e-06 1.7827224e-05 8.778103e-06 1.8503424e-05 2.4114686e-05 0.000529516 3.6794268e-06
1.5335556e-05 0.0005525836 5.312089e-05 2.3314491e-05 8.036262e-06 1.1684731e-05 2.6059743e-05 1.23782465e-05
1.2692168e-05 5.498533e-06 2.2151306e-05 5.665347e-06 3.5692363e-05 4.556535e-06 3.852341e-05 3.917454e-06
8.002011e-06 6.328702e-06

exp_avg f4 [7, 7]
00000000: 061b b0b9 ca34 433b 0bdf 3b3a 19b3 a03b
00000010: c13c a33a b178 5c3b 6ab1 3e3b c893 6c3a
00000020: a163 86bc 57ff cdb9 a1b9 873b 1493 633a
00000030: 76bb 7c3b f110 e13a b8a8 5a3a 9a3c 4b3b
00000040: 42b1 193a 6a51 223b a34e 4b3a a725 ce3a
00000050: f329 fe3a 6a24 c03a 9e5f 263c b1c3 a03a
00000060: bc56 b5bb f568 db3a 413d a93b e595 d23b
00000070: 7d10 9839 c7c5 a83a 83a2 0139 3901 853a
00000080: 1b46 cbba d5ac a53a d028 8539 0b7d 79ba
00000090: c861 d3ba 6f91 65ba 7433 b5ba a8cf bcba
000000a0: 0e1f 9bbc 5bac d83a 59d0 29bb 5876 09bb
000000b0: 2e79 05bb 4e86 d8bb f1fc f6ba dadd 12bb
000000c0: a2b6 8dbc
-0.0003358947 0.0029786103 0.000716672 0.0049041626 0.0012454019 0.0033641274 0.0029097446 0.00090247067
-0.016404929 -0.0003929089 0.0041420017 0.0008681279 0.0038563884 0.0017171187 0.0008341181 0.0031011463
0.00058629 0.0024767765 0.0007755553 0.0015727774 0.0019391164 0.001465929 0.010154633 0.0012265352
-0.005534021 0.0016739654 0.0051647727 0.00642656 0.00029003984 0.0012876325 0.00012362939 0.0010147459
-0.0015508564 0.0012640009 0.00025398144 -0.0009517229 -0.0016127164 -0.0008757328 -0.0013824538 -0.0014405148
-0.018935706 0.0016530858 -0.0025911538 -0.002097508 -0.0020366418 -0.0066078072 -0.0018843693 -0.0022410066
-0.017299

exp_avg_sq f4 [7, 7]
00000000: ccd0 b737 78d0 1e37 19d5 9d35 e34c 0d38
00000010: 53b3 cd35 ac2f a536 7412 3236 93d1 4d37
00000020: 1625 153a e7ca 2b37 cc5c 1639 4ddd 2b37
00000030: fe38 9a37 0aec d737 548c fe34 9276 ec36
00000040: b151 4334 45cf 8136 b7b6 7834 89a3 5e35
00000050: e90e 5f35 1d4a 9237 0e18 0039 b4de 0937
00000060: ae04 ff39 a89a 5837 04a7 f737 0b07 8b37
00000070: ab78 d635 7399 1337 39ea 3535 42e6 1f37
00000080: b2d6 3537 8038 2236 4105 bf35 c13a 9036
00000090: 6e3f fd37 ad1c 4036 7ee7 3938 6aac ad36
000000a0: 036a 3739 52af b136 212b 5036 2997 4038
000000b0: d482 0c36 33fd bd37 b7da 3836 1449 a036
000000c0: 544c 6b38
2.1912529e-05 9.466072e-06 1.1759431e-06 3.3688626e-05 1.532588e-06 4.922933e-06 2.6534808e-06 1.22677475e-05
0.0005689425 1.0239636e-05 0.00014339684 1.024392e-05 1.838477e-05 2.5739912e-05 4.741329e-07 7.0471515e-06
1.819051e-07 3.868629e-06 2.3163271e-07 8.293942e-07 8.309567e-07 1.7439068e-05 0.00012215992 8.217688e-06
0.00048640877 1.2910612e-05 2.9522467e-05 1.657337e-05 1.5979361e-06 8.7976105e-06 6.7768593e-07 9.53075e-06
1.0838428e-05 2.4172768e-06 1.4232138e-06 4.2983743e-06 3.0189487e-05 2.862692e-06 4.432303e-05 5.1758734e-06
0.00017491732 5.295421e-06 3.101952e-06 4.5917146e-05 2.0937778e-06 2.264846e-05 2.7545445e-06 4.776879e-06
5.6099452e-05

exp_avg f4 [7]
00000000: c83d 813c fbdf adbb 99dd 383c 4986 a83c
00000010: 532b 303b 5ddd c0bc e05b 0ebd
0.01577653 -0.0053062416 0.011283302 0.020571845 0.0026881292 -0.023543054 -0.034755588

exp_avg_sq f4 [7]
00000000: 439a a139 7e56 2e3b 5a3d 4638 0280 203b
00000010: 9df6 3839 ccf6 833a a47d 163a
0.00030823247 0.0026601846 4.7264017e-05 0.002449036 0.00017639478 0.0010068058 0.0005740768

exp_avg f4 [7]
00000000: fd3d 813c e5f7 adbb 2bd9 383c d07e a83c
00000010: 0a08 303b 83e1 c0bc 7959 0ebd
0.015776629 -0.0053090923 0.011282246 0.020568281 0.002686026 -0.023545032 -0.034753297

exp_avg_sq f4 [7]
00000000: 4c9a a139 9a56 2e3b 073a 4638 1980 203b
00000010: 7af6 3839 e4f6 833a 7a7d 163a
0.00030823273 0.0026601912 4.726092e-05 0.0024490415 0.00017639427 0.0010068086 0.00057407434

exp_avg f4 [7, 22]
00000000: 9945 b9bb d221 8bba cd1a 69bc 8710 99bb
00000010: 7d70 0bba 9d4a 5abc 2ad8 61bc cce3 ceb9
00000020: 47d7 6ab9 e877 ba3a d371 383b 5127 6e3b
00000030: 3b4d 1e3b da6c e33a 8375 163b adde 003b
00000040: eafd c93a c0d2 6c3a ca2d 4b3b e4f4 013b
00000050: 252f 013b acf0 2c3b 562b afbb 9bb9 293b
00000060: 42f0 dabc 9540 26bc 6cc3 5d3b 63d3 d0bc
00000070: 2259 99bc 1f06 823b 5f9c 663b 9792 093b
00000080: 4818 a23b c263 c53b b72a 853b 7049 413b
00000090: ebb8 833b eb49 813b 648b 6e3b bef9 fe3a
000000a0: 8e17 b53b e1f6 823b 6885 783b dcf7 9c3b
000000b0: b9e5 5bbb 076f 2a38 da50 b1ba c737 64bb
000000c0: 0fee 423a 5131 24ba f751 05bc 1e09 6639
000000d0: 6044 5f39 8bfe 4439 af79 adb9 cfea ac39
000000e0: 0504 0339 28e8 c538 7671 4939 0d22 5b39
000000f0: c231 37b9 0bde 57b9 4a41 e739 b1ae 6a39
00000100: c3d6 0ab9 a708 e839 c743 9bbb 865b 1c3b
00000110: 7d23 f8bc 2f85 23bc 7411 693b a6cf eebc
00000120: e89a 93bc 6de7 7f3b 436a 783b 2a92 513b
00000130: 1d65 c83b ff63 c83b 0fd4 923b 1fa9 533b
00000140: 236e 973b 42c1 913b b096 8a3b 8c6a 193b
00000150: b081 cc3b e9a4 943b 6597 8e3b 2f6f b03b
00000160: b81e 433c bb22 25bc e3e6 a53d 436b e43c
00000170: 76bb 37bc c85e 9c3d 4ad4 713d b707 49bc
00000180: b987 24bc 295b e9bb f280 26bc 2eb4 b0bc
00000190: 0afe 67bc 07cc 17bc c58c 27bc c501 4ebc
000001a0: 2bd9 36bc 5616 c6bb 01c5 82bc b558 3cbc
000001b0: 640e 3dbc eaba 61bc 7906 0fbb 237d 0b3b
000001c0: 0b14 cdbc 064f c9bb e1cf 393b 2302 cabc
000001d0: 6721 3abc 8802 4c3b cb8f 493b 33c0 1e3b
000001e0: 71cb a73b 774b c03b 3f40 7f3b b5d9 033b
000001f0: ddac 673b d0ea 6b3b 7519 6f3b 7d02 053b
00000200: 1ca0 a13b 35d5 723b 418e 793b c9a7 893b
00000210: 85e5 2a3c d8e9 4b3b d278 be3c 58f6 143c
00000220: e7a2 5e39 fc52 bd3c 077f 823c 1f2a af39
00000230: e02f a8ba 4a00 39bb 7ec6 18bc 7213 06bb
00000240: 270d f6ba edcd cfba a2b9 afbb fc87 2dbb
00000250: 59bb 2dbb 10a1 beba 9c35 b8bb d12b 80bb
00000260: 615a 50bb 0b70 9ebb
-0.0056540486 -0.0010614938 -0.014227581 -0.0046711597 -0.0005319191 -0.013323453 -0.013784448 -0.00039461104
-0.00022396176 0.0014226409 0.0028144016 0.0036339352 0.002415492 0.0017351166 0.0022958226 0.0019663975
0.0015410755 0.000903409 0.0031002634 0.0019829804 0.0019711938 0.0026388569 -0.005345742 0.0025897983
-0.026725892 -0.0101472335 0.0033838404 -0.025491422 -0.01871926 0.003968015 0.003518842 0.0020991915
0.004946742 0.006023855 0.00406393 0.0029493235 0.0040198467 0.0039455793 0.0036399001 0.0019453091
0.0055264896 0.0039967154 0.0037921313 0.0047902893 -0.0033553673 4.063456e-05 -0.0013528124 -0.0034823285
0.0007435986 -0.0006263452 -0.008137218 0.00021937906 0.00021292409 0.00018786841 -0.00033087793 0.00032981343
0.00012494631 9.4369345e-05 0.00019211121 0.00020898152 -0.00017470776 -0.00020586715 0.00044108398 0.00022381057
-0.0001324071 0.00044256935 -0.0047383043 0.0023858263 -0.03029036 -0.009980484 0.0035563381 -0.029151749
-0.018018201 0.0039047853 0.0037905134 0.003197799 0.0061155693 0.006115436 0.0044808458 0.003229685
0.0046212836 0.004448087 0.004229389 0.0023409454 0.006241046 0.0045362604 0.0043515437 0.005384348
0.011909179 -0.010079081 0.08100679 0.027883178 -0.011214128 0.076352656 0.059040345 -0.012269906
-0.010042124 -0.007121463 -0.010162579 -0.021570291 -0.014159689 -0.0092649525 -0.010226433 -0.012573664
-0.011160175 -0.006045143 -0.01596308 -0.011495759 -0.0115390755 -0.013777474 -0.0021823926 0.0021284304
-0.025033971 -0.0061434535 0.0028352665 -0.024659222 -0.011360503 0.0031129438 0.0030755873 0.0024223446
0.0051206877 0.005868371 0.0038948206 0.0020118777 0.0035350837 0.0035998113 0.003648368 0.0020295673
0.0049324166 0.003705335 0.0038079175 0.0042009098 0.010430698 0.0031114724 0.023250971 0.009091936
0.00021232256 0.02311086 0.015929712 0.00033409984 -0.0012831651 -0.0028228932 -0.009324668 -0.0020458368
-0.001877223 -0.0015854217 -0.0053627053 -0.0026478758 -0.0026509373 -0.001454385 -0.005621625 -0.0039114733
-0.0031792151 -0.004835134

exp_avg_sq f4 [7, 22]
00000000: 52c0 2d38 4c3c 5b38 33b6 e539 8c9d 4e38
00000010: 816b 7a38 2946 e339 81a6 6738 e225 8b38
00000020: 526a 4f38 a2b5 1037 3b25 0b37 0886 4d37
00000030: a63c 1537 4744 9736 3b52 ea36 7616 4e37
00000040: eba1 8a37 e3d0 8b36 ea06 9f37 cb25 1937
00000050: e265 3737 4503 2b37 7ec2 2139 eaa9 8c36
00000060: 43bb 3b3a 2ffd 8b38 f331 8736 20de 523a
00000070: 7eca cb39 2257 c636 e2f2 3e37 468f 9638
00000080: bc4f 7737 9d7e 9c37 deaf 8337 e389 c836
00000090: 6c0e 8737 1ddf 8637 fd4b ee37 83e8 3837
000000a0: 556e fd37 708f 4337 cb10 c137 64dc 4337
000000b0: 16ca 2139 8d46 a636 33c1 d339 b5b5 6638
000000c0: ef0e fe34 7875 043a 38c4 083a 81bf e536
000000d0: 9dce fd36 3478 0537 64f0 1d38 cfab 5d37
000000e0: 8227 4237 557e b836 3362 1b37 3070 1237
000000f0: efc2 ab37 ce9b 0837 61ec 6a37 505e 0037
00000100: 6ea6 a537 54de d136 45b0 a337 8c3f 3a36
00000110: e0b9 1d39 a8ad ae37 3e6b 6436 4812 1c39
00000120: 39d5 bd38 e6a9 8e36 3786 5436 3217 9836
00000130: c7a3 d436 56a4 a636 971d 6d36 0c35 0c36
00000140: c3b0 9b36 6f35 6236 1d0c 8836 893f b135
00000150: a3d8 f836 e4c1 3d36 89f1 8236 139a 8436
00000160: e396 5e38 822a 0f38 6191 c83a aa51 4b39
00000170: ed21 4338 054b b43a 799e 5b3a d425 7038
00000180: 1a9f cd37 3405 7937 3879 1a38 fce2 b938
00000190: ed48 4c38 e339 9b37 18d2 0538 46be 1b38
000001a0: aa5b fb37 8528 0837 cd50 9a38 130f e337
000001b0: 2739 0838 5e4f 3238 852d 7c38 80ae 8736
000001c0: 4ae8 f739 f966 0439 b0ff f236 1093 d439
000001d0: f68a e539 42b5 2a37 e1b7 f036 9a7c 2437
000001e0: 1328 5a37 e20a 6137 e178 2c37 2fe9 9137
000001f0: e100 7937 a471 4c37 6291 2837 93c2 4e36
00000200: 2d3e e837 a22b 0e37 2318 1d37 bfbb 7d37
00000210: a330 c738 a5a6 4e36 5579 9b3a a00e 2639
00000220: 2c1a ff36 8c06 933a 2cb9 0d3a 8f64 1437
00000230: 400e 6937 0b25 7d37 f2dc 8638 cbde 0138
00000240: 822a ae37 256b 3a37 b67e 9638 a2e9 b537
00000250: b695 ad37 d842 bd36 53fe 9338 fcf8 c837
00000260: 6d24 ce37 0226 2138
4.1425526e-05 5.2269825e-05 0.00043814033 4.9260954e-05 5.9704766e-05 0.00043349087 5.522976e-05 6.635093e-05
4.9451664e-05 8.6253585e-06 8.293714e-06 1.2250159e-05 8.895213e-06 4.508099e-06 6.9833163e-06 1.2283786e-05
1.652628e-05 4.1668404e-06 1.8957497e-05 9.12831e-06 1.0931371e-05 1.01931555e-05 0.0001542661 4.1921057e-06
0.0007161388 6.6751956e-05 4.0291284e-06 0.00080439635 0.00038870046 5.9110034e-06 1.1381433e-05 7.179244e-05
1.4740912e-05 1.8655608e-05 1.5698311e-05 5.9765166e-06 1.609997e-05 1.607794e-05 2.8407196e-05 1.10213905e-05
3.0211328e-05 1.1656302e-05 2.3015213e-05 1.1674219e-05 0.0001542944 4.9553987e-06 0.00040389 5.50055e-05
4.7322052e-07 0.00050529046 0.0005217227 6.847026e-06 7.5640405e-06 7.955405e-06 3.7655598e-05 1.3212629e-05
1.15725e-05 5.4983343e-06 9.261584e-06 8.728399e-06 2.0475562e-05 8.142508e-06 1.4002523e-05 7.651353e-06
1.9747033e-05 6.254568e-06 1.9513196e-05 2.775315e-06 0.0001504193 2.0823281e-05 3.403707e-06 0.0001488413
9.051938e-05 4.2517086e-06 3.1668585e-06 4.5326533e-06 6.3371585e-06 4.9663167e-06 3.5332976e-06 2.0892503e-06
4.6399377e-06 3.3707727e-06 4.054526e-06 1.3206019e-06 7.416196e-06 2.8276054e-06 3.9024203e-06 3.951843e-06
5.306945e-05 3.4133445e-05 0.0015302115 0.00019390011 4.652322e-05 0.0013755268 0.0008377801 5.725569e-05
2.4511992e-05 1.4842768e-05 3.6829355e-05 8.8637666e-05 4.8705308e-05 1.8504395e-05 3.1905336e-05 3.7132086e-05
2.9964216e-05 8.115666e-06 7.3583426e-05 2.7067528e-05 3.2478154e-05 4.2512424e-05 6.0123875e-05 4.043628e-06
0.0004728458 0.00012626861 7.241928e-06 0.0004054536 0.00043781818 1.0174992e-05 7.1739637e-06 9.804173e-06
1.3003143e-05 1.3413579e-05 1.0280143e-05 1.7393932e-05 1.4841761e-05 1.2185807e-05 1.004743e-05 3.080965e-06
2.7685508e-05 8.474019e-06 9.363549e-06 1.5123688e-05 9.498119e-05 3.0793392e-06 0.0011861721 0.00015836442
7.602639e-06 0.0011217161 0.0005406316 8.844901e-06 1.38912e-05 1.50886e-05 6.430772e-05 3.096349e-05
2.076221e-05 1.11114105e-05 7.176159e-05 2.1685675e-05 2.0692922e-05 5.6404206e-06 7.056878e-05 2.39578e-05
2.4574076e-05 3.842079e-05

exp_avg f4 [7, 7]
00000000: c35d 6dba d1a3 a03a df7b 483a 5c92 093b
00000010: ca30 c53b efaf da3a bae7 533b 7140 463b
00000020: 3215 ca3a e260 d23a 2901 7b3b a028 123c
00000030: 7908 3c3b 5a81 bf3b c8c8 9d39 ba8f 9838
00000040: 94a2 cdba 61b3 9c39 7adb 7e3a 32b0 c2b8
00000050: cb52 583a 2820 643b a0c7 4b3b 2fcf f43a
00000060: 9787 903b 8925 fc3b 3af3 643b f1a5 f53b
00000070: e713 09bc 80a3 00bc 94f3 7fbb fcd1 35bc
00000080: bfff 19bd 686d 06bc f4d4 b4bb 6f09 273b
00000090: 43cd 263b 8cb7 dc3a aa58 4a3b 9874 153c
000000a0: 3701 8a3a 9167 c13b 44bb 6fba a6d7 a8ba
000000b0: 4a9e 1dba 5f9a 6ebb f5ea 1a3b 1c54 dcba
000000c0: e1e7 97bc
-0.0009054804 0.0012255852 0.0007647853 0.0020991778 0.006017779 0.0016684512 0.0032334165 0.0030250812
0.0015417694 0.0016050602 0.0038300252 0.008920819 0.0028691574 0.0058442773 0.00030094967 7.274696e-05
-0.0015688711 0.00029888286 0.00097220356 -9.28346e-05 0.0008252083 0.0034809206 0.0031094328 0.0018677468
0.004410695 0.007694904 0.0034935013 0.0074965884 -0.0083665615 -0.007851481 -0.0039055096 -0.011097427
-0.037597414 -0.008204795 -0.00551855 0.00254878 0.0025451935 0.0016839369 0.0030875602 0.009122036
0.0010528927 0.0059022387 -0.0009145031 -0.0012881651 -0.00060126616 -0.003640793 0.002363858 -0.0016809735
-0.018543186

exp_avg_sq f4 [7, 7]
00000000: 7833 8438 abc0 6637 113b 5236 6a4c 3037
00000010: 74a0 2837 0d82 fe36 ec83 f936 e2f2 2737
00000020: f022 1e39 6c80 0537 7f36 6337 1e2c 6d37
00000030: 4535 3b37 7661 4237 c4d5 a736 ea65 7437
00000040: 1b0c 8538 22bd f136 fd97 a336 1882 4e37
00000050: f539 7e36 0fb7 5436 ca96 0237 1267 7736
00000060: 81b6 7a36 6b8d d836 9d1a 8436 2686 3137
00000070: 61f9 a337 0928 8737 212b bf36 ab72 1338
00000080: 5164 7239 813a 8e37 acd6 0f38 a19f ed36
00000090: 7cd5 6437 023f d336 69d7 6f37 f3ad 7337
000000a0: e562 4238 28a4 8837 9a94 4437 7ef0 3637
000000b0: d0da 8436 4b29 0c38 0d37 9c37 889d 4f37
000000c0: 9771 7639
6.303837e-05 1.3753927e-05 3.132682e-06 1.0508209e-05 1.0050939e-05 7.58493e-06 7.436136e-06 1.0010526e-05
0.0001508107 7.957318e-06 1.3542943e-05 1.4136573e-05 1.1158471e-05 1.1585993e-05 5.0018734e-06 1.4567262e-05
6.344189e-05 7.2043777e-06 4.8754723e-06 1.2308847e-05 3.7882685e-06 3.1697016e-06 7.783712e-06 3.6865863e-06
3.7359134e-06 6.453765e-06 3.9370047e-06 1.0581256e-05 1.954724e-05 1.6111897e-05 5.6972644e-06 3.5154324e-05
0.00023116289 1.6954962e-05 3.4293786e-05 7.0817337e-06 1.3639565e-05 6.295625e-06 1.4295664e-05 1.4524429e-05
4.6345307e-05 1.6288905e-05 1.1717109e-05 1.0904039e-05 3.9593797e-06 3.3417058e-05 1.8622284e-05 1.237484e-05
0.00023502704

exp_avg f4 [7]
00000000: 11eb 663c 4f4b e23c e225 523a d23c 013d
00000010: 7311 a9bd ed76 d43c a50f c7bc
0.01409413 0.0276238 0.0008016509 0.031552143 -0.08255281 0.025935614 -0.024299452

exp_avg_sq f4 [7]
00000000: b556 0f3a 38c9 653a 3dd2 133a 5d3d 3639
00000010: 4cbc d43a 21fc 0d3a e235 a93a
0.00054679374 0.00087656407 0.0005638933 0.00017379732 0.0016230433 0.0005416293 0.0012909735

exp_avg f4 [7]
00000000: b1fa 663c 4d56 e23c 48f6 513a e640 013d
00000010: 9212 a9bd 706e d43c a91b c7bc
0.014097855 0.027629042 0.0008009416 0.031556033 -0.08255495 0.025931567 -0.024305182

exp_avg_sq f4 [7]
00000000: f556 0f3a afc9 653a 62d2 133a c942 3639
00000010: c7bc d43a 5afb 0d3a 5a36 a93a
0.00054679747 0.000876571 0.00056389545 0.00017381752 0.0016230576 0.00054161774 0.0012909875

exp_avg f4 [7, 22]
00000000: 0744 4dbb f464 a7bb 1d32 473c 3f99 043c
00000010: 69e6 babb bfc0 653c a8b4 683a b080 b7bb
00000020: cca5 68bb 47f9 8fba ca28 523b 0d5b b4bb
00000030: 9a11 2cbb 43a6 b2ba 0c34 baba e42a 84ba
00000040: 5fa4 b5ba 538e 33bb 6da9 f3ba 8da7 f0ba
00000050: 476f 17bb 53ff 9fba 4fca 4b3b d1ce 3138
00000060: e8c7 23bc 278a 1e3b 84d6 b738 2a3b 25bc
00000070: 2133 c33b dcfe cf34 8e20 ac3a 449a 813a
00000080: 1155 c83a 8772 0c3b a97a dd3a 2c5f 9f3a
00000090: 511b eb3a 3492 e83a 2478 5e3a 27ca 1a3b
000000a0: 7925 9f3a e577 fd3a bcc4 943a 414e b73a
000000b0: 9819 e8bc 93f7 883b eb51 af3d 53fc 04bd
000000c0: 24db 103b 2e83 ae3d 09ea 71bd df21 873b
000000d0: 514d edbb 55e1 0cbc 5c2e abbc 10bd 63bc
000000e0: 307a 5abc aeea 15bc 52d9 8dbc f145 8cbc
000000f0: 4bfd d1bb 15cb a9bc 759d 1abc ed04 80bc
00000100: 3f0f 0abc bc0a 50bc 5c97 80bb fcce 6d3a
00000110: 65a8 03bc 557b 8abb fb9d 1f3b 27ba f6bb
00000120: 51f5 36bc 81fd 863a f518 6e39 15d7 d339
00000130: 47bd af3a 210d 3639 a545 6f3a 16c8 063a
00000140: 1937 1d3b cdec 323a efe1 cc39 a3bf 183b
00000150: ed95 613a 8642 cb38 172b 283a 111d 7c3a
00000160: c09e 7b3c 8f16 8cb9 a378 35bd 56a3 553c
00000170: a4a2 8337 a00d 38bd cb94 f53c 4b2c a4b9
00000180: f4d2 a23b 9cdc a03b b833 003c f2e7 153c
00000190: 6171 f73b 8c15 a83b b796 023c 89e3 073c
000001a0: 9e50 6e3b e09f 2c3c 2eac aa3b c240 0d3c
000001b0: e8af 9e3b a94f d03b 8821 0a3c 12d4 c8b9
000001c0: 2d2a 89bc 108a e63b c79e 4237 5b1d 8cbc
000001d0: 468d 873c f091 fab8 14b6 003b 3728 e63a
000001e0: 068f 4d3b 7745 733b 1ef0 4c3b b2ed c73a
000001f0: d333 453b 7ca0 623b 135e ae3a 195d 7d3b
00000200: c092 f13a c1df 5a3b 61ad f63a 170e 243b
00000210: f85e 463c e1a2 fdb9 1fbd ecbc 7b1c 3a3c
00000220: 4f18 3f39 0128 f2bc dc65 cd3c 2337 40b9
00000230: 6e2b 413b 8dcc 333b 24a7 cd3b 6c81 c83b
00000240: 0602 963b 262d 5a3b ba37 ab3b 17f4 c43b
00000250: 3f10 153b 6505 e33b 1e55 523b 7a21 b13b
00000260: 2604 4d3b 229d 8b3b
-0.0031321065 -0.00510847 0.012157944 0.008093177 -0.0057037366 0.014023005 0.00088770175 -0.0056000575
-0.0035499213 -0.0010984325 0.003206777 -0.005504018 -0.0026255609 -0.0013629872 -0.0014206185 -0.0010083583
-0.001385819 -0.0027398064 -0.0018589922 -0.0018360481 -0.0023107098 -0.001220683 0.0031095927 4.23927e-05
-0.009996392 0.0024191232 8.766077e-05 -0.010084907 0.005957023 3.874219e-07 0.0013132261 0.0009887894
0.0015284141 0.0021430568 0.0016897517 0.0012159101 0.0017937218 0.0017743767 0.000848653 0.0023619027
0.0012141905 0.00193381 0.0011350135 0.0013985113 -0.028332517 0.004179904 0.085605465 -0.032467198
0.0022103274 0.08521114 -0.059061084 0.004123911 -0.007241883 -0.008598645 -0.02089613 -0.0139000565
-0.013334796 -0.00915019 -0.01731554 -0.017123194 -0.0064083687 -0.02072672 -0.009436955 -0.015627349
-0.0084264865 -0.012697872 -0.0039242934 0.00090716756 -0.008035754 -0.004226128 0.0024355638 -0.0075295153
-0.011166886 0.0010298939 0.00022706746 0.00040405305 0.001340785 0.00017361763 0.00091275043 0.00051415095
0.002398914 0.0006825447 0.00039078246 0.0023307584 0.00086054095 9.692185e-05 0.00064151123 0.00096173683
0.015357673 -0.00026719688 -0.0443045 0.013039431 1.5692152e-05 -0.04493487 0.029978177 -0.00031313518
0.004968995 0.004909111 0.007824831 0.009149538 0.0075513576 0.0051295217 0.0079705035 0.008293995
0.003636397 0.010536164 0.0052085137 0.0086213965 0.004842747 0.0063571525 0.008430846 -0.00038304977
-0.016743744 0.0070355013 1.1600269e-05 -0.017103842 0.016546857 -0.00011948112 0.0019639777 0.0017559592
0.0031365766 0.0037120262 0.003127105 0.0015253334 0.0030090704 0.003458052 0.0013303183 0.0038660227
0.0018430576 0.0033397528 0.0018819981 0.0025032812 0.012107603 -0.00048377275 -0.028898774 0.011359329
0.00018224235 -0.029560091 0.025072984 -0.00018331087 0.002947535 0.0027435154 0.006276028 0.006118944
0.004577878 0.003329107 0.005225149 0.006010543 0.002274528 0.0069281333 0.003209419 0.005405602
0.003128299 0.004260675

exp_avg_sq f4 [7, 22]
00000000: dd59 ef38 9c0f 9d37 e993 983a 0a56 3338
00000010: 6529 ee37 61c3 a03a 1031 aa39 6570 c937
00000020: 3a8b 8d38 1bf3 6237 b258 9037 674e 7738
00000030: 5826 f937 304d 5e37 7ba1 0b38 2399 f437
00000040: 101a 1d37 10d2 6838 8536 9637 2622 5238
00000050: 2bd8 a037 e347 b237 8fe6 5437 f0a6 0635
00000060: 865b 8a38 a485 8436 59fd 7034 0544 9d38
00000070: 0e98 0738 633d 1d35 cab4 d035 8b80 ab36
00000080: 4e1c 8535 d3b5 0536 aaad b735 5d2a 6935
00000090: 8ad4 d435 58d0 f935 3699 0435 ea77 4936
000000a0: 4d19 8e35 dd59 8b36 dba1 6e35 e03a ad35
000000b0: c7df 6939 7126 8536 bfb3 153b 248b 8d39
000000c0: 4321 9536 d581 123b a48b 7a3a e041 8a36
000000d0: dbde d037 01a0 ea37 f178 1139 fc98 8838
000000e0: 84e9 5238 eeaa e937 fe93 a938 4582 a338
000000f0: faa6 6137 5692 dd38 fc1d e937 1e02 d938
00000100: ba53 d237 ada2 5538 f194 0039 09dd ac35
00000110: b38e c839 7609 c438 cfbd 9b36 0a48 d639
00000120: b243 133a 85fe d635 5eb1 3e37 adef ed36
00000130: a2ff 4f37 fbb7 a737 b940 4237 7c78 cc36
00000140: d3ec 2637 31fe 8437 1e1e 5636 9b2a 8337
00000150: b172 b736 bae6 e737 1bf6 c136 f0d3 1337
00000160: b4c6 e337 6e36 5935 87dc 6f39 542d d337
00000170: d2e9 8835 e85a 7139 0c59 eb38 25fa 6a35
00000180: 1821 8036 a3ef 6536 6dce 1d37 2e0c 1337
00000190: 9a8a d136 0ceb 4d36 c4d1 ff36 1dd2 f236
000001a0: 6a5f cb35 f766 3537 e741 4e36 a518 3637
000001b0: 7093 3a36 8b11 a436 3956 7d37 8b97 1636
000001c0: 5b7f b339 9a99 8537 0463 3435 73c5 b239
000001d0: ea45 9438 2618 2135 d772 d336 71ce 8d36
000001e0: 50ff ad36 b83b 2c37 2889 d236 0d5b 4937
000001f0: 0217 3f37 a214 b336 92af 4936 9622 a137
00000200: 2ec7 e236 0300 6537 dac5 8f36 82c2 b236
00000210: 685f 9537 bb65 1536 5b39 143a c398 3c38
00000220: 5df2 5735 d90e 0d3a edfe 0e39 bac1 3c35
00000230: ed19 c936 7ac1 cc36 8733 2537 d107 6d37
00000240: 2898 cf37 a963 0d37 471f 0038 cc3f 1a37
00000250: cd57 9436 7084 e637 fd2e 2237 47c7 d137
00000260: 85a1 e736 e31b 3437
0.000114131464 1.8723127e-05 0.001164076 4.2757056e-05 2.8391087e-05 0.0012265259 0.0003246148 2.4013405e-05
6.749337e-05 1.3527252e-05 1.720744e-05 5.8962407e-05 2.9700968e-05 1.3250203e-05 3.3290573e-05 2.9158376e-05
9.363997e-06 5.5508746e-05 1.7906781e-05 5.0099705e-05 1.9174147e-05 2.1252728e-05 1.2689866e-05 5.0161816e-07
6.5974e-05 3.9494644e-06 2.2443909e-07 7.499013e-05 3.232812e-05 5.8576387e-07 1.5549824e-06 5.1111615e-06
9.91751e-07 1.992438e-06 1.3685105e-06 8.686091e-07 1.5857088e-06 1.8612582e-06 4.9396783e-07 3.0021133e-06
1.0587188e-06 4.1529843e-06 8.889744e-07 1.2906639e-06 0.00022303975 3.968184e-06 0.0022842733 0.00026997284
4.444418e-06 0.0022355218 0.0009557551 4.1203893e-06 2.4899307e-05 2.7969481e-05 0.00013873332 6.513481e-05
5.028538e-05 2.785536e-05 8.086114e-05 7.79671e-05 1.3449922e-05 0.000105653584 2.7789727e-05 0.00010347761
2.5072939e-05 5.093466e-05 0.00012262516 1.2879328e-06 0.00038253292 9.3477705e-05 4.6414566e-06 0.00040870934
0.00056176924 1.6018317e-06 1.1366179e-05 7.0910523e-06 1.2397681e-05 1.9993624e-05 1.15783705e-05 6.0937e-06
9.949511e-06 1.5853993e-05 3.1906015e-06 1.5636257e-05 5.467177e-06 2.7644786e-05 5.7804987e-06 8.811228e-06
2.7153037e-05 8.0918005e-07 0.00022874969 2.5174268e-05 1.020084e-06 0.00023017416 0.000112222595 8.75358e-07
3.81855e-06 3.4263146e-06 9.4059915e-06 8.764719e-06 6.2448207e-06 3.0684196e-06 7.624012e-06 7.2366224e-06
1.5152448e-06 1.0812414e-05 3.0734752e-06 1.0853783e-05 2.780198e-06 4.889623e-06 1.510005e-05 2.2439951e-06
0.00034236428 1.5926362e-05 6.719931e-07 0.00034097917 7.0702125e-05 6.0012314e-07 6.301659e-06 4.2261604e-06
5.185524e-06 1.0265903e-05 6.274455e-06 1.2001733e-05 1.1389844e-05 5.3370177e-06 3.005353e-06 1.9208801e-05
6.7585124e-06 1.3649466e-05 4.284765e-06 5.327457e-06 1.7806611e-05 2.2261945e-06 0.00056542986 4.4964963e-05
8.0446426e-07 0.00053809356 0.00013637143 7.0317367e-07 5.993285e-06 6.1021974e-06 9.8467635e-06 1.4128121e-05
2.4747176e-05 8.427459e-06 3.0546707e-05 9.193969e-06 4.420965e-06 2.7479808e-05 9.666893e-06 2.5007537e-05
6.90314e-06 1.0735329e-05

exp_avg f4 [7, 7]
00000000: 0635 8cbc c299 77ba a295 103c fe5d e339
00000010: 502e 95ba c2b5 dfba fc38 3aba 7220 1a3b
00000020: 7a6c e339 3de1 3d3b f7e2 bb3a 6b0f b03a
00000030: cf0e 823a a506 a23a 7861 17bc fcda 91bb
00000040: ccd1 46bd 1f26 90bb 78e6 24bc 2be9 a2bb
00000050: 75be 0fbc 1334 6d3b a7bb a739 a2b7 e23b
00000060: 14b8 d6bb 1925 b8b9 84d8 363a 29b3 ab3a
00000070: e3ec 0d3c a21a 363b a39b 873c dfb0 ab3b
00000080: 326a bf3b 4c6d 673b 5620 a03b b8a7 9d3b
00000090: e298 723a 1e89 d63b fa4c 083b d6c7 103b
000000a0: 8c29 9eb9 ab97 ff3a 363b e13b 3eeb c23a
000000b0: 4069 673c ec10 283b da52 523b 4d87 063b
000000c0: bd21 6a3a
-0.017115127 -0.0009445214 0.008824738 0.00043366844 -0.00113816 -0.0017067718 -0.0007103828 0.0023517874
0.00043377635 0.0028973364 0.0014334609 0.0013432329 0.0009922626 0.0012361599 -0.009239547 -0.004451154
-0.04853992 -0.0043990756 -0.010064714 -0.0049716434 -0.008773436 0.0036194369 0.00031992534 0.0069188634
-0.0065527055 -0.00035122855 0.00069750124 0.0013099659 0.008662435 0.002778687 0.016553706 0.0052395905
0.005841517 0.0035312949 0.0048866672 0.0048112534 0.00092543487 0.0065471074 0.0020797835 0.0022091768
-0.00030167063 0.0019500157 0.0068735136 0.0014871133 0.014124215 0.0025644852 0.003209284 0.0020527423
0.0008931419

exp_avg_sq f4 [7, 7]
00000000: 519b 5f39 363f 9936 0914 6538 83f2 3737
00000010: 2927 b137 c1ac 1937 258a 2837 d30a 1136
00000020: 0204 9b36 806e 2036 da45 7d35 1efa 2d36
00000030: 1aa5 8d35 aa2a c135 120a 5638 97b8 0337
00000040: a287 033a 5e57 6f37 cd59 3938 fd29 7137
00000050: 94cb eb37 99e2 5d37 c567 f235 d0bc 8537
00000060: 4025 5c38 b6b8 8337 2e8f 8736 1c3c d636
00000070: 197a 2237 9821 b835 1663 1138 469a 7536
00000080: a39f a936 f801 0936 459c ac36 5cbf d636
00000090: 1541 d535 b6b7 7137 e7c3 9836 7cad d536
000000a0: 47ec 3238 7c65 5e36 7577 2637 188c 0c36
000000b0: d564 1f38 e4f7 a936 e8d3 4137 1861 7236
000000c0: bdc0 9e38
0.00021324797 4.567114e-06 5.4616514e-05 1.0964114e-05 2.111828e-05 9.159733e-06 1.0045745e-05 2.1612984e-06
4.6198265e-06 2.3906177e-06 9.435149e-07 2.5924596e-06 1.055337e-06 1.4392037e-06 5.1030955e-05 7.851187e-06
0.0005017464 1.4265852e-05 4.419107e-05 1.4374496e-05 2.8108981e-05 1.3225385e-05 1.8060606e-06 1.5942758e-05
5.248678e-05 1.570243e-05 4.039982e-06 6.3846946e-06 9.6843805e-06 1.3718845e-06 3.4662975e-05 3.6597644e-06
5.0551766e-06 2.0415737e-06 5.1441916e-06 6.399974e-06 1.5888678e-06 1.4407493e-05 4.552759e-06 6.368091e-06
4.2658558e-05 3.313965e-06 9.922184e-06 2.094317e-06 3.800246e-05 5.0654508e-06 1.1553035e-05 3.6117326e-06
7.5699274e-05

exp_avg f4 [7]
00000000: 196b 4abc 0bf9 2e3c d83c b9bd 7651 c33b
00000010: 3f8b 423d d250 953c 61b4 ff3c
-0.012354636 0.010679494 -0.09044808 0.0059606386 0.047496077 0.018227015 0.031213941

exp_avg_sq f4 [7]
00000000: 5b35 aa3a 5976 a638 a851 253b 179b 053a
00000010: f11c 8739 fd4f bd39 d2c1 193a
0.0012985872 7.937541e-05 0.0025225673 0.00050966576 0.0002577077 0.00036108485 0.00058653683
