data_10frm/model/0_3_4_15.pt (torch_old, 18399 bytes, 52 tensors)

rnn.weight_ih f4 [7, 22]
0	0x3e1fdd10	0.15611672
1	0xbe42a41a	-0.19007912
2	0xbe5c449a	-0.21510544
3	0xbebdba9b	-0.3705643
4	0xbdc7ac15	-0.09749619
5	0xbe53f2f7	-0.20698152
6	0x3eb00246	0.34376734
7	0x3dc77ed4	0.097409874
8	0x3e36805e	0.17822406
9	0xbebef581	-0.3729668
10	0x3e9058ae	0.28192657
11	0xbd4d82a5	-0.05017342
12	0xbea17308	-0.31533074
13	0x3e8c13e1	0.27358916
14	0xbda7ae53	-0.081875466
15	0x3eb9bc4d	0.36276475
16	0xbe6412c9	-0.22272791
17	0xbea54caf	-0.32285067
18	0xbe81704d	-0.2528099
19	0x3e358dea	0.17729917
20	0x3b677eba	0.0035323338
21	0xbeaa81f4	-0.3330227
22	0x3dabbb04	0.0838528
23	0xbc87dd74	-0.01658509
24	0x3e50bed6	0.20385298
25	0xbe3180c0	-0.1733427
26	0xbe8c38a0	-0.2738695
27	0x3ea200c3	0.31641206
28	0xbe2caf05	-0.1686364
29	0x3e998f13	0.2999197
30	0x3e6e6c42	0.23283485
31	0xbe756591	-0.23964526
32	0xbe79f8d1	-0.24411322
33	0xbd39c990	-0.04535824
34	0xbee0d6b2	-0.439138
35	0x3b81bfee	0.0039596474
36	0xbe746796	-0.2386764
37	0xbe63fefc	-0.22265238
38	0xbeb79135	-0.35852972
39	0x3dd74b7d	0.10512445
40	0xbe9dfdb7	-0.30857632
41	0xbead712b	-0.33875403
42	0xbe346828	-0.17617857
43	0xbe8df037	-0.27722332
44	0xbe99518c	-0.29945028
45	0xbcd96092	-0.026535306
46	0xbe3d699d	-0.1849732
47	0x3ec05c2b	0.3757032
48	0x3e2604f4	0.16212827
49	0xbe8fbb6c	-0.2807268
50	0xbe09ba1b	-0.134499
51	0xbe928295	-0.2861525
52	0x3e598220	0.21241045
53	0x3c79b313	0.0152404485
54	0xbd64e625	-0.055883545
55	0x3e8e1d7b	0.27756867
56	0x3ecae4bc	0.39627635
57	0x3e96140f	0.29312178
58	0xbe81aacd	-0.25325623
59	0xbca210c7	-0.01978339
60	0xbd3c15df	-0.045919295
61	0x3ebddd32	0.3708282
62	0xbe2a6746	-0.16640958
63	0xbe3fbaa9	-0.18723549
64	0x3ce191c0	0.02753532
65	0xbd2f5c77	-0.04281279
66	0x3e73e639	0.23818292
67	0xbe070a89	-0.13187613
68	0xbe63db1e	-0.22251555
69	0x3ec920da	0.39282876
70	0x3da074ad	0.07834754
71	0x3da70269	0.081547566
72	0xbe6d3818	-0.2316593
73	0x3c99dba6	0.018781494
74	0x3e858421	0.2607737
75	0x3decf613	0.115703724
76	0xbdf8f52a	-0.12156136
77	0x3d6d29c5	0.057901163
78	0xbe072537	-0.1319779
79	0x3eb59358	0.35463977
80	0x3eb00f15	0.34386507
81	0xbc216adc	-0.009852137
82	0xbe767b2d	-0.24070425
83	0x3e59bb62	0.21262887
84	0x3e4d805f	0.20068501
85	0x3e65c9a6	0.22440204
86	0xbe92bb32	-0.28658444
87	0x3e04dafe	0.12974164
88	0xbeaa3ba9	-0.33248642
89	0xbec6d673	-0.38835487
90	0xbd59a701	-0.053137783
91	0x3d12fd40	0.03588605
92	0x3e06b108	0.1315347
93	0xbdf36a96	-0.11885564
94	0x3d820ff2	0.063506976
95	0x3e845731	0.25847772
96	0x3db84f2d	0.089994766
97	0x3c341cac	0.010993164
98	0xbe697b23	-0.22800879
99	0x3d0b3dc3	0.033994447
100	0x3db0791b	0.08616849
101	0xbcb35166	-0.0218894
102	0xbeeda728	-0.46416593
103	0xbeb3e4d4	-0.3513552
104	0x3daf45b4	0.08558217
105	0x3d60a4c4	0.054844633
106	0x3c847909	0.016170995
107	0xbea62289	-0.32448223
108	0xbe96d1f2	-0.2945705
109	0xbef7e9b4	-0.4842049
110	0xbee61e00	-0.44944763
111	0x3ea5a84d	0.32354966
112	0xbea90d4a	-0.3301795
113	0xbe8f6121	-0.2800379
114	0x3cda9816	0.026683848
115	0xbe7bd8aa	-0.2459437
116	0xbe0000fb	-0.12500374
117	0xbdffeb21	-0.12496019
118	0x3e0f2fd9	0.13983096
119	0xbe906db3	-0.28208694
120	0x3cd9eeda	0.026603151
121	0xbeaae7a1	-0.33379844
122	0x3e5ea02e	0.21740791
123	0x3ee0e2e4	0.43923104
124	0xbdef189d	-0.116746165
125	0x3d1647a1	0.036689404
126	0xbe308a45	-0.17240246
127	0xbe5d9d70	-0.21642089
128	0xbe2671a7	-0.16254292
129	0xbe34986c	-0.1763627
130	0x3dcd21e1	0.100162275
131	0xbcd58c2a	-0.026067812
132	0xbe4e0326	-0.20118389
133	0xbe77d86f	-0.24203657
134	0xbe643423	-0.22285514
135	0xbefc7b58	-0.49312854
136	0xbe95d10c	-0.29261053
137	0x3eabec0c	0.33578527
138	0xbd644abf	-0.055735346
139	0xbec4aa17	-0.38411018
140	0xbdeba4f1	-0.115060695
141	0x3b20cca3	0.0024536035
142	0x3dde1cc9	0.10845334
143	0x3e999026	0.2999279
144	0x3dcd7d8d	0.100337125
145	0x3e8a7465	0.27041927
146	0xbdef48b6	-0.116837904
147	0xbdad5a56	-0.08464496
148	0xbe74a28c	-0.23890132
149	0x3d878045	0.06616262
150	0x3eae7447	0.34073088
151	0x3e65d83d	0.2244577
152	0x3ebcce9a	0.36876374
153	0xbe37f55b	-0.1796469

rnn.weight_hh f4 [7, 7]
0	0x3d5b51b1	0.053544704
1	0x3dbfbe2c	0.09362444
2	0x3e770646	0.24123487
3	0xbecd8bce	-0.40145725
4	0xbe365884	-0.17807204
5	0x3daa9b86	0.08330445
6	0xbe74e485	-0.23915298
7	0x3d457193	0.048204016
8	0x3cbb2258	0.022843525
9	0xbe38e8c1	-0.18057539
10	0x3dbc4ec6	0.09194712
11	0x3e7d355b	0.24727385
12	0x3e856c85	0.26059356
13	0x3d9e1886	0.07719521
14	0xbbcb6a4a	-0.006207739
15	0x3e97a75c	0.29619873
16	0x3ecf2374	0.40456736
17	0xbe782299	-0.24231948
18	0x3e4dd68e	0.20101377
19	0xbb244afc	-0.0025069108
20	0xbe18abbc	-0.14909261
21	0xbe139671	-0.14412858
22	0xbdc49832	-0.095993415
23	0xbead8033	-0.3388687
24	0x3b1d5bab	0.0024010937
25	0x3e1fc2b7	0.15601622
26	0x3e612647	0.21987258
27	0xbcf5f284	-0.030022867
28	0xbf0db7b8	-0.5535846
29	0x3b80d44c	0.0039315578
30	0xbe91f330	-0.2850585
31	0x3de83f06	0.11340146
32	0xbf06d763	-0.52672404
33	0xbe94f83a	-0.29095632
34	0x3df3ad51	0.11898292
35	0x3d8964ed	0.06708703
36	0xbe2f20d8	-0.17102373
37	0xbeb68523	-0.3564845
38	0xbcc5a31f	-0.024125634
39	0x3e1a0777	0.1504191
40	0xbe5aec5e	-0.2137923
41	0xbeb12aed	-0.34603062
42	0xbe05e58b	-0.13075845
43	0xbdda15fe	-0.10648726
44	0x3e155371	0.14582612
45	0xbecec890	-0.40387392
46	0xbd8b2b53	-0.06795373
47	0xbeaf6e1f	-0.34263703
48	0x3ca5c1d0	0.020234019

rnn.bias_ih f4 [7]
0	0xbe2acd4a	-0.16679874
1	0x3d68fa7d	0.05687951
2	0xbe8d38f5	-0.27582517
3	0xbe922094	-0.2854048
4	0xbedacf35	-0.4273621
5	0xbea1520d	-0.31507912
6	0x3e5f49fa	0.21805564

rnn.bias_hh f4 [7]
0	0xbce39c19	-0.027784394
1	0xbe8b45ac	-0.27201593
2	0x3e9c4270	0.30519438
3	0xbd97388f	-0.073838346
4	0xbc8eb81a	-0.01742177
5	0xbdcf4d35	-0.10122148
6	0xbeac687d	-0.33673468

exp_avg f4 [7, 22]
0	0x38b37f31	8.5590764e-05
1	0xba21f053	-0.00061774737
2	0xbbe81f9f	-0.0070838477
3	0xba94c263	-0.0011349436
4	0xb9c4bfa0	-0.00037526805
5	0xbbe5e037	-0.007015254
6	0xbad0b4e9	-0.0015923056
7	0xb9d70e05	-0.0004101844
8	0xb90ada22	-0.00013241966
9	0x3a39940e	0.0007079252
10	0x3aaf2a73	0.0013364091
11	0x3ae5c78d	0.0017530784
12	0x3a8538c9	0.0010164018
13	0x3ab9df04	0.0014180844
14	0x3a8c9d11	0.0010727962
15	0x3a046371	0.00050502183
16	0x39fa92fb	0.00047793225
17	0x3aac0d87	0.001312659
18	0x3af6650a	0.0018798423
19	0x3a796aeb	0.0009514528
20	0x3a64174b	0.00087009807
21	0x3a9a2fe4	0.001176354
22	0xb8f3a7db	-0.000116184085
23	0xb9c1c701	-0.00036960098
24	0xbc0ff655	-0.0087867575
25	0xbada9440	-0.0016676262
26	0x38162fe7	3.58074e-05
27	0xbc0f9401	-0.008763314
28	0xbb116ad3	-0.0022188916
29	0x38857eeb	6.3655745e-05
30	0x3a86174b	0.001023033
31	0x3a62e94a	0.00086559786
32	0x3b0093eb	0.0019619416
33	0x3ade57fb	0.0016963476
34	0x3a843fc7	0.0010089808
35	0x3aa8f665	0.0012890814
36	0x3a97ab0a	0.0011571359
37	0x3a20aa27	0.00061288703
38	0x3a2566b8	0.0006309557
39	0x3ad3dfca	0.0016164717
40	0x3b23dfa4	0.0025005126
41	0x3a998631	0.0011712966
42	0x3a83f55c	0.001006763
43	0x3ac007f2	0.0014650805
44	0x3c2478c0	0.010038555
45	0x3b99ec57	0.0046973634
46	0xbc025f2c	-0.007957261
47	0x3b53d499	0.0032322763
48	0x39c94ba8	0.00038394076
49	0xbbfe051a	-0.007752073
50	0x3c81eebe	0.015860911
51	0x3a0dff9a	0.0005416811
52	0xb83e75ae	-4.5409128e-05
53	0x3a40bfad	0.00073527807
54	0xbb430653	-0.0029758408
55	0x3b24fa23	0.0025173507
56	0x3ad1fc28	0.0016020583
57	0x3b5f4322	0.0034067114
58	0x3af71040	0.0018849447
59	0x3a483c74	0.0007638403
60	0x39718ea1	0.00023036684
61	0xb9fc826c	-0.00048162357
62	0x3adad582	0.001669571
63	0x3a9ddb98	0.0012043593
64	0x3b0ea288	0.0021764357
65	0x3acc61e0	0.0015593134
66	0x3ba071c4	0.0048963744
67	0x387fe1d1	6.1007046e-05
68	0xbb89ef02	-0.0042094
69	0x3b97d28c	0.0046332534
70	0xb8535180	-5.0382223e-05
71	0xbbb9c52d	-0.005669257
72	0x3c2da1ce	0.010597659
73	0x39797961	0.00023791708
74	0x3ac284be	0.0014840586
75	0xba078d41	-0.000517089
76	0xbaafce71	-0.0013412965
77	0x3a925fd7	0.0011167479
78	0x3a1c203c	0.0005955731
79	0x3b4287cb	0.002968299
80	0x3a55ac81	0.000815101
81	0x39e743ab	0.0004411017
82	0x39ba96a3	0.00035588918
83	0xb967eb8a	-0.00022117622
84	0x3aa2a9b3	0.0012410193
85	0xb98b66c4	-0.00026588712
86	0x3acd84fc	0.0015679891
87	0x3b02ed06	0.0019977703
88	0xbac2f610	-0.0014874358
89	0xba960116	-0.0011444415
90	0xbc21e727	-0.009881771
91	0xbad31c7f	-0.0016106515
92	0xb9b2a43f	-0.00034073179
93	0xbc21c310	-0.009873167
94	0xbba45bd2	-0.0050158286
95	0xb997ea82	-0.00028975686
96	0x3aa5e3bc	0.0012656371
97	0x3a968c3b	0.0011485884
98	0x3ad28636	0.0016061726
99	0x3b1ebfc3	0.0024223186
100	0x39820c21	0.0002480457
101	0x3ae73330	0.0017639156
102	0x3af50856	0.0018694501
103	0x3a27cf7e	0.0006401463
104	0x3a5322f8	0.0008054222
105	0x3b16982f	0.0022978892
106	0x3b1c5353	0.0023853376
107	0x3ad1da4b	0.0016010491
108	0x3a80ec32	0.0009836017
109	0x3ad30e7c	0.0016102339
110	0xbbb8a7b9	-0.0056352285
111	0xb7a75579	-1.9947753e-05
112	0x3cc44985	0.023960838
113	0xba9e15bd	-0.0012060922
114	0x39b840ab	0.00035143396
115	0x3cc8c3ea	0.024507482
116	0xbbf19ef5	-0.0073736855
117	0x39e820b0	0.00044274842
118	0xba5600ff	-0.00081636006
119	0xbae5d559	-0.0017534896
120	0xba8c1063	-0.0010686036
121	0xbb82c28d	-0.0039904774
122	0xba830624	-0.0009996337
123	0xbc3679e5	-0.01113746
124	0xbb8bfb9d	-0.004271938
125	0xbaebb62e	-0.0017983371
126	0xbacb6403	-0.0015517477
127	0xbb280c94	-0.0025642263
128	0xbbdce20d	-0.0067408145
129	0xbb276ab4	-0.0025545778
130	0xbba78e6c	-0.0051134136
131	0xbb734b49	-0.003712373
132	0xbc2ad6b8	-0.0104271695
133	0xbb479f73	-0.003046003
134	0x3c5dead8	0.013544761
135	0xbbaaf11b	-0.0052167303
136	0xb96bf1cd	-0.00022501424
137	0x3c756848	0.014978476
138	0xbc8a643e	-0.016893502
139	0xba84e9cc	-0.0010140478
140	0xbb5010f9	-0.0031748398
141	0xba6f5eb4	-0.00091312383
142	0x3a7d5215	0.0009663415
143	0xbbad5cc6	-0.0052906005
144	0xbb5a8421	-0.0033342915
145	0xbac8cc28	-0.0015319632
146	0xbaa2be8f	-0.001241641
147	0xbaa99e8b	-0.0012940926
148	0xba81131d	-0.0009847615
149	0xba96318a	-0.0011458856
150	0xbb4714ac	-0.0030377312
151	0xbacfbbf8	-0.0015848866
152	0xbb0c8e80	-0.0021447241
153	0xbb8d8059	-0.0043182787

exp_avg_sq f4 [7, 22]
0	0x376482e7	1.3620337e-05
1	0x3718883c	9.0916255e-06
2	0x39b2f838	0.00034135743
3	0x370cb3fe	8.386558e-06
4	0x36b39a30	5.3525655e-06
5	0x39b7e284	0.00035073247
6	0x37dd0935	2.634954e-05
7	0x3705506b	7.9461415e-06
8	0x382c478a	4.107462e-05
9	0x3690677f	4.303583e-06
10	0x36cdca50	6.1330284e-06
11	0x36fb979e	7.4980335e-06
12	0x36bd5b59	5.643273e-06
13	0x36933e76	4.388213e-06
14	0x36a50912	4.918439e-06
15	0x36107d48	2.1530595e-06
16	0x3694465f	4.418936e-06
17	0x36e19cbc	6.723769e-06
18	0x37e0c504	2.6794623e-05
19	0x36f4e614	7.2985513e-06
20	0x368fc7ba	4.2849833e-06
21	0x372d1e37	1.03186385e-05
22	0x37231d41	9.722368e-06
23	0x3621d441	2.4114418e-06
24	0x399f10a6	0.00030339247
25	0x37b20363	2.122083e-05
26	0x34b35cf9	3.3408995e-07
27	0x399afc9e	0.00029561383
28	0x3897f07d	7.2450355e-05
29	0x34fbc887	4.6898296e-07
30	0x36c22c3c	5.7868e-06
31	0x369faa3c	4.758387e-06
32	0x37b106a7	2.1103142e-05
33	0x3703a7ce	7.8472785e-06
34	0x36c73814	5.9371905e-06
35	0x36a71327	4.9792175e-06
36	0x36f77708	7.3750307e-06
37	0x35fdba08	1.8904111e-06
38	0x36b7a95e	5.473542e-06
39	0x371a03c4	9.179992e-06
40	0x379561fa	1.7807808e-05
41	0x36e79e4a	6.9027637e-06
42	0x3624645a	2.4496317e-06
43	0x370ad507	8.27504e-06
44	0x39257433	0.00015778914
45	0x384ffa7c	4.9585928e-05
46	0x3b8ea127	0.004352707
47	0x39bcbb62	0.00035997765
48	0x36214b08	2.4034543e-06
49	0x3b8b00b5	0.0042420276
50	0x3ab672ac	0.0013919673
51	0x364e54f9	3.0745853e-06
52	0x388eeb24	6.814886e-05
53	0x3862e113	5.4092216e-05
54	0x39ce3259	0.00039328894
55	0x38f260ce	0.000115574905
56	0x389090f9	6.893458e-05
57	0x38774619	5.8954673e-05
58	0x388f0816	6.8202775e-05
59	0x37bdd305	2.262882e-05
60	0x387de061	6.052887e-05
61	0x392b33f2	0.00016327182
62	0x399a52d1	0.00029434872
63	0x38c7d18c	9.5280906e-05
64	0x38082d8c	3.2467346e-05
65	0x38f3c4ce	0.00011623801
66	0x38b367e9	8.55474e-05
67	0x374ee94e	1.2332877e-05
68	0x3b5899e2	0.0033050706
69	0x399b8e48	0.00029669912
70	0x36c08c65	5.73839e-06
71	0x3b4b5291	0.0031024555
72	0x3a61c688	0.00086126523
73	0x36ea2150	6.9776215e-06
74	0x3857ca96	5.1448667e-05
75	0x38f20491	0.0001154031
76	0x38bc099f	8.966331e-05
77	0x390a0a50	0.00013164547
78	0x388b3f2a	6.639802e-05
79	0x3834b88b	4.3087213e-05
80	0x38b1e4b1	8.482615e-05
81	0x3799a151	1.831414e-05
82	0x381dc17d	3.7611917e-05
83	0x38e7bb65	0.00011049843
84	0x394b35ec	0.00019379676
85	0x38cc16d3	9.7317294e-05
86	0x37f6b0ce	2.9407816e-05
87	0x38ad6be9	8.269383e-05
88	0x3803b34d	3.139982e-05
89	0x371e56f0	9.437776e-06
90	0x3b1fa982	0.002436251
91	0x390ffc1d	0.00013731462
92	0x35d15ef1	1.5599345e-06
93	0x3b18ddec	0.0023325635
94	0x3959b545	0.00020762261
95	0x36636f34	3.3890365e-06
96	0x387b8fca	5.9976977e-05
97	0x3816e6a9	3.5977606e-05
98	0x384ad10d	4.8355247e-05
99	0x387b1bb9	5.9868882e-05
100	0x390ee796	0.00013628448
101	0x382657f7	3.9659408e-05
102	0x3807c116	3.2366333e-05
103	0x37853705	1.5880456e-05
104	0x37bcd17b	2.2508893e-05
105	0x38885aa9	6.501872e-05
106	0x392fdb1c	0.00016770925
107	0x38645aea	5.4444106e-05
108	0x37e22934	2.6960486e-05
109	0x38880289	6.4854576e-05
110	0x38b44fc7	8.5979285e-05
111	0x3640dd16	2.8738918e-06
112	0x3b39c039	0.0028343333
113	0x37e0b877	2.6788779e-05
114	0x356c75d1	8.8088296e-07
115	0x3b3dc809	0.0028958342
116	0x38c114e6	9.20685e-05
117	0x35d8b5cc	1.6146164e-06
118	0x3802c563	3.1178246e-05
119	0x37c5c9c8	2.3578192e-05
120	0x380a9882	3.3043798e-05
121	0x38b71b22	8.731174e-05
122	0x381c52b0	3.7270307e-05
123	0x398174ed	0.00024691914
124	0x389cac53	7.4707576e-05
125	0x379713cb	1.800982e-05
126	0x37b78e3a	2.188153e-05
127	0x387fbc24	6.0971957e-05
128	0x39569e44	0.00020467589
129	0x38560677	5.1027597e-05
130	0x386b50a9	5.6103487e-05
131	0x38a6233a	7.922058e-05
132	0x39ac1781	0.00032823908
133	0x37b7b461	2.1899295e-05
134	0x3b896ed1	0.0041941185
135	0x38f031c8	0.00011453364
136	0x371de228	9.410585e-06
137	0x3b90ff90	0.0044249967
138	0x3a456721	0.0007530321
139	0x3780d66a	1.5358633e-05
140	0x38a62ab8	7.923454e-05
141	0x3849b446	4.8090027e-05
142	0x38901bd5	6.871639e-05
143	0x39509efd	0.00019895654
144	0x38d3596b	0.000100779194
145	0x38b6e1d0	8.720497e-05
146	0x3949eeec	0.00019257859
147	0x37f725af	2.9462242e-05
148	0x3818183c	3.6262194e-05
149	0x38d19d7c	9.99523e-05
150	0x3990e599	0.00027636884
151	0x38ae4eda	8.311654e-05
152	0x38841fd2	6.3001775e-05
153	0x39340f55	0.0001717185

exp_avg f4 [7, 7]
0	0xba31caa7	-0.0006782212
1	0x39969ba3	0.00028726188
2	0x3aaf72a9	0.0013385612
3	0x3affac5c	0.0019506323
4	0x3aa4ee2d	0.0012583189
5	0x3ad27998	0.0016057966
6	0x3ab74786	0.0013983108
7	0x39e80160	0.00044251513
8	0x39c20014	0.00037002622
9	0x3b23a9d6	0.0024973056
10	0x3b07ddb2	0.0020731506
11	0x3a89b970	0.0010507535
12	0x3aabcdce	0.0013107599
13	0x3aa50f23	0.0012593012
14	0x3a1ef9a4	0.0006064421
15	0xb7ffdf54	-3.0502364e-05
16	0xbc241963	-0.010015818
17	0x3bab041d	0.005218996
18	0x3b40f034	0.0029440047
19	0x3baed794	0.0053357575
20	0x3b48746d	0.0030586973
21	0x3a034287	0.0005007167
22	0x39519f6d	0.00019991184
23	0x3ac52ec4	0.0015043844
24	0xbc216c13	-0.009852427
25	0x38421094	4.6268644e-05
26	0x3bcb06d6	0.0061958833
27	0x3bd5f16d	0.0065290243
28	0x39b6b8ff	0.00034851578
29	0x39c4bf5f	0.00037526616
30	0x3b467517	0.0030282193
31	0x3bbb99ed	0.0057251365
32	0xbbb0003f	-0.005371123
33	0x3b1cf3b9	0.002394898
34	0x3b79a234	0.0038091065
35	0xba6a5481	-0.00089389837
36	0xba5a6142	-0.00083305326
37	0xb79e8ab0	-1.889965e-05
38	0xba803f6c	-0.0009784526
39	0xb8f2f552	-0.00011585154
40	0xbcb99ce9	-0.022657828
41	0x3abf2665	0.0014583586
42	0xba277f70	-0.0006389534
43	0xba0454a1	-0.0005048011
44	0x3aad78cd	0.0013234854
45	0x39f590e3	0.0004683799
46	0xb9e4ee2a	-0.00043664995
47	0x3ae80a87	0.0017703333
48	0xbc8720d2	-0.016495142

exp_avg_sq f4 [7, 7]
0	0x381774c6	3.610996e-05
1	0x3616459a	2.2392255e-06
2	0x36cb112c	6.0518705e-06
3	0x379869c9	1.8169072e-05
4	0x36eb603b	7.0147485e-06
5	0x36a1db85	4.8237293e-06
6	0x370732ea	8.058481e-06
7	0x35f357be	1.8130447e-06
8	0x36261c1c	2.475229e-06
9	0x3818a592	3.6393823e-05
10	0x37a4a2fe	1.9626223e-05
11	0x36feb968	7.591374e-06
12	0x36c5daeb	5.896543e-06
13	0x37149905	8.857115e-06
14	0x373305b0	1.0670556e-05
15	0x37f94271	2.9714052e-05
16	0x3a3d9b9b	0.0007232965
17	0x39829040	0.00024903007
18	0x388eeef6	6.8155976e-05
19	0x38204888	3.8214523e-05
20	0x38961095	7.155646e-05
21	0x36ff4d34	7.60858e-06
22	0x376d7468	1.4153404e-05
23	0x3893e751	7.052592e-05
24	0x3a46a06c	0.00075770053
25	0x383652c1	4.3469252e-05
26	0x38245c43	3.9186572e-05
27	0x390b9d50	0.00013314676
28	0x37204a65	9.5540645e-06
29	0x372e739c	1.0398126e-05
30	0x38404bff	4.5847144e-05
31	0x391ac722	0.00014760767
32	0x39ad2478	0.00033024303
33	0x37a7cec3	2.0004232e-05
34	0x387d050c	6.03246e-05
35	0x370a6945	8.249951e-06
36	0x36f81593	7.3934875e-06
37	0x37da1104	2.5995549e-05
38	0x38b6e177	8.7204324e-05
39	0x37c6c634	2.3695735e-05
40	0x3a2d7155	0.0006616314
41	0x38826ad9	6.218785e-05
42	0x379bb6db	1.8562589e-05
43	0x37874f5b	1.6130207e-05
44	0x38b06cbb	8.4125866e-05
45	0x393fe51b	0.00018300528
46	0x3889a5ee	6.563576e-05
47	0x3893236c	7.016104e-05
48	0x3a2b9f4d	0.000654687

exp_avg f4 [7]
0	0x3beb1c42	0.0071749995
1	0x3c13ad12	0.009013431
2	0x3be94224	0.0071184803
3	0x3ba7b607	0.005118135
4	0x3c291e2a	0.010322133
5	0xbcc4e41e	-0.024034556
6	0xbc6dd883	-0.014516952

exp_avg_sq f4 [7]
0	0x39bfd748	0.00036590756
1	0x39a7141e	0.0003186771
2	0x3b97742d	0.0046220035
3	0x3b5fce9f	0.0034150255
4	0x3b2324ed	0.0024893836
5	0x3b40a281	0.0029393735
6	0x3b9611d7	0.0045797634

exp_avg f4 [7]
0	0x3beb2da4	0.0071770716
1	0x3c13a85a	0.009012306
2	0x3be924ac	0.0071149673
3	0x3ba7cf95	0.0051211813
4	0x3c292c7e	0.010325549
5	0xbcc4deea	-0.024032075
6	0xbc6dd447	-0.014515943

exp_avg_sq f4 [7]
0	0x39bfd859	0.0003659155
1	0x39a71241	0.00031866322
2	0x3b977430	0.004622005
3	0x3b5fce4a	0.0034150057
4	0x3b232525	0.0024893966
5	0x3b40a242	0.0029393588
6	0x3b9611ce	0.004579759

exp_avg f4 [7, 22]
0	0xb888f6cd	-6.5309556e-05
1	0x3ab6af41	0.0013937728
2	0xbc106e5b	-0.008815373
3	0xbaaa07df	-0.0012972316
4	0x3aacfe83	0.0013198409
5	0xbc0f0a31	-0.008730457
6	0xbaebe326	-0.0017996773
7	0x3ac6e1d0	0.0015173499
8	0x3a0bf0a1	0.00053382857
9	0x3a55457c	0.0008135659
10	0x3ac852e1	0.0015283489
11	0x3b1cb197	0.0023909563
12	0x3ac39297	0.0014921007
13	0x3a92fd60	0.0011214428
14	0x3a932402	0.0011225941
15	0x3a32e35b	0.000682404
16	0x3b0dac5d	0.002161763
17	0x3a14c861	0.0005675611
18	0x3b1605d0	0.0022891648
19	0x3a32f1f1	0.0006826213
20	0x3af707cd	0.0018846929
21	0x3a416789	0.00073777937
22	0xbc7174ff	-0.014737367
23	0x3992a1d6	0.00027967867
24	0xbc5c4d04	-0.013446096
25	0xbc4e8bb1	-0.012606547
26	0x3b87812a	0.0041352706
27	0xbc1ffe0f	-0.009765162
28	0xbd17f24a	-0.0370963
29	0xb9a54f33	-0.0003153026
30	0x3b14a256	0.0022679768
31	0xbbdb5e5b	-0.0066945977
32	0x3b02742c	0.001990567
33	0x3bebfdf7	0.007201906
34	0x3b39fdf6	0.0028380132
35	0x3b48aca5	0.0030620482
36	0x38dff4a9	0.0001067904
37	0x3a5547bc	0.00081359944
38	0xba432960	-0.0007444825
39	0x39b709ac	0.00034911686
40	0x3b98b00f	0.0046596597
41	0x3a37ff3b	0.00070189283
42	0x3ba9dd0b	0.005183821
43	0xb943873e	-0.00018647031
44	0x399126db	0.00027685505
45	0x3a217a27	0.0006159865
46	0xbb3c9054	-0.002877255
47	0xb9801fb8	-0.00024437695
48	0x3a066a86	0.00051275676
49	0xbb3f1e69	-0.0029162413
50	0x388e9a7f	6.799865e-05
51	0x3a2a5b39	0.00064985786
52	0x39b891eb	0.00035203932
53	0x39d3cba0	0.0004039677
54	0x39eda72b	0.00045328712
55	0x3a22bd55	0.0006208022
56	0x39e15c1e	0.00042983977
57	0x39c0aca4	0.0003674972
58	0x39c7b775	0.00038092924
59	0x3969299c	0.00022236112
60	0x3a4d5e84	0.00078342133
61	0x394ad2e3	0.00019342783
62	0x3a4169eb	0.0007378149
63	0x39729329	0.0002313374
64	0x3a13efce	0.00056433387
65	0x398f6b43	0.00027355002
66	0x3c013ba2	0.007887753
67	0x3bef7fbd	0.0073089288
68	0xbd1149f5	-0.03547092
69	0x3b18b6c5	0.0023302299
70	0x3b936fc0	0.0044994056
71	0xbd1948c7	-0.03742292
72	0x3c8c2610	0.017107993
73	0x3be863c1	0.0070919697
74	0x3b0b3160	0.0021239147
75	0x3bc02f1c	0.005864991
76	0x3ba44149	0.0050126654
77	0x3bde07bd	0.006775825
78	0x3bb35c55	0.0054736533
79	0x3bd8db0e	0.00661791
80	0x3bbad7a0	0.005701974
81	0x3b2a85a5	0.00260196
82	0x3c3b746d	0.011441332
83	0x3b23dc5a	0.0025003166
84	0x3c04ccb7	0.008105448
85	0x3b3b8ca4	0.0028617764
86	0x3bd1968f	0.006396122
87	0x3b6fd6e2	0.0036596586
88	0x39efc8d9	0.00045735275
89	0x3aad934c	0.001324275
90	0xbbb5bda0	-0.0055462867
91	0xb9e891dc	-0.00044359162
92	0x3a84a63b	0.0010120341
93	0xbbb9c04f	-0.005668677
94	0x3796b09e	1.7963637e-05
95	0x3ab581df	0.0013847909
96	0x3a56774f	0.00081812305
97	0x3a659f9a	0.0008759439
98	0x39e6c2ca	0.00044014148
99	0x3ac451af	0.0014977957
100	0x39b6cad8	0.00034864875
101	0x3a8afed4	0.0010604509
102	0x3a5865f4	0.00082549383
103	0x39e96e5d	0.0004452345
104	0x3aba67c1	0.0014221595
105	0x39d16d07	0.00039944818
106	0x3ab59b14	0.0013855421
107	0x39fb3cfd	0.0004791989
108	0x3a9eb1b2	0.0012107401
109	0x3a07bb75	0.00051777746
110	0x3bfef7e1	0.0077810143
111	0xbc3b377c	-0.011426803
112	0x3d95ce42	0.07314731
113	0x3c774f34	0.015094567
114	0xbc4953dc	-0.01228806
115	0x3d91b194	0.071139485
116	0x3ccef007	0.025260938
117	0xbc379b50	-0.011206463
118	0xbbc918f8	-0.0061370097
119	0xbb1beda5	-0.002379277
120	0xbc359b0b	-0.011084328
121	0xbca20b70	-0.019780844
122	0xbc378601	-0.011201383
123	0xbc65fe70	-0.014037713
124	0xbc0c973c	-0.008580979
125	0xbbab9593	-0.0052363365
126	0xbc892074	-0.016739108
127	0xbb92fc11	-0.004485615
128	0xbc995dac	-0.018721424
129	0xbbb70ec1	-0.0055864756
130	0xbc8a23af	-0.016862718
131	0xbbb676b3	-0.0055683493
132	0x3aa0b072	0.0012259616
133	0xba11d936	-0.0005563678
134	0x3b8cfc75	0.004302556
135	0x39b075ea	0.0003365719
136	0xba415e90	-0.00073764566
137	0x3b844003	0.004035951
138	0x3b5026ff	0.0031761525
139	0x36b5f753	5.4230127e-06
140	0xb9ac8610	-0.0003290628
141	0x3abe64a8	0.0014525848
142	0xba32c292	-0.00068191544
143	0xbac17747	-0.0014760279
144	0xba2993db	-0.00064688706
145	0xba517881	-0.0007990674
146	0xbab85236	-0.0014062587
147	0xb998e3a0	-0.00029161293
148	0xba27a8bc	-0.0006395688
149	0xb93e1831	-0.00018128824
150	0xbab470cb	-0.0013766525
151	0xb957127c	-0.00020510884
152	0xba8787bd	-0.0010340136
153	0xb92bc9d1	-0.00016383013

exp_avg_sq f4 [7, 22]
0	0x3704ddf2	7.919489e-06
1	0x3858a5a8	5.1652692e-05
2	0x39f8ac5c	0.00047430664
3	0x3780c3c3	1.5349948e-05
4	0x3830773b	4.2072712e-05
5	0x39f9b7ff	0.0004763007
6	0x3838c195	4.4049306e-05
7	0x3855db01	5.098712e-05
8	0x3838a038	4.4018234e-05
9	0x36a1e4a4	4.824791e-06
10	0x37188a69	9.092132e-06
11	0x3791db5c	1.7387494e-05
12	0x373173c9	1.05769805e-05
13	0x36a74aa4	4.985677e-06
14	0x36de8b81	6.632356e-06
15	0x36adaf1b	5.1761867e-06
16	0x380041bd	3.05788e-05
17	0x3660a7f0	3.3476354e-06
18	0x38195bdb	3.656359e-05
19	0x3682d0b3	3.8985977e-06
20	0x373abb4c	1.1130072e-05
21	0x36af5aa7	5.2259597e-06
22	0x3a74aefa	0.0009333935
23	0x3a0894b8	0.0005210149
24	0x3be9331e	0.0071166893
25	0x394fd19f	0.00019819148
26	0x395cbed1	0.0002105192
27	0x3c05643e	0.008141575
28	0x3b640690	0.003479395
29	0x3a21b074	0.0006167956
30	0x39293acc	0.00016139
31	0x39ded3e0	0.00042501
32	0x394b8976	0.00019410797
33	0x39489918	0.00019130518
34	0x391acfb5	0.00014763961
35	0x38b3cd00	8.573569e-05
36	0x393561a8	0.00017297885
37	0x38795d93	5.9453374e-05
38	0x3a299773	0.0006469406
39	0x385f32b4	5.3214564e-05
40	0x3a02c1a7	0.0004987963
41	0x387404aa	5.8178477e-05
42	0x391e5885	0.0001510103
43	0x38f16749	0.00011511014
44	0x366d0ff2	3.5325033e-06
45	0x363ee43b	2.8445054e-06
46	0x38371411	4.364929e-05
47	0x35d0df11	1.5562129e-06
48	0x35d58fcb	1.5911586e-06
49	0x38443d96	4.6787398e-05
50	0x37827778	1.555284e-05
51	0x365aef51	3.2623832e-06
52	0x359e25ad	1.1782882e-06
53	0x3607640a	2.0174798e-06
54	0x358cf187	1.0501107e-06
55	0x35b31182	1.3341635e-06
56	0x358d0f6e	1.0509809e-06
57	0x351334e5	5.483874e-07
58	0x358ce657	1.049785e-06
59	0x34fdf1fc	4.730099e-07
60	0x3650886e	3.1073828e-06
61	0x34d406a1	3.94929e-07
62	0x36502402	3.1015375e-06
63	0x34c30404	3.6324502e-07
64	0x35574fe2	8.0209986e-07
65	0x352c9900	6.429764e-07
66	0x394b25df	0.00019373697
67	0x39dd595f	0.0004221899
68	0x3c02438e	0.007950677
69	0x39c7e626	0.00038127712
70	0x39bdb6b1	0.00036185005
71	0x3bffddcd	0.007808423
72	0x3ae80465	0.0017701505
73	0x39f51ca5	0.00046751383
74	0x3989569b	0.00026195202
75	0x390c678d	0.00013390016
76	0x395169ce	0.00019971209
77	0x39cc620c	0.00038982963
78	0x394455d1	0.00018723986
79	0x38b9ee7e	8.86591e-05
80	0x390ac31f	0.00013233394
81	0x38a41ae0	7.825135e-05
82	0x3a009d08	0.0004906212
83	0x3843c21f	4.6672412e-05
84	0x3a18bff5	0.00058269437
85	0x387cb8cf	6.02536e-05
86	0x3973650d	0.0002321193
87	0x3899dac2	7.336355e-05
88	0x369ddcc4	4.704665e-06
89	0x37ae713f	2.079515e-05
90	0x39e775ca	0.00044147513
91	0x37764074	1.4677749e-05
92	0x378df3d5	1.6922053e-05
93	0x39e3d019	0.0004345186
94	0x37ea2092	2.791014e-05
95	0x37ae4474	2.0774292e-05
96	0x371624ba	8.949248e-06
97	0x36bfc387	5.715006e-06
98	0x374c2bbf	1.2169533e-05
99	0x374dffaa	1.2278479e-05
100	0x37e9c13b	2.7865744e-05
101	0x36c268b6	5.7938405e-06
102	0x36dac287	6.5195522e-06
103	0x36844ca2	3.942828e-06
104	0x37fdf200	3.027264e-05
105	0x362acdf2	2.545185e-06
106	0x38030811	3.1240346e-05
107	0x36505768	3.1045292e-06
108	0x3734f0f1	1.0784935e-05
109	0x36922e37	4.356519e-06
110	0x387c85a8	6.020596e-05
111	0x396ff32a	0.00022883402
112	0x3bd8595d	0.00660245
113	0x394b7d33	0.00019406229
114	0x394e97f0	0.00019702292
115	0x3bd4a1df	0.006489023
116	0x3a18de9d	0.0005831512
117	0x397817f3	0.00023660045
118	0x38cb1d2a	9.6852265e-05
119	0x3858b7fd	5.1669766e-05
120	0x3950c1dd	0.00019908645
121	0x39b3ddf1	0.000343069
122	0x3937c78f	0.00017526581
123	0x3960f90c	0.00021455082
124	0x38d06d0e	9.938526e-05
125	0x384b3cc3	4.845556e-05
126	0x39e28c2f	0.00043210524
127	0x380b277d	3.317696e-05
128	0x39eacca7	0.00044784436
129	0x383dab11	4.522043e-05
130	0x3967822b	0.00022078368
131	0x385b9663	5.2353727e-05
132	0x383bc98b	4.4771976e-05
133	0x38356084	4.324365e-05
134	0x3a65af78	0.00087618036
135	0x37246c28	9.800344e-06
136	0x37cfc129	2.476627e-05
137	0x3a734834	0.00092804735
138	0x3920583b	0.00015291657
139	0x383af69d	4.4575532e-05
140	0x377a2c16	1.4911426e-05
141	0x37ee057e	2.8374368e-05
142	0x37a64022	1.9818606e-05
143	0x37e5a76c	2.737689e-05
144	0x3797db6f	1.8102784e-05
145	0x372e48ce	1.0388159e-05
146	0x3848f510	4.7911948e-05
147	0x36ed7acb	7.0774454e-06
148	0x388e5b81	6.7881316e-05
149	0x36ba9ac9	5.5612513e-06
150	0x3881fa19	6.197784e-05
151	0x36d16421	6.240342e-06
152	0x37aae445	2.0371876e-05
153	0x3729794c	1.0101427e-05

exp_avg f4 [7, 7]
0	0xb9aa1894	-0.0003244324
1	0x3aefbd4b	0.0018290667
2	0x39b58a7d	0.00034626192
3	0x3b2891af	0.00257216
4	0x3a27e63a	0.0006404851
5	0x3b46b41c	0.0030319756
6	0x3a6eac77	0.0009104679
7	0x3a4e5f37	0.00078724645
8	0xbc6f7ef0	-0.014617667
9	0x38bf009d	9.107704e-05
10	0x3bf9d2a7	0.0076239887
11	0x3ada67a5	0.0016662969
12	0x3c58d06b	0.0132332845
13	0x3b01f27e	0.0019828374
14	0x39285b2a	0.0001605569
15	0x3a671d5a	0.00088163244
16	0x38fb39a6	0.000119793505
17	0x3a22ea9b	0.00062147685
18	0x3943a71f	0.00018658907
19	0x3a47de64	0.00076243863
20	0x39940cd5	0.0002823832
21	0x3b082bfc	0.002077817
22	0x3c6dfed5	0.014526089
23	0x3ac8d51e	0.0015322303
24	0xbb683183	-0.0035429902
25	0x3b2f3946	0.0026737018
26	0x3c7880fa	0.015167469
27	0x3ba8a6c3	0.0051468327
28	0x39b32d64	0.0003417536
29	0x3ae180ef	0.0017204563
30	0x395b5c5e	0.00020919877
31	0x3ab7f33e	0.0014034284
32	0xba991adc	-0.0011680978
33	0x3b3ea65a	0.0029090852
34	0x39e9347e	0.00044480333
35	0xbb4761e2	-0.0030423333
36	0xbbf2a5a3	-0.0074049993
37	0xbb3c8595	-0.0028766145
38	0xbc2295b3	-0.009923386
39	0xbb8b3ff1	-0.004249566
40	0xbd31be19	-0.043394182
41	0xbb16f607	-0.0023034827
42	0xb91d54a5	-0.0001500422
43	0x3b43572c	0.0029806597
44	0xb922e003	-0.00015532975
45	0xb9f6682d	-0.00046998393
46	0xb8c78d4b	-9.515377e-05
47	0x3a9aba9a	0.0011804879
48	0xbbeb3c81	-0.0071788435

exp_avg_sq f4 [7, 7]
0	0x382350f0	3.8937607e-05
1	0x3792f39f	1.7518001e-05
2	0x35cf4727	1.544341e-06
3	0x38715963	5.7542125e-05
4	0x36216f39	2.405561e-06
5	0x3753370a	1.2589395e-05
6	0x36667c36	3.434497e-06
7	0x380ce943	3.3595843e-05
8	0x3afc4038	0.0019245213
9	0x37bc41a6	2.2441916e-05
10	0x3a037717	0.0005014999
11	0x3804eefa	3.1693817e-05
12	0x3900b079	0.00012272772
13	0x388a54db	6.596158e-05
14	0x34e6edc6	4.301384e-07
15	0x3707f1bd	8.102911e-06
16	0x3432eae2	1.6662992e-07
17	0x368717a0	4.026064e-06
18	0x347bbcd8	2.3444898e-07
19	0x35a514c5	1.2299503e-06
20	0x350fcd24	5.357017e-07
21	0x38310a66	4.2209773e-05
22	0x3a0afd30	0.000530201
23	0x37a1d274	1.9290695e-05
24	0x3ad9c540	0.0016614571
25	0x3828fdbb	4.0290626e-05
26	0x395dd07b	0.00021153867
27	0x3847180e	4.74677e-05
28	0x364efe5f	3.0844456e-06
29	0x37cc9ba8	2.4391178e-05
30	0x35a0e221	1.1986741e-06
31	0x37d6d575	2.5610187e-05
32	0x3806dd95	3.2154454e-05
33	0x37446feb	1.1708568e-05
34	0x3654a11c	3.168424e-06
35	0x37b0dab3	2.1082675e-05
36	0x39849066	0.00025284587
37	0x37620d5c	1.347376e-05
38	0x39b81265	0.0003510892
39	0x380744e6	3.2250675e-05
40	0x3a9ca855	0.0011952022
41	0x37ed35dc	2.8277682e-05
42	0x367050ce	3.5809821e-06
43	0x39011d7b	0.00012313381
44	0x36162d6a	2.2378176e-06
45	0x381837d7	3.629163e-05
46	0x369a624e	4.601002e-06
47	0x375dc8cf	1.3219381e-05
48	0x38b7d184	8.765145e-05

exp_avg f4 [7]
0	0x3c1382ad	0.0090033235
1	0x3c308493	0.010773796
2	0x3b45c753	0.003017862
3	0x3d19e96b	0.03757612
4	0x3bc0410c	0.005867129
5	0xbd95e691	-0.07319368
6	0xbb7e90df	-0.0038843674

exp_avg_sq f4 [7]
0	0x3a0c9942	0.00053634134
1	0x3c0cd9cb	0.008596848
2	0x3852bac5	5.0241844e-05
3	0x3c0d2883	0.008615616
4	0x39f6ec21	0.00047096706
5	0x3be26904	0.0069094915
6	0x3a7da549	0.00096758135

exp_avg f4 [7]
0	0x3c138316	0.009003421
1	0x3c3078a2	0.010770949
2	0x3b45b59b	0.003016806
3	0x3d19e5af	0.03757256
4	0x3bc02f67	0.005865026
5	0xbd95e79a	-0.07319565
6	0xbb7e6a6d	-0.003882076

exp_avg_sq f4 [7]
0	0x3a0c994c	0.0005363419
1	0x3c0cd9d5	0.008596857
2	0x3852b561	5.0236824e-05
3	0x3c0d2881	0.008615614
4	0x39f6eb99	0.0004709631
5	0x3be26940	0.0069095194
6	0x3a7da5a8	0.0009675869

exp_avg f4 [7, 22]
0	0xbbc30275	-0.0059512206
1	0x3a103928	0.0005501681
2	0xbcbd03dd	-0.023073131
3	0xbc016e18	-0.007899784
4	0x3aae7764	0.0013310728
5	0xbcb0ff70	-0.021606177
6	0xbc9eca67	-0.019383622
7	0x3ad746ba	0.0016424276
8	0x3a165eaa	0.0005736152
9	0x3af93666	0.0019013404
10	0x3b6cd836	0.0036139614
11	0x3be8b5f5	0.007101769
12	0x3b42ef50	0.0029744692
13	0x3b8ab8ca	0.0042334544
14	0x3b3bbebe	0.0028647627
15	0x3b1bc1c1	0.002376661
16	0x3b12736d	0.002234663
17	0x3b0cccea	0.0021484443
18	0x3afda681	0.001935199
19	0x3bcdff99	0.006286573
20	0x3b718ba7	0.003685692
21	0x3b96fc82	0.004607738
22	0xbba8ea4e	-0.0051548844
23	0x3b2f4d66	0.0026749014
24	0xbcf51eef	-0.029921977
25	0xbc30c0ed	-0.010788185
26	0x3b5ec79d	0.003399349
27	0xbce9ae2a	-0.02852543
28	0xbca60547	-0.020266188
29	0x3b84f898	0.004057955
30	0x3b65ebb9	0.0035083129
31	0x3ae6868b	0.0017587704
32	0x3b97e0fe	0.0046349755
33	0x3c1082ea	0.008820275
34	0x3b6d7f50	0.0036239214
35	0x3b99bc3a	0.004691628
36	0x3b75a91d	0.0037484833
37	0x3b51122a	0.0031901696
38	0x3b4afc5c	0.0030973172
39	0x3b44532b	0.0029956799
40	0x3b276f3c	0.0025548479
41	0x3c09b62e	0.008405251
42	0x3b9e71d3	0.0048353462
43	0x3bbb8937	0.0057231444
44	0xbbf10ca1	-0.007356242
45	0x3aa12683	0.0012294803
46	0xbc83b99f	-0.016079722
47	0xbc2b04cf	-0.010438158
48	0x3b358baf	0.0027701666
49	0xbc682134	-0.0141680725
50	0xbcb98701	-0.022647383
51	0x3b0758c6	0.0020652278
52	0x3af12d9e	0.0018400436
53	0x3ab5ee65	0.0013880251
54	0x3a2728c7	0.0006376621
55	0x3ba16961	0.004925892
56	0x3af11e39	0.0018395848
57	0x3b3da1ec	0.0028935624
58	0x3b01be89	0.0019797406
59	0x3adae22b	0.0016699483
60	0x3a8efeb8	0.0010909652
61	0x3a0828f5	0.00051940914
62	0x3aad8f13	0.0013241492
63	0x3ba2c93a	0.0049678357
64	0x3b1fcdbd	0.0024384104
65	0x3b647ca4	0.003486433
66	0xbb2a357c	-0.002597182
67	0x3a85095f	0.0010149888
68	0xbc8061ee	-0.015671697
69	0xbbb0a257	-0.005390446
70	0x3ad58285	0.0016289508
71	0xbc7531f7	-0.014965526
72	0xbc26d23d	-0.010181961
73	0x3aeb7ab9	0.0017965651
74	0x3ad913a5	0.0016561641
75	0x3ab27dfa	0.0013617866
76	0x3b1e9b92	0.0024201614
77	0x3b88641e	0.0041623255
78	0x3ade05f3	0.0016939029
79	0x3b2ec8d3	0.0026669994
80	0x3b10a0b4	0.0022068443
81	0x3ad9c23b	0.0016613671
82	0x3ad95970	0.0016582441
83	0x3ad3128f	0.0016103553
84	0x3ab0f846	0.0013501726
85	0x3b8d63ae	0.0043148613
86	0x3b23172d	0.002488564
87	0x3b48d2b6	0.0030643172
88	0x3c523737	0.012830547
89	0xbc2cdb7e	-0.010550378
90	0x3db167a0	0.08662343
91	0x3cecfeb6	0.02893005
92	0xbc377097	-0.011196277
93	0x3da7acc3	0.081872486
94	0x3d7ea9b7	0.06217357
95	0xbc455289	-0.012043604
96	0xbc202a10	-0.0097756535
97	0xbbc2afbb	-0.005941359
98	0xbc390bdd	-0.011294332
99	0xbced087c	-0.02893471
100	0xbc506e16	-0.012721559
101	0xbc2e05c4	-0.010621492
102	0xbc0a0837	-0.00842481
103	0xbc1a12bf	-0.0094038835
104	0xbc1394ae	-0.009007616
105	0xbc0b67a4	-0.008508597
106	0xbbe4ff72	-0.0069884593
107	0xbcc8adcd	-0.024496937
108	0xbc6706f1	-0.014100776
109	0xbc7944e2	-0.015214177
110	0xba9b2013	-0.001183512
111	0x39ff7838	0.0004872696
112	0xbbca4d3a	-0.006173757
113	0x3b1270d7	0.002234509
114	0x386701d2	5.5076387e-05
115	0xbc02669f	-0.007959037
116	0x3ba46efd	0.0050181136
117	0x3924f741	0.00015732368
118	0x3ae63790	0.0017564166
119	0x3a2f030d	0.0006676175
120	0x3b7931de	0.0038024108
121	0x3b735da1	0.0037134665
122	0x3b446bf6	0.0029971576
123	0xbbc984f7	-0.006149884
124	0x3a077fb7	0.00051688723
125	0x39c52847	0.00037604777
126	0x3a98b9e4	0.0011652079
127	0x3a850c8b	0.0010150833
128	0x39f63346	0.00046958978
129	0x3b02a0a0	0.0019932166
130	0x3ad5f45b	0.0016323434
131	0x3a29f2e8	0.0006483034
132	0x3bd1e24a	0.0064051496
133	0x3bfd3348	0.0077270605
134	0xbc645ae9	-0.01393769
135	0xbb3a40f6	-0.0028420067
136	0x3ba947f2	0.0051660473
137	0xbc4289d8	-0.011873685
138	0xbc0d50b0	-0.008625194
139	0x3bbca3e4	0.005756842
140	0x3b2ceacc	0.0026385067
141	0xb99f145e	-0.00030342018
142	0xbaeb5a82	-0.001795605
143	0x3bec3543	0.0072084977
144	0x3b35fb98	0.002776837
145	0x3b6f3131	0.0036497826
146	0xba68953b	-0.0008872335
147	0x3b0c71cc	0.0021430133
148	0x3adbbc14	0.0016764426
149	0x3b046edc	0.002020768
150	0x3a54513e	0.0008099264
151	0x3b799dea	0.003808851
152	0x3b08ef73	0.0020894676
153	0x3a420ac0	0.00074021146

exp_avg_sq f4 [7, 22]
0	0x390ebc50	0.00013612327
1	0x3925ae1c	0.00015800487
2	0x3abf550c	0.001459749
3	0x39356c7d	0.0001730192
4	0x393e3c26	0.00018142219
5	0x3abb9470	0.0014311206
6	0x3998b45d	0.0002912608
7	0x3954fcbf	0.00020312051
8	0x3924150e	0.00015648102
9	0x37c23065	2.3149138e-05
10	0x37ee2323	2.8388173e-05
11	0x3877aba9	5.904926e-05
12	0x37ceee71	2.4668147e-05
13	0x37becd9e	2.2745513e-05
14	0x37ab3c41	2.0412846e-05
15	0x380faa25	3.4252316e-05
16	0x38310132	4.22012e-05
17	0x37bbd9e9	2.239361e-05
18	0x37f08e5c	2.867652e-05
19	0x388d266e	6.730562e-05
20	0x382f2fbc	4.1767707e-05
21	0x38218a87	3.8514405e-05
22	0x3a1a04a8	0.00058753276
23	0x3767d13e	1.3817391e-05
24	0x3b31af03	0.0027112372
25	0x39867b34	0.00025650265
26	0x374cc743	1.2205742e-05
27	0x3b478636	0.0030444986
28	0x3ac8cd5e	0.0015319993
29	0x37a71d62	1.9921634e-05
30	0x38272121	3.9846756e-05
31	0x398ba16f	0.00026632423
32	0x388a0ada	6.582374e-05
33	0x38cac1f8	9.66824e-05
34	0x383e4a3f	4.5368677e-05
35	0x37e8554f	2.769628e-05
36	0x38519115	4.99646e-05
37	0x385365b7	5.040105e-05
38	0x38e55f26	0.00010937294
39	0x38b2617a	8.505858e-05
40	0x38540e83	5.0558254e-05
41	0x38a378d2	7.79495e-05
42	0x38ab8c16	8.1800084e-05
43	0x38504158	4.965192e-05
44	0x3a963097	0.0011458573
45	0x381f5059	3.7983384e-05
46	0x3b48349b	0.0030548933
47	0x39db6cb6	0.0004185193
48	0x369d38c0	4.685571e-06
49	0x3b78f7a3	0.00379894
50	0x3b7f3445	0.0038941067
51	0x385cfbd7	5.268663e-05
52	0x384e4b69	4.918446e-05
53	0x3847555e	4.75248e-05
54	0x39bcba5e	0.0003599701
55	0x390e1365	0.000135494
56	0x3887f4c0	6.48289e-05
57	0x3849ee0b	4.814383e-05
58	0x38570126	5.1261064e-05
59	0x38642894	5.4397227e-05
60	0x39132ac3	0.00014034942
61	0x391ad521	0.00014765981
62	0x382da2b9	4.139796e-05
63	0x38cf9409	9.898103e-05
64	0x39004f48	0.00012236566
65	0x384d3c64	4.8932052e-05
66	0x3824e5b2	3.9314567e-05
67	0x36a183c2	4.8135125e-06
68	0x39cee2de	0.0003946041
69	0x387e1eb8	6.0586928e-05
70	0x36dc659f	6.568341e-06
71	0x39c2fef6	0.00037192524
72	0x397ad564	0.00023921352
73	0x370ae961	8.279779e-06
74	0x36cee862	6.1663313e-06
75	0x3703df7c	7.8602425e-06
76	0x3745b50a	1.17842665e-05
77	0x378dd1c7	1.6906195e-05
78	0x36efadd5	7.1429918e-06
79	0x3730794f	1.0518662e-05
80	0x3780c3c6	1.5349953e-05
81	0x36f8517a	7.400461e-06
82	0x3703d354	7.857412e-06
83	0x3675f8ca	3.665266e-06
84	0x37463f90	1.1816519e-05
85	0x376001dc	1.3351873e-05
86	0x37320abb	1.0612125e-05
87	0x37687665	1.38558435e-05
88	0x39a605c5	0.00031666286
89	0x39396937	0.0001768217
90	0x3c05b96d	0.008161885
91	0x3a86ee53	0.0010294415
92	0x3979ced2	0.00023823537
93	0x3bf1d61b	0.0073802597
94	0x3b9212ec	0.004457822
95	0x3999cf10	0.00029336708
96	0x38fc1d81	0.00012021792
97	0x3889ac6d	6.564786e-05
98	0x39543c59	0.00020240377
99	0x3a21fe6a	0.0006179573
100	0x3958346d	0.00020618895
101	0x390bf7b0	0.00013348344
102	0x391508f4	0.00014213083
103	0x3916990d	0.0001436213
104	0x3901e505	0.00012387715
105	0x3896a3eb	7.1830895e-05
106	0x39173b3c	0.00014422549
107	0x39ccdbae	0.00039073586
108	0x396a5fda	0.00022351686
109	0x39914fec	0.00027716102
110	0x39a9c7cf	0.0003238306
111	0x382e8f76	4.161844e-05
112	0x3b912555	0.004429499
113	0x3a72d204	0.0009262862
114	0x38a1dc87	7.718155e-05
115	0x3b78dc0d	0.0037972957
116	0x3b5d8383	0.003380031
117	0x38d194ed	9.993636e-05
118	0x38526ac2	5.0167328e-05
119	0x385c720d	5.2558305e-05
120	0x38bf48e0	9.121164e-05
121	0x39614cbc	0.00021486258
122	0x3884a098	6.3241634e-05
123	0x397b680e	0.00023975989
124	0x38d6af56	0.00010236974
125	0x38acd8e2	8.241997e-05
126	0x388a89d0	6.606022e-05
127	0x382d9f6f	4.13949e-05
128	0x38c6398b	9.452094e-05
129	0x3956bca8	0.0002047891
130	0x38dbec08	0.00010486698
131	0x3937b2a9	0.00017518796
132	0x39f21fa8	0.00046181423
133	0x37d9085b	2.5872307e-05
134	0x3ba65b52	0.005076804
135	0x3a40941a	0.00073462876
136	0x38284753	4.0120747e-05
137	0x3b9d14b8	0.0047937296
138	0x3b267f7f	0.0025405583
139	0x384bb926	4.8571404e-05
140	0x38671c9c	5.5101336e-05
141	0x3888d298	6.5242115e-05
142	0x394de06e	0.0001963393
143	0x395e8c11	0.00021223749
144	0x38a65d69	7.932896e-05
145	0x389e6f63	7.5547745e-05
146	0x398c20d2	0.00026727334
147	0x3892a65e	6.992811e-05
148	0x389419e5	7.062013e-05
149	0x381bbad0	3.7128862e-05
150	0x39013a84	0.00012324197
151	0x3981fd20	0.0002479339
152	0x390d3939	0.00013468125
153	0x3967cbfd	0.00022105868

exp_avg f4 [7, 7]
0	0xb9e7b207	-0.00044192394
1	0x3ad04649	0.0015890087
2	0x3ad6a857	0.0016377073
3	0x3aa2d410	0.0012422819
4	0x3c30395b	0.010755862
5	0x3b989e60	0.0046575516
6	0x3b7b37f3	0.003833291
7	0x3b16b1b3	0.00229941
8	0x3a7d61a5	0.0009665734
9	0x3b200532	0.002441716
10	0x3ad8d7bf	0.001654379
11	0x3c5df8d6	0.013548097
12	0x3b9828ea	0.004643549
13	0x3babea79	0.005246457
14	0x3ab73870	0.0013978612
15	0x3a8557d8	0.0010173274
16	0xbb2cbce3	-0.0026357702
17	0x3a5b3e51	0.0008363473
18	0x3c08de13	0.008353728
19	0x3b5bed33	0.003355813
20	0x3b501cdf	0.003175549
21	0x3a946a0e	0.0011323111
22	0x3a9035fc	0.0011002417
23	0x3a92afcc	0.0011191308
24	0x3a5f84c5	0.0008526559
25	0x3bb46d8c	0.005506223
26	0x3b3c6da0	0.0028751865
27	0x3b6b0d47	0.0035866068
28	0xbbb9fc53	-0.0056758313
29	0xbbc40d32	-0.0059830183
30	0xbba66abb	-0.005078641
31	0xbb979297	-0.004625629
32	0xbd5bcf84	-0.0536647
33	0xbbe9ac56	-0.0071311397
34	0xbbb5e219	-0.0055506346
35	0x3951415a	0.00019956139
36	0x3a3444d5	0.0006876712
37	0x3a6fa9e9	0.0009142445
38	0x380dd21d	3.3812703e-05
39	0x3c737feb	0.014862041
40	0xbc581947	-0.01318962
41	0x3b79a968	0.0038095359
42	0x3b07c1f5	0.0020714973
43	0x3ac1439b	0.001474488
44	0x3afcff78	0.001930221
45	0x3a0f40d0	0.0005464675
46	0x3c8399bd	0.016064519
47	0x3b99ec44	0.0046973545
48	0xbc5d3799	-0.013502025

exp_avg_sq f4 [7, 7]
0	0x3946d286	0.00018961178
1	0x381b465d	3.702041e-05
2	0x3795547f	1.780153e-05
3	0x37816c09	1.5428306e-05
4	0x389d61fa	7.504593e-05
5	0x38204818	3.8214115e-05
6	0x37d855c6	2.5789148e-05
7	0x37fad533	2.9901601e-05
8	0x3a15314d	0.00056912453
9	0x38845556	6.3101455e-05
10	0x37bd2cf2	2.2551485e-05
11	0x38bd0e6d	9.014909e-05
12	0x3834ec90	4.313566e-05
13	0x382b8b24	4.0899162e-05
14	0x37f0941c	2.8679198e-05
15	0x38c9e987	9.627925e-05
16	0x3a44789f	0.00074947806
17	0x37a76ec7	1.9959536e-05
18	0x387c93a7	6.0218994e-05
19	0x388d74b1	6.7451394e-05
20	0x37e16835	2.6870615e-05
21	0x36b1991e	5.2928362e-06
22	0x373f24a5	1.1393019e-05
23	0x36c8f74b	5.989253e-06
24	0x36bee8c8	5.6895406e-06
25	0x37bc964f	2.248134e-05
26	0x37b1f249	2.1212867e-05
27	0x38245f0b	3.9189163e-05
28	0x38a515c3	7.8718665e-05
29	0x388bc031	6.663835e-05
30	0x388973b5	6.554221e-05
31	0x388c1c7e	6.681027e-05
32	0x3ad64042	0.0016346055
33	0x390edac6	0.00013623675
34	0x395fe24d	0.00021351241
35	0x383a3135	4.4391683e-05
36	0x387b5d14	5.992975e-05
37	0x3858ea80	5.171681e-05
38	0x384b641b	4.8492202e-05
39	0x397a57c2	0.0002387455
40	0x3a0fe7f9	0.0005489584
41	0x39119541	0.00013883879
42	0x3822275c	3.8660466e-05
43	0x3826178d	3.9599418e-05
44	0x37e28ece	2.7007798e-05
45	0x387e26cc	6.059445e-05
46	0x397d466c	0.00024154194
47	0x38aeef16	8.3415e-05
48	0x3a7edea8	0.00097225094

exp_avg f4 [7]
0	0x3cbe9cab	0.023268064
1	0x3cfc3e01	0.030791285
2	0x3c7dd220	0.015491992
3	0x3c84887a	0.016178358
4	0xbdb3a832	-0.08772315
5	0x3bef995f	0.0073119844
6	0x3c59bdd4	0.013289887

exp_avg_sq f4 [7]
0	0x3aebd798	0.0017993329
1	0x3b597ebb	0.003318711
2	0x3b8b142e	0.004244349
3	0x39e6f794	0.0004405348
4	0x3c0e49b1	0.008684562
5	0x3b9de618	0.004818689
6	0x3bb6cf3d	0.005578904

exp_avg f4 [7]
0	0x3cbea47b	0.02327179
1	0x3cfc4900	0.030796528
2	0x3c7dcf27	0.0154912835
3	0x3c8490a4	0.016182251
4	0xbdb3a94f	-0.087725274
5	0x3bef776f	0.0073079388
6	0x3c59a5cb	0.013284157

exp_avg_sq f4 [7]
0	0x3aebd87c	0.0017993595
1	0x3b597f5b	0.0033187482
2	0x3b8b1444	0.004244359
3	0x39e6ff77	0.00044059355
4	0x3c0e49e5	0.00868461
5	0x3b9de5ed	0.004818669
6	0x3bb6cf4b	0.0055789105

exp_avg f4 [7, 22]
0	0xbc0a7c0f	-0.008452429
1	0xbbd4716a	-0.0064832466
2	0x3cbc3a08	0.02297689
3	0x3ba5fc8e	0.0050655073
4	0xbbf569cb	-0.007489418
5	0x3ccc8047	0.024963511
6	0xbc028624	-0.007966552
7	0xbbefaf83	-0.007314624
8	0xbb91b7e7	-0.0044469717
9	0xbaaa79d9	-0.0013006284
10	0x3a415da7	0.0007376321
11	0xbbefebec	-0.0073218253
12	0xbb99c383	-0.0046924963
13	0xbb0ffa3a	-0.0021969215
14	0xbb8746b9	-0.004128304
15	0xbba5492f	-0.0050441246
16	0xbafb5fc3	-0.001917832
17	0xbbbc48f4	-0.0057460014
18	0xbb48b1f1	-0.003062364
19	0xbadc09f0	-0.001678763
20	0xbb70d9ac	-0.0036750836
21	0xbb122b84	-0.002230377
22	0x3ac64e5b	0.0015129553
23	0x38de4e8f	0.000106004176
24	0xbbf8baf2	-0.007590645
25	0x3a58a5bd	0.0008264443
26	0x384f4c9f	4.9424005e-05
27	0xbbfca9c1	-0.007710666
28	0x3b31e60d	0.0027145178
29	0x3708ebd7	8.161142e-06
30	0x3a571045	0.00082040235
31	0x3a0e888d	0.0005437218
32	0x3a62b5c8	0.00086483033
33	0x3b03c5b8	0.0020106863
34	0x3a98e170	0.0011663865
35	0x3ad880c4	0.0016517867
36	0x3a856458	0.0010177
37	0x3ac6111a	0.0015111298
38	0x3a19dfcb	0.00058698346
39	0x3b102f4c	0.0022000847
40	0x3a916e46	0.0011095486
41	0x3a2db47f	0.0006626322
42	0x3a84bfb9	0.0010127939
43	0x3a81459f	0.0009862668
44	0xbbd20ef0	-0.006410472
45	0x3b3f76e7	0.0029215158
46	0x3c09d495	0.0084125
47	0xbc2174f4	-0.009854544
48	0x3a2c9906	0.00065840816
49	0x3c08591d	0.0083220275
50	0xbc764775	-0.015031685
51	0x3b153865	0.002276921
52	0x3a3cd76d	0.0007203732
53	0xbab236b9	-0.0013596631
54	0xbb8e807f	-0.004348814
55	0xbad5f10b	-0.0016322447
56	0xbac99e3d	-0.0015382242
57	0x3a7af50a	0.0009573257
58	0xbadc2e6b	-0.0016798502
59	0xbb39bbf2	-0.0028340784
60	0xb9a23207	-0.0003093632
61	0xbb730d29	-0.0037086701
62	0xba458fe7	-0.0007536397
63	0xba01b9dc	-0.00049486547
64	0x3982631e	0.0002486938
65	0xba882433	-0.0010386765
66	0xbc4faa38	-0.012674861
67	0x3afa86f4	0.0019113705
68	0xba93bc29	-0.0011271286
69	0xbc64ed27	-0.013972557
70	0x3b87ea65	0.004147815
71	0xba2a3113	-0.0006492298
72	0xbcfe8a13	-0.031071698
73	0x3b00cfa3	0.001965501
74	0xba9cb933	-0.0011957049
75	0xb9f41513	-0.00046555008
76	0xba9ec790	-0.0012113918
77	0xbac9c44b	-0.0015393583
78	0xb9f9dd7d	-0.00047658003
79	0x3a2a635b	0.00064997905
80	0x3aa04619	0.0012227922
81	0xbaa4ca7c	-0.0012572552
82	0xb9fe0a2f	-0.00048454243
83	0x371e6630	9.441326e-06
84	0xba92f8ae	-0.0011213028
85	0xba7d4ed0	-0.0009662928
86	0x39e13b48	0.00042959512
87	0x39c0f6c1	0.0003680494
88	0x3b697757	0.003562411
89	0x3826b992	3.975031e-05
90	0xbc5359bc	-0.012899812
91	0x3b21d492	0.0024693352
92	0x382e8e9c	4.1617648e-05
93	0xbc584c96	-0.013201853
94	0x3bdcdcdf	0.006740197
95	0xb8279000	-3.9950013e-05
96	0x3a9dc31f	0.00120363
97	0x3aa2b413	0.0012413285
98	0x3add57cb	0.0016887126
99	0x3b67a028	0.0035343263
100	0x3b10ac0d	0.0022075207
101	0x3b165e2f	0.0022944321
102	0x3adc13ec	0.0016790605
103	0x3b306b71	0.0026919509
104	0x3a82855f	0.000995796
105	0x3b7da2f2	0.003870186
106	0x3af57645	0.0018727264
107	0x3a98a186	0.0011644817
108	0x3acfc3eb	0.0015851235
109	0x3ad9abf9	0.0016607038
110	0x3c63c492	0.0139018465
111	0x39b8bc8a	0.00035235687
112	0x3c11059d	0.008851436
113	0x3c1a84b7	0.009431056
114	0x3b1e969d	0.002419866
115	0x3c0dba2d	0.008650345
116	0x3cce867f	0.025210617
117	0x3b13da8b	0.0022560682
118	0xb8ba8816	-8.894519e-05
119	0xba14f3eb	-0.00056820986
120	0x39867137	0.00025642823
121	0xba9e5f64	-0.0012082872
122	0x39ed1c6d	0.0004522534
123	0xbbd867ab	-0.006604155
124	0xb9d107c0	-0.0003986936
125	0x39276796	0.0001596495
126	0xba177c1e	-0.0005778688
127	0xbb0e8cd6	-0.0021751425
128	0xba9f4640	-0.0012151673
129	0xb9ebbce2	-0.00044963422
130	0xbb12889c	-0.0022359258
131	0xbadb3b74	-0.0016726092
132	0x3c0c03ee	0.008545859
133	0xba0dd797	-0.00054108485
134	0xbc25ae09	-0.010112294
135	0x3c155538	0.009114556
136	0x3969137c	0.0002222787
137	0xbc381620	-0.011235744
138	0x3ca6f527	0.02038057
139	0xb91eedf0	-0.00015156693
140	0x3a97b279	0.0011573575
141	0x3a89cc6d	0.0010513194
142	0x3b2427c3	0.0025048114
143	0x3b755b05	0.0037438285
144	0x3afe703b	0.0019412109
145	0x395ddb2a	0.00021157847
146	0x3aa0e9f1	0.0012276751
147	0x3b62af52	0.0034589362
148	0x3a50e530	0.0007968722
149	0x3b70d44b	0.003674763
150	0x3ac61387	0.0015112021
151	0x3a5f8c56	0.00085276866
152	0x3a44a227	0.0007500969
153	0x3a4fc643	0.00079259666

exp_avg_sq f4 [7, 22]
0	0x3a0cbbfe	0.0005368589
1	0x38cca981	9.7590506e-05
2	0x3bb77b39	0.005599406
3	0x39629314	0.0002160783
4	0x391adb2d	0.00014768234
5	0x3bc04f43	0.0058688237
6	0x3aca2404	0.001542211
7	0x39032dff	0.00012510268
8	0x39ab3da9	0.00032661602
9	0x386ba5ae	5.6182667e-05
10	0x38ad31b9	8.2585444e-05
11	0x39a4f222	0.0003146092
12	0x3914a6c1	0.000141765
13	0x38b810a9	8.776907e-05
14	0x3903f15d	0.00012583048
15	0x395a5068	0.00020820054
16	0x38281530	4.0074054e-05
17	0x39cbec3d	0.00038895188
18	0x38d044a2	9.930997e-05
19	0x38c55d6b	9.4110925e-05
20	0x38db8ca4	0.0001046893
21	0x38bef1ae	9.104922e-05
22	0x380331a5	3.127907e-05
23	0x35adda98	1.2953124e-06
24	0x393310a4	0.0001707697
25	0x3725dd9f	9.886367e-06
26	0x35364767	6.790419e-07
27	0x394a2f22	0.0001928178
28	0x38a979c8	8.0812315e-05
29	0x35cc91a7	1.5241575e-06
30	0x368406c7	3.9346955e-06
31	0x37699636	1.3922856e-05
32	0x362a9b99	2.5422544e-06
33	0x36c123a2	5.7559964e-06
34	0x365deb20	3.3068427e-06
35	0x3669ef04	3.485883e-06
36	0x366744fc	3.4461837e-06
37	0x36d3aba2	6.3082707e-06
38	0x35a6f289	1.2438551e-06
39	0x373e17e0	1.1330441e-05
40	0x365799a0	3.2126918e-06
41	0x36bca301	5.6218128e-06
42	0x3628a08c	2.5127401e-06
43	0x36513751	3.1175625e-06
44	0x39fcd9bd	0.00048227413
45	0x37874492	1.6125185e-05
46	0x3bae4cbf	0.0053192074
47	0x3a0a0919	0.0005265638
48	0x379eb8df	1.8921155e-05
49	0x3babd9ad	0.005244455
50	0x3b07b970	0.0020709895
51	0x378954d0	1.6371167e-05
52	0x3883e4b7	6.289168e-05
53	0x3894bce2	7.092372e-05
54	0x399485fe	0.00028328592
55	0x396f26fc	0.00022807339
56	0x38e9d690	0.00011150271
57	0x38c67e7c	9.464935e-05
58	0x3903fa1d	0.00012586308
59	0x39621868	0.00021562132
60	0x37ffb8fb	3.0484507e-05
61	0x39c46ecf	0.00037466592
62	0x38aa36d9	8.116448e-05
63	0x38ee2b82	0.00011356828
64	0x3889ebf7	6.576621e-05
65	0x38dcdb5c	0.00010531276
66	0x3a495002	0.00076794636
67	0x3701518d	7.707987e-06
68	0x3b15675f	0.002279721
69	0x3a172a7b	0.0005766523
70	0x37ec73b1	2.8187265e-05
71	0x3b20bcc4	0.0024526576
72	0x3b66bc71	0.0035207535
73	0x372308ea	9.717633e-06
74	0x3881ffb6	6.198829e-05
75	0x381278df	3.4921683e-05
76	0x38990d4a	7.298084e-05
77	0x391d8b41	0.00015024563
78	0x3889aa23	6.5643595e-05
79	0x386c5c45	5.6352717e-05
80	0x383e6ffd	4.5403827e-05
81	0x390a105f	0.00013166804
82	0x379e084f	1.8838937e-05
83	0x3930c9c2	0.00016859829
84	0x3856a983	5.1179446e-05
85	0x388271e1	6.220095e-05
86	0x3812f67d	3.5038673e-05
87	0x38305a64	4.2045853e-05
88	0x3835f48d	4.338152e-05
89	0x35d36627	1.5750455e-06
90	0x39ca8473	0.00038627125
91	0x381c9c33	3.733877e-05
92	0x3602fded	1.9519314e-06
93	0x39cca0a4	0.000390296
94	0x393e492f	0.00018147075
95	0x35dec770	1.6598333e-06
96	0x36d1ca99	6.252271e-06
97	0x36cee28e	6.165653e-06
98	0x37589219	1.2908619e-05
99	0x37a1abcc	1.9272695e-05
100	0x3733d738	1.0719341e-05
101	0x37017aa6	7.7175555e-06
102	0x372265ef	9.679686e-06
103	0x3765bebf	1.3693875e-05
104	0x362920c0	2.5202025e-06
105	0x37c73532	2.374742e-05
106	0x36c8fa8f	5.9896333e-06
107	0x3741cd1f	1.1551455e-05
108	0x36af7d47	5.2299906e-06
109	0x3704af85	7.908679e-06
110	0x38d645a0	0.00010217284
111	0x37568cbf	1.2788164e-05
112	0x3b157695	0.0022806276
113	0x38bb341a	8.9265595e-05
114	0x3706e1e5	8.039618e-06
115	0x3b15c087	0.002285035
116	0x39e0acb1	0.00042853274
117	0x37017a0d	7.717416e-06
118	0x380a75f6	3.3011624e-05
119	0x37b9e7ab	2.2161597e-05
120	0x37e6f587	2.753247e-05
121	0x38b73341	8.735667e-05
122	0x381cac55	3.7353795e-05
123	0x391200eb	0.00013923987
124	0x386ca188	5.6417222e-05
125	0x384a9d72	4.8307185e-05
126	0x37872d26	1.6114278e-05
127	0x392e7078	0.00016635831
128	0x3841f962	4.624704e-05
129	0x3811393e	3.4624005e-05
130	0x38386cc5	4.3970318e-05
131	0x3829a9af	4.045077e-05
132	0x3868f9e0	5.5545825e-05
133	0x3722705c	9.682113e-06
134	0x3b15f851	0.0022883604
135	0x39304c02	0.00016812983
136	0x3680d369	3.8393086e-06
137	0x3b0e6db8	0.0021732878
138	0x3a0116fd	0.0004924385
139	0x36668f2a	3.4356003e-06
140	0x37accbd6	2.0598916e-05
141	0x37b65e50	2.1740008e-05
142	0x38044c88	3.1542528e-05
143	0x388d6b63	6.743406e-05
144	0x38d55d41	0.00010174001
145	0x3856d68f	5.12214e-05
146	0x38eb53e7	0.00011221301
147	0x38432664	4.6527377e-05
148	0x3780c37a	1.5349815e-05
149	0x391adec7	0.00014769576
150	0x382bac3c	4.0929983e-05
151	0x383c4624	4.4888016e-05
152	0x38247fa7	3.9219532e-05
153	0x384ccb26	4.8826587e-05
