data_10frm/model/0_3_13_12.pt (torch_old, 18399 bytes, 52 tensors)

rnn.weight_ih f4 [7, 22]
00000000: 8abc af3e 8bf4 183f 6827 34be 54e6 89bf
00000010: 2382 563f 2bb0 44be 6c3b 833e c17d 783f
00000020: 2426 e33e 6ac6 00bf 7f4b cbbe bd7d 553e
00000030: ecc5 4bbe a7b3 b3ba 442f 81be a630 563f
00000040: 051d 2fbe 2b94 10bf cd27 ddbe 7461 4e3e
00000050: cbfb 4fbe f2cb 18bf eb81 cb3d d7b1 583d
00000060: 7a61 d43e 4bb8 59be 90fd 71be ea10 003f
00000070: b574 31be 79f5 dd3e 9367 d0bc 6f6a 80bd
00000080: 8a04 09bf 1ec3 c2be 741e 3abf 1cb6 d5be
00000090: d28b 03bf afdd d8be 9ca4 03bf a965 a6bd
000000a0: 2755 f9be cd19 d1be 3a9d 06bf 5476 ffbe
000000b0: 318c 53be 5b3a 96bf d790 f3bd 25a7 5e3f
000000c0: c037 94be 15d7 41be d8d5 993d c28c 91bf
000000d0: c689 73be 8090 1ebe 7720 d53e 1dc4 9dbd
000000e0: e02a 793e 7488 1bbe 136a 52be 6072 b2be
000000f0: 965b b4bd 6eab 323f 6c75 f0be f70e 48be
00000100: a6e1 04bf 18fa 9fbe 736d 423f 477a 67bf
00000110: e266 54bd 58ef 633f dce8 6dbf ec01 5d3e
00000120: f537 bc3e eec1 37bf 9b96 fe3e 7613 fb3c
00000130: 98e0 b4be cc57 bd3e bf21 7fbe c09a 8b3e
00000140: d68b 2dbe 8cf2 b7be d73a 8abe 2dda 8c3d
00000150: be7e 263f 0a2e 453e 489f 22bf b3e6 f2bd
00000160: 67a8 0cbf 6a56 d6be d7f1 683e 500a 12be
00000170: db4b 423e 41cb 283e 8df4 08be 2734 853e
00000180: 8e82 20be 4aab 4bbe 3ece f8be a34f 8cbe
00000190: a410 3ebe 0403 c4be f356 39bf a0f0 16bf
000001a0: b18d 1cbe 7ddd 92be e1de 93be 6003 ffbe
000001b0: 1679 23bf fa12 3bbf e075 d4bf 37aa 813e
000001c0: 3f62 acbe afe7 72bf 4c15 05bf 9b29 85be
000001d0: 29e9 84bf 473d 2bbf 737a 20be 98b6 8bbe
000001e0: ded8 1dbe ddba 82be 6644 e93c 33ad 503f
000001f0: 6807 81be bf6f 70be 9f36 81be 2d49 96be
00000200: 342a a3be eb63 8cbe e52e e63e 8b43 8e3d
00000210: 211b 60bf 786f 153d ce3f 68be ce71 a3bf
00000220: 0add 94be 021d b53e 5414 5cbf 8dd0 b1be
00000230: 4426 d3be a2cb a4bc 2702 b5be ef3d 573e
00000240: 8010 8f3e 1c36 4d3e 1b78 0d3e 2930 9bbe
00000250: 0f1d 99be 4053 e1bd 20bb 3d3e 2c5e 2a3e
00000260: a3e4 033f 9c29 c73d
0.3432353 0.5974814 -0.17593157 -1.0773416 0.8379232 -0.19207828 0.25631273 0.97066885
0.44365036 -0.50302756 -0.39706036 0.20848747 -0.1989972 -0.0013710157 -0.25231373 0.8366798
-0.17100914 -0.56476086 -0.43194428 0.20154363 -0.20310895 -0.59686196 0.09936889 0.052903976
0.4148062 -0.21261708 -0.23631883 0.5002581 -0.17329676 0.43351343 -0.025440013 -0.062703006
-0.5352255 -0.38039488 -0.7270272 -0.417405 -0.51385224 -0.4235663 -0.5142305 -0.08124859
-0.4869778 -0.40839997 -0.5258366 -0.49894965 -0.20658948 -1.1736559 -0.118928604 0.8697379
-0.28948784 -0.18929704 0.075114906 -1.1371081 -0.23783025 -0.1548481 0.4162633 -0.07703421
0.24332762 -0.15188771 -0.20548277 -0.34852886 -0.08806531 0.6979283 -0.46964586 -0.19536959
-0.5190681 -0.31245494 0.75948256 -0.90420955 -0.05185593 0.89037085 -0.9293344 0.21582764
0.36761442 -0.7178029 0.49724278 0.030648928 -0.353276 0.36981046 -0.24915217 0.27266502
-0.16947874 -0.35927236 -0.26998016 0.06877551 0.65037143 0.19255844 -0.63524294 -0.11860409
-0.5494446 -0.41862804 0.22748505 -0.14261746 0.18974249 0.16483785 -0.13374539 0.26016352
-0.15674803 -0.1988956 -0.4859485 -0.27404508 -0.18561035 -0.3828355 -0.723983 -0.58960915
-0.15288426 -0.28684607 -0.2888098 -0.49807262 -0.6385664 -0.7307583 -1.6598473 0.25325176
-0.33668706 -0.9488477 -0.5198562 -0.26008305 -1.0383655 -0.66890377 -0.1567171 -0.27287745
-0.1541476 -0.2553319 0.028474998 0.8151428 -0.25200963 -0.23480128 -0.25236985 -0.29352704
-0.31868136 -0.2741998 0.44957653 0.069464765 -0.87541395 0.036483258 -0.2268059 -1.2769105
-0.2907489 0.35373694 -0.8596852 -0.34729424 -0.41240132 -0.020116631 -0.35353205 0.2101972
0.27942276 0.20040172 0.13815348 -0.3031018 -0.29904982 -0.11002207 0.18528414 0.16637486
0.51520747 0.09724733

rnn.weight_hh f4 [7, 7]
00000000: 2018 6e3f 3a1a 093e 9557 fdbe 1561 6dbf
00000010: 0f59 a2bd 5981 ffbe 3eb9 57bf e53e a4be
00000020: 679e 8b3e 28e7 f6be 43fc 86be 0e71 343e
00000030: 3c4d 16be f531 4dbe 6afa 27bf 8260 a83d
00000040: df37 993f 0692 9abf 0878 c43e e95a 23bf
00000050: 6f74 01bf 9184 85bf 2c6b c3be 0501 a4bf
00000060: 3246 883f 9178 aa3c 821e fdbe 0709 06bf
00000070: dfea 52bf 4a7c 61be e168 0bbf 6efd 18be
00000080: ab94 30bf 676e 28bf ab83 05be 3863 06bf
00000090: f1e8 42be 5cb0 22bf 62ea 23be 42f8 2d3e
000000a0: 0cd5 b13e 2e89 42bf 8719 39bf e317 2dbe
000000b0: c919 81be cd91 10bf e6f3 9ebd fdfe 45bf
000000c0: cf60 243f
0.9300556 0.13388911 -0.49480882 -0.9272626 -0.07927143 -0.49903372 -0.8426703 -0.32079235
0.2726929 -0.48223233 -0.26364335 0.17621252 -0.146779 -0.20038588 -0.65616477 0.082215324
1.1970176 -1.2075813 0.38372827 -0.6381059 -0.5056829 -1.0431081 -0.38167703 -1.2812811
1.0646422 0.020809444 -0.49437338 -0.52357525 -0.82389635 -0.22020069 -0.5445691 -0.14940426
-0.6897685 -0.6579346 -0.13038509 -0.52495146 -0.19034173 -0.63550353 -0.16007379 0.16989234
0.34732854 -0.7599057 -0.72304577 -0.16903643 -0.25214985 -0.56472474 -0.07761364 -0.77342206
0.6421022

rnn.bias_ih f4 [7]
00000000: 4d5b 57be 2b87 0dbe 9677 bdbe a2a3 acbe
00000010: 3940 35bf f3bf a1be e4b6 4b3e
-0.21030922 -0.13821094 -0.370053 -0.33718592 -0.7080112 -0.31591758 0.19893986

rnn.bias_hh f4 [7]
00000000: 6c1c 92bd 07e4 eebe eee0 573e e1ce 00be
00000010: 91f4 98be a838 d1bd 8b13 b6be
-0.07134327 -0.46658346 0.21081898 -0.12578918 -0.2987409 -0.102158844 -0.35561785

exp_avg f4 [7, 22]
00000000: c39d afb8 b556 ddb9 38c4 86ba 7ce0 16b9
00000010: a674 b0b9 1f10 81ba fbd6 12ba 71d9 c6b9
00000020: 5aa1 e2ba 11f4 1c39 12a5 0c3a 3fa3 2c3a
00000030: 155a e639 3cf9 113a 7f97 bb39 3221 f5b7
00000040: 203a be38 04ed 6339 8700 26b7 0aa2 f738
00000050: 6bd0 e839 8042 1d39 ade0 4f37 cd55 e2b7
00000060: 82ea 0aba 4bcb bcb8 d267 4736 8b10 0aba
00000070: 312d edb8 1cfe ae36 4ef5 3d38 3f76 fa37
00000080: 6061 1939 467e ad38 023a 6938 40d5 8f38
00000090: f3b8 bb38 2e62 1e38 2000 2738 ad8c e038
000000a0: 3051 c738 1e27 6938 208e eb38 66b8 9238
000000b0: e350 ba3b 288b a83b becf 923b 07c7 763b
000000c0: d9d1 26b5 bb41 9b3b c868 4f3c c935 a738
000000d0: a515 00ba 2c96 5eb9 b661 b8bb c1c8 bc3a
000000e0: 4b5f c039 317d 9e39 d09a a1ba d433 2eb9
000000f0: 33e9 5fb9 d1fe fdbb 3f65 04ba 65e6 213a
00000100: 23fd fe3a 8c2e 233a 6094 98ba 9baf 48bb
00000110: 3208 3cbc 87c5 24ba ea25 1e3a aa6d 53bc
00000120: baf5 f0ba 66c3 843a 71c6 493b ab40 ccb9
00000130: 9c27 d73b 8779 c4b8 ad32 453a 539b e23a
00000140: 1fcb b73a 6dd9 513a 824a 473a a9f0 e63b
00000150: 3638 74bb b5a8 923a 186e 773b 50b6 553b
00000160: 5d5e 62ba 6e88 68ba 9c97 e83b c350 283b
00000170: 5180 6fb9 9085 dd3b 9e1b 9eb9 34b9 acb9
00000180: 206c 943a db6e 6939 24b8 b8bb 04de 3cba
00000190: 84d1 efba bcc4 4b3a 498c 54ba 3770 2eba
000001a0: 7efe 1cba 63e4 2937 71ed a7ba 4763 95bb
000001b0: d41d 8db8 0050 9d39 9fc6 003a 0e4d fb3a
000001c0: 6881 3cbb a9fb fbba 5b8d 903a aada 41bb
000001d0: 1644 d6ba 1ec9 ec3a 82d1 3c3b 9934 e9b9
000001e0: e043 50ba 00c0 bc3b 7fce 0c3b 4cae 7dbb
000001f0: 2572 13bb 1804 7039 36be cf38 17ef e23a
00000200: ca78 913b 82e9 033b 107f 2ebc 9ca7 b63b
00000210: 6748 c9bb c9a5 5fbb ed54 873c aaba 41ba
00000220: daa2 9bba 898a 8e3c fbdb f2bb c4a3 0dbb
00000230: 9098 c0bb 8b4b 78ba f1a3 fe3a 6e7f 13bc
00000240: 9a84 90bb a110 3ab9 99b1 893a 8fbe deba
00000250: ccc7 d0ba 6139 a7ba f8e0 11bb a707 0dbb
00000260: b56b 0a3b 0450 2dbc
-8.374036e-05 -0.00042217007 -0.0010281866 -0.00014388742 -0.00033656246 -0.0009846723 -0.00056014926 -0.0003792751
-0.0017290518 0.00014968241 0.00053651736 0.0006585605 0.00043936135 0.000556845 0.00035780293 -2.9221734e-05
9.0707326e-05 0.00021736702 -9.894494e-06 0.0001180806 0.00044405772 0.0001499746 1.2390473e-05 -2.6981254e-05
-0.00052992266 -9.002405e-05 2.9713742e-06 -0.00052667473 -0.00011309458 5.2151863e-06 4.528957e-05 2.9857385e-05
0.00014627492 8.272803e-05 5.5605553e-05 6.858492e-05 8.951304e-05 3.7761572e-05 3.981602e-05 0.00010707355
9.504182e-05 5.558796e-05 0.00011232146 6.9961694e-05 0.005685912 0.005143542 0.004480331 0.003765525
-6.214519e-07 0.0047380603 0.012659259 7.973199e-05 -0.0004886038 -0.00021227513 -0.0056268824 0.0014403091
0.00036692093 0.00030229383 -0.0012329463 -0.0001661324 -0.00021353811 -0.0077513237 -0.0005050487 0.0006175994
0.0019454103 0.00062248926 -0.0011640899 -0.0030622247 -0.011476563 -0.00062855374 0.00060328713 -0.012904564
-0.0018383779 0.0010129034 0.0030788446 -0.00038958094 0.006566001 -9.3686445e-05 0.0007522505 0.0017288722
0.0014022327 0.0008005116 0.000760235 0.007047732 -0.003726495 0.0011189195 0.003775483 0.0032609887
-0.0008635277 -0.0008870427 0.0070981514 0.0025682903 -0.00022840618 0.0067603067 -0.00030156685 -0.00032944384
0.0011323728 0.00022261908 -0.0056371856 -0.0007204714 -0.0018296693 0.0007773151 -0.00081080623 -0.00066542946
-0.000598885 1.012636e-05 -0.0012811852 -0.004558954 -6.72896e-05 0.00030004978 0.00049124093 0.0019172744
-0.0028763656 -0.0019224781 0.0011028455 -0.0029579797 -0.0016347195 0.0018065309 0.00288114 -0.0004448041
-0.00079446845 0.005760193 0.0021485386 -0.0038708625 -0.0022498455 0.00022889709 9.905959e-05 0.0017313686
0.004439448 0.0020128195 -0.010650411 0.00557418 -0.0061426642 -0.0034125915 0.016519988 -0.0007390181
-0.0011874095 0.017400043 -0.0074114776 -0.0021612504 -0.005877562 -0.0009471706 0.001942752 -0.00900255
-0.0044103386 -0.00017744537 0.0010505199 -0.0016994047 -0.0015928685 -0.0012758189 -0.0022259336 -0.0021519454
0.0021121327 -0.010578159

exp_avg_sq f4 [7, 22]
00000000: ac53 0136 5dbd c135 144a 4938 3a0b 8a35
00000010: 92e0 6735 77c1 4f38 7049 5a36 9649 ab35
00000020: 695e 9537 17ce 0935 3e12 6135 2f12 2635
00000030: 64eb dc34 51e3 a434 c01c dd34 6297 eb34
00000040: 8f08 0735 aebe 5735 0fa2 7b36 a376 5935
00000050: 6778 a735 8151 c635 f7c7 9335 3019 c034
00000060: 3269 1038 70c3 3536 09b1 3733 bbf3 0b38
00000070: 8030 1c37 1858 7533 786a 1435 e4a3 5135
00000080: 9cf4 3f36 218b 3e35 e5d4 2235 b73e c034
00000090: e3b9 7335 32a8 6934 7e17 5635 ceec a735
000000a0: afef 1236 d12c 2035 ee63 5a34 3339 6d35
000000b0: 5f1c 0239 95a9 4238 4cac 903b c956 d139
000000c0: 8165 8436 0745 8a3b 6d98 b83a 5281 9c36
000000d0: 17a9 1538 39aa a238 3767 103a 6bfd 1739
000000e0: 687b 4838 ff15 4438 738d 8338 fe9c a937
000000f0: 624a da37 58b8 b439 577a e939 b664 3438
00000100: 10ea 6138 dd62 4838 5a00 d538 a79a d537
00000110: 58f7 8d3b c668 bd39 f26a c336 8d31 863b
00000120: 4caf 903a 5203 ee36 4eff 3438 aef2 c938
00000130: 8e7e b639 6dec 4839 ccaf 8e38 5eb0 8e38
00000140: f342 9538 ff0b b437 6263 de37 2c45 9239
00000150: 47d4 d039 9553 5438 8a89 b938 31e4 7b38
00000160: 79d3 7637 bcd9 a336 216a b13a 0c01 9238
00000170: 9098 3935 2662 aa3a eab3 b238 03b3 ea35
00000180: 57be f737 456d 7637 3c14 4038 9fd7 3038
00000190: e8d6 cb38 682c c937 a8e9 8a37 5f5f f336
000001a0: 8d28 0937 8e10 1038 598b c638 4766 0c38
000001b0: 476a 3738 dc9b e737 2331 e838 2e91 e936
000001c0: ba1c 713b 6f7f 5838 5f49 3136 ad5d 753b
000001d0: 2ae0 0f39 41e9 8c36 57ee 0c38 2cc9 c737
000001e0: 9f3b 0039 dc35 1939 2f54 8c38 5d71 6e39
000001f0: 32dd d738 27dd a437 e57f 9f37 1b00 8238
00000200: d3dd 1939 b833 1f38 0855 c139 b6a6 f738
00000210: 677c 7939 745d 9637 9c2b 863b 3441 8438
00000220: 86f9 b536 0b66 8c3b cf9d cc39 bf88 3637
00000230: b17a 8a38 e5fe ec37 8acc aa38 0246 8439
00000240: 9285 d138 7660 1f39 c5bd 0239 aa25 c937
00000250: 9cd7 c837 ffa6 8238 8ef4 1f39 785c 4a38
00000260: 9e29 a539 7762 6039
1.9271201e-06 1.4434733e-06 4.7991125e-05 1.0285069e-06 8.6381e-07 4.9532824e-05 3.2527278e-06 1.2761909e-06
1.7806147e-05 5.133638e-07 8.384558e-07 6.186628e-07 4.1149463e-07 3.0712775e-07 4.1185376e-07 4.3882306e-07
5.0303873e-07 8.0371217e-07 3.7496245e-06 8.101144e-07 1.2477511e-06 1.477587e-06 1.1010551e-06 3.5781113e-07
3.4430246e-05 2.7084861e-06 4.276902e-08 3.3367174e-05 9.309617e-06 5.712363e-08 5.528923e-07 7.809706e-07
2.86036e-06 7.0982975e-07 6.0659505e-07 3.5808418e-07 9.0795055e-07 2.1761005e-07 7.97554e-07 1.2511389e-06
2.189521e-06 5.966986e-07 2.0339186e-07 8.8372616e-07 0.00012408335 4.641114e-05 0.0044150706 0.00039928246
3.945723e-06 0.0042196545 0.0014083512 4.664217e-06 3.5681845e-05 7.7564684e-05 0.0005508544 0.00014494888
4.7798647e-05 4.6750527e-05 6.272914e-05 2.0219475e-05 2.6022262e-05 0.00034469622 0.00044532373 4.300914e-05
5.3862168e-05 4.777579e-05 0.00010156697 2.5463594e-05 0.004332464 0.0003612695 5.823903e-06 0.0040952624
0.0011038571 7.0933393e-06 4.3153115e-05 9.6296295e-05 0.00034808036 0.00019161562 6.8038324e-05 6.8039386e-05
7.117344e-05 2.1463258e-05 2.6510741e-05 0.00027898827 0.0003983101 5.062258e-05 8.847106e-05 6.0055583e-05
1.471198e-05 4.883126e-06 0.0013535657 6.9620175e-05 6.913988e-07 0.0012999221 8.521213e-05 1.7486458e-06
2.9533328e-05 1.4688184e-05 4.5795212e-05 4.2162483e-05 9.719824e-05 2.3981745e-05 1.6559687e-05 7.253067e-06
8.175278e-06 3.4347693e-05 9.467331e-05 3.3473854e-05 4.372958e-05 2.7609924e-05 0.000110717745 6.9608423e-06
0.0036790804 5.1617095e-05 2.6417763e-06 0.0037439868 0.0001372105 4.1994795e-06 3.3600572e-05 2.3816327e-05
0.00012229242 0.00014611281 6.6914006e-05 0.0002273968 0.000102932 1.9653306e-05 1.9013833e-05 6.198903e-05
0.00014673853 3.795672e-05 0.00036875182 0.0001180893 0.00023792834 1.7924911e-05 0.004094554 6.3063955e-05
5.4232687e-06 0.0042846254 0.0003902749 1.0879884e-05 6.603206e-05 2.8252087e-05 8.14433e-05 0.00025229162
9.990776e-05 0.00015199356 0.00012468461 2.3978606e-05 2.3942259e-05 6.2299885e-05 0.00015254525 4.824667e-05
0.0003150226 0.00021398986

exp_avg f4 [7, 7]
00000000: 03c5 00bb 46d4 0439 b409 9b39 b925 db39
00000010: e84e 223a bb22 503a 09c4 2f3a e013 ea37
00000020: f5cb b637 d5e9 1a39 f72b 9438 6198 9838
00000030: 3605 ed38 a02b 8c38 16d5 2dba 7ba2 45ba
00000040: e585 5fbc 91cf a43b fcf8 f13a eb76 0c3b
00000050: 8340 183a 32a9 463a 331a bd38 8c8c 6e3c
00000060: 8366 87bc 596a 833b ea7a 913b 2ffa ba3b
00000070: 0f27 4139 3a56 25b8 8573 b13a b345 513b
00000080: 7b8c a4bc ae38 8b3b 7465 8b3b 48a5 2db9
00000090: 5a2f 7aba 36f4 5e3a 95b0 983b ed1b c23b
000000a0: c914 aabc 2e27 633c 3a6b 15ba 912c 64ba
000000b0: 9c20 9bb9 9418 6bb9 a041 9cb9 de6b 053c
000000c0: 83f1 bebc
-0.0019648678 0.00012667579 0.00029571133 0.0004179904 0.00061915675 0.00079397456 0.0006704932 2.7904229e-05
2.1791066e-05 0.00014773694 7.065379e-05 7.2763076e-05 0.00011302011 6.683846e-05 -0.00066311785 -0.0007539165
-0.013642763 0.0050296267 0.0018461044 0.0021433185 0.0005807953 0.00075783127 9.017102e-05 0.014559876
-0.016528374 0.0040104804 0.0044397013 0.0057060937 0.00018420465 -3.941937e-05 0.0013538456 0.0031932413
-0.020086518 0.0042487 0.0042540375 -0.00016560138 -0.0009543799 0.0008505018 0.004659722 0.005923739
-0.020761864 0.013864322 -0.0005699877 -0.00087041507 -0.000295882 -0.00022420503 -0.00029803533 0.008143393
-0.023308521

exp_avg_sq f4 [7, 7]
00000000: 0e35 9f37 eafa 5734 3487 3635 98a0 db35
00000010: fc0e 0d35 8a97 0735 b1b5 2535 ea8c 6634
00000020: 1bdb ca34 1431 9e36 803e 1536 cfd6 3635
00000030: d3b5 d434 bbac 7635 16d4 3237 1100 6137
00000040: 6459 3f3a 4f15 153a 0606 1e38 1deb 7a38
00000050: 41ce 0838 96d1 6737 8806 4737 fc19 e639
00000060: cb38 583a d2ff 5538 8896 f438 88aa c438
00000070: ee51 6d36 69f2 3a36 d310 9c37 ae19 a038
00000080: 2cc6 bc39 b2dc e237 3314 d037 0f9f 7737
00000090: 02fa 2a37 799f 3638 0097 eb38 7e42 1938
000000a0: 8e72 533a 01c5 5b39 c1b0 8437 9182 2a37
000000b0: 4eda 3a38 0b29 ad38 fe92 6738 0492 cb39
000000c0: 0814 253a
1.8978983e-05 2.0114717e-07 6.799703e-07 1.636351e-06 5.25484e-07 5.051194e-07 6.1731686e-07 2.1471683e-07
3.7784852e-07 4.7144804e-06 2.223911e-06 6.811287e-07 3.9620372e-07 9.18935e-07 1.0659007e-05 1.34110605e-05
0.0007299392 0.0005687074 3.7675745e-05 5.982361e-05 3.2617016e-05 1.3817471e-05 1.1862845e-05 0.00043888378
0.0008248209 5.102141e-05 0.00011662865 9.377772e-05 3.5363441e-06 2.785726e-06 1.8604484e-05 7.634178e-05
0.00036005804 2.7044069e-05 2.4804938e-05 1.4759381e-05 1.0190999e-05 4.3540702e-05 0.00011233799 3.653997e-05
0.0008066081 0.00020958857 1.5817934e-05 1.01631895e-05 4.4549168e-05 8.256928e-05 5.521159e-05 0.00038827967
0.00062972354

exp_avg f4 [7]
00000000: 6591 813a 999e 0e3a 796d b2bb 0bd0 553c
00000010: ffd2 e0bb f606 613b 0baa 8ebc
0.000988525 0.0005440503 -0.005445179 0.01305009 -0.00686109 0.0034336424 -0.017415067

exp_avg_sq f4 [7]
00000000: bb7e 5838 c433 1838 5df8 973b 27a8 923b
00000010: 3edf b43a 5221 7a3b fd9d 8f3b
5.161644e-05 3.6287835e-05 0.0046377615 0.0044756117 0.0013799442 0.0038166833 0.0043828473

exp_avg f4 [7]
00000000: c3d6 813a 5753 0e3a ef8a b2bb d5dc 553c
00000010: 5ab6 e0bb 9530 613b eca7 8ebc
0.0009905923 0.0005429289 -0.005448691 0.013053139 -0.0068576755 0.0034361233 -0.017414056

exp_avg_sq f4 [7]
00000000: a67f 5838 9231 1838 55f8 973b 32a8 923b
00000010: 3ddf b43a 4121 7a3b fb9d 8f3b
5.1617295e-05 3.628579e-05 0.004637758 0.004475617 0.001379944 0.0038166794 0.0043828464

exp_avg f4 [7, 22]
00000000: 2fd7 0138 19e1 e738 f773 39ba fd91 74b8
00000010: db32 d338 ee62 3bba 8938 6fb8 556c ee38
00000020: 943b 9eb7 e144 7c38 dcd7 4439 8fa3 2639
00000030: 51dc 0139 8815 dd38 1d2e bc38 0a8a 6038
00000040: e35d c238 eefc 4938 e2b9 f038 4f08 4838
00000050: 0cd3 1e39 524d 5439 5f3b 72bb a485 853a
00000060: c061 47bc eeae 47bb c9d2 1a3b 979f 34bc
00000070: e5cd 40bc b243 5f39 66e4 dc39 7c3a 2dbb
00000080: c58e a73b 2528 233b 008c 103b d5ab 123b
00000090: 7ce4 a93a aa8e 803a 637e b8bb b49f 7f3a
000000a0: 6fc5 173b 471e 823a 0460 3a3b ffa6 0d3c
000000b0: 7aa2 a437 688e 1e38 c7b4 58b9 2c7e 54b7
000000c0: 950a f737 07ec 5cb9 7121 1db6 7878 3338
000000d0: d294 8537 a812 a637 3d48 2f38 4ae7 1d38
000000e0: 6b69 0538 9888 ce37 1a39 be37 543e 3337
000000f0: 57a8 ff37 a9f5 4c37 6a13 f337 4889 5737
00000100: 3275 1c38 743e 7c38 f043 9039 c388 4c3c
00000110: d08b 8bbd a9db efbb 6403 363c e995 8bbd
00000120: 8b00 c1bb a7dc 413c 56be b53b fe6e 6b3b
00000130: cd3f 303c 8c3e 903c 992e 5b3c d38b 2e3c
00000140: c8ff 023c 05f4 b03b 16f6 e43b 4d5a b03b
00000150: fa59 053c 6de6 b23b 7793 b03c dc02 883c
00000160: 264e 5538 3fbd 4f39 b93c 7cba 2277 70b8
00000170: 4b71 2c39 6872 80ba 4ba0 75b8 b33e 4c39
00000180: d275 0639 bc3a 0239 ba97 d038 6abb 7a39
00000190: 005f 2ab8 bec6 8439 f8e3 4039 c0e2 9c38
000001a0: f47f 1d39 0b35 9c38 0a85 1c39 232d 9a38
000001b0: 1a4d 9739 ed35 3639 0220 6b3b a938 c9bb
000001c0: 54d9 273d 55f4 023c 7b50 d5bb 8e8c 243d
000001d0: c8d3 2b3c 9049 cfbb a0b5 1cbb 0707 40bb
000001e0: e2c4 00bb 545b 41bc bcf0 e2bb 35dc 24bc
000001f0: 2e5b a9bb 96f6 55bb 6c9b 17bb 8999 55bb
00000200: c129 efbb 3c04 59bb dc64 cbbc 54fd 463b
00000210: 25bb 5ebb 4c17 28bc d625 663d 2477 ed39
00000220: 8897 0cbc 6f61 673d 7d03 3b3b 345b febb
00000230: 55ce abbb 2c44 d5ba 040d 8fbc 3ac6 01bc
00000240: df39 22bc 2796 c7bb a5cf 06bc c2fe a1bb
00000250: f28d 0fbb d52e a1bb 0d5c a1bb ac04 a3bb
00000260: e8e9 7c3a bc57 11bd
3.0956402e-05 0.00011056866 -0.000707447 -5.8310095e-05 0.000100707366 -0.00071482256 -5.7034693e-05 0.00011368903
-1.8862811e-05 6.014563e-05 0.0001877243 0.00015891924 0.00012384473 0.00010542112 8.973128e-05 5.353432e-05
9.2681286e-05 4.8157694e-05 0.00011478715 4.7691454e-05 0.00015146675 0.000202467 -0.0036961657 0.0010186923
-0.0121693015 -0.0030469256 0.0023624173 -0.011024377 -0.011767839 0.00021292156 0.0004213184 -0.0026432564
0.005113455 0.0024895754 0.0022056103 0.0022380252 0.001296177 0.0009808142 -0.005630301 0.00097512756
0.002315845 0.0009927236 0.0028438577 0.008645772 1.9625983e-05 3.780276e-05 -0.0002066671 -1.2665561e-05
2.9449622e-05 -0.00021068762 -2.3414289e-06 4.278912e-05 1.5924135e-05 1.979743e-05 4.179053e-05 3.764712e-05
3.180785e-05 2.462072e-05 2.2676355e-05 1.0683743e-05 3.0476758e-05 1.2216545e-05 2.8976898e-05 1.2846962e-05
3.7302445e-05 6.0139646e-05 0.00027516438 0.012483778 -0.068137765 -0.0073198867 0.011109207 -0.068157025
-0.0058899573 0.011832393 0.0055463715 0.003592431 0.010757399 0.01760795 0.013377809 0.010653454
0.007995553 0.005400183 0.0069873435 0.0053818584 0.008139128 0.005459598 0.021554692 0.016602926
5.085594e-05 0.00019811558 -0.00096220855 -5.733141e-05 0.00016445403 -0.0009799721 -5.8561836e-05 0.00019478313
0.00012823127 0.00012419646 9.946474e-05 0.00023911675 -4.0619634e-05 0.00025325076 0.00018395472 7.480895e-05
0.00015020353 7.44854e-05 0.0001492688 7.3516996e-05 0.0002885841 0.00017376961 0.0035877232 -0.0061407876
0.040978745 0.007992824 -0.006509838 0.040173106 0.010487504 -0.006325908 -0.0023911968 -0.0029301064
-0.0019648601 -0.0118015595 -0.0069256704 -0.010062267 -0.00516834 -0.0032648197 -0.002313341 -0.0032592735
-0.0072986786 -0.0033114096 -0.024828367 0.0030363398 -0.0033986059 -0.010259461 0.056188427 0.0004529293
-0.00858105 0.056489404 0.0028536015 -0.007762337 -0.0052431026 -0.0016270927 -0.017462261 -0.007920796
-0.009901493 -0.0060908976 -0.008228217 -0.0049436996 -0.0021904674 -0.004918913 -0.0049243034 -0.004974922
0.0009647892 -0.03548406

exp_avg_sq f4 [7, 22]
00000000: a370 4435 a30e 8036 6071 1a38 96ce bb35
00000010: 934d 4f36 2aa6 1a38 3192 a036 da80 7f36
00000020: 72aa 3836 7574 2835 c14f 9a35 a073 ae35
00000030: e179 4035 59af a534 d239 0235 aad8 cf34
00000040: edf9 5a36 0e2d 8e34 b0fc 3b36 dcbb 9434
00000050: cd17 1535 dfd3 df34 0e7f c139 7bd3 6a39
00000060: baa9 693b cd70 8c38 3c41 de38 694c 823b
00000070: 1535 a93a b4ea 8539 da0b 3338 ff53 2339
00000080: e0ef 6d39 d2b3 b838 31d6 6638 65c5 5838
00000090: a18a f438 3618 d537 b0b6 fb39 7af3 ca37
000000a0: e7cf 1039 6b29 d337 089c 9338 1d86 0839
000000b0: c105 0635 866a af34 6b74 8836 824b 2f34
000000c0: 73c5 e533 0cc9 9a36 a2f7 1536 1d63 cf34
000000d0: 1b29 be33 e2ab 8534 1677 1e34 0f2d cb33
000000e0: 4a41 bf33 172f 2033 7ee5 d033 c88c 4033
000000f0: a6ee c234 2228 3b33 359d 9434 c51d 0833
00000100: 7efd 5233 1c7e b333 c738 9d38 7c7a d739
00000110: c329 0d3c 3e06 b539 1077 c539 b702 093c
00000120: 9bac a43a 035c e239 2132 3c39 9dec 9d38
00000130: 0b45 cd39 419d 193a 3610 3f39 d821 0d39
00000140: 0478 e938 3bbb 5538 62b9 7539 5618 3e38
00000150: 7dff 323a ec4e 4f38 dfa8 173a 41d5 4539
00000160: 2a8f f034 d41e f935 5693 2138 688a bd35
00000170: 2f49 c535 ccce 1e38 eeec 3d36 ae14 f835
00000180: 6dfa 1835 9579 1435 647d dc35 8e94 9335
00000190: 61c4 4f36 9b3e f234 1066 e634 0612 9434
000001a0: 460f 3b36 74e3 6334 f35f 3f36 ad07 7c34
000001b0: c333 8f35 4dd8 2835 030a 0c38 9a13 6d39
000001c0: 6bb9 d03b 2697 4f39 cdea 5539 dcba cb3b
000001d0: 8569 0f3a 3cce 7339 d417 a238 c53b 1638
000001e0: f5fe 8e39 6c82 ca39 42cf 1039 21a3 6e39
000001f0: a474 a838 1cf1 0f38 2cb4 2539 c6f4 0838
00000200: df54 dc39 3adf 1538 08af 113a 32c7 0339
00000210: a51f 4f39 4ed8 9439 a3b0 d93b 5ce1 5c38
00000220: 640b 4539 d360 e13b 492e 143a de40 8d39
00000230: fb6a 8938 6fee a338 7b56 093a f135 5839
00000240: 9b29 1239 33f6 0939 1769 8139 ec5d 3838
00000250: 6269 b839 cae4 3338 ab1c 4939 2456 3b38
00000260: 452b 5f39 ae16 0d3a
7.31796e-07 3.816401e-06 3.682205e-05 1.399271e-06 3.0890558e-06 3.6871214e-05 4.7853905e-06 3.8072963e-06
2.7517349e-06 6.2754344e-07 1.1497106e-06 1.2997662e-06 7.170293e-07 3.0861227e-07 4.8512914e-07 3.8714398e-07
3.2630007e-06 2.6482343e-07 2.8012255e-06 2.7703834e-07 5.554146e-07 4.1691143e-07 0.00036906492 0.00022394762
0.0035654143 6.696731e-05 0.00010597936 0.003976394 0.0012909496 0.00025542604 4.2687963e-05 0.00015576182
0.00022691442 8.807298e-05 5.5035754e-05 5.168225e-05 0.00011660648 2.5402853e-05 0.00048010563 2.4193654e-05
0.0001381036 2.5172447e-05 7.038569e-05 0.00013019932 4.9927263e-07 3.2673796e-07 4.0666687e-06 1.6325615e-07
1.0699559e-07 4.6129626e-06 2.2346871e-06 3.862887e-07 8.8550415e-08 2.4898242e-07 1.475822e-07 9.46112e-08
8.9060066e-08 3.729573e-08 9.727499e-08 4.4831523e-08 3.6308955e-07 4.357583e-08 2.768153e-07 3.1692043e-08
4.9124985e-08 8.358276e-08 7.496919e-05 0.00041099254 0.008615914 0.0003452766 0.00037663477 0.008362464
0.0012563647 0.00043174633 0.00017947752 7.530416e-05 0.00039152088 0.00058599195 0.00018221218 0.00013459416
0.000111326604 5.095753e-05 0.00023434081 4.5322195e-05 0.0006828232 4.9426148e-05 0.00057853566 0.00018866827
4.480765e-07 1.8560918e-06 3.852261e-05 1.4121879e-06 1.4698943e-06 3.786273e-05 2.8301106e-06 1.8483458e-06
5.698883e-07 5.531122e-07 1.6427771e-06 1.0995589e-06 3.0959711e-06 4.5121564e-07 4.29151e-07 2.7580262e-07
2.7874062e-06 2.122377e-07 2.8517068e-06 2.3472121e-07 1.0669395e-06 6.2899636e-07 3.3387925e-05 0.00022609383
0.00636976 0.00019797366 0.00020400733 0.0062173437 0.0005470741 0.00023251114 7.7292e-05 3.581845e-05
0.00027274308 0.00038625614 0.0001381012 0.00022758219 8.03259e-05 3.4318407e-05 0.00015802745 3.265289e-05
0.00042024904 3.5732264e-05 0.0005557393 0.0001256734 0.00019752847 0.0002838992 0.006643371 5.266197e-05
0.00018791627 0.0068779974 0.0005652649 0.00026941946 6.552596e-05 7.8168574e-05 0.0005239022 0.0002061946
0.00013939144 0.00013157054 0.00024683095 4.395649e-05 0.0003517373 4.2890002e-05 0.00019179533 4.46645e-05
0.00021283056 0.00053821027

exp_avg f4 [7, 7]
00000000: 6908 94b8 7759 c038 77d2 f737 6158 0839
00000010: a3b3 5138 d8ac 3139 4eb0 a139 66af 163a
00000020: 5bc6 18bc 195c d139 7cd3 c73a 7b64 783a
00000030: 6da9 363b 1c99 683c 7f24 2237 9554 0b38
00000040: 14db fa36 803e b637 8eb3 1437 01dc 2238
00000050: a5ea a638 199d 6b3b 24eb 913b 9b5d 503b
00000060: d546 4dbb 211a aa3b bc0e 0d3d a3a0 b23c
00000070: 2da9 a738 0df9 5239 3afb 9438 0e5b 8039
00000080: dc0e 0eba 837f 073a 49dc d539 151e 51bb
00000090: 88db faba 5fae 55bb c7e1 8cb9 ed57 45bb
000000a0: d038 29bd 4eea 3f3c d359 82bb 9b35 163b
000000b0: 63ab 93bb 09e2 a7ba e128 49bb adff 203c
000000c0: dd70 64bd
-7.0587565e-05 9.1719376e-05 2.95427e-05 0.00013002894 4.9996783e-05 0.00016944425 0.0003083967 0.00057481823
-0.009324635 0.00039932205 0.0015245522 0.0009475422 0.0027871982 0.01419666 9.66445e-06 3.3218956e-05
7.4760846e-06 2.1725195e-05 8.863293e-06 3.8828704e-05 7.959203e-05 0.0035951792 0.00445308 0.0031794074
-0.0031322737 0.005191103 0.03443788 0.021805113 7.994692e-05 0.0002011994 7.1039845e-05 0.00024481904
-0.00054190843 0.0005168842 0.0004079065 -0.00319088 -0.0019138912 -0.0032605154 -0.00026871098 -0.0030112222
-0.041313946 0.011713577 -0.003977993 0.0022920135 -0.004506515 -0.0012808453 -0.0030694532 0.009826583
-0.055771697

exp_avg_sq f4 [7, 7]
00000000: bfa3 2f36 1038 0536 d575 fe33 cacd be36
00000010: a291 3c34 a5e5 ea34 5447 a034 5954 8f37
00000020: 45ba 6a3a fbc2 4837 b3e6 3039 e724 8c37
00000030: 6912 8738 3bd8 8139 37a3 0133 0f95 8835
00000040: 1b07 9c32 311a b834 12f2 a832 86e2 3033
00000050: 62af 6733 6e15 f437 d00e 5f39 ac5a ae37
00000060: add9 d43a bbb4 2c38 a706 323a 35f5 6939
00000070: 5f74 4334 c649 1336 ab34 b033 d8db 2336
00000080: ca24 a436 dcf4 7235 2634 b334 f347 a237
00000090: f23e d938 c33c 9137 5e2d 2a3a 0e48 0738
000000a0: e028 9d3a f58d 1339 b849 df37 c682 d439
000000b0: a651 bb37 4e99 3b39 a7f9 1938 8cbd 6639
000000c0: 8d34 c03a
2.6172345e-06 1.9851177e-06 1.184923e-07 5.6863983e-06 1.7561845e-07 4.3752985e-07 2.985422e-07 1.7086206e-05
0.0008954148 1.1966326e-05 0.0001687061 1.6706485e-05 6.440731e-05 0.00024765902 3.0183596e-08 1.0176171e-06
1.8164021e-08 3.4291728e-07 1.9667855e-08 4.1184215e-08 5.394339e-08 2.9097046e-05 0.00021272455 2.0784639e-05
0.0016239189 4.1176314e-05 0.00067911524 0.00022311958 1.8203126e-07 2.1947649e-06 8.205219e-08 2.4416859e-06
4.8918637e-06 9.050834e-07 3.337929e-07 1.9345409e-05 0.00010359091 1.7313641e-05 0.00064917456 3.2253614e-05
0.0011990331 0.00014071896 2.6618e-05 0.00040533225 2.2330158e-05 0.0001789082 3.671055e-05 0.00022005121
0.0014664099

exp_avg f4 [7]
00000000: 5c59 3d3a 8860 363c 5573 6539 da6c 8e3d
00000010: c32e 833a 77e2 28bd b54f 67bd
0.00072230934 0.011131413 0.00021882106 0.069543555 0.0010008443 -0.0412316 -0.0564725

exp_avg_sq f4 [7]
00000000: aa65 2e38 bfb8 883b d7ca a436 f1dc 153c
00000010: aba8 2c38 a5e4 d93b 1d31 ea3b
4.1579515e-05 0.004172414 4.9111945e-06 0.009146915 4.116508e-05 0.006649571 0.007146968

exp_avg f4 [7]
00000000: eb5f 3d3a 9954 363c 3459 6439 fc6a 8e3d
00000010: 58e8 823a 89e4 28bd 4f4d 67bd
0.0007224071 0.011128568 0.00021777005 0.069539994 0.0009987457 -0.041233573 -0.05647021

exp_avg_sq f4 [7]
00000000: cf65 2e38 b5b8 883b 47c5 a436 e3dc 153c
00000010: a7a7 2c38 b0e4 d93b 0831 ea3b
4.157965e-05 0.0041724094 4.910547e-06 0.009146902 4.1164134e-05 0.006649576 0.0071469583

exp_avg f4 [7, 22]
00000000: d31c 90ba 13d7 07ba a7a3 7eba c886 a2b9
00000010: 2361 fab9 d442 4dba 247b 09bb 3e42 00ba
00000020: c056 c5ba 052c 0839 5c0e bd39 3583 373a
00000030: 3e9e 6c39 75c0 0b3a 6da9 9739 9530 d7b8
00000040: ac52 e336 7685 1bb8 92aa 8c34 5e4d 103a
00000050: 2138 2e39 6c46 2d39 ac31 43ba 2e58 393a
00000060: 70f9 b1bb 469c f5ba e204 083a 3925 adbb
00000070: 7230 44bb 02e0 753a 5c77 243a 459f 02ba
00000080: 2ab7 a23a ecab ef3a ac20 123a 9255 893a
00000090: fa26 5e3a 627f db39 e331 7438 ca8b 163a
000000a0: 269d d839 a562 2b3b bba4 413a ed07 5f3a
000000b0: 50af 46ba 46b0 8939 0e7c 9abb 6230 efba
000000c0: e8d8 143a 289a 91bb 6875 6cbb b49a cf39
000000d0: d6ff 323a 0bbc 363a 07bb 9e38 db23 bb3a
000000e0: f667 e439 3b12 5b3a ce59 163a 34e2 bc39
000000f0: eb00 0b3a ae5a 5938 8194 b139 4745 093b
00000100: 6e10 303a 2ac7 303a b4a7 8cb8 c3e7 d437
00000110: 9581 fab9 4d75 1fb9 25d6 2a38 3571 efb9
00000120: a469 95b9 c3b5 3738 90bd 3738 f5e7 e437
00000130: 4095 9238 4ec5 f938 4366 1538 08ee c138
00000140: 3b96 9e38 4f81 df37 bbec 0238 2230 1438
00000150: 0aef e937 674c 4639 c5f8 7f38 2362 9338
00000160: 42aa 5e3a e549 21ba cd3a 293c 9b4a dd3a
00000170: ee68 b739 b4f8 243c 8a74 b23b eb05 da39
00000180: 4ba7 04bb 6095 8bba ab66 aa3a fa08 f7bb
00000190: 23b4 26bb f88f 0e3b 9e8b 11b9 c81e 6aba
000001a0: 0df4 83ba 281a 2eba 091e 73ba 0777 f3bb
000001b0: 0f20 493a 56fd a339 a200 a4ba 5ca3 1639
000001c0: e117 a13b 2457 9c3b e57a 30ba ecc2 3f3b
000001d0: 7736 0e3c e6de 3eba 29a1 4b3a d574 b239
000001e0: 99c7 933b fb83 363b 6860 053b e9c8 5bbc
000001f0: 82ae a9ba 730a ffb8 9aa9 7c35 9861 8d35
00000200: b33c c2b8 44b8 f939 7b5f acbb 227b 403a
00000210: b47d 483b 5bdd 843b d9bc 6bbc 7e20 82bb
00000220: e7dd 2c3b 3140 51bc 14cd 1dbc 9b97 423b
00000230: cca6 453b eccd aab6 7c71 dfbb 7e99 333c
00000240: b362 1a3b 4faa a23b 427d 0bba 812c b83a
00000250: 607a c13a b3e8 cc3a 33d3 ad3a 5113 0b3c
00000260: c25c 353b 82fb 49bb
-0.0010994918 -0.000518189 -0.0009713717 -0.00030999468 -0.00047756088 -0.00078300876 -0.0020977939 -0.00048926834
-0.0015055761 0.00012986369 0.00036059588 0.00070004474 0.00022565664 0.00053311075 0.00028927196 -0.00010261048
6.7747515e-06 -3.7079175e-05 2.6201138e-07 0.00055046927 0.00016614843 0.000165248 -0.00074460614 0.000707033
-0.0054313466 -0.001873859 0.0005188716 -0.0052839783 -0.0029936102 0.0009379388 0.00062738894 -0.00049828395
0.0012414206 0.001828549 0.00055743265 0.0010477772 0.0008474436 0.00041865843 5.8220594e-05 0.0005742876
0.00041315815 0.0026151326 0.00073869125 0.0008507956 -0.0007579224 0.0002626201 -0.0047144955 -0.0018248672
0.00056780735 -0.0044434257 -0.0036080722 0.0003959738 0.00068282837 0.00069707696 7.568864e-05 0.0014277654
0.00043565006 0.00083569036 0.0005735428 0.0003602669 0.0005302566 5.1821284e-05 0.00033870715 0.0020945834
0.00067163154 0.0006743545 -6.706957e-05 2.5380292e-05 -0.00047780262 -0.0001520712 4.0730596e-05 -0.00045669978
-0.00028498203 4.379988e-05 4.3807144e-05 2.7287731e-05 6.9896225e-05 0.00011909996 3.5619607e-05 9.247294e-05
7.56201e-05 2.6643886e-05 3.1214888e-05 3.5330777e-05 2.7887076e-05 0.00018911214 6.1028422e-05 7.0277856e-05
0.00084939983 -0.0006152674 0.010328961 0.0016883196 0.0003498266 0.010069061 0.0054460214 0.0004158461
-0.0020241316 -0.0010649376 0.0013000568 -0.007538912 -0.002543696 0.0021753293 -0.00013880289 -0.00089309784
-0.001006724 -0.0006641471 -0.000927419 -0.0074299606 0.00076723186 0.00031278533 -0.0012512396 0.00014365971
0.0049161767 0.00477113 -0.000673218 0.002926047 0.008679978 -0.0007281139 0.000776785 0.00034037852
0.004509878 0.0027849663 0.0020351652 -0.0134146 -0.0012945684 -0.00012161294 9.412412e-07 1.0533722e-06
-9.261947e-05 0.0004763027 -0.0052604056 0.0007342567 0.0030592503 0.004054708 -0.0143882865 -0.0039711585
0.0026377381 -0.012771652 -0.009631414 0.0029692415 0.0030159233 -5.0903673e-06 -0.0068189483 0.010961888
0.0023557364 0.00496415 -0.0005321094 0.0014051349 0.0014761202 0.0015633315 0.0013261795 0.008488492
0.0027673696 -0.0030820076

exp_avg_sq f4 [7, 22]
00000000: c5ad 7937 becf 8537 8ab7 1439 f9e4 8c37
00000010: cb0b 9937 63f6 1339 41f5 e137 c575 ac37
00000020: 85e7 d437 43a4 4f36 1a23 8a36 db1f a736
00000030: c293 e035 55c9 f435 2a07 d035 9c9d 2036
00000040: 7e83 d036 f15c 9936 0833 2436 241d 0f37
00000050: 7f8a 5036 8ca8 5336 44fb 163a 5605 0b37
00000060: 7446 143b 5006 6139 af3b 2636 c435 2c3b
00000070: b5ce c33a ed3b 3e37 80eb 9637 fbfa 7a39
00000080: 58d8 1839 a91d 9238 eed9 ab37 72af da37
00000090: ecc1 1538 35b2 ab37 3a92 f838 f69d b939
000000a0: c684 ad37 1154 2938 9181 dc37 a884 e637
000000b0: eff7 ea39 4e25 8537 e2c9 ab3a 101a 3239
000000c0: ffb3 8036 a515 d13a 81f4 c53a fe63 b837
000000d0: 6ceb 4d37 d8d5 2c38 6714 5939 4700 8138
000000e0: 0dc1 8937 bcaa b837 19a0 8e37 ba5e 6f37
000000f0: ca7a 9638 6385 3d39 d754 4e37 7bde 1538
00000100: e39a bd37 243e 9c37 f9d5 9b36 e7dc bb34
00000110: 3960 1e38 177f be36 6d5d 0335 69bd 1938
00000120: 53d2 c337 d4d5 2a35 7594 0435 66be 9e35
00000130: f73d ef35 98dd a335 a1c7 2535 eb8f 4f35
00000140: 39ff da35 fb3a 3a35 66bc bb35 f8fc 0035
00000150: a8db b935 8360 2535 00b1 8035 a32d a635
00000160: 0e76 f838 40ea 3138 d240 203b 0fd1 9539
00000170: 836a 6838 6573 143b ddc2 9f3a b1bc 8e38
00000180: 5ac0 0d38 576a 8e37 9bad 0339 2834 5239
00000190: 0dce 0538 0b39 8138 5922 4d38 b747 a337
000001a0: e9f1 ea37 f91c 6a38 c03c 8037 23d3 8639
000001b0: b2ba 5638 88fa d238 2aee 6f39 c682 2238
000001c0: 7100 6b3b da2b 503a 2d5f 9938 7d1a 443b
000001d0: aa08 393b a843 c438 24b7 c537 4c77 a137
000001e0: 5c80 9038 5745 4339 c031 ef37 2818 cf39
000001f0: 05bd d038 33d3 c337 883e e937 6682 e637
00000200: df37 c037 93bd 123a 6055 d138 c942 f938
00000210: dad3 c639 01c9 b437 cdc7 b33b 5124 3e3a
00000220: 02fe 4038 4d07 a83b d03b 283b b6be 6938
00000230: 0adc 0e38 265f 4338 eb36 d239 647d 7e39
00000240: bc91 3238 54c5 f038 2520 9b39 fe3a 0638
00000250: f73c 4338 2a54 3938 b73a 2038 d23b 4b3a
00000260: b396 be38 26a8 9739
1.4882015e-05 1.5951573e-05 0.00014182754 1.6795924e-05 1.8244513e-05 0.00014110799 2.6936295e-05 2.0558839e-05
2.5380179e-05 3.0941017e-06 4.116807e-06 4.9806963e-06 1.6732304e-06 1.8238012e-06 1.5499293e-06 2.3933599e-06
6.2141908e-06 4.570575e-06 2.4467608e-06 8.530249e-06 3.107503e-06 3.1539557e-06 0.00057594874 8.286288e-06
0.0022625 0.00021460024 2.4770668e-06 0.0026277164 0.0014938923 1.1338835e-05 1.7991057e-05 0.00023935355
0.00014576444 6.967347e-05 2.048627e-05 2.6069323e-05 3.5704972e-05 2.0467773e-05 0.00011852798 0.0003540364
2.0685035e-05 4.0371033e-05 2.6286378e-05 2.747991e-05 0.00044816683 1.5872207e-05 0.001310643 0.00016985112
3.8356516e-06 0.0015951885 0.0015102775 2.1981072e-05 1.2273766e-05 4.1207153e-05 0.00020702333 6.151251e-05
1.6421569e-05 2.2014014e-05 1.700227e-05 1.4267565e-05 7.1754286e-05 0.00018074135 1.229831e-05 3.573157e-05
2.260268e-05 1.8625586e-05 4.6442697e-06 3.4992192e-07 3.775975e-05 5.6772365e-06 4.8937255e-07 3.6654445e-05
2.3343751e-05 6.3641096e-07 4.9389865e-07 1.1827331e-06 1.7824922e-06 1.2208939e-06 6.175779e-07 7.732294e-07
1.6316545e-06 6.937623e-07 1.3987417e-06 4.8051834e-07 1.3847502e-06 6.1607733e-07 9.588257e-07 1.2381246e-06
0.00011847551 4.241825e-05 0.0024452698 0.00028575255 5.5412307e-05 0.0022651788 0.0012188811 6.806234e-05
3.379616e-05 1.6977237e-05 0.00012557807 0.0002004659 3.190157e-05 6.1618244e-05 4.8907797e-05 1.9464509e-05
2.8007622e-05 5.581693e-05 1.5287078e-05 0.0002571578 5.119545e-05 0.000100602454 0.00022881539 3.8745602e-05
0.0035858417 0.00079411047 7.3133364e-05 0.0029923015 0.0028233924 9.35861e-05 2.3569512e-05 1.9248248e-05
6.890364e-05 0.0001862248 2.8514187e-05 0.00039500115 9.9534205e-05 2.3344159e-05 2.7804883e-05 2.7478858e-05
2.29142e-05 0.0005597707 9.981799e-05 0.00011885685 0.00037923345 2.1551272e-05 0.0054864646 0.00072533364
4.601293e-05 0.0051278234 0.0025670417 5.5729142e-05 3.4060366e-05 4.6580237e-05 0.00040095238 0.0002427004
4.2574233e-05 0.00011480847 0.00029587853 3.200303e-05 4.65484e-05 4.418582e-05 3.8201655e-05 0.00077527494
9.087976e-05 0.00028926245

exp_avg f4 [7, 7]
00000000: 8d3e e8ba 1093 0139 f8b0 1a39 9688 be38
00000010: 7eb2 ae3a 83f4 0f3a 0d4f 8e39 5f0b a039
00000020: 43ee 68ba 1b2c 913a ea4c 9739 863d 543b
00000030: bfa6 4b3a d824 5a3a 48fc e439 4eee 6d3a
00000040: b956 13ba 771a 3339 0fbf 183b 02df 5d3a
00000050: 5d0f 1a3a bd7d af37 710f c637 ae31 dd37
00000060: 5b89 8337 d081 4f39 ea05 b838 1bea c938
00000070: e934 85b9 afdf c0ba 2667 a2ba f12b c3ba
00000080: 2543 8fbc bfab f03b 42f5 9b3b 6c6c 9839
00000090: 61d0 7139 6b16 5f39 3184 0239 4306 4d3c
000000a0: 0ef6 b3bc 5f4d 8e3b d14c 6d3a 1da5 843a
000000b0: e619 833a b723 4d3a 4c79 843c 1edb 9b3b
000000c0: 5442 2fbc
-0.0017718837 0.00012357184 0.0001475251 9.085347e-05 0.0013328341 0.0005491452 0.00027143248 0.0003052605
-0.00088856014 0.0011075767 0.0002885827 0.0032385304 0.00077686826 0.000832153 0.00043675513 0.00090763427
-0.00056205277 0.00017080629 0.002330724 0.0008463712 0.0005876923 2.0920177e-05 2.361063e-05 2.6368387e-05
1.5680378e-05 0.00019789417 8.774905e-05 9.6280324e-05 -0.00025407158 -0.00147151 -0.001239036 -0.0014890415
-0.017488072 0.0073446925 0.0047594616 0.0002907248 0.00023061178 0.00021275289 0.00012447011 0.0125137
-0.021967914 0.0043427194 0.0009052279 0.0010120008 0.0010002225 0.00078254513 0.01617112 0.0047563454
-0.010696966

exp_avg_sq f4 [7, 7]
00000000: e4c1 fa37 8ffa c836 c83c 5636 1c59 af35
00000010: 4746 ae36 495a 4936 3002 0e36 b0d2 3f37
00000020: c558 043a 8539 9739 4153 2137 f7d7 ff37
00000030: ddeb 6637 5c2a a737 2c70 1b37 62af b738
00000040: 4580 e239 2f66 bf36 0911 1b38 9ad7 5d37
00000050: ca54 3e37 2933 0635 0cdd 0636 e1e1 6035
00000060: d70c 2c35 34e8 5d35 6250 f235 512b 9836
00000070: 9fd0 ce37 e694 9a37 4516 9538 58ec eb36
00000080: eefc 0a3a cf0a 6f38 f034 0c39 0245 2f37
00000090: d5bb 8937 24dd 9137 dfdd 2737 d572 d939
000000a0: 30d8 373a 6c2e cd38 4a57 8b37 390c d937
000000b0: 6159 de37 588c a037 423c 393a 0971 9a38
000000c0: 5a49 703a
2.989261e-05 5.9896333e-06 3.1923864e-06 1.306445e-06 5.1937855e-06 3.0003887e-06 2.1160922e-06 1.1433542e-05
0.0005048628 0.0002884382 9.615732e-06 3.0498935e-05 1.37639845e-05 1.9927676e-05 9.264837e-06 8.7587876e-05
0.00043201647 5.7041393e-06 3.6970745e-05 1.3222825e-05 1.1344624e-05 4.999334e-07 2.0096222e-06 8.37752e-07
6.409368e-07 8.2666816e-07 1.80538e-06 4.5349957e-06 2.465426e-05 1.8427567e-05 7.109022e-05 7.03106e-06
0.00053019717 5.6992107e-05 0.00013371161 1.044688e-05 1.6419139e-05 1.7388324e-05 1.0005634e-05 0.00041475022
0.00070131104 9.7838085e-05 1.6610738e-05 2.5874107e-05 2.6506083e-05 1.9138839e-05 0.0007066169 7.364347e-05
0.00091662037

exp_avg f4 [7]
00000000: b624 453a 928b b93b b7a4 9a3b 7901 003a
00000010: 393d 21bc a01d 8bbb 838a 643c
0.0007520424 0.00566239 0.0047193426 0.0004883032 -0.009841257 -0.004245475 0.013949039

exp_avg_sq f4 [7]
00000000: ca29 3a39 f0d5 3a3b 2d04 e93a 9b33 3438
00000010: 7b6c 2b3b b6f3 7d3b 7ad0 c13b
0.0001775391 0.0028508864 0.0017777734 4.2963406e-05 0.0026157189 0.003875 0.005914745

exp_avg f4 [7]
00000000: 781e 463a 83b7 b93b c39e 9a3b 4e06 013a
00000010: 2246 21bc 963f 8bbb 7b72 643c
0.0007557641 0.0056676283 0.004718633 0.0004921899 -0.009843381 -0.0042495234 0.01394331

exp_avg_sq f4 [7]
00000000: e52a 3a39 0fd6 3a3b 3304 e93a f53b 3438
00000010: 936c 2b3b a7f3 7d3b 7fd0 c13b
0.00017754322 0.0028508937 0.0017777741 4.2971184e-05 0.0026157245 0.0038749964 0.0059147472

exp_avg f4 [7, 22]
00000000: 1490 55bc 7db8 87bb 921a e23c 1564 a7ba
00000010: b3a6 b6bb eede f63c 11ed a7bc d56b 9ebb
00000020: 39f8 24bb 8209 11bb 9986 b63a 509d 39bc
00000030: c37d c4bb f2f4 10bb 9d93 c4bb 473a b2bc
00000040: 2d16 49bb 83e1 b93a 7264 a9ba fd2e 47bb
00000050: 8f87 fbb8 a177 85ba 593e 8f39 cf53 9637
00000060: b51a 91ba 6e16 3b39 b9e3 e236 bedd 92ba
00000070: 15d7 053a b885 3237 1859 e738 39f1 8d37
00000080: 9ead 3239 9672 8d39 2aed 3b39 8bc8 7739
00000090: 054e 3a39 c6ca 6e39 e4f2 ae38 bf64 8739
000000a0: 9bfd 4639 aab0 b038 5efe 3239 99ad 1639
000000b0: a819 0fbc 0de4 a63a 2b06 ad3c b9cd 30bc
000000c0: 0eb8 83ba 1367 ad3c 49e7 87bc 3a0a 123a
000000d0: bc78 49ba ee01 fdba 615b 29bc 26bf 073b
000000e0: 3af4 9fbb a2e7 11ba 809f a6bb 02e8 4b3b
000000f0: b067 00bb 7934 babc d41d 0b3b 382c 00bb
00000100: 9f24 093a f1dc 1fba 2022 843b 5f13 f839
00000110: f408 d1bc cf2c ec3a 3055 323b ce67 d6bc
00000120: 479b 933b 0957 163a 7ecc 723a 9c9a 943a
00000130: 1ea6 843b 16d0 5a3b 3baf ce3b d041 873b
00000140: ff69 b03b dbf5 ca3b 741d 0d3b 690a 573c
00000150: 04b1 70bb 48cb 0c3b 1935 313b 34c0 2a3b
00000160: c407 2d39 6a1e eab5 afe6 33ba 0ce7 0439
00000170: 2bec edb6 1cb9 36ba 48ec aa39 d26c 7ab6
00000180: 2af8 6238 5d58 3238 f88e de38 d0aa 2539
00000190: 8953 e838 8b70 1839 baa0 cd38 f591 e538
000001a0: fce5 6038 6263 2f39 289b 0839 c671 5138
000001b0: 9fac df38 ebb9 bc38 3b76 7b3b df26 053a
000001c0: 9a3e 073b 414a e13a 4b61 943a abf1 0f3b
000001d0: 73dc b53b 3b85 8a3a c8db 7d38 3b18 83b9
000001e0: 45c7 b938 c62b 0eba 35b5 4a39 d0a4 12bb
000001f0: 773e 223a dd4a 833a 9a21 d9b6 85c0 283a
00000200: 6b11 2e39 9a51 c3b6 8dce 49bb 3944 50ba
00000210: 6261 d6ba bdd7 33ba 6a43 0dbc 674f f13a
00000220: 05f3 a9ba f4bc 18bc c3ec 8d3a 95e6 b9ba
00000230: 9e47 213a df15 c939 48c6 9f3a e5cc df3a
00000240: bfbc 243a eb6c 9f3b e91e 1a38 a096 aa3a
00000250: ea3f 1c3a 1b00 063b e8f5 6d3a 2ff7 1b3a
00000260: 6574 793b f973 5839
-0.013034839 -0.0041418658 0.02760056 -0.0012770916 -0.0055740713 0.030135598 -0.020498784 -0.004834632
-0.0025172366 -0.0022130911 0.0013925611 -0.01132901 -0.0059964373 -0.0022118655 -0.005999042 -0.021756304
-0.0030683384 0.0014181588 -0.0012923612 -0.0030392997 -0.000119938624 -0.0010182747 0.00027321538 1.792042e-05
-0.0011070581 0.00017842065 6.7618353e-06 -0.0011205 0.0005105597 1.0640761e-05 0.00011031533 1.6920838e-05
0.0001704008 0.0002697899 0.0001792206 0.00023630464 0.00017767407 0.00022772988 8.3422085e-05 0.00025824268
0.00018977227 8.42524e-05 0.00017070162 0.00014369785 -0.008734144 0.0012732759 0.021121105 -0.010791236
-0.0010049359 0.021167314 -0.016589778 0.0005570982 -0.00076855323 -0.0019302943 -0.010336728 0.0020713299
-0.004881409 -0.0005565827 -0.005084932 0.003111363 -0.0019593053 -0.022730099 0.0021227496 -0.0019557606
0.0005231592 -0.00060982915 0.0040323883 0.0004731668 -0.025516964 0.0018018725 0.002721142 -0.026172545
0.0045045945 0.0005735015 0.0009262039 0.0011337581 0.004048123 0.003338819 0.00630751 0.0041277185
0.0053837295 0.006193859 0.0021532448 0.013125041 -0.0036726603 0.002148347 0.0027039705 0.0026054503
0.00016501459 -1.744321e-06 -0.00068626826 0.00012674573 -7.090644e-06 -0.00069703325 0.0003260097 -3.7316245e-06
5.411372e-05 4.25208e-05 0.00010612415 0.00015799259 0.00011078182 0.00014537775 9.8050994e-05 0.000109467575
5.361995e-05 0.00016726324 0.00013027771 4.9935443e-05 0.00010665622 8.9991685e-05 0.0038370031 0.00050793396
0.0020636679 0.0017188267 0.00113205 0.0021964114 0.0055499612 0.001056827 6.0524588e-05 -0.0002500432
8.858604e-05 -0.0005423393 0.00019331726 -0.0022376068 0.00061891176 0.0010016818 -6.4710157e-06 0.0006437379
0.00016600422 -5.8209525e-06 -0.003079328 -0.0007944736 -0.0016355927 -0.00068604556 -0.00862203 0.0018410505
-0.0012966102 -0.009322394 0.0010828007 -0.0014183099 0.00061523344 0.00038354003 0.001218983 0.0017074613
0.0006284229 0.004865279 3.674525e-05 0.001301486 0.00059604517 0.002044684 0.00090774754 0.0005949614
0.0038063761 0.00020642568

exp_avg_sq f4 [7, 22]
00000000: 14d2 023a 0cc2 7738 bbba a13b 67e7 3739
00000010: 4644 b738 5a59 ab3b a151 c43a d713 9a38
00000020: 200e ee38 07d2 f637 c2b4 dd38 18be b339
00000030: d90d 1c39 603d 0e39 e1ac 1739 2ff6 d739
00000040: 46f0 1938 8b2b c239 cc44 a338 845f 1838
00000050: e2b4 ee38 2fea 8f38 2843 1937 b5ac b834
00000060: 1693 5238 3f15 5c36 dc86 2434 b800 6c38
00000070: 9e11 ca37 6041 d934 5e0b 6935 12f3 b136
00000080: 6034 af35 621c c735 3c0d 5735 8061 5535
00000090: dbb8 8435 2f18 9435 8fcb 0935 219b d836
000000a0: d022 2b35 bad0 bf35 c4b3 3435 62c7 5f35
000000b0: e9d4 573a de62 5e37 2dc7 b23b 9b05 303a
000000c0: e2ac d837 2b69 b73b edb7 603b d7f1 7a37
000000d0: 2e10 5a38 c679 8138 7d30 b539 52ff 8639
000000e0: d4ed 0739 6d91 1239 a7ab 2339 6730 2339
000000f0: de1f 2838 8700 3b3a e189 8239 cb67 5a38
00000100: 6269 ab38 48c0 8e38 aac6 603a b4c6 a236
00000110: 1b83 383b 12dc 283a 5000 ed37 b732 453b
00000120: 6150 7f3b d2bc cf36 7005 e637 96ea c837
00000130: 0f05 4739 28c0 6339 5fd3 8b38 89ad a538
00000140: c063 7238 adfd 6238 fe8e af37 abea de39
00000150: c8e9 8539 9bda b137 668c bd37 4cae be37
00000160: cf11 c236 fe5e 0934 9650 4d38 f2ab c336
00000170: fd3f 3134 2ec5 4c38 6bcd ce37 df44 0f34
00000180: 3447 1935 5bff 8935 842c 2236 8fc4 0236
00000190: 6bbe 9d35 6b0f 3b35 71ab ac35 17df 9235
000001a0: c64e 1135 f57f 8a36 52ba 0d35 1341 d335
000001b0: 1d9e 1635 f1f6 8935 1ab8 6438 c414 6c37
000001c0: 415d db3a 3cd1 8738 b9ef 4837 ca47 d93a
000001d0: 519c 7d39 9f41 3437 e526 f837 1730 2f37
000001e0: 302c de37 4b98 5c38 fb45 1938 d254 d538
000001f0: 8982 7838 4c67 4338 711a 1237 8dfc ff38
00000200: 8580 2037 543f 0e37 f882 fa38 85a9 6e38
00000210: 1b63 0a38 dfc0 4137 6499 0b3b 57f2 1439
00000220: e269 b636 3f2e 043b 6623 c339 a622 a936
00000230: 2673 4137 ba48 5237 a2ef c637 2984 4f38
00000240: 6491 a338 2a81 b038 997b 0f39 6c35 2c38
00000250: 7547 2e37 86f8 d838 5aa9 3f37 ba97 4e37
00000260: 6f86 2d39 d830 de38
0.00049904105 5.907011e-05 0.00493559 0.00017538444 8.738837e-05 0.0052291574 0.0014977941 7.346988e-05
0.00011351355 2.9423287e-05 0.0001057177 0.0003428317 0.00014882478 0.00013565039 0.00014464885 0.00041191417
3.6701815e-05 0.00037035006 7.78526e-05 3.632858e-05 0.000113824164 6.8623915e-05 9.135147e-06 3.4398332e-07
5.0204886e-05 3.2794921e-06 1.5322752e-07 5.6267454e-05 2.408848e-05 4.0466966e-07 8.6815805e-07 5.303308e-06
1.3053759e-06 1.4834916e-06 8.0113e-07 7.9490565e-07 9.888566e-07 1.1033898e-06 5.1332694e-07 6.455361e-06
6.3753123e-07 1.4291356e-06 6.731682e-07 8.3364114e-07 0.0008233325 1.325525e-05 0.0054558725 0.00067147025
2.5829711e-05 0.005597254 0.0034289316 1.4957469e-05 5.199032e-05 6.1738814e-05 0.00034559137 0.000257487
0.00012963201 0.0001397782 0.00015608837 0.00015562923 4.0084e-05 0.00071335625 0.0002489826 5.2071915e-05
8.1735445e-05 6.806903e-05 0.0008574525 4.8511083e-06 0.0028154317 0.00064414844 2.8252747e-05 0.0030090043
0.0038957822 6.1910623e-06 2.7420669e-05 2.3951095e-05 0.00018980003 0.00021719991 6.6674074e-05 7.9001366e-05
5.7790196e-05 5.4118853e-05 2.0928212e-05 0.0004251798 0.00025541917 2.120184e-05 2.2595934e-05 2.2730928e-05
5.7837237e-06 1.2793677e-07 4.895086e-05 5.83147e-06 1.6507688e-07 4.8821028e-05 2.4652769e-05 1.3342968e-07
5.7100556e-07 1.0281614e-06 2.4165793e-06 1.9485922e-06 1.175283e-06 6.9685365e-07 1.2864895e-06 1.0942775e-06
5.413134e-07 4.1276166e-06 5.2797725e-07 1.5739664e-06 5.610944e-07 1.0279165e-06 5.4530894e-05 1.4071531e-05
0.0016736166 6.4762746e-05 1.1976744e-05 0.0016577181 0.00024186193 1.0744115e-05 2.9582015e-05 1.044201e-05
2.6485039e-05 5.259392e-05 3.6543217e-05 0.000101724305 5.9249378e-05 4.6587826e-05 8.7084345e-06 0.00012206389
9.566666e-06 8.478604e-06 0.00011945324 5.69015e-05 3.2994063e-05 1.1548603e-05 0.0021301145 0.00014204659
5.436349e-06 0.0020169166 0.00037219672 5.040626e-06 1.15305065e-05 1.2533908e-05 2.3715027e-05 4.947573e-05
7.799527e-05 8.416393e-05 0.00013683586 4.105775e-05 1.0387846e-05 0.00010345974 1.1423917e-05 1.2313883e-05
0.00016548646 0.00010594883

exp_avg f4 [7, 7]
00000000: 4214 0cbd a51c 35bb 350f 0a3c 0d29 f439
00000010: 5127 3abb 0878 c03a ad3d 123a d118 9639
00000020: 2209 0eb6 eebf 9d39 0ea6 6139 2039 7b38
00000030: 08d5 3d39 3d09 0f39 c2f3 153c 110a 02bb
00000040: 647c 1cbd cd8c 313c 9aec 0cbb 50e9 c43a
00000050: 7cb0 2aba e5e7 eb3b 40e6 be3a 3661 b43c
00000060: 5e1e 30bc 4f05 b23a 497e 0a3b 5209 f13a
00000070: 8fcd da38 3044 0d38 ddea 4839 cff7 2539
00000080: 3fba d037 f617 d438 87f1 c238 d93a b33a
00000090: 7a6a 52b9 24a7 8f3a 2d14 a3b8 9a3f 7ab9
000000a0: 0830 bdbb a287 e43a fd2b 003b 6b96 9139
000000b0: 2ba6 0d3b 4e77 053a af3a 7339 59d8 213c
000000c0: f2c7 b6bb
-0.034199007 -0.0027635482 0.008426477 0.00046569892 -0.0028404782 0.001468421 0.00055786484 0.0002862872
-2.1164965e-06 0.00030088372 0.00021519532 5.9896265e-05 0.00018103805 0.00013640984 0.009152355 -0.0019842426
-0.038204566 0.010836792 -0.002150333 0.0015023146 -0.00065112836 0.007199275 0.001456447 0.02201901
-0.010749428 0.0013581904 0.00211324 0.0018389618 0.00010433338 3.3680524e-05 0.0001916098 0.00015827942
2.488226e-05 0.00010113411 9.295629e-05 0.0013674154 -0.00020066826 0.0010959846 -7.776204e-05 -0.00023865551
-0.005773548 0.0017435441 0.001955747 0.00027768625 0.0021613936 0.0005091325 0.00023196147 0.009878241
-0.0055780346

exp_avg_sq f4 [7, 7]
00000000: f6b1 993a dcad bf37 6470 b339 1074 6338
00000010: 372f 9637 fc1d 0039 a92a 6d38 7ad2 aa35
00000020: 76c7 b936 8dd9 9c36 39ab 1d35 b40a 5f35
00000030: cf8e 8235 af8e 8035 95c0 9239 3736 2c38
00000040: 8f35 9a3a 0056 0f3a bf20 d837 30ef db38
00000050: e177 6e38 30d9 4f38 76ac 5537 deaa d839
00000060: c21f 463a 3dd2 4437 1c9d 6437 a625 5b37
00000070: 68f4 7b35 c7f7 fa34 4093 1e37 171a 8a35
00000080: 82c0 4135 9c89 e834 b144 9e35 4a5d a038
00000090: 8f74 8f36 d21f 9e38 d946 a636 bd7c 8636
000000a0: 8249 9a39 8b34 e538 dfa4 0638 619c ab36
000000b0: a455 a538 e354 bf36 7f49 ca36 010e 3d39
000000c0: a4e9 cf39
0.001172601 2.2849934e-05 0.00034225278 5.422911e-05 1.790338e-05 0.00012218201 5.6544934e-05 1.2727244e-06
5.53665e-06 4.6744885e-06 5.873622e-07 8.308955e-07 9.727318e-07 9.57827e-07 0.00027990775 4.1058487e-05
0.0011765229 0.0005467832 2.5764455e-05 0.00010487286 5.6855268e-05 4.9554917e-05 1.27359435e-05 0.00041326036
0.0007557833 1.173146e-05 1.3626439e-05 1.3062183e-05 9.3860444e-07 4.674641e-07 9.451818e-06 1.0289394e-06
7.217824e-07 4.3313491e-07 1.1791909e-06 7.646771e-05 4.2753013e-06 7.539954e-05 4.9554333e-06 4.0080326e-06
0.00029427937 0.00010929358 3.2101638e-05 5.114402e-06 7.883765e-05 5.7021257e-06 6.028625e-06 0.00018029661
0.00039656193

exp_avg f4 [7]
00000000: 8f7f ecbc d562 9b3a 6a0a b0bc 61eb ce3c
00000010: f4d0 3f3a f2a0 07bb 73f1 1a3c
-0.028869418 0.0011855016 -0.02148934 0.025258722 0.0007317208 -0.0020695296 0.00945698
