data_10frm/model/0_3_9_9.pt (torch_old, 18399 bytes, 52 tensors)

rnn.weight_ih f4 [7, 22]
0	0x3e17f619	0.14839973
1	0xbe76ca04	-0.241005
2	0xbe5361ad	-0.20642729
3	0xbea3b6f3	-0.31975517
4	0xbe19112e	-0.1494796
5	0xbe4a4300	-0.19752121
6	0x3eb552fd	0.35414878
7	0x3d397735	0.0452797
8	0x3e1c7997	0.15280758
9	0xbebcfc35	-0.3691117
10	0x3e9bed47	0.30454466
11	0xbd703e76	-0.058653317
12	0xbea6efc0	-0.3260479
13	0x3e8c2d57	0.27378342
14	0xbdb6789d	-0.08909724
15	0x3eb5cf39	0.3550966
16	0xbe6e8451	-0.23292662
17	0xbea8b758	-0.3295238
18	0xbe859a81	-0.2609444
19	0x3e32918d	0.17438336
20	0xbc501559	-0.012700402
21	0xbeac7e9a	-0.3369034
22	0x3da69f9b	0.08135911
23	0xbc9b7d8f	-0.01898077
24	0x3e34ec37	0.17668234
25	0xbe355545	-0.17708309
26	0xbe891481	-0.26773456
27	0x3e95a3f3	0.29226646
28	0xbe2eb03f	-0.1705942
29	0x3e9405db	0.28910717
30	0x3e866147	0.26246092
31	0xbe7ea97b	-0.24869339
32	0xbe5eb95b	-0.21750395
33	0xbbee6bfa	-0.0072760554
34	0xbecfcbbb	-0.40585122
35	0x3d4fd74a	0.050742425
36	0xbe5506c4	-0.20803362
37	0xbe4c0979	-0.19925489
38	0xbeaadb3f	-0.33370396
39	0x3e09418c	0.1340391
40	0xbe9029a9	-0.28156784
41	0xbea6d707	-0.32585928
42	0xbe12dc80	-0.14341927
43	0xbe7fe402	-0.24989322
44	0xbea0b33d	-0.31386748
45	0x3d1239ca	0.035699643
46	0xbe34b973	-0.17648868
47	0x3eadd6b8	0.3395288
48	0x3e42cc2b	0.19023196
49	0xbe8bc880	-0.27301407
50	0xbe2090a3	-0.15680175
51	0xbe6dc048	-0.2321788
52	0x3e691c17	0.22764622
53	0x3c13c6f1	0.009019599
54	0xbda2f376	-0.07956593
55	0x3e87afbb	0.2650126
56	0x3ec826c6	0.39092082
57	0x3e95659d	0.29179087
58	0xbe841c2c	-0.25802743
59	0xbd07ee02	-0.033185966
60	0xbd47dd72	-0.04879517
61	0x3eb74b8e	0.3579983
62	0xbe2efaea	-0.17087904
63	0xbe42cfa9	-0.19024529
64	0x3cf1736a	0.029473979
65	0xbd5241ea	-0.05133239
66	0x3e487823	0.19577079
67	0xbd889d6b	-0.0667065
68	0xbe609ba1	-0.21934368
69	0x3eaf61fc	0.34254444
70	0x3e13bf7f	0.14428519
71	0x3db12e8d	0.08651457
72	0xbe8f11c6	-0.27943248
73	0x3da2add5	0.07943312
74	0x3e802be8	0.25033498
75	0x3ddfa553	0.10920205
76	0xbe0beca6	-0.13664493
77	0x3d27df3d	0.04098438
78	0xbe11ddda	-0.14244786
79	0x3eb42f92	0.35192543
80	0x3eb2ab34	0.34896243
81	0xbce0da3f	-0.027447818
82	0xbe8160d9	-0.252692
83	0x3e55976a	0.20858541
84	0x3e3ff924	0.18747383
85	0x3e592655	0.21206029
86	0xbe9329dc	-0.28742874
87	0x3e02a3fb	0.12757866
88	0xbe93341c	-0.28750694
89	0xbec3b731	-0.382257
90	0xbde1dbab	-0.110282265
91	0x3d8e86f9	0.06959338
92	0x3e0d721a	0.13813058
93	0xbe34b95a	-0.17648831
94	0x3dd3555f	0.103190176
95	0x3e850ead	0.2598776
96	0x3e10c925	0.1413923
97	0x3d812837	0.063064985
98	0xbe390b25	-0.18070658
99	0x3dc0674c	0.09394702
100	0x3e138774	0.1440714
101	0x3d20ca92	0.039255686
102	0xbed4340e	-0.41445965
103	0xbe93a4d4	-0.2883669
104	0x3e113e9a	0.14184037
105	0x3df9efed	0.12203965
106	0x3da41319	0.08011455
107	0xbe94e125	-0.29078022
108	0xbe6f7e09	-0.23387922
109	0xbedcf4cc	-0.43155515
110	0xbeb95a5e	-0.36201757
111	0x3e9e5394	0.3092314
112	0xbea3dedc	-0.32005966
113	0xbe5817cb	-0.21102826
114	0x3d5a8ab2	0.053354926
115	0xbe71b5d0	-0.23604512
116	0xbd3c2f43	-0.04594351
117	0xbdccf6dd	-0.10008023
118	0x3e13a039	0.14416589
119	0xbe929fe6	-0.28637618
120	0x3d0d5cb8	0.03451225
121	0xbeae1c38	-0.34005904
122	0x3e6127b3	0.219878
123	0x3ed0df80	0.40795517
124	0xbe008f4e	-0.12554666
125	0x3d26abc3	0.04069115
126	0xbe39e321	-0.18153049
127	0xbe67f00a	-0.22650161
128	0xbe3257b3	-0.17416267
129	0xbe385cdb	-0.18004172
130	0x3da90878	0.082535684
131	0xbd1b8b86	-0.037974857
132	0xbdf70be3	-0.12062814
133	0xbe868edd	-0.2628087
134	0xbe68db9b	-0.22740023
135	0xbeddd88c	-0.43329275
136	0xbe8e47ba	-0.27789098
137	0x3ea8b3cc	0.32949674
138	0x3c6c06f2	0.014405953
139	0xbec2787c	-0.37982547
140	0xbdc6c76a	-0.09706004
141	0x3c4b0df4	0.012393463
142	0x3e1070ff	0.14105605
143	0x3ea542ed	0.32277623
144	0x3dc11e76	0.09429638
145	0x3e8a7a13	0.2704626
146	0xbe0224a1	-0.12709285
147	0xbd71bf38	-0.05902025
148	0xbe7084db	-0.2348818
149	0x3d9aa6b7	0.075513296
150	0x3eb0a7a0	0.34502888
151	0x3e684ce0	0.22685575
152	0x3ebbebbc	0.3670329
153	0xbe3924b6	-0.1808041

rnn.weight_hh f4 [7, 7]
0	0x3c579c96	0.013159892
1	0x3db7e129	0.08978493
2	0x3e89ea04	0.26936352
3	0xbebf9572	-0.37418705
4	0xbe379a57	-0.1792997
5	0x3d9a5fb1	0.07537783
6	0xbe66fcb2	-0.22557333
7	0x3dacbbfb	0.08434292
8	0x3b9b58b7	0.0047408002
9	0xbe1696f8	-0.14706028
10	0x3e0b8c1d	0.13627668
11	0x3e831a92	0.2560621
12	0x3e9a9264	0.30189812
13	0x3de6fc72	0.11278619
14	0x3b051b6d	0.0020310536
15	0x3e9d8c28	0.30770993
16	0x3ebcf000	0.36901855
17	0xbe56ce60	-0.20977163
18	0x3e48e4b3	0.19618492
19	0x3cc3e3c2	0.023912314
20	0xbe172795	-0.14761193
21	0xbe00a86d	-0.1256425
22	0xbdc6ca90	-0.097066045
23	0xbea0aad6	-0.31380337
24	0xbd558feb	-0.052139204
25	0x3e132962	0.14371255
26	0x3e78aadb	0.24283926
27	0xbbf85c22	-0.0075793425
28	0xbf009bd3	-0.5023777
29	0x3d67a292	0.056551524
30	0xbe72fe41	-0.23729803
31	0x3e35e236	0.17762074
32	0xbefdedd6	-0.49595517
33	0xbe705453	-0.23469667
34	0x3e29abc4	0.1656943
35	0x3dcfc6dc	0.10145351
36	0xbe35c6ac	-0.17751569
37	0xbeb119fb	-0.34590134
38	0xbc7a364f	-0.015271737
39	0x3e15ca51	0.14627959
40	0xbe838307	-0.25685903
41	0xbeacb2b9	-0.33730105
42	0xbdae58a2	-0.08512999
43	0xbdc48e5d	-0.09597466
44	0x3e3aab82	0.18229488
45	0xbec6f124	-0.3885585
46	0xbd898b45	-0.06716017
47	0xbea70d1a	-0.32627183
48	0xbc3fa710	-0.011697546

rnn.bias_ih f4 [7]
0	0xbe32bd69	-0.17455067
1	0x3da85162	0.082186475
2	0xbe912f1e	-0.2835626
3	0xbe96f4d5	-0.29483667
4	0xbebd3c77	-0.36960194
5	0xbea5cc9b	-0.32382664
6	0x3e66105b	0.22467177

rnn.bias_hh f4 [7]
0	0xbd118ca9	-0.035534535
1	0xbe7ca698	-0.24672925
2	0x3e984d49	0.29746464
3	0xbdaa8774	-0.08326617
4	0x3d254835	0.040352065
5	0xbde13548	-0.10996491
6	0xbea906b5	-0.3301293

exp_avg f4 [7, 22]
0	0xb7bfeb64	-2.2878587e-05
1	0xba6ba2d5	-0.00089888024
2	0xbc139639	-0.009007984
3	0xbacc775f	-0.001559954
4	0xb9d61464	-0.00040832453
5	0xbc124dca	-0.008929679
6	0xbb224419	-0.0024759828
7	0xb9e5078b	-0.00043683904
8	0x38db979a	0.00010470972
9	0x3a67e6fd	0.00088463706
10	0x3ae2ce19	0.0017303854
11	0x3b06b4e3	0.0020554594
12	0x3aaf884c	0.001339206
13	0x3ad7f583	0.0016476366
14	0x3ab68e58	0.001392792
15	0x3a35385a	0.0006912999
16	0x3a3f6a5a	0.00073019194
17	0x3aea9035	0.001789576
18	0x3b0fb9e1	0.002193086
19	0x3aa76486	0.0012771047
20	0x3a73eb29	0.0009304756
21	0x3aca5729	0.0015437353
22	0xb9d2fb23	-0.00040241433
23	0xba89d656	-0.0010516148
24	0xbc87cec4	-0.016578086
25	0xbb5cdee4	-0.003370219
26	0x39146adf	0.00014154192
27	0xbc877243	-0.016533976
28	0xbba39201	-0.0049917703
29	0x395a980f	0.00020846746
30	0x3b04313b	0.0020170945
31	0x3ad85ba5	0.0016506804
32	0x3b805af3	0.003917092
33	0x3b386cbd	0.0028140985
34	0x3b024978	0.0019880217
35	0x3b0ed9f4	0.002179739
36	0x3b219c2c	0.0024659736
37	0x3aa094cc	0.0012251376
38	0x3ac39338	0.0014921194
39	0x3b535bbd	0.0032250725
40	0x3b8c51e0	0.004282221
41	0x3b188d71	0.0023277665
42	0x3ad46548	0.00162045
43	0x3b3b902e	0.0028619873
44	0x3c2c6e58	0.010524355
45	0x3be96d22	0.0071236053
46	0x3ba9cc4d	0.0051818253
47	0x3bdfda60	0.0068314523
48	0x3961effe	0.00021547076
49	0x3ba9b2b1	0.0051787724
50	0x3cb22290	0.021744996
51	0x39d2420e	0.00040103536
52	0xba903f16	-0.0011005129
53	0xba0af5a3	-0.0005300885
54	0xbbd80c7d	-0.0065932856
55	0x3a6ed41d	0.0009110587
56	0x3654e8c2	3.1725945e-06
57	0x3b04371c	0.002017445
58	0xba8830fa	-0.0010390573
59	0xb8cde7dd	-9.81835e-05
60	0xbaa1a05c	-0.0012331116
61	0xbb2adcc5	-0.002607153
62	0xbabedb0d	-0.0014561132
63	0xba403c95	-0.0007333246
64	0x3a2158a0	0.0006154869
65	0xba577570	-0.00082190987
66	0x3b8bb4b4	0.004263485
67	0xba204198	-0.000611329
68	0xbbbdd58b	-0.0057932786
69	0x3b740a70	0.0037237667
70	0xb89c5715	-7.45488e-05
71	0xbbeb5cf2	-0.007182711
72	0x3c175d64	0.009238575
73	0x39719459	0.00023038815
74	0x3ae2efd1	0.0017313902
75	0xb9b009f7	-0.0003357676
76	0xb8aa23b4	-8.112882e-05
77	0x3a5fed49	0.0008542133
78	0x3a39e18e	0.00070908
79	0x3b3077a2	0.0026926775
80	0x3a9be50a	0.001189382
81	0x3a15b50b	0.00057108764
82	0x3a139d78	0.00056310697
83	0x39d2e544	0.00040225137
84	0x3b00d926	0.001966068
85	0xb86a7aa0	-5.590415e-05
86	0x3aa415dc	0.0012518722
87	0x3b06c856	0.0020566187
88	0xbac1aa63	-0.0014775511
89	0xbac675d6	-0.0015141319
90	0xbc21bd90	-0.009871855
91	0xbad16e8e	-0.0015978382
92	0xb9453c43	-0.00018809833
93	0xbc230357	-0.009949527
94	0xbbaff507	-0.0053697857
95	0xb91666c5	-0.000143434
96	0x3ab83631	0.0014054236
97	0x3a9362fa	0.0011244707
98	0x3adbbf16	0.0016765322
99	0x3b115b3a	0.002217962
100	0x39deb8fa	0.00042480958
101	0x3ac6c556	0.0015165012
102	0x3b05a8c6	0.0020394786
103	0x3a2848ad	0.0006419521
104	0x3a81f583	0.0009915087
105	0x3b187308	0.0023261923
106	0x3b0c5771	0.0021414424
107	0x3add102d	0.0016865783
108	0x3a654774	0.0008746304
109	0x3ae45b25	0.0017422183
110	0xbb95af6c	-0.004568031
111	0xba06c4da	-0.00051410275
112	0x3c9fabbb	0.019491067
113	0xba928d95	-0.0011181111
114	0x395569ea	0.00020352719
115	0x3ca2ee1e	0.019888934
116	0xbbd0fda4	-0.0063778926
117	0x39605a80	0.00021396019
118	0xba2c2d52	-0.00065680325
119	0xbaa7f3ef	-0.0012813787
120	0xba2cee5d	-0.0006596798
121	0xbb585725	-0.0033010927
122	0xba21f9ec	-0.0006178904
123	0xbc1da374	-0.00962149
124	0xbb5b535f	-0.003346644
125	0xbacec580	-0.0015775412
126	0xbab20aa8	-0.0013583498
127	0xbb2636cf	-0.0025362258
128	0xbbb1cae5	-0.0054257982
129	0xbb0e599a	-0.0021720887
130	0xbb641aad	-0.003480594
131	0xbb402b1e	-0.0029322575
132	0xbc324ff2	-0.010883318
133	0xbb60defe	-0.0034312601
134	0x3c808cb9	0.015692102
135	0xbbaa51fe	-0.0051977625
136	0xb81af261	-3.6942194e-05
137	0x3c8be5bf	0.017077325
138	0xbc931c98	-0.01795797
139	0xba4b2b72	-0.00077503093
140	0xbb5c279a	-0.003359294
141	0xbaa9caa7	-0.0012954072
142	0x3a4af7e7	0.0007742629
143	0xbbb13a66	-0.005408573
144	0xbb68ba28	-0.0035511348
145	0xbb0410c8	-0.0020151604
146	0xbae5bc5e	-0.0017527451
147	0xbac90bb3	-0.001533857
148	0xba88489b	-0.0010397615
149	0xbaf4efef	-0.0018687228
150	0xbb73789a	-0.0037150742
151	0xbafe8be1	-0.0019420349
152	0xbb117f1e	-0.0022201012
153	0xbb8c364c	-0.0042789336

exp_avg_sq f4 [7, 22]
0	0x373acd14	1.1134212e-05
1	0x36fb9062	7.4971913e-06
2	0x39918db7	0.0002776214
3	0x36ea83e4	6.9890975e-06
4	0x3691dc6b	4.346997e-06
5	0x39959a81	0.0002853461
6	0x37bc1945	2.2423113e-05
7	0x36d88caf	6.4536794e-06
8	0x3804fb6f	3.170542e-05
9	0x366fbc0b	3.572323e-06
10	0x36ab868d	5.111861e-06
11	0x36c5cd9b	5.894993e-06
12	0x36a02501	4.7726794e-06
13	0x3663f0a3	3.3965705e-06
14	0x36908182	4.306611e-06
15	0x35f66bd3	1.8359809e-06
16	0x36976a7e	4.512548e-06
17	0x36c2e94c	5.80881e-06
18	0x37a6b4aa	1.987287e-05
19	0x36c5bf94	5.89336e-06
20	0x364be42d	3.0382173e-06
21	0x370ac286	8.270732e-06
22	0x3723651a	9.739097e-06
23	0x364e2ea2	3.0723536e-06
24	0x39a543e3	0.00031521832
25	0x37ba6d54	2.2223838e-05
26	0x34b5bc8d	3.3851066e-07
27	0x39a140b3	0.00030756518
28	0x389f0e7c	7.584409e-05
29	0x34fe2a76	4.734208e-07
30	0x36c94dfc	5.9993454e-06
31	0x369f999e	4.7564527e-06
32	0x37af5818	2.0902648e-05
33	0x3701962a	7.723962e-06
34	0x36d2961f	6.275964e-06
35	0x36a6d9ee	4.972556e-06
36	0x370da305	8.442211e-06
37	0x36071342	2.0127777e-06
38	0x36d67b9e	6.392088e-06
39	0x3723ffa8	9.775082e-06
40	0x378f4e50	1.7083396e-05
41	0x36edfbf7	7.092483e-06
42	0x361e3413	2.3574146e-06
43	0x3712392a	8.715588e-06
44	0x38d3b7df	0.00010095513
45	0x3820f468	3.8374594e-05
46	0x3b2efd06	0.0026701107
47	0x396cad20	0.00022571208
48	0x35d632bd	1.5959009e-06
49	0x3b2ae383	0.002607555
50	0x3a6d77e5	0.0009058698
51	0x360955ad	2.046446e-06
52	0x38382c08	4.3910026e-05
53	0x38070b56	3.2197066e-05
54	0x397c060a	0.00024034842
55	0x387cd600	6.0280785e-05
56	0x383ec43a	4.548228e-05
57	0x3810fa6b	3.4565495e-05
58	0x38458e35	4.71009e-05
59	0x377de85a	1.5134074e-05
60	0x386641fa	5.489772e-05
61	0x38c98e40	9.610923e-05
62	0x391d27c3	0.00014987499
63	0x3877b4ce	5.9057777e-05
64	0x378d8fc0	1.6875449e-05
65	0x389b90ec	7.41797e-05
66	0x38782760	5.916448e-05
67	0x37124273	8.71775e-06
68	0x3b15e183	0.002287001
69	0x3960c947	0.00021437286
70	0x368e59cf	4.242385e-06
71	0x3b0c0b67	0.00213691
72	0x3a2683cf	0.00063520385
73	0x36abdf31	5.12218e-06
74	0x381a1851	3.6739108e-05
75	0x38b2e264	8.52987e-05
76	0x38507e6b	4.97088e-05
77	0x38bd540a	9.027876e-05
78	0x38438f75	4.6625228e-05
79	0x37d8179d	2.5760202e-05
80	0x387c791f	6.0194285e-05
81	0x3763751b	1.355752e-05
82	0x381130ce	3.4616147e-05
83	0x38a44dca	7.834619e-05
84	0x38ed7ba9	0.00011324074
85	0x3890ab99	6.8984176e-05
86	0x37920093	1.7404824e-05
87	0x386f801c	5.710135e-05
88	0x37a3cbfa	1.9526098e-05
89	0x36d5a71b	6.3673483e-06
90	0x3aceeaf9	0.001578658
91	0x38b4d00b	8.62182e-05
92	0x356c0258	8.792026e-07
93	0x3ac66f25	0.0015139325
94	0x39019687	0.00012358474
95	0x360c8012	2.0936172e-06
96	0x3825ef31	3.956183e-05
97	0x37bc8a62	2.2475786e-05
98	0x3800a48d	3.0670828e-05
99	0x38147b8e	3.540102e-05
100	0x38b84bcd	8.787923e-05
101	0x37c96352	2.4007317e-05
102	0x37c882e6	2.3902812e-05
103	0x37411d73	1.1510553e-05
104	0x37aacde2	2.036145e-05
105	0x3834d33e	4.311208e-05
106	0x38c65b29	9.4583556e-05
107	0x3811ba0a	3.4743956e-05
108	0x377a834e	1.4931733e-05
109	0x38314442	4.226366e-05
110	0x383de645	4.5275567e-05
111	0x35a41d5d	1.2227498e-06
112	0x3ac8dc0d	0.0015324369
113	0x3769efb4	1.39436925e-05
114	0x34d3856a	3.9398884e-07
115	0x3acd1df3	0.0015649184
116	0x3842ec82	4.647347e-05
117	0x353ba298	6.9899534e-07
118	0x378fd5eb	1.7146542e-05
119	0x37580422	1.28755655e-05
120	0x3797c7bc	1.8093611e-05
121	0x383a6120	4.443631e-05
122	0x37a7caf5	2.000246e-05
123	0x3908772a	0.00013014363
124	0x3830be13	4.213869e-05
125	0x3737eb37	1.0962415e-05
126	0x378c6710	1.6737293e-05
127	0x38196545	3.6572357e-05
128	0x38d141e4	9.97817e-05
129	0x37ec8d5f	2.8199223e-05
130	0x37c778a2	2.3778823e-05
131	0x382d98a4	4.1388572e-05
132	0x396812c1	0.0002213223
133	0x377c25a2	1.5029133e-05
134	0x3b3269a5	0.0027223614
135	0x3899de1d	7.33698e-05
136	0x36d61933	6.3806306e-06
137	0x3b3ce950	0.0028825589
138	0x3a04b384	0.00050621503
139	0x372d275c	1.0320768e-05
140	0x386122f8	5.3676747e-05
141	0x3801d84d	3.0957443e-05
142	0x3831a001	4.2349104e-05
143	0x38fb6ac3	0.000119884986
144	0x388f44b1	6.831566e-05
145	0x38577edd	5.1378145e-05
146	0x390f2b86	0.00013653756
147	0x37b0d645	2.1080612e-05
148	0x38026903	3.1092215e-05
149	0x38922b3e	6.969877e-05
150	0x392b89c1	0.00016359148
151	0x3865c5c6	5.4782045e-05
152	0x380e8101	3.3975582e-05
153	0x38e32489	0.00010831009

exp_avg f4 [7, 7]
0	0xba295495	-0.0006459442
1	0x39ec28eb	0.00045043914
2	0x3b076752	0.002066095
3	0x3b0c0644	0.002136604
4	0x3ad11d3d	0.0015954148
5	0x3add30f0	0.0016875546
6	0x3af2da6f	0.0018528233
7	0x3a680082	0.00088501733
8	0x3a69d654	0.0008920182
9	0x3bb2d647	0.0054576728
10	0x3b5f0109	0.0034027717
11	0x3b013192	0.0019713384
12	0x3b018109	0.001976075
13	0x3b207fd2	0.002449025
14	0x38ca895d	9.6576965e-05
15	0xba8f0aa7	-0.0010913209
16	0xbc69021d	-0.014221695
17	0x3af67f33	0.0018806219
18	0x3acb7908	0.0015523741
19	0x3b7d8bcf	0.0038688069
20	0x3ace9751	0.0015761649
21	0x3a23a387	0.0006242324
22	0x39e12f36	0.0004295052
23	0x3b3bd068	0.0028658155
24	0xbc135dcf	-0.008994534
25	0x39c702a5	0.00037958208
26	0x3b9b1939	0.0047332314
27	0x3bdc5f49	0.006725226
28	0x39b645de	0.000347658
29	0x3a12b94c	0.00055970694
30	0x3b6ec7da	0.0036435039
31	0x3b968008	0.0045928992
32	0xbba09000	-0.0048999786
33	0x3b0353d5	0.0020038981
34	0x3b87c6f6	0.004143591
35	0xba4f179c	-0.00078999414
36	0xba232d97	-0.000622475
37	0x394e7c94	0.000196921
38	0xba678fcf	-0.000883338
39	0x3703f542	7.865312e-06
40	0xbc9a75b3	-0.018854951
41	0x3abf6218	0.0014601378
42	0xba2005ff	-0.0006104409
43	0xba00efd3	-0.0004918549
44	0x3ac483ec	0.0014992929
45	0xba22d213	-0.0006211113
46	0xba86b4fc	-0.0010277326
47	0x3a99ba81	0.0011728556
48	0xbc8758ea	-0.01652189

exp_avg_sq f4 [7, 7]
0	0x37e62dd6	2.743948e-05
1	0x361d1e25	2.341237e-06
2	0x36be8499	5.6778777e-06
3	0x3762bdaa	1.3514809e-05
4	0x36be1a63	5.665513e-06
5	0x36683e2e	3.4606887e-06
6	0x36e20c60	6.7367655e-06
7	0x36022db7	1.939812e-06
8	0x3646b4a0	2.9609437e-06
9	0x381abef2	3.6894293e-05
10	0x37984bbb	1.8155077e-05
11	0x37003f4a	7.64413e-06
12	0x36bbf508	5.6015597e-06
13	0x371fd92d	9.527704e-06
14	0x36f17ed8	7.1971263e-06
15	0x37e40224	2.7180715e-05
16	0x39f9f4f2	0.0004767548
17	0x38ee2c82	0.000113570146
18	0x382d4950	4.131469e-05
19	0x37ab2f13	2.040671e-05
20	0x38427f45	4.6371733e-05
21	0x36be3ebd	5.669745e-06
22	0x375d28fb	1.3182168e-05
23	0x3850bbb6	4.9765884e-05
24	0x3a035994	0.00050106016
25	0x37fcd12e	3.0138148e-05
26	0x37ae85ae	2.0804666e-05
27	0x38b609f0	8.680287e-05
28	0x36e8fd9b	6.9436624e-06
29	0x371fe440	9.530282e-06
30	0x3801881e	3.0882766e-05
31	0x389f6c39	7.601869e-05
32	0x395fa997	0.00021330114
33	0x3736034f	1.0848816e-05
34	0x38258115	3.9459283e-05
35	0x36a3c5a9	4.880789e-06
36	0x36ba9b31	5.5612986e-06
37	0x37788a0d	1.4814094e-05
38	0x382a7220	4.0637446e-05
39	0x37581976	1.2880531e-05
40	0x39b9110f	0.0003529866
41	0x3802c8b4	3.1181335e-05
42	0x3752d01c	1.256543e-05
43	0x376aa789	1.3986494e-05
44	0x38718410	5.758187e-05
45	0x38d57250	0.00010177924
46	0x38336ab4	4.27763e-05
47	0x380acd5c	3.309302e-05
48	0x39eaa094	0.00044751598

exp_avg f4 [7]
0	0x3c1601fa	0.009155745
1	0x3c8b9a07	0.01704122
2	0xbbcfb84f	-0.00633911
3	0x3bdd6cca	0.0067573534
4	0x3c2a6e32	0.010402249
5	0xbc9f9647	-0.019480838
6	0xbc880760	-0.01660508

exp_avg_sq f4 [7]
0	0x399c26d7	0.00029783577
1	0x39ade75d	0.0003316951
2	0x3b3a6ad0	0.0028445013
3	0x3b1adf2c	0.0023631556
4	0x3ad36ab4	0.0016129822
5	0x3ad02a88	0.0015881816
6	0x3b43753b	0.0029824513

exp_avg f4 [7]
0	0x3c160aaa	0.009157816
1	0x3c8b97ac	0.017040096
2	0xbbcfd5cd	-0.0063426257
3	0x3bdd865c	0.0067604017
4	0x3c2a7c85	0.010405664
5	0xbc9f9114	-0.019478358
6	0xbc88053f	-0.016604064

exp_avg_sq f4 [7]
0	0x399c27a5	0.00029784176
1	0x39ade5c3	0.00033168317
2	0x3b3a6b03	0.0028445132
3	0x3b1adef4	0.0023631426
4	0x3ad36af2	0.0016129895
5	0x3ad02a49	0.0015881743
6	0x3b437534	0.0029824497

exp_avg f4 [7, 22]
0	0xb8aa75f8	-8.128205e-05
1	0x3af3464d	0.001856038
2	0xbc41b0cd	-0.011821938
3	0xbae41ba7	-0.001740326
4	0x3ae80ac7	0.0017703407
5	0xbc3fa532	-0.0116971005
6	0xbb26c6d1	-0.0025448094
7	0x3b050f7d	0.0020303421
8	0x3a5d100e	0.00084328733
9	0x3a8ccb9d	0.0010741834
10	0x3b0d4859	0.0021558015
11	0x3b41a411	0.0029547254
12	0x3b03c817	0.0020108277
13	0x3aba4eed	0.0014214196
14	0x3ad313ba	0.0016103901
15	0x3a87e47e	0.0010367779
16	0x3b4495e5	0.002999657
17	0x3a543d88	0.0008096327
18	0x3b4cb624	0.0031236494
19	0x3a7d87b2	0.0009671404
20	0x3b07299e	0.002062417
21	0x3a8ccd65	0.0010742365
22	0xbc798f5a	-0.015231932
23	0xbaa36fe6	-0.0012469261
24	0xbbbfb2e7	-0.0058501842
25	0xbc428651	-0.011872844
26	0x3b3d32f9	0.0028869493
27	0xbb085948	-0.002080517
28	0xbd18aaeb	-0.037272375
29	0xbaf8efd0	-0.0018992368
30	0x3ac98a71	0.0015376342
31	0xbbf68bfa	-0.0075240107
32	0x3ac6f754	0.0015179911
33	0x3ba317ec	0.004977217
34	0x3ae217b4	0.0017249496
35	0x3ae177b5	0.0017201813
36	0xba8f9bd3	-0.0010956473
37	0x3a12a373	0.0005593814
38	0xba9e4b09	-0.0012076806
39	0xb8cdb9d1	-9.809773e-05
40	0x3affaf35	0.0019507172
41	0x395019ac	0.0001984599
42	0x3b2755d7	0.0025533342
43	0xba8f54d6	-0.0010935317
44	0x3a00ec6a	0.0004918041
45	0x3a872a40	0.0010312274
46	0xbb9b9a91	-0.0047486504
47	0xb9c6f045	-0.00037944518
48	0x3a60a636	0.0008569689
49	0xbb9dd7d9	-0.004816991
50	0x39227b4e	0.00015495459
51	0x3a8df351	0.001082996
52	0x3a23eda2	0.00062533666
53	0x3a2fae22	0.0006701668
54	0x3a4e2c6b	0.0007864895
55	0x3a716feb	0.00092100975
56	0x3a3a2c3a	0.0007101927
57	0x3a174e6c	0.00057718786
58	0x3a33bb74	0.0006856241
59	0x39d63b0a	0.00040861248
60	0x3aa9fc9f	0.0012968964
61	0x39b20545	0.00033954732
62	0x3aa5c801	0.0012648107
63	0x39d2ad79	0.00040183568
64	0x3a4821ce	0.0007634432
65	0x3a02bd51	0.0004987317
66	0x3c02e5cc	0.007989358
67	0x3bc14eec	0.005899301
68	0xbce5ddf3	-0.028059935
69	0x3b687270	0.00354686
70	0x3b533928	0.0032230113
71	0xbcf65610	-0.030070335
72	0x3c950f5c	0.0181958
73	0x3bb871ae	0.005628786
74	0x3ae67050	0.0017581079
75	0x3baaa253	0.005207339
76	0x3b6b1bd3	0.0035874739
77	0x3b9bdbf0	0.004756443
78	0x3b9547bb	0.00455567
79	0x3baa1449	0.0051904065
80	0x3ba07b8e	0.0048975414
81	0x3b0771bc	0.0020667156
82	0x3c141f69	0.009040692
83	0x3b092268	0.0020925049
84	0x3be20c37	0.006898429
85	0x3b19bf7f	0.0023460088
86	0x3b87bca1	0.0041423594
87	0x3b5c5056	0.003361722
88	0x3a188ff8	0.0005819793
89	0x3aad44e2	0.0013219381
90	0xbba86372	-0.005138808
91	0xb99b0f37	-0.0002957524
92	0x3a7b83aa	0.00095945096
93	0xbbada918	-0.0052996986
94	0x39936f04	0.00028120738
95	0x3ab5d4d4	0.0013872632
96	0x3a5d20d3	0.0008435372
97	0x3a6ba633	0.0008989304
98	0x39a991fe	0.00032342965
99	0x3ab4d4a3	0.0013796281
100	0x3979c6b5	0.00023820515
101	0x3a7ffba2	0.0009764974
102	0x3a59c5b9	0.0008307356
103	0x39ed9ee5	0.00045322548
104	0x3aafbaf4	0.0013407157
105	0x39d188fe	0.00039965654
106	0x3aae87cd	0.0013315618
107	0x39fb3bc2	0.00047918974
108	0x3a75ece2	0.00093813066
109	0x3a0e09be	0.0005418322
110	0x3bd661e5	0.0065424317
111	0xbc2b90d5	-0.010471542
112	0x3d87cea1	0.06631208
113	0x3c5c998f	0.013464346
114	0xbc37b801	-0.011213304
115	0x3d84528e	0.064610586
116	0x3cb707d1	0.022342594
117	0xbc2b1275	-0.010441412
118	0xbbce4f96	-0.0062961085
119	0xbb27224b	-0.0025502618
120	0xbc1253ae	-0.008931084
121	0xbc8f57ff	-0.017498014
122	0xbc2fe460	-0.010735601
123	0xbc5078f8	-0.012724154
124	0xbbffd773	-0.007807666
125	0xbbae7f82	-0.0053252587
126	0xbc866988	-0.016407743
127	0xbb8ee382	-0.004360617
128	0xbc8b1295	-0.016976634
129	0xbbb295d2	-0.005449989
130	0xbc4c48c4	-0.012468521
131	0xbbb5f475	-0.005552823
132	0x3a8487b5	0.0010111245
133	0xbaca6e2f	-0.0015444214
134	0x3c1ee938	0.009699158
135	0x3a218557	0.0006161532
136	0xbada7f2c	-0.001666998
137	0x3c1a4ca7	0.009417689
138	0x3b7ba242	0.0038396274
139	0xba5b1938	-0.0008357945
140	0xba6b06f3	-0.0008965574
141	0x3abfda49	0.0014637198
142	0xbb366ff3	-0.0027837723
143	0xbb1ea517	-0.0024207288
144	0xbabbd6f4	-0.0014331029
145	0xba9decab	-0.0012048682
146	0xbb0605c5	-0.0020450216
147	0xba580122	-0.0008239915
148	0xbb12724c	-0.0022345958
149	0xba0f8597	-0.00054749235
150	0xbb3a3711	-0.002841417
151	0xba205fa9	-0.000611777
152	0xbade7e8a	-0.0016974967
153	0xba1528ce	-0.00056899793

exp_avg_sq f4 [7, 22]
0	0x36f3c538	7.2649236e-06
1	0x384a89b9	4.8288817e-05
2	0x39e8014e	0.0004425146
3	0x3771f023	1.4420631e-05
4	0x38254a59	3.9408307e-05
5	0x39e8d5a7	0.00044409672
6	0x382cc032	4.118699e-05
7	0x3847fda4	4.768152e-05
8	0x38274569	3.9880546e-05
9	0x369cac61	4.66923e-06
10	0x371b65da	9.262434e-06
11	0x377c385a	1.5033491e-05
12	0x3720dcee	9.588182e-06
13	0x36963e1f	4.47758e-06
14	0x36e45b72	6.805575e-06
15	0x36af8257	5.23058e-06
16	0x37edec77	2.8362714e-05
17	0x36624ab2	3.3720103e-06
18	0x380ec1c8	3.403591e-05
19	0x367a9388	3.7338777e-06
20	0x3711bd8c	8.686806e-06
21	0x36ae82f7	5.2008504e-06
22	0x3a301cda	0.00067181664
23	0x39c1699e	0.0003689052
24	0x3ba2c8ef	0.004967801
25	0x390f54dd	0.00013669157
26	0x3917bc54	0.0001447064
27	0x3bbb2fa9	0.0057124686
28	0x3b23436e	0.0024912017
29	0x39e56df0	0.00043760194
30	0x38eb709d	0.00011226649
31	0x39a194e0	0.00030819234
32	0x390c4972	0.00013378801
33	0x38f1ada4	0.000115241186
34	0x38d35689	0.000100773825
35	0x38691e25	5.5579603e-05
36	0x39131e33	0.00014030263
37	0x383d7c3c	4.5176814e-05
38	0x39d9bae4	0.0004152871
39	0x3831224b	4.2232026e-05
40	0x39c0425c	0.00036670535
41	0x38313b91	4.2255564e-05
42	0x38b0e01f	8.43408e-05
43	0x38bf2d74	9.116056e-05
44	0x367e81cf	3.7924508e-06
45	0x364ecc34	3.0815254e-06
46	0x3845902c	4.710273e-05
47	0x35e0cb86	1.6748534e-06
48	0x35e793c2	1.7253844e-06
49	0x3853b8a8	5.0478295e-05
50	0x378c95b7	1.6759017e-05
51	0x366ce6a6	3.5300995e-06
52	0x35a88e46	1.2558382e-06
53	0x360f8ccf	2.1390622e-06
54	0x35a834d8	1.2532355e-06
55	0x35b7414d	1.3653568e-06
56	0x3590e940	1.0796721e-06
57	0x35180a79	5.663965e-07
58	0x35a54c4f	1.2315667e-06
59	0x350d37eb	5.2607965e-07
60	0x365d320a	3.2960693e-06
61	0x34ec9ba4	4.407167e-07
62	0x36627e4a	3.3750134e-06
63	0x34d3a994	3.9425197e-07
64	0x3555019b	7.935102e-07
65	0x354017f3	7.1560424e-07
66	0x38fa346f	0.000119306955
67	0x3994006e	0.0002822908
68	0x3bae4cd9	0.0053192195
69	0x3988eed1	0.00026117873
70	0x3981248d	0.0002463203
71	0x3baa8292	0.0052035535
72	0x3a99c809	0.0011732589
73	0x39a3eb54	0.00031265116
74	0x39381e50	0.000175589
75	0x38b99cd2	8.8506975e-05
76	0x3915c084	0.00014281465
77	0x39722d40	0.00023095775
78	0x38f8a8bb	0.0001185699
79	0x38672fa4	5.511906e-05
80	0x38da6a0d	0.000104148035
81	0x38829732	6.2270454e-05
82	0x39ab5e05	0.00032685712
83	0x38163f5c	3.5821795e-05
84	0x39c9e2b6	0.0003850662
85	0x3832d5e0	4.2637694e-05
86	0x38f357a6	0.00011603469
87	0x3860ea3d	5.3623913e-05
88	0x366eb20c	3.55684e-06
89	0x3786af77	1.6055752e-05
90	0x39b29acd	0.0003406614
91	0x373c36df	1.1218449e-05
92	0x375bd8eb	1.3103922e-05
93	0x39afcbbb	0.00033530392
94	0x37aff8ec	2.0977539e-05
95	0x37868326	1.6035116e-05
96	0x36f01246	7.1546847e-06
97	0x36967728	4.48422e-06
98	0x371e4185	9.432789e-06
99	0x370d1e03	8.411243e-06
100	0x37acf86a	2.0619675e-05
101	0x368e186e	4.2347738e-06
102	0x36c1eb6e	5.779256e-06
103	0x3666aa1e	3.4371692e-06
104	0x37c36406	2.3292389e-05
105	0x361380bf	2.1979647e-06
106	0x37c9e1fc	2.40663e-05
107	0x36276e88	2.4949277e-06
108	0x36da540e	6.5066915e-06
109	0x36768eab	3.67399e-06
110	0x37e2be2b	2.7029853e-05
111	0x38ff0b27	0.00012161425
112	0x3b6ba505	0.0035956514
113	0x38deb79e	0.00010619986
114	0x38e04387	0.0001069373
115	0x3b670a4e	0.0035253945
116	0x399e7bd4	0.00030228368
117	0x3903d838	0.00012573681
118	0x38604ef8	5.3479307e-05
119	0x37d9409d	2.5898504e-05
120	0x38dd75bc	0.00010560031
121	0x393e9f7c	0.00018179225
122	0x38d37b78	0.00010084262
123	0x38f9f318	0.00011918525
124	0x386b3730	5.6079763e-05
125	0x38032bf9	3.1273787e-05
126	0x397abe05	0.00023912646
127	0x37afdb80	2.0963838e-05
128	0x397ec578	0.0002429689
129	0x37dd58d9	2.6386626e-05
130	0x38bc2367	8.971133e-05
131	0x38037622	3.1342854e-05
132	0x38169d63	3.5909365e-05
133	0x38218b5d	3.8515183e-05
134	0x3a50d650	0.00079665054
135	0x3704ca13	7.914862e-06
136	0x37c341e4	2.3276494e-05
137	0x3a5bd333	0.0008385658
138	0x38f71e82	0.0001178356
139	0x38237f2d	3.898067e-05
140	0x375cacc9	1.31532515e-05
141	0x37bba20f	2.2367602e-05
142	0x37ecfc71	2.8250945e-05
143	0x37bd5c57	2.2573555e-05
144	0x3789c817	1.6424847e-05
145	0x37097404	8.192848e-06
146	0x382d196d	4.1270094e-05
147	0x36f028c7	7.1573045e-06
148	0x3875d387	5.8609552e-05
149	0x36b99394	5.53061e-06
150	0x3874c0bf	5.8353642e-05
151	0x36c19bb6	5.7699754e-06
152	0x377c67f6	1.5044576e-05
153	0x3720e13c	9.589185e-06

exp_avg f4 [7, 7]
0	0xb9b21a09	-0.00033970203
1	0x3b1e6747	0.0024170445
2	0x39fc1545	0.00048081033
3	0x3b6c23f5	0.0036032174
4	0x3a6e33e6	0.0009086713
5	0x3b69a031	0.003564846
6	0x3abc9124	0.0014386517
7	0x3a408feb	0.0007345664
8	0xbc7e9397	-0.015538118
9	0xb90b45a1	-0.00013282012
10	0x3bc488bf	0.0059977467
11	0x3aabe187	0.0013113477
12	0x3c14ac80	0.00907433
13	0x3ab8546d	0.0014063247
14	0x399dc986	0.0003009552
15	0x3abe47f3	0.0014517292
16	0x39602829	0.00021377266
17	0x3a8d92e4	0.0010801223
18	0x39ab6617	0.00032691724
19	0x3a898378	0.0010491451
20	0x3a12aff3	0.00055956765
21	0x3aeb1d2a	0.0017937769
22	0x3c50da6b	0.012747387
23	0x3aac7ed3	0.0013160355
24	0xbb95c680	-0.004570782
25	0x3b13e825	0.002256879
26	0x3c37f7ee	0.011228545
27	0x3baa2013	0.005191812
28	0x39c19249	0.0003692082
29	0x3ae017da	0.0017096952
30	0x394d8f98	0.00019603816
31	0x3ab65ebe	0.0013913733
32	0xbaaa00a5	-0.0012970163
33	0x3b2f98a9	0.0026793873
34	0x39e4af54	0.00043618178
35	0xbb3f2a95	-0.0029169668
36	0xbbfc8db9	-0.0077073243
37	0xbb291ec4	-0.0025805691
38	0xbc08664b	-0.00832517
39	0xbb843a9a	-0.004035306
40	0xbd20ad72	-0.03922791
41	0xbae4579f	-0.0017421133
42	0xba154f52	-0.00056957186
43	0x3b1a3f39	0.0023536219
44	0xb9f29b90	-0.0004627374
45	0xbace0af7	-0.001571982
46	0xb9d3fbd3	-0.0004043268
47	0x3a1f93f0	0.0006087413
48	0xbc17f8cb	-0.009275625

exp_avg_sq f4 [7, 7]
0	0x3814c9c8	3.5473873e-05
1	0x3786f52b	1.608821e-05
2	0x35d31ebc	1.572967e-06
3	0x3866775d	5.494744e-05
4	0x361ca4cb	2.3341734e-06
5	0x37293ab7	1.0086856e-05
6	0x366e8c0b	3.554628e-06
7	0x37d3210a	2.5168545e-05
8	0x3aad830a	0.0013237905
9	0x37963226	1.7904746e-05
10	0x39b639cc	0.00034756807
11	0x37bdc0e8	2.2620385e-05
12	0x387ec17a	6.073851e-05
13	0x385b1dcf	5.224143e-05
14	0x35028f46	4.8637264e-07
15	0x370f536c	8.542887e-06
16	0x3448ffb6	1.8719479e-07
17	0x3693db0b	4.4064413e-06
18	0x34894d33	2.5574408e-07
19	0x359f8ccc	1.18874e-06
20	0x35304858	6.5670383e-07
21	0x3809b9ba	3.2836317e-05
22	0x39ab4f8d	0.00032674932
23	0x3778a695	1.4820737e-05
24	0x3a965f09	0.0011472414
25	0x37ed6762	2.8300743e-05
26	0x38d38521	0.00010086061
27	0x3811450b	3.4634995e-05
28	0x3630954a	2.6312941e-06
29	0x379dc9d6	1.8809846e-05
30	0x358ff0f8	1.0724461e-06
31	0x37a8766c	2.0082305e-05
32	0x37c5aee5	2.3565672e-05
33	0x36f223d2	7.216332e-06
34	0x36343544	2.6853095e-06
35	0x37573e01	1.2829435e-05
36	0x39002106	0.00012219333
37	0x3707fb4f	8.105139e-06
38	0x3937c1ad	0.0001752439
39	0x3792c507	1.7496304e-05
40	0x3a2edfae	0.0006670904
41	0x378cb2e7	1.6772608e-05
42	0x367c8ec5	3.763403e-06
43	0x38c82810	9.5442054e-05
44	0x361e4320	2.3582907e-06
45	0x3810fba0	3.456662e-05
46	0x3692a64c	4.3704986e-06
47	0x37250c97	9.837698e-06
48	0x38a5e45d	7.910349e-05

exp_avg f4 [7]
0	0x3c45be03	0.012069228
1	0x3b3b63a5	0.0028593328
2	0x3ba348aa	0.0049830275
3	0x3cf569e9	0.029957728
4	0x3bb3ea4e	0.005490578
5	0xbd8842c8	-0.066533625
6	0xbc18af50	-0.0093191415

exp_avg_sq f4 [7]
0	0x3a032c8d	0.0005003892
1	0x3bc577d6	0.0060262484
2	0x38635dd2	5.4208394e-05
3	0x3bbc8f98	0.0057544224
4	0x39be8748	0.00036340416
5	0x3b7602a8	0.0037538204
6	0x3a6525c2	0.0008741283

exp_avg f4 [7]
0	0x3c45be6c	0.012069326
1	0x3b3b33de	0.002856485
2	0x3ba33fcc	0.0049819704
3	0x3cf5626e	0.029954161
4	0x3bb3d8a9	0.0054884744
5	0xbd8843d1	-0.0665356
6	0xbc18a5b4	-0.00931685

exp_avg_sq f4 [7]
0	0x3a032c97	0.0005003898
1	0x3bc577e9	0.0060262573
2	0x386358e4	5.4203803e-05
3	0x3bbc8fa4	0.005754428
4	0x39be86fe	0.000363402
5	0x3b7602ed	0.0037538365
6	0x3a6525ea	0.00087413064

exp_avg f4 [7, 22]
0	0xbbdd3875	-0.006751115
1	0x39c0c239	0.000367658
2	0xbcd21a44	-0.02564729
3	0xbc10f40e	-0.00884725
4	0x3aa3ed97	0.001250672
5	0xbcc46c8a	-0.023977537
6	0xbcb2c6c6	-0.021823298
7	0x3accdf04	0.0015630429
8	0x3a592a68	0.0008284212
9	0x3b119447	0.0022213624
10	0x3b8a9d1e	0.0042301556
11	0x3be4fa6f	0.006987862
12	0x3b62717c	0.0034552505
13	0x3b9370bd	0.0044995234
14	0x3b689a0c	0.003549221
15	0x3b51d916	0.0032020262
16	0x3b34dc2b	0.002759705
17	0x3b0b9210	0.0021296777
18	0x3b44407b	0.002994566
19	0x3bae5a13	0.0053207963
20	0x3b8910f5	0.0041829296
21	0x3baa2c6f	0.005193285
22	0xbbc0269c	-0.0058639776
23	0x3b4fe622	0.0031722863
24	0xbd099d7b	-0.03359745
25	0xbc4a9f32	-0.012367057
26	0x3b84d6bb	0.004053918
27	0xbd02c930	-0.03193015
28	0xbcbeda57	-0.023297472
29	0x3b9b3438	0.0047364496
30	0x3b86fe85	0.0041196966
31	0x3b14241a	0.0022604526
32	0x3bb582eb	0.0055392883
33	0x3c0fdc78	0.008780591
34	0x3b8fff86	0.0043944744
35	0x3b9f0c5d	0.0048537687
36	0x3b965ca8	0.004588682
37	0x3b8cecb8	0.00430068
38	0x3b8294ef	0.0039850394
39	0x3b42dd64	0.002973401
40	0x3b7dbef8	0.0038718563
41	0x3bed75b9	0.0072466996
42	0x3bb8038e	0.005615658
43	0x3bd6e9f1	0.0065586497
44	0xbbb64719	-0.0055626747
45	0x3a21d9e8	0.0006174133
46	0xbc07495e	-0.008257238
47	0xbbeb4485	-0.007179799
48	0x3aec4d03	0.0018028322
49	0xbbe0667a	-0.0068481537
50	0xbc82ff23	-0.0159908
51	0x3a93e2f6	0.001128285
52	0x3a82ce2d	0.0009979658
53	0x3a4e5d42	0.0007872173
54	0x38617227	5.3750493e-05
55	0x3b132935	0.0022454981
56	0x3a762430	0.00093895476
57	0x3abfc4e4	0.0014630822
58	0x3a923c5a	0.0011156902
59	0x3a8909bb	0.001045517
60	0x39e6564e	0.0004393332
61	0x38b30b98	8.5375446e-05
62	0x3a8153d3	0.00098669
63	0x3b01b6d7	0.001979282
64	0x3a8dcd2b	0.0010818591
65	0x3b018933	0.0019765615
66	0xbb9490a6	-0.004533845
67	0x3b0448db	0.0020185027
68	0xbce72270	-0.028214663
69	0xbc205a1a	-0.009787107
70	0x3b4b1d81	0.0030992927
71	0xbcdc2360	-0.026872337
72	0xbc9741d8	-0.018464014
73	0x3b5f1b11	0.0034043232
74	0x3b4d4b16	0.0031325272
75	0x3b255863	0.0025229685
76	0x3b9c203a	0.004764584
77	0x3bd9d58e	0.006647772
78	0x3b597a93	0.0033184632
79	0x3b93e32c	0.004513165
80	0x3b898558	0.004196804
81	0x3b6bf749	0.0036005548
82	0x3b5dd3d4	0.0033848183
83	0x3b28d21b	0.0025759998
84	0x3b5946ec	0.0033153845
85	0x3bc496b2	0.0059994096
86	0x3b97b3c3	0.0046295836
87	0x3bb688e8	0.0055705197
88	0x3c6ca387	0.014443285
89	0xbc3f48eb	-0.0116751
90	0x3dc59d59	0.09649152
91	0x3d04d8a0	0.032433152
92	0xbc5128f8	-0.012766115
93	0x3dbaf12e	0.091280326
94	0x3d8d34be	0.068948254
95	0xbc638080	-0.013885617
96	0xbc3bf4d7	-0.011471949
97	0xbbee6177	-0.0072748023
98	0xbc52b2db	-0.012860025
99	0xbceece05	-0.029150972
100	0xbc7acd55	-0.015307744
101	0xbc3c7959	-0.011503541
102	0xbc2df697	-0.010617874
103	0xbc503f8d	-0.012710464
104	0xbc3ef143	-0.011654201
105	0xbc0d754b	-0.008633922
106	0xbc2a7010	-0.010402694
107	0xbca875b5	-0.02056394
108	0xbc873584	-0.01650501
109	0xbc913086	-0.017723333
110	0x39b50425	0.00034526098
111	0xb7454e6c	-1.1760374e-05
112	0x3a006fca	0.00048994704
113	0x3b9b9a86	0.0047486452
114	0xba4431eb	-0.0007484245
115	0xbad34cfb	-0.0016120964
116	0x3c270028	0.010192908
117	0xba436d03	-0.00074549037
118	0x3a80f3ac	0.0009838245
119	0xb80606e7	-3.1954518e-05
120	0x3b45b202	0.0030165915
121	0x3aa60d14	0.0012668693
122	0x3afe60e0	0.0019407533
123	0xbbd6c66a	-0.0065544145
124	0xb96b1e4c	-0.00022422633
125	0xb9ff80bf	-0.00048733313
126	0x3a0cd077	0.000537164
127	0x39773d6c	0.00023578637
128	0xb96df9de	-0.00022695164
129	0x38e45d70	0.00010889291
130	0x3a60ee90	0.00085804705
131	0xba25cf5d	-0.000632515
132	0x3bd15b0e	0.0063890284
133	0x3bb735a9	0.0055911136
134	0xbb87e74f	-0.004147447
135	0xb9cae9d3	-0.00038702655
136	0x3b6bcdd6	0.0035980842
137	0xbb364ebd	-0.0027817928
138	0xbb37c176	-0.0028038896
139	0x3b845a55	0.0040390887
140	0x3ae23759	0.0017258927
141	0xb9d71a1c	-0.0004102745
142	0xbb91a826	-0.0044450937
143	0x3b8b433b	0.004249958
144	0x3adf0a65	0.0017016648
145	0x3b32fa49	0.0027309826
146	0xbaf56810	-0.001872303
147	0x3ab0b033	0.0013480246
148	0x3a5b82a1	0.0008373652
149	0x3a547cbf	0.0008105747
150	0xb92bea09	-0.00016395016
151	0x3a0e3b56	0.0005425712
152	0x3a2a7c30	0.0006503491
153	0xb9b3b07f	-0.0003427304

exp_avg_sq f4 [7, 22]
0	0x38cc156e	9.7314696e-05
1	0x38f5a471	0.0001171314
2	0x3a8a8569	0.0010568324
3	0x390178e8	0.0001234744
4	0x390ceab6	0.00013438877
5	0x3a87ed23	0.0010370355
6	0x394265e6	0.00018539242
7	0x391d3259	0.00014991443
8	0x38eed9e7	0.00011389312
9	0x37957712	1.781763e-05
10	0x37acde48	2.0607506e-05
11	0x38185ae1	3.632426e-05
12	0x37a01bb4	1.9086387e-05
13	0x3777cf6d	1.4770642e-05
14	0x378a2b03	1.647091e-05
15	0x37e5c563	2.7390843e-05
16	0x381085a5	3.445674e-05
17	0x37581a96	1.2880793e-05
18	0x37eb413d	2.8044562e-05
19	0x380d5fee	3.370636e-05
20	0x38008f41	3.0650994e-05
21	0x37e87684	2.7711743e-05
22	0x39c8ac1b	0.000382752
23	0x3725a0d4	9.872212e-06
24	0x3aeb13b4	0.0017934949
25	0x39317390	0.00016923086
26	0x371db0c0	9.399082e-06
27	0x3b03a071	0.0020084644
28	0x3a81f29b	0.0009914221
29	0x376ff8c0	1.4303427e-05
30	0x37e9ab7e	2.7855622e-05
31	0x3936376b	0.00017377517
32	0x382af8bc	4.076281e-05
33	0x38690252	5.555369e-05
34	0x3808af3c	3.2588126e-05
35	0x37954c4d	1.7797714e-05
36	0x381c135d	3.721133e-05
37	0x381cd7c3	3.7394242e-05
38	0x38987cf6	7.2712006e-05
39	0x38242dbc	3.914324e-05
40	0x3845be45	4.7145662e-05
41	0x38250af3	3.9349263e-05
42	0x3877c484	5.907241e-05
43	0x38090541	3.266824e-05
44	0x3a14c612	0.0005675267
45	0x379b043b	1.847941e-05
46	0x3ac44db7	0.0014976774
47	0x395691ca	0.00020462941
48	0x36057ebf	1.989232e-06
49	0x3af4ecc6	0.0018686287
50	0x3afc1218	0.0019231467
51	0x37d6adf8	2.5591798e-05
52	0x37dbe96e	2.6215534e-05
53	0x37d892be	2.5817539e-05
54	0x3928e4ef	0.00016107013
55	0x386ec0d1	5.6923196e-05
56	0x3814f55b	3.5514455e-05
57	0x37b7a3cc	2.1891574e-05
58	0x37fbaacc	3.0001065e-05
59	0x37fd99b7	3.023153e-05
60	0x389c1b0c	7.4436975e-05
61	0x3845933e	4.710559e-05
62	0x37f73899	2.947105e-05
63	0x381d90b0	3.7566468e-05
64	0x389521f3	7.111197e-05
65	0x37ceac38	2.463731e-05
66	0x3819c093	3.665739e-05
67	0x369ffcfe	4.7680214e-06
68	0x39c3068e	0.00037198182
69	0x386a093f	5.579856e-05
70	0x36decee5	6.6402013e-06
71	0x39b84ef1	0.0003515403
72	0x396acfb7	0.00022393359
73	0x370ba744	8.32399e-06
74	0x36ccd5b6	6.104553e-06
75	0x37022866	7.75801e-06
76	0x375d2b25	1.3182672e-05
77	0x37720328	1.4425059e-05
78	0x36e75f99	6.8954655e-06
79	0x3718e9be	9.114328e-06
80	0x376622eb	1.3717198e-05
81	0x36fadef8	7.4765376e-06
82	0x37046475	7.891203e-06
83	0x3658191e	3.2201128e-06
84	0x3757591a	1.2835744e-05
85	0x372a302a	1.0144004e-05
86	0x3726faab	9.952734e-06
87	0x374e22d6	1.2286668e-05
88	0x393b5a5a	0.00017867368
89	0x38e7352a	0.00011024841
90	0x3ba245e0	0.0049521774
91	0x3a24fd2f	0.0006293831
92	0x391d49f7	0.00015000241
93	0x3b920d7c	0.004457174
94	0x3b324d74	0.002720681
95	0x39418857	0.00018456705
96	0x389d9e4c	7.5158285e-05
97	0x382ea044	4.163409e-05
98	0x3904c6ab	0.0001266251
99	0x39ac1575	0.00032822383
100	0x3910241c	0.00013746362
101	0x389521b0	7.1111484e-05
102	0x38c7ceb1	9.527559e-05
103	0x38d8be4b	0.000103351274
104	0x38b103e6	8.440744e-05
105	0x380fd97f	3.4296416e-05
106	0x3908e955	0.00013056894
107	0x3921c482	0.00015427361
108	0x390c049b	0.00013353156
109	0x392a75f0	0.00016256399
110	0x394cee61	0.00019543759
111	0x37c57ab6	2.3541372e-05
112	0x3b2eac79	0.0026653095
113	0x3a127332	0.00055866234
114	0x383d030f	4.506396e-05
115	0x3b15b846	0.0022845431
116	0x3b051a88	0.0020310003
117	0x387489af	5.830236e-05
118	0x38071faa	3.2215998e-05
119	0x3815531a	3.5601763e-05
120	0x38728ce3	5.7828507e-05
121	0x38e54f3e	0.00010934331
122	0x382af1cd	4.0756353e-05
123	0x39083076	0.00012988024
124	0x388ff1e1	6.863825e-05
125	0x3878043a	5.9131744e-05
126	0x383e4576	4.536422e-05
127	0x37a900cf	2.0146746e-05
128	0x38b661ad	8.69663e-05
129	0x38a3bac6	7.807235e-05
130	0x387bb7b6	6.0014157e-05
131	0x38cd768e	9.797244e-05
132	0x3983f57d	0.0002516917
133	0x3737cc3e	1.0955204e-05
134	0x3b4c530f	0.0031177436
135	0x39de372f	0.00042384255
136	0x37c05e01	2.2931958e-05
137	0x3b40c337	0.0029413232
138	0x3ac03c5e	0.0014666428
139	0x37e4091f	2.7183965e-05
140	0x38159f9b	3.5673012e-05
141	0x381f157c	3.7928563e-05
142	0x3927e08d	0.00016010013
143	0x38d01b59	9.923307e-05
144	0x38517b43	4.994428e-05
145	0x381321e8	3.507911e-05
146	0x393a555c	0.00017770141
147	0x3851fd02	5.0065115e-05
148	0x384cab43	4.879689e-05
149	0x379c79e2	1.8653405e-05
150	0x38ef2cf1	0.00011404779
151	0x38cfad25	9.90278e-05
152	0x38a75189	7.978368e-05
153	0x38fe5911	0.00012128254

exp_avg f4 [7, 7]
0	0xb8712367	-5.749185e-05
1	0x3b01cd89	0.0019806346
2	0x3ad2ccf3	0.0016082808
3	0x3b0167f1	0.0019745792
4	0x3c2623c8	0.010140367
5	0x3bb65daf	0.005565367
6	0x3b95c302	0.004570366
7	0x3b4ec4c9	0.0031550399
8	0x3ad5c6c5	0.0016309848
9	0x3b18fe5f	0.0023344976
10	0x3b29e4ce	0.0025923732
11	0x3c5514df	0.013005464
12	0x3bb5f32b	0.0055526695
13	0x3bcdc87d	0.0062800036
14	0x3a7697e3	0.0009406788
15	0x3a13025c	0.00056079566
16	0xbb132296	-0.0022451035
17	0x3a2895f2	0.0006431035
18	0x3b77afc4	0.0037793973
19	0x3af957b7	0.0019023333
20	0x3b043d22	0.002017804
21	0x3b264b21	0.002537437
22	0x3b168357	0.0022966468
23	0x3aeeccb4	0.0018218965
24	0x3b0ea5da	0.0021766336
25	0x3c051e26	0.008124864
26	0x3bb970f8	0.005659219
27	0x3bd47018	0.006483089
28	0xbc024fe0	-0.007953614
29	0xbc00212a	-0.007820407
30	0xbbae9972	-0.0053283507
31	0xbbe0ad00	-0.0068565607
32	0xbd5c234c	-0.0537446
33	0xbc18bbb3	-0.009322095
34	0xbbea7e3b	-0.007156161
35	0xb9da4f4d	-0.00041639284
36	0x3993ab4e	0.00028165657
37	0x39c4f01a	0.00037562923
38	0xba121b94	-0.00055735675
39	0x3c37e8d2	0.011224942
40	0xbc58bd9c	-0.0132288
41	0x3b32fd1e	0.0027311514
42	0x3ae7d5d4	0.0017687627
43	0x3a87b2ab	0.001035293
44	0x3a8b5a9d	0.0010631863
45	0xb8399ded	-4.4254517e-05
46	0x3c277458	0.01022061
47	0x3b62a3f4	0.0034582587
48	0xbc628224	-0.013824973

exp_avg_sq f4 [7, 7]
0	0x3912dd4e	0.00014006087
1	0x37f86602	2.9611405e-05
2	0x37250fec	9.8384735e-06
3	0x3780c1f7	1.5349111e-05
4	0x381f7ad9	3.8022965e-05
5	0x37e98022	2.7835431e-05
6	0x37a0fa93	1.9190169e-05
7	0x37bf0a91	2.2773895e-05
8	0x39c43fa3	0.00037431446
9	0x37ee323b	2.8395201e-05
10	0x37b1723a	2.1153235e-05
11	0x3849a6de	4.807754e-05
12	0x3803c2fa	3.141442e-05
13	0x37f1f023	2.8841261e-05
14	0x378b5c54	1.6613085e-05
15	0x38599599	5.1876155e-05
16	0x39985dff	0.00029061732
17	0x3778a6d6	1.4820796e-05
18	0x37c12829	2.3026094e-05
19	0x382f00b2	4.17239e-05
20	0x376fff95	1.4305017e-05
21	0x36bacd1b	5.5671094e-06
22	0x374a0a26	1.2042501e-05
23	0x36c394b9	5.8287665e-06
24	0x36d197da	6.2463632e-06
25	0x37994ac7	1.8273842e-05
26	0x37a492ca	1.9618677e-05
27	0x3809b4b4	3.283164e-05
28	0x386579f6	5.471144e-05
29	0x383ae5bf	4.4559823e-05
30	0x37d47755	2.5327938e-05
31	0x38803f52	6.11531e-05
32	0x3a66e558	0.00088079786
33	0x389e92b9	7.561356e-05
34	0x390284be	0.00012447216
35	0x38088f49	3.255837e-05
36	0x3836b110	4.3557084e-05
37	0x37dc305e	2.6248566e-05
38	0x383eae60	4.546193e-05
39	0x38c6550c	9.457217e-05
40	0x39a8510d	0.00032103845
41	0x38a5d4df	7.9074634e-05
42	0x37e8cf7f	2.7753178e-05
43	0x37e1435f	2.6853462e-05
44	0x3762b263	1.3512184e-05
45	0x3868aacb	5.5472174e-05
46	0x38ba4b4d	8.883197e-05
47	0x38444178	4.6791014e-05
48	0x3a1ee380	0.0006061122

exp_avg f4 [7]
0	0x3cd32509	0.025774496
1	0x3d0d7a4d	0.034540463
2	0x3bf8be2a	0.0075910287
3	0x3cee691b	0.029102853
4	0xbdc91a21	-0.09819437
5	0x39d3f81f	0.0004042992
6	0x3b716152	0.003683169

exp_avg_sq f4 [7]
0	0x3aab0995	0.001304912
1	0x3b0f91e2	0.0021907021
2	0x3b08bd47	0.0020864771
3	0x39d9d9e2	0.000415518
4	0x3bac57a5	0.0052594715
5	0x3b3dfe01	0.002899051
6	0x3b5ea297	0.0033971423

exp_avg f4 [7]
0	0x3cd32cd9	0.025778221
1	0x3d0d7fcc	0.034545705
2	0x3bf8b833	0.0075903176
3	0x3cee7145	0.029106745
4	0xbdc91b3f	-0.0981965
5	0x39d1d8b9	0.00040025057
6	0x3b710127	0.0036774368

exp_avg_sq f4 [7]
0	0x3aab0a20	0.0013049282
1	0x3b0f9247	0.0021907256
2	0x3b08bd5c	0.002086482
3	0x39d9e067	0.00041556658
4	0x3bac57f1	0.005259507
5	0x3b3dfdd8	0.0028990414
6	0x3b5ea2db	0.003397158

exp_avg f4 [7, 22]
0	0xbc11cf03	-0.008899453
1	0xbbc2aab7	-0.005940761
2	0x3cdd20d0	0.026993185
3	0x3b8dabcd	0.0043234588
4	0xbbebbec9	-0.007194374
5	0x3cedda4b	0.029034754
6	0xbc1683ba	-0.0091866795
7	0xbbdbdc64	-0.006709622
8	0xbb9efc53	-0.0048518567
9	0xbb03ed66	-0.0020130514
10	0x39c10a58	0.00036819535
11	0xbc0820e9	-0.008308628
12	0xbbaa00bf	-0.005188077
13	0xbb4c1023	-0.0031137548
14	0xbb95f9d6	-0.004576902
15	0xbba188ff	-0.0049296613
16	0xbb1d0978	-0.0023961943
17	0xbbdf10f8	-0.0068074428
18	0xbb6e1ea8	-0.003633419
19	0xbb23f856	-0.0025019846
20	0xbb8c9d60	-0.0042912215
21	0xbb4d1812	-0.0031294865
22	0x3afa24c5	0.0019084445
23	0x3928a8e3	0.00016084644
24	0xbc1b8d0c	-0.009494077
25	0x3a8775e1	0.0010334813
26	0x38465e7e	4.729488e-05
27	0xbc1df050	-0.0096398145
28	0x3b5f8d57	0.0034111345
29	0x37e4416c	2.7210182e-05
30	0x3a8ebd98	0.0010890244
31	0x3a451651	0.0007518279
32	0x3a97b7e7	0.0011575193
33	0x3b17eb30	0.0023180954
34	0x3abf171a	0.0014579028
35	0x3afd7828	0.0019338178
36	0x3ab61325	0.0013891204
37	0x3aec39d7	0.0018022609
38	0x3a4f73fe	0.00079137075
39	0x3b2897e7	0.0025725306
40	0x3aaa1de9	0.0012978885
41	0x3a8f4bc6	0.0010932616
42	0x3aa08033	0.0012245238
43	0x3aab99bf	0.0013092085
44	0xbc3c2980	-0.011484504
45	0x3b2e78d5	0.0026622314
46	0x3c93bd95	0.018034736
47	0xbc6cd607	-0.014455325
48	0x3aa23d62	0.0012377913
49	0x3c949e66	0.018141937
50	0xbcd18e48	-0.02558054
51	0x3b0c33e2	0.002139323
52	0xba00de42	-0.00049159315
53	0xbaf8a365	-0.0018969594
54	0xbbf36d89	-0.007428829
55	0xbb3bc59e	-0.0028651725
56	0xbb572e8e	-0.0032834145
57	0x390c2dd0	0.00013368507
58	0xbb78e394	-0.0037977444
59	0xbbb291ab	-0.005449494
60	0xba88dbaa	-0.0010441442
61	0xbbbc9092	-0.005754539
62	0xbaee5387	-0.0018182852
63	0xbaee7cad	-0.0018195115
64	0xba8d6d37	-0.0010789995
65	0xbb2f485b	-0.0026746008
66	0xbc1b34ce	-0.009473039
67	0x3adf3b26	0.0017031177
68	0xbb2fcb83	-0.0026824183
69	0xbc30252e	-0.010751052
70	0x3b543471	0.003237989
71	0xbb181e4d	-0.002321142
72	0xbcc183e1	-0.023622455
73	0x3adce140	0.0016851798
74	0xba192c14	-0.0005843055
75	0xb9a61d73	-0.0003168393
76	0xba003925	-0.00048913277
77	0xba608429	-0.0008564615
78	0xb87dfdc1	-6.0556227e-05
79	0x3a2d915e	0.00066210877
80	0x3a9b71fd	0.0011859533
81	0xba5a6818	-0.0008331551
82	0xb932cf7f	-0.00017052701
83	0x3a5ded86	0.00084658747
84	0xb8a2ceaf	-7.76326e-05
85	0xba74fd49	-0.0009345604
86	0x39ae604a	0.00033259607
87	0x39c2767f	0.0003709085
88	0x3be50b59	0.006989878
89	0x39484e7f	0.00019102728
90	0xbcbdce60	-0.023169696
91	0x3b9fb6d5	0.00487409
92	0x38287bed	4.0169736e-05
93	0xbcc296bf	-0.023753522
94	0x3c59a15f	0.013283103
95	0x383da6d6	4.521649e-05
96	0x3b1de4db	0.0024092707
97	0x3b1a49f2	0.002354261
98	0x3b593268	0.0033141617
99	0x3bbee008	0.0058250464
100	0x3b83983c	0.0040159505
101	0x3b73f955	0.003722747
102	0x3b59f048	0.003325479
103	0x3b9b9021	0.004747406
104	0x3af8f12f	0.0018992777
105	0x3bd27c53	0.006423512
106	0x3b49e567	0.00308069
107	0x3b366f00	0.0027837157
108	0x3b384157	0.0028115117
109	0x3b529048	0.0032129455
110	0x3c5f5775	0.013631691
111	0x39ce0cbc	0.0003930087
112	0x3bdd551d	0.006754531
113	0x3c199659	0.009374225
114	0x3b094c3b	0.0020949978
115	0x3bd44d70	0.006478958
116	0x3cccd671	0.025004597
117	0x3b09c763	0.0021023385
118	0xb907b0d3	-0.00012940475
119	0xba02aede	-0.00049851637
120	0x39f6c362	0.00047066348
121	0xba394317	-0.0007067187
122	0x3a4c4cab	0.0007793407
123	0xbbb719ba	-0.0055877836
124	0xb96f998f	-0.00022850021
125	0x3a0eb548	0.0005443883
126	0xba1aa449	-0.0005899114
127	0xbaf97dda	-0.0019034699
128	0xba9c9ef9	-0.0011949233
129	0xb9cf9309	-0.00039591666
130	0xbaa96d99	-0.0012926339
131	0xba8d013c	-0.0010757814
132	0x3c231eea	0.009956101
133	0xb9ca9b30	-0.00038644066
134	0xbc3c405a	-0.011489952
135	0x3c25e88b	0.010126243
136	0x392a819c	0.00016260747
137	0xbc502adb	-0.01270553
138	0x3cbd72ec	0.023126088
139	0x3671a24e	3.6006272e-06
140	0x3ab80314	0.0014039003
141	0x3a93a795	0.0011265153
142	0x3b49915c	0.0030756807
143	0x3b704bb7	0.0036666223
144	0x3b1c4097	0.002384221
145	0x38920ac1	6.9638256e-05
146	0x3ae596cd	0.0017516256
147	0x3b79cb46	0.0038115545
148	0x3a6ec261	0.0009107944
149	0x3b6b75f3	0.0035928458
150	0x3ab61617	0.0013892081
151	0x3aa3b04b	0.0012488452
152	0x3a97f910	0.0011594612
153	0x3ab2e027	0.0013647125

exp_avg_sq f4 [7, 22]
0	0x39a6b61c	0.0003179767
1	0x386af29c	5.6015895e-05
2	0x3b561541	0.0032666477
3	0x38fd9f8a	0.000120936966
4	0x38b288d3	8.513187e-05
5	0x3b612a89	0.0034357628
6	0x3a6cfcd5	0.00090403605
7	0x3896de77	7.193995e-05
8	0x394bfa53	0.00019452842
9	0x3810de43	3.4539273e-05
10	0x384a9141	4.829583e-05
11	0x39367d03	0.00017403443
12	0x38ac4731	8.2148596e-05
13	0x383d2495	4.509518e-05
14	0x38aa03b3	8.106921e-05
15	0x38d9a7fa	0.000103786544
16	0x37d39b67	2.5225525e-05
17	0x394a8ea9	0.00019317366
18	0x3864d251	5.455531e-05
19	0x38ac37cd	8.211993e-05
20	0x387c607a	6.0171333e-05
21	0x38731453	5.7954643e-05
22	0x37d7e530	2.5736721e-05
23	0x358c5ac0	1.0457225e-06
24	0x39125c55	0.00013958041
25	0x370802c2	8.106874e-06
26	0x350ba180	5.201655e-07
27	0x39258027	0.00015783367
28	0x388ae85a	6.6236316e-05
29	0x35a4ed44	1.2288006e-06
30	0x3656d094	3.2009893e-06
31	0x373566d3	1.0812381e-05
32	0x360b8ca8	2.0794487e-06
33	0x3697238e	4.50429e-06
34	0x36327f90	2.6598318e-06
35	0x3638e9c6	2.755421e-06
36	0x3650ff96	3.1143186e-06
37	0x369b87d3	4.635172e-06
38	0x358c8f9d	1.047261e-06
39	0x3705c873	7.9740885e-06
40	0x3625be1e	2.4697579e-06
41	0x36c51f65	5.8747123e-06
42	0x3607ca95	2.0234486e-06
43	0x3633d9f5	2.6799946e-06
44	0x39c46ace	0.0003746361
45	0x370e8c4c	8.496525e-06
46	0x3b7c3d42	0.003848866
47	0x39e3bd47	0.00043437837
48	0x37443839	1.1695601e-05
49	0x3b77d89c	0.0037818318
50	0x3ad56c7d	0.0016282942
51	0x3715deb1	8.9329415e-06
52	0x383a7a3d	4.44597e-05
53	0x384c6ef2	4.8740716e-05
54	0x398126cf	0.00024633712
55	0x390bf98a	0.00013349034
56	0x38a5c80c	7.905075e-05
57	0x38646f22	5.4462937e-05
58	0x38e9b29d	0.00011143575
59	0x391eb820	0.00015136646
60	0x37bda368	2.2606648e-05
61	0x396bef4b	0.0002250049
62	0x385cb946	5.2624637e-05
63	0x38ed7b2a	0.00011323982
64	0x384148c2	4.6082547e-05
65	0x38adc936	8.286761e-05
66	0x39c9471a	0.00038390682
67	0x3684af2b	3.954299e-06
68	0x3a974cb0	0.001154324
69	0x3997c37a	0.00028946606
70	0x37727831	1.4452308e-05
71	0x3aa28792	0.0012400022
72	0x3ae6aaeb	0.0017598545
73	0x36a772b0	4.990339e-06
74	0x38081bab	3.2450695e-05
75	0x37a2eeb8	1.9423067e-05
76	0x3819f5bd	3.6706904e-05
77	0x388f0b82	6.820915e-05
78	0x3807c158	3.2366574e-05
79	0x37d89985	2.5820695e-05
80	0x37e208d9	2.694542e-05
81	0x387aab80	5.9764367e-05
82	0x3724c5be	9.821202e-06
83	0x38880d43	6.4874555e-05
84	0x37ab9193	2.0452577e-05
85	0x38542e59	5.0587903e-05
86	0x379b3926	1.8504052e-05
87	0x37ceec16	2.466705e-05
88	0x38391b9d	4.4133154e-05
89	0x35bbeca3	1.4001456e-06
90	0x39bfeb42	0.0003660564
91	0x3821ea69	3.8603703e-05
92	0x36006fe7	1.9138622e-06
93	0x39c24b0b	0.00037058475
94	0x3941d1fe	0.00018484142
95	0x35cbed69	1.5193774e-06
96	0x36cf0a0e	6.1702513e-06
97	0x36c0c29d	5.744702e-06
98	0x3766269f	1.37180605e-05
99	0x378d987e	1.687952e-05
100	0x37292d55	1.008374e-05
101	0x36de7353	6.629541e-06
102	0x3728f138	1.0069743e-05
103	0x37573707	1.2827811e-05
104	0x362455bf	2.4487815e-06
105	0x37abc0b5	2.0474525e-05
106	0x36b7a3b4	5.4728825e-06
107	0x37529cc9	1.255348e-05
108	0x36a56a41	4.929753e-06
109	0x370164f8	7.712508e-06
110	0x387f0787	6.0803748e-05
111	0x36efa9d4	7.1425256e-06
112	0x3aaa0465	0.001297128
113	0x385c8f03	5.2585277e-05
114	0x3695f5ab	4.4691456e-06
115	0x3aaa7f8b	0.0013007981
116	0x39857fcb	0.0002546295
117	0x368f269e	4.2662277e-06
118	0x37a8c982	2.0120995e-05
119	0x3766276c	1.3718247e-05
120	0x379009c8	1.7170692e-05
121	0x383fc118	4.571778e-05
122	0x37a562d5	1.9715555e-05
123	0x3894d232	7.096342e-05
124	0x381a4481	3.678026e-05
125	0x37cad153	2.417775e-05
126	0x372e999b	1.0406972e-05
127	0x38b30744	8.5367385e-05
128	0x37ddadf4	2.6426256e-05
129	0x37f9c0a8	2.9772826e-05
130	0x37aee8e7	2.085087e-05
131	0x37bda330	2.2606546e-05
132	0x3826532e	3.965495e-05
133	0x36ca0086	6.02013e-06
134	0x3ac0733b	0.0014682779
135	0x38e96bef	0.0001113041
136	0x36232c60	2.4314722e-06
137	0x3ab6f77d	0.0013959255
138	0x39ae98be	0.00033301668
139	0x3609bb04	2.0523448e-06
140	0x37704fe6	1.4323718e-05
141	0x3770e2ff	1.4357966e-05
142	0x37bd9382	2.2599244e-05
143	0x382ee8e9	4.1701747e-05
144	0x38818bf0	6.177265e-05
145	0x37fd6da8	3.0211013e-05
146	0x389e0a42	7.535938e-05
147	0x37e3181c	2.7071736e-05
148	0x37350544	1.0789667e-05
149	0x38af716a	8.365775e-05
150	0x37db9c26	2.6179547e-05
151	0x382c912a	4.114319e-05
152	0x37b8957c	2.2004118e-05
153	0x37fed09b	3.0376299e-05
