data_10frm/model/0_4_11_15.pt (torch_old, 18399 bytes, 52 tensors)

rnn.weight_ih f4 [7, 22]
0	0x3c34f92a	0.0110457335
1	0x3e64f14c	0.22357672
2	0xbea7e130	-0.32788992
3	0xbd6771d7	-0.05650505
4	0x3dc0ec3d	0.09420059
5	0x3db1c529	0.086801834
6	0xbd980c68	-0.07424241
7	0xbe023e97	-0.12719189
8	0xbe82b7a9	-0.25530747
9	0x3b575a86	0.0032860353
10	0xbeb2208f	-0.34790465
11	0xbec508af	-0.38483188
12	0xbe56ecfd	-0.20988841
13	0xbeb3b452	-0.3509851
14	0x3bbd3d16	0.0057751043
15	0x3e67271a	0.2257351
16	0x3e7ee9b0	0.24893832
17	0xbe926e9d	-0.28600016
18	0x3e2be72d	0.16787405
19	0x3e65cace	0.22440645
20	0xbd2d8faa	-0.042373337
21	0x3ddbe76f	0.10737502
22	0x3da91ec0	0.08257818
23	0x3e6a68ec	0.22891587
24	0x3e558e17	0.20854984
25	0xbbc01158	-0.0058614425
26	0xbe718e8c	-0.23589534
27	0xbe4be5bf	-0.1991186
28	0xbea6acdf	-0.32553765
29	0x3e58340a	0.21113601
30	0xbe0b356e	-0.135946
31	0x3d83e657	0.06440418
32	0xbebc3342	-0.36757857
33	0xbd55ff32	-0.052245326
34	0xbe1b7d3d	-0.15184493
35	0xbe9958e3	-0.29950628
36	0x3e75b888	0.23996174
37	0xbea40c3f	-0.32040593
38	0xbd9886cb	-0.07447585
39	0xbd489bce	-0.048976712
40	0xbeb632f4	-0.3558575
41	0x3e5ae1e3	0.21375231
42	0xbe0a3c5b	-0.13499586
43	0x3e23a201	0.15979768
44	0x3e5e5bc2	0.2171469
45	0x3e990ac3	0.29891023
46	0x3da1e995	0.0790588
47	0x3e9f375a	0.31096917
48	0x3e96ee24	0.29478562
49	0x3d80ff94	0.06298748
50	0xbda2af03	-0.07943537
51	0xbe094f6d	-0.13409205
52	0x3cb2ca56	0.021824997
53	0x3e0b78fa	0.13620368
54	0xbe8e1c03	-0.27755746
55	0x3e8f7353	0.28017673
56	0x3d31a8ae	0.043373756
57	0xbec6aff8	-0.38806129
58	0x3dfe6674	0.12421885
59	0x3e811072	0.2520786
60	0x3e0f470a	0.13991943
61	0x3e9c1c4f	0.30490348
62	0x3c9aeeb0	0.018912643
63	0xbe9739fd	-0.2953643
64	0x3b8ae95b	0.004239244
65	0x3e9509e6	0.29109114
66	0xbc848299	-0.016175555
67	0x3e968824	0.29400742
68	0xbd1088b2	-0.035286613
69	0x3dff0775	0.12452594
70	0x3dff9658	0.12479848
71	0x3d0a8594	0.033818796
72	0xbda6a31e	-0.08136581
73	0x3ec56172	0.38550907
74	0x3eb2a41e	0.34890836
75	0x3e9ff91f	0.31244752
76	0x3ef75772	0.48308903
77	0x3e0613bd	0.13093467
78	0xbe07b26b	-0.13251655
79	0x3e22f3dd	0.15913339
80	0xb8e67ddb	-0.00010990697
81	0x3e850996	0.25983876
82	0x3ee4da70	0.44697905
83	0xbd784fa6	-0.060622834
84	0x3e2656d7	0.16244064
85	0x3ef624ad	0.48074856
86	0xbe3c26e4	-0.1837421
87	0x3d3abaf7	0.04558846
88	0x3ec74e3c	0.38926876
89	0x3e6b240e	0.22962973
90	0x3e28cacc	0.16483611
91	0xbe030809	-0.12796034
92	0xbe16b9d9	-0.14719333
93	0xbe9907c7	-0.29888746
94	0xbea28509	-0.31742123
95	0xbeba3ef0	-0.36376143
96	0x3eabe6ab	0.33574423
97	0x3e7d4033	0.24731521
98	0x3d92ee01	0.07174302
99	0xbe239257	-0.15973793
100	0x3eafbddd	0.34324542
101	0xbdeab44c	-0.1146017
102	0x3e39eef4	0.1815756
103	0xbd2e5c78	-0.042568654
104	0xbe5abc2b	-0.21360843
105	0xbe099705	-0.13436516
106	0xbe169669	-0.14705814
107	0xbec4a546	-0.38407344
108	0x3da8a05c	0.08233711
109	0xbe1d5621	-0.15364887
110	0x3cb42bf5	0.021993617
111	0x3d9ac88a	0.07557781
112	0x3de0280d	0.10945139
113	0x3dc38071	0.09545983
114	0xbd9d0275	-0.07666484
115	0x3eda9d23	0.4269801
116	0xbeb2a6d6	-0.3489291
117	0xbe5348a3	-0.20633177
118	0xbe89ebe2	-0.26937777
119	0x3e3aa16d	0.18225642
120	0xbf041eb4	-0.5160935
121	0xbec605aa	-0.38676196
122	0xbe024973	-0.12723331
123	0x3e27a450	0.16371274
124	0x3e018500	0.12648392
125	0xbf06443c	-0.5244787
126	0xbeddc74c	-0.43316114
127	0x3e3438e8	0.17599833
128	0xbe2ac2e1	-0.16675903
129	0xbef6c449	-0.4819663
130	0xbe84c623	-0.25932416
131	0x3c17e5a8	0.009271063
132	0xbead7a2e	-0.33882278
133	0xbeb1faf1	-0.34761766
134	0xbe3510a3	-0.17682128
135	0xbec63836	-0.3871476
136	0xbdc4641c	-0.09589407
137	0x3e5df2fd	0.21674724
138	0xbcde712b	-0.027153572
139	0xbea6bd2c	-0.32566202
140	0xbe2e10c5	-0.16998585
141	0xbebb24d6	-0.3655154
142	0x3e34c3ea	0.1765286
143	0x3e9f3f58	0.31103015
144	0x3e8f4e98	0.2798965
145	0x3d4bde1f	0.049772378
146	0xbd8f9259	-0.070103355
147	0xbdb54f03	-0.08852961
148	0x3d9dd1ac	0.07706007
149	0xbedfa904	-0.43683636
150	0xbd6c0239	-0.057619307
151	0xbeb385c1	-0.35062984
152	0xbedbf6f6	-0.42961854
153	0xbd76fe61	-0.06030119

rnn.weight_hh f4 [7, 7]
0	0xbda52cc2	-0.080651775
1	0xbea37d1b	-0.31931385
2	0xbd0458c6	-0.032311223
3	0xbde9dd88	-0.11419207
4	0xbcc09518	-0.023508593
5	0xbe8658d4	-0.26239645
6	0xbeeb7df8	-0.45994544
7	0xbced9895	-0.02900342
8	0xbdad5932	-0.08464278
9	0xbe1fb80e	-0.15597555
10	0x3e297e98	0.16552198
11	0x3c3c3ff3	0.011489856
12	0x3e25a61e	0.1617665
13	0xbe1c1e0c	-0.15245837
14	0xbea0840b	-0.3135074
15	0x3d0bf81f	0.034172174
16	0xbe28095b	-0.16409819
17	0xbd74470a	-0.05963806
18	0xbe984c08	-0.29745507
19	0x3e97430f	0.2954335
20	0xbe884ae1	-0.26619628
21	0x3ed1e6b6	0.4099633
22	0x3eb4b201	0.35292056
23	0x3ec8aa67	0.39192507
24	0x3ed5d8dc	0.41767013
25	0x3e213be3	0.15745501
26	0x3dc6ff0e	0.097166166
27	0x3d61ff43	0.055175077
28	0xbe57b4d7	-0.21065079
29	0xbed18ca6	-0.4092762
30	0x3e81312d	0.2523283
31	0xbe16de92	-0.14733341
32	0x3e68be93	0.22728948
33	0xbcb39e1c	-0.021925978
34	0x3ceec71a	0.029147673
35	0xbebb9fd1	-0.36645368
36	0xbede4116	-0.43409032
37	0x3de22fcd	0.110442735
38	0xbd1d3058	-0.038376182
39	0x3d6b6ed9	0.05747876
40	0xbf024982	-0.50893414
41	0xbda25582	-0.079264656
42	0xbee45767	-0.44597933
43	0xbdf0ad56	-0.11751811
44	0xbe22dd99	-0.15904845
45	0xbee3b8d5	-0.44476953
46	0xbee01aca	-0.43770438
47	0xbd2dd810	-0.04244238
48	0x3ebfccf7	0.37461063

rnn.bias_ih f4 [7]
0	0x3e967dde	0.29392904
1	0xbe7bd262	-0.24591973
2	0xbd6c7d78	-0.057736844
3	0xbe3f16b8	-0.1866101
4	0xbeaa708b	-0.33288988
5	0xbe8de182	-0.2771111
6	0x3e990e32	0.29893643

rnn.bias_hh f4 [7]
0	0xbe14c59a	-0.14528504
1	0x3bc5ee72	0.006040388
2	0x3ebadc6f	0.36496302
3	0x3e4985c4	0.19679934
4	0x3e88c878	0.26715446
5	0x3d9eefc5	0.07760576
6	0x3e92a41b	0.28640828

exp_avg f4 [7, 22]
0	0xb7efb5b4	-2.8575632e-05
1	0xba4281fa	-0.0007419881
2	0xbbe25baa	-0.0069079
3	0xba99a8ef	-0.001172332
4	0xb9b7e6aa	-0.00035076338
5	0xbbe05b48	-0.006846819
6	0xbafbfad2	-0.001922453
7	0xb9c6870b	-0.00037866118
8	0xb920d67a	-0.00015338688
9	0x3a2a3a8a	0.00064937084
10	0x3ab645b1	0.0013906268
11	0x3ae0c06d	0.0017147191
12	0x3a83d1a6	0.0010056987
13	0x3ab19cd7	0.001355077
14	0x3a8a0fa1	0.0010533222
15	0x39ff6455	0.00048712143
16	0x39f5cca8	0.00046882522
17	0x3ac01ca4	0.0014656973
18	0x3ae6e357	0.001761536
19	0x3a67bfa3	0.0008840507
20	0x3a4ef0ae	0.00078941404
21	0x3a980768	0.0011598887
22	0xb99838ad	-0.00029033926
23	0xba2c58e5	-0.00065745256
24	0xbc191de2	-0.0093455035
25	0xbafbbb8e	-0.0019205676
26	0x389fcebd	7.620219e-05
27	0xbc18bd55	-0.009322484
28	0xbb406c11	-0.0029361288
29	0x38e7b31b	0.00011048299
30	0x3a88550a	0.001040132
31	0x3a5ba5a5	0.000837887
32	0x3b1cae8d	0.0023907751
33	0x3adcc0dd	0.0016842146
34	0x3a881d25	0.0010384662
35	0x3aa28515	0.0012399281
36	0x3ab3ecb2	0.0013727157
37	0x3a285d90	0.00064226333
38	0x3a336753	0.00068437046
39	0x3b01a05b	0.0019779417
40	0x3b2881bd	0.0025712096
41	0x3a9a142b	0.0011755278
42	0x3a818aaf	0.000988325
43	0x3acd4d8c	0.001566337
44	0x3c2d4005	0.0105743455
45	0x3be42284	0.0069621224
46	0x3a7c6eb1	0.00096295314
47	0x3bc98adc	0.0061505865
48	0x39654024	0.00021863036
49	0x3a7c02e1	0.0009613466
50	0x3caaf5e6	0.020869207
51	0x39db0781	0.00041776526
52	0xba3173f7	-0.0006769294
53	0xb93ab7bd	-0.0001780679
54	0xbbc4b0cd	-0.0060025216
55	0x3acfcc67	0.0015853763
56	0x3a316116	0.0006766481
57	0x3b423271	0.0029632116
58	0xb9c8e10b	-0.00038314643
59	0x3940c96e	0.00018385585
60	0xb9e2db26	-0.00043269357
61	0xbb28c4e9	-0.0025752133
62	0xba4ffe6c	-0.0007934335
63	0x37d0020e	2.4796489e-05
64	0x3aad7568	0.0013233842
65	0x3983a44f	0.00025108687
66	0x3b8f8414	0.0043797586
67	0xba4aceb5	-0.000773649
68	0xbc229f8e	-0.009925736
69	0x3b480d6d	0.003052558
70	0xb8911561	-6.918121e-05
71	0xbc393677	-0.011304489
72	0x3c098294	0.008392949
73	0x39826517	0.0002487085
74	0x3b099c4c	0.0020997701
75	0xb8238ee8	-3.899532e-05
76	0x3a0f311a	0.0005462334
77	0x3af81ce5	0.001892951
78	0x3a934ee1	0.0011238718
79	0x3b6c396a	0.0036044964
80	0x3ae71056	0.001762877
81	0x3a577521	0.00082190527
82	0x3a4a186e	0.0007709329
83	0x3a8fed9e	0.001098085
84	0x3b3ac09b	0.002849615
85	0x3a07d22d	0.000518116
86	0x3b030254	0.0019990401
87	0x3b3ff0ff	0.0029287932
88	0xbac4c0e1	-0.0015011096
89	0xbacbe6e8	-0.0015556486
90	0xbc345c15	-0.011008282
91	0xbafb1228	-0.0019155191
92	0xb93804dd	-0.00017549419
93	0xbc351ad7	-0.011053762
94	0xbbbce1bc	-0.0057642143
95	0xb911cf68	-0.00013905542
96	0x3ab7abfd	0.0014013048
97	0x3aa2f0c7	0.0012431376
98	0x3b03b920	0.0020099357
99	0x3b27d3af	0.002560835
100	0x39f42921	0.0004656995
101	0x3ade4663	0.0016958233
102	0x3b0e6923	0.0021730147
103	0x3a3b79cb	0.00071516325
104	0x3a69bba0	0.0008916203
105	0x3b351f9e	0.0027637254
106	0x3b2c14e1	0.0026257562
107	0x3ad7f527	0.0016476259
108	0x3a89e5d1	0.0010520761
109	0x3af2ebea	0.0018533443
110	0xbba7a6f5	-0.0051163384
111	0xba282aa9	-0.0006415048
112	0x3cafc501	0.021456243
113	0xbaa90ed6	-0.0012898098
114	0x39650fa0	0.00021844963
115	0x3cb35adc	0.021893911
116	0xbbed34cf	-0.0072389613
117	0x396df0ff	0.0002269186
118	0xba1e0ca9	-0.0006029108
119	0xbab0596e	-0.0013454386
120	0xba1102f2	-0.000553175
121	0xbb7867b5	-0.003790361
122	0xba3efb5e	-0.00072853814
123	0xbc325086	-0.010883456
124	0xbb66d9e3	-0.0035225085
125	0xbad25b47	-0.0016048931
126	0xbab06323	-0.001345728
127	0xbb2519ec	-0.0025192453
128	0xbbc20b9a	-0.005921793
129	0xbb114853	-0.0022168353
130	0xbb9412f8	-0.004518863
131	0xbb580aa5	-0.003296533
132	0xbc335190	-0.010944739
133	0xbb7224ea	-0.0036948272
134	0x3c55c3d5	0.013047178
135	0xbbb97928	-0.005660195
136	0xb8ac68ce	-8.2211205e-05
137	0x3c6c9f6c	0.014442306
138	0xbc9977f2	-0.018733952
139	0xba5a3096	-0.000832328
140	0xbb4990ee	-0.003075655
141	0xba80405c	-0.0009784806
142	0x3ab45593	0.0013758413
143	0xbba9db61	-0.0051836227
144	0xbb590a34	-0.0033117654
145	0xbad35975	-0.0016124683
146	0xba9154b6	-0.0011087868
147	0xbaa870d9	-0.0012851014
148	0xba718bdb	-0.00092142605
149	0xba7f372c	-0.0009735699
150	0xbb36a90a	-0.0027871751
151	0xbacac19f	-0.001546908
152	0xbb0a8217	-0.0021134668
153	0xbb8b82e2	-0.004257546

exp_avg_sq f4 [7, 22]
0	0x376668bd	1.3733455e-05
1	0x371b518b	9.257706e-06
2	0x39b2721e	0.0003403583
3	0x370de0d1	8.456599e-06
4	0x36b461d4	5.3758067e-06
5	0x39b7867b	0.00035004676
6	0x37e5dbe4	2.7401322e-05
7	0x3705e25e	7.980123e-06
8	0x382e1f43	4.1513948e-05
9	0x36897324	4.0963223e-06
10	0x36d7db2f	6.4330156e-06
11	0x36f6f174	7.35948e-06
12	0x36ba7311	5.5566275e-06
13	0x368d41c1	4.209782e-06
14	0x36a765f5	4.988857e-06
15	0x360f88f3	2.1388375e-06
16	0x369415e5	4.4132926e-06
17	0x36fd84f7	7.5554667e-06
18	0x37da7026	2.6039848e-05
19	0x36eae782	7.0006945e-06
20	0x368a2af3	4.1177204e-06
21	0x372e1e21	1.0378223e-05
22	0x3725e069	9.887016e-06
23	0x3656f19b	3.2029118e-06
24	0x39a603fd	0.0003166496
25	0x37bebbc9	2.273721e-05
26	0x34b04167	3.283014e-07
27	0x39a1f143	0.00030888067
28	0x38a50b2f	7.869896e-05
29	0x34f3aa34	4.5386116e-07
30	0x36c2f68d	5.810353e-06
31	0x36998207	4.5748925e-06
32	0x37c9cc6a	2.4056255e-05
33	0x37017a86	7.717526e-06
34	0x36c67d37	5.9154368e-06
35	0x36a1e88a	4.825245e-06
36	0x370c7155	8.371037e-06
37	0x3601fcda	1.9369677e-06
38	0x36c1f478	5.780308e-06
39	0x37335420	1.0688818e-05
40	0x37973330	1.8024439e-05
41	0x36e8557a	6.9240896e-06
42	0x36222c2a	2.4165588e-06
43	0x37127719	8.730008e-06
44	0x391c4de2	0.00014906333
45	0x386a7293	5.5896653e-05
46	0x3b83941a	0.004015458
47	0x39b0d846	0.00033730472
48	0x36299fd4	2.5275995e-06
49	0x3b8060d7	0.003917794
50	0x3aafc725	0.001341079
51	0x3659f34d	3.247714e-06
52	0x38852932	6.3496074e-05
53	0x384a3d61	4.8217717e-05
54	0x39c10a4f	0.0003681951
55	0x38d9294b	0.00010355058
56	0x3887550e	6.453144e-05
57	0x38634f9f	5.419517e-05
58	0x388aa0ea	6.610325e-05
59	0x37ae9237	2.0810503e-05
60	0x387304ab	5.7940062e-05
61	0x39334c7c	0.00017099263
62	0x3986697c	0.00025637064
63	0x38ae55b3	8.312929e-05
64	0x37ee4578	2.840416e-05
65	0x38e3d820	0.0001086446
66	0x38bdb44f	9.0458074e-05
67	0x37582bed	1.28848305e-05
68	0x3b557f0d	0.003257695
69	0x399c9880	0.0002986826
70	0x36cb78d6	6.0639386e-06
71	0x3b485cf3	0.003057298
72	0x3a6c2ce8	0.0009009377
73	0x36f77fe5	7.3760625e-06
74	0x384cecb0	4.8857823e-05
75	0x38f22369	0.00011546055
76	0x38a8da87	8.051568e-05
77	0x390a315e	0.00013179096
78	0x3883aadf	6.278394e-05
79	0x382bc20e	4.0950305e-05
80	0x38b8e704	8.816834e-05
81	0x37953f0b	1.779154e-05
82	0x38180759	3.6246467e-05
83	0x3902986f	0.00012454552
84	0x393f6e1b	0.00018256197
85	0x38c11d98	9.2084694e-05
86	0x37eb25bc	2.8031754e-05
87	0x38ad537e	8.2648345e-05
88	0x3800b313	3.0684354e-05
89	0x37274e1b	9.972161e-06
90	0x3b1c7dcd	0.0023878694
91	0x390ceaf3	0.00013438966
92	0x35bb9bc6	1.3977922e-06
93	0x3b15efa4	0.0022878433
94	0x3958edaa	0.00020687902
95	0x3656e79c	3.20233e-06
96	0x38753267	5.8459493e-05
97	0x380bc73a	3.3325727e-05
98	0x38589ebe	5.1646253e-05
99	0x38765b77	5.8736154e-05
100	0x390861af	0.0001300636
101	0x381bca6c	3.71434e-05
102	0x380d4e28	3.368981e-05
103	0x37821f28	1.5511716e-05
104	0x37ba261a	2.219067e-05
105	0x389ade35	7.3846815e-05
106	0x3924c801	0.00015714766
107	0x385459de	5.0628434e-05
108	0x37d1d5d5	2.5014315e-05
109	0x3885f8a8	6.38825e-05
110	0x38a9f224	8.10365e-05
111	0x36166fa5	2.2416727e-06
112	0x3b313908	0.002704205
113	0x37d64273	2.554173e-05
114	0x35445e58	7.315298e-07
115	0x3b350023	0.002761849
116	0x38b77b9b	8.749143e-05
117	0x35abb0cc	1.2791947e-06
118	0x37ed5ea1	2.8296667e-05
119	0x37b2fcd1	2.133698e-05
120	0x380ccf6e	3.3571785e-05
121	0x38acf6f8	8.2476006e-05
122	0x3816ffba	3.600095e-05
123	0x397431b2	0.00023288166
124	0x3899f135	7.340537e-05
125	0x37904bf9	1.7201515e-05
126	0x37aff422	2.0975309e-05
127	0x388f1345	6.8223606e-05
128	0x39431253	0.00018603475
129	0x38432184	4.6522837e-05
130	0x385538de	5.083612e-05
131	0x389f63e8	7.60032e-05
132	0x39aad392	0.0003258256
133	0x37c1d3a4	2.3105946e-05
134	0x3b880176	0.004150565
135	0x38f3961e	0.000116151044
136	0x371bc127	9.283692e-06
137	0x3b8f86dc	0.00438009
138	0x3a47f673	0.00076279714
139	0x377d9bf7	1.51162885e-05
140	0x38a4167e	7.824319e-05
141	0x38404436	4.5839894e-05
142	0x389d8f9f	7.513095e-05
143	0x394a4e2c	0.00019293342
144	0x38d1ae27	9.998335e-05
145	0x38afe781	8.387771e-05
146	0x39492db4	0.0001918588
147	0x37f43e6b	2.9116132e-05
148	0x38171854	3.6023863e-05
149	0x38eeedaa	0.00011392993
150	0x39897179	0.0002621522
151	0x38a5909f	7.894751e-05
152	0x38766b44	5.875087e-05
153	0x39341ac4	0.00017176109

exp_avg f4 [7, 7]
0	0xba393ddd	-0.0007066408
1	0x39963315	0.0002864829
2	0x3ad9ac80	0.0016607195
3	0x3ae34973	0.0017340615
4	0x3a967609	0.0011479269
5	0x3abd5809	0.0014445792
6	0x3abc4ebf	0.001436673
7	0x39e7f72e	0.00044243917
8	0x39c985f9	0.00038437525
9	0x3b5f280f	0.0034050976
10	0x3afd7893	0.0019338302
11	0x3a7dcad4	0.0009681408
12	0x3a9a0517	0.0011750784
13	0x3aa9fc7a	0.0012968921
14	0x39784bea	0.00023679403
15	0xba0b2086	-0.00053072756
16	0xbc60a07f	-0.01371014
17	0x3b286bd2	0.0025699032
18	0x3b068f78	0.0020532291
19	0x3b9f6f96	0.004865597
20	0x3b23544c	0.002492207
21	0x3a417d29	0.0007381016
22	0x39fd8b06	0.000483595
23	0x3b705cb9	0.003667636
24	0xbc03389b	-0.008009101
25	0x3a315f13	0.00067661813
26	0x3bc22d66	0.005925822
27	0x3bf61e5a	0.0075109424
28	0x39dd4108	0.00042200857
29	0x39f6ea5a	0.00047095382
30	0x3b81eaff	0.0039647813
31	0x3babaf77	0.005239423
32	0xbb9e2ddd	-0.0048272447
33	0x3b104e43	0.0022019304
34	0x3b85298f	0.004063792
35	0xba5f56ea	-0.0008519726
36	0xba34ea44	-0.00069013634
37	0x39f9b8f3	0.0004763078
38	0xba7415fb	-0.00093111367
39	0xb86918a3	-5.5574474e-05
40	0xbcac3d47	-0.021025313
41	0x3ad83ece	0.001649821
42	0xba016098	-0.0004935353
43	0xb9f63b6d	-0.00046965052
44	0x3b28b6cb	0.0025743719
45	0x376c85b3	1.4097825e-05
46	0xba4e4314	-0.0007868272
47	0x3af47b84	0.0018652533
48	0xbc87ebda	-0.016591955

exp_avg_sq f4 [7, 7]
0	0x381934fc	3.6527388e-05
1	0x3616a9a2	2.245048e-06
2	0x36f090d8	7.1694194e-06
3	0x378de2c9	1.6914115e-05
4	0x36dc6523	6.568285e-06
5	0x3697ae66	4.5204533e-06
6	0x3709fdd9	8.22494e-06
7	0x35f2a0dc	1.8077221e-06
8	0x36300071	2.62263e-06
9	0x38352cfd	4.319566e-05
10	0x3798b3a7	1.820347e-05
11	0x36eee5ee	7.11972e-06
12	0x36b6856d	5.4395555e-06
13	0x37184eb9	9.078235e-06
14	0x3728a057	1.0050912e-05
15	0x37f0fca9	2.8727884e-05
16	0x3a3fe773	0.00073205604
17	0x39504bc8	0.00019864656
18	0x38811912	6.155869e-05
19	0x381fe4c6	3.8121616e-05
20	0x389695d4	7.180465e-05
21	0x36fa6901	7.4628047e-06
22	0x376559de	1.36703875e-05
23	0x38af8104	8.368681e-05
24	0x3a3dccfe	0.0007240324
25	0x382828f7	4.0092473e-05
26	0x381fa7b8	3.8064754e-05
27	0x3910cb41	0.00013808628
28	0x371bca50	9.2858245e-06
29	0x372d3b4f	1.0325412e-05
30	0x38632bc7	5.416179e-05
31	0x390d37b6	0.00013467562
32	0x39a5f927	0.00031656885
33	0x3799bea4	1.8327795e-05
34	0x387c0a6d	6.009119e-05
35	0x370484f4	7.898769e-06
36	0x36ec34cc	7.0394944e-06
37	0x37f2b15c	2.8931237e-05
38	0x38a2b94c	7.759276e-05
39	0x37b36b14	2.1388325e-05
40	0x3a24b2d6	0.0006282752
41	0x38799fc3	5.9515016e-05
42	0x37944752	1.7676186e-05
43	0x37870c52	1.6098991e-05
44	0x38d9b1a8	0.000103804574
45	0x3931fad4	0.00016973476
46	0x3884d24a	6.33342e-05
47	0x387f7555	6.090601e-05
48	0x3a2d3a32	0.0006608098

exp_avg f4 [7]
0	0x3be5f800	0.0070180893
1	0x3c1d8a50	0.009615496
2	0xbb0495ff	-0.0020231006
3	0x3c3408f5	0.010988464
4	0x3c3d3396	0.011547944
5	0xbcaf7e9f	-0.021422682
6	0xbc639a56	-0.013891777

exp_avg_sq f4 [7]
0	0x39bf8530	0.0003652959
1	0x39aed9b4	0.00033350068
2	0x3b8bfd0e	0.00427211
3	0x3b5d10cc	0.0033731936
4	0x3b200026	0.002441415
5	0x3b37c0e0	0.0028038546
6	0x3b94a305	0.004536035

exp_avg f4 [7]
0	0x3be60961	0.007020161
1	0x3c1d8599	0.009614372
2	0xbb04d0da	-0.0020266087
3	0x3c3415bc	0.01099151
4	0x3c3d41e7	0.011551357
5	0xbcaf796a	-0.0214202
6	0xbc639616	-0.013890764

exp_avg_sq f4 [7]
0	0x39bf863f	0.0003653038
1	0x39aed7e2	0.0003334871
2	0x3b8bfd27	0.0042721215
3	0x3b5d1090	0.0033731796
4	0x3b200066	0.00244143
5	0x3b37c0ab	0.0028038423
6	0x3b94a304	0.0045360345

exp_avg f4 [7, 22]
0	0xb7d637b5	-2.5536729e-05
1	0x3ab1dfca	0.0013570723
2	0xbc0d1fa3	-0.0086135
3	0xbaa2675a	-0.001239042
4	0x3aa8c4e6	0.0012876063
5	0xbc0bd77c	-0.008535262
6	0xbae6281e	-0.0017559563
7	0x3ac2c37f	0.0014859288
8	0x3a017f4e	0.00049399293
9	0x3a470dd7	0.000759331
10	0x3ad601e9	0.0016327474
11	0x3b157ea7	0.0022811086
12	0x3abda4e6	0.0014468699
13	0x3a8e07b8	0.0010836041
14	0x3a90b38e	0.001103984
15	0x3a30e832	0.0006748467
16	0x3b0bf5cf	0.002135623
17	0x3a121ced	0.0005573768
18	0x3b148e57	0.002266785
19	0x3a3012ba	0.00067166577
20	0x3ae37604	0.0017353897
21	0x3a4809dc	0.00076308637
22	0xbc6b6abe	-0.014368711
23	0x38e42989	0.00010879624
24	0xbc47cf63	-0.012195441
25	0xbc474c7e	-0.012164233
26	0x3b81b938	0.0039588474
27	0xbc0ca870	-0.0085850805
28	0xbd156e85	-0.036482353
29	0xb9f7d68a	-0.00047271355
30	0x3b0ad724	0.0021185363
31	0xbbdb64a5	-0.0066953474
32	0x3b0f03cc	0.0021822331
33	0x3bdac98d	0.0066768588
34	0x3b345310	0.002751533
35	0x3b3ca6ca	0.0028785937
36	0xb9bdf573	-0.00036231763
37	0x3a489b28	0.00076525146
38	0xba624bd6	-0.0008632516
39	0x399ac743	0.0002952163
40	0x3b91b0c5	0.0044461214
41	0x3a2843a0	0.00064187683
42	0x3b967f4b	0.004592811
43	0xb9a999ed	-0.00032348876
44	0x399819ed	0.00029011015
45	0x3a1fba98	0.0006093173
46	0xbb39775c	-0.0028299903
47	0xb96e605f	-0.0002273335
48	0x3a04bc83	0.0005063491
49	0xbb3c2ae1	-0.0028712081
50	0x38b2fe9a	8.535125e-05
51	0x3a28982b	0.0006431366
52	0x39b5755f	0.00034610459
53	0x39c8c758	0.00038295495
54	0x39fe24cb	0.00048474068
55	0x3a1bedab	0.0005948196
56	0x39d9e6e0	0.0004156148
57	0x39ba0f77	0.00035488207
58	0x39c8753b	0.00038234316
59	0x396726f3	0.00022044386
60	0x3a4c06d8	0.0007783002
61	0x3947ef00	0.00019067153
62	0x3a4084bd	0.00073439983
63	0x396f8597	0.00022842582
64	0x3a087959	0.00052060705
65	0x39963261	0.00028647765
66	0x3c06d673	0.00822984
67	0x3be5c70d	0.007012254
68	0xbd09acb2	-0.03361196
69	0x3b3b0437	0.0028536448
70	0x3b8a9bea	0.004230012
71	0xbd11efb7	-0.035629
72	0x3c90aafe	0.01765966
73	0x3bdf1208	0.0068075694
74	0x3b0ce277	0.0021497288
75	0x3bb5245a	0.005528015
76	0x3b995453	0.0046792417
77	0x3bd2de6b	0.0064352057
78	0x3baa665f	0.005200192
79	0x3bcd3d01	0.0062633757
80	0x3bb2e4a2	0.005459384
81	0x3b220c65	0.0024726626
82	0x3c34d8a0	0.011037976
83	0x3b1c0fee	0.0023813206
84	0x3bfbadc8	0.0076806284
85	0x3b3268ef	0.002722319
86	0x3bb9d4ff	0.005671143
87	0x3b756a1f	0.0037447286
88	0x3a00878a	0.00049030094
89	0x3aa4b143	0.0012565035
90	0xbba85073	-0.0051365434
91	0xb9be6974	-0.00036318193
92	0x3a785ee4	0.0009474589
93	0xbbac9d1e	-0.0052677533
94	0x38c7be89	9.5245494e-05
95	0x3aad21d4	0.0013208934
96	0x3a4c8423	0.00078016723
97	0x3a58d61d	0.00082716515
98	0x39c9b218	0.00038470398
99	0x3ab6dd1d	0.0013951395
100	0x398fa859	0.00027400514
101	0x3a8273e2	0.0009952749
102	0x3a5139eb	0.0007981348
103	0x39db174f	0.000417883
104	0x3aaeacc6	0.0013326637
105	0x39c4884c	0.00037485582
106	0x3aa96051	0.0012922381
107	0x39ec8ae3	0.00045116906
108	0x3a8bf78a	0.0010678631
109	0x3a061204	0.0005114379
110	0x3bf47f7a	0.0074614855
111	0xbc25975c	-0.010106888
112	0x3d873a39	0.06602902
113	0x3c646acd	0.013941479
114	0xbc35ad42	-0.011088671
115	0x3d835dc4	0.06414369
116	0x3cc4e070	0.024032801
117	0xbc244498	-0.01002612
118	0xbbb9520b	-0.0056555322
119	0xbaf4016e	-0.0018616149
120	0xbc10a0c3	-0.008827391
121	0xbc96bc58	-0.018400356
122	0xbc2a9c4a	-0.010413239
123	0xbc5e23a5	-0.013558303
124	0xbbef9e2b	-0.0073125563
125	0xbb9c5ada	-0.0047715725
126	0xbc77e207	-0.015129573
127	0xbb85ddbd	-0.004085271
128	0xbc8b19a6	-0.016980004
129	0xbba8530e	-0.005136854
130	0xbc6fa5cd	-0.014626932
131	0xbbad9431	-0.005297207
132	0x3a4b88a6	0.00077641977
133	0xbabd217e	-0.0014429537
134	0x3c0e52c0	0.008686721
135	0x39c61f6e	0.0003778892
136	0xbacbc805	-0.0015547281
137	0x3c0a882f	0.00845532
138	0x3b5d048f	0.003372464
139	0xba45d6c8	-0.00075469585
140	0xba2ec3b8	-0.00066667376
141	0x3ad30c89	0.0016101758
142	0xbb388fb8	-0.0028161835
143	0xbb162752	-0.002291162
144	0xbaa4be5b	-0.0012568937
145	0xba8c76a6	-0.0010716512
146	0xbaf32146	-0.0018549345
147	0xba24a93c	-0.00062813214
148	0xbaf3a4f6	-0.0018588591
149	0xb9e7a36c	-0.00044181512
150	0xbb2d182c	-0.0026412113
151	0xba03329e	-0.0005004796
152	0xbae5d514	-0.0017534816
153	0xba0a9b71	-0.0005287445

exp_avg_sq f4 [7, 22]
0	0x37075f61	8.068834e-06
1	0x385b9d92	5.2360418e-05
2	0x39fb6d90	0.0004795608
3	0x3782ff1b	1.5616e-05
4	0x38330dcc	4.2689775e-05
5	0x39fc7797	0.00048154287
6	0x383d4684	4.5126784e-05
7	0x3858f9f3	5.1731196e-05
8	0x3839d290	4.430354e-05
9	0x369efa2e	4.7378917e-06
10	0x37304759	1.0507029e-05
11	0x378c7baf	1.6746895e-05
12	0x372d6721	1.0335615e-05
13	0x36a69448	4.9644477e-06
14	0x36e8124b	6.9162684e-06
15	0x36b03d35	5.252334e-06
16	0x38026a59	3.109346e-05
17	0x3662b98d	3.378463e-06
18	0x381c5dbc	3.7280595e-05
19	0x36846ca1	3.9465526e-06
20	0x37309aba	1.0526443e-05
21	0x36ba4045	5.550714e-06
22	0x3a7283da	0.0009251215
23	0x3a07b83a	0.0005177293
24	0x3be7b949	0.0070716483
25	0x394f4e19	0.00019770152
26	0x395c3aca	0.00021002736
27	0x3c047bea	0.008086184
28	0x3b626496	0.0034544817
29	0x3a20a82d	0.0006128576
30	0x3926ba66	0.00015900432
31	0x39d53d63	0.00040672263
32	0x395bf72c	0.00020977546
33	0x394103b1	0.0001840729
34	0x3911e833	0.00013914779
35	0x38aa530e	8.121702e-05
36	0x39449254	0.00018746528
37	0x387851e6	5.920408e-05
38	0x3a28747e	0.000642605
39	0x385d1c73	5.2717e-05
40	0x3a02e927	0.0004993849
41	0x3871f117	5.768341e-05
42	0x39114798	0.00013854948
43	0x38ffc3af	0.000121957964
44	0x366ca357	3.5261817e-06
45	0x363ecc66	2.8431182e-06
46	0x3836aca2	4.355296e-05
47	0x35d04b55	1.5519132e-06
48	0x35d5710a	1.5902635e-06
49	0x3843d78e	4.6692374e-05
50	0x37827448	1.5551355e-05
51	0x365ae492	3.2617577e-06
52	0x359be841	1.1615995e-06
53	0x36023a38	1.9405397e-06
54	0x359f023d	1.1847075e-06
55	0x35ab4bdf	1.2762574e-06
56	0x35875e60	1.008575e-06
57	0x350e5e66	5.303649e-07
58	0x35959a12	1.1146205e-06
59	0x34fe3e5c	4.735656e-07
60	0x3650a4c6	3.1090326e-06
61	0x34d3636f	3.937416e-07
62	0x3650b7b5	3.1101347e-06
63	0x34c1ec92	3.612118e-07
64	0x354e13f2	7.6770004e-07
65	0x3530780c	6.57398e-07
66	0x394b2049	0.00019371616
67	0x39db5919	0.00041837318
68	0x3c00b2a4	0.007855091
69	0x39c52372	0.00037601177
70	0x39bbbb9c	0.000358072
71	0x3bfce995	0.007718275
72	0x3ae60b8a	0.0017551046
73	0x39f2cd4d	0.00046310798
74	0x3982b793	0.00024932306
75	0x3905c485	0.00012757078
76	0x3971f4ba	0.00023074719
77	0x39be4ec9	0.00036298324
78	0x39356d08	0.00017302122
79	0x38b65ccc	8.695721e-05
80	0x3915538a	0.00014240868
81	0x38a38263	7.796732e-05
82	0x3a00b5cd	0.0004909903
83	0x384221f4	4.6284826e-05
84	0x3a18ef82	0.0005834029
85	0x387af281	5.9830494e-05
86	0x395aa382	0.00020851012
87	0x38a2c1e2	7.7608755e-05
88	0x369ea793	4.728275e-06
89	0x37afe4df	2.0968202e-05
90	0x39e90fae	0.00044452905
91	0x37795973	1.4862383e-05
92	0x378f2dd2	1.7068265e-05
93	0x39e5579e	0.00043743564
94	0x37ecd790	2.8233771e-05
95	0x37afbad1	2.0948619e-05
96	0x37163b01	8.954435e-06
97	0x36b5f10c	5.422282e-06
98	0x375dc619	1.321875e-05
99	0x3748cba2	1.1968341e-05
100	0x37e93380	2.7799746e-05
101	0x36c0e18b	5.7483026e-06
102	0x36e406fa	6.7957417e-06
103	0x3685f1da	3.991864e-06
104	0x3800a549	3.0671512e-05
105	0x362c1028	2.5639401e-06
106	0x38050905	3.171807e-05
107	0x3652cb9b	3.1410952e-06
108	0x37287abf	1.0042159e-05
109	0x369c5737	4.6593154e-06
110	0x385e2324	5.296165e-05
111	0x395cf745	0.0002107295
112	0x3bc97bef	0.0061488072
113	0x393f8511	0.0001826475
114	0x3940be50	0.00018381444
115	0x3bc5cab9	0.0060361293
116	0x3a0ec557	0.0005446276
117	0x39654dc4	0.00021868112
118	0x38bc3053	8.97354e-05
119	0x3831fc61	4.2435135e-05
120	0x394a54de	0.00019295837
121	0x39a72ed8	0.00031887623
122	0x392ac4c3	0.00016285763
123	0x395ac9b2	0.00020865237
124	0x38bd27c9	9.019633e-05
125	0x383f4d36	4.5609857e-05
126	0x39d3f657	0.00040428594
127	0x38022c63	3.1035754e-05
128	0x39dcf26a	0.00042142282
129	0x383232fc	4.248599e-05
130	0x39476f27	0.00019019526
131	0x385b0ae4	5.222381e-05
132	0x3864c10a	5.4539218e-05
133	0x38715fee	5.754822e-05
134	0x3a990ddb	0.0011677103
135	0x373f8609	1.1415695e-05
136	0x3810885f	3.445928e-05
137	0x3aa188c7	0.0012324088
138	0x39395de7	0.00017677956
139	0x38744d86	5.8246333e-05
140	0x379ad2a4	1.8456318e-05
141	0x3803020a	3.1234733e-05
142	0x384712cb	4.74628e-05
143	0x3811a8c6	3.4727876e-05
144	0x37c24c7c	2.3162218e-05
145	0x37500f67	1.2401352e-05
146	0x387a0637	5.9610433e-05
147	0x371d3425	9.37007e-06
148	0x38bec0e8	9.0958376e-05
149	0x36eeecd5	7.1205236e-06
150	0x38b0a058	8.4222e-05
151	0x3707c140	8.091622e-06
152	0x37d76380	2.567633e-05
153	0x3765f82f	1.3707248e-05

exp_avg f4 [7, 7]
0	0xb9b27fdd	-0.0003404607
1	0x3aeb8e8f	0.0017971563
2	0x39b061b0	0.0003364212
3	0x3b28db7a	0.0025765584
4	0x3a2824bd	0.0006414166
5	0x3b36fbf7	0.002792118
6	0x3a83467a	0.001001551
7	0x3a54f061	0.00081229775
8	0xbc6d9ed9	-0.014503204
9	0x388d05f7	6.724515e-05
10	0x3bfa08c8	0.0076304413
11	0x3ad8c2c6	0.0016537539
12	0x3c41c604	0.011826996
13	0x3b06cdca	0.0020569437
14	0x392738ed	0.00015947568
15	0x3a6472f7	0.0008714641
16	0x38f8189c	0.000118301454
17	0x3a2318bb	0.00062216417
18	0x3941f8ea	0.00018498642
19	0x3a354f11	0.0006916384
20	0x39a7bd71	0.00031993867
21	0x3b026fe8	0.0019903127
22	0x3c69af1a	0.014262939
23	0x3abfb5e2	0.0014626349
24	0xbb766263	-0.0037595264
25	0x3b26eae6	0.00254696
26	0x3c5f1788	0.01361645
27	0x3bb7ae71	0.005605512
28	0x39a972d9	0.0003231976
29	0x3ad9ef82	0.0016627165
30	0x394916c1	0.0001917733
31	0x3ab1598c	0.0013530715
32	0xba9d0046	-0.0011978231
33	0x3b30290c	0.0026879935
34	0x39e03c6f	0.00042769636
35	0xbb314716	-0.0027050427
36	0xbbd70606	-0.0065619973
37	0xbb26b822	-0.0025439342
38	0xbc0b28fc	-0.008493658
39	0xbb831b2b	-0.0040010414
40	0xbd24c570	-0.040227354
41	0xbac32a58	-0.0014889939
42	0xb9c916d6	-0.00038354722
43	0x3b2aba8c	0.0026051132
44	0xb9b70192	-0.0003490565
45	0xbaa3859f	-0.0012475735
46	0xb97dd8f3	-0.0002420878
47	0x3a473555	0.00075991947
48	0xbc1b8329	-0.00949172

exp_avg_sq f4 [7, 7]
0	0x3825649b	3.943276e-05
1	0x379515a7	1.7772267e-05
2	0x35d15c19	1.5598517e-06
3	0x38784a45	5.9196977e-05
4	0x3624161c	2.4450774e-06
5	0x37453b18	1.1755874e-05
6	0x367ad21f	3.737521e-06
7	0x380b22bc	3.317253e-05
8	0x3af8d2b6	0.0018983695
9	0x37bab2aa	2.2256125e-05
10	0x3a06e955	0.00051464635
11	0x38038761	3.1358915e-05
12	0x38e557fb	0.000109359586
13	0x3897b100	7.23321e-05
14	0x34e7ba71	4.3162757e-07
15	0x3706c285	8.0323125e-06
16	0x3432e2d2	1.6660059e-07
17	0x3688cb42	4.076778e-06
18	0x347984aa	2.3238195e-07
19	0x3598a5fe	1.1373193e-06
20	0x3525f213	6.1819554e-07
21	0x38318f2c	4.2333428e-05
22	0x3a0ad799	0.0005296409
23	0x37a0fcbc	1.9191175e-05
24	0x3ada0f2a	0.0016636599
25	0x38279d16	3.99622e-05
26	0x3944106f	0.00018698139
27	0x38572ed2	5.13036e-05
28	0x3651d6f8	3.1268555e-06
29	0x37ce721f	2.4610255e-05
30	0x35a1f8b1	1.2067813e-06
31	0x37de8568	2.6526584e-05
32	0x3807b881	3.235834e-05
33	0x3736b890	1.0891017e-05
34	0x365e163d	3.3093522e-06
35	0x37a3b491	1.9515197e-05
36	0x396d8e1f	0.00022655026
37	0x374ffb7f	1.23967175e-05
38	0x39ab60b5	0.00032687714
39	0x3800f330	3.0744064e-05
40	0x3a927b17	0.00111756
41	0x37f2af1c	2.893019e-05
42	0x369fe580	4.7652866e-06
43	0x3918b509	0.0001456329
44	0x3645e651	2.948935e-06
45	0x384e16c8	4.9135444e-05
46	0x36c0b6fa	5.743347e-06
47	0x378df168	1.6920923e-05
48	0x3900aecb	0.00012272147

exp_avg f4 [7]
0	0x3c103685	0.008802061
1	0x3c1c7c9b	0.009551193
2	0x3b42b3f6	0.0029709316
3	0x3d124f5e	0.03572022
4	0x3bb2c030	0.0054550394
5	0xbd8735ca	-0.06602056
6	0xbc08bc80	-0.008345723

exp_avg_sq f4 [7]
0	0x3a0e36e6	0.00054250506
1	0x3c0becc5	0.008540337
2	0x38524ebb	5.0141225e-05
3	0x3c0b85b0	0.00851576
4	0x39f8a6c7	0.00047426505
5	0x3bd2ab3b	0.0064291037
6	0x3aa8613a	0.0012846359

exp_avg f4 [7]
0	0x3c1036ee	0.008802159
1	0x3c1c70a7	0.009548343
2	0x3b42a23b	0.0029698748
3	0x3d124ba1	0.035716657
4	0x3bb2ae8d	0.005452937
5	0xbd8736d4	-0.066022545
6	0xbc08b2e4	-0.008343432

exp_avg_sq f4 [7]
0	0x3a0e36ed	0.00054250547
1	0x3c0becd2	0.008540349
2	0x38524968	5.0136267e-05
3	0x3c0b85b0	0.00851576
4	0x39f8a658	0.00047426182
5	0x3bd2ab74	0.00642913
6	0x3aa86158	0.0012846394

exp_avg f4 [7, 22]
0	0xbbbddb74	-0.005793983
1	0x3a273b72	0.00063794025
2	0xbcbc56a2	-0.022990528
3	0xbbff7a02	-0.007796527
4	0x3ab149af	0.0013525988
5	0xbcb041b0	-0.021515697
6	0xbc9d5ac9	-0.019208329
7	0x3ada2775	0.0016643839
8	0x3a10c1d2	0.00055220455
9	0x3aef397f	0.0018251388
10	0x3b7f6645	0.003897087
11	0x3be24d4d	0.0069061876
12	0x3b3e2b1e	0.00290174
13	0x3b88c819	0.004174244
14	0x3b3d73e8	0.0028908197
15	0x3b1b1a48	0.0023666788
16	0x3b11ad0b	0.0022228386
17	0x3b0c5513	0.0021413013
18	0x3afc372b	0.0019242516
19	0x3bcd37c0	0.0062627494
20	0x3b6f4e75	0.003651527
21	0x3b96650d	0.004589683
22	0xbba08cb8	-0.0048995875
23	0x3b37bd06	0.002803625
24	0xbcf3acfe	-0.029745575
25	0xbc2dbe07	-0.010604388
26	0x3b5fe37d	0.0034162693
27	0xbce81cda	-0.02833407
28	0xbca3a9eb	-0.019978484
29	0x3b856ffe	0.0040721884
30	0x3b63683d	0.0034699582
31	0x3ad7fc39	0.0016478366
32	0x3ba36ce5	0.0049873465
33	0x3c0cde8b	0.00859798
34	0x3b67b563	0.0035355918
35	0x3b956a89	0.004559819
36	0x3b758e35	0.0037468795
37	0x3b4f89a0	0.0031667724
38	0x3b4938e3	0.0030704073
39	0x3b4322c1	0.0029775354
40	0x3b25dd77	0.0025309005
41	0x3c08d13e	0.0083506685
42	0x3b9c91a3	0.0047781034
43	0x3bba54e4	0.0056863893
44	0xbbec6c22	-0.007215039
45	0x3aad0b27	0.0013202176
46	0xbc841123	-0.016121453
47	0xbc29be72	-0.010360347
48	0x3b3753d3	0.0027973547
49	0xbc68a05f	-0.014198392
50	0xbcb88f34	-0.022529222
51	0x3b0942f0	0.002094444
52	0x3af1f96e	0.0018461177
53	0x3aaed82f	0.0013339574
54	0x3a6e70dd	0.00090957974
55	0x3b9d09f3	0.004792446
56	0x3aec98a2	0.0018050859
57	0x3b37c834	0.0028042914
58	0x3b046f6e	0.0020208019
59	0x3adacfff	0.0016694068
60	0x3a8f1cca	0.0010918614
61	0x3a089d02	0.0005211384
62	0x3aad3100	0.0013213456
63	0x3ba32f8d	0.0049800337
64	0x3b1f2861	0.0024285542
65	0x3b64e3f4	0.003492591
66	0xbb1e1341	-0.0024120363
67	0x3a921dcc	0.0011147796
68	0xbc7e4e7a	-0.01552164
69	0xbbac6a8d	-0.0052617253
70	0x3ad7db3a	0.0016468533
71	0xbc728b45	-0.014803712
72	0xbc23918f	-0.009983434
73	0x3aedce4a	0.0018143144
74	0x3ad64cc9	0.0016349788
75	0x3aa55b16	0.0012615647
76	0x3b2b48bf	0.002613589
77	0x3b84e3da	0.0040554823
78	0x3ad65b1e	0.0016354059
79	0x3b284427	0.0025675388
80	0x3b10a4e1	0.0022070932
81	0x3ad78dad	0.0016445421
82	0x3ad6bfff	0.0016384124
83	0x3ad179a5	0.0015981687
84	0x3aae5966	0.0013301789
85	0x3b8c03a1	0.0042728935
86	0x3b206b25	0.0024477926
87	0x3b462298	0.0030233022
88	0x3c5a72ec	0.013333064
89	0xbc269b6f	-0.010168894
90	0x3db0e05d	0.08636544
91	0x3ceee14c	0.029160164
92	0xbc354e0b	-0.01106597
93	0x3da747e2	0.081680074
94	0x3d7fca44	0.062448755
95	0xbc433534	-0.01191454
96	0xbc1eb905	-0.009687667
97	0xbbc47e5b	-0.005996508
98	0xbc3c9667	-0.011510468
99	0xbce90d80	-0.02844882
100	0xbc4f2566	-0.012643194
101	0xbc32e9a2	-0.01091996
102	0xbc098bf1	-0.008395181
103	0xbc19d09c	-0.009388115
104	0xbc13448e	-0.008988513
105	0xbc0a6e1f	-0.0084491065
106	0xbbe59cb8	-0.0070072077
107	0xbcc7d999	-0.02439575
108	0xbc65d9f1	-0.014029012
109	0xbc7b815d	-0.015350667
110	0xba422e5d	-0.00074074214
111	0x3a45dddf	0.0007548015
112	0xbbc7d94d	-0.0060989023
113	0x3b232c9d	0.0024898418
114	0x38fad302	0.00011960232
115	0xbc0065e7	-0.007836795
116	0x3bb0766c	0.0053852107
117	0x396424da	0.00021757503
118	0x3ae0307e	0.0017104296
119	0x3a020ab1	0.00049606996
120	0x3b90be65	0.004417228
121	0x3b5899f4	0.0033050748
122	0x3b3c0b89	0.00286934
123	0xbbca726a	-0.00617819
124	0x39fda774	0.00048380683
125	0x39bb4ad1	0.00035723162
126	0x3a941df1	0.0011300427
127	0x3a83dcf8	0.0010060361
128	0x39e5965d	0.00043790313
129	0x3b01229f	0.0019704474
130	0x3acfa6e1	0.001584258
131	0x3a20d4fb	0.0006135252
132	0x3b9b05ea	0.0047309296
133	0x3bd4fd82	0.006499947
134	0xbc594985	-0.013262157
135	0xbb6f67f7	-0.0036530474
136	0x3b9bb8e4	0.0047522653
137	0xbc3ad3d4	-0.011403043
138	0xbc1ea3c4	-0.009682599
139	0x3baf0219	0.005340826
140	0x3b2a555e	0.0025990824
141	0x395effaa	0.00021266812
142	0xbb6bf602	-0.0036004786
143	0x3bf5a69e	0.007496669
144	0x3b42c208	0.0029717702
145	0x3b93839c	0.004501773
146	0xba905b0c	-0.0011013462
147	0x3b0aec55	0.0021197994
148	0x3adab96d	0.0016687341
149	0x3afae14b	0.0019140629
150	0x3a614238	0.0008592936
151	0x3b6ab325	0.0035812345
152	0x3b075250	0.0020648427
153	0x3a65074b	0.00087367435

exp_avg_sq f4 [7, 22]
0	0x390db307	0.00013513501
1	0x3925305f	0.00015753646
2	0x3abeb9c5	0.0014551213
3	0x393445ef	0.0001719219
4	0x393db999	0.00018093585
5	0x3abafd6d	0.0014266201
6	0x399794a0	0.000289117
7	0x39546ed8	0.00020259188
8	0x3923d9a3	0.00015625967
9	0x37bd8309	2.2591574e-05
10	0x37ff8d8d	3.0464284e-05
11	0x38714d25	5.7530724e-05
12	0x37c9ef27	2.4072431e-05
13	0x37b88a98	2.1999047e-05
14	0x37ae86dc	2.0805215e-05
15	0x380f00c2	3.4094563e-05
16	0x383016fc	4.1983076e-05
17	0x37bb254b	2.2309503e-05
18	0x37ef82bf	2.8551904e-05
19	0x388c616b	6.693866e-05
20	0x382d945f	4.1384596e-05
21	0x3822ef43	3.884664e-05
22	0x3a198277	0.00058559276
23	0x3764e0af	1.3642172e-05
24	0x3b31860f	0.0027087962
25	0x3985a2e0	0.00025489088
26	0x374c84a7	1.2190233e-05
27	0x3b475878	0.0030417722
28	0x3ac839db	0.0015276031
29	0x37a6e3e2	1.9894858e-05
30	0x38270eee	3.9829807e-05
31	0x39897028	0.0002621424
32	0x38914ea9	6.9287904e-05
33	0x38c871ba	9.5579264e-05
34	0x38347003	4.3019663e-05
35	0x37eae33c	2.8000788e-05
36	0x3856be91	5.1199055e-05
37	0x38533d8f	5.036365e-05
38	0x38e4f885	0.000109181776
39	0x38b257a0	8.504023e-05
40	0x38544a59	5.061398e-05
41	0x38a2f779	7.770857e-05
42	0x38aab186	8.139298e-05
43	0x38505f85	4.9680024e-05
44	0x3a96637e	0.0011473743
45	0x381f6bc9	3.8008937e-05
46	0x3b48820d	0.0030595094
47	0x39dba217	0.000418917
48	0x369d17b5	4.6817245e-06
49	0x3b7958ac	0.0038047237
50	0x3b7f9290	0.003899727
51	0x385d4836	5.2757758e-05
52	0x3848d330	4.78804e-05
53	0x384333f5	4.654001e-05
54	0x39c42e8e	0.0003741872
55	0x390cf82f	0.00013443896
56	0x38820b72	6.201015e-05
57	0x384e8bb8	4.924435e-05
58	0x3856c1b1	5.1201965e-05
59	0x3864d96f	5.4561937e-05
60	0x3913128d	0.00014025923
61	0x391b7149	0.00014824154
62	0x382e3dd0	4.15424e-05
63	0x38cf378f	9.880878e-05
64	0x38ff4705	0.00012172576
65	0x384fca52	4.954107e-05
66	0x381b5845	3.7037087e-05
67	0x369d4130	4.6865534e-06
68	0x39ce461c	0.00039343617
69	0x38772075	5.8919617e-05
70	0x36df7f2a	6.6607217e-06
71	0x39c212e6	0.00037016644
72	0x397686f6	0.00023510665
73	0x370c9c29	8.381009e-06
74	0x36cd1a94	6.11257e-06
75	0x36fa3df6	7.457794e-06
76	0x376cbb37	1.41102855e-05
77	0x3788083f	1.6216303e-05
78	0x36e568b6	6.836922e-06
79	0x3727b3df	9.995855e-06
80	0x3782e2d4	1.5602833e-05
81	0x36f6eacf	7.3587066e-06
82	0x370305a1	7.809519e-06
83	0x36759396	3.6593751e-06
84	0x3744b6bc	1.17250565e-05
85	0x375eb89f	1.3275217e-05
86	0x37306bf1	1.051555e-05
87	0x3765d50d	1.3699068e-05
88	0x39a2e4e2	0.0003106958
89	0x3938e8ff	0.00017634405
90	0x3c05bba3	0.008162412
91	0x3a8661e2	0.001025256
92	0x397a0251	0.00023842721
93	0x3bf1cc09	0.007379059
94	0x3b91b50f	0.0044466327
95	0x3999e81a	0.00029355363
96	0x38fa0a85	0.000119228884
97	0x38842363	6.300842e-05
98	0x396e96d2	0.00022753634
99	0x3a1b56f6	0.0005925739
100	0x3951ff2a	0.00020026849
101	0x390ca668	0.00013413432
102	0x3916a80a	0.00014367714
103	0x39167eda	0.0001435237
104	0x3901621f	0.00012338952
105	0x38961776	7.156927e-05
106	0x3917761b	0.0001444448
107	0x39cca78d	0.00039034747
108	0x3968b759	0.00022193546
109	0x3992809f	0.0002794312
110	0x39a6b870	0.00031799404
111	0x382c1211	4.102482e-05
112	0x3b9075f3	0.004408592
113	0x3a70bc1e	0.0009183305
114	0x38a10c26	7.679341e-05
115	0x3b77a493	0.0037787303
116	0x3b5bc851	0.0033536146
117	0x38d06e0c	9.938711e-05
118	0x385023c4	4.9624374e-05
119	0x38551d9c	5.0810733e-05
120	0x38d3f08e	0.00010106071
121	0x395ab6d7	0.00020858213
122	0x3880afd5	6.136267e-05
123	0x397127ea	0.0002299842
124	0x38df25a3	0.00010640479
125	0x38ab8e75	8.18045e-05
126	0x3889bcd5	6.567842e-05
127	0x382c9277	4.11444e-05
128	0x38c57ac2	9.4165574e-05
129	0x3955a0f7	0.00020373227
130	0x38d94ac1	0.0001036129
131	0x39377c88	0.00017498631
132	0x39cf9b3e	0.0003959778
133	0x37ba04c4	2.2175147e-05
134	0x3baa6ce2	0.005200968
135	0x3a373888	0.000698932
136	0x383bb4a1	4.4752498e-05
137	0x3ba02d22	0.0048881928
138	0x3b2166a7	0.0024627836
139	0x3860fff7	5.3644148e-05
140	0x3869c1a6	5.5731878e-05
141	0x386bf113	5.6252884e-05
142	0x39946990	0.0002830741
143	0x394f86f1	0.00019791328
144	0x389c7264	7.4599666e-05
145	0x3887c3b4	6.473754e-05
146	0x398f4341	0.00027325194
147	0x389471dc	7.078398e-05
148	0x389553d3	7.120487e-05
149	0x38202c32	3.8188133e-05
150	0x39008b99	0.00012259035
151	0x3985a291	0.00025488858
152	0x390ede0d	0.00013624896
153	0x3968cb8e	0.00022201074

exp_avg f4 [7, 7]
0	0xb9eb09ce	-0.00044829998
1	0x3acf5670	0.0015818607
2	0x3ad668f5	0.0016358184
3	0x3aa1f225	0.001235549
4	0x3c2fa0fa	0.010719532
5	0x3b970628	0.004608888
6	0x3b7aa432	0.003824484
7	0x3b15d8a3	0.0022864721
8	0x3a7aa53c	0.0009561365
9	0x3b1ef793	0.0024256452
10	0x3ad72d3d	0.001641668
11	0x3c5c62d3	0.013451296
12	0x3b961c21	0.00458099
13	0x3baaf34b	0.005216991
14	0x3ab64e27	0.0013908789
15	0x3a8584fc	0.0010186727
16	0xbb2c2601	-0.002626777
17	0x3a5a833b	0.0008335595
18	0x3c085ef2	0.008323418
19	0x3b5a7649	0.0033334664
20	0x3b54092c	0.00323541
21	0x3a9306f0	0.0011217277
22	0x3a8ecd49	0.001089492
23	0x3a921549	0.001114526
24	0x3a5ce7b9	0.00084268634
25	0x3bb445f8	0.005501505
26	0x3b3ad011	0.0028505365
27	0x3b62b522	0.0034592827
28	0xbbb971d7	-0.0056593227
29	0xbbc382c4	-0.005966516
30	0xbba4c230	-0.0050280318
31	0xbb97f0ac	-0.0046368446
32	0xbd5b1e85	-0.053495903
33	0xbbe1d544	-0.0068918783
34	0xbbc1f473	-0.005919033
35	0x39474a60	0.00019005826
36	0x3a2d6c52	0.0006615567
37	0x3a6b126f	0.00089672854
38	0x37798141	1.4871651e-05
39	0x3c727cfd	0.014800307
40	0xbc59d54b	-0.013295482
41	0x3b7c3cfe	0.0038488503
42	0x3b075e9f	0.0020655764
43	0x3ac14de5	0.0014747946
44	0x3af3b900	0.0018594563
45	0x3a194bcc	0.00058477814
46	0x3c82332d	0.015893543
47	0x3b97c3cd	0.0046314956
48	0xbc5c1ae1	-0.013434143

exp_avg_sq f4 [7, 7]
0	0x3945c5ba	0.00018861043
1	0x381ac661	3.6901216e-05
2	0x3795d091	1.7859305e-05
3	0x3780f88a	1.5374524e-05
4	0x389ce5b0	7.481442e-05
5	0x381e6684	3.776561e-05
6	0x37d8b4bd	2.583337e-05
7	0x37fa4467	2.9834175e-05
8	0x3a14d48c	0.0005677424
9	0x3884ef96	6.338877e-05
10	0x37bda723	2.2608385e-05
11	0x38bb60df	8.9348985e-05
12	0x3833bce0	4.285283e-05
13	0x3828f008	4.0277868e-05
14	0x37f12373	2.8745946e-05
15	0x38c93b86	9.595514e-05
16	0x3a45291b	0.0007521079
17	0x37a8096b	2.0031546e-05
18	0x387b2a95	5.988272e-05
19	0x388c90ed	6.702715e-05
20	0x37e4a02d	2.7254306e-05
21	0x36b002db	5.245541e-06
22	0x373fc76b	1.1430918e-05
23	0x36ca7e60	6.034781e-06
24	0x36bccc69	5.626633e-06
25	0x37bd126b	2.2539132e-05
26	0x37b0ce77	2.1076978e-05
27	0x38204c12	3.821782e-05
28	0x38a3a1b5	7.802566e-05
29	0x388ae86b	6.623644e-05
30	0x38889d4c	6.514284e-05
31	0x388c31bf	6.684986e-05
32	0x3ad5a389	0.0016299348
33	0x390b256d	0.00013270015
34	0x39673ace	0.00022051783
35	0x38380d1f	4.388124e-05
36	0x3879895e	5.949416e-05
37	0x3857ce08	5.1451876e-05
38	0x384ae86a	4.8377005e-05
39	0x3977b96a	0.00023624828
40	0x3a0ed74b	0.0005448951
41	0x3911f98a	0.00013921238
42	0x382393a6	3.8999737e-05
43	0x38269269	3.971384e-05
44	0x37e942e9	2.7806922e-05
45	0x387b30dd	5.988857e-05
46	0x39818cc1	0.00024709667
47	0x38af0a90	8.346618e-05
48	0x3a80cc54	0.000982652

exp_avg f4 [7]
0	0x3cbda978	0.023152098
1	0x3cfa4496	0.030550282
2	0x3c7df2bd	0.015499768
3	0x3c82f482	0.015985731
4	0xbdb36d69	-0.08761103
5	0x3be90887	0.0071116122
6	0x3c56594e	0.013082815

exp_avg_sq f4 [7]
0	0x3aeb0b45	0.0017932436
1	0x3b593776	0.003314463
2	0x3b8b4889	0.00425059
3	0x39e54a2b	0.00043733543
4	0x3c0e3597	0.008679769
5	0x3b9d056d	0.0047919066
6	0x3bb90dce	0.0056473976

exp_avg f4 [7]
0	0x3cbdb148	0.023155823
1	0x3cfa4f94	0.030555524
2	0x3c7defc3	0.015499058
3	0x3c82fcac	0.015989624
4	0xbdb36e86	-0.08761315
5	0x3be8e68f	0.007107563
6	0x3c564143	0.013077083

exp_avg_sq f4 [7]
0	0x3aeb0c32	0.0017932712
1	0x3b59380c	0.0033144979
2	0x3b8b489f	0.0042506005
3	0x39e55204	0.0004373939
4	0x3c0e35cf	0.008679821
5	0x3b9d053c	0.0047918838
6	0x3bb90de8	0.0056474097

exp_avg f4 [7, 22]
0	0xbbf626bc	-0.0075119417
1	0xbbcf0b20	-0.006318465
2	0x3cb9d260	0.022683322
3	0x3bc63a1c	0.0060494076
4	0xbbfe27a0	-0.0077561885
5	0x3cca2c5a	0.024679352
6	0xbbc02f57	-0.0058650183
7	0xbbec1040	-0.0072040856
8	0xbb8dd89b	-0.0043288
9	0xbabc7120	-0.0014376976
10	0x3aba9f7a	0.0014238202
11	0xbbfdd214	-0.0077459905
12	0xbb94c9b4	-0.0045406464
13	0xbb207257	-0.0024482214
14	0xbb7a68fb	-0.0038209546
15	0xbb9b3b1f	-0.0047372724
16	0xbaf76820	-0.0018875636
17	0xbbb91d2c	-0.0056492295
18	0xbb448352	-0.00299855
19	0xbad91c78	-0.001656427
20	0xbb72a402	-0.0037024026
21	0xbb14e74a	-0.0022720867
22	0x3aceba9e	0.0015772169
23	0x38f883d0	0.000118501135
24	0xbbf6ee70	-0.007535748
25	0x3a6bdc78	0.0008997391
26	0x37b1cb42	2.1194694e-05
27	0xbbfad535	-0.007654811
28	0x3b3bf14b	0.0028677757
29	0x375e815a	1.3262348e-05
30	0x3a530984	0.0008050429
31	0x3a07d242	0.0005181172
32	0x3a77af87	0.0009448458
33	0x3b00d270	0.001965668
34	0x3a97852d	0.0011560075
35	0x3ad2d3aa	0.0016084809
36	0x3a87907c	0.0010342742
37	0x3ac5dda1	0.0015095958
38	0x3a191e1e	0.00058409746
39	0x3b0fa1d0	0.0021916516
40	0x3a90ac01	0.0011037589
41	0x3a2c15bc	0.0006564518
42	0x3a837333	0.0010028839
43	0x3a802deb	0.000977931
44	0xbc09fc3d	-0.008421955
45	0x3b2ebd56	0.0026663146
46	0x3c151e8f	0.009101524
47	0xbc46418e	-0.01210059
48	0x3aa37b4b	0.0012472657
49	0x3c12e2a1	0.008965165
50	0xbca08ba1	-0.01959783
51	0x3b0b3df9	0.0021246655
52	0x3a11bb94	0.00055592624
53	0xba8bb02e	-0.0010657364
54	0xbbc85786	-0.006113949
55	0xba3f497b	-0.0007297021
56	0xbae46b8c	-0.0017427071
57	0x3ad3fe2a	0.0016173769
58	0xbb1e7553	-0.0024178817
59	0xbb5f408e	-0.0034065577
60	0xb9c63523	-0.00037805093
61	0xbb839bce	-0.004016376
62	0xba66362b	-0.00087818754
63	0xba103ec6	-0.0005502518
64	0x39a2f516	0.0003108165
65	0xba816e27	-0.0009874747
66	0xbc44205e	-0.011970608
67	0x3b0316e3	0.0020002655
68	0xba8e0d1d	-0.0010837648
69	0xbc585cd9	-0.01320573
70	0x3b7f959e	0.003899909
71	0xba1dc621	-0.0006018598
72	0xbcf10aa7	-0.029424025
73	0x3b035d5a	0.0020044656
74	0xba82919a	-0.0009961606
75	0xba14347a	-0.00056535716
76	0xba7dc724	-0.00096808583
77	0xbaea9956	-0.0017898481
78	0xb9b7a9cf	-0.00035030997
79	0x39c0b344	0.00036754657
80	0x3ab55ff1	0.0013837797
81	0xba8e2f28	-0.0010847794
82	0xb9f66c0e	-0.00047001283
83	0xb8993277	-7.305008e-05
84	0xba8bd4fc	-0.0010668333
85	0xba79e97e	-0.0009533389
86	0x39d0c7f7	0.00039821837
87	0x39aa5565	0.0003248855
88	0x3b71ffca	0.0036926144
89	0x38a5b503	7.901529e-05
90	0xbc4e997d	-0.012609837
91	0x3b2bc403	0.0026209361
92	0xb7c3425b	-2.327671e-05
93	0xbc537625	-0.012906586
94	0x3be7368b	0.0070560626
95	0xb762ee13	-1.3526081e-05
96	0x3a99aa1a	0.0011723668
97	0x3a990282	0.0011673721
98	0x3af0fc1d	0.0018385682
99	0x3b5d1060	0.0033731684
100	0x3b0e5eb9	0.002172394
101	0x3b0e3446	0.0021698638
102	0x3adce5be	0.0016853136
103	0x3b2e74b2	0.0026619849
104	0x3a80173c	0.0009772549
105	0x3b7940e5	0.0038033065
106	0x3af0b7fc	0.0018365378
107	0x3a9502cb	0.001136863
108	0x3ac9ea59	0.0015404924
109	0x3ad39fc3	0.0016145635
110	0x3c68ad89	0.01420153
111	0x39d4c5fc	0.000405833
112	0x3c1b44cd	0.009476853
113	0x3c2044af	0.009782
114	0x3b15b3b9	0.0022842719
115	0x3c180e95	0.00928082
116	0x3cd4750e	0.025934722
117	0x3b15ad03	0.0022838719
118	0xb92e88f2	-0.00016644949
119	0xba37276e	-0.00069867715
120	0x39c37241	0.00037278424
121	0xbac78984	-0.0015223478
122	0x39f3ad6a	0.00046477775
123	0xbbdb15b1	-0.0066859354
124	0xba0359b7	-0.0005010622
125	0x38d4a0c0	0.0001013889
126	0xba22c14e	-0.0006208614
127	0xbb1478ed	-0.0022655085
128	0xbaabbf36	-0.001310325
129	0xba02a71a	-0.00049840065
130	0xbb1a1d65	-0.0023516056
131	0xbaebc1df	-0.0017986855
132	0x3c127d7e	0.0089410525
133	0xb9e4569a	-0.00043552072
134	0xbc1be4f7	-0.009515039
135	0x3c1be6ac	0.009515446
136	0x389284a4	6.986529e-05
137	0xbc2e6410	-0.010643974
138	0x3cae842a	0.021303255
139	0xb8a40157	-7.820379e-05
140	0x3a9236cd	0.0011155248
141	0x3a64b6e9	0.00087247655
142	0x3b3ae7ec	0.0028519584
143	0x3b5abeeb	0.0033377956
144	0x3b00cfbc	0.001965507
145	0xb8b70832	-8.7276465e-05
146	0x3aa53464	0.0012604115
147	0x3b603775	0.0034212742
148	0x3a47e9f9	0.0007626112
149	0x3b69bd85	0.003566594
150	0x3abbee90	0.0014338065
151	0x3a54329b	0.0008094699
152	0x3a289d52	0.0006432134
153	0x3a31f5c4	0.0006788636

exp_avg_sq f4 [7, 22]
0	0x3a0e8f93	0.00054382643
1	0x38cbbf63	9.715443e-05
2	0x3bb757fa	0.0055952044
3	0x396e7407	0.00022740672
4	0x391ad21c	0.00014764856
5	0x3bc01f1d	0.005863084
6	0x3aceaaeb	0.001576749
7	0x3902d5ae	0.00012477368
8	0x39a6f053	0.00031841043
9	0x3862f3ab	5.4109532e-05
10	0x38c830e0	9.545847e-05
11	0x39a2a48d	0.00031021648
12	0x39149081	0.00014168212
13	0x38b119b7	8.4448075e-05
14	0x39070ccf	0.00012879375
15	0x395ac6a5	0.00020864101
16	0x382824e9	4.0088697e-05
17	0x39cc7c12	0.00039002352
18	0x38cffca5	9.917588e-05
19	0x38c47340	9.367475e-05
20	0x38db1eb4	0.00010448453
21	0x38bf3882	9.118115e-05
22	0x38047aa7	3.158548e-05
23	0x35ae4562	1.2984203e-06
24	0x39335b0c	0.00017104688
25	0x3729db30	1.01242185e-05
26	0x3536c4b1	6.8086507e-07
27	0x394aa292	0.00019324783
28	0x38aba4f9	8.184644e-05
29	0x35cd7111	1.5306597e-06
30	0x3681d0dd	3.8688145e-06
31	0x37683d99	1.3842619e-05
32	0x36372fec	2.729702e-06
33	0x36bec894	5.6857916e-06
34	0x3658c8c9	3.230338e-06
35	0x3667ac3a	3.4521931e-06
36	0x366f3b67	3.5648352e-06
37	0x36d4638c	6.329681e-06
38	0x35a79a3c	1.2487358e-06
39	0x373f1710	1.1389857e-05
40	0x3658b96f	3.2294445e-06
41	0x36bc3248	5.60869e-06
42	0x3628e45f	2.516688e-06
43	0x3651ba45	3.125185e-06
44	0x3a0f3284	0.00054625445
45	0x376afda5	1.4006543e-05
46	0x3bb1eee0	0.0054300874
47	0x3a22a14a	0.00062038435
48	0x37a3b2f4	1.9514446e-05
49	0x3baf33ed	0.005346766
50	0x3b1b5fae	0.0023708153
51	0x377d0d49	1.5083068e-05
52	0x3884f317	6.3395295e-05
53	0x3887e928	6.4807304e-05
54	0x39b73118	0.00034941058
55	0x39537d90	0.00020169304
56	0x38ec1775	0.00011257726
57	0x38af494d	8.3583036e-05
58	0x391eb9a3	0.00015137209
59	0x39738cb6	0.00023226705
60	0x3802e5de	3.1208496e-05
61	0x39c82f28	0.00038182107
62	0x38ad68b6	8.268787e-05
63	0x38f168ee	0.0001151132
64	0x388b4749	6.6413144e-05
65	0x38dff334	0.00010678769
66	0x3a48a946	0.0007654618
67	0x36fcd025	7.5344165e-06
68	0x3b139995	0.0022521962
69	0x3a176e4b	0.0005776628
70	0x37eaef43	2.8006389e-05
71	0x3b1ed4fd	0.0024235838
72	0x3b660f13	0.00351042
73	0x37212d39	9.606877e-06
74	0x38703f54	5.7279438e-05
75	0x380d2658	3.365273e-05
76	0x38a98a7b	8.084342e-05
77	0x391b20b4	0.00014794135
78	0x3884ca1c	6.331896e-05
79	0x386a6e04	5.5892408e-05
80	0x383dfee3	4.5298493e-05
81	0x39083942	0.00012991301
82	0x379c4308	1.8627863e-05
83	0x39311fb2	0.00016891843
84	0x38530d7a	5.031887e-05
85	0x388093ec	6.131068e-05
86	0x38109893	3.447437e-05
87	0x382e8910	4.1612482e-05
88	0x383edd0f	4.5505407e-05
89	0x35c144b5	1.4399617e-06
90	0x39c4e80b	0.0003755692
91	0x3829c9c9	4.0480667e-05
92	0x360434e7	1.9700326e-06
93	0x39c70b09	0.0003796446
94	0x39491f97	0.00019180622
95	0x35d22e40	1.565968e-06
96	0x36cd015d	6.109635e-06
97	0x36bf7cf9	5.7067923e-06
98	0x37708d7a	1.4338055e-05
99	0x3794eabd	1.7752283e-05
100	0x373130e1	1.0561403e-05
101	0x36ed4e69	7.0722785e-06
102	0x3728dc69	1.0064899e-05
103	0x376772d8	1.3795412e-05
104	0x3625b7f9	2.4694002e-06
105	0x37c05ada	2.293049e-05
106	0x36c402ec	5.8415953e-06
107	0x373da226	1.1303031e-05
108	0x36aaf68e	5.0950975e-06
109	0x3700db6a	7.680481e-06
110	0x38d900c7	0.00010347511
111	0x3755c306	1.2741197e-05
112	0x3b14e671	0.0022720362
113	0x38bf8dff	9.1340386e-05
114	0x370745b0	8.062852e-06
115	0x3b153012	0.0022764248
116	0x39e40d9d	0.00043497692
117	0x370135ca	7.701523e-06
118	0x38078326	3.230865e-05
119	0x37b3fe35	2.1456837e-05
120	0x37fe6a1a	3.0328567e-05
121	0x38b43a7b	8.593962e-05
122	0x3813d9a1	3.5250214e-05
123	0x390ade23	0.00013243458
124	0x38833f12	6.2583145e-05
125	0x384af9ce	4.83932e-05
126	0x378743d3	1.6124837e-05
127	0x392c6c31	0.00016443503
128	0x384326cd	4.652776e-05
129	0x380fd2af	3.429007e-05
130	0x38383bcc	4.392471e-05
131	0x3829daed	4.049663e-05
132	0x3876f9de	5.8883677e-05
133	0x371fcac8	9.524352e-06
134	0x3b15333d	0.0022766136
135	0x39352503	0.00017275293
136	0x36834aa8	3.9127954e-06
137	0x3b0daae8	0.002161676
138	0x3a05663c	0.00050887815
139	0x365f33f4	3.325983e-06
140	0x37ac219d	2.051965e-05
141	0x37a887fb	2.0090481e-05
142	0x3814c392	3.546809e-05
143	0x388944df	6.545497e-05
144	0x38d1f8f9	0.000100122714
145	0x384f0401	4.9356375e-05
146	0x38f36b58	0.00011607137
147	0x38446e78	4.6832924e-05
148	0x3780bdc4	1.5347156e-05
149	0x391902f5	0.00014592319
150	0x382c0ba6	4.1018844e-05
151	0x383a9075	4.448039e-05
152	0x38248247	3.9221977e-05
153	0x384c4011	4.8697057e-05
