data_10frm/model/0_4_6_6.pt (torch_old, 18375 bytes, 52 tensors)

rnn.weight_ih f4 [7, 22]
0	0x3d809508	0.062784255
1	0x3e6e40a4	0.23266846
2	0xbeb5c685	-0.3550302
3	0x3c8439a9	0.016140776
4	0x3dac8549	0.084238596
5	0x3d6c6b0c	0.057719275
6	0xbcd0cda9	-0.025488691
7	0xbdf267c3	-0.11836197
8	0xbe8f040d	-0.27932778
9	0x3d25281c	0.040321454
10	0xbe92d70f	-0.28679702
11	0xbeac32d8	-0.3363254
12	0xbe1da74c	-0.1539585
13	0xbe934001	-0.2875977
14	0x3d987b95	0.074454464
15	0x3e820c64	0.25400078
16	0x3e8eba30	0.27876425
17	0xbe7fbbbb	-0.24973957
18	0x3e4a6d7e	0.1976833
19	0x3e81cbb4	0.25350726
20	0xbc560480	-0.013062596
21	0x3e0f563a	0.13997737
22	0x3e2c415a	0.16821805
23	0x3e8bd5b1	0.2731147
24	0x3e493467	0.19648896
25	0x3dbef532	0.09324111
26	0xbe2d977a	-0.16952315
27	0xbe5b8429	-0.21437134
28	0xbe6f5642	-0.23372748
29	0x3e8f5077	0.27991077
30	0xbdd799fc	-0.10527417
31	0x3d188ba5	0.03724255
32	0xbeb23844	-0.34808552
33	0xbca20e3d	-0.01978218
34	0xbdec302e	-0.11532627
35	0xbe81e580	-0.25370407
36	0x3e92637a	0.2859152
37	0xbe9b976e	-0.3038897
38	0xbd62bdcb	-0.055356782
39	0xbcd5c077	-0.026092751
40	0xbeabdf06	-0.3356859
41	0x3e6c47b5	0.23074229
42	0xbdf36300	-0.11884117
43	0x3e307767	0.17233048
44	0x3e63ad75	0.22234137
45	0x3ea65c0c	0.324921
46	0x3daccfa3	0.08438041
47	0x3e9d75c9	0.30753925
48	0x3eab7c28	0.3349316
49	0x3d8804f8	0.06641573
50	0xbd87f9df	-0.06639456
51	0xbddec2b0	-0.108769774
52	0x3d4670fb	0.04844759
53	0x3e0e0a6b	0.13871162
54	0xbea61bc9	-0.32443073
55	0x3e943898	0.28949428
56	0x3d7b1b0b	0.061305087
57	0xbeb612da	-0.35561258
58	0x3dfb7772	0.12278642
59	0x3e7ebcea	0.24876752
60	0x3e141c0f	0.14463829
61	0x3e9fd909	0.31220272
62	0x3c812913	0.015766656
63	0xbe9b565c	-0.30339324
64	0x3baddf9f	0.0053061987
65	0x3e91d3bb	0.2848185
66	0xbded9e6c	-0.11602482
67	0x3e563133	0.20917206
68	0x3d307ffb	0.0430908
69	0x3c8352c6	0.01603068
70	0x3d34c287	0.04413083
71	0x3dea520f	0.11441433
72	0xbe3f9207	-0.18708049
73	0x3e966aac	0.2937826
74	0x3e92543b	0.28579888
75	0x3e7f3440	0.24922276
76	0x3ed57e6a	0.4169801
77	0x3d1e4268	0.03863755
78	0xbe5c764f	-0.21529506
79	0x3d9034a0	0.070412874
80	0xbd90d66e	-0.07072149
81	0x3e3a4ff7	0.18194567
82	0x3ebd2328	0.36940885
83	0xbe1c0431	-0.15235974
84	0x3d742537	0.059605803
85	0x3ed109a5	0.4082767
86	0xbe83e843	-0.2576314
87	0xbc9b8f51	-0.018989237
88	0x3ec2831c	0.37990654
89	0x3e81e5ce	0.2537064
90	0x3e038367	0.12843095
91	0xbe10c3af	-0.14137147
92	0xbd9a9022	-0.075470224
93	0xbea70758	-0.3262279
94	0xbeac62d9	-0.33669165
95	0xbeb5555e	-0.35416692
96	0x3eb4a7b0	0.35284185
97	0x3e8fb4ed	0.28067723
98	0x3dfee8ce	0.12446748
99	0xbdef7249	-0.1169172
100	0x3eaac3a6	0.33352393
101	0xbdcde620	-0.100536585
102	0x3e6ea836	0.23306355
103	0xbcb06644	-0.021533139
104	0xbe40d5b8	-0.18831527
105	0xbde81050	-0.11331236
106	0xbdd344c5	-0.10315851
107	0xbeb8bd63	-0.3608199
108	0x3dd1b4b5	0.10239545
109	0xbe0191be	-0.12653252
110	0x3dc190b2	0.094514266
111	0x3e1b4f51	0.15166976
112	0x3d02133f	0.031756636
113	0x3e110bf3	0.14164715
114	0xbbe8804e	-0.0070953732
115	0x3eb1e85a	0.34747583
116	0xbe984fb9	-0.29748324
117	0xbe0119a6	-0.1260744
118	0xbe532747	-0.20620452
119	0x3e7d3cea	0.24730268
120	0xbedd7c40	-0.43258858
121	0xbe9cc81e	-0.30621427
122	0xbd4f0a46	-0.050546907
123	0x3e78128f	0.2422583
124	0x3e3e1185	0.1856137
125	0xbee5f77c	-0.44915378
126	0xbeb847d7	-0.3599231
127	0x3e888a1b	0.26667866
128	0xbd30fba1	-0.043208722
129	0xbed2ee0d	-0.41197243
130	0xbe4f0723	-0.20217566
131	0x3d961fae	0.07330261
132	0xbe434640	-0.19069767
133	0xbea1c9f3	-0.31599388
134	0xbe553af3	-0.20823269
135	0xbe8c2588	-0.27372384
136	0xbd4cce87	-0.050001647
137	0x3e366c21	0.17814685
138	0x3dbf9bcd	0.093558885
139	0xbe79fe6a	-0.24413458
140	0xbde7363e	-0.11289643
141	0xbea678de	-0.3251409
142	0x3e77fb4e	0.24216959
143	0x3eb3860a	0.350632
144	0x3ea87bd7	0.32906982
145	0x3ddfdc88	0.10930735
146	0xbda09c14	-0.078422695
147	0xbd38c6de	-0.04511153
148	0x3dda4561	0.10657764
149	0xbebe988b	-0.37225756
150	0xba9000de	-0.0010986587
151	0xbea7293c	-0.32648647
152	0xbecd53d5	-0.4010302
153	0xbd29a495	-0.041416723

rnn.weight_hh f4 [7, 7]
0	0xbdd91acf	-0.106008165
1	0xbe8afbb0	-0.27145147
2	0x3cfb1d74	0.030653693
3	0xbcc5b4e4	-0.024134107
4	0x3cd4bd4a	0.025969166
5	0xbe6d24d5	-0.23158582
6	0xbed09582	-0.40739065
7	0xbb0db7d6	-0.0021624467
8	0xbdf63e8d	-0.12023649
9	0xbe044e96	-0.12920603
10	0x3e7d3107	0.24725734
11	0x3d37cce6	0.04487314
12	0x3e3358fa	0.1751441
13	0xbdf1dd24	-0.11809757
14	0xbe9b421b	-0.30323872
15	0x3d6de447	0.05807903
16	0xbe5b01b8	-0.21387374
17	0x3c37506f	0.01118861
18	0xbe966c34	-0.29379427
19	0x3e963223	0.29335126
20	0xbe84043a	-0.25784475
21	0x3eb57dd7	0.3544757
22	0x3e982677	0.29716846
23	0x3ea67005	0.3250734
24	0x3e99a5d3	0.30009326
25	0x3ded1f65	0.11578254
26	0x3cd02623	0.02540881
27	0x3ca8a992	0.02058867
28	0xbe31844c	-0.17335624
29	0xbebd6fb0	-0.36999273
30	0x3e9f8318	0.31154704
31	0xbd1ec761	-0.03876436
32	0x3e4974fd	0.19673534
33	0x3aa69a7c	0.0012710835
34	0x3da121a8	0.078677475
35	0xbe9e93be	-0.30972093
36	0xbebf49d7	-0.37361023
37	0x3e463940	0.19357777
38	0x3d5ec505	0.05438711
39	0x3de66a4b	0.112507425
40	0xbee98c8d	-0.45615044
41	0xbd1506f4	-0.036383584
42	0xbecb5d1a	-0.39719468
43	0xbda45629	-0.08024246
44	0xbd9c41f2	-0.076297656
45	0xbeabcba6	-0.3355381
46	0xbecf15a1	-0.4044619
47	0xbc8e0b5e	-0.017339405
48	0x3eb2501c	0.34826744

rnn.bias_ih f4 [7]
0	0x3ea68075	0.3251988
1	0xbe698743	-0.22805505
2	0xbd7350de	-0.059403293
3	0xbe897e20	-0.26854038
4	0xbe9d1eb1	-0.30687478
5	0xbe4a139f	-0.19734047
6	0x3eacb318	0.33730388

rnn.bias_hh f4 [7]
0	0xbde9874f	-0.11402761
1	0x3cc3eed2	0.02391759
2	0x3eba033f	0.36330602
3	0x3deb443b	0.11487623
4	0x3e961ca6	0.29318732
5	0x3e21336f	0.15742277
6	0x3ea648f8	0.32477546

exp_avg f4 [7, 22]
0	0x38d20ee5	0.00010016355
1	0xba67bd38	-0.00088401465
2	0xbc2a931b	-0.010411049
3	0xbae7662a	-0.0017654349
4	0xb9f56030	-0.00046801707
5	0xbc28f040	-0.010311186
6	0xbb27445f	-0.002552293
7	0xba0352a9	-0.0005009571
8	0x399068d2	0.00027543918
9	0x3a89c685	0.0010511434
10	0x3af6157c	0.0018774713
11	0x3b176b50	0.0023104735
12	0x3acdb716	0.0015694823
13	0x3af4272b	0.0018627396
14	0x3ad3b381	0.0016151519
15	0x3a5f2f2c	0.0008513804
16	0x3a815e3d	0.0009870004
17	0x3af7309a	0.0018859089
18	0x3b22ca65	0.0024839875
19	0x3aca8893	0.0015452079
20	0x3a88d1a6	0.0010438457
21	0x3ae75756	0.001764993
22	0xb7705120	-1.4324003e-05
23	0xba6b7272	-0.0008981592
24	0xbcb73285	-0.022362957
25	0xbb8b7566	-0.0042559383
26	0x39169946	0.00014362214
27	0xbcb69d25	-0.02229173
28	0xbbb4e5ad	-0.0055205435
29	0x397a4cdd	0.00023870492
30	0x3b3ff20b	0.0029288556
31	0x3b1e6a69	0.0024172312
32	0x3b93be19	0.0045087454
33	0x3b7e34ee	0.0038788873
34	0x3b3db2c5	0.0028945666
35	0x3b49ce9f	0.0030793322
36	0x3b523ce5	0.0032079753
37	0x3ae6a64a	0.0017597165
38	0x3b191e6d	0.0023364082
39	0x3b7f95db	0.0038999233
40	0x3bb81619	0.0056178686
41	0x3b58f440	0.0033104569
42	0x3b0de50e	0.002165142
43	0x3b7ae3cb	0.0038282748
44	0x3c1d3357	0.00959476
45	0x3bb50c11	0.00552512
46	0xb9840620	-0.00025181565
47	0x3ba2e38d	0.004970974
48	0x39d81719	0.0004121594
49	0xb930c4c0	-0.00016857963
50	0x3c91beaf	0.01779112
51	0x3a18674d	0.0005813733
52	0xba3a2bf7	-0.0007101888
53	0x3800c5ca	3.0701784e-05
54	0xbb8ff464	-0.0043931473
55	0x3abce5ef	0.0014411787
56	0x39dd66cd	0.00042228997
57	0x3b07df13	0.0020732328
58	0x39d8b161	0.00041330888
59	0x3997b3b6	0.0002893486
60	0xba81cd27	-0.0009903059
61	0xba8158c7	-0.0009868377
62	0x38be0c63	9.062213e-05
63	0x36844700	3.942172e-06
64	0x3a712afa	0.00091998244
65	0xb85c7662	-5.256234e-05
66	0x3b952072	0.004550987
67	0x386fa312	5.713391e-05
68	0x3add39f2	0.0016878231
69	0x3bb3f871	0.005492263
70	0xb8d4cc73	-0.000101470294
71	0x393b1ce6	0.00017844475
72	0x3c42420c	0.011856567
73	0x3945fdb7	0.000188819
74	0x3a81528f	0.0009866523
75	0xba792db5	-0.0009505407
76	0xbb0bacc3	-0.002131269
77	0xb956f3a0	-0.00020499388
78	0xb983ed88	-0.00025163242
79	0x3ae8a434	0.0017749132
80	0xb89a5c9b	-7.360541e-05
81	0x37fe808b	3.0339017e-05
82	0xb9244d8c	-0.00015669147
83	0xba816491	-0.000987189
84	0x3987165e	0.0002576587
85	0xbaa3b799	-0.001249063
86	0x3a03fbfe	0.0005034803
87	0x3a439ce0	0.0007462036
88	0xbaafc540	-0.0013410226
89	0xba9d1dae	-0.0011986995
90	0xbbff2f3f	-0.0077876146
91	0xba946109	-0.0011320423
92	0xb98f6206	-0.0002734812
93	0xbc00769e	-0.007840781
94	0xbb92971d	-0.0044735805
95	0xb96bdc96	-0.00022493521
96	0x3a971709	0.0011527251
97	0x3a6b08d3	0.00089658535
98	0x3aa063ff	0.0012236832
99	0x3aec48c6	0.0018027059
100	0x395fd4ba	0.00021346184
101	0x3aa5f00a	0.0012660038
102	0x3ada9ce2	0.0016678835
103	0x3a012834	0.000492695
104	0x3a74bfbe	0.0009336433
105	0x3ae621cf	0.0017557683
106	0x3ac9c868	0.0015394809
107	0x3ac1badc	0.001478042
108	0x3a2f877e	0.000669591
109	0x3ab159db	0.0013530807
110	0xbb8f00ca	-0.0043641077
111	0xb9548ef8	-0.00020271156
112	0x3c9e7cbb	0.019346585
113	0xba78f2b6	-0.0009496616
114	0x3972f095	0.00023168542
115	0x3ca1e29e	0.01976138
116	0xbbbf4118	-0.005836617
117	0x398de6a9	0.0002706547
118	0xba426e0f	-0.00074169127
119	0xbab4b166	-0.0013785779
120	0xba6045f8	-0.0008555348
121	0xbb50d63f	-0.0031865982
122	0xba2627b3	-0.0006338313
123	0xbc145b89	-0.009055027
124	0xbb687c2b	-0.00354744
125	0xbad9261e	-0.0016567146
126	0xbace741a	-0.0015751154
127	0xbb24566c	-0.0025075926
128	0xbbb02307	-0.0053752693
129	0xbb130cc4	-0.0022438029
130	0xbb4eb285	-0.0031539511
131	0xbb3d06eb	-0.0028843235
132	0xbc2d0a9e	-0.010561613
133	0xbb403b2d	-0.0029332147
134	0x3c961ecc	0.018325232
135	0xbb962ae6	-0.0045827506
136	0xb8c2f863	-9.2969065e-05
137	0x3ca1abc1	0.019735219
138	0xbc871a0d	-0.016491914
139	0xba5e3e49	-0.0008477909
140	0xbb6f155e	-0.0036481242
141	0xbad1a469	-0.0015994433
142	0x395f23b1	0.00021280233
143	0xbbc2af20	-0.0059412867
144	0xbb75936f	-0.003747191
145	0xbb1a3879	-0.0023532195
146	0xbb163924	-0.0022922242
147	0xbae9a243	-0.0017824847
148	0xbaad535a	-0.0013223693
149	0xbb214c20	-0.0024612024
150	0xbb943b68	-0.0045236833
151	0xbb19de34	-0.002347839
152	0xbb1d1552	-0.0023969007
153	0xbb944432	-0.004524731

exp_avg_sq f4 [7, 22]
0	0x3714c3e8	8.8671e-06
1	0x36c6d942	5.926152e-06
2	0x396995bc	0.00022276392
3	0x36bba194	5.5918445e-06
4	0x3668a3c6	3.4666023e-06
5	0x396fe6ae	0.00022878751
6	0x3792ea91	1.7513785e-05
7	0x36acb913	5.147545e-06
8	0x37cdff3f	2.4556763e-05
9	0x3646f5aa	2.9647294e-06
10	0x3683ead2	3.931441e-06
11	0x369e9464	4.726042e-06
12	0x36864511	4.0015516e-06
13	0x3636861f	2.7198182e-06
14	0x366cdf33	3.529666e-06
15	0x35cc8f7a	1.5240942e-06
16	0x368f470e	4.270004e-06
17	0x368f4196	4.2693673e-06
18	0x3781511a	1.5415764e-05
19	0x36a08149	4.7834224e-06
20	0x361bc64a	2.321222e-06
21	0x36d8d329	6.461884e-06
22	0x370e3c7d	8.477943e-06
23	0x36111b7d	2.1622684e-06
24	0x398f2709	0.0002730417
25	0x379b602b	1.8522222e-05
26	0x34a83926	3.133402e-07
27	0x398b9e45	0.00026630066
28	0x38809879	6.131916e-05
29	0x34ef9d5f	4.4631722e-07
30	0x36ba6587	5.5550513e-06
31	0x3690af7b	4.311963e-06
32	0x377af717	1.4958691e-05
33	0x36e9cfee	6.9681473e-06
34	0x36c5c4d1	5.89397e-06
35	0x369a201c	4.5932957e-06
36	0x36f002df	7.1528916e-06
37	0x35f5ebdf	1.832257e-06
38	0x36cb31fd	6.055691e-06
39	0x36fd911d	7.556881e-06
40	0x377244e7	1.4440367e-05
41	0x36d373e2	6.3017806e-06
42	0x360abb40	2.0672596e-06
43	0x36f9a154	7.4395593e-06
44	0x3897d87e	7.240566e-05
45	0x37c232c2	2.3150238e-05
46	0x3af88cbe	0.0018962843
47	0x3926808f	0.00015878885
48	0x35899897	1.0251705e-06
49	0x3af2adc7	0.0018514924
50	0x3a257e05	0.0006313029
51	0x35b079c2	1.3148458e-06
52	0x38086f71	3.2528715e-05
53	0x37bdd17f	2.262811e-05
54	0x392dd601	0.00016578288
55	0x382f68ed	4.182097e-05
56	0x38097801	3.2775108e-05
57	0x37ce64d8	2.4604073e-05
58	0x380d15b0	3.3637218e-05
59	0x373ed2d6	1.1373972e-05
60	0x384a3a57	4.8214886e-05
61	0x38776c78	5.899041e-05
62	0x38d2208e	0.00010019644
63	0x38347125	4.302072e-05
64	0x373f7e3a	1.1413877e-05
65	0x385a357f	5.2025072e-05
66	0x382e8f28	4.1618157e-05
67	0x36d7a6c8	6.426915e-06
68	0x3ae981d9	0.0017815187
69	0x392d02b1	0.00016499568
70	0x364ea4ae	3.0792248e-06
71	0x3ad9dd81	0.00166218
72	0x39f86456	0.00047377002
73	0x3678a0f1	3.704856e-06
74	0x37f52f22	2.9228224e-05
75	0x3884c9b9	6.331824e-05
76	0x383a72e0	4.445284e-05
77	0x388a968d	6.608395e-05
78	0x38217098	3.8490252e-05
79	0x37a1208d	1.9207853e-05
80	0x383fdca0	4.574342e-05
81	0x373b4877	1.1162941e-05
82	0x380b722c	3.3246513e-05
83	0x386529b8	5.463671e-05
84	0x38aec533	8.333698e-05
85	0x386501c5	5.4599503e-05
86	0x375600d1	1.2755584e-05
87	0x3834ba01	4.3088574e-05
88	0x375fec76	1.3346891e-05
89	0x368e0de9	4.233549e-06
90	0x3a928444	0.0011178334
91	0x387c4049	6.0141352e-05
92	0x35265095	6.195708e-07
93	0x3a8c80d1	0.0010719543
94	0x38aa5df0	8.123729e-05
95	0x35c6ed92	1.4821292e-06
96	0x37f4f669	2.920181e-05
97	0x37853622	1.5880043e-05
98	0x37a8dab5	2.0129004e-05
99	0x37cbb800	2.4285167e-05
100	0x38867cb3	6.412845e-05
101	0x378a5df1	1.6494627e-05
102	0x378d570c	1.6849044e-05
103	0x3712a9e0	8.74183e-06
104	0x379771e9	1.8053646e-05
105	0x37e1d73f	2.6922322e-05
106	0x38866d35	6.409959e-05
107	0x37cfe605	2.4783434e-05
108	0x3728af43	1.0054387e-05
109	0x37f611da	2.9333798e-05
110	0x37fceb81	3.0150406e-05
111	0x35628b7a	8.4394526e-07
112	0x3a86170b	0.0010230256
113	0x3717a843	9.039478e-06
114	0x34908d42	2.692487e-07
115	0x3a88f4fa	0.0010448985
116	0x37fa174e	2.9813174e-05
117	0x3503c7df	4.9092154e-07
118	0x374990bb	1.2014231e-05
119	0x3712115f	8.706323e-06
120	0x373c682e	1.1229929e-05
121	0x37f73c72	2.9472842e-05
122	0x3765fe09	1.3708611e-05
123	0x38b488a3	8.6085194e-05
124	0x37ef2d47	2.8512104e-05
125	0x3703346e	7.820416e-06
126	0x376c1a75	1.4072856e-05
127	0x37ba3285	2.2196453e-05
128	0x38885455	6.5006934e-05
129	0x37a12bf9	1.9213172e-05
130	0x3774a074	1.4580892e-05
131	0x37dfd58b	2.668311e-05
132	0x392986e4	0.00016167347
133	0x372ee471	1.0424396e-05
134	0x3b006598	0.0019591805
135	0x3854ef9f	5.0767903e-05
136	0x369cd87e	4.6743653e-06
137	0x3b082e45	0.0020779532
138	0x39bd2dca	0.00036083005
139	0x36fde214	7.5663065e-06
140	0x38244666	3.916621e-05
141	0x37bcb5b1	2.2495953e-05
142	0x37e01240	2.671138e-05
143	0x38b6a978	8.710002e-05
144	0x3851805a	4.994902e-05
145	0x38161e90	3.579125e-05
146	0x38d7edf5	0.00010296322
147	0x3786f3ce	1.6087575e-05
148	0x37e210cf	2.6949127e-05
149	0x38402f97	4.582069e-05
150	0x38f2f49a	0.0001158502
151	0x38280659	4.0060233e-05
152	0x37c3888c	2.3309396e-05
153	0x389d9265	7.5136115e-05

exp_avg f4 [7, 7]
0	0xba17fcbc	-0.0005797853
1	0x3a1df4c2	0.00060255465
2	0x3b05a27d	0.002039104
3	0x3b2722af	0.002550285
4	0x3afe1cb5	0.0019387217
5	0x3afef62e	0.0019452029
6	0x3b069a6c	0.002053882
7	0x3ab19bad	0.0013550423
8	0x3ac4ebde	0.0015023907
9	0x3bbb5b73	0.0057176887
10	0x3ba23dca	0.0049512135
11	0x3b46a571	0.0030311013
12	0x3b3d07e1	0.0028843808
13	0x3b63b776	0.0034746802
14	0x39ba4911	0.00035531123
15	0xba6e4cfa	-0.000909045
16	0xbc370a15	-0.011171837
17	0x3b592b5a	0.0033137412
18	0x3b052b7a	0.0020320104
19	0x3b7c2019	0.003847128
20	0x3aec5851	0.0018031691
21	0x39b01758	0.00033586728
22	0x3723d3eb	9.764898e-06
23	0x3a97599d	0.0011547093
24	0xbc3f4e57	-0.0116763925
25	0xb9c3ad31	-0.00037322336
26	0x3b8af6e5	0.004240858
27	0x3bb2f691	0.005461522
28	0x397a8bc4	0.00023893925
29	0x3a046de5	0.0005051776
30	0x3b3266a8	0.0027221832
31	0x3b8fdcb0	0.0043903217
32	0xbba8df53	-0.0051535754
33	0x3af794f2	0.0018888994
34	0x3b6d1111	0.0036173502
35	0xba43a4f8	-0.0007463242
36	0xba393654	-0.00070652855
37	0xb93957c2	-0.00017675667
38	0xba4feefe	-0.0007932036
39	0x37376343	1.0930761e-05
40	0xbc94f3aa	-0.018182594
41	0x3a9caa66	0.0011952638
42	0xba64036a	-0.00086980185
43	0xba26db35	-0.0006365062
44	0x3982cd8f	0.00024948685
45	0xba64cf59	-0.0008728407
46	0xbaaf1ad0	-0.0013359431
47	0x39c2467e	0.00037055084
48	0xbc854098	-0.016266152

exp_avg_sq f4 [7, 7]
0	0x37b1150a	2.1109841e-05
1	0x3615ddd7	2.2331858e-06
2	0x3687c29a	4.045968e-06
3	0x37399696	1.106192e-05
4	0x369d9ba6	4.6970845e-06
5	0x36392530	2.7588794e-06
6	0x36b072ab	5.258558e-06
7	0x35f80074	1.8477572e-06
8	0x363ff7c0	2.8605427e-06
9	0x37d12e87	2.4936407e-05
10	0x378f8997	1.7110999e-05
11	0x36f77367	7.3746082e-06
12	0x36b61fe2	5.4277343e-06
13	0x3711e705	8.696462e-06
14	0x36b3c402	5.357434e-06
15	0x37c66a3a	2.3652905e-05
16	0x39a56501	0.00031546506
17	0x38ab79bc	8.17659e-05
18	0x37f7ccd9	2.9540084e-05
19	0x375acf72	1.3042112e-05
20	0x3802e350	3.1206117e-05
21	0x369cd5bc	4.6740442e-06
22	0x37556a06	1.2720475e-05
23	0x38087b4d	3.253976e-05
24	0x39ce1426	0.00039306394
25	0x37cbadb5	2.4280374e-05
26	0x376c21f8	1.4074605e-05
27	0x38770ef7	5.8903326e-05
28	0x36b1a6e5	5.29444e-06
29	0x370d5898	8.424882e-06
30	0x3799ebef	1.8348886e-05
31	0x38571867	5.128272e-05
32	0x3920d95a	0.00015339759
33	0x36f7e95e	7.388341e-06
34	0x37dd5ba5	2.6387928e-05
35	0x36645b52	3.4027803e-06
36	0x369c087f	4.6501514e-06
37	0x37116851	8.666962e-06
38	0x37dd7c9e	2.6403282e-05
39	0x371303af	8.76274e-06
40	0x397829ef	0.00023666745
41	0x37a3b559	1.951556e-05
42	0x3724af12	9.8159235e-06
43	0x374b35b7	1.2112249e-05
44	0x380f3c37	3.4149936e-05
45	0x3894dade	7.097957e-05
46	0x38058bd1	3.1839885e-05
47	0x37caeec4	2.419146e-05
48	0x39a4f4f2	0.00031463016

exp_avg f4 [7]
0	0x3c2d0bb2	0.01056187
1	0x3cbbc729	0.022922115
2	0xba3f6473	-0.000730104
3	0xba5f94fb	-0.0008528975
4	0x3c06aba8	0.008219637
5	0xbc9ee0fa	-0.019394387
6	0xbc9ea4d5	-0.019365707

exp_avg_sq f4 [7]
0	0x397a5f63	0.00023877392
1	0x39963a1b	0.0002865352
2	0x3b0448a3	0.0020184896
3	0x3af09c08	0.0018357048
4	0x3a9593a3	0.0011411797
5	0x3a8af28a	0.0010600847
6	0x3b0cc50a	0.002147975

exp_avg f4 [7]
0	0x3c2d1464	0.010563944
1	0x3cbbc4cf	0.022920994
2	0xba40504e	-0.0007336185
3	0xba5ec840	-0.00084984675
4	0x3c06b9fd	0.008223054
5	0xbc9edbc6	-0.019391906
6	0xbc9ea2b4	-0.019364692

exp_avg_sq f4 [7]
0	0x397a60a4	0.0002387786
1	0x399638cc	0.00028652546
2	0x3b0448bc	0.0020184955
3	0x3af09b96	0.0018356915
4	0x3a9593c6	0.0011411838
5	0x3a8af257	0.0010600787
6	0x3b0cc4ff	0.0021479724

exp_avg f4 [7, 22]
0	0xb90f42b3	-0.0001366239
1	0x3b12f0c4	0.002242134
2	0xbc692df2	-0.014232146
3	0xbb0b0547	-0.0021212862
4	0x3b0c5009	0.002141001
5	0xbc668dd9	-0.014071905
6	0xbb4d043c	-0.0031283041
7	0x3b204abd	0.002445861
8	0x3a93a86b	0.0011265402
9	0x3aaebc79	0.0013331316
10	0x3b1dbae8	0.0024067704
11	0x3b685c35	0.003545535
12	0x3b23e9f8	0.0025011282
13	0x3adb0a93	0.0016711525
14	0x3afe7b75	0.0019415455
15	0x3ab19aae	0.0013550126
16	0x3b6cd354	0.0036136704
17	0x3a8780d9	0.0010338082
18	0x3b744d97	0.0037277692
19	0x3a9d0998	0.0011981009
20	0x3b16a1eb	0.0022984694
21	0x3aaa9e28	0.0013017105
22	0xbc812361	-0.01576394
23	0xbaf7f633	-0.0018917978
24	0xbb36a737	-0.0027870664
25	0xbc4114fc	-0.011784788
26	0x3b1c29b7	0.0023828575
27	0x3a8c9c60	0.0010727756
28	0xbd1ab6b8	-0.03777191
29	0xbb29e694	-0.0025924789
30	0x3a9474a1	0.0011326262
31	0xbbff0e80	-0.007783711
32	0x3a313465	0.00067598216
33	0x3b91bbc7	0.0044474336
34	0x3a94477a	0.0011312806
35	0x3ab6d564	0.0013949093
36	0xbab57e6f	-0.0013846884
37	0x3a00cb5d	0.0004913116
38	0xbab63cd9	-0.0013903632
39	0xb9a93b71	-0.0003227848
40	0x3a2e9609	0.000665993
41	0xb803ac4e	-3.1393305e-05
42	0x3adcfdf6	0.0016860354
43	0xbac2173f	-0.0014807953
44	0x3a360033	0.0006942779
45	0x3ac1cfbd	0.0014786642
46	0xbbdd431b	-0.0067523844
47	0xba0e110c	-0.00054194103
48	0x3aa12392	0.0012293926
49	0xbbe06aaa	-0.006848653
50	0x396b04d7	0.0002241315
51	0x3acae356	0.0015479128
52	0x3a733d25	0.00092788256
53	0x3a80125f	0.00097711
54	0x3a8aea38	0.0010598367
55	0x3aa7ec00	0.0012811422
56	0x3a8997d7	0.0010497522
57	0x3a52375e	0.00080191146
58	0x3a80b687	0.0009820022
59	0x3a239589	0.0006240239
60	0x3aee27cc	0.0018169819
61	0x3a06a2f2	0.0005135975
62	0x3aec90c5	0.0018048516
63	0x3a1a21dd	0.000587968
64	0x3a84a7d1	0.0010120814
65	0x3a3c39e7	0.0007180259
66	0x3bfbf5cf	0.007689215
67	0x3badf7b7	0.005309071
68	0xbccd519b	-0.025063327
69	0x3b7ab996	0.003825759
70	0x3b30e79c	0.0026993519
71	0xbcdd8de4	-0.027045198
72	0x3c95c028	0.018280104
73	0x3ba36209	0.004986052
74	0x3abb6c2a	0.0014299203
75	0x3ba2a0aa	0.0049630003
76	0x3b54205a	0.0032367916
77	0x3b770544	0.0037692348
78	0x3b8687ad	0.0041055293
79	0x3b99ee2f	0.004697583
80	0x3b9756a0	0.004618481
81	0x3aedbb79	0.0018137536
82	0x3c01a4ff	0.007912873
83	0x3b0165d9	0.0019744544
84	0x3bd20b9e	0.0064100763
85	0x3b0bea7e	0.0021349485
86	0x3b62721d	0.003455288
87	0x3b4c1d3a	0.003114535
88	0x3a20fbc1	0.000614103
89	0x3aadede3	0.0013269748
90	0xbba2b5b9	-0.0049655107
91	0xb97e0eaf	-0.00024228798
92	0x3a7575f2	0.00093635835
93	0xbba87d51	-0.005141892
94	0x39ce8922	0.00039393554
95	0x3ab60e64	0.0013889787
96	0x3a6277fb	0.00086390943
97	0x3a686e4a	0.0008866532
98	0x3995973b	0.0002853217
99	0x3ab2003b	0.0013580391
100	0x39678037	0.0002207764
101	0x3a72ee11	0.0009267042
102	0x3a4ea010	0.00078821275
103	0x39f3fee6	0.00046538486
104	0x3aa7970a	0.0012786102
105	0x39d83922	0.00041241298
106	0x3aaa30e4	0.0012984541
107	0x39fbe46e	0.00048044644
108	0x3a5f1201	0.00085094577
109	0x3a0cac6c	0.0005366269
110	0x3bc53106	0.006017807
111	0xbc2fc723	-0.01072863
112	0x3d88b8d0	0.06675875
113	0x3c58bdf1	0.013228879
114	0xbc394326	-0.011307513
115	0x3d856f2c	0.06515345
116	0x3caeb2d7	0.021325512
117	0xbc2f3bab	-0.010695378
118	0xbbd491ce	-0.006487108
119	0xbb4c8ed5	-0.0031213064
120	0xbc144f51	-0.009052114
121	0xbc8cc7f3	-0.017185187
122	0xbc304001	-0.010757447
123	0xbc486209	-0.012230405
124	0xbc079bfd	-0.008276937
125	0xbbbcfd4c	-0.0057675
126	0xbc8a8576	-0.016909342
127	0xbb9841f6	-0.004646535
128	0xbc8b49a3	-0.017002886
129	0xbbb91612	-0.005648383
130	0xbc3b82a1	-0.011444719
131	0xbbba72fc	-0.0056899767
132	0x3aab1413	0.0013052247
133	0xbac220f1	-0.0014810843
134	0x3c148784	0.009065513
135	0x3a37773f	0.0006998665
136	0xbad27879	-0.0016057632
137	0x3c0f7bc3	0.008757534
138	0x3b8523dc	0.0040631127
139	0xba4c6638	-0.0007797214
140	0xba6b2aae	-0.00089708983
141	0x3aa89a11	0.0012863298
142	0xbafdfbff	-0.0019377469
143	0xbb1d36f7	-0.002398906
144	0xbac09977	-0.0014694174
145	0xbab07b45	-0.0013464472
146	0xbaf9a2c3	-0.0019045699
147	0xba62d8c6	-0.00086535176
148	0xbb07d654	-0.0020727115
149	0xba10a2b0	-0.00055174064
150	0xbb29751a	-0.0025857151
151	0xba1d2a83	-0.00059954094
152	0xbac469ec	-0.001498518
153	0xba02ffc6	-0.00049972197

exp_avg_sq f4 [7, 22]
0	0x36cf31ec	6.1748924e-06
1	0x382e5cb2	4.1571162e-05
2	0x39c7f47b	0.0003813839
3	0x37504d54	1.24157705e-05
4	0x380e571f	3.3936576e-05
5	0x39c89d87	0.0003826434
6	0x3813ad88	3.5209145e-05
7	0x382c1508	4.1027582e-05
8	0x380f5ecc	3.4182143e-05
9	0x368d0331	4.202499e-06
10	0x36f0022e	7.152811e-06
11	0x375fa4e7	1.333023e-05
12	0x37110668	8.644165e-06
13	0x367fcef4	3.8118424e-06
14	0x36bfc1d3	5.7148077e-06
15	0x36a0610b	4.779669e-06
16	0x37ca2061	2.4095354e-05
17	0x36516b96	3.120605e-06
18	0x37f24120	2.8878974e-05
19	0x365bb679	3.2739756e-06
20	0x36eccbb5	7.0570627e-06
21	0x3696be69	4.492515e-06
22	0x3a044b03	0.0005046578
23	0x398ff1a2	0.00027455116
24	0x3b709942	0.0036712443
25	0x38d159fa	9.982656e-05
26	0x38de104f	0.000105888226
27	0x3b8abbc3	0.0042338087
28	0x3af435b4	0.0018631727
29	0x39aae09e	0.0003259228
30	0x38b3ae1b	8.567815e-05
31	0x3970e85b	0.00022974743
32	0x38c5ec62	9.437722e-05
33	0x38aca84a	8.2329454e-05
34	0x38aa79c0	8.1289094e-05
35	0x381fe3ee	3.812083e-05
36	0x38d6bf0a	0.00010239899
37	0x38138a5b	3.5176385e-05
38	0x3998bc8a	0.00029132172
39	0x381133be	3.4618883e-05
40	0x399022aa	0.00027491647
41	0x3805c204	3.1890362e-05
42	0x3875b793	5.858352e-05
43	0x389015f7	6.870546e-05
44	0x367b848f	3.7479074e-06
45	0x364d5f68	3.0602914e-06
46	0x384362e8	4.6583737e-05
47	0x35de0506	1.6541751e-06
48	0x35e6a851	1.7185322e-06
49	0x385160ed	4.9919752e-05
50	0x378aac34	1.653107e-05
51	0x366aee4d	3.5007427e-06
52	0x35abf4c2	1.2811727e-06
53	0x360bf160	2.0853113e-06
54	0x359dcd26	1.1757118e-06
55	0x35b8769f	1.3743592e-06
56	0x3597ef30	1.1319989e-06
57	0x350fd5ef	5.3582966e-07
58	0x359e5795	1.1797407e-06
59	0x350f873c	5.3468443e-07
60	0x365737cb	3.2069972e-06
61	0x34f32923	4.5292208e-07
62	0x365f6132	3.3286165e-06
63	0x34d2fcac	3.929939e-07
64	0x354da9b7	7.661542e-07
65	0x353da4cd	7.0647803e-07
66	0x38ab60c1	8.171937e-05
67	0x395812c9	0.00020606363
68	0x3b7f5122	0.003895827
69	0x394b46e4	0.00019385997
70	0x393eceb5	0.00018196816
71	0x3b7915b0	0.0038007312
72	0x3a5ed8e8	0.00085009495
73	0x396f5ac5	0.0002282663
74	0x390d4770	0.0001347342
75	0x3885b2ec	6.375261e-05
76	0x38bfb65c	9.141557e-05
77	0x39386b21	0.00017587516
78	0x38c6705d	9.462305e-05
79	0x381da959	3.7589434e-05
80	0x38965cf0	7.169868e-05
81	0x3854539a	5.06226e-05
82	0x397624b0	0.00023474055
83	0x37f3aac1	2.904737e-05
84	0x398fa463	0.00027397563
85	0x380656a8	3.2028795e-05
86	0x38a325c6	7.7794815e-05
87	0x3823c012	3.9041108e-05
88	0x36346d7d	2.688582e-06
89	0x3752a20f	1.2554708e-05
90	0x398b695b	0.00026590642
91	0x3711b4f6	8.684807e-06
92	0x372c5937	1.0272771e-05
93	0x398932f0	0.00026168628
94	0x3784813a	1.5795802e-05
95	0x37523032	1.2528197e-05
96	0x36c10c6e	5.753295e-06
97	0x36751603	3.6520657e-06
98	0x36e29cfe	6.753601e-06
99	0x36d7d571	6.432347e-06
100	0x37889cad	1.6285421e-05
101	0x3659b2e0	3.2439639e-06
102	0x36988ec3	4.5465727e-06
103	0x36421818	2.8922277e-06
104	0x379664bf	1.7928307e-05
105	0x35fc099b	1.8778259e-06
106	0x379b3ddb	1.8506244e-05
107	0x36058c7f	1.9900324e-06
108	0x369ca63f	4.668516e-06
109	0x36416ed9	2.8823763e-06
110	0x378f614b	1.7092234e-05
111	0x38aa84e0	8.1309816e-05
112	0x3b1e4ac1	0.0024153444
113	0x3894c82f	7.094477e-05
114	0x389614fb	7.156465e-05
115	0x3b1b2507	0.0023673193
116	0x394ebfd9	0.0001971716
117	0x38afcb5c	8.382529e-05
118	0x3818be54	3.641688e-05
119	0x379c0b5a	1.8601935e-05
120	0x388747c9	6.450673e-05
121	0x39011623	0.00012310645
122	0x3893c56a	7.0462775e-05
123	0x38a5b01b	7.900615e-05
124	0x38208001	3.8266186e-05
125	0x37c1a77b	2.3085382e-05
126	0x3927c37f	0.00015999189
127	0x3783eb59	1.572601e-05
128	0x392815c3	0.00016029835
129	0x37996525	1.828612e-05
130	0x38628bdd	5.4012857e-05
131	0x37b17161	2.115284e-05
132	0x37cf5a0b	2.4718252e-05
133	0x37e01f76	2.6717531e-05
134	0x3a0f194c	0.00054587866
135	0x36bcb580	5.623966e-06
136	0x378711e8	1.6101592e-05
137	0x3a169f7a	0.000574581
138	0x38adb034	8.282103e-05
139	0x37e305b2	2.706316e-05
140	0x37209b33	9.572878e-06
141	0x3783b755	1.5701788e-05
142	0x37727f55	1.4453971e-05
143	0x3785a36b	1.5930933e-05
144	0x375052b3	1.2417021e-05
145	0x36c0480e	5.730434e-06
146	0x37ec016e	2.8134058e-05
147	0x36b1550e	5.2849127e-06
148	0x38221936	3.864729e-05
149	0x368dfcb5	4.2315464e-06
150	0x3826a998	3.973543e-05
151	0x3688fe06	4.082688e-06
152	0x37214f62	9.614831e-06
153	0x36df65b2	6.657757e-06

exp_avg f4 [7, 7]
0	0xb9988ab0	-0.0002909503
1	0x3b3b75c5	0.0028604132
2	0x3a1fda89	0.0006097933
3	0x3b8dcca5	0.004327374
4	0x3a93ef4f	0.001128653
5	0x3b883759	0.0041569886
6	0x3ae3952d	0.0017363183
7	0x3a4f0c2e	0.0007898238
8	0xbc839e10	-0.016066581
9	0xb986adf2	-0.0002568807
10	0x3ba5050d	0.0050360025
11	0x3a9c2d40	0.0011915341
12	0x3c033988	0.008009322
13	0x3a6d814a	0.0009060098
14	0x39f3c70c	0.00046496873
15	0x3b05cc0b	0.0020415809
16	0x39aaefec	0.00032603682
17	0x3aca70d7	0.0015445006
18	0x39fc2fc8	0.00048100785
19	0x3abaa9f3	0.0014241323
20	0x3a529e6d	0.00080344715
21	0x3ad88475	0.0016518967
22	0x3c4063e3	0.011742565
23	0x3aa6c2e1	0.0012722873
24	0xbba846ab	-0.0051353774
25	0x3b0c7c95	0.0021436561
26	0x3c27170d	0.010198367
27	0x3ba2779e	0.004958107
28	0x39c6673c	0.00037842419
29	0x3ad93644	0.0016571959
30	0x3953164b	0.00020130833
31	0x3ab39904	0.0013702218
32	0xbab2b068	-0.0013632895
33	0x3b2dc189	0.002651306
34	0x39e08ee5	0.00042831074
35	0xbb4d8ea3	-0.0031365536
36	0xbc05d105	-0.00816751
37	0xbb30d664	-0.0026983256
38	0xbc099f35	-0.008399774
39	0xbb8d1553	-0.0043055206
40	0xbd1de5b5	-0.038549144
41	0xbaf1f09d	-0.0018458549
42	0xba25e43c	-0.000632826
43	0x3b1a0837	0.0023503432
44	0xba007576	-0.00049003155
45	0xbac627fc	-0.0015118117
46	0xb9ac3a3a	-0.0003284978
47	0x3a1e8050	0.0006046342
48	0xbc0de7a1	-0.008661182

exp_avg_sq f4 [7, 7]
0	0x37fcf293	3.0153698e-05
1	0x37655505	1.3669259e-05
2	0x35c44412	1.4622949e-06
3	0x384604e2	4.7211426e-05
4	0x360b46f8	2.0753923e-06
5	0x370cb609	8.387034e-06
6	0x364d278d	3.0570402e-06
7	0x37a29f0a	1.9385963e-05
8	0x3a7e1e57	0.0009693852
9	0x3777d67a	1.4772284e-05
10	0x3981d2b6	0.0002476179
11	0x378df7a0	1.692382e-05
12	0x382ba532	4.0923427e-05
13	0x3825b271	3.9505252e-05
14	0x3505d00a	4.98491e-07
15	0x370c5805	8.365144e-06
16	0x344eba9e	1.9253136e-07
17	0x3690c9cd	4.315027e-06
18	0x3489f723	2.5698054e-07
19	0x359bb62d	1.160142e-06
20	0x352af0d4	6.3680386e-07
21	0x37dd428a	2.6376238e-05
22	0x396a4875	0.00022342971
23	0x374922f2	1.198867e-05
24	0x3a5daf06	0.00084565615
25	0x37b19a82	2.1171993e-05
26	0x388d3816	6.733851e-05
27	0x37cce1f3	2.442391e-05
28	0x361b82b8	2.3172888e-06
29	0x37700b18	1.4307698e-05
30	0x35791815	9.279477e-07
31	0x3780063d	1.5261694e-05
32	0x37985124	1.8157596e-05
33	0x36aeaf11	5.2059845e-06
34	0x36090e94	2.0423076e-06
35	0x371c8c91	9.331053e-06
36	0x38a50ed8	7.870578e-05
37	0x36c94d48	5.9992635e-06
38	0x38e86a2f	0.000110824
39	0x37500f7e	1.2401373e-05
40	0x39ece145	0.00045181267
41	0x3733b5b2	1.0711536e-05
42	0x363f7c90	2.8533723e-06
43	0x3888d9cc	6.525553e-05
44	0x35f65c92	1.835537e-06
45	0x37c738f1	2.3749164e-05
46	0x3650c3b2	3.1108325e-06
47	0x36d5bd5b	6.3699385e-06
48	0x385ab9b1	5.214819e-05

exp_avg f4 [7]
0	0x3c6df35e	0.014523355
1	0xb9c9e48d	-0.0003850799
2	0x3be829dc	0.007085068
3	0x3cdbc0a2	0.026825253
4	0x3bae9d6d	0.005328825
5	0xbd896c23	-0.067100786
6	0xbc0dff1e	-0.008666782

exp_avg_sq f4 [7]
0	0x39e20904	0.00043112796
1	0x3b924158	0.004463356
2	0x3860e309	5.3617205e-05
3	0x3b89e782	0.004208506
4	0x3994b0fe	0.0002836063
5	0x3b25282b	0.0025200944
6	0x3a1d1c1d	0.0005993264

exp_avg f4 [7]
0	0x3c6df3c7	0.014523453
1	0xb9cb6350	-0.0003879317
2	0x3be820fe	0.007084011
3	0x3cdbb928	0.026821688
4	0x3bae8bcb	0.005326723
5	0xbd896d2c	-0.06710276
6	0xbc0df583	-0.008664492

exp_avg_sq f4 [7]
0	0x39e20910	0.0004311283
1	0x3b92416d	0.0044633658
2	0x3860deab	5.3613137e-05
3	0x3b89e78f	0.004208512
4	0x3994b0cd	0.00028360487
5	0x3b252865	0.002520108
6	0x3a1d1c41	0.0005993285

exp_avg f4 [7, 22]
0	0xbbe16758	-0.0068787746
1	0xb8b272d4	-8.50909e-05
2	0xbcc73234	-0.02431593
3	0xbc0b4a97	-0.00850167
4	0x3a6213ef	0.0008624186
5	0xbcba1f57	-0.022720022
6	0xbcae12ce	-0.021249201
7	0x3a94c830	0.0011351164
8	0x3a3de78d	0.00072442816
9	0x3b153924	0.0022769654
10	0x3b784ee6	0.0037888824
11	0x3bcf54d2	0.00632725
12	0x3b610642	0.0034336005
13	0x3b8c9736	0.0042904867
14	0x3b68c63c	0.0035518548
15	0x3b58137d	0.00329706
16	0x3b328e8a	0.0027245604
17	0x3af0ed9e	0.0018381362
18	0x3b79565c	0.003804586
19	0x3b87ff1b	0.004150284
20	0x3b7b8dd4	0.0038384097
21	0x3b9bb1a2	0.0047514
22	0xbbcab9ec	-0.0061867144
23	0x3b45a140	0.0030155927
24	0xbd08657d	-0.03329991
25	0xbc4e4010	-0.012588516
26	0x3b8585ed	0.004074803
27	0xbd0198e9	-0.031639967
28	0xbcc11eb1	-0.023574205
29	0x3b9b6cdc	0.0047432017
30	0x3b88fd96	0.0041806204
31	0x3b2637cf	0.0025362854
32	0x3baa52b7	0.0051978487
33	0x3c073911	0.008253352
34	0x3b972490	0.004612513
35	0x3b9d4c49	0.0048003537
36	0x3b9b0a62	0.0047314623
37	0x3b97eb2a	0.004636188
38	0x3b8a6b54	0.0042242203
39	0x3b30d87b	0.0026984501
40	0x3ba59a44	0.0050537903
41	0x3bc343a9	0.0059589935
42	0x3bb280c9	0.0054474813
43	0x3bceb4bc	0.0063081663
44	0xbb9451a4	-0.004526334
45	0x399fce48	0.00030480535
46	0xbba304f8	-0.0049749576
47	0xbbb3a6d8	-0.005482536
48	0x3aaa56a3	0.001299579
49	0xbb7e1fe0	-0.0038776323
50	0xbc4a74b0	-0.012356922
51	0x3a37c7fb	0.00070106954
52	0x3a2052eb	0.00061158714
53	0x3a0b8dc5	0.00053235545
54	0xb985c2a9	-0.0002551277
55	0x3aac4723	0.0013143759
56	0x3a1102f3	0.00055317505
57	0x3a75c6a3	0.00093756075
58	0x3a353194	0.000691199
59	0x3a38750c	0.00070364843
60	0x3934ca93	0.00017241602
61	0xb82e6b39	-4.158469e-05
62	0x3a63a214	0.00086835143
63	0x3a7e9f27	0.00097130466
64	0x39f919c3	0.00047512175
65	0x3aa0fd26	0.0012282475
66	0xbbc4ba75	-0.0060036727
67	0x3b25140d	0.0025188953
68	0xbd14e6d8	-0.036352962
69	0xbc51b18c	-0.012798678
70	0x3b86155f	0.004091903
71	0xbd0de6d5	-0.034643967
72	0xbcc416c0	-0.02393663
73	0x3b933a4f	0.004493035
74	0x3b894e3b	0.004190234
75	0x3b6ab2ac	0.0035812063
76	0x3bbbc9c6	0.0057308404
77	0x3c06607d	0.008201716
78	0x3b98e09d	0.004665448
79	0x3bbe0527	0.005798954
80	0x3bb23767	0.0054387334
81	0x3ba5d753	0.005061069
82	0x3b98b647	0.004660401
83	0x3b4813e0	0.0030529425
84	0x3bb79bf1	0.0056033065
85	0x3bd2ed26	0.0064369617
86	0x3bbfeafc	0.0058568697
87	0x3be29e2f	0.0069158296
88	0x3c5bd2ab	0.013416926
89	0xbc3b3c31	-0.011427925
90	0x3dbdc82e	0.09266697
91	0x3cfd94f6	0.03095482
92	0xbc4ab870	-0.012373075
93	0x3db37523	0.087625764
94	0x3d8681d3	0.06567731
95	0xbc5d0da7	-0.0134920245
96	0xbc389e33	-0.011268186
97	0xbbf29275	-0.007402713
98	0xbc4c7a94	-0.012480397
99	0xbcd76af4	-0.026296116
100	0xbc7a3a22	-0.015272649
101	0xbc301d70	-0.010749206
102	0xbc314908	-0.010820635
103	0xbc593c44	-0.013258997
104	0xbc4446fa	-0.011979813
105	0xbbfb0e8f	-0.0076616476
106	0xbc55aaff	-0.013041257
107	0xbc84d5c7	-0.016215218
108	0xbc7f87d8	-0.0155963525
109	0xbc8785eb	-0.01654335
110	0x3a6e65ae	0.0009094131
111	0xba3c9fb5	-0.0007195429
112	0x3bb7a853	0.0056047826
113	0x3bc99cf4	0.0061527435
114	0xbab899d3	-0.0014083929
115	0x3b57d519	0.0032933413
116	0x3c57e490	0.013177052
117	0xbac136bf	-0.0014741047
118	0x39b8c568	0.00035242294
119	0xb9c5d14d	-0.0003773071
120	0x3ac95271	0.0015359652
121	0xb7ee3dde	-2.840062e-05
122	0x3a98c1bd	0.0011654418
123	0xbbd50410	-0.0065007284
124	0xba76d485	-0.0009415823
125	0xbaa0b766	-0.0012261688
126	0xb8bd7a3c	-9.03499e-05
127	0xb976f006	-0.00023549804
128	0xba89e835	-0.0010521474
129	0xba5969b5	-0.00082936446
130	0x38f5c0b5	0.00011718405
131	0xbac246af	-0.0014822091
132	0x3c0aad10	0.008464113
133	0x3bba5ad2	0.005687096
134	0x3ae6b68f	0.0017602014
135	0x3b1f69e9	0.0024324602
136	0x3b438ccd	0.0029838562
137	0x3b3d700c	0.0028905896
138	0x3b284932	0.0025678393
139	0x3b59d887	0.0033240633
140	0x3a82cb5f	0.0009978822
141	0xba9e5999	-0.0012081146
142	0xbb660af7	-0.003510175
143	0x3aea410c	0.0017872169
144	0x3a1690e5	0.0005743637
145	0x3a8e1b83	0.0010841939
146	0xbb2049d8	-0.0024458077
147	0x3a09001c	0.00052261516
148	0x38c98475	9.609099e-05
149	0x396017cb	0.00021371168
150	0xbaa8401f	-0.0012836492
151	0xba2b4da7	-0.00065347034
152	0xb9a83d0f	-0.0003208895
153	0xbaa98d31	-0.0012935755

exp_avg_sq f4 [7, 22]
0	0x3894fe17	7.104518e-05
1	0x38b65815	8.694843e-05
2	0x3a49a168	0.0007691593
3	0x38bb0535	8.917825e-05
4	0x38d0ef05	9.962734e-05
5	0x3a4626fe	0.0007558911
6	0x39012f02	0.0001231991
7	0x38e8a551	0.00011093415
8	0x38b0bab4	8.42711e-05
9	0x376321d3	1.353813e-05
10	0x3766d4a8	1.3758581e-05
11	0x37cc4b2e	2.4353703e-05
12	0x377473c4	1.4570487e-05
13	0x372ee0d2	1.0423553e-05
14	0x37500a79	1.24002045e-05
15	0x37adfc7f	2.0740785e-05
16	0x37df9ecd	2.6657619e-05
17	0x37098836	8.19755e-06
18	0x37d66937	2.5559782e-05
19	0x37a46d82	1.9601317e-05
20	0x37b7dd94	2.191848e-05
21	0x37a0b689	1.9158486e-05
22	0x398e12e1	0.00027098416
23	0x36f3b472	7.262971e-06
24	0x3aa6088a	0.001266734
25	0x38fb908e	0.00011995538
26	0x36e8dc83	6.9398097e-06
27	0x3ab9f7e1	0.0014188254
28	0x3a36553a	0.0006955449
29	0x372d5365	1.033102e-05
30	0x37a83054	2.0049665e-05
31	0x38fe061f	0.00012112804
32	0x37dc346c	2.6250455e-05
33	0x3816f54a	3.599123e-05
34	0x37d25f99	2.5078467e-05
35	0x3750cf77	1.244607e-05
36	0x37f18338	2.8790542e-05
37	0x37e680e0	2.7478149e-05
38	0x3854d37c	5.07417e-05
39	0x37c098fd	2.2959424e-05
40	0x382f090a	4.173167e-05
41	0x37c6dadb	2.3705352e-05
42	0x3832d2f4	4.2634972e-05
43	0x37b9e537	2.2160455e-05
44	0x39acb22b	0.00032939142
45	0x3732a83a	1.0648795e-05
46	0x3a62f7b0	0.0008658124
47	0x38f7cde0	0.00011816225
48	0x3590db3b	1.079264e-06
49	0x3a8dc57c	0.0010816301
50	0x3a922a0e	0.0011151449
51	0x37772206	1.4730269e-05
52	0x37865272	1.6012436e-05
53	0x37851ff3	1.5869713e-05
54	0x38b2042b	8.488478e-05
55	0x37ff106b	3.0406014e-05
56	0x37bf13a8	2.2778127e-05
57	0x374f5b44	1.2359411e-05
58	0x379e112c	1.8843064e-05
59	0x37988c3a	1.818511e-05
60	0x383779cf	4.3744043e-05
61	0x37b4af8b	2.1539416e-05
62	0x37b9c92b	2.2147395e-05
63	0x379c7116	1.8649309e-05
64	0x38370e42	4.364388e-05
65	0x3768fc95	1.3887086e-05
66	0x3807315c	3.2232478e-05
67	0x36912e5b	4.3267332e-06
68	0x399bd3b4	0.00029721635
69	0x383c229c	4.4854925e-05
70	0x36bec1ec	5.6850167e-06
71	0x3994a9e4	0.00028355338
72	0x393ec740	0.00018194038
73	0x36ee8faa	7.1096774e-06
74	0x36b13357	5.280988e-06
75	0x36e9b538	6.9650378e-06
76	0x3717a515	9.0387375e-06
77	0x373d7c3a	1.1294202e-05
78	0x36ca1858	6.022903e-06
79	0x36f09dcd	7.170928e-06
80	0x37292c00	1.00834295e-05
81	0x36d4a5dc	6.337401e-06
82	0x36e39573	6.7825254e-06
83	0x36270d69	2.4892745e-06
84	0x3749affa	1.2021506e-05
85	0x36e1e632	6.732321e-06
86	0x3704e50a	7.92114e-06
87	0x371891f7	9.093891e-06
88	0x38e9e266	0.00011152476
89	0x38927130	6.982905e-05
90	0x3b4c084c	0.0031132875
91	0x39d06901	0.00039751086
92	0x38c72a59	9.496947e-05
93	0x3b376ec9	0.0027989617
94	0x3ae0e679	0.001715853
95	0x38f51fb3	0.00011688415
96	0x384a6c0e	4.8261187e-05
97	0x37eef33d	2.8485078e-05
98	0x38985c9c	7.265175e-05
99	0x394b5053	0.00019389512
100	0x38c0f66d	9.201174e-05
101	0x38358523	4.3277756e-05
102	0x388202f0	6.19943e-05
103	0x38935815	7.025913e-05
104	0x386d6902	5.6603e-05
105	0x379e39da	1.8862007e-05
106	0x38e4f046	0.000109166416
107	0x38985408	7.263577e-05
108	0x38a790bd	7.99014e-05
109	0x38c721cb	9.495354e-05
110	0x390ad4ff	0.00013240053
111	0x37809ff5	1.5333275e-05
112	0x3ae8cf56	0.0017761986
113	0x39c4f754	0.00037568307
114	0x37f809bd	2.9568439e-05
115	0x3ac7664d	0.0015212983
116	0x3ab2457c	0.001360103
117	0x38207ad0	3.826135e-05
118	0x37bb58d1	2.2333496e-05
119	0x37d643b7	2.554232e-05
120	0x38111d48	3.4597964e-05
121	0x388e7164	6.792208e-05
122	0x37f286e4	2.8911461e-05
123	0x38b2ab23	8.519578e-05
124	0x38451ed5	4.6997175e-05
125	0x38321753	4.246023e-05
126	0x38063572	3.1997864e-05
127	0x3745d5ef	1.1791925e-05
128	0x389df5b5	7.53211e-05
129	0x38260b36	3.9587925e-05
130	0x381dfa6b	3.7664937e-05
131	0x387b99b9	5.998623e-05
132	0x394f7b75	0.0001978705
133	0x3708dedb	8.158119e-06
134	0x3b0857da	0.0020804317
135	0x399e39b4	0.000301791
136	0x37599ecf	1.2971183e-05
137	0x3b0158f4	0.0019736858
138	0x3a858aaa	0.001018842
139	0x378100a0	1.537829e-05
140	0x37cdbd62	2.4526093e-05
141	0x37f77594	2.9499446e-05
142	0x38a2b22d	7.75795e-05
143	0x388b7ef1	6.651681e-05
144	0x381c8127	3.731358e-05
145	0x37d98ced	2.593404e-05
146	0x3903cc2c	0.00012569193
147	0x381734d9	3.6050424e-05
148	0x38120c4e	3.4820572e-05
149	0x37393359	1.1038815e-05
150	0x38d166f4	9.985073e-05
151	0x3856dafc	5.122552e-05
152	0x3855304b	5.0828134e-05
153	0x389dd8c8	7.526722e-05

exp_avg f4 [7, 7]
0	0x3730944b	1.0524945e-05
1	0x3b026ed8	0.0019902494
2	0x3ab82417	0.0014048842
3	0x3b27ecda	0.0025623352
4	0x3c0d8314	0.0086372085
5	0x3bb13530	0.005407952
6	0x3b8fdefc	0.0043905955
7	0x3b6299e6	0.0034576594
8	0x3af3f5a4	0.0018612635
9	0x3b0badb8	0.0021313261
10	0x3b62a583	0.0034583516
11	0x3c3c2cc5	0.011485283
12	0x3bb78a83	0.0056012287
13	0x3bcf7902	0.006331564
14	0x3a322759	0.00067960244
15	0x39b7dd82	0.00035069516
16	0xbaf36444	-0.001856931
17	0x3a19b006	0.00058627164
18	0x3b0a1c6c	0.002107407
19	0x3a997b66	0.0011709749
20	0x3ab02d47	0.0013441228
21	0x3b732b38	0.0037104618
22	0x3b55aa41	0.00326027
23	0x3b11f760	0.002227269
24	0x3b7ab1bb	0.0038252908
25	0x3c15ea69	0.009150126
26	0x3bf0a265	0.0073435777
27	0x3c0499a4	0.008093271
28	0xbc0b5e72	-0.008506404
29	0xbc058a0f	-0.0081505915
30	0xbb9d829e	-0.0048068305
31	0xbc0ea129	-0.008705416
32	0xbd429d43	-0.047513258
33	0xbc201a7f	-0.009771942
34	0xbbdfcdd6	-0.0068299575
35	0xba74b251	-0.00093344325
36	0xb8f82433	-0.00011832304
37	0x385e52b7	5.300596e-05
38	0xbaa122f9	-0.0012293748
39	0x3c09909d	0.008396295
40	0xbc5132ad	-0.01276843
41	0x3aee802b	0.0018196156
42	0x3aa87765	0.0012852965
43	0x3a1662d8	0.0005736775
44	0x3a232507	0.0006223474
45	0xba4130bc	-0.0007369628
46	0x3be81649	0.0070827347
47	0x3b20bb04	0.0024525532
48	0xbc656fb4	-0.014003683

exp_avg_sq f4 [7, 7]
0	0x38d925f7	0.00010354438
1	0x37bcc117	2.250126e-05
2	0x36cea349	6.1582873e-06
3	0x376d38ef	1.4139557e-05
4	0x37b55f3b	2.1621227e-05
5	0x37a51473	1.9679055e-05
6	0x376427c3	1.3599117e-05
7	0x378dcbcf	1.6903416e-05
8	0x398ac984	0.00026471552
9	0x3789ce56	1.6427755e-05
10	0x379d8638	1.8778359e-05
11	0x37f02fdf	2.8632521e-05
12	0x37bf0e9d	2.277578e-05
13	0x37adcb00	2.0717736e-05
14	0x372b395a	1.02057475e-05
15	0x38014a59	3.082524e-05
16	0x391bf4a1	0.00014873083
17	0x373de403	1.1318366e-05
18	0x37444821	1.1699304e-05
19	0x37df7476	2.6637903e-05
20	0x370a82bd	8.255881e-06
21	0x36a91aac	5.0396975e-06
22	0x3739444f	1.1042764e-05
23	0x36ac8f69	5.1426946e-06
24	0x36c945b0	5.9983795e-06
25	0x3757f805	1.2872745e-05
26	0x377aa3e4	1.493932e-05
27	0x37bfa9d1	2.2848051e-05
28	0x381c6d29	3.729496e-05
29	0x37fc9e7a	3.0114537e-05
30	0x375f8161	1.3321959e-05
31	0x3859378b	5.178856e-05
32	0x3a03809e	0.0005016419
33	0x3844e6cb	4.6944984e-05
34	0x3896f486	7.1981034e-05
35	0x37c71e9a	2.3736899e-05
36	0x380460b4	3.1561314e-05
37	0x378536de	1.5880385e-05
38	0x38266512	3.9671613e-05
39	0x384a3989	4.8214137e-05
40	0x395ca127	0.00021040869
41	0x384a1b62	4.8186055e-05
42	0x37a6f8d6	1.9904615e-05
43	0x379f4b51	1.8989349e-05
44	0x3704e1f2	7.92042e-06
45	0x384b9637	4.853887e-05
46	0x3831feae	4.2437277e-05
47	0x37f4e817	2.9195142e-05
48	0x39d7fdac	0.00041196996

exp_avg f4 [7]
0	0x3cc7d86a	0.024395186
1	0x3d0c8e1e	0.03431522
2	0x3b8f5a96	0.0043748124
3	0x3d1a0e40	0.037611246
4	0xbdc11e65	-0.094296254
5	0xbb9ce294	-0.0047877524
6	0xbb3222da	-0.0027181418

exp_avg_sq f4 [7]
0	0x3a798fe3	0.0009520037
1	0x3acaeb68	0.0015481533
2	0x3a9e4385	0.0012074566
3	0x39afc5c3	0.00033525945
4	0x3b58a5b9	0.0033057763
5	0x3afd710d	0.001933606
6	0x3b1638d6	0.002292206

exp_avg f4 [7]
0	0x3cc7e03a	0.024398912
1	0x3d0c939d	0.034320462
2	0x3b8f54a0	0.0043741018
3	0x3d1a1255	0.03761514
4	0xbdc11f84	-0.09429839
5	0xbb9d048b	-0.0047918013
6	0xbb32830e	-0.002723876

exp_avg_sq f4 [7]
0	0x3a79909c	0.00095201447
1	0x3acaebef	0.0015481691
2	0x3a9e43a8	0.0012074606
3	0x39afcad5	0.00033529723
4	0x3b58a623	0.003305801
5	0x3afd70ec	0.0019336022
6	0x3b16391d	0.0022922226

exp_avg f4 [7, 22]
0	0xbc23d017	-0.009998343
1	0xbbbb96e8	-0.0057247765
2	0x3cef3659	0.02920072
3	0x3b41392c	0.002948354
4	0xbbdc2e96	-0.0067194207
5	0x3d00311e	0.03129684
6	0xbc41923c	-0.01181465
7	0xbbd22403	-0.0064129843
8	0xbba8572c	-0.005137345
9	0xbb1a63e9	-0.0023558086
10	0xb9eb44c1	-0.00044873919
11	0xbc09f003	-0.00841904
12	0xbbb060ea	-0.005382647
13	0xbb60958a	-0.003426882
14	0xbba6333f	-0.005072027
15	0xbba564c4	-0.0050474126
16	0xbb2e8c89	-0.0026634058
17	0xbbe5dc25	-0.0070147687
18	0xbb7ef003	-0.0038900382
19	0xbb657a07	-0.003501536
20	0xbb9479fb	-0.004531143
21	0xbb6be867	-0.0035996677
22	0x3b00649a	0.0019591213
23	0x39284726	0.00016048233
24	0xbc29d8da	-0.010366643
25	0x3a85f45f	0.0010219923
26	0x3880a9ef	6.135168e-05
27	0xbc2c3ed2	-0.010513024
28	0x3b629453	0.0034573271
29	0x375d6120	1.319524e-05
30	0x3aa17131	0.0012317059
31	0x3a6a054a	0.000892718
32	0x3a9c0bd0	0.0011905376
33	0x3b22ef43	0.002486185
34	0x3ad00376	0.0015870172
35	0x3b08adc9	0.0020855537
36	0x3ac7e159	0.0015249654
37	0x3af1191c	0.0018394324
38	0x3a694b31	0.0008899449
39	0x3b2b29dd	0.0026117482
40	0x3ab3ddaa	0.0013722677
41	0x3ac53adf	0.0015047452
42	0x3aab56bd	0.0013072115
43	0x3ac047c2	0.0014669823
44	0xbc4516b6	-0.0120293405
45	0x3b44748f	0.00299767
46	0x3cb71057	0.022346659
47	0xbc74f347	-0.01495058
48	0x3a9436bc	0.0011307816
49	0x3cb7dd3f	0.022444366
50	0xbcda6acd	-0.026662255
51	0x3b2161ad	0.002462487
52	0xba94fff3	-0.0011367783
53	0xbb235705	-0.0024923694
54	0xbbe1ce03	-0.0068910136
55	0xbb93408e	-0.0044937795
56	0xbb912a14	-0.004430065
57	0xba74632c	-0.0009322639
58	0xbb75e6a2	-0.00375215
59	0xbbc0840e	-0.005875117
60	0xbab2d538	-0.0013643866
61	0xbbcb155b	-0.006197614
62	0xbb104b9d	-0.0022017725
63	0xbb4d1cef	-0.0031297763
64	0xbae4e630	-0.0017463621
65	0xbb6d707c	-0.0036230376
66	0xbc0e0c45	-0.0086699175
67	0x3ac11146	0.0014729879
68	0xbb51a0b2	-0.003198665
69	0xbc20d14c	-0.009815525
70	0x3b40d04c	0.002942103
71	0xbb3a53f5	-0.002843139
72	0xbcb10501	-0.021608831
73	0x3abe5cc7	0.0014523499
74	0xb9daa075	-0.0004169975
75	0xb97819cf	-0.00023660737
76	0xb9d60446	-0.00040820445
77	0xb9fa5f39	-0.00047754662
78	0x383cc0c5	4.5002223e-05
79	0x3a5a06a8	0.0008317032
80	0x3a8772a4	0.0010333848
81	0xba3e76c2	-0.0007265621
82	0xb80b28a0	-3.3178017e-05
83	0x3a9ab6b9	0.0011803723
84	0x396c7383	0.00022549745
85	0xba75849f	-0.00093657704
86	0x399bc375	0.0002970953
87	0x39bb747c	0.00035754207
88	0x3c173cc8	0.0092308
89	0x394b36df	0.0001938003
90	0xbcff7a45	-0.031186232
91	0x3bd2c425	0.0064320737
92	0x3904857f	0.00012638232
93	0xbd02de07	-0.031950023
94	0x3c8f5f84	0.0175016
95	0x37605048	1.3370132e-05
96	0x3b60e1ff	0.0034314392
97	0x3b5c08f5	0.0033574675
98	0x3b8c2e43	0.0042779758
99	0x3bfb4db6	0.007669176
100	0x3bb0d1f5	0.0053961226
101	0x3b9f09df	0.0048534716
102	0x3b954eaa	0.0045564966
103	0x3bc620f0	0.006046407
104	0x3b2a5613	0.0025991246
105	0x3c0259c9	0.007955977
106	0x3b81bee1	0.003959522
107	0x3b9ab274	0.0047209803
108	0x3b75fa38	0.0037533175
109	0x3b936d52	0.004499116
110	0x3c518b7e	0.012789605
111	0x39a43a3d	0.00031323908
112	0x3bba5acd	0.005687094
113	0x3c1076dd	0.008817402
114	0x3b00552c	0.0019582016
115	0x3bb1882f	0.0054178457
116	0x3cc08edc	0.02350562
117	0x3af9f43a	0.0019069978
118	0xb8c81a53	-9.5416464e-05
119	0xb9dabd4e	-0.00041721243
120	0x39cf6991	0.0003956077
121	0xb9e7aff0	-0.00044190837
122	0x3a60dd70	0.00085779186
123	0xbba0b747	-0.004904661
124	0xb9849107	-0.00025285056
125	0x3a18088b	0.0005799613
126	0xba1c3e83	-0.00059602427
127	0xbaec9c11	-0.0018051883
128	0xba94c552	-0.001135031
129	0xb9a9ae91	-0.00032364254
130	0xba612d4f	-0.00085898204
131	0xba3e9fb7	-0.0007271724
132	0x3c220725	0.009889399
133	0xb9f88695	-0.00047402518
134	0xbc40b68c	-0.011762273
135	0x3c252e4a	0.010081837
136	0x39456b30	0.00018827314
137	0xbc540469	-0.012940505
138	0x3cbbee7d	0.022940869
139	0xb893c9ad	-7.047071e-05
140	0x3ac1d81c	0.0014789137
141	0x3aa0b6c0	0.0012261495
142	0x3b3ae1e6	0.0028515994
143	0x3b76a1fc	0.0037633171
144	0x3b26249c	0.002535141
145	0x39417e31	0.00018452924
146	0x3adc78bf	0.0016820653
147	0x3b6e6242	0.0036374484
148	0x3a6ecdec	0.0009109664
149	0x3b53b8ca	0.0032306188
150	0x3aa78fe6	0.0012783974
151	0x3adc29a9	0.0016797084
152	0x3aad33cd	0.001321429
153	0x3ad9e0df	0.0016622803

exp_avg_sq f4 [7, 22]
0	0x395ac8ea	0.00020864946
1	0x3818f3de	3.6466743e-05
2	0x3b0caf8d	0.002146694
3	0x389c4db6	7.4531345e-05
4	0x3867be51	5.5251938e-05
5	0x3b144400	0.002262354
6	0x3a19c9b8	0.0005866545
7	0x38443b33	4.6785175e-05
8	0x39089366	0.00013024881
9	0x37c906fe	2.3964323e-05
10	0x37e8d2e0	2.7754751e-05
11	0x38eee41c	0.00011391213
12	0x3863ed13	5.434181e-05
13	0x37f88db8	2.9629897e-05
14	0x385c2d5f	5.2494343e-05
15	0x387ebe6e	6.073567e-05
16	0x378e69e6	1.6977032e-05
17	0x38eb687d	0.00011225136
18	0x38110597	3.45759e-05
19	0x389331cf	7.018784e-05
20	0x3822b262	3.878994e-05
21	0x3824ea53	3.931888e-05
22	0x37a87aab	2.0084282e-05
23	0x3559f0cd	8.118921e-07
24	0x38e4f149	0.0001091683
25	0x36d1275e	6.2332683e-06
26	0x34cee924	3.8540122e-07
27	0x39018009	0.00012350095
28	0x38579517	5.1398845e-05
29	0x357f521a	9.5114376e-07
30	0x36294631	2.522382e-06
31	0x370a0c75	8.228341e-06
32	0x35cb5ac3	1.5151094e-06
33	0x366b7c1d	3.5089972e-06
34	0x3611215a	2.1626097e-06
35	0x360ca699	2.0958598e-06
36	0x3628261c	2.5056133e-06
37	0x365eaee0	3.3182368e-06
38	0x355d52ed	8.244959e-07
39	0x36b9e997	5.540623e-06
40	0x35f93717	1.8567979e-06
41	0x36b8fe56	5.513236e-06
42	0x35d12e3d	1.558517e-06
43	0x360f9fcf	2.1401681e-06
44	0x3983d81d	0.00025147284
45	0x36efb4f8	7.1438226e-06
46	0x3b36be99	0.00278846
47	0x399eaff9	0.00030267218
48	0x370308ec	7.810286e-06
49	0x3b32ab9f	0.0027262939
50	0x3a909f07	0.0011033722
51	0x36f34049	7.249448e-06
52	0x3807d83a	3.2387885e-05
53	0x381ed30b	3.7866685e-05
54	0x39287f54	0.00016069162
55	0x38d52d23	0.00010165039
56	0x38803a29	6.114349e-05
57	0x382b9ae6	4.0913837e-05
58	0x389298ca	6.990282e-05
59	0x38ced0e0	9.8617515e-05
60	0x3788b83d	1.6298256e-05
61	0x39170130	0.00014400925
62	0x3816a644	3.5917634e-05
63	0x38d695f0	0.00010232243
64	0x3808d051	3.2618937e-05
65	0x38831c19	6.2518004e-05
66	0x397c38ae	0.00024053708
67	0x362b0189	2.548188e-06
68	0x3a3f9b35	0.00073091994
69	0x393ded88	0.00018112932
70	0x3718c58a	9.105899e-06
71	0x3a4da2cd	0.00078443886
72	0x3a908540	0.001102604
73	0x365569b0	3.1800992e-06
74	0x37b3a753	2.141638e-05
75	0x375ffbc4	1.33504545e-05
76	0x37af91f8	2.0929598e-05
77	0x38333e5f	4.2735013e-05
78	0x37ad6d4a	2.0674099e-05
79	0x3785ad41	1.5935513e-05
80	0x378ecd7e	1.7023409e-05
81	0x380ff146	3.431856e-05
82	0x36d01180	6.2009203e-06
83	0x380e8e83	3.3988163e-05
84	0x3743f2a4	1.16794e-05
85	0x382ed1c7	4.1680203e-05
86	0x37455214	1.1761225e-05
87	0x378b50d2	1.6607726e-05
88	0x3816b03a	3.592691e-05
89	0x35ae86af	1.3003208e-06
90	0x39a353b9	0.0003115216
91	0x3803ddb6	3.143932e-05
92	0x35d9641a	1.6196893e-06
93	0x39a508f4	0.00031477923
94	0x391d572f	0.00015005165
95	0x35bb52d3	1.3956691e-06
96	0x36b55094	5.403601e-06
97	0x36a8117a	5.0088247e-06
98	0x37374f8d	1.0926172e-05
99	0x3771073e	1.4366406e-05
100	0x3711453c	8.658793e-06
101	0x36bbc6f5	5.596196e-06
102	0x37091364	8.170351e-06
103	0x372a42b2	1.0148318e-05
104	0x360c1bda	2.0877837e-06
105	0x37868269	1.6034772e-05
106	0x36967b7c	4.484724e-06
107	0x374d7e39	1.2248341e-05
108	0x368aa4cb	4.131905e-06
109	0x36e121d1	6.7094593e-06
110	0x3827fe81	4.0052928e-05
111	0x369cecb6	4.676719e-06
112	0x3a5f595b	0.000852009
113	0x380febcd	3.4313463e-05
114	0x3641cb59	2.8877605e-06
115	0x3a6008b1	0.0008546217
116	0x392f8ac6	0.00016740998
117	0x363aba40	2.7824572e-06
118	0x37691a5d	1.389402e-05
119	0x3721401e	9.611276e-06
120	0x372b8a50	1.0224598e-05
121	0x37fe676d	3.0327321e-05
122	0x37624d9a	1.3488718e-05
123	0x383b8fae	4.4718086e-05
124	0x37c66dac	2.365451e-05
125	0x376fc7d1	1.42920335e-05
126	0x36f10c3d	7.1837844e-06
127	0x3859feb5	5.1974046e-05
128	0x378f9685	1.711702e-05
129	0x37d3904e	2.5220357e-05
130	0x3750866a	1.2429062e-05
131	0x3773cd5c	1.4531743e-05
132	0x37e2f242	2.705411e-05
133	0x368e4749	4.2402285e-06
134	0x3a86d6ad	0.0010287367
135	0x38a2242d	7.7315e-05
136	0x35db0246	1.6317433e-06
137	0x3a8027f8	0.0009777537
138	0x39719dfb	0.00023042403
139	0x35c27273	1.4487435e-06
140	0x3735e541	1.0841818e-05
141	0x37351b1e	1.0794754e-05
142	0x3772e354	1.4477253e-05
143	0x37f52ac4	2.922619e-05
144	0x383909f0	4.4116692e-05
145	0x37a8db1b	2.012919e-05
146	0x38569fcb	5.1170395e-05
147	0x3790443e	1.7197915e-05
148	0x370333b2	7.820245e-06
149	0x3860e748	5.362116e-05
150	0x37976f73	1.80525e-05
151	0x38172353	3.6034104e-05
152	0x37705de6	1.4326977e-05
153	0x37add445	2.0722053e-05
