data_10frm/model/0_4_15_4.pt (torch_old, 18375 bytes, 52 tensors)

rnn.weight_ih f4 [7, 22]
000000 04 c8 c4 bd 03 dd 38 3e 79 ef 4e be 16 20 05 be
       -0.096084625 0.1805306 -0.20208539 -0.13000521
000010 0d e1 c6 3d ce 1c 59 3e d0 d9 10 be 94 ff 20 be
       0.09710894 0.21202394 -0.14145589 -0.15722495
000020 d1 a9 73 be db 14 df bd a6 53 0f bf fc 48 04 bf
       -0.23795249 -0.1089265 -0.5598701 -0.51673865
000030 af bb b6 be 16 fa f3 be 30 4c 6f be c6 2a be 3d
       -0.35690066 -0.47651738 -0.23368907 0.09285502
000040 61 85 13 3e 3d fd d2 be e2 97 82 3d d7 c5 d3 3d
       0.14406349 -0.4120883 0.063766256 0.10340469
000050 d8 a7 22 be 81 c9 4f bd f4 cb 27 bd 37 a6 5c 3e
       -0.1588434 -0.05072928 -0.04096599 0.21547781
000060 31 12 4c 3e bf 58 55 be df f5 83 be 61 b5 50 be
       0.19928814 -0.20834635 -0.25773522 -0.2038169
000070 80 3e e6 be e1 81 26 3e 49 cf 17 be d9 b6 39 3e
       -0.4496956 0.16260482 -0.14825167 0.18136157
000080 16 cb ed be bd a0 c5 bd a5 cf 35 be b4 ea 91 be
       -0.46444005 -0.09649799 -0.17754991 -0.28499377
000090 47 eb cb 3d b4 36 97 be 02 5b b5 bd 18 a4 9f bd
       0.09956985 -0.29533923 -0.08855249 -0.0779497
0000a0 ee 71 b0 be a8 bd 5d 3e 44 e9 04 be 63 33 2c 3e
       -0.3446192 0.2165438 -0.12979609 0.16816477
0000b0 ca 40 d6 3e ac c0 b0 3e ec f0 65 bd 48 f6 17 3f
       0.41846305 0.34521997 -0.056137964 0.5936017
0000c0 32 d7 95 3e ea fd 97 bd 35 1a 1a 3e fb a8 51 bd
       0.29265743 -0.07421477 0.1504906 -0.051186543
0000d0 c9 d5 6c 3d 75 89 4b 3e 1c 74 b2 bd 46 09 cf 3e
       0.05782107 0.19876654 -0.08713552 0.40436763
0000e0 99 47 1b 3e 82 81 67 be c4 d2 75 3e 47 e3 c4 3e
       0.15164031 -0.22607997 0.24006182 0.3845465
0000f0 b9 a8 77 3e 68 84 f0 3e 96 4d 29 3e 52 18 2d be
       0.24185456 0.46976018 0.16533503 -0.16903809
000100 d8 c8 0e 3e a6 c2 ca 3e 18 f8 d7 3c 5e 1f 82 3e
       0.13943803 0.3960163 0.026363418 0.25414556
000110 bf d5 f6 3d c3 ec 77 3e e0 eb aa 3d c3 92 27 3e
       0.120524876 0.24211411 0.08345771 0.16364579
000120 60 50 87 3c 14 81 cb 3e 98 71 3b 3e 74 f3 17 3e
       0.016517818 0.39746916 0.18305051 0.14838964
000130 f2 51 7d 3e 6b 70 21 3e 03 c0 19 be d2 cf b8 3d
       0.24738291 0.1576554 -0.15014653 0.090240136
000140 91 38 3e be 50 5f 09 3e 28 cd a7 3e 5d 95 09 be
       -0.18576266 0.13415265 0.3277371 -0.13435884
000150 7f c5 11 3c 36 ce a4 3e fb 15 90 be 04 54 f6 bd
       0.008897184 0.32188576 -0.2814177 -0.120277435
000160 67 c3 b9 3e 69 c5 21 3e 6e 91 a8 3e 09 44 d4 bd
       0.36281893 0.15797962 0.32923454 -0.10364539
000170 76 36 7b be 5e 88 1f be d4 6e 9b be f5 eb c9 be
       -0.24532494 -0.15579364 -0.30357993 -0.39437833
000180 23 c5 96 3e 02 9a f1 3d 24 81 22 be 9e 30 a0 be
       0.29447278 0.11796953 -0.15869576 -0.31287092
000190 ed 88 ac 3e 4a 56 4b be c0 85 61 bd c2 32 2f be
       0.33698216 -0.19857135 -0.055059195 -0.17109206
0001a0 b9 de ad be 98 a0 84 be 68 92 9a be e3 f0 07 bf
       -0.33958986 -0.25903773 -0.30189824 -0.5310194
0001b0 73 50 15 bd e6 21 a1 be d7 df 9c bd 8a ac 6e bd
       -0.036453675 -0.31471175 -0.076598816 -0.058270015
0001c0 34 eb 87 3e 73 d6 c5 3d e6 cd 4e be fc 75 15 3f
       0.26546633 0.096600436 -0.20195732 0.58383155
0001d0 64 29 c6 be fa 0c ad be 9c 30 ce be e6 f6 83 3d
       -0.38703454 -0.33798963 -0.4027146 0.064435765
0001e0 6d 72 3e bf a7 6b 09 bf 26 31 86 be 54 91 2c bc
       -0.7439335 -0.5367989 -0.26209372 -0.010532696
0001f0 5e 01 83 bc 33 6b 23 bf bd a6 13 bf 93 19 a1 bd
       -0.015991863 -0.6383545 -0.576763 -0.07866206
000200 05 68 93 be 17 50 1a bf ba 0b ca be 8c 5b 0c be
       -0.28790298 -0.6027846 -0.39462072 -0.13706797
000210 b7 12 32 bf 26 0e 96 be a1 cd 25 be b3 05 20 bf
       -0.69559807 -0.2930767 -0.16191722 -0.62508696
000220 a6 a6 d3 bc 81 92 74 3e 53 6d 97 be 18 e9 ac be
       -0.0258363 0.23884012 -0.29575595 -0.33771586
000230 7b e1 5a be d5 73 d2 be 3f e0 06 3d d3 31 94 3e
       -0.21375076 -0.41103998 0.0329287 0.28944263
000240 42 3e 88 3e fc 6c 8a 3d 88 fb f0 bc 79 35 fe bd
       0.2661 0.06759068 -0.029416814 -0.12412543
000250 96 e8 da 3d 43 6b ff be bb 06 9d bd d1 ce c1 be
       0.106888935 -0.49886522 -0.07667299 -0.378531
000260 49 d0 ee be 90 0f 13 bd
       -0.46643284 -0.035903513

rnn.weight_hh f4 [7, 7]
000000 42 2d 8b bd ec df dc be cb 82 7f be f5 9c 43 be
       -0.067957416 -0.4313959 -0.24952237 -0.19102843
000010 27 b7 1a be c8 3f be be 8e 8a 27 bf 7d aa 68 bd
       -0.1510893 -0.37158036 -0.6544579 -0.056803215
000020 43 cc 86 3d 87 e5 9e be 72 22 16 3e b3 91 23 bd
       0.065819286 -0.3103449 0.14661577 -0.03993387
000030 f9 94 1a 3e 55 68 84 be 4e bc 7b be 2a bd 26 3d
       0.15095891 -0.2586085 -0.24583551 0.040707745
000040 f1 e6 3d 3d c6 98 71 3d 23 d7 6a be d6 9f d9 3e
       0.04636282 0.058983587 -0.2293363 0.42504758
000050 b6 97 89 be 68 43 52 3e 92 90 19 3e 64 ff e5 3d
       -0.2687356 0.20533526 0.14996555 0.112303525
000060 e2 e7 0f 3f 46 fd d8 bc d4 91 83 bc 2e 3e 30 be
       0.562132 -0.026487958 -0.016060747 -0.1721122
000070 c0 cf bc be 5b a5 0f bf 6c 78 81 3a 8e ce 9c be
       -0.3687725 -0.5611169 0.0009877807 -0.3062634
000080 40 50 8a 3e cb e5 22 be 6c 21 25 be aa 33 ff be
       0.2701435 -0.15907972 -0.1612603 -0.49844104
000090 64 ea 08 bf 32 b9 25 be 66 b7 0f be fb 20 73 bd
       -0.5348265 -0.16183928 -0.14034805 -0.059357625
0000a0 eb d3 21 bf 1e 2e 57 be b9 28 05 bf b5 6d f8 bd
       -0.63213986 -0.21013686 -0.5201526 -0.121303
0000b0 17 ea b2 be b0 e1 f8 be b5 a8 f8 be ef 01 b0 bd
       -0.3494422 -0.48609686 -0.48566213 -0.08594119
0000c0 9a 82 e6 3e
       0.45021516

rnn.bias_ih f4 [7]
000000 65 7e 2b 3e b8 34 7c be ce f5 a0 3d 8f cc 9a be
       0.16747434 -0.24629486 0.078593835 -0.3023419
000010 2f 26 f1 be f6 ea dd be bb a9 8f 3e
       -0.47099444 -0.43343323 0.28059182

rnn.bias_hh f4 [7]
000000 ff 18 8b be 0f b7 b8 3b 28 53 00 3f 67 df a5 3d
       -0.27167508 0.0056370567 0.50126886 0.08099251
000010 75 10 04 3e 75 ee a1 bd d2 3f 89 3e
       0.12896903 -0.0790681 0.26806504

exp_avg f4 [7, 22]
000000 97 8d 2a b9 4d 1e e8 b9 68 ac e2 ba ca f5 d1 b9
       -0.0001626521 -0.00044273064 -0.0017293813 -0.00040046714
000010 ee 31 8a b9 77 d3 db ba f3 19 6d ba e3 70 a0 b9
       -0.00026358612 -0.0016771395 -0.0009044699 -0.00030601685
000020 1f 6a 1b ba 63 8d 4e 39 79 3a 5a 3a 52 f8 b9 39
       -0.0005928594 0.00019698362 0.0008324753 0.00035470963
000030 01 79 90 39 3d 9d 5a 39 14 70 ea 39 76 16 d7 38
       0.00027555975 0.00020848676 0.00044715463 0.000102561826
000040 4a 73 de 38 9c 1e f3 39 78 45 f1 39 87 4f 0e 39
       0.00010607259 0.00046371378 0.0004601886 0.00013571802
000050 3a d7 96 39 0f d4 30 39 cf 99 8d b8 0f 0a 23 b9
       0.00028770586 0.00016863666 -6.752053e-05 -0.00015548638
000060 8b f8 f2 ba 51 d4 d6 b9 7d 3d ac b5 17 19 f1 ba
       -0.0018537206 -0.0004097545 -1.2832894e-06 -0.0018394318
000070 37 c4 27 ba 03 d6 50 34 e4 37 0c 39 c0 5f 30 39
       -0.0006399783 1.9449367e-07 0.00013372261 0.00016820338
000080 85 81 3c 3a 1d 79 6d 39 9f 63 35 39 51 ca 1c 39
       0.0007190931 0.000226472 0.00017298617 0.00014952688
000090 96 64 a5 39 d7 a6 f1 38 8d cb f1 38 4a b9 e7 39
       0.00031546195 0.00011522852 0.0001152969 0.00044197805
0000a0 f8 e5 24 3a fb f5 24 39 38 6b 88 39 9d df 2f 39
       0.00062903715 0.00015731894 0.00026019826 0.00016772603
0000b0 05 23 2c 3c 8b 29 e2 3b 7d 8f 0a bb 12 5c 99 3b
       0.010506396 0.006901925 -0.0021142655 0.004680165
0000c0 e2 de ec b9 f5 62 e4 ba 59 a8 9c 3c 82 13 d9 b9
       -0.00045179488 -0.0017424511 0.019123243 -0.00041404
0000d0 c9 07 5b ba 9e 71 07 39 b2 35 87 bb 63 98 be 3a
       -0.0008355347 0.00012916929 -0.004126274 0.0014541264
0000e0 9c d7 d3 3a 4c b8 81 3a 59 79 cd 3a b7 b6 b5 39
       0.0016162279 0.0009896844 0.0015676423 0.00034659143
0000f0 22 06 42 39 b6 b1 83 bb 82 62 5a ba c0 c7 65 3a
       0.00018503566 -0.0040189875 -0.0008330719 0.0008765422
000100 b6 32 62 3b 6e fc 4d 3a f1 1d 2d 3b 5b 9c 29 bb
       0.003451509 0.00078577443 0.0026415552 -0.0025880549
000110 03 ab 1b bc 39 64 a1 3a 27 1b 5b ba e6 cd 2c bc
       -0.009501222 0.0012313194 -0.0008358233 -0.010547137
000120 e2 b7 87 3b ee ad 5b ba 83 24 4f 3a da bd 52 39
       0.0041417936 -0.00083801046 0.0007901864 0.00020097886
000130 d1 c1 cc 3b 11 92 b6 ba a7 26 07 3a c3 be 7c 39
       0.0062486907 -0.0013929029 0.0005155601 0.00024103657
000140 29 03 7f 3b 35 70 23 3a 3f 1a 1a 3a 47 ae ba 3a
       0.0038911796 0.00062346767 0.0005878545 0.0014242613
000150 f2 e9 0c 3b 94 66 20 3a 9c 74 6b 3b 40 8b c4 3a
       0.0021501747 0.0006118801 0.003592766 0.0014995113
000160 6b 29 c8 ba 6a 6a 9d ba 84 f7 dd b9 cf 9f 2d ba
       -0.0015271133 -0.0012009863 -0.00042336818 -0.00066232396
000170 eb 97 5e b9 a0 89 b7 b9 b2 5f 81 bb 64 14 bf b9
       -0.00021228164 -0.0003500702 -0.0039481753 -0.0003644555
000180 43 3e ac b7 a8 2f d9 39 14 43 8a 39 8d 67 7b 39
       -2.053299e-05 0.00041424972 0.00026371388 0.00023975801
000190 fc 52 63 ba 2a 6a 09 b8 18 11 1d 3a 75 3f f2 37
       -0.00086717284 -3.276222e-05 0.0005991622 2.8878198e-05
0001a0 d7 94 b1 38 55 34 6d 3a 7d c0 00 b9 2e f2 ce 35
       8.467741e-05 0.00090486306 -0.00012278739 1.541868e-06
0001b0 2e a3 a7 b9 63 2d 9f 37 32 ef 06 bc 2f 00 b2 39
       -0.000319743 1.8975412e-05 -0.00823574 0.00033950942
0001c0 41 5a ac 3c a9 4a ad ba a3 82 e6 3a 35 f7 b2 3c
       0.02103913 -0.0013221103 0.001758654 0.021846393
0001d0 83 90 2b bc 00 24 ed 3a 51 c8 95 ba ca b1 08 bb
       -0.010471466 0.0018092394 -0.0011427497 -0.0020857924
0001e0 86 2a 10 bc fd e6 7b b9 07 81 16 bb 06 44 09 bb
       -0.008799201 -0.00024023275 -0.002296509 -0.0020945086
0001f0 10 70 96 bb 07 8e d0 ba 36 84 bf ba a0 22 b1 ba
       -0.0045909956 -0.0015911468 -0.0014611545 -0.0013514347
000200 30 4c a4 bb f9 c2 01 bb 69 67 f3 bb b9 9d 1e bb
       -0.005013965 -0.001980005 -0.007428099 -0.0024202897
000210 b6 fb 34 bb e2 72 92 b9 8a c3 26 bc 24 0c a9 bb
       -0.0027615852 -0.00027932884 -0.010178456 -0.005158918
000220 65 46 ed 39 8d 85 1c bc 94 bc 1a bc 8f 4b 11 3a
       0.0004525661 -0.009553325 -0.009444375 0.000554257
000230 7c c1 51 3a aa e3 41 3a 1e 87 9b 3b 27 05 de 3a
       0.00080015487 0.00073962903 0.004746332 0.0016938791
000240 8b 58 93 3a 93 6d 64 3a 6f 48 3a b9 7b 91 30 3a
       0.0011241598 0.00087138376 -0.00017765326 0.00067355455
000250 d4 76 33 3a 2e 99 37 3b d6 ce 7c 3b ac de 5d 3a
       0.0006846015 0.0028014886 0.0038575432 0.00084636617
000260 61 fa 6e 3a fc 0b 0f 38
       0.0009116289 3.4105018e-05

exp_avg_sq f4 [7, 22]
000000 ac e3 cb 35 d3 ea 8b 35 26 34 24 38 93 57 97 35
       1.519094e-06 1.042465e-06 3.9149214e-05 1.1275864e-06
000010 c4 e1 23 35 cd f7 27 38 ea 67 70 36 e3 f4 72 35
       6.1050764e-07 4.0046685e-05 3.5823273e-06 9.050838e-07
000020 68 39 9d 36 e4 79 54 35 42 e9 b9 35 ad 8d 2e 35
       4.6856476e-06 7.915353e-07 1.3851461e-06 6.5026217e-07
000030 88 80 07 35 07 19 9b 34 bc 7b 04 35 19 09 73 34
       5.0478457e-07 2.888921e-07 4.935389e-07 2.2634448e-07
000040 b2 c1 0b 35 54 f5 93 35 72 31 95 36 e0 e7 24 35
       5.20634e-07 1.1023753e-06 4.4463022e-06 6.1432183e-07
000050 30 41 e8 34 67 90 3a 35 71 87 be 35 1d c2 f5 34
       4.3260798e-07 6.950053e-07 1.4195522e-06 4.5776042e-07
000060 a7 dc 3e 38 c1 04 76 36 a4 94 73 33 9a 71 38 38
       4.550503e-05 3.6659624e-06 5.6713034e-08 4.397482e-05
000070 40 d9 52 37 74 10 a0 33 1c 19 3d 35 07 e5 91 35
       1.2567558e-05 7.4535734e-08 7.0444526e-07 1.0869998e-06
000080 5e 4c 87 36 4b 20 6e 35 e3 5e 54 35 80 29 e0 34
       4.032204e-06 8.87089e-07 7.911423e-07 4.1753447e-07
000090 2b 76 9b 35 c3 88 99 34 b5 3a 8b 35 27 bd e6 35
       1.1582791e-06 2.8597978e-07 1.0373393e-06 1.7191386e-06
0000a0 d6 02 4b 36 e0 d9 53 35 74 31 7e 34 f1 4c 93 35
       3.0251008e-06 7.8920675e-07 2.3673584e-07 1.0974746e-06
0000b0 d6 3d 6a 38 a0 ed ae 37 99 44 db 3a cb af 14 39
       5.5847537e-05 2.085307e-05 0.0016728818 0.00014179868
0000c0 a4 2b a6 35 23 6c d4 3a 96 a1 0d 3a f0 34 c8 35
       1.2380665e-06 0.0016206544 0.00054028013 1.4916568e-06
0000d0 e5 d0 7b 37 a1 ca 03 38 b9 42 6e 39 54 7a 1f 38
       1.5009403e-05 3.1421547e-05 0.00022722305 3.802248e-05
0000e0 cc 62 a8 37 29 77 80 37 33 e6 c4 37 d8 7f 00 37
       2.0073167e-05 1.5314277e-05 2.3472216e-05 7.6591605e-06
0000f0 fc 03 80 37 74 f7 df 38 71 fa 3b 39 21 bf b0 37
       1.5260644e-05 0.000106795604 0.00017927006 2.1069836e-05
000100 89 03 5c 37 da 33 b3 37 b6 26 cb 37 46 2d 77 36
       1.3113845e-05 2.1362608e-05 2.4217512e-05 3.683222e-06
000110 a5 f1 62 3a 00 53 a6 38 6c e9 dc 35 f3 2c 55 3a
       0.00086572237 7.930957e-05 1.6459212e-06 0.0008132003
000120 13 8d 7f 39 16 e9 00 36 56 47 03 37 82 2a 1e 38
       0.0002437125 1.920916e-06 7.824818e-06 3.7709724e-05
000130 49 4c 30 38 3b 94 fb 37 26 a3 62 37 5d 73 07 37
       4.2032716e-05 2.9990557e-05 1.3508636e-05 8.073487e-06
000140 1e 81 dc 37 b9 6d 97 36 d3 fa 3f 37 b7 11 34 38
       2.6286169e-05 4.512924e-06 1.1442887e-05 4.2931842e-05
000150 b9 5a 90 38 c4 c6 88 37 dd 59 14 37 16 3c 76 37
       6.8833535e-05 1.630502e-05 8.84241e-06 1.46767325e-05
000160 fd 6f a1 36 d4 39 0e 36 4f c8 01 3a 7a 4b 06 38
       4.811211e-06 2.119331e-06 0.0004950808 3.2018383e-05
000170 cc 84 a0 34 18 ab f5 39 4f 23 61 38 c9 0c 33 35
       2.9898945e-07 0.00046857516 5.3677064e-05 6.67013e-07
000180 8a bb 08 37 b8 ab 4d 37 f1 75 b0 37 e8 48 14 37
       8.1498965e-06 1.2258934e-05 2.1035756e-05 8.838462e-06
000190 23 e5 dc 37 4e cb 98 36 f5 e9 ce 36 88 a9 35 36
       2.6332744e-05 4.553621e-06 6.1665146e-06 2.7069782e-06
0001a0 d4 1f 90 36 f7 e0 bf 37 1e 96 53 38 e3 92 ed 36
       4.2952397e-06 2.2873732e-05 5.0446128e-05 7.0802503e-06
0001b0 4d 1a 9b 36 1c e7 e1 36 b0 6c ed 37 21 f7 69 35
       4.622422e-06 6.732427e-06 2.8303213e-05 8.7158884e-07
0001c0 be 14 63 3a 67 9d 37 37 e1 f9 4c 35 a1 c0 67 3a
       0.00086624536 1.0944298e-05 7.6359544e-07 0.00088406546
0001d0 72 3e e5 37 cf 29 4e 35 7f ca c6 36 77 ef 0b 37
       2.7328006e-05 7.680182e-07 5.9244335e-06 8.3408e-06
0001e0 ae 1a 97 38 2e 1b 40 37 74 73 41 37 50 77 25 38
       7.2052106e-05 1.145042e-05 1.15305775e-05 3.9450184e-05
0001f0 b5 6a eb 37 28 0a 90 36 c6 2e 8a 36 fe da e6 37
       2.8063872e-05 4.2927168e-06 4.1181656e-06 2.7520113e-05
000200 80 85 be 38 e1 eb 15 37 7c 71 ed 37 ec 47 2e 37
       9.084772e-05 8.936012e-06 2.8305447e-05 1.0387954e-05
000210 f1 e7 cf 38 8b e9 93 36 66 0d 41 3a ea fb fb 37
       9.9137316e-05 4.4081294e-06 0.0007364362 3.0038838e-05
000220 36 1c 5a 36 13 f8 53 3a de 22 8a 39 57 da 90 36
       3.2500952e-06 0.0008085977 0.0002634739 4.3169525e-06
000230 91 50 87 36 da 0b 4c 37 9e 76 d1 37 17 83 88 37
       4.0326927e-06 1.2162107e-05 2.4969977e-05 1.6273507e-05
000240 9c 7c 47 37 cc 1d 0f 37 c4 79 ae 38 47 14 94 36
       1.1890337e-05 8.530402e-06 8.319647e-05 4.4131043e-06
000250 87 32 b6 36 9f 58 b3 37 9d 9e 88 38 1e 13 26 37
       5.429905e-06 2.137973e-05 6.5145294e-05 9.898822e-06
000260 c1 12 a7 37 37 fa d7 37
       1.9916684e-05 2.5746513e-05

exp_avg f4 [7, 7]
000000 ab 8b 39 ba c7 c7 93 38 ed 3e 0c 3a ac b6 31 3a
       -0.0007078002 7.046718e-05 0.0005349953 0.00067792344
000010 1f 4b 9a 39 0d 02 2c 3a 5b 2f 42 39 a3 f8 a3 38
       0.00029429139 0.0006561585 0.00018518923 7.818758e-05
000020 c0 c2 85 38 08 e4 30 3a c7 68 fb 39 88 58 18 39
       6.378209e-05 0.00067478465 0.00047952516 0.0001452883
000030 67 a8 aa 39 c8 59 fd 38 25 9f b2 38 d8 56 71 b9
       0.00032550396 0.00012080703 8.5173444e-05 -0.00023015903
000040 3b 3a 7f bc f0 94 b4 3b 8c b3 1e 3b 85 b3 02 3c
       -0.015577848 0.005510919 0.0024215905 0.007977371
000050 14 0c 1d 3a 8c 7d c0 39 df 35 56 39 01 93 94 3b
       0.00059908745 0.00036714633 0.00020428699 0.004534126
000060 ed 02 f0 bb fc 88 31 3a fc de 20 3c f3 4c 11 3b
       -0.0073245675 0.00067724264 0.009818789 0.002217111
000070 68 97 b9 37 25 8a b5 35 b9 21 d5 3a 37 34 63 3b
       2.2124223e-05 1.3525756e-06 0.001626066 0.0034668574
000080 97 e1 c0 bb 56 ed 76 3a d4 00 d7 39 7b e8 74 ba
       -0.0058862674 0.0009419521 0.00041008613 -0.00093425036
000090 ca 04 82 ba 5d a1 bc 3a be 35 91 3a 1a 37 e4 b9
       -0.000991964 0.0014391352 0.0011078638 -0.00043528603
0000a0 79 39 ab bc 8d 82 0d ba ea dd 06 3a 4e e7 c8 39
       -0.020901429 -0.0005398177 0.0005144762 0.00038319308
0000b0 0e de 5f 3b b0 66 83 3b bb 50 9f 3a 3a fa 59 3b
       0.0034159455 0.004010044 0.0012154797 0.003326072
0000c0 88 a0 48 bb
       -0.0030613262

exp_avg_sq f4 [7, 7]
000000 36 7d a1 36 30 56 8e 34 cc 7d 89 35 65 20 37 36
       4.8127504e-06 2.651227e-07 1.0243907e-06 2.728798e-06
000010 bf d1 21 35 c3 94 cc 34 f0 d4 0f 35 2c 99 95 34
       6.0282395e-07 3.81062e-07 5.3581516e-07 2.786486e-07
000020 c4 5a 03 35 86 64 d8 36 ff a8 51 36 09 2c 68 35
       4.8933384e-07 6.449004e-06 3.1241796e-06 8.6490815e-07
000030 18 bf e9 34 1d 62 92 35 d7 c8 7f 36 30 3a f7 36
       4.353867e-07 1.0906402e-06 3.8114865e-06 7.3679475e-06
000040 df 3f 9f 39 2c c2 2b 39 28 bd 95 37 1f 24 b8 37
       0.0003037443 0.00016380165 1.7850267e-05 2.195133e-05
000050 51 a5 68 37 c1 74 01 36 7f ba 9a 36 97 b4 0a 38
       1.3866768e-05 1.9290458e-06 4.6112687e-06 3.306995e-05
000060 41 21 57 39 23 b3 fb 36 33 b7 b2 37 66 0c f5 37
       0.00020516386 7.501237e-06 2.1304562e-05 2.921205e-05
000070 ff 81 c9 35 1f a4 01 36 9d 33 68 37 cf 52 5b 38
       1.5013501e-06 1.931803e-06 1.3840295e-05 5.229079e-05
000080 19 8e 8d 38 5a fa 37 36 87 fa b7 36 b4 9e 10 36
       6.749872e-05 2.7414849e-06 5.48299e-06 2.155005e-06
000090 eb 69 be 35 0d 73 5b 37 e6 f5 2b 38 b9 44 94 36
       1.4186929e-06 1.3080205e-05 4.0998588e-05 4.418744e-06
0000a0 f2 09 5c 39 9e 28 49 37 6f c2 17 36 fd 21 24 36
       0.0002098454 1.19899905e-05 2.2613929e-06 2.4457688e-06
0000b0 a4 43 97 37 20 fc 11 38 fe 0c c9 36 77 3c 4b 37
       1.80321e-05 3.4805504e-05 5.9917793e-06 1.2113821e-05
0000c0 f1 8f 21 39
       0.00015407779

exp_avg f4 [7]
000000 9e e3 e2 3a 02 a2 f9 3a 23 19 4f 3a 8c dd 2b 3c
       0.0017310267 0.0019045474 0.0007900169 0.010489833
000010 ef fc 1c 3a 87 0f ae bc b0 ac 20 3c
       0.0005988618 -0.021247638 0.009806797

exp_avg_sq f4 [7]
000000 b1 e9 2f 38 41 f4 48 38 77 f0 e7 3a f6 1c 6b 3a
       4.1940893e-05 4.7911195e-05 0.0017695565 0.0008968854
000010 3a 4c 04 3a f9 24 6c 3a 46 31 5e 3a
       0.0005046759 0.0009008195 0.000847597

exp_avg f4 [7]
000000 1c 29 e3 3a 50 7c f9 3a 66 2d 4e 3a 54 ea 2b 3c
       0.0017330977 0.001903424 0.0007865041 0.01049288
000010 20 e2 1d 3a 52 0a ae bc ee b0 20 3c
       0.000602277 -0.021245155 0.009807808

exp_avg_sq f4 [7]
000000 e8 ea 2f 38 e8 f1 48 38 77 f0 e7 3a a4 1c 6b 3a
       4.1942025e-05 4.790901e-05 0.0017695565 0.00089688064
000010 67 4c 04 3a 9f 24 6c 3a 50 31 5e 3a
       0.0005046785 0.00090081425 0.0008475976

exp_avg f4 [7, 22]
000000 28 c7 ad 38 53 be 98 39 e7 9f f9 ba a7 c1 72 b9
       8.2863786e-05 0.00029133502 -0.0019044847 -0.0002315106
000010 cb 26 87 39 85 b0 f9 ba ce b6 8a b9 bf 1f af 39
       0.0002577811 -0.0019049799 -0.0002645761 0.00033402254
000020 e7 a8 b0 b8 30 02 81 39 e9 ed 26 3a ea fb e8 39
       -8.4237945e-05 0.00024606427 0.0006367849 0.0004443818
000030 95 17 97 39 cc 3c 40 39 0e 92 7b 39 79 56 1a 39
       0.00028818534 0.00018333195 0.00023991635 0.00014718798
000040 1a 9b f5 39 24 f1 0d 39 c2 a7 20 3a 4d 00 1b 39
       0.000468456 0.0001353664 0.00061285135 0.00014782064
000050 ac 3f 93 39 99 37 2d 39 e6 c2 42 bc 1f 38 59 38
       0.00028085464 0.00016519277 -0.011887288 5.17891e-05
000060 3d f1 19 bc 31 da 25 bc 0d e6 5e 3b 91 8d cc bb
       -0.009395895 -0.010122822 0.0034011633 -0.006242462
000070 df e1 01 bd f3 ae 27 ba e1 7a c8 3a a2 dd ce bb
       -0.031709548 -0.0006396614 0.001529541 -0.006313042
000080 2a 45 97 3b 2b 77 9b 3b a3 c4 18 3b c2 1c 2f 39
       0.0046163993 0.0047444305 0.0023310564 0.00016700014
000090 99 e3 3e b8 72 5a c6 39 3a 7b b5 bb 9f b8 8d 39
       -4.5511497e-05 0.0003783289 -0.0055383714 0.0002703117
0000a0 35 54 11 3c 21 28 f2 39 4f 45 20 3b 37 55 1a 39
       0.008870174 0.00046187735 0.0024455374 0.0001471833
0000b0 c1 35 b2 38 44 d9 04 39 a3 b8 16 ba c4 a9 10 b8
       8.497714e-05 0.00012669439 -0.0005749559 -3.4490382e-05
0000c0 c6 e2 cc 38 ab 61 1a ba 0a 59 6c 38 41 82 12 39
       9.769718e-05 -0.00058891875 5.634971e-05 0.00013972168
0000d0 6b 7b 2f 38 33 23 ce 38 fa 2f 2b 39 47 8c c6 38
       4.1838193e-05 9.829402e-05 0.00016325703 9.4675044e-05
0000e0 31 9c 9a 38 6a 68 6b 38 2a 38 8e 38 ef c8 2b 38
       7.372385e-05 5.612561e-05 6.781549e-05 4.095671e-05
0000f0 cc a1 38 39 dd 39 2b 38 26 95 28 39 a1 d9 3d 38
       0.00017607881 4.0823466e-05 0.0001607729 4.5263794e-05
000100 2e 06 9d 38 f8 cc 68 38 dd 20 26 3c 33 05 de 3b
       7.4874944e-05 5.5504002e-05 0.010139671 0.006775522
000110 48 87 f5 bc 87 97 8a 3b c1 b4 60 3b 71 3b 04 bd
       -0.029971734 0.0042294892 0.0034287425 -0.03228325
000120 9a a1 b3 3c c4 b0 d4 3b 2e 52 39 3a 09 3c a6 3b
       0.021927644 0.0064907987 0.00070694357 0.0050730747
000130 dc e7 1f 3c 5f cc 7d 3b b9 34 94 3b bb f9 71 3b
       0.009759869 0.003872655 0.0045228866 0.0036922533
000140 7a 7b 97 3b ce 57 22 3b a3 e7 59 3c 19 d4 20 3b
       0.004622874 0.0024771574 0.013299855 0.0024540483
000150 a6 ca a0 3b ef cd 25 3b ca 23 66 3b 65 fc 48 3b
       0.00490697 0.0025299748 0.0035116547 0.0030668017
000160 4c 93 99 39 dc 22 a9 39 12 12 57 ba 5e 58 45 38
       0.0002929218 0.00032260164 -0.0008204292 4.705076e-05
000170 9b 1c 37 39 06 f7 6b ba c0 ae 94 39 62 08 bf 39
       0.00017462896 -0.0009001348 0.0002835896 0.00036436605
000180 c5 ee 1c 39 9a ce d8 39 0c a0 f0 38 21 f2 8c 39
       0.00014966268 0.0004135266 0.00011473903 0.0002688328
000190 7e ae ae b9 c8 82 01 39 88 d0 60 39 3a a8 af 38
       -0.00033317873 0.00012351118 0.00021439989 8.375985e-05
0001a0 f0 a0 9e 39 ee 8b ac 38 3a 07 21 39 17 98 b3 38
       0.00030256016 8.227663e-05 0.00015356849 8.563714e-05
0001b0 5e 50 21 39 82 55 b0 38 85 8f 64 3b 4b 56 3b bb
       0.00015384096 8.408261e-05 0.0034875583 -0.002858537
0001c0 a3 3f b5 3c 56 fc a1 3b 2a 26 30 bb 00 43 b0 3c
       0.02212507 0.004943411 -0.0026878216 0.021516323
0001d0 37 14 0f 3c 22 28 16 bb bd 2a 81 38 84 af 93 39
       0.008732847 -0.0022912105 6.15916e-05 0.00028168794
0001e0 5a 21 7b bb ee 30 24 bc 02 0a aa bb 1a 36 10 bb
       -0.003831944 -0.010021431 -0.0051891813 -0.0022004903
0001f0 96 60 71 ba f8 fb c5 ba 0f 3a 45 bb 33 0a c0 ba
       -0.0009207813 -0.0015105 -0.003009442 -0.0014651477
000200 0c 8d fe bb 57 da d5 ba d7 42 a0 bb 8a 0c ca ba
       -0.007768279 -0.0016315681 -0.0048907804 -0.0015415114
000210 07 3d 25 ba 6b 57 f6 ba 70 6e 32 3c 7e 2e c9 39
       -0.0006303344 -0.0018794363 0.010890588 0.00038372347
000220 f1 08 ee ba 78 64 31 3c e0 e0 13 3a 1d 4f bd ba
       -0.0018160624 0.010827176 0.0005641114 -0.0014443133
000230 82 97 ad b8 15 35 7d 3a ca f6 d7 bb 14 aa 0c ba
       -8.2775034e-05 0.0009659094 -0.006590699 -0.000536592
000240 fb c6 96 ba 22 61 87 ba 0d 35 1e bb f4 3f 53 ba
       -0.0011503393 -0.001032863 -0.0024140507 -0.0008058541
000250 1b 91 2f bb ce 80 49 ba d2 81 69 bb c3 7a 52 ba
       -0.002678937 -0.0007686735 -0.0035630357 -0.0008029157
000260 d5 52 a0 ba ec 9e 83 ba
       -0.0012231717 -0.0010041869

exp_avg_sq f4 [7, 22]
000000 53 87 80 35 4c ac a6 36 e6 29 4a 38 55 1b fd 35
       9.576128e-07 4.9672435e-06 4.8199574e-05 1.8857924e-06
000010 72 32 87 36 f9 22 4a 38 0a bc d9 36 96 a7 a6 36
       4.029186e-06 4.8193124e-05 6.4889946e-06 4.966695e-06
000020 c6 79 56 36 ec cd 7e 35 c9 47 f3 35 9a 06 d8 35
       3.1959366e-06 9.492203e-07 1.8125803e-06 1.6095175e-06
000030 a5 ce 6d 35 89 30 bd 34 1a 91 2c 35 60 86 07 35
       8.859009e-07 3.5239307e-07 6.4286144e-07 5.048696e-07
000040 f9 4a 96 36 ad 94 b7 34 65 bc 84 36 b4 9e c3 34
       4.4790763e-06 3.4194582e-07 3.9558386e-06 3.6437052e-07
000050 3b 4f 11 35 9a 4e fb 34 68 c4 67 39 ea 13 15 39
       5.4132005e-07 4.6809583e-07 0.00022103044 0.00014217166
000060 b8 53 08 3b d5 5c 88 38 89 b6 94 38 a2 da 16 3b
       0.0020801853 6.502277e-05 7.09119e-05 0.00230185
000070 90 c5 64 3a 89 08 2e 39 68 b0 e1 37 eb ae fd 38
       0.0008726949 0.00016597113 2.6904236e-05 0.00012096561
000080 79 3d 0b 39 c4 72 68 38 9a 47 00 38 53 81 b8 37
       0.00013278973 5.5419994e-05 3.0584262e-05 2.199473e-05
000090 29 b3 2b 38 2a 84 82 37 ec 07 88 39 ba bb 6c 37
       4.0936433e-05 1.5558751e-05 0.00025945844 1.4110405e-05
0000a0 7b d8 2c 39 57 e9 7f 37 e8 48 d1 37 13 69 ce 37
       0.00016483844 1.5253513e-05 2.4948691e-05 2.4606043e-05
0000b0 ee 10 2d 35 9e 9e e2 34 25 9b af 36 52 1c 64 34
       6.447216e-07 4.221119e-07 5.2334676e-06 2.1244458e-07
0000c0 56 9d 13 34 f0 3e c7 36 51 64 42 36 7d 01 06 35
       1.374768e-07 5.937989e-06 2.8966645e-06 4.9921056e-07
0000d0 34 43 cc 33 97 28 b9 34 38 99 67 34 80 ec fb 33
       9.5117144e-08 3.4488468e-07 2.1569292e-07 1.17311174e-07
0000e0 5d f1 f3 33 6f d2 60 33 2a 01 e8 33 5e 77 79 33
       1.1359473e-07 5.2345452e-08 1.08035536e-07 5.8083394e-08
0000f0 cf b2 fc 34 7e e6 71 33 9f b2 c2 34 c3 41 2f 33
       4.7068758e-07 5.6321817e-08 3.626528e-07 4.0805173e-08
000100 3f f5 7e 33 0a 03 e2 33 80 21 bf 38 11 ef 19 39
       5.9362034e-08 1.0524498e-07 9.1138296e-05 0.00014680276
000110 5b 3a 2d 3b 9c 27 ed 38 c1 b2 f2 38 0c 73 2d 3b
       0.0026432488 0.000113084185 0.00011572755 0.0026466278
000120 fc f4 24 3a 31 10 29 39 9b 04 3d 38 f6 f1 92 38
       0.0006292609 0.00016123128 4.50654e-05 7.006891e-05
000130 56 84 33 39 13 a5 de 38 57 7d 2e 38 b3 4a c0 37
       0.00017120069 0.000106165324 4.1601565e-05 2.2922968e-05
000140 94 21 33 38 99 9a b2 37 42 78 79 39 51 a6 81 37
       4.2708198e-05 2.1291244e-05 0.0002379129 1.5455445e-05
000150 b9 7b 82 39 7b 51 9a 37 fa 3e 15 38 e8 da b9 37
       0.00024887713 1.8396173e-05 3.558302e-05 2.2155655e-05
000160 75 f8 2b 35 41 b1 24 36 28 dd 54 38 7e 95 00 36
       6.4064017e-07 2.454108e-06 5.0750707e-05 1.9160502e-06
000170 e0 bb 04 36 86 19 51 38 c3 b5 8f 36 df a7 26 36
       1.977889e-06 4.9853254e-05 4.282892e-06 2.4833641e-06
000180 18 f9 20 35 79 70 73 35 fe 52 40 36 1e 4c a1 35
       5.9967124e-07 9.0688224e-07 2.8658537e-06 1.2017588e-06
000190 5e 10 60 36 eb 25 ee 34 ae eb 1c 35 c3 0d c7 34
       3.3388128e-06 4.4358544e-07 5.845749e-07 3.7076651e-07
0001a0 c8 fb 97 36 a2 23 94 34 94 87 9e 36 c7 5e ac 34
       4.529462e-06 2.7593074e-07 4.7245503e-06 3.2106456e-07
0001b0 e8 c1 21 35 56 08 e3 34 30 05 b2 36 a3 b6 00 38
       6.0259345e-07 4.228811e-07 5.3054173e-06 3.0687672e-05
0001c0 c3 bc 6e 3a fb 37 f7 37 12 7d d9 37 6b 4e 69 3a
       0.0009107107 2.9470762e-05 2.5926656e-05 0.000889993
0001d0 5a 83 aa 38 18 7e 02 38 a8 93 b1 36 58 5e cb 36
       8.130698e-05 3.111185e-05 5.2922005e-06 6.0608545e-06
0001e0 4c 4c 7c 38 76 3a 94 38 e9 0b d1 37 1d 6c af 37
       6.015254e-05 7.068079e-05 2.4920288e-05 2.091197e-05
0001f0 b9 4b f5 36 c9 59 ae 36 d3 65 82 38 87 46 94 36
       7.3103843e-06 5.1960565e-06 6.217849e-05 4.418954e-06
000200 93 f5 c3 38 f6 cf ba 36 de 07 a3 37 87 29 c7 36
       9.344066e-05 5.567442e-06 1.9434778e-05 5.9354966e-06
000210 cf e0 2e 37 8f e1 1b 37 4d 77 40 39 05 13 03 36
       1.04235505e-05 9.291237e-06 0.0001835499 1.9531592e-06
000220 8f 52 a8 36 8c 92 4d 39 e4 40 0f 38 cf f4 22 37
       5.0164012e-06 0.00019604916 3.415429e-05 9.712951e-06
000230 59 ce b8 35 c8 ac dc 36 aa a1 94 37 69 16 56 36
       1.3769123e-06 6.5766253e-06 1.7718256e-05 3.190153e-06
000240 a1 af 36 36 2b c6 03 36 53 5a 06 37 a6 f9 a7 35
       2.7222343e-06 1.963587e-06 8.008053e-06 1.2515127e-06
000250 88 26 b0 37 8d 7a 95 35 92 11 73 37 25 0e a0 35
       2.0998777e-05 1.1137032e-06 1.448802e-05 1.1925046e-06
000260 5b ea 06 36 02 13 f6 35
       2.0103969e-06 1.833396e-06

exp_avg f4 [7, 7]
000000 ca 4f 5c b9 7b 7f fd 39 3c 01 a9 38 94 76 52 3a
       -0.00021010559 0.000483509 8.058778e-05 0.0008028534
000010 e3 ff 29 39 d8 e7 c5 39 89 06 89 39 b9 40 29 3a
       0.00016212421 0.00037747505 0.00026135545 0.0006456483
000020 aa a4 83 bc 76 8d c5 37 41 14 3a 3c 35 41 02 3b
       -0.016069729 2.3550103e-05 0.011357368 0.0019875292
000030 8c 94 a1 3b 2b e0 87 3b 2a 93 03 38 8c d1 58 39
       0.0049310382 0.004146596 3.136989e-05 0.00020677428
000040 2c 30 d0 37 e5 0e 1b 39 5c 1b 1a 38 11 a9 aa 38
       2.4817964e-05 0.000147875 3.674194e-05 8.137723e-05
000050 58 24 99 38 bd 0f 11 3b 1b d8 78 3c 51 32 c6 3a
       7.302378e-05 0.0022134625 0.015188242 0.0015121197
000060 17 cf ab bb 53 20 3e 3b dd 03 fd 3b 41 7f 02 3c
       -0.005243193 0.0029010966 0.007721408 0.00796491
000070 30 45 e0 38 84 56 3d 3a 50 d7 65 38 cf 8b 39 3a
       0.000106940395 0.00072226697 5.479838e-05 0.0007078023
000080 6d c1 a4 ba 5c a6 05 3a 29 91 d4 38 9c ee d0 b9
       -0.0012569852 0.0005098337 0.00010135986 -0.0003985063
000090 df 8f 7a 3a b6 d5 04 ba 5b dc a0 b9 c0 bc b6 ba
       0.00095581816 -0.0005067246 -0.00030681756 -0.001394175
0000a0 88 ca a9 bc 51 02 13 3a 35 29 81 b9 ef 5e a5 3a
       -0.020726457 0.000560795 -0.000246355 0.0012616793
0000b0 1f db 97 b9 a3 28 5f ba 56 58 ff b9 9c 72 15 b8
       -0.00028964222 -0.000851283 -0.00048703206 -3.5631107e-05
0000c0 7f 08 27 bc
       -0.010194897

exp_avg_sq f4 [7, 7]
000000 c5 2d 54 36 ee b7 34 36 03 f4 24 34 48 eb 07 37
       3.1617103e-06 2.6929151e-06 1.5362461e-07 8.101408e-06
000010 89 b3 7e 34 c5 96 d6 34 63 8a 97 34 93 99 1f 37
       2.3720908e-07 3.9970305e-07 2.822663e-07 9.512895e-06
000020 04 66 0e 3a d4 4c ce 36 2f c8 82 39 f7 32 28 37
       0.00054320716 6.1482224e-06 0.0002494468 1.00254465e-05
000030 0f de 96 37 c0 77 94 37 2e a6 26 33 9a 0a b2 35
       1.7984798e-05 1.7698738e-05 3.8801026e-08 1.3265119e-06
000040 c5 98 c6 32 a1 96 f9 34 8c 74 d9 32 50 0f 48 33
       2.3119705e-08 4.648946e-07 2.5315124e-08 4.6580055e-08
000050 40 db 84 33 92 b3 56 37 be de 90 39 0e 9e e2 36
       6.18661e-08 1.2797203e-05 0.00027631776 6.753725e-06
000060 53 96 19 3a 81 dd 6b 37 c6 21 0c 38 36 b6 98 37
       0.0005858887 1.4058664e-05 3.3410055e-05 1.820466e-05
000070 9d 0a 83 34 23 71 61 36 6a ac f6 33 03 86 93 36
       2.4408374e-07 3.3593467e-06 1.14866296e-07 4.3965424e-06
000080 a6 fc ab 36 9f 74 03 35 58 02 92 34 2d 21 e2 35
       5.1256093e-06 4.897101e-07 2.7196324e-07 1.6847968e-06
000090 8f a2 d4 37 6a d2 b5 35 81 42 92 38 09 0e 9a 36
       2.5348067e-05 1.354679e-06 6.97421e-05 4.5911916e-06
0000a0 66 d3 4e 39 09 11 30 36 ac b6 0b 35 17 02 fb 37
       0.00019724443 2.623596e-06 5.204736e-07 2.9922505e-05
0000b0 f9 f8 d2 34 9b 4e 03 37 03 84 50 35 33 2a 84 35
       3.92967e-07 7.82651e-06 7.767814e-07 9.847048e-07
0000c0 94 bc c7 37
       2.3810462e-05

exp_avg f4 [7]
000000 5a 87 00 3b 1d 74 e6 3b 41 93 20 3a 2d 1f 04 3d
       0.0019611926 0.0070328848 0.0006125458 0.032256294
000010 2a b0 7a 3a 13 a4 b2 bc fa 87 31 bc
       0.00095629937 -0.021806752 -0.010835642

exp_avg_sq f4 [7]
000000 b0 2f 64 38 05 b8 20 3b 01 2f d4 36 ec d1 3d 3b
       5.440385e-05 0.0024523747 6.3235643e-06 0.0028964235
000010 42 ca 63 38 86 f1 78 3a eb e8 55 39
       5.4309385e-05 0.0009496439 0.00020400032

exp_avg f4 [7]
000000 fe 88 00 3b 3d 5c e6 3b 68 4c 20 3a 70 1b 04 3d
       0.0019612904 0.0070300386 0.0006114901 0.03225273
000010 1d 23 7a 3a 39 a8 b2 bc 5d 7e 31 bc
       0.00095419755 -0.02180873 -0.01083335

exp_avg_sq f4 [7]
000000 c9 2f 64 38 f9 b7 20 3b 39 29 d4 36 e4 d1 3d 3b
       5.440394e-05 0.0024523719 6.3228913e-06 0.0028964216
000010 b4 c9 63 38 ac f1 78 3a 22 e9 55 39
       5.4308868e-05 0.0009496461 0.00020400112

exp_avg f4 [7, 22]
000000 08 6f 13 bb 3a 3e 7d b8 05 dc c1 bb dc ff fd ba
       -0.00224966 -6.0377854e-05 -0.005916121 -0.001937862
000010 c0 ac 13 39 b9 35 b4 bb ae e8 c0 bb cd 94 8a 39
       0.00014083367 -0.0054995683 -0.0058871126 0.00026432276
000020 40 89 6c ba 4f e5 07 3a 46 14 f3 3a 0b 60 02 3b
       -0.00090231374 0.0005184011 0.0018545471 0.0019893672
000030 70 46 7f 3a ab 38 68 3a 47 81 1d 3a 22 fd d6 39
       0.0009737974 0.0008858542 0.00060083385 0.0004100586
000040 bc bd f1 39 25 fb d4 39 8b e8 c6 39 b2 ab ff 3a
       0.00046108465 0.00040622908 0.0003793876 0.0019506125
000050 35 64 ef 39 12 f2 f4 3a 74 5f db ba 3e b7 c3 3a
       0.00045660292 0.0018687865 -0.0016736821 0.001493193
000060 87 fb 4e bc 13 6a 84 bb 99 16 bc 3a d2 33 49 bc
       -0.012633211 -0.0040409653 0.0014349996 -0.012280421
000070 18 cd dc bb b9 c8 0a 3b 72 51 68 3a f9 bf 2d 39
       -0.0067383163 0.002117677 0.0008862234 0.00016570081
000080 42 4b 84 3b eb c8 72 3b 11 52 c8 3a 76 1f e8 3a
       0.0040372917 0.0037046026 0.0015283247 0.0017709571
000090 12 ba 99 3a e3 14 89 3a 82 c7 88 3a 85 e4 e4 3a
       0.0011728427 0.0010458495 0.0010435435 0.0017463124
0000a0 7b 50 74 3a 7a cf 86 3b 7c 8c 8b 3a b3 90 5a 3b
       0.0009319854 0.0041140886 0.0010646726 0.0033350408
0000b0 d6 01 c1 bb c0 7b 02 3b c2 be a0 bc 14 99 1e bc
       -0.0058901114 0.0019910187 -0.01962221 -0.009680051
0000c0 5b df 54 3b b9 63 94 bc 89 42 a2 bc 35 46 3a 3b
       0.0032481763 -0.018113958 -0.019807117 0.0028423194
0000d0 54 c8 cc 3a a4 a8 df 3a 00 36 82 3b 0a 2c bc 3b
       0.0015623667 0.0017063809 0.0039737225 0.0057425546
0000e0 90 1f 1f 3b 9a 90 24 3b a6 85 e5 3a e8 e4 ce 3a
       0.0024280287 0.0025110603 0.0017511144 0.0015784772
0000f0 98 89 b6 3a 8d f5 69 3a f2 95 b1 3a 8d 43 ec 3b
       0.0013926504 0.00089248345 0.0013548716 0.007210201
000100 b5 53 ce 3a ea a1 b9 3b ca 52 dc b9 fe b9 14 39
       0.0015741499 0.0056650536 -0.00042023353 0.00014183667
000110 59 6a 14 bb 3f 35 47 ba 16 1a 76 39 bd f1 0e bb
       -0.0022646396 -0.0007599182 0.00023470106 -0.0021811568
000120 69 13 b9 ba a4 07 89 39 4f f7 0c 39 5f 03 52 39
       -0.0014120165 0.0002613637 0.0001344357 0.00020028416
000130 5c 9c 2c 3a 4d 56 08 3a e5 ea 6c 39 b1 a3 96 39
       0.00065845787 0.0005200848 0.00022594219 0.0002873219
000140 ca 66 a4 39 76 ca 36 39 18 7d 51 39 ec 84 8a 39
       0.000313571 0.00017432295 0.00019978394 0.00026420446
000150 d4 d0 23 39 60 a1 38 3a 61 a8 3b 39 2f 23 28 3a
       0.00015622686 0.000704309 0.00017896436 0.0006413934
000160 0e da bd 3b 61 a6 26 bc fd 83 51 3d 0f 36 97 3c
       0.0057938164 -0.010171504 0.051151264 0.018458394
000170 16 40 20 bc d2 bb 41 3d 1d ba 2e 3d 53 70 2d bc
       -0.009780904 0.04729826 0.04265796 -0.010585862
000180 52 74 1b bb 2b cc 46 bb d1 2c 0a bc d3 f8 a0 bc
       -0.0023720455 -0.0030334096 -0.008433537 -0.019649899
000190 89 08 0e bc 59 ac 09 bc 3d 16 91 ba 2c a0 94 bb
       -0.008669027 -0.008402907 -0.001106925 -0.0045356955
0001a0 a4 b4 8d bb bc 9b af bb 07 3b 6f bb 92 9b 93 bc
       -0.0043245126 -0.005359141 -0.003650369 -0.018018518
0001b0 ea 13 8c bb 6a 97 3c bc 0c 3b 84 ba e5 e2 57 3a
       -0.004274835 -0.011510709 -0.0010088398 0.0008235409
0001c0 0b dd fe bb 7d 7c 0c bb b5 39 8c 3a 15 35 f9 bb
       -0.007777815 -0.0021436505 0.001069835 -0.007605205
0001d0 b0 92 8d bb e9 e1 9a 3a 42 a7 d8 39 21 e6 22 3a
       -0.004320465 0.0011816594 0.00041323347 0.00062141014
0001e0 d8 af 1b 3b 4b 62 10 3b b2 a2 88 3a b0 13 25 3a
       0.0023755934 0.0022031243 0.0010424464 0.0006297184
0001f0 4d f2 49 3a 37 bb 26 3a 22 12 3c 3a 3e b9 81 3a
       0.0007703647 0.00063602946 0.0007174333 0.0009897125
000200 1a 54 11 3a 9b 89 23 3b 70 63 28 3a 54 14 04 3b
       0.0005543843 0.0024953845 0.0006423509 0.0020153718
000210 ee af af 3b 38 3a 04 3c 25 ba e2 bb 37 0c 07 bb
       0.0053615486 0.008070521 -0.006919163 -0.0020606646
000220 99 63 c0 3b 73 52 aa bb 72 25 02 bc 62 ed d9 3b
       0.005871248 -0.005197817 -0.007943498 0.0066506127
000230 ae cb 13 3a 42 3a 8d ba 14 f8 97 bb 10 9c fc 3b
       0.00056379556 -0.0010774808 -0.0046377275 0.007709034
000240 64 9f 8f 3b 41 d1 31 3b c3 d7 2a bb fb 34 8e 3a
       0.0043830145 0.0027132782 -0.0026068545 0.001084953
000250 c2 83 55 3a 17 2e ea 3a e2 ae 1e 3a f3 a5 5f 3b
       0.00081449386 0.0017866519 0.0006053281 0.0034126013
000260 33 3c 3d 3a 60 77 b4 ba
       0.0007218748 -0.0013768487

exp_avg_sq f4 [7, 22]
000000 6b 0a a4 37 f6 80 b0 37 17 bd 45 39 29 94 b9 37
       1.9555175e-05 2.1040887e-05 0.00018857825 2.2122711e-05
000010 1a a1 ca 37 37 44 44 39 77 0f 12 38 60 d4 e1 37
       2.4155295e-05 0.00018717429 3.4823515e-05 2.6920985e-05
000020 da da 97 37 e2 5a a3 36 95 4f 09 37 10 a2 d8 36
       1.8102513e-05 4.8683587e-06 8.1843655e-06 6.456168e-06
000030 5b 4f 32 36 15 77 fd 35 97 1d 00 36 8d 64 5e 36
       2.6570258e-06 1.8884626e-06 1.909071e-06 3.3139106e-06
000040 48 b4 1f 37 c2 ac 01 37 c8 10 51 36 33 18 b6 36
       9.5191135e-06 7.7292225e-06 3.1153195e-06 5.42684e-06
000050 1a 56 50 36 da 0e d4 36 89 a6 97 39 1c 6e bc 36
       3.1044533e-06 6.3198213e-06 0.00028925043 5.615655e-06
000060 21 06 9b 3a 67 e6 f1 38 15 e4 4e 36 c9 17 b2 3a
       0.0011827388 0.00011534691 3.0829153e-06 0.0013587411
000070 51 41 48 3a b3 a5 02 37 b8 cb 2c 37 2f 5b f8 38
       0.00076391274 7.787184e-06 1.0299431e-05 0.00011842546
000080 1a 9c a4 38 ad fd 16 38 e4 e7 85 37 51 09 28 37
       7.8492056e-05 3.599904e-05 1.5962818e-05 1.00157495e-05
000090 86 4e 9a 37 4e c8 85 37 e5 79 98 38 65 5a df 38
       1.8394796e-05 1.594811e-05 7.2706294e-05 0.00010650306
0000a0 0a 9a 8b 37 89 bb 8d 37 8e fa 99 37 8c 96 c8 37
       1.6641821e-05 1.6895838e-05 1.8355695e-05 2.3911962e-05
0000b0 8a ce dc 39 23 40 85 37 1b 26 9c 3a d3 35 27 39
       0.00042115554 1.5884701e-05 0.0011913212 0.00015946412
0000c0 bb 52 93 36 ce 43 bf 3a 62 d0 ba 3a aa 7c b7 37
       4.3905725e-06 0.0014592351 0.0014252777 2.1873351e-05
0000d0 fb 50 44 37 d4 f9 e0 37 84 b3 5e 39 f0 d3 40 38
       1.1701365e-05 2.6819216e-05 0.00021238445 4.597375e-05
0000e0 b8 0c 9e 37 fe e3 87 37 9b 5e 79 37 2f c3 83 37
       1.884099e-05 1.6199421e-05 1.4863584e-05 1.5707306e-05
0000f0 97 cc ac 38 c4 c9 07 39 f0 4f 56 37 dc 0a af 37
       8.239707e-05 0.00012949767 1.2774006e-05 2.0866682e-05
000100 72 2d a7 37 0c 14 c5 37 db 37 d6 36 e6 de db 34
       1.9929113e-05 2.3493565e-05 6.3841994e-06 4.095411e-07
000110 13 a5 48 38 da 6d f0 36 2d 55 12 35 fd 32 45 38
       4.7837453e-05 7.165346e-06 5.4513185e-07 4.7015947e-05
000120 23 32 f6 37 ed 12 41 35 1c 24 20 35 90 7a d1 35
       2.9348832e-05 7.1925643e-07 5.965719e-07 1.5607384e-06
000130 26 b2 29 36 ea 46 b5 35 79 d5 63 35 70 3e 34 35
       2.5286658e-06 1.350619e-06 8.4874733e-07 6.7146084e-07
000140 32 d8 25 36 4f 02 61 35 1a 96 f4 35 ff de 2b 35
       2.4712758e-06 8.382239e-07 1.8223102e-06 6.4026966e-07
000150 cb 86 e6 35 bd 62 40 35 07 07 95 35 bc d7 01 36
       1.7175565e-06 7.1669257e-07 1.110341e-06 1.9348072e-06
000160 4e ee af 38 b5 0a 45 38 6b 9b fc 3a d8 f3 86 39
       8.389038e-05 4.697843e-05 0.0019272392 0.0002574015
000170 23 bd 84 38 57 66 e3 3a 40 c6 93 3a 76 bc a3 38
       6.32948e-05 0.0017349225 0.0011274293 7.807549e-05
000180 fa 2c 12 37 87 ac 7e 37 30 b1 09 39 fa 9a 1f 39
       8.71275e-06 1.5179749e-05 0.00013131346 0.00015221155
000190 1c 92 2f 38 99 87 ff 37 64 f2 df 37 ff 65 a9 37
       4.1859326e-05 3.0461511e-05 2.6696544e-05 2.0193866e-05
0001a0 78 56 c2 37 f8 f1 12 38 7a 53 54 37 f7 f8 f5 38
       2.3166867e-05 3.5034464e-05 1.2655621e-05 0.00011728884
0001b0 5e 56 a4 37 6a 39 2a 39 6f dd 06 38 da 04 e8 35
       1.9590541e-05 0.00016233852 3.2154316e-05 1.7286759e-06
0001c0 bb 8c 81 39 b6 43 8a 38 43 26 62 36 6c fd 5e 39
       0.0002470965 6.592965e-05 3.3698896e-06 0.00021265977
0001d0 e4 85 6f 39 36 c3 a1 36 f7 3c 18 36 df b0 bf 36
       0.00022842694 4.8208994e-06 2.2685251e-06 5.712834e-06
0001e0 ca 40 51 37 01 13 03 37 b3 c0 85 36 36 36 1c 37
       1.2472456e-05 7.812633e-06 3.986142e-06 9.310947e-06
0001f0 cb ff d3 36 d0 e6 91 36 78 88 ec 36 d2 88 7c 36
       6.3180682e-06 4.348207e-06 7.049235e-06 3.7630566e-06
000200 63 df e2 36 3f dd d8 36 ca 50 7f 36 ec dc 89 37
       6.7613305e-06 6.463058e-06 3.8044986e-06 1.6434547e-05
000210 58 e5 15 39 74 7f 43 37 c4 b1 fc 3a 10 71 87 39
       0.00014295185 1.1652581e-05 0.0019279053 0.00025833445
000220 c9 29 b0 37 c6 e3 ec 3a fa 0a 75 3a 77 74 d5 37
       2.1000293e-05 0.0018073253 0.0009347644 2.5445812e-05
000230 04 1c 30 37 26 43 d6 37 5a 64 34 39 20 de a3 38
       1.049694e-05 2.5542056e-05 0.00017203522 7.81382e-05
000240 ff 44 cc 37 ef 00 b2 37 e1 84 9f 38 24 08 a9 37
       2.4350824e-05 2.1219688e-05 7.6064614e-05 2.015016e-05
000250 ee 13 0e 38 41 63 e5 37 44 1d e5 37 72 eb bf 38
       3.3874e-05 2.7345146e-05 2.7312555e-05 9.151445e-05
000260 5b 07 d1 37 1b 03 29 39
       2.4918167e-05 0.00016118253

exp_avg f4 [7, 7]
000000 f2 1e 92 ba 5e 65 d5 39 1d 92 f8 39 70 61 88 39
       -0.0011148138 0.0004070205 0.0004741111 0.00026012538
000010 c9 23 77 3b ea 9b c9 39 8f 33 e5 3a 21 9e 63 3a
       0.0037710539 0.00038453873 0.0017486679 0.0008682926
000020 02 a9 19 ba dd dd 11 3b 1e 39 1f 3a 8e ad c4 3b
       -0.0005861671 0.0022257485 0.000607388 0.0060021346
000030 38 d0 47 3a 2c b9 5e 3b 96 3e d5 3a da 1e a1 3a
       0.00076222746 0.0033984883 0.0016269262 0.001229252
000040 3e 59 d2 ba 3c 47 56 3a 5e 2f 32 3c a7 e5 95 3a
       -0.0016048325 0.0008174067 0.010875551 0.001143624
000050 a9 de b6 3b 02 76 fc 38 1c b0 0b 39 fb 79 45 39
       0.0055807424 0.00012038277 0.00013321679 0.00018832825
000060 0b e7 c3 38 c1 1c 50 3a 3b 39 0c 39 3c 1e 67 3a
       9.34136e-05 0.0007938855 0.0001337276 0.0008816456
000070 48 57 27 bb 21 35 4e bb 58 52 64 bb 61 33 2d bb
       -0.0025534201 -0.0031464773 -0.003483912 -0.002642833
000080 11 fe 1c bd b9 42 46 bb 78 d5 c6 3a 6d 70 df 39
       -0.038328234 -0.0030252172 0.001516982 0.00042617638
000090 36 91 f2 39 e5 8a 3e 3a 1e e8 ab 39 7f 45 80 3b
       0.00046266027 0.00072686217 0.00032788602 0.0039145346
0000a0 6f eb 90 b9 56 06 23 3b b2 c8 53 3a 3f 5e d9 39
       -0.00027641232 0.0024875603 0.0008078917 0.00041459684
0000b0 6f fb b1 3a a2 06 64 38 70 0e 9b 3c ed bf 18 3a
       0.0013578961 5.4365613e-05 0.018927783 0.0005826939
0000c0 17 7b 77 bc
       -0.0151050305

exp_avg_sq f4 [7, 7]
000000 2b c6 c8 37 1e 2c 17 37 fd e2 b2 36 09 e4 ee 35
       2.3934137e-05 9.010573e-06 5.3312383e-06 1.7798749e-06
000010 50 cb c0 36 48 ae 21 36 16 30 ad 36 83 53 26 37
       5.7457146e-06 2.4092315e-06 5.1613997e-06 9.913815e-06
000020 fe bd 88 39 46 18 d5 38 24 f6 ff 36 88 2b 71 37
       0.00026081497 0.00010161153 7.6282467e-06 1.4374855e-05
000030 3a bf 19 37 f0 97 d9 37 45 65 31 37 c6 83 80 38
       9.164034e-06 2.5939167e-05 1.0573601e-05 6.12806e-05
000040 7e 03 cd 39 b6 02 c6 36 c2 b4 9e 37 08 d8 2d 37
       0.0003910325 5.9011754e-06 1.891924e-05 1.0361902e-05
000050 34 bd a3 37 45 36 25 35 21 b6 33 36 1e 6c 91 35
       1.9519219e-05 6.154626e-07 2.6779092e-06 1.0834808e-06
000060 71 bb 51 35 61 cd 46 35 cc 60 b8 35 14 87 05 37
       7.813133e-07 7.4059614e-07 1.373724e-06 7.958868e-06
000070 6f 95 3a 37 4e 64 43 37 c7 6c dd 37 18 85 b9 36
       1.1121257e-05 1.164626e-05 2.6395906e-05 5.528924e-06
000080 bf 77 d1 39 57 64 27 37 3d 3a 26 39 9e e4 20 36
       0.00039952804 9.977338e-06 0.00015852689 2.397493e-06
000090 cf f2 08 37 b5 85 b0 36 05 2e 71 36 8c 72 ef 36
       8.162765e-06 5.2607743e-06 3.5938585e-06 7.13609e-06
0000a0 83 8a bc 37 15 e6 a2 37 d9 fa 36 37 b3 c3 9a 37
       2.2475846e-05 1.9419045e-05 1.090645e-05 1.844936e-05
0000b0 ba be 9b 37 2a 96 57 37 ef 9c 08 39 39 d0 6e 37
       1.8566254e-05 1.2849961e-05 0.00013028433 1.4234386e-05
0000c0 b0 ae df 39
       0.00042664027

exp_avg f4 [7]
000000 53 5b c2 3b f7 76 59 3c 5b 0f a1 3c 08 89 1a 3b
       0.005931297 0.013272992 0.019660642 0.0023580212
000010 ac a7 53 bd 6e 41 04 3c a8 00 e7 3b
       -0.051673576 0.00807224 0.007049639

exp_avg_sq f4 [7]
000000 f4 a4 76 39 38 03 c2 3a cd d2 d5 3a d1 52 66 38
       0.00023521838 0.0014801985 0.0016313434 5.4913402e-05
000010 cf 5d 07 3b c1 81 94 39 85 2b 09 3b
       0.002065528 0.00028325434 0.002093048

exp_avg f4 [7]
000000 93 7a c2 3b f2 8c 59 3c dd 0d a1 3c 57 ca 1a 3b
       0.005935022 0.013278233 0.01965993 0.002361914
000010 e7 a9 53 bd 73 30 04 3c 9a d0 e6 3b
       -0.051675703 0.008068192 0.00704391

exp_avg_sq f4 [7]
000000 03 a6 76 39 8c 03 c2 3a db d2 d5 3a 7d 5b 66 38
       0.00023522232 0.0014802082 0.001631345 5.492148e-05
000010 f4 5d 07 3b b3 80 94 39 ab 2b 09 3b
       0.0020655366 0.00028324648 0.002093057

exp_avg f4 [7, 22]
000000 f0 c3 a5 3a f4 97 0c ba 0a 04 4f bb 64 43 02 3b
       0.0012646895 -0.0005363219 -0.00315881 0.0019876594
000010 f4 3e 19 ba b9 86 4f bb 3d e7 58 3b 1f 29 1e ba
       -0.00058458676 -0.0031665994 0.0033096813 -0.0006033349
000020 df 23 4a ba 7f af 87 39 bf 02 ba 3a 9b 1a 25 3a
       -0.00077110337 0.0002587996 0.0014191492 0.0006298215
000030 9b ba 01 3a 56 c9 f7 39 9f 7a 68 3a 0d c3 89 39
       0.0004948766 0.00047261518 0.00088683696 0.00026276
000040 92 52 77 39 47 01 e4 3a 0f 2a de 39 3c 56 8a 39
       0.00023586515 0.00173954 0.00042374476 0.0002638566
000050 b9 d3 2e 39 95 12 9a 39 a6 39 b8 3a 9b 4e b7 b8
       0.00016672806 0.00029387014 0.0014055267 -8.7407614e-05
000060 73 50 95 bb 3c c8 b5 3a fc 39 81 b8 39 c5 94 bb
       -0.0045567094 0.0013868879 -6.162e-05 -0.0045401123
000070 ed 6a 3e 3b 0b e8 e5 b8 87 ce c7 39 c5 7e 74 39
       0.0029055432 -0.00010962792 0.00038110113 0.00023316879
000080 42 43 9c 3a 80 79 80 3a 61 c8 36 3a 67 25 21 3a
       0.00119219 0.0009801835 0.0006972608 0.0006147236
000090 db 6c 46 3a a7 4e c5 39 45 d9 c5 39 de 59 15 3b
       0.00075693213 0.0003763337 0.00037736646 0.002278916
0000a0 de ca 13 3a 0c ab bb 39 61 ce eb 39 12 77 ea 39
       0.00056378345 0.0003579486 0.00044976457 0.00044720672
0000b0 62 8c 99 bb cd 1d 52 3a 43 b2 77 3c 09 14 bc bb
       -0.0046859244 0.0008015305 0.0151181845 -0.005739693
0000c0 dc 53 c5 38 87 0a 77 3c 7b 09 22 bc 02 ce 31 3a
       9.409312e-05 0.0150781935 -0.009889956 0.0006782712
0000d0 96 6f f9 b8 c0 84 c1 ba 7f 12 bc bb 4b 94 f9 ba
       -0.0001189403 -0.0014764294 -0.0057395096 -0.0019041387
0000e0 29 9c e4 ba 6d 3e b6 ba d5 32 51 bb e7 ab a0 ba
       -0.0017441559 -0.0013904102 -0.0031921167 -0.0012258262
0000f0 eb f1 96 ba d3 4d 01 bc 20 63 dc ba 1e fa 94 ba
       -0.0011516189 -0.00789209 -0.001681421 -0.0011366045
000100 8f 05 97 ba 49 f7 ae ba 18 e5 ef bb 1f 73 ab 38
       -0.0011522042 -0.0013348843 -0.0073210113 8.1753584e-05
000110 52 ac 91 ba 4b 64 bb bb f1 2c 04 3b a6 a8 c1 b9
       -0.0011113978 -0.005718743 0.0020168389 -0.00036937481
000120 4c f3 8f bc cb b2 58 39 4c 98 97 ba cd c5 0c 3a
       -0.017572068 0.00020665971 -0.0011565774 0.0005370051
000130 5c 16 3e 3b 62 e9 9c bb 0e 31 84 ba 4b 6b 44 ba
       0.0029005026 -0.0047885636 -0.001008542 -0.00074927945
000140 30 3e 1a 3b cf 15 44 b9 ac 80 b4 b9 ff c3 ec b6
       0.0023535602 -0.00018700141 -0.00034428143 -7.056165e-06
000150 e0 16 8f ba b1 29 ad b9 cf 43 18 b8 7c 59 a4 38
       -0.0010916851 -0.00033028194 -3.6302776e-05 7.836797e-05
000160 6b ce 47 3a 1f 9b 4c b8 8f 5a 18 bb 25 a2 43 3a
       0.0007622006 -4.8781858e-05 -0.0023247337 0.0007462821
000170 cb 86 fe b7 1a 04 19 bb 8d 8f cb 3a 09 df 4a b8
       -3.0341927e-05 -0.0023348392 0.0015530452 -4.836827e-05
000180 81 65 1f 39 18 a6 61 39 ae f6 1f 3a 2f 86 ff 39
       0.00015201235 0.00021519547 0.0006102127 0.00048737365
000190 92 2d bb 39 2e 92 95 39 9a 46 be 39 cd e1 46 39
       0.00035701372 0.00028528407 0.00036292226 0.00018966869
0001a0 dd c1 4b 39 df fd 99 3a 23 99 96 39 38 5e 3e 39
       0.00019431808 0.0011748633 0.00028724325 0.00018154911
0001b0 24 29 61 39 fc d7 66 39 2e 52 8b 3b 04 9a 3b ba
       0.00021472998 0.0002201497 0.00425174 -0.0007156434
0001c0 67 b0 5b bb 62 af 8a 3b 92 95 62 b9 60 04 5b bb
       -0.0033521892 0.004232333 -0.00021608759 -0.0033419356
0001d0 98 ce 0d 3c 28 92 be b9 53 83 3e 39 f9 0d b8 39
       0.008655213 -0.0003634852 0.00018168734 0.00035105625
0001e0 d8 1c ec 3a ef f5 52 3a b4 d5 1b 3a 6b 47 31 ba
       0.0018013967 0.0008047511 0.0005944625 -0.0006762656
0001f0 89 3e 3f 3a 68 cb ac 39 5b ab 93 39 9d 47 0f 3b
       0.000729539 0.00032957946 0.00028165695 0.0021862753
000200 2f 76 18 3a a7 a0 aa 39 3b 56 bb b8 86 3a 2c 39
       0.00058159506 0.00032544622 -8.9329165e-05 0.00016425
000210 b8 f9 8c 3b 0f a1 2a ba 26 6e ef bb 0c 40 b9 3b
       0.0043022297 -0.0006508985 -0.007306832 0.005653387
000220 64 74 02 b9 e6 27 f5 bb 0e 3c 2a 3c d2 7e ac b9
       -0.00012441125 -0.007481563 0.010390295 -0.00032900885
000230 e0 6c e1 39 bf 61 25 3a 78 03 5a 3b e8 d6 cf 3a
       0.00042996462 0.0006308816 0.0033266228 0.0015856894
000240 99 25 e6 39 d3 84 48 3a 92 10 60 3a c0 2e 2c 3a
       0.0004389703 0.0007649187 0.0008547391 0.00065682456
000250 6f 15 21 3a a4 22 8a 3b 38 66 88 3a b6 27 1f 3a
       0.00061448565 0.0042155553 0.001040644 0.0006071286
000260 36 72 f8 39 bb ad dd 39
       0.0004738734 0.00042281844
