data_10frm/model/0_4_3_11.pt (torch_old, 18399 bytes, 52 tensors)

rnn.weight_ih f4 [7, 22]
00000000: 7208 273d f9b7 6a3e 0d50 afbe 27c2 60bc
00000010: 3699 b93d 8ce4 913d f0ce 3dbd a03c f8bd
00000020: 88bc 87be af77 a93c d5ee a0be 3d25 b8be
00000030: 1e98 3bbe a5ba a4be 9e1e 223d 30f2 753e
00000040: 86dd 863e d20b 88be 3f4f 3e3e dbcb 753e
00000050: 4aa0 ddbc faef fb3d 847a 0a3e af25 8a3e
00000060: 830f 393e 5d7b 063d 7a25 2ebe 6acd 69be
00000070: 5f23 8bbe 9f46 893e 50cc e1bd a396 783d
00000080: 72d5 a4be 50cf 33bc c5c7 e5bd 956a 80be
00000090: 42b3 983e 588d 95be efb9 36bd 86c3 7fbc
000000a0: 36eb a3be c7e4 773e 2224 dfbd 1e72 403e
000000b0: e258 4f3e 8fb0 983e 7b32 d03d b249 973e
000000c0: 7ccf 9a3e 696f ad3d f1e6 b3bd 51ab 09be
000000d0: 0cad 9b3c 5943 f53d afa3 a1be 0bf8 873e
000000e0: 740d ff3c 7e36 c4be 0d38 ba3d f4f4 6b3e
000000f0: be43 f63d e107 933e 656a afbb 8557 a3be
00000100: 2275 49bc f82c 8a3e 9abb 5fbd 84c5 843e
00000110: 1f65 91bb 601c aa3d 65c3 b93d 561f 863d
00000120: 39be fbbd d346 b23e adb8 a53e 9573 933e
00000130: 6744 ec3e 0801 c03d fbd9 27be 6408 fc3d
00000140: e1aa edbc 31fd 6c3e bb37 d73e 3e0d ccbd
00000150: 23b8 f33d 44ab e83e 3a29 5abe 4f20 bf3c
00000160: 3e1f c83e 5d0f 7a3e 8a47 113e 73e8 01be
00000170: 5a32 e5bd 6995 a2be 238d a4be 1d13 b6be
00000180: b5a7 b13e 32be 883e bc19 dc3d 983c 08be
00000190: 28c2 ae3e dd58 d4bd 2fc9 593e a104 dcbc
000001a0: 35b6 49be a0f6 f2bd 05b7 f4bd a455 bcbe
000001b0: 44bd c53d 6bc6 0abe 51fe 583d adf6 d83d
000001c0: 9bbb 9f3d d20c f03d 7b0a 4bbd b421 ca3e
000001d0: 5433 a7be ea65 32be 07f9 79be ecf4 543e
000001e0: 7520 f6be b94e b5be 513f c7bd b484 463e
000001f0: 05ab 1b3e e8ff fdbe ba0a d2be 8aab 5f3e
00000200: 1d93 e4bd 9afc e8be 784a 72be c4d4 053d
00000210: b67b 8cbe 7b41 acbe ddb6 41be 25bf abbe
00000220: c281 a2bd 7e27 4e3e 7ed5 d33c 8d0f 96be
00000230: e1a4 16be 2dfc b2be df0b 543e f763 a73e
00000240: ce32 993e 8ae5 8e3d 1660 96bd ccd7 94bd
00000250: 12f7 ad3d 3085 d0be 2e6e 02bd cbaf aebe
00000260: 45f1 d5be 4132 68bd
0.04077954 0.22921742 -0.3424076 -0.0137181645 0.09062426 0.0712367 -0.04633993 -0.12120938
-0.26511025 0.020686952 -0.31432214 -0.3596591 -0.18319747 -0.32173648 0.03957998 0.24018168
0.26340884 -0.26571518 0.18584917 0.24003546 -0.02705397 0.12301631 0.13523299 0.26981875
0.18072324 0.032832492 -0.17006484 -0.22832265 -0.27175424 0.26811692 -0.11025298 0.060690533
-0.32194096 -0.01097472 -0.11219744 -0.25081316 0.29824263 -0.292094 -0.044610914 -0.015610581
-0.3201539 0.24208365 -0.10895564 0.18793532 0.2024875 0.29822204 0.101658784 0.29548413
0.30236423 0.084685154 -0.08784283 -0.13444258 0.019003414 0.11975736 -0.31570193 0.2655643
0.031134345 -0.38322824 0.09092722 0.23042661 0.120246395 0.2871695 -0.0053532594 -0.3190271
-0.012295993 0.26987433 -0.05462227 0.25931942 -0.0044371034 0.08306193 0.09070472 0.065489456
-0.122921415 0.3481966 0.3236746 0.2879912 0.46145937 0.09375197 -0.16391747 0.12306288
-0.029012145 0.2314346 0.42034706 -0.09963463 0.11900356 0.45443165 -0.21304789 0.023330836
0.39086336 0.24419923 0.14187446 -0.12686329 -0.111912444 -0.31754616 -0.3213893 -0.35561457
0.34698263 0.26707608 0.10747096 -0.13304365 0.34132504 -0.10368512 0.21268152 -0.026857676
-0.19698413 -0.11863446 -0.11948971 -0.3678409 0.0965524 -0.13552253 0.05297691 0.10593925
0.07799455 0.11721195 -0.04957054 0.39478838 -0.32656348 -0.1742169 -0.24411403 0.20796555
-0.48071638 -0.35411623 -0.097288735 0.1938656 0.15201958 -0.49609303 -0.4102381 0.2184278
-0.11160872 -0.4550522 -0.2366122 0.032673612 -0.27438134 -0.33643708 -0.18917413 -0.3354427
-0.079349056 0.20132253 0.025858637 -0.2930874 -0.14711334 -0.3495802 0.20707653 0.32693455
0.29921573 0.06977375 -0.07342546 -0.072677225 0.084943905 -0.40726614 -0.031843357 -0.34118494
-0.41785637 -0.05668855

rnn.weight_hh f4 [7, 7]
00000000: 7442 bbbd 2665 9dbe 5fc0 bb3b ac02 8ebd
00000010: 3dd7 dc39 1e4c 7cbe b42b dfbe 6b1a 0a3a
00000020: aca1 a8bd 2785 efbd 213d 643e 568f 223d
00000030: cfb3 3e3e cd6c ebbd 8075 a6be 30d0 603c
00000040: 12df 4cbe 174c 41bd 8c37 a0be da0b 8f3e
00000050: 5aed 8dbe 86a5 c73e 0b17 a63e c070 be3e
00000060: 8705 bd3e b9af 153e 805b 8d3d a9bc 403d
00000070: ccca 41be 5070 c8be 35a7 953e 06cd bfbd
00000080: 2b6c 5c3e 7f75 c6bb 4668 633d 3e8c b0be
00000090: 46aa d5be 6315 183e 781d 7e39 0f7e a13d
000000a0: c1d2 f9be b94e 80bd 5dd9 dabe 61e2 ebbd
000000b0: ec8b efbd f17a ccbe 1d6e d9be 8edd 00bd
000000c0: a0d8 b83e
-0.09143534 -0.30741233 0.0057297195 -0.06934103 0.00042122035 -0.24638411 -0.4358803 0.0005268219
-0.082339615 -0.11695319 0.22288944 0.039687477 0.18623279 -0.114953615 -0.3251152 0.013721511
-0.2000697 -0.047191706 -0.3129238 0.2793873 -0.27720147 0.38993472 0.32439455 0.37195396
0.3691828 0.14617814 0.06902218 0.04705492 -0.18925017 -0.39148188 0.2922913 -0.09365277
0.21525638 -0.006056487 0.055519365 -0.34481996 -0.4173147 0.14851908 0.00024234306 0.07885372
-0.48793605 -0.06265015 -0.4274396 -0.11517788 -0.1169661 -0.39937547 -0.42466822 -0.03146129
0.36102772

rnn.bias_ih f4 [7]
00000000: 7308 9f3e b0b5 5cbe e2ff a0bd 290e 60be
00000010: 7438 a1be bfa3 7abe 8fec a03e
0.31061134 -0.21553683 -0.07861306 -0.21880402 -0.31488383 -0.24476527 0.3143048

rnn.bias_hh f4 [7]
00000000: edb1 03be 7238 153d 5f2c b03e 208f 283e
00000010: 7101 923e 0e3a e13d 7582 9a3e
-0.12860842 0.036430784 0.34408852 0.16460848 0.28516725 0.10997401 0.30177656

exp_avg f4 [7, 22]
00000000: 887f 1039 d955 33ba 011b 09bc 1ef8 adba
00000010: e3f9 dfb9 71ef 07bc 59cd e0ba f847 f5b9
00000020: 1333 7537 f6d2 673a ea4e c53a d80e 003b
00000030: 50e4 9f3a 5ef2 d43a 0bb3 a73a c52c 253a
00000040: b721 223a c8cc c63a b8a7 0a3b cc0d 9e3a
00000050: 1861 803a 51b2 b93a 20a8 c6b8 fbb5 fdb9
00000060: b25e 4dbc 038e 19bb 3e7f 4938 31f3 4cbc
00000070: df87 41bb 0648 b638 2926 c73a 6e48 af3a
00000080: 51a7 2c3b 46e2 183b d0b9 c53a 7e16 ee3a
00000090: 5ecf de3a 6dd6 6f3a 6574 833a f0bb 123b
000000a0: 00ef 5c3b 5d26 ec3a dbba b43a 8766 0c3b
000000b0: 9fdc 233c 1e2a 9b3b 84be ccbb ae43 6b3b
000000c0: 73bc b639 bec7 c7bb 1b40 883c 1cac ff39
000000d0: 7c1e dab8 6167 343a ae3f 44bb 7f0f f83a
000000e0: 7943 a33a 70cc 4d3b cb32 cc3a b786 353a
000000f0: 6602 87b7 edab f6b9 425b b43a 1770 6f3a
00000100: 5fb9 ee3a 5103 913a 2318 a13b 6145 71b9
00000110: b57c 84bb e6ab 973b 346d 0a37 ebf7 b4bb
00000120: 3940 223c f77e 9a39 02d5 c83a d840 2fba
00000130: f5c1 55ba 372f 4d3a f54d 123a dcf0 1a3b
00000140: 71b1 9c3a 4a54 eb39 455e c439 486d 1ab8
00000150: 279b ae3a 7942 a9b9 f5e5 ad3a f5bc ee3a
00000160: ee23 d3ba bb4b 8aba 7f63 f6bb 74fa 8dba
00000170: 38f7 d9b9 93c8 f7bb 405c 8dbb db78 b4b9
00000180: 8f25 943a 9473 6d3a dfc1 6f3a b1b3 003b
00000190: 0568 0239 9248 cb3a e1cd b23a 92b5 f939
000001a0: 4170 3b3a b9b6 ea3a e786 d03a 193d b63a
000001b0: f4ed 383a 145f a83a 5c23 b7bb ce8d 7d39
000001c0: 1caf c93c ded6 70ba aca4 db39 ad16 ce3c
000001d0: ac8a dfbb 94f3 0f3a cc24 7cba d2bb 01bb
000001e0: 99c0 cdba 9463 80bb 5f33 90ba c190 2cbc
000001f0: 2b3a 99bb 4da9 feba 2d7a e1ba a9d3 42bb
00000200: c0d3 ddbb d9e6 3abb 0a29 98bb db52 7bbb
00000210: 566a 29bc 7533 3dbb 5763 793c d3eb 9ebb
00000220: 6dda 66b9 801d 883c 5c36 83bc 7aa0 84ba
00000230: 2588 63bb 543b 8bba 79e1 223a be67 aebb
00000240: 0c71 6abb 26eb e9ba e894 d3ba 3612 beba
00000250: aa68 8dba a438 deba 5cf9 68bb 42ff f8ba
00000260: 903a 13bb 8f1f 8cbb
0.00013780419 -0.00068411004 -0.008368255 -0.0013272797 -0.00042720055 -0.008296833 -0.0017151042 -0.00046783662
1.461503e-05 0.00088433863 0.0015053425 0.0019540098 0.001219878 0.0016246547 0.0012794448 0.00063009217
0.00061848335 0.0015167231 0.0021157097 0.0012058555 0.0009794561 0.0014167522 -9.4726915e-05 -0.00048391506
-0.012534784 -0.0023430593 4.8040638e-05 -0.012509153 -0.0029530448 8.691852e-05 0.0015193868 0.0013373026
0.0026344846 0.002332823 0.0015085284 0.0018164662 0.0016999056 0.00091490784 0.0010029195 0.0022389852
0.003371179 0.0018016804 0.0013788597 0.0021423416 0.010001331 0.0047352454 -0.006248297 0.0035898495
0.0003485415 -0.006096809 0.01663213 0.00048765622 -0.00010400728 0.000688186 -0.0029945183 0.0018925517
0.0012456022 0.0031402372 0.0015579102 0.0006924676 -1.6094371e-05 -0.0004704887 0.0013760107 0.0009133829
0.0018213204 0.001106361 0.0049162074 -0.00023009397 -0.0040431865 0.004628646 8.250867e-06 -0.005522718
0.009903007 0.00029467765 0.001532227 -0.00066853827 -0.0008154207 0.0007827165 0.00055810745 0.0023642099
0.0011954737 0.00044885493 0.0003745427 -3.6818237e-05 0.0013321385 -0.00032283718 0.0013267385 0.0018214273
-0.001610873 -0.0010551134 -0.007519185 -0.0010832087 -0.00041573658 -0.007561752 -0.0043139756 -0.0003442232
0.0011302697 0.0009058055 0.00091460155 0.0019638354 0.00012436516 0.0015509299 0.0013641679 0.0004762826
0.0007150211 0.0017907239 0.0015909345 0.0013903707 0.0007054501 0.0012845718 -0.005588932 0.00024180787
0.024619631 -0.0009187291 0.00041893625 0.025157297 -0.006821951 0.0005491313 -0.000961852 -0.0019795788
-0.0015697657 -0.0039181206 -0.0011001638 -0.010532559 -0.0046761236 -0.0019429118 -0.0017202549 -0.002972821
-0.0067696273 -0.0028518944 -0.004643564 -0.0038348946 -0.010340294 -0.0028869782 0.015221438 -0.00484989
-0.00022015879 0.01661563 -0.016017132 -0.0010118627 -0.00347186 -0.001062254 0.00062134076 -0.0053224256
-0.0035772948 -0.0017846569 -0.00161424 -0.0014501277 -0.0010788639 -0.0016954136 -0.003554902 -0.0018996971
-0.0022465326 -0.004276223

exp_avg_sq f4 [7, 22]
00000000: 2948 4c37 00b8 0737 e3d7 9f39 d5d7 fa36
00000010: 88cd 9f36 f73d a439 e005 c537 1c4d ed36
00000020: 3dea 1338 c8b6 8636 3f36 b336 9d74 dc36
00000030: baa1 ae36 c89d 8236 292f 9936 8432 0536
00000040: b072 9736 e2d2 c636 377a bd37 bf06 e136
00000050: df2f 7336 d5ec 1837 3976 2537 eeda 2036
00000060: 5a03 a139 c847 b137 1eee ba34 8c07 9d39
00000070: dab3 9638 56e8 0435 bd73 c436 6084 a636
00000080: 39f0 a337 5d22 0737 d6eb d036 9b09 ac36
00000090: cbc0 ff36 15d5 0336 6795 c436 1405 1637
000000a0: b7c7 9037 d664 ef36 90da 2636 9d7e 0d37
000000b0: 425f fe38 41fb 1f38 51cd 573b 03ba 8e39
000000c0: 0d04 f135 6984 523b 5005 8b3a cd87 1b36
000000d0: ce45 5b38 6cf8 2c38 8802 9639 26d0 af38
000000e0: d6e1 6838 5317 3638 6ffe 6438 3b84 9837
000000f0: f671 7138 a9e8 ee38 a026 5039 88d1 9f38
00000100: fe21 c237 79ea bd38 c3ba 8f38 8e74 2537
00000110: 8667 2f3b a438 8239 b4ea a236 f708 243b
00000120: 1abc 3b3a 8980 c436 d865 2c38 02de d138
00000130: 8aa1 8138 042c df38 ddce 7338 07a1 0e38
00000140: 2b83 8538 7058 8237 6a9c 1738 6ab4 b438
00000150: 7cfd 1439 b136 ae38 ccc3 ba37 bedd 8b38
00000160: 4c13 cd37 6c61 f136 b45b f73a ecec d838
00000170: ba9d a335 0634 ed3a ce16 1c39 ce55 3136
00000180: de6b 4b38 d829 e937 9215 1238 7b39 3c38
00000190: 35c2 d738 480e ff37 b564 dd37 ff1e 5e37
000001a0: c819 b337 1601 4a38 77e9 fa38 0b95 3538
000001b0: a6e4 a437 b59b 5438 d4b7 8138 567a 2236
000001c0: b0a4 053b 182f 9b37 aed0 3735 1e9b 083b
000001d0: da32 8438 a679 ae35 451e bd37 1c8a 9637
000001e0: 835f cb37 3625 7a38 eea2 e537 c687 3439
000001f0: 18b5 6d38 06ed 6a37 57ee a237 7c0e 3938
00000200: 0485 1039 b2f6 2238 cae1 1638 be29 6b38
00000210: 3135 8839 0f70 8e37 efec 543b 2faa b438
00000220: 3806 fb36 dc27 613b dfc6 193a 9772 4c37
00000230: c66c 8638 933e 1f38 6fec 4938 042d 1939
00000240: 2fc2 aa38 29e4 8738 8245 2539 84a3 cc37
00000250: d175 0b38 5e72 a038 e6d8 5339 f3a4 8d38
00000260: 80ec 3e38 dece 0739
1.2176149e-05 8.089468e-06 0.0003048769 7.4757068e-06 4.7624962e-06 0.00031326685 2.3486966e-05 7.072127e-06
3.5265683e-05 4.0147897e-06 5.340931e-06 6.5700865e-06 5.2044315e-06 3.89267e-06 4.5652455e-06 1.9847948e-06
4.513502e-06 5.92541e-06 2.2587466e-05 6.706308e-06 3.6237686e-06 9.115048e-06 9.862292e-06 2.3969292e-06
0.0003071081 2.113347e-05 3.4818453e-07 0.00029950996 7.186057e-05 4.9511925e-07 5.854729e-06 4.962596e-06
1.9542977e-05 8.054628e-06 6.226338e-06 5.1271177e-06 7.6220363e-06 1.9644551e-06 5.858648e-06 8.941879e-06
1.7259137e-05 7.134494e-06 2.4863148e-06 8.433734e-06 0.00012129407 3.8142553e-05 0.0032928775 0.0002722294
1.7957078e-06 0.003212238 0.0010606442 2.3175846e-06 5.227868e-05 4.1239357e-05 0.00028612115 8.383421e-05
5.5523436e-05 4.3413904e-05 5.4596396e-05 1.8181387e-05 5.7565012e-05 0.00011392061 0.00019850815 7.620739e-05
2.3142431e-05 9.055896e-05 6.8535584e-05 9.861904e-06 0.0026764586 0.00024837733 4.8552993e-06 0.0025029758
0.0007161513 5.8562186e-06 4.1102845e-05 0.00010007249 6.181288e-05 0.00010641667 5.812837e-05 3.4005407e-05
6.366366e-05 1.553839e-05 3.6146877e-05 8.6166736e-05 0.0001420881 8.3071536e-05 2.2264103e-05 6.669339e-05
2.444689e-05 7.193701e-06 0.0018871934 0.00010343813 1.2190351e-06 0.0018097169 0.00014885815 2.6425e-06
4.849943e-05 2.779525e-05 3.48292e-05 4.4876226e-05 0.00010288173 3.0405019e-05 2.6392148e-05 1.3239448e-05
2.1350468e-05 4.8161564e-05 0.00011964415 4.329257e-05 1.9656796e-05 5.0689752e-05 6.18544e-05 2.421109e-06
0.002039235 1.849937e-05 6.847648e-07 0.002084441 6.303722e-05 1.2999415e-06 2.2544651e-05 1.7945706e-05
2.4243962e-05 5.96393e-05 2.7374797e-05 0.00017216717 5.667386e-05 1.4002673e-05 1.942289e-05 4.4120927e-05
0.00013782462 3.8853563e-05 3.597307e-05 5.606724e-05 0.00025979572 1.69799e-05 0.0032489856 8.614768e-05
7.481107e-06 0.0034356033 0.0005866121 1.2186028e-05 6.4098786e-05 3.796683e-05 4.814233e-05 0.00014607987
8.142401e-05 6.4798e-05 0.0001576152 2.4394838e-05 3.3249908e-05 7.650697e-05 0.00020203329 6.754128e-05
4.5519788e-05 0.00012951667

exp_avg f4 [7, 7]
00000000: 0320 2aba 4642 c239 a42d cc3a 06d0 0b3b
00000010: d928 cd3a 55d3 f33a 3cf5 d53a c120 313a
00000020: 814c 1e3a 2a3b 5f3b 02a3 373b 9a43 d83a
00000030: f523 f43a ad74 f23a 7eb9 163a e58c 53b9
00000040: 0a05 22bc 51d7 913b 4aca 363b c52f a73b
00000050: f2e4 293b d4eb 013a 03cb 8339 fcd9 d93a
00000060: 8d08 1fbc a50e 2e39 2004 c03b 68ed cb3b
00000070: dd58 3739 cf89 a239 fbd1 333b 7144 993b
00000080: f9d2 bdbb b439 0e3b f8a4 6f3b 9643 81ba
00000090: efcf 68ba d1be b6b9 ad54 a8ba 2ea5 ddb9
000000a0: 9ffc b2bc 7041 883a f91e 0dba 7e3c 0eba
000000b0: bf1a 4d3a c42a 7ab9 9b1e 3aba 9474 803a
000000c0: d48e 82bc
-0.00064897555 0.0003705194 0.0015577567 0.0021333708 0.0015652432 0.001860241 0.0016323696 0.0006756895
0.00060386217 0.0034062364 0.0028020744 0.0016499639 0.0018626439 0.0018497907 0.00057496864 -0.00020175015
-0.009888897 0.0044507165 0.002789157 0.00510213 0.0025923816 0.00049561006 0.00025137523 0.001662075
-0.0097066285 0.00016599389 0.0058598667 0.0062233694 0.00017485344 0.00031001723 0.002743839 0.0046773483
-0.005792972 0.0021701874 0.0036566835 -0.0009862061 -0.0008881082 -0.00034855914 -0.0012842618 -0.00042275473
-0.021848975 0.0010395478 -0.00053833384 -0.0005425884 0.0007824115 -0.0002385779 -0.00070998975 0.0009800368
-0.015937246

exp_avg_sq f4 [7, 7]
00000000: 1a94 0038 713f 1b36 92f1 b536 f572 8237
00000010: 5073 d936 2bdb 8f36 4098 f036 2e63 0036
00000020: ecfc 3236 6960 0e38 e520 a037 19cf 0637
00000030: 62b3 d236 be26 1937 798f 0f37 ceec ec37
00000040: add4 0d3a 38a2 2d39 db22 6038 cac8 e437
00000050: 75e3 6438 bccb d736 3e40 6537 af77 6338
00000060: 0a4b 1e3a 796c 1938 f7f7 e937 fe12 d138
00000070: cb6c 0637 0eaa 2637 c87f 0e38 e632 cc38
00000080: 1556 8839 430e 7d37 e29f 4338 e1e6 d136
00000090: b6d2 d936 49bf 9837 7c7e 6f38 baed 9937
000000a0: 6ac9 f739 a42c 3038 e7fa 7037 9f17 7837
000000b0: d15f 7f38 3929 0939 ad0c 5e38 8891 6338
000000c0: ad3a 033a
3.065551e-05 2.3133728e-06 5.422343e-06 1.5550739e-05 6.480528e-06 4.2872466e-06 7.1702816e-06 1.9131217e-06
2.6671287e-06 3.3945227e-05 1.9088804e-05 8.035241e-06 6.2793706e-06 9.128531e-06 8.556869e-06 2.8243663e-05
0.00054104143 0.00016558997 5.3438223e-05 2.7273218e-05 5.4571272e-05 6.431217e-06 1.3664421e-05 5.423248e-05
0.00060384034 3.6579066e-05 2.7891232e-05 9.969434e-05 8.012353e-06 9.933965e-06 3.3974444e-05 9.7369586e-05
0.00026004078 1.5083296e-05 4.6640525e-05 6.255563e-06 6.491634e-06 1.8208886e-05 5.7099838e-05 1.8349721e-05
0.00047261576 4.2003245e-05 1.43635325e-05 1.4787452e-05 6.0885974e-05 0.00013080695 5.294073e-05 5.4256554e-05
0.0005005997

exp_avg f4 [7]
00000000: e3ff 0a3c 2eac 523c 7b91 b13b 9411 a23b
00000010: 2145 023c 37a0 cabc 75c7 84bc
0.00848386 0.012858434 0.005418954 0.004945943 0.007951052 -0.0247346 -0.01620839

exp_avg_sq f4 [7]
00000000: 8756 ab39 661e a939 6b5b 653b 0d2d 353b
00000010: 0cc4 fc3a 6b98 0a3b fddf 683b
0.0003268013 0.0003225684 0.0034997116 0.002764526 0.0019284501 0.0021147977 0.0035533898

exp_avg f4 [7]
00000000: 9408 0b3c 78a7 523c 0774 b13b 242b a23b
00000010: 7553 023c 029b cabc 53c5 84bc
0.008485932 0.0128573105 0.005415443 0.0049489904 0.007954468 -0.024732117 -0.016207373

exp_avg_sq f4 [7]
00000000: 7a57 ab39 c91c a939 805b 653b cb2c 353b
00000010: 4ac4 fc3a 3d98 0a3b f6df 683b
0.00032680837 0.00032255639 0.0034997165 0.0027645107 0.0019284573 0.002114787 0.0035533882

exp_avg f4 [7, 22]
00000000: 175e dbb8 137e e13a 87b1 32bc 2b81 d5ba
00000010: adf9 d53a 22d1 30bc e7e2 15bb 2d30 f53a
00000020: c2b1 453a 11dd 883a c287 f13a 36b3 373b
00000030: c6f7 f53a 7585 b33a 273a bd3a 921a 6c3a
00000040: c407 333b 6fed 3d3a 3784 3a3b d7bc 643a
00000050: a1e3 0b3b 52fc 723a ac2e 7abc 1434 24ba
00000060: 1043 17bc ac29 4bbc ba7d 5f3b 89a1 b2bb
00000070: 4edd 19bd 6a3b a6ba 3267 f23a daa5 eabb
00000080: 1382 bf3a 7f72 c43b 7e6c fb3a a006 243b
00000090: f118 71b9 e4f4 2d3a ab79 6eba 8a7d be38
000000a0: 7903 463b 6a05 dc39 5c31 733b 1a19 2cba
000000b0: 5699 cc39 950e 613a 06d8 82bb 03be b0b9
000000c0: d014 3b3a 4c9f 84bb 06d9 e238 3bb2 6c3a
000000d0: dc5c 063a da42 183a e894 223a 8f00 533a
000000e0: 93f4 203a 55e2 023a 599f 0f3a 92a1 ab39
000000f0: 0498 8e3a fb9d 9139 cede 883a 20cf ad39
00000100: 02eb 3c3a 367b cb39 c065 003c 1ef0 d93b
00000110: 09ed 03bd ce15 373b 4e75 7e3b 4ffa 0bbd
00000120: 3b3e 903c 3973 d13b 0cf3 013b cf42 bc3b
00000130: 7bba 923b 042f b93b 9b6a a83b 6b49 bf3b
00000140: 35c1 af3b 55cb 1b3b 68c1 283c 64fe 183b
00000150: 2470 fd3b 0ddf 2d3b 1ac5 ae3b cfd1 623b
00000160: 75c3 063a 6caf b73a 6105 bcbb 5e63 e1b9
00000170: f091 893a a49c c0bb 5cd8 e838 849e bf3a
00000180: 39d5 663a 4902 783a 6c30 ed39 2166 c63a
00000190: 0a2f c039 2441 8b3a a23a 623a ed37 fd39
000001a0: 55ab c23a a398 df39 7c15 c03a 3c6c 063a
000001b0: fb40 973a dc7c 103a 6387 ef3b 8890 4dbc
000001c0: 3ab4 9f3d 2626 7e3c c2d3 57bc 45bd 9b3d
000001d0: 797a cb3c 4729 4abc 926f eabb ba90 58bb
000001e0: 94a0 47bc 6b11 a4bc ee9d 42bc 8205 67bc
000001f0: 9baa 1dbc 25f0 c2bb 911c 9bbc 733f a2bb
00000200: 11be a3bc c705 cabb c089 84bc b008 c8bb
00000210: b7e2 a53a 97e1 b1b9 27f1 723b b293 8c39
00000220: 9ad3 0fba 1ef7 603b 4754 513b 33d5 6f39
00000230: 4672 83b9 b286 b53a bd3c 8fb9 5cb4 a4ba
00000240: 0f3a 14ba ed25 71ba 1f70 b3ba 0f59 93b9
00000250: ebad 12ba b4d2 26b9 5111 97ba 15a0 3ab9
00000260: 45db 5aba e057 bdb8
-0.00010460259 0.0017203711 -0.010906584 -0.0016289105 0.001632502 -0.010792049 -0.002287084 0.0018706374
0.00075414416 0.001044186 0.00184273 0.0028030402 0.0018765859 0.001369639 0.0014436886 0.0009006645
0.002731786 0.0007245158 0.0028460154 0.0008725649 0.0021345394 0.0009269166 -0.0152699165 -0.0006263864
-0.009232298 -0.012400072 0.0034102038 -0.0054513854 -0.03756457 -0.0012682502 0.0018493889 -0.0071608843
0.0014610909 0.0059950943 0.0019182113 0.0025028363 -0.00022992842 0.0006635918 -0.00090971094 9.0832895e-05
0.0030214472 0.00041965704 0.0037108278 -0.000656502 0.00039024156 0.0008585242 -0.003993037 -0.00033710906
0.0007136585 -0.00404731 0.000108169435 0.0009029244 0.00051255315 0.00058083015 0.00062019983 0.00080490945
0.000613996 0.00049928325 0.0005478762 0.0003273604 0.0010879044 0.0002777426 0.0010442378 0.00033151451
0.000720665 0.00038810977 0.007836759 0.0066509387 -0.032208476 0.002793658 0.0038827243 -0.03417426
0.017607799 0.0063919094 0.0019828705 0.005745269 0.0044777966 0.0056513567 0.0051396615 0.0058376095
0.0053636082 0.0023772318 0.010300018 0.0023344988 0.0077343155 0.0026530654 0.005333555 0.003460992
0.00051408197 0.0014014072 -0.005737946 -0.0004298938 0.0010495763 -0.005878048 0.00011102922 0.0014619385
0.00088055764 0.000946079 0.0004524024 0.0015136638 0.0003665614 0.0010624272 0.0008629953 0.00048297588
0.0014852086 0.00042647598 0.001465484 0.00051278225 0.0011539751 0.00055117696 0.0073098405 -0.012546666
0.07798047 0.015512025 -0.013173046 0.0760446 0.024838673 -0.012338943 -0.0071544135 -0.0033045248
-0.012184281 -0.020027837 -0.011878474 -0.014100434 -0.009623195 -0.0059490376 -0.01893452 -0.0049514114
-0.019988092 -0.0061652395 -0.016178966 -0.0061045513 0.0012656067 -0.00033928148 0.0037070008 0.00026812922
-0.0005486548 0.003432698 0.0031941102 0.00022872239 -0.00025071407 0.0013849346 -0.0002732034 -0.0012565958
-0.00056544034 -0.0009199072 -0.0013690031 -0.0002810438 -0.0005595374 -0.00015909487 -0.0011525546 -0.00017797977
-0.0008348714 -9.02859e-05

exp_avg_sq f4 [7, 22]
00000000: 0675 fe36 bbe8 5138 7f47 f139 3c38 7a37
00000010: 7410 2b38 6735 f239 dd68 3238 9024 4f38
00000020: 1cf7 2f38 ed0f a736 51e7 1037 c9f9 8737
00000030: a107 2f37 dafc a236 d583 de36 4861 b036
00000040: f381 f737 0d57 6436 2a0b 1438 1934 8136
00000050: 3b06 2937 b807 ab36 5b01 4b3a 8fd9 df39
00000060: 5247 bd3b ae1a 2739 6d12 3139 f754 d93b
00000070: 2c55 3c3b afb0 043a 464d 0839 7b14 bb39
00000080: 30ce 2139 5c8e 1239 550d 0b39 8ade 8738
00000090: 48d3 1439 35d9 5538 f093 023a f2e3 4438
000000a0: 9a5a db39 66e6 4b38 3c40 e938 2948 cb38
000000b0: f0a6 7f36 6951 4d36 0b50 4438 3e03 e035
000000c0: a79d e435 1f90 5238 5b89 8c37 a074 6b36
000000d0: de6d a635 0b33 1336 5260 9935 173b b935
000000e0: 2061 9e35 4c62 1935 9364 9535 2646 0a35
000000f0: 7151 5d36 6bf1 e834 82c3 5f36 e4a3 d234
00000100: 32de 6035 720d 3935 f627 1839 66aa ae39
00000110: eef9 cd3b cf72 a039 b65f 9739 98c6 c93b
00000120: 5f2b b63a 4679 c139 e621 5839 befe e338
00000130: f25c 1d39 8aba 9539 2c85 2239 024a 9338
00000140: b5b0 e438 4b4f 9038 20db c939 104a 2838
00000150: 2160 ee39 81ca 4f38 ab8b 2839 8be6 7638
00000160: 8a34 8636 84ed 9637 5a79 c839 cdb4 5337
00000170: a9fd 7537 db50 c539 b4ed c637 85b0 9637
00000180: 3c8b 0637 e1b0 aa36 4535 2a37 db83 2537
00000190: be32 c837 ae2a a536 1335 c836 c74f 7636
000001a0: 695a db37 b046 1e36 99ed e137 7448 3936
000001b0: 7da4 0c37 9ca3 8036 3ee2 2638 c409 3339
000001c0: 877e a23b cea7 1739 40ae 1a39 8a87 9f3b
000001d0: 9a07 d839 26f3 3739 4950 9a38 00a7 2638
000001e0: 6e32 2039 2dec 8139 5746 0c39 d34e 2339
000001f0: f42e a438 99d9 2738 ab3e ac39 0dbe e237
00000200: 1111 b039 5db8 1338 7a2f 1739 216d 2738
00000210: dd6a 1438 5846 0a38 265f 313a ce16 fe36
00000220: 4baa 9d37 660a 3c3a eb06 fd38 bb32 0f38
00000230: 1e08 4337 00a3 be37 1995 5d37 6bea a937
00000240: 7f94 7e37 7bd5 0637 eca7 1c38 3095 c336
00000250: 7ac6 5438 da21 9d36 513d 4b38 514d a736
00000260: 7f82 6f37 7fde 0537
7.583413e-06 5.004623e-05 0.0004602037 1.4914254e-05 4.07849e-05 0.00046197625 4.253617e-05 4.9386697e-05
4.195339e-05 4.978842e-06 8.636926e-06 1.620957e-05 1.0432589e-05 4.857412e-06 6.631463e-06 5.2565338e-06
2.9505207e-05 3.4025318e-06 3.5296347e-05 3.8505646e-06 1.0074636e-05 5.0970957e-06 0.00077440374 0.00042695968
0.0057763243 0.000159363 0.000168869 0.006632443 0.002873729 0.00050617283 0.00012998757 0.0003568268
0.00015430967 0.00013976678 0.0001326104 6.478753e-05 0.00014193088 5.0985447e-05 0.0004981151 4.6942332e-05
0.00041838438 4.8613547e-05 0.000111222704 9.693235e-05 3.8095131e-06 3.0594767e-06 4.6804587e-05 1.6690244e-06
1.7033207e-06 5.0202125e-05 1.6753262e-05 3.5085613e-06 1.2399939e-06 2.1934418e-06 1.1427421e-06 1.3800772e-06
1.1800184e-06 5.713998e-07 1.1130636e-06 5.1511086e-07 3.2978971e-06 4.3389022e-07 3.334339e-06 3.9234794e-07
8.376984e-07 6.8937436e-07 0.00014510736 0.00033314823 0.0062858975 0.00030603117 0.00028872275 0.0061577074
0.0013898424 0.00036902184 0.00020611993 0.00010871653 0.00015007312 0.00028558477 0.00015499134 7.023291e-05
0.000109048015 6.8812245e-05 0.00038500968 4.0123297e-05 0.0004546652 4.9541242e-05 0.00016073759 5.886568e-05
3.9996276e-06 1.7991995e-05 0.00038237387 1.2618676e-05 1.4662198e-05 0.0003763501 2.3714128e-05 1.7963592e-05
8.01944e-06 5.086986e-06 1.0145192e-05 9.865466e-06 2.3865487e-05 4.9223518e-06 5.966643e-06 3.6703293e-06
2.6148935e-05 2.358498e-06 2.693273e-05 2.7609321e-06 8.382948e-06 3.833744e-06 3.978819e-05 0.00017074408
0.004958931 0.00014462994 0.00014751498 0.0048684524 0.00041204394 0.0001754282 7.3582465e-05 3.9733015e-05
0.00015277576 0.00024780762 0.00013377644 0.00015574256 7.828875e-05 4.0018556e-05 0.00032853088 2.7029799e-05
0.0003358205 3.5219233e-05 0.00014418169 3.9917537e-05 3.5385474e-05 3.2967277e-05 0.00067661924 7.5724447e-06
1.8795157e-05 0.00071731803 0.00012065269 3.4141103e-05 1.1624796e-05 2.2725668e-05 1.3207341e-05 2.025553e-05
1.5174154e-05 8.036727e-06 3.7349688e-05 5.8288206e-06 5.0729584e-05 4.6829055e-06 4.8456077e-05 4.9859887e-06
1.4275894e-05 7.979222e-06

exp_avg f4 [7, 7]
00000000: ed59 abb9 6dfd 133b d2e3 e539 1b50 513b
00000010: d7e1 5e3a e9be 6c3b fb93 913a 427e 463a
00000020: abb2 7abc 2457 33b8 7d07 d53b 44c2 ce3a
00000030: b5c9 393c 7b87 c43a e8ed 7839 de06 a13a
00000040: 1fc5 3539 559e 663a cb0b 9039 0f69 833a
00000050: 6244 cc39 1bfc ff3a a3c6 603c 4e6d bd3a
00000060: 3215 82bb 5ad4 293b f9e4 5e3c a06c 9f3b
00000070: 4577 c439 2909 eb3a e762 6639 a488 bf3a
00000080: 8866 9eba 702f 423b d820 f939 460c 60bb
00000090: d02b 15bc d71b 4abb e2c8 2bbc 99bd a2bb
000000a0: 1c16 36bd 4162 34bb 0f47 30b9 7097 493b
000000b0: a976 24b9 4703 d2b9 b8f5 c5b8 690b a33a
000000c0: ab3b ddbb
-0.00032682662 0.0022581473 0.00043848023 0.0031938616 0.00085022807 0.0036124534 0.0011106724 0.00075719145
-0.015301387 -4.275808e-05 0.006501137 0.0015774448 0.011339595 0.001499399 0.0002373975 0.0012285372
0.00017334938 0.0008797397 0.00027474607 0.0010025817 0.0003896086 0.0019530089 0.013719234 0.0014452131
-0.003969812 0.0025913925 0.013604396 0.004865244 0.00037472896 0.0017931807 0.00021971353 0.0014612866
-0.0012085 0.0029630326 0.00047517451 -0.0034187003 -0.009104684 -0.0030839348 -0.010484906 -0.0049664495
-0.04445468 -0.0027524384 -0.0001681114 0.003076043 -0.00015684463 -0.00040056763 -9.439461e-05 0.0012439314
-0.0067514977

exp_avg_sq f4 [7, 7]
00000000: 0c50 1c38 ee97 8d37 45b0 d335 7fe9 6a38
00000010: d97c 2336 fcf2 4337 7e5e 5e36 3f5f ed37
00000020: 78fc cb3a 8ab4 a637 9fd8 d039 8bd7 df37
00000030: d9a6 b138 28f1 6338 cac8 fb34 3fdb 1237
00000040: ed6b 4334 c153 9036 ad3d 8a34 2748 ad35
00000050: 79cc 1335 0a28 1838 ca5b d039 9ee4 8a37
00000060: d2ff ad3a 8e9b 0e38 2f90 1639 a920 1d38
00000070: 3271 3f36 9780 b037 5024 9835 ce0e bb37
00000080: 6bba e537 7bee 1937 2ab1 3136 950b 8e37
00000090: fd7e 3b39 cf67 3437 aa08 8139 3177 db37
000000a0: 599c 6b3a 86b6 b237 4d45 4a36 a176 c638
000000b0: add3 0036 b1b3 f037 12aa 8036 f496 1d37
000000c0: 62f2 8738
3.7267848e-05 1.6879258e-05 1.5772026e-06 5.6007408e-05 2.4361564e-06 1.167948e-05 3.313558e-06 2.8296954e-05
0.0015562912 1.9872812e-05 0.00039834247 2.6684042e-05 8.4710955e-05 5.434561e-05 4.6898487e-07 8.753325e-06
1.8200053e-07 4.3012847e-06 2.5749378e-07 1.2910504e-06 5.5059314e-07 3.6276913e-05 0.0003974124 1.655734e-05
0.0013275093 3.400031e-05 0.00014358827 3.7462134e-05 2.8527106e-06 2.1040714e-05 1.1335451e-06 2.2299031e-05
2.7385735e-05 9.175036e-06 2.6478178e-06 1.6933112e-05 0.00017881017 1.0753006e-05 0.00024611253 2.6162337e-05
0.0008987836 2.1304248e-05 3.0140684e-06 9.463472e-05 1.9196698e-06 2.8693905e-05 3.834496e-06 9.393076e-06
6.482449e-05

exp_avg f4 [7]
00000000: 9368 363c 39a5 cf3b 1e38 893b 7d18 0c3d
00000010: c161 c73b 4949 a0bd eada 54bb
0.011133331 0.0063368347 0.004187598 0.03420304 0.006084651 -0.07826478 -0.0032479116

exp_avg_sq f4 [7]
00000000: 0060 083a 3652 e53b 8c15 6238 10f0 de3b
00000010: 9bd4 d539 57d3 a93b 3afb 433a
0.00052022934 0.0069983257 5.3902666e-05 0.00680352 0.0004078493 0.0051826644 0.00074760953

exp_avg f4 [7]
00000000: fc68 363c 518d cf3b 422f 893b c114 0c3d
00000010: 1c50 c73b 524a a0bd 78b4 54bb
0.011133429 0.006333985 0.004186542 0.03419948 0.006082548 -0.078266755 -0.00324562

exp_avg_sq f4 [7]
00000000: 0660 083a 4f52 e53b 5210 6238 19f0 de3b
00000010: 33d4 d539 90d3 a93b 94fb 433a
0.0005202297 0.0069983373 5.38978e-05 0.006803524 0.00040784627 0.005182691 0.0007476148

exp_avg f4 [7, 22]
00000000: b9e7 dcbb 280f c939 8c8b d0bc c3e8 10bc
00000010: ba7b af3a ca3a c3bc 54f4 b0bc d0b5 d93a
00000020: a9c7 523a 8395 133b 7323 803b b84e ed3b
00000030: 6a2d 623b 40d0 983b 9798 5a3b 2770 433b
00000040: cbd5 2d3b d75d 113b 5ff6 283b 6e70 c03b
00000050: affe 883b 07ec a93b e4e8 c2bb 3d11 3d3b
00000060: 6bfc 06bd c54d 47bc 2436 7d3b 3981 00bd
00000070: 672e bbbc 8dee 943b fb55 823b c966 143b
00000080: b3bf a43b b291 133c ef40 8c3b 5475 a63b
00000090: d315 8d3b fbff 813b 2419 753b 6b87 483b
000000a0: 4aec 5a3b 5f14 013c c7c7 b43b bd80 d33b
000000b0: 7e56 d0bb b396 403a db6b 2fbc 8093 09bc
000000c0: a7fc 0a3b 535d 15bc 3576 97bc b97e b93a
000000d0: d204 a83a 1c07 883a 5236 a138 001b 483b
000000e0: 5dd4 a43a 8f5d 023b 6a01 b53a 90da a53a
000000f0: d5b2 283a 3211 5139 301a 8e3a a74c 3a3b
00000100: a127 c93a f2dc 233b 1c2a 83bb 1b44 bc3a
00000110: cb71 bebc a494 05bc 8e35 213b e2bd b5bc
00000120: 3828 7bbc 4979 313b 6120 253b 0b13 103b
00000130: 1edd 683b b8ee ba3b 9d0d 323b 2ee5 813b
00000140: 69f1 5c3b 7d87 363b bd70 2f3b 918a 113b
00000150: b48b 1d3b f518 b33b 777c 7a3b c4d4 973b
00000160: 5e87 623c 7d6e 43bc 83a9 c33d d729 023d
00000170: 8fe6 4ebc 3cfa b83d 0e33 8b3d bb3e 60bc
00000180: 4591 38bc c641 e2bb 91b7 4fbc 555a f4bc
00000190: 800d 74bc 3c7f 3cbc 4c08 22bc a0be 40bc
000001a0: 9262 33bc 2cf8 11bc 6c64 13bc f543 babc
000001b0: 4c54 85bc 5e10 8ebc dcba 0fba 815a 6ab8
000001c0: 2486 0cbb 1f18 6e3b cfc2 fbb9 54e7 88bb
000001d0: bace 033c 63e9 e3b9 dc3b ab3a d3cf e439
000001e0: fcbe 3f3b 9321 113b d63f 233b 2a6b cabb
000001f0: 3847 0938 7ddf d6b8 71ac 5d3a ecc3 083a
00000200: 5ca1 0c39 0108 3d3a bf82 a03a dd7f fab8
00000210: 3ce5 f53b 5b02 f43b 2972 0fbc a226 66ba
00000220: 1a6e 923b ef0e e4bb 66b8 95bb 11ce a23b
00000230: f136 163b def4 67ba 4349 feba bc9a ad3b
00000240: 4386 053b c200 1e3b 912c adba 50b0 e63a
00000250: f7ea a03a 8235 ad3a 2a6d 6739 98d1 f13a
00000260: 1816 b33a 2adc 1f39
-0.0067414907 0.00038349 -0.025457166 -0.008844557 0.0013388314 -0.023831744 -0.02160088 0.001660997
0.0008040616 0.0022519536 0.003910476 0.00724205 0.0034511932 0.004663497 0.003335511 0.0029821487
0.0026525136 0.0022181177 0.0025781614 0.0058727777 0.0041807513 0.0051856074 -0.005948173 0.0028849386
-0.03295557 -0.012164538 0.0038637007 -0.031373236 -0.022849275 0.004545039 0.003977535 0.0022644273
0.005027735 0.009006904 0.0042802016 0.0050799046 0.00430558 0.003967283 0.0037399018 0.0030598294
0.0033405 0.007878392 0.0055169794 0.006454556 -0.006357967 0.00073466747 -0.010706867 -0.008396983
0.0021207721 -0.0091164885 -0.018488983 0.0014152146 0.0012818819 0.0010378095 7.687196e-05 0.0030533671
0.0012575496 0.001989219 0.0013809626 0.0012653638 0.00064353395 0.00019938199 0.0010841545 0.0028427036
0.0015346893 0.002500352 -0.0040028226 0.0014363559 -0.02324762 -0.0081531145 0.0024598571 -0.02218527
-0.015329413 0.0027080348 0.0025196301 0.0021984007 0.0035532187 0.005704727 0.0027168759 0.003964088
0.0033713228 0.0027851753 0.0026770078 0.0022207836 0.0024039568 0.0054656216 0.003822116 0.004633518
0.013826219 -0.011928198 0.09553816 0.031778183 -0.012628212 0.090321034 0.06796847 -0.013686831
-0.011265104 -0.0069048135 -0.012678043 -0.02982823 -0.014895797 -0.011504944 -0.009889673 -0.011764199
-0.010948794 -0.008909266 -0.00899611 -0.022737483 -0.016275547 -0.017341789 -0.00054828613 -5.5874236e-05
-0.0021442259 0.0036330295 -0.00048019594 -0.004177967 0.008044893 -0.000434707 0.0013064104 0.0004364239
0.0029258123 0.0022145256 0.0024909875 -0.0061773257 3.2729673e-05 -0.00010245943 0.0008456177 0.0005217183
0.00013411551 0.00072109705 0.0012245997 -0.00011944745 0.0075041335 0.00744657 -0.008755245 -0.00087795604
0.0044686915 -0.006959788 -0.004569101 0.0049684127 0.0022920931 -0.0008848439 -0.0019400496 0.005297987
0.0020374216 0.0024109338 -0.0013212134 0.0017600153 0.0012277056 0.0013214799 0.00022070543 0.0018449305
0.0013663201 0.00015245439

exp_avg_sq f4 [7, 22]
00000000: b255 ed38 a94e 0c39 69e9 9f3a 4fc7 1639
00000010: ddfb 2039 5bd5 9c3a 1c71 6d39 91cc 3339
00000020: ba9e 0939 c3b4 aa37 1930 c037 d131 3b38
00000030: 55bf b637 7381 9837 8681 9637 8c68 0038
00000040: 5e28 2038 0c51 8737 be4f f137 253b 3b38
00000050: 7953 1538 bb14 0738 ff09 ef39 2f83 4137
00000060: a82e 0b3b 5177 5339 0928 3237 8ef4 1b3b
00000070: 5733 9b3a 1766 8a37 591a 0738 a462 5839
00000080: 4839 4638 e3c6 9038 bb77 2338 e956 b737
00000090: 9abc 3038 371b 3338 25c5 b438 43d5 5b38
000000a0: 6ed7 4d38 52f2 5738 f3d3 8f38 4353 2438
000000b0: 7351 453a d4bc ce37 4688 023b b7e6 8e39
000000c0: a2b3 3836 afb4 223b 7b47 273b 1f22 0f38
000000d0: 0b2a 0c38 c09f 0c38 1e7b 6339 5c11 a938
000000e0: 6f74 4438 c408 0138 8805 1b38 3b5d 2238
000000f0: be6f cb38 76d1 9838 e2cd 0d38 8860 6638
00000100: 6d57 bd38 2064 0838 cd8d 2938 e927 a936
00000110: 2f22 ce39 13f6 7e38 9995 e136 3cba c239
00000120: 2085 7b39 0bdf 0d37 ebf1 d136 a591 0c37
00000130: c0ea 3d37 514a 8537 7c5f fb36 686b 2f37
00000140: 11d4 7737 941c 0137 ff77 0837 ad43 6a36
00000150: 6030 5637 a20e 4537 b0c4 3137 2f5a 6237
00000160: bb79 7039 4ae3 0e39 6f33 c93b 4fd3 4c3a
00000170: ed45 4139 af56 b53b 8726 5d3b 34d7 6d39
00000180: 0dac c238 763e 5c38 5c0d 1839 49eb df39
00000190: 51d5 3139 4e13 c938 37ea e838 7dc1 fd38
000001a0: 97ed d238 dc49 4238 aaae 1039 9297 6c39
000001b0: f85c 3139 23aa 5739 07a0 7e39 3e70 fa37
000001c0: b1f0 563b 43a2 343a 16e3 6a38 4745 383b
000001d0: 7f44 243b 140f 9838 1bb1 2338 8fc3 3338
000001e0: 5544 8938 d4ad 1539 f9a4 5538 d467 2f39
000001f0: 8327 a838 9e2c 9038 a7c2 6038 6b3e e137
00000200: 126a bf38 ee57 ee38 bdea 9f38 9716 0339
00000210: 40d6 ba39 1e6e a037 2ca8 723b ec03 0f3a
00000220: 5962 de37 8dd8 653b 8e50 f33a 36ba 0538
00000230: a593 2b38 4e23 6738 2c53 0839 5807 0c39
00000240: 259c 8438 68fc 6d38 7dbe 5739 af0d 7138
00000250: 1d2e 6e38 6caa c837 27a9 fa38 9c29 0f39
00000260: 93b3 cb38 b6b4 2039
0.00011317003 0.00013380744 0.0012200299 0.00014379363 0.00015352615 0.001196544 0.00022644218 0.00017146977
0.00013124468 2.0349753e-05 2.291058e-05 4.463067e-05 2.1785187e-05 1.8180092e-05 1.7941707e-05 3.0614945e-05
3.8184568e-05 1.6130994e-05 2.8766572e-05 4.4639357e-05 3.560211e-05 3.2205815e-05 0.0004559308 1.153424e-05
0.0021237526 0.00020166977 1.0618948e-05 0.002379689 0.0011840862 1.6498421e-05 3.2211046e-05 0.00020636112
4.7260226e-05 6.9035006e-05 3.8973736e-05 2.185577e-05 4.213732e-05 4.270227e-05 8.61979e-05 5.2412284e-05
4.9076443e-05 5.1485673e-05 6.85825e-05 3.917819e-05 0.00075270905 2.4645044e-05 0.001991765 0.00027256247
2.7522697e-06 0.0024826934 0.0025524783 3.4125635e-05 3.3417757e-05 3.352738e-05 0.00021694272 8.0617814e-05
4.683848e-05 3.076416e-05 3.696003e-05 3.8710637e-05 9.700608e-05 7.28694e-05 3.3808763e-05 5.4926175e-05
9.0285066e-05 3.2518175e-05 4.0424802e-05 5.0412386e-06 0.0003931685 6.0787494e-05 6.722938e-06 0.0003714132
0.00023986818 8.456186e-06 6.2568483e-06 8.378561e-06 1.1319935e-05 1.5889442e-05 7.4914988e-06 1.045582e-05
1.4771723e-05 7.695653e-06 8.1341705e-06 3.490811e-06 1.2766657e-05 1.1745522e-05 1.0595817e-05 1.3491647e-05
0.00022933532 0.00013626847 0.0061401646 0.000781347 0.00018431964 0.005534015 0.0033744888 0.0002268225
9.282688e-05 5.251026e-05 0.00014500826 0.00042709176 0.00016959502 9.588023e-05 0.00011106248 0.0001210002
0.00010057835 4.632199e-05 0.00013797978 0.00022563178 0.00016914669 0.00020567379 0.00024282942 2.985459e-05
0.0032797272 0.0006890634 5.6001438e-05 0.0028117464 0.002506524 7.250733e-05 3.902717e-05 4.2859054e-05
6.545397e-05 0.00014274503 5.09368e-05 0.0001672798 8.018224e-05 6.874766e-05 5.3587046e-05 2.6851156e-05
9.127347e-05 0.000113651025 7.625434e-05 0.00012501549 0.00035636313 1.9124764e-05 0.0037026508 0.00054556015
2.6510259e-05 0.0035071701 0.0018563436 3.1883093e-05 4.090708e-05 5.5107572e-05 0.00013000955 0.00013354176
6.323335e-05 5.6740275e-05 0.0002057496 5.747162e-05 5.6786568e-05 2.3921217e-05 0.00011952436 0.00013653043
9.7132426e-05 0.00015326109

exp_avg f4 [7, 7]
00000000: 95bf 37b9 da94 f73a e9e6 da3a d535 dc3a
00000010: 52a7 2e3c 8d2e b33b 3bb4 923b 7364 3c3b
00000020: 2dff bb3a 0438 1e3b 5ba5 103b ca12 5d3c
00000030: 3cd4 b13b 5713 c83b b299 913a 1f18 3a3a
00000040: 888a 21bb 3eca 373a 15be a83b c23d 203b
00000050: 07c7 1e3b 067e fc3a a7c8 ea3a e4e6 ca3a
00000060: e8be ca3a 9f04 ea3b fc63 953b d3d7 b43b
00000070: 66a2 ecbb f4fa eebb 4741 b2bb fa62 c1bb
00000080: 5159 62bd 2896 15bc 7205 dcbb 043b 1eb9
00000090: da1b fe39 242b 173a b9d3 86b9 883a 4e3c
000000a0: 4542 58bc 01d5 513b 29a1 ff3a 77a9 a33a
000000b0: f963 bc3a 7cbf 3239 c639 4d3c 1752 883b
000000c0: 0ee7 5ebc
-0.0001752361 0.0018888966 0.0016700897 0.0016800711 0.010660009 0.005468196 0.0044770516 0.0028746396
0.0014343016 0.0024142275 0.0022071216 0.013493249 0.0054269116 0.006105821 0.0011108427 0.0007098931
-0.0024649221 0.00070110324 0.0051496127 0.0024450873 0.0024227516 0.0019263632 0.0017912582 0.0015480188
0.0015468271 0.007141664 0.004559038 0.0055188923 -0.007221508 -0.0072930995 -0.0054399106 -0.0059016915
-0.05526096 -0.009130038 -0.0067145163 -0.00015090039 0.00048467406 0.00057666213 -0.00025716217 0.012587197
-0.013199394 0.003201783 0.0019502986 0.0012486418 0.0014373056 0.00017046736 0.012525981 0.0041601765
-0.013604892

exp_avg_sq f4 [7, 7]
00000000: 5800 2839 6671 0a38 e650 5137 3340 8337
00000010: 3d60 5238 8ec5 0838 1bdb ba37 302e d837
00000020: 50a7 e839 38de 1f38 5f4e b837 8dca 8138
00000030: 4959 1938 4f58 1038 6ad9 af37 1304 8d38
00000040: 1a06 dc39 52c5 8c37 3bc4 0b38 fb36 5938
00000050: ebc6 9a37 78f3 bb36 aba2 4937 6185 c836
00000060: 24c1 cf36 baf3 a937 fc04 b137 0ef6 1c38
00000070: 84d1 8638 b77f 5f38 3ea2 1738 3a1e 8738
00000080: 7d90 953a fdce d338 0c25 2239 7821 1d38
00000090: 57c7 5338 e80b 1038 2c5e 4638 1c13 0f39
000000a0: d8c6 d239 30b0 cf38 5301 0638 c7b2 0438
000000b0: 7572 9137 1da9 7638 9b05 0539 9e39 7738
000000c0: 1517 3e3a
0.00016021857 3.3007374e-05 1.2476206e-05 1.5646312e-05 5.015753e-05 3.2608914e-05 2.2274957e-05 2.5770714e-05
0.00044375146 3.811551e-05 2.1971004e-05 6.1889274e-05 3.6561196e-05 3.441452e-05 2.0962867e-05 6.724163e-05
0.00041966216 1.6781185e-05 3.3322936e-05 5.1788036e-05 1.8450859e-05 5.601378e-06 1.2018408e-05 5.975992e-06
6.1915653e-06 2.0259864e-05 2.1102365e-05 3.7422455e-05 6.428643e-05 5.3286287e-05 3.6152305e-05 6.442932e-05
0.0011410859 0.000100998186 0.00015463325 3.7462887e-05 5.049197e-05 3.4343364e-05 4.7294583e-05 0.00013644662
0.0004020247 9.903347e-05 3.1949323e-05 3.163775e-05 1.7338645e-05 5.880847e-05 0.00012685957 5.894305e-05
0.00072513643

exp_avg f4 [7]
00000000: 6139 d23c 440b 0b3d f4eb 243c bfe7 c43c
00000010: ae9a c6bd 641f 543b 6958 013c
0.025662126 0.03394629 0.010066021 0.024036286 -0.096974716 0.0032367343 0.007894614

exp_avg_sq f4 [7]
00000000: 4d4f c53a ad24 2a3b 8bb7 353b d9e1 e639
00000010: dbe5 d53b bff5 693b 5be4 853b
0.0015053541 0.0025961802 0.0027727808 0.00044037288 0.006527645 0.0035699455 0.00408606

exp_avg f4 [7]
00000000: 3141 d23c c210 0b3d fae8 243c eaef c43c
00000010: cc9b c6bd 67db 533b 6140 013c
0.025665851 0.03395153 0.010065312 0.024040181 -0.09697685 0.003232682 0.007888884

exp_avg_sq f4 [7]
00000000: 0750 c53a 2325 2a3b a3b7 353b 01e9 e639
00000010: 34e6 d53b 89f5 693b 78e4 853b
0.0015053757 0.0025962077 0.0027727864 0.0004404262 0.0065276865 0.003569933 0.0040860735

exp_avg f4 [7, 22]
00000000: a300 21bc 258a c7bb 531a d53c 1682 5b3b
00000010: e686 e7bb e75c e53c 55b2 37bc 791d dfbb
00000020: e86f 9dbb 00ee cfba cd15 e0b7 9b2c 00bc
00000030: 2a5c aabb 3b6f 27bb dc01 9dbb 8735 aebb
00000040: 2e8f 14bb 81ba d8bb e128 66bb ad4f 0ebb
00000050: ee61 86bb b220 38bb dc29 dc3a e823 1e39
00000060: 97c6 12bc 5930 5b3a c98d c038 3f1b 15bc
00000070: e16c 403b 4163 3238 10d8 813a b5f2 3c3a
00000080: 02eb 823a 194a 143b 6d15 b63a 10c1 f93a
00000090: e6d9 a13a 3e50 e23a bb39 3e3a 7cfd 233b
000000a0: 7970 a23a bae9 703a 6869 993a cef9 9e3a
000000b0: f3cf e9bb 70fe 253b 0cde 5d3c 77d1 1dbc
000000c0: c3d0 c739 02cc 603c 7489 82bc 6d3d ed3a
000000d0: 86a2 a737 eea4 0bbb e4c8 94bb 3b6d 34bb
000000e0: 4c35 1cbb 52cc 1dba 840e fdba 00c6 7abb
000000f0: ada5 34ba 8b34 9bbb deee abba 9f16 96ba
00000100: 5ecf 22ba 1216 03bb 49dd 34bc cf95 ef3a
00000110: e5cb 25bb 231c 4dbc e271 743b 9033 0ebb
00000120: 8004 e0bc 318f f83a e06c 40ba feeb 59b9
00000130: a178 73ba ad53 84ba 625a a9b9 a9e5 883a
00000140: b0dd 943a 71d1 8fba deff 85b9 6096 3e3a
00000150: 809f adb9 9fca 6fba ad3c dc39 5249 dd39
00000160: 919c ab3b 4131 1639 3b89 9dbc 7fcf 623b
00000170: 2540 2039 b380 a1bc d62f 203c cfdf 6338
00000180: fc1d f83a 9192 033b 1c21 213b e4d6 a43b
00000190: 80b0 593b 26f2 5b3b bf19 273b 6810 813b
000001a0: 11d0 c93a a090 b43b 0fbb 2a3b dd75 063b
000001b0: 8b41 1a3b 610b 2b3b 1e1b 5c3c aae4 d839
000001c0: 7e31 dc3b 96d4 123c c4d1 1a3b e650 d33b
000001d0: 4f18 c73c 1715 123b 134b 93b8 ef42 beb9
000001e0: eeb8 b839 0e1a 27ba 675c 3f3a 9baf babb
000001f0: 1c93 98b9 6c6e 033a b410 0cba 8857 f2ba
00000200: df80 92ba 5f7f bab9 8e62 c0ba 5121 98ba
00000210: c381 133c 9cd1 d5b9 714a 40bc 34de 153c
00000220: cfd0 c339 1343 54bc 3036 ac3c 65d7 0538
00000230: 6b37 b03a d65b b33a 7535 273b ac8c 833b
00000240: 521b 123b 31de 203a 4a14 bb3a dab5 753b
00000250: b292 713a fd6f 793b 764d c63a cb52 953a
00000260: f267 943a c1b6 a83a
-0.009826812 -0.006089466 0.026013529 0.0033494285 -0.0070656417 0.0279984 -0.011211951 -0.0068089333
-0.0048046 -0.0015863776 -2.6713033e-05 -0.007823135 -0.005198975 -0.0025548476 -0.0047914814 -0.0053164396
-0.002266835 -0.00661403 -0.003511958 -0.002171497 -0.0041010296 -0.002809566 0.0016797143 0.0001508143
-0.00895848 0.00083613914 9.181683e-05 -0.009100734 0.0029361772 4.2530944e-05 0.0009906311 0.0007207797
0.0009988251 0.0022627173 0.0013891883 0.001905473 0.0012348264 0.0017266346 0.00072565273 0.0025022915
0.0012393139 0.00091901014 0.0011704387 0.0012128891 -0.007135385 0.0025328659 0.01354171 -0.00963246
0.00038111777 0.013720514 -0.015934683 0.0018099971 1.9983632e-05 -0.0021308023 -0.0045405496 -0.0027530927
-0.0023835478 -0.0006019521 -0.0019306694 -0.003826499 -0.00068911427 -0.004736488 -0.0013117453 -0.0011450833
-0.00062107097 -0.0020002169 -0.011039087 0.0018278899 -0.0025298533 -0.012518915 0.0037299325 -0.0021698214
-0.027345896 0.0018963573 -0.00073404424 -0.00020782647 -0.00092876895 -0.0010095738 -0.00032301532 0.0010444421
0.0011357572 -0.0010972453 -0.00025558373 0.00072703324 -0.00033115968 -0.00091473194 0.00042006877 0.00042207033
0.00523717 0.00014323463 -0.019230476 0.003460854 0.00015282685 -0.019714689 0.00977703 5.4329455e-05
0.0018929834 0.0020076374 0.0024586385 0.0050305 0.0033216774 0.003356108 0.0025497524 0.0039387234
0.0015397092 0.0055104047 0.0026051437 0.002051703 0.0023537602 0.0026099312 0.0134342 0.00041369098
0.006719767 0.008961817 0.0023623565 0.006448853 0.024303583 0.0022290403 -7.02349e-05 -0.00036289493
0.00035232998 -0.0006374427 0.0007299841 -0.0056972033 -0.00029101304 0.00050137076 -0.0005343065 -0.0018489221
-0.0011177323 -0.00035571583 -0.0014677809 -0.0011606609 0.009003106 -0.00040782697 -0.011736498 0.009147216
0.00037348873 -0.012955445 0.021021932 3.1910273e-05 0.001344425 0.0013683985 0.002551404 0.004014572
0.0022294116 0.0006136625 0.0014273014 0.0037492425 0.000921528 0.0038061135 0.0015129286 0.0011392472
0.0011322482 0.0012871848

exp_avg_sq f4 [7, 22]
00000000: e653 ca39 da75 9238 0298 843b b8c6 1539
00000010: 719b de38 a455 8b3b 85c8 8e3a 0ae4 bb38
00000020: 3da5 7939 edc0 3638 63c1 6238 40e9 6439
00000030: 8036 da38 0016 8338 62ca c238 9fd6 0e39
00000040: 2073 ff37 cac6 8539 259a 8f38 dcf9 b738
00000050: c2bb 9d38 d350 9238 28e7 ea37 83e4 9935
00000060: 0165 2139 f670 1137 c8e5 1c35 9946 3639
00000070: 41b4 9638 d0d6 b435 ef4a 6a36 779c 4a37
00000080: 133e 1436 8c75 aa36 3211 5036 a735 5036
00000090: 4252 5436 00eb b236 090e 9935 43a5 1c37
000000a0: 2ceb 3836 8e7b c536 28a2 1636 b021 4336
000000b0: fe01 be39 3d29 2337 9217 8d3b f421 ca39
000000c0: cb3d 6f37 2d4c 8b3b 8511 cb3a 9f0c 1f37
000000d0: d877 5338 65cb 8438 4869 6939 7b48 3439
000000e0: bd3d be38 b1ab a938 bf67 c438 468a 2939
000000f0: 59f9 d237 efdc 8e39 861a 8038 c65f ec38
00000100: 2e7b 5d38 2098 bc38 958b ff39 744d a636
00000110: 2b0c c23a 6032 bf39 bf96 9937 1c7d d03a
00000120: fb59 123b c92c d136 15d6 2738 7d6d d137
00000130: 2e34 3a38 12df c138 4438 3a38 6348 0f38
00000140: 1e36 0138 7f3d a838 b0d5 5037 c289 c038
00000150: 6669 ea37 cb81 6638 2eca c437 e896 fe37
00000160: f842 3238 57ac c235 35fc cd39 23ab 1238
00000170: 7d6a 0536 799c d039 dbd9 3839 e7e5 cb35
00000180: b7ce d436 5cd8 dc36 a0ec 5337 0ffd 9f37
00000190: 2db5 3537 50bb 0737 294d 1e37 6518 6037
000001a0: 169c 2d36 2ad0 c137 e1b5 c636 b7cb 5237
000001b0: d8ff b136 3cff 0837 1abc 9938 bd3c 1537
000001c0: 98be d33a b07c 8338 cd1d bc36 674d d43a
000001d0: 0e79 a039 0578 b236 ca08 ce37 2091 8d37
000001e0: c1e1 a037 283a 7838 1057 e537 872c c038
000001f0: 4677 2f38 3ae6 0338 becc 4f37 6cda ea38
00000200: 6b51 0838 8c9b 0638 ec65 e637 bee8 ed37
00000210: 3990 3438 bdc2 f136 00d8 e63a c9e5 0439
00000220: 2f54 4436 ff8e db3a c6a0 c539 ffc3 2236
00000230: f122 8c37 9482 9337 fd2f c737 b289 5538
00000240: 4cf6 a438 26f0 2338 2686 af38 6fec 0b38
00000250: 39a0 5137 96a7 df38 541e 0238 e1e9 3538
00000260: 563d e737 a355 1a38
0.00038590952 6.983774e-05 0.004046441 0.00014283776 0.00010614738 0.0042521525 0.00108935 8.9593304e-05
0.00023808047 4.3571858e-05 5.4062704e-05 0.00021830667 0.000104052015 6.2506646e-05 9.2883376e-05 0.00013622128
3.0451978e-05 0.00025515846 6.847483e-05 8.77266e-05 7.521316e-05 6.976877e-05 2.8002614e-05 1.1465894e-06
0.00015391783 8.668974e-06 5.8448904e-07 0.00017383172 7.186132e-05 1.3473564e-06 3.4912334e-06 1.2076568e-05
2.208985e-06 5.080079e-06 3.1004424e-06 3.1025645e-06 3.1638342e-06 5.332171e-06 1.1403473e-06 9.336803e-06
2.7555025e-06 5.885441e-06 2.244613e-06 2.9076873e-06 0.00036241108 9.725159e-06 0.0043057883 0.0003855374
1.4259897e-05 0.004251024 0.0015492892 9.480077e-06 5.0417933e-05 6.332136e-05 0.00022259832 0.00017193139
9.071406e-05 8.090528e-05 9.3653325e-05 0.00016168607 2.5150062e-05 0.0002724896 6.108456e-05 0.00011271196
5.2805226e-05 8.992874e-05 0.00048741387 4.9562022e-06 0.0014804652 0.0003646789 1.8309218e-05 0.0015906426
0.0022331465 6.233899e-06 4.0015282e-05 2.4965726e-05 4.4394452e-05 9.244507e-05 4.4398257e-05 3.4161272e-05
3.0806397e-05 8.022319e-05 1.2447519e-05 9.180933e-05 2.7944054e-05 5.4957152e-05 2.3459168e-05 3.034943e-05
4.2500877e-05 1.4504284e-06 0.00039288556 3.4968496e-05 1.9880529e-06 0.00039789433 0.00017628765 1.5191589e-06
6.342157e-06 6.5816985e-06 1.2631674e-05 1.9072117e-05 1.0830624e-05 8.090239e-06 9.435499e-06 1.335712e-05
2.5869863e-06 2.3104327e-05 5.9220333e-06 1.25644065e-05 5.304795e-06 8.165658e-06 7.330645e-05 8.895234e-06
0.0016154824 6.2697916e-05 5.606306e-06 0.0016197384 0.0003060777 5.3187855e-06 2.4561206e-05 1.6876089e-05
1.9178611e-05 5.918197e-05 2.7339469e-05 9.163567e-05 4.1834333e-05 3.144725e-05 1.2385832e-05 0.00011198674
3.2500753e-05 3.2092954e-05 2.7465598e-05 2.836098e-05 4.3049662e-05 7.20503e-06 0.001761198 0.00012674103
2.9255277e-06 0.001675099 0.00037694554 2.4253966e-06 1.6705571e-05 1.758457e-05 2.3744995e-05 5.0911396e-05
7.866006e-05 3.9085884e-05 8.369637e-05 3.336038e-05 1.24946755e-05 0.00010664684 3.102266e-05 4.337158e-05
2.7565908e-05 3.6796217e-05

exp_avg f4 [7, 7]
00000000: 0adb cebc 5c78 dfba 906c 553b 4df9 643a
00000010: 208c a3ba f202 09bb 1ba2 23ba 67c6 093b
00000020: 1876 a539 b9c8 123b c9cd bd3a 75d2 173a
00000030: 11aa c63a 42a4 ac3a 4052 003b 4105 0bba
00000040: b39f 95bc 6902 1c3b 4380 7dba 23c1 083b
00000050: 9365 81ba 9256 793b 6c67 ab35 5c34 943b
00000060: 534e 47bc ca95 3fba cd92 ec3a e58a e23a
00000070: a0ed 7c3b 4dd4 963a 4b5b d13b fb03 5d3b
00000080: 684b a73a c842 073b a092 233b 2903 6c3b
00000090: a1fd bab9 dcdc c83a a246 d639 7285 91b9
000000a0: 8342 31bc 3394 9db8 0015 c43b 9aea 2f3a
000000b0: a0e7 023c ad19 db3a 1cdf 1b3a f1c3 e53a
000000c0: 8b10 a8bb
-0.02525093 -0.001704942 0.003256593 0.00087346585 -0.0012477674 -0.0020906297 -0.0006242112 0.0021022798
0.0003155924 0.0022397472 0.0014480884 0.00057915534 0.0015156885 0.0013171511 0.0019580275 -0.0005303212
-0.018264627 0.0023805148 -0.00096702966 0.0020867072 -0.000987219 0.0038045985 1.2770593e-06 0.0045228433
-0.01216467 -0.0007308392 0.0018049121 0.0017283825 0.0038593784 0.0011507362 0.006389057 0.0033724296
0.0012763562 0.002063917 0.0024959221 0.0036012626 -0.00035665653 0.001532461 0.00040869886 -0.0002775598
-0.01081908 -7.513948e-05 0.0059839487 0.00067106786 0.007989794 0.0016716026 0.00059460266 0.0017529709
-0.005128925

exp_avg_sq f4 [7, 7]
00000000: f21d 523a 164d 8237 8c92 5a39 3a74 4d38
00000010: 12b8 1938 a9d6 1a38 1a0e 1238 b4c7 c536
00000020: e59c 3f37 32ab dc36 5390 2d36 15f9 6e36
00000030: 64cb 6036 8a0c 6d36 0450 0939 a75c 9137
00000040: 4edc 6b3a 6708 4338 d5f3 5038 9599 3538
00000050: 046a 8638 b178 7638 e000 d636 33c3 9038
00000060: a79d 8c39 39ec f737 6d9b 8b37 c351 b337
00000070: d773 8e37 c510 3c36 c7ce 6738 0abd 2a37
00000080: 0f6b c036 d1c5 9936 bcf3 3d37 0653 0138
00000090: 86fd d036 6a15 8f38 55af ae37 c90d 7437
000000a0: c3fe 8039 65b8 8a37 fe53 1038 a7c2 c036
000000b0: 1c62 e938 2edf 8437 731d a837 51b0 7137
000000c0: 3229 8d39
0.00080153265 1.5533104e-05 0.00020844693 4.8984053e-05 3.664947e-05 3.691638e-05 3.4822246e-05 5.894306e-06
1.1421017e-05 6.5764407e-06 2.5863017e-06 3.5609748e-06 3.349699e-06 3.532305e-06 0.00013095146 1.7328492e-05
0.00089973665 4.649945e-05 4.981815e-05 4.3296797e-05 6.409365e-05 5.8763373e-05 6.377799e-06 6.902814e-05
0.0002682034 2.9554694e-05 1.6642467e-05 2.1376536e-05 1.6981661e-05 2.8023944e-06 5.5267268e-05 1.0176804e-05
5.734509e-06 4.582784e-06 1.1322027e-05 3.083332e-05 6.228397e-06 6.82276e-05 2.0824062e-05 1.4546743e-05
0.00024603875 1.6536747e-05 3.44105e-05 5.7447064e-06 0.0001112858 1.5839552e-05 2.0040874e-05 1.4405771e-05
0.0002692431

exp_avg f4 [7]
00000000: 2370 dbbc 06d6 1b3c 2fd1 6abc 728d 87ba
00000010: 62e2 a83c 7af6 c3bb d9ed 5d3c
-0.02678687 0.009511476 -0.0143321 -0.0010341837 0.02061576 -0.00598031 0.013545477

exp_avg_sq f4 [7]
00000000: d5b8 933b 50bb 4039 ca71 9a3b 5237 023b
00000010: f88f e639 ea39 df3a fef6 ed3a
0.0045081177 0.00018380326 0.0047132717 0.00198694 0.00043976284 0.001703081 0.0018155274
