data_10frm/model/0_4_6_9.pt (torch_old, 18399 bytes, 52 tensors)

rnn.weight_ih f4 [7, 22]
00000000: 3a83 4b3d 1c3b 6d3e 8f4c b2be ef51 2abb
00000010: 7d8a b63d 7838 853d e821 19bd 78ac f3bd
00000020: 3b8c 8abe 88cc f13c f9e1 9bbe 98e2 b2be
00000030: 53fe 2ebe bfed 9bbe cc9c 5e3d 0f3a 7c3e
00000040: 72ae 8a3e ce79 84be 05dd 443e e7c6 7b3e
00000050: fb5e aabc 2982 053e baca 113e 0a49 863e
00000060: 7c21 493e e472 773d d406 3ebe d47c 5abe
00000070: 162d 86be 91e8 853e f02d e8bd 075a 423d
00000080: 6558 b2be 33a7 cfbc 0c74 fcbd a021 87be
00000090: 93e7 8e3e 9a94 9cbe 4bbf 6ebd 30bc efbc
000000a0: 472c acbe b546 6a3e bb68 f7bd 48b2 2f3e
000000b0: 7be5 633e 665d a23e f997 a93d 294c 9f3e
000000c0: c6d7 a53e 60c6 853d 69d2 8abd 7315 edbd
000000d0: 3fde 213d 00e2 0c3e c8be 9ebe d2db 933e
000000e0: 621b 6c3d b339 babe 26e1 f63d c0ba 7f3e
000000f0: c638 123e c5c9 9e3e d0d8 8c3c a025 9abe
00000100: ba41 a53b 77d4 923e b45e a3bd f827 753e
00000110: c335 733c 2b1b 633d f33e 943d afc1 ae3d
00000120: 376e 18be 9d34 a73e f3aa 9d3e f09a 8b3e
00000130: 5559 e23e 7837 923d 795c 3dbe a259 d13d
00000140: 75fd 39bd cb7a 583e bf30 cc3e 996d f4bd
00000150: e9bc bf3d c6d5 de3e 95c4 6cbe 490d dc3b
00000160: 0357 c53e 060f 7e3e 4541 0d3e 4125 09be
00000170: 58ea c5bd e0a9 a3be 34fa a7be 59bc b5be
00000180: 2560 b23e 5a0f 8b3e 5e24 e33d 76b7 03be
00000190: a701 ad3e 2a2d d1bd edd7 5f3e 94d5 d6bc
000001a0: cdfa 46be 38b6 f0bd 0e00 ebbd 0be4 bbbe
000001b0: bd05 c83d b462 08be 5bdf 893d 403a fb3d
000001c0: c8b8 7b3d 2126 003e b087 0abd 4177 c13e
000001d0: 6901 a2be f96a 20be 483f 6cbe 8ee7 623e
000001e0: 4494 edbe 137c acbe ca6d a4bd a917 593e
000001f0: 48ac 273e 4b7f f5be c792 c7be 9c5d 6e3e
00000200: 4ca1 acbd 6526 e1be a22f 66be b00f 3f3d
00000210: af23 78be 18cf a7be cb55 49be 38ac 9fbe
00000220: a285 88bd 35e1 443e 5198 563d 6cd7 8bbe
00000230: 8e0f 09be 8031 aebe 950d 613e 0668 ac3e
00000240: 5c18 9f3e 2b9e b13d c614 9bbd 9c7b 7dbd
00000250: a5d4 c03d 2f46 cabe a152 91bc 21cc abbe
00000260: ce7a d2be d662 52bd
0.049685694 0.2316708 -0.34824035 -0.0025988778 0.08913133 0.06504911 -0.03738585 -0.1189813
-0.27060112 0.029516473 -0.3044584 -0.34938502 -0.17089204 -0.30454823 0.054348752 0.24631523
0.27086216 -0.2587418 0.19224937 0.24587594 -0.020797243 0.13037933 0.1423749 0.262276
0.1964168 0.060412303 -0.18557292 -0.2133668 -0.26206273 0.26153997 -0.11336887 0.047449138
-0.34833065 -0.025348281 -0.12326822 -0.2639284 0.27911052 -0.30582124 -0.0582879 -0.02926454
-0.3362753 0.22878535 -0.120805226 0.17157853 0.22255509 0.31711882 0.082809396 0.31112793
0.32391185 0.06531978 -0.06778414 -0.11576357 0.03951859 0.13758087 -0.3100493 0.28878647
0.0576433 -0.36372146 0.120546624 0.24973583 0.1427947 0.31013313 0.017193228 -0.3010683
0.0050432356 0.28677723 -0.079770476 0.23941028 0.014844361 0.05544583 0.07238569 0.08533036
-0.14885794 0.32657328 0.30794486 0.27266645 0.4420878 0.07139486 -0.18492307 0.10222174
-0.04540773 0.21140592 0.3988094 -0.119349666 0.09362204 0.4352247 -0.23121865 0.006715451
0.38542947 0.24810418 0.1379443 -0.13393117 -0.09663838 -0.31965542 -0.32808077 -0.3549526
0.34838977 0.2716015 0.11090921 -0.12862954 0.33790323 -0.102136925 0.21859713 -0.026224889
-0.1943161 -0.117535055 -0.1147462 -0.3669742 0.097667195 -0.13318902 0.06732055 0.1226697
0.061455518 0.12514545 -0.033820808 0.37786296 -0.316417 -0.15665807 -0.23071015 0.22158644
-0.4640218 -0.3368841 -0.08028753 0.21200432 0.16374314 -0.4794868 -0.3897917 0.23277897
-0.084292024 -0.43974605 -0.22479108 0.04664582 -0.24232362 -0.32775187 -0.19661634 -0.3118608
-0.066661134 0.19226535 0.052391354 -0.2731279 -0.1338484 -0.3402214 0.21977837 0.33673114
0.31073272 0.08672746 -0.075723216 -0.06188546 0.09415559 -0.3950667 -0.017739596 -0.33554175
-0.41109318 -0.05136379

rnn.weight_hh f4 [7, 7]
00000000: 93fb c6bd d063 93be 6bbe 543c baa8 47bd
00000010: e9c3 2e3c 05d5 75be b731 d9be c086 11bc
00000020: 97ac d7bd b5ce 08be a9ab 663e 2509 103d
00000030: 660b 323e 3c61 01be c142 9dbe 78d9 423d
00000040: 7a75 4abe fb4c 44bc 0c55 97be 9b92 963e
00000050: fb6c 85be 4900 c03e 7969 a23e 446c b33e
00000060: 67d9 ae3e 2424 093e e451 513d 1f31 163d
00000070: 4f74 3cbe c356 c3be e007 973e 0c8a 91bd
00000080: f637 543e be21 8fbb 91ea 823d 9c56 aabe
00000090: ef2e ccbe ba01 263e ffc0 ab3c 88f2 b83d
000000a0: 705e f4be 76d2 5bbd d2e0 d4be 968d c5bd
000000b0: 1898 d6bd 99ff bebe 2ea8 d5be 47b4 d4bc
000000c0: a803 b63e
-0.09715953 -0.28787088 0.012984852 -0.048744895 0.010666826 -0.24007042 -0.42420742 -0.008882225
-0.10530966 -0.13360102 0.2252642 0.03516497 0.1738716 -0.12634748 -0.30714992 0.047570676
-0.19771376 -0.011981244 -0.29557073 0.29408726 -0.26059708 0.37500218 0.31721094 0.35043538
0.3415024 0.13392693 0.051103488 0.03666794 -0.18403743 -0.3815213 0.29498196 -0.071064085
0.20724472 -0.004368036 0.06392396 -0.33269203 -0.39879557 0.16211596 0.020966051 0.09030634
-0.477283 -0.053667508 -0.41577774 -0.09646146 -0.10478228 -0.3730438 -0.41729873 -0.02596487
0.35549664

rnn.bias_ih f4 [7]
00000000: 0f6d a23e 5c6c 6bbe edd7 70bd 87b6 74be
00000010: fc3f a0be 8d44 69be 0c87 a53e
0.3172383 -0.22990555 -0.058799673 -0.23897754 -0.31298816 -0.22780056 0.32329595

rnn.bias_hh f4 [7]
00000000: cfd2 f9bd d9bd b43c e651 ba3e 2be7 133e
00000010: 95fa 923e f8fe 013e ee1c 9f3e
-0.12198412 0.022063183 0.3639061 0.14443652 0.28706804 0.12694919 0.3107676

exp_avg f4 [7, 22]
00000000: 53eb 9638 17fa 52ba 56b1 15bc 719e caba
00000010: 576a e0b9 4c3b 14bc 85e7 14bb 4c6d f1b9
00000020: 1e14 f838 596f 6f3a 3f17 e13a f165 083b
00000030: 982b b23a f8f2 dc3a c263 b63a 53e5 383a
00000040: 02c9 3f3a 43f7 e03a b944 153b c9c4 ac3a
00000050: fc9e 7d3a 8f47 cb3a 6281 40b9 315d 42ba
00000060: df87 82bc c043 4cbb bf20 c338 1f1a 82bc
00000070: 0374 8bbb 7c04 2239 b18e 033b 0f58 d73a
00000080: 97c9 653b d8bf 373b 6c69 013b 8b1d 103b
00000090: 2581 103b 1cdc 9b3a c586 b73a 615c 3f3b
000000a0: 3ae1 893b 71d8 153b 678d d23a 5aff 323b
000000b0: 25b5 1f3c d3ff b53b 954a ffba 1589 9b3b
000000c0: c5df d939 7aa5 f2ba 95d2 903c 725a 1a3a
000000d0: d913 0dba 4bf7 4f39 2744 8cbb 6fe2 dc3a
000000e0: 8b24 3a3a dc72 233b 63c7 3c3a 260f d039
000000f0: 5f54 0aba 08cf 87ba 9bee aa39 0282 9639
00000100: 6043 9e3a 6c46 ae39 baa9 943b feba d2b7
00000110: 6f7a 13ba d007 a53b 7885 e2b8 2a9e 05bb
00000120: 44da 373c 4678 3e39 31f8 9c3a 4d57 43ba
00000130: 692b e8ba 1969 8939 5c06 1a38 d10f 103b
00000140: 1453 8839 7b36 5239 69d4 de38 c4c1 33ba
00000150: 36fb 283a d8a7 64ba 63bb 573a 4b86 9f3a
00000160: 0979 b7ba 3752 a7ba 333a 1bbc c249 c6ba
00000170: 0841 8cb9 e5b3 1bbc df47 a5bb 5958 65b9
00000180: 9b6f ac3a ecc6 8d3a 8600 d13a 51b6 0d3b
00000190: f45b cd39 1d00 c53a f836 f83a d4a9 213a
000001a0: d275 753a 844c 0d3b 7e1a 083b cafc db3a
000001b0: 2ece 603a 245a d43a 80ad 99bb 4f3d 84b9
000001c0: 8ece a63c e580 8eba 49b5 7f39 8675 aa3c
000001d0: 10f2 d0bb 3549 9539 3568 3cba 8114 b9ba
000001e0: f604 56ba cae9 5cbb d981 2dba 97e9 1fbc
000001f0: 4425 70bb 2b6d d8ba ffb8 beba 9caa 25bb
00000200: 0346 bcbb ccc1 15bb 381c 6fbb 3170 4abb
00000210: 7c21 2ebc 3d33 4abb c477 843c d32d a4bb
00000220: 1b3e ebb8 4d2d 903c 6d89 8cbc c6c1 64ba
00000230: d776 5ebb 83bc b0ba d843 1d3a b561 b7bb
00000240: 0d92 66bb 4e4d 07bb 9be1 f1ba bd42 cdba
00000250: ca1f 93ba 2bf8 faba fdab 80bb 3013 02bb
00000260: 084f 15bb cc07 8fbb
7.19639e-05 -0.00080481305 -0.009136518 -0.0015458596 -0.0004280384 -0.009047341 -0.0022721004 -0.00046048535
0.00011829309 0.00091337186 0.0017173066 0.0020812715 0.0013593314 0.0016857078 0.0013915228 0.0007053215
0.0007316024 0.0017163533 0.0022776558 0.0013181205 0.00096748746 0.0015508997 -0.00018358746 -0.00074143993
-0.015933929 -0.0031168312 9.304424e-05 -0.015881596 -0.004255773 0.00015451194 0.0020074064 0.0016429442
0.0035062784 0.0028037932 0.0019746674 0.0021990265 0.0022049632 0.0011891159 0.0014001956 0.002919935
0.0042077573 0.0022864605 0.001606387 0.0027312846 0.009747778 0.0055541783 -0.0019477183 0.004746566
0.00041556187 -0.0018512451 0.017678538 0.0005888111 -0.00053816807 0.00019833182 -0.0042805853 0.001685215
0.0007100782 0.0024940288 0.0007201342 0.00039684138 -0.00052768545 -0.0010361383 0.00032602702 0.00028707093
0.0012074523 0.00033240335 0.0045368345 -2.5121026e-05 -0.0005625849 0.0050363317 -0.0001080138 -0.0020388463
0.011221472 0.00018164617 0.0011975822 -0.00074516685 -0.0017713133 0.0002620898 3.6722384e-05 0.0021982084
0.0002600184 0.00020047456 0.000106253494 -0.00068571814 0.0006446125 -0.00087225204 0.0008229522 0.001217076
-0.0013997863 -0.0012765591 -0.009474325 -0.0015128183 -0.00026751333 -0.009503339 -0.005043968 -0.00021872054
0.001315582 0.001081673 0.001594559 0.0021623562 0.00039169157 0.0015029941 0.001893728 0.0006166969
0.0009363565 0.00215605 0.0020767744 0.0016783711 0.0008575645 0.001620118 -0.0046898723 -0.0002522268
0.020362165 -0.0010872154 0.00024386229 0.020807993 -0.0063765123 0.00028474038 -0.0007187159 -0.001412049
-0.00081641914 -0.0033708685 -0.0006618775 -0.009760282 -0.0036643306 -0.0016512027 -0.0014550983 -0.0025278693
-0.0057456507 -0.0022851108 -0.0036485326 -0.0030889625 -0.0106281005 -0.0030853294 0.01617039 -0.0050103455
-0.00011217241 0.017599726 -0.017155373 -0.0008726384 -0.0033945346 -0.0013483915 0.0005999184 -0.0055963644
-0.0035182268 -0.0020645442 -0.0018454076 -0.0015660148 -0.0011224684 -0.0019147446 -0.0039267526 -0.0019847862
-0.0022782702 -0.004364943

exp_avg_sq f4 [7, 22]
00000000: 3965 3a37 0f01 f936 5a23 9239 20d1 ea36
00000010: ddb4 9136 7519 9639 638d b837 8455 d836
00000020: b3dc 0438 c233 7336 ed95 a936 c53c c736
00000030: 45f8 a236 886e 6836 0cc7 8e36 f90e f835
00000040: 8d98 9736 29fb b936 9fff a937 ab32 c936
00000050: 78c4 4e36 9db0 0a37 aad1 2137 6805 2936
00000060: 3846 a139 dd7f b337 52e1 b634 232b 9d39
00000070: b0cb 9638 b7ce 0035 c636 cb36 d4e5 9f36
00000080: f8f0 a237 7c9c 0137 181b d436 720b a936
00000090: 4be2 0137 cc37 0536 14e4 ce36 bcc3 1737
000000a0: 7db2 8e37 298b ec36 203b 1e36 c15f 0d37
000000b0: eff1 d438 8b79 0738 721a 303b 0c5b 6b39
000000c0: b940 c735 71da 2b3b 98af 683a 1196 ff35
000000d0: 2a7c 3d38 1638 0838 861d 7b39 c032 8238
000000e0: c6a9 3c38 5212 1538 e9c8 3e38 8922 8037
000000f0: db21 6438 e376 c038 2ce0 2239 ad40 7e38
00000100: d0f5 9037 1b04 9b38 870a 7238 281d 1237
00000110: 3809 1c3b 4614 6539 1a99 8a36 5edd 113b
00000120: dbd6 253a e159 a736 36e1 2038 b2ab b038
00000130: e964 8238 5b84 bb38 be7a 5238 3588 e137
00000140: 194d 8038 afc0 6e37 a2f5 1738 cf6a a238
00000150: bfe4 fd38 740f 9838 be9b 9837 84a4 7538
00000160: 1f48 a337 5d63 cd36 cbb0 cf3a d50a b638
00000170: a3f9 7435 8410 c73a 6c5a 0139 c69b 0e36
00000180: ad5d 2a38 d64c be37 9ea8 ff37 68cc 1438
00000190: 8633 bb38 bf6a ca37 8ad1 c037 1675 4237
000001a0: 4344 ab37 bf4b 2b38 95d9 cb38 8bb1 1438
000001b0: 0eab 7e37 ff13 3138 2e66 4138 7b44 af35
000001c0: 73bf cb3a 91fe 6c37 ebb8 e034 e118 d03a
000001d0: 2fb6 4538 fa69 4b35 06d1 9537 d3b2 5a37
000001e0: 1a99 9537 da02 3e38 95f3 ac37 9945 0b39
000001f0: 277a 3138 b0c3 3a37 cd36 8e37 bbd8 1138
00000200: 72ca d938 cef6 f237 aea3 cd37 a1aa 2f38
00000210: 212b 6939 684c 7537 5415 343b cd33 9938
00000220: a4cf d636 b29c 3e3b a0d7 033a fd50 2e37
00000230: 3b7f 6238 24c7 0438 8e5c 2c38 6b8d 0139
00000240: 190e 9038 4558 5b38 bc31 1039 1413 b337
00000250: 604e 0338 b134 8b38 1a77 3139 c243 6a38
00000260: b6ac 1238 9a89 e338
1.1110032e-05 7.4209015e-06 0.0002787363 6.998089e-06 4.342392e-06 0.00028629196 2.2000348e-05 6.447257e-06
3.1676795e-05 3.6239949e-06 5.054046e-06 5.9377367e-06 4.8568786e-06 3.4635032e-06 4.255102e-06 1.8481797e-06
4.51791e-06 5.5426685e-06 2.0265403e-05 5.9961653e-06 3.0810752e-06 8.266562e-06 9.645164e-06 2.518611e-06
0.0003076063 2.1398004e-05 3.4064084e-07 0.00029977513 7.190497e-05 4.7984526e-07 6.056248e-06 4.765325e-06
1.9424115e-05 7.7254335e-06 6.3212465e-06 5.037925e-06 7.741687e-06 1.9851022e-06 6.16583e-06 9.045874e-06
1.7010834e-05 7.0495485e-06 2.357825e-06 8.426549e-06 0.000101540114 3.2299704e-05 0.0026871231 0.00022445264
1.4845492e-06 0.002622273 0.0008876263 1.9042656e-06 4.517675e-05 3.247716e-05 0.00023948224 6.208336e-05
4.4980807e-05 3.554143e-05 4.5486642e-05 1.527487e-05 5.4390966e-05 9.177418e-05 0.00015533034 6.0618553e-05
1.7280603e-05 7.391741e-05 5.77071e-05 8.709067e-06 0.0023809206 0.00021846694 4.130544e-06 0.002225719
0.00063262664 4.987451e-06 3.8356717e-05 8.424315e-05 6.217679e-05 8.941508e-05 5.0182214e-05 2.6885516e-05
6.117876e-05 1.4230768e-05 3.622997e-05 7.7446566e-05 0.000121065874 7.250803e-05 1.8192335e-05 5.856577e-05
1.9464698e-05 6.1210435e-06 0.0015845535 8.680454e-05 9.126035e-07 0.0015187417 0.00012336083 2.125032e-06
4.06184e-05 2.2685545e-05 3.0476887e-05 3.5476318e-05 8.926452e-05 2.4129984e-05 2.2985758e-05 1.1590562e-05
2.0416575e-05 4.084012e-05 9.720322e-05 3.54513e-05 1.5179407e-05 4.221871e-05 4.6109948e-05 1.3058446e-06
0.0015544727 1.4125967e-05 4.1857797e-07 0.0015876555 4.713813e-05 7.577761e-07 1.7859518e-05 1.3035448e-05
1.7833478e-05 4.5302186e-05 2.0617425e-05 0.00013282 4.231385e-05 1.1132026e-05 1.6953238e-05 3.477254e-05
0.00010385075 2.8963575e-05 2.4514124e-05 4.1882162e-05 0.00022236678 1.4620928e-05 0.0027478533 7.305257e-05
6.4018695e-06 0.0029085097 0.0005029384 1.0390065e-05 5.400109e-05 3.1656717e-05 4.1094194e-05 0.00012355081
6.869081e-05 5.2295876e-05 0.00013751438 2.1347347e-05 3.1305826e-05 6.637851e-05 0.00016924404 5.5853052e-05
3.4969962e-05 0.00010849834

exp_avg f4 [7, 7]
00000000: d3a0 24ba 2379 e939 3b67 f13a 4220 193b
00000010: d2e8 da3a 55d6 e93a 899c ec3a 8f63 683a
00000020: 9726 613a df08 953b 7c02 6a3b 842a 053b
00000030: ab5a 073b 8de4 1b3b 7d8d da39 e560 15ba
00000040: eae6 38bc 1080 743b 5857 143b 18a2 8c3b
00000050: 18e0 0b3b 635b dc39 ae9b 0b39 f174 c43a
00000060: 81a2 34bc 1a86 18b9 2874 9b3b c18f be3b
00000070: 4d1e b239 cefb 013a 0cf5 4c3b 5925 a63b
00000080: a33f a5bb 7eaf 0b3b 1c7d 793b 23e0 46ba
00000090: f0ba 33ba 579d 04b8 2717 4fba 3783 1838
000000a0: 4da7 9fbc fb19 ac3a 6c60 45ba c29b 0dba
000000b0: 8dcb 683a 185b b8b9 7777 8aba 5068 573a
000000c0: 9d74 84bc
-0.0006280068 0.00044531477 0.0018417606 0.0023365174 0.0016701466 0.0017840365 0.0018052022 0.0008864933
0.0008588819 0.0045481767 0.0035707047 0.002031953 0.0020653408 0.002378735 0.00041685617 -0.00056983373
-0.011285523 0.0037307777 0.0022635069 0.004291784 0.0021343287 0.00042029758 0.00013314068 0.0014988465
-0.011025072 -0.00014545806 0.0047440715 0.0058154766 0.00033973382 0.00049584813 0.003127399 0.00507037
-0.0050429865 0.0021314318 0.0038068956 -0.00075864996 -0.0006856164 -3.1617787e-05 -0.00078998733 3.6361827e-05
-0.019488955 0.0013130301 -0.00075293216 -0.0005401933 0.0008880429 -0.00035163085 -0.0010564168 0.0008217143
-0.016168887

exp_avg_sq f4 [7, 7]
00000000: 0bdf e537 eeed 1c36 30e5 ad36 fceb 6e37
00000010: 9959 c336 b345 7036 6dc5 dd36 9cc0 0236
00000020: 3541 3f36 021b 0a38 b031 a237 7dcd 0337
00000030: fdbd c236 0195 1b37 fc6b f236 a3a2 e037
00000040: dfcb ed39 0a60 0539 5bd7 3138 efc7 aa37
00000050: 8589 3c38 b025 c736 c9c1 6637 6432 4538
00000060: e6ae 0c3a 44f2 0538 5ec4 b137 64b3 af38
00000070: 7750 eb36 33a8 1f37 bca7 ee37 e40f a938
00000080: 06c7 6139 16b3 3c37 b5dd 1f38 b8c6 a436
00000090: a1ba bc36 ab78 6937 ff2f 3338 369e 5e37
000000a0: 2c89 bd39 ff46 0238 2471 5d37 4942 6b37
000000b0: aadb 5a38 ba38 e038 55d9 3c38 2949 1c38
000000c0: b96c e339
2.740279e-05 2.3384305e-06 5.1824827e-06 1.424085e-05 5.8218834e-06 3.5803357e-06 6.6092966e-06 1.9483623e-06
2.8499173e-06 3.2926917e-05 1.9335042e-05 7.856052e-06 5.803768e-06 9.273413e-06 7.224733e-06 2.6778614e-05
0.00045356058 0.00012719646 4.2400654e-05 2.035868e-05 4.4950768e-05 5.9350496e-06 1.3754187e-05 4.701539e-05
0.0005366638 3.19353e-05 2.1191485e-05 8.3780644e-05 7.012913e-06 9.5163e-06 2.8449918e-05 8.061508e-05
0.00021531814 1.124737e-05 3.8115035e-05 4.910715e-06 5.624563e-06 1.3915977e-05 4.2721626e-05 1.32690675e-05
0.0003615109 3.1060536e-05 1.3198969e-05 1.4022525e-05 5.217983e-05 0.000106917185 4.50251e-05 3.7261434e-05
0.0004337782

exp_avg f4 [7]
00000000: c4d7 173c 58eb 853c 93ab 803a 9622 bc3a
00000010: d5d9 223c e71e a7bc b59c 8cbc
0.009267751 0.016347572 0.0009816758 0.0014353569 0.0099396305 -0.020400478 -0.017164567

exp_avg_sq f4 [7]
00000000: d3a7 9c39 fe60 a939 f953 3b3b 53ef 203b
00000010: 8d1e d43a df2b d33a 0c27 453b
0.00029879677 0.00032306457 0.0028583987 0.002455671 0.0016183421 0.0016111097 0.0030083088

exp_avg f4 [7]
00000000: 76e0 173c fce8 853c b535 803a db88 bc3a
00000010: 28e8 223c b319 a7bc 959a 8cbc
0.009269824 0.016346447 0.0009781631 0.0014384048 0.009943046 -0.020397997 -0.017163554

exp_avg_sq f4 [7]
00000000: a7a8 9c39 625f a939 0e54 3b3b 0eef 203b
00000010: cf1e d43a 952b d33a f826 453b
0.00029880294 0.00032305258 0.0028584036 0.002455655 0.0016183498 0.0016111011 0.0030083042

exp_avg f4 [7, 22]
00000000: b0bd d2b8 ce32 f73a 92a1 43bc 560b e8ba
00000010: fc6e eb3a 9b8a 41bc 9a21 28bb 6de5 063b
00000020: d42a 643a 5728 903a 5910 093b 3a58 473b
00000030: 7ad6 073b 421f bc3a b721 cf3a 07f7 883a
00000040: d010 463b f93a 563a 7205 4e3b 5a21 803a
00000050: f3d6 0a3b 004d 8c3a 679d 7bbc 2b01 9dba
00000060: c8ea c6bb a853 44bc e0d3 3f3b c29c 15bb
00000070: 1544 19bd 9c26 f3ba 1502 c23a 805f f1bb
00000080: 027d 893a 8fd8 ab3b 77e9 e13a 89e5 ff3a
00000090: 0689 84ba 4f2d 143a 830f 9dba c7f2 bdb8
000000a0: 6a16 013b 958e 6439 c4fa 2d3b d0a3 88ba
000000b0: 98ed fd39 ab13 883a f169 9cbb ff56 cbb9
000000c0: e940 623a 64a0 9ebb c01e 1b39 e8e3 8e3a
000000d0: 200d 263a b087 313a f7a7 4a3a 1013 763a
000000e0: 1d50 3f3a c08a 173a a8f7 2f3a 4818 d739
000000f0: b087 aa3a 85fb b239 e02c a63a 7ef4 d339
00000100: 95b7 4c3a 1c6f 013a 4ff3 003c 26ca c43b
00000110: e4b0 e9bc a070 5f3b 57f6 583b a308 fabc
00000120: 91fe 933c 42b7 bb3b 0570 e63a 4e4b ad3b
00000130: a8f9 7e3b bc23 983b 566d 953b 3d6b ad3b
00000140: fc8b a33b a68a 093b ba1e 163c 053f 0b3b
00000150: 7f38 e63b 313e 1c3b 47ec 8b3b dec0 5b3b
00000160: c3c8 133a cdde b03a 7f3b adbb 826f abb9
00000170: 281f 813a ec63 b2bb a888 7b39 c443 b93a
00000180: 484d 643a 9145 6a3a 3225 be39 6549 ba3a
00000190: 13b8 9339 2985 813a 7969 573a d1e8 f339
000001a0: 3504 b43a d29d d639 0c58 b33a 1da5 003a
000001b0: 778b 803a fb10 0f3a 1ce5 d83b f5e4 34bc
000001c0: 7a48 8e3d 3295 643c ac31 40bc 1bb7 8a3d
000001d0: 0edf ba3c 9fc0 33bc 4ce7 d5bb 4c2f 3ebb
000001e0: a5c5 1fbc c2f8 93bc 1d48 34bc 7c12 57bc
000001f0: da20 09bc 8e0a b6bb 77f8 8cbc 7c5d 95bb
00000200: 10cf 91bc 0486 babb 80c6 57bc 47c0 bcbb
00000210: 2359 a83a b435 a9ba 2b6a 033c 334f 1e3a
00000220: 7fb4 bbba a1f8 fc3b b0fa 7d3b b6d4 20ba
00000230: 9718 3fba f0b4 b73a ee31 ecba 70fb 11bb
00000240: d4df acba ac8c a0ba 55b5 e0ba 8f90 34ba
00000250: 6ba9 e4ba 6822 e7b9 de1c 1abb b302 02ba
00000260: 1d10 c1ba 2e4e dfb9
-0.000100489124 0.0018859745 -0.011940377 -0.0017703574 0.0017962153 -0.011812831 -0.0025654794 0.0020583526
0.00087038917 0.001099835 0.0020914285 0.0030417577 0.0020727203 0.0014352577 0.0015802894 0.0010449596
0.0030222423 0.000817224 0.003143635 0.0009775565 0.0021185249 0.00107041 -0.015357352 -0.0011978497
-0.0060704686 -0.011982836 0.0029270574 -0.002282903 -0.037418444 -0.0018550935 0.0014801646 -0.007366121
0.0010489526 0.0052443217 0.0017235716 0.0019523363 -0.0010111637 0.00056525035 -0.0011982772 -9.057443e-05
0.0019697198 0.0002179689 0.0026547173 -0.0010424796 0.00048432942 0.0010381838 -0.0047733714 -0.00038783994
0.0008630888 -0.0048408974 0.00014793407 0.0010901662 0.0006334353 0.0006772233 0.0007730717 0.0009386996
0.00072980096 0.0005780868 0.0006712624 0.00041026087 0.0013010409 0.00034138202 0.0012678169 0.00040427217
0.0007809338 0.0004937516 0.007870509 0.0060055433 -0.02852673 0.003409423 0.0033105814 -0.030521696
0.018065723 0.005728633 0.0017580992 0.005288518 0.003890613 0.0046429317 0.004560153 0.005292325
0.0049910527 0.0020987182 0.009162599 0.002124728 0.007025778 0.002384078 0.00427011 0.0033531706
0.0005637521 0.0013494134 -0.0052866335 -0.0003269874 0.0009851204 -0.0054440405 0.00023988134 0.0014134576
0.00087090256 0.0008936758 0.00036267337 0.0014212547 0.0002817517 0.0009881604 0.0008217316 0.00046522034
0.0013734164 0.00040934846 0.0013682856 0.00049074163 0.0009807189 0.00054575474 0.006619109 -0.011040916
0.069474176 0.013951587 -0.011730593 0.06773206 0.022811439 -0.010971217 -0.006527817 -0.002901989
-0.009751712 -0.018062953 -0.011003521 -0.013126966 -0.008369649 -0.0055554574 -0.017208321 -0.0045582633
-0.01779893 -0.0056922454 -0.013169885 -0.005760226 0.0012843948 -0.0012909682 0.008020918 0.0006039023
-0.001432076 0.0077200686 0.0038754158 -0.0006135212 -0.0007289736 0.0014015716 -0.0018020251 -0.0022275113
-0.0013189265 -0.0012248955 -0.0017143885 -0.0006887996 -0.001744551 -0.00044085388 -0.0023515741 -0.00049595087
-0.0014729534 -0.00042592123

exp_avg_sq f4 [7, 22]
00000000: b7d7 f236 958f 4938 0460 e739 4663 7137
00000010: 1d78 2438 e62e e839 c569 2c38 7b02 4738
00000020: 3c24 2838 37a4 9c36 3bbd 0f37 1277 8337
00000030: 4091 2537 fe6b 9636 8b03 d736 a946 af36
00000040: 99ad ec37 b5e3 6136 48d8 0d38 284f 7a36
00000050: 7327 1437 3dd4 ab36 565b 303a 148a c139
00000060: d3c7 a23b 3532 0f39 53cd 1739 9938 bb3b
00000070: 3358 233b dc92 e539 6c96 f138 1153 9e39
00000080: e111 0e39 a6ce f538 6a33 e038 446f 5b38
00000090: 994a 0d39 93c1 3d38 e1f7 d939 b69b 3138
000000a0: cd03 c039 223f 3138 0f6d b438 e085 bb38
000000b0: d04b 8036 a401 5036 9960 4638 2af8 e135
000000c0: afc8 e835 60a8 5438 2674 8d37 724b 6e36
000000d0: 6268 ac35 437e 0e36 8cdb a335 601b bd35
000000e0: b4ec 9835 c117 1335 3f33 9f35 8709 0e35
000000f0: ee20 5e36 f62e ee34 0bf4 6236 26b8 d434
00000100: a5af 5835 5617 3f35 04c5 fa38 dea2 9439
00000110: 7125 af3b 33ba 8939 75bf 8139 9f50 ab3b
00000120: c781 9a3a bfae a439 019c 3e39 70ff b738
00000130: 624e 0b39 ddda 8039 ba19 0539 159a 6038
00000140: dd84 c838 368e 8338 fa91 ab39 050c 1738
00000150: c5ce c939 46d4 3338 2c03 fb38 4afa 5d38
00000160: 3e09 6e36 561c 8837 8345 b439 d5de 3d37
00000170: b25d 5e37 0c69 b139 8ae2 af37 76e8 8737
00000180: 1374 f436 3dae 9836 6a14 1a37 8d89 1137
00000190: 90f6 b137 f944 9036 a59f bb36 ce61 6836
000001a0: 25fc c437 efd2 1436 663c cb37 4940 2936
000001b0: 64bf e036 491c 7536 2fa0 ea37 4d12 0339
000001c0: 91b5 713b f50f e438 69dd e538 ee07 6d3b
000001d0: e718 a239 6560 0739 ef4c 6938 2b1f e937
000001e0: d80a d938 ecc6 4439 8344 da38 8a25 ff38
000001f0: cb68 6e38 e2df 0538 1f66 8039 2ef8 b337
00000200: 4d62 8239 753e e337 4fef c438 43d9 0438
00000210: c98a 0d38 104e 1638 2815 3f3a 6d08 0037
00000220: 5387 b337 f25b 493a 2b2f ee38 71b2 1838
00000230: e24f 5237 832c b037 68ec a937 48a6 b537
00000240: 1cad 8737 7a93 0237 c0da 1d38 75d1 dc36
00000250: 4a3e 6038 12f8 ab36 494d 5e38 dd1a b336
00000260: 58bd 6b37 3bbb 1237
7.2372745e-06 4.8055856e-05 0.0004413129 1.4387833e-05 3.921251e-05 0.0004428543 4.11065e-05 4.7447607e-05
4.0088067e-05 4.6682794e-06 8.567523e-06 1.5671863e-05 9.868585e-06 4.4829203e-06 6.4079118e-06 5.2236323e-06
2.821423e-05 3.3660156e-06 3.3818447e-05 3.7298978e-06 8.830672e-06 5.120905e-06 0.00067274773 0.00036914705
0.0049676686 0.00013656246 0.00014476971 0.005713534 0.0024924397 0.00043787702 0.00011519794 0.00030197998
0.00013548836 0.00011721002 0.00010690729 5.2317293e-05 0.00013474598 4.524139e-05 0.0004157415 4.2345106e-05
0.00036623926 4.2258886e-05 8.6033826e-05 8.941791e-05 3.823523e-06 3.099537e-06 4.7296842e-05 1.6836032e-06
1.7343754e-06 5.070155e-05 1.6862596e-05 3.5508679e-06 1.2845378e-06 2.1233143e-06 1.2208343e-06 1.4089565e-06
1.1393772e-06 5.4796334e-07 1.1861338e-06 5.2912986e-07 3.3099745e-06 4.4365123e-07 3.3818676e-06 3.9622063e-07
8.0721867e-07 7.1187003e-07 0.00011957626 0.00028350105 0.0053450395 0.00026269405 0.00024747444 0.0052281166
0.0011787944 0.00031410714 0.00018177928 8.773699e-05 0.00013285273 0.00024577128 0.00012693452 5.354926e-05
9.561491e-05 6.2730556e-05 0.00032724423 3.60124e-05 0.00038491763 4.287462e-05 0.000119692035 5.2923606e-05
3.5470143e-06 1.6225658e-05 0.00034384066 1.131716e-05 1.3254046e-05 0.00033838337 2.0967116e-05 1.6201502e-05
7.2852795e-06 4.550237e-06 9.183868e-06 8.6746995e-06 2.1214859e-05 4.299564e-06 5.5916194e-06 3.4627624e-06
2.3482435e-05 2.2176498e-06 2.4227611e-05 2.5220381e-06 6.698001e-06 3.652431e-06 2.7969565e-05 0.00012499951
0.0036881904 0.000108748594 0.00010960812 0.0036168057 0.00030917602 0.00012910513 5.562318e-05 2.7790278e-05
0.00010349386 0.00018766121 0.00010407811 0.0001216634 5.6841218e-05 3.1918178e-05 0.0002449015 2.145403e-05
0.00024868772 2.7089593e-05 9.390583e-05 3.1673593e-05 3.3746273e-05 3.583549e-05 0.00072892243 7.631356e-06
2.1401478e-05 0.00076812424 0.0001135751 3.640581e-05 1.2535575e-05 2.1001562e-05 2.0256455e-05 2.1654312e-05
1.6173864e-05 7.782941e-06 3.7635444e-05 6.580895e-06 5.3463773e-05 5.1250763e-06 5.3000902e-05 5.337743e-06
1.4051177e-05 8.745871e-06

exp_avg f4 [7, 7]
00000000: d98d aab9 630b 203b a36e fe39 7aaf 6c3b
00000010: ded0 713a c7e5 6f3b 913c b73a 1ecc 493a
00000020: a4aa 7ebc 8d04 0ab9 42d7 c23b 0d30 b23a
00000030: b360 1a3c 5720 a33a d39a 9d39 3c6f bf3a
00000040: d7d3 6039 0d94 8d3a 8ca9 ac39 7384 8d3a
00000050: 475c 0e3a fe3b ec3a d54c 523c 8eeb ae3a
00000060: 51c5 95bb b8b3 183b 5cf9 3d3c 3e5b a73b
00000070: 8a1f c139 4002 e13a 58ae 5539 a3a5 b93a
00000080: 3c5c aaba 965a 363b b6e2 e939 d997 4abb
00000090: a238 06bc 2b8d 32bb 1fcb 11bc 26d6 8fbb
000000a0: 702b 26bd 2e66 f5ba 11d2 fab9 e5a3 273b
000000b0: e3cd c9b9 2d5d a4ba 3375 8eb9 b681 4a3a
000000c0: 9537 0cbc
-0.00032530611 0.002442085 0.00048529086 0.0036115334 0.0009224544 0.0036605464 0.0013979842 0.00076979573
-0.015543614 -0.00013162401 0.005946071 0.0013594643 0.009422469 0.0012445551 0.00030060727 0.0014605294
0.00021441221 0.0010801569 0.0003293272 0.0010796919 0.00054306205 0.001802325 0.012835701 0.0013345347
-0.004570641 0.002330048 0.011595096 0.0051073125 0.00036835327 0.0017166808 0.00020378211 0.0014163743
-0.0012997459 0.002782499 0.00044610136 -0.0030913262 -0.008192213 -0.0027244787 -0.0088985255 -0.004389542
-0.04056877 -0.0018722469 -0.00047840227 0.0025579866 -0.00038491105 -0.0012539976 -0.0002717167 0.0007725017
-0.008558174

exp_avg_sq f4 [7, 7]
00000000: 5f94 1338 1ca5 8637 f25e d235 5017 6638
00000010: 8f2a 1d36 9e69 2c37 6988 6736 6c9d d137
00000020: 666b ad3a 0ed3 9637 99b1 b439 4bf9 bd37
00000030: 9e80 8338 844c 5938 553c 0235 bde5 1037
00000040: c891 4934 5781 9336 9227 8a34 73d8 a335
00000050: a20c 2b35 e574 0a38 185f ab39 3262 7937
00000060: aa2d 973a 5bf7 ee37 c53f dc38 87f6 0b38
00000070: 16f7 3736 7117 9d37 398b 9035 1ffe a737
00000080: 3490 ca37 a13f fa36 201d 2c36 5bf9 5c37
00000090: 8861 0439 b4a0 0b37 c8ff 3b39 a4bb 9c37
000000a0: 7e90 333a c9ad 8837 db97 6936 29d1 bd38
000000b0: a136 1236 c2f3 0338 0484 8636 c871 1b37
000000c0: f747 9538
3.5185712e-05 1.605093e-05 1.5673852e-06 5.4857985e-05 2.3419595e-06 1.027659e-05 3.4501084e-06 2.4988047e-05
0.001323086 1.7979673e-05 0.00034464596 2.2646642e-05 6.2705236e-05 5.1808092e-05 4.851657e-07 8.636559e-06
1.8772619e-07 4.3959985e-06 2.5733294e-07 1.2207441e-06 6.372085e-07 3.301063e-05 0.00032686512 1.4864419e-05
0.0011533995 2.8486995e-05 0.000105022955 3.336978e-05 2.7412948e-06 1.8726774e-05 1.0769355e-06 2.0026286e-05
2.4147426e-05 7.457988e-06 2.564695e-06 1.3171079e-05 0.00012624834 8.322462e-06 0.00017928996 1.8684026e-05
0.0006849839 1.6293388e-05 3.4808097e-06 9.0511814e-05 2.1787494e-06 3.145985e-05 4.00888e-06 9.265212e-06
7.118278e-05

exp_avg f4 [7]
00000000: cab9 473c dc65 493b 451f a43b 2145 f93c
00000010: abcd b83b 7cd1 8ebd 697d f9bb
0.012190292 0.003073088 0.0050086104 0.030428471 0.005639752 -0.0697355 -0.007613827

exp_avg_sq f4 [7]
00000000: a2c9 023a f97f c53b 7a61 6438 bb75 bd3b
00000010: b24a c039 d760 7c3b 6106 523a
0.0004989152 0.0060272184 5.4450218e-05 0.005781857 0.00036676746 0.003850987 0.0008011815

exp_avg f4 [7]
00000000: 31ba 473c 0336 493b 6716 a43b a83d f93c
00000010: 08bc b83b 85d2 8ebd 2e6a f9bb
0.012190388 0.003070236 0.0050075534 0.030424908 0.0056376494 -0.06973747 -0.0076115346

exp_avg_sq f4 [7]
00000000: a9c9 023a 1380 c53b 865c 6438 c475 bd3b
00000010: 694a c039 2561 7c3b 8f06 523a
0.0004989156 0.0060272305 5.4445605e-05 0.005781861 0.00036676534 0.003851005 0.00080118416

exp_avg f4 [7, 22]
00000000: 5798 e2bb ec6e 8e39 d2ac d2bc 87b9 12bc
00000010: 96ff a03a 6115 c5bc d12d b4bc 07f2 c93a
00000020: 92a6 563a cd89 153b 6cc8 853b 6f5c e73b
00000030: 352b 663b 2bb7 963b daf9 663b ebb1 523b
00000040: 71bd 353b f809 0c3b 0e4a 453b a9c2 ae3b
00000050: b9d0 893b 25f1 aa3b c66b c8bb b35b 463b
00000060: 4505 0abd cb5a 4dbc 6ddc 833b 9d44 03bd
00000070: 3ae1 c0bc 4d42 9a3b 7233 873b ab5c 1b3b
00000080: 7066 ae3b 1383 113c 5b14 923b fded a33b
00000090: 42bc 943b f299 8d3b c556 833b 5e7e 433b
000000a0: 3e8d 7f3b db19 ee3b cf21 b93b c0d8 d73b
000000b0: 19eb b8bb 3bf4 123a 09df 06bc 68ad ecbb
000000c0: 7602 ea3a efdb dfbb 9876 83bc 9e9a 913a
000000d0: 45a6 813a 17f1 533a 22d3 24b8 9d26 153b
000000e0: a2f3 793a 8853 c63a 53f9 8f3a 6e24 893a
000000f0: e195 e639 2d79 b238 64d3 813a 5534 013b
00000100: 71c4 8d3a 938e 013b 2a12 9ebb 2acf f23a
00000110: a592 e8bc c28b 23bc abe9 483b acbe ddbc
00000120: b9a6 99bc fde8 5c3b b812 4e3b 3ab5 2d3b
00000130: 2f16 943b 5aa6 dd3b d073 5e3b ea53 993b
00000140: b843 893b 74ac 6d3b abc4 5f3b bdb5 293b
00000150: b713 5c3b b5be c53b 763a 993b 0f34 b83b
00000160: cbd9 653c ef84 44bc 971b c63d 9d17 043d
00000170: 3cf8 52bc 7252 bb3d 05c7 8c3d 6857 65bc
00000180: 6f5e 3bbc 14e3 edbb 61e7 59bc f2ad edbc
00000190: 1c21 7cbc 759a 3bbc bb71 2bbc 5ca9 50bc
000001a0: 3456 3fbc 6020 0ebc dab7 29bc 40f2 a8bc
000001b0: a8c2 87bc 6dcd 90bc ab38 1338 2bc5 80b9
000001c0: 4a4b 293a 092a 973b 555c 58ba d5cc c4ba
000001d0: ac6c 243c 3ba3 57ba 0197 803a d979 dd38
000001e0: 6030 283b 60bc b23a 9416 053b 0588 d2bb
000001f0: c35a 98b9 be7e 01ba e53e 0d3a 2cfb 6839
00000200: 9ee2 58b9 1215 7638 4ac4 5d3a 9f0a 27ba
00000210: 18cc fb3b 194c d73b 96bd 9fbb 372d 5639
00000220: 81c4 803b f8fa 5abb 9854 09bb 2c5a 8f3b
00000230: ab46 e53a 5b19 49ba 3fea 30bb 7d5c 773b
00000240: 1267 cd3a 38fa 0e3b 879a e6ba 9ecf b63a
00000250: 1cc8 633a ba73 693a 2699 74b9 fc3b 403a
00000260: 5bf1 403a ff96 b3b9
-0.006915133 0.00027166994 -0.025717173 -0.008955366 0.0012283202 -0.024058046 -0.021994503 0.0015407213
0.0008188273 0.0022817731 0.00408273 0.0070605795 0.0035120968 0.004599472 0.0035244138 0.0032149504
0.0027731324 0.0021368247 0.0030103954 0.005333264 0.00420579 0.005216735 -0.006116363 0.003026706
-0.03369643 -0.012533854 0.0040240795 -0.032047857 -0.023544896 0.0047076107 0.004126006 0.0023706357
0.00532227 0.008881348 0.004457993 0.0050027356 0.0045390436 0.00432133 0.0040081465 0.002982996
0.00389941 0.007266266 0.0056497823 0.006587118 -0.00564326 0.0005605851 -0.008231887 -0.00722282
0.0017853517 -0.006831638 -0.01604776 0.0011108702 0.0009891471 0.00080849364 -3.929728e-05 0.002275861
0.00095349003 0.0015131095 0.0010984339 0.0010463127 0.00043980687 8.510272e-05 0.0009904918 0.001971503
0.001081599 0.0019768819 -0.0048239427 0.0018524874 -0.028390238 -0.009982051 0.0030656855 -0.027068458
-0.018756257 0.0033708208 0.0031444263 0.0026505725 0.004519246 0.0067642154 0.0033943541 0.004679193
0.004188981 0.003626612 0.0034144323 0.0025895678 0.0033581087 0.006034697 0.0046761585 0.0056214402
0.014028977 -0.011994584 0.09673231 0.032249082 -0.0128765665 0.091465846 0.068738975 -0.01399789
-0.011436089 -0.007259736 -0.013299794 -0.029013608 -0.015388753 -0.0114504 -0.010464127 -0.012735691
-0.011678267 -0.008674711 -0.010358775 -0.020623326 -0.016572312 -0.01767608 3.5100307e-05 -0.00024560964
0.00064580573 0.0046131653 -0.00082535046 -0.0015014658 0.010035675 -0.00082259224 0.0009810628 0.00010560797
0.00256636 0.0013636462 0.0020307647 -0.006424906 -0.00029059322 -0.00049398455 0.0005388095 0.00022218813
-0.00020683787 5.8670594e-05 0.00084597303 -0.0006372127 0.007684242 0.006570351 -0.0048748953 0.00020425474
0.003929675 -0.003341375 -0.0020954963 0.004374763 0.0017492374 -0.000767132 -0.002699509 0.0037744336
0.0015670976 0.0021816622 -0.001759366 0.0013947373 0.00086891814 0.0008905489 -0.00023326706 0.0007333157
0.00073601835 -0.0003425404

exp_avg_sq f4 [7, 22]
00000000: e115 cd38 b4ea f538 12ac 8a3a c2f6 0139
00000010: f708 0d39 3b13 883a 546d 4339 7351 1d39
00000020: 27c1 f038 5aa2 9437 b986 a637 6679 1938
00000030: da72 a037 c5e2 7e37 b108 8837 712b e637
00000040: 94d2 1038 fd1c 5837 280c ec37 12a1 0d38
00000050: a231 0138 0744 e737 ab44 c939 9537 2737
00000060: 411f eb3a ae5e 3239 e651 1d37 36aa 033b
00000070: e437 823a 429a 6f37 63fb e937 72b2 3139
00000080: 8390 2638 7ab5 6738 44c4 0b38 718f 9737
00000090: 240e 2338 ff74 1c38 3848 9838 ee14 2438
000000a0: fe2f 4638 8b5e 2538 1388 7838 b850 0938
000000b0: 6a82 143a dfc7 9a37 9eeb c33a d23d 5639
000000c0: 111e 0536 8572 f43a 499c fb3a d640 d637
000000d0: 47bb dd37 2bc0 d637 fc82 2539 7b81 7038
000000e0: fe28 1738 2468 b937 82eb f937 6b0b fd37
000000f0: 1cfb 9b38 b5f7 4438 01a7 f637 5f55 1d38
00000100: 0b5c 9538 8316 cd37 211d 2138 67c1 a336
00000110: 11eb c239 1915 6f38 af6d dc36 2c79 b839
00000120: 10d8 6d39 e65a 0a37 e01f ce36 5d05 0437
00000130: 2f30 3d37 3f9c 7837 3c40 ee36 2830 1f37
00000140: a923 6537 ed61 fb36 c0c4 0437 ca0a 5836
00000150: ec77 5837 9334 2a37 2896 2737 4564 4f37
00000160: 6f17 3e39 c0ae e738 8218 a23b 885d 253a
00000170: 5f32 1d39 66e9 913b 3783 323b bd70 4139
00000180: cdec 9c38 9d91 3238 a4a5 fd38 a747 ac39
00000190: 45c6 1139 dcb0 9838 c924 c338 12da d838
000001a0: bb36 b138 e906 1038 24ad 0839 f580 2139
000001b0: 9b46 0c39 b1d7 2939 75a3 4f39 422a c737
000001c0: 1500 2f3b 6554 133a 1c38 3d38 f3fd 153b
000001d0: cdc3 053b c9ee 7438 be81 0838 6d68 1538
000001e0: a743 6338 ae06 e838 8345 2e38 f3da 0a39
000001f0: 0cfa 8d38 e6cf 7838 f7e0 3e38 2265 a937
00000200: c2d5 b638 b0fc a338 ae17 7d38 fc95 cd38
00000210: 1d33 9639 e621 5e37 0207 483b 9e13 e839
00000220: 8d8e ae37 6f79 3d3b fc74 c53a 5697 d037
00000230: 8d8c 1338 b0d8 2e38 f51e f438 e8e8 df38
00000240: 582d 5b38 dada 2838 094d 3839 b0c1 4f38
00000250: 0d23 4b38 4ff6 9837 9937 f038 bb3a ca38
00000260: 0bb8 a438 8dca fc38
9.779237e-05 0.00011726227 0.0010579845 0.00012394323 0.00013450148 0.0010381708 0.00018637377 0.00015003029
0.00011480069 1.7718576e-05 1.9851477e-05 3.6591104e-05 1.9126968e-05 1.5192379e-05 1.621651e-05 2.7438366e-05
3.452839e-05 1.2881353e-05 2.8139053e-05 3.3767028e-05 3.080222e-05 2.7569024e-05 0.0003838887 9.966917e-06
0.0017938392 0.00017010674 9.376998e-06 0.0020090467 0.000993487 1.4281426e-05 2.7892826e-05 0.00016946511
3.971207e-05 5.5243705e-05 3.332297e-05 1.8067398e-05 3.8875398e-05 3.730226e-05 7.2613766e-05 3.912014e-05
4.7251575e-05 3.9427116e-05 5.9254537e-05 3.273852e-05 0.0005665185 1.8451303e-05 0.0014947539 0.0002043166
1.9836045e-06 0.0018649852 0.0019196357 2.554098e-05 2.643246e-05 2.5600273e-05 0.00015784422 5.7341047e-05
3.6039382e-05 2.2102213e-05 2.979278e-05 3.0165267e-05 7.437749e-05 4.6960737e-05 2.9403252e-05 3.7511225e-05
7.122018e-05 2.4448387e-05 3.841252e-05 4.8802935e-06 0.00037177702 5.700169e-05 6.56928e-06 0.00035185495
0.00022682571 8.246605e-06 6.142989e-06 7.869062e-06 1.12764965e-05 1.4818331e-05 7.1004306e-06 9.488351e-06
1.3657766e-05 7.491783e-06 7.9136225e-06 3.2192788e-06 1.2902525e-05 1.01450305e-05 9.988937e-06 1.2361507e-05
0.00018128542 0.00011047488 0.004946769 0.0006308188 0.00014991451 0.004452872 0.0027238855 0.00018447913
7.482767e-05 4.257412e-05 0.00012094833 0.00032859782 0.00013902139 7.2808674e-05 9.305176e-05 0.000103403014
8.450212e-05 3.433871e-05 0.0001303447 0.00015402197 0.00013377743 0.00016197447 0.00019801951 2.3742326e-05
0.002670293 0.0005620181 4.5113367e-05 0.0022886961 0.0020410896 5.839652e-05 3.254576e-05 3.5621622e-05
5.4184024e-05 0.00011063866 4.154957e-05 0.0001324227 6.769979e-05 5.9321428e-05 4.5509045e-05 2.0193464e-05
8.718252e-05 7.8195124e-05 6.0341954e-05 9.8030985e-05 0.00028648312 1.3240124e-05 0.0030521755 0.00044265104
2.0808797e-05 0.0028911491 0.0015064771 2.4866004e-05 3.517843e-05 4.168664e-05 0.00011640593 0.00010676851
5.22559e-05 4.0258143e-05 0.00017576305 4.953303e-05 4.8431615e-05 1.8234508e-05 0.00011454448 9.64305e-05
7.85441e-05 0.000120540244

exp_avg f4 [7, 7]
00000000: 9a9e 36b8 5f33 023b 9d55 d33a bd2b 023b
00000010: 5eda 253c a6b0 b83b a561 963b 420e 503b
00000020: 1268 d73a ce92 193b ab2d 2b3b b0a6 543c
00000030: 21b6 b83b 043e cf3b d78f 773a d371 133a
00000040: 85db 12bb 6a4a 2a3a 63b2 763b f2ce fc3a
00000050: dc3f 023b 7985 273b 01ba 173b e34d ef3a
00000060: cd4a 103b cb54 043c 7457 bb3b 33f6 d93b
00000070: c1af 02bc 4a42 00bc d785 afbb 1c30 dfbb
00000080: 1cae 5bbd bd95 1ebc a91f e6bb c88f dbb9
00000090: 0e26 9a39 af6c c139 2a52 0dba 316b 353c
000000a0: 493d 57bc 283e 313b c68d eb3a a76b 893a
000000b0: 5ae5 923a 2f21 e2b8 73a5 293c 501c 6b3b
000000c0: 1a69 61bc
-4.353989e-05 0.0019867045 0.0016123537 0.0019862496 0.010122864 0.0056362925 0.004589277 0.003174678
0.0016434214 0.002343345 0.002611975 0.0129791945 0.005636946 0.0063245315 0.0009443736 0.0005624566
-0.0022408676 0.0006496074 0.0037642948 0.0019287749 0.001987449 0.0025561734 0.0023151638 0.0018257465
0.002201724 0.008076857 0.0057172123 0.0066516637 -0.007976473 -0.007828305 -0.005356531 -0.006811155
-0.05363284 -0.009679255 -0.007022817 -0.0004187806 0.00029401522 0.00036892804 -0.00053909665 0.01107292
-0.01313717 0.0027045105 0.0017971329 0.0010484353 0.0011207268 -0.00010782701 0.010354388 0.003587503
-0.013757968

exp_avg_sq f4 [7, 7]
00000000: 4e03 1339 89a0 f737 c8ba 2437 5256 8137
00000010: 13cd 1e38 70b3 eb37 fc13 a137 4fae be37
00000020: bd79 c439 1f77 ec37 4107 b237 14a0 4838
00000030: a6bc 0438 3d37 f537 113f 8b37 0e8a 5938
00000040: 0b9a 9739 4e95 7837 b532 c137 e6d9 2f38
00000050: fa80 6d37 96ec bb36 ba19 4a37 9b62 c336
00000060: 7792 d336 362e 9737 c0ed a537 4b57 0b38
00000070: 491b 6738 9763 3b38 79bc d437 583e 8038
00000080: f593 643a b860 a538 ed40 0039 e853 0938
00000090: ad39 3738 c344 dc37 9af0 3e38 c8ff c538
000000a0: ed9d a939 b78f a338 a827 e737 5f4c e137
000000b0: 788b 5d37 a55c 6b38 fa47 b438 cc93 4338
000000c0: 8c6e 1d3a
0.00014020244 2.951945e-05 9.81865e-06 1.5418194e-05 3.7861126e-05 2.809774e-05 1.9202002e-05 2.2730934e-05
0.00037474735 2.8188862e-05 2.1222631e-05 4.78328e-05 3.1646945e-05 2.9231998e-05 1.6599459e-05 5.1865405e-05
0.00028915735 1.4816715e-05 2.3031005e-05 4.1926185e-05 1.41563305e-05 5.6005765e-06 1.2046128e-05 5.822932e-06
6.305341e-06 1.8022121e-05 1.9780244e-05 3.322148e-05 5.5100103e-05 4.4677025e-05 2.5360134e-05 6.115128e-05
0.0008719557 7.8858284e-05 0.00012231218 3.274149e-05 4.3684315e-05 2.6258063e-05 4.5523608e-05 9.441335e-05
0.00032351856 7.799215e-05 2.7555812e-05 2.6857653e-05 1.3205099e-05 5.6114648e-05 8.5964755e-05 4.662927e-05
0.00060055475

exp_avg f4 [7]
00000000: bc07 d43c 4a25 0e3d a8a5 f83b 686a f03c
00000010: fe5b c9bd 39a0 b139 e3aa 843b
0.025882594 0.03470353 0.007588107 0.029347613 -0.09831999 0.00033879446 0.0040486916

exp_avg_sq f4 [7]
00000000: 6842 ab3a 8da8 0f3b 537a 083b 168a da39
00000010: de3c ac3b f17a 3e3b 9639 5c3b
0.0013066055 0.0021920532 0.0020824864 0.00041683082 0.0052562794 0.0029064978 0.003360366

exp_avg f4 [7]
00000000: 8c0f d43c c92a 0e3d b29f f83b 9372 f03c
00000010: 1b5d c9bd b980 af39 d17a 843b
0.02588632 0.03470877 0.0075873965 0.029351508 -0.098322116 0.00033474507 0.004042961

exp_avg_sq f4 [7]
00000000: f742 ab3a eea8 0f3b 6d7a 083b 9b90 da39
00000010: 283d ac3b cb7a 3e3b e139 5c3b
0.0013066222 0.0021920758 0.0020824925 0.0004168794 0.005256314 0.002906489 0.0033603834

exp_avg f4 [7, 22]
00000000: 9426 18bc 2b5a c7bb 7b26 dd3c c647 863b
00000010: be86 eabb d64d ee3c 99a2 22bc 3825 e0bb
00000020: 622a a1bb 5fba 01bb afe8 c738 3d39 04bc
00000030: 8e08 a7bb 8ca7 4dbb 42cd 98bb 242e a5bb
00000040: d077 1dbb 9369 debb c57f 6ebb 96f1 24bb
00000050: c498 8cbb 4917 4bbb 6177 f43a c389 1639
00000060: b620 1cbc 1810 843a 6062 6438 186a 1ebc
00000070: ebe2 593b 277e 5337 2e56 8f3a 5658 483a
00000080: ce99 923a 0c35 1a3b 962a c23a e1a4 003b
00000090: bcdf b03a 49ce eb3a e9ce 4f3a 3059 293b
000000a0: 7a41 aa3a 4113 903a 7bff a03a 9b4b ac3a
000000b0: 2c41 28bc 95c6 433b a08a 8c3c c85b 5ebc
000000c0: 8ebc 943a dc7b 8c3c ab2f bebc 1eca 1f3b
000000d0: e5c1 eeb9 ccb7 00bb b9c1 cbbb 65ab 57bb
000000e0: 4d38 66bb 242f 20b9 23e3 3ebb 93ed a2bb
000000f0: a9a6 7cba abb2 b5bb ac3d dfba 500e e4ba
00000100: aed3 82ba 0f04 2abb 7195 1ebc fe6a d33a
00000110: 3987 3bbb 3611 32bc 65f5 553b 88b2 21bb
00000120: 22ce c4bc 6ac1 d23a 7721 18ba 340a 97b9
00000130: c55c 11ba 94aa 52ba 59e7 b1b7 7749 543a
00000140: 91c9 913a 9b2d 63ba ebef 29b9 bf6b 6f3a
00000150: e493 73b8 e25b 6fba 65db b939 f99b d139
00000160: 2da0 e13b 97c4 fe38 aa43 c0bc a6a5 9e3b
00000170: a6de 7638 07db c4bc d379 563c f92d a7b7
00000180: 3f98 1f3b 7418 1d3b b753 543b 39d1 c33b
00000190: beff 863b 4b44 7a3b df4f 553b 8a77 9c3b
000001a0: 9044 fb3a 005c d53b 31a6 4b3b 9fbc 383b
000001b0: 4475 3a3b 6695 553b 45ea 5c3c 16cf ae39
000001c0: 9a6a d83b ac2a 183c abaa 0a3b f31f d03b
000001d0: 8175 ca3c 8734 063b eafa b8b8 4668 f3b9
000001e0: 4ab3 da39 7440 26ba c9dc 553a cfc7 b4bb
000001f0: 5a18 a4b9 ee37 0c3a 1acb 18ba 3922 f5ba
00000200: 0252 9aba fb19 c6b9 3317 a7ba 77ae 88ba
00000210: ec44 203c f175 feb9 eea8 41bc 9ee7 243c
00000220: 987d 4039 06f9 54bc 16cf ba3c f669 bab8
00000230: e665 ba3a 34c9 9b3a 0208 403b 7872 7e3b
00000240: e5eb 253b 5d0e 7539 30b5 ce3a e764 7a3b
00000250: 5339 733a 0813 723b a928 ba3a b666 a83a
00000260: b685 9c3a 0e97 ba3a
-0.0092865415 -0.006083747 0.026995888 0.0040979115 -0.007157176 0.02908985 -0.009926462 -0.0068403743
-0.0049183825 -0.0019794924 9.5324e-05 -0.008070287 -0.0050974553 -0.0031380383 -0.0046631405 -0.005040901
-0.0024027713 -0.006787488 -0.0036392075 -0.002516841 -0.004290672 -0.003098922 0.00186513 0.00014356435
-0.009529283 0.0010075597 5.4451055e-05 -0.009668849 0.0033246826 1.2605952e-05 0.0010935718 0.00076425576
0.0011184753 0.0023530154 0.0014813717 0.0019629525 0.0013494412 0.0017990555 0.00079272554 0.0025840513
0.0012989484 0.0010992066 0.001228317 0.0013145091 -0.010269444 0.0029873003 0.017155945 -0.013571687
0.0011347698 0.017148905 -0.02321609 0.0024381946 -0.0004553936 -0.0019640801 -0.006218162 -0.0032908556
-0.0035128773 -0.0001527635 -0.0029127083 -0.0049721687 -0.00096378714 -0.0055449805 -0.001703193 -0.0017399285
-0.0009981298 -0.002594236 -0.009679184 0.0016129909 -0.0028614535 -0.010868361 0.0032647487 -0.0024673063
-0.024024073 0.001607937 -0.00058033265 -0.00028808566 -0.0005545135 -0.00080362824 -2.1207774e-05 0.00080981053
0.0011122694 -0.00086661585 -0.00016206472 0.0009133182 -5.807345e-05 -0.0009130818 0.0003544941 0.00039979795
0.0068855495 0.000121482815 -0.023469765 0.004841524 5.8858328e-05 -0.024030222 0.013090569 -1.9929359e-05
0.002435222 0.0023970874 0.003239853 0.005975869 0.0041198423 0.0038187678 0.0032548828 0.0047749924
0.0019170213 0.0065112114 0.00310744 0.0028188599 0.0028451243 0.003259027 0.013483589 0.00033342157
0.006604505 0.0092875175 0.0021158855 0.006351465 0.024714233 0.0020478086 -8.82054e-05 -0.00046426262
0.0004171378 -0.0006342002 0.0008158205 -0.005516983 -0.0003129866 0.00053489103 -0.00058286043 -0.0018702216
-0.0011773708 -0.0003778486 -0.0012748003 -0.0010427971 0.009782057 -0.00048534528 -0.011820061 0.0100649875
0.00018357334 -0.012998825 0.022803824 -8.888908e-05 0.0014221042 0.0011885525 0.0029301648 0.0038825553
0.0025317606 0.00023370371 0.0015770551 0.0038207115 0.00092782563 0.0036937613 0.0014202791 0.0012847993
0.0011941704 0.0014235692

exp_avg_sq f4 [7, 22]
00000000: d38b a539 c159 6b38 1a04 563b 3b37 fa38
00000010: ab3d b238 8c04 613b 4ab7 6a3a c6fa 9638
00000020: a586 4d39 fa02 1238 0f2a 3f38 7057 3739
00000030: aaba af38 0cd3 4438 9e66 a038 36ca d838
00000040: b0e8 d237 2eea 4a39 70d0 6338 130b ad38
00000050: 10cd 7b38 029a 7238 aa0f d737 f358 8c35
00000060: fb45 1239 180c 0737 7c9e 0a35 c456 2539
00000070: 9733 8a38 6ebc a435 6a3b 5836 1053 3337
00000080: f330 0736 8689 9836 04be 3936 57fb 3536
00000090: 889b 4f36 6e35 9b36 f156 8c35 62b4 0537
000000a0: 2936 2536 e739 c536 3cb7 0736 0590 3336
000000b0: 7155 b639 84bf 2a37 392b 783b bdfe d639
000000c0: fed9 4137 b41c 733b 7d34 c73a 3b44 2f37
000000d0: c864 3938 2e76 5238 0535 6539 ff5d 1539
000000e0: 8371 b038 dd38 7238 ae62 c138 6a80 1639
000000f0: 189e b937 4101 6a39 fd4f 5838 2075 eb38
00000100: 64a2 3d38 da4c ab38 f0fb c739 7266 8636
00000110: 82e5 963a 93ae 9639 181f 7037 4a07 a23a
00000120: 4126 e53a 778b a836 3a00 0938 c839 a537
00000130: a373 1138 d07c 9338 c6b9 0a38 f05f da37
00000140: 8861 d437 f833 7938 ff00 2437 adf1 8738
00000150: dc7e aa37 18ce 5338 8460 9a37 a49e ce37
00000160: c908 3538 c9cc cc35 165f c339 0cbd 1f38
00000170: cf57 0036 0043 c539 2bcb 3d39 f7bc db35
00000180: b677 d136 c98e c536 24bd 5d37 85de 9337
00000190: 3973 3137 f6b6 e636 e833 1f37 843d 5737
000001a0: cdf1 2536 2c2e b037 fe8f b936 1189 5537
000001b0: bf53 a736 9ee9 0337 ea00 7d38 e379 f036
000001c0: 0be7 a93a 46c9 5a38 71ce 9536 aa59 aa3a
000001d0: 045f 8439 6043 9036 89d0 aa37 ce6f 6637
000001e0: 6ad5 8537 e8e7 4438 bd5d b037 2f6b 9438
000001f0: 8e70 1338 233f c937 111f 2e37 15c1 b338
00000200: bd3c dc37 51af fa37 be7e ae37 6360 bd37
00000210: 3b6a 2238 8545 cd36 a5e5 c03a ce22 e838
00000220: f648 2236 8151 b73a 9981 ac39 0b42 1036
00000230: b27d 7837 6439 7537 f2e5 b337 3c96 3138
00000240: 5f05 8738 f526 f937 fb82 9838 e616 e237
00000250: a0d7 3437 9acd b038 e184 da37 8b82 2d38
00000260: 3da8 b837 8bf1 fe37
0.0003157543 5.6111956e-05 0.0032656253 0.000119312164 8.499188e-05 0.0034334986 0.0008953704 7.1992676e-05
0.00019600482 3.4811885e-05 4.557712e-05 0.00017484813 8.379419e-05 4.6926594e-05 7.6485085e-05 0.00010337347
2.5142304e-05 0.0001935146 5.431514e-05 8.2513456e-05 6.0034043e-05 5.7840727e-05 2.5637291e-05 1.04567e-06
0.00013949715 8.049443e-06 5.163963e-07 0.00015767949 6.589962e-05 1.2273792e-06 3.2221092e-06 1.0688571e-05
2.014506e-06 4.545963e-06 2.7677752e-06 2.71174e-06 3.0935935e-06 4.62558e-06 1.0456116e-06 7.969416e-06
2.4618441e-06 5.8777982e-06 2.0223224e-06 2.675691e-06 0.00034777404 1.017738e-05 0.003786756 0.00041007056
1.1554452e-05 0.0037095966 0.0015198138 1.0446699e-05 4.4201297e-05 5.0177965e-05 0.00021858893 0.00014244764
8.413477e-05 5.7750254e-05 9.221338e-05 0.00014352953 2.2127337e-05 0.00022316446 5.1572908e-05 0.000112274894
4.521235e-05 8.16823e-05 0.00038143946 4.0054374e-06 0.001151249 0.00028740297 1.4312354e-05 0.0012361791
0.0017482714 5.023026e-06 3.2663556e-05 1.969644e-05 3.467839e-05 7.0327544e-05 3.307478e-05 2.60323e-05
2.5317786e-05 5.9414626e-05 9.775394e-06 6.482317e-05 2.0324653e-05 5.049826e-05 1.8403174e-05 2.4630986e-05
4.3161945e-05 1.5258785e-06 0.00037264143 3.8084618e-05 1.9124598e-06 0.00037624687 0.0001810013 1.6371768e-06
6.2426216e-06 5.88768e-06 1.3216664e-05 1.7627384e-05 1.05768495e-05 6.8758336e-06 9.489224e-06 1.2829321e-05
2.4727663e-06 2.1002335e-05 5.5301925e-06 1.2727703e-05 4.986737e-06 7.862602e-06 6.032075e-05 7.166747e-06
0.0012962533 5.21627e-05 4.464579e-06 0.0012996693 0.00025247794 4.299378e-06 2.0362686e-05 1.37351e-05
1.5954214e-05 4.694602e-05 2.1024485e-05 7.0771544e-05 3.5152356e-05 2.3990468e-05 1.0378441e-05 8.5713495e-05
2.6254327e-05 2.988396e-05 2.0801435e-05 2.257544e-05 3.8722745e-05 6.1175692e-06 0.0014716877 0.00011069105
2.418235e-06 0.0013986082 0.00032902954 2.1496114e-06 1.4811218e-05 1.46165e-05 2.144554e-05 4.2340005e-05
6.438302e-05 2.9701254e-05 7.272322e-05 2.6951962e-05 1.077904e-05 8.43063e-05 2.6049502e-05 4.136799e-05
2.2012851e-05 3.0391637e-05

exp_avg f4 [7, 7]
00000000: b873 c6bc 7085 08bb d391 393b 667c ec39
00000010: a0df bcba 1f92 18bb bc4f 80ba b64e 103b
00000020: ce4a be39 e3cc 173b e75e c43a d11c 373a
00000030: b242 d23a d7de be3a 8b5c 5f3a 85e4 03ba
00000040: 5270 a4bc b9bc f63a 5c5e a7ba 28ce e63a
00000050: a104 97ba 67cb 6b3b f640 6738 fb3a 8c3b
00000060: a01d 31bc b166 53ba caf5 da3a 51e5 db3a
00000070: 748b 9c3b 6c8e bc3a ff15 fd3b 976c 803b
00000080: 6457 e93a 1194 233b 6ff6 4a3b 1193 643b
00000090: 7d49 c6b9 b07b b63a 81fc 9539 1061 98b9
000000a0: fe8e 27bc 10d5 84b8 9079 c63b 5671 353a
000000b0: 5f80 053c 99f2 ce3a 7f1b 2e3a 1a1f ea3a
000000c0: 9b91 a9bb
-0.0242251 -0.0020831488 0.0028315678 0.00045106112 -0.0014409907 -0.0023280454 -0.0009789388 0.0022019572
0.00036295358 0.0023162893 0.0014981896 0.000698519 0.0016041605 0.0014562261 0.0008520565 -0.00050313055
-0.02007309 0.0018824554 -0.001276921 0.0017609047 -0.0011521765 0.0035979392 5.513519e-05 0.004279492
-0.010810286 -0.00080643134 0.0016705331 0.0016776716 0.0047773663 0.0014385707 0.0077235694 0.003919195
0.0017802534 0.002496008 0.003096964 0.0034877697 -0.00037820256 0.001392236 0.00028607625 -0.00029064016
-0.010226963 -6.3339365e-05 0.006056972 0.00069214904 0.008148282 0.0015788852 0.00066416705 0.0017862052
-0.005174828

exp_avg_sq f4 [7, 7]
00000000: d69b 243a fb2e 6a37 43d9 2839 c2d6 1c38
00000010: 2118 1138 be69 f537 6f33 ee37 5ffe ab36
00000020: 3bfa 2a37 4a9c ba36 5835 1936 fc6b 6f36
00000030: 03b9 4936 a0eb 5c36 f16c e438 6716 7237
00000040: 8730 553a f871 1538 5291 4d38 a509 1638
00000050: 60a0 6338 1aa8 3a38 b8bb ab36 7bf0 4e38
00000060: 2b76 5039 4533 e637 7fa2 5e37 c06c 9437
00000070: c39a 8937 928f 3336 656f 5a38 1130 1a37
00000080: 4964 c336 e290 9136 174e 3337 a2d9 c537
00000090: efab b136 5335 5c38 8717 8e37 beeb 6437
000000a0: 03dd 4939 3d6e 5937 48e0 e937 85e2 a736
000000b0: bf01 be38 eebc 6037 dcff a037 87c1 3f37
000000c0: b7b2 6a39
0.0006279325 1.3958425e-05 0.00016102665 3.7393307e-05 3.4593166e-05 2.9255516e-05 2.8395762e-05 5.12581e-06
1.0191051e-05 5.5614264e-06 2.2829827e-06 3.567663e-06 3.0059025e-06 3.2919706e-06 0.00010892179 1.442954e-05
0.00081325363 3.563051e-05 4.901115e-05 3.577177e-05 5.427038e-05 4.4502412e-05 5.1180505e-06 4.9338192e-05
0.00019880447 2.744201e-05 1.3270065e-05 1.7693616e-05 1.640374e-05 2.6756647e-06 5.2078994e-05 9.190307e-06
5.8231276e-06 4.3382033e-06 1.0687413e-05 2.3585573e-05 5.2950268e-06 5.250175e-05 1.6938675e-05 1.3644747e-05
0.00019251187 1.2959875e-05 2.7880204e-05 5.003358e-06 9.060231e-05 1.3395429e-05 1.919263e-05 1.1429546e-05
0.00022382555

exp_avg f4 [7]
00000000: 4282 e3bc 9efe 253c 55b3 97bc 2a8e b0b9
00000010: 72c1 ce3c cba4 bdbb c579 613c
-0.027772073 0.010131506 -0.01851813 -0.00033675256 0.025238726 -0.005787467 0.013761942

exp_avg_sq f4 [7]
00000000: 35a6 6e3b e2ec 2e39 c39e 883b 1ad0 ca3a
00000010: 9c04 dc39 7748 b33a 162a c73a
0.0036414985 0.00016682179 0.0041693165 0.0015473396 0.00041965104 0.0013678212 0.0015195038
