data_10frm/model/0_4_18_1.pt (torch_old, 18375 bytes, 52 tensors)

rnn.weight_ih f4 [7, 22]
-0.023178754 0.1710308 -0.2703029 -0.0383358 0.04356033 0.14365599 -0.099029176 -0.17547663
-0.31920403 -0.034159947 -0.38589367 -0.42913198 -0.2602862 -0.38333437 -0.058435258 0.15328978
0.19849554 -0.32902178 0.12010135 0.16451539 -0.096624374 0.036985736 0.09220178 0.2458394
0.19732815 -0.041815806 -0.21484765 -0.20993112 -0.32911554 0.22739667 -0.12573774 0.0753586
-0.3841381 -0.040479314 -0.13876899 -0.26101404 0.24769862 -0.296144 -0.08568974 -0.05394301
-0.34271955 0.23022158 -0.11778996 0.17568897 0.2698582 0.3248833 0.044690598 0.40272343
0.30986905 0.027604593 -0.015111487 -0.1022311 0.057824176 0.1595814 -0.25964203 0.31863362
0.0871299 -0.3130783 0.15733448 0.29738614 0.17162886 0.3313728 0.04792069 -0.26019084
0.043314412 0.33234844 -0.084853 0.19534926 0.077454485 0.09992326 0.007953408 0.14092366
-0.13418137 0.30011696 0.25344387 0.21318582 0.37199366 0.04506979 -0.2185311 0.05914873
-0.102929376 0.15979709 0.35034746 -0.15865685 0.013679501 0.36511403 -0.2764096 -0.04637411
0.35581648 0.19453505 0.21641025 -0.12243805 -0.16453123 -0.24839479 -0.3453533 -0.39239222
0.2985964 0.20092164 0.026631152 -0.20947812 0.30448112 -0.16080958 0.12070571 -0.09847321
-0.25775826 -0.173424 -0.19179128 -0.4555855 0.03587743 -0.21005915 -0.0027921891 0.021649461
0.16058391 0.12183867 -0.14018477 0.47797525 -0.3590906 -0.2593134 -0.34672374 0.13872728
-0.56978315 -0.43809858 -0.181312 0.095479175 0.06848454 -0.56895894 -0.4900315 0.11614047
-0.17521894 -0.5345511 -0.3232053 -0.05061278 -0.3782102 -0.3560561 -0.15456179 -0.39057088
-0.09238785 0.23604657 -0.05579866 -0.319587 -0.20413104 -0.3913125 0.1595911 0.29055044
0.26068237 0.053343043 -0.108620025 -0.11145233 0.06155514 -0.44283122 -0.05421672 -0.3761296
-0.45757493 -0.096704125
00000000: 5fe1 bdbc b322 2f3e 2465 8abe 0006 1dbd
00000010: 516c 323d 8e1a 133e cfcf cabd 25b0 33be
00000020: b66e a3be 4deb 0bbd db93 c5be 30b7 dbbe
00000030: 3c44 85be 6744 c4be cf59 6fbd fff7 1c3e
00000040: 6a42 4b3e 8b75 a8be b2f7 f53d b976 283e
00000050: 00e3 c5bd 5b7e 173d 49d4 bc3d 53bd 7b3e
00000060: 6410 4a3e 0d47 2bbd 0601 5cbe 2ff8 56be
00000070: d581 a8be acda 683e 65c1 00be 9c55 9a3d
00000080: c0ad c4be a3cd 25bd 7519 0ebe a2a3 85be
00000090: b5a4 7d3e 30a0 97be 1a7e afbd 58f3 5cbd
000000a0: f078 afbe 35bf 6b3e dd3b f1bd cfe7 333e
000000b0: db2a 8a3e 1b57 a63e 7d0d 373d c431 ce3e
000000c0: 28a7 9e3e 0723 e23c 2c96 77bc 8a5e d1bd
000000d0: 0bd9 6c3d 4e69 233e cdef 84be f223 a33e
000000e0: 2971 b23d cd4b a0be 4a1c 213e ff42 983e
000000f0: 7abf 2f3e b2a9 a93e 7c48 443d bc37 85be
00000100: 746a 313d 9329 aa3e 69c7 adbd a309 483e
00000110: 75a0 9e3d 91a4 cc3d 034f 023c 4b4e 103e
00000120: d766 09be eea8 993e 65c3 813e 624d 5a3e
00000130: f475 be3e 1a9b 383d 9ec6 5fbe f045 723d
00000140: a3cc d2bd d9a1 233e be60 b33e f176 22be
00000150: fc1f 603c 3af0 ba3e 8f85 8dbe c7f2 3dbd
00000160: 942d b63e 3234 473e a69a 5d3e cdc0 fabd
00000170: e07a 28be 345b 7ebe 26d2 b0be a2e7 c8be
00000180: a1e1 983e 67be 4d3e 9329 da3c 6f81 56be
00000190: f3e4 9b3e 44ab 24be 8e34 f73d 53ac c9bd
000001a0: e4f8 83be 1096 31be ef64 44be 8142 e9be
000001b0: 36f4 123d bf19 57be 29fd 36bb 365a b13c
000001c0: 1c70 243e 8d86 f93d 998c 0fbe 2cb9 f43e
000001d0: b9da b7be bac4 84be c685 b1be 860e 0e3e
000001e0: 4fdd 11bf 754e e0be daa9 39be 968a c33d
000001f0: 9f41 8c3d 4ba7 11bf 69e5 fabe 0edb ed3d
00000200: 986c 33be 57d8 08bf 2a7b a5be 594f 4fbd
00000210: c4a4 c1be fc4c b6be 7245 1ebe e8f8 c7be
00000220: d735 bdbd 31b6 713e 238d 64bd e8a0 a3be
00000230: ba07 51be 1d5a c8be d96b 233e 07c3 943e
00000240: 2978 853e 3c7e 5a3d 2d74 debd 1f41 e4bd
00000250: 3e21 7c3d c6ba e2be 5a12 5ebd 0f94 c0be
00000260: 4347 eabe d00c c6bd

rnn.weight_hh f4 [7, 7]
-0.14408918 -0.3411637 -0.06444853 -0.11098034 -0.07375579 -0.3088219 -0.5307933 -0.015783148
-0.07135506 -0.17413327 0.20529222 0.015803246 0.17658015 -0.1449337 -0.27252182 0.056017518
-0.14515135 0.0061049648 -0.2704327 0.33519873 -0.23445839 0.29923955 0.2571538 0.27501622
0.34697473 0.05213124 0.003615353 -0.041715562 -0.2723856 -0.4555617 0.20944768 -0.15908346
0.1883979 -0.072688915 -0.03182257 -0.44096872 -0.46907708 0.05097433 -0.06769334 -0.005650614
-0.5713135 -0.14670424 -0.48835236 -0.13196333 -0.17946835 -0.41634935 -0.47091645 -0.08016742
0.32923996
00000000: 1d8c 13be 02ad aebe 97fd 83bd a949 e3bd
00000010: 470d 97bd e71d 9ebe 12e2 07bf a94b 81bc
00000020: 9a22 92bd fe4f 32be 2038 523e cf75 813c
00000030: 6dd1 343e 8069 14be fb87 8bbe a072 653d
00000040: 8ea2 14be 280c c83b 2876 8abe 2b9f ab3e
00000050: dc15 70be ed35 993e aaa9 833e edce 8c3e
00000060: aca6 b13e 9187 553d 8fef 6c3b f0dd 2abd
00000070: 2076 8bbe 623f e9be 7479 563e c6e6 22be
00000080: 61eb 403e eddd 94bd 6258 02bd a7c6 e1be
00000090: df2a f0be 76ca 503d cea2 8abd c928 b9bb
000000a0: 9a41 12bf a339 16be 5209 fabe 6521 07be
000000b0: 8dc6 37be be2b d5be f61b f1be d12e a4bd
000000c0: 2492 a83e

rnn.bias_ih f4 [7]
0.23775089 -0.23522463 -0.021619081 -0.29115263 -0.38286242 -0.32810235 0.2799922
00000000: f874 733e bade 70be 801a b1bc f511 95be
00000010: 8b06 c4be 08fd a7be 235b 8f3e

rnn.bias_hh f4 [7]
-0.20145267 0.016736737 0.40107974 0.0922307 0.2171699 0.026575765 0.2674641
00000000: 9c49 4ebe 7b1b 893c 535a cd3e 73e3 bc3d
00000010: c961 5e3e 6bb5 d93c 0ef1 883e

exp_avg f4 [7, 22]
-0.00012663974 -0.00059299136 -0.004850478 -0.0009979038 -0.0002810224 -0.004782549 -0.0016571975 -0.00030331727
-8.102304e-05 0.00054453703 0.0014647688 0.00093412114 0.00068849506 0.00052727136 0.0008483845 0.00034546555
0.0003506716 0.0011102522 0.0013474204 0.0005979042 0.00040516714 0.0007701159 -0.00036271499 -0.0005607213
-0.007948424 -0.0018082176 5.54269e-05 -0.007891546 -0.002810875 8.258227e-05 0.0008064383 0.0009617183
0.002478736 0.0011309974 0.00084727607 0.0006829232 0.0012533824 0.0005564152 0.000668378 0.0017503782
0.0023422567 0.0009796572 0.0006249991 0.0012412949 0.011170867 0.007680817 0.0051039723 0.0066775084
-0.00017759662 0.0052266824 0.022910431 6.012965e-06 -0.0010567382 -0.0006049852 -0.0054514008 0.00020713848
0.0005026171 0.0004070137 -0.0004150516 -9.595408e-05 -0.00065913843 -0.0031123264 -0.0020841022 -0.00041294802
0.00031271088 -0.0003624678 0.0035666795 -0.0014433983 -0.003489883 0.0032703474 -0.00037274155 -0.0048626857
0.007671632 -0.00013460196 0.0012423653 -0.00051050266 0.0014510349 -0.00010095984 0.0007232271 0.0005210485
0.0011654635 0.0003492153 0.00026859678 0.0002138626 0.0016044732 -0.00031592764 0.0007103264 0.0016564713
-0.002531324 -0.0018767847 -0.0007484498 -0.0010178051 -0.00017753994 -0.0007420449 -0.006200465 -0.00030640612
0.0003261409 0.00029877655 -1.0068487e-05 0.0006509957 -0.00065311755 4.411754e-05 0.00048614334 -1.9264876e-06
0.0001985918 0.00086733623 -0.00028017905 0.0004268065 -4.9252983e-05 -1.9095469e-05 -0.0033674648 0.0006338461
0.012410423 0.00030258886 0.00095488166 0.012662239 -0.0031384875 0.0010492106 -0.0002918168 -0.0007199455
-0.006365919 0.00028853945 -0.0011973957 -0.00068215915 -0.0035372092 -0.001003023 -0.00090500386 -0.0023186556
-0.003480299 -0.0012161693 -0.0018079669 -0.0017725944 -0.010905068 -0.0036375185 0.011209736 -0.0062182257
-1.3697219e-05 0.012683297 -0.019422458 -0.0007107114 -0.0023310485 -0.0010446621 0.00274805 -0.004953105
-0.0026224405 -0.0027793294 -0.001123811 -0.0011062013 -0.0007929593 -0.0006206638 -0.0030693095 -0.0012811923
-0.001516663 -0.0037097756
00000000: 99ca 04b9 fa72 1bba c2f0 9ebb 18cc 82ba
00000010: 3056 93b9 eeb6 9cbb 5236 d9ba 8e06 9fb9
00000020: eaea a9b8 43bf 0e3a 7cfd bf3a cfdf 743a
00000030: 1f7c 343a 9538 0a3a 1f66 5e3a 9a1f b539
00000040: 58da b739 e285 913a ed9b b03a acbc 1c3a
00000050: 9d6c d439 9ae1 493a c82a beb9 5ffd 12ba
00000060: 1b3a 02bc b701 edba 2e7a 6838 8b4b 01bc
00000070: a836 38bb 0530 ad38 2867 533a d31b 7c3a
00000080: 4a72 223b fa3d 943a bc1b 5e3a 3306 333a
00000090: 8948 a43a 64dc 113a 1736 2f3a f26c e53a
000000a0: 8c80 193b d767 803a fbd6 233a f2b2 a23a
000000b0: 0306 373c 5daf fb3b 393f a73b 00cf da3b
000000c0: 3b39 3ab9 9744 ab3b a8ae bb3c fac2 c936
000000d0: 4082 8aba df97 1eba aaa1 b2bb 5033 5939
000000e0: 10c2 033a 7464 d539 489b d9b9 f43a c9b8
000000f0: 08ca 2cba 2cf8 4bbb 6f95 08bb f280 d8b9
00000100: 58f3 a339 9b09 beb9 f4be 693b 6930 bdba
00000110: 85b6 64bb 5353 563b 866c c3b9 2a57 9fbb
00000120: 5062 fb3b f023 0db9 ddd6 a23a 41d3 05ba
00000130: a730 be3a 67ba d3b8 f396 3d3a f996 083a
00000140: 77c2 983a e216 b739 73d2 8c39 4e40 6039
00000150: 304d d23a 17a3 a5b9 3335 3a3a f41d d93a
00000160: 92e4 25bb 72fe f5ba 9e33 44ba df67 85ba
00000170: 042a 3ab9 ca85 42ba 452d cbbb 22a5 a0b9
00000180: e4fd aa39 1ca5 9c39 d3eb 28b7 95a7 2a3a
00000190: fa35 2bba d90a 3938 0ee1 fe39 ce48 01b6
000001a0: 153d 5039 f35d 633a ffe4 92b9 00c5 df39
000001b0: fd94 4eb8 352f a0b7 afb0 5cbb b128 263a
000001c0: 1655 4b3c caa4 9e39 0651 7a3a 4875 4f3c
000001d0: 15af 4dbb aa85 893a fdfe 98b9 baba 3cba
000001e0: 3399 d0bb 1c47 9739 eff1 9cba edd2 32ba
000001f0: 86d0 67bb de77 83ba c83d 6dba 96f4 17bb
00000200: ba15 64bb df67 9fba 4df9 ecba 6656 e8ba
00000210: 2cab 32bc 6f63 6ebb 0aa9 373c 42c2 cbbb
00000220: 1ccd 65b7 9acd 4f3c d91b 9fbc 094f 3aba
00000230: 81c4 18bb 0bed 88ba a118 343b a84d a2bb
00000240: 40dd 2bbb 6925 36bb d74c 93ba f5fd 90ba
00000250: 99de 4fba 0bb4 22ba 7826 49bb aeed a7ba
00000260: c4ca c6ba b51f 73bb

exp_avg_sq f4 [7, 22]
1.0517969e-06 6.6838584e-07 2.7039247e-05 8.713621e-07 3.852951e-07 2.7557975e-05 2.778606e-06 5.7128716e-07
2.341948e-06 6.4292533e-07 8.5894624e-07 5.4343036e-07 4.3303882e-07 2.144966e-07 3.8804617e-07 1.6424062e-07
4.899096e-07 7.2742495e-07 2.4465153e-06 4.5524558e-07 1.8405613e-07 6.7355796e-07 1.4666301e-06 4.629082e-07
4.5367393e-05 3.6051397e-06 5.780687e-08 4.3932083e-05 1.23939035e-05 7.7509746e-08 7.524496e-07 1.069167e-06
3.6059837e-06 9.551458e-07 8.2581465e-07 4.3256676e-07 1.1504205e-06 2.9016755e-07 1.0766404e-06 1.611279e-06
2.8473391e-06 7.968882e-07 2.2986458e-07 1.1934395e-06 2.5992427e-05 1.0016177e-05 0.00067822146 5.771451e-05
4.2270332e-07 0.0006621871 0.00023217157 5.27671e-07 8.649572e-06 1.2376411e-05 7.1111215e-05 1.5152028e-05
9.702377e-06 6.0497423e-06 1.09123175e-05 3.690688e-06 1.1692513e-05 3.057863e-05 5.0939834e-05 1.17377795e-05
3.3289955e-06 1.675878e-05 1.511055e-05 2.3941398e-06 0.00058391143 5.668784e-05 1.1258513e-06 0.00054378714
0.00016841186 1.3437955e-06 7.710207e-06 2.7775495e-05 1.7941662e-05 2.0883524e-05 9.678035e-06 4.140362e-06
1.48555755e-05 3.3671463e-06 1.0903583e-05 2.4839614e-05 3.3481785e-05 1.3328058e-05 3.0895883e-06 1.4068979e-05
3.3028837e-06 1.1778973e-06 0.00027482456 1.6143977e-05 1.5813677e-07 0.0002624208 2.5269446e-05 3.5791453e-07
5.1038446e-06 6.759577e-06 9.200061e-06 5.638555e-06 1.28445245e-05 2.7527321e-06 3.6507727e-06 1.8009223e-06
3.7131274e-06 1.0218825e-05 2.0882297e-05 4.4269755e-06 1.6461254e-06 6.738695e-06 3.964356e-06 1.1814943e-07
0.000115587805 1.3473118e-06 1.1175857e-07 0.00011824559 3.5441176e-06 1.12311234e-07 9.762618e-07 1.178065e-06
9.486451e-06 1.4047436e-06 1.7452867e-06 5.026019e-06 4.1338994e-06 7.534577e-07 1.079012e-06 4.045596e-06
9.62087e-06 1.5739673e-06 1.2319299e-06 2.8305183e-06 5.8419355e-05 3.899959e-06 0.0007088827 1.8801627e-05
1.6131562e-06 0.00075171434 0.00013284021 2.6246023e-06 1.0053935e-05 1.2084573e-05 1.7326132e-05 3.1081043e-05
1.4989745e-05 1.0522875e-05 3.5237546e-05 4.822021e-06 6.4346705e-06 2.2435039e-05 5.802312e-05 1.1065683e-05
6.1367687e-06 2.7015367e-05
00000000: 772b 8d35 206b 3335 57d2 e237 8ce7 6935
00000010: 8eda ce34 4d2c e737 1678 3a36 8e5a 1935
00000020: 5c2a 1d36 7e95 2c35 5692 6635 40e0 1135
00000030: 677c e834 6050 6634 a954 d034 1e5a 3034
00000040: 5582 0335 4344 4335 d02e 2436 7a68 f434
00000050: f7a0 4534 8dce 3435 07d9 c435 9e85 f834
00000060: de48 3e38 d4ef 7136 5347 7833 b743 3838
00000070: 69ef 4f37 6f73 a633 f1fb 4935 4c80 8f35
00000080: 54fe 7136 8f32 8035 8dad 5d35 863b e834
00000090: 2668 9a35 53c8 9b34 1581 9035 2043 d835
000000a0: ea14 3f36 bde9 5535 b2d0 7634 452e a035
000000b0: 500a da37 270b 2837 acca 313a 7c12 7238
000000c0: e7ef e234 a096 2d3a 1573 7339 46a5 0d35
000000d0: a11d 1137 48a4 4f37 8b21 9538 7735 7e37
000000e0: 64c7 2237 e4fe ca36 0c14 3737 89ad 7736
000000f0: f62a 4437 8e41 0038 3ba8 5538 61ed 4437
00000100: b567 5f36 3595 8c37 5183 7d37 02ab 2036
00000110: a211 193a 1bc4 6d38 f51b 9735 f08c 0e3a
00000120: b797 3039 765c b435 165b 0137 6cff e837
00000130: 6d81 9637 072f af37 d85e 2237 70ed 8a36
00000140: 363c 7937 22f7 6136 88ee 3637 aa5e d037
00000150: cb6e 0c38 939b 5f37 b956 4f36 ce09 6c37
00000160: 1ca7 5d36 3e18 9e35 5416 9039 ed6c 8737
00000170: 4ecc 2934 8695 8939 b9f9 d337 6627 c034
00000180: b141 ab36 53d0 e236 f659 1a37 d232 bd36
00000190: d07e 5737 94bb 3836 ccff 7436 38b7 f135
000001a0: 0b2f 7936 8571 2b37 642c af37 6e8b 9436
000001b0: 70f0 dc35 f31c e236 8f05 8536 56b9 fd33
000001c0: bb67 f238 48d5 b435 ecff ef33 9efa f738
000001d0: 7ad7 6d36 c12f f133 1a08 8335 011e 9e35
000001e0: ff27 1f37 9f8a bc35 983f ea35 2da5 a836
000001f0: edb5 8a36 3841 4a35 92d2 9035 68bf 8736
00000200: 5269 2137 1b41 d335 ca58 a535 eff3 3d36
00000210: 4e07 7538 65dc 8236 50d4 393a 30b8 9d37
00000220: a083 d835 b20e 453a 064b 0b39 5322 3036
00000230: 52ad 2837 d9be 4a37 9657 9137 045d 0238
00000240: 777c 7b37 678b 3037 07cc 1338 d8cc a136
00000250: 66e9 d736 e132 bc37 da5d 7338 bfa6 3937
00000260: 71ea cd36 0f9f e237

exp_avg f4 [7, 7]
-0.00040774778 0.0002045662 0.0012584085 0.001345973 0.00089700136 0.00072932127 0.00088741555 0.00040046268
0.00039855065 0.0029166385 0.0018404523 0.00088215497 0.00072005234 0.0010046375 7.560661e-05 -0.0006606296
-0.016053518 0.0026312086 0.0025261927 0.0035963578 0.0014660751 0.00053067284 0.00023743176 0.0036082144
-0.009613571 0.000577212 0.0036049013 0.0055497074 -0.00014488096 -3.6587921e-06 0.0023736192 0.003425287
-0.006643527 0.00038604147 0.0017363013 -0.00028822644 -0.00026945138 9.1644215e-05 -3.0556916e-05 6.0087357e-05
-0.013009733 0.00093878293 -0.0005299821 -0.0003120108 0.0033776902 0.0004669964 -0.0003682332 0.00010452669
-0.014838267
00000000: fbc6 d5b9 d280 5639 2ff1 a43a 5c6b b03a
00000010: be24 6b3a ec2f 3f3a 73a1 683a 31f5 d139
00000020: 90f4 d039 1325 3f3b 553b f13a 6b40 673a
00000030: e5c1 3c3a 0aae 833a fd8e 9e38 1a2e 2dba
00000040: ab82 83bc 5b70 2c3b 7b8e 253b dfb0 6b3b
00000050: 5129 c03a da1c 0b3a 1af7 7839 cb77 6c3b
00000060: 3d82 1dbc 0b50 173a 3540 6c3b 52da b53b
00000070: 30eb 17b9 9289 75b6 b98e 1b3b c87a 603b
00000080: f2b1 d9bb 9c65 ca39 9b94 e33a 191d 97b9
00000090: 2745 8db9 1d31 c038 3d2a 00b8 4f06 7c38
000000a0: c626 55bc a818 763a 7fee 0aba 6195 a3b9
000000b0: 3d5c 5d3b 32d7 f439 6c0f c1b9 5735 db38
000000c0: 341c 73bc

exp_avg_sq f4 [7, 7]
2.226661e-06 2.5948876e-07 7.8852094e-07 1.7898053e-06 5.359625e-07 1.9885813e-07 5.992349e-07 2.9119548e-07
5.118679e-07 6.1224455e-06 2.949154e-06 9.159741e-07 4.2276884e-07 1.2374796e-06 1.7607061e-06 5.6720755e-06
0.00012636212 3.7998583e-05 8.7678545e-06 3.956929e-06 1.0772758e-05 1.4891026e-06 4.5025845e-06 1.6176677e-05
0.00012868395 6.166745e-06 3.1929287e-06 2.1078095e-05 1.0960243e-06 1.7583048e-06 7.051535e-06 1.9121462e-05
3.2807813e-05 9.618308e-07 5.7513626e-06 2.6765952e-07 2.9777968e-07 1.3199685e-06 3.0935373e-06 6.344782e-07
3.2244097e-05 2.371836e-06 2.6691755e-06 2.737354e-06 1.7554783e-05 3.2735476e-05 8.980126e-06 5.205858e-06
0.000120624136
00000000: bf6d 1536 dd4f 8b34 bfaa 5335 3e39 f035
00000010: 10df 0f35 b585 5534 1cdb 2035 9a55 9c34
00000020: 4b67 0935 686f cd36 14ea 4536 43e1 7535
00000030: e8f8 e234 7a17 a635 6751 ec35 c252 be36
00000040: 1380 0439 ab60 1f38 a619 1337 c3c5 8436
00000050: a5bc 3437 2ddd c735 e814 9736 26b3 8737
00000060: 56ef 0639 f0eb ce36 1946 5636 ddd0 b037
00000070: 1c1b 9335 e5fe eb35 399c ec36 0767 a037
00000080: 1f9b 0938 4118 8135 d4fb c036 d8b2 8f34
00000090: 87de 9f34 c629 b135 919a 4f36 0351 2a35
000000a0: d63d 0738 d52b 1f36 1620 3336 62b3 3736
000000b0: 9c42 9337 734d 0938 59a9 1637 fbad ae36
000000c0: 97f7 fc38

exp_avg f4 [7]
0.004930569 0.008174367 -0.0064187218 0.004488484 0.0011422046 -0.012498533 -0.012102095
00000000: 9c90 a13b c8ed 053c 2454 d2bb 2214 933b
00000010: 07b6 953a a6c6 4cbc de47 46bc

exp_avg_sq f4 [7]
2.8924474e-05 4.781339e-05 0.00072278024 0.00060354057 0.00028063921 0.00012036917 0.0007773807
00000000: d6a2 f237 3d8b 4838 f678 3d3a ec36 1e3a
00000010: c222 9339 b56e fc38 23c9 4b3a

exp_avg f4 [7]
0.004932633 0.008173248 -0.0064222175 0.004491521 0.001145609 -0.012496058 -0.012101085
00000000: eda1 a13b 16e9 053c 7771 d2bb 9c2d 933b
00000010: 4228 963a 44bc 4cbc a143 46bc

exp_avg_sq f4 [7]
2.8925493e-05 4.7811493e-05 0.00072278234 0.0006035369 0.00028063988 0.00012036811 0.0007773802
00000000: 06a5 f237 3389 4838 1a79 3d3a ad36 1e3a
00000010: d922 9339 236e fc38 1ac9 4b3a

exp_avg f4 [7, 22]
6.15767e-05 0.00086085725 -0.0052765715 -0.00076797133 0.0008011633 -0.005235613 -0.001074853 0.0009770241
0.00021694263 0.0006434786 0.0013655929 0.0011752102 0.0008497395 0.0004192754 0.00075178285 0.0004406612
0.0015334012 0.00036635983 0.0015679699 0.000413705 0.0006635659 0.00043910323 -0.012989417 -0.00037885338
-0.0066401022 -0.010726202 0.003229762 -0.0033219112 -0.032987118 -0.00084014056 0.0019219844 -0.0064778808
0.0029253468 0.004204193 0.0021891522 7.564591e-05 -0.0006308716 0.00044149064 -0.00090094976 9.143679e-05
0.003201957 0.00029542402 0.0015480872 -0.00046548535 0.00025668895 0.00042353934 -0.0018433861 -0.00011950452
0.0003329164 -0.0018838589 0.0001688682 0.00045399152 0.00020528714 0.00033385106 0.00042605156 0.0003018844
0.00025229124 0.00016025806 0.00026417838 0.00015043761 0.0005940421 0.0001341072 0.00052846386 0.00014844412
0.00021015883 0.00017641783 0.01016046 0.0058156503 -0.023883551 0.005387119 0.0026798933 -0.02637326
0.023302903 0.0056881253 0.0011811854 0.0058438787 0.005426626 0.0028133695 0.003639862 0.0025676962
0.004708022 0.0017154942 0.00951713 0.0018329049 0.0062469337 0.0018988758 0.0024176901 0.0025471228
0.00040193662 0.00061078736 -0.0018048424 -1.1137921e-05 0.00040769222 -0.0019180484 0.00039154672 0.00067614013
0.00035844333 0.00055782986 0.000139033 0.00048586517 -5.1700026e-05 0.00013752219 0.00038852528 0.00016624233
0.0005666069 0.00015680736 0.00048640638 0.00018014364 0.0002650877 0.00018765482 0.0054085073 -0.007905354
0.042341825 0.009610292 -0.008362355 0.04119246 0.0173105 -0.008079137 -0.004548643 -0.0017056668
-0.0066192667 -0.013269221 -0.008361191 -0.0031350197 -0.005159457 -0.0031709552 -0.011357842 -0.002834609
-0.012932699 -0.0032850082 -0.006085745 -0.003130239 -0.00015297793 -0.00119038 0.007816473 0.0003543942
-0.0012717898 0.007668631 0.0011290599 -0.0007581351 -0.00022790143 0.0011617435 -0.004418841 -0.00084657746
-0.0010842019 -0.0007702784 -0.0014304619 -0.00053660164 -0.002334264 -0.000456389 -0.0024827549 -0.00048528385
-0.0008839487 -0.0004428205
00000000: bd22 8138 27ab 613a 17e7 acbb af51 49ba
00000010: 2905 523a 818f abbb 15e2 8cba 7d0f 803a
00000020: 187b 6339 1eaf 283a b2fd b23a 8309 9a3a
00000030: 0dc1 5e3a 31d2 db39 4b13 453a 8c08 e739
00000040: 68fc c83a fc13 c039 5784 cd3a 8ce6 d839
00000050: 27f3 2d3a 7037 e639 90d1 54bc d7a0 c6b9
00000060: 3795 d9bb f4bc 2fbc 6aaa 533b 6cb4 59bb
00000070: 801d 07bd e13c 5cba 18eb fb3a 6744 d4bb
00000080: 2db7 3f3b 54c3 893b e177 0f3b 17a4 9e38
00000090: 1461 25ba df77 e739 b72d 6cba c1c1 bf38
000000a0: edd7 513b 24e3 9a39 30e9 ca3a 630c f4b9
000000b0: 3594 8639 7d0e de39 c69d f1ba 809e fab8
000000c0: 488b ae39 d1eb f6ba 3612 3139 b605 ee39
000000d0: 5942 5739 bb08 af39 ac5f df39 3d46 9e39
000000e0: f545 8439 f20a 2839 6c81 8a39 cabe 1d39
000000f0: 7eb9 1b3a 219f 0c39 9c88 0a3a aaa7 1b39
00000100: 155e 5c39 cdfc 3839 0f78 263c 3691 be3b
00000110: 70a7 c3bc 6e86 b03b 26a1 2f3b bc0c d8bc
00000120: bbe5 be3c 7463 ba3b 01d2 9a3a 027e bf3b
00000130: d7d1 b13b 8260 383b c08a 6e3b cb46 283b
00000140: c045 9a3b 6fda e03a bded 1b3c 153e f03a
00000150: 14b3 cc3b b3e3 f83a 1c72 1e3b a1ed 263b
00000160: 05bb d239 3f1d 203a 7690 ecba 02dd 3ab7
00000170: 86bf d539 0667 fbba 8348 cd39 ff3e 313a
00000180: 73ed bb39 543b 123a 63c9 1139 b8bb fe39
00000190: 7bd8 58b8 d533 1039 fbb2 cb39 5651 2e39
000001a0: 5888 143a a86c 2439 5c04 ff39 f1e4 3c39
000001b0: 78fb 8a39 35c5 4439 d939 b13b 7585 01bc
000001c0: 9f6e 2d3d 7c74 1d3c 4202 09bc 6db9 283d
000001d0: c0ce 8d3c 5b5e 04bc c80c 95bb ae90 dfba
000001e0: 6fe6 d8bb 2667 59bc 60fd 08bc e774 4dbb
000001f0: aa10 a9bb cdcf 4fbb 3e16 3abc d9c4 39bb
00000200: ace3 53bc 4b49 57bb ee6a c7bb b224 4dbb
00000210: b368 20b9 8606 9cba aa10 003c fccd b939
00000220: 2fb2 a6ba 2449 fb3b f7fc 933a 96bd 46ba
00000230: d3f8 6eb9 a545 983a edcb 90bb daec 5dba
00000240: c71b 8eba 82ec 49ba 567e bbba baaa 0cba
00000250: 74fa 18bb 7f47 efb9 b7b5 22bb b26d feb9
00000260: cbb8 67ba 5d2a e8b9

exp_avg_sq f4 [7, 22]
8.5699054e-07 4.522599e-06 4.4029766e-05 1.7261943e-06 3.6734148e-06 4.399366e-05 5.8860937e-06 4.5205143e-06
2.804781e-06 8.864113e-07 1.4235195e-06 1.4849473e-06 8.9576616e-07 2.974238e-07 6.3274933e-07 4.8937295e-07
4.0846426e-06 3.2597052e-07 3.3696208e-06 3.3620074e-07 5.064438e-07 4.3765687e-07 0.0001262989 7.218484e-05
0.0009850038 2.9444944e-05 3.04999e-05 0.0011207904 0.000479675 8.5730135e-05 1.6762955e-05 6.832597e-05
4.054915e-05 2.2606055e-05 1.6744512e-05 8.433297e-06 2.533432e-05 8.39461e-06 0.00010930546 7.685432e-06
7.6055665e-05 7.461013e-06 1.1043791e-05 1.4584377e-05 6.669915e-07 4.379755e-07 5.422155e-06 2.2026609e-07
1.4276866e-07 6.151104e-06 2.9999517e-06 5.176135e-07 1.1245494e-07 3.3628706e-07 2.085027e-07 1.2341518e-07
1.146195e-07 4.7748674e-08 1.276114e-07 6.077395e-08 4.8039533e-07 5.8730343e-08 3.7254733e-07 4.2384162e-08
6.212516e-08 1.1027005e-07 3.7816048e-05 7.118656e-05 0.0013015072 6.200227e-05 5.977921e-05 0.0012862191
0.00030643088 7.897483e-05 2.9088917e-05 3.5644756e-05 5.526725e-05 5.252381e-05 2.487022e-05 8.755406e-06
2.4406649e-05 1.3286445e-05 0.000116194184 8.392484e-06 0.00010101856 9.350174e-06 1.6729477e-05 1.1461677e-05
4.064037e-07 1.3512522e-06 2.789103e-05 9.794396e-07 1.0779537e-06 2.7537972e-05 2.3334846e-06 1.3719817e-06
4.2171058e-07 5.8860564e-07 1.1717069e-06 6.637052e-07 1.5706208e-06 2.287444e-07 4.047677e-07 2.447111e-07
2.6340351e-06 1.6838445e-07 2.2144748e-06 1.7695997e-07 3.061991e-07 2.5208186e-07 3.1306788e-06 1.6044964e-05
0.0004146869 1.4472128e-05 1.5258224e-05 0.0004036924 4.230881e-05 1.7321523e-05 5.835716e-06 3.2984383e-06
1.6292932e-05 2.7389677e-05 1.3106306e-05 5.6295053e-06 6.35859e-06 2.8217285e-06 3.5484987e-05 2.1141834e-06
3.5651585e-05 2.6517307e-06 6.586106e-06 2.76391e-06 5.835328e-06 4.703452e-06 8.852129e-05 1.041678e-06
2.3489188e-06 9.552989e-05 1.9698784e-05 5.02543e-06 9.784218e-07 3.8621524e-06 5.4745433e-06 1.7729249e-06
1.5385534e-06 7.978845e-07 3.659639e-06 6.831238e-07 9.41884e-06 6.073823e-07 6.8694612e-06 5.890573e-07
9.4312117e-07 1.017722e-06
00000000: f10b 6635 d4c0 9736 9aac 3838 96af e735
00000010: c984 7636 d585 3838 2981 c536 ecae 9736
00000020: c539 3c36 b9f1 6d35 c20f bf35 674e c735
00000030: 9574 7035 9ead 9f34 34da 2935 745d 0335
00000040: d00e 8936 0c01 af34 a521 6236 147f b434
00000050: 8ef2 0735 1af7 ea34 1a6f 0439 f161 9738
00000060: 3e1b 813a 8900 f737 09da ff37 7ce7 923a
00000070: e47c fb39 04ca b338 2c9e 8c37 3a4a 8f38
00000080: 5113 2a38 22a2 bd37 9176 8c37 bc7c 0d37
00000090: 0a85 d437 93d6 0c37 ec3a e538 aef0 0037
000000a0: 1380 9f38 9d59 fa36 b948 3937 6caf 7437
000000b0: 4f0b 3335 e522 eb34 f5ef b536 4882 6c34
000000c0: f34b 1934 9565 ce36 c752 4936 21f2 0a35
000000d0: c27e f133 f18a b434 c9e0 5f34 1b84 0434
000000e0: bd24 f633 3914 4d33 8e05 0934 d582 8233
000000f0: 84f4 0035 b23e 7c33 8402 c834 e109 3633
00000100: ab69 8533 9acd ec33 ac9c 1e38 fe49 9538
00000110: 5697 aa3a 3707 8238 70bb 7a38 5a96 a83a
00000120: 75a8 a039 4a9f a538 f903 f437 4481 1538
00000130: c2ce 6738 034d 5c38 64a0 d037 2fe4 1237
00000140: e1bc cc37 d9e8 5e37 47ad f338 72cd 0c37
00000150: edd9 d338 b1de 1c37 4756 8c37 874b 4037
00000160: b32f da34 ac5c b535 88f7 e937 4a75 8335
00000170: 35ae 9035 5801 e737 f698 1c36 ef24 b835
00000180: 7667 e234 ac00 1e35 8b43 9d35 7929 3235
00000190: 1fce d235 c89c 7534 d94e d934 d660 8334
000001a0: 61c4 3036 2acd 3434 639c 1436 6302 3e34
000001b0: af63 a434 de55 8734 a718 5236 4c98 8637
000001c0: 556a d939 51cd 7237 93fd 7f37 ada6 d339
000001d0: bd74 3138 b04d 9137 6bd0 c336 bd5a 5d36
000001e0: ceac 8837 e2c2 e537 28e3 5b37 15e5 bc36
000001f0: df5b d536 ed5c 3d36 b7d5 1438 65e1 0d36
00000200: 9988 1538 63f4 3136 38fe dc36 9d7b 3936
00000210: 16cd c336 58d2 9d36 81a4 b938 c9cf 8b35
00000220: 1ea2 1d36 3857 c838 d13e a537 1da0 a836
00000230: 5152 8335 a397 8136 f8b1 b736 3cf5 ed35
00000240: 4b80 ce35 352e 5635 1f98 7536 e95f 3735
00000250: 9c05 1e37 fe0a 2335 3980 e636 b61f 1e35
00000260: cb2a 7d35 a998 8835

exp_avg f4 [7, 7]
-0.00026978788 0.0012846555 0.00020632558 0.0020377194 0.00042161145 0.0011320652 0.00061224244 0.0006429911
-0.013302576 -1.5993912e-05 0.0077205617 0.0015097215 0.0057288944 0.0019187555 0.00011287687 0.00067483843
8.37865e-05 0.00047752846 0.00012306981 0.00025606045 0.00022140492 0.0015548189 0.014605368 0.0011301648
-0.0047670403 0.0019518506 0.0067412537 0.004974606 0.00014334742 0.00095240836 6.632937e-05 0.0007641607
-0.00093920954 0.00092475547 9.7947275e-05 -0.0013905131 -0.004490077 -0.00132227 -0.0059148395 -0.0029978717
-0.026230512 -0.00044522647 -0.0003297648 0.0012676552 -0.00033347588 -0.0013688315 -0.00036494635 -7.00613e-05
-0.0064186268
00000000: 5172 8db9 e361 a83a 1a59 5839 428b 053b
00000010: bb0b dd39 ce61 943a e57e 203a 678e 283a
00000020: 0cf3 59bc aa2a 86b7 c4fc fc3b d9e1 c53a
00000030: 73b9 bb3b c07e fb3a 4fb8 ec38 a4e7 303a
00000040: 89b6 af38 c95c fa39 4d0c 0139 da3f 8639
00000050: ee28 6839 11cb cb3a 5a4b 6f3c 0a22 943a
00000060: d534 9cbb 3dd5 ff3a bce5 dc3b 0502 a33b
00000070: 884f 1639 0bab 793a 4f1a 8b38 f551 483a
00000080: 4935 76ba 4a6b 723a 0b69 cd38 e141 b6ba
00000090: 7f21 93bb 0550 adba 45d1 c1bb f177 44bb
000000a0: 5fe1 d6bc 496d e9b9 48e4 acb9 7327 a63a
000000b0: 60d6 aeb9 5d6a b3ba 4556 bfb9 e0ed 92b8
000000c0: 5853 d2bb

exp_avg_sq f4 [7, 7]
2.6851035e-06 2.4319734e-06 1.4892794e-07 6.9908615e-06 2.2450888e-07 4.5076072e-07 2.6808442e-07 4.730023e-06
0.00027411742 3.2352257e-06 8.684105e-05 4.177721e-06 8.271533e-06 8.948381e-06 4.1035868e-08 1.3394805e-06
2.4409765e-08 4.68793e-07 2.6642088e-08 5.210844e-08 6.565525e-08 6.9550647e-06 0.00011747346 3.5101473e-06
0.0002775564 6.665192e-06 1.4367568e-05 7.3894935e-06 1.7924923e-07 2.08975e-06 7.885446e-08 1.9807558e-06
2.0173488e-06 3.346361e-07 1.6686855e-07 8.9627855e-07 1.4099319e-05 6.416265e-07 2.1890573e-05 2.175527e-06
8.4563675e-05 1.1426711e-06 3.194377e-07 1.6225747e-05 2.3670817e-07 3.8283724e-06 3.9046134e-07 5.2978726e-07
7.585945e-06
00000000: ba31 3436 fc34 2336 00e9 1f34 0b93 ea36
00000010: 8810 7134 1500 f234 3eed 8f34 97b6 9e36
00000020: 6bb7 8f39 c11c 5936 6f1e b638 5a2e 8c36
00000030: f7c5 0a37 0121 1637 6a3f 3033 33c8 b335
00000040: a4ad d132 6bae fb34 92da e432 d6cd 5f33
00000050: 5bfe 8c33 8d5f e936 155c f638 df8f 6b36
00000060: fd84 9139 90a5 df36 3c0c 7137 44f3 f736
00000070: a777 4034 a23d 0c36 b356 a933 20ed 0436
00000080: ca61 0736 09a8 b334 7a2c 3334 cb97 7035
00000090: 1d8c 6c37 3d3c 2c35 a6a1 b737 45ff 1136
000000a0: c757 b138 e15d 9935 2f7f ab34 871c 8837
000000b0: d929 7e34 7875 8036 99a0 d134 b436 0e35
000000c0: c58a fe36

exp_avg f4 [7]
0.0054234327 0.0042074616 0.001955026 0.026185093 0.0020175623 -0.042785708 -0.007612291
00000000: 0db7 b13b bfde 893b e51f 003b 1f82 d63c
00000010: 1439 043b 1140 2fbd 8670 f9bb

exp_avg_sq f4 [7]
4.96629e-05 0.0011872684 6.550613e-06 0.0014185075 2.9905494e-05 0.00043468378 9.941296e-05
00000000: 224d 5038 1e9e 9b3a 56cd db36 37ed b93a
00000010: 8fdd fa37 45e6 e339 ed7b d038

exp_avg f4 [7]
0.0054235305 0.004204621 0.0019539732 0.026181545 0.002015467 -0.04278768 -0.0076100067
00000000: dfb7 b13b ebc6 893b 3b0e 003b ae7a d63c
00000010: ed15 043b 2242 2fbd 5d5d f9bb

exp_avg_sq f4 [7]
4.9662987e-05 0.0011872703 6.55003e-06 0.0014185089 2.9905179e-05 0.00043468652 9.941371e-05
00000000: 3a4d 5038 2e9e 9b3a 54c8 db36 43ed b93a
00000010: e2dc fa37 a3e6 e339 547c d038

exp_avg f4 [7, 22]
-0.004318755 -0.00053829775 -0.012157765 -0.0039503607 -2.1259448e-05 -0.011503096 -0.010680736 0.000116826326
-0.00012984258 0.0012659484 0.0030737254 0.0032476112 0.001692951 0.0015229677 0.0015662115 0.0015047394
0.0014928969 0.0012086283 0.0012260206 0.0017495923 0.0016144762 0.0034541434 -0.005883164 0.0025214104
-0.031242436 -0.011013347 0.0034457375 -0.030110465 -0.01963793 0.004166129 0.0032947478 0.0026309895
0.007568897 0.007639139 0.0037792386 0.0035549658 0.0039881207 0.0038700774 0.0048798025 0.0039326507
0.0032085609 0.0046290094 0.0040661776 0.007884849 -0.0061665797 0.0004592331 -0.009507757 -0.0074920575
0.0018368709 -0.0082153035 -0.0161974 0.0010964065 0.0010068376 0.0011475155 0.0015071089 0.0022531913
0.0009867074 0.0009564692 0.0011432937 0.0011596378 0.0005472685 0.0006484592 0.0008825844 0.0016005858
0.0010223022 0.003132722 -0.002013473 0.00045427735 -0.010699682 -0.0035231984 0.0009489534 -0.010353833
-0.0062639914 0.0010497643 0.00096123654 0.0012235775 0.0026834398 0.0021523286 0.0011874551 0.0011839467
0.0017890917 0.0013049508 0.0017269583 0.0012865572 0.0012419798 0.0015547094 0.0014101027 0.0026359083
0.008256756 -0.008403754 0.062176123 0.020646408 -0.008821739 0.058663085 0.044504263 -0.00967476
-0.0062501295 -0.0055234944 -0.009535369 -0.019094707 -0.009501262 -0.0081386175 -0.0052575707 -0.008517719
-0.0094819935 -0.008041278 -0.0057970234 -0.008114453 -0.008275857 -0.015079825 -0.0023047882 0.0013209204
-0.020079054 -0.004925445 0.0020504592 -0.019852215 -0.009187854 0.0022444725 0.0017909596 0.0020187364
0.005354401 0.004952177 0.0025392142 0.0016986271 0.002479884 0.0024287135 0.0032536 0.0026639109
0.0019298239 0.002904127 0.0027242 0.004924966 0.011797885 0.0039541093 0.02615278 0.010194754
0.0004473283 0.026162002 0.016855631 0.0006158161 -0.00083423324 -0.0035533276 -0.012708596 -0.0020713725
-0.001046849 -0.001083103 -0.006178243 -0.0023243204 -0.0033255946 -0.0024742268 -0.0030487145 -0.0050634285
-0.0031749436 -0.008062909
00000000: 5884 8dbb 8d1c 0dba 5d31 47bc 0772 81bb
00000010: 5156 b2b7 7b77 3cbc 41fe 2ebc a800 f538
00000020: 5a26 08b9 2eee a53a 8e70 493b e0d5 543b
00000030: 02e6 dd3a 519e c73a 5649 cd3a ad3a c53a
00000040: 4fad c33a d66a 9e3a 6db2 a03a 9352 e53a
00000050: d59c d33a e95e 623b 8ec7 c0bb 3f3e 253b
00000060: 23f0 ffbc 5371 34bc e2d1 613b 39aa f6bc
00000070: b9df a0bc 0684 883b b2ec 573b ae6c 2c3b
00000080: 8304 f83b be51 fa3b 1aad 773b 6efa 683b
00000090: c8ae 823b 20a1 7d3b c0e6 9f3b 77dd 803b
000000a0: b846 523b f2ae 973b 923d 853b 742f 013c
000000b0: 0511 cabb 39c5 f039 6cc6 1bbc ef7f f5bb
000000c0: 29c3 f03a 7b99 06bc 69b0 84bc 4cb5 8f3a
000000d0: ddf7 833a 3b68 963a 2f8a c53a 47aa 133b
000000e0: 6854 813a 90bb 7a3a 92da 953a fdfe 973a
000000f0: 9176 0f3a 5cfd 293a 3d5d 673a bfca d13a
00000100: c5fe 853a 5b4e 4d3b 79f4 03bb 132c ee39
00000110: b84d 2fbc 76e5 66bb 2fc3 783a 20a3 29bc
00000120: 2b42 cdbb 3f98 893a 7efb 7b3a 7360 a03a
00000130: a6dc 2f3b 150e 0d3b 62a4 9b3a a92e 9b3a
00000140: f57f ea3a e20a ab3a 1b5b e23a b2a1 a83a
00000150: edc9 a23a 64c7 cb3a 32d3 b83a 34bf 2c3b
00000160: 5847 073c e6af 09bc 64ac 7e3d a822 a93c
00000170: 0e89 10bc b448 703d 1a4a 363d e282 1ebc
00000180: e3cd ccbb 6efe b4bb 3d3a 1cbc 816c 9cbc
00000190: 2eab 1bbc d657 05bc b347 acbb e78d 0bbc
000001a0: 5d5a 1bbc 91bf 03bc f5f4 bdbb 7cf2 04bc
000001b0: 7697 07bc 5f11 77bc ee0b 17bb bc22 ad3a
000001c0: d47c a4bc a165 a1bb ff60 063b 1da1 a2bc
000001d0: a788 16bc 0018 133b a2be ea3a c74c 043b
000001e0: f973 af3b df45 a23b f268 263b 78a4 de3a
000001f0: 8d85 223b 0d2b 1f3b 5a3a 553b 0295 2e3b
00000200: 25f2 fc3a 2a53 3e3b 7e88 323b 9c61 a13b
00000210: eb4b 413c 7991 813b 5b3e d63c e607 273c
00000220: 6387 ea39 b251 d63c d214 8a3c b86e 213a
00000230: 72b0 5aba f2de 68bb b737 50bc ddbf 07bb
00000240: 6c36 89ba e8f6 8dba dc72 cabb a053 18bb
00000250: 38f2 59bb a326 22bb f1cc 47bb 1eeb a5bb
00000260: b712 50bb 4b1a 04bc

exp_avg_sq f4 [7, 22]
1.15851935e-05 1.289546e-05 0.000117411895 1.3681714e-05 1.484806e-05 0.00011593505 2.0050384e-05 1.6440044e-05
9.146057e-06 3.4780855e-06 3.885911e-06 4.1164917e-06 1.997278e-06 1.0884024e-06 1.4659399e-06 2.3247721e-06
7.707554e-06 3.0025542e-06 2.6880193e-06 1.8384925e-06 2.3588887e-06 3.023266e-06 0.000102511745 2.8178329e-06
0.00047143336 4.564139e-05 2.5082452e-06 0.0005289243 0.00026940915 3.9545575e-06 6.499658e-06 4.4084212e-05
1.6037338e-05 1.42307745e-05 8.697771e-06 3.860675e-06 1.0097644e-05 8.734552e-06 3.054915e-05 1.3805835e-05
1.2449025e-05 6.2196104e-06 1.2128761e-05 9.139089e-06 0.00013895796 4.7842914e-06 0.00037693063 5.061159e-05
9.0750166e-07 0.0004672661 0.00046777827 6.595238e-06 5.1035695e-06 9.568194e-06 4.535449e-05 1.4672119e-05
8.023499e-06 4.5826546e-06 6.619632e-06 6.3918988e-06 3.6047943e-05 1.6226402e-05 6.4556766e-06 5.23026e-06
1.0714804e-05 5.8979786e-06 6.273868e-06 4.3104774e-07 4.681863e-05 6.9076696e-06 5.6553336e-07 4.6144312e-05
2.8681012e-05 7.4385963e-07 6.442952e-07 1.5723526e-06 2.3155421e-06 1.4110249e-06 8.4087435e-07 6.409525e-07
2.1737758e-06 8.5304663e-07 1.8484664e-06 5.9052763e-07 1.7872067e-06 6.796167e-07 1.1277717e-06 1.5465158e-06
1.7231503e-05 8.321242e-06 0.00044674237 5.5074546e-05 1.16685405e-05 0.0004053391 0.00023464838 1.4434476e-05
4.328008e-06 4.6613723e-06 2.009476e-05 3.117665e-05 9.696849e-06 6.064633e-06 7.0879173e-06 8.074121e-06
1.1125839e-05 6.744984e-06 5.606944e-06 8.151234e-06 8.225967e-06 2.6703885e-05 2.2785009e-05 1.1620676e-06
0.00017066834 4.405973e-05 2.2205352e-06 0.00014899921 0.00015468222 3.1998002e-06 1.8507851e-06 4.6274263e-06
7.3295073e-06 5.4429142e-06 2.972457e-06 5.0601247e-06 4.650173e-06 3.506396e-06 5.957426e-06 2.2073489e-06
6.468078e-06 2.8114316e-06 3.0293504e-06 7.3276497e-06 6.641525e-05 1.5891958e-06 0.0008499614 0.00011339821
4.981582e-06 0.0008020539 0.00038708703 5.8490577e-06 5.6636895e-06 1.2442592e-05 6.5407854e-05 2.7155107e-05
1.0685998e-05 6.9523194e-06 4.4909313e-05 1.211642e-05 2.2717628e-05 9.667034e-06 2.1859243e-05 1.6931212e-05
1.5752215e-05 4.7619018e-05
00000000: 075e 4237 9459 5837 083b f638 848a 6537
00000010: ef1b 7937 2822 f338 df31 a837 bae8 8937
00000020: 0472 1937 0e69 6936 b963 8236 6520 8a36
00000030: fa08 0636 3915 9235 50c1 c435 4803 1c36
00000040: b14f 0137 7d7f 4936 d263 3436 1fc2 f635
00000050: 664d 1e36 50e3 4a36 93fb d638 001a 3d36
00000060: b72a f739 126f 3f38 5353 2836 82a7 0a3a
00000070: 7c3f 8d39 64b1 8436 a317 da36 10e7 3838
00000080: ec87 8637 b6c0 6e37 a4ec 1137 f28a 8136
00000090: 0d69 2937 9d8a 1237 e621 0038 9c9f 6737
000000a0: 28dc 5037 0cb2 d036 a27c 4b37 1754 1937
000000b0: 3eb5 1139 c088 a036 c69e c539 c847 5438
000000c0: 0a9b 7335 65fb f439 2340 f539 aa4c dd36
000000d0: 543f ab36 1587 2037 033b 3e38 4528 7637
000000e0: aa9c 0637 b4c4 9936 351e de36 fe79 d636
000000f0: 2f32 1738 ef1d 8837 d79d d836 977f af36
00000100: bcc3 3337 40e7 c536 1e84 d236 c06a e734
00000110: 1f5f 4438 6ec8 e736 28cf 1735 148b 4138
00000120: 0198 f037 a5ad 4735 a1f3 2c35 a009 d335
00000130: b664 1b36 7262 bd35 72b8 6135 ec0d 2c35
00000140: 2fe1 1136 ebfc 6435 d218 f835 c084 1e35
00000150: f4df ef35 e76e 3635 f15d 9735 e191 cf35
00000160: 5f8c 9037 769b 0b37 bf38 ea39 d8ff 6638
00000170: 00c4 4337 b183 d439 f20b 7639 9a2b 7237
00000180: 4e39 9136 e268 9c36 2b91 a837 acc3 0238
00000190: a6af 2237 cd7e cb36 bfd4 ed36 1676 0737
000001a0: 1da9 3a37 f952 e236 4823 bc36 49c1 0837
000001b0: 4202 0a37 2802 e037 6f22 bf37 57f8 9b35
000001c0: 6ff5 3239 c6cc 3838 8104 1536 ac3c 1c39
000001d0: 3132 2239 26bc 5636 7e68 f835 4a45 9b36
000001e0: fdef f536 47a2 b636 6c7a 4736 24ca a936
000001f0: af08 9c36 6d4f 6b36 e6e5 c736 f721 1436
00000200: 5e08 d936 07ac 3c36 d84b 4b36 08e0 f536
00000210: 6a48 8b38 5a4c d535 f2cf 5e3a 33d0 ed38
00000220: 7727 a736 ed40 523a f1f1 ca39 0643 c436
00000230: b90a be36 87c0 5037 932b 8938 26cb e337
00000240: 0348 3337 f847 e936 025d 3c38 a147 4b37
00000250: bc91 be37 982f 2237 5e5e b737 8007 8e37
00000260: a023 8437 88ba 4738

exp_avg f4 [7, 7]
-0.00039928226 0.0011109432 0.0009322507 0.00079757394 0.00467476 0.001323154 0.0038103305 0.0030424523
0.0021924018 0.0032948966 0.0021488268 0.009641375 0.0029837762 0.009166123 0.0011312956 0.00076638814
-0.0019172787 0.00057831616 0.0035335931 0.0008211707 0.004084381 0.0009226728 0.0011995006 0.00092949474
0.000783223 0.0020279856 0.0011724369 0.004149184 -0.0057796147 -0.006970776 -0.0056241197 -0.003987467
-0.030288314 -0.0058850087 -0.004760001 0.0016035069 0.002171225 0.0019762104 0.0011167254 0.0066475864
0.0005739368 0.00675854 -0.00082968245 -0.0016190739 -0.0011543388 -0.0020443306 0.0041815583 -0.0015521339
-0.024461517
00000000: c256 d1b9 119d 913a 4962 743a 4814 513a
00000010: bb2e 993b ae6d ad3a bdb6 793b e163 473b
00000020: 66ae 0f3b 31ef 573b 55d3 0c3b dcf6 1d3c
00000030: 758b 433b 822d 163c fb47 943a 70e7 483a
00000040: 334d fbba 249a 173a db93 673b d543 573a
00000050: 45d6 853b 86df 713a 9038 9d3a 56a9 733a
00000060: 3551 4d3a f4e7 043b 74ac 993a e1f5 873b
00000070: ec62 bdbb 1b6b e4bb 894a b8bb 4ca9 82bb
00000080: 331f f8bc 08d7 c0bb c8f9 9bbb c32c d23a
00000090: 1c4b 0e3b 4f83 013b 165f 923a ffd3 d93b
000000a0: 3f74 163a be76 dd3b 0c7f 59ba 1b37 d4ba
000000b0: 2f4d 97ba 2dfa 05bb 7405 893b f970 cbba
000000c0: 8563 c8bc

exp_avg_sq f4 [7, 7]
1.2036948e-05 7.088971e-06 2.010303e-06 1.612405e-06 2.5770628e-06 1.9057377e-06 2.609349e-06 5.899343e-06
0.00010147464 1.3936029e-05 5.6768845e-06 7.7785e-06 6.1580386e-06 1.2995839e-05 3.848646e-06 2.4939698e-05
8.0124715e-05 3.2775388e-06 3.3958995e-06 6.163122e-06 4.2788406e-06 6.44419e-07 2.7442013e-06 1.0825454e-06
8.2635154e-07 9.2034054e-07 1.3600971e-06 6.4680744e-06 4.032112e-06 5.989164e-06 3.8116289e-06 2.6097916e-06
6.195236e-05 4.1856006e-06 2.626709e-05 1.9737336e-06 7.2661337e-06 3.4160234e-06 3.4930736e-06 4.184545e-06
1.3932631e-05 9.775347e-06 5.7021357e-06 1.0458541e-05 4.7610165e-06 9.932459e-06 1.4779911e-05 7.986725e-06
0.00020173682
00000000: 4cf2 4937 ccdd ed36 bee8 0636 d069 d835
00000010: 9af1 2c36 a6c8 ff35 461c 2f36 f8f2 c536
00000020: c8ce d438 cace 6937 117c be36 6780 0237
00000030: 26a1 ce36 b408 5a37 9e23 8136 9835 d137
00000040: a108 a838 b0f3 5b36 1ce5 6336 d1cc ce36
00000050: f692 8f36 23fc 2c35 0529 3836 fa4b 9135
00000060: 72d2 5d35 520d 7735 958c b635 5608 d936
00000070: 944b 8736 87f6 c836 49cb 7f36 e123 2f36
00000080: 6cec 8138 0972 8c36 2558 dc37 7c74 0436
00000090: 9dcf f336 d63e 6536 8c6a 6a36 f868 8c36
000000a0: 32c0 6937 cc00 2437 f954 bf36 1777 2f37
000000b0: d2c0 9f36 96a3 2637 3cf7 7737 b9fe 0537
000000c0: 5189 5339

exp_avg f4 [7]
0.012245135 0.032458745 0.008988991 0.0111918785 -0.06330207 0.020845445 -0.027471922
00000000: d29f 483c 76f3 043d 9046 133c 245e 373c
00000010: 84a4 81bd 11c4 aa3c cc0c e1bc

exp_avg_sq f4 [7]
0.00014553146 0.0005781224 0.0005214881 5.3801145e-05 0.00047383143 0.00019615992 0.00092275644
00000000: ce99 1839 238d 173a 79b4 083a 8aa8 6138
00000010: 946c f839 47b0 4d39 23e5 713a

exp_avg f4 [7]
0.012248848 0.03246397 0.008988283 0.011195758 -0.06330417 0.020841409 -0.027477635
00000000: 64af 483c f1f8 043d 9743 133c 6a6e 373c
00000010: 9ea5 81bd 9abb aa3c c718 e1bc

exp_avg_sq f4 [7]
0.00014553385 0.0005781291 0.00052148907 5.3808137e-05 0.00047383588 0.00019615458 0.00092276593
00000000: 729a 1839 968d 173a 8ab4 083a 0cb0 6138
00000010: 2d6d f839 d8ae 4d39 c6e5 713a

exp_avg f4 [7, 22]
0.0030382762 -0.004275801 -0.007577372 0.01113576 -0.0042481706 -0.0062856413 0.011076694 -0.004623286
-0.0017233626 0.00034161803 0.007545157 -0.0016905755 0.0007508674 -0.00019798905 0.0033260263 0.0016185754
0.00016228319 0.004664624 0.00047264947 0.0005023202 5.6820245e-05 0.00086901896 0.0037806274 -0.00010624997
-0.012196369 0.0033149587 1.3803263e-05 -0.012245789 0.0074221324 -0.00014842935 0.0012020799 0.0012143725
0.0025221396 0.0026854628 0.0018610932 0.0014348875 0.0020554808 0.0017538202 0.0012090286 0.005153879
0.0011772156 0.001122582 0.0011719482 0.0013810289 -0.016119977 0.002892627 0.0494588 -0.019680208
0.0015439057 0.0490619 -0.034209196 0.0028125888 -0.0025604805 -0.0052994615 -0.014985184 -0.008046606
-0.00665634 -0.0045123314 -0.009904252 -0.0077870935 -0.0042316746 -0.021050751 -0.004543017 -0.004392576
-0.0042407955 -0.00572813 4.2820302e-05 7.403336e-05 -0.007051961 0.00018916858 0.00065595744 -0.006847417
-0.00091363804 0.00010600011 0.0003379904 0.0007283787 0.0016831142 0.00074233674 0.0008536955 0.0006425099
0.0016199226 0.00095030374 0.0005011092 0.0027360003 0.0006037835 0.00045957536 0.0005780666 0.0007725539
0.003717883 -0.00013213656 -0.011076106 0.0033501838 -8.687878e-05 -0.011181893 0.0073268735 -0.00014740229
0.0009763576 0.0013870366 0.0023210156 0.0024077548 0.0017482627 0.0012371889 0.0017605633 0.0016385255
0.001108443 0.0043716584 0.0010907099 0.0012069334 0.0010755296 0.0013387321 0.0044580647 -0.00036504964
-0.008659401 0.0040590675 -4.9994407e-05 -0.008758898 0.008828526 -0.00018764306 0.000739903 0.00091160805
0.002205955 0.0019138706 0.0014546198 0.00063785125 0.001475837 0.0014088864 0.0007829105 0.0037065174
0.0007975509 0.0008164971 0.0008130768 0.0010065649 0.008457629 -0.00067618 -0.020293418 0.008817943
-7.374865e-05 -0.020621799 0.018009668 -0.00042145044 0.0014304514 0.0019937623 0.0055897124 0.0043162075
0.0028162273 0.0023245097 0.0033589175 0.0032995825 0.0018625957 0.008743266 0.0019043554 0.00183731
0.0018695708 0.002312168
00000000: d11d 473b 051c 8cbb 9a4b f8bb c372 363c
00000010: 3d34 8bbb c8f7 cdbb 067b 353c ef7e 97bb
00000020: 74e2 e1ba 321b b339 5d3d f73b 4d96 ddba
00000030: dcd5 443a 489b 4fb9 76f9 593b 6126 d43a
00000040: 902a 2a39 b4d9 983b f0cd f739 23ae 033a
00000050: 4652 6e38 e0ce 633a 67c4 773b 85d2 deb8
00000060: 47d3 47bc c73f 593b 9094 6737 90a2 48bc
00000070: 5c35 f33b b3a3 1bb9 1c8f 9d3a 942b 9f3a
00000080: 7b4a 253b 97fe 2f3b edef f33a d612 bc3a
00000090: 3fb5 063b 71e0 e53a 4578 9e3a dfe1 a83b
000000a0: cd4c 9a3a 9a23 933a 0e9c 993a a403 b53a
000000b0: 0b0e 84bc 3a92 3d3b 5095 4a3d 6338 a1bc
000000c0: e15c ca3a 21f5 483d f11e 0cbd 6953 383b
000000d0: bccd 27bb 1ba7 adbb 6b84 75bc e9d5 03bc
000000e0: 6d1d dabb 2edc 93bb 7245 22bc e02a ffbb
000000f0: dca9 8abb a072 acbc 97dd 94bb 99ef 8fbb
00000100: 5ff6 8abb 0ab3 bbbb f399 3338 5c42 9b38
00000110: 2314 e7bb 8e5b 4639 8ff4 2b3a 4c60 e0bb
00000120: 3681 6fba 604c de38 4e34 b139 abf0 3e3a
00000130: f19b dc3a 6099 423a 89ca 5f3a 1c6e 283a
00000140: 9553 d43a ce1d 793a df5c 033a 784e 333b
00000150: 3a47 1e3a 29f3 f039 6589 173a 3785 4a3a
00000160: baa7 733b 238e 0ab9 8e78 35bc c28e 5b3b
00000170: b132 b6b8 4234 37bc 4516 f03b 0090 1ab9
00000180: 40f2 7f3a 3acd b53a 2e1c 183b 6ccb 1d3b
00000190: f625 e53a 2c29 a23a b4c2 e63a cbc3 d63a
000001a0: 2d49 913a 2140 8f3b 27f6 8e3a f731 9e3a
000001b0: c9f8 8c3a 6578 af3a f514 923b 2264 bfb9
000001c0: 29e0 0dbc ed01 853b 16b1 51b8 7b81 0fbc
000001d0: 86a5 103c 0dc2 44b9 0df6 413a fbf8 6e3a
000001e0: c991 103b d7da fa3a f1a8 be3a 7935 273a
000001f0: df70 c13a 62aa b83a 3c3c 4d3a 0be9 723b
00000200: bc12 513a 310a 563a a924 553a b7ee 833a
00000210: de91 0a3c ac41 31ba 623e a6bc 2279 103c
00000220: 81a9 9ab8 0cef a8bc 0389 933c 1ff6 dcb9
00000230: fc7d bb3a c8a9 023b e829 b73b f96e 8d3b
00000240: 7490 383b cd56 183b 4921 5c3b cf3d 583b
00000250: 5722 f43a ea3f 0f3c 909b f93a e5d1 f03a
00000260: 630c f53a be87 173b

exp_avg_sq f4 [7, 22]
4.0667303e-05 4.885013e-06 0.00042022605 2.2881673e-05 7.234974e-06 0.00043579252 0.0001302887 6.2201775e-06
1.6273389e-05 5.5687433e-06 1.6248232e-05 2.1138867e-05 8.9405785e-06 6.036678e-06 1.0528567e-05 8.744259e-06
5.171858e-06 5.128995e-05 4.3210234e-06 6.7393757e-06 5.2007695e-06 6.7732385e-06 9.210288e-06 3.4269937e-07
4.9722337e-05 3.3522904e-06 1.5441458e-07 5.575907e-05 2.4578363e-05 4.015892e-07 9.438151e-07 4.3333043e-06
1.119663e-06 1.5777923e-06 9.431086e-07 5.668222e-07 1.0568699e-06 1.1796185e-06 5.7063625e-07 4.4292296e-06
6.47195e-07 1.8900843e-06 6.0579106e-07 9.2529615e-07 0.00011434745 2.036938e-06 0.0011408898 0.00013577545
2.5907154e-06 0.001118411 0.0004903243 2.1515482e-06 1.0245803e-05 1.9068535e-05 7.956531e-05 3.5280747e-05
2.2648497e-05 1.23796935e-05 3.4592023e-05 2.9704259e-05 1.1092446e-05 0.00011062253 1.1583543e-05 2.7482483e-05
1.16380315e-05 2.2994644e-05 9.110197e-06 1.1150487e-07 3.973708e-05 7.837585e-06 3.1813056e-07 4.0830695e-05
4.162963e-05 1.2731844e-07 7.1515075e-07 8.8694077e-07 1.8869275e-06 1.8734726e-06 9.414451e-07 5.379408e-07
1.0117592e-06 9.679899e-07 5.338814e-07 4.564326e-06 4.2482495e-07 1.335576e-06 4.5718048e-07 7.365577e-07
7.6211754e-06 1.7161565e-07 6.195652e-05 7.4818886e-06 2.2253701e-07 6.197006e-05 3.240498e-05 1.7992777e-07
7.5959986e-07 1.3802877e-06 2.9123196e-06 2.5609793e-06 1.5895162e-06 7.6544956e-07 1.6042517e-06 1.495503e-06
6.949267e-07 4.9023843e-06 6.78353e-07 2.057251e-06 6.84659e-07 1.2905383e-06 3.6171568e-06 5.5241924e-07
8.6955166e-05 4.209313e-06 1.4380205e-07 8.62342e-05 1.7235616e-05 1.389261e-07 1.1792121e-06 1.3719872e-06
2.0117473e-06 2.6059708e-06 1.3517374e-06 3.0803546e-06 2.5491108e-06 1.1349794e-06 1.2196441e-06 9.470515e-06
1.0945118e-06 1.9763324e-06 8.702523e-07 1.2016867e-06 8.19993e-06 7.541908e-07 0.0002270377 1.9333833e-05
1.8849008e-07 0.00021584678 5.8135895e-05 1.8897349e-07 1.5336113e-06 3.3548556e-06 6.5742383e-06 6.1851742e-06
8.7331555e-06 2.8336024e-06 1.0844979e-05 3.3367692e-06 2.7298242e-06 2.2635395e-05 2.5568304e-06 5.7142447e-06
2.268226e-06 3.7955388e-06
00000000: 2f92 2a38 f1e9 a336 c951 dc39 05f2 bf37
00000010: f4c3 f236 157b e439 1b9e 0839 ebb6 d036
00000020: d682 8837 24db ba36 d04c 8837 5f53 b137
00000030: 7eff 1537 ab8e ca36 daa3 3037 4eb4 1237
00000040: ec89 ad36 2a20 5738 4ffd 9036 cc22 e236
00000050: 4582 ae36 ad45 e336 e385 1a37 3efc b734
00000060: f48c 5038 e9f7 6036 28cd 2534 d8de 6938
00000070: a22d ce37 009a d734 7b5a 7d35 cd66 9136
00000080: 5447 9635 88c4 d335 ee29 7d35 ba27 1835
00000090: c6d9 8d35 6253 9e35 d32d 1935 cb9e 9436
000000a0: e7ba 2d35 cdae fd35 a59d 2235 de61 7835
000000b0: d2cd ef38 54b2 0836 e989 953a f25e 0e39
000000c0: 27dc 2d36 a597 923a 1b89 003a 5163 1036
000000d0: 64e5 2b37 5ef5 9f37 4ddc a638 6afa 1338
000000e0: 47fd bd37 61b2 4f37 e716 1138 692d f937
000000f0: b119 3a37 05fe e738 f056 4237 2f8a e637
00000100: f740 4337 9fe4 c037 00d8 1837 7374 ef33
00000110: 5dab 2638 2c7e 0337 88cb aa34 a041 2b38
00000120: 7a9b 2e38 07b5 0834 c9f8 3f35 1b16 6e35
00000130: 5642 fd35 0774 fb35 9db7 7c35 0367 1035
00000140: c8cb 8735 e1eb 8135 0d50 0f35 4327 9936
00000150: 7f13 e434 0b42 b335 6872 f534 dcb7 4535
00000160: 66b9 ff36 5a45 3834 a7ee 8138 ef0c fb36
00000170: 82f2 6e34 ecf5 8138 95ea 0738 2b32 4134
00000180: 4ee7 4b35 5342 b935 4571 4336 4add 2b36
00000190: 5c57 d535 4b79 4d35 ab51 d735 18b9 c835
000001a0: 008b 3a35 297f a436 1018 3635 4e0f 0a36
000001b0: 69c9 3735 8f36 ad35 48be 7236 f649 1435
000001c0: b35b b638 b93d 8d36 0268 1a34 a2d8 b438
000001d0: 3495 9037 b72b 1534 6b45 9e35 1f25 b835
000001e0: 8e01 0736 3de2 2e36 586d b535 17b8 4e36
000001f0: 6411 2b36 9855 9835 a7b2 a335 8de3 1e37
00000200: 24e7 9235 22a1 0436 489b 6935 a449 a135
00000210: 6e92 0937 9973 4a35 f810 6e39 172f a237
00000220: c263 4a34 ee54 6239 f1d6 7338 a3e8 4a34
00000230: 7cd6 cd35 fb23 6136 4798 dc36 3e8a cf36
00000240: 9e84 1237 eb28 3e36 d5f2 3537 42ed 5f36
00000250: 0632 3736 24e1 bd37 0396 2b36 fdbc bf36
00000260: d337 1836 dcb6 7e36

exp_avg f4 [7, 7]
-0.011236249 -0.00039208442 0.0189254 0.0007230986 0.00015437392 -0.00020377492 0.00037934058 0.0021675653
0.00061107165 0.0058336686 0.0013831919 0.00076917285 0.0010101511 0.0012161847 -0.0026614314 -0.0029051732
-0.036816563 -5.9150276e-05 -0.0031276774 -0.0025765973 -0.0038213695 0.0015674605 0.00046554577 0.005283572
-0.0025039779 0.00036305696 0.0006099715 0.00081301836 0.0015055329 0.00089585263 0.005426498 0.0013119802
0.00080551265 0.0007900138 0.001093558 0.0019660643 0.0005598789 0.0053750393 0.00081788097 0.0005289535
-0.0007203355 0.0008026417 0.0032053173 0.0012236593 0.013850426 0.0013701621 0.0010628572 0.0012056921
-0.0001020759
00000000: 3e18 38bc ae90 cdb9 7109 9b3c 538e 3d3a
00000010: 6fdf 2139 6aac 55b9 3be2 c639 b60d 0e3b
00000020: 5330 203a 5c28 bf3b 384c b53a 51a2 493a
00000030: 0c67 843a 6368 9f3a 696b 2ebb b864 3ebb
00000040: f7cc 16bd 2018 78b8 b8f9 4cbb 21dc 28bb
00000050: f16f 7abb 3f73 cd3a 7f14 f439 d021 ad3b
00000060: c719 24bb ae58 be39 7fe6 1f3a bd20 553a
00000070: 4d55 c53a a7d7 6a3a c4d0 b13b c0f6 ab3a
00000080: 0a29 533a ee18 4f3a b855 8f3a 16d9 003b
00000090: d6c4 123a 1921 b03b 1067 563a 78a9 0a3a
000000a0: e6d4 3cba 5f68 523a 4d10 523b 3163 a03a
000000b0: e6ec 623c 0397 b33a 924f 8b3a 5008 9e3a
000000c0: 9511 d6b8

exp_avg_sq f4 [7, 7]
5.585896e-05 2.7200963e-06 7.07377e-05 1.9984768e-06 2.637547e-06 2.2503898e-06 2.8329978e-06 1.3570693e-06
3.977203e-06 3.9770457e-06 6.3879435e-07 1.1403548e-06 6.655203e-07 1.019803e-06 2.1592725e-05 7.1769864e-06
0.00031097917 8.850962e-06 1.16453e-05 6.8531513e-06 1.3512058e-05 8.6573925e-07 3.2675848e-07 5.231497e-06
4.052698e-06 7.4159533e-07 4.2510243e-07 7.3623784e-07 1.3638133e-06 6.618356e-07 1.14347695e-05 1.3513528e-06
9.3925803e-07 4.8329565e-07 1.4296264e-06 1.183168e-06 6.0081953e-07 6.774528e-06 6.2790576e-07 8.825747e-07
1.1875572e-05 7.1785263e-07 2.3344217e-06 1.2909e-06 3.0048335e-05 1.2692738e-06 2.6997159e-06 1.1195934e-06
2.6136157e-05
00000000: 1a4a 6a38 e68a 3636 0359 9438 921d 0636
00000010: b600 3136 6705 1736 881e 3e36 8c24 b635
00000020: ea73 8536 9072 8536 9d79 2b35 4b0e 9935
00000030: 35a6 3235 2ae0 8835 0622 b537 d8d1 f036
00000040: eb0a a339 987e 1437 2f60 4337 1ff4 e536
00000050: d9b1 6237 2665 6835 586d af34 388a af36
00000060: 69fc 8736 0b12 4735 a239 e434 e1a1 4535
00000070: 450c b735 ffa8 3135 f6d7 3f37 2160 b535
00000080: 5221 7c35 d3bb 0135 97e1 bf35 58cd 9e35
00000090: 0148 2135 c150 e336 5b8d 2835 12ea 6c35
000000a0: 323d 4737 75b2 4035 0fa9 1c36 fc42 ad35
000000b0: 4f10 fc37 ea5b aa35 c42c 3536 f044 9635
000000c0: f83e db37

exp_avg f4 [7]
0.008355313 0.012983884 -0.051977593 0.006602783 0.011840809 0.009339741 0.021829039
00000000: b9e4 083c 5bba 543c 75e6 54bd 295c d83b
00000010: f4ff 413c b705 193c d0d2 b23c
