data_10frm/model/0_5_0_23.pt (torch_old, 18375 bytes, 52 tensors)

rnn.weight_ih f4 [7, 22]
000000 d2 69 76 3d ee af 7b be a7 0c 87 be 41 8f 2f be
       0.060159512 -0.2457883 -0.2637684 -0.17144491
000010 ac f9 bd 3e 40 9f 8e 3e 03 a0 0a 3e e5 cc 69 be
       0.37104547 0.27855873 0.13537602 -0.22832067
000020 47 23 ad be 09 31 7f 3e 23 40 b3 bd 71 05 de be
       -0.33815977 0.24921049 -0.087524675 -0.43363526
000030 c7 55 d6 bd 13 e1 17 be 35 7d 5a bd b1 51 c8 3d
       -0.104655795 -0.14831953 -0.053342063 0.097812064
000040 50 3d a5 3d 55 26 b5 be 09 af 89 bd 42 95 79 be
       0.08068335 -0.35380808 -0.067228384 -0.24373344
000050 5e 08 45 3e fe b7 03 3e 02 c9 05 3e 08 ab 8e 3e
       0.19241473 0.12863156 0.1306496 0.2786486
000060 5b 01 f7 3d e4 17 e6 be 69 a3 f3 3c 54 d9 a5 be
       0.120608054 -0.44940102 0.029741006 -0.3239237
000070 8a c5 b0 bc 49 59 7c bd 9e c1 df 3e ad d9 40 be
       -0.021578569 -0.061608586 0.43702406 -0.18833037
000080 8a 30 9e be 71 3f 23 bd 22 0c fb 3d f3 ef ac 3e
       -0.30896407 -0.039855424 0.122581735 0.33776817
000090 27 90 bc 3e e3 49 b6 3e c0 c7 3e 3e 13 f1 29 bd
       0.3682873 0.35603246 0.18630886 -0.041489672
0000a0 ab 9e 80 bc c0 f4 12 be a5 bf 0d 3e 18 95 4a be
       -0.015700659 -0.14351177 0.13842638 -0.19783437
0000b0 cc 79 ac 3d cd a8 51 3e d0 be 8f 3e 0e cd d2 be
       0.084216684 0.20474549 0.28075266 -0.4117207
0000c0 37 e7 8d 3e cc 25 8e be a0 cd 91 bd d0 8e 9f 3e
       0.27715465 -0.27763212 -0.07119298 0.31163645
0000d0 31 f5 75 3e a5 8e d8 bd 75 6d 8b 3e 43 a6 a9 be
       0.24019314 -0.10574082 0.27231947 -0.3313466
0000e0 66 ec aa 3e 4f a4 d1 3e 4e a5 c7 3c d6 4a ca 3d
       0.33383483 0.4094567 0.024370816 0.09877555
0000f0 b4 b3 46 bd 47 2b 47 be 0f 02 06 be 8b c5 3f 3c
       -0.048511222 -0.19450103 -0.13086723 0.011704813
000100 8b c9 89 be b1 0a 89 be f0 2b e8 3d 21 23 91 be
       -0.26911578 -0.2676597 0.113365054 -0.28347114
000110 3e f5 71 be b8 3c b1 3d 73 31 75 be 7f 00 a3 3e
       -0.23628709 0.08654159 -0.23944645 0.31836316
000120 b7 4f 3a bd d9 d6 7f be be 30 83 bd 6b 8e 94 be
       -0.04548618 -0.24984302 -0.06405781 -0.29014906
000130 34 30 5c 3e 0f 1c bb 3e a8 13 3b be f8 d8 e7 bd
       0.21502763 0.36544845 -0.18269217 -0.113206804
000140 32 76 c5 3e 43 bb 77 be f4 e7 09 3e 6a df 8f be
       0.38566738 -0.24192528 0.1346739 -0.2810014
000150 e1 f3 99 be db 26 e5 3c 58 eb 3a be 2b d6 71 3e
       -0.30068877 0.02797263 -0.18253839 0.23616855
000160 3f d2 b6 bd 22 18 bc 3d 19 61 df bd 8b 77 59 3e
       -0.0892682 0.091842905 -0.10907192 0.21237008
000170 e2 f2 df 3e 98 e7 00 3d e0 28 33 be 41 e8 8f be
       0.43739992 0.031470865 -0.17496061 -0.28106883
000180 c4 94 8c 3e 6d 6d a7 3d 7b 60 98 3d 85 25 b7 bc
       0.2745725 0.08175168 0.07440277 -0.022356758
000190 ff b8 d2 3d b4 67 3d 3d eb 04 c8 3d 40 6a 1b 3e
       0.102891915 0.046241477 0.09766563 0.1517725
0001a0 11 3c 23 bd 20 7b 6d 3e 51 a0 11 3e 4c 51 bb bd
       -0.039852206 0.231915 0.14221312 -0.091463655
0001b0 a3 ad 84 be 6d 09 71 bd 8c ad 3e 3e b9 6d 09 3e
       -0.25913724 -0.05884688 0.1862089 0.13420762
0001c0 fb e9 69 bd d5 de dd bb 51 6f 5f 3d 71 ea 45 3d
       -0.057107907 -0.0067709484 0.05454952 0.048319284
0001d0 ba 78 7f 3e fc 6e aa 3d aa ce 00 3d 6f f5 2e 3c
       0.24948397 0.0832195 0.03144709 0.010678633
0001e0 11 cb 7a be ad 92 3b bd ec 69 34 b9 f0 0c 20 be
       -0.24491526 -0.045794178 -0.00017205597 -0.15629935
0001f0 5c ee 62 be 68 6c 18 3e 43 86 19 3d e8 1f 49 be
       -0.2216124 0.14885104 0.037481558 -0.19641078
000200 74 93 f3 37 77 d6 f2 3d 0d ae e9 3d e3 ce 70 3e
       2.903652e-05 0.11857312 0.11410151 0.23516421
000210 58 27 0e be a5 11 68 3e cb 3d 7f be 66 21 73 bc
       -0.13882196 0.22662981 -0.24925916 -0.014839506
000220 60 4e 39 be 0f a4 6d bc 0c 9b 7d 3e a1 a0 7d 3e
       -0.18096304 -0.014504447 0.24766177 0.24768306
000230 9d a0 83 be 28 bd 11 be 5c aa f7 bd b9 08 51 be
       -0.25708476 -0.14232314 -0.1209304 -0.20413484
000240 08 b2 87 be d6 fb 5f 3e d3 1d 4d 3e 98 81 84 3e
       -0.26503015 0.21873412 0.20030908 0.25880122
000250 f3 b8 88 be c1 05 5f 3e f1 b1 32 be 90 d9 11 be
       -0.26703605 0.21779539 -0.17450692 -0.1424315
000260 48 bc 24 be 2c 28 98 bd
       -0.16087449 -0.07429537

rnn.weight_hh f4 [7, 7]
000000 97 90 5a be 2c dc 0d bb 3a d1 8e be 9e e4 c7 3d
       -0.21344219 -0.0021646125 -0.27894002 0.09760402
000010 62 04 bb be 53 de 3f be d6 6e 9f be 49 f3 9e 3e
       -0.3652678 -0.18737154 -0.3113925 0.31044987
000020 6f 37 a9 3e 89 15 76 be 13 7e 15 be 02 90 c6 3e
       0.33050105 -0.24031653 -0.14598875 0.38781744
000030 1d f1 25 3e 3c 31 9f 3e 2c 86 84 be 0d 7f 2a 3e
       0.16205259 0.3109225 -0.25883615 0.16650029
000040 39 fb 95 3e e7 04 5c bd e1 9a 8b 3c 1d a2 9f 3e
       0.2929323 -0.053715613 0.017041625 0.3117837
000050 df 60 0c 3e 1b 91 0f 3e 3c 41 69 3b b3 b2 2d be
       0.13708828 0.14020197 0.0035591861 -0.169627
000060 77 1c 3b be b6 90 cf 3e 6f 4f 80 3b 7b 29 bc 3e
       -0.18272577 0.40540093 0.003915719 0.36750397
000070 89 0c 65 3e fa ee 88 be a9 7e 3b bd 6d ff 33 be
       0.22368063 -0.26744825 -0.04577509 -0.17577906
000080 6f 57 b6 bd 22 15 20 3e c6 4c fa 3d 9d ef e3 bd
       -0.089033954 0.15633062 0.122216746 -0.11129687
000090 a8 c2 b0 bd ba 73 25 be 4f cb 58 be 07 54 0c 3e
       -0.08630878 -0.16157427 -0.21171306 0.13703929
0000a0 f4 d0 03 be 76 95 cb b4 34 55 5e bd cb ed b3 3c
       -0.12872678 -3.7920444e-07 -0.054280475 0.021963974
0000b0 85 4e 82 bd 95 8b 08 3e 61 db 21 ba bd c0 5b 3e
       -0.06362633 0.13334496 -0.00061743526 0.21460243
0000c0 06 a5 e6 3c
       0.028154861

rnn.bias_ih f4 [7]
000000 c3 55 87 bd a9 f3 f2 3d 8e 41 95 3e e7 12 b5 3d
       -0.066081546 0.11862881 0.29151577 0.08841496
000010 90 28 36 3e 3f 7c 7c 38 3b 6b 5e bd
       0.17788911 6.0197195e-05 -0.05430148

rnn.bias_hh f4 [7]
000000 fa 28 83 3e 62 52 95 be 6b 53 9e 3d e8 cf c0 3e
       0.256172 -0.29164416 0.077307545 0.3765862
000010 70 5b 8e be 77 5a 60 bb 6a 8e a4 bd
       -0.27804136 -0.0034233609 -0.08034976

exp_avg f4 [7, 22]
000000 0f 82 1a 36 1e 9d ef 35 5a 1b 0c 36 84 d5 7a 36
       2.3023492e-06 1.7852615e-06 2.0877546e-06 3.7377185e-06
000010 9c f5 c7 b4 47 c4 90 36 b7 40 c0 32 45 27 95 36
       -3.7245343e-07 4.314384e-06 2.238117e-08 4.4451176e-06
000020 d6 d4 2f 36 9d c0 de 36 76 ce 70 b7 93 52 07 37
       2.620092e-06 6.6385387e-06 -1.4353185e-05 8.065853e-06
000030 b7 bd 8d 34 e0 60 b0 b5 58 c5 40 b6 88 90 3f b5
       2.6401332e-07 -1.3141216e-06 -2.8725099e-06 -7.1363365e-07
000040 da e5 2c 34 4e 28 98 b5 66 dd 65 36 6f 4b 84 35
       1.6102368e-07 -1.1336613e-06 3.425253e-06 9.85672e-07
000050 fd 0a a0 b5 22 08 ed b5 d5 3f 9c bb 32 5e 9e ba
       -1.1924127e-06 -1.7660243e-06 -0.0047683516 -0.0012082516
000060 8b 78 fb bc 75 ba 10 bc 3d 97 32 3a 2c f8 f5 bc
       -0.030697128 -0.008833517 0.00068126974 -0.030025564
000070 7e 4f 88 bc f8 55 47 3a f9 41 21 3b fe 4d 47 3b
       -0.016639467 0.0007604058 0.0024605973 0.0030411477
000080 a7 e0 59 3c bb 36 4a 3b 0b 65 35 3b ae 60 47 3b
       0.01329819 0.0030855376 0.0027678635 0.0030422616
000090 c1 f0 6e 3b a8 7e 69 3b dd e3 a5 3b 93 e4 f0 3b
       0.0036459418 0.0035628472 0.005062564 0.007351467
0000a0 e2 be 96 3b 60 f0 68 3b 17 38 69 3b c8 75 6f 3b
       0.0046003917 0.0035543665 0.003558641 0.003653871
0000b0 76 be 83 3c 49 85 5f 3b 76 44 d8 3d 2f ee fa 3c
       0.01608203 0.0034106544 0.10559933 0.030631153
0000c0 7e 6b 46 bb f1 76 d3 3d 60 dc 69 3d 90 cb 58 bb
       -0.0030276473 0.10325421 0.05709493 -0.0033080317
0000d0 cb a6 1a bc 86 5a 3f bc 27 0d 25 bd 09 0b 4a bc
       -0.009439181 -0.011679297 -0.040295746 -0.012331733
0000e0 b3 e1 2a bc e6 a2 34 bc af f7 4f bc ee 23 4a bc
       -0.010429787 -0.011025166 -0.01269333 -0.012337668
0000f0 4d a6 8b bc e1 e0 ce bc b4 fa 82 bc 71 d8 49 bc
       -0.017047072 -0.025253715 -0.015988685 -0.01231967
000100 b3 d6 49 bc b7 f4 4e bc ec ec 21 bb e9 8b 1e ba
       -0.012319255 -0.012631587 -0.0024707867 -0.000604807
000110 7f 75 7c bc 9a 2c 94 bb a7 31 be 39 af 17 77 bc
       -0.015408873 -0.0045219185 0.00036276618 -0.01508133
000120 d2 3a 0a bc 1c 34 d2 39 91 ae b6 3a 6e c8 f6 3a
       -0.008436875 0.00040093146 0.0013937523 0.0018828043
000130 0a a4 b5 3b b2 ed e8 3a 1f d1 ce 3a 6a e5 dd 3a
       0.0055432366 0.0017771034 0.0015778876 0.0016929333
000140 ff 78 f2 3a 53 e5 eb 3a 73 c7 21 3b 9c d7 70 3b
       0.0018499194 0.0017997421 0.0024685531 0.0036749607
000150 bc 45 19 3b 29 63 eb 3a 3e 5d eb 3a 72 0e f1 3a
       0.0023387512 0.0017958629 0.0017956865 0.0018391146
000160 62 77 b7 b7 66 a4 92 37 20 09 57 b9 5a b6 a7 b8
       -2.1870892e-05 1.748111e-05 -0.00020507397 -7.997146e-05
000170 ae 7a 6e 37 1e d2 49 b9 c3 c9 00 b9 be 96 4c 37
       1.4214469e-05 -0.00019247129 -0.00012282193 1.2194445e-05
000180 21 1b f6 37 64 97 75 37 76 4a 87 36 9c ba a4 38
       2.9338118e-05 1.4638386e-05 4.031982e-06 7.854888e-05
000190 cf e8 1f 38 4f 87 69 37 0c ab 10 38 b1 cc d5 37
       3.8125374e-05 1.3919386e-05 3.4491575e-05 2.5486896e-05
0001a0 55 10 cf 37 85 b4 49 38 39 87 0b 38 35 be e8 37
       2.4683928e-05 4.8090256e-05 3.326612e-05 2.7745127e-05
0001b0 fa cc dd 37 ec e6 dd 37 f2 eb 62 35 c6 c8 20 36
       2.6440703e-05 2.6452784e-05 8.4534906e-07 2.3958723e-06
0001c0 5f e9 69 36 c2 61 06 b6 77 10 9a 34 d8 04 39 36
       3.4855545e-06 -2.0024459e-06 2.8696715e-07 2.7569968e-06
0001d0 98 16 07 36 de f7 04 36 60 ff 01 b6 88 ac f3 b5
       2.012972e-06 1.981381e-06 -1.9371146e-06 -1.8155124e-06
0001e0 f7 1d b0 b5 49 53 99 34 37 a8 46 36 b8 f6 e1 b5
       -1.3121743e-06 2.855907e-07 2.9602213e-06 -1.6835611e-06
0001f0 50 57 d2 35 20 45 c4 b5 41 2f 41 b6 b2 f3 18 b5
       1.567163e-06 -1.4623256e-06 -2.8786746e-06 -5.6979036e-07
000200 4c 3e e8 35 cb 5f 36 36 6c 94 e0 b5 c5 9e 06 35
       1.7303478e-06 2.7175872e-06 -1.6732497e-06 5.014993e-07
000210 dc b6 58 ba d0 0a 91 b8 09 9a eb bb 98 a5 12 bb
       -0.0008266994 -6.916153e-05 -0.0071899933 -0.0022376534
000220 dd 69 87 39 86 8c e3 bb 90 2d 86 bb 8b 68 8c 39
       0.0002582808 -0.006944242 -0.004094787 0.0002678077
000230 ec b5 03 3a ed 99 19 3a 28 59 60 3b 22 38 22 3a
       0.0005024362 0.00058594235 0.0034232829 0.0006188174
000240 8c 6a 24 3a 70 4e 3b 3a a2 2b 53 3a 8a c3 57 3a
       0.000627198 0.0007145172 0.0008055513 0.0008230737
000250 ec 2b 9e 3a 5b f2 dc 3a cd 8a 8d 3a ae a7 57 3a
       0.0012067533 0.0016856896 0.0010798812 0.00082265853
000260 47 b1 56 3a 01 ca 5e 3a
       0.00081898685 0.0008498729

exp_avg_sq f4 [7, 22]
000000 d1 e2 25 2c ba 2b 0d 2d f9 91 2c 30 ab 0c 2c 2e
       2.3573819e-12 8.024631e-12 6.2780675e-10 3.9119524e-11
000010 4d 7a b2 2c 9f 95 25 30 10 de 64 2d 63 75 0b 2d
       5.0726424e-12 6.0239275e-10 1.3009607e-11 7.9273e-12
000020 f7 35 9c 2c a7 b3 0a 2e 58 ab 03 2f 71 64 cd 2d
       4.439778e-12 3.153713e-11 1.1975254e-10 2.3350407e-11
000030 f6 1f 4d 2d 29 0e 35 2c 09 9d 79 2d 9e 82 1f 2d
       1.1659998e-11 2.5729508e-12 1.418888e-11 9.0671064e-12
000040 79 65 87 2d ef 7b b8 2d 93 6a 05 2e 8b 4a 04 2d
       1.5392786e-11 2.0973416e-11 3.0335356e-11 7.519883e-12
000050 d7 32 0a 2d b4 99 2a 2d 5b b2 3b 37 1b 73 1e 35
       7.8556805e-12 9.69751e-12 1.1187595e-05 5.902709e-07
000060 a9 20 f7 39 76 4c 24 38 2f 11 c2 34 d0 bb ec 39
       0.00047135845 3.9171857e-05 3.614782e-07 0.0004515336
000070 e6 44 10 39 ac ac e6 34 4a fc 58 36 96 96 8e 36
       0.00013758577 4.2966474e-07 3.233336e-06 4.2494603e-06
000080 8b e6 b2 38 73 06 95 36 ed e9 9a 36 72 f6 9a 36
       8.5306434e-05 4.441297e-06 4.61679e-06 4.6182477e-06
000090 6e 97 f7 36 a1 dd c3 36 5c 9f 8f 37 93 b5 96 37
       7.3788024e-06 5.837254e-06 1.7121136e-05 1.7965946e-05
0000a0 d1 82 68 37 48 e6 d8 36 41 3c c3 36 7b 95 05 37
       1.3858736e-05 6.46411e-06 5.8184673e-06 7.962221e-06
0000b0 96 3c df 38 1f bb b3 36 27 e0 93 3b 01 d5 c6 39
       0.00010644754 5.3563995e-06 0.004512805 0.00037924203
0000c0 d4 f8 5d 36 ff 74 8d 3b 3a d5 ad 3a 44 23 85 36
       3.3076403e-06 0.0043169255 0.0013262399 3.9678143e-06
0000d0 8b 23 23 38 af 43 5c 38 8e cf 23 3a d3 54 69 38
       3.889533e-05 5.2515123e-05 0.00062488846 5.5630528e-05
0000e0 75 49 5c 38 1a 96 4e 38 ad 79 96 38 6d c4 6f 38
       5.25205e-05 4.925402e-05 7.175221e-05 5.7164976e-05
0000f0 1a 4c 1f 39 3c 41 3d 39 a6 51 09 39 8f 7e 84 38
       0.00015191772 0.00018048746 0.00013095755 6.317824e-05
000100 2e 12 6f 38 44 b3 9d 38 66 1c 37 36 59 14 12 34
       5.699897e-05 7.519734e-05 2.7285655e-06 1.3604712e-07
000110 a8 b5 fe 38 6c 5a 2a 37 fc eb be 33 b9 66 f3 38
       0.000121455 1.0153843e-05 8.89049e-08 0.000116062765
000120 04 2f 11 38 46 9d e5 33 ca df a1 35 6b 9f e2 35
       3.461448e-05 1.0692251e-07 1.2060566e-06 1.6884709e-06
000130 7f 27 63 37 68 bf e7 35 99 92 d6 35 07 f8 c3 35
       1.353945e-05 1.7266548e-06 1.5986908e-06 1.4600818e-06
000140 b8 35 06 36 ab 1c cf 35 ce be 85 36 7a 79 9d 36
       1.9998824e-06 1.5431045e-06 3.9859215e-06 4.6931063e-06
000150 fb 3b 73 36 38 86 e9 35 c1 74 ce 35 3e e0 09 36
       3.6244735e-06 1.7398916e-06 1.5382176e-06 2.0545117e-06
000160 20 b1 7a 34 f2 90 6d 32 95 c7 21 37 a9 01 62 35
       2.3347502e-07 1.3828172e-08 9.642817e-06 8.4193977e-07
000170 12 5e 46 32 16 09 1a 37 3a c8 49 36 80 7b 5d 32
       1.1546506e-08 9.181231e-06 3.0067881e-06 1.2891974e-08
000180 bb e9 39 34 c3 df 5a 34 ab 98 a4 34 4d c6 75 34
       1.7314498e-07 2.0384236e-07 3.065846e-07 2.2889544e-07
000190 72 d4 66 34 ea 83 12 34 88 dc 58 34 96 ce f9 33
       2.1497706e-07 1.36453e-07 2.0196796e-07 1.1632544e-07
0001a0 ff 5b ad 34 d1 3d 8d 34 a8 76 b4 34 8e a2 2e 34
       3.2290697e-07 2.6308274e-07 3.3613946e-07 1.626415e-07
0001b0 71 04 fa 33 1f a4 46 34 0c b5 9f 2b 19 c7 b3 2c
       1.164234e-07 1.8499894e-07 1.134788e-12 5.1095903e-12
0001c0 6f fe b3 2d a3 98 24 2c 0c e2 a3 2c 88 82 a7 2d
       2.0462935e-11 2.3390532e-12 4.657835e-12 1.904367e-11
0001d0 55 25 59 2b 28 fa c7 2c b1 2b 3e 2b 8d c8 1f 2b
       7.7145695e-13 5.683693e-12 6.7562194e-13 5.676647e-13
0001e0 78 ce bc 2a 6a 79 89 2c c6 fd 06 2c 3d ba 28 2b
       3.3538775e-13 3.907254e-12 1.9183418e-12 5.994405e-13
0001f0 53 a4 0f 2c 49 4b 0c 2b 44 62 d8 2b 98 3a 9e 2a
       2.041274e-12 4.984247e-13 1.5374997e-12 2.8107096e-13
000200 c5 8a 2b 2c 45 c3 e7 2b 42 c8 26 2b a3 59 4b 2b
       2.4377594e-12 1.6467735e-12 5.925296e-13 7.2244484e-13
000210 c7 9e b6 35 0c 1b 85 33 ad 5a 95 38 25 b0 c5 36
       1.3606267e-06 6.198215e-08 7.121763e-05 5.8915634e-06
000220 c5 44 83 33 13 75 8e 38 c2 94 a6 37 40 d7 9b 33
       6.112672e-08 6.7928944e-05 1.9858013e-05 7.256904e-08
000230 70 74 3a 35 79 30 74 35 8a 06 0e 37 80 e1 80 35
       6.945984e-07 9.096762e-07 8.465382e-06 9.602372e-07
000240 25 4c 81 35 79 3e 59 35 2b 59 9e 35 9d 15 6e 35
       9.63341e-07 8.092971e-07 1.1797869e-06 8.869336e-07
000250 6d a4 24 36 59 f0 25 36 a9 70 15 36 12 a9 89 35
       2.4533613e-06 2.4726817e-06 2.2268307e-06 1.0256501e-06
000260 1c 40 6d 35 eb 98 a6 35
       8.838267e-07 1.2412469e-06

exp_avg f4 [7, 7]
000000 47 e4 61 b5 1d 56 c3 b5 81 f7 4c b6 6d 22 08 b5
       -8.415122e-07 -1.4553694e-06 -3.0542435e-06 -5.0714044e-07
000010 8d 76 9b 34 74 22 2f b5 03 8d 4c b6 46 b8 02 3b
       2.8957257e-07 -6.5242716e-07 -3.0480448e-06 0.0019946261
000020 85 cb 4a 3b 5e dc 82 3c 2b f1 6e 3b 25 e5 13 3b
       0.003094406 0.01597422 0.0036459665 0.0022567
000030 40 1d 0a 3b 87 a8 14 3b f4 08 06 bc 19 38 43 bc
       0.0021074563 0.0022683458 -0.0081808455 -0.01191523
000040 be 7e 49 bd 51 f4 5b bc ab 15 0f bc 46 a9 03 bc
       -0.049193136 -0.013424949 -0.008733193 -0.008035963
000050 d6 e8 09 bc 24 52 a7 3a 2a 93 f7 3a cd 57 dd 3b
       -0.008417329 0.0012765569 0.0018888463 0.0067548514
000060 01 75 fe 3a 6c cc ac 3a f9 86 a9 3a d4 ab a3 3a
       0.0019413532 0.0013183481 0.0012933902 0.0012487122
000070 c1 e1 08 37 13 ca 17 37 bd 52 5f 38 66 70 d2 38
       8.158794e-06 9.04735e-06 5.32444e-05 0.00010034516
000080 93 6a 80 37 b9 a5 d0 36 14 b6 f6 36 93 ff 01 b6
       1.5308417e-05 6.2181757e-06 7.352568e-06 -1.9371262e-06
000090 48 ba 01 35 11 51 18 b5 c8 cd a6 b5 25 90 69 33
       4.832732e-07 -5.674238e-07 -1.2427854e-06 5.438064e-08
0000a0 78 0b 0e 36 f8 2f e0 b5 b5 a0 e1 39 e1 09 31 3a
       2.1166325e-06 -1.6703261e-06 0.0004303508 0.0006753486
0000b0 6b 15 87 3b 91 ba 42 3a 3b 8a f2 39 4b 6c dc 39
       0.0041224263 0.0007428313 0.00046260827 0.00042042354
0000c0 a0 54 e2 39
       0.0004316913

exp_avg_sq f4 [7, 7]
000000 9f d1 fb 2b 92 7a e6 2a 2b 03 46 2c b1 c8 39 2b
       1.7892804e-12 4.0941258e-13 2.813925e-12 6.600372e-13
000010 8a 29 f5 2f 5d c4 1c 2c 1d 2e f6 2b 16 56 05 36
       4.4594756e-10 2.2277937e-12 1.749215e-12 1.9868653e-06
000020 ff 71 d4 36 82 42 f2 38 7f e3 09 37 df 90 2f 36
       6.3313632e-06 0.00011551847 8.218804e-06 2.6161358e-06
000030 7c fc 05 36 3e 38 38 36 ab 34 d0 37 40 60 9f 38
       1.996551e-06 2.7450874e-06 2.4820058e-05 7.599639e-05
000040 40 fb 62 3a 59 8e b7 38 a7 af ff 37 23 eb cd 37
       0.0008658655 8.752634e-05 3.0480163e-05 2.4547398e-05
000050 e8 06 0d 38 3c 2d 4d 35 45 c9 1c 36 fb 18 9d 37
       3.362345e-05 7.6434276e-07 2.3362966e-06 1.872749e-05
000060 a9 72 2b 36 a2 02 85 35 1b 71 61 35 cc 46 94 35
       2.5547727e-06 9.910038e-07 8.398362e-07 1.1047464e-06
000070 77 4f d6 33 71 a2 d2 34 98 a4 c3 34 f0 7e ab 34
       9.979606e-08 3.923374e-07 3.6441338e-07 3.194359e-07
000080 ee 56 ff 33 8f 10 d5 33 40 f0 32 34 bc 13 d1 2c
       1.1890175e-07 9.9215974e-08 1.6664944e-07 5.9423282e-12
000090 97 32 c7 29 a7 69 f2 29 f7 4f fa 2a bc 02 d1 2b
       8.846151e-14 1.07652866e-13 4.4464408e-13 1.4851102e-12
0000a0 be 12 e7 2b 2d 5a 0f 2b 55 a3 f3 34 b6 8c b8 35
       1.6418739e-12 5.092895e-13 4.5381117e-07 1.3750021e-06
0000b0 3c c2 3c 37 b4 7b d1 35 61 b7 19 35 88 4a ed 34
       1.1250897e-05 1.5607716e-06 5.7263793e-07 4.419892e-07
0000c0 41 d2 2c 35
       6.438095e-07

exp_avg f4 [7]
000000 62 93 6d b6 d1 63 00 3d 2c fd dc bd 5e c5 80 3c
       -3.540154e-06 0.031345192 -0.10790476 0.015719112
000010 f2 ad 5d 39 bf 76 fa 34 8b aa ee 3b
       0.00021141002 4.6652528e-07 0.007283514

exp_avg_sq f4 [7]
000000 96 41 31 30 16 07 01 3a 6d 4c 9a 3b 75 b6 04 39
       6.448543e-10 0.00049220154 0.0047088177 0.00012656472
000010 61 b0 28 37 7f 8f e5 2d 88 6f 9b 38
       1.0054647e-05 2.6098011e-11 7.41175e-05

exp_avg f4 [7]
000000 11 a9 cd b5 a4 62 00 3d 04 ff dc bd c4 cb 80 3c
       -1.5322895e-06 0.03134407 -0.10790828 0.015722163
000010 d3 42 61 39 e9 62 3e 36 0b b3 ee 3b
       0.00021482566 2.836978e-06 0.007284527

exp_avg_sq f4 [7]
000000 a5 5e 30 30 93 06 01 3a 06 4d 9a 3b 0f b9 04 39
       6.4162925e-10 0.0004921939 0.004708889 0.0001265744
000010 a2 bc 28 37 25 d2 fb 2d d3 70 9b 38
       1.00575e-05 2.862872e-11 7.411991e-05

exp_avg f4 [7, 22]
000000 e2 4c 28 b6 d1 62 c3 b5 42 4c 63 36 e0 52 36 b6
       -2.5078702e-06 -1.4557392e-06 3.3870024e-06 -2.7168353e-06
000010 4e a7 5a 36 81 f8 3f b6 c7 7f 28 b6 b1 51 e5 35
       3.2581916e-06 -2.8605866e-06 -2.5108327e-06 1.7085605e-06
000020 81 c7 37 b6 8a 79 72 b5 03 45 2b 36 cd 71 3e 36
       -2.7385252e-06 -9.032889e-07 2.5521156e-06 2.8378447e-06
000030 32 6d 64 36 4d af 58 b5 e9 06 2e b6 36 3c 6c 36
       3.4038208e-06 -8.0721367e-07 -2.5932043e-06 3.5201788e-06
000040 7f 69 67 b5 2b 52 d5 b5 20 1b 58 35 ca fe 31 b6
       -8.6207723e-07 -1.5893651e-06 8.050574e-07 -2.6523362e-06
000050 03 1f 1b 36 0e 95 13 36 29 d4 1f bd 67 bf 79 bc
       2.311485e-06 2.1991468e-06 -0.03902069 -0.015243388
000060 c6 06 0c 3d 62 21 cf bc 8f 5d ce 3b b6 4c 3c 3d
       0.034186147 -0.025284473 0.006297774 0.045971595
000070 86 1d c1 bd 45 43 9c bc f4 29 b5 bb 3e 24 8e bc
       -0.09429459 -0.019075045 -0.005528683 -0.017351266
000080 49 b8 1c bc b5 1e ff 39 48 af 12 bb 93 d8 a3 bb
       -0.009565421 0.0004866027 -0.0022382308 -0.005000183
000090 c3 c8 be bb 9b c0 af bb 8b 8f 3b bc 1f b2 af bb
       -0.0058222725 -0.0053635365 -0.0114477975 -0.00536181
0000a0 c4 47 dd bb 3f c6 af bb 4f c8 af bb ea a7 af bb
       -0.00675294 -0.005364209 -0.005364455 -0.005360593
0000b0 12 da 19 36 5d da 9e b5 95 a1 33 36 d2 c3 3d 34
       2.292571e-06 -1.1835469e-06 2.6767132e-06 1.7673236e-07
0000c0 69 43 cd b5 09 a7 95 35 9a 28 f5 b5 5e 25 26 36
       -1.5293309e-06 1.1149979e-06 -1.8265739e-06 2.4757678e-06
0000d0 8b fb c2 b5 62 bb 8e 34 b5 b0 ae 34 39 fd 25 34
       -1.4527335e-06 2.65859e-07 3.2538597e-07 1.5458944e-07
0000e0 f8 d9 0e 36 2e e5 32 b5 4b e5 38 b5 5e fd 17 b6
       2.1286523e-06 -6.664367e-07 -6.8879007e-07 -2.2648233e-06
0000f0 c0 d9 1e 2f f9 22 67 b5 19 ca 3f af 72 db bb b3
       1.4447377e-10 -8.61051e-07 -1.7443148e-10 -8.747783e-08
000100 63 24 d9 34 15 9f 17 36 15 61 7d 3c 88 67 cc bc
       4.0445875e-07 2.2593351e-06 0.015465041 -0.024951711
000110 0b ec e0 3d 15 37 11 3d c6 51 e5 bc 0a 6b d4 3d
       0.109825216 0.03545292 -0.027993094 0.103719786
000120 d9 21 99 3d 25 e2 b2 bc 35 e9 9a bc 1b 64 1c bc
       0.07477159 -0.02183635 -0.01891003 -0.009545351
000130 b9 b0 5f bc 8e 20 d1 bc 79 a3 8d bc 24 5f 3c bc
       -0.013652974 -0.025528219 -0.017289864 -0.011497293
000140 79 b6 69 bc 38 0a 45 bc d7 8b ae bc 88 03 45 bc
       -0.014264696 -0.012026362 -0.021306915 -0.012024768
000150 c6 b6 ef bc 47 fd 44 bc 56 05 45 bc 3b 03 45 bc
       -0.029261958 -0.012023277 -0.012025198 -0.012024696
000160 18 c7 15 b5 49 a8 23 b6 c9 5b 19 36 16 eb 87 33
       -5.5796545e-07 -2.4386848e-06 2.2852203e-06 6.329189e-08
000170 e4 ce 1e 36 7b 33 d1 b2 77 8e 47 b4 d7 25 2a b6
       2.366426e-06 -2.4354213e-08 -1.8585148e-07 -2.5354e-06
000180 55 04 14 b5 58 2d c9 35 bd e4 33 b6 60 33 f6 b4
       -5.51406e-07 1.4988864e-06 -2.6806222e-06 -4.585845e-07
000190 fe e6 b2 35 b1 46 a3 35 3f 43 0b 35 51 36 a1 b3
       1.3329261e-06 1.216502e-06 5.187939e-07 -7.507027e-08
0001a0 bf 96 c3 ae 17 f4 84 b3 41 c1 0a b5 31 a1 34 35
       -8.894351e-11 -6.191129e-08 -5.169023e-07 6.728979e-07
0001b0 72 49 e7 b4 56 67 9c b5 80 1c 16 34 a9 ca e8 b5
       -4.3080541e-07 -1.165298e-06 1.3980207e-07 -1.7344329e-06
0001c0 c2 ea 96 b4 9e 6f 84 35 7e 74 12 35 07 28 16 36
       -2.8110486e-07 9.867251e-07 5.4558757e-07 2.237504e-06
0001d0 9e 1d d6 b5 12 57 f0 30 f9 0d 9f b4 b4 0c 9b b5
       -1.5952862e-06 1.7487045e-09 -2.9626224e-07 -1.1552097e-06
0001e0 48 20 9c b5 ea fb 97 34 d6 ac f4 af 0b 1c 84 b5
       -1.1632301e-06 2.8309233e-07 -4.450615e-10 -9.842928e-07
0001f0 fb 84 e0 b5 24 5b 0e b6 88 b7 34 36 a6 3a 1a b3
       -1.6728003e-06 -2.12127e-06 2.692892e-06 -3.590926e-08
000200 36 8a 21 b4 57 a8 08 b5 71 fc 7d b5 4d 8f 23 b6
       -1.5044574e-07 -5.0908915e-07 -9.4617195e-07 -2.4372305e-06
000210 f9 eb ba 36 e6 56 f1 36 6f c0 79 b7 e3 08 98 35
       5.570703e-06 7.192476e-06 -1.4886361e-05 1.1327469e-06
000220 9c 56 a3 b5 9c bb 83 b7 82 88 9a 37 0d b8 19 37
       -1.2169653e-06 -1.570378e-05 1.8421797e-05 9.162363e-06
000230 03 49 59 36 06 d0 47 37 e0 8b a0 35 ab 6d 13 b6
       3.2378018e-06 1.19097585e-05 1.1961638e-06 -2.1968542e-06
000240 dd a3 78 b6 f4 d1 bb 36 cc f8 31 b4 8b f0 6f 36
       -3.705026e-06 5.597476e-06 -1.6574921e-07 3.575379e-06
000250 ec 1b 86 36 44 49 c9 b5 c3 67 b8 35 b7 1f 4f 36
       3.9967617e-06 -1.499699e-06 1.3739267e-06 3.0863864e-06
000260 1b 1d a9 35 ea e8 d8 b5
       1.2599952e-06 -1.6161041e-06

exp_avg_sq f4 [7, 22]
000000 e4 69 6b 2e c8 4b 13 30 7d 59 f1 31 e4 17 70 30
       5.3526863e-11 5.358598e-10 7.024197e-09 8.734544e-10
000010 7b eb dd 2f 46 02 dc 31 b3 89 09 31 8c bc fc 2f
       4.0366985e-10 6.403101e-09 2.0014397e-09 4.5972504e-10
000020 f3 aa 87 2f 8c 44 31 2e b0 bb b8 2c 12 3f 67 30
       2.4677824e-10 4.0306022e-11 5.250432e-12 8.412694e-10
000030 78 cb 60 30 12 6d 28 2e 6c 4d 44 2c d7 3c 17 2f
       8.177987e-10 3.829565e-11 2.7896253e-12 1.3754985e-10
000040 bb 64 53 2f 56 21 08 2f fd 0e a5 2f 69 47 07 2f
       1.9226125e-10 1.2380971e-10 3.0023975e-10 1.2303548e-10
000050 86 b7 0d 2f 80 80 0d 2f 23 ea 65 3a ac 8e f1 39
       1.2889076e-10 1.2869528e-10 0.0008770546 0.000460734
000060 ff ca 93 3b 9e 0c 34 39 8a e2 12 38 11 63 b8 3b
       0.004510283 0.00017170838 3.5020093e-05 0.005627044
000070 d4 0b 77 3b 4c f9 12 3a 87 22 04 39 40 46 a5 39
       0.003769626 0.0005606606 0.00012601363 0.00031523593
000080 1f ba 20 39 c8 3f a7 38 db c7 99 38 0c 18 8d 38
       0.00015328125 7.975061e-05 7.3328345e-05 6.727883e-05
000090 b3 36 de 38 76 a0 ab 38 70 af 84 39 7a 9e ab 38
       0.000105959734 8.1838036e-05 0.00025307713 8.183434e-05
0000a0 a6 50 7a 39 a6 a0 ab 38 e1 a0 ab 38 c4 35 ad 38
       0.00023871902 8.1838385e-05 8.1838814e-05 8.2592975e-05
0000b0 30 57 71 2b 97 d1 a7 2a e3 13 9d 2b c5 d5 0c 29
       8.5741397e-13 2.9810591e-13 1.1161041e-12 3.127166e-14
0000c0 e4 28 f9 2a 5a 81 99 2a e8 a2 25 2b 40 72 89 2b
       4.425966e-13 2.7268015e-13 5.8845854e-13 9.766146e-13
0000d0 72 d3 e5 2a 82 58 4e 29 04 47 7e 29 a4 4a fb 28
       4.082529e-13 4.5817957e-14 5.6460926e-14 2.7898968e-14
0000e0 f2 21 55 2b 70 46 15 2a d7 eb 1b 2a f5 71 6c 2b
       7.571991e-13 1.3258296e-13 1.3848589e-13 8.400219e-13
0000f0 47 98 8a 25 9b 68 53 2a cc d2 82 25 c2 7f a3 28
       2.404237e-16 1.8776857e-13 2.2694247e-16 1.8152041e-14
000100 31 ab a1 29 9d 7b 6b 2b c2 f1 97 38 a7 7a c8 39
       7.179533e-14 8.366032e-13 7.245272e-05 0.00038238356
000110 f7 ad c8 3b 7f 03 ae 39 a8 d6 92 39 0c 01 c3 3b
       0.006124254 0.0003319047 0.0002800722 0.0059510525
000120 32 e8 9b 3a f7 32 b4 39 09 0a 40 39 05 82 de 38
       0.0011894761 0.00034370247 0.00018314285 0.00010610003
000130 f0 91 c9 38 5c 68 8f 39 8d e8 1f 39 51 39 98 38
       9.61161e-05 0.0002735284 0.00015250054 7.258601e-05
000140 7d bb f6 38 bb 02 b8 38 f9 8b 84 39 94 fb b7 38
       0.000117651165 8.774312e-05 0.0002528129 8.77298e-05
000150 4d 7f b7 39 f2 f9 b7 38 10 fc b7 38 43 14 b8 38
       0.00034999326 8.772676e-05 8.77307e-05 8.777578e-05
000160 30 a8 ed 29 d0 f6 85 2b f6 09 70 2b ab cc 84 28
       1.055409e-13 9.518723e-13 8.527895e-13 1.4743705e-14
000170 15 9c 7e 2b 9e 56 23 28 b5 35 13 29 43 23 8f 2b
       9.0455535e-13 9.0671e-15 3.268714e-14 1.0170548e-12
000180 9a 2a ea 29 b6 62 f1 2a e4 78 9d 2b fc 1a bb 29
       1.0399078e-13 4.2878694e-13 1.1189075e-12 8.309149e-14
000190 2a 16 c9 2a cb e9 ae 2a 9d 22 d9 29 f3 bd 93 28
       3.5720152e-13 3.1070835e-13 9.64274e-14 1.6402656e-14
0001a0 1b 83 a2 26 83 0b 83 28 f9 29 d8 29 d5 2e 17 2a
       1.1276544e-15 1.4548914e-14 9.599608e-14 1.3427742e-13
0001b0 de dd ad 29 20 f3 a3 2a ce db e9 28 34 16 15 2b
       7.721231e-14 2.9123318e-13 2.5963522e-14 5.2966247e-13
0001c0 aa 05 ea 29 5f a5 7b 2a 9f 6f f0 29 c7 58 5a 2b
       1.039267e-13 2.2350653e-13 1.0677504e-13 7.757236e-13
0001d0 5c b5 06 2b 2a a7 a4 26 c3 da 5d 29 91 cd a0 2a
       4.785805e-13 1.1425096e-15 4.9261603e-14 2.856435e-13
0001e0 69 25 a1 2a af 97 99 29 41 e3 ba 27 b4 a6 7e 2a
       2.8625304e-13 6.820878e-14 5.187176e-15 2.2617569e-13
0001f0 3e 35 0e 2b 2a 79 51 2b 9d 47 a2 2b 02 c7 33 28
       5.052242e-13 7.4419865e-13 1.1530669e-12 9.979649e-15
000200 77 d7 df 28 6b 0f ce 29 12 c1 6c 2a 3c 73 84 2b
       2.4851416e-14 9.150912e-14 2.1027995e-13 9.411148e-13
000210 9b 51 0f 35 97 bc 8b 34 d4 03 1e 36 89 9d bd 33
       5.3390403e-07 2.6027985e-07 2.3546063e-06 8.829654e-08
000220 37 b9 87 31 b2 aa 4c 36 0f 7b 16 36 7e 91 ae 34
       3.9500736e-09 3.0497727e-06 2.2423371e-06 3.2515885e-07
000230 4d c3 c2 33 5c 68 1c 35 9e 29 c2 33 f1 ec 7a 2d
       9.069354e-08 5.826639e-07 9.041399e-08 1.4263466e-11
000240 04 d0 c4 30 48 23 a0 32 ef a2 6f 33 f0 61 56 33
       1.4319999e-09 1.8642496e-08 5.579471e-08 4.991483e-08
000250 1b 8c f5 33 5f 8d 55 33 a0 ff c8 33 0c 4d 56 33
       1.14341866e-07 4.9721503e-08 9.359724e-08 4.989583e-08
000260 09 00 56 33 09 77 73 33
       4.982579e-08 5.668611e-08

exp_avg f4 [7, 7]
000000 6e 45 60 35 6a 7a 6d af f4 af c8 b4 29 92 ba 35
       8.3547536e-07 -2.1598515e-10 -3.7380926e-07 1.3900618e-06
000010 b0 47 02 34 fb 99 0c b5 7f ae 53 36 c8 e8 54 bb
       1.2133273e-07 -5.2378135e-07 3.154302e-06 -0.0032487381
000020 92 2a 21 bd 47 e0 58 bb 52 52 16 3c 59 87 34 bb
       -0.03934724 -0.0033092664 0.0091749 -0.0027546494
000030 2f ae 2f bb 60 4b 3b bb 5f 27 c2 35 7d 0e ff 34
       -0.0026806702 -0.0028578863 1.4465585e-06 4.7507993e-07
000040 56 c1 3d 34 d4 70 a2 b3 33 3d ba b4 45 74 11 33
       1.7672332e-07 -7.564236e-08 -3.4689728e-07 3.386619e-08
000050 10 3c 01 36 20 4d 07 bc a8 2f a2 bb 19 8f 04 bc
       1.925746e-06 -0.008258134 -0.0049495287 -0.008090758
000060 55 ce 7e bd 8b ac 17 bc ba e9 17 bc 71 91 0d bc
       -0.062208492 -0.009257446 -0.009272033 -0.008640633
000070 ca 92 a3 35 a4 24 84 b5 d0 b7 df 35 28 d5 1b ad
       1.2187168e-06 -9.84543e-07 1.6668291e-06 -8.85806e-12
000080 a5 4c 08 b6 d8 e7 cd b3 f9 e0 20 b6 48 fa 87 b5
       -2.0310192e-06 -9.5882285e-08 -2.397281e-06 -1.0131125e-06
000090 01 9e e2 b5 94 c3 d6 35 0e fe cc b3 4f aa 1a b3
       -1.6884297e-06 1.6001163e-06 -9.5457025e-08 -3.6010814e-08
0000a0 a9 52 76 35 bd ec 43 35 2e d0 cb b5 cf 59 a5 37
       9.176243e-07 7.298766e-07 -1.5185267e-06 1.9711353e-05
0000b0 bb 3c 3b 35 d6 75 06 b6 0c 38 19 36 dc 6e b2 b5
       6.9751303e-07 -2.0036146e-06 2.28314e-06 -1.3294298e-06
0000c0 c2 1d 49 b5
       -7.492164e-07

exp_avg_sq f4 [7, 7]
000000 bd df e2 2a a9 88 6b 25 6b ea 93 29 91 69 02 32
       4.0300914e-13 2.0429303e-16 6.5687764e-14 7.590999e-09
000010 b3 3a ca 28 c0 fe dd 29 e3 84 c5 2c 91 7b 17 38
       2.2451962e-14 9.8585636e-14 5.61383e-12 3.6116286e-05
000020 60 c1 9f 3a e0 e9 16 38 3b cc 5e 39 ee e4 1a 38
       0.0012188368 3.59806e-05 0.00021247652 3.692967e-05
000030 36 a0 1a 38 54 ed 1a 38 d2 4c e4 2a 8f 26 c3 29
       3.686567e-05 3.693749e-05 4.055424e-13 8.6664284e-14
000040 24 d4 0c 29 b1 77 94 28 b5 39 88 29 3e 71 3d 28
       3.1270247e-14 1.6483209e-14 6.049624e-14 1.0516163e-14
000050 84 96 34 2b 8c ec 2e 38 51 ed 40 39 1d fa 29 38
       6.415773e-13 4.1705134e-05 0.00018398954 4.0525676e-05
000060 41 48 b1 3a 72 c0 49 38 00 65 49 38 5a ff 33 38
       0.0013525562 4.8101363e-05 4.8016198e-05 4.291474e-05
000070 25 65 af 2a fa d7 7f 2a 19 df 0e 2b 87 a9 96 22
       3.1156428e-13 2.2723482e-13 5.0758144e-13 4.0837076e-18
000080 39 25 45 2b 40 38 ae 28 c4 20 82 2b c7 56 85 2a
       7.0040116e-13 1.9342275e-14 9.24615e-13 2.368576e-13
000090 be da 11 2b 8e d8 05 2b 55 e6 ac 28 56 e4 3b 28
       5.1817914e-13 4.755162e-13 1.9195727e-14 1.0430098e-14
0000a0 f8 6f 87 2a a3 b6 3f 2a 2d ff f7 2a 0a 97 53 36
       2.405851e-13 1.7027573e-13 4.4053078e-13 3.1529366e-06
0000b0 a5 8c 1e 2a bd d9 40 2b 5d 28 71 2b 2a 22 c8 2a
       1.4082015e-13 6.8514275e-13 8.5676415e-13 3.5550843e-13
0000c0 bd 9b 63 2a
       2.0215683e-13

exp_avg f4 [7]
000000 ee a4 54 b6 94 66 38 bd fa ad 86 33 16 af e2 bd
       -3.1686463e-06 -0.0450197 6.2715074e-08 -0.11068551
000010 27 c9 30 30 d9 29 a5 35 1b 7e 8f 37
       6.431428e-10 1.2305637e-06 1.710565e-05

exp_avg_sq f4 [7]
000000 90 de 02 32 b4 fd bf 3b 0a 11 84 28 0e e4 d8 3b
       7.617601e-09 0.005859101 1.4662333e-14 0.006618983
000010 d6 f8 5c 26 a3 90 e6 2a 62 89 53 36
       7.666507e-16 4.095657e-13 3.1521417e-06

exp_avg f4 [7]
000000 78 18 4e b6 90 69 38 bd 67 9c b1 30 f4 b0 e2 bd
       -3.0710635e-06 -0.045022547 1.2922897e-09 -0.110689074
000010 0d 0a 77 b5 d5 f5 45 b3 fd b7 a2 37
       -9.2029296e-07 -4.609122e-08 1.9397581e-05

exp_avg_sq f4 [7]
000000 7d e2 02 32 09 fe bf 3b 2f 4e fb 26 96 e4 d8 3b
       7.618493e-09 0.005859141 1.7437815e-15 0.0066190464
000010 4d 3d 68 2a c5 bc 76 29 6e 95 53 36
       2.0627007e-13 5.4786704e-14 3.152843e-06

exp_avg f4 [7, 22]
000000 7b f5 92 b6 6b 3b 6f b6 be e8 42 b9 f8 1c 16 b8
       -4.3797168e-06 -3.564836e-06 -0.00018587985 -3.5789766e-05
000010 94 f3 81 37 92 ec 3e b9 b7 42 8a b8 bf f4 85 37
       1.5491423e-05 -0.00018207941 -6.5927794e-05 1.5968804e-05
000020 ce 83 84 37 a1 58 69 38 d8 fb a8 37 df 2a 57 38
       1.5797003e-05 5.563407e-05 2.0144435e-05 5.129992e-05
000030 8a dc 8b 37 76 c5 c1 37 8f f6 2f 37 83 36 a3 37
       1.6672788e-05 2.3099343e-05 1.0488219e-05 1.9456498e-05
000040 ce ad 0f 38 85 ae cc 37 bc 2e 28 38 f4 11 b8 37
       3.4255725e-05 2.4399962e-05 4.0097846e-05 2.194287e-05
000050 e2 95 da 37 21 bd 1d 38 b6 b0 89 bc 55 ae c8 3b
       2.605742e-05 3.7607857e-05 -0.016807895 0.0061242976
000060 4c 05 32 3d d8 63 25 bc bb 90 23 ba b5 1b 39 3d
       0.043462083 -0.010094605 -0.0006239523 0.04519244
000070 74 66 96 bc 8c 36 e6 3b 0b 70 7d bb 24 2d c3 bc
       -0.0183594 0.0070255455 -0.003867152 -0.023825236
000080 c1 e2 18 ba 11 d9 98 bb 24 a9 8a bb f2 6c 7d bb
       -0.0005832129 -0.004664548 -0.004231589 -0.0038669673
000090 e3 0f a8 bb 1d 4f c1 bb 50 fb 2e bc d7 2a c1 bb
       -0.005128847 -0.0058993236 -0.010680035 -0.0058949995
0000a0 4f 75 c4 bb ac 2b c1 bb a4 00 c1 bb 34 44 c1 bb
       -0.0059954296 -0.0058950987 -0.005889969 -0.005898023
0000b0 2a 96 1c 35 c9 6d e6 b5 36 03 ff 34 44 88 95 b5
       5.8333046e-07 -1.7168287e-06 4.7499788e-07 -1.1141024e-06
0000c0 74 2f 43 33 65 87 93 34 ca c1 1f 36 03 30 83 b5
       4.5445134e-08 2.7479396e-07 2.3805646e-06 -9.774234e-07
0000d0 3f 65 04 b6 d4 e8 35 36 0f 2e 37 35 79 64 72 35
       -1.9728466e-06 2.7106626e-06 6.8239837e-07 9.029823e-07
0000e0 50 e0 03 35 7c 24 f4 b4 ca 78 b3 35 6f 6a 17 b6
       4.912772e-07 -4.5475088e-07 1.3371694e-06 -2.2562706e-06
0000f0 03 d1 ce 32 7d dd 5a 35 fc c1 da 35 59 54 77 b5
       2.4076604e-08 8.1533636e-07 1.6298723e-06 -9.213741e-07
000100 4f c9 ce b5 38 3d 19 35 dd f7 dd 3a 10 89 42 b9
       -1.5406785e-06 5.7086027e-07 0.0016934831 -0.00018552341
000110 4c ab 40 bb 89 31 90 3a 34 16 89 b8 df e5 51 bb
       -0.0029398976 0.0011001091 -6.536805e-05 -0.0032027883
000120 63 3b 30 3b 1a 8c 78 b9 32 51 d3 39 f6 0e 18 3a
       0.0026890866 -0.00023703315 0.0004030555 0.0005800569
000130 b7 6f 21 3a e2 3e c0 39 b2 43 ef 39 89 37 ea 39
       0.00061583094 0.00036667945 0.0004563607 0.00044673335
000140 08 90 e1 39 59 c8 e6 39 bd ed 3a 3a 2a 5f e7 39
       0.00043022656 0.0004401829 0.00071307627 0.00044130656
000150 4b f8 d3 39 5b e7 e8 39 a7 49 e6 39 74 4a d0 39
       0.0004043005 0.00044422862 0.00043923894 0.00039728323
000160 eb 52 e8 b5 38 99 9e b5 63 84 74 b7 80 e0 08 b7
       -1.7309479e-06 -1.181651e-06 -1.4574357e-05 -8.158502e-06
000170 ab ad e7 35 b6 e6 4d b7 e9 cd 32 b7 85 09 f4 b5
       1.7261385e-06 -1.2272669e-05 -1.0657569e-05 -1.8182187e-06
000180 96 b7 fa 35 b1 be ae 35 d9 ba 4b 36 48 8b 0d 37
       1.8679882e-06 1.3019509e-06 3.0358117e-06 8.436684e-06
000190 a2 84 0f b4 1a d5 1e b6 c5 55 87 36 25 c5 a3 35
       -1.3366164e-07 -2.3667876e-06 4.0332984e-06 1.2201823e-06
0001a0 e8 dd 7d b5 53 cd 91 36 eb c1 b3 36 02 ae d3 b5
       -9.457276e-07 4.3452396e-06 5.3571907e-06 -1.5771368e-06
0001b0 b4 43 d6 b4 49 f2 a9 35 52 80 a1 3a e3 a4 5b 39
       -3.9909867e-07 1.2661995e-06 0.0012321568 0.00020946893
0001c0 08 cc 0d bb 85 df 32 3a 23 ae d0 b6 28 ef 1d bb
       -0.0021636505 0.0006823468 -6.2191552e-06 -0.0024098847
0001d0 7f fe 12 3b b0 24 85 39 45 cd 93 39 06 e3 f0 37
       0.0022429524 0.0002539507 0.00028190963 2.8715946e-05
0001e0 a1 78 7f 3a 2f fd eb 39 90 8e d2 39 5a 54 97 39
       0.0009745453 0.0004501133 0.0004016054 0.0002886381
0001f0 66 0f d5 38 c5 9a b4 39 d3 6e d7 39 8a 2d b5 39
       0.000101595 0.00034447588 0.00041090566 0.0003455694
000200 c9 41 bd 39 0a be b4 39 4e 61 bc 39 49 f8 ba 39
       0.00036097903 0.00034473866 0.00035930652 0.0003566167
000210 75 2e 0b 39 59 35 ff b7 0a 63 c2 39 f7 27 4e 39
       0.0001327338 -3.042321e-05 0.00037076353 0.00019660579
000220 39 0f 68 b8 3b d7 b1 39 d8 b9 cf 39 f2 c3 8b b8
       -5.5327288e-05 0.0003392043 0.0003962058 -6.664534e-05
000230 56 15 36 b8 92 8b 5d b8 83 77 7e b7 f1 0b 33 b9
       -4.3412052e-05 -5.282049e-05 -1.5167406e-05 -0.00017075219
000240 56 8c 03 b8 b8 13 64 b7 4b 55 f5 b7 94 ad 16 b8
       -3.1363532e-05 -1.359445e-05 -2.9245994e-05 -3.5924444e-05
000250 e8 70 50 b8 d3 f2 08 b8 30 ca ab b8 25 91 21 b8
       -4.9696217e-05 -3.2651074e-05 -8.191576e-05 -3.8520568e-05
000260 19 46 23 b8 96 43 a2 b8
       -3.8927512e-05 -7.737351e-05

exp_avg_sq f4 [7, 22]
000000 1e 2e 14 35 1e 2d 83 31 b4 c3 23 36 1b be 50 34
       5.5201406e-07 3.817731e-09 2.4402807e-06 1.944067e-07
000010 db ef 2e 30 1e f7 3b 36 f6 3d a4 35 2e 22 ac 31
       6.3641686e-10 2.8009013e-06 1.2236985e-06 5.0097446e-09
000020 c5 98 03 31 ad ef c9 35 ce d6 c8 31 7c 0a 12 32
       1.9149848e-09 1.5045422e-06 5.8451866e-09 8.500702e-09
000030 a9 c2 11 32 bf ac 6b 32 bd c8 76 32 8c 5f 77 33
       8.484371e-09 1.3718078e-08 1.4364727e-08 5.759607e-08
000040 26 b5 d3 33 1a 86 54 33 ab ef a8 33 df 07 54 33
       9.858404e-08 4.948206e-08 7.866705e-08 4.9367255e-08
000050 f1 dd 67 33 fe 43 56 33 43 28 8c 3a ae 3d 02 37
       5.3985733e-08 4.9887596e-08 0.0010693151 7.762965e-06
000060 27 c4 8f 3b 1a 5e c7 39 c1 71 07 35 cd 90 a6 3b
       0.004387397 0.0003802635 5.045695e-07 0.0050831796
000070 0d a9 22 3b 8e c8 25 37 18 af 54 38 33 21 19 3a
       0.002482 9.881462e-06 5.0707808e-05 0.0005841434
000080 a5 e9 ca 38 9a ae ae 38 b0 27 96 38 b2 39 5e 38
       9.67563e-05 8.3294886e-05 7.15995e-05 5.2982658e-05
000090 e5 05 98 38 70 08 c7 38 de 03 5e 39 e1 d2 c4 38
       7.249023e-05 9.490631e-05 0.0002117301 9.3852876e-05
0000a0 7e bd f6 38 0c d3 c4 38 9d 07 cd 38 b8 d8 c4 38
       0.0001176549 9.385319e-05 9.77658e-05 9.386375e-05
0000b0 8a 39 fb 29 e9 dc 19 2b a6 b2 35 2a 1b 5d 98 2a
       1.11566206e-13 5.4663094e-13 1.613801e-13 2.706523e-13
0000c0 95 65 88 28 6e 5a 0a 2a 40 8f 7d 2b 0f ca 84 2a
       1.5143087e-14 1.2288236e-13 9.0082455e-13 2.3588117e-13
0000d0 99 e8 3b 2b 08 2c 9f 2b e7 d9 19 2a 6c 0f 62 2a
       6.675854e-13 1.1309851e-12 1.366473e-13 2.0078183e-13
0000e0 bb f0 ca 29 65 6a bd 29 5d 27 c8 2a 9b 00 6d 2b
       9.012362e-14 8.4117426e-14 3.555445e-13 8.4200154e-13
0000f0 92 9c 4f 28 fd 03 42 2a fc fd 08 2b de f3 6c 2a
       1.1524759e-14 1.7232045e-13 4.866938e-13 2.1045619e-13
000100 cf 29 ff 2a e3 ff ef 29 24 f3 bb 37 c4 9c 8a 34
       4.532611e-13 1.06581214e-13 2.2405358e-05 2.5818565e-07
000110 26 0e b8 38 97 68 04 37 ce 6b 1f 32 b8 df d6 38
       8.776439e-05 7.892165e-06 9.27953e-09 0.00010245986
000120 6a 7f 6a 38 d0 c6 ba 34 81 5b b4 35 4b 34 18 37
       5.590861e-05 3.4789855e-07 1.3437676e-06 9.072081e-06
000130 b0 03 ec 35 56 78 07 36 fc 60 fa 35 e7 38 9e 35
       1.7584443e-06 2.0186612e-06 1.8654678e-06 1.1788478e-06
000140 06 eb e3 35 bd 8a 01 36 a9 66 75 36 8f 41 fe 35
       1.6981219e-06 1.9303254e-06 3.65676e-06 1.8943555e-06
000150 77 8a 36 36 85 76 fe 35 f6 d0 0c 36 43 3d ff 35
       2.720071e-06 1.8958968e-06 2.0983257e-06 1.901681e-06
000160 3c 61 3c 2f eb e9 68 2b 1a 6c 39 31 5f 99 f4 2f
       1.7133045e-10 8.2747584e-13 2.6982492e-09 4.4492318e-10
000170 fe 57 88 2d 36 df 25 31 12 e3 c7 30 cd 32 93 2d
       1.5500486e-11 2.413754e-09 1.4543693e-09 1.6734525e-11
000180 e6 1b 90 2e bc ee e0 2d 64 72 07 2e ba 25 e9 2f
       6.5533176e-11 2.5571871e-11 3.0797045e-11 4.240926e-10
000190 a0 58 36 2e 46 a6 35 2d ad 52 3e 2e 8e 34 2b 2e
       4.1460724e-11 1.0325579e-11 4.327443e-11 3.8927576e-11
0001a0 ab 84 1e 2e 2b 60 21 2e 56 e5 74 2f ad 87 19 2e
       3.6042874e-11 3.6692576e-11 2.2273147e-10 3.4908677e-11
0001b0 b9 b8 3b 2e e5 cd 89 2e 01 68 ba 37 cd b5 ff 34
       4.2682944e-11 6.266613e-11 2.2221358e-05 4.762973e-07
0001c0 3d 2b 96 38 32 43 08 37 b6 58 24 32 12 66 b4 38
       7.160611e-05 8.121877e-06 9.566227e-09 8.602081e-05
0001d0 68 a5 89 38 67 a6 2e 35 9c 69 90 35 6e 57 80 36
       6.5634784e-05 6.50622e-07 1.0759572e-06 3.8248754e-06
0001e0 cb e8 e0 36 a2 92 e8 35 4a 02 eb 35 f6 ab 92 35
       6.702821e-06 1.7328023e-06 1.7509531e-06 1.0927895e-06
0001f0 e8 a4 ae 35 b0 03 e1 35 59 c9 23 36 91 aa dc 35
       1.3012004e-06 1.676488e-06 2.4406093e-06 1.6440919e-06
000200 60 85 21 36 6f 9c dc 35 f8 70 11 36 42 bd dc 35
       2.4068504e-06 1.6436805e-06 2.167244e-06 1.6446359e-06
000210 01 f9 d6 31 89 3d 9f 2f 23 1e 28 34 fd 26 43 32
       6.256528e-09 2.8965655e-10 1.5657183e-07 1.1359359e-08
000220 1b 17 8f 30 4c 77 22 34 5a 92 35 33 7f 1a a9 30
       1.0411186e-09 1.5130826e-07 4.2275452e-08 1.2303899e-09
000230 81 8f 26 31 4c 0d 09 31 e8 6a 8a 31 69 9a 78 32
       2.4237752e-09 1.9943682e-09 4.0284824e-09 1.4470609e-08
000240 b0 aa 2b 31 b8 c5 bc 30 9b 23 33 31 41 82 25 31
       2.49808e-09 1.3734995e-09 2.6068168e-09 2.40847e-09
000250 6f 20 95 31 4a 01 1c 31 ab 78 e8 31 8f 03 20 31
       4.340158e-09 2.270172e-09 6.765807e-09 2.3285087e-09
000260 07 c0 24 31 bf e0 9a 31
       2.3974296e-09 4.5075406e-09

exp_avg f4 [7, 7]
000000 54 c5 27 37 75 09 9a 38 2b bf 24 37 b7 c8 d6 37
       9.99992e-06 7.345054e-05 9.8196715e-06 2.5604253e-05
000010 83 05 09 38 74 8c dd 37 f7 55 d3 37 86 2e 60 bb
       3.266848e-05 2.6410657e-05 2.519319e-05 -0.0034207418
000020 b7 89 12 bd 44 9d d9 3b a6 f4 60 bb a0 34 5c bb
       -0.035775866 0.006641062 -0.003432551 -0.0033600703
000030 f5 62 5f bb 91 95 5e bb aa 67 45 36 b4 6e 50 35
       -0.0034086083 -0.003396366 2.9415628e-06 7.764713e-07
000040 97 a3 8e b5 6f b8 22 b6 3e 8b a5 35 d5 95 29 36
       -1.0627435e-06 -2.4247236e-06 1.2333983e-06 2.5270176e-06
000050 60 3f a6 b5 89 db e4 39 bf 2c 57 3a 13 2e f6 39
       -1.2386408e-06 0.00043651115 0.0008208267 0.00046955104
000060 98 42 e9 39 4c b6 a1 39 d9 bf ee 39 a7 ad bf 39
       0.0004449084 0.00030844135 0.00045537835 0.0003655974
000070 85 2e a3 35 ea a9 ca 35 9c 60 47 36 d8 dc 8b 35
       1.2157985e-06 1.5099624e-06 2.9709545e-06 1.0420581e-06
000080 dd 6d 2c 35 e9 c1 ac b5 17 c6 86 37 da e2 c2 36
       6.4234865e-07 -1.2871434e-06 1.6066288e-05 5.8080595e-06
000090 51 99 d2 36 71 4a 1d 3b fc 19 43 b5 89 26 21 38
       6.276336e-06 0.002400067 -7.2680973e-07 3.842128e-05
0000a0 3a 10 32 37 ab d5 a9 38 fe e0 73 b8 46 94 2f b7
       1.0613405e-05 8.098347e-05 -5.8145255e-05 -1.0465335e-05
0000b0 04 14 0b b6 06 70 13 b8 51 d1 f8 b8 b0 d7 19 b8
       -2.0724265e-06 -3.515186e-05 -0.0001186455 -3.6678917e-05
0000c0 56 0c cd b8
       -9.7774595e-05

exp_avg_sq f4 [7, 7]
000000 07 8d 4d 30 5e 04 47 36 9c f9 fd 2e 6d 77 26 30
       7.477898e-10 2.9655853e-06 1.15494475e-10 6.056016e-10
000010 8c d3 97 30 d5 9c a1 30 aa 61 15 30 43 f0 2c 38
       1.1046821e-09 1.1758866e-09 5.4344673e-10 4.1231757e-05
000020 83 5a 9d 3a 83 4c 87 38 38 e5 50 38 87 74 2a 38
       0.0012005124 6.451553e-05 4.980454e-05 4.0639683e-05
000030 07 a7 31 38 c0 74 2a 38 63 90 b7 2b 87 02 35 2a
       4.2355645e-05 4.063989e-05 1.3043007e-12 1.6076906e-13
000040 39 ff 8e 2a 24 aa 84 2b bb 9a b2 2a ae 54 8e 2b
       2.5401363e-13 9.426388e-13 3.1726518e-13 1.011321e-12
000050 d4 c1 b3 2a 21 ef 9b 35 ed 2b 90 37 be 6e a8 35
       3.1931283e-13 1.1617996e-06 1.7186592e-05 1.2549206e-06
000060 1e cd c4 35 87 c0 99 35 15 a8 b3 35 38 f7 99 35
       1.4662835e-06 1.1455421e-06 1.3385458e-06 1.1471338e-06
000070 32 82 fb 2c ac d3 e9 2c 00 fe e6 2c cf 6e 3c 2e
       7.1483037e-12 6.6457586e-12 6.565193e-12 4.284467e-11
000080 da de ff 2d 4b 01 ee 2d 1f c4 9c 30 0c 65 40 35
       2.908911e-11 2.7058042e-11 1.1406235e-09 7.1672616e-07
000090 1e 91 eb 36 c4 f6 99 37 f7 1e 8c 35 3e 1f 38 35
       7.0204396e-06 1.835393e-05 1.0439825e-06 6.8590805e-07
0000a0 4f 25 6a 35 de 5e 38 35 e6 f8 21 31 79 eb 5b 31
       8.7226084e-07 6.868339e-07 2.3570066e-09 3.2002545e-09
0000b0 2e aa 8f 30 98 7a 2b 31 d6 9a 08 32 58 a4 7f 31
       1.0452987e-09 2.4953462e-09 7.9514475e-09 3.7200802e-09
0000c0 72 62 e4 31
       6.6468653e-09

exp_avg f4 [7]
000000 b1 25 4c 39 79 1a 3d bd af b9 91 b5 36 3d 58 3b
       0.00019468997 -0.046167824 -1.0857383e-06 0.003299547
000010 16 30 50 37 b5 23 26 3b 59 bd ba b9
       1.2408962e-05 0.0025350873 -0.0003561776

exp_avg_sq f4 [7]
000000 29 54 49 36 2e 45 b3 3b d7 8b cc 2a e4 14 e8 38
       3.0000322e-06 0.0054708933 3.6334713e-13 0.00011066513
000010 56 9b 44 31 6e e9 c5 38 7c 7c 31 34
       2.8610052e-09 9.437172e-05 1.6529697e-07

exp_avg f4 [7]
000000 99 0d 50 39 fc 14 3d bd df d1 e8 b5 8a 7e 58 3b
       0.00019841491 -0.04616259 -1.7346428e-06 0.0033034408
000010 de c0 2c 37 c6 df 25 3b 5c bd bd b9
       1.0296904e-05 0.0025310381 -0.00036189973

exp_avg_sq f4 [7]
000000 0f 6c 49 36 86 44 b3 3b e1 64 39 2b 29 1c e8 38
       3.0014232e-06 0.005470815 6.58652e-13 0.00011067867
000010 95 4e 43 31 43 e2 c5 38 14 ee 31 34
       2.8420903e-09 9.4358365e-05 1.6571022e-07

exp_avg f4 [7, 22]
000000 b4 0c 0d 3b 37 9d 68 b9 20 3b 06 bc 79 5c 46 3b
       0.0021522464 -0.00022183811 -0.008192807 0.003026752
000010 8a 95 01 ba aa 73 01 bc 92 52 a2 3b 85 5f 6a b9
       -0.00049432425 -0.007901112 0.004953691 -0.00022351563
000020 33 bc ab 39 b4 0d 58 39 f7 52 ae 3b c4 ec d8 39
       0.0003275588 0.0002060447 0.005319949 0.00041375135
000030 dc d1 30 3a f4 68 47 3a 49 77 4d 3a 45 19 a9 3a
       0.00067451387 0.0007606887 0.0007837904 0.0012901208
000040 30 dd 80 3a c1 b1 0d 3b 0f d4 80 3a a3 a6 8d 3a
       0.0009831544 0.0021620842 0.0009828823 0.0010807108
000050 18 25 81 3a 6a 83 82 3a d9 64 6c 33 72 af 36 b0
       0.0009852974 0.0009957377 5.5039752e-08 -6.6460537e-10
000060 ed 98 04 35 ce 9c 83 b5 34 43 e5 b5 aa 9e d5 35
       4.939637e-07 -9.805897e-07 -1.7081388e-06 1.5915914e-06
000070 8b f5 6d b5 58 31 e0 35 43 48 0a 36 95 34 de b5
       -8.864669e-07 1.6703661e-06 2.0605664e-06 -1.6555592e-06
000080 82 a1 5b b5 59 02 48 b0 a9 d4 2a b6 ab a5 b2 34
       -8.181888e-07 -7.276291e-10 -2.5455759e-06 3.3275623e-07
000090 20 0c 34 b5 8e bd 4b b5 25 0b 01 b6 89 c5 61 35
       -6.707287e-07 -7.589923e-07 -1.9228985e-06 8.4106483e-07
0000a0 05 48 c0 b5 67 76 07 b6 93 3f 66 b4 96 03 9a b5
       -1.4326075e-06 -2.0185487e-06 -2.1443547e-07 -1.1474938e-06
0000b0 c4 1b c1 bc 85 bd 8e 3b f6 2e d4 3d db 40 23 bd
       -0.02357281 0.0043560886 0.103605196 -0.039856773
0000c0 59 3e ee 3b 95 d1 c8 3d 85 92 74 bd 75 ce 94 3b
       0.007270616 0.098055996 -0.059710044 0.004541213
0000d0 0c ca 1e bc 58 69 08 bc c9 83 1b bd db 8e 6c bc
       -0.009691726 -0.008325897 -0.037967477 -0.014438356
0000e0 9b 95 42 bc 3f 47 3c bc 91 29 4a bc 09 62 66 bc
       -0.011876489 -0.011491596 -0.012339012 -0.014061459
0000f0 c6 33 4e bc b1 a8 d8 bc f8 38 4e bc 3f 6d 79 bc
       -0.012585586 -0.026447626 -0.012586825 -0.0152238
000100 8c 30 4e bc 51 42 4f bc b2 28 99 35 cd 26 04 34
       -0.012584817 -0.012650088 1.1411232e-06 1.2307574e-07
000110 05 a4 b4 b6 40 92 27 36 a2 2c d1 35 cb aa 21 b6
       -5.3835124e-06 2.4970068e-06 1.5584703e-06 -2.4090284e-06
000120 60 e6 79 b6 2c 90 90 35 13 af ed 35 34 0e 18 35
       -3.7237987e-06 1.0770796e-06 1.7708829e-06 5.664508e-07
000130 f0 34 96 b5 5c 5f b2 b3 b4 33 c5 b5 d5 ae 91 36
       -1.1191278e-06 -8.306117e-08 -1.4692691e-06 4.34169e-06
000140 35 0c 94 36 11 cd d1 b4 15 02 18 b6 38 a0 25 36
       4.412165e-06 -3.907849e-07 -2.2650977e-06 2.4680176e-06
000150 01 e7 f3 35 0a 36 02 36 2a ca 29 b6 53 6a 9b 35
       1.8172142e-06 1.9402964e-06 -2.5300637e-06 1.1579344e-06
000160 0e 85 21 3c f1 2a 43 39 80 45 fc bc 36 9e 20 3c
       0.009858383 0.00018612646 -0.030794859 0.009803345
000170 2a a9 7a ba 96 62 fc bc 87 ad 9d 3c 9a 67 8f 39
       -0.00095619506 -0.030808728 0.019247783 0.00027352275
000180 bc b0 56 3b a9 b6 d4 3b 12 f7 f6 3b 75 6d 94 3b
       0.003275915 0.0064915013 0.0075367773 0.00452965
000190 71 cf 68 3b 8d 92 69 3b 6d c5 6c 3b 1d e6 86 3b
       0.0035524035 0.003564033 0.0036128417 0.004116787
0001a0 15 22 80 3b 8a 97 fc 3b 23 1d 80 3b 1e c0 a6 3b
       0.003910313 0.0077084946 0.0039097234 0.00508882
0001b0 a8 02 80 3b af 48 80 3b d7 52 9c b5 91 82 12 36
       0.0039065666 0.0039149146 -1.1647015e-06 2.1831695e-06
0001c0 0f 25 48 b6 45 ad 71 b4 57 a7 fd 34 1d 82 19 b6
       -2.9823893e-06 -2.2507909e-07 4.7246678e-07 -2.2874513e-06
0001d0 7a 0e 20 35 85 0b d7 b3 9f 7c 29 35 47 17 ff b5
       5.962571e-07 -1.0013813e-07 6.3138754e-07 -1.9005755e-06
0001e0 5c 3f e1 33 1a 61 f7 b5 3b d7 e0 35 1d 55 36 36
       1.0488904e-07 -1.8431194e-06 1.6751941e-06 2.7169656e-06
0001f0 fd 45 8e b5 f6 0d 44 34 53 5c 87 b5 e6 53 b4 b5
       -1.0600194e-06 1.8259001e-07 -1.0085154e-06 -1.3435463e-06
000200 bf d8 83 b5 5c 17 83 b5 35 a7 86 34 f5 5a 90 b3
       -9.823342e-07 -9.767059e-07 2.5081104e-07 -6.7220675e-08
000210 0a c7 27 3a c8 9a c5 b8 4d bb 24 bb e4 24 76 3a
       0.00064002036 -9.422522e-05 -0.0025136054 0.00093896524
000220 9c 11 2f b9 a1 c3 1d bb 3c b5 c3 3a 5e f7 cc b8
       -0.0001669586 -0.0024072903 0.0014931331 -9.773554e-05
000230 65 2b 24 38 04 09 72 38 99 bc e4 3a 5d 1e ca 38
       3.914106e-05 5.7705693e-05 0.0017451226 9.637766e-05
000240 89 03 44 39 51 29 ca 39 7b c1 bd 38 ae 7f d6 39
       0.00018693334 0.00038559226 9.048261e-05 0.0004091239
000250 3c 93 9a 39 fb 4c 2b 3a 1d 99 9d 39 46 e3 af 39
       0.00029482867 0.00065346033 0.00030059452 0.00033547933
000260 9f bd 9d 39 81 29 a0 39
       0.00030086652 0.000305485
