data_10frm/model/0_5_13_6.pt (torch_old, 18375 bytes, 52 tensors)

rnn.weight_ih f4 [7, 22]
-0.14979564 0.15942428 -0.0601333 -0.33189973 0.8207256 0.49205747 -0.096847214 0.17635313
-0.28259492 0.04771757 -0.39807585 -0.68237185 -0.36029664 -0.5122828 -0.37244317 -0.10091818
-0.051045775 -0.58917445 -0.34822297 -0.39415145 -0.101143114 -0.047615405 -0.35876843 0.30622905
0.2180032 -0.75517344 0.07962525 -0.19846267 -0.4391358 -0.061987314 0.23060322 0.0071939114
-0.5918479 -0.29970452 -0.12182065 -0.03343032 0.10303035 0.2895282 0.16421087 -0.0717197
-0.21168017 -0.24604204 -0.2320207 -0.30678457 -0.7633367 -0.06446836 0.22963233 -1.1237476
0.10818666 -0.3017206 -0.867544 0.07133381 0.09940834 -0.10680037 0.48242253 -0.40453807
0.27348888 0.26140466 0.13280404 0.11115826 -0.027914597 0.041307468 -0.16424273 0.046113275
-0.5820114 -0.26098332 0.2350472 -0.21689017 -0.27809432 0.4604432 -0.1571115 0.29797503
-0.027829112 -0.20664369 0.044764012 -0.37782112 0.05847574 0.59178764 -0.021362437 -0.3012409
0.32415968 -0.18318234 0.13632822 -0.44340217 -0.20175734 0.072365865 -0.18719621 0.27465904
-0.08328799 0.2946172 0.10175665 0.35443595 0.6429368 0.2371613 -0.14140764 -0.11414649
0.14302248 -0.09780651 -0.22058249 -0.28573903 0.09410478 -0.21434328 -0.14828706 -0.0068013053
-0.18309642 -0.0850796 -0.06597809 -0.2681083 -0.40837672 -0.18368587 0.6964442 0.8382623
-0.10446519 0.37390038 0.15789174 0.12050658 0.8074725 0.69008094 0.03468025 0.09958753
-0.4037538 -0.20334066 -0.09246188 0.035814937 -0.2969423 0.23279512 0.10487686 -0.48196468
0.028792962 0.2237731 0.48273888 0.34293255 -0.3443196 0.48122823 0.10115277 -0.07913485
0.12787327 0.34114927 0.07256561 0.50709724 -0.5525295 -0.40508363 -0.45761192 -0.57038796
-0.57426614 -0.18942364 -0.14963599 -0.0038981286 -0.5743268 -0.21660812 -0.61121446 -0.41716167
-0.64232975 -0.312105
00000000: 0764 19be 1e40 233e 564e 76bd c3ee a9be
00000010: 131b 523f f5ee fb3e d557 c6bd ea95 343e
00000020: 48b0 90be 8073 433d 99d0 cbbe ecaf 2ebf
00000030: cd78 b8be f724 03bf dfb0 bebe 31ae cebd
00000040: 6015 51bd 23d4 16bf 484a b2be 38ce c9be
00000050: 1f24 cfbd 5f08 43bd 7fb0 b7be 0eca 9c3e
00000060: 3b3c 5f3e 0c53 41bf 9012 a33d cc39 4bbe
00000070: 68d6 e0be 69e6 7dbd 4023 6c3e e7ba eb3b
00000080: 5883 17bf df72 99be 1b7d f9bd 3bee 08bd
00000090: 9301 d33d 0a3d 943e e526 283e c7e1 92bd
000000a0: b0c2 58be 72f2 7bbe d696 6dbe de12 9dbe
000000b0: 096a 43bf fd07 84bd bd24 6b3e f6d6 8fbf
000000c0: f890 dd3d 1f7b 9abe 5d17 5ebf 7617 923d
000000d0: 9a96 cb3d 27ba dabd 1600 f73e 9d1f cfbe
000000e0: bc06 8c3e d5d6 853e c8fd 073e f1a6 e33d
000000f0: 27ad e4bc 0532 293d 3f2f 28be 46e1 3c3d
00000100: b3fe 14bf 9b9f 85be 37b0 703e 7518 5ebe
00000110: 6162 8ebe 36bf eb3e d6e1 20be 2f90 983e
00000120: e1f9 e3bc 679a 53be 785a 373d c571 c1be
00000130: 4284 6f3d 657f 173f 4700 afbc 3f3c 9abe
00000140: 42f8 a53e 2794 3bbe a099 0b3e 9c05 e3be
00000150: 7a99 4ebe 8e34 943d 5db0 3fbe 1ca0 8c3e
00000160: e592 aabd 11d8 963e ca65 d03d a178 b53e
00000170: 8297 243f 69da 723e 2acd 10be a3c5 e9bd
00000180: 7c74 123e c84e c8bd 60e0 61be 634c 92be
00000190: 02ba c03d ce7c 5bbe 90d8 17be 7cdd debb
000001a0: a17d 3bbe 373e aebd 851f 87bd 7e45 89be
000001b0: c116 d1be 2618 3cbe 2b4a 323f 5c98 563f
000001c0: d8f1 d5bd df6f bf3e 5fae 213e 27cc f63d
000001d0: 85b6 4e3f 25a9 303f e10c 0e3d 8cf4 cb3d
000001e0: d1b8 cebe 8938 50be a75c bdbd afb2 123d
000001f0: d208 98be d861 6e3e aec9 d63d 13c4 f6be
00000200: 38df eb3c c724 653e 8d29 f73e db94 af3e
00000210: a94a b0be 8c63 f63e 2f29 cf3d 7411 a2bd
00000220: 36f1 023e 1eab ae3e 479d 943d 20d1 013f
00000230: 9372 0dbf 1f67 cfbe 1c4c eabe f204 12bf
00000240: 1b03 13bf 45f8 41be 2d3a 19be bf77 7fbb
00000250: 1507 13bf 85ce 5dbe 8d78 1cbf 3796 d5be
00000260: b96f 24bf 3acc 9fbe

rnn.weight_hh f4 [7, 7]
-0.12058537 -0.1713889 -0.5929021 -0.23086362 -0.5099272 -0.5519003 -0.48386148 0.096591294
0.5752207 -0.5851298 -0.59571326 0.19165753 -0.34358364 0.1605434 -0.308062 0.07216086
0.677939 -0.41411456 0.028721444 -0.16107312 0.18281527 0.16867419 -0.13224311 -0.66715753
0.27502725 0.41262263 -0.40016517 0.42733422 -0.014563833 -0.4515289 -0.42298722 -0.5113013
0.039587066 -0.14292204 0.0018426159 -0.29844218 -0.23072052 -0.5575646 -0.6977964 0.17592023
0.18254706 0.02931437 -0.31489414 -0.19953558 -0.34580386 -0.24486542 -0.21415514 -0.1856578
-0.20154211
00000000: 76f5 f6bd 9280 2fbe 6fc8 17bf 8367 6cbe
00000010: 978a 02bf 5749 0dbf b1bc f7be a8d1 c53d
00000020: aa41 133f 11cb 15bf aa80 18bf df41 443e
00000030: 32ea afbe 7d65 243e 4dba 9dbe 13c9 933d
00000040: 698d 2d3f d306 d4be 3c49 eb3c 5af0 24be
00000050: ed33 3b3e edb8 2c3e bd6a 07be d6ca 2abf
00000060: 5fd0 8c3e 4643 d33e 73e2 ccbe 8dcb da3e
00000070: 259d 6ebc cc2e e7be c891 d8be a4e4 02bf
00000080: 0c26 223d 285a 12be ee83 f13a 6acd 98be
00000090: 0042 6cbe 8ebc 0ebf c9a2 32bf 6f24 343e
000000a0: 9eed 3a3e b124 f03c ce39 a1be 0e53 4cbe
000000b0: 340d b1be 00be 7abe 7c4b 5bbe 141d 3ebe
000000c0: 0e61 4ebe

rnn.bias_ih f4 [7]
-0.2801371 0.009491536 0.31542522 0.09611003 -0.021432726 -0.0043667387 -0.4083323
00000000: 216e 8fbe 6382 1b3c 6a7f a13e 56d5 c43d
00000010: af93 afbc dc16 8fbb ee10 d1be

rnn.bias_hh f4 [7]
0.041944586 -0.40078565 0.10124599 0.38424414 -0.47724316 -0.038237926 -0.4343541
00000000: 16ce 2b3d c733 cdbe 0f5a cf3d a6bb c43e
00000010: 3759 f4be 5f9f 1cbd a963 debe

exp_avg f4 [7, 22]
6.48292e-05 -0.00014425597 -0.001341185 -0.00017166897 -9.591779e-05 -0.001330956 -0.00024203786 -0.00010054817
-0.0002353788 0.00010470691 0.0003681912 0.00034322822 0.00021531779 0.00031134355 0.00023224196 9.456808e-05
9.690869e-05 0.00023194515 0.0002093188 0.00011939048 0.00038975416 0.00020055595 2.7449187e-05 -6.651289e-05
-0.0011903306 -0.00019948189 1.554034e-06 -0.0011881645 -0.00024854328 5.0318513e-06 9.256512e-05 7.770255e-05
0.00034231818 0.00020376335 0.00012556552 0.00017268569 0.00018460541 7.96524e-05 8.211264e-05 0.00023127883
0.00026411196 0.000101202895 0.0002820884 0.00015943422 0.00903421 0.006021248 -0.0029641464 0.004380506
-0.00011064117 -0.0028147774 0.016839014 1.5919111e-05 -0.0001706508 -1.0252552e-05 -0.004515443 0.0020177166
0.0018587423 0.0023714215 0.00038844123 0.00046828765 0.00041195532 -0.005348051 -0.0026345442 0.00088160794
0.0058868853 0.0022727263 0.0046457187 -0.0017458452 -0.024170456 0.0008053175 0.00018983401 -0.025820931
0.0060005113 0.0006684337 0.0036665704 0.000602691 0.0060098474 0.003621852 0.0026865664 0.0057090903
0.0033425912 0.0017943133 0.0017782259 0.0029050258 0.0014073642 0.0019601802 0.009962457 0.0058263526
-0.00012528688 -0.00071767933 -0.001126517 0.0006349045 -0.00017690149 -0.001306391 -0.000773369 -0.0002422882
0.00046694977 0.00039859605 -0.0010102405 0.00046684415 -0.0007187565 0.0011221786 0.0006237665 0.00011742075
0.00013632167 0.0006733938 -0.000503407 -0.00012767717 0.0005149704 0.0005387994 -0.0048393607 0.00070308853
0.011593764 -0.0028886222 0.001237905 0.012102967 -0.008900103 0.0016291062 0.00057970994 -0.0012030291
-0.0021968225 0.0013705256 -0.00024652854 -0.006413219 -0.0032345783 -0.0010621786 -0.0010568973 0.0018138243
0.0029594835 -0.00092998426 -0.011735218 -0.001327738 -0.00672533 -0.0035512208 0.008076531 -0.003067893
-0.0010219394 0.009152826 -0.01076622 -0.0019317442 -0.0037875816 -0.00028625634 0.0020608278 -0.0060205623
-0.003439679 0.0011062619 0.001352761 -0.0007183862 -0.0006790628 0.0002183503 -0.00095161446 -0.0010554816
3.8004022e-05 -0.0058559673
00000000: e9f4 8738 6b43 17b9 b3ca afba 0a02 34b9
00000010: 7927 c9b8 7973 aeba 8bcb 7db9 63dd d2b8
00000020: 04d0 76b9 1896 db38 c909 c139 50f3 b339
00000030: eec6 6139 d33b a339 fa85 7339 da52 c638
00000040: 753b cb38 4d36 7339 967c 5b39 4761 fa38
00000050: eb57 cc39 544c 5239 ae42 e637 d67c 8bb8
00000060: de04 9cba 032c 51b9 3494 d035 2fbc 9bba
00000070: ea4e 82b9 46d7 a836 851f c238 3df4 a238
00000080: 2b79 b339 4fa9 5539 3daa 0339 f612 3539
00000090: a392 4139 0e0b a738 e333 ac38 7083 7239
000000a0: 8278 8a39 e43c d438 44e5 9339 cc2d 2739
000000b0: 3904 143c e44d c53b 2042 42bb 598a 8f3b
000000c0: 0708 e8b8 2178 38bb f9f1 893c 088a 8537
000000d0: baf0 32b9 6002 2cb7 48f6 93bb ab3b 043b
000000e0: 0ba1 f33a da69 1b3b b3a7 cb39 8184 f539
000000f0: b5fb d739 b43e afbb 51a8 2cbb b51b 673a
00000100: c6e6 c03b 05f2 143b 1d3b 983b d8d4 e4ba
00000110: 1f01 c6bc f11b 533a 2e0e 4739 6b86 d3bc
00000120: f09f c43b d439 2f3a d84a 703b e9fd 1d3a
00000130: 41ee c43b 985c 6d3b 1b11 303b 5213 bb3b
00000140: 600f 5b3b 2a2f eb3a 5c13 e93a 3f62 3e3b
00000150: 4e77 b83a 5e76 003b 9339 233c fdea be3b
00000160: 715f 03b9 a522 3cba a3a7 93ba b86f 263a
00000170: a27e 39b9 353b abba eabb 4aba be0e 7eb9
00000180: f0d0 f439 a8fa d039 0c6a 84ba c3c2 f439
00000190: ef6a 3cba 1116 933a 4384 233a c93f f638
000001a0: 92f1 0e39 b186 303a 12f7 03ba 14e1 05b9
000001b0: 14ff 063a 373e 0d3a 8093 9ebb 794f 383a
000001c0: c5f3 3d3c 0a4f 3dbb 3341 a23a 864b 463c
000001d0: bdd1 11bc bc87 d53a adf7 173a f5ae 9dba
000001e0: 91f8 0fbb 35a3 b33a 8040 81b9 fb25 d2bb
000001f0: 38fb 53bb cd38 8bba 9787 8aba d8bd ed3a
00000200: e5f3 413b 30ca 73ba 1245 40bc 7f07 aeba
00000210: 2860 dcbb 99bb 68bb 6d53 043c b40e 49bb
00000220: 99f2 85ba bcf5 153c cd64 30bc 9432 fdba
00000230: 1339 78bb ad14 96b9 f40e 073b 2348 c5bb
00000240: 3d6c 61bb fdff 903a 214f b13a 1552 3cba
00000250: 2203 32ba f6f4 6439 c475 79ba 1658 8aba
00000260: 8266 1f38 6ae3 bfbb

exp_avg_sq f4 [7, 22]
1.179526e-06 7.6731595e-07 3.013026e-05 8.8142673e-07 4.4625793e-07 3.08057e-05 2.8240559e-06 6.614689e-07
3.49852e-06 5.82565e-07 9.177785e-07 5.911117e-07 4.2271708e-07 2.9811716e-07 4.1432233e-07 1.7032876e-07
4.4880795e-07 7.458508e-07 2.7722006e-06 4.768753e-07 4.552764e-07 7.519568e-07 1.2970495e-06 4.215382e-07
4.0557927e-05 3.193285e-06 5.043111e-08 3.930355e-05 1.0973109e-05 6.737239e-08 6.525801e-07 9.2202765e-07
3.355367e-06 8.3601014e-07 7.15812e-07 4.2013443e-07 1.0677876e-06 2.566325e-07 9.4269365e-07 1.4664396e-06
2.57836e-06 7.04551e-07 2.3207231e-07 1.0425111e-06 8.185245e-05 3.0881587e-05 0.0024804224 0.00021001867
1.8424728e-06 0.0024029166 0.0007958433 2.2437137e-06 2.0261201e-05 3.7419126e-05 0.00032363425 7.575409e-05
2.6869655e-05 3.0903593e-05 3.19645e-05 1.07630585e-05 1.7777022e-05 0.00016418655 0.00022838253 2.7893384e-05
3.5434656e-05 3.7776754e-05 5.680525e-05 9.794626e-06 0.002245588 0.00018310832 3.4329278e-06 0.0021262302
0.00054906984 4.2102233e-06 1.9800058e-05 6.6846434e-05 0.00012371753 9.723843e-05 3.476687e-05 4.3259453e-05
4.2556472e-05 1.0306682e-05 1.6612647e-05 0.000113604605 0.00017392462 3.0939722e-05 5.6121917e-05 4.233028e-05
8.73848e-06 2.8572888e-06 0.0007326841 4.13968e-05 4.2414308e-07 0.00070110726 6.333951e-05 9.646678e-07
1.2882567e-05 1.2070662e-05 2.723592e-05 1.875905e-05 4.1825504e-05 1.13178e-05 9.52886e-06 3.5607486e-06
5.0375997e-06 2.5885367e-05 5.9661586e-05 1.03743205e-05 1.719648e-05 1.5502163e-05 6.581339e-05 3.7489049e-06
0.0022816355 3.439496e-05 1.5057593e-06 0.0023163487 9.597848e-05 2.2218014e-06 1.3885739e-05 1.7379614e-05
9.4369774e-05 7.882613e-05 3.294553e-05 0.00015037176 5.4956316e-05 1.0831075e-05 1.056341e-05 4.9616374e-05
0.00012878535 2.2995026e-05 0.00016128884 6.0969047e-05 0.00016278726 1.1020864e-05 0.0023247115 4.832597e-05
4.009991e-06 0.0024485753 0.00032744638 7.089413e-06 2.727718e-05 2.2611881e-05 6.625329e-05 0.00012270844
5.0215775e-05 7.1069284e-05 8.544645e-05 1.2369702e-05 1.31757915e-05 4.9893126e-05 0.00013048893 2.7220356e-05
0.00012615809 0.000103680155
00000000: 3450 9e35 8df9 4d35 3ec0 fc37 2f9b 6c35
00000010: 3995 ef34 5e35 0138 e984 3d36 cc8f 3135
00000020: 1ec8 6a36 9061 1c35 425d 7635 e3ac 1e35
00000030: cbf1 e234 e90c a034 0770 de34 9de3 3634
00000040: b2f3 f034 7a36 4835 0b0a 3a36 9f02 0035
00000050: b66c f434 14da 4935 4816 ae35 c54f e234
00000060: be1c 2a38 384c 5636 9899 5833 ded9 2438
00000070: 2519 3837 5dae 9033 f72c 2f35 4281 7735
00000080: c42c 6136 2e6a 6035 3a26 4035 d68e e134
00000090: e750 8f35 4dc7 8934 6a0d 7d35 7bd2 c435
000000a0: e307 2d36 6020 3d35 8d2f 7934 69ec 8b35
000000b0: 33a8 ab38 da86 0138 958e 223b 7538 5c39
000000c0: e24a f735 407a 1d3b 24a0 503a b592 1636
000000d0: 99f6 a937 7bf2 1c38 74ad a939 2bde 9e38
000000e0: 2566 e137 7b9e 0138 9f11 0638 fc92 3437
000000f0: dd1f 9537 7e29 2c39 f879 6f39 96fc e937
00000100: ac9f 1438 7b72 1e38 2c42 6e38 9953 2437
00000110: b72a 133b c400 4039 4061 6636 3958 0b3b
00000120: 74ef 0f3a 8b45 8d36 4d18 a637 e82f 8c38
00000130: 2cba 0139 7cec cb38 a4d2 1138 7c71 3538
00000140: aa7e 3238 ddea 2c37 635b 8b37 023f ee38
00000150: 895f 3639 46c5 0138 7364 6b38 cb8b 3138
00000160: 7c9b 1237 d9bf 3f36 9911 403a 7aa1 2d38
00000170: c8b5 e334 83ca 373a 24d5 8438 bc79 8135
00000180: 3422 5837 1983 4a37 b178 e437 c15c 9d37
00000190: cb6d 2f38 95e1 3d37 24de 1f37 32f5 6e36
000001a0: a708 a936 6724 d937 243d 7a38 5e0d 2e37
000001b0: 2941 9037 a40a 8237 4b05 8a38 b295 7b36
000001c0: 7e87 153b 4f43 1038 7f19 ca35 e2cd 173b
000001d0: 0e48 c938 421a 1536 cbf6 6837 70ca 9137
000001e0: 63e8 c538 754f a538 fe2e 0a38 1dad 1d39
000001f0: e580 6638 1db7 3537 8039 3137 2d1b 5038
00000200: 8e0a 0739 71e5 c037 a51f 2939 04b9 7f38
00000210: dfb1 2a39 40e6 3837 305a 183b 9db1 4a38
00000220: 8f8d 8636 4778 203b 1cad ab39 98e1 ed36
00000230: 4cd1 e437 a5ae bd37 77f1 8a38 4cab 0039
00000240: c79e 5238 080b 9538 b731 b338 7787 4f37
00000250: 980d 5d37 5644 5138 dbd3 0839 4557 e437
00000260: 4e49 0439 dc6e d938

exp_avg f4 [7, 7]
-0.00030634901 6.435003e-05 0.00023933359 0.0002634435 0.00021023459 0.0005769885 0.00028074806 5.577032e-05
4.669456e-05 0.000335807 0.00018864663 0.00010579446 0.0003258954 0.00014314905 2.984792e-05 -0.00011114905
-0.013555528 0.002330008 0.0022036103 0.008186271 0.0028468354 0.0015742454 0.0010362482 0.008370201
-0.011945665 0.003226334 0.013723015 0.009652141 0.00023117717 0.00014267628 0.0012831669 0.0019238202
-0.007832077 0.003256644 0.0023269195 -0.0011753986 -0.001509838 0.002352584 0.006749467 0.0013544658
-0.025175774 0.0060523194 -0.00029111287 -0.0002620799 0.0014658653 0.00083380094 -0.0008161963 0.009429855
-0.019371644
00000000: 789d a0b9 a9f3 8638 9ff5 7a39 ca1e 8a39
00000010: 6b72 5c39 0b41 173a 5e31 9339 edea 6938
00000020: e7d9 4338 410f b039 72cf 4539 f8dd dd38
00000030: f1dc aa39 481a 1639 ec61 fa37 b118 e9b8
00000040: 0118 5ebc 0cb3 183b 726a 103b b61f 063c
00000050: f991 3a3b e956 ce3a b8d2 873a 2b23 093c
00000060: c0b7 43bc e770 533b 7fd6 603c 0324 1e3c
00000070: 2668 7239 5f9b 1539 f02f a83a b228 fc3a
00000080: 1d52 00bc 6b6d 553b 3b7f 183b d50f 9aba
00000090: c2e5 c5ba cf2d 1a3b a22a dd3b 5588 b13a
000000a0: 6d3d cebc 8952 c63b 82a0 98b9 c567 89b9
000000b0: 4722 c03a 6f93 5a3a 02f6 55ba ae7f 1a3c
000000c0: 48b1 9ebc

exp_avg_sq f4 [7, 7]
3.4671712e-06 2.3090497e-07 7.7248825e-07 1.811014e-06 5.2392744e-07 4.2681316e-07 6.124375e-07 2.5327478e-07
4.467506e-07 5.537418e-06 2.6201471e-06 8.0334206e-07 4.559687e-07 1.0821088e-06 5.333663e-06 8.717533e-06
0.00044461858 0.00021681364 2.3982277e-05 4.809232e-05 2.7206082e-05 5.297759e-06 6.852364e-06 0.00011067554
0.0004494579 1.7728491e-05 9.5193514e-05 7.3911186e-05 1.9104673e-06 2.1554317e-06 1.5909434e-05 5.5016477e-05
0.00011908707 1.2095683e-05 1.491766e-05 6.5531776e-06 5.0068743e-06 3.3496228e-05 8.55195e-05 1.4905148e-05
0.0005149441 7.375004e-05 7.0825554e-06 5.555661e-06 4.0406758e-05 7.420343e-05 2.6013236e-05 0.00015883907
0.00035325348
00000000: 8cad 6836 adee 7734 fd5c 4f35 f811 f335
00000010: 05a4 0c35 c124 e534 6266 2435 d2f9 8734
00000020: efd8 ef34 0fce b936 c9d5 2f36 3fa5 5735
00000030: dccb f434 fa3c 9135 d1f7 b236 8541 1237
00000040: b21b e939 7858 6339 8c2d c937 bcb6 4938
00000050: 9e38 e437 67c3 b136 5ced e536 7a1a e838
00000060: 38a5 eb39 a5b7 9437 a1a2 c738 c400 9b38
00000070: 9435 0036 09a6 1036 4075 8537 7ec1 6638
00000080: 62be f938 90ee 4a37 dd46 7a37 5ee3 db36
00000090: b900 a836 4d7e 0c38 ef58 b338 2011 7a37
000000a0: 50fd 063a 40aa 9a38 b0a6 ed36 c46a ba36
000000b0: 6d7a 2938 aa9d 9b38 0037 da37 0a8e 2639
000000c0: e134 b939

exp_avg f4 [7]
0.00135273 0.0012211242 0.001938971 0.025641395 0.0013535669 -0.011343317 -0.009008782
00000000: 164e b13a 210e a03a 1225 fe3a e70d d23c
00000010: 2b6a b13a 52d9 39bc 9299 13bc

exp_avg_sq f4 [7]
3.2256143e-05 4.2745753e-05 0.0026234929 0.0023203173 0.000748156 0.0023629365 0.0025179198
00000000: c54a 0738 e749 3338 e8ee 2b3b 7710 183b
00000010: e61f 443a 7fdb 1a3b af03 253b

exp_avg f4 [7]
0.0013548002 0.0012200015 0.0019354573 0.025644442 0.0013569813 -0.011340836 -0.009007768
00000000: 8d93 b13a 75e8 9f3a 2caf fd3a 4b14 d23c
00000010: bddc b13a eace 39bc 5195 13bc

exp_avg_sq f4 [7]
3.2257594e-05 4.274356e-05 0.0026234908 0.00232032 0.0007481593 0.0023629298 0.0025179202
00000000: 544c 0738 8c47 3338 dfee 2b3b 8310 183b
00000010: 1f20 443a 62db 1a3b b103 253b

exp_avg f4 [7, 22]
4.550708e-05 0.00022912944 -0.0014366956 -0.00015090691 0.00020849834 -0.0014413196 -0.00015972267 0.00024193875
-7.67031e-06 0.000119594064 0.00037298058 0.00034523325 0.00023830056 0.000218719 0.00017323438 0.000103151324
0.0002449944 9.617963e-05 0.00032470952 9.8371835e-05 0.00037729344 0.00021917888 -0.0069413492 0.0020419674
-0.019800723 -0.0065496042 0.003994569 -0.0178734 -0.020263443 0.0011405947 0.0014996523 -0.0035338267
0.0056039537 0.0055969446 0.00333703 0.004313186 0.0014970913 0.0012468216 -0.003805361 0.0012040468
0.0068895444 0.0012745206 0.007932151 0.0035777136 4.1712512e-05 8.4392144e-05 -0.0004275183 -2.9777386e-05
6.825285e-05 -0.00043452572 5.2892183e-06 9.104333e-05 3.313965e-05 4.4724704e-05 9.625141e-05 8.425263e-05
6.35796e-05 5.8017646e-05 4.9674076e-05 2.659479e-05 8.861709e-05 2.767737e-05 8.609241e-05 2.924626e-05
9.927841e-05 7.066352e-05 0.0034303118 0.011626628 -0.063870475 -0.004334142 0.009723931 -0.06451239
0.0019153872 0.010991219 0.003530649 0.003576345 0.012649769 0.014641821 0.0106316125 0.012675419
0.0077771884 0.004798639 0.011594129 0.0047337567 0.011964431 0.004882203 0.017160915 0.010345116
8.233016e-05 0.0003381602 -0.0016026066 -0.00014265352 0.00028253873 -0.0016251764 -0.00010040992 0.00034717884
0.00017467006 0.00019340405 0.00019719405 0.00039781336 7.8346864e-05 0.00037595368 0.00024696087 0.00012070078
0.00029080978 0.00011917762 0.00032944273 0.00012369713 0.00047088385 0.00020426574 0.006934779 -0.0058253254
0.042915553 0.010749357 -0.006979098 0.04136249 0.018554932 -0.006031116 -0.0019890268 -0.0016539849
-0.003061064 -0.012691669 -0.0067375936 -0.011985582 -0.004551663 -0.0029314337 -0.00075220165 -0.0029061844
-0.011649388 -0.0030531646 -0.018395962 -0.0029778164 -0.0037821904 -0.009657938 0.052480694 0.000548118
-0.0081891315 0.052779563 0.0015318822 -0.0076103783 -0.0033592496 0.00070996024 -0.019746132 -0.008351449
-0.008308612 -0.0061747264 -0.007675234 -0.0040411986 -0.009099842 -0.003936736 -0.010115451 -0.0040347627
-0.007945654 -0.013734623
00000000: dbde 3e38 7742 7039 814f bcba c43c 1eb9
00000010: 59a0 5a39 a9ea bcba 3a7b 27b9 f0b0 7d39
00000020: bbaf 00b7 93ce fa38 9b8c c339 6c00 b539
00000030: 52e0 7939 ef57 6539 40a6 3539 f252 d838
00000040: 9772 8039 0cb4 c938 c63d aa39 fa4c ce38
00000050: 78cf c539 62d3 6539 4274 e3bb 87d2 053b
00000060: 2035 a2bc 109e d6bb e0e4 823b 3d6b 92bc
00000070: 85ff a5bc 0280 953a fb8f c43a c697 67bb
00000080: 5fa1 b73b 9366 b73b 13b2 5a3b a055 8d3b
00000090: 0c3a c43a 646c a33a 5d63 79bb 1bd1 9d3a
000000a0: b0c1 e13b d10d a73a daf5 013c 1378 6a3b
000000b0: 78f4 2e38 b0fb b038 8924 e0b9 73ca f9b7
000000c0: f822 8f38 0ed1 e3b9 0a7a b136 84ee be38
000000d0: 6eff 0a38 c996 3b38 95da c938 c9b0 b038
000000e0: 0a56 8538 f957 7338 2259 5038 e017 df37
000000f0: f0d7 b938 b32c e837 838c b438 dd55 f537
00000100: b133 d038 3031 9438 15cf 603b 9d7d 3e3c
00000110: 86ce 82bd 6b05 8ebb 1f51 1f3c 121f 84bd
00000120: bb0d fb3a 8414 343c 7662 673b 1d61 6a3b
00000130: fa40 4f3c 40e4 6f3c 3730 2e3c 90ac 4f3c
00000140: c9d7 fe3b e73d 9d3b 4df5 3d3c a11d 9b3b
00000150: 7606 443c e3fa 9f3b 0c95 8c3c 907e 293c
00000160: aba8 ac38 184b b139 8e0e d2ba 4395 15b9
00000170: b521 9439 df03 d5ba 2a93 d2b8 8e05 b639
00000180: a327 3739 81cc 4a39 e0c5 4e39 9b91 d039
00000190: 274e a438 a61b c539 877a 8139 bd20 fd38
000001a0: d477 9839 ffee f938 0eb9 ac39 b2b4 0139
000001b0: f6e0 f639 2b30 5639 253d e33b 5fe2 bebb
000001c0: 38c8 2f3d 121e 303c ebb0 e4bb b76b 293d
000001d0: 8300 983c aba0 c5bb 555a 02bb 86ca d8ba
000001e0: 229c 48bb b8f0 4fbc 08c7 dcbb 2d5f 44bc
000001f0: 1e26 95bb 4c1d 40bb 662f 45ba af75 3ebb
00000200: 13dd 3ebc 9a17 48bb 21b3 96bc 7827 43bb
00000210: a0de 77bb 543c 1ebc fff5 563d 94af 0f3a
00000220: b52b 06bc 622f 583d 70c9 c83a 7b60 f9bb
00000230: db26 5cbb a01c 3a3a a4c2 a1bc 84d4 08bc
00000240: d820 08bc 5c55 cabb 8880 fbbb 086c 84bb
00000250: 8117 15bc bcff 80bb 47bb 25bc 0b36 84bb
00000260: 7d2e 02bc 2f07 61bc

exp_avg_sq f4 [7, 22]
8.467467e-07 4.4094354e-06 4.266095e-05 1.6365947e-06 3.5715689e-06 4.2695196e-05 5.6077733e-06 4.401911e-06
3.0223896e-06 7.372036e-07 1.3316981e-06 1.5116344e-06 8.3757317e-07 3.557472e-07 5.6487227e-07 4.5031848e-07
3.8286557e-06 3.059845e-07 3.269732e-06 3.2007443e-07 6.2023963e-07 4.4660098e-07 0.0002903189 0.0001743861
0.0025892828 6.4747575e-05 8.133686e-05 0.002900629 0.0010700757 0.00020244894 3.453461e-05 0.00013078512
0.00014792373 7.4698815e-05 4.04972e-05 3.4102733e-05 6.3751904e-05 1.8598734e-05 0.00033683784 1.7321645e-05
0.00014228305 1.8177943e-05 5.8323065e-05 4.2474036e-05 5.8959034e-07 3.8567805e-07 4.7926537e-06 1.9278552e-07
1.2612986e-07 5.437728e-06 2.6396422e-06 4.559719e-07 1.0457566e-07 2.939043e-07 1.7324038e-07 1.11276925e-07
1.0498955e-07 4.3773795e-08 1.1445515e-07 5.295105e-08 4.2797788e-07 5.146036e-08 3.2694675e-07 3.7395722e-08
5.7399244e-08 9.758723e-08 7.62829e-05 0.00022082265 0.004405287 0.00018560297 0.00019310987 0.0043147285
0.0007937503 0.0002373673 8.688357e-05 5.826305e-05 0.00022972841 0.00024639547 8.078209e-05 6.959175e-05
6.0868497e-05 2.8708853e-05 0.00022680398 2.2778226e-05 0.0003631693 2.6033256e-05 0.00022460948 5.0018814e-05
5.0363496e-07 1.9037964e-06 3.9481256e-05 1.4319257e-06 1.5114147e-06 3.8864528e-05 3.1043621e-06 1.9103509e-06
5.8122765e-07 6.176696e-07 1.7399622e-06 1.1211504e-06 2.590379e-06 4.6284975e-07 4.698347e-07 2.9021618e-07
3.1833315e-06 2.1596712e-07 3.096359e-06 2.3757849e-07 9.1630227e-07 4.1226775e-07 2.6176338e-05 0.00011468034
0.0032581436 9.90619e-05 0.000101590034 0.003193128 0.0002952577 0.00011905218 2.997628e-05 1.9697229e-05
0.00016301744 0.00018641587 6.781765e-05 0.00012438362 3.8256698e-05 1.6621922e-05 0.00014133129 1.5087732e-05
0.00024422424 1.755657e-05 0.0002096317 3.4926044e-05 4.7384452e-05 6.0277922e-05 0.0014038751 9.661966e-06
3.832066e-05 0.0014623152 0.00013295386 5.783984e-05 1.0139069e-05 1.885151e-05 0.00014439494 3.9660397e-05
2.6343523e-05 2.1063244e-05 7.031372e-05 8.400373e-06 0.00010609181 7.8923595e-06 6.5265835e-05 8.453918e-06
4.8900132e-05 3.81239e-05
00000000: fd4b 6335 c3f4 9336 d9ee 3238 f7a8 db35
00000010: 16af 6f36 9e13 3338 682a bc36 21b4 9336
00000020: 42d4 4a36 3fe4 4535 ccbc b235 5de3 ca35
00000030: 97d5 6035 86fd be34 baa1 1735 4dc3 f134
00000040: e777 8036 3146 a434 916d 5b36 b2d6 ab34
00000050: 8b7e 2635 5fc4 ef34 f135 9839 6adb 3639
00000060: f5b0 293b 17c9 8738 6593 aa38 7b18 3e3b
00000070: c841 8c3a 7948 5439 41d9 1038 5d23 0939
00000080: f91b 1b39 9fa7 9c38 8adb 2938 8809 0f38
00000090: 8bb2 8538 7a04 9c37 9c99 b039 f34d 9137
000000a0: d131 1539 d67c 9837 ea9f 7438 2626 3238
000000b0: 5744 1e35 300f cf34 95d0 a036 7b00 4f34
000000c0: 506e 0734 ba75 b636 b524 3136 4dcc f434
000000d0: 1493 e033 e6c9 9d34 f403 3a34 23f7 ee33
000000e0: 9e76 e133 cc01 3c33 62ca f533 4c6c 6333
000000f0: d5c4 e534 4405 5d33 3887 af34 089d 2033
00000100: 2387 7633 2691 d133 12fa 9f38 a18c 6739
00000110: 3a5a 903b 6b9e 4239 897d 4a39 9162 8d3b
00000120: ae13 503a cde5 7839 4335 b638 795f 7438
00000130: 40e3 7039 a42e 8139 8e69 a938 c9f1 9138
00000140: 0d4d 7f38 cbd3 f037 3bd2 6d39 de13 bf37
00000150: c267 be39 fe61 da37 2685 6b39 4bcb 5138
00000160: 8831 0735 f285 ff35 ad98 2538 9830 c035
00000170: d0db ca35 7802 2338 8954 5036 9433 0036
00000180: a905 1c35 efcd 2535 a588 e935 6f7a 9635
00000190: 5fd6 2d36 967d f834 973d fc34 02cf 9b34
000001a0: 38a1 5536 97e4 6734 0bcb 4f36 1419 7f34
000001b0: d0f7 7535 a655 dd34 4295 db37 8a80 f038
000001c0: 9486 553b 74bf cf38 bc0c d538 cc43 513b
000001d0: d1cc 9a39 a7ab f938 9275 fb37 7a3b a537
000001e0: a9ef 2a39 a178 4339 5339 8e38 f96c 0239
000001f0: d175 2038 4e6f 8b37 5432 1439 5121 7d37
00000200: 390b 8039 7246 9337 95d0 5b39 8e7d 1238
00000210: abbe 4638 edd2 7c38 3b02 b83a d419 2237
00000220: 7fba 2038 28ab bf3a 8869 0b39 0e99 7238
00000230: f81a 2a37 4f23 9e37 b968 1739 0759 2638
00000240: 49fc dc37 f9b0 b037 6475 9338 54ef 0c37
00000250: 9b7d de38 6d69 0437 54df 8838 4dd5 0d37
00000260: 1e1a 4d38 3ae7 1f38

exp_avg f4 [7, 7]
-0.000100669735 0.00022608424 5.5894576e-05 0.00032495268 9.794379e-05 0.0004576292 0.00040127317 0.00075616257
-0.011287138 0.0003688356 0.005264477 0.0016460903 0.009545886 0.012008734 1.9087502e-05 9.161275e-05
1.5523157e-05 6.260361e-05 2.2001217e-05 0.00010745904 0.00011714774 0.0029995958 0.008106775 0.0025157402
-0.0014075022 0.0046593267 0.029586341 0.019027112 0.00010028919 0.00036465324 7.992968e-05 0.0003738183
-0.00043660248 0.0008733056 0.00030292574 -0.0024833349 0.0009709366 -0.0027362423 -0.0053539886 -0.0026241378
-0.03836136 0.0079196375 -0.0016659435 0.0007802656 -0.0018273501 -0.003038658 -0.0024527274 0.004027308
-0.04873492
00000000: a71e d3b8 0711 6d39 5870 6a38 695e aa39
00000010: 2c67 cd38 f4ed ef39 f961 d239 3639 463a
00000020: b0ed 38bc 4760 c139 a281 ac3b a0c1 d73a
00000030: 5966 1c3c 48c0 443c 191e a037 3820 c038
00000040: ba37 8237 0f4a 8338 418f b837 a25b e138
00000050: 37ad f538 de94 443b 47d2 043c 1edf 243b
00000060: f07b b8ba 44ad 983b 0e5f f23c bfde 9b3c
00000070: 5952 d238 ee2e bf39 ec9f a738 0bfd c339
00000080: cbe7 e4b9 8cee 643a 01d2 9e39 72bf 22bb
00000090: 7486 7e3a 8752 33bb 8370 afbb baf9 2bbb
000000a0: cd20 1dbd 5ec1 013c ca5b daba bd8a 4c3a
000000b0: b283 efba 3924 47bb f0bd 20bb 82f7 833b
000000c0: 449e 47bd

exp_avg_sq f4 [7, 7]
2.845076e-06 2.324608e-06 1.3863819e-07 6.6721004e-06 2.0533449e-07 4.9302975e-07 2.989037e-07 1.20478235e-05
0.00070432853 7.874006e-06 0.00018532388 1.1700414e-05 5.8316346e-05 5.0335657e-05 3.5655802e-08 1.2005123e-06
2.1460751e-08 4.0482405e-07 2.321602e-08 4.7721166e-08 6.03409e-08 1.6230708e-05 0.00022645012 9.768206e-06
0.00088998454 2.0404324e-05 0.00025492115 5.9193917e-05 2.0193936e-07 2.5108657e-06 9.1274394e-08 2.7127903e-06
3.780058e-06 8.604767e-07 2.674022e-07 8.4229105e-06 9.2562565e-05 6.9465036e-06 0.00026954658 1.506945e-05
0.00061127305 3.4137276e-05 3.010822e-06 0.00010864445 2.4392214e-06 3.504682e-05 5.267025e-06 2.8293434e-05
0.00034070964
00000000: 09ee 3e36 7600 1c36 93dc 1434 e8e0 df36
00000010: ea79 5c34 bf58 0435 0379 a034 0221 4a37
00000020: b0a2 383a 991a 0437 8053 4239 e54c 4437
00000030: b398 7438 801f 5338 f823 1933 4a21 a135
00000040: b158 b832 9856 d934 916c c732 faf5 4c33
00000050: c394 8133 2e27 8837 3e73 6d39 20e2 2337
00000060: da4d 693a f429 ab37 f0a6 8539 fc46 7838
00000070: abd4 5834 5880 2836 a102 c433 620d 3636
00000080: e7ac 7d36 82fb 6635 7b8f 8f34 2050 0d37
00000090: 261e c238 0316 e936 ee51 8d39 cbd2 7c37
000000a0: d73d 203a 9f2e 0f38 870d 4a36 0cd8 e338
000000b0: 81b1 2336 3dff 1238 66bb b036 b057 ed37
000000c0: 46a1 b239

exp_avg f4 [7]
0.0014704787 0.018320274 0.0004494947 0.065492295 0.0016728382 -0.04266083 -0.052905
00000000: 14bd c03a 6614 963c 28aa eb39 d320 863d
00000010: 2343 db3a 1fbd 2ebd eab2 58bd

exp_avg_sq f4 [7]
4.816061e-05 0.003064043 5.7893403e-06 0.004727007 4.2240637e-05 0.0034088558 0.0015163419
00000000: 1000 4a38 1cce 483b 0e42 c236 02e5 9a3b
00000010: 8a2b 3138 1c67 5f3b febf c63a

exp_avg f4 [7]
0.0014705767 0.018317424 0.00044844 0.06548874 0.001670737 -0.04266281 -0.05290271
00000000: 5ec0 c03a 6c0e 963c 991c eb39 f61e 863d
00000010: a2fc da3a 33bf 2ebd 83b0 58bd

exp_avg_sq f4 [7]
4.816075e-05 0.0030640392 5.7886627e-06 0.0047269985 4.223977e-05 0.0034088618 0.0015163369
00000000: 3600 4a38 0cce 483b 3c3c c236 f0e4 9a3b
00000010: 9c2a 3138 3667 5f3b d3bf c63a

exp_avg f4 [7, 22]
-0.0007637903 -7.3267697e-06 -0.002623966 -0.00080651336 5.8915422e-05 -0.0024454533 -0.0022871057 9.746249e-05
-0.00032485044 0.00018802447 0.0005846566 0.0009320365 0.00030972323 0.00057414296 0.00032827022 0.00016588758
0.00020244128 0.00021730093 0.00017472634 0.00112002 0.0002994467 0.0004247125 -0.0011286878 0.0009313025
-0.008920453 -0.002869617 0.00082434923 -0.008627457 -0.0049372595 0.0012596428 0.0009077485 -0.0002756548
0.0019867064 0.0029352217 0.0008653197 0.0016902335 0.0010989 0.00067086174 0.0005594701 0.00093454454
0.00066188845 0.0040022545 0.0010028051 0.0013930313 -0.0031694039 0.0009829581 -0.013536113 -0.005835234
0.001605834 -0.012604733 -0.012014806 0.0013656785 0.0013691875 0.00091330096 0.0015827453 0.0042155082
0.0012614626 0.0025558781 0.0015631616 0.0009767457 0.0009782127 0.00028178087 0.00095316145 0.006585613
0.0015351748 0.0021433071 -0.00018184724 8.4726766e-05 -0.0012958136 -0.00041230104 0.000120535165 -0.0012408653
-0.00078135054 0.00013248985 0.000111053 7.957253e-05 0.00023846644 0.00035417613 0.000106464315 0.00023857935
0.00017941583 8.71672e-05 9.979617e-05 0.00012114417 8.669443e-05 0.0005490502 0.00013716343 0.00020502016
0.004010022 -0.0020337119 0.025007691 0.008167558 -0.0019490999 0.023644824 0.018223949 -0.0019120679
-0.0023470211 -0.001321627 -0.0030114043 -0.00984299 -0.0030369568 -0.0032809314 -0.0018620332 -0.0018576904
-0.0019200156 -0.0014023602 -0.0018082964 -0.012153604 -0.0025895115 -0.0029781759 -0.0005938011 0.00030471417
0.0010098178 0.002910067 -0.0003013051 -0.00030363124 0.0052498206 -0.00031939746 0.000806045 0.0006268989
0.0039260373 0.0022441167 0.0018116924 -0.00928957 -0.00070318684 -4.1191033e-05 7.905319e-05 0.00017703968
-2.4209667e-05 0.00012479983 -0.00092696043 2.9893623e-05 0.0032744214 0.0056525515 -0.0169008 -0.0046770554
0.004013636 -0.015036876 -0.0118853655 0.004499982 0.0025972223 -0.00013593925 -0.0037416473 0.010291615
0.003006393 0.005264698 -0.00072999194 0.0015550065 0.0016202584 0.0020296148 0.001441302 0.008945569
0.0020703862 -0.0011071134
00000000: 1939 48ba 79d8 f5b6 d8f6 2bbb 326c 53ba
00000010: f41b 7738 e643 20bb 44e3 15bb c764 cc38
00000020: b050 aab9 6f28 4539 a443 193a e953 743a
00000030: 5962 a239 1582 163a af1b ac39 1cf2 2d39
00000040: 6b46 5439 46db 6339 bf36 3739 a3cd 923a
00000050: 0eff 9c39 f2ab de39 7af0 93ba a722 743a
00000060: 1727 12bc 2f10 3cbb 2419 583a 2d5a 0dbc
00000070: bcc8 a1bb 991a a53a f8f5 6d3a c385 90b9
00000080: 6733 023b d95c 403b 9fd6 623a d38a dd3a
00000090: f708 903a c5dc 2f3a 67a9 123a 39fc 743a
000000a0: 9582 2d3a 5825 833b 8e70 833a 6096 b63a
000000b0: c6b5 4fbb 9ad6 803a 93c6 5dbc 7e35 bfbb
000000c0: d97a d23a 1584 4ebc c0d9 44bc 9100 b33a
000000d0: 4f76 b33a 976a 6f3a 1f74 cf3a 3f22 8a3b
000000e0: a957 a53a 8580 273b 00e3 cc3a 2606 803a
000000f0: 5f37 803a fdbb 9339 95dd 793a 20cc d73b
00000100: eb37 c93a ba76 0c3b 3fae 3eb9 56af b138
00000110: 4ad8 a9ba 1c2a d8b9 d3c7 fc38 88a4 a2ba
00000120: 8cd3 4cba f9ec 0a39 20e5 e838 2de0 a638
00000130: d90c 7a39 b7b0 b939 9845 df38 282b 7a39
00000140: 9221 3c39 89cd b638 a949 d138 c80e fe38
00000150: b8cf b538 23ee 0f3a 87d3 0f39 aefa 5639
00000160: 8166 833b 0648 05bb eedc cc3c 39d1 053c
00000170: f178 ffba cab2 c13c 644a 953c 5a9e faba
00000180: 7bd0 19bb 713a adba fb5a 45bb 7e44 21bc
00000190: ae07 47bb e504 57bb 770f f4ba bf7d f3ba
000001a0: 08a9 fbba 66cf b7ba 5c04 edba e91f 47bc
000001b0: cbb4 29bb 802d 43bb 51a9 1bba 0bc2 9f39
000001c0: dd5b 843a d3b6 3e3b 7cf8 9db9 b230 9fb9
000001d0: b006 ac3b cd74 a7b9 c44c 533a 7956 243a
000001e0: fda5 803b 0812 133b 4f76 ed3a 4833 18bc
000001f0: 1256 38ba 89c4 2cb8 5cc9 a538 baa3 3939
00000200: dd15 cbb7 b3dc 0239 43ff 72ba 11c4 fa37
00000210: ad97 563b 0a39 b93b 8c73 8abc fc41 99bb
00000220: d284 833b 3b5d 76bc d6ba 42bc 9674 933b
00000230: 2936 2a3b ea8a 0eb9 6d36 75bb 299e 283c
00000240: e806 453b 7d83 ac3b ee5c 3fba 5cd1 cb3a
00000250: da5e d43a 4903 053b 12ea bc3a 7090 123c
00000260: 51af 073b 901c 91ba

exp_avg_sq f4 [7, 22]
1.39755175e-05 1.4543918e-05 0.00013783593 1.6546765e-05 1.6741797e-05 0.00013605972 2.9501038e-05 1.871359e-05
1.2575333e-05 3.5396126e-06 4.5876022e-06 5.3546664e-06 1.9006636e-06 1.9717709e-06 1.6885753e-06 2.311799e-06
6.959408e-06 4.3884365e-06 2.6026603e-06 5.3591702e-06 3.140463e-06 3.3600577e-06 0.00034780326 5.8089804e-06
0.0014159124 0.00013532347 2.7025496e-06 0.0016307891 0.00090784876 8.059347e-06 1.1526813e-05 0.00015194647
8.346361e-05 4.736548e-05 1.5128271e-05 1.4695926e-05 2.1416703e-05 1.5990592e-05 7.5331634e-05 0.00015138608
1.704883e-05 3.0926625e-05 2.2249893e-05 2.1108472e-05 0.00045470794 1.630588e-05 0.0013040409 0.0001732718
3.76238e-06 0.0015920092 0.0015518657 2.2637012e-05 1.1922869e-05 2.676177e-05 0.00021506587 6.280551e-05
1.7398419e-05 2.179741e-05 1.6760954e-05 1.5106208e-05 7.42338e-05 0.00015542358 1.2947487e-05 3.6243127e-05
2.47677e-05 1.9720372e-05 5.4805864e-06 4.1296536e-07 4.4536693e-05 6.699028e-06 5.777106e-07 4.323314e-05
2.7535936e-05 7.511218e-07 5.830479e-07 1.3970078e-06 2.1015644e-06 1.4354887e-06 7.295764e-07 9.102771e-07
1.921407e-06 8.201252e-07 1.6533035e-06 5.611895e-07 1.6375977e-06 7.0845925e-07 1.132568e-06 1.4602185e-06
0.00010840699 3.9145478e-05 0.0022201445 0.00026652787 5.1801642e-05 0.0020480726 0.0011759013 6.466939e-05
1.959001e-05 1.6055183e-05 0.000116187424 0.00018630287 3.2412845e-05 4.64634e-05 3.5902867e-05 1.9161336e-05
2.8174081e-05 5.2921085e-05 1.4575016e-05 0.00018401141 4.9178165e-05 9.857504e-05 0.000112694106 1.6527296e-05
0.0016378846 0.0003592197 3.1246e-05 0.0013793806 0.0012820376 4.018533e-05 1.0020636e-05 1.383856e-05
4.9177048e-05 8.522531e-05 1.5197282e-05 0.00013557282 3.60333e-05 1.5381678e-05 2.0108742e-05 1.8833622e-05
1.563463e-05 0.00017741119 3.227218e-05 7.523186e-05 0.00024052433 1.5897209e-05 0.0034007677 0.00045390148
3.167986e-05 0.0031787525 0.0016202356 3.848023e-05 1.8163204e-05 3.3044784e-05 0.00025912825 0.00015716844
2.9004903e-05 6.092567e-05 0.00016169807 2.4211397e-05 3.8703678e-05 3.47185e-05 3.1956028e-05 0.00037553438
6.364548e-05 0.00017850625
00000000: 6478 6a37 a701 7437 0d88 1039 e8cd 8a37
00000010: bc70 8c37 41ab 0e39 ff78 f737 21fb 9c37
00000020: a5fa 5237 158a 6d36 34ef 9936 3cac b336
00000030: 4e1a ff35 c452 0436 01a3 e235 6824 1b36
00000040: dc84 e936 6240 9336 5da9 2e36 ecd2 b336
00000050: bec0 5236 5a7d 6136 5d59 b639 c3ea c236
00000060: 2396 b93a 9ee5 0d39 735d 3536 34c0 d53a
00000070: b3fc 6d3a a236 0737 4963 4137 d253 1f39
00000080: 2f09 af38 4caa 4638 6ecf 7d37 868e 7637
00000090: 05a8 b337 8923 8637 5dfb 9d38 64bd 1e39
000000a0: 1504 8f37 36b7 0138 48a5 ba37 1912 b137
000000b0: de65 ee39 9cc8 8837 5aec aa3a 4bb0 3539
000000c0: 327d 7c36 f7aa d03a f967 cb3a 9de4 bd37
000000d0: 5508 4837 777e e037 4e83 6139 74b6 8338
000000e0: d2f2 9137 95d9 b637 e099 8c37 ab70 7d37
000000f0: f8ad 9b38 33f9 2239 0939 5937 c303 1838
00000100: 3bc4 cf37 2d6d a537 e1e5 b736 87b5 dd34
00000110: e9cc 3a38 36c8 e036 f813 1b35 3b55 3538
00000120: f9fc e637 b2a0 4935 bf82 1c35 d380 bb35
00000130: 9a08 0d36 04ab c035 1cd8 4335 c459 7435
00000140: 85f1 0036 9326 5c35 13e7 dd35 a6a4 1635
00000150: 6ecb db35 f32c 3e35 bd02 9835 bafc c335
00000160: 8f58 e338 2330 2438 d87f 113b c4bc 8b39
00000170: 9745 5938 f538 063b b320 9a3a 1d9f 8738
00000180: 3a55 a437 3eae 8637 a6a9 f338 4c5a 4339
00000190: 07f3 0738 b2e1 4238 6996 1638 a8bc a037
000001a0: 6157 ec37 95f7 5d38 3887 7437 30f3 4039
000001b0: a744 4e38 12ba ce38 3056 ec38 19a4 8a37
000001c0: 4aae d63a a755 bc39 230e 0338 55cc b43a
000001d0: 0b0a a83a ab8c 2838 4e1e 2837 2a2c 6837
000001e0: 7443 4e38 fdba b238 d4f7 7e37 8d28 0e39
000001f0: 7622 1738 e707 8137 32af a837 e5fc 9d37
00000200: 1d27 8337 7407 3a39 fd5b 0738 ccc5 9d38
00000210: 4235 7c39 ff5a 8537 6adf 5e3b a0f9 ed39
00000220: fedf 0438 9e52 503b 165e d43a d565 2138
00000230: 2f5d 9837 9199 0a38 9bdb 8739 95cd 2439
00000240: 8e4f f337 718a 7f38 7f8d 2939 9419 cb37
00000250: c255 2238 b59e 1138 8608 0638 5fe3 c439
00000260: 6879 8538 682d 3b39

exp_avg f4 [7, 7]
-0.00047186136 0.00018707445 0.00022839135 0.00013032508 0.0017297484 0.000427969 0.0003707946 0.0005022724
-0.0006830519 0.0013879474 0.00044254228 0.0052800616 0.0009952615 0.0012945634 0.0008157049 0.00087930326
-0.00086913956 0.00059547817 0.008316976 0.001859948 0.0018544429 6.0554856e-05 6.92441e-05 8.751837e-05
5.2918116e-05 0.00062876235 0.00016474904 0.00024844482 -0.00097228086 -0.0015452723 -0.00080018555 -0.0016126446
-0.021029528 0.00056342885 0.0006943042 0.0004010376 0.00044932435 0.0006031622 0.00030517735 0.011199776
-0.01650959 0.0029848756 0.001217629 0.0012990591 0.0016508058 0.0010504476 0.020787477 0.0036476986
-0.013108844
00000000: 2964 f7b9 6a29 4439 567c 6f39 dfa7 0839
00000010: bab8 e23a 0761 e039 3567 c239 eeaa 033a
00000020: d60e 33ba c9eb b53a 0505 e839 5e04 ad3b
00000030: 6f73 823a 57ae a93a 07d5 553a 0b81 663a
00000040: f8d6 63ba dd19 1c3a ed43 083c 80c9 f33a
00000050: c710 f33a 48fc 7d38 2537 9138 118a b738
00000060: 65f4 5d38 87d3 243a 7cc0 2c39 b341 8239
00000070: aae0 7eba bc8a caba 8bc3 51ba 605f d3ba
00000080: 1e46 acbc 12b3 133a f701 363a 5b42 d239
00000090: 4b93 eb39 881d 1e3a 3600 a039 447f 373c
000000a0: 1f3f 87bc e79d 433b d998 9f3a 3145 aa3a
000000b0: da5f d83a 2caf 893a 804a aa3c 3a0e 6f3b
000000c0: 7ac6 56bc

exp_avg_sq f4 [7, 7]
1.5758864e-05 6.896385e-06 3.2739592e-06 1.5137931e-06 5.0732096e-06 3.4288205e-06 2.4473734e-06 9.134833e-06
0.00032879034 0.00012706273 7.647916e-06 2.5205904e-05 1.1809451e-05 1.7545746e-05 9.077521e-06 6.0864953e-05
0.0004340453 6.0087114e-06 3.746304e-05 1.444778e-05 1.21563535e-05 5.910569e-07 2.3735615e-06 9.803766e-07
7.5801165e-07 9.5186215e-07 2.1308103e-06 5.346415e-06 1.2874509e-05 1.7142094e-05 6.784409e-05 6.596985e-06
0.00048308936 3.38298e-05 9.872565e-05 7.4162035e-06 1.4349271e-05 1.4613222e-05 7.46209e-06 0.00015151892
0.00025973574 6.154734e-05 1.1773535e-05 2.000466e-05 2.012356e-05 1.4952098e-05 0.00035741003 4.1993942e-05
0.00063750875
00000000: e731 8437 7f67 e736 31b6 5b36 892d cb35
00000010: 8a3a aa36 b01a 6636 8e3d 2436 cf41 1937
00000020: 7e61 ac39 243c 0539 8d4f 0037 4471 d337
00000030: 3521 4637 342f 9337 a84b 1837 3f49 7f38
00000040: 9390 e339 709e c936 a221 1d38 be64 7237
00000050: 24f3 4b37 1fa9 1e35 7a49 1f36 7c95 8335
00000060: 2a7a 4b35 7883 7f35 0bff 0e36 5b65 b336
00000070: 98ff 5737 5ecc 8f37 8547 8e38 ab5b dd36
00000080: 2847 fd39 79e4 0d38 ee0a cf38 b4d8 f836
00000090: a6bd 7037 502b 7537 dd62 fa36 0de1 1e39
000000a0: 242d 8839 fa12 8138 f386 4537 aecf a737
000000b0: 04cf a837 c6da 7a37 c362 bb39 a722 3038
000000c0: 7d1e 273a

exp_avg f4 [7]
0.0026074029 0.0092182765 0.013448522 0.0013286291 -0.02471274 -0.0005638324 0.016558575
00000000: f6e0 2a3b 4108 173c 3157 5c3c 6525 ae3a
00000010: 5f72 cabc 27ce 13ba d9a5 873c

exp_avg_sq f4 [7]
0.00017060143 0.0017722903 0.0017778592 5.0678216e-05 0.002375325 0.0017766885 0.0036744208
00000000: 79e3 3239 324c e83a 0e07 e93a 528f 5438
00000010: 57ab 1b3b c6df e83a 8dce 703b

exp_avg f4 [7]
0.002611127 0.009223517 0.013447814 0.0013325203 -0.024714863 -0.00056787924 0.01655284
00000000: 711f 2b3b 3c1e 173c 3854 5c3c f6a7 ae3a
00000010: d376 cabc bbdd 14ba d299 873c

exp_avg_sq f4 [7]
0.00017060671 0.0017723013 0.0017778602 5.0686627e-05 0.0023753343 0.0017766827 0.0036744229
00000000: e4e4 3239 904c e83a 1707 e93a 5a98 5438
00000010: 7fab 1b3b 94df e83a 96ce 703b

exp_avg f4 [7, 22]
-0.012921809 -0.0061066193 0.024241889 0.001855176 -0.007415155 0.026792496 -0.017644105 -0.0071749873
-0.0032035536 -0.0009210234 0.0026323756 -0.011484734 -0.00656241 -0.0015878312 -0.0045292047 -0.009907575
-0.002342025 -0.005492714 -0.0027725117 -0.0022437957 -0.001489311 -0.0014115787 0.0004902236 2.938778e-05
-0.0024040737 0.00032658584 1.0947257e-05 -0.0024268983 0.0008992725 1.8476117e-06 0.00023119563 7.135509e-05
0.0003788866 0.0005948839 0.0003716463 0.0005530794 0.0003333141 0.00037671765 0.0001738724 0.0008028254
0.00028345763 0.00017161545 0.00041436404 0.00030752327 -0.0070316046 0.0034445955 -0.009252137 -0.0132769765
0.0014989533 -0.010192829 -0.017352602 0.0023805408 0.0018931618 -0.0009964325 -0.007404367 0.0068048667
0.0018471809 0.007425584 3.9875977e-05 0.0038103932 0.000409116 -0.0053945608 0.0003275943 0.00035634084
0.0066346894 0.0034577479 -0.0060055433 0.0006731669 -0.00628552 -0.006306188 0.0023661419 -0.006081618
-0.015681114 0.0007179312 -0.0010891462 0.00039803734 0.0018955575 -0.0018979572 0.00083453895 0.00092347065
0.0026243015 0.0016178058 8.26691e-05 0.0016442243 -0.0018809453 7.791718e-05 0.0012532433 0.0008874657
0.00031645308 -6.1537353e-06 -0.0014515639 0.00025688307 -1.3324936e-05 -0.0014695246 0.00061081466 -1.8189045e-05
9.788257e-05 9.6433876e-05 0.00025642235 0.0003418836 0.00023047984 0.00030629165 0.00019673014 0.00020023249
0.00010809775 0.00052595406 0.00017591334 0.000102787075 0.00022735678 0.00017837939 0.007512772 0.00059773074
0.00030812284 0.0047467235 0.001759101 0.000418457 0.012601562 0.0015927465 0.000904075 -1.400978e-05
0.0010792363 -0.0002223622 0.00035525236 -0.002714224 0.00060478906 0.00085547764 0.00028690256 0.0020546755
0.0006292299 0.0002824619 -0.0028889307 -0.0012326321 0.0023160123 -0.00065539003 -0.0049000024 0.0050257905
-0.0005773987 -0.0055738073 0.008607173 -0.0007631515 0.0006109212 0.00029687717 0.0019816733 0.0012767975
0.00044100013 0.0011431515 4.8862974e-05 0.0010350872 0.00049059413 0.0034420963 0.00092617865 0.00047959783
-1.1311825e-05 -0.0005621982
00000000: ffb5 53bc 091a c8bb ed96 c63c 6029 f33a
00000010: d4fa f2bb f07b db3c 5f8a 90bc 281c ebbb
00000020: b6f2 51bb d670 71ba ef83 2c3b 772a 3cbc
00000030: 7c09 d7bb c61e d0ba b969 94bb 6253 22bc
00000040: a97c 19bb 39fc b3bb 07b3 35bb a50c 13bb
00000050: fc34 c3ba b904 b9ba 5982 003a c785 f637
00000060: aa8d 1dbb 9c39 ab39 1caa 3737 990c 1fbb
00000070: 28bd 6b3a 74fb f735 1b6d 7239 79a4 9538
00000080: 4ca5 c639 fcf1 1b3a 86d9 c239 88fc 103a
00000090: a9c0 ae39 3082 c539 8451 3639 b374 523a
000000a0: 0a9d 9439 acf3 3339 003f d939 133b a139
000000b0: 6069 e6bb b9be 613b 4696 17bc ad87 59bc
000000c0: 8778 c43a d3ff 26bc 0b27 8ebc d902 1c3b
000000d0: f823 f83a ba9a 82ba 55a0 f2bb 5cfb de3b
000000e0: 1b1d f23a 5052 f33b 8140 2738 cab7 793b
000000f0: 9f7e d639 dbc4 b0bb f6c0 ab39 42d3 ba39
00000100: cf67 d93b 629b 623b 26ca c4bb 7777 303a
00000110: c3f6 cdbb 24a4 cebb 4611 1b3b 4f48 c7bb
00000120: ae75 80bc 8c33 3c3a afc1 8eba abaf d039
00000130: 5b74 f83a e0c4 f8ba f6c4 5a3a 1115 723a
00000140: 79fc 2b3b 8e0c d43a a35e ad38 0383 d73a
00000150: 0d8a f6ba 7867 a338 de43 a43a d1a4 683a
00000160: 9de9 a539 2f7c ceb6 6742 beba 43ae 8639
00000170: 2a8e 5fb7 109d c0ba 141f 203a ad94 98b7
00000180: 4e46 cd38 8b3c ca38 6d70 8639 d73e b339
00000190: f6ac 7139 c595 a039 5849 4e39 80f5 5139
000001a0: 8ab2 e238 2ee0 093a 6175 3839 648f d738
000001b0: 9f66 6e39 5a0b 3b39 b32d f63b 08b1 1c3a
000001c0: 8c8b a139 678a 9b3b a391 e63a 5964 db39
000001d0: c876 4e3c b4c3 d03a 72ff 6c3a 8c0b 6bb7
000001e0: 2975 8d3a e629 69b9 2a41 ba39 1fe1 31bb
000001f0: b58a 1e3a 2242 603a 696b 9639 bca7 063b
00000200: e7f2 243a 6517 9439 3754 3dbb 4590 a1ba
00000210: 3dc8 173b 7bce 2bba 3390 a0bb 63af a43b
00000220: 925c 17ba 7ca4 b6bb 1a05 0d3c 3b0e 48ba
00000230: 3a26 203a 2ea6 9b39 f6de 013b 375a a73a
00000240: 0936 e739 cdd5 953a 38f2 4c38 c3ab 873a
00000250: 379b 003a cb94 613b ccca 723a 8872 fb39
00000260: ebc7 3db7 7c60 13ba

exp_avg_sq f4 [7, 22]
0.00016500437 3.344634e-05 0.0018854791 7.295931e-05 5.0218645e-05 0.001960696 0.00045530865 4.290383e-05
0.00010245237 1.1762024e-05 5.374169e-05 0.000113631344 4.7652196e-05 3.7657293e-05 4.1449293e-05 6.0447677e-05
1.3724114e-05 0.00025743435 1.7077162e-05 1.3940403e-05 4.6121982e-05 2.3153616e-05 1.02785625e-05 3.7890212e-07
5.6616853e-05 3.7141474e-06 1.5953349e-07 6.341758e-05 2.7156915e-05 4.4435862e-07 9.4669736e-07 5.6456324e-06
1.4860617e-06 1.7037917e-06 9.188306e-07 8.8937463e-07 1.129031e-06 1.1407349e-06 5.8535846e-07 7.3555716e-06
6.6863686e-07 1.6700484e-06 7.407127e-07 9.4813805e-07 0.00019128232 7.1161085e-06 0.0019864955 0.00019735003
9.239132e-06 0.0019778584 0.0007832253 7.731468e-06 2.6210097e-05 2.5677571e-05 0.0001233086 7.37646e-05
3.9421117e-05 5.0803497e-05 5.536064e-05 4.4853878e-05 1.5818547e-05 0.0002593237 1.9689849e-05 3.0433086e-05
4.039197e-05 3.501105e-05 0.00010305132 7.120863e-07 0.00030183134 8.170224e-05 2.7740864e-06 0.0003224501
0.00047361013 9.2837115e-07 4.9749256e-06 2.6859225e-06 1.7649876e-05 2.2763808e-05 7.5822654e-06 1.0041771e-05
5.5446735e-06 5.349039e-06 2.7888284e-06 6.730909e-05 8.794647e-06 3.4238897e-06 3.2418757e-06 3.2226137e-06
6.814699e-06 1.4982704e-07 5.7650057e-05 6.871265e-06 1.930789e-07 5.7496753e-05 2.9040277e-05 1.561811e-07
6.7055294e-07 1.2148297e-06 2.8447002e-06 2.2928032e-06 1.3831251e-06 8.1278046e-07 1.5138681e-06 1.2852632e-06
6.389396e-07 4.8593347e-06 6.13899e-07 1.8606978e-06 6.5289004e-07 1.2090795e-06 4.1167863e-05 6.6877055e-06
0.0010816416 4.1253315e-05 4.3894515e-06 0.001078478 0.00017452224 4.171366e-06 1.4011798e-05 8.03649e-06
2.2069233e-05 4.066916e-05 1.6689939e-05 7.0576796e-05 2.7212864e-05 1.3836103e-05 6.4123965e-06 0.00013168978
6.7663045e-06 6.251186e-06 5.360541e-05 1.9957422e-05 1.7667402e-05 4.396792e-06 0.0010418822 7.74537e-05
1.2604454e-06 0.0009814012 0.00020332071 1.1859706e-06 4.9512455e-06 7.731635e-06 1.7210252e-05 2.660826e-05
4.346239e-05 2.9084053e-05 6.102448e-05 1.1931629e-05 6.322647e-06 0.00010363165 6.5532427e-06 8.722662e-06
4.912227e-05 2.7619511e-05
00000000: 0605 2d39 bc48 0c38 2e22 f73a bb01 9938
00000010: dca1 5238 057f 003b 7eb6 ee39 a3f3 3338
00000020: b3db d638 8255 4537 b368 6138 5d4d ee38
00000030: 28de 4738 36f2 1d38 d7d9 2d38 3389 7d38
00000040: 9f40 6637 41f8 8639 ed40 8f37 93e1 6937
00000050: 1a73 4138 033a c237 1772 2c37 e96b cb34
00000060: e277 6d38 9140 7936 3b4c 2b34 0eff 8438
00000070: 08cf e337 2f90 ee34 8c20 7e35 9d6f bd36
00000080: b174 c735 d6ad e435 8fa5 7635 5cbd 6e35
00000090: 3689 9735 5a1b 9935 8721 1d35 e1cf f636
000000a0: 607c 3335 6d26 e035 64d5 4635 8d83 7e35
000000b0: f592 4839 e8c6 ee36 dd2f 023b bfef 4e39
000000c0: c501 1b37 f59e 013b 5c51 4d3a 67b6 0137
000000d0: c1dd db37 2a66 d737 664c 0139 11b2 9a38
000000e0: 1a58 2538 d715 5538 0933 6838 7c21 3c38
000000f0: 12b2 8437 d6f5 8739 a12b a537 8e4a ff37
00000100: 8c6a 2938 d4d8 1238 421d d838 3326 3f35
00000110: 1e3f 9e39 8e57 ab38 712a 3a36 850e a939
00000120: e04e f839 2e35 7935 49ee a636 cc3f 3436
00000130: d20e 9437 e8f4 be37 2a6b fe36 1479 2837
00000140: 620c ba36 e57b b336 b527 3b36 4b28 8d38
00000150: b98c 1337 fac5 6536 008f 5936 1544 5836
00000160: d2a9 e436 25e0 2034 47cd 7138 b88f e636
00000170: 2051 4f34 ab28 7138 859b f337 bcb2 2734
00000180: 0c00 3435 3b0d a335 94e7 3e36 0fde 1936
00000190: d1a3 b935 d92d 5a35 1d30 cb35 4f81 ac35
000001a0: 9883 2b35 5e0d a336 d1ca 2435 17bd f935
000001b0: 4342 2f35 a847 a235 a8ab 2c38 f466 e036
000001c0: dfc5 8d3a 6907 2d38 1a49 9336 b75b 8d3a
000001d0: f5ff 3639 c3f7 8b36 3714 6b37 76d4 0637
000001e0: 5121 b937 2e94 2a38 5f01 8c37 a102 9438
000001f0: 2e47 e437 9c21 6837 112a d736 3516 0a39
00000200: 1d0a e336 47c1 d136 5fd6 6038 3d6a a737
00000210: 7534 9437 2888 9336 c48f 883a a36e a238
00000220: 932c a935 5ca2 803a 7d32 5539 a42d 9f35
00000230: e022 a636 1fb7 0137 bc5e 9037 ce34 df37
00000240: 634b 3638 87f9 f337 89f4 7f38 f52d 4837
00000250: 2027 d436 d254 d938 ede3 db36 8c57 1237
00000260: a308 4e38 73b0 e737

exp_avg f4 [7, 7]
-0.033747867 -0.0018343064 0.008133195 -0.0003395054 -0.0012711941 0.0023858359 0.0010139473 0.00051309017
2.2461636e-05 0.000794053 0.00035021463 0.00010988389 0.00046229374 0.00029929637 0.01456207 -0.0006089296
-0.022059556 0.006012522 -0.00084369007 0.0092926305 0.0032467453 0.004367795 0.0008037204 0.011458288
-0.017463809 0.0006546265 0.0022828344 0.0015679926 0.00019118968 7.4010924e-05 0.0005755653 0.00020442712
5.924387e-05 0.00022593878 0.00018753237 0.0025631303 8.3572784e-05 0.0034405224 0.00042610455 -2.6685222e-05
-0.006654244 0.00014683041 0.0022838872 0.00030761203 0.004883655 0.0006442044 0.00022209455 0.0039256765
-0.0064846217
00000000: 343b 0abd 1c6d f0ba 1841 053c a5ff b1b9
00000010: 329e a6ba af5b 1c3b 6de6 843a e680 063a
00000020: ff6b bc37 ff27 503a 039d b739 7771 e638
00000030: 0460 f239 e1ea 9c39 c095 6e3c 93a0 1fba
00000040: 3eb6 b4bc b104 c53b 152b 5dba 1e40 183c
00000050: 59c7 543b b81f 8f3b c3b0 523a 8bbb 3b3c
00000060: 4310 8fbc 3e9b 2b3a 9b9b 153b 1a85 cd3a
00000070: 177a 4839 5036 9b38 89e1 163a 7d5b 5639
00000080: 9f7c 7838 fbe9 6c39 56a4 4439 31fa 273b
00000090: cc43 af38 637a 613b c966 df39 14da dfb7
000000a0: d80b dabb 7df6 1939 45ad 153b fd46 a139
000000b0: 1107 a03b d3df 283a 0de2 6839 f6a2 803b
000000c0: f37c d4bb

exp_avg_sq f4 [7, 7]
0.00041748813 6.4881538e-06 0.00021731565 7.2186394e-06 5.1677657e-06 2.8814919e-05 1.0989149e-05 1.295124e-06
5.7256825e-06 5.409876e-06 6.138196e-07 9.782976e-07 1.0835763e-06 1.0999784e-06 8.497905e-05 1.2455995e-05
0.00048246313 3.393961e-05 1.3055353e-05 6.6638284e-05 3.296513e-05 3.0310878e-06 8.879841e-07 3.649265e-05
0.00012882175 1.1811359e-06 1.7763778e-06 1.5028868e-06 1.0948006e-06 5.520452e-07 1.1140367e-05 1.1881152e-06
8.5345056e-07 4.968997e-07 1.3764237e-06 2.0778962e-05 3.0600581e-06 7.989752e-05 3.4577752e-06 2.8180984e-06
0.00021197635 1.8431696e-05 8.024724e-06 2.769235e-06 7.9241734e-05 2.9453522e-06 3.903895e-06 3.2901513e-05
0.00019716738
00000000: 4fe2 da39 d1b4 d936 3adf 6339 a437 f236
00000010: c566 ad36 91b7 f137 095e 3837 1fd4 ad35
00000020: 3d1f c036 7b86 b536 5dc5 2435 0d4e 8335
00000030: 666f 9135 f8a2 9335 c836 b238 17fa 5037
00000040: 1bf3 fc39 615a 0e38 5008 5b37 28c0 8b38
00000050: 0a44 0a38 b169 4b36 cd5d 6e35 af0f 1938
00000060: 5314 0739 8587 9e35 e06b ee35 ccb6 c935
00000070: 10f1 9235 4230 1435 83e7 3a37 5477 9f35
00000080: ad18 6535 b062 0535 8fbd b835 7b4e ae37
00000090: 665b 4d36 a88e a738 200c 6836 901e 3d36
000000a0: f845 5e39 c49d 9a37 eda1 0637 18d7 3936
000000b0: 952e a638 c4a8 4536 34fe 8236 bbff 0938
000000c0: b7be 4e39

exp_avg f4 [7]
-0.025653135 0.0025529426 0.00960075 0.0036824117 0.0015378636 -1.2410591e-05 0.00579774
00000000: 8626 d2bc 454f 273b 774c 1d3c 9e54 713b
00000010: 2492 c93a 1537 50b7 f8fa bd3b
