data_10frm/model/0_5_16_2.pt (torch_old, 18375 bytes, 52 tensors)

rnn.weight_ih f4 [7, 22]
00000000: c4ca 563d 3376 89be 51d8 9ebe b324 55be
00000010: 723b b53e 87a3 6e3e 7700 c73d fd42 80be
00000020: 33e4 8fbe 27ec 943e 9ee6 81bd 87b6 c9be
00000030: a3b1 86bd a447 e7bd 619e 92bc cb56 0f3e
00000040: 4c2c 083e 4502 9cbe 8756 b0bc fe90 4ebe
00000050: 372e 753e 9dc6 2d3e 3415 363e e527 ad3e
00000060: ffb5 3e3e 5b82 cbbe 2f24 be3d 4aab 83be
00000070: 85bf c53c 89c0 02bb 54d6 bc3e 0856 7fbe
00000080: 0a15 c1be b496 d7bd a13c 603d d650 893e
00000090: a5cf 993e b972 953e 784a ef3d 2634 e0bd
000000a0: 3ca1 a4bd 0485 53be 838d 843d af07 88be
000000b0: ff76 c63d a304 673e 508a 9e3e 18e8 ccbe
000000c0: 5c77 973e 2f7a 7dbe 3b3a 80bd cab7 a73e
000000d0: 9b37 553e 9c6d ebbd 9ac0 743e 61a5 b8be
000000e0: 11fb 9a3e a80d bf3e f8a1 69bb f693 933d
000000f0: 8a73 a6bd 29ae 69be c3bc 22be 0b56 58bc
00000100: 1f75 9cbe eee4 97be 1db3 513d fec6 7ebe
00000110: 693c 56be 618b 493c f5ce 4fbe 0488 b13e
00000120: 3039 06be 81aa 5abe 72bf cbbd 743d 9dbe
00000130: 5d6d 473e 4a80 aa3e bfde 5abe ec57 11be
00000140: bb48 b53e b6bb 89be 648a d53d af6b 9dbe
00000150: d58a aabe e5d1 743b f71a 5bbe 3100 553e
00000160: e899 d9bd 64a2 513c 814b 40be 16a2 313e
00000170: 3dca b73e af5d 43bd efde 60be db31 b9be
00000180: 8b21 b53e e526 183e b940 113e d5ca 543d
00000190: b905 413e 8df0 013e 0082 303e ef2a 683e
000001a0: 717f 3c3d ae0f a13e 2a64 673e db6b b9bc
000001b0: bc0e 31be cdf0 853c a03f a03e cfa5 883e
000001c0: 0e8d 20be b486 6fbd 0393 163e 0775 0c3e
000001d0: 21c4 c23e 7663 553e e398 fe3d ff8b bb3d
000001e0: c79c b3be 40d9 09be 3ed2 2f3d 3ce1 81be
000001f0: 9586 a6be 56e6 843e b3c0 093e c9f3 98be
00000200: be34 d33c 8575 673e 0be1 663e 35c9 b33e
00000210: 59d2 2dbe 7693 4f3e 62a5 85be 5051 47bd
00000220: 4b88 4dbe 95ae d4bc 3df0 4d3e 739f 643e
00000230: 270b 79be 2e5f 09be b44f ecbd f0b2 42be
00000240: 1f50 80be cfe9 6d3e 8c55 5d3e 4d56 8a3e
00000250: 0611 82be 9be8 6b3e 9fe7 23be b34d 09be
00000260: e84f 17be 935b 81bd
0.052439466 -0.2684799 -0.3102441 -0.20814781 0.35396916 0.23304568 0.097168855 -0.25051108
-0.2810379 0.2908642 -0.06342815 -0.3939707 -0.0657685 -0.11292961 -0.017897787 0.13997953
0.13298148 -0.30470482 -0.021525634 -0.20172498 0.23943411 0.16970296 0.17781526 0.338195
0.18624114 -0.3974789 0.09284245 -0.2571662 0.024139175 -0.0019951186 0.3688227 -0.24935162
-0.37711364 -0.10526791 0.05474532 0.26819485 0.30041233 0.2918909 0.11684126 -0.109474465
-0.080385655 -0.2065621 0.06472304 -0.26568362 0.096906655 0.22560363 0.309649 -0.40020823
0.2958325 -0.2475364 -0.062611066 0.32757407 0.20821993 -0.11495516 0.23901597 -0.36063674
0.30269673 0.37315106 -0.003564952 0.07205956 -0.08127506 -0.22820343 -0.1589232 -0.013204108
-0.30558106 -0.29666847 0.051196206 -0.24880597 -0.20921482 0.012301297 -0.20293792 0.34674084
-0.13107753 -0.21354105 -0.09948625 -0.30710948 0.19475313 0.33301002 -0.21374033 -0.14193696
0.3540705 -0.26901025 0.104267865 -0.3074622 -0.33309045 0.0037356552 -0.21397005 0.20800854
-0.106250584 0.012795065 -0.18778802 0.17346987 0.35896483 -0.047696766 -0.21960042 -0.3617085
0.35377154 0.14858587 0.14184846 0.05195125 0.1884984 0.12689419 0.17237091 0.22672628
0.046019975 0.31457275 0.22596803 -0.022634437 -0.17290777 0.016350174 0.31298542 0.26689002
-0.15678808 -0.058478072 0.14704518 0.13716517 0.3804026 0.20838723 0.124315046 0.091575615
-0.3508055 -0.1346178 0.042925112 -0.25367153 -0.32524553 0.25956982 0.13452415 -0.29873493
0.025781985 0.22603424 0.22546785 0.35114446 -0.16974773 0.20271096 -0.2610274 -0.04866153
-0.20071523 -0.025962153 0.20111175 0.2232645 -0.2432066 -0.13415214 -0.1153864 -0.19013572
-0.25061128 0.23233722 0.21614665 0.27018967 -0.25403613 0.2303795 -0.16006325 -0.13408546
-0.14776576 -0.063162945

rnn.weight_hh f4 [7, 7]
00000000: 81fe 2abe 0df1 1d3d a541 89be f02a 093e
00000010: 662b aabe c643 23be 133b 90be 7b2d 813e
00000020: eba6 8a3e ebbe 9ebe c10d 5abe 9a84 a93e
00000030: 3475 bf3d 97fa 823e 194d 92be 15f7 2b3e
00000040: 034d 853e eb5b adbd c27a 17bc b556 873e
00000050: c405 e23d 58a2 e43d ce80 4fbb 1bbe 31be
00000060: c957 5fbe eb48 c03e f2fc 1dbd 2777 ad3e
00000070: 31b4 963e e07b 56be 6657 513b 08f5 e5bd
00000080: 334b 85bb b57f 753e c2a6 4b3e a14b 5abe
00000090: 6053 3abe a838 88be 0047 a6be 2f9f 753e
000000a0: 8cc2 62be 0aac 353c b7fc 33bd 2bff 003d
000000b0: 9dd8 62bd a9b5 1f3e 32e6 5c3c 142c 6d3e
000000c0: d983 153d
-0.16698648 0.038559962 -0.26807895 0.13395286 -0.33236235 -0.15943822 -0.2817007 0.2523001
0.27080473 -0.31005034 -0.21294309 0.3310898 0.093485266 0.2558181 -0.28574446 0.16793473
0.26035318 -0.084647976 -0.009245576 0.2643334 0.11036256 0.11163777 -0.0031662467 -0.17357676
-0.21810831 0.37555632 -0.038571306 0.3387997 0.2943435 -0.20945692 0.0031942963 -0.112283766
-0.0040678023 0.23974498 0.19887832 -0.21317913 -0.18195868 -0.26605725 -0.32476044 0.23986505
-0.22144526 0.011088381 -0.04394218 0.031493347 -0.05538236 0.15596642 0.013482617 0.23161346
0.036502693

rnn.bias_ih f4 [7]
00000000: baa5 a9bc bbd1 543d 3013 863e 626a 753d
00000010: 1fca 833e 9dd3 f9bc 3ae4 2ebd
-0.020708907 0.051957827 0.26186514 0.059915908 0.25740144 -0.030496413 -0.042698123

rnn.bias_hh f4 [7]
00000000: 5a64 9a3e f883 b7be 2734 433d 6f38 b23e
00000010: 2c4b 4bbe 5dd6 83bd 05cb 8cbd
0.30154687 -0.35842872 0.04765716 0.3480868 -0.19852895 -0.06437371 -0.068746604

exp_avg f4 [7, 22]
00000000: 8e12 25ba 6563 d1ba f2a4 26bc c0b7 18bb
00000010: ef70 43ba bf74 23bc d184 88bb 87dc 61ba
00000020: ede1 36b8 d7ca 833a 9173 383b 1be1 e43a
00000030: 5435 d03a 0d50 8f3a e5fd 093b 43b6 713a
00000040: 2c60 c53a 549c ee3a 351d 0b3b c2f9 c93a
00000050: f62c 643a 2a40 c83a 1a73 7eb9 0ced 00bb
00000060: 9909 06bd 939f debb 48a2 ca37 b248 05bd
00000070: 3828 14bc 9194 d738 7151 883b 6d61 6d3b
00000080: 8937 f43b 52ef 9c3b 9c9d 933b 14ea 563b
00000090: 185e bb3b fc74 383b 6658 a53b 3b55 af3b
000000a0: 88f9 f33b 379b a13b a0a7 3c3b b4dd a53b
000000b0: 5421 293c 095d f73b 5e18 8d3c bf93 0b3c
000000c0: 7647 47b9 0b0a 8e3c 142f c73c 660f 05b9
000000d0: f787 44bb 81bb daba ac34 e1bb d087 e7ba
000000e0: 5bbd e5ba ebd9 a0ba b163 22bb 896f 8fba
000000f0: 8a7e 8bbb dfa4 5fbb 000b 6ebb abb6 2dbb
00000100: e8a8 2dba f374 48bb 686a 0e3b 79d7 b2ba
00000110: 1a6b 5f3c bf5c c03b 73bf 0fba 460c 4a3c
00000120: 691d 223c 48f7 0cba 6113 60ba 5233 0cbb
00000130: 3c91 ccba 5704 87bb ce96 f2ba 5fb8 cbba
00000140: efe2 7cba 57d6 88ba bc51 dbba 5bd4 29bb
00000150: c3c8 1cbb ee5c 43bb 5c0d 68ba 1054 c2ba
00000160: 3247 6dbb 11fe 10bb f5e5 3b3c 014b 8f3a
00000170: e4b1 d5b9 0520 3b3c 6417 a3bb 2bb1 38ba
00000180: 330f a8ba 9e10 79ba 2fc6 eeba bc4d 09bb
00000190: 548b 2bbb 9c53 bbba 93c3 89ba 663a a4ba
000001a0: b8f2 9dba 223d b1ba d683 51bb fe76 a3ba
000001b0: 702c a2ba 182f e6ba 85d7 9cbb e900 163a
000001c0: 2099 883c c276 2939 c6c2 903a 3f00 8c3c
000001d0: 57e0 98bb 6ac5 963a d7a3 a3ba f54b 90ba
000001e0: 81ee cbbb fc9b 3fba 8360 eaba cc13 cdba
000001f0: 8893 89bb 7625 deba dbc5 10bb d0ff 28bb
00000200: b386 80bb 0f59 03bb 929e 11bb ada3 11bb
00000210: d672 62bb 6d71 f3b9 92c3 98bc 5393 f5bb
00000220: ed30 563a 7389 92bc 7e46 52bc d498 823a
00000230: c57c 383b 97a1 003b 469a 9f3b 556e 403b
00000240: 143c 283b a292 fb3a 7162 b73a c032 c43a
00000250: cdd2 453b ea57 4f3b f87d 853b a035 413b
00000260: 9a83 b83a 7d5d 1b3b
-0.00062970154 -0.0015975056 -0.010171162 -0.0023302883 -0.0007455488 -0.009976565 -0.0041662236 -0.000861593
-4.360259e-05 0.0010054958 0.0028145055 0.0017462106 0.0015885034 0.0010933891 0.0021055874 0.00092205795
0.0015058569 0.0018204548 0.0021227126 0.0015409517 0.00087042095 0.0015277911 -0.00024266206 -0.001967254
-0.032723997 -0.006793925 2.4155845e-05 -0.03254003 -0.009042792 0.000102796716 0.004160099 0.00362214
0.0074529094 0.0047892714 0.0045048725 0.003279333 0.005718004 0.00281459 0.0050459383 0.0053507364
0.007445518 0.004931833 0.0028786436 0.0050618295 0.010322887 0.0075489325 0.017223533 0.008519112
-0.0001900474 0.017338773 0.02431444 -0.00012689605 -0.0029988268 -0.0016687961 -0.006872734 -0.0017664377
-0.0017527746 -0.0012271976 -0.002477866 -0.0010943274 -0.004257028 -0.003412537 -0.0036322474 -0.0026506584
-0.0006624595 -0.0030587285 0.0021730904 -0.0013644538 0.013636375 0.005870431 -0.0005483545 0.012332028
0.009894707 -0.0005377424 -0.00085478096 -0.0021392894 -0.0015607248 -0.0041203904 -0.0018508078 -0.0015542618
-0.0009646853 -0.0010439855 -0.0016732733 -0.0025913927 -0.0023923374 -0.002981003 -0.00088520884 -0.0014826078
-0.0036205766 -0.0022124092 0.0114684 0.0010932387 -0.00040759065 0.011421208 -0.0049771536 -0.0007045443
-0.0012821913 -0.00095010723 -0.0018217022 -0.0020950874 -0.0026175575 -0.0014291885 -0.0010510556 -0.0012529611
-0.0012050485 -0.0013522247 -0.003196945 -0.0012471376 -0.0012372863 -0.0017561642 -0.004786434 0.00057221815
0.016674578 0.00016161337 0.0011044375 0.017089961 -0.0046654153 0.0011502926 -0.0012484741 -0.0011008965
-0.0062235002 -0.0007309315 -0.0017881546 -0.0015646159 -0.0041984953 -0.001694842 -0.0022090587 -0.0025787242
-0.0039223074 -0.0020042097 -0.002221976 -0.0022222803 -0.003455331 -0.0004643308 -0.018647943 -0.007494369
0.00081707427 -0.017887807 -0.012834189 0.0009963759 0.002815054 0.0019627565 0.0048706857 0.0029362638
0.0025670575 0.001919348 0.001399113 0.0014968738 0.0030185462 0.0031638094 0.0040738545 0.0029481426
0.0014077306 0.0023706846

exp_avg_sq f4 [7, 22]
00000000: 85c8 9536 9877 4f36 0dce eb38 98c5 4036
00000010: cfea f135 3c37 f238 1c4c 1637 1c43 3336
00000020: d219 4837 b839 d135 73bc 1936 0131 1236
00000030: e869 0b36 6939 9435 8a03 0136 d3aa 5935
00000040: fc50 4a36 1acd 0636 94aa f136 74f7 1f36
00000050: 6d81 8e35 182a 4436 8085 8f36 e488 a435
00000060: 7493 1639 4e42 2137 f458 4c34 a5f0 1239
00000070: d91f 0138 995f 8a34 681f 4636 f188 1a36
00000080: a00b ee36 cee9 5c36 7209 6336 babb ff35
00000090: 189a 9836 f76c 8d35 6f70 8c36 fe9a 7136
000000a0: c89a e736 bd71 5e36 bd7e 8a35 de76 7136
000000b0: 73a9 0438 0fc9 4d37 b9b9 573a 1e97 9338
000000c0: a3e0 fa34 4acd 523a 176f 9539 d350 1b35
000000d0: e975 7137 e49c 1e37 0ead 9a38 4b26 8437
000000e0: b699 7f37 5bd3 0f37 5345 8c37 039d b436
000000f0: 2928 fc37 c8cb bb37 285a 1e38 ade1 9a37
00000100: 464e 9536 8bbd b137 bac0 8a37 ab93 2e36
00000110: 4a83 3d3a 6994 9838 7388 ba35 0727 2f3a
00000120: db2d 5d39 889f d735 15a3 3a37 7b31 e937
00000130: d71f 8137 9cba e337 ba01 7a37 b31b c136
00000140: 3eb8 ad37 a120 a136 f841 a637 aa66 aa37
00000150: 2524 f237 9763 bb37 0e90 9936 79e3 8537
00000160: bd41 a436 4906 ed35 f225 fa39 83d8 d537
00000170: 60a6 7f34 4389 ef39 2098 0238 b830 2035
00000180: c901 3e37 595f ef36 f439 1f37 16f8 1c37
00000190: 6b02 e937 98ad c836 ffc0 0537 0398 8a36
000001a0: 5547 4037 0fc4 2c37 e6ae ce37 594c 2b37
000001b0: 7add 8036 2686 3d37 e9dd 3337 d861 9c34
000001c0: 46a0 a939 aa70 8236 93b3 9234 1e46 ad39
000001d0: 1f0c 2037 d690 9334 1419 9836 1768 3c36
000001e0: 9323 8037 2bdf 9136 931b bf36 5916 7e37
000001f0: a640 4637 a78a 3f36 ea65 f636 91e2 ed36
00000200: f280 9437 8adc cb36 299b 8036 0de2 f336
00000210: ccc5 7038 af2a 3a36 d471 ee39 9440 a037
00000220: b265 0236 3dca 013a f1e4 2239 1f13 2e36
00000230: cefe c436 6105 c536 d986 ff36 311b 4e37
00000240: bb7c 3837 1c29 cb36 bc7e 3738 d6bc 8e36
00000250: e878 1f37 8a6e 2437 a1ff da37 a805 1a37
00000260: 9f39 b036 b91f 9237
4.4638896e-06 3.0915016e-06 0.00011244053 2.8725244e-06 1.8024238e-06 0.000115497474 8.958417e-06 2.6712141e-06
1.1926941e-05 1.5588512e-06 2.2908469e-06 2.178422e-06 2.077426e-06 1.1043568e-06 1.9224558e-06 8.108738e-07
3.0147485e-06 2.008694e-06 7.2022176e-06 2.3836883e-06 1.0617492e-06 2.9230778e-06 4.2772735e-06 1.2258793e-06
0.00014360045 9.611786e-06 1.9031341e-07 0.00014013292 3.0785657e-05 2.577406e-07 2.952258e-06 2.3027499e-06
7.094306e-06 3.2918647e-06 3.3831134e-06 1.9053616e-06 4.547892e-06 1.0537032e-06 4.185414e-06 3.6002016e-06
6.9023554e-06 3.3146782e-06 1.0318687e-06 3.5980988e-06 3.1629064e-05 1.2265765e-05 0.0008229274 7.037654e-05
4.6729573e-07 0.0008041455 0.00028502263 5.7859614e-07 1.43921725e-05 9.454063e-06 7.375526e-05 1.5753458e-05
1.5234973e-05 8.572674e-06 1.6721582e-05 5.3826966e-06 3.0059442e-05 2.238703e-05 3.77541e-05 1.8463319e-05
4.4496583e-06 2.1188307e-05 1.6540627e-05 2.6013975e-06 0.00072293414 7.275568e-05 1.3897792e-06 0.0006681536
0.00021093285 1.6065178e-06 1.1124434e-05 2.7798806e-05 1.5392825e-05 2.7147405e-05 1.4901563e-05 5.755073e-06
2.0709002e-05 4.8019724e-06 1.9819461e-05 2.0313386e-05 2.886548e-05 2.2338512e-05 4.5765255e-06 1.596076e-05
4.895234e-06 1.7659705e-06 0.00047711987 2.54924e-05 2.3809253e-07 0.000456879 3.1136093e-05 5.967554e-07
1.1325298e-05 7.133855e-06 9.490632e-06 9.356087e-06 2.777689e-05 5.9806734e-06 7.972353e-06 4.130417e-06
1.14607e-05 1.0297647e-05 2.4638557e-05 1.021017e-05 3.8404805e-06 1.1296512e-05 1.0720899e-05 2.9128455e-07
0.00032353605 3.8874177e-06 2.7325277e-07 0.00033049373 9.539565e-06 2.7486266e-07 4.5328725e-06 2.8074771e-06
1.5275355e-05 4.347317e-06 5.6954536e-06 1.5144783e-05 1.1816772e-05 2.8541924e-06 7.3432357e-06 7.089526e-06
1.770302e-05 6.0755456e-06 3.8327603e-06 7.26828e-06 5.740467e-05 2.7741005e-06 0.00045479706 1.9103558e-05
1.9430704e-06 0.00049510953 0.00015534811 2.593915e-06 5.8709184e-06 5.8716837e-06 7.6152905e-06 1.2284888e-05
1.0996296e-05 6.054657e-06 4.374863e-05 4.253913e-06 9.505289e-06 9.800899e-06 2.6106662e-05 9.180432e-06
5.2519167e-06 1.7419328e-05

exp_avg f4 [7, 7]
00000000: 1194 4bba 2e14 723a 9c82 203b b566 1a3b
00000010: e27e 173b 8b72 ee3a 1b45 9f3a ebbd 133b
00000020: 75b3 643b b7f8 f63b 19a2 e13b 93b4 a83b
00000030: 0768 8a3b 2dad 823b eb59 0cba 0b3f 51bb
00000040: c3ad 87bc fab3 9c39 3ca0 573a 1b83 113b
00000050: cfdd eeba 6c01 a2b9 0147 40ba a5d4 013a
00000060: b060 5dbc b46d c3ba 8916 fd3a 9a9a 173a
00000070: 417c 87ba 9755 6dba c496 583a fb5c 093a
00000080: 3ff8 1ebc 915c 92b9 66ce 34ba 04b4 4dba
00000090: 8385 83ba 9308 cfb9 6dfb 07ba c29e 9fb9
000000a0: f1e1 5cbc f18e c0b9 3ec3 ca3a 6940 113b
000000b0: 25f4 953b abde a23b 7eca 723b 8265 303b
000000c0: 2ef9 a0ba
-0.0007765899 0.00092345744 0.0024491912 0.0023559753 0.00231164 0.0018192095 0.0012151332 0.002254362
0.0034897004 0.0075369733 0.0068857786 0.0051484792 0.004223827 0.0039879293 -0.0005353975 -0.0031928446
-0.016562348 0.00029888732 0.0008225476 0.002220339 -0.0018224063 -0.00030900107 -0.0007334799 0.0004952646
-0.013511822 -0.0014910013 0.0019309084 0.00057832303 -0.0010336713 -0.00090535864 0.0008262212 0.00052399904
-0.009702741 -0.00027916257 -0.0006897211 -0.0007846954 -0.0010034296 -0.00039488505 -0.00051873067 -0.00030445127
-0.013481603 -0.00036727593 0.0015469564 0.0022163636 0.0045762234 0.0049703917 0.0037046964 0.0026915972
-0.0012281293

exp_avg_sq f4 [7, 7]
00000000: af61 3037 5444 d735 8568 0b36 e396 ad36
00000010: 6938 2136 ad68 a335 39a3 0f36 de0b 9835
00000020: 2b70 0c36 dcf5 2637 939b 0f37 ccd6 9836
00000030: af92 5236 76d9 8e36 7062 2936 1c54 7537
00000040: b5a7 1239 662a ee37 2450 5237 8487 9b36
00000050: 0b4a 4237 526e 0836 b344 0237 534e 4f37
00000060: 0b03 2639 4317 2637 c23f 8f36 7675 9537
00000070: 81b6 2936 ee79 b736 706f ed36 a953 9a37
00000080: 7b7c 9038 2fc3 1c36 c232 0a37 31f9 a835
00000090: fd03 2836 6be7 4136 5fc3 fe36 9afd 4b36
000000a0: 8456 9438 dd20 a836 7a80 3c36 839c 9d36
000000b0: 429d 1537 ed70 8a37 bcfa e536 4a28 9336
000000c0: e5df aa38
1.0513161e-05 1.6038634e-06 2.0773452e-06 5.1733673e-06 2.4023705e-06 1.2174911e-06 2.1403669e-06 1.1328336e-06
2.0926916e-06 9.951615e-06 8.559687e-06 4.5549587e-06 3.137782e-06 4.2572456e-06 2.524026e-06 1.4622721e-05
0.00013986121 2.8391554e-05 1.2535635e-05 4.635136e-06 1.1580541e-05 2.0329794e-06 7.764599e-06 1.2356398e-05
0.00015832127 9.899787e-06 4.2691545e-06 1.7816881e-05 2.5289194e-06 5.4680195e-06 7.0761234e-06 1.8397188e-05
6.8896414e-05 2.3359423e-06 8.237259e-06 1.25895e-06 2.5036272e-06 2.8893944e-06 7.592534e-06 3.0396973e-06
7.073305e-05 5.010616e-06 2.8088966e-06 4.697185e-06 8.9177065e-06 1.6503467e-05 6.853921e-06 4.3856317e-06
8.147935e-05

exp_avg f4 [7]
00000000: 3ee5 283c 5656 093d 39c8 99bc 43c2 55bc
00000010: f055 38bc e809 8abc b056 973c
0.010308562 0.033529602 -0.018772231 -0.013046804 -0.011250958 -0.016850427 0.018473953

exp_avg_sq f4 [7]
00000000: 0df9 fc38 befe 1d39 ca24 663a 452b 433a
00000010: 7fea fe39 328d b039 9d3a 083a
0.00012062686 0.00015067586 0.00087792857 0.00074451073 0.00048621368 0.00033674535 0.00051967223

exp_avg f4 [7]
00000000: efed 283c 2955 093d 95cf 99bc 7ab5 55bc
00000010: 9e47 38bc b404 8abc cf58 973c
0.010310634 0.03352848 -0.01877574 -0.013043756 -0.011247544 -0.016847946 0.018474964

exp_avg_sq f4 [7]
00000000: 05fa fc38 75fd 1d39 2f25 663a bc2a 433a
00000010: 2dea fe39 d98c b039 b33a 083a
0.00012062866 0.00015067107 0.00087793445 0.00074450276 0.0004862113 0.00033674276 0.0005196735

exp_avg f4 [7, 22]
00000000: b4c5 8439 bb27 113b d03e 78bc b157 07bb
00000010: db49 063b 2feb 75bc 2cc4 3ebb 1ba1 223b
00000020: 54a0 293a 298d da3a e4f3 683b e99a 563b
00000030: 3a0c 383b dec4 ab3a 2fd6 103b 6904 e13a
00000040: db5d 7a3b fea8 ab3a 5e30 813b f5a0 a93a
00000050: ab26 013b 9041 ba3a 3bee 8abc 3f44 95bb
00000060: 0a74 233c cbdd 34bc 81e4 9f39 72b6 673c
00000070: eeec 1fbd 67e5 b1bb 69a9 f4b9 89b6 27bc
00000080: ea02 913a fa84 943a 8ff3 89ba 0054 d9ba
00000090: 9bce 2dbb a055 aab9 0682 78bb 6233 c3ba
000000a0: 05e0 51bb 0442 9dba fbde 33ba bcfa 4cbb
000000b0: 2cb0 ec3a 2f81 413b a07a 55bc bd79 49ba
000000c0: c60f 1c3b b7b5 59bc c636 a73a dbff 483b
000000d0: da1c dd3a 7210 093b fd3c 253b ef46 063b
000000e0: fa52 0b3b e8f6 a73a 1a1c 013b 22e0 b43a
000000f0: 5c1d 5f3b 6d44 9c3a 7b65 663b 8ab6 983a
00000100: f924 d23a 2dd0 bf3a e621 1b3c b9d1 3f3b
00000110: 0799 3fbc d519 e43b 0c56 bd38 06fd 66bc
00000120: c493 c73c f2b6 203b 870e 16b8 a3f2 803b
00000130: 33b5 fe3a 3b71 f239 d7d1 2b3b ec10 dd3a
00000140: 9d6f 2f3b f210 dd39 4f7b 843b cff4 9d3a
00000150: f175 5c3b e9cf 823a 92ed 9a3a fec7 073b
00000160: 15c6 7d3a 6515 2b3a ef95 2cba 5bcc 103a
00000170: 3964 3539 d86f 77ba 0f4e e43a 5f74 393a
00000180: 3d15 a439 78d8 393a 5f56 32b9 26b4 dc39
00000190: 5ccf 04ba ac2b 5a38 9f5f 4239 36e2 a438
000001a0: 9775 1339 b343 1039 93cd 6039 1a79 0139
000001b0: 4231 0939 ac81 3339 efeb 973b 010d 11bb
000001c0: 20cc 913c 2163 bd3b a029 2dbb a5ea 893c
000001d0: a058 403c bd46 05bb 5d5e 1eba 2654 0c38
000001e0: f457 29bb 628b e9bb 4f88 94bb 001e b9ba
000001f0: d51b 97ba 0fed edba 765c 95bb b29c b4ba
00000200: 3363 89bb 0795 c1ba 8a59 35bb 4613 9cba
00000210: 9cd4 caba fda3 80bb 059e b53c 6899 313a
00000220: 6ec1 71bb 591e b53c 566a 2a3a dd23 4bbb
00000230: 098b f4ba 93b9 3f3a 199e 09bc df33 2dbb
00000240: fcf8 50bb de85 10bb d87a 96bb d7c2 19bb
00000250: f2a5 b7bb 51e5 f0ba eadd c9bb f51e e0ba
00000260: 1c28 32bb 39bc eaba
0.00025324302 0.0022148925 -0.015151694 -0.0020651633 0.0020490799 -0.015009685 -0.0029108627 0.0024815265
0.0006470729 0.0016674149 0.003554576 0.0032746142 0.002808346 0.0013104936 0.002210032 0.0017167452
0.0038202915 0.0013096628 0.0039425334 0.0012941646 0.0019706886 0.0014210213 -0.0169593 -0.0045552547
0.009976396 -0.011039208 0.00030497092 0.014142619 -0.039044313 -0.005428958 -0.00046665527 -0.010236391
0.001106349 0.0011331134 -0.0010524857 -0.001658082 -0.0026520852 -0.00032488722 -0.0037919297 -0.0014892633
-0.0032024395 -0.0011997824 -0.0006861535 -0.003127738 0.0018057874 0.0029526462 -0.013029724 -0.0007685682
0.0023813113 -0.013287953 0.0012757413 0.003067008 0.001686956 0.0020914343 0.0025213354 0.0020489057
0.0021259175 0.0012814673 0.0019700588 0.0013799707 0.00340446 0.0011922248 0.0035155702 0.001165108
0.0016032747 0.0014634185 0.009468531 0.0029269292 -0.011694199 0.006961087 9.02825e-05 -0.014098411
0.024362452 0.0024523106 -3.5776317e-05 0.0039351746 0.0019432664 0.000462422 0.0026217604 0.0016866005
0.0026769408 0.0004216503 0.00404302 0.0012051108 0.0033639634 0.0009980175 0.0011820069 0.002071857
0.00096807006 0.00065263204 -0.0006583621 0.00055236154 0.00017298841 -0.0009438968 0.0017418283 0.00070745306
0.0003129634 0.00070894463 -0.00017007579 0.0004209589 -0.00050662993 5.2015923e-05 0.00018536903 7.8622645e-05
0.00014062818 0.0001375813 0.00021438887 0.00012347513 0.00013083688 0.00017119077 0.00463628 -0.0022132995
0.01779753 0.0057796394 -0.0026422516 0.01683552 0.01173988 -0.0020336353 -0.0006041283 3.345697e-05
-0.0025839778 -0.0071272114 -0.004532851 -0.001412332 -0.001152868 -0.0018152314 -0.0045581413 -0.0013779609
-0.0041927337 -0.0014769145 -0.0027671778 -0.0011907599 -0.001547474 -0.003925799 0.022170076 0.00067748735
-0.0036888975 0.022109197 0.00065008306 -0.0030996718 -0.0018657158 0.00073137245 -0.00839951 -0.0026428623
-0.0031886688 -0.0022052447 -0.004592281 -0.002346208 -0.005604499 -0.0018378888 -0.0061604874 -0.001709907
-0.0027184552 -0.0017908878

exp_avg_sq f4 [7, 22]
00000000: 643d 6f36 efd1 cb37 9ccd 6539 1d92 ef36
00000010: c334 a637 b5af 6639 4c0e a837 a6fc c837
00000020: 1eb5 9c37 4962 4136 15fe a936 7bad e236
00000030: 62ce a636 f46f ff35 bbc1 6936 cc8e 4e36
00000040: 84f4 6237 1da8 0f36 c48e 8837 089d 0036
00000050: 0caa 6236 ae63 3236 d2a7 7439 8844 0339
00000060: 8e15 d93a d3d0 3938 21c8 4538 6170 fb3a
00000070: d66d 603a c506 1c39 ad59 0b38 7633 f538
00000080: 5d87 3438 a13e 0938 b74a 2538 b2b4 9837
00000090: c521 3638 3b51 9037 cdf8 fb38 5ea1 a237
000000a0: bcdd 0339 2b8b 7737 6f7c be37 d6f9 0938
000000b0: 510d 4336 e970 2136 643e 1838 899d aa35
000000c0: 3453 b535 5c38 2338 ad00 5637 3dd5 3736
000000d0: 1103 6f35 bc92 eb35 d53a 9735 afd9 7b35
000000e0: 259b 7535 e420 cd34 fef4 6e35 38e3 ef34
000000f0: 6682 2136 cfb2 d434 464d 2e36 ce9d a534
00000100: cd9b 0e35 e0a9 1635 8824 0b38 e69b bd38
00000110: 47ab df3a 7336 b538 30b3 a938 f38b d93a
00000120: 537f c139 a7e1 d138 a599 4638 9686 0838
00000130: 98fe 5238 2d05 8d38 f9de 2f38 22d7 6a37
00000140: 5c39 1238 3d2b db37 bd5c d238 6a0a 8437
00000150: 0e90 f238 a534 7037 5a46 e437 da25 9137
00000160: 7899 aa35 ee39 cb36 1e3a 0639 870c 8b36
00000170: 9974 a636 041d 0439 d737 f536 2ea1 ca36
00000180: 7ad1 2736 2ad3 0b36 4709 5f36 a749 3636
00000190: dba9 0637 b57a b735 e493 1936 ce17 d635
000001a0: 79bb 0c37 092d 9435 84de 1137 a25e 8335
000001b0: 3bea f635 77ce bf35 3ab3 b336 bf89 c237
000001c0: 6ad3 313a 02a2 b137 a48b a437 4b4d 2e3a
000001d0: 43a8 7e38 4cc5 c737 6735 0f37 966d cb36
000001e0: e9c8 b937 4e41 1e38 3fe2 ce37 182e 6137
000001f0: 77a7 2037 a1d8 0437 fc57 3938 e311 c136
00000200: 35f3 3638 2933 af36 5787 4837 2542 c936
00000210: d022 5f37 694c 8437 5869 b539 ff6a 2436
00000220: 3c28 2637 f8fe bd39 1b75 1c38 aa88 8237
00000230: f6b5 a136 00f5 0a37 d63e 9537 2057 e436
00000240: e2b1 0837 d3f7 7736 1626 7e37 a2a4 7d36
00000250: 0786 c137 e023 5a36 7f6f d337 9514 2e36
00000260: 9d24 a836 6625 8a36
3.564951e-06 2.4297244e-05 0.00021915737 7.139765e-06 1.9813311e-05 0.00021999965 2.0033818e-05 2.3959507e-05
1.8680988e-05 2.881645e-06 5.0661715e-06 6.7555206e-06 4.9712116e-06 1.9031563e-06 3.4832472e-06 3.077951e-06
1.352758e-05 2.1406515e-06 1.6278944e-05 1.916489e-06 3.3775605e-06 2.6582088e-06 0.00023332171 0.00012518663
0.001656221 4.430192e-05 4.7154845e-05 0.0019183272 0.00085612887 0.00014879841 3.32237e-05 0.00011692096
4.304141e-05 3.2721673e-05 3.940865e-05 1.8203955e-05 4.342363e-05 1.7203964e-05 0.000120149554 1.9387047e-05
0.00012575736 1.475475e-05 2.2707709e-05 3.2896023e-05 2.9065015e-06 2.4056592e-06 3.629773e-05 1.2711836e-06
1.3509766e-06 3.8914717e-05 1.2755551e-05 2.7393246e-06 8.90389e-07 1.755157e-06 1.1267499e-06 9.382156e-07
9.149538e-07 3.8208157e-07 8.901842e-07 4.4682542e-07 2.4066771e-06 3.9618178e-07 2.5973e-06 3.0848463e-07
5.312584e-07 5.6126555e-07 3.3174205e-05 9.041261e-05 0.0017064594 8.6408945e-05 8.091924e-05 0.0016597494
0.00036906693 0.000100079276 4.734997e-05 3.255027e-05 5.030501e-05 6.724368e-05 4.193091e-05 1.3997576e-05
3.4862533e-05 2.6126969e-05 0.00010030854 1.5740476e-05 0.000115662915 1.4317372e-05 2.7212478e-05 1.7302973e-05
1.2710652e-06 6.0566153e-06 0.00012800886 4.143981e-06 4.9607593e-06 0.0001259931 7.3080696e-06 6.038833e-06
2.500687e-06 2.0835528e-06 3.323499e-06 2.7162985e-06 8.02657e-06 1.3670275e-06 2.288486e-06 1.595117e-06
8.3883e-06 1.1039966e-06 8.694482e-06 9.787802e-07 1.8396598e-06 1.4290698e-06 5.3554804e-06 2.3190745e-05
0.00067835173 2.1175485e-05 1.9615349e-05 0.0006649091 6.0715025e-05 2.3814522e-05 8.535898e-06 6.062629e-06
2.2147275e-05 3.7730955e-05 2.4662468e-05 1.3421777e-05 9.575734e-06 7.918251e-06 4.418938e-05 5.7539305e-06
4.3618686e-05 5.2213622e-06 1.195244e-05 5.997967e-06 1.3299941e-05 1.5771207e-05 0.00034601497 2.4500184e-06
9.903739e-06 0.00036238856 3.730236e-05 1.5560847e-05 4.819357e-06 8.2824845e-06 1.7791444e-05 6.805072e-06
8.147648e-06 3.695012e-06 1.5148447e-05 3.7795767e-06 2.3069804e-05 3.2505413e-06 2.520508e-05 2.594e-06
5.0110525e-06 4.1170742e-06

exp_avg f4 [7, 7]
00000000: d173 14ba f3a6 493b 3e07 433a a335 ae3b
00000010: 3a3d ae3a e5d8 4e3b bc7f 1e3b a28e 0e3a
00000020: abb6 a0bc 0ece 72ba d171 483b 41aa 053a
00000030: a136 203b c3f5 2439 9019 8c3a 7449 813b
00000040: 2118 483a fa21 493b cf87 7f3a 52bd e83a
00000050: 9fe6 0b3b 40c6 763a f53f 1b3c 7085 723a
00000060: 0cfc 05bc 2645 a83a 60ae 803b f66d a13b
00000070: 76bb 3b39 9e96 8f3a 7647 1038 0961 453a
00000080: 8f83 fbba f084 603a a13c 0ab6 1399 23ba
00000090: 94e9 1bba f1ca 20ba 024c 12b9 3511 89ba
000000a0: d1f6 81bc 08fe c53a c8c3 dbba 16d8 b039
000000b0: 48dd b8ba 5f24 84bb 3c96 93ba 34fb 9aba
000000c0: 6632 56bc
-0.000566301 0.0030769676 0.0007439739 0.0053164526 0.0013293393 0.0031562385 0.0024185022 0.0005438124
-0.019618353 -0.0009262272 0.0030585418 0.0005098917 0.0024446624 0.00015731812 0.001068877 0.003945524
0.000763299 0.0030690418 0.0009747715 0.0017756617 0.0021347178 0.0009413697 0.009475698 0.0009251451
-0.008177768 0.0012837991 0.003927037 0.0049264384 0.00017903544 0.0010954922 3.439883e-05 0.0007529413
-0.0019188988 0.0008564731 -2.0598893e-06 -0.00062407664 -0.00059475866 -0.0006133756 -0.0001395196 -0.0010457399
-0.015864762 0.0015105614 -0.0016766721 0.00033730333 -0.0014104033 -0.004032656 -0.0011259983 -0.0011824132
-0.013073539

exp_avg_sq f4 [7, 7]
00000000: 518d 9637 4d1c 0037 4c11 8735 2634 e937
00000010: 8ad7 a735 7a7f 7736 dd56 fd35 9e47 1f37
00000020: 70d2 e239 e8d3 0c37 2ac9 e438 289f 0237
00000030: e9e9 5637 940c 9d37 77a3 ea34 410d d436
00000040: 115e 3434 d497 6836 d073 5f34 afa8 3835
00000050: 1c48 3a35 cf59 6637 2136 bd38 93bb dd36
00000060: 8030 c539 b663 2437 f32c a437 6527 3937
00000070: 07b1 ad35 e745 e436 cf5e 1735 6bf7 f236
00000080: 5d21 1037 11df e235 4f04 8c35 3940 5636
00000090: 9432 b437 5f5b 1236 a43d 0438 8e52 8336
000000a0: 7a5f fa38 d9eb 6836 f4c1 0836 67fb 0438
000000b0: 5656 c535 2595 7737 a0f9 0036 f9aa 4b36
000000c0: 1f4d 1638
1.7947199e-05 7.635984e-06 1.0063318e-06 2.7800048e-05 1.25052e-06 3.688007e-06 1.887525e-06 9.493813e-06
0.00043262867 8.3939885e-06 0.00010909357 7.78566e-06 1.2809855e-05 1.8721716e-05 4.3704833e-07 6.3196353e-06
1.6798028e-07 3.465907e-06 2.0810626e-07 6.879081e-07 6.939533e-07 1.37299785e-05 9.0223046e-05 6.6081498e-06
0.00037610903 9.7983775e-06 1.9571255e-05 1.10360315e-05 1.2941026e-06 6.803067e-06 5.638985e-07 7.2409653e-06
8.590837e-06 1.6903233e-06 1.0432067e-06 3.1925867e-06 2.1481224e-05 2.180888e-06 3.152866e-05 3.913715e-06
0.00011938713 3.4707975e-06 2.0378475e-06 3.170539e-05 1.4702771e-06 1.4757073e-05 1.9218787e-06 3.0348876e-06
3.583461e-05

exp_avg f4 [7]
00000000: 4e6f 7d3c 1f82 62bc beed 603c 9ed3 593c
00000010: 505d 833a 4b49 8ebc 9d8d b5bc
0.015468432 -0.013824969 0.013728557 0.013295082 0.0010022316 -0.017368933 -0.022162253

exp_avg_sq f4 [7]
00000000: e91e 8239 7c6a 043b 5645 2f38 3554 f13a
00000010: ff2d 0f39 4dc7 393a a861 c539
0.00024818562 0.0020205071 4.1787825e-05 0.0018411936 0.00013654678 0.0007086888 0.00037647528

exp_avg f4 [7]
00000000: b86f 7d3c 088e 62bc 4ce9 603c a9c4 593c
00000010: c316 833a 6f4d 8ebc d088 b5bc
0.01546853 -0.013827808 0.013727497 0.013291516 0.001000129 -0.017370908 -0.022159964

exp_avg_sq f4 [7]
00000000: ee1e 8239 986a 043b ac42 2f38 6754 f13a
00000010: f82d 0f39 5fc7 393a 9261 c539
0.00024818577 0.0020205136 4.1785344e-05 0.0018411995 0.00013654667 0.00070868985 0.00037647464

exp_avg f4 [7, 22]
00000000: 56fb adbb 1ac3 c8ba 880f 18bc 8f3f 50bb
00000010: a826 93ba afaa 0bbc ac33 3bbc 8cd9 84ba
00000020: 69bf a3ba fdbc 843a db98 113b a9b9 1b3b
00000030: d157 fb3a c0fd 9f3a 6b89 c53a 1c48 a93a
00000040: 9fb1 553a d678 023a 6bf7 123b d6a8 923a
00000050: ff90 a83a 9a61 e73a 12cd 99bb d3ed 243b
00000060: 3cad adbc a6c3 0ebc b947 503b cfe9 a4bc
00000070: 2a1f 82bc 86c1 773b cae1 253b 1a6c d73a
00000080: 902c 903b 782e 913b e846 6b3b 154f 1b3b
00000090: 9f91 4a3b dd6c 543b 5eaa 3d3b 87ab bf3a
000000a0: 6ebc 9b3b 6309 3c3b 91ef 483b eb0b 783b
000000b0: 27d7 55bb 9768 c6b7 f2ea 8bb8 3e8b 50bb
000000c0: d358 2d3a a599 263a 46a3 f9bb 5cb6 eb38
000000d0: 0244 9837 edd5 7438 fd85 0dba cc8a 7f38
000000e0: c1f4 6ab8 562a 38b8 0ce1 a2b7 c8d3 1d38
000000f0: bf9a b6b9 f942 97b9 d79a 4939 d254 8536
00000100: 7eff b2b9 164f 6139 abad 70bb d3b0 1b3b
00000110: 8ab6 cebc f077 08bc a366 5d3b cc15 c7bc
00000120: c1f5 6fbc c635 743b 0b0c 443b 7646 383b
00000130: 83bc b03b 9836 9c3b ab4a 853b 11fe 303b
00000140: 7c37 763b 1267 7a3b 7c2d 6c3b ae4b fa3a
00000150: cecf b73b 9e46 5f3b 8f1b 753b ab80 8f3b
00000160: 7f00 093c 0fa8 18bc fc4c 5d3d 2dd1 a43c
00000170: 7d74 22bc f20c 4e3d b6c0 343d bf00 33bc
00000180: ae94 aabb 071e a2bb b3de f7bb b3cc 69bc
00000190: 9c74 3dbc a81a cebb b0aa b4bb 6a24 13bc
000001a0: 77f0 f3bb 0f06 7cbb 4d3b 39bc 287d dfbb
000001b0: aed0 00bc ae20 15bc bf74 8dba ba3a 033b
000001c0: 5ee2 9ebc 9247 89bb b05b 273b d92f 9ebc
000001d0: b02f f6bb ee92 383b 741a 073b 884a 043b
000001e0: 9156 963b 9d4d 8d3b 5fd0 5e3b 08b2 a63a
000001f0: 352d 2a3b fe77 3a3b 3e22 3e3b bfb5 cb3a
00000200: 5654 853b 9ff5 2a3b 36b3 4b3b 49f3 4e3b
00000210: ae7e 3b3c 4f13 3f3b 2138 f23c c9a3 343c
00000220: ad5a e0b8 6320 ef3c c9f5 a13c f2c2 94b6
00000230: b0de 10bb a8e8 63bb 0ac3 21bc 52eb 61bb
00000240: 8388 35bb c61e 15bb 5357 d9bb ee6f 6cbb
00000250: be3e 6abb fbeb f4ba 1947 f4bb 041e 8dbb
00000260: eecf 88bb a2b8 babb
-0.0053095026 -0.0015316934 -0.009281047 -0.0031776165 -0.001122673 -0.008524581 -0.011425894 -0.0010135635
-0.0012492958 0.0010127124 0.0022216353 0.0023761785 0.0019175952 0.0012206361 0.0015070861 0.0012915167
0.0008151773 0.00049771124 0.0022425305 0.0011189233 0.0012860595 0.0017652989 -0.0046936357 0.0025166168
-0.021200769 -0.008713638 0.0031781031 -0.02013102 -0.015884 0.0037804558 0.0025311583 0.0016435415
0.0043998435 0.0044305883 0.0035900418 0.002369826 0.003090955 0.003241352 0.0028940658 0.0014623263
0.004752687 0.0028692118 0.003066037 0.00378489 -0.0032629461 -2.3652143e-05 -6.6717985e-05 -0.0031821276
0.0006612662 0.0006355292 -0.0076183407 0.0001123964 1.815148e-05 5.8373367e-05 -0.0005398689 6.0926002e-05
-5.6017892e-05 -4.3908447e-05 -1.94167e-05 3.7628954e-05 -0.0003482904 -0.00028850863 0.00019226536 3.9735833e-06
-0.00034141162 0.00021487134 -0.0036724608 0.0023756518 -0.025233526 -0.008329377 0.00337831 -0.024302386
-0.014645995 0.0037263497 0.0029914405 0.002811817 0.005393566 0.0047672503 0.004067739 0.0027006904
0.0037569692 0.0038208407 0.0036037853 0.0019096041 0.005609489 0.003406919 0.003740046 0.004379352
0.008361935 -0.009317412 0.054028496 0.020119274 -0.009915468 0.050305314 0.044129096 -0.010925471
-0.0052057123 -0.004947427 -0.0075643896 -0.0142699955 -0.011563446 -0.0062897988 -0.0055135116 -0.00898085
-0.007444437 -0.003845576 -0.011305642 -0.0068203397 -0.007862253 -0.00910203 -0.0010792239 0.0020024017
-0.01939505 -0.00418944 0.0025536828 -0.019309925 -0.007513009 0.0028163749 0.0020615133 0.0020186026
0.0045879562 0.0043122307 0.003399871 0.0012717852 0.0025966887 0.0028452869 0.002901211 0.0015541835
0.0040688915 0.0026086343 0.003108216 0.0031578115 0.011443777 0.0029155796 0.02956778 0.011025378
-0.00010698042 0.029190248 0.01977052 -4.4334383e-06 -0.0022105388 -0.0034776125 -0.009873161 -0.0034472537
-0.0027699776 -0.0022753938 -0.0066327243 -0.0036077457 -0.0035742964 -0.001868605 -0.0074547646 -0.0043065567
-0.004175178 -0.0056982795

exp_avg_sq f4 [7, 22]
00000000: abbe 0138 b273 2538 d23f a939 958d 1838
00000010: 06e3 3c38 7bad a739 c779 1e38 c3c9 5138
00000020: f32a 1b38 31f1 d636 fda4 d036 ed66 0d37
00000030: 853b e336 5f57 6036 fd65 aa36 48b7 1837
00000040: 5c5f 4f37 3ffc 4436 2576 7f37 7e96 ca36
00000050: f8a7 0a37 f4e3 f336 2c9d f038 bf9e 4e36
00000060: f8af 083a ddf1 4b38 45ab 4436 822b 1a3a
00000070: 6b44 9539 0266 9036 a59f 0537 3015 6438
00000080: 7f7e 3437 bc7a 5637 f966 4b37 bfc6 8e36
00000090: 8126 3d37 d4dd 4537 60f5 ab37 ea84 0037
000000a0: f58f c637 6dac 0437 4481 9137 fe2d 0937
000000b0: 24c7 e038 e26a 6636 5fe5 9239 f7ff 1f38
000000c0: cb10 ac34 6ada b739 8600 be39 dc2d 9f36
000000d0: 9fdf b136 2f9e be36 dfc8 d737 cdcd 0d37
000000e0: 5018 0e37 cc6d 8036 9b1b da36 3c68 ca36
000000f0: f94c 6a37 08a4 af36 6068 3337 2a94 a636
00000100: 6cb1 6d37 4c48 8e36 a84d 7537 f891 0d36
00000110: 2c3c d438 58f6 6d37 6158 2936 14d9 d438
00000120: 667b 8438 06a9 5336 eb4b 1136 f5bd 6636
00000130: 1c7a 9636 b2f3 4736 b4af 2d36 2959 bf35
00000140: d0e7 4736 db06 1c36 a218 4136 d8e5 7335
00000150: 4454 b236 77a8 e435 0e19 3c36 f464 2836
00000160: 9e2c 0338 d452 bf37 1c3d 4e3a 1353 e638
00000170: fe95 0038 de37 373a 120d 003a 2db0 1e38
00000180: 5f1e 1a37 12af 0a37 6ecb be37 08e3 3238
00000190: 4b2f 0538 5445 2037 abcf 6737 479f ac37
000001a0: efd2 8137 20a7 8536 807e 2938 befa 4b37
000001b0: 5d5a 9037 0b83 b637 f7d1 4038 3e69 4b36
000001c0: dc7a b839 fa23 cb38 6fef b736 2050 9d39
000001d0: e017 af39 b975 0137 5e83 b136 81a2 fc36
000001e0: baea 2237 6b42 1437 bc9e 0937 dd4e 6b37
000001f0: 394b 3137 4209 1c37 c1f4 fb36 591c 1336
00000200: a44a b937 bd65 bd36 72d4 ec36 0974 3837
00000210: 9410 9438 f25d 0f36 39ed 643a 7567 f538
00000220: b795 b636 f690 583a 29d9 d039 98e4 d336
00000230: 21ae 2837 7a34 3e37 0ca4 4638 3e4a b037
00000240: 67f8 8737 2bf8 0837 5f7e 6138 08d9 8737
00000250: 4c3b 8137 c0e1 8536 d154 6938 d20b 8337
00000260: 37cf 9b37 9896 e537
3.093357e-05 3.9446815e-05 0.00032281742 3.6371483e-05 4.5034125e-05 0.00031981975 3.778355e-05 5.001739e-05
3.699488e-05 6.4057754e-06 6.21809e-06 8.428219e-06 6.772056e-06 3.3429458e-06 5.078268e-06 9.1025795e-06
1.2360364e-05 2.9353102e-06 1.5226692e-05 6.0375887e-06 8.264549e-06 7.2685016e-06 0.00011473367 3.0788794e-06
0.00052142097 4.8624224e-05 2.9305968e-06 0.0005881117 0.0002847047 4.3034097e-06 7.964588e-06 5.437917e-05
1.0758288e-05 1.278397e-05 1.2123718e-05 4.255067e-06 1.1274243e-05 1.1793763e-05 2.049905e-05 7.660341e-06
2.3670475e-05 7.907959e-06 1.7345541e-05 8.176545e-06 0.00010718245 3.4334885e-06 0.00028018185 3.814694e-05
3.2049715e-07 0.0003506721 0.00036240014 4.743908e-06 5.301044e-06 5.6808562e-06 2.5723535e-05 8.452172e-06
8.46952e-06 3.8274793e-06 6.50012e-06 6.0322036e-06 1.39654085e-05 5.234502e-06 1.0693533e-05 4.964434e-06
1.416761e-05 4.2403462e-06 1.4621219e-05 2.1095602e-06 0.00010120156 1.4183657e-05 2.5234406e-06 0.00010149382
6.317235e-05 3.1539835e-06 2.1650874e-06 3.438324e-06 4.4845638e-06 2.979516e-06 2.5881282e-06 1.4256558e-06
2.9788243e-06 2.3249802e-06 2.877358e-06 9.085902e-07 5.314623e-06 1.7036353e-06 2.8028767e-06 2.5092713e-06
3.1274387e-05 2.2807544e-05 0.00078673824 0.000109827284 3.065727e-05 0.0006989221 0.000488476 3.7834212e-05
9.186187e-06 8.266203e-06 2.2744494e-05 4.2649946e-05 3.1753716e-05 9.552885e-06 1.3817024e-05 2.0578167e-05
1.5476222e-05 3.983165e-06 4.0410552e-05 1.2158123e-05 1.7208216e-05 2.1757112e-05 4.5971912e-05 3.0310616e-06
0.00035186752 9.6864955e-05 5.4816987e-06 0.0003000507 0.0003339639 7.716409e-06 5.290304e-06 7.529103e-06
9.710604e-06 8.836952e-06 8.202795e-06 1.4025453e-05 1.0567536e-05 9.30048e-06 7.508876e-06 2.1921207e-06
2.2088476e-05 5.644483e-06 7.05808e-06 1.0994271e-05 7.060278e-05 2.1363344e-06 0.00087328587 0.00011701781
5.441452e-06 0.0008261347 0.00039834648 6.314902e-06 1.0054123e-05 1.1337101e-05 4.735966e-05 2.1015407e-05
1.6208925e-05 8.164013e-06 5.3761873e-05 1.6194317e-05 1.540561e-05 3.9899896e-06 5.563052e-05 1.5621921e-05
1.8573932e-05 2.7369053e-05

exp_avg f4 [7, 7]
00000000: fc75 d2ba bd76 3f3a 0ef7 013a f773 c13a
00000010: 71b8 863b f58c 9f3a cddb 293b 4cd6 2a3b
00000020: 5484 803a 4b66 ac3a f625 5b3b 67a1 c93b
00000030: f6e1 1f3b 7469 ab3b f58d 3939 2509 4fb8
00000040: e8c6 d8ba 07dc ea38 8c51 0c3a 9820 86b9
00000050: 07f9 1f3a a01f 4c3b fd67 303b f151 d53a
00000060: 720c 823b b867 b53b fbf4 493b c40f d43b
00000070: fe61 c5bb 7464 adbb 8c3f 21bb ed93 01bc
00000080: 0c23 d1bc e865 bbbb 2b4f 1ebb 07cc 0b3b
00000090: 5bc9 083b fc8e ba3a 788d 243b 7a42 d43b
000000a0: cbc0 c139 8b62 ac3b cf14 caba 6426 01bb
000000b0: e4dd 69ba acf4 a1bb a42d 063a 220e 1dbb
000000c0: 5266 9fbc
-0.0016056891 0.0007303765 0.00049577735 0.0014759292 0.0041113426 0.0012172746 0.0025918365 0.0026067672
0.0009805062 0.0013153044 0.0033439375 0.006153274 0.0024396158 0.005231077 0.00017695858 -4.9361162e-05
-0.0016538771 0.00011198973 0.00053527276 -0.00025582756 0.00061024766 0.003114678 0.002691745 0.0016275031
0.0039687688 0.005536046 0.0030816186 0.006471606 -0.0060236445 -0.005291516 -0.0024604527 -0.007908803
-0.025529407 -0.0057189353 -0.0024156075 0.0021331327 0.002087197 0.0014233286 0.0025108736 0.006477651
0.0003695547 0.0052607707 -0.0015417578 -0.001970672 -0.0008921309 -0.0049424972 0.00051184953 -0.0023964723
-0.01945797

exp_avg_sq f4 [7, 7]
00000000: b241 4638 bc30 2c37 8fcc 1336 1d13 0e37
00000010: b741 c536 079f c236 ac09 b436 f47c f736
00000020: 27c5 ea38 fa2f b936 49b8 3137 290e 0137
00000030: 55d2 0d37 774e 0e37 0755 6836 111d 2737
00000040: d844 3338 f1ce b836 6f87 5436 65d8 1537
00000050: 8f0b 2e36 d15d 1b36 e223 c736 e4ef 4036
00000060: 52dc 3236 3565 6336 afbb 3a36 60df e636
00000070: eaa7 3b37 4f33 1037 d140 5236 0300 a137
00000080: 9474 ed38 4c19 1a37 a462 a237 45ee b536
00000090: 327e 2d37 bb1e 9936 1ca9 3e37 aeac 0637
000000a0: d174 1a38 25db 4a37 1082 1137 2d66 0637
000000b0: 4eab 3a36 d82b db37 2114 3837 9c21 1c37
000000c0: 34db 3739
4.7268062e-05 1.0263346e-05 2.2023776e-06 8.46831e-06 5.8787077e-06 5.8001638e-06 5.365544e-06 7.37572e-06
0.00011194712 5.519015e-06 1.0592929e-05 7.692296e-06 8.453227e-06 8.482129e-06 3.4620186e-06 9.960743e-06
4.274104e-05 5.5077185e-06 3.1669294e-06 8.931475e-06 2.5934748e-06 2.3151408e-06 5.9348395e-06 2.8749864e-06
2.665231e-06 3.3884546e-06 2.7825406e-06 6.8805384e-06 1.1185164e-05 8.595015e-06 3.1330167e-06 1.9192701e-05
0.00011322755 9.185005e-06 1.9357838e-05 5.4219586e-06 1.0340986e-05 4.563333e-06 1.1364256e-05 8.0272275e-06
3.6825255e-05 1.2091162e-05 8.672956e-06 8.010812e-06 2.7815872e-06 2.612725e-05 1.0971941e-05 9.30615e-06
0.000175339

exp_avg f4 [7]
00000000: 1592 133c 7db2 b43c f930 0bba 3b00 d93c
00000010: f6bf 62bd efed a53c 525d fbbc
0.009006997 0.022057766 -0.00053097267 0.026489368 -0.05535885 0.020255057 -0.030684147

exp_avg_sq f4 [7]
00000000: ff0f d439 12f3 273a fe29 cd39 8efd f838
00000010: cb40 5d3a 4e0b d439 854d 793a
0.0004044771 0.0006406765 0.00039131934 0.0001187279 0.0008440136 0.00040444214 0.00095101475

exp_avg f4 [7]
00000000: b5a1 133c 78bd b43c af60 0bba 6508 d93c
00000010: 31c2 62bd 72e5 a53c 5769 fbbc
0.009010722 0.022063002 -0.0005316836 0.02649326 -0.055360977 0.02025101 -0.030689878

exp_avg_sq f4 [7]
00000000: 3910 d439 47f3 273a 312a cd39 0805 f938
00000010: 3c41 5d3a 5c0a d439 624e 793a
0.00040447878 0.00064067956 0.00039132082 0.000118741824 0.00084402016 0.0004044351 0.0009510276

exp_avg f4 [7, 22]
00000000: b7ad 333c 3ad9 24bb 5f48 cdbc 822a 563c
00000010: 4cd5 39bb c8d3 d0bc 945b cf3c d66b 39bb
00000020: 4aec 0d39 9c43 2b3b 260c d13b 6fd7 a73b
00000030: 2788 913b 2bf2 533b 9e89 b73b b88e a33b
00000040: 09e1 f63a 7bf5 b53b 85fe 303b 1ab0 bb3b
00000050: ae1f 213b 80d4 893b 033b 273b 27a5 cdb8
00000060: ca31 0abc abb8 153b 8bcc c1b8 74ed 09bc
00000070: 5df1 a53b d133 29b9 0b68 9d3a 6e13 5f3a
00000080: bfb1 b33a fa7e dc3a 36b5 b43a 07c9 893a
00000090: 925b c53a f206 af3a 7fbb 3d3a f91c f73a
000000a0: 5972 873a d7f3 f43a feb8 7a3a be5f a13a
000000b0: 8f0e 10bd 68c6 6d3b 8cbf d03d c177 14bd
000000c0: f4c8 c73a 94e8 d13d 2ef4 92bd 05d9 653b
000000d0: 218c 14bc d4b2 2bbc 9fda b9bc 377a 94bc
000000e0: efa0 82bc 8fb0 38bc 1cf0 a8bc 5c5d 94bc
000000f0: 807a 00bc b2b8 bdbc b387 3bbc 2a40 aebc
00000100: df6e 2dbc 4663 81bc a517 00bc 64a1 313a
00000110: c16d 273a 59af debb 6904 173b d967 c63a
00000120: 0114 9abc bde4 4c3a 083e 56ba fccf 2aba
00000130: fcc7 c339 f7d7 0abb 2e46 35ba a15d 0cba
00000140: adaf 603a 970e 51ba 5f46 cbb9 bd2c d339
00000150: 81ff 43b9 18cc f0ba 6fa5 f8b9 c85b a2b9
00000160: 11b3 663c 55af 2cba 3540 24bd 560d 533c
00000170: 2c39 01ba 6ee1 25bd 8484 e53c 3000 44ba
00000180: a15e 983b 6ca4 963b 89f9 f53b 1c18 003c
00000190: c20f d83b e5a8 993b 3de8 ef3b 4f75 df3b
000001a0: 66f4 573b a9cb 133c 595e 9a3b 824d 113c
000001b0: 47da 8f3b ddb4 c63b 0f5b f93b a748 3aba
000001c0: 2c67 55bc e7e6 e53b 5d8c bcb9 e888 58bc
000001d0: 9dba 7b3c a40f e6b9 f9ad dc3a b1e6 c43a
000001e0: 0f81 383b ce9a 2d3b 266b 193b 6307 883a
000001f0: a0f7 1a3b 6653 273b 8391 843a ad13 363b
00000200: 2dac b53a ae62 4a3b 306b be3a 74af 0a3b
00000210: e2e4 2d3c f7c7 73ba 5eee bebc 64cd 373c
00000220: f53d aeb9 a069 c2bc eca7 bb3c 06b7 24ba
00000230: b55e 243b 0b20 173b 0efa bc3b fb7f 963b
00000240: c17b 5b3b faef 313b d83b 893b 5f02 963b
00000250: 9fe7 eb3a a63b ad3b ead5 253b 4a87 a53b
00000260: e0bd 223b a133 723b
0.01096671 -0.0025153891 -0.025058923 0.013071658 -0.0028355895 -0.02549161 0.025312223 -0.0028293035
0.00013534832 0.0026132828 0.006379622 0.005122117 0.0044412795 0.0032340388 0.005601122 0.0049913786
0.0018835376 0.005552945 0.0027007174 0.00572778 0.0024585533 0.00420624 0.0025517351 -9.805924e-05
-0.008434722 0.0022845666 -9.241056e-05 -0.00841843 0.005064173 -0.00016136399 0.0012009157 0.000850967
0.0013709589 0.001682251 0.0013786915 0.0010512181 0.0015057197 0.001335351 0.0007237717 0.0018853239
0.0010333761 0.0018688393 0.0009564309 0.0012311859 -0.035170134 0.003628159 0.10192785 -0.03624702
0.0015242384 0.10249439 -0.0717548 0.003507198 -0.009066612 -0.010479648 -0.022687254 -0.018124683
-0.01594588 -0.011272564 -0.020622306 -0.018110923 -0.007841706 -0.023159359 -0.011445927 -0.02127083
-0.010585516 -0.015794408 -0.007818137 0.0006776063 0.0006386899 -0.0067958054 0.00230434 0.001513715
-0.018808367 0.0007816067 -0.00081726955 -0.00065159774 0.00037342298 -0.0021185854 -0.00069150596 -0.0005354528
0.00085710996 -0.00079748913 -0.00038771608 0.0004027839 -0.00018691832 -0.0018371372 -0.00047425504 -0.0003096743
0.014080779 -0.0006587406 -0.040100295 0.0128815975 -0.0004929479 -0.04049819 0.02801729 -0.00074768346
0.0046499525 0.0045972373 0.0075065535 0.007818248 0.0065936754 0.0046893233 0.007321386 0.006819404
0.003295207 0.009020724 0.004710954 0.008868577 0.0043900344 0.006064041 0.007609732 -0.0007106163
-0.013025086 0.007016051 -0.00035962733 -0.013216235 0.015364316 -0.00043880672 0.0016836516 0.0015022365
0.0028153097 0.0026489976 0.0023409813 0.0010378178 0.002364613 0.0025531887 0.0010114167 0.0027782724
0.0013860516 0.0030881572 0.0014527794 0.0021161707 0.010613652 -0.00092995114 -0.023307022 0.011218403
-0.00033234028 -0.023732007 0.02290722 -0.0006283376 0.0025080864 0.002305987 0.0057671135 0.004592893
0.003349051 0.0027151094 0.004188042 0.0045779194 0.0017998106 0.0052866517 0.0025304505 0.005051528
0.0024832413 0.0036957043

exp_avg_sq f4 [7, 22]
00000000: 39ab e437 bba7 3637 4ab6 c339 29bd b137
00000010: 800c 8b37 9108 c439 5ec8 9738 5cdd 6d37
00000020: b3ef 2d38 3b5c a436 5c71 0637 b36c 1837
00000030: 17c6 e036 8674 6536 7be1 ec36 8da4 f936
00000040: 37ab 5836 e94c 9337 ac98 cc36 4430 9737
00000050: 2e5b d436 e5d8 d136 aaef 2137 60b6 c934
00000060: c13f 4f38 617a 4c36 11ad 2434 02e6 6b38
00000070: 0f0e ce37 1c9c ea34 6ead 9b35 aa33 8436
00000080: cb5e 4435 4bda be35 78bb 8835 179b 3435
00000090: 96a2 9935 7edc aa35 3a8d c634 637b 0d36
000000a0: 7885 5535 4a11 6536 cb7e 3435 208f 8535
000000b0: 75d6 3f39 fca6 4036 9bde e73a 7d46 5d39
000000c0: bc19 5036 f807 e43a 3352 4c3a 162d 4636
000000d0: 48d9 a037 f7ee b937 163c dc38 e9fe 5938
000000e0: ffb3 2338 9d51 bb37 d405 8738 66e8 6538
000000f0: 51b8 2f37 8771 a038 e3ee b437 7a35 bc38
00000100: f60f a637 4aee 2d38 eb55 c438 cb6d 7035
00000110: d97a 9439 6083 9738 733a 6636 7a7a 9e39
00000120: 0336 e239 e2a7 9535 5415 1137 29a5 be36
00000130: 77eb 1537 751c 6f37 e6da 0a37 4b2f 9936
00000140: cf50 0137 3dd2 2d37 e429 2136 26e7 3137
00000150: 4691 8836 def7 c137 693d 9436 8fdc e636
00000160: ec23 9c37 44d3 0f35 be1a 2239 1440 9c37
00000170: 0491 3135 bcb9 2139 837e a638 a0ee 1835
00000180: deff 3336 f9ee 2136 96cd e336 e9ac b236
00000190: 6ef6 8636 4631 0d36 c1c2 b136 12b0 9336
000001a0: 03fb 8835 f136 e636 3f59 0b36 1040 0a37
000001b0: 9243 f935 7e86 6936 527f 3637 e36c e235
000001c0: e34c 8639 b160 4c37 2795 f734 3768 8539
000001d0: 93db 5b38 a21a de34 b3ed a436 d1d4 5836
000001e0: c8fd 8336 9235 eb36 a2a2 a036 d7d5 2137
000001f0: 6e18 0137 bce5 6c36 7de9 1836 c408 6837
00000200: 1831 ab36 7a5c 3b37 b30c 5636 4123 8636
00000210: f5f9 4437 c2ec d935 ab30 d939 fe8f 0e38
00000220: f3a0 0835 347c cd39 d9f3 ce38 28b2 f034
00000230: 5e00 9c36 770b 9b36 9866 ee36 a423 1d37
00000240: 5f14 9a37 9cad d336 d8b9 b837 4c59 c636
00000250: 2095 5b36 cff1 a037 98a5 f036 079f a737
00000260: a92f a836 1107 0537
2.725945e-05 1.0887098e-05 0.00037329114 2.1188129e-05 1.6575912e-05 0.00037390416 7.2375624e-05 1.417784e-05
4.146965e-05 4.898318e-06 8.013416e-06 9.0852145e-06 6.698781e-06 3.4191485e-06 7.0595975e-06 7.4399345e-06
3.2286168e-06 1.755958e-05 6.097447e-06 1.8023078e-05 6.328707e-06 6.253935e-06 9.652149e-06 3.7571863e-07
4.941202e-05 3.0469603e-06 1.5336651e-07 5.6242578e-05 2.456366e-05 4.369948e-07 1.1598875e-06 3.939921e-06
7.315363e-07 1.4219635e-06 1.018735e-06 6.728091e-07 1.1446707e-06 1.2730159e-06 3.698313e-07 2.1082458e-06
7.9542906e-07 3.4133723e-06 6.7239733e-07 9.950927e-07 0.00018295071 2.8707427e-06 0.0017690243 0.00021102461
3.1009395e-06 0.0017397394 0.0007794231 2.9530543e-06 1.9174666e-05 2.2164995e-05 0.00010501609 5.1974235e-05
3.9029863e-05 2.2330141e-05 6.438387e-05 5.4814293e-05 1.0473727e-05 7.650541e-05 2.1568912e-05 8.974499e-05
1.9796174e-05 4.1468338e-05 9.362012e-05 8.9566737e-07 0.00028320288 7.2247116e-05 3.4306693e-06 0.0003022736
0.0004314632 1.1150225e-06 8.647639e-06 5.6816684e-06 8.9359155e-06 1.4252136e-05 8.276407e-06 4.565261e-06
7.707814e-06 1.03605535e-05 2.4015253e-06 1.0603841e-05 4.070028e-06 2.3122815e-05 4.417893e-06 6.8802105e-06
1.8613377e-05 5.3579083e-07 0.00015459486 1.8626488e-05 6.6148664e-07 0.00015423348 7.9390615e-05 5.697166e-07
2.6822013e-06 2.412997e-06 6.7890605e-06 5.324943e-06 4.0221994e-06 2.1039318e-06 5.2976834e-06 4.4014387e-06
1.0205844e-06 6.86093e-06 2.0764562e-06 8.240357e-06 1.8571611e-06 3.479799e-06 1.0877689e-05 1.6870002e-06
0.00025615757 1.218186e-05 4.6115858e-07 0.00025445383 5.2418163e-05 4.13701e-07 4.9152527e-06 3.2310384e-06
3.9336483e-06 7.009782e-06 4.7873045e-06 9.646136e-06 7.694687e-06 3.5300463e-06 2.2785673e-06 1.38303185e-05
5.1019124e-06 1.11676e-05 3.1895877e-06 3.9976153e-06 1.1740708e-05 1.6236665e-06 0.00041425726 3.398954e-05
5.089816e-07 0.00039193186 9.8682656e-05 4.483311e-07 4.649205e-06 4.6206947e-06 7.104896e-06 9.3662275e-06
1.8367717e-05 6.308501e-06 2.202105e-05 5.9112554e-06 3.2720345e-06 1.9186087e-05 7.171835e-06 1.9982004e-05
5.0123385e-06 7.929063e-06

exp_avg f4 [7, 7]
00000000: c903 4339 517c b53a ce20 6d3c 98ab 5d3b
00000010: 5ce7 713b 8988 cb3a 0d1b 3b3b 79f7 ac3a
00000020: 0814 a839 4d27 2b3b 26d1 bb3a 2922 ad3a
00000030: 0b06 6a3a 6fb6 973a fd26 50bc fe01 b4bb
00000040: 0231 5abd 9fdf bbbb d135 61bc de98 cfbb
00000050: 0be6 32bc 8b31 183a a594 7cb9 f04b bb3b
00000060: f9c5 07bc 4d20 e5ba ff11 d2b8 c5f5 fe39
00000070: 8531 b13b 549b 253b d6e4 853c ee9a a23b
00000080: 30ad c63b 5408 513b 911a 993b 71ec 1c3b
00000090: f50d 3d3a 529e c73b 2a15 043b a698 0b3b
000000a0: 29af 42ba c091 e83a 4142 5e3b d554 993a
000000b0: 33b7 5d3c 7559 183b 33c1 443b e1be d73a
000000c0: 2c6f b539
0.00018598059 0.0013846253 0.014473153 0.0033824202 0.0036911583 0.0015528362 0.002855006 0.0013196311
0.00032058381 0.0026115954 0.0014329299 0.0013209033 0.0008927292 0.0011574755 -0.012704608 -0.0054934015
-0.053269394 -0.005733445 -0.013745741 -0.006335362 -0.010919104 0.00058057223 -0.00024087967 0.0057158396
-0.008286946 -0.001748094 -0.00010016932 0.00048629768 0.0054075145 0.0025269585 0.016344469 0.0049623167
0.006063126 0.0031895833 0.0046723564 0.002394464 0.00072118576 0.0060918713 0.0020154216 0.0021300702
-0.00074266136 0.0017743632 0.0033914002 0.0011698256 0.013532448 0.002324668 0.0030022382 0.0016460085
0.0003460584

exp_avg_sq f4 [7, 7]
00000000: 3c9f 6538 d401 da35 76e3 f437 d98b a136
00000010: 4532 f836 6552 4436 c3fe 4236 c2cc a035
00000020: b5c5 6c36 7ca4 e835 30dd 4535 9385 1036
00000030: 0c09 5c35 5628 9735 c780 0338 f90b cd36
00000040: 0f35 cd39 8411 3537 8f6a 2038 665f 3937
00000050: 1285 bd37 5953 e936 4b30 b635 476e 3c37
00000060: 8473 2b38 091b 5c37 fdcb 4e36 9576 a536
00000070: aac6 6f36 004d 7a35 5d52 d837 d3c3 2c36
00000080: 0281 8236 036e c135 f6c9 7836 40b9 3b36
00000090: c90a a135 fae7 3037 7636 6a36 92ab af36
000000a0: 9190 0a38 ebe4 2a36 dc38 6b36 6ee9 d135
000000b0: defb ea37 1eea 8036 03e4 1b37 7109 3436
000000c0: aeb5 6f38
5.4746153e-05 1.6242798e-06 2.9192986e-05 4.8144543e-06 7.396828e-06 2.9254236e-06 2.9056544e-06 1.1980521e-06
3.528182e-06 1.7333218e-06 7.371009e-07 2.1535423e-06 8.196955e-07 1.1262116e-06 3.1352767e-05 6.11087e-06
0.0003914018 1.0792519e-05 3.8246213e-05 1.1049071e-05 2.2592521e-05 6.953644e-06 1.3574112e-06 1.1231349e-05
4.087716e-05 1.31193165e-05 3.081513e-06 4.931188e-06 3.5729413e-06 9.324431e-07 2.578756e-05 2.5743982e-06
3.8893204e-06 1.4411638e-06 3.7072436e-06 2.7973e-06 1.1998574e-06 1.0544429e-05 3.4900418e-06 5.23538e-06
3.3036402e-05 2.5465222e-06 3.5050825e-06 1.563965e-06 2.8012259e-05 3.841952e-06 9.291808e-06 2.6827586e-06
5.7151243e-05

exp_avg f4 [7]
00000000: b981 e13c c739 143c ec9c ddbd d794 6bbb
00000010: 58d0 303d 6cc5 6b3c 3941 d03c
0.027527677 0.009046978 -0.10820946 -0.003594687 0.043167442 0.014390331 0.025421726

exp_avg_sq f4 [7]
00000000: 104d d839 5efa 7938 72af 003b fe54 c739
00000010: 10eb 3639 b16f 8d39 219c e039
0.00041256147 5.95994e-05 0.0019635824 0.00038019562 0.0001744444 0.00026976832 0.00042840934
