data_10frm/model/0_5_1_3.pt (torch_old, 18375 bytes, 52 tensors)

rnn.weight_ih f4 [7, 22]
00000000: e603 1c3d ff90 81be 0a51 9bbe 39fd 65be
00000010: 2722 be3e 7143 763e 4065 a63d 0d95 70be
00000020: 930b 90be a227 903e 1aa7 8abd 6bd5 cebe
00000030: 5741 9abd 2d4f 02be d99f f3bc 934c 063e
00000040: 2925 023e 6564 9fbe 7cab f3bc 8806 55be
00000050: 3610 6c3e c875 253e 6548 263e 8152 ad3e
00000060: 05fa 423e b755 d0be 8787 c13d 6b0c 81be
00000070: 60a0 303c fcb2 f9ba ea58 b93e bab2 7dbe
00000080: 2142 c2be 6061 e7bd da6e 423d 31d2 833e
00000090: 68bd 953e 97bf 933e e7fc e43d 8570 e8bd
000000a0: 866e adbd 2d41 57be e4c2 603d 02bd 8abe
000000b0: 182d a13d 7818 663e d641 a13e c03a d2be
000000c0: 7c77 983e 7b63 77be df29 9ebd fbca a73e
000000d0: af16 4b3e f2be f0bd 66af 6f3e 41d7 bdbe
000000e0: 546c 973e 230c bb3e 2128 c3bb 87b5 873d
000000f0: 6c16 b5bd c4d9 6ebe 1f95 27be 7d75 91bc
00000100: 72f4 a1be 4f38 9bbe fe46 823d aadc 84be
00000110: 593e 65be f49a c63c f263 5abe 8c23 aa3e
00000120: 8c47 f7bd dc87 65be 5d10 aabd 63d9 97be
00000130: 87bc 543e c4ce b13e c02f 4cbe e4dc 01be
00000140: 5c9f bc3e b16c 82be f261 f23d aa0a 96be
00000150: f206 a3be 4761 953c 8d9d 4cbe b3be 623e
00000160: 5b30 dcbd 574a 843c 4c21 3bbe b064 333e
00000170: 1975 b93e c0e5 2ebd 6f28 61be baf4 b7be
00000180: 36ac b23e b29e 0f3e aea8 0c3e ab50 363d
00000190: 56e4 3f3e 19bb f73d 70a5 2c3e ed75 623e
000001a0: 4eb2 2a3d 862f 9e3e 79cf 623e 80b3 e6bc
000001b0: d448 34be bbdd 3e3c 1855 a53e 5dc1 853e
000001c0: 31cf 27be 0e6f 47bd 3ba2 0d3e 089c 043e
000001d0: 2dda c73e 7077 4d3e f2bf 033e 353b ca3d
000001e0: 16d4 afbe 9997 01be 24c5 413d 5d55 78be
000001f0: 03ad a2be 4676 883e 96a7 113e c7e4 94be
00000200: 3256 0a3d 1beb 6e3e e600 703e 1b94 b73e
00000210: 4484 3ebe 4a38 5c3e 5d64 78be 239e 77bd
00000220: 5201 3ebe ab70 efbb 679d 3e3e 22c1 713e
00000230: a891 85be abd2 1abe 0b25 01be 7481 56be
00000240: d73d 89be 9fcf 593e bad0 4a3e ed15 813e
00000250: 5596 8bbe 8c10 593e 04f8 37be edf1 1bbe
00000260: eba8 2bbe d79f a3bd
0.038089655 -0.25305936 -0.30335265 -0.22459878 0.3713543 0.24049164 0.08124781 -0.23494358
-0.2813383 0.28155237 -0.06770153 -0.403972 -0.07531994 -0.12725516 -0.029739307 0.13115148
0.12709488 -0.31131282 -0.029744856 -0.20803273 0.23053059 0.16158211 0.16238554 0.33852008
0.19040687 -0.40690395 0.09449678 -0.25204787 0.010780424 -0.0019050534 0.3620065 -0.2477521
-0.37941077 -0.1129787 0.047468998 0.257463 0.29246068 0.2885711 0.1118105 -0.113495864
-0.08468346 -0.21020956 0.054873362 -0.27097327 0.07869929 0.22470272 0.3149554 -0.41060448
0.2977866 -0.24159043 -0.0772283 0.3277205 0.19832872 -0.1175517 0.23406753 -0.37078288
0.29574835 0.36532697 -0.0059557115 0.066264205 -0.08842167 -0.23325258 -0.16365479 -0.017756218
-0.3163181 -0.30316398 0.06361197 -0.25949603 -0.22387065 0.02424381 -0.21327189 0.33230245
-0.12074193 -0.22415107 -0.08303902 -0.2965804 0.20775042 0.34728062 -0.1994009 -0.1268192
0.36840332 -0.2547355 0.11835088 -0.2930501 -0.31841236 0.018234862 -0.19981976 0.22143058
-0.107514106 0.01614873 -0.1827442 0.17518878 0.3622215 -0.042699575 -0.2198808 -0.359289
0.34897012 0.14025381 0.13736221 0.044510525 0.18739447 0.12096233 0.16859984 0.22115298
0.04167395 0.30895633 0.22149457 -0.028161764 -0.17605907 0.011649544 0.32291484 0.26124087
-0.16387631 -0.048689894 0.13831417 0.12950146 0.39033642 0.20065093 0.1286619 0.09874574
-0.34341496 -0.12655486 0.04730715 -0.24251314 -0.31772622 0.26652735 0.14224085 -0.29080793
0.03377361 0.23331873 0.23437843 0.35855183 -0.18605143 0.21505848 -0.24257036 -0.060453545
-0.18555191 -0.0073071322 0.18614732 0.2360883 -0.2608769 -0.15119426 -0.12611787 -0.2094782
-0.26804993 0.21270607 0.19806185 0.2521204 -0.27263132 0.21197718 -0.17965704 -0.15229006
-0.16763656 -0.079894714

rnn.weight_hh f4 [7, 7]
00000000: c3dd 29be a681 023d 0ccc 8cbe df26 f33d
00000010: afa9 adbe deb4 2fbe aac7 94be c176 7d3e
00000020: a636 8c3e 5c8f a1be 0626 66be f45d a63e
00000030: ddbe a33d eab0 7f3e 0294 96be 5f5a 223e
00000040: 9f68 863e 1f1f cabd fe56 80bc cb6d 7e3e
00000050: de55 d23d 3638 003e d5bf f53b bdb4 27be
00000060: 963f 4ebe f9d5 c63e f45f 06bd 271e b43e
00000070: 8f80 923e e40b 5dbe b2bb 4fbb 2c4b ffbd
00000080: 6509 21bb 10e6 6e3e 22bb 453e 30d7 54be
00000090: 221e 33be d14b 84be 297a a7be af0e 7b3e
000000a0: fbbf 56be 853d 983c 5204 77bd aa67 913c
000000b0: 52d9 85bd df89 0b3e 2fe0 c6ba f7ac 5a3e
000000c0: 35f1 a03c
-0.16588502 0.031861924 -0.27499425 0.118726484 -0.3391852 -0.17158839 -0.29058582 0.24752332
0.27385443 -0.31554687 -0.22475442 0.32493556 0.07995389 0.24969831 -0.29409796 0.15854786
0.26251695 -0.09869217 -0.015666481 0.2484657 0.10270284 0.12521443 0.007499675 -0.1637754
-0.20141444 0.38835123 -0.03280635 0.35179254 0.28613707 -0.21586567 -0.0031697568 -0.1246551
-0.002457225 0.2332995 0.19309667 -0.20785213 -0.17491964 -0.25839093 -0.32710388 0.2451732
-0.20971672 0.018584022 -0.060306855 0.017749626 -0.06535591 0.13626812 -0.0015173013 0.21355043
0.019646266

rnn.bias_ih f4 [7]
00000000: 602e e7bc 677e 413d 2809 833e 3ceb 973d
00000010: 5556 813e 725c babc 1501 7bbd
-0.028220356 0.047239687 0.25592923 0.07417914 0.2526118 -0.02274916 -0.06128033

rnn.bias_hh f4 [7]
00000000: a18b 963e 21ee b9be a5e4 2a3d e585 b93e
00000010: 4932 50be 02f1 67bd 60d9 b2bd
0.29403403 -0.3631449 0.04172196 0.36234966 -0.20331682 -0.056626327 -0.08732867

exp_avg f4 [7, 22]
00000000: b413 f439 5254 6dba f5ae 36bc 8f2a ccba
00000010: a672 0cba 9644 36bc 3a1f f7ba 2f14 1eba
00000020: 66e0 be39 5400 a03a 79e3 d23a 36c4 233b
00000030: 9c5e e13a 5bfa fe3a 3bf9 013b f7fe 823a
00000040: ab0e af3a 0772 f23a 641e 203b 59e3 d93a
00000050: 0d63 973a 5274 f83a a01c a23a ff4b 38ba
00000060: 44e1 f0bc 9110 97bb 0707 4139 8185 f1bc
00000070: 23d1 90bb e193 8d39 29b8 813b ecf6 653b
00000080: 2a2a 923b e057 ad3b c515 843b 3025 863b
00000090: f449 9d3b 944b 243b 0b87 7a3b 5df1 973b
000000a0: 0c69 de3b a4df 903b ce9d 413b 115c a43b
000000b0: 9211 233c 2d10 953b a6b0 e9b9 58dc a03b
000000c0: 240f d139 eba4 06ba 3213 903c ddd0 fd39
000000d0: 8710 5aba 3b8a 2039 3674 75bb ab16 953a
000000e0: 2170 9f39 7a7c e33a cb1b 6e3a bc96 b639
000000f0: b627 9cba 1545 32ba 935e c539 4f88 02b9
00000100: a594 773a bebb 7eb7 e9ba a93b eac2 1fba
00000110: b3f4 63bc ef58 153b aa08 9cb9 a528 77bc
00000120: f144 1b3c 905f bcb8 3db7 1e3b 258b 2e3a
00000130: d206 0d3b ba66 be3a f0cc bc3a 4035 523b
00000140: dd86 613b fe35 ad3a 5a12 d23a d3d6 e93a
00000150: 1c8b 7b3b 33bb b53a 8b9c fa3a 0f1f 403b
00000160: f938 0dbb bec2 53ba 5693 d63b c061 d73a
00000170: b01c 0aba 1cfe ce3b 13a4 30bb 8469 c2b9
00000180: baa0 a3b9 7218 73ba cb21 d3ba 248f 78b9
00000190: b309 c7ba 819f 1cb9 0c63 c9ba b2cf 39ba
000001a0: e54d 32ba 0b2e 1aba e730 fdba 401d 34ba
000001b0: 761e 3cba 0f51 80ba 5552 c2bb efd2 953a
000001c0: 6381 fe3c 9f4e 0a3a f2d3 5d3a 8855 013d
000001d0: 23b1 c5bb 95a3 973a de56 efba c015 54bb
000001e0: e0e7 43bb 9158 96bb ed0e 05bb 9f58 1cbc
000001f0: 2497 eabb 2950 3abb a91b 64bb 5dee 8dbb
00000200: b76f f8bb 5ac4 86bb 4ac5 8dbb b6d0 99bb
00000210: 3678 1fbc 85b2 29bb 0200 b53c 1d98 4bbb
00000220: 3904 fdb8 33d3 be3c 925b 5ebc 45b2 74ba
00000230: 1f17 8abb 3f05 f2ba c9f5 54ba 7e1b d5bb
00000240: 3d5d 8dbb 76ee 35bb 79d8 2fbb 3d1d 0abb
00000250: aec1 00bb 8124 56bb 2fd2 aabb 38b4 4dbb
00000260: 32e4 29bb b024 9fbb
0.00046553987 -0.0009053397 -0.011150111 -0.0015576648 -0.000535766 -0.011124751 -0.0018853911 -0.0006030229
0.00036406814 0.0012207129 0.0016089521 0.0024988777 0.0017194333 0.0019453274 0.001983239 0.0009994198
0.0013355812 0.0018497118 0.0024432177 0.0016623541 0.0011549905 0.0018955565 0.001236815 -0.0007030367
-0.02940429 -0.004610129 0.00018408532 -0.029482605 -0.0044194623 0.00027003794 0.003958721 0.0035089804
0.0044605928 0.0052900165 0.0040309154 0.0040937886 0.0048000757 0.0025069462 0.0038227465 0.004636927
0.006787425 0.0044211913 0.0029543522 0.005015858 0.00995292 0.0045490474 -0.00044572836 0.0049090795
0.00039874867 -0.0005136269 0.017587278 0.00048411536 -0.0008318503 0.00015310284 -0.00374533 0.0011374553
0.00030410386 0.0017355822 0.0009083121 0.0003482605 -0.001191369 -0.0006800455 0.0003764523 -0.00012448545
0.0009444452 -1.5183292e-05 0.005179752 -0.0006094413 -0.013913321 0.0022788604 -0.00029761094 -0.015085374
0.009476886 -8.9823385e-05 0.0024218105 0.00066583074 0.0021518958 0.0014526465 0.0014404338 0.0032075197
0.003441266 0.0013214943 0.0016027198 0.0017840512 0.0038382476 0.0013864994 0.001912014 0.0029315387
-0.002154885 -0.000807803 0.0065483255 0.001643233 -0.0005268557 0.0063169133 -0.0026953265 -0.0003708118
-0.00031209533 -0.0009273357 -0.0016108094 -0.00023704447 -0.0015185386 -0.00014936739 -0.0015364601 -0.0007088139
-0.00068017683 -0.0005881495 -0.0019316942 -0.00068708137 -0.000717617 -0.0009789782 -0.005930225 0.0011430661
0.031067556 0.00052759977 0.0008462063 0.03157571 -0.0060330792 0.0011569137 -0.0018260141 -0.0032361597
-0.0029892847 -0.0045881947 -0.0020303086 -0.009542613 -0.0071591306 -0.0028429127 -0.0034806526 -0.0043313936
-0.007581677 -0.0041127624 -0.004326497 -0.0046940697 -0.00973325 -0.002589376 0.02209473 -0.0031066008
-0.000120647666 0.023294067 -0.013571637 -0.00093344256 -0.004214182 -0.0018464698 -0.0008123783 -0.0065035215
-0.0043140934 -0.0027760542 -0.0026831909 -0.0021074556 -0.0019646692 -0.0032675567 -0.005213044 -0.0031387936
-0.0025923369 -0.0048566684

exp_avg_sq f4 [7, 22]
00000000: 9624 c336 994a 8036 d805 1539 cb87 6136
00000010: 339f 1636 3b6c 1939 a716 3837 43ef 5f36
00000020: 469c 7f37 800b 0536 e0ec 0c36 5640 4c36
00000030: 91ed 3336 a6a8 e635 369e 2b36 f278 8735
00000040: 3cf4 6236 1a9c 2836 5606 1837 3e88 4d36
00000050: 7424 c335 76e6 8636 d5cf cf36 ce6d b235
00000060: 0e38 3e39 1e55 3a37 aee0 7634 e807 3b39
00000070: 2c34 1f38 7edc ba34 3c4b 8336 2c81 5136
00000080: 3554 e736 3a07 a736 c33d 9336 6812 5b36
00000090: fc07 bf36 d813 b135 e7ef 9c36 1778 9536
000000a0: f767 1437 c077 8c36 7834 c635 86cf a636
000000b0: 7c97 3038 f366 5e37 6fba 8e3a 182c be38
000000c0: a595 1735 738d 8b3a a1ee bd39 4d7c 4535
000000d0: 3982 a437 19c4 5c37 0cea b538 9a35 d137
000000e0: 1a1b af37 3e50 5f37 7671 af37 2be7 e936
000000f0: 1a6a 1438 94a8 fa37 719e 5338 6522 d237
00000100: e533 d636 20d0 fa37 8ad0 d137 d110 7f36
00000110: ba7a 813a 3e89 c738 3e64 fe35 784c 713a
00000120: bd32 9439 21e4 1936 63ff 9137 5742 2938
00000130: 3b43 6537 64c1 2338 3aec d037 f12f 2a37
00000140: 934c c837 fd1c db36 e413 c737 9881 e637
00000150: 7cb3 2938 552f 0138 c0b5 e936 d53c c937
00000160: 26ee 0f37 a411 1b36 e581 353a f991 0e38
00000170: 5ab1 dc34 14f2 2e3a f90f 2d38 948e 6835
00000180: 181a 9337 4ebf 2b37 bab7 2e37 3255 7837
00000190: dee1 2238 c8da 2137 fe34 7237 0f4e c236
000001a0: cf8d 7437 46b1 7837 cb06 1738 a47c 7d37
000001b0: be3b ce36 e1d1 9637 5412 a737 744b e535
000001c0: 665e 2e3a fa61 b036 522d 0335 dc8f 323a
000001d0: 47c9 8f37 12f0 8435 1dc2 eb36 03a9 fb36
000001e0: cfb2 f436 0928 9537 888f 1b37 1121 4938
000001f0: 7075 e237 68ec b936 6c50 4d37 2791 6437
00000200: 1e3f 1c38 a768 5737 aa7b 1837 4f90 8c37
00000210: 6368 c838 6805 c836 162c 933a fb52 e737
00000220: 37ad 3936 7fa4 9c3a 81c8 5a39 e443 9636
00000230: 51cc c237 331e 5a37 40fb 5137 d0a9 5038
00000240: a54d fb37 1682 a437 a3a7 8238 d505 2437
00000250: 9e96 a237 dc66 cf37 cbbf 8038 2c39 c437
00000260: e161 5a37 1f98 2e38
5.815712e-06 3.8233816e-06 0.00014211924 3.3606655e-06 2.2444408e-06 0.00014631536 1.0972529e-05 3.3368858e-06
1.523557e-05 1.9825238e-06 2.0999505e-06 3.0435817e-06 2.681136e-06 1.7185419e-06 2.5573077e-06 1.0093484e-06
3.3818787e-06 2.5124814e-06 9.061381e-06 3.0626684e-06 1.4539241e-06 4.0203404e-06 6.1932756e-06 1.3293991e-06
0.00018140694 1.1106282e-05 2.2992273e-07 0.00017836655 3.7957143e-05 3.480563e-07 3.9128627e-06 3.1218615e-06
6.8941395e-06 4.977829e-06 4.3881314e-06 3.2644257e-06 5.693173e-06 1.3193303e-06 4.6770906e-06 4.4545263e-06
8.845694e-06 4.186266e-06 1.476742e-06 4.9713444e-06 4.210275e-05 1.3256201e-05 0.0010889302 9.068119e-05
5.6469645e-07 0.0010647014 0.00036226682 7.35691e-07 1.9610963e-05 1.3158679e-05 8.674347e-05 2.4939702e-05
2.0874246e-05 1.3310519e-05 2.091446e-05 6.9708526e-06 3.5384764e-05 2.9880823e-05 5.045388e-05 2.5049967e-05
6.3837383e-06 2.9899238e-05 2.501185e-05 3.800775e-06 0.0009878494 9.514623e-05 1.8953649e-06 0.0009204815
0.00028266563 2.2931565e-06 1.740427e-05 4.0354524e-05 1.3665117e-05 3.9042337e-05 2.4905534e-05 1.0143952e-05
2.3877516e-05 6.5300833e-06 2.3731911e-05 2.7478483e-05 4.0459898e-05 3.0800078e-05 6.9650996e-06 2.3989394e-05
8.5789125e-06 2.3107068e-06 0.0006923958 3.3991386e-05 4.1107234e-07 0.00066736457 4.126129e-05 8.6634213e-07
1.7535916e-05 1.0236936e-05 1.0413985e-05 1.4801788e-05 3.8834165e-05 9.647287e-06 1.4436662e-05 5.7907378e-06
1.4576551e-05 1.4823227e-05 3.6007532e-05 1.5108995e-05 6.1462333e-06 1.7979126e-05 1.9916486e-05 1.7083789e-06
0.00066516397 5.2566147e-06 4.886725e-07 0.0006811598 1.7140655e-05 9.904636e-07 7.0261435e-06 7.5000585e-06
7.2925827e-06 1.7780827e-05 9.272138e-06 4.795293e-05 2.6995986e-05 5.540951e-06 1.2237677e-05 1.3623655e-05
3.725208e-05 1.2839365e-05 9.088699e-06 1.67565e-05 9.556187e-05 5.961094e-06 0.0011228349 2.7575987e-05
2.7667973e-06 0.0011950879 0.00020864794 4.478252e-06 2.3221744e-05 1.3000844e-05 1.25158695e-05 4.9749215e-05
2.9957688e-05 1.96109e-05 6.230108e-05 9.77652e-06 1.9382042e-05 2.472422e-05 6.13924e-05 2.3391643e-05
1.3016602e-05 4.1626507e-05

exp_avg f4 [7, 7]
00000000: a1f3 0aba 7414 4b3a 684f fe3a f0cb 033b
00000010: 0bd7 183b b932 283b 5268 123b aa88 023b
00000020: 835c 253b f8d9 be3b 8555 af3b 5073 983b
00000030: 5d55 a13b 68d4 9f3b a5c8 d939 9e73 87ba
00000040: 9884 1fbc 55af d73a 0880 133b 3917 913b
00000050: f2d7 dc3a f7b3 983a 7537 933a 2d86 263b
00000060: 9474 8ebb fcd7 e53a 55f2 bf3b 914b db3b
00000070: c8ae 56ba 8007 39ba 4774 493a 8f4c a538
00000080: f09c 0bbc 04fd 743a 8861 003b 7b0d bdba
00000090: a428 edba 7ef8 caba 4f0b 49bb 5faf baba
000000a0: 6285 b4bc 3da9 35b8 0c3c 8cba b962 8dba
000000b0: ad15 75ba 670d 22bb d894 f2ba f190 263a
000000c0: a41b 86bc
-0.0005300586 0.0007746883 0.0019402327 0.002011057 0.0023321535 0.0025664999 0.0022340012 0.0019917884
0.0025232143 0.0058243237 0.005350771 0.004652418 0.004923506 0.0048776157 0.00041538957 -0.0010334139
-0.009736203 0.0016455451 0.0022506732 0.004427817 0.0016849025 0.0011650313 0.0011231737 0.0025409565
-0.0043473933 0.0017535682 0.0058577457 0.006692358 -0.00081894966 -0.00070583075 0.0007684868 7.882073e-05
-0.008521304 0.00093455636 0.0019589383 -0.0014423573 -0.0018093777 -0.0015485433 -0.0030676906 -0.0014242938
-0.022036258 -4.331138e-05 -0.0010699048 -0.0010786868 -0.0009349238 -0.0024727227 -0.0018507494 0.00063539954
-0.016370602

exp_avg_sq f4 [7, 7]
00000000: 3fb9 5b37 8a33 ef35 0ec9 2236 a697 cf36
00000010: a837 5436 b88b 0936 7c43 6136 eb1b ba35
00000020: 7769 1636 4e19 5837 186b 1d37 1f77 c536
00000030: c13f b536 b7c4 dc36 659d 5b36 38fc 8f37
00000040: 934c 3a39 651d 1e38 a04d 9337 8d99 0537
00000050: d4d6 9337 8475 3c36 5317 1b37 0964 9037
00000060: f82a 4e39 4be3 7137 2bac 1b37 c863 0b38
00000070: 05d8 7836 d9d4 e836 5116 2337 69f0 d037
00000080: cc23 cb38 e2f2 9336 8861 8437 0b6e 1b36
00000090: d93e 8736 02a2 ac36 7854 7437 4d25 cb36
000000a0: 6684 1f39 2802 3c37 7dd6 c436 68de 1137
000000b0: d893 9137 9160 1138 e203 9f37 653a 6737
000000c0: 8309 4139
1.3096548e-05 1.7821887e-06 2.425691e-06 6.186735e-06 3.1622858e-06 2.0495918e-06 3.3566894e-06 1.3866205e-06
2.241313e-06 1.2880495e-05 9.382864e-06 5.884925e-06 5.4016423e-06 6.5794115e-06 3.2725159e-06 1.7164377e-05
0.00017766868 3.769751e-05 1.7559913e-05 7.963169e-06 1.7623803e-05 2.8082586e-06 9.2441505e-06 1.721272e-05
0.00019661698 1.441764e-05 9.278806e-06 3.323311e-05 3.708062e-06 6.9389175e-06 9.720753e-06 2.4907482e-05
9.686462e-05 4.4092167e-06 1.5781043e-05 2.3160853e-06 4.03063e-06 5.1448596e-06 1.45632e-05 6.054214e-06
0.00015212744 1.1206175e-05 5.866225e-06 8.6944565e-06 1.7354192e-05 3.466063e-05 1.8956085e-05 1.3782269e-05
0.00018409458

exp_avg f4 [7]
00000000: 60c9 393c 0df7 f63c bd6c b5b9 0627 723c
00000010: a34c cebb 2a7b 00bd 6e9e bdbc
0.011339515 0.0301471 -0.00034604027 0.014779812 -0.006295757 -0.03136746 -0.023146834

exp_avg_sq f4 [7]
00000000: 93e8 1f39 9de5 4739 b413 983a e8d2 853a
00000010: a472 393a 09f5 343a b3b8 a13a
0.00015250062 0.00019063657 0.0011602552 0.001020995 0.0007074273 0.0006902968 0.001233837

exp_avg f4 [7]
00000000: 11d2 393c b1f4 f63c 5444 b7b9 cf33 723c
00000010: ff2f cebb 8f78 00bd 4f9c bdbc
0.011341588 0.030145975 -0.00034955388 0.01478286 -0.0062923427 -0.031364974 -0.023145823

exp_avg_sq f4 [7]
00000000: 53e9 1f39 e8e3 4739 d113 983a c9d2 853a
00000010: 7272 393a 9bf4 343a a2b8 a13a
0.00015250342 0.0001906302 0.0011602585 0.0010209914 0.00070742436 0.0006902904 0.001233835

exp_avg f4 [7, 22]
00000000: 441a 0db9 d35e 263b 3572 86bc d391 1ebb
00000010: 7f30 1f3b b9e8 84bc 8ae1 6fbb 66f3 353b
00000020: dd29 ba3a d20d d93a b6e8 173b 1eaf 823b
00000030: 528d 443b f960 003b 303b 1d3b 1425 e33a
00000040: 4b21 873b ac1d ae3a 1161 8a3b c01f bb3a
00000050: 8cd3 193b b45c cc3a bbba 82bc 8415 2bbb
00000060: 484c 1c3a 02ec 3abc e2ae e73a 97d9 923b
00000070: 1645 1abd df15 5dbb 056f 563a 87fe 0bbc
00000080: 8799 9139 f9b5 693b f0a7 e339 d21c a03a
00000090: 67ec deba 2350 e339 a3b9 ccba 6ba1 20ba
000000a0: f312 31ba 9101 9eb9 f301 473a b6c3 00bb
000000b0: eaca 923a 6d6e 163b 58bd 2abc 1616 52ba
000000c0: 1f04 f93a 4f4e 2dbc af9c e439 cda7 1c3b
000000d0: 6657 c23a b168 d53a db91 b23a 9d1c f73a
000000e0: 04b9 dc3a cd70 a13a 856a d93a b990 893a
000000f0: 5dd7 323b 6b82 683a 5dc2 353b 82b1 753a
00000100: 9a91 b63a d24d 983a 7567 f93b 97da 923b
00000110: decf acbc 8e45 903b bb10 fe3a ee18 bdbc
00000120: d2a4 993c 5a71 853b ab13 583a d340 a13b
00000130: 1900 033b 361b 343b f476 6c3b e730 853b
00000140: dd08 943b ac81 bc3a 49f0 d23b d4a8 f23a
00000150: 4945 b83b c47c f13a cff8 2a3b c385 3c3b
00000160: d45e 343a f5a4 9c3a 4c3f 85bb b3b1 69b8
00000170: 6083 4c3a 3df5 8bbb 7927 303a b60d a43a
00000180: 0956 4c3a df3b 623a 7e66 2838 6b64 9d3a
00000190: 4174 c638 9afa 4b3a f057 303a ab01 d939
000001a0: b0fb 843a 9219 cc39 dfd2 8b3a 3564 dc39
000001b0: 1cdf 263a 0cfb fb39 90a6 a93b 3371 09bc
000001c0: 81c2 593d f65d 313c 55c1 14bc fb32 543d
000001d0: 7ee7 963c a517 0bbc 29b5 aebb 2d20 17bb
000001e0: c43d bbbb 000f 6dbc 165d 17bc 2592 27bc
000001f0: a196 c8bb c5b6 a6bb 0c18 5ebc b909 86bb
00000200: 1b44 58bc f6cb 98bb 786a 05bc 9df3 98bb
00000210: eb9a 573a 2d66 3ebb d300 893c f85f ae3a
00000220: 41a4 30bb cae1 863c b734 7a3b 5374 04bb
00000230: a1bb d3ba 2c15 22b7 06fb 16bb 42e9 52bb
00000240: 2f92 1fbb ff9e 28bb 78b9 8dbb a234 deba
00000250: d2ff 83bb 4be5 a5ba 5803 96bb 1f0a acba
00000260: 5bd1 16bb 85f3 aaba
-0.00013456593 0.002538611 -0.01641188 -0.0024195805 0.002429038 -0.016224252 -0.0036602938 0.0027763485
0.001420315 0.0016559905 0.0023179478 0.0039881608 0.002999146 0.001958905 0.0023991577 0.0017329776
0.004123842 0.0013283989 0.004222997 0.001427643 0.002347204 0.0015591593 -0.01595818 -0.0026105354
0.00059622945 -0.011408808 0.001767602 0.004481505 -0.03766354 -0.003373496 0.00081799953 -0.008544571
0.00027770942 0.0035661443 0.00043421937 0.001221562 -0.0017007709 0.0004335652 -0.0015619289 -0.0006127569
-0.0006754838 -0.00030137275 0.0007591538 -0.0019647903 0.0011199389 0.0022954002 -0.01042112 -0.00080141553
0.001899842 -0.010577752 0.00043604287 0.0023903728 0.0014827072 0.0016281811 0.0013623791 0.0018853132
0.0016839807 0.0012316942 0.0016587531 0.0010495401 0.002728901 0.00088695314 0.0027734258 0.0009372459
0.0013928891 0.0011619872 0.00761121 0.0044816243 -0.021095213 0.004402823 0.0019383648 -0.023083176
0.01875535 0.0040723504 0.0008242677 0.0049210577 0.0019989072 0.002748204 0.0036081644 0.0040646675
0.004517658 0.0014381907 0.0064373356 0.001851345 0.005623494 0.0018424024 0.0026088243 0.0028766252
0.00068805856 0.0011951016 -0.0040663835 -5.5717024e-05 0.0007801559 -0.004271178 0.0006719749 0.0012516293
0.00077948027 0.00086301373 4.0149775e-05 0.0012008076 9.46303e-05 0.0007781178 0.0006726971 0.00041390708
0.001014581 0.00038928963 0.0010667703 0.0004203633 0.00063656433 0.00048061495 0.0051773265 -0.008388805
0.05316401 0.010825625 -0.009079297 0.05180643 0.018420931 -0.008489524 -0.0053316546 -0.002305995
-0.00571415 -0.014468908 -0.009238502 -0.010227715 -0.006121472 -0.005087706 -0.013555538 -0.0040905145
-0.013199831 -0.004662986 -0.00814306 -0.004667713 0.00082246837 -0.00290526 0.016724026 0.0013303747
-0.0026953372 0.016465086 0.0038178393 -0.0020210936 -0.001615394 -9.660882e-06 -0.0023037805 -0.003218249
-0.0024348607 -0.0025729535 -0.004325088 -0.0016952942 -0.004028299 -0.0012656836 -0.0045780353 -0.0013125575
-0.002301297 -0.0013042545

exp_avg_sq f4 [7, 22]
00000000: 5df1 8f36 a193 f637 e48b 8c39 14e4 1137
00000010: bd53 c937 4604 8d39 939e cc37 ce26 f337
00000020: f03a c537 8a10 5436 9c3a 8d36 5412 1937
00000030: fbab d736 85ec 3536 51f4 9336 58a0 7236
00000040: dafb 8a37 c844 2536 9a84 a637 7ac2 1d36
00000050: d493 9536 a028 5b36 3741 a139 05df 2d39
00000060: a878 103b 0eb4 7738 3a87 8338 f114 273b
00000070: 7051 943a 638c 4e39 528b 5b38 aa95 2139
00000080: fb48 3438 950f 4138 4251 5b38 43d0 b737
00000090: cbf3 8b38 78c2 ba37 46b6 2a39 0395 c937
000000a0: 3a3b 2e39 59d9 a437 08ff 0538 8bb8 3738
000000b0: 63fa 5536 42cc 3036 bdeb 2738 fe9f bd35
000000c0: 2b4f c835 75ce 3338 0975 6b37 1a9a 4936
000000d0: 3eb7 9835 e8db ff35 ced6 5135 ab6a 9935
000000e0: 20c9 8935 2c96 f834 c820 9435 7e28 0035
000000f0: 7df3 3236 3200 e034 aad5 3e36 dc97 b834
00000100: 697e 2635 5803 2735 54ae 3b38 602a 0039
00000110: 3418 183b 531e f538 2d62 e538 d9f0 133b
00000120: d7b3 023a 20d6 0d39 dcf4 af38 0708 2338
00000130: 66e9 3838 a7cb d538 b6a1 8038 e0fa bd37
00000140: d5c0 3e38 67bd 0d38 6781 0e39 c098 a737
00000150: 08b3 2439 1bbd a437 5a58 2a38 d8ee c737
00000160: 7529 e035 ed2b 0537 5ae5 2f39 c4b7 b636
00000170: a832 da36 e41b 2d39 f013 2337 25d0 0437
00000180: fcff 7b36 6a91 2436 9caa 7736 9b84 7f36
00000190: 551c 2e37 6ec7 0736 e40f 5736 7aae 0536
000001a0: 176b 3937 b2a0 b535 ba83 3f37 2e1c ac35
000001b0: 7a0b 2e36 bfbf fd35 54a4 0837 ce55 2b38
000001c0: a813 a03a 8a61 1538 966a 1738 b7d9 9c3a
000001d0: 7557 cd38 ce79 3038 6a26 9e37 be38 2937
000001e0: acfc e437 b3c7 8338 6a85 1f38 d164 2638
000001f0: 3f9b aa37 1e10 5b37 d656 a738 ceae 1c37
00000200: ed67 a538 ccc7 1f37 2e5d c437 311d 3a37
00000210: 8a8b 8337 fc41 ad37 c73f e739 8a22 8736
00000220: f60b 5337 5b4d f139 9ae4 5238 d9fe a737
00000230: 019a eb36 99ce 5837 6fb9 0a37 589e 3537
00000240: 4397 2637 8755 b136 d28d d437 803d 9936
00000250: 3c78 f437 f25c 8136 8de5 0538 f618 6436
00000260: 94bc e736 e0bd b536
4.2898305e-06 2.939423e-05 0.00026807107 8.695777e-06 2.400006e-05 0.000268968 2.4392537e-05 2.8985927e-05
2.3511675e-05 3.1600089e-06 4.2089505e-06 9.123778e-06 6.4275205e-06 2.7108774e-06 4.4093836e-06 3.6154142e-06
1.656816e-05 2.4626952e-06 1.985049e-05 2.3508023e-06 4.4577555e-06 3.265719e-06 0.00030756902 0.00016581647
0.0022044573 5.9057078e-05 6.271755e-05 0.002549466 0.0011315774 0.00019697989 5.234342e-05 0.0001540991
4.2983313e-05 4.6029298e-05 5.2289346e-05 2.191228e-05 6.6734465e-05 2.2263484e-05 0.00016280366 2.4030456e-05
0.00016615997 1.9651534e-05 3.1947187e-05 4.380247e-05 3.1885218e-06 2.6344937e-06 4.003545e-05 1.4128161e-06
1.4924202e-06 4.2869204e-05 1.4034341e-05 3.0041033e-06 1.1378213e-06 1.9062982e-06 7.817115e-07 1.1430433e-06
1.026583e-06 4.6302864e-07 1.10364e-06 4.774264e-07 2.6665796e-06 4.1723393e-07 2.8436575e-06 3.4383163e-07
6.202377e-07 6.2217214e-07 4.474663e-05 0.00012222817 0.0023207786 0.00011688159 0.000109378576 0.0022573976
0.00049859047 0.00013526576 8.390259e-05 3.8869704e-05 4.4086388e-05 0.00010194565 6.1336366e-05 2.2647379e-05
4.547912e-05 3.3793414e-05 0.00013590381 1.9979081e-05 0.00015706953 1.9638383e-05 4.0613442e-05 2.3833869e-05
1.6701366e-06 7.937645e-06 0.0001677474 5.445416e-06 6.5028034e-06 0.00016508956 9.720199e-06 7.9162755e-06
3.7550917e-06 2.4522546e-06 3.6905176e-06 3.8075148e-06 1.0377805e-05 2.023265e-06 3.2046746e-06 1.9920103e-06
1.1051793e-05 1.3532319e-06 1.1415157e-05 1.28232e-06 2.59347e-06 1.8905774e-06 8.144492e-06 4.084949e-05
0.0012212889 3.561521e-05 3.610047e-05 0.001196674 9.791452e-05 4.207511e-05 1.8852956e-05 1.0086396e-05
2.7297378e-05 6.283764e-05 3.8032806e-05 3.9671377e-05 2.0337871e-05 1.305717e-05 7.979355e-05 9.3390245e-06
7.887171e-05 9.523657e-06 2.3408411e-05 1.1093261e-05 1.5681395e-05 2.0653933e-05 0.0004410727 4.0273344e-06
1.2579365e-05 0.00046024736 5.0280803e-05 2.0026624e-05 7.021474e-06 1.29227055e-05 8.268616e-06 1.0825308e-05
9.929589e-06 5.2849678e-06 2.533841e-05 4.566915e-06 2.9143055e-05 3.85532e-06 3.1923457e-05 3.3989177e-06
6.90629e-06 5.4163247e-06

exp_avg f4 [7, 7]
00000000: 8c3c 80b9 f64f 523b 1eb2 4c3a 8048 a53b
00000010: 1344 b63a fee6 8f3b e042 0e3b 9460 543a
00000020: 35b8 86bc 4ac4 dfb9 2d96 843b 7975 903a
00000030: e0aa c83b e9d7 603a 2430 523a b29d 493b
00000040: 12da 153a 429d 1c3b e78f 4f3a 9056 fd3a
00000050: 5e2e b43a 6e92 bc3a 9a81 283c b007 a23a
00000060: 6a29 bebb da7b 003b 7a43 053c 435f b23b
00000070: 2503 ba39 cbaf c13a 0d8d 3d39 39bf 9d3a
00000080: 971c beba adc1 133b 0ca8 d239 853a 2cbb
00000090: a9e7 cdbb df74 14bb bb6a c2bb 47b4 64bb
000000a0: 7cc4 01bd 3ba7 92ba d1dc 97ba b748 923a
000000b0: 2cb6 7bba 6627 47bb 49bf 90ba 3e6b acb9
000000c0: 6255 34bc
-0.00024459173 0.0032091117 0.0007808524 0.005044043 0.0013905786 0.00439155 0.002170734 0.00081015495
-0.016445259 -0.0004268012 0.0040462227 0.0011021338 0.0061238855 0.0008577095 0.0008018038 0.003076416
0.0005716394 0.0023897444 0.00079178665 0.0019328166 0.0013746729 0.0014386901 0.010284806 0.001236191
-0.005803277 0.0019605071 0.008133763 0.005443485 0.00035479027 0.0014777122 0.0001807699 0.0012035138
-0.001450437 0.002254586 0.00040179526 -0.0026279998 -0.0062837196 -0.0022652668 -0.0059331334 -0.0034897493
-0.031681523 -0.0011188755 -0.0011586194 0.0011160587 -0.0009602036 -0.0030388474 -0.0011043336 -0.00032886298
-0.011006685

exp_avg_sq f4 [7, 7]
00000000: 1873 b037 4441 1d37 40f7 9c35 1d52 0938
00000010: 12e8 cd35 05a1 b336 bf02 1836 45ca 4d37
00000020: 927c 163a 8ebe 2c37 be46 1539 6568 3137
00000030: e918 b137 4935 d337 c325 f634 4d77 e736
00000040: e82c 4134 05a2 7636 981b 7b34 f1d6 7635
00000050: 6c08 2435 b28b 9037 8630 fe38 95ff 0937
00000060: 5264 043a f812 6237 fe2e 0d38 e45f 8637
00000070: aa24 d835 01f5 1437 c4f5 3535 9ea1 1d37
00000080: e807 3d37 29fb 3c36 709b b835 76a7 ac36
00000090: 32e3 1c38 f127 6b36 00c2 5938 afcb e236
000000a0: 415c 6d39 2c18 cc36 28ab 1c36 3ac5 2b38
000000b0: b709 de35 4310 9b37 fabf 5136 cf22 9a36
000000c0: 280c 3b38
2.103443e-05 9.373125e-06 1.1694865e-06 3.273982e-05 1.5341232e-06 5.353361e-06 2.2651363e-06 1.2266047e-05
0.00057406083 1.0296366e-05 0.00014236101 1.0574328e-05 2.1111644e-05 2.5177973e-05 4.5848546e-07 6.898225e-06
1.7990862e-07 3.6751164e-06 2.3386235e-07 9.195492e-07 6.1107016e-07 1.7231188e-05 0.00012120702 8.225344e-06
0.0005050349 1.3475066e-05 3.3660785e-05 1.6018697e-05 1.6103925e-06 8.878532e-06 6.778539e-07 9.395559e-06
1.1267119e-05 2.8160377e-06 1.3754307e-06 5.1454945e-06 3.740489e-05 3.5040978e-06 5.191751e-05 6.7590368e-06
0.00022636449 6.0824877e-06 2.3345438e-06 4.095326e-05 1.6543116e-06 1.8485012e-05 3.1255172e-06 4.59361e-06
4.4595596e-05

exp_avg f4 [7]
00000000: ea19 893c 66a9 80bb a42e 333c 79db b93c
00000010: 9f16 913b b6b7 5abd b6ff 86bc
0.01673599 -0.003926444 0.010936413 0.02268766 0.0044277455 -0.053397857 -0.016479354

exp_avg_sq f4 [7]
00000000: 56f1 9e39 2dff 2f3b 5f26 4138 9705 243b
00000010: a89b 3b39 e8eb a63a ce36 fb39
0.00030315918 0.0026854977 4.605052e-05 0.0025027746 0.00017891696 0.00127351 0.00047915283

exp_avg f4 [7]
00000000: 201a 893c 4dc1 80bb 352a 333c ffd3 b93c
00000010: f904 913b c9b9 5abd e8fa 86bc
0.01673609 -0.0039292932 0.010935356 0.022684095 0.0044256416 -0.053399835 -0.016477063

exp_avg_sq f4 [7]
00000000: 5ef1 9e39 49ff 2f3b 1f23 4138 af05 243b
00000010: 779b 3b39 1dec a63a bf36 fb39
0.0003031594 0.0026855043 4.6047495e-05 0.0025027802 0.00017891625 0.0012735162 0.0004791524

exp_avg f4 [7, 22]
00000000: 24ac d3bb 6a2a 19ba 1807 abbc 8766 f0bb
00000010: 8c6f ab39 f78b 9fbc 4848 9bbc 9c04 0d3a
00000020: f4a7 ff39 6dfb 0e3b 5ce0 3d3b 59e7 a53b
00000030: 8d66 4d3b 3dc9 6f3b b1b6 603b 812d 433b
00000040: d7fc 1b3b 2f57 b93a ad96 903b 289a 3a3b
00000050: 2739 483b bc63 773b 253a c5bb c4a4 303b
00000060: d8fd fcbc 429d 43bc 30ca 7b3b 8956 f0bc
00000070: 4d16 b6bc 0869 923b c397 813b 244f 313b
00000080: 4ec8 8b3b 7af8 e43b 59a9 963b 4093 8e3b
00000090: 8543 a43b ee60 943b c020 873b 5086 143b
000000a0: 0c5c ce3b 4d88 923b 115f 9b3b 35f3 b23b
000000b0: a579 65bb 8b71 d838 0794 27bb 8546 82bb
000000c0: 72c5 693a d0c8 e3ba 9752 15bc 4f7c cb39
000000d0: f2b3 a639 68fe ad39 508d e7b9 f319 223a
000000e0: 86d5 8a39 e85c 083a 640f e339 8e64 d139
000000f0: 6a07 7db7 972d dcb8 3afe 323a f8ce c339
00000100: a541 5b38 7a25 2a3a d99a bfbb 2822 333b
00000110: aa3f 1abd 4718 57bc ce43 923b c13a 13bd
00000120: cd86 c6bc 748d a03b d6d0 953b 7fa8 8a3b
00000130: 5751 a83b a4e3 fd3b aef9 b13b 318c bb3b
00000140: e11c cc3b 2302 b63b 1ff9 a73b 2b37 3e3b
00000150: 0fb5 fb3b 3b90 b13b 7358 bc3b c5f8 d83b
00000160: 6c17 413c 041b 25bc ef46 a83d e6c2 e03c
00000170: 4e61 32bc 641c 9f3d 544c 6d3d 49d1 42bc
00000180: f1c0 29bc 6952 e4bb 16c3 33bc ad4d b5bc
00000190: 92d1 65bc e7e0 17bc c014 22bc 35a0 4abc
000001a0: ee8e 36bc 777b c8bb 1b3f 81bc 604b 3cbc
000001b0: 85ef 55bc 7506 60bc 14c5 dc3a ae41 a7ba
000001c0: b627 2e3c 47c3 f63b 322d 01bb f666 063c
000001d0: ef7e 823c 7ec9 09bb 4a29 b8b9 2e05 4aba
000001e0: 9897 b138 5035 ccba a8ca 9e39 4cca d1bb
000001f0: 6044 aaba 29d5 03bb 8136 57ba 7667 1dba
00000200: 079e 1cbb 4bf5 b4ba 944d 26ba b092 0dbb
00000210: 3c4f 1e3c caa9 ab3b 065c 0e3c 383c a53b
00000220: 8c7c ff3a eb0a 1b3c 7204 ff3b a944 0e3b
00000230: 9729 1a39 13bf 27bb 53ab 03bb 10a7 753a
00000240: d075 89ba 405e 76b9 f655 aabb 9a52 16ba
00000250: 9bd6 73ba e199 f1b9 18c1 37bb 1744 ceba
00000260: b1ae acba e31d 17bb
-0.0064597297 -0.0005842807 -0.020877406 -0.007336441 0.0003269877 -0.01947592 -0.018955365 0.000537941
0.00048762525 0.0021817342 0.002897284 0.005062979 0.0031341643 0.0036588453 0.003428858 0.002978176
0.0023801827 0.0014140363 0.004412493 0.0028473232 0.0030551644 0.0037748655 -0.0060188943 0.0026953677
-0.03088276 -0.011939349 0.0038420074 -0.029338138 -0.02222743 0.004468087 0.003954859 0.0027055228
0.0042658215 0.0069876285 0.0045978245 0.0043510497 0.005012932 0.0045281565 0.004123777 0.0022663064
0.006297594 0.0044718147 0.0047415574 0.0054611214 -0.0035015133 0.00010320832 -0.002557041 -0.0039756917
0.0008917666 -0.0017378572 -0.009113929 0.00038811794 0.00031796057 0.0003318668 -0.0004416504 0.00061836763
0.00026480498 0.00052018324 0.0004330828 0.00039938506 -1.5081701e-05 -0.00010498909 0.0006828044 0.00037347502
5.2274805e-05 0.000649057 -0.0058473167 0.002733359 -0.03765837 -0.013128347 0.0044636494 -0.035944704
-0.0242342 0.004899675 0.0045720143 0.004231512 0.0051366496 0.007748084 0.0054313755 0.005723499
0.0062290286 0.005554454 0.005126133 0.0029024582 0.007681496 0.005418805 0.0057478487 0.0066214525
0.011785369 -0.010077242 0.082166545 0.027436685 -0.010887457 0.07769087 0.05793412 -0.011890718
-0.010360942 -0.006967832 -0.010971805 -0.022131765 -0.014027016 -0.0092699295 -0.0098926425 -0.012367298
-0.0111424755 -0.006118234 -0.015777161 -0.01149258 -0.013057594 -0.0136734145 0.0016843402 -0.0012760663
0.010629585 0.007530603 -0.0019710776 0.008203259 0.015929667 -0.002102464 -0.00035125978 -0.00077064603
8.468254e-05 -0.0015579853 0.000302871 -0.0064022895 -0.0012990348 -0.0020116067 -0.0008209721 -0.00060044916
-0.0023897903 -0.0013806013 -0.00063439575 -0.0021602325 0.009662446 0.0052387463 0.008688932 0.005042579
0.0019492074 0.009463052 0.0077825123 0.0021708405 0.00014702078 -0.0025596067 -0.002009113 0.00093709026
-0.0010487381 -0.00023495499 -0.0051982356 -0.00057343545 -0.0009301693 -0.0004608175 -0.0028038677 -0.0015736845
-0.0013174621 -0.0023058585

exp_avg_sq f4 [7, 22]
00000000: e3e0 2c38 d7c4 5738 ea62 e939 6736 5638
00000010: 16e6 7638 61ca e539 3f5c 8638 c542 8938
00000020: 20ba 4b38 2a73 0d37 560c e736 90c6 5637
00000030: 08a8 1737 8496 c036 1bd6 0737 491a 4d37
00000040: 8bad 8737 2fa0 8a36 8df1 a037 8f5d 1737
00000050: c56a 4a37 30c4 2c37 040e 2239 a764 8d36
00000060: 40b4 3c3a a0ef 8e38 cad1 8636 3086 533a
00000070: a1d1 cd39 8ccd c536 dbc0 3e37 3f37 9738
00000080: 1e96 5d37 c6e8 9837 2a47 8237 e14f e836
00000090: 46ca 8f37 766d 8637 f888 eb37 087b 3737
000000a0: 9ee3 fd37 0672 4137 fa91 ca37 90db 4537
000000b0: fc10 2039 267a a436 09b3 d139 3ac4 6438
000000c0: d0d6 fa34 9d1d 033a 5669 073a 4e5f e336
000000d0: 67da 0037 aa7b 0737 01d8 1338 03fd 5c37
000000e0: 0825 4437 3e6b ba36 0324 1e37 6312 0f37
000000f0: 2ba4 a737 6aad 0537 e350 6637 cc8f f936
00000100: e96c ad37 ea72 cd36 7555 ad37 eba2 4636
00000110: 12a2 3139 3204 d037 e80b 7536 e4c5 2c39
00000120: b221 db38 32ba 9836 3827 6036 a9d7 a736
00000130: 1087 9036 8688 bf36 4b1e 8336 0985 7736
00000140: f481 c436 e3f5 7f36 f763 9036 f757 bc35
00000150: 5595 0c37 0703 4d36 904c 9736 afc4 9736
00000160: 1089 5f38 4ad6 0d38 5f4c c63a 7a3c 4a39
00000170: 87d2 4038 4933 b23a 4a0d 5a3a f65b 6d38
00000180: c93b cc37 df3f 8137 775c 0438 26a0 b638
00000190: eaec 4738 5e86 a737 e859 0938 c6c6 1638
000001a0: 08b6 f337 6d4d 0637 9386 9538 dc51 db37
000001b0: 653b 1638 f1d9 2d38 847c 9538 e7b2 0637
000001c0: 5191 793a 6aa7 5439 2e46 8337 0f77 553a
000001d0: 6dba 3f3a 16ca a937 1db6 4e37 bd5a 7f37
000001e0: 2d39 8437 3970 0c38 aa49 8a37 252c 3b38
000001f0: 9584 e537 6b4b c937 fc54 9637 6337 ba36
00000200: a4ef 5938 1e7b 8837 e1df 9b37 2cb3 f237
00000210: d1e6 f738 9d4e ab36 fb1c 983a b5fe 3439
00000220: a492 dc36 2cd8 903a 98e4 163a 401d 0237
00000230: 648f 6937 6718 b637 b349 c837 7cea ec37
00000240: 3bf3 ce37 0c8e 7337 d651 b738 1d7a b037
00000250: 70e5 ad37 0fd6 be36 98f2 9238 5de9 bc37
00000260: 027b dc37 7ad1 2038
4.1217438e-05 5.1443316e-05 0.0004451492 5.1072242e-05 5.8865255e-05 0.00043829068 6.4068e-05 6.545106e-05
4.8572314e-05 8.431069e-06 6.8857726e-06 1.2801625e-05 9.039424e-06 5.739568e-06 8.096477e-06 1.2225072e-05
1.6174066e-05 4.1313683e-06 1.9185967e-05 9.022085e-06 1.20649975e-05 1.0297677e-05 0.00015454745 4.213845e-06
0.000719849 6.815721e-05 4.017934e-06 0.0008069007 0.00039256833 5.8949863e-06 1.1369785e-05 7.2105315e-05
1.3207578e-05 1.8228206e-05 1.5530346e-05 6.923438e-06 1.714112e-05 1.6025017e-05 2.8077964e-05 1.0936295e-05
3.0265943e-05 1.1530245e-05 2.4148252e-05 1.1793236e-05 0.00015265116 4.901801e-06 0.00039996978 5.4542186e-05
4.6722425e-07 0.0005001666 0.00051655376 6.776222e-06 7.680245e-06 8.07542e-06 3.52487e-05 1.3171931e-05
1.1691132e-05 5.5557166e-06 9.4259185e-06 8.527745e-06 1.9984398e-05 7.967794e-06 1.3727901e-05 7.4375184e-06
2.0673922e-05 6.122854e-06 2.0663001e-05 2.959913e-06 0.00016940411 2.4797486e-05 3.6514775e-06 0.00016476918
0.0001044901 4.551629e-06 3.340143e-06 5.002094e-06 4.3072578e-06 5.708137e-06 3.907631e-06 3.6883305e-06
5.8563837e-06 3.8141086e-06 4.303172e-06 1.4032693e-06 8.379419e-06 3.0549143e-06 4.5090637e-06 4.5230477e-06
5.3294993e-05 3.3816592e-05 0.0015128962 0.0001928675 4.5972436e-05 0.0013595606 0.000831802 5.659085e-05
2.4346535e-05 1.540774e-05 3.1557367e-05 8.708266e-05 4.766594e-05 1.9970521e-05 3.2747077e-05 3.594791e-05
2.9052622e-05 8.0050495e-06 7.12994e-05 2.6144953e-05 3.5818102e-05 4.1449388e-05 7.1280665e-05 8.028676e-06
0.000952025 0.00020280262 1.5649097e-05 0.0008143046 0.00073138514 2.0240474e-05 1.2320958e-05 1.5220311e-05
1.576225e-05 3.3483117e-05 1.6485184e-05 4.4625387e-05 2.7360666e-05 2.3996186e-05 1.7920967e-05 5.54968e-06
5.1960014e-05 1.6269794e-05 1.8581692e-05 2.8932081e-05 0.00011820871 5.105349e-06 0.0011605317 0.00017261023
6.573582e-06 0.0011050752 0.0005756109 7.755414e-06 1.3921268e-05 2.1707454e-05 2.3876177e-05 2.8242583e-05
2.4670377e-05 1.4517002e-05 8.741363e-05 2.1037698e-05 2.0730047e-05 5.687361e-06 7.007009e-05 2.2520015e-05
2.6283324e-05 3.8342063e-05

exp_avg f4 [7, 7]
00000000: 6f70 1db9 686a eb3a a971 903a b84f 463b
00000010: 3d83 dd3b f6a4 973b 7b7b 723b d0fe 5e3b
00000020: 38cf f63a b5ef eb3a f11e 8f3b acd2 193c
00000030: 08fa a43b 060c c53b a1c2 df39 792c 3e39
00000040: 59fc c1ba b0d8 f739 a076 893a d55b 133a
00000050: 1192 593a c00d 8c3b 3465 753b 2550 133b
00000060: 6632 b43b 55c6 093c 1b4b ec3b 00f5 fb3b
00000070: 5585 05bc d8a1 fdbb d85b 80bb 9d75 30bc
00000080: 860d 1ebd c5e3 0ebc b9c7 bbbb d8ba c2ba
00000090: cb85 22ba f720 63b9 123e 14bb 280e bd3b
000000a0: aa10 46bc 3527 723a 2410 163a 2ec4 04b9
000000b0: 453c 1e39 ec04 e3ba 54c2 8b3b f315 973a
000000c0: 2682 69bc
-0.00015014572 0.0017960789 0.0011020201 0.0030259918 0.0067600296 0.004627819 0.003699987 0.0034026392
0.0018830067 0.0018000515 0.004367702 0.009388607 0.005034689 0.006013396 0.00042678884 0.0001813638
-0.0014799937 0.00047272956 0.0010487624 0.0005621289 0.00082996587 0.0042741 0.0037444355 0.002247819
0.005499172 0.008409102 0.0072111017 0.0076891184 -0.008149465 -0.0077402405 -0.0039171986 -0.010770229
-0.038587116 -0.008721297 -0.005730596 -0.0014856709 -0.0006199746 -0.00021660687 -0.0022620005 0.00576951
-0.012088934 0.00092374097 0.0005724451 -0.00012661584 0.00015090506 -0.0017320192 0.004265109 0.0011526927
-0.014252221

exp_avg_sq f4 [7, 7]
00000000: 4dfd 7e38 4843 6237 3fed 4d36 0caa 3337
00000010: f3f3 2237 5910 3237 944d f936 f89b 2537
00000020: 6478 1d39 0dc5 0237 c407 6437 ed52 6337
00000030: 8869 5737 7b6d 4c37 51b9 a236 392c 6f37
00000040: 5e8c 8238 46aa ed36 774d 9f36 9d9d 5a37
00000050: 1e7e 7936 174e 5f36 c1bd 0237 b218 7436
00000060: 2e31 9136 bb2d d336 3124 f836 2b0e 3037
00000070: 5af4 9f37 bd91 8337 0dbf bb36 3de1 0f38
00000080: e1a3 6939 0b86 b137 3ab1 0538 08d9 6237
00000090: 87e5 9637 9f73 0137 5c64 e737 c083 a737
000000a0: 4fee e538 7815 c537 ef9e 3d37 deb5 3837
000000b0: 53fc 8036 9f1d 0f38 d298 8f37 25f1 7537
000000c0: d562 7339
6.0794224e-05 1.3486315e-05 3.0685476e-06 1.07088235e-05 9.712751e-06 1.0613433e-05 7.4298096e-06 9.871081e-06
0.00015017536 7.794483e-06 1.3591667e-05 1.3549562e-05 1.28395695e-05 1.2184838e-05 4.84955e-06 1.42558065e-05
6.2250285e-05 7.082973e-06 4.7475874e-06 1.303051e-05 3.7177301e-06 3.3275044e-06 7.792784e-06 3.6373208e-06
4.327062e-06 6.2936138e-06 7.395189e-06 1.0493716e-05 1.9068062e-05 1.5684282e-05 5.5952755e-06 3.4303626e-05
0.00022281661 2.1162463e-05 3.1874726e-05 1.3521181e-05 1.7988275e-05 7.715919e-06 2.758408e-05 1.9969302e-05
0.00010963959 2.3494227e-05 1.13022825e-05 1.1009599e-05 3.8440717e-06 3.4121444e-05 1.711809e-05 1.4659284e-05
0.00023211104

exp_avg f4 [7]
00000000: 90d2 aa3c 4992 023d 0460 053b 5b0b 203d
00000010: b844 abbd c5a2 23bc 3840 23bc
0.020852357 0.03187779 0.002035142 0.03907333 -0.083627164 -0.009987538 -0.009964041

exp_avg_sq f4 [7]
00000000: 3cd5 103a a4cb 663a 1c58 123a 2456 4b39
00000010: 846a d23a 70db 873a 1094 a83a
0.00055249385 0.00088041485 0.00055825873 0.00019391679 0.0016053473 0.001036508 0.0012861509

exp_avg f4 [7]
00000000: 60da aa3c c897 023d 1554 053b 6f0f 203d
00000010: d545 abbd c2b3 23bc 4058 23bc
0.020856082 0.03188303 0.0020344306 0.03907722 -0.08362929 -0.009991588 -0.009969771

exp_avg_sq f4 [7]
00000000: a0d5 103a 35cc 663a 4158 123a 205c 4b39
00000010: f86a d23a 6adb 873a 7894 a83a
0.00055249967 0.0008804233 0.0005582609 0.00019393908 0.0016053608 0.0010365073 0.001286163

exp_avg f4 [7, 22]
00000000: 5b1d 50bc 5d82 9cbb dad6 223d 100c 83ba
00000010: 1ba3 c7bb 6398 2a3d b273 93bc 1159 b1bb
00000020: 5456 c3bb 306b 73bb a590 3abb 30c0 2abc
00000030: 1068 dfbb b69c 91bb a02e eabb add7 d8bb
00000040: f633 66bb 5cf2 05bc 7dbf a6bb 1cd4 dfbb
00000050: 0431 b9bb 8a9c b3bb b8ed cd3a f9ea 8d39
00000060: 40ac 18bc 155c ef39 7d35 a838 b6a2 1bbc
00000070: b8ef 293b 73d2 d438 8ac2 993a 5d9f 573a
00000080: ecbd 693a abfe 113b 726a b93a 076b 023b
00000090: b3dc b63a db79 c63a d53d 5d3a 3843 013b
000000a0: 31d1 a23a 10ad eb3a 5558 9b3a 233e b13a
000000b0: 6ebd dcbb 3a2f 8b3a d0a6 aabb 0597 d6bb
000000c0: d571 363a ab6f 89bb 7f67 79bc 86ec 193a
000000d0: 48a7 913a 1cff 113a 3522 6ab9 cf65 d439
000000e0: c349 88ba 68d1 d13a ad84 cb3a d431 2aba
000000f0: c324 333a e87b 923a 7e04 903a 04f6 fe39
00000100: 0392 803a 18c6 7739 4f71 1dbc de8a e63a
00000110: 4cc0 573b 077c 37bc 44e4 383b d0c3 643b
00000120: 53da bfbc 7f59 e23a 31df 83ba acff 84ba
00000130: ae8e dbba 2837 c0ba 8f60 70ba b506 0639
00000140: fa86 29b9 1798 f0ba cce2 dfb9 cf92 15b9
00000150: 1281 b4b9 6225 0dbb 25f2 ffb9 b1eb 3eba
00000160: 0633 093c 4161 553a 88fa d9bc 9a4f 8f3b
00000170: b817 9a39 23ef e2bc c9ec 7b3c 325a 113a
00000180: a47e 583b 9c3f 473b 9b6f 3a3b b9df dc3b
00000190: 14b1 9d3b 827e 8f3b cd6d 7d3b 364b 9f3b
000001a0: c976 193b 1962 b73b 73c7 5c3b 2f86 b23b
000001b0: b195 5b3b 5380 833b 09a3 343c 3dc8 0d3a
000001c0: bcc0 1f3c 8b5c e43b 5c82 f13a 16ac 193c
000001d0: 997c a43c b255 033b 2e18 1dba 33b2 7eba
000001e0: 23b6 14ba 09e9 a5ba 08d5 7f39 88bf 9ebb
000001f0: 623a 8dba f2e0 94b9 c8b5 80ba a96f 37bb
00000200: 3308 dbba bf1c 95ba 8875 88ba 9bfb 99ba
00000210: 7184 013c 8d70 05b7 03a7 41bb f2e4 f53b
00000220: c2db 8639 4a6f 8cbb 89d0 993c cf42 c239
00000230: a32b 5e3a af39 c239 6157 3b3a 3679 023b
00000240: 01b3 ad3a f6b7 40ba 3ba9 d538 fdd0 e73a
00000250: 09a8 6f39 f752 103a 9a50 2d39 059b 533a
00000260: df9b 0a3a 703e 143a
-0.012702311 -0.0047762827 0.03975568 -0.0009998102 -0.0060924417 0.041649234 -0.017999504 -0.005412229
-0.005961219 -0.0037142746 -0.0028467563 -0.010421798 -0.006817825 -0.00444373 -0.0071466714 -0.0066175074
-0.0035126186 -0.008175459 -0.005088745 -0.0068307053 -0.005651595 -0.0054813074 0.0015711104 0.00027068684
-0.009318411 0.0004565424 8.020827e-05 -0.0094992425 0.0025930237 0.00010148147 0.0011730951 0.0008225346
0.0008916545 0.0022277038 0.0014146103 0.001990022 0.0013951272 0.0015142517 0.00084396946 0.0019723903
0.0012421963 0.0017980654 0.0011851887 0.0013522547 -0.006736449 0.0010618933 -0.005207874 -0.0065487646
0.00069597113 -0.00419422 -0.015222429 0.00058717316 0.0011112476 0.00055693253 -0.00022328722 0.00040511644
-0.0010397959 0.0016007842 0.0015527211 -0.00064924103 0.0006833786 0.0011175843 0.0010987667 0.0004862995
0.000980914 0.00023629551 -0.009609534 0.0017588993 0.0032921014 -0.011199004 0.0028212229 0.0034906752
-0.023419535 0.0017269104 -0.0010061023 -0.0010146997 -0.0016750896 -0.0014664875 -0.0009169662 0.00012781734
-0.00016167379 -0.0018355873 -0.0004270285 -0.00014264438 -0.0003442844 -0.0021537174 -0.00048817802 -0.00072830456
0.008373981 0.0008139797 -0.02660872 0.004373503 0.0002939084 -0.02770192 0.015376278 0.0005544751
0.0033034468 0.0030402904 0.002844787 0.006740537 0.004812369 0.0043790946 0.0038670183 0.0048612608
0.0023416749 0.005596411 0.0033688217 0.005448125 0.003350597 0.0040131 0.011025199 0.0005408561
0.009750541 0.00696904 0.0018425691 0.009379407 0.020078944 0.0020040092 -0.0005992678 -0.0009715885
-0.00056728924 -0.0012657951 0.00024398055 -0.0048446096 -0.0010774846 -0.00028396357 -0.00098198 -0.0027990139
-0.0016710818 -0.0011376365 -0.0010411004 -0.0011747958 0.007905112 -7.953623e-06 -0.002954901 0.007504099
0.00025722204 -0.0042857276 0.018776195 0.0003705234 0.00084751303 0.0003704554 0.00071465044 0.0019908673
0.00132522 -0.0007351631 0.00010188153 0.0017686185 0.00022855414 0.0005505527 0.00016528592 0.0008072111
0.0005287509 0.0005655056

exp_avg_sq f4 [7, 22]
00000000: adde e638 7145 a037 410a 913a 765f 0f38
00000010: 857a f437 69c1 993a 8a58 9f39 94f8 cd37
00000020: 81c1 9038 f3b3 5e37 66f3 3c37 d45e 7738
00000030: ad87 ee37 a514 7737 f977 ea37 498f e937
00000040: 5cb6 1737 1aa4 4038 eee5 9437 34c1 4a38
00000050: 2bf4 a937 1b4a b037 bee8 5337 c2ef 0735
00000060: 0e38 8d38 0be6 7b36 fddd 7934 f68d a038
00000070: 6f56 0638 f733 1f35 35e7 d135 cd3c ae36
00000080: f624 6435 5c4e 0c36 2e08 b135 43be b135
00000090: 1af8 d235 32d9 fb35 29fc 0935 ca02 3b36
000000a0: 577c 9735 6469 8e36 c820 8135 5446 b635
000000b0: 63bb e938 36ea f035 994b 7d3a 976d f738
000000c0: fbcb 8a36 8e42 7b3a ffe3 003a 4a44 0136
000000d0: a3d4 6137 e40e 6f37 8a51 8338 978d 0c38
000000e0: 9b10 ce37 207f 8a37 605f 9837 aef7 0d38
000000f0: c242 c336 6ae3 2038 279c 4837 eadc 4a38
00000100: 77a5 4437 993c c037 b092 0539 1f64 af35
00000110: 3545 c139 c7bc c638 a2e2 a436 63d7 d039
00000120: 553f 193a 7b50 dd35 7dd8 4337 9e53 f936
00000130: 6f52 2a37 1791 a737 7b39 3837 08f0 0337
00000140: 8776 1337 aaf2 8737 b9d8 5436 9bfd 5137
00000150: 4896 b936 ac1b eb37 c68a cf36 3a15 1737
00000160: 33b5 9d37 e37e 3535 417e 1139 b5f0 6937
00000170: a15e 8935 2c34 1639 cc11 a238 4c11 4835
00000180: a51c 4d36 5d5b 2436 d3a6 8b36 319a d936
00000190: 622d 8f36 10dd 3936 eb61 6d36 c737 8c36
000001a0: 5d89 8735 d26b bf36 5907 0a36 6c20 ef36
000001b0: 8add 0436 3949 4d36 eab3 b337 d161 2736
000001c0: a5ad ec39 b61f 9437 7e47 d035 e4ce ed39
000001d0: 0620 bb38 c0c5 c435 d494 0537 9cca ba36
000001e0: 70a5 9e36 67e6 8237 43e0 e436 905f c437
000001f0: 510c 5637 db62 e236 7d28 8736 606c c737
00000200: 84b6 1a37 9f29 9237 9896 cd36 1bbe fc36
00000210: c931 6137 4d62 1a36 d6ce 103a 2e2b 2b38
00000220: 53c2 7135 3a98 093a ac13 0139 72cb 3a35
00000230: f236 cd36 2d92 d736 5f81 bf36 23f8 7437
00000240: 2163 ce37 bf73 3337 ffd2 f037 29a7 0237
00000250: 3ee4 9436 d3cd cb37 7ce8 2737 d6e2 cf37
00000260: c0fb f736 52cf 3437
0.00011008731 1.9105823e-05 0.0011065678 3.418276e-05 2.914412e-05 0.0011730614 0.0003039281 2.4553658e-05
6.902498e-05 1.3274129e-05 1.1262344e-05 5.8977705e-05 2.843499e-05 1.4727154e-05 2.795084e-05 2.7842487e-05
9.04276e-06 4.59292e-05 1.7750044e-05 4.8340487e-05 2.026007e-05 2.1015343e-05 1.263077e-05 5.064031e-07
6.733845e-05 3.7535817e-06 2.3270691e-07 7.655837e-05 3.2028587e-05 5.9307735e-07 1.5639004e-06 5.1926822e-06
8.4990404e-07 2.0907237e-06 1.3189908e-06 1.3242901e-06 1.5718426e-06 1.876417e-06 5.140342e-07 2.7866795e-06
1.1286564e-06 4.244199e-06 9.62079e-07 1.3580525e-06 0.00011145209 1.7949558e-06 0.0009662449 0.000117982905
4.136467e-06 0.00095848076 0.00049167866 1.9262247e-06 1.3460553e-05 1.4248977e-05 6.2617546e-05 3.3510467e-05
2.4564846e-05 1.651008e-05 1.8164224e-05 3.384769e-05 5.8192245e-06 3.835877e-05 1.1957286e-05 4.8366295e-05
1.1721036e-05 2.2916402e-05 0.00012738514 1.3067655e-06 0.00036863392 9.476538e-05 4.9139644e-06 0.00039833327
0.0005845924 1.6489206e-06 1.1673311e-05 7.4305126e-06 1.0151983e-05 1.9975514e-05 1.0980638e-05 7.864095e-06
8.78948e-06 1.6206253e-05 3.171661e-06 1.2516418e-05 5.5309247e-06 2.8027069e-05 6.185236e-06 9.005244e-06
1.8800236e-05 6.76124e-07 0.00013875311 1.3943926e-05 1.0234836e-06 0.0001432455 7.728077e-05 7.4530976e-07
3.0564054e-06 2.4491085e-06 4.1619437e-06 6.485054e-06 4.2670154e-06 2.7695824e-06 3.5372748e-06 4.1788185e-06
1.0098262e-06 5.7047955e-06 2.056788e-06 7.1265295e-06 1.9798485e-06 3.0590002e-06 2.1422242e-05 2.4941876e-06
0.00045142803 1.7657741e-05 1.5518015e-06 0.00045358308 8.92282e-05 1.4660691e-06 7.9620695e-06 5.566819e-06
4.7280264e-06 1.5604497e-05 6.821037e-06 2.340952e-05 1.2758262e-05 6.746833e-06 4.028027e-06 2.3773115e-05
9.2216105e-06 1.7423938e-05 6.1270075e-06 7.5323164e-06 1.3422637e-05 2.3005007e-06 0.0005523985 4.080979e-05
9.0062275e-07 0.0005248819 0.00012309727 6.958645e-07 6.1158726e-06 6.4245164e-06 5.7073044e-06 1.4601307e-05
2.4603274e-05 1.0696181e-05 2.8708482e-05 7.787524e-06 4.4373146e-06 2.429533e-05 1.0008105e-05 2.4781952e-05
7.390481e-06 1.0777107e-05

exp_avg f4 [7, 7]
00000000: 2d75 c0bc 14a8 26bb 4ae9 59bb c59d b5ba
00000010: bb4c 88bb e4fd 62bb 6d8d 43bb 2876 0c3b
00000020: c9f4 c939 14fa c43a d608 ba3a 1629 973a
00000030: 7e21 e13a 3cd0 d23a 02a8 5f3b c2f3 2e3a
00000040: e7e8 eabb 790b 143b 23d7 0f3a 4cf2 453b
00000050: df2d a03a 5775 fa3a 3fec a8b9 fc74 3b3a
00000060: aa2b 02bc 389a 04bb 0ee2 473a bf47 4c3a
00000070: eef6 d23b dafa f03a bed6 c83b f02f 843b
00000080: dd00 733b 1f3b 503b 5c5e 6f3b 3a02 2c3b
00000090: 25f8 40ba c700 88ba c70b 96b9 ed73 5aba
000000a0: 623b 09bc 5c0e eab9 629f 9f3b 28b6 6939
000000b0: 381a 293b b2f6 593a 2b00 c739 4d2a 8f3a
000000c0: 362a b0bb
-0.023493374 -0.0025429772 -0.0033250623 -0.0013856223 -0.0041595376 -0.0034636194 -0.0029838935 0.0021432731
0.00038520087 0.0015028142 0.0014193307 0.001153263 0.0017176119 0.0016083787 0.003412724 0.0006673896
-0.0071688774 0.0022589846 0.0005487075 0.0030204235 0.0012220702 0.0019108456 -0.00032219474 0.0007150916
-0.007944981 -0.0020233523 0.00076249323 0.00077926734 0.0064381277 0.0018385306 0.006129115 0.004034035
0.0037079372 0.003177352 0.0036524748 0.0026246444 -0.0007361195 -0.0010376208 -0.00028619004 -0.00083333143
-0.008375974 -0.00044642657 0.004871295 0.0002228847 0.002580298 0.00083146535 0.00037956363 0.0010922641
-0.0053761257

exp_avg_sq f4 [7, 7]
00000000: 077b 6539 aea7 9a36 0afb f337 abf8 3b37
00000010: 481f ac37 049e 2437 338f 2937 2d70 1336
00000020: 92e4 9b36 47e1 f035 3af1 8335 4287 2f36
00000030: 0eb1 c235 fafc e035 572c df37 ee07 8836
00000040: daeb 4539 46b7 f336 e80e b037 2dbe 3137
00000050: dc8d 7937 5613 6237 a1c0 f135 9b03 0437
00000060: 6a09 6b38 c057 8537 f458 9f36 4139 e536
00000070: 6c1f 0a37 a657 9735 8aac 5937 b4f5 5236
00000080: b5e2 6336 95de 0936 69ee 9c36 f042 fa36
00000090: 37aa 0f36 ff26 6037 a115 cd36 2cb1 0837
000000a0: 17c7 8438 d33f 8b36 27fe 2837 1ff6 0d36
000000b0: ca40 a337 07b9 b336 5028 4537 994b 8236
000000c0: 0756 b538
0.00021884973 4.609078e-06 2.9084757e-05 1.1203966e-05 2.0518564e-05 9.811953e-06 1.0106526e-05 2.1970002e-06
4.645969e-06 1.7946958e-06 9.830467e-07 2.6155762e-06 1.4505656e-06 1.6762926e-06 2.6604319e-05 4.054039e-06
0.00018875246 7.2633e-06 2.0987776e-05 1.0594301e-05 1.4874586e-05 1.3475152e-05 1.8011962e-06 7.868653e-06
5.6037134e-05 1.5895697e-05 4.7489248e-06 6.831397e-06 8.232757e-06 1.1275886e-06 1.297438e-05 3.1435457e-06
3.3957597e-06 2.054415e-06 4.676917e-06 7.458373e-06 2.1407739e-06 1.336052e-05 6.111994e-06 8.147483e-06
6.331334e-05 4.149953e-06 1.0072755e-05 2.1153899e-06 1.9461284e-05 5.3561557e-06 1.1751501e-05 3.8831026e-06
8.6467764e-05

exp_avg f4 [7]
00000000: 3f61 29bd f88c 223c 698f 813b 63ad c8bb
00000010: 6966 ed3c 6cdc 14bc bc14 973b
-0.041352507 0.009921305 0.0039538634 -0.006124185 0.028979497 -0.009085756 0.004610626

exp_avg_sq f4 [7]
00000000: 9516 a23a 6c64 a938 ee11 8e3a 3b3f 033a
00000010: 15ad 2639 09e3 f939 b528 153a
0.0012366349 8.077253e-05 0.0010839084 0.00050066755 0.00015895472 0.00047662135 0.0005689965
