data_10frm/model/0_5_8_11.pt (torch_old, 18399 bytes, 52 tensors)

rnn.weight_ih f4 [7, 22]
00000000: 32f9 4ebe b764 963e beff 54bd 0d52 debe
00000010: 280f 783f 27eb 003f a865 35be ae65 9e3e
00000020: 4fac 06be adff 2ebd f773 ddbe 7e3c 40bf
00000030: a19c cdbe 0d5c 1dbf 345f ddbe 5182 d7bd
00000040: 80c0 45bd 17a3 16bf baf2 babe bdbb c7be
00000050: 65d3 13be b815 65bd 2ee0 33bf f0f2 853e
00000060: 8b71 383e 0e35 82bf 4375 b03c edaa 63be
00000070: bb5a 3dbf aaaf 0dbe f0dc 623e 6387 3f3e
00000080: 96b5 17bf 7237 9cbe 2383 60be 946f babd
00000090: 571e 663d 1148 913e 4cd9 ba3e 4d02 393d
000000a0: 5e43 80be 0f06 83be 0cbc c0be a136 a9be
000000b0: a391 8abf 420f 1abe 0033 843e c07a a4bf
000000c0: fa98 583d 0521 8abe b53b 8abf d5c1 f43b
000000d0: 0220 43bd b105 69be 81dc 153f 7d12 dabe
000000e0: 8528 043e 35cc 353e 09b6 183e 3469 5e3d
000000f0: d6f7 4bbd 6ebb 2a3e e0fd 76be 1ccf 8cba
00000100: 589f 3dbf 1fe8 a0be 2d24 fa3d 53f5 4ebe
00000110: 66a2 a0be 5d68 f23e 359f 8dbd ddac 953e
00000120: ac22 4ebe 0637 4dbe 0932 ec3d 7d0d 14bf
00000130: 192d 87bd 17a1 3f3f 2fe5 1d3e 2d5b 01bf
00000140: 7470 963e 3955 00be 8141 2e3d e695 26bf
00000150: bb8b 013c 42f5 013e d0b3 d5be e6fd aa3e
00000160: 6e26 f5bd 7aa7 9c3e 1f30 163e 3117 af3e
00000170: 9c89 2b3f 1427 913e f4a1 30be 8a53 e0bd
00000180: 216a b13d 2f9e 1cbe a43f 7cbe 5326 c8be
00000190: dca2 f93d 3088 98be 33d3 4abe 84fe 38bd
000001a0: b53b 77be 53e7 0dbe f6a9 03be b2ff 92be
000001b0: a0e9 e5be b0f7 5fbe cb20 543f cd4c 753f
000001c0: 33a0 47bc 554b fb3e 3f3c fe3d 1b96 2f3e
000001d0: 42f7 753f 58a4 483f f22e 03be 7f93 813d
000001e0: e467 ebbe 4d12 b2be 649d 70be bfd3 3e3e
000001f0: 4c2a 9dbe 031c 173e 5881 47bc da47 17bf
00000200: 784f 1cbe 1848 293e c29b 273f bbb1 893e
00000210: d269 cbbe 4236 003f 5528 1e3e 7ee5 f7bd
00000220: 15d7 293e 0892 ca3e 575d a63c fc0d 073f
00000230: 96e3 1abf 7768 e1be cbc2 efbe a7c9 26bf
00000240: 443b 1dbf 1515 8abe c9bc 4abe 6e55 01bd
00000250: c44a 1fbf 7585 7abe 4063 38bf 2d7c debe
00000260: 4120 3fbf f054 aabe
-0.20212248 0.29373714 -0.052001707 -0.43421975 0.96898127 0.50358814 -0.1771456 0.3093695
-0.13151668 -0.0427243 -0.43252537 -0.75092304 -0.4015856 -0.61468583 -0.43236697 -0.10522903
-0.048279285 -0.58842605 -0.3651331 -0.3901042 -0.1443611 -0.055928916 -0.70263946 0.2616191
0.18012063 -1.0172441 0.02154029 -0.22233172 -0.7396657 -0.13836542 0.22154593 0.1870399
-0.59261453 -0.3051105 -0.21925025 -0.09103313 0.056181278 0.28375295 0.3649391 0.04516821
-0.25051397 -0.2559056 -0.37643468 -0.3304949 -1.0825695 -0.15044883 0.2582016 -1.284996
0.052880265 -0.26978317 -1.0799471 0.0074693956 -0.047637947 -0.22756077 0.5853959 -0.4259223
0.12906082 0.1775368 0.14913191 0.05429955 -0.0497969 0.16673061 -0.24120283 -0.0010742876
-0.74071264 -0.31427094 0.12213931 -0.20210771 -0.313739 0.47345248 -0.06915132 0.29233447
-0.20130414 -0.20040521 0.11532981 -0.5783308 -0.066003986 0.7485518 0.15419458 -0.5052975
0.2938267 -0.1253251 0.04254294 -0.65072477 0.0079068495 0.12691215 -0.4173875 0.33396834
-0.119702205 0.30596524 0.14666794 0.3419738 0.6700685 0.28350127 -0.1724928 -0.10953434
0.086628206 -0.15294717 -0.24633652 -0.3909174 0.12189266 -0.29791403 -0.19807129 -0.0451646
-0.2414387 -0.13857774 -0.12857804 -0.28710705 -0.44904804 -0.21871829 0.8286254 0.95820314
-0.012184191 0.4908091 0.12413835 0.17147104 0.9608041 0.7837577 -0.12810877 0.06326961
-0.459777 -0.34779587 -0.2349754 0.18635462 -0.30696332 0.1475678 -0.012176834 -0.5909401
-0.1526469 0.16531408 0.6547204 0.2689341 -0.39729172 0.5008279 0.15445073 -0.12104319
0.16585954 0.39564538 0.02030818 0.52755713 -0.6050352 -0.44025013 -0.46828303 -0.6515145
-0.6141856 -0.2696921 -0.19798578 -0.031575613 -0.6222346 -0.24464972 -0.72026443 -0.43454114
-0.7465859 -0.33267927

rnn.weight_hh f4 [7, 7]
00000000: 3934 713d c935 90be 1395 1fbf 0aa5 acbe
00000010: 7158 03bf 1c8c 25bf 4d4c febe 0412 0c3c
00000020: dc57 463f 1ae9 14bf 9bc6 3bbf ff3e 433e
00000030: eed9 f2be 0a9d 353e d85f c7be eb05 f3bd
00000040: d4ae 553f be67 1dbf b5c8 803a e896 92be
00000050: ead2 2a3e 4f03 383e 0872 c5be 854f 69bf
00000060: cb75 213f fd94 e73e 052f 54bf 13a0 063f
00000070: a697 d4bd ca8b 07bf 6f1c f5be 6764 22bf
00000080: c099 de3d 7f80 84be 8d0b 21bd b9e2 c9be
00000090: 0e8f b2be cdc7 21bf 0b3f 83bf dea7 873d
000000a0: b2d3 dc3e cf56 62bc a5cc acbe 192d 78be
000000b0: 6395 b2be 6e14 b0be bd66 66be cb87 88be
000000c0: bcd8 5fbe
0.058887694 -0.28166035 -0.62336844 -0.33719665 -0.51306826 -0.64666915 -0.49667588 0.008549217
0.7747781 -0.58168185 -0.7334992 0.19067 -0.47431892 0.17735687 -0.3894031 -0.11866363
0.8346989 -0.61486423 0.000982544 -0.28630757 0.1668202 0.17970012 -0.3856356 -0.9113696
0.6307036 0.45230857 -0.82884246 0.52588004 -0.10380487 -0.52947676 -0.47873256 -0.6343445
0.10869169 -0.25879285 -0.039317656 -0.39430788 -0.34874767 -0.63195497 -1.0253614 0.06623815
0.4313026 -0.013814642 -0.3374988 -0.24235953 -0.34879598 -0.34390587 -0.22500129 -0.26666102
-0.21860021

rnn.bias_ih f4 [7]
00000000: ee0c 95be b3dc 393d d23e 923e 8cda b13d
00000010: 96e7 87bd 3a6b 40bd a1d1 ecbe
-0.29111427 0.04537649 0.28563553 0.08684263 -0.066359684 -0.04697726 -0.46253684

rnn.bias_hh f4 [7]
00000000: ac2e fc3c f1cc babe 6765 923d 75f9 bf3e
00000010: cca4 05bf c891 a5bd df1f fabe
0.030783974 -0.36484483 0.07148247 0.37495008 -0.52204585 -0.08084446 -0.4885244

exp_avg f4 [7, 22]
00000000: 89b6 11b9 23e7 04ba e362 5cba 646e aab8
00000010: 0b8f d0b9 8f41 50ba 4c84 21ba 2bb0 edb9
00000020: cc31 07bb ff14 4139 ab32 ca39 f934 4d3a
00000030: 8150 e739 0fa0 313a 5ad6 c039 1897 99b8
00000040: ef53 9f38 09a6 7039 99bb 07b7 e4ae 8f38
00000050: d11e a939 80de 3439 e758 8d37 5385 deb7
00000060: c3c4 1aba 6f25 c6b8 74d4 b536 0b26 1aba
00000070: ad4a f5b8 d722 0737 4764 6c38 6f78 2138
00000080: 2619 0539 bb40 f038 4bb2 8238 eaf3 be38
00000090: 82f7 c038 609f 2f38 903d 3538 117e ef38
000000a0: 1695 0739 2b1e 4138 8bf9 f538 68e6 bd38
000000b0: c93d d13b 3182 bc3b 7e12 b63b dd58 8d3b
000000c0: aad9 5439 1f15 c13b f7ce 653c 5ac1 9539
000000d0: 7f77 03ba 941e c5b9 f34c c7bb 46a3 1938
000000e0: b864 d239 9496 3c3a 62dc 62ba c4b1 d5b8
000000f0: e993 27b9 52bb e4bb 3ba1 13bb 5f2a 8238
00000100: 946f de3a 61ee 8b3a 090e 61b7 0ded 22bb
00000110: a94c 27bc 7a7a cf39 ba90 403a 2c04 40bc
00000120: 6955 8539 07d7 993a a078 603b 3e38 0cba
00000130: 0661 833b 2173 8f3a ecf9 313a 01fc 113b
00000140: 1102 5e3a eac8 433a c1a8 353a 13e3 a23b
00000150: 5518 4cbb d4f9 253a 3112 773b 3b6d 843b
00000160: ac4c 11b9 b2ca a5b9 155d dcb7 e64d 173a
00000170: b789 e6b8 9c34 15b9 4c58 7ab9 8b99 e6b8
00000180: 7b53 bd39 12fe c739 806b c5b9 144d 9ab9
00000190: a92e a0ba a63f 023a 2318 4f3a da48 24b8
000001a0: 538f c8b6 8639 c939 493a c3b9 a070 ecb9
000001b0: d1a4 5b39 126a d939 43b8 193a f06a 803a
000001c0: dab7 0bb9 37d2 fdba d8cb e739 0d82 6eb9
000001d0: dd19 15bb 090a 7f3a ccf7 2f3b c9a3 ccb9
000001e0: b57f a33a a7ad 8e3b cf6a e93a b7e3 f4bb
000001f0: 47d6 b1ba f4cd 4438 bf51 54b8 e5d1 d93a
00000200: 0b1c 973b 7203 8d39 1fef 2cbc bba6 9f3b
00000210: bff0 d1bb 20ea 5fbb c223 923c 0eab 64b9
00000220: e19b 8dba 63f8 983c 6846 ebbb df9d 07bb
00000230: 19ad b7bb 7b65 8bba 94b0 7038 559b 13bc
00000240: a678 9fbb fee5 8a3a 0c60 383a 6afd f7ba
00000250: bd1f e9ba 6768 c3ba 23d8 1abb 971e 08bb
00000260: 2fb3 f23a a7a2 33bc
-0.00013896277 -0.00050698424 -0.0008407069 -8.1267935e-05 -0.00039779427 -0.00079443393 -0.00061613764 -0.00045335418
-0.0020629046 0.00018413736 0.00038566193 0.0007828023 0.00044119734 0.0006775865 0.00036780798 -7.323752e-05
7.597345e-05 0.00022950037 -8.0903055e-06 6.851347e-05 0.00032257152 0.00017249025 1.6849908e-05 -2.6526546e-05
-0.00059039536 -9.448348e-05 5.418953e-06 -0.00058803026 -0.0001169642 8.054739e-06 5.6360175e-05 3.8497554e-05
0.00012693237 0.00011456149 6.232093e-05 9.1053385e-05 9.201375e-05 4.187168e-05 4.3211097e-05 0.0001141989
0.00012930142 4.6042882e-05 0.000117289914 9.055139e-05 0.006385539 0.0057528247 0.0055564037 0.004313572
0.00020298982 0.0058924104 0.014026395 0.00028563553 -0.000501506 -0.0003759755 -0.006082171 3.6630103e-05
0.00040129363 0.0007194069 -0.00086540554 -0.00010189743 -0.00015981462 -0.006980338 -0.002252652 6.206775e-05
0.0016970509 0.0010675901 -1.3414313e-05 -0.0024860532 -0.010211148 0.0003957337 0.00073457847 -0.011719745
0.00025431372 0.0011737057 0.0034251586 -0.0005348957 0.004009369 0.0010944345 0.00067892554 0.002227545
0.0008468936 0.0007468598 0.00069297483 0.004970917 -0.0031142433 0.0006331478 0.0037700052 0.0040413416
-0.0001385684 -0.00031622272 -2.6269388e-05 0.00057718006 -0.00010992906 -0.00014229346 -0.00023874751 -0.00010995854
0.00036111087 0.00038145535 -0.00037654862 -0.00029430597 -0.0012220937 0.0004968591 0.000790002 -3.9168495e-05
-5.9771496e-06 0.00038380566 -0.00037236724 -0.0004509734 0.00020946866 0.00041468494 0.0005863944 0.0009797495
-0.00013324563 -0.0019365017 0.0004421163 -0.00022745896 -0.0022751011 0.00097289734 0.002685058 -0.00039031942
0.0012473973 0.004354197 0.0017808321 -0.007473435 -0.0013567888 4.692185e-05 -5.062087e-05 0.001661834
0.0046114973 0.00026896183 -0.010555058 0.0048721707 -0.006406873 -0.003416665 0.017839316 -0.00021807497
-0.0010803902 0.018673128 -0.007180024 -0.0020693464 -0.0056053516 -0.0010635102 5.738491e-05 -0.009009202
-0.0048666773 0.0010597107 0.0007033355 -0.0018920128 -0.0017785948 -0.0014908434 -0.0023627363 -0.0020770186
0.0018516536 -0.010964072

exp_avg_sq f4 [7, 22]
00000000: 812c 1c36 89a5 e635 023c 6e38 037a 9f35
00000010: ef24 8a35 7c33 7638 c8a3 8136 748d cc35
00000020: 7639 b137 c455 1f35 21de 5535 6e1c 5335
00000030: 22fa fa34 6f91 d734 c941 f734 30b2 0e35
00000040: 61a9 1535 510b 7f35 67cb 9e36 df4f 3135
00000050: 345e dc35 fc56 0236 d465 9c35 e565 bd34
00000060: a287 1738 efb8 4036 b9d3 4233 b0aa 1238
00000070: 8f50 2537 63b4 8233 db1d 1d35 ae57 6535
00000080: 170d 4236 e2c4 5335 94ed 2c35 a692 cc34
00000090: 4179 7835 ddfd 7334 8469 5e35 62c5 b135
000000a0: 7c02 1d36 2815 2535 eb01 5534 8b75 7c35
000000b0: fd65 ff38 736c 2d38 6f97 863b 31ce c339
000000c0: b90d 7336 ecb7 803b d0c9 ae3a ea17 9136
000000d0: 21ff 1938 91b0 ae38 d532 cf39 05cc 4439
000000e0: 9aeb 3e38 394b 5438 ddbe 4238 eceb 9937
000000f0: 95a7 cb37 2516 9d39 af7e fa39 e8de 0538
00000100: aa4c 2238 bf10 5538 4fc5 a938 5008 8c37
00000110: ea51 513b a665 8239 41f8 9436 b92c 473b
00000120: 459e 463a 310c bf36 7fb5 1738 0a93 ad38
00000130: d555 2839 fd5b 3e39 c3c2 6038 e4fe 8838
00000140: fc2b 5e38 cd6a 8737 0b13 b337 3658 3239
00000150: 281d a539 2834 0138 cebb 8138 ba72 8938
00000160: 62f0 d336 5588 1536 8dd7 173a 89c6 0b38
00000170: 16b5 ac34 5fed 103a 4dfa 4638 200c 4e35
00000180: bd0f 6c37 4492 2037 3a38 4b37 dfb7 8437
00000190: ab5c 4938 12ec 0f37 4c92 c736 83d4 5636
000001a0: 4510 9436 aed4 9e37 24fc 5338 3414 0137
000001b0: 2121 3837 e50c 6737 4410 1e39 45f7 b836
000001c0: 195e 863b 6450 3338 f6d5 1236 220c 8a3b
000001d0: 2f78 4a39 453a 8136 7fe4 2538 2458 d737
000001e0: f54e 1c38 dd9d 3f39 dee7 9238 5e92 af39
000001f0: 2d28 1839 18e1 ba37 da64 b137 5cba 6f38
00000200: 1810 2b39 a4a1 0038 9fa5 c539 5061 4939
00000210: 187a 5b39 5f5e 8e37 c872 7c3b 5686 8238
00000220: 7f16 a036 5887 833b 7c8f b539 684f 2537
00000230: 5237 8738 46f5 0238 c0ed 5638 f03f 8d39
00000240: 9508 be38 1661 2539 30e6 d238 dabe c537
00000250: 6f6d c337 bd77 9138 ee0c 4439 6a83 1438
00000260: 54d9 6139 c77a 6639
2.3271716e-06 1.7184512e-06 5.679951e-05 1.1881933e-06 1.029255e-06 5.869892e-05 3.8635662e-06 1.5240353e-06
2.1126802e-05 5.935692e-07 7.9671923e-07 7.8644996e-07 4.6748124e-07 4.0152688e-07 4.60552e-07 5.315842e-07
5.5753304e-07 9.501137e-07 4.732446e-06 6.6053866e-07 1.6418694e-06 1.942214e-06 1.1652542e-06 3.527813e-07
3.6127523e-05 2.8717875e-06 4.5361706e-08 3.4968078e-05 9.853523e-06 6.086409e-08 5.8530503e-07 8.543674e-07
2.8915872e-06 7.889013e-07 6.4420715e-07 3.8104662e-07 9.2563647e-07 2.2723493e-07 8.285499e-07 1.3244974e-06
2.339627e-06 6.1498076e-07 1.9837869e-07 9.4048363e-07 0.00012178344 4.1347415e-05 0.0041074078 0.00037346923
3.621781e-06 0.003928175 0.0013335291 4.3241207e-06 3.671565e-05 8.3298546e-05 0.0003951999 0.0001876802
4.551895e-05 5.0614795e-05 4.643096e-05 1.8348881e-05 2.4277522e-05 0.00029961872 0.00047778102 3.191727e-05
3.869521e-05 5.0798753e-05 8.0952996e-05 1.6693171e-05 0.0031939694 0.00024871266 4.4396443e-06 0.0030391647
0.00075766846 5.693663e-06 3.6170237e-05 8.276671e-05 0.00016053703 0.0001815408 5.3587148e-05 6.5324624e-05
5.296989e-05 1.6142987e-05 2.134733e-05 0.00017008264 0.00031492976 3.080457e-05 6.186181e-05 6.5540386e-05
6.3162743e-06 2.2282086e-06 0.00057923124 3.3325083e-05 3.2169254e-07 0.0005528535 4.743999e-05 7.6758624e-07
1.40703605e-05 9.570798e-06 1.2112834e-05 1.5821248e-05 4.8008438e-05 8.578429e-06 5.9476934e-06 3.2012183e-06
4.4126377e-06 1.8934104e-05 5.0541144e-05 7.693703e-06 1.0974968e-05 1.3771675e-05 0.00015074114 5.5124133e-06
0.004100573 4.2751795e-05 2.1880237e-06 0.004212872 0.00019308993 3.851283e-06 3.955187e-05 2.5671041e-05
3.7266833e-05 0.00018273988 7.005011e-05 0.00033487653 0.00014510816 2.2277745e-05 2.1147007e-05 5.71556e-05
0.00016313826 3.0668118e-05 0.00037698165 0.00019205105 0.00020930951 1.6971664e-05 0.0038520563 6.223905e-05
4.7709905e-06 0.004013937 0.00034629914 9.853255e-06 6.447606e-05 3.1222844e-05 5.1242998e-05 0.00026941253
9.0615045e-05 0.00015771794 0.00010056456 2.3573102e-05 2.329677e-05 6.936442e-05 0.00018696833 3.540834e-05
0.00021538633 0.00021980247

exp_avg f4 [7, 7]
00000000: b45f 19bb 138f 1239 e514 b839 3a1f 0c3a
00000010: b36f d339 34f6 5c3a 95ce 5a3a c98b 0a38
00000020: a58c ca37 bea2 2d39 528d d138 ecd7 4c38
00000030: 7b8d fa38 f37c c538 7726 10ba 7678 2eba
00000040: 0115 61bc 966a 9a3b 7e0c ee39 6c52 e03a
00000050: 2b53 b73a 24d8 453a d470 ec35 932c 583c
00000060: 49c8 82bc ccd5 c73a a88c 9b3b c730 f53b
00000070: a875 ad39 67d2 3e39 df06 6f3a 1841 fd3a
00000080: d7a6 e7bb b2a8 db3a b921 0d3b 39b5 2ab9
00000090: ce8e 84ba d1dc 803a 16bd b23b 0f93 ea3a
000000a0: a1df aabc 20e9 6f3c 9dff 28ba 5002 85ba
000000b0: 7105 79b9 8129 d637 3bf7 afba a195 123c
000000c0: 465a c8bc
-0.002340299 0.00013976944 0.00035110782 0.00053452293 0.0004032828 0.0008429021 0.0008346823 3.303195e-05
2.414577e-05 0.00016559192 9.9922196e-05 4.8838483e-05 0.00011947282 9.4169656e-05 -0.0005498896 -0.00066555233
-0.013737918 0.004712413 0.00045404205 0.0017114407 0.0013986578 0.0007547161 1.7616208e-06 0.013194221
-0.015964644 0.0015246212 0.004746992 0.0074826214 0.00033084792 0.00018198193 0.00091181503 0.0019321768
-0.0070694494 0.0016758649 0.0021534993 -0.00016279974 -0.001011336 0.0009831433 0.0054546697 0.001789661
-0.020858588 0.014642984 -0.0006446781 -0.0010147784 -0.00023748518 2.5530115e-05 -0.0013425121 0.008946807
-0.024457108

exp_avg_sq f4 [7, 7]
00000000: 06bf bb37 d8c0 6834 2d11 4f35 1550 0636
00000010: e023 0335 8690 0f35 38af 5f35 23a6 7234
00000020: 4b03 d334 3296 a636 26f9 2336 83ed 3835
00000030: e8b0 be34 e6e5 8535 2c40 2137 c0c9 4f37
00000040: b0f9 2a3a c20a 193a 92a4 d337 69bc 2438
00000050: 7373 2738 ed63 3237 06cf 1a37 bd4d 8139
00000060: bf87 283a 8619 c437 7a35 bd38 5788 0639
00000070: e4dc c135 c37f e035 352b 2937 354e 3238
00000080: 205d 0b39 90f4 c436 f80d 4437 c787 8e37
00000090: af41 4037 477f 0538 e94c ce38 59d7 b637
000000a0: 6935 6e3a 3aea a439 a10b 8637 33f2 2537
000000b0: fd38 5a38 bec7 e438 3d7a 0c38 29a4 af39
000000c0: fd67 223a
2.238109e-05 2.167684e-07 7.7138503e-07 2.001417e-06 4.885351e-07 5.348196e-07 8.332895e-07 2.2598446e-07
3.930421e-07 4.9646706e-06 2.4433916e-06 6.8890967e-07 3.5518974e-07 9.976181e-07 9.611289e-06 1.2385135e-05
0.00065221917 0.000583809 2.5229794e-05 3.9276118e-05 3.9923423e-05 1.0632893e-05 9.227317e-06 0.00024662717
0.0006428919 2.3376906e-05 9.022183e-05 0.00012830026 1.4443908e-06 1.6726484e-06 1.0083245e-05 4.2511343e-05
0.00013290765 5.869726e-06 1.1685763e-05 1.6990945e-05 1.1459385e-05 3.1828207e-05 9.837171e-05 2.179637e-05
0.0009086938 0.0003145503 1.597946e-05 9.891158e-06 5.2028325e-05 0.00010909092 3.3492444e-05 0.0003350091
0.0006195305

exp_avg f4 [7]
00000000: 8c2b 503a 3c2c 1f3a 365c dabb 2c8c 403c
00000010: 2938 1839 03cf 5f3a 1e56 99bc
0.00079410593 0.000607196 -0.0066638244 0.01175217 0.00014516771 0.0008537622 -0.018717822

exp_avg_sq f4 [7]
00000000: cd3a 8038 97a5 1f38 9e8a 8d3b f976 583b
00000010: 0de7 1a3a 0651 8c3b 8aa2 863b
6.114468e-05 3.806277e-05 0.004319503 0.0033029898 0.0005909063 0.0042821197 0.0041087316

exp_avg f4 [7]
00000000: 5db6 503a f3e0 1e3a af79 dabb f498 403c
00000010: 8fcc 1b39 9d75 603a ff53 99bc
0.00079617446 0.0006060742 -0.006667338 0.011755217 0.00014858156 0.00085624476 -0.01871681

exp_avg_sq f4 [7]
00000000: 373b 8038 5da3 1f38 9c8a 8d3b 0877 583b
00000010: 51e7 1a3a fd50 8c3b 88a2 863b
6.114545e-05 3.8060698e-05 0.004319502 0.0033029933 0.00059091026 0.0042821155 0.0041087307

exp_avg f4 [7, 22]
00000000: 00c6 9537 79f3 d938 6a2f 46ba 68d0 9ab8
00000010: beb4 c838 4f86 47ba 477d bcb8 86fc ec38
00000020: e819 7db8 9795 a938 cd62 2c39 d4f6 6039
00000030: 06d2 0439 99e4 ef38 6dcf f238 177f 5e38
00000040: d2b1 f938 b814 4838 f42b 1f39 a28e 4a38
00000050: ea27 5c39 bb43 0939 34a3 90bb dfeb 303a
00000060: cd01 12bc be99 61bb a424 083b 72c9 fcbb
00000070: 45f2 4abc 16ba 7a38 e77f 183a a178 32bb
00000080: a3da 263b 525c 473b 46c5 a83a a408 e03a
00000090: 43c6 bd3a 9daf 2c3a bc03 9ebb d35a 293a
000000a0: 0d63 4e3b 9ad1 353a 1bb6 883b ffb4 5e3b
000000b0: 5583 ab37 6161 2b38 ae17 61b9 6f2f 7bb7
000000c0: f3a8 0538 90a9 65b9 f306 b1b5 05f1 4438
000000d0: 4b7d a037 ab27 d037 a8fa 0538 961c 4238
000000e0: 6f39 fc37 82ad d637 81ef e437 27f5 3a37
000000f0: cb6e 2938 6080 5337 e9ca 1d38 a255 6437
00000100: becf 4c38 0f7f 2538 4976 a639 b93f 433c
00000110: 1cc0 85bd b552 e5bb 8f18 2c3c d0e8 85bd
00000120: f394 8fbb 9395 393c 676c 9e3b d5bc 683b
00000130: 51d1 183c 247c 913c 5071 413c b4be 343c
00000140: 0807 093c 7ca5 a93b 658e 043c 3e7a a83b
00000150: 7565 1f3c 1972 ae3b 763c b73c 669f 313c
00000160: c124 bd37 bacc 4339 a059 50ba 6829 27b8
00000170: 43e1 0c39 f272 57ba 3f4d b9b8 5ba7 4839
00000180: e48a 3239 d932 4439 b867 01b9 7862 9e39
00000190: c2c3 b2b9 c742 bd39 c9aa 8f39 d9c0 6d38
000001a0: d18f 0f39 772c 6f38 a3af f038 5634 2838
000001b0: 32ed c739 4cf5 2b38 fd62 793b 04dd cfbb
000001c0: 1ba9 343d ec3c 083c 225c dabb 6a2e 313d
000001d0: 5189 303c d081 d1bb df85 feba 8c78 51bb
000001e0: bc80 69bb 7472 42bc 1c5a e8bb 3b28 39bc
000001f0: 08c5 aebb b181 64bb 9c89 ffba a147 64bb
00000200: ea1f fbbb 00d5 6bbb f1a8 babc f149 adba
00000210: b7df dfb9 f63e dbbb f357 0f3d 7a25 7b3a
00000220: d3bd bcbb d346 0f3d 5628 9e3b d89e a4bb
00000230: 58fe 63bb 72a1 203a 4661 01bc 62e7 03bc
00000240: 40f7 a9bb fe6e 78bb 9e3e edbb aa36 3fbb
00000250: 1847 1fbb fd4d 3cbb b2e9 c7bb 21e9 42bb
00000260: 5ce8 76bb fbd7 64bc
1.7854385e-05 0.00010392717 -0.0007560166 -7.382111e-05 9.570409e-05 -0.0007611261 -8.987873e-05 0.00011300393
-6.0344028e-05 8.086411e-05 0.00016440004 0.00021454255 0.00012666741 0.00011438988 0.00011578095 5.3047286e-05
0.00011906367 4.770301e-05 0.00015179795 4.829339e-05 0.00020995704 0.0001309057 -0.0044139866 0.0006749015
-0.008911562 -0.0034423913 0.0020773793 -0.007714444 -0.012386863 5.977795e-05 0.0005817399 -0.0027232545
0.0025459907 0.0030420017 0.0012876175 0.0017092419 0.0014478642 0.0006587448 -0.0048222225 0.0006460372
0.0031492144 0.0006935835 0.0041720993 0.0033982394 2.0445945e-05 4.086027e-05 -0.00021466493 -1.497181e-05
3.1867017e-05 -0.00021902309 -1.318955e-06 4.695451e-05 1.913183e-05 2.4814004e-05 3.1943113e-05 4.6279827e-05
3.0067486e-05 2.5591584e-05 2.7291246e-05 1.1143543e-05 4.0395924e-05 1.260647e-05 3.762069e-05 1.3609797e-05
4.8830865e-05 3.9457398e-05 0.00031750117 0.011917048 -0.065307826 -0.006998385 0.010503902 -0.06538546
-0.00438177 0.011327165 0.0048347 0.0035512943 0.009327249 0.01775939 0.011806801 0.011031795
0.008363493 0.005177198 0.00809059 0.0051415255 0.009728779 0.00532366 0.022367697 0.010841226
2.254767e-05 0.00018672916 -0.00079479255 -3.9854465e-05 0.00013435357 -0.00082187273 -8.8358756e-05 0.00019135831
0.00017027144 0.00018710959 -0.00012341037 0.00030209473 -0.00034096657 0.00036098642 0.0002740233 5.6684807e-05
0.00013691119 5.702345e-05 0.00011476807 4.0103063e-05 0.00038132962 4.0998028e-05 0.0038053386 -0.006343486
0.044106584 0.008315306 -0.006663815 0.043257155 0.010774926 -0.0063936487 -0.0019418559 -0.003196272
-0.003562971 -0.011868108 -0.00709082 -0.011301096 -0.0053335465 -0.0034867341 -0.0019495967 -0.0034832733
-0.0076637166 -0.0035985112 -0.022785636 -0.0013220889 -0.00042700555 -0.006690855 0.034995984 0.00095804746
-0.0057599335 0.034979653 0.0048265858 -0.0050238185 -0.0034789052 0.0006127573 -0.007896727 -0.008050771
-0.005186945 -0.0037907953 -0.0072401306 -0.002917687 -0.002430385 -0.0028733008 -0.0061008567 -0.0029741006
-0.0037675118 -0.013967509

exp_avg_sq f4 [7, 22]
00000000: b71e 4f35 b978 8736 a83a 2238 f6cf c335
00000010: 3306 5b36 568a 2238 b4dc a636 ab04 8736
00000020: 7409 4e36 d465 3335 81b5 8d35 8660 bd35
00000030: ab16 3d35 2607 b434 dd59 0a35 4eed d734
00000040: 4d60 6836 c5cf 9434 c616 4836 2c83 9c34
00000050: a9bb 2a35 c2e8 ca34 3572 9939 69b1 3b39
00000060: 2ebf 313b 0573 8438 b0bd b038 0780 463b
00000070: 93a3 8c3a 52b0 5839 5ea6 3538 d45a 0f39
00000080: 987b e538 8a56 ca38 b2cb 1d38 e6e2 1638
00000090: c7db ae38 0cac a437 5ee4 cd39 87db 9a37
000000a0: 3aaf 1139 fbdb a237 6828 9b38 fe19 1038
000000b0: 9c69 0935 9432 b434 1b15 8c36 5ddf 3434
000000c0: 611b ed33 b9d5 9e36 e700 1a36 980b d534
000000d0: de08 d533 a586 9034 d261 0c34 5436 d933
000000e0: a4ab b533 5781 3433 cbbb cc33 fa07 4533
000000f0: 18ac c834 0132 3f33 e10e 9934 b746 0c33
00000100: 8db0 5c33 7fe4 b533 c528 a838 55bb ba39
00000110: 49a8 f43b 8556 9c39 2365 a839 5325 ee3b
00000120: 61e4 933a b821 c539 da7e 2e39 6b50 a538
00000130: 07a4 8139 01eb 113a 11b9 1439 1252 0d39
00000140: 8f45 d738 129e 3a38 f062 8039 56e2 2238
00000150: 26cb 263a 9f9b 3538 654b 213a 9891 8338
00000160: 1fc7 0835 8218 1a36 854d 4838 7618 ed35
00000170: 6dcc f335 7f99 4438 44a9 5c36 eda3 1836
00000180: 0539 4035 60e9 3135 5ca8 e335 8211 cd35
00000190: cfde 9536 66b8 1135 c659 0935 2b9e b334
000001a0: e8a3 5a36 a842 8e34 a94c 7236 44d2 a334
000001b0: dc17 f935 80ed fc34 e788 2b38 7689 5239
000001c0: 470e b13b 6a71 3239 6197 3b39 8f39 ad3b
000001d0: 18af 073a 3663 5a39 6cf8 a638 dcef 2038
000001e0: a699 2c39 3e8e ca39 4927 e538 58bb 3c39
000001f0: c93b 9838 3a65 f137 df1a 3b39 6eae e237
00000200: 81b5 d739 452a ff37 8c83 013a 6cde 2b38
00000210: dc6c d237 5a04 2a38 9903 7a3a 96ce cf36
00000220: 7f27 e937 6bff 803a 8359 9338 dc08 2038
00000230: f13e 3f37 2eae 4e37 9b86 5c38 9086 2538
00000240: 9660 8a37 be0b 4b37 b15e a838 98c3 d736
00000250: 4868 7538 1808 d136 417e 1138 6bda dc36
00000260: 6e60 1338 6db6 3138
7.7158205e-07 4.0373675e-06 3.8678438e-05 1.4589157e-06 3.2637151e-06 3.8752645e-05 4.9728787e-06 4.023857e-06
3.0701895e-06 6.6830876e-07 1.0558143e-06 1.4109689e-06 7.0440973e-07 3.3532814e-07 5.1539774e-07 4.0219533e-07
3.4626748e-06 2.771832e-07 2.9815578e-06 2.9152704e-07 6.3603017e-07 3.7794786e-07 0.00029267525 0.000178998
0.0027122009 6.3156745e-05 8.427666e-05 0.0030288713 0.0010729901 0.0002066505 4.3308704e-05 0.00013671379
0.00010942592 9.64823e-05 3.7621423e-05 3.5974103e-05 8.337903e-05 1.9630439e-05 0.00039270794 1.8460456e-05
0.00013893555 1.9414341e-05 7.398502e-05 3.4356483e-05 5.119016e-07 3.3564413e-07 4.174782e-06 1.6845065e-07
1.1041153e-07 4.7336475e-06 2.2948313e-06 3.9682777e-07 9.920198e-08 2.6920057e-07 1.3074103e-07 1.0114732e-07
8.4596905e-08 4.202715e-08 9.5336496e-08 4.587489e-08 3.7378118e-07 4.451613e-08 2.8509297e-07 3.2660605e-08
5.1383314e-08 8.4700325e-08 8.018458e-05 0.00035616258 0.00746635 0.000298191 0.0003211881 0.007267633
0.0011283272 0.0003759989 0.00016641189 7.882792e-05 0.00024727007 0.00055663293 0.00014183322 0.00013477381
0.00010264955 4.449307e-05 0.00024487777 3.88346e-05 0.0006362669 4.3298696e-05 0.0006152897 6.273686e-05
5.095371e-07 2.2962054e-06 4.775591e-05 1.7664995e-06 1.8164407e-06 4.6872996e-05 3.288108e-06 2.2745182e-06
7.160855e-07 6.6277244e-07 1.6961817e-06 1.5278786e-06 4.4664844e-06 5.4285044e-07 5.1167115e-07 3.345643e-07
3.2579937e-06 2.649806e-07 3.6105432e-06 3.0514104e-07 1.855889e-06 4.7111462e-07 4.0897077e-05 0.00020078369
0.0054033133 0.00017017653 0.00017890103 0.0052864025 0.00051759323 0.00020827059 7.961769e-05 3.837036e-05
0.00016460437 0.0003863442 0.00010926888 0.00017998868 7.259061e-05 2.8776576e-05 0.0001784372 2.7022525e-05
0.00041143227 3.0418052e-05 0.00049405615 4.0976724e-05 2.5084642e-05 4.053521e-05 0.0009537279 6.1931305e-06
2.7794156e-05 0.0009841745 7.026179e-05 3.8155224e-05 1.1399142e-05 1.2319111e-05 5.257745e-05 3.9464387e-05
1.6495858e-05 1.2102477e-05 8.028502e-05 6.4302694e-06 5.850967e-05 6.2296276e-06 3.4688277e-05 6.581938e-06
3.513734e-05 4.2369986e-05

exp_avg f4 [7, 7]
00000000: e53e 0eb9 b160 0939 6d25 fd37 6326 3b39
00000010: b6d9 7838 b84d 8239 adbb 8139 2a61 bd39
00000020: 336f 0dbc e908 e235 b127 0a3b 4ab3 8f3a
00000030: 3156 8a3b 3cdd 0e3c fb77 2537 3a5a 3b38
00000040: cc73 f136 1fc1 ec37 bacb 2437 3b99 5438
00000050: 4966 7e38 61c2 593b b43c a43b dedf 313b
00000060: 7945 50bb 4a0e b13b 93dc 133d 86bd 8d3c
00000070: 7582 e838 6003 ac39 305e c238 5638 d639
00000080: 4eca b8ba e361 7e3a 67be a839 4b37 62bb
00000090: fef6 c9ba 0857 6dbb 7ff1 3639 1268 36bb
000000a0: 6c0d 29bd d65e 063c 6643 a3ba 742f 453b
000000b0: 1d29 bcba f344 9aba 50a5 aeba 808f 9d3b
000000c0: 944f 1abd
-0.00013565605 0.00013101358 3.0177378e-05 0.0001784801 5.9330567e-05 0.00024853437 0.00024744627 0.00036121282
-0.008632469 1.6840905e-06 0.0021080787 0.0010963466 0.0042217006 0.008719739 9.8627015e-06 4.4668304e-05
7.19584e-06 2.8223321e-05 9.8225955e-06 5.0687446e-05 6.065358e-05 0.003322743 0.005012119 0.0027141492
-0.003177969 0.0054033147 0.036099028 0.017302286 0.000110869216 0.0003280891 9.268185e-05 0.00040859234
-0.0014098377 0.00097039173 0.00032185318 -0.003451782 -0.0015408692 -0.0036215205 0.00017446837 -0.0027833027
-0.041272566 0.008201322 -0.0012455999 0.0030088099 -0.0014355514 -0.0011769816 -0.0013324413 0.0048083663
-0.037673548

exp_avg_sq f4 [7, 7]
00000000: 4153 4036 db7c 0d36 c0a5 0534 f3cb c336
00000010: 7754 4534 12b2 0835 45fc 7734 2cc2 7a37
00000020: 1818 433a 0256 1437 f59f 3c39 4e6f 5f37
00000030: 9529 a238 327a 7538 6065 0633 f079 8a35
00000040: 6b04 a232 497d bd34 e83f ae32 db6e 4233
00000050: d6c4 5233 9ba0 e537 918e 7f39 4d05 9537
00000060: 52d3 b73a f276 1c38 a156 413a 2a5a 8b38
00000070: 511d 5534 06c0 2736 5b04 c833 9cb1 3936
00000080: c336 0437 697e a735 bebf 8834 6d33 8b37
00000090: 86b9 0e39 30c4 6537 d69b 263a 3edf fc37
000000a0: e31e 803a c485 2d38 786f 1536 af69 6938
000000b0: 3add f935 a31d ab37 d89e 9336 7e68 9b37
000000c0: 66d6 9939
2.865869e-06 2.1083313e-06 1.244689e-07 5.8351957e-06 1.8377783e-07 5.0923074e-07 2.3095443e-07 1.494637e-05
0.000744225 8.841513e-06 0.00017988666 1.3317751e-05 7.732507e-05 5.8526355e-05 3.1291506e-08 1.031729e-06
1.8861291e-08 3.529515e-07 2.0285327e-08 4.5269967e-08 4.9073456e-08 2.7373715e-05 0.00024371805 1.7764653e-05
0.001402477 3.7304075e-05 0.00073752744 6.644831e-05 1.9847836e-07 2.4996712e-06 9.314018e-08 2.767053e-06
7.880563e-06 1.247926e-06 2.5471485e-07 1.6594038e-05 0.00013611288 1.3695142e-05 0.0006355619 3.0144696e-05
0.000977483 4.1370993e-05 2.2267614e-06 5.5649954e-05 1.8616331e-06 2.039859e-05 4.3994332e-06 1.8526098e-05
0.00029342173

exp_avg f4 [7]
00000000: efd0 493a c96d 013c db3e 6f39 f592 883d
00000010: 1b6e 5c3a 1662 35bd 427b 0fbd
0.0007698675 0.00789971 0.00022816232 0.06668655 0.0008408741 -0.044282995 -0.035029657

exp_avg_sq f4 [7]
00000000: 8450 3738 fa5c 513b db27 a936 6a1c 023c
00000010: 2bd0 5538 2292 b93b ba15 863a
4.3705586e-05 0.0031946287 5.0412323e-06 0.007941345 5.097703e-05 0.0056631723 0.0010229864

exp_avg f4 [7]
00000000: 7fd7 493a d861 013c 7724 6e39 1791 883d
00000010: 3ae1 5b3a 2964 35bd db78 0fbd
0.0007699653 0.007896863 0.00022711033 0.06668299 0.00083877484 -0.044284973 -0.035027366

exp_avg_sq f4 [7]
00000000: 9e50 3738 e65c 513b 4e22 a936 5e1c 023c
00000010: 69cf 5538 3292 b93b a015 863a
4.370568e-05 0.003194624 5.040586e-06 0.007941334 5.0976323e-05 0.00566318 0.0010229833

exp_avg f4 [7, 22]
00000000: ac0f 66ba 5052 bab9 2552 8eba 0999 aeb9
00000010: c046 a5b9 1958 73ba bd3a ebba 5113 a5b9
00000020: 3a53 8dba fc7b 0639 f587 9b39 a02e 313a
00000030: e5a0 4d39 56ea ed39 f0d7 8039 72ad 8cb7
00000040: 9f3f 2c38 b27d 5437 6fe1 0238 0590 073a
00000050: 750b 2f39 58d5 3d39 c61b 4dba 83e0 403a
00000060: cc0e c0bb 454e 01bb 380a 0a3a 500a bbbb
00000070: 6056 4cbb 24fa 823a 418e 303a 5238 01ba
00000080: 9d4f a63a 5e4d 0a3b 19f9 133a 82b4 993a
00000090: 012d 553a 0d01 ea39 241e fb38 1471 253a
000000a0: 2d98 e839 193f 363b 40df 4b3a 4b46 733a
000000b0: 693e 99ba 67eb b639 e8fd bbbb d781 1fbb
000000c0: aa37 3d3a 19cf afbb b62c a1bb 0bf7 093a
000000d0: 3e81 4d3a dc22 2d3a 2951 6739 606b e73a
000000e0: 019f 033a 26d4 8b3a 24fa 3e3a 4014 db39
000000f0: 3a73 083a 1add 0eb7 11fa d339 cafb 323b
00000100: f543 513a 92b3 603a e97f acb8 902b 0038
00000110: 05e5 15ba c41b 3fb9 4a03 5038 5282 0fba
00000120: 25f7 b2b9 0208 6238 d7cd 6038 c236 1b38
00000130: 2603 a238 b4f2 2239 157d 2d38 4861 e738
00000140: d5ac b638 6d3d 0a38 5adb 2138 6572 3d38
00000150: 30d5 0f38 d7ee 7239 83b8 9338 b803 b638
00000160: 6f0a 9a3a a74b 81ba 7e59 453c b7af 2d3b
00000170: 959f 14b9 8fc5 3c3c e7e2 f53b c405 c6b8
00000180: 4ec6 f3ba c621 68ba e4d0 393a 36b2 fdbb
00000190: 1cb4 0ebb b8bb 453a 983a a5b9 6550 81ba
000001a0: 74e5 89ba 1781 29ba cfb5 82ba 2803 f9bb
000001b0: c7f3 56b9 68fe 17b8 2e1e d2ba 78b8 bb39
000001c0: d6a5 2a3b c49b 843b 339b a6b9 0aa5 313a
000001d0: a58a e83b 1d9a b2b9 7876 953a c561 5e3a
000001e0: 2c2b 943b 5059 853b f796 133b a1eb 5bbc
000001f0: 8629 a7ba a781 4e38 2a3f 3439 a322 4a39
00000200: 8d69 8e38 4be7 9e3a 2f38 91bb 783b 643a
00000210: e01e 8b3b 92bd a73b 8045 63bc c051 60bb
00000220: cc2b 513b 931b 46bc fce5 13bc 63f2 693b
00000230: 2ec8 383b 2953 43ba f9d9 abbb c14b 243c
00000240: dad7 0b3b 1d4e 9c3b 8a54 13ba 9b5e b33a
00000250: b20f b93a 5efb d03a 2ca5 aa3a 4381 093c
00000260: 2670 223b 9d52 5bbb
-0.0008776139 -0.00035538012 -0.0010858221 -0.00033301886 -0.00031523965 -0.0009282842 -0.0017946583 -0.00031485644
-0.001078225 0.00012825424 0.000296652 0.0006758962 0.00019610261 0.00045378756 0.00024574948 -1.6770067e-05
4.1067247e-05 1.266545e-05 3.1204367e-05 0.0005171302 0.00016693569 0.00018103921 -0.0007824268 0.00073576736
-0.005861139 -0.001973049 0.0005265805 -0.0057080165 -0.0031179413 0.0009992761 0.00067350647 -0.0004929352
0.0012688522 0.0021103243 0.00056447234 0.0011726769 0.0008132011 0.0004463274 0.00011974227 0.00063111004
0.00044363868 0.0027808605 0.00077771023 0.0009280189 -0.0011691573 0.00034889134 -0.005737055 -0.0024338865
0.00072180724 -0.005365264 -0.00491866 0.00052629475 0.0007839388 0.0006604621 0.00022060111 0.0017655902
0.0005020947 0.0010668084 0.00072851987 0.00041786022 0.00052051584 -8.515339e-06 0.0004043137 0.0027310723
0.00079828437 0.000857168 -8.225424e-05 3.055815e-05 -0.00057180255 -0.00018225523 4.9594128e-05 -0.00054744363
-0.00034134943 5.3890057e-05 5.3597465e-05 3.7005877e-05 7.7253484e-05 0.00015539938 4.1362906e-05 0.000110330584
8.710629e-05 3.295897e-05 3.858968e-05 4.516765e-05 3.4292403e-05 0.00023167893 7.043874e-05 8.679129e-05
0.0011752377 -0.0009864465 0.012045262 0.002650244 -0.00014173829 0.011521711 0.0075038555 -9.44245e-05
-0.0018598528 -0.000885513 0.0007088317 -0.0077421917 -0.0021774834 0.0007542926 -0.00031514908 -0.0009865878
-0.0010520653 -0.0006466074 -0.0009972396 -0.007599253 -0.00020499445 -3.623814e-05 -0.0016030723 0.0003580486
0.0026038787 0.004046889 -0.0003177762 0.0006776607 0.007096606 -0.0003406563 0.0011403104 0.0008483197
0.004521748 0.004069485 0.0022520402 -0.0134228775 -0.0012753464 4.9234975e-05 0.00017189668 0.00019277124
6.790748e-05 0.0012123374 -0.0044317464 0.00087063713 0.004245624 0.005119034 -0.013871551 -0.0034228414
0.0031916974 -0.012091535 -0.0090270005 0.0035697452 0.0028195488 -0.00074510515 -0.00524449 0.010027827
0.0021338374 0.004770054 -0.0005620202 0.0013684811 0.0014119057 0.0015944054 0.0013019196 0.008392635
0.0024786084 -0.003346599

exp_avg_sq f4 [7, 22]
00000000: 1cf5 7037 8d5f 7d37 150c 1139 b79b 8a37
00000010: f647 9137 f8d7 0f39 5680 eb37 ca31 a337
00000020: 91a5 a137 7c0e 5e36 5739 7036 eca0 bb36
00000030: 3ff5 e935 062f 0336 98e1 d035 86a0 1736
00000040: ed22 d736 5486 9836 d898 2436 08ad f736
00000050: 9676 5036 da02 5536 a852 123a 325e 0837
00000060: 8f68 103b 7b4c 5b39 4110 2d36 7287 273b
00000070: 7da0 bd3a 7878 3a37 9ad3 a037 50a4 8339
00000080: c749 d438 4202 c238 623c 9c37 f37d d637
00000090: 12c6 0a38 7ca3 aa37 6972 f238 2734 ad39
000000a0: 3e7c ad37 2d9e 2a38 f60d e137 800d e537
000000b0: 2707 f139 af09 8937 bc65 af3a 5b1b 3739
000000c0: 9ec6 8236 609c d53a 80ca cb3a 4dcd bd37
000000d0: fdfa 6937 75a0 2238 4d19 3b39 4a0e a538
000000e0: 4810 8f37 84ea c637 6ea1 8d37 fc0e 7637
000000f0: 8793 9a38 68a4 3d39 5b45 5437 c802 1838
00000100: 8ce8 c837 78fb 9f37 d5c3 a836 3779 c834
00000110: e9d6 2938 5471 ce36 84cf 0935 7ace 2438
00000120: 7004 d337 7286 3335 28e2 0e35 861a ac35
00000130: 918b e935 456c b835 8bac 2d35 6ed9 6735
00000140: 8181 ea35 ea44 4835 d437 ca35 97bf 0a35
00000150: 4d53 c735 0a48 2d35 7b6a 8a35 844c b335
00000160: ec04 fd38 c4f7 3138 d65a 203b 7b28 9739
00000170: 8213 6838 0f80 143b 07ad a23a d74d 8f38
00000180: d92e 0c38 4eeb 9c37 5d71 c038 e3bb 7639
00000190: 61b3 0638 f242 7838 38e1 4238 4b0b a437
000001a0: 49c6 ef37 f6dc 7138 bfc2 8037 9673 8039
000001b0: 89e5 5f38 662c d438 ba33 6439 e0a9 1438
000001c0: 20e9 5b3b 8bde 423a 56e8 8c38 cac0 373b
000001d0: eb0b 2d3b f38c b438 e90e c337 8514 ad37
000001e0: 7c98 5738 44a1 5339 3e7b d837 9b3a bf39
000001f0: 2df7 b138 2aed c037 f73a eb37 c2a7 eb37
00000200: 1f82 bd37 c6ac 033a b355 b438 52f7 f938
00000210: 9428 c539 0e9b b337 ee5a a63b 6089 343a
00000220: 4eb6 2c38 76c2 9b3b f67a 1f3b 025f 5238
00000230: 950c 1338 835d 6438 77a7 8639 d0e0 9839
00000240: 4c30 2738 f25d ec38 9c17 8439 7a00 0038
00000250: 96d5 3e38 ccae 3138 4784 1c38 476f 353a
00000260: d480 b838 98c6 8d39
1.4362184e-05 1.5102222e-05 0.00013832778 1.6523392e-05 1.7318856e-05 0.00013717997 2.8073944e-05 1.9454299e-05
1.9269793e-05 3.308901e-06 3.5796163e-06 5.591768e-06 1.7431229e-06 1.9547892e-06 1.5562864e-06 2.259419e-06
6.411565e-06 4.545591e-06 2.452687e-06 7.381317e-06 3.1063441e-06 3.1741133e-06 0.0005581775 8.128163e-06
0.0022034978 0.00020913959 2.578847e-06 0.002556291 0.0014467385 1.1114513e-05 1.9172021e-05 0.0002510869
0.0001012269 9.2510614e-05 1.8624767e-05 2.5569438e-05 3.308623e-05 2.0341708e-05 0.0001156077 0.00033035988
2.0681062e-05 4.067847e-05 2.6828591e-05 2.7305214e-05 0.0004597243 1.6336182e-05 0.001338176 0.0001746243
3.897424e-06 0.0016297214 0.0015548021 2.2626156e-05 1.394632e-05 3.8773247e-05 0.00017843135 7.870475e-05
1.705451e-05 2.3712644e-05 1.6883681e-05 1.4666231e-05 7.370771e-05 0.0001808569 1.2652333e-05 3.6242214e-05
2.3950146e-05 1.9071376e-05 5.029588e-06 3.7341098e-07 4.049289e-05 6.1524715e-06 5.133845e-07 3.9292943e-05
2.5155226e-05 6.687834e-07 5.3228223e-07 1.2822718e-06 1.7400472e-06 1.3740579e-06 6.4698605e-07 8.637061e-07
1.7472049e-06 7.460609e-07 1.5066421e-06 5.1687806e-07 1.4850899e-06 6.455235e-07 1.0312791e-06 1.3358808e-06
0.00012064897 4.243084e-05 0.0024468205 0.00028831125 5.533128e-05 0.0022659337 0.0012411185 6.83327e-05
3.342223e-05 1.8706221e-05 9.176389e-05 0.00023530381 3.211515e-05 5.9190155e-05 4.6462956e-05 1.9555582e-05
2.8583354e-05 5.7664663e-05 1.5349475e-05 0.0002450018 5.3381114e-05 0.000101172176 0.00021763044 3.5444158e-05
0.0033555701 0.0007433674 6.718996e-05 0.0028038495 0.0026404809 8.609323e-05 2.3252755e-05 2.0632762e-05
5.1402007e-05 0.00020182604 2.5806596e-05 0.00036474023 8.486058e-05 2.2998622e-05 2.804164e-05 2.8092301e-05
2.2591148e-05 0.00050229987 8.5990316e-05 0.00011919312 0.00037605 2.1410666e-05 0.0050767576 0.00068869255
4.117778e-05 0.004753406 0.0024334765 5.0156385e-05 3.505925e-05 5.4446526e-05 0.00025683243 0.00029159198
3.9860883e-05 0.000112708556 0.00025194592 3.0518022e-05 4.5498447e-05 4.236288e-05 3.731649e-05 0.00069211837
8.7978e-05 0.0002704158

exp_avg f4 [7, 7]
00000000: bd0c a6ba 5478 f638 2464 1839 c485 ab38
00000010: 71a0 993a 3cda e639 6a5a 7a39 02dc ae39
00000020: f77d 75ba 2d46 a13a 7453 a239 01cb 613b
00000030: 6406 553a 6d51 723a 0535 ec39 d52b 4c3a
00000040: 3e1a 2eba 8ff4 6539 d474 4b3b 6458 8a3a
00000050: a29b 4a3a b31b d437 fac2 f337 aae8 0e38
00000060: 610f a637 0d79 7f39 11bc ca38 4b1a f838
00000070: 0e8d 42b9 3ee1 afba 4475 87ba eea6 b6ba
00000080: 4108 8abc 9a72 a03b a7d0 8f3b 3540 0c3a
00000090: 8c8b ff39 1401 073a 7eb1 c239 5160 6c3c
000000a0: c2a5 bcbc 9d75 9e3b cc3b 5d3a ca6a 743a
000000b0: e930 853a 8daf 423a 9c16 8b3c 4515 983b
000000c0: 7e10 44bc
-0.0012668591 0.00011752607 0.00014533155 8.178831e-05 0.0011720789 0.00044031616 0.0002387554 0.00033351785
-0.00093647785 0.0012304239 0.00030961225 0.0034453275 0.00081262575 0.0009243701 0.0004505293 0.0007788514
-0.00066414836 0.00021930247 0.0031044977 0.0010554907 0.00077288796 2.5285268e-05 2.905865e-05 3.4072124e-05
1.9795903e-05 0.0002436379 9.667141e-05 0.00011830459 -0.00018553829 -0.0013418568 -0.001033463 -0.0013935247
-0.016849639 0.004896474 0.004388887 0.0005350144 0.0004874136 0.0005150002 0.00037134805 0.0144272605
-0.023028258 0.004835798 0.00084393914 0.0009323774 0.0010161671 0.0007426672 0.016978554 0.0046412074
-0.011966823

exp_avg_sq f4 [7, 7]
00000000: 7ae9 bb37 e7ef d236 ab77 5f36 668c b735
00000010: 9072 ad36 1c73 5736 603e 1636 3133 3e37
00000020: 1d43 033a 6db8 8b39 da88 1f37 f4da ff37
00000030: c142 6b37 1ced a937 a3f4 1d37 f399 a738
00000040: f5da e839 35d6 c536 5027 1f38 4311 6f37
00000050: c57c 4537 efee 0e35 746b 1036 e9e6 6d35
00000060: 86f9 3835 4b3a 6935 f0b0 0436 d78a a336
00000070: d6ae b137 d77f 9c37 2d88 9938 2043 ec36
00000080: 6e77 0c3a b4f4 4f38 fec9 0239 babc 2b37
00000090: d616 8d37 c7ed 9937 eb65 2537 1355 c239
000000a0: b22f 2c3a 7c6e cb38 3ce6 8337 42da d237
000000b0: 872a d537 47a5 9b37 18da 283a 7be1 8e38
000000c0: 4424 613a
2.2400858e-05 6.286416e-06 3.3299245e-06 1.3675424e-06 5.1691386e-06 3.21045e-06 2.2388049e-06 1.1336801e-05
0.0005007254 0.00026649554 9.509002e-06 3.0500327e-05 1.4022634e-05 2.0256783e-05 9.414888e-06 7.991856e-05
0.00044413624 5.8959945e-06 3.7945167e-05 1.4249529e-05 1.1771165e-05 5.3246816e-07 2.1520218e-06 8.86254e-07
6.8908446e-07 8.688409e-07 1.9772524e-06 4.8739416e-06 2.1181459e-05 1.865618e-05 7.320973e-05 7.0411625e-06
0.00053583726 4.9580543e-05 0.00012473014 1.0236336e-05 1.6819144e-05 1.8349745e-05 9.858496e-06 0.0003706595
0.00065683865 9.7003736e-05 1.5723628e-05 2.5135585e-05 2.5411382e-05 1.8554403e-05 0.000644119 6.813087e-05
0.0008588473

exp_avg f4 [7]
00000000: 10a7 753a 7b93 c83b 075b bb3b 10ac 193a
00000010: 55ce 3cbc 467f f2ba db5b 583c
0.00093709026 0.0061210967 0.0057176384 0.0005862126 -0.011523803 -0.0018501065 0.013205494

exp_avg_sq f4 [7]
00000000: 31b5 3439 c6ca 353b ef33 ee3a 1b66 4138
00000010: 56a4 2b3b 51cf 6d3b 8b29 b43b
0.00017233637 0.002773927 0.0018173436 4.610988e-05 0.002619048 0.00362869 0.0054981164

exp_avg f4 [7]
00000000: d7a0 763a 6ebf c83b 1155 bb3b fdb0 1a3a
00000010: 3dd7 3cbc 1f07 f3ba ce43 583c
0.0009408122 0.006126336 0.005716928 0.0005901007 -0.011525926 -0.0018541551 0.01319976

exp_avg_sq f4 [7]
00000000: 7eb6 3439 efca 353b fb33 ee3a c86e 4138
00000010: 7ca4 2b3b 4acf 6d3b 9729 b43b
0.00017234121 0.0027739366 0.001817345 4.611796e-05 0.002619057 0.0036286884 0.005498122

exp_avg f4 [7, 22]
00000000: 2b24 79bc 3c52 a3bb 5f4a fe3c 2cf0 11bb
00000010: 76f9 d7bb a727 0a3d e0a5 c3bc e240 c1bb
00000020: a084 3abb 6a43 17bb 28bd 80b8 d8b9 39bc
00000030: 5dc7 dabb dd7b 18bb 61e2 e1bb 272e b4bc
00000040: e5ac 61bb 965f 9dba e4ec c8ba cc84 5ebb
00000050: 5818 8636 63ca 68ba 043e b439 a113 cf37
00000060: 5c7f b7ba a47b 5c39 d7d0 2637 1203 baba
00000070: 63c7 283a 1934 6237 3860 1f39 e3bd 7037
00000080: d836 3e39 685b d339 1275 6539 69b4 a139
00000090: 87dc 5439 bfcf 9e39 627f dd38 982e 9339
000000a0: d486 8d39 7f46 de38 bad2 6839 467c 4839
000000b0: 30d7 4bbb ad70 153b ad64 af3b f24f dabb
000000c0: 9cce 04ba b28a a33b 4536 cdbb 6ca3 c43a
000000d0: 6bad 393a 0b8f 8bba bbd3 b1bb 199f 933a
000000e0: 25e2 cbba ca02 213b 1295 59ba 10ea 8a3b
000000f0: dd38 f1b9 72eb 63bc d41c 2a3b 9330 f2b9
00000100: 2b70 153b 0f2a 933a 470a c038 18a7 283a
00000110: 3df6 a1bc 65e9 feba 0611 573b eba0 a5bc
00000120: 3088 7ebb 93eb 423a 94d1 5d39 7026 3c3a
00000130: 1a72 183b 73bd 673b bb51 9a3b 15ac 3d3b
00000140: 56cb 863b 3f3a d53b 7ab1 c93a 14e6 1a3c
00000150: 590f a7bb b066 c83a 450e 193b 5a69 123b
00000160: 26d3 2a39 9514 0fb6 e512 36ba f668 fc38
00000170: d171 06b7 9124 39ba 7445 a839 4b4b a0b6
00000180: 7d28 7038 e6e8 4238 c5e8 c238 58e7 4139
00000190: d2f9 df38 fa0c 1b39 5bbe bc38 0fb7 f238
000001a0: c141 6138 d0e1 1d39 14e0 1439 0305 5138
000001b0: 2a09 e638 afcd c938 568d 953b 629b 243a
000001c0: 04ae 013b a3a8 fc3a bd21 b93a 0f4c 0a3b
000001d0: a353 d73b 70f3 aa3a efa9 7a39 e4ad 41b9
000001e0: 17cb c038 0451 c0b9 2113 2f39 cf6e 23bb
000001f0: 8801 193a 760c b23a e526 4a38 04e7 193a
00000200: 090e a739 03a2 4838 74e5 52bb 8ab7 91ba
00000210: bf44 76ba cb27 23ba 2b6e 00bc 608c 153b
00000220: 14dc 88ba 4615 0cbc 4656 193b 985c 9dba
00000230: c372 233a ed3e bf39 5252 983a 9a15 fe3a
00000240: 802a db39 a0ab 873b 76cb d237 9bd9 cc3a
00000250: 67db 123a 2f02 043b 0073 863a 9ab9 113a
00000260: 17ec 3c3b c479 9738
-0.015206377 -0.0049841683 0.031041322 -0.0022268398 -0.0065910174 0.03372922 -0.023882806 -0.005897627
-0.0028460398 -0.0023080953 -6.138749e-05 -0.0113358125 -0.006676598 -0.0023267188 -0.0068934415 -0.021994663
-0.0034435329 -0.0012006636 -0.0015329388 -0.0033953665 3.996345e-06 -0.00088802556 0.0003437848 2.4685463e-05
-0.0013999748 0.00021026895 9.942995e-06 -0.0014191589 0.00064384023 1.348278e-05 0.00015199266 1.4349326e-05
0.00018140243 0.0004031316 0.00021882754 0.0003084273 0.00020300048 0.0003029089 0.00010561828 0.0002807274
0.0002699407 0.00010598916 0.00022203746 0.00019119782 -0.0031103604 0.0022802756 0.0053525777 -0.0066623623
-0.00050661876 0.004990899 -0.006262573 0.0015002317 0.0007083031 -0.0010647489 -0.0054268516 0.0011262625
-0.0015555067 0.0024568313 -0.0008300106 0.004239328 -0.00046009468 -0.013911115 0.0025957124 -0.00046194028
0.0022802453 0.0011227744 9.157188e-05 0.00064335903 -0.019770736 -0.0019448219 0.0032816543 -0.020218333
-0.0038838498 0.0007435616 0.00021154276 0.00071773585 0.002326137 0.0035360723 0.00470945 0.002894168
0.004113595 0.0065071876 0.0015387975 0.009454269 -0.005098265 0.0015289392 0.0023354453 0.0022340626
0.00016291122 -2.132064e-06 -0.00069455645 0.00012035847 -8.013522e-06 -0.0007062639 0.00032095204 -4.777137e-06
5.7258167e-05 4.6470108e-05 9.2939976e-05 0.00018492097 0.00010680001 0.00014786786 8.999995e-05 0.000115735565
5.370542e-05 0.00015056808 0.00014197855 4.983415e-05 0.000109689616 9.6227384e-05 0.0045639677 0.00062792574
0.001978756 0.0019276332 0.0014124435 0.0021102463 0.0065712496 0.0013042521 0.00023905163 -0.00018470694
9.193102e-05 -0.00036681455 0.00016696427 -0.0024937873 0.0005836715 0.0013584036 4.8196776e-05 0.0005870911
0.0003186318 4.78346e-05 -0.0032180222 -0.0011117321 -0.0009394399 -0.0006223886 -0.007838766 0.0022819266
-0.0010441565 -0.008549994 0.002339737 -0.0012005745 0.00062350574 0.00036477242 0.0011621213 0.00193851
0.000418026 0.0041403323 2.5128695e-05 0.0015628816 0.00056021515 0.0020142903 0.0010257661 0.0005558968
0.0028827244 7.222922e-05

exp_avg_sq f4 [7, 22]
00000000: 2ba6 153a 595a 9338 47f7 b73b d66e 6239
00000010: d494 da38 e460 c23b f6cb e43a 7891 b738
00000020: 2c12 0239 3900 2d38 8b6c e038 ce09 f239
00000030: 01fb 1e39 1473 2839 790c 1239 38b2 f039
00000040: 7a43 3038 aa26 b239 bfca f138 23ee 2738
00000050: b873 0c39 874c ac38 2ffc 4537 8f65 fd34
00000060: c040 8438 b430 8336 ee81 7434 ab57 9538
00000070: 115b 0038 c0b1 1535 4cfa 9e35 abaa f336
00000080: 3f0a b235 b5ca 0a36 11e3 7235 b596 8e35
00000090: c2c8 9a35 917d ed35 baf4 3235 d830 e036
000000a0: 3e23 8535 e88a dd35 011a 7735 ed25 9135
000000b0: a58d 563a 1351 9937 2bdd c63b 83cc 453a
000000c0: f438 0138 6140 c83b d3eb 673b 356f a837
000000d0: 9d8b 6338 2b94 9438 38e9 c239 e79f d139
000000e0: 8e6b ec38 944e 1539 c6d3 0239 3c1e 3a39
000000f0: 207b 3138 e134 2f3a bdda 9c39 f7bc 5a38
00000100: bfb3 b938 5310 a138 d406 753a d2b4 db36
00000110: 0a69 553b 3cb8 3a3a e9cb 0a38 2c6f 623b
00000120: 5085 8b3b 3511 0737 68e7 0c38 b8e4 0738
00000130: 0c5d 4639 bd90 a539 3453 8c38 8298 b338
00000140: 1ebb 5d38 361e b538 a3ea d137 db50 bb39
00000150: 22a0 ab39 de5b cf37 b2b0 f537 64b2 f237
00000160: d167 ae36 edd4 1a34 1227 3638 e494 aa36
00000170: 180f 4034 d617 3638 ffc6 bb37 63ba 2034
00000180: a567 1235 7179 8635 76a2 0536 6737 0436
00000190: abaf 8a35 76e5 2d35 3b83 8c35 d67c 8735
000001a0: 8b71 0235 e7ea 6136 5c16 0235 f0a0 c735
000001b0: d169 0835 37ca 7735 335e 7238 e412 8437
000001c0: ee62 e63a 83b0 8a38 66e4 6b37 685f e43a
000001d0: eaf4 8239 7ef6 5237 9f4a 0e38 4366 5137
000001e0: 26f1 a837 e3a1 9638 380d 1138 30ee db38
000001f0: eb1b 6838 b22f 7d38 561f 2037 6867 c538
00000200: 3ece 4837 aeaa 1537 7e9b fd38 02d9 7b38
00000210: 8d2c 0038 e94d 4137 b0d1 083b 3f59 1239
00000220: c0d4 bb36 c26c 013b cb1b be39 c09f ac36
00000230: c731 4937 0a40 7737 1a27 9e37 ad4f 8138
00000240: fa95 9d38 7eb9 a638 ea68 fd38 521c 4e38
00000250: 5453 3537 b34d af38 a965 6137 c96b 5137
00000260: b944 1939 52cc d538
0.000570866 7.026335e-05 0.0056141946 0.00021594329 0.000104227714 0.0059319604 0.0017455805 8.753216e-05
0.00012404536 4.124662e-05 0.0001070137 0.00046165142 0.0001516156 0.00016064598 0.00013928291 0.0004590915
4.2024512e-05 0.00033979613 0.0001152954 4.0037685e-05 0.00013394549 8.2158534e-05 1.1800831e-05 4.7198816e-07
6.306311e-05 3.909774e-06 2.2771539e-07 7.121203e-05 3.060239e-05 5.5765486e-07 1.1844763e-06 7.2618327e-06
1.3265015e-06 2.0681593e-06 9.048245e-07 1.0623686e-06 1.1532322e-06 1.7694421e-06 6.666629e-07 6.6814064e-06
9.919529e-07 1.650621e-06 9.205251e-07 1.081438e-06 0.0008184559 1.8276774e-05 0.0060688457 0.0007545428
3.080904e-05 0.00611119 0.0035388365 2.0078945e-05 5.4251042e-05 7.0847884e-05 0.00037176325 0.00039982723
0.000112733906 0.0001423902 0.00012476658 0.00017749605 4.2314758e-05 0.00066836 0.0002991761 5.2151237e-05
8.854968e-05 7.680119e-05 0.0009347026 6.547759e-06 0.003256383 0.000712279 3.309167e-05 0.0034551127
0.0042578354 8.050633e-06 3.3594115e-05 3.239952e-05 0.00018917414 0.0003157909 6.691218e-05 8.563792e-05
5.2864772e-05 8.63638e-05 2.5024003e-05 0.0003572766 0.0003273497 2.4719102e-05 2.9288556e-05 2.8931718e-05
5.19769e-06 1.441983e-07 4.342857e-05 5.083728e-06 1.7886885e-07 4.341438e-05 2.2384802e-05 1.4968968e-07
5.454006e-07 1.0019122e-06 1.991311e-06 1.9701781e-06 1.0332927e-06 6.478143e-07 1.0469006e-06 1.0094616e-06
4.8594e-07 3.3664344e-06 4.846131e-07 1.4873494e-06 5.081793e-07 9.230893e-07 5.7785026e-05 1.5744423e-05
0.0017577091 6.613231e-05 1.406027e-05 0.0017423453 0.00024978007 1.2574366e-05 3.3924935e-05 1.248118e-05
2.0139454e-05 7.182711e-05 3.4583005e-05 0.000104871 5.533911e-05 6.036432e-05 9.544039e-06 9.412953e-05
1.19689485e-05 8.9208315e-06 0.00012092943 6.0045168e-05 3.055907e-05 1.1521836e-05 0.0020876937 0.00013956892
5.5978016e-06 0.0019748663 0.0003626033 5.144597e-06 1.1992123e-05 1.47372575e-05 1.8853276e-05 6.16604e-05
7.514279e-05 7.9500474e-05 0.00012083522 4.9140603e-05 1.0807842e-05 8.359123e-05 1.3434715e-05 1.2482466e-05
0.00014616818 0.00010194689

exp_avg f4 [7, 7]
00000000: 8524 14bd 57d9 51bb a8e6 bc3b 34eb 5a3a
00000010: a7d0 48bb 8ee0 173b 6ab3 8a3a 857c ce39
00000020: 564f bbb7 bd81 a539 6509 a639 c59c 9a38
00000030: 4929 7939 aa1b 3f39 f6de 2c3c 9db1 12ba
00000040: 78b5 f0bc 53a7 393c 7058 60ba ae3b 603b
00000050: 4356 6b3a 7476 093c fcc1 843a f627 963c
00000060: 5928 5cbc b6d6 523a cd44 f43a d82e c73a
00000070: 89f1 e538 82b9 0a38 83f2 3439 3dc7 3439
00000080: bd22 cd37 d63d d938 b334 d638 83f5 013b
00000090: 867f 39b9 d7e6 983a 0b80 1138 334e 60b9
000000a0: ff29 d1bb 5232 d33a 4922 1a3b 5bcb 7a39
000000b0: d117 1f3b 4665 1d3a aae4 4b39 6053 0f3c
000000c0: e4a2 c1bb
-0.03616764 -0.0032020414 0.005764801 0.0008351088 -0.0030641945 0.0023174617 0.0010582034 0.00039384156
-2.232908e-05 0.00031567915 0.00031668987 7.372493e-05 0.0002376187 0.00018225485 0.010551205 -0.00055959244
-0.029383406 0.011331397 -0.00085581 0.003421526 0.00089773926 0.008390058 0.0010128613 0.018329602
-0.013437354 0.00080428587 0.0018636227 0.0015196456 0.0001096456 3.307453e-05 0.0001725648 0.0001724036
2.445408e-05 0.00010358884 0.00010214131 0.0019830174 -0.00017690481 0.0011665475 3.4689943e-05 -0.00021391436
-0.00638318 0.0016113019 0.002351897 0.00023917614 0.002427567 0.00060041656 0.00019444773 0.0087479055
-0.0059093107

exp_avg_sq f4 [7, 7]
00000000: ca37 a93a b321 dd37 4c59 bd39 0d3a b838
00000010: bd58 a237 5780 1639 1c90 9438 830d 0436
00000020: 74cc 0137 e589 9436 e3e3 7f35 6c82 7c35
00000030: 7e71 ad35 9244 a635 b99a 8639 f2a4 1638
00000040: 2ceb ab3a 896a 043a bc6f db37 0d38 e138
00000050: 3d81 8238 69cd bc38 c8a1 8337 5ead e339
00000060: 84ed 5f3a 34af 5937 8b50 9537 e073 8637
00000070: 5e03 7835 8a0c 0235 8316 fe36 ff1e 9435
00000080: ea5f 3435 59cb e234 3c36 a235 480f c638
00000090: 0bc5 9c36 2c03 7638 9a55 dc36 c9ad 8c36
000000a0: f55b a139 bc76 d538 9615 1e38 5273 ae36
000000b0: 6e35 8e38 9855 de36 8a62 ca36 e5ca 1b39
000000c0: 6a83 d339
0.0012910303 2.6360945e-05 0.0003611542 8.7846165e-05 1.9353227e-05 0.00014352925 7.0840324e-05 1.9677398e-06
7.736602e-06 4.4267967e-06 9.532652e-07 9.4067104e-07 1.2922535e-06 1.238792e-06 0.0002567375 3.5916404e-05
0.0013116351 0.00050512754 2.6158865e-05 0.00010739276 6.2229556e-05 9.002799e-05 1.5691752e-05 0.00043425983
0.00085421675 1.2975001e-05 1.779969e-05 1.6028003e-05 9.23921e-07 4.844702e-07 7.5724106e-06 1.103588e-06
6.71948e-07 4.2243735e-07 1.2085725e-06 9.444222e-05 4.672101e-06 5.8653924e-05 6.5664763e-06 4.1925564e-06
0.00030776826 0.000101787475 3.769024e-05 5.199029e-06 6.78104e-05 6.62608e-06 6.0315406e-06 0.00014857536
0.00040342967

exp_avg f4 [7]
00000000: 6be4 04bd 8f32 c53a f556 96bb 578f 973c
00000010: 2d8f 423a fbc9 00bb 1f17 0e3c
-0.0324444 0.0015044975 -0.004588003 0.018500967 0.00074218475 -0.001965164 0.008672505
