data_10frm/model/0_5_10_6.pt (torch_old, 18375 bytes, 52 tensors)

rnn.weight_ih f4 [7, 22]
00000000: 332d 4a3c 0612 5abe d9af 93be 69e1 80be
00000010: a063 d53e bf51 833e 52e5 593d e07a 47be
00000020: 7784 8ebe b299 873e 3e19 c6bd 7fbb d9be
00000030: 2d57 bfbd 4591 1dbe d524 5fbd 591c e73d
00000040: 8c3c ee3d aa60 a7be 4d36 4dbd 6c57 63be
00000050: 68d0 583e 56a8 153e 7780 013e 1416 ac3e
00000060: 4c74 493e d52f dcbe ece2 c43d 7863 79be
00000070: 7c8a aabc f461 9fbb ebc6 b23e 343e 75be
00000080: 3926 cabe 93da 00be b4e6 0a3d a0ce 733e
00000090: 6d4c 8f3e 11f2 913e cbae d63d cf94 f4bd
000000a0: f86d bdbd 73ff 5cbe fbce 0a3d d1b7 8ebe
000000b0: e189 0f3d ef8a 553e cefa 9e3e a29f e3be
000000c0: b2ab 923e a558 7abe 448d f1bd 283e a03e
000000d0: be9f 453e a677 fabd 9256 813e 719e bdbe
000000e0: 806b 953e 4eac b63e a150 e9b9 2392 8c3d
000000f0: e865 b6bd 8b7a 68be 1820 21be b3b0 43bc
00000100: eee8 a6be 6acc 9abe c667 a03d 56b3 8bbe
00000110: 0797 77be 8343 333d 50be 67be c94f a13e
00000120: f53e e3bd d652 73be 8edb 86bd 2b48 91be
00000130: 3189 5d3e eb9b bc3e c521 39be ec92 e6bd
00000140: 5724 c63e 54a7 72be eec5 093e 0e36 8ebe
00000150: ff77 99be 4da4 103d 439c 3bbe f58b 713e
00000160: 3713 d9bd c68a e43c 9e10 2dbe 4ae7 3e3e
00000170: a1c8 bf3e afd9 f0bc 3a6d 5cbe 6b42 b3be
00000180: a12e ad3e 7685 003e d2e3 eb3d 2309 c93c
00000190: df87 3f3e 7377 e03d 4ce6 1b3e 4cff 533e
000001a0: b371 fa3c a085 953e 21cb 543e cb15 32bd
000001b0: 64e3 3abe 0e48 e639 3cb7 b03e 4feb 8d3e
000001c0: 7181 33be 2941 d3bc cb61 013e 111e ed3d
000001d0: 97aa d33e 6279 593e 8200 0d3e 3bbf e03d
000001e0: 089f a9be 36d2 e9bd d9ba 623d d69c 61be
000001f0: 407c 9bbe e73b 8e3e b6e6 1f3e af66 8dbe
00000200: e27f 403d ded0 7a3e 86ed 813e 62fa bd3e
00000210: cb0b 5ebe 4fdc 7b3e 0a80 4bbe cd77 9abd
00000220: 3457 18be a761 173d cc11 243e 85e3 883e
00000230: 367a 9abe 73c5 40be ae2a 2bbe 4d2e 82be
00000240: 19eb 9dbe cc29 2c3e e69c 1d3e cbcb 573e
00000250: 51c8 a1be cdf2 293e b45a 69be b321 48be
00000260: f8c7 5cbe 6f4a ecbd
0.012339878 -0.21295938 -0.288451 -0.25171974 0.4167757 0.25648305 0.053197213 -0.19480467
-0.27835438 0.26484448 -0.09672783 -0.4252586 -0.09342799 -0.15387447 -0.054478485 0.11284704
0.11632642 -0.32690936 -0.050100613 -0.22201318 0.2117325 0.14614996 0.12646662 0.33610594
0.1967327 -0.43005243 0.096135944 -0.2435435 -0.020817988 -0.004863972 0.34917387 -0.2394951
-0.39482287 -0.1258338 0.033911422 0.2380929 0.27987996 0.28504995 0.10482558 -0.119424455
-0.092494905 -0.21581821 0.0338888 -0.27874616 0.0350436 0.2085378 0.31050724 -0.44457728
0.28646618 -0.24447878 -0.117945224 0.3129742 0.19299218 -0.122298524 0.2526136 -0.37034944
0.29183578 0.35678333 -0.00044501296 0.06863811 -0.08906156 -0.22702996 -0.15734899 -0.011943984
-0.32599586 -0.3023408 0.07832293 -0.2728526 -0.24178706 0.043765556 -0.22631192 0.31506184
-0.110959925 -0.23762068 -0.065848455 -0.28375372 0.21634366 0.36837706 -0.18079288 -0.11258492
0.386996 -0.23696643 0.1345441 -0.27775615 -0.29974362 0.03531294 -0.18321328 0.23588546
-0.10599368 0.027898204 -0.1690087 0.18642917 0.37457755 -0.029400675 -0.21526042 -0.3501161
0.33824638 0.12550911 0.11518063 0.02454049 0.18704174 0.10960283 0.1522457 0.20702857
0.030571794 0.2920351 0.20780613 -0.043477815 -0.18250805 0.00043922703 0.34514797 0.2771859
-0.17529847 -0.025787907 0.12634961 0.11578 0.41341087 0.2123771 0.13769725 0.10973974
-0.33129144 -0.11417048 0.055353973 -0.22032484 -0.30368233 0.27780077 0.15615353 -0.27617404
0.04699696 0.24493739 0.25376529 0.3710509 -0.21684186 0.2459576 -0.19873062 -0.075423814
-0.14877015 0.036958363 0.16022414 0.26736084 -0.30171365 -0.18825321 -0.167155 -0.2542595
-0.30843428 0.16812819 0.15391883 0.21073835 -0.31598142 0.16596527 -0.22788507 -0.19544105
-0.21560657 -0.115376346

rnn.weight_hh f4 [7, 7]
00000000: eb8f 23be f030 983c 1431 99be 4778 b33d
00000010: 9cd3 b4be 2710 4abe d0c6 9cbe 5150 753e
00000020: 38c8 913e e33b a8be 1c95 7bbe e944 9f3e
00000030: 5303 4f3d ef68 753e 90b7 98be 7e32 183e
00000040: db19 903e abed debd a64e 67bc 8403 643e
00000050: e88f d03d 077b 103e d97e 6f3c 8f87 2bbe
00000060: 2db5 30be 73ec cc3e c93f 10bd e121 bb3e
00000070: 914b 883e f768 6ebe 4fc3 f7bc 27f8 1abe
00000080: a8e6 683b 60ff 5e3e 0059 393e fc14 4ebe
00000090: cae4 27be 3564 7fbe 6aef aabe ab4e 803e
000000a0: d549 3cbe f868 fd3c eacb c6bd e411 68bc
000000b0: b3e8 c1bd ce0e be3d bb35 16bd 6a0a 313e
000000c0: 0995 72bc
-0.15972869 0.018578023 -0.29920256 0.087631755 -0.35317695 -0.19732724 -0.30620432 0.2395642
0.28473067 -0.3285819 -0.245686 0.31107262 0.05054028 0.2396581 -0.29827547 0.14863011
0.28144726 -0.10885175 -0.014117872 0.22266966 0.10183698 0.14109431 0.014617645 -0.1675093
-0.17256613 0.40024146 -0.03521708 0.36549285 0.26620153 -0.23282228 -0.030244498 -0.15133725
0.0035537872 0.21777105 0.18100357 -0.20125192 -0.1639587 -0.2494057 -0.33385783 0.2506002
-0.1838754 0.030933842 -0.09706862 -0.014164422 -0.09468212 0.092801675 -0.036672335 0.17289129
-0.014806041

rnn.bias_ih f4 [7]
00000000: 3145 36bd 203b 223d 1381 843e ab5b ba3d
00000010: 8489 753e d737 10bc b005 d8bd
-0.04449958 0.039607167 0.25879726 0.090995155 0.2397824 -0.008802376 -0.1054796

rnn.bias_hh f4 [7]
00000000: 7235 8e3e dad5 bdbe b4a5 363d c321 c23e
00000010: 3a54 5dbe 85d0 2ebd 29af 06be
0.2777515 -0.37077218 0.04459162 0.37916383 -0.21614161 -0.04267933 -0.13152756

exp_avg f4 [7, 22]
00000000: 1628 47b5 5302 81ba 053d 28bc dd57 e9ba
00000010: e6be e9b9 d7c9 26bc afac 35bb a3ba f8b9
00000020: 6a8c 8839 2db6 853a 1eed f63a c8a4 153b
00000030: 040e ca3a 2701 ef3a 39d1 d43a 37d3 5a3a
00000040: 0b93 813a 75a2 fd3a 53c7 1d3b a534 c53a
00000050: 0844 843a 8258 e63a 9542 96b9 c2eb a5ba
00000060: 9800 bdbc 6a01 95bb ed83 5539 f683 bcbc
00000070: 41f3 d1bb 8a91 a039 abf1 423b 1f9b 1f3b
00000080: 529f a03b 432b 803b 4739 3e3b dbd2 473b
00000090: 29f7 653b 7fda eb3a b4d2 213b 9473 893b
000000a0: 01c0 ba3b e090 5c3b 7be0 0e3b d858 823b
000000b0: f9c1 2a3c 4f92 ea3b 9d0f f33b 8eab ea3b
000000c0: f4f6 5b39 f2e1 f23b 5cc7 b43c 622b cb39
000000d0: 1a91 beba 4bbc 49ba a60c dcbb d786 123a
000000e0: fe9b 9ab9 e7c7 d03a 837c c8ba 3f20 8eb9
000000f0: 6cc1 feba e72b 26bb fb93 e1ba a5ac 93ba
00000100: 378c a039 6665 adba cabb 8c3b 2e05 fbb9
00000110: 2b3a 68bb 5949 883b 685e 9db8 d518 a2bb
00000120: 2712 223c ada8 6d39 f7a5 ce3a dd80 03ba
00000130: 6a27 11ba 19b0 d339 4a19 c639 692c 153b
00000140: db48 653a 77c8 db39 e2b5 cd39 55ee ea37
00000150: 7924 c63a fc40 cfb9 f7f4 703a 8146 ce3a
00000160: 936c b5ba 72ee b7ba 830d 06bc 1c2e 9dba
00000170: 471e 52b9 bca8 07bc 4dc2 9abb 3e51 24b9
00000180: f707 a23a 9ee9 773a 8385 a83a c65f f43a
00000190: 7a45 7039 a32a a83a ec08 f03a 3cf9 073a
000001a0: bc57 833a 15fd f53a 6e3f d43a bc50 c43a
000001b0: 0037 353a 3f88 c03a a945 8bbb bd61 e4b9
000001c0: 5dc0 973c dd4e 81ba 4949 4c39 9bcd 9a3c
000001d0: af70 bfbb 3ce9 5739 e753 28ba 20a8 a3ba
000001e0: b18b 3cba 8c5a 4dbb 61c9 17ba 69b7 12bc
000001f0: f152 55bb 1078 cfba fa77 c0ba 6346 22bb
00000200: 777b a7bb 9de3 0bbb d6bf 45bb 3990 33bb
00000210: 7980 30bc a746 53bb 4661 933c efc9 9abb
00000220: 6bfe cbb7 f19b 9e3c 4690 8cbc 3b00 47ba
00000230: 8ac0 6fbb d042 ccba 6838 b339 a567 bdbb
00000240: ff19 76bb f6ad 1abb 9de9 0fbb 2e71 e6ba
00000250: 560f a2ba 973a 21bb cf35 8fbb e8e6 17bb
00000260: b209 1abb e742 92bb
-7.419161e-07 -0.0009842612 -0.010268454 -0.0017802675 -0.00044583454 -0.010179958 -0.0027721336 -0.000474413
0.00026044558 0.0010201387 0.0018838977 0.0022833813 0.0015415554 0.0018234596 0.001623667 0.00083475135
0.0009885741 0.0019350784 0.0024075105 0.0015045597 0.0010091076 0.0017573985 -0.00028659837 -0.0012658762
-0.023071572 -0.0045472877 0.00020362409 -0.023012143 -0.006407172 0.00030626013 0.0029746096 0.0024353934
0.004901805 0.003911407 0.002902584 0.003049067 0.0035089946 0.0017994194 0.002469224 0.004194686
0.005699158 0.0033655688 0.0021801281 0.003977876 0.010422223 0.0071585546 0.0074176327 0.007161564
0.00020977465 0.0074121887 0.022067718 0.000387515 -0.0014539093 -0.00076955993 -0.006715375 0.0005589551
-0.00029489392 0.0015928716 -0.0015295896 -0.00027108376 -0.0019436306 -0.0025355758 -0.0017210239 -0.0011266662
0.00030622046 -0.0013229072 0.004294847 -0.0004787831 -0.0035435061 0.0041591343 -7.503928e-05 -0.004946808
0.009892023 0.00022664918 0.0015766014 -0.00050164555 -0.0005537184 0.0004037626 0.00037784345 0.0022762066
0.0008746513 0.00041920293 0.0003923616 2.8005956e-05 0.0015117071 -0.00039530534 0.0009191776 0.0015737565
-0.0013841562 -0.0014032854 -0.008181932 -0.0011991891 -0.0002003844 -0.0082799755 -0.0047228695 -0.00015670524
0.0012361993 0.0009457114 0.0012857172 0.0018644265 0.00022914066 0.001283009 0.0018313206 0.000518698
0.0010020654 0.0018767441 0.001619322 0.0014977674 0.00069127977 0.0014689042 -0.0042502475 -0.0004356037
0.018524343 -0.0009865422 0.00019482257 0.018896868 -0.0058422904 0.00020590884 -0.0006421194 -0.0012486018
-0.00071924465 -0.0031334488 -0.00057902007 -0.008954861 -0.0032550658 -0.0015828628 -0.0014684193 -0.0024761192
-0.0051111537 -0.0021345385 -0.0030174158 -0.0027399196 -0.010772818 -0.0032238157 0.01799072 -0.0047237794
-2.4317958e-05 0.019361468 -0.017158639 -0.0007591282 -0.0036583268 -0.0015583877 0.00034183566 -0.0057801777
-0.0037552116 -0.0023602224 -0.0021959313 -0.0017581338 -0.001236419 -0.0024601573 -0.004370428 -0.0023178402
-0.0023504314 -0.004463542

exp_avg_sq f4 [7, 22]
00000000: 72fe 1437 3ed1 c836 78b3 6839 5466 bb36
00000010: c2e4 6836 e325 6f39 197b 9537 abe6 ac36
00000020: 3d48 cf37 dc2d 4436 e149 8436 bf1b 9c36
00000030: 3833 8536 3411 3236 aa27 7036 3753 cb35
00000040: 373b 8f36 97b6 9336 96d6 7e37 3e6e 9e36
00000050: dc24 1a36 9ae6 d836 8f1e 0f37 c0a9 2e36
00000060: 08f1 9139 d898 a037 1e38 a734 ba7e 8e39
00000070: d802 8738 8081 ec34 23dd b936 1d35 9036
00000080: d6ae 8437 dc75 e936 2acf c336 e94d 9636
00000090: f832 0237 3e55 f835 8705 d236 b084 0637
000000a0: e3e7 7237 758d d436 fc91 0a36 7d64 0037
000000b0: f88d 9838 4a62 e937 28f0 f93a b291 2939
000000c0: 54c7 9435 c131 f43a 19f5 2a3a 4764 be35
000000d0: fa9a 0838 b282 bf37 4a96 2f39 691f 2d38
000000e0: d0ae 0938 6291 c337 4dc2 1838 ca08 3f37
000000f0: dd1a 4e38 780c 8138 14f0 ce38 14bd 3238
00000100: 89d7 3d37 ed90 5d38 191a 3138 b3d6 d336
00000110: cf80 dd3a e5b8 2739 c6dc 5136 718c ce3a
00000120: 4c4e f639 2b93 7c36 f32d dd37 b2b4 8238
00000130: 3786 1738 80ff 8638 ae60 1738 40fb 9637
00000140: ad00 3e38 927a 3037 5fab 0438 3f16 6138
00000150: 9215 a238 6c03 5838 0420 4b37 0be3 2d38
00000160: 7492 6037 0d1f 9336 b953 923a 3237 7b38
00000170: 9e13 2135 7762 8c3a 4bad aa38 23ba c435
00000180: cb56 f537 5af9 8437 cd68 a837 4534 cb37
00000190: 21c6 8438 5755 8937 99bd 9037 9a2d 1237
000001a0: 785d 9737 cf5a ea37 dd37 8438 4c60 cd37
000001b0: 60ed 2637 06aa f637 f4bf f937 adda 5335
000001c0: 87f1 843a ccde 1637 c551 8834 57c3 873a
000001d0: 2cd9 f737 2d84 f334 69ef 3c37 3e42 1037
000001e0: 51ad 4137 7497 f337 a05f 6637 6a46 b038
000001f0: a4d2 f437 36e2 0137 ba90 6a37 8ede c037
00000200: d183 8438 1686 9e37 396c 7037 548e de37
00000210: d6e3 2839 ace7 3237 7bc0 fe3a 53a9 5538
00000220: 31a6 9c36 a724 073b 7f33 be39 7acd fc36
00000230: 8085 2438 cb82 b937 37a1 e337 ae4c b138
00000240: f562 5038 4707 1538 2708 d638 3476 8537
00000250: 63c8 e037 f260 4638 13e1 ec38 88ab 2538
00000260: f42b bf37 4568 9d38
8.88073e-06 5.9848235e-06 0.00022192101 5.584947e-06 3.4703849e-06 0.0002280693 1.7819506e-05 5.1528527e-06
2.4709962e-05 2.923297e-06 3.942507e-06 4.6523924e-06 3.9696715e-06 2.653408e-06 3.5785874e-06 1.5148897e-06
4.2686256e-06 4.4021976e-06 1.5189542e-05 4.721601e-06 2.2969243e-06 6.464147e-06 8.530579e-06 2.6026828e-06
0.00027836137 1.914466e-05 3.1147005e-07 0.0002717877 6.437831e-05 4.405265e-07 5.5391733e-06 4.2977176e-06
1.581704e-05 6.9576618e-06 5.83557e-06 4.4794183e-06 7.760471e-06 1.8502249e-06 6.259131e-06 8.017916e-06
1.4478314e-05 6.33456e-06 2.0648577e-06 7.652791e-06 7.2743685e-05 2.7821534e-05 0.0019068765 0.00016171372
1.1084871e-06 0.001863055 0.0006521508 1.4185288e-06 3.256926e-05 2.2829834e-05 0.00016745288 4.1275667e-05
3.2826152e-05 2.331351e-05 3.642058e-05 1.13865335e-05 4.9139246e-05 6.153522e-05 9.8675635e-05 4.26146e-05
1.1315461e-05 5.282548e-05 4.2224394e-05 6.3132843e-06 0.001689935 0.0001599524 3.1271934e-06 0.0015758408
0.00046979112 3.763659e-06 2.636665e-05 6.23254e-05 3.6126203e-05 6.4372085e-05 3.6091245e-05 1.799839e-05
4.530016e-05 1.0518956e-05 3.1630854e-05 5.36649e-05 7.72878e-05 5.15016e-05 1.2107197e-05 4.1457864e-05
1.3385539e-05 4.384556e-06 0.0011163867 5.9894468e-05 6.000572e-07 0.0010710497 8.13851e-05 1.4657311e-06
2.9246692e-05 1.585174e-05 2.0075962e-05 2.4223826e-05 6.331155e-05 1.6371412e-05 1.7254426e-05 8.712896e-06
1.8044128e-05 2.793726e-05 6.304656e-05 2.4482746e-05 9.949639e-06 2.9404659e-05 2.9772498e-05 7.892184e-07
0.0010142782 8.992571e-06 2.539147e-07 0.0010357898 2.9545823e-05 4.5358448e-07 1.1261415e-05 8.598492e-06
1.154405e-05 2.9038383e-05 1.3731333e-05 8.4054496e-05 2.9185154e-05 7.741668e-06 1.3981184e-05 2.2991819e-05
6.318803e-05 1.8897506e-05 1.4330312e-05 2.6530739e-05 0.00016106604 1.0663567e-05 0.0019436026 5.0940853e-05
4.6685095e-06 0.0020621212 0.00036277992 7.534106e-06 3.922498e-05 2.2114624e-05 2.713558e-05 8.4543004e-05
4.9683225e-05 3.5531146e-05 0.00010205834 1.5909878e-05 2.6796193e-05 4.7297166e-05 0.0001129528 3.9498816e-05
2.2789442e-05 7.505765e-05

exp_avg f4 [7, 7]
00000000: 0562 1dba 7983 203a 5ee3 133b 48c7 193b
00000010: 6c26 f43a 417e f13a a9ea 093b 34ae b13a
00000020: 4bae cd3a 63eb da3b 27c4 9b3b c472 423b
00000030: 3ff4 353b 32c0 6a3b fb0c 1ab7 08c3 d2ba
00000040: 20bc 69bc 89ad c73a 5384 a33a a22a 5c3b
00000050: 56ae 943a e742 103a 62c2 c139 7781 183b
00000060: 2ef4 1bbc 6f7f 4439 5f61 8a3b 620c cf3b
00000070: a385 8139 2272 183a 1294 4d3b 1be6 823b
00000080: 5193 a4bb f70a e93a 064e 813b b7e7 4aba
00000090: bfe4 26ba 06ca e737 7be3 65ba 23ca 30b6
000000a0: 3c31 90bc 8281 ae3a 339e 3fba 5824 18ba
000000b0: 5729 3c3a c8d6 94ba 748a aaba 030f 443a
000000c0: 809d 88bc
-0.0006003681 0.00061231066 0.0022565941 0.0023464728 0.0018627173 0.0018424467 0.002104441 0.0013555945
0.0015692202 0.0066808923 0.004753608 0.0029670456 0.002776399 0.0035820124 -9.182138e-06 -0.0016079852
-0.014266044 0.0015234213 0.0012475349 0.0033594747 0.001134346 0.0005503133 0.00036956655 0.0023270526
-0.009518666 0.0001873949 0.0042230333 0.006318615 0.00024704364 0.0005815347 0.0031368774 0.003994716
-0.0050224443 0.0017779757 0.0039460687 -0.00077402167 -0.0006366483 2.763142e-05 -0.0008769554 -2.6343703e-06
-0.017601602 0.0013313743 -0.00073096453 -0.00058037555 0.0007177791 -0.0011355514 -0.0013011233 0.00074790436
-0.016676664

exp_avg_sq f4 [7, 7]
00000000: f364 b137 f822 1636 b980 9236 9ee4 3037
00000010: bf71 9a36 fc1b 3436 d9b7 b336 bc26 f735
00000020: a2b3 4736 452e e737 c223 8737 5de5 f136
00000030: 9645 b136 3fd7 1537 685b b436 6799 cb37
00000040: 7624 af39 318b 9b38 c0a5 f337 ac5e 5a37
00000050: aaaa 0738 36f2 9336 409b 4b37 2938 0b38
00000060: bdba be39 350b be37 b04a 6737 600b 7e38
00000070: 6998 b036 5bc7 0d37 668b a337 a714 4d38
00000080: e206 2039 0ced f036 839b e537 fe57 6436
00000090: 1e2b 9b36 037c 1837 bc69 d537 6243 1037
000000a0: 30df 7339 7a6d a537 b3e9 1c37 0ace 4a37
000000b0: 7a20 1a38 3906 8f38 6854 ff37 7e3c b437
000000c0: e891 aa39
2.1147052e-05 2.2372096e-06 4.3661244e-06 1.0543647e-05 4.6027994e-06 2.683838e-06 5.3560184e-06 1.8414207e-06
2.975787e-06 2.7558892e-05 1.6109905e-05 7.209061e-06 5.283112e-06 8.931208e-06 5.375059e-06 2.427092e-05
0.00033405767 7.4169024e-05 2.904504e-05 1.3015855e-05 3.234545e-05 4.4091385e-06 1.213589e-05 3.3192486e-05
0.00036378755 2.2654984e-05 1.37860625e-05 6.0568913e-05 5.2629516e-06 8.450671e-06 1.9496027e-05 4.8895043e-05
0.00015261353 7.1801533e-06 2.7371343e-05 3.4025866e-06 4.6243795e-06 9.08878e-06 2.5440815e-05 8.598758e-06
0.0002325743 1.9720512e-05 9.352737e-06 1.208811e-05 3.6746707e-05 6.8199304e-05 3.0437674e-05 2.1485841e-05
0.00032533635

exp_avg f4 [7]
00000000: d5fd 2a3c 6312 c23c ea37 0dbc a2dd 913b
00000010: 9115 0e3c 0cc8 97bc 3859 9bbc
0.010436495 0.023690408 -0.008619288 0.0044514695 0.008672134 -0.018528007 -0.018963441

exp_avg_sq f4 [7]
00000000: 6a9b 7939 cd6e 9939 f237 053b bea7 e43a
00000010: 656e 953a 82c0 893a 63bc 0b3b
0.00023804387 0.00029264987 0.0020327535 0.0017445011 0.0011400698 0.0010509642 0.0021322004

exp_avg f4 [7]
00000000: 8606 2b3c 0510 c23c a646 0dbc 36f7 913b
00000010: e623 0e3c d8c2 97bc 1a57 9bbc
0.010438567 0.02368928 -0.008622801 0.0044545187 0.008675551 -0.018525526 -0.018962432

exp_avg_sq f4 [7]
00000000: 9f9c 7939 7e6d 9939 1d38 053b 60a7 e43a
00000010: 886e 953a 53c0 893a 5bbc 0b3b
0.00023804836 0.00029264012 0.0020327636 0.0017444901 0.0011400739 0.0010509588 0.0021321985

exp_avg f4 [7, 22]
00000000: 8ced dfb8 c194 103b a642 66bc 70c4 07bb
00000010: 7c38 0a3b 07b8 63bc c243 4abb ce0d 1e3b
00000020: faa9 8f3a b37a ab3a a9e0 213b 2fea 603b
00000030: 1259 1f3b c0ab d93a 573f ff3a e2b5 af3a
00000040: e669 6a3b 5ad9 853a 49fc 713b e2e1 9a3a
00000050: 1c72 123b d991 aa3a 9504 80bc 8162 fcba
00000060: dbc8 29bb 0eec 3ebc fe36 1a3b e29a a33a
00000070: 4204 1abd e2f4 2bbb 5abd 9e3a e931 01bc
00000080: d495 8b3a ba59 893b 0185 8f3a def5 9c3a
00000090: e9cf bdba 6823 fd39 681d b7ba 8d41 adb9
000000a0: c964 293a e105 54b8 4489 d23a 4f14 c8ba
000000b0: 27b8 393a c8de c03a c531 dcbb 17d9 09ba
000000c0: 2d49 a03a 6d69 dfbb 7b20 7b39 72e5 c93a
000000d0: b896 703a c8f1 7d3a b3a4 8d3a 7684 a43a
000000e0: 248c 863a f0aa 523a 8254 823a 10f3 223a
000000f0: 4568 ed3a 27f5 053a 37ff eb3a 1241 193a
00000100: a1f3 813a ffd9 3d3a d323 003c fe1a ab3b
00000110: 7498 c9bc a8b7 823b a435 2c3b 9efb d9bc
00000120: ddf3 963c 49ab a03b a776 b93a 02b3 9d3b
00000130: 4232 443b d071 7f3b 0d66 843b 70b5 973b
00000140: d3f9 953b e08e e93a 1861 ff3b f36f fe3a
00000150: b718 ce3b 5260 093b 8859 5b3b 51f5 4b3b
00000160: 5c9b 263a d69c a93a ebb3 9cbb 0ff9 52b9
00000170: 9748 6d3a bda3 a2bb 22b3 e839 deda b13a
00000180: 09ce 593a f03d 693a d73c 7f39 291e ab3a
00000190: 7066 3b39 fea6 6f3a 4e1c 4d3a ab6d eb39
000001a0: db02 a23a 7c53 d139 d634 a43a 9bcb f339
000001b0: 11ab 533a 0690 0a3a 4740 c33b 1d30 24bc
000001c0: 96f4 803d c4af 4f3c 60d5 2ebc ff7e 7b3d
000001d0: 319f aa3c fd50 24bc 9392 cabb eeaf 30bb
000001e0: 685c 03bc 1f8f 87bc 37c8 28bc 8a33 42bc
000001f0: 7ff8 fabb c4e1 b2bb 6587 82bc ddb9 8fbb
00000200: a826 83bc 1d0c afbb 3d95 2fbc 753b b1bb
00000210: 59eb 793a 87bb f3ba 0b73 353c 245d 2a3a
00000220: f981 feba 2ffd 303c 2bf5 803b 4c22 93ba
00000230: 9f80 90ba 4f45 ab3a acc0 47bb 6551 2bbb
00000240: f2d5 d2ba cadb b1ba d356 17bb 5a94 88ba
00000250: 6807 2ebb b822 35ba a6a3 4fbb 136e 43ba
00000260: 70cf e5ba 1be6 32ba
-0.00010677715 0.002206132 -0.014053976 -0.002071645 0.0021090796 -0.013898856 -0.003086314 0.0024117115
0.0010960691 0.0013082832 0.0024700558 0.0034319272 0.0024314565 0.0016606972 0.0019473833 0.0013405646
0.0035768687 0.001021187 0.0036924055 0.0011816586 0.0022345847 0.0013013437 -0.015627185 -0.0019255431
-0.0025907073 -0.0116529595 0.0023531313 0.0012482072 -0.037601717 -0.002623849 0.0012110875 -0.007885435
0.0010649511 0.0041916044 0.0010949672 0.001197513 -0.0014481518 0.000482823 -0.0013970556 -0.0003304597
0.00064618565 -5.0550214e-05 0.0016062637 -0.0015264841 0.0007084631 0.0014714831 -0.0067198 -0.0005258484
0.0012228839 -0.0068179877 0.00023949325 0.0015403463 0.0009177732 0.00096872123 0.001080653 0.0012551683
0.0010265154 0.0008036336 0.0009943398 0.00062160287 0.001811274 0.0005110078 0.0018005137 0.0005846183
0.0009914526 0.0007242262 0.007821041 0.0052217236 -0.024608828 0.0039891787 0.002627709 -0.026609238
0.01842683 0.0049032313 0.0014149741 0.004812599 0.0029937183 0.003897775 0.0040404857 0.0046297833
0.0045769005 0.0017819069 0.007793557 0.0019412026 0.0062895673 0.0020961952 0.0033470113 0.0031121562
0.0006355548 0.0012940418 -0.00478219 -0.00020119942 0.0009051649 -0.004963367 0.00044383953 0.0013569256
0.00083085947 0.0008897474 0.0002434136 0.0013055253 0.0001787187 0.000914201 0.0007824347 0.00044904402
0.001236047 0.00039925787 0.0012527953 0.0004650027 0.0008074502 0.00052857434 0.00595859 -0.010021237
0.06296651 0.012676183 -0.01067099 0.06140041 0.020827862 -0.010029075 -0.006182024 -0.002696033
-0.008017637 -0.016547738 -0.010301641 -0.011853108 -0.0076590176 -0.0054590423 -0.015933702 -0.0043861703
-0.016009644 -0.00534202 -0.0107167335 -0.005408699 0.0009533666 -0.0018595316 0.011074792 0.00064988644
-0.0019417397 0.010802551 0.0039354763 -0.0011225431 -0.001102466 0.001306692 -0.0030479832 -0.0026141044
-0.0016085489 -0.001356953 -0.0023092523 -0.0010420189 -0.0026554707 -0.00069097755 -0.0031683235 -0.0007455062
-0.0017533135 -0.00068244495

exp_avg_sq f4 [7, 22]
00000000: c68c cf36 d5b6 2e38 9ff8 c739 f08d 5037
00000010: 8ba7 0e38 48a3 c839 c1f1 1338 5973 2c38
00000020: cb4d 0e38 d9b8 9036 6458 fd36 146e 5537
00000030: c122 0f37 265e 8036 f313 c736 cc37 a036
00000040: 7458 ca37 985c 5136 300a f337 ebc6 5b36
00000050: 36f0 e836 5995 9836 a15b 043a 870f 9039
00000060: 65bf 703b 1ca7 d138 0012 de38 b0d1 8a3b
00000070: 1378 f43a 0408 ab39 8056 ae38 3ad3 7a39
00000080: fb58 bd38 9105 aa38 d35a a438 423f 2a38
00000090: 6f6a da38 2f66 1338 4664 9839 8e16 1138
000000a0: 5173 9039 0606 0638 8b0f 7238 23bd 9238
000000b0: f6ac 7936 6e81 4c36 f4d1 4238 fc63 dd35
000000c0: 952c e635 b1af 5038 f8ef 8937 d1e3 6936
000000d0: 6fb3 a735 1f0e 1136 15b2 9d35 408a b235
000000e0: b1f9 9235 de92 1535 eddf a035 6e08 0f35
000000f0: a116 5636 3610 f234 634c 5f36 6982 d234
00000100: 6ab5 4a35 f9da 3e35 daad aa38 d826 5739
00000110: f31a 7e3b 1d02 4a39 00f3 3d39 9eed 773b
00000120: 5ca1 5d3a 4732 6e39 13c8 0839 3bbb 8b38
00000130: e90f c938 4c8b 2d39 abd9 be38 e9bd 2238
00000140: a221 9e38 fa94 5238 4369 7539 b971 f237
00000150: 8e9e 8f39 bed2 0538 81fa 9e38 5a86 2538
00000160: bace 3536 615b 5237 b814 8b39 ccc1 1137
00000170: 06e2 2b37 55e2 8839 e34b 8537 6adc 5137
00000180: fd42 c236 5462 7436 96ec e536 bb7e d336
00000190: df93 8737 6941 5936 7768 9a36 5e1c 4236
000001a0: cd08 9637 31aa fb35 131d 9b37 ea55 0536
000001b0: 31de 9936 ce70 4336 b646 8b37 dd86 a538
000001c0: f6f6 193b 62f4 9038 3708 9238 31e3 163b
000001d0: 1732 4a39 ddd9 aa38 47b6 1338 ea56 9137
000001e0: 2ea5 8638 1a86 fa38 b303 8f38 f3ca a438
000001f0: d1cf 1b38 8341 bd37 a67d 2339 a879 8037
00000200: 3ab4 2339 3f03 9537 2e3e 5838 8cfb ae37
00000210: 91ba db37 3d8c f437 f560 1d3a 4bbe bf36
00000220: 1cbc 9537 3373 253a 3781 b238 19f0 f537
00000230: f61e 2937 5eb1 8d37 aa60 af37 c86a 8b37
00000240: 6903 5737 f1c1 cc36 3caa ff37 1ebc c236
00000250: ff99 3238 014b 9a36 e8b9 3838 3ef3 9436
00000260: a054 2e37 e23d f536
6.185469e-06 4.165511e-05 0.00038141475 1.24308135e-05 3.4011475e-05 0.00038268627 3.5272682e-05 4.111542e-05
3.392789e-05 4.3130535e-06 7.5502776e-06 1.2721419e-05 8.531556e-06 3.8256576e-06 5.9329845e-06 4.774867e-06
2.4121466e-05 3.1197324e-06 2.8972601e-05 3.2749329e-06 6.942103e-06 4.5473394e-06 0.0005049054 0.0002747739
0.0036735174 9.997023e-05 0.00010589138 0.0042364225 0.0018651508 0.00032621634 8.3130784e-05 0.00023920546
9.028796e-05 8.1072685e-05 7.837047e-05 4.0590072e-05 0.00010414875 3.5142697e-05 0.0002906641 3.45917e-05
0.00027551738 3.19537e-05 5.771177e-05 6.997052e-05 3.7204568e-06 3.0473707e-06 4.644874e-05 1.6494882e-06
1.714931e-06 4.975469e-05 1.6443417e-05 3.4852312e-06 1.2494692e-06 2.1614903e-06 1.174924e-06 1.330227e-06
1.0950517e-06 5.5720545e-07 1.19861e-06 5.328392e-07 3.1901657e-06 4.5087808e-07 3.3274052e-06 3.9210434e-07
7.5514856e-07 7.109916e-07 8.138614e-05 0.00020518468 0.0038773387 0.00019265008 0.00018114969 0.003783084
0.00084545254 0.00022716179 0.00013044504 6.662911e-05 9.5873904e-05 0.00016550458 9.10045e-05 3.8800677e-05
7.540292e-05 5.0206647e-05 0.00023404234 2.8901604e-05 0.00027393218 3.190594e-05 7.580687e-05 3.946419e-05
2.7091432e-06 1.2538251e-05 0.00026527583 8.687795e-06 1.0245019e-05 0.00026108572 1.5890173e-05 1.250869e-05
5.789449e-06 3.6416068e-06 6.852274e-06 6.3030434e-06 1.6162112e-05 3.2373594e-06 4.601719e-06 2.8924765e-06
1.7885492e-05 1.875049e-06 1.8490979e-05 1.9868553e-06 4.585622e-06 2.9122925e-06 1.6603019e-05 7.892933e-05
0.0023493147 6.911975e-05 6.963353e-05 0.00230236 0.00019282881 8.146812e-05 3.521729e-05 1.732582e-05
6.420385e-05 0.00011945907 6.8194604e-05 7.8579316e-05 3.7148424e-05 2.2561062e-05 0.00015591699 1.531544e-05
0.00015612031 1.7763696e-05 5.1556322e-05 2.0859552e-05 2.6193711e-05 2.915237e-05 0.00060035224 5.7143966e-06
1.784978e-05 0.00063114165 8.5117696e-05 2.931808e-05 1.0080394e-05 1.6891103e-05 2.0906638e-05 1.6619815e-05
1.2815793e-05 6.1022515e-06 3.047764e-05 5.8035503e-06 4.2581927e-05 4.5982893e-06 4.4042157e-05 4.439061e-06
1.03909115e-05 7.308773e-06

exp_avg f4 [7, 7]
00000000: e03e 9fb9 7242 393b 56c2 1d3a e8e9 8b3b
00000010: 8705 973a dc68 833b b8cd ea3a 80fd 4a3a
00000020: 0839 83bc 0c4b 86b9 c81e a43b e55a a43a
00000030: 3ad0 f93b 2fc9 873a 6fda f339 a216 053b
00000040: 6d83 aa39 86bf c93a 4bcc fe39 1ff7 b33a
00000050: 3c7f 5a3a 8124 d73a 8be4 3e3c 14ac a43a
00000060: 6411 a4bb 9fbb 063b 39ab 1e3c c9f3 a63b
00000070: 8905 c139 be72 d73a 784d 4a39 9a0d ae3a
00000080: b5a4 afba d512 253b b5fe df39 1dc7 3ebb
00000090: 8722 f8bb e51d 25bb 53f9 fbbb 85d6 88bb
000000a0: 1f16 16bd 6ce0 e3ba 2ce0 46ba 8de4 043b
000000b0: a247 1bba 0cd9 fcba fe42 ecb9 d36d d439
000000c0: 229b 1abc
-0.0003037369 0.0028268364 0.0006018033 0.004269827 0.0011522033 0.004010303 0.0017914092 0.0007743463
-0.016018406 -0.00025614386 0.005008552 0.0012539296 0.0076236995 0.001035964 0.00046511317 0.002030768
0.00032522847 0.0015392161 0.00048598865 0.0013730264 0.00083349994 0.0016414077 0.011651169 0.001256349
-0.005006956 0.0020558608 0.009684377 0.0050949794 0.00036815953 0.0016437394 0.0001929308 0.00132792
-0.0013400527 0.0025188227 0.00042723646 -0.002911038 -0.0075724754 -0.002519482 -0.007689634 -0.0041759633
-0.03664219 -0.0017385609 -0.0007586505 0.0020277828 -0.0005923455 -0.0019290759 -0.0004506334 0.00040517616
-0.009436401

exp_avg_sq f4 [7, 7]
00000000: 8678 fd37 3f12 6537 3cc4 c435 4411 4438
00000010: c2ca 0d36 27b2 0837 cadd 5336 fbf5 a237
00000020: 210a 7e3a ec3c 7737 89dc 8139 5745 8f37
00000030: 9101 2638 bb46 2938 fbd8 0535 1594 0a37
00000040: fc77 4e34 9cde 9036 e3cf 8b34 8157 9535
00000050: 237b 3335 4aca db37 722d 6939 fbac 4837
00000060: 323f 5a3a 833d b837 d8af 8838 ccc8 d437
00000070: f45b 1c36 911f 7137 00ad 7835 c627 8137
00000080: bf38 9637 689c a736 9bcb 0c36 613f 1837
00000090: 3bf2 9f38 3999 c336 72f1 e038 b2f2 5637
000000a0: 48d5 e139 c127 3d37 a2ef 5036 540e 8f38
000000b0: e69a 0636 1c1b dc37 3fa1 6336 963b e436
000000c0: 9b13 7638
3.0216073e-05 1.3653712e-05 1.466025e-06 4.674612e-05 2.1128658e-06 8.147711e-06 3.1570548e-06 1.9426448e-05
0.00096908404 1.4736532e-05 0.0002476911 1.7079217e-05 3.9578943e-05 4.0358613e-05 4.986211e-07 8.259919e-06
1.9228895e-07 4.3174496e-06 2.6042025e-07 1.1126832e-06 6.6861884e-07 2.6201033e-05 0.00022237541 1.1961204e-05
0.0008325457 2.1963153e-05 6.517739e-05 2.5365873e-05 2.3299335e-06 1.4372069e-05 9.263895e-07 1.539652e-05
1.7907818e-05 4.995196e-06 2.098014e-06 9.074663e-06 7.62683e-05 5.8292903e-06 0.00010726125 1.2811901e-05
0.0004307425 1.1274534e-05 3.11339e-06 6.82144e-05 2.0057719e-06 2.6238667e-05 3.3919493e-06 6.801866e-06
5.866923e-05

exp_avg f4 [7]
00000000: 9f00 6b3c 5b0a 16ba 6a16 e73b d507 d83c
00000010: e58f a83b d687 81bd e0d3 2fbc
0.01434341 -0.0005723589 0.0070522325 0.026370922 0.0051441067 -0.06324737 -0.010731667

exp_avg_sq f4 [7]
00000000: f51a e239 b058 923b e028 6038 6f41 893b
00000010: 845c 9439 dba0 203b 107e 2c3a
0.00043126164 0.004466139 5.344383e-05 0.0041887085 0.0002829769 0.002450994 0.0006580064

exp_avg f4 [7]
00000000: 0901 6b3c b5c9 16ba 8c0d e73b 5a00 d83c
00000010: 407e a83b df88 81bd 42ca 2fbc
0.0143435085 -0.00057521026 0.0070511755 0.026367355 0.0051420033 -0.06324934 -0.010729374

exp_avg_sq f4 [7]
00000000: 011b e239 cb58 923b 7f24 6038 7c41 893b
00000010: 555c 9439 12a1 203b 227e 2c3a
0.000431262 0.0044661514 5.343975e-05 0.0041887145 0.00028297552 0.0024510068 0.00065800746

exp_avg f4 [7, 22]
00000000: 778b dabb d684 4038 36c3 c6bc d339 09bc
00000010: f53d 6c3a 028e b9bc 0777 acbc a8e6 993a
00000020: 1976 3e3a f9d3 103b be6b 813b 5dd6 cd3b
00000030: 9661 5b3b c2b9 893b c52c 6a3b 4351 573b
00000040: 2b9a 313b 5b3a f03a c6b8 773b d3d6 873b
00000050: a46f 7a3b 72e8 9a3b 9c50 c0bb 3369 523b
00000060: 5a16 08bd 0403 4bbc 1423 873b fb2d 01bd
00000070: adb9 bebc 0c06 9d3b fbd0 883b e028 1e3b
00000080: 68fc b13b feec 053c 9709 943b 459c 983b
00000090: 97d1 9c3b 9434 973b 0495 893b e34d 303b
000000a0: ef40 a43b 8bfb c23b 45af b13b b4d3 cd3b
000000b0: 90d2 91bb 904e bd39 dbee a3bb f667 b2bb
000000c0: 9ed2 ac3a 0154 7fbb 63a9 49bc c0aa 3c3a
000000d0: c12b 223a c03a 073a 951e 3bb9 8fe8 a83a
000000e0: 1222 0d3a 0826 6c3a dd4c 393a 9963 383a
000000f0: c534 3439 6813 2cb8 0f68 623a dc49 803a
00000100: 41a4 fa39 0804 a13a a1f9 b6bb 5684 363b
00000110: 406e 14bd d57b 4dbc 3c77 883b 2548 0dbd
00000120: 2505 c1bc 899f 953b d9a4 883b a78b 5f3b
00000130: 6b05 c93b 751a 043c 0c12 953b 533d b73b
00000140: ba22 b33b 76f8 a43b 20ab 973b b077 473b
00000150: d67a b53b ea89 d23b 69cd be3b 983f e13b
00000160: 7036 633c c19a 35bc 1c4e bd3d e143 ff3c
00000170: 13b4 48bc 6b19 b33d 4107 873d 7901 5bbc
00000180: e717 39bc 62a8 f4bb 5cdd 42bc 51ed d9bc
00000190: 1a2b 77bc 0643 32bc ce7f 33bc 24dd 58bc
000001a0: 08c5 43bc 56e8 f9bb d3ae 56bc 8470 84bc
000001b0: 736d 7ebc 5ccd 87bc 7fd3 a33a 102c ebb9
000001c0: 0947 af3b 5ef6 cd3b 854f abba 6c70 4a3b
000001d0: c057 5a3c 78c1 b3ba 41ec ba39 8566 03ba
000001e0: a42b 033b 91d8 d1b8 7d55 8b3a e85a d8bb
000001f0: e001 60ba 8441 9eba b09e adb8 361c 63b9
00000200: 7e19 8bba f629 49ba d462 1e39 9f06 bfba
00000210: f5f1 e23b d4a4 933b a87a 2e3b 5cb9 e53a
00000220: 8076 273b e555 6b3b afd5 e23a a95b 3d3b
00000230: 749c 7c3a 2fbb 48ba 0267 b3bb e90f 183b
00000240: e7ec 383a 6cec dc3a e142 2cbb f1e0 f039
00000250: a3fa 4938 f70d 0b39 c969 9cba 580b 61ba
00000260: 53fe ecb9 413c aeba
-0.0066694575 4.590008e-05 -0.024263006 -0.008375603 0.0009011918 -0.022650722 -0.02105285 0.0011741715
0.0007265523 0.0022099002 0.0039496114 0.0062816576 0.0033474914 0.0042030523 0.003573225 0.0032854832
0.0027099948 0.0018327938 0.0037799343 0.004145482 0.0038213516 0.0047274167 -0.0058689844 0.003210616
-0.03322444 -0.012390856 0.0041240547 -0.03153799 -0.023281896 0.0047919806 0.004175303 0.002413325
0.0054317005 0.008174179 0.0045177448 0.0046573007 0.0047857272 0.004614422 0.0041986722 0.0026901893
0.0050126235 0.0059503964 0.005422505 0.0062813405 -0.00445015 0.00036107423 -0.005002839 -0.005444522
0.0013185327 -0.0038959982 -0.012308451 0.00071970746 0.00061863294 0.0005158596 -0.00017845102 0.0012886691
0.00053838 0.00090083526 0.00070686435 0.0007033884 0.00017185796 -4.102607e-05 0.0008636722 0.0009787637
0.00047806095 0.0012284527 -0.0055839573 0.0027849874 -0.036237955 -0.012541731 0.0041646045 -0.03449263
-0.023562023 0.004566137 0.004170042 0.003411034 0.006134679 0.0080629485 0.0045492705 0.005592027
0.005466786 0.0050345017 0.004628554 0.003043633 0.005538325 0.006425132 0.0058228266 0.006874036
0.013867959 -0.0110842595 0.09243414 0.031160297 -0.012249964 0.087450825 0.065931804 -0.01336705
-0.011297203 -0.007466362 -0.0118935965 -0.02660242 -0.01508596 -0.010880237 -0.010955764 -0.013236318
-0.011948831 -0.0076265736 -0.013103205 -0.016166933 -0.015529024 -0.016577415 0.0012498944 -0.00044855522
0.005349044 0.006285473 -0.0013069963 0.0030889763 0.013326585 -0.0013714274 0.00035652707 -0.000501253
0.0020015026 -0.00010006235 0.0010630336 -0.0066026337 -0.0008545201 -0.0012073969 -8.278841e-05 -0.00021658916
-0.0010612456 -0.0007673794 0.0001510487 -0.0014574117 0.006925816 0.004505733 0.0026623402 0.0017526555
0.002555281 0.0035909351 0.0017306114 0.0028893745 0.00096363504 -0.0007657287 -0.005474926 0.0023202843
0.0007054344 0.0016855127 -0.002628498 0.00045943962 4.8155558e-05 0.00013261275 -0.0011933382 -0.0008584759
-0.00045202914 -0.0013293104

exp_avg_sq f4 [7, 22]
00000000: 6b02 9438 4efc b538 6d4f 493a d620 ba38
00000010: d994 d038 0ad3 453a 6773 0039 7146 e838
00000020: 50bc af38 5632 6537 4644 6d37 3ec9 ca37
00000030: a270 7337 fe4d 2a37 ee2c 5337 a486 ad37
00000040: 6d0b df37 6464 0937 f48c d537 111c a437
00000050: a816 b737 bf4f a137 4d93 8d39 5729 f136
00000060: 600d a63a 360a fa38 31c4 e936 bbf5 b93a
00000070: 80e5 353a decb 2d37 74cf a737 b452 0339
00000080: b9b5 e237 40ea 1738 c651 ce37 8c7a 4d37
00000090: a0d9 e337 f439 e737 ef3e 5538 89d3 c037
000000a0: 2e70 2e38 779b c637 6a6d 3238 1e56 b937
000000b0: fbf5 ac39 99e3 3237 c25c 633a a028 f838
000000c0: 8c1f 9135 ac03 8e3a 0f66 923a 5393 7737
000000d0: 3ee6 8437 88a0 8637 fcf8 b438 656a 0038
000000e0: 8d23 bc37 e4ec 4e37 4a7a 9d37 51e8 9837
000000f0: 7f99 3738 cb24 b537 cc0d ba37 99b9 9c37
00000100: 61f5 3638 4e50 6a37 79ae 0038 e006 8e36
00000110: 11ad 9c39 ea24 3838 9792 c136 5a35 9539
00000120: b274 3c39 53a3 f136 0f44 b036 a994 e736
00000130: a032 3637 2939 3937 e1d4 c336 db2f e736
00000140: 3cc4 2937 5ce1 d436 fd76 e336 cb84 2736
00000150: 8622 4937 6d7a e336 1c21 0537 f866 1837
00000160: e64b e638 4f33 9238 7077 4c3b ba0c d039
00000170: 8668 c738 36cd 373b 42c0 e03a cf63 f538
00000180: 2f1a 4b38 7d91 ea37 56e2 9e38 3980 4d39
00000190: fdee ba38 6057 3338 3b0d 8538 e281 9338
000001a0: 001e 6d38 0e2a 9e37 68b3 e538 46d9 9838
000001b0: 025f a738 c5f0 c738 8006 0939 be01 7f37
000001c0: 9d8c e83a f0e5 c339 dee0 f737 6e2f c73a
000001d0: f67a b13a 574a 2038 56e2 b937 59c4 d637
000001e0: 2b17 1b38 b677 8d38 7da1 ed37 6543 af38
000001f0: 2187 4738 869d 3138 6ce8 0538 349c 4537
00000200: fa85 9d38 b10f 2638 dc6b 1d38 fe81 7b38
00000210: 7072 3039 0893 d736 05dd 0b3b cad2 9539
00000220: ad22 7a37 c8ff 033b 0fe3 803a f5af 9237
00000230: 16dd d037 4e98 db37 9ac0 ea38 ca9a 7f38
00000240: b489 1538 8d2d ba37 f3da 0439 0106 1938
00000250: 8643 1338 51d3 3d37 f382 d038 92eb 5d38
00000260: d5f3 5938 73ee 9e38
7.05764e-05 8.677748e-05 0.0007679377 8.875287e-05 9.945938e-05 0.0007546401 0.00012250022 0.00011075743
8.379726e-05 1.3661183e-05 1.4142197e-05 2.4173987e-05 1.4510153e-05 1.0150949e-05 1.2587041e-05 2.0685904e-05
2.6588992e-05 8.18921e-06 2.5457215e-05 1.9563393e-05 2.182585e-05 1.922983e-05 0.00027003363 7.1871723e-06
0.0012668781 0.00011922831 6.966781e-06 0.0014187613 0.00069388 1.035907e-05 2.0004554e-05 0.00012523943
2.702592e-05 3.6219368e-05 2.4595192e-05 1.2247485e-05 2.7161848e-05 2.7564332e-05 5.084177e-05 2.2986687e-05
4.158931e-05 2.3675833e-05 4.2540407e-05 2.209382e-05 0.00032989666 1.06626185e-05 0.0008673185 0.000118331285
1.0812523e-06 0.0010834835 0.0011169332 1.4756649e-05 1.5842841e-05 1.6048798e-05 8.629446e-05 3.0616666e-05
2.2427901e-05 1.2333712e-05 1.8772804e-05 1.8227993e-05 4.3773554e-05 2.1594014e-05 2.2179353e-05 1.8683075e-05
4.362071e-05 1.3966184e-05 3.068007e-05 4.23273e-06 0.00029883583 4.3903397e-05 5.7689135e-06 0.00028459245
0.0001797255 7.201373e-06 5.253132e-06 6.901643e-06 1.0859832e-05 1.1040168e-05 5.8362352e-06 6.8899076e-06
1.0118874e-05 6.3443276e-06 6.7789792e-06 2.4962235e-06 1.1988572e-05 6.7793794e-06 7.935127e-06 9.08388e-06
0.00010981392 6.9713795e-05 0.003119912 0.00039682334 9.5085285e-05 0.00280459 0.0017147141 0.00011701101
4.8423357e-05 2.7962722e-05 7.5761855e-05 0.0001959809 8.913686e-05 4.27583e-05 6.3443986e-05 7.033699e-05
5.6533143e-05 1.8854651e-05 0.00010952988 7.288395e-05 7.980877e-05 9.533906e-05 0.0001306776 1.519959e-05
0.0017742101 0.00037364615 2.9549406e-05 0.001519663 0.0013540674 3.8216207e-05 2.2159114e-05 2.560222e-05
3.6976457e-05 6.745702e-05 2.83278e-05 8.3572035e-05 4.7571146e-05 4.2346794e-05 3.192613e-05 1.1778484e-05
7.5112985e-05 3.9592098e-05 3.753217e-05 5.9964128e-05 0.00016827299 6.424616e-06 0.0021341455 0.00028576545
1.4909235e-05 0.0020141471 0.0009833294 1.7486493e-05 2.4898483e-05 2.6177757e-05 0.00011193864 6.0940896e-05
3.5652614e-05 2.219414e-05 0.00012670066 3.6483634e-05 3.5110417e-05 1.1314479e-05 9.942604e-05 5.2909898e-05
5.1963918e-05 7.578442e-05

exp_avg f4 [7, 7]
00000000: 72e2 a0b5 e0ca 013b cee6 b73a 148c 263b
00000010: 9a51 0d3c 7417 b03b 437c 8f3b 9164 613b
00000020: e238 f23a 9942 0b3b 68c2 603b 43a3 3b3c
00000030: 6e42 b63b dfde ce3b 7568 303a 2b42 b639
00000040: d88a f3ba f18d 173a 201f 0a3b 1bd1 983a
00000050: 170e b43a 4a54 713b 0bfd 533b 19b8 113b
00000060: a16f 773b 7fa2 163c 7a2c ef3b 8ec1 023c
00000070: cbfa 0abc 482d 05bc 1184 9cbb 89b1 0fbc
00000080: b70a 42bd d395 1cbc 783d e8bb ad1e 72ba
00000090: 23b0 02b9 b78a 7638 fb4b a3ba 2592 0a3c
000000a0: 4eec 51bc 8fdf 003b 9852 a43a d4d9 0f3a
000000b0: 8dbc 123a d20e 28ba f2bf df3b 0471 183b
000000c0: a093 66bc
-1.1986833e-06 0.001980476 0.0014030577 0.0025413083 0.008625412 0.0053738896 0.004378827 0.0034392218
0.0018480087 0.0021249412 0.0034295563 0.011452499 0.0055621183 0.0063131894 0.00067294325 0.00034763044
-0.0018580807 0.0005781344 0.002107568 0.0011658998 0.0013737109 0.0036823922 0.003234687 0.0022234975
0.0037755745 0.0091940155 0.007299003 0.007980717 -0.008482645 -0.008128472 -0.0047764857 -0.008770355
-0.0473735 -0.009557205 -0.007087406 -0.00092361384 -0.00012463382 5.878016e-05 -0.0012458557 0.008457695
-0.012812687 0.0019664501 0.0012536822 0.0005487476 0.0005597554 -0.00064109 0.0068283016 0.0023260722
-0.0140732825

exp_avg_sq f4 [7, 7]
00000000: 6f27 d838 0989 bd37 1e22 cf36 af3d 6c37
00000010: 6570 b537 fc4a a437 bd90 6337 4a0e 8e37
00000020: 76b3 8a39 3e11 8b37 62bc 9c37 dc66 ef37
00000030: c644 be37 1710 ab37 c85b 2b37 eb6f 0138
00000040: b0af 1c39 78d8 3d37 e520 4437 6fd5 de37
00000050: c46f 0b37 5c0a a836 fa12 3937 90cb ac36
00000060: 1767 c736 e3cb 5937 4e9a 7937 3fac c037
00000070: ca6b 1b38 ef9e fb37 2623 5f37 e293 5938
00000080: 0a95 033a 2c89 4038 bdb9 9b38 e112 c637
00000090: a631 0438 746b 8537 fe21 2638 cd3f 4938
000000a0: 17b8 5b39 d676 4c38 890b a837 2031 9f37
000000b0: 21f0 0737 3ddc 4838 575e 3938 aab1 f837
000000c0: 34c9 d939
0.00010307028 2.2594368e-05 6.1730525e-06 1.4081058e-05 2.162922e-05 1.958524e-05 1.3563954e-05 1.6934373e-05
0.0002645512 1.657812e-05 1.8684372e-05 2.8538918e-05 2.268179e-05 2.0392281e-05 1.0213764e-05 3.086023e-05
0.00014942768 1.1315678e-05 1.1690169e-05 2.656385e-05 8.311068e-06 5.007996e-06 1.1031278e-05 5.1496972e-06
5.9426634e-06 1.2981679e-05 1.4877483e-05 2.2968392e-05 3.7055266e-05 2.999554e-05 1.3300019e-05 5.187456e-05
0.0005019462 4.590412e-05 7.4255724e-05 2.361223e-05 3.151749e-05 1.5904872e-05 3.9609142e-05 4.7981554e-05
0.00020954046 4.8748065e-05 2.0032532e-05 1.8977153e-05 8.102536e-06 4.788883e-05 4.4195298e-05 2.9646635e-05
0.00041539373

exp_avg f4 [7]
00000000: 8c02 c73c 58e9 0b3d 1d8a 8f3b 2827 193d
00000010: 9ce5 c0bd 46bf 97bb f12f 51bb
0.024293207 0.03415808 0.004380478 0.037390858 -0.094187945 -0.004630956 -0.0031919444

exp_avg_sq f4 [7]
00000000: e714 793a f4d3 ca3a fe87 9e3a 4aeb af39
00000010: edfc 583b 84f7 fc3a 3b19 183b
0.0009501711 0.0015474544 0.0012094972 0.00033553905 0.003310974 0.001929984 0.0023208398

exp_avg f4 [7]
00000000: 5c0a c73c d7ee 0b3d 2684 8f3b 3e2b 193d
00000010: b8e6 c0bd 3ce1 97bb 2690 51bb
0.024296932 0.034163322 0.004379767 0.037394755 -0.09419006 -0.0046350043 -0.0031976788

exp_avg_sq f4 [7]
00000000: a615 793a 73d4 ca3a 1e88 9e3a 60f0 af39
00000010: 53fd 583b 5af7 fc3a 8219 183b
0.0009501822 0.0015474692 0.001209501 0.00033557694 0.0033109977 0.0019299791 0.0023208563

exp_avg f4 [7, 22]
00000000: d64c 1ebc 13ea b7bb 6178 ef3c c24b 503b
00000010: bba0 ddbb 7e2c 003d b567 36bc 91ed cebb
00000020: 879e a6bb 0098 1cbb 2dae 47b9 ccc2 0dbc
00000030: b040 b3bb c767 5fbb 711a a4bb 503a a2bb
00000040: 4397 2ebb 05d9 e6bb a660 7fbb 9ca7 64bb
00000050: 13b8 94bb d79e 6dbb e17d 033b 723c 3939
00000060: 2a07 29bc 2961 8a3a 3986 5738 e684 2bbc
00000070: 8838 693b 8bbc d737 fb69 9f3a 28f8 663a
00000080: 51c6 a03a 91b5 203b 44dd cc3a 6aa9 063b
00000090: 4f14 cd3a 41a0 f13a f7ba 683a ac12 2a3b
000000a0: 1971 b33a 96d3 c33a d0d0 aa3a 3f4e bf3a
000000b0: 2689 5abc 0ff0 303b 2394 be3c 732b 83bc
000000c0: 599d a73a a620 c03c e14e f0bc d946 103b
000000d0: 842d 9cba 694f 1dbb 0fce 06bc eb90 81bb
000000e0: fcb1 87bb ff3d 1aba da1d 9dbb 429c d1bb
000000f0: 41d8 bdba 0beb cfbb 219b 17bb 4459 53bb
00000100: 7c4d f2ba e87a 74bb ab73 0abc d929 ca3a
00000110: 143b 46bb de1f 1ebc 9ef8 3d3b f88a 30bb
00000120: f028 adbc 826f c53a 3e8a b7b9 4b1b 9db9
00000130: f5f6 a9b9 7483 1cba f96b dab7 83ae 2f3a
00000140: ba69 993a 1c76 34ba e232 27b8 4d70 913a
00000150: 2a1c 5d39 7536 7dba 04b0 9439 208b ab39
00000160: a1e7 193c 23f3 9239 146a fcbc a1a8 d53b
00000170: 5ca5 c338 7371 01bd fa18 923c 277e c038
00000180: 2eb8 5d3b 38e9 583b 95b7 8f3b c9eb f43b
00000190: 49a7 ac3b e589 9a3b b7e4 983b f884 c53b
000001a0: edf9 283b a77c 003c efaa 803b 39da 983b
000001b0: 47b3 733b 436f 913b 5c1c 543c b30d bf39
000001c0: 38fd bd3b 0a3c 123c f1c7 fd3a b490 b43b
000001d0: b032 c33c c0f1 ff3a 7d11 13b9 0271 e7b9
000001e0: 3a46 f039 2f82 04ba b043 5a3a 0ada a2bb
000001f0: 77b7 33b9 e7d6 1c3a 5295 1dba 58b9 f0ba
00000200: 647c 96ba 983d b2b9 d66c 63ba b893 44ba
00000210: 6115 253c 02b3 c8b9 93c7 3bbc d0b6 263c
00000220: 307d 2739 9f92 4fbc 90f7 be3c 0e5d 4637
00000230: b4c2 bd3a 8c09 983a e32b 463b 0fd9 673b
00000240: bbaa 1c3b 6c3b c637 f048 f63a 9bae 6e3b
00000250: 47f0 6a3a 64a9 4c3b 2522 a43a 2021 d73a
00000260: 29c8 a93a 6f3c d33a
-0.009661874 -0.0056126206 0.029232206 0.0031783436 -0.0067635453 0.03129243 -0.011133124 -0.006314941
-0.005084816 -0.002389431 -0.00019043004 -0.0086524 -0.005470358 -0.0034088956 -0.005008035 -0.004950799
-0.0026640452 -0.0070449137 -0.003896752 -0.0034889942 -0.004538545 -0.0036258006 0.0020064043 0.00017665492
-0.010316649 0.001055752 5.1385e-05 -0.010468697 0.0035586674 2.5717794e-05 0.0012162322 0.0008810782
0.0012266134 0.0024522285 0.0015629907 0.0020547756 0.0015646311 0.00184346 0.00088779576 0.002595107
0.0013690322 0.0014940377 0.0013032202 0.0014595463 -0.013338363 0.0026998555 0.023263996 -0.01601193
0.0012787982 0.023453068 -0.029334487 0.0022014885 -0.001191542 -0.002400363 -0.008227839 -0.003954043
-0.0041410904 -0.0005883872 -0.0047948183 -0.006396801 -0.0014484004 -0.006345158 -0.0023133236 -0.0032249251
-0.0018486227 -0.0037304703 -0.008450429 0.0015423849 -0.0030247616 -0.009651152 0.0028987299 -0.00269383
-0.021137685 0.0015063139 -0.00035007478 -0.00029965708 -0.0003241819 -0.0005970516 -2.6037904e-05 0.00067017245
0.0011704483 -0.0006884055 -3.986329e-05 0.001109609 0.00021086694 -0.0009659299 0.00028359902 0.00032719318
0.009393604 0.0002802844 -0.0308123 0.0065203463 9.329125e-05 -0.031602334 0.017834175 9.178771e-05
0.0033831703 0.0033097994 0.0043858984 0.007474397 0.0052689654 0.0047161453 0.004665937 0.006027814
0.0025783733 0.007842219 0.003926627 0.004664686 0.0037185715 0.0044383123 0.0129462145 0.00036440566
0.0057980083 0.008925447 0.0019361955 0.005510414 0.02382788 0.0019527003 -0.00014025527 -0.0004414395
0.0004582869 -0.0005054799 0.0008326126 -0.00496984 -0.00017139116 0.00059829507 -0.0006011325 -0.0018365784
-0.0011481163 -0.00033996697 -0.00086755806 -0.00074988184 0.010075898 -0.00038280344 -0.011461156 0.010175422
0.00015972997 -0.012669235 0.023311406 1.1823386e-05 0.0014477582 0.0011599525 0.003023856 0.003537718
0.0023905474 2.363111e-05 0.0018790048 0.003641999 0.0008962196 0.0031228894 0.0012522383 0.001641307
0.0012953329 0.0016116033

exp_avg_sq f4 [7, 22]
00000000: 6825 5c39 c6bc 1838 85b6 0c3b a89f 9e38
00000010: ad13 6838 1755 143b 762e 1b3a ed21 4438
00000020: b1a6 0639 0042 c837 5c03 f737 22a2 ed38
00000030: d661 6038 b385 f037 ca5e 6838 fdf2 7f38
00000040: 34cc 8e37 f0bd ea38 c08e 1138 1384 9238
00000050: 0d51 2338 f132 2538 ed17 a937 57c0 5935
00000060: 43ef e438 90a7 d236 cc40 cf34 728d 0139
00000070: 119f 5838 9856 7f35 332b 2736 e528 0b37
00000080: ec99 d135 9a8e 6936 a4ec 0c36 ba94 0e36
00000090: 7642 2836 4447 5f36 497e 5d35 9cd7 b936
000000a0: 19a0 f935 77d7 b836 7d3d d135 cab1 0f36
000000b0: e1c6 8e39 b479 c936 b4ac 393b 80e2 a939
000000c0: a5a0 0537 7ff9 353b d148 9c3a 3f4b d236
000000d0: bac2 0838 83a3 1938 9720 3f39 d2ed c538
000000e0: 8fe9 6f38 c201 2038 c72c b338 8747 db38
000000f0: faa1 8b37 3469 1739 0974 1938 1777 d838
00000100: 4ac1 0b38 8920 8538 36e2 7c39 2ad3 2836
00000110: 8129 3f3a 869f 3e39 f848 1937 cf43 4d3a
00000120: 2ced 903a 2bfa 5336 8c47 ab37 fea7 6037
00000130: 36ff b737 3fbd 3038 b2e5 aa37 e0ca 8637
00000140: 7fd7 9237 c62a 1038 b2d4 cf36 bbe2 0d38
00000150: 1dc5 4337 777c 2e38 7d48 4537 ae2a 8b37
00000160: 235f 1a38 e5a2 a135 5476 a039 10a2 0638
00000170: cb34 da35 7183 a239 624a 2139 85a5 af35
00000180: 9d50 b236 70e4 a336 55cd 3f37 f319 6637
00000190: a204 0b37 77ab b336 b524 1237 69b9 2a37
000001a0: c1c5 0a36 4ddb 8237 45d5 9436 0c91 4a37
000001b0: ff4e 8936 dcc9 dc36 1067 2938 6e94 9c36
000001c0: 1c9a 5f3a cf4e 1138 8c16 4236 f451 603a
000001d0: 5b2b 3139 e69a 3936 6ee2 6837 50ef 2037
000001e0: 183e 3837 53dd f637 40ec 5737 6172 3a38
000001f0: 211e d037 85ee 7137 dcf0 f136 4c50 5938
00000200: dd7f 9037 d2e6 d237 7833 5137 2dfb 7337
00000210: 417f e837 201b 8c36 4b66 863a 0331 a338
00000220: d077 dc35 918e 7f3a c4a8 7439 6b5d ba35
00000230: 52ef 3037 130d 3337 14de 8037 ccec ee37
00000240: 964e 3338 98be a937 433d 5d38 690b 9137
00000250: a73a 0337 8006 5f38 1fd5 9737 2837 1638
00000260: fc51 7037 864c ad37
0.0002099477 3.6415433e-05 0.0021471095 7.5637654e-05 5.5331435e-05 0.0022633725 0.0005919704 4.6761637e-05
0.00012841333 2.3872592e-05 2.9446259e-05 0.0001133124 5.349688e-05 2.8672488e-05 5.540139e-05 6.1023038e-05
1.7022809e-05 0.00011193368 3.470364e-05 6.986423e-05 3.8937713e-05 3.938651e-05 2.0157511e-05 8.111869e-07
0.00010916453 6.2779945e-06 3.86039e-07 0.00012355091 5.1646555e-05 9.5120913e-07 2.4910084e-06 8.294567e-06
1.5616511e-06 3.480271e-06 2.0999369e-06 2.124622e-06 2.5072636e-06 3.3271072e-06 8.2512685e-07 5.53853e-06
1.859854e-06 5.5087107e-06 1.5589609e-06 2.1412147e-06 0.00027232527 6.004435e-06 0.00283317 0.00032402948
7.964821e-06 0.002776712 0.0011923556 6.2672475e-06 3.260628e-05 3.6630325e-05 0.0001822732 9.4379895e-05
5.719956e-05 3.814861e-05 8.5437256e-05 0.00010456057 1.6645517e-05 0.00014439673 3.658611e-05 0.00010321865
3.3320197e-05 6.347994e-05 0.00024116863 2.5156864e-06 0.00072922563 0.00018179239 9.1365e-06 0.00078302337
0.0011057011 3.1587067e-06 2.0418105e-05 1.3390554e-05 2.1934142e-05 4.213792e-05 2.037254e-05 1.6068516e-05
1.7504904e-05 3.437211e-05 6.1938417e-06 3.382818e-05 1.16688e-05 4.160075e-05 1.17589925e-05 1.6589966e-05
3.6805064e-05 1.2042843e-06 0.0003060574 3.2099022e-05 1.625763e-06 0.0003099698 0.00015381866 1.3086689e-06
5.314198e-06 4.884372e-06 1.1432295e-05 1.371511e-05 8.286124e-06 5.354577e-06 8.710825e-06 1.0175959e-05
2.067871e-06 1.5599328e-05 4.4355716e-06 1.207391e-05 4.0921145e-06 6.5800104e-06 4.0388724e-05 4.666442e-06
0.0008529739 3.464409e-05 2.8921377e-06 0.0008557134 0.00016896187 2.765731e-06 1.3880997e-05 9.592462e-06
1.0981712e-05 2.9428547e-05 1.2870005e-05 4.445238e-05 2.4809562e-05 1.4420254e-05 7.2103994e-06 5.1811614e-05
1.7225679e-05 2.5141435e-05 1.2469354e-05 1.454241e-05 2.7715812e-05 4.175483e-06 0.0010253874 7.781575e-05
1.6426147e-06 0.0009748722 0.00023332523 1.3885268e-06 1.0546139e-05 1.06722755e-05 1.5362202e-05 2.8482078e-05
4.2750115e-05 2.0235122e-05 5.274756e-05 1.729066e-05 7.8218645e-06 5.3173397e-05 1.8099845e-05 3.5814155e-05
1.4324203e-05 2.0658841e-05

exp_avg f4 [7, 7]
00000000: c455 c1bc 20d8 fbba 83d8 e13a 1c46 41b9
00000010: 8e99 04bb 8914 2dbb c653 ccba 03cd 1a3b
00000020: 9175 dc39 61fe 183b 9d07 ca3a 1990 7c3a
00000030: 597d e33a 91d7 d33a 5ed7 abb9 bb14 67ba
00000040: 525b b6bc d14e 5f3a d887 06bb c0d1 983a
00000050: 4f6b ebba ab5e 5a3b f597 0138 0317 7b3b
00000060: ee2b 12bc c6da 84ba ba00 c03a c4e2 c53a
00000070: 76ad d33b ed6b 003b c297 1d3c 01f0 9a3b
00000080: ac0a 483b c787 573b b6eb 853b 2378 653b
00000090: 7cdd eab9 47b9 973a 1891 4939 7c1d 8db9
000000a0: e729 15bc 9ae0 c437 f3bc c63b b2a8 223a
000000b0: 210c f63b 3fc2 c13a 29ac 613a fa18 d83a
000000c0: db1b 9bbb
-0.023600467 -0.001921419 0.0017230663 -0.00018432032 -0.0020233127 -0.0026409945 -0.0015588931 0.0023620732
0.00042049264 0.002334498 0.0015413646 0.00096345093 0.0017356082 0.0016162266 -0.00032776123 -0.000881504
-0.022260342 0.00085185195 -0.0020527747 0.001165919 -0.0017961058 0.0033320587 3.0897518e-05 0.0038313277
-0.0089216065 -0.0010136 0.0014648654 0.0015097489 0.006459887 0.0019595579 0.009618701 0.0047283177
0.003052394 0.0032887326 0.004086937 0.0035014234 -0.00044796977 0.0011575603 0.00019222905 -0.00026915583
-0.009104229 2.3469609e-05 0.006065005 0.0006204947 0.00750877 0.0014782621 0.0008608723 0.0016486936
-0.0047335452

exp_avg_sq f4 [7, 7]
00000000: 208c da39 7b8c 0e37 9643 be38 dc9a be37
00000010: e804 f637 3453 9e37 0ddd 9f37 d0e7 7c36
00000020: 6aa6 0137 b6dd 8136 3251 e035 86fb 6136
00000030: fc45 1c36 dd1b 3036 a910 9e38 ad52 3037
00000040: 89e9 1e3a eefb b937 fd77 3938 7403 d037
00000050: 224c 2438 2f7a e437 a988 6036 6141 df37
00000060: bbf8 f238 2f03 c137 38e9 1237 bc25 4d37
00000070: 9834 6d37 ad0a 1236 15ea 2738 7f36 e636
00000080: d17d bb36 dc5c 7436 b23f 1137 b120 7b37
00000090: 274a 7a36 6a64 0538 b138 3c37 2a0f 4237
000000a0: 952e 0039 f1d0 0837 4a40 a137 6e25 7536
000000b0: 5150 6f38 72e3 1e37 66de 8b37 60ca f736
000000c0: f0f2 2039
0.00041684601 8.496568e-06 9.072495e-05 2.2721877e-05 2.932777e-05 1.8873812e-05 1.9057212e-05 3.7685859e-06
7.7277455e-06 3.87031e-06 1.6712931e-06 3.3674019e-06 2.3286548e-06 2.6242262e-06 7.53713e-05 1.0509667e-05
0.0006062021 2.2171032e-05 4.4219185e-05 2.479714e-05 3.917155e-05 2.7236614e-05 3.3458148e-06 2.6614116e-05
0.00011585789 2.3008875e-05 8.756579e-06 1.2227738e-05 1.4138546e-05 2.176191e-06 4.003391e-05 6.8608783e-06
5.5876812e-06 3.6412885e-06 8.657504e-06 1.4968377e-05 3.7296065e-06 3.180319e-05 1.1218873e-05 1.1566832e-05
0.00012224384 8.15488e-06 1.9222633e-05 3.6529632e-06 5.705684e-05 9.47049e-06 1.6673654e-05 7.384733e-06
0.0001534929

exp_avg f4 [7]
00000000: f26f f7bc 18ab 333c c454 cfbc 8bfe 7339
00000010: e4fb 073d 99e9 a1bb a97f 5c3c
-0.030204747 0.010966085 -0.025308974 0.0002326911 0.033199206 -0.004941177 0.013458171

exp_avg_sq f4 [7]
00000000: fa03 1d3b 5bf9 0839 d212 4d3b 3065 803a
00000010: 9d5a b539 8418 6c3a e8d7 8a3a
0.002395867 0.00013062863 0.0031291735 0.0009795781 0.00034590522 0.00090063387 0.001059291
